#indexing_map = #xla.indexing_map<"(d0) -> (d0 floordiv 4), domain: d0 in [0, 63]">
#indexing_map1 = #xla.indexing_map<"(d0) -> (d0 mod 4), domain: d0 in [0, 63]">
#indexing_map2 = #xla.indexing_map<"(tid_1) -> (tid_1 * 256), domain: tid_1 in [0, 3]">
#indexing_map3 = #xla.indexing_map<"(d0) -> (d0 * 256), domain: d0 in [0, 63]">
#indexing_map4 = #xla.indexing_map<"(tid_0) -> (tid_0 * 1024), domain: tid_0 in [0, 15]">
module {
  tt.func @fusion_21_impl(%arg0: !tt.ptr<f32> {tt.divisibility = 16 : i32}, %arg1: !tt.ptr<bf16> {tt.divisibility = 16 : i32}, %arg2: !tt.ptr<bf16> {tt.divisibility = 16 : i32}, %arg3: !tt.ptr<bf16> {tt.divisibility = 16 : i32}, %arg4: !tt.ptr<bf16> {tt.divisibility = 16 : i32}, %arg5: !tt.ptr<bf16> {tt.divisibility = 16 : i32}) {
    %cst = arith.constant dense<9.765625E-4> : tensor<1xf32>
    %c0_i64 = arith.constant 0 : i64
    %c0_i32 = arith.constant 0 : i32
    %c16_i64 = arith.constant 16 : i64
    %c1024_i64 = arith.constant 1024 : i64
    %c1_i64 = arith.constant 1 : i64
    %0 = tt.get_program_id x : i32
    %1 = arith.extsi %0 : i32 to i64
    %2 = arith.index_castui %1 : i64 to index
    %3 = xla.apply_indexing #indexing_map(%2)
    %4 = xla.apply_indexing #indexing_map1(%2)
    %5 = xla.apply_indexing #indexing_map2(%4)
    %6 = arith.index_castui %3 : index to i64
    %7 = arith.subi %c16_i64, %6 : i64
    %8 = arith.index_castui %5 : index to i64
    %9 = arith.subi %c1024_i64, %8 : i64
    %10 = xla.apply_indexing #indexing_map3(%2)
    %11 = arith.index_castui %10 : index to i64
    %12 = tt.addptr %arg4, %11 : !tt.ptr<bf16>, i64
    %13 = tt.make_tensor_ptr %12, [%7, %9], [%c1024_i64, %c1_i64], [%c0_i32, %c0_i32] {order = array<i32: 1, 0>} : <tensor<1x256xbf16>>
    %14 = tt.load %13 : !tt.ptr<tensor<1x256xbf16>>
    %15 = arith.extf %14 : tensor<1x256xbf16> to tensor<1x256xf32>
    %16 = tt.addptr %arg3, %11 : !tt.ptr<bf16>, i64
    %17 = tt.make_tensor_ptr %16, [%7, %9], [%c1024_i64, %c1_i64], [%c0_i32, %c0_i32] {order = array<i32: 1, 0>} : <tensor<1x256xbf16>>
    %18 = tt.load %17 : !tt.ptr<tensor<1x256xbf16>>
    %19 = arith.extf %18 : tensor<1x256xbf16> to tensor<1x256xf32>
    %20 = tt.addptr %arg2, %11 : !tt.ptr<bf16>, i64
    %21 = tt.make_tensor_ptr %20, [%7, %c1_i64, %9], [%c1024_i64, %c0_i64, %c1_i64], [%c0_i32, %c0_i32, %c0_i32] {order = array<i32: 2, 1, 0>} : <tensor<1x1x256xbf16>>
    %22 = tt.load %21 : !tt.ptr<tensor<1x1x256xbf16>>
    %23 = tt.trans %22 {order = array<i32: 1, 0, 2>} : tensor<1x1x256xbf16> -> tensor<1x1x256xbf16>
    %24 = tt.reshape %23 : tensor<1x1x256xbf16> -> tensor<1x256xbf16>
    %25 = arith.extf %24 : tensor<1x256xbf16> to tensor<1x256xf32>
    %26 = arith.addf %19, %25 : tensor<1x256xf32>
    %27 = arith.addf %15, %26 : tensor<1x256xf32>
    %28 = xla.apply_indexing #indexing_map4(%3)
    %29 = arith.index_castui %28 : index to i64
    %30 = tt.addptr %arg4, %29 : !tt.ptr<bf16>, i64
    %31 = tt.make_tensor_ptr %30, [%7, %c1024_i64], [%c1024_i64, %c1_i64], [%c0_i32, %c0_i32] {order = array<i32: 1, 0>} : <tensor<1x1024xbf16>>
    %32 = tt.load %31 : !tt.ptr<tensor<1x1024xbf16>>
    %33 = arith.extf %32 : tensor<1x1024xbf16> to tensor<1x1024xf32>
    %34 = tt.addptr %arg3, %29 : !tt.ptr<bf16>, i64
    %35 = tt.make_tensor_ptr %34, [%7, %c1024_i64], [%c1024_i64, %c1_i64], [%c0_i32, %c0_i32] {order = array<i32: 1, 0>} : <tensor<1x1024xbf16>>
    %36 = tt.load %35 : !tt.ptr<tensor<1x1024xbf16>>
    %37 = arith.extf %36 : tensor<1x1024xbf16> to tensor<1x1024xf32>
    %38 = tt.addptr %arg2, %29 : !tt.ptr<bf16>, i64
    %39 = tt.make_tensor_ptr %38, [%7, %c1_i64, %c1024_i64], [%c1024_i64, %c0_i64, %c1_i64], [%c0_i32, %c0_i32, %c0_i32] {order = array<i32: 2, 1, 0>} : <tensor<1x1x1024xbf16>>
    %40 = tt.load %39 : !tt.ptr<tensor<1x1x1024xbf16>>
    %41 = tt.trans %40 {order = array<i32: 1, 0, 2>} : tensor<1x1x1024xbf16> -> tensor<1x1x1024xbf16>
    %42 = tt.reshape %41 : tensor<1x1x1024xbf16> -> tensor<1x1024xbf16>
    %43 = arith.extf %42 : tensor<1x1024xbf16> to tensor<1x1024xf32>
    %44 = arith.addf %37, %43 : tensor<1x1024xf32>
    %45 = arith.addf %33, %44 : tensor<1x1024xf32>
    %46 = arith.mulf %45, %45 : tensor<1x1024xf32>
    %47 = "tt.reduce"(%46) <{axis = 1 : i32}> ({
    ^bb0(%arg6: f32, %arg7: f32):
      %65 = arith.addf %arg6, %arg7 : f32
      tt.reduce.return %65 : f32
    }) : (tensor<1x1024xf32>) -> tensor<1xf32>
    %48 = arith.mulf %47, %cst : tensor<1xf32>
    %49 = tt.load %arg0 : !tt.ptr<f32>
    %50 = tt.splat %49 : f32 -> tensor<1xf32>
    %51 = arith.addf %48, %50 : tensor<1xf32>
    %52 = tt.extern_elementwise %51 {libname = "libdevice", libpath = "/usr/local/cuda-12.6/nvvm/libdevice/libdevice.10.bc", pure = true, symbol = "__nv_rsqrtf"} : (tensor<1xf32>) -> tensor<1xf32>
    %53 = tt.expand_dims %52 {axis = 1 : i32} : tensor<1xf32> -> tensor<1x1xf32>
    %54 = tt.broadcast %53 : tensor<1x1xf32> -> tensor<1x256xf32>
    %55 = arith.mulf %27, %54 : tensor<1x256xf32>
    %56 = tt.addptr %arg1, %8 : !tt.ptr<bf16>, i64
    %57 = tt.make_tensor_ptr %56, [%9], [%c1_i64], [%c0_i32] {order = array<i32: 0>} : <tensor<256xbf16>>
    %58 = tt.load %57 : !tt.ptr<tensor<256xbf16>>
    %59 = arith.extf %58 : tensor<256xbf16> to tensor<256xf32>
    %60 = tt.expand_dims %59 {axis = 0 : i32} : tensor<256xf32> -> tensor<1x256xf32>
    %61 = arith.mulf %55, %60 : tensor<1x256xf32>
    %62 = arith.truncf %61 : tensor<1x256xf32> to tensor<1x256xbf16>
    %63 = tt.addptr %arg5, %11 : !tt.ptr<bf16>, i64
    %64 = tt.make_tensor_ptr %63, [%7, %9], [%c1024_i64, %c1_i64], [%c0_i32, %c0_i32] {order = array<i32: 1, 0>} : <tensor<1x256xbf16>>
    tt.store %64, %62 : !tt.ptr<tensor<1x256xbf16>>
    tt.return
  }
}
