HloModule SyncTensorsGraph.2069, is_scheduled=true, entry_computation_layout={(bf16[128]{0}, f32[], bf16[4096,1024]{1,0}, bf16[1024]{0}, s32[16]{0}, /*index=5*/bf16[151936,1024]{1,0}, bf16[1024,2048]{1,0}, bf16[1024,3072]{1,0}, bf16[6144,1024]{1,0}, bf16[1024]{0}, /*index=10*/bf16[1024,2048]{1,0}, bf16[1024,3072]{1,0}, bf16[6144,1024]{1,0}, bf16[1024]{0}, bf16[1024,2048]{1,0}, /*index=15*/bf16[1024,3072]{1,0}, bf16[6144,1024]{1,0}, bf16[1024]{0}, bf16[1024,2048]{1,0}, bf16[1024,3072]{1,0}, /*index=20*/bf16[6144,1024]{1,0}, bf16[1024]{0}, bf16[1024,2048]{1,0}, bf16[1024,3072]{1,0}, bf16[6144,1024]{1,0}, /*index=25*/bf16[1024]{0}, bf16[1024,2048]{1,0}, bf16[1024,3072]{1,0}, bf16[6144,1024]{1,0}, bf16[1024]{0}, /*index=30*/bf16[1024,2048]{1,0}, bf16[1024,3072]{1,0}, bf16[6144,1024]{1,0}, bf16[1024]{0}, bf16[1024,2048]{1,0}, /*index=35*/bf16[1024,3072]{1,0}, bf16[6144,1024]{1,0}, bf16[1024]{0}, bf16[1024,2048]{1,0}, bf16[1024,3072]{1,0}, /*index=40*/bf16[6144,1024]{1,0}, bf16[1024]{0}, bf16[1024,2048]{1,0}, bf16[1024,3072]{1,0}, bf16[6144,1024]{1,0}, /*index=45*/bf16[1024]{0}, bf16[1024,2048]{1,0}, bf16[1024,3072]{1,0}, bf16[6144,1024]{1,0}, bf16[1024]{0}, /*index=50*/bf16[1024,2048]{1,0}, bf16[1024,3072]{1,0}, bf16[6144,1024]{1,0}, bf16[1024]{0}, bf16[1024,2048]{1,0}, /*index=55*/bf16[1024,3072]{1,0}, bf16[6144,1024]{1,0}, bf16[1024]{0}, bf16[1024,2048]{1,0}, bf16[1024,3072]{1,0}, /*index=60*/bf16[6144,1024]{1,0}, bf16[1024]{0}, bf16[1024,2048]{1,0}, bf16[1024,3072]{1,0}, bf16[6144,1024]{1,0}, /*index=65*/bf16[1024]{0}, bf16[1024,2048]{1,0}, bf16[1024,3072]{1,0}, bf16[6144,1024]{1,0}, bf16[1024]{0}, /*index=70*/bf16[1024,2048]{1,0}, bf16[1024,3072]{1,0}, bf16[6144,1024]{1,0}, bf16[1024]{0}, bf16[1024,2048]{1,0}, /*index=75*/bf16[1024,3072]{1,0}, bf16[6144,1024]{1,0}, bf16[1024]{0}, bf16[1024,2048]{1,0}, bf16[1024,3072]{1,0}, /*index=80*/bf16[6144,1024]{1,0}, bf16[1024]{0}, bf16[1024,2048]{1,0}, bf16[1024,3072]{1,0}, bf16[6144,1024]{1,0}, /*index=85*/bf16[1024]{0}, bf16[1024,2048]{1,0}, bf16[1024,3072]{1,0}, bf16[6144,1024]{1,0}, bf16[1024]{0}, /*index=90*/bf16[1024,2048]{1,0}, bf16[1024,3072]{1,0}, bf16[6144,1024]{1,0}, bf16[1024]{0}, bf16[1024,2048]{1,0}, /*index=95*/bf16[1024,3072]{1,0}, bf16[6144,1024]{1,0}, bf16[1024]{0}, bf16[1024,2048]{1,0}, bf16[1024,3072]{1,0}, /*index=100*/bf16[6144,1024]{1,0}, bf16[1024]{0}, bf16[1024,2048]{1,0}, bf16[1024,3072]{1,0}, bf16[6144,1024]{1,0}, /*index=105*/bf16[1024]{0}, bf16[1024,2048]{1,0}, bf16[1024,3072]{1,0}, bf16[6144,1024]{1,0}, bf16[1024]{0}, /*index=110*/s32[16]{0}, bf16[40960,128]{1,0}, bf16[2,4233,16,8,128]{4,3,2,1,0})->(bf16[16,8,128]{2,1,0}, bf16[16,8,128]{2,1,0}, bf16[4233,16,8,128]{3,2,1,0}, bf16[4233,16,8,128]{3,2,1,0})}, frontend_attributes={fingerprint_before_lhs="d6dd21a10e76daaaad4a0b286a8f745d"}

%fused_gather (param_0.9: bf16[151936,1024], param_1.1003: s32[16]) -> bf16[16,1,1024] {
  %param_0.9 = bf16[151936,1024]{1,0} parameter(0)
  %param_1.1003 = s32[16]{0} parameter(1)
  %convert.1242.1 = s64[16]{0} convert(s32[16]{0} %param_1.1003), metadata={op_type="xla__cast" op_name="xla__cast" source_file="/usr/local/lib/python3.10/site-packages/torch/_ops.py" source_line=756}
  %convert.1244.1 = u32[16]{0} convert(s64[16]{0} %convert.1242.1), metadata={op_type="aten__index_select" op_name="aten__index_select" source_file="/usr/local/lib/python3.10/site-packages/torch/_ops.py" source_line=756}
  %bitcast.3988.1 = u32[16,1]{1,0} bitcast(u32[16]{0} %convert.1244.1)
  ROOT %gather.3 = bf16[16,1,1024]{2,0,1} gather(bf16[151936,1024]{1,0} %param_0.9, u32[16,1]{1,0} %bitcast.3988.1), offset_dims={1,2}, collapsed_slice_dims={}, start_index_map={0}, index_vector_dim=1, slice_sizes={1,1024}, metadata={op_type="aten__index_select" op_name="aten__index_select" source_file="/usr/local/lib/python3.10/site-packages/torch/_ops.py" source_line=756}
}

%wrapped_concatenate_computation (param_0.1155: bf16[1024,2048], param_1.1082: bf16[1024,2048], param_2.761: bf16[1024,2048], param_3.734: bf16[1024,2048], param_4.476: bf16[1024,2048], param_5.110: bf16[1024,2048], param_6.106: bf16[1024,2048], param_7.55: bf16[1024,2048], param_8.15: bf16[1024,2048], param_9: bf16[1024,2048], param_10: bf16[1024,2048], param_11: bf16[1024,2048], param_12: bf16[1024,2048], param_13: bf16[1024,2048], param_14: bf16[1024,2048], param_15: bf16[1024,2048], param_16: bf16[1024,2048], param_17: bf16[1024,2048], param_18: bf16[1024,2048], param_19: bf16[1024,2048], param_20: bf16[1024,2048], param_21: bf16[1024,2048], param_22: bf16[1024,2048], param_23: bf16[1024,2048], param_24: bf16[1024,2048], param_25: bf16[1024,2048]) -> bf16[26624,2048] {
  %param_0.1155 = bf16[1024,2048]{1,0} parameter(0)
  %param_1.1082 = bf16[1024,2048]{1,0} parameter(1)
  %param_2.761 = bf16[1024,2048]{1,0} parameter(2)
  %param_3.734 = bf16[1024,2048]{1,0} parameter(3)
  %param_4.476 = bf16[1024,2048]{1,0} parameter(4)
  %param_5.110 = bf16[1024,2048]{1,0} parameter(5)
  %param_6.106 = bf16[1024,2048]{1,0} parameter(6)
  %param_7.55 = bf16[1024,2048]{1,0} parameter(7)
  %param_8.15 = bf16[1024,2048]{1,0} parameter(8)
  %param_9 = bf16[1024,2048]{1,0} parameter(9)
  %param_10 = bf16[1024,2048]{1,0} parameter(10)
  %param_11 = bf16[1024,2048]{1,0} parameter(11)
  %param_12 = bf16[1024,2048]{1,0} parameter(12)
  %param_13 = bf16[1024,2048]{1,0} parameter(13)
  %param_14 = bf16[1024,2048]{1,0} parameter(14)
  %param_15 = bf16[1024,2048]{1,0} parameter(15)
  %param_16 = bf16[1024,2048]{1,0} parameter(16)
  %param_17 = bf16[1024,2048]{1,0} parameter(17)
  %param_18 = bf16[1024,2048]{1,0} parameter(18)
  %param_19 = bf16[1024,2048]{1,0} parameter(19)
  %param_20 = bf16[1024,2048]{1,0} parameter(20)
  %param_21 = bf16[1024,2048]{1,0} parameter(21)
  %param_22 = bf16[1024,2048]{1,0} parameter(22)
  %param_23 = bf16[1024,2048]{1,0} parameter(23)
  %param_24 = bf16[1024,2048]{1,0} parameter(24)
  %param_25 = bf16[1024,2048]{1,0} parameter(25)
  ROOT %concatenate.55.1 = bf16[26624,2048]{1,0} concatenate(bf16[1024,2048]{1,0} %param_0.1155, bf16[1024,2048]{1,0} %param_1.1082, bf16[1024,2048]{1,0} %param_2.761, bf16[1024,2048]{1,0} %param_3.734, bf16[1024,2048]{1,0} %param_4.476, /*index=5*/bf16[1024,2048]{1,0} %param_5.110, bf16[1024,2048]{1,0} %param_6.106, bf16[1024,2048]{1,0} %param_7.55, bf16[1024,2048]{1,0} %param_8.15, bf16[1024,2048]{1,0} %param_9, /*index=10*/bf16[1024,2048]{1,0} %param_10, bf16[1024,2048]{1,0} %param_11, bf16[1024,2048]{1,0} %param_12, bf16[1024,2048]{1,0} %param_13, bf16[1024,2048]{1,0} %param_14, /*index=15*/bf16[1024,2048]{1,0} %param_15, bf16[1024,2048]{1,0} %param_16, bf16[1024,2048]{1,0} %param_17, bf16[1024,2048]{1,0} %param_18, bf16[1024,2048]{1,0} %param_19, /*index=20*/bf16[1024,2048]{1,0} %param_20, bf16[1024,2048]{1,0} %param_21, bf16[1024,2048]{1,0} %param_22, bf16[1024,2048]{1,0} %param_23, bf16[1024,2048]{1,0} %param_24, /*index=25*/bf16[1024,2048]{1,0} %param_25), dimensions={0}, metadata={op_type="xla__device_data" op_name="xla__device_data" source_file="/usr/local/lib/python3.10/site-packages/torch_xla/_dynamo/dynamo_bridge.py" source_line=355}
}

%gemm_fusion_dot.104_computation (parameter_0: bf16[26624,2048]) -> bf16[16,26624] {
  %parameter_0 = bf16[26624,2048]{1,0} parameter(0)
  %constant_271 = bf16[] constant(0), metadata={op_type="aten__expand" op_name="aten__expand" source_file="/usr/local/lib/python3.10/site-packages/torch/_ops.py" source_line=756}
  %broadcast.221 = bf16[16,2048]{1,0} broadcast(bf16[] %constant_271), dimensions={}, metadata={op_type="aten__expand" op_name="aten__expand" source_file="/usr/local/lib/python3.10/site-packages/torch/_ops.py" source_line=756}
  %dot.106 = bf16[26624,16]{0,1} dot(bf16[26624,2048]{1,0} %parameter_0, bf16[16,2048]{1,0} %broadcast.221), lhs_contracting_dims={1}, rhs_contracting_dims={1}, metadata={op_type="aten__mm" op_name="aten__mm" source_file="/usr/local/lib/python3.10/site-packages/torch/_ops.py" source_line=756}
  ROOT %bitcast.1927 = bf16[16,26624]{1,0} bitcast(bf16[26624,16]{0,1} %dot.106), metadata={op_type="aten__mm" op_name="aten__mm" source_file="/usr/local/lib/python3.10/site-packages/torch/_ops.py" source_line=756}
}

%AddComputation.98 (x.99: f32[], y.100: f32[]) -> f32[] {
  %y.100 = f32[] parameter(1)
  %x.99 = f32[] parameter(0)
  ROOT %add.341 = f32[] add(f32[] %x.99, f32[] %y.100)
}

%fused_computation.293 (param_0.1031: f32[], param_1.966: bf16[16,1,1024], param_2.605: bf16[16,26624], param_3.553: bf16[1024]) -> bf16[16,1024] {
  %param_2.605 = bf16[16,26624]{1,0} parameter(2)
  %convert.1241.84 = f32[16,26624]{1,0} convert(bf16[16,26624]{1,0} %param_2.605), metadata={op_type="xla__cast" op_name="xla__cast" source_file="/usr/local/lib/python3.10/site-packages/torch/_ops.py" source_line=756}
  %slice.360.9 = f32[16,1024]{1,0} slice(f32[16,26624]{1,0} %convert.1241.84), slice={[0:16], [25600:26624]}, metadata={op_type="aten__mm" op_name="aten__mm" source_file="/usr/local/lib/python3.10/site-packages/torch/_ops.py" source_line=756}
  %param_1.966 = bf16[16,1,1024]{2,0,1} parameter(1)
  %bitcast.3991.9 = bf16[16,1024]{1,0} bitcast(bf16[16,1,1024]{2,0,1} %param_1.966)
  %convert.1245.9 = f32[16,1024]{1,0} convert(bf16[16,1024]{1,0} %bitcast.3991.9), metadata={op_type="xla__cast" op_name="xla__cast" source_file="/usr/local/lib/python3.10/site-packages/torch/_ops.py" source_line=756}
  %add.342.7 = f32[16,1024]{1,0} add(f32[16,1024]{1,0} %slice.360.9, f32[16,1024]{1,0} %convert.1245.9), metadata={op_type="aten__add" op_name="aten__add.13/aten__add" source_file="/usr/local/lib/python3.10/site-packages/torch/_ops.py" source_line=756}
  %multiply.865 = f32[16,1024]{1,0} multiply(f32[16,1024]{1,0} %add.342.7, f32[16,1024]{1,0} %add.342.7), metadata={op_type="aten__pow" op_name="aten__pow" source_file="/usr/local/lib/python3.10/site-packages/torch/_ops.py" source_line=756}
  %constant_791 = f32[] constant(0), metadata={op_type="aten__mean" op_name="aten__mean" source_file="/usr/local/lib/python3.10/site-packages/torch/_ops.py" source_line=756}
  %reduce.110 = f32[16]{0} reduce(f32[16,1024]{1,0} %multiply.865, f32[] %constant_791), dimensions={1}, to_apply=%AddComputation.98, metadata={op_type="aten__mean" op_name="aten__mean" source_file="/usr/local/lib/python3.10/site-packages/torch/_ops.py" source_line=756}
  %constant_790 = f32[] constant(0.0009765625), metadata={op_type="aten__mean" op_name="aten__mean" source_file="/usr/local/lib/python3.10/site-packages/torch/_ops.py" source_line=756}
  %broadcast.969 = f32[16]{0} broadcast(f32[] %constant_790), dimensions={}, metadata={op_type="aten__mean" op_name="aten__mean" source_file="/usr/local/lib/python3.10/site-packages/torch/_ops.py" source_line=756}
  %multiply.864 = f32[16]{0} multiply(f32[16]{0} %reduce.110, f32[16]{0} %broadcast.969), metadata={op_type="aten__mean" op_name="aten__mean" source_file="/usr/local/lib/python3.10/site-packages/torch/_ops.py" source_line=756}
  %param_0.1031 = f32[] parameter(0)
  %broadcast.968 = f32[16]{0} broadcast(f32[] %param_0.1031), dimensions={}, metadata={op_type="aten__add" op_name="aten__add.14/aten__add" source_file="/usr/local/lib/python3.10/site-packages/torch/_ops.py" source_line=756}
  %add.482 = f32[16]{0} add(f32[16]{0} %multiply.864, f32[16]{0} %broadcast.968), metadata={op_type="aten__add" op_name="aten__add.14/aten__add" source_file="/usr/local/lib/python3.10/site-packages/torch/_ops.py" source_line=756}
  %rsqrt.195 = f32[16]{0} rsqrt(f32[16]{0} %add.482), metadata={op_type="aten__rsqrt" op_name="aten__rsqrt" source_file="/usr/local/lib/python3.10/site-packages/torch/_ops.py" source_line=756}
  %broadcast.967 = f32[16,1024]{1,0} broadcast(f32[16]{0} %rsqrt.195), dimensions={0}, metadata={op_type="aten__mul" op_name="aten__mul.15/aten__mul" source_file="/usr/local/lib/python3.10/site-packages/torch/_ops.py" source_line=756}
  %multiply.863 = f32[16,1024]{1,0} multiply(f32[16,1024]{1,0} %add.342.7, f32[16,1024]{1,0} %broadcast.967), metadata={op_type="aten__mul" op_name="aten__mul.15/aten__mul" source_file="/usr/local/lib/python3.10/site-packages/torch/_ops.py" source_line=756}
  %param_3.553 = bf16[1024]{0} parameter(3)
  %convert.1246.1 = f32[1024]{0} convert(bf16[1024]{0} %param_3.553), metadata={op_type="xla__cast" op_name="xla__cast" source_file="/usr/local/lib/python3.10/site-packages/torch/_ops.py" source_line=756}
  %broadcast.573.1 = f32[16,1024]{1,0} broadcast(f32[1024]{0} %convert.1246.1), dimensions={1}, metadata={op_type="aten__mul" op_name="aten__mul.16/aten__mul" source_file="/usr/local/lib/python3.10/site-packages/torch/_ops.py" source_line=756}
  %multiply.589.1 = f32[16,1024]{1,0} multiply(f32[16,1024]{1,0} %multiply.863, f32[16,1024]{1,0} %broadcast.573.1), metadata={op_type="aten__mul" op_name="aten__mul.16/aten__mul" source_file="/usr/local/lib/python3.10/site-packages/torch/_ops.py" source_line=756}
  ROOT %convert.1247.1 = bf16[16,1024]{1,0} convert(f32[16,1024]{1,0} %multiply.589.1), metadata={op_type="xla__cast" op_name="xla__cast" source_file="/usr/local/lib/python3.10/site-packages/torch/_ops.py" source_line=756}
}

%fused_convert.25 (param_0.1131: bf16[16,6144]) -> bf16[16,3072] {
  %param_0.1131 = bf16[16,6144]{1,0} parameter(0)
  %slice.361.1 = bf16[16,3072]{1,0} slice(bf16[16,6144]{1,0} %param_0.1131), slice={[0:16], [0:3072]}, metadata={op_type="xla__select" op_name="xla__select" source_file="/usr/local/lib/python3.10/site-packages/torch/_ops.py" source_line=756}
  %convert.1248.8 = f32[16,3072]{1,0} convert(bf16[16,3072]{1,0} %slice.361.1)
  %constant_1_4 = bf16[] constant(1), metadata={op_type="xla__select" op_name="xla__select" source_file="/usr/local/lib/python3.10/site-packages/torch/_ops.py" source_line=756}
  %convert.1614.312 = f32[] convert(bf16[] %constant_1_4)
  %broadcast.668.312 = f32[16,3072]{1,0} broadcast(f32[] %convert.1614.312), dimensions={}, metadata={op_type="xla__select" op_name="xla__select" source_file="/usr/local/lib/python3.10/site-packages/torch/_ops.py" source_line=756}
  %negate.78.5 = f32[16,3072]{1,0} negate(f32[16,3072]{1,0} %convert.1248.8)
  %convert.1252.3 = bf16[16,3072]{1,0} convert(f32[16,3072]{1,0} %negate.78.5)
  %exponential.78.1 = bf16[16,3072]{1,0} exponential(bf16[16,3072]{1,0} %convert.1252.3)
  %convert.1253.1 = f32[16,3072]{1,0} convert(bf16[16,3072]{1,0} %exponential.78.1)
  %add.343.7 = f32[16,3072]{1,0} add(f32[16,3072]{1,0} %broadcast.668.312, f32[16,3072]{1,0} %convert.1253.1)
  %divide.78.5 = f32[16,3072]{1,0} divide(f32[16,3072]{1,0} %broadcast.668.312, f32[16,3072]{1,0} %add.343.7), metadata={op_type="aten__silu" op_name="aten__silu" source_file="/usr/local/lib/python3.10/site-packages/torch/_ops.py" source_line=756}
  %multiply.590.5 = f32[16,3072]{1,0} multiply(f32[16,3072]{1,0} %convert.1248.8, f32[16,3072]{1,0} %divide.78.5), metadata={op_type="aten__silu" op_name="aten__silu" source_file="/usr/local/lib/python3.10/site-packages/torch/_ops.py" source_line=756}
  %slice.362.1 = bf16[16,3072]{1,0} slice(bf16[16,6144]{1,0} %param_0.1131), slice={[0:16], [3072:6144]}, metadata={op_type="xla__select" op_name="xla__select" source_file="/usr/local/lib/python3.10/site-packages/torch/_ops.py" source_line=756}
  %convert.1254.1 = f32[16,3072]{1,0} convert(bf16[16,3072]{1,0} %slice.362.1), metadata={op_type="xla__cast" op_name="xla__cast" source_file="/usr/local/lib/python3.10/site-packages/torch/_ops.py" source_line=756}
  %multiply.591.3 = f32[16,3072]{1,0} multiply(f32[16,3072]{1,0} %multiply.590.5, f32[16,3072]{1,0} %convert.1254.1), metadata={op_type="aten__mul" op_name="aten__mul.17/aten__mul" source_file="/usr/local/lib/python3.10/site-packages/torch/_ops.py" source_line=756}
  ROOT %convert.1255.1 = bf16[16,3072]{1,0} convert(f32[16,3072]{1,0} %multiply.591.3), metadata={op_type="xla__cast" op_name="xla__cast" source_file="/usr/local/lib/python3.10/site-packages/torch/_ops.py" source_line=756}
}

%fused_computation.291 (param_0.1106: f32[], param_1.1059: bf16[1024], param_2.721: bf16[16,1,1024], param_3.680: bf16[16,26624], param_4.414: bf16[16,1024]) -> bf16[16,1024] {
  %param_3.680 = bf16[16,26624]{1,0} parameter(3)
  %convert.1241.144 = f32[16,26624]{1,0} convert(bf16[16,26624]{1,0} %param_3.680), metadata={op_type="xla__cast" op_name="xla__cast" source_file="/usr/local/lib/python3.10/site-packages/torch/_ops.py" source_line=756}
  %slice.359.5 = f32[16,1024]{1,0} slice(f32[16,26624]{1,0} %convert.1241.144), slice={[0:16], [24576:25600]}, metadata={op_type="aten__mm" op_name="aten__mm" source_file="/usr/local/lib/python3.10/site-packages/torch/_ops.py" source_line=756}
  %param_4.414 = bf16[16,1024]{1,0} parameter(4)
  %convert.1256.5 = f32[16,1024]{1,0} convert(bf16[16,1024]{1,0} %param_4.414), metadata={op_type="xla__cast" op_name="xla__cast" source_file="/usr/local/lib/python3.10/site-packages/torch/_ops.py" source_line=756}
  %slice.360.11 = f32[16,1024]{1,0} slice(f32[16,26624]{1,0} %convert.1241.144), slice={[0:16], [25600:26624]}, metadata={op_type="aten__mm" op_name="aten__mm" source_file="/usr/local/lib/python3.10/site-packages/torch/_ops.py" source_line=756}
  %param_2.721 = bf16[16,1,1024]{2,0,1} parameter(2)
  %bitcast.3991.11 = bf16[16,1024]{1,0} bitcast(bf16[16,1,1024]{2,0,1} %param_2.721)
  %convert.1245.11 = f32[16,1024]{1,0} convert(bf16[16,1024]{1,0} %bitcast.3991.11), metadata={op_type="xla__cast" op_name="xla__cast" source_file="/usr/local/lib/python3.10/site-packages/torch/_ops.py" source_line=756}
  %add.342.9 = f32[16,1024]{1,0} add(f32[16,1024]{1,0} %slice.360.11, f32[16,1024]{1,0} %convert.1245.11), metadata={op_type="aten__add" op_name="aten__add.13/aten__add" source_file="/usr/local/lib/python3.10/site-packages/torch/_ops.py" source_line=756}
  %add.344.5 = f32[16,1024]{1,0} add(f32[16,1024]{1,0} %convert.1256.5, f32[16,1024]{1,0} %add.342.9), metadata={op_type="aten__add" op_name="aten__add.18/aten__add" source_file="/usr/local/lib/python3.10/site-packages/torch/_ops.py" source_line=756}
  %add.345.3 = f32[16,1024]{1,0} add(f32[16,1024]{1,0} %slice.359.5, f32[16,1024]{1,0} %add.344.5), metadata={op_type="aten__add" op_name="aten__add.31/aten__add" source_file="/usr/local/lib/python3.10/site-packages/torch/_ops.py" source_line=756}
  %multiply.686 = f32[16,1024]{1,0} multiply(f32[16,1024]{1,0} %add.345.3, f32[16,1024]{1,0} %add.345.3), metadata={op_type="aten__pow" op_name="aten__pow" source_file="/usr/local/lib/python3.10/site-packages/torch/_ops.py" source_line=756}
  %constant_639 = f32[] constant(0), metadata={op_type="aten__mean" op_name="aten__mean" source_file="/usr/local/lib/python3.10/site-packages/torch/_ops.py" source_line=756}
  %reduce.57 = f32[16]{0} reduce(f32[16,1024]{1,0} %multiply.686, f32[] %constant_639), dimensions={1}, to_apply=%AddComputation.98, metadata={op_type="aten__mean" op_name="aten__mean" source_file="/usr/local/lib/python3.10/site-packages/torch/_ops.py" source_line=756}
  %constant_638 = f32[] constant(0.0009765625), metadata={op_type="aten__mean" op_name="aten__mean" source_file="/usr/local/lib/python3.10/site-packages/torch/_ops.py" source_line=756}
  %broadcast.791 = f32[16]{0} broadcast(f32[] %constant_638), dimensions={}, metadata={op_type="aten__mean" op_name="aten__mean" source_file="/usr/local/lib/python3.10/site-packages/torch/_ops.py" source_line=756}
  %multiply.685 = f32[16]{0} multiply(f32[16]{0} %reduce.57, f32[16]{0} %broadcast.791), metadata={op_type="aten__mean" op_name="aten__mean" source_file="/usr/local/lib/python3.10/site-packages/torch/_ops.py" source_line=756}
  %param_0.1106 = f32[] parameter(0)
  %broadcast.790 = f32[16]{0} broadcast(f32[] %param_0.1106), dimensions={}, metadata={op_type="aten__add" op_name="aten__add.14/aten__add" source_file="/usr/local/lib/python3.10/site-packages/torch/_ops.py" source_line=756}
  %add.426 = f32[16]{0} add(f32[16]{0} %multiply.685, f32[16]{0} %broadcast.790), metadata={op_type="aten__add" op_name="aten__add.32/aten__add" source_file="/usr/local/lib/python3.10/site-packages/torch/_ops.py" source_line=756}
  %rsqrt.142 = f32[16]{0} rsqrt(f32[16]{0} %add.426), metadata={op_type="aten__rsqrt" op_name="aten__rsqrt" source_file="/usr/local/lib/python3.10/site-packages/torch/_ops.py" source_line=756}
  %broadcast.789 = f32[16,1024]{1,0} broadcast(f32[16]{0} %rsqrt.142), dimensions={0}, metadata={op_type="aten__mul" op_name="aten__mul.33/aten__mul" source_file="/usr/local/lib/python3.10/site-packages/torch/_ops.py" source_line=756}
  %multiply.684 = f32[16,1024]{1,0} multiply(f32[16,1024]{1,0} %add.345.3, f32[16,1024]{1,0} %broadcast.789), metadata={op_type="aten__mul" op_name="aten__mul.33/aten__mul" source_file="/usr/local/lib/python3.10/site-packages/torch/_ops.py" source_line=756}
  %param_1.1059 = bf16[1024]{0} parameter(1)
  %convert.1257.1 = f32[1024]{0} convert(bf16[1024]{0} %param_1.1059), metadata={op_type="xla__cast" op_name="xla__cast" source_file="/usr/local/lib/python3.10/site-packages/torch/_ops.py" source_line=756}
  %broadcast.576.1 = f32[16,1024]{1,0} broadcast(f32[1024]{0} %convert.1257.1), dimensions={1}, metadata={op_type="aten__mul" op_name="aten__mul.34/aten__mul" source_file="/usr/local/lib/python3.10/site-packages/torch/_ops.py" source_line=756}
  %multiply.592.1 = f32[16,1024]{1,0} multiply(f32[16,1024]{1,0} %multiply.684, f32[16,1024]{1,0} %broadcast.576.1), metadata={op_type="aten__mul" op_name="aten__mul.34/aten__mul" source_file="/usr/local/lib/python3.10/site-packages/torch/_ops.py" source_line=756}
  ROOT %convert.1259.1 = bf16[16,1024]{1,0} convert(f32[16,1024]{1,0} %multiply.592.1), metadata={op_type="xla__cast" op_name="xla__cast" source_file="/usr/local/lib/python3.10/site-packages/torch/_ops.py" source_line=756}
}

%fused_convert.24 (param_0.1133: bf16[16,6144]) -> bf16[16,3072] {
  %param_0.1133 = bf16[16,6144]{1,0} parameter(0)
  %slice.363.1 = bf16[16,3072]{1,0} slice(bf16[16,6144]{1,0} %param_0.1133), slice={[0:16], [0:3072]}, metadata={op_type="xla__select" op_name="xla__select" source_file="/usr/local/lib/python3.10/site-packages/torch/_ops.py" source_line=756}
  %convert.1260.8 = f32[16,3072]{1,0} convert(bf16[16,3072]{1,0} %slice.363.1)
  %constant_1_6 = bf16[] constant(1), metadata={op_type="xla__select" op_name="xla__select" source_file="/usr/local/lib/python3.10/site-packages/torch/_ops.py" source_line=756}
  %convert.1614.302 = f32[] convert(bf16[] %constant_1_6)
  %broadcast.668.302 = f32[16,3072]{1,0} broadcast(f32[] %convert.1614.302), dimensions={}, metadata={op_type="xla__select" op_name="xla__select" source_file="/usr/local/lib/python3.10/site-packages/torch/_ops.py" source_line=756}
  %negate.79.5 = f32[16,3072]{1,0} negate(f32[16,3072]{1,0} %convert.1260.8)
  %convert.1264.3 = bf16[16,3072]{1,0} convert(f32[16,3072]{1,0} %negate.79.5)
  %exponential.79.1 = bf16[16,3072]{1,0} exponential(bf16[16,3072]{1,0} %convert.1264.3)
  %convert.1266.1 = f32[16,3072]{1,0} convert(bf16[16,3072]{1,0} %exponential.79.1)
  %add.346.7 = f32[16,3072]{1,0} add(f32[16,3072]{1,0} %broadcast.668.302, f32[16,3072]{1,0} %convert.1266.1)
  %divide.79.5 = f32[16,3072]{1,0} divide(f32[16,3072]{1,0} %broadcast.668.302, f32[16,3072]{1,0} %add.346.7), metadata={op_type="aten__silu" op_name="aten__silu" source_file="/usr/local/lib/python3.10/site-packages/torch/_ops.py" source_line=756}
  %multiply.593.5 = f32[16,3072]{1,0} multiply(f32[16,3072]{1,0} %convert.1260.8, f32[16,3072]{1,0} %divide.79.5), metadata={op_type="aten__silu" op_name="aten__silu" source_file="/usr/local/lib/python3.10/site-packages/torch/_ops.py" source_line=756}
  %slice.364.1 = bf16[16,3072]{1,0} slice(bf16[16,6144]{1,0} %param_0.1133), slice={[0:16], [3072:6144]}, metadata={op_type="xla__select" op_name="xla__select" source_file="/usr/local/lib/python3.10/site-packages/torch/_ops.py" source_line=756}
  %convert.1267.1 = f32[16,3072]{1,0} convert(bf16[16,3072]{1,0} %slice.364.1), metadata={op_type="xla__cast" op_name="xla__cast" source_file="/usr/local/lib/python3.10/site-packages/torch/_ops.py" source_line=756}
  %multiply.594.3 = f32[16,3072]{1,0} multiply(f32[16,3072]{1,0} %multiply.593.5, f32[16,3072]{1,0} %convert.1267.1), metadata={op_type="aten__mul" op_name="aten__mul.35/aten__mul" source_file="/usr/local/lib/python3.10/site-packages/torch/_ops.py" source_line=756}
  ROOT %convert.1268.1 = bf16[16,3072]{1,0} convert(f32[16,3072]{1,0} %multiply.594.3), metadata={op_type="xla__cast" op_name="xla__cast" source_file="/usr/local/lib/python3.10/site-packages/torch/_ops.py" source_line=756}
}

%fused_computation.289 (param_0.1100: f32[], param_1.1051: bf16[1024], param_2.725: bf16[16,1024], param_3.683: bf16[16,26624], param_4.420: bf16[16,1,1024], param_5.34: bf16[16,1024]) -> bf16[16,1024] {
  %param_3.683 = bf16[16,26624]{1,0} parameter(3)
  %convert.1241.130 = f32[16,26624]{1,0} convert(bf16[16,26624]{1,0} %param_3.683), metadata={op_type="xla__cast" op_name="xla__cast" source_file="/usr/local/lib/python3.10/site-packages/torch/_ops.py" source_line=756}
  %slice.358.5 = f32[16,1024]{1,0} slice(f32[16,26624]{1,0} %convert.1241.130), slice={[0:16], [23552:24576]}, metadata={op_type="aten__mm" op_name="aten__mm" source_file="/usr/local/lib/python3.10/site-packages/torch/_ops.py" source_line=756}
  %param_2.725 = bf16[16,1024]{1,0} parameter(2)
  %convert.1269.5 = f32[16,1024]{1,0} convert(bf16[16,1024]{1,0} %param_2.725), metadata={op_type="xla__cast" op_name="xla__cast" source_file="/usr/local/lib/python3.10/site-packages/torch/_ops.py" source_line=756}
  %slice.359.9 = f32[16,1024]{1,0} slice(f32[16,26624]{1,0} %convert.1241.130), slice={[0:16], [24576:25600]}, metadata={op_type="aten__mm" op_name="aten__mm" source_file="/usr/local/lib/python3.10/site-packages/torch/_ops.py" source_line=756}
  %param_5.34 = bf16[16,1024]{1,0} parameter(5)
  %convert.1256.9 = f32[16,1024]{1,0} convert(bf16[16,1024]{1,0} %param_5.34), metadata={op_type="xla__cast" op_name="xla__cast" source_file="/usr/local/lib/python3.10/site-packages/torch/_ops.py" source_line=756}
  %slice.360.15 = f32[16,1024]{1,0} slice(f32[16,26624]{1,0} %convert.1241.130), slice={[0:16], [25600:26624]}, metadata={op_type="aten__mm" op_name="aten__mm" source_file="/usr/local/lib/python3.10/site-packages/torch/_ops.py" source_line=756}
  %param_4.420 = bf16[16,1,1024]{2,0,1} parameter(4)
  %bitcast.3991.15 = bf16[16,1024]{1,0} bitcast(bf16[16,1,1024]{2,0,1} %param_4.420)
  %convert.1245.15 = f32[16,1024]{1,0} convert(bf16[16,1024]{1,0} %bitcast.3991.15), metadata={op_type="xla__cast" op_name="xla__cast" source_file="/usr/local/lib/python3.10/site-packages/torch/_ops.py" source_line=756}
  %add.342.13 = f32[16,1024]{1,0} add(f32[16,1024]{1,0} %slice.360.15, f32[16,1024]{1,0} %convert.1245.15), metadata={op_type="aten__add" op_name="aten__add.13/aten__add" source_file="/usr/local/lib/python3.10/site-packages/torch/_ops.py" source_line=756}
  %add.344.9 = f32[16,1024]{1,0} add(f32[16,1024]{1,0} %convert.1256.9, f32[16,1024]{1,0} %add.342.13), metadata={op_type="aten__add" op_name="aten__add.18/aten__add" source_file="/usr/local/lib/python3.10/site-packages/torch/_ops.py" source_line=756}
  %add.345.7 = f32[16,1024]{1,0} add(f32[16,1024]{1,0} %slice.359.9, f32[16,1024]{1,0} %add.344.9), metadata={op_type="aten__add" op_name="aten__add.31/aten__add" source_file="/usr/local/lib/python3.10/site-packages/torch/_ops.py" source_line=756}
  %add.347.5 = f32[16,1024]{1,0} add(f32[16,1024]{1,0} %convert.1269.5, f32[16,1024]{1,0} %add.345.7), metadata={op_type="aten__add" op_name="aten__add.36/aten__add" source_file="/usr/local/lib/python3.10/site-packages/torch/_ops.py" source_line=756}
  %add.348.3 = f32[16,1024]{1,0} add(f32[16,1024]{1,0} %slice.358.5, f32[16,1024]{1,0} %add.347.5), metadata={op_type="aten__add" op_name="aten__add.49/aten__add" source_file="/usr/local/lib/python3.10/site-packages/torch/_ops.py" source_line=756}
  %multiply.694 = f32[16,1024]{1,0} multiply(f32[16,1024]{1,0} %add.348.3, f32[16,1024]{1,0} %add.348.3), metadata={op_type="aten__pow" op_name="aten__pow" source_file="/usr/local/lib/python3.10/site-packages/torch/_ops.py" source_line=756}
  %constant_644 = f32[] constant(0), metadata={op_type="aten__mean" op_name="aten__mean" source_file="/usr/local/lib/python3.10/site-packages/torch/_ops.py" source_line=756}
  %reduce.59 = f32[16]{0} reduce(f32[16,1024]{1,0} %multiply.694, f32[] %constant_644), dimensions={1}, to_apply=%AddComputation.98, metadata={op_type="aten__mean" op_name="aten__mean" source_file="/usr/local/lib/python3.10/site-packages/torch/_ops.py" source_line=756}
  %constant_643 = f32[] constant(0.0009765625), metadata={op_type="aten__mean" op_name="aten__mean" source_file="/usr/local/lib/python3.10/site-packages/torch/_ops.py" source_line=756}
  %broadcast.799 = f32[16]{0} broadcast(f32[] %constant_643), dimensions={}, metadata={op_type="aten__mean" op_name="aten__mean" source_file="/usr/local/lib/python3.10/site-packages/torch/_ops.py" source_line=756}
  %multiply.693 = f32[16]{0} multiply(f32[16]{0} %reduce.59, f32[16]{0} %broadcast.799), metadata={op_type="aten__mean" op_name="aten__mean" source_file="/usr/local/lib/python3.10/site-packages/torch/_ops.py" source_line=756}
  %param_0.1100 = f32[] parameter(0)
  %broadcast.798 = f32[16]{0} broadcast(f32[] %param_0.1100), dimensions={}, metadata={op_type="aten__add" op_name="aten__add.14/aten__add" source_file="/usr/local/lib/python3.10/site-packages/torch/_ops.py" source_line=756}
  %add.429 = f32[16]{0} add(f32[16]{0} %multiply.693, f32[16]{0} %broadcast.798), metadata={op_type="aten__add" op_name="aten__add.50/aten__add" source_file="/usr/local/lib/python3.10/site-packages/torch/_ops.py" source_line=756}
  %rsqrt.144 = f32[16]{0} rsqrt(f32[16]{0} %add.429), metadata={op_type="aten__rsqrt" op_name="aten__rsqrt" source_file="/usr/local/lib/python3.10/site-packages/torch/_ops.py" source_line=756}
  %broadcast.797 = f32[16,1024]{1,0} broadcast(f32[16]{0} %rsqrt.144), dimensions={0}, metadata={op_type="aten__mul" op_name="aten__mul.51/aten__mul" source_file="/usr/local/lib/python3.10/site-packages/torch/_ops.py" source_line=756}
  %multiply.692 = f32[16,1024]{1,0} multiply(f32[16,1024]{1,0} %add.348.3, f32[16,1024]{1,0} %broadcast.797), metadata={op_type="aten__mul" op_name="aten__mul.51/aten__mul" source_file="/usr/local/lib/python3.10/site-packages/torch/_ops.py" source_line=756}
  %param_1.1051 = bf16[1024]{0} parameter(1)
  %convert.1270.1 = f32[1024]{0} convert(bf16[1024]{0} %param_1.1051), metadata={op_type="xla__cast" op_name="xla__cast" source_file="/usr/local/lib/python3.10/site-packages/torch/_ops.py" source_line=756}
  %broadcast.581.1 = f32[16,1024]{1,0} broadcast(f32[1024]{0} %convert.1270.1), dimensions={1}, metadata={op_type="aten__mul" op_name="aten__mul.52/aten__mul" source_file="/usr/local/lib/python3.10/site-packages/torch/_ops.py" source_line=756}
  %multiply.595.1 = f32[16,1024]{1,0} multiply(f32[16,1024]{1,0} %multiply.692, f32[16,1024]{1,0} %broadcast.581.1), metadata={op_type="aten__mul" op_name="aten__mul.52/aten__mul" source_file="/usr/local/lib/python3.10/site-packages/torch/_ops.py" source_line=756}
  ROOT %convert.1271.1 = bf16[16,1024]{1,0} convert(f32[16,1024]{1,0} %multiply.595.1), metadata={op_type="xla__cast" op_name="xla__cast" source_file="/usr/local/lib/python3.10/site-packages/torch/_ops.py" source_line=756}
}

%fused_convert.23 (param_0.1135: bf16[16,6144]) -> bf16[16,3072] {
  %param_0.1135 = bf16[16,6144]{1,0} parameter(0)
  %slice.365.1 = bf16[16,3072]{1,0} slice(bf16[16,6144]{1,0} %param_0.1135), slice={[0:16], [0:3072]}, metadata={op_type="xla__select" op_name="xla__select" source_file="/usr/local/lib/python3.10/site-packages/torch/_ops.py" source_line=756}
  %convert.1272.8 = f32[16,3072]{1,0} convert(bf16[16,3072]{1,0} %slice.365.1)
  %constant_1_8 = bf16[] constant(1), metadata={op_type="xla__select" op_name="xla__select" source_file="/usr/local/lib/python3.10/site-packages/torch/_ops.py" source_line=756}
  %convert.1614.292 = f32[] convert(bf16[] %constant_1_8)
  %broadcast.668.292 = f32[16,3072]{1,0} broadcast(f32[] %convert.1614.292), dimensions={}, metadata={op_type="xla__select" op_name="xla__select" source_file="/usr/local/lib/python3.10/site-packages/torch/_ops.py" source_line=756}
  %negate.80.5 = f32[16,3072]{1,0} negate(f32[16,3072]{1,0} %convert.1272.8)
  %convert.1279.3 = bf16[16,3072]{1,0} convert(f32[16,3072]{1,0} %negate.80.5)
  %exponential.80.1 = bf16[16,3072]{1,0} exponential(bf16[16,3072]{1,0} %convert.1279.3)
  %convert.1281.1 = f32[16,3072]{1,0} convert(bf16[16,3072]{1,0} %exponential.80.1)
  %add.349.7 = f32[16,3072]{1,0} add(f32[16,3072]{1,0} %broadcast.668.292, f32[16,3072]{1,0} %convert.1281.1)
  %divide.80.5 = f32[16,3072]{1,0} divide(f32[16,3072]{1,0} %broadcast.668.292, f32[16,3072]{1,0} %add.349.7), metadata={op_type="aten__silu" op_name="aten__silu" source_file="/usr/local/lib/python3.10/site-packages/torch/_ops.py" source_line=756}
  %multiply.596.5 = f32[16,3072]{1,0} multiply(f32[16,3072]{1,0} %convert.1272.8, f32[16,3072]{1,0} %divide.80.5), metadata={op_type="aten__silu" op_name="aten__silu" source_file="/usr/local/lib/python3.10/site-packages/torch/_ops.py" source_line=756}
  %slice.366.1 = bf16[16,3072]{1,0} slice(bf16[16,6144]{1,0} %param_0.1135), slice={[0:16], [3072:6144]}, metadata={op_type="xla__select" op_name="xla__select" source_file="/usr/local/lib/python3.10/site-packages/torch/_ops.py" source_line=756}
  %convert.1282.1 = f32[16,3072]{1,0} convert(bf16[16,3072]{1,0} %slice.366.1), metadata={op_type="xla__cast" op_name="xla__cast" source_file="/usr/local/lib/python3.10/site-packages/torch/_ops.py" source_line=756}
  %multiply.597.3 = f32[16,3072]{1,0} multiply(f32[16,3072]{1,0} %multiply.596.5, f32[16,3072]{1,0} %convert.1282.1), metadata={op_type="aten__mul" op_name="aten__mul.53/aten__mul" source_file="/usr/local/lib/python3.10/site-packages/torch/_ops.py" source_line=756}
  ROOT %convert.1283.1 = bf16[16,3072]{1,0} convert(f32[16,3072]{1,0} %multiply.597.3), metadata={op_type="xla__cast" op_name="xla__cast" source_file="/usr/local/lib/python3.10/site-packages/torch/_ops.py" source_line=756}
}

%fused_add (param_0.909: bf16[16,26624], param_1.1053: bf16[16,1024], param_2.723: bf16[16,1024], param_3.682: bf16[16,1,1024], param_4.418: bf16[16,1024]) -> f32[16,1024] {
  %param_0.909 = bf16[16,26624]{1,0} parameter(0)
  %convert.1241.34 = f32[16,26624]{1,0} convert(bf16[16,26624]{1,0} %param_0.909), metadata={op_type="xla__cast" op_name="xla__cast" source_file="/usr/local/lib/python3.10/site-packages/torch/_ops.py" source_line=756}
  %slice.357.3 = f32[16,1024]{1,0} slice(f32[16,26624]{1,0} %convert.1241.34), slice={[0:16], [22528:23552]}, metadata={op_type="aten__mm" op_name="aten__mm" source_file="/usr/local/lib/python3.10/site-packages/torch/_ops.py" source_line=756}
  %param_1.1053 = bf16[16,1024]{1,0} parameter(1)
  %convert.1285.3 = f32[16,1024]{1,0} convert(bf16[16,1024]{1,0} %param_1.1053), metadata={op_type="xla__cast" op_name="xla__cast" source_file="/usr/local/lib/python3.10/site-packages/torch/_ops.py" source_line=756}
  %slice.358.7 = f32[16,1024]{1,0} slice(f32[16,26624]{1,0} %convert.1241.34), slice={[0:16], [23552:24576]}, metadata={op_type="aten__mm" op_name="aten__mm" source_file="/usr/local/lib/python3.10/site-packages/torch/_ops.py" source_line=756}
  %param_2.723 = bf16[16,1024]{1,0} parameter(2)
  %convert.1269.7 = f32[16,1024]{1,0} convert(bf16[16,1024]{1,0} %param_2.723), metadata={op_type="xla__cast" op_name="xla__cast" source_file="/usr/local/lib/python3.10/site-packages/torch/_ops.py" source_line=756}
  %slice.359.7 = f32[16,1024]{1,0} slice(f32[16,26624]{1,0} %convert.1241.34), slice={[0:16], [24576:25600]}, metadata={op_type="aten__mm" op_name="aten__mm" source_file="/usr/local/lib/python3.10/site-packages/torch/_ops.py" source_line=756}
  %param_4.418 = bf16[16,1024]{1,0} parameter(4)
  %convert.1256.7 = f32[16,1024]{1,0} convert(bf16[16,1024]{1,0} %param_4.418), metadata={op_type="xla__cast" op_name="xla__cast" source_file="/usr/local/lib/python3.10/site-packages/torch/_ops.py" source_line=756}
  %slice.360.13 = f32[16,1024]{1,0} slice(f32[16,26624]{1,0} %convert.1241.34), slice={[0:16], [25600:26624]}, metadata={op_type="aten__mm" op_name="aten__mm" source_file="/usr/local/lib/python3.10/site-packages/torch/_ops.py" source_line=756}
  %param_3.682 = bf16[16,1,1024]{2,0,1} parameter(3)
  %bitcast.3991.13 = bf16[16,1024]{1,0} bitcast(bf16[16,1,1024]{2,0,1} %param_3.682)
  %convert.1245.13 = f32[16,1024]{1,0} convert(bf16[16,1024]{1,0} %bitcast.3991.13), metadata={op_type="xla__cast" op_name="xla__cast" source_file="/usr/local/lib/python3.10/site-packages/torch/_ops.py" source_line=756}
  %add.342.11 = f32[16,1024]{1,0} add(f32[16,1024]{1,0} %slice.360.13, f32[16,1024]{1,0} %convert.1245.13), metadata={op_type="aten__add" op_name="aten__add.13/aten__add" source_file="/usr/local/lib/python3.10/site-packages/torch/_ops.py" source_line=756}
  %add.344.7 = f32[16,1024]{1,0} add(f32[16,1024]{1,0} %convert.1256.7, f32[16,1024]{1,0} %add.342.11), metadata={op_type="aten__add" op_name="aten__add.18/aten__add" source_file="/usr/local/lib/python3.10/site-packages/torch/_ops.py" source_line=756}
  %add.345.5 = f32[16,1024]{1,0} add(f32[16,1024]{1,0} %slice.359.7, f32[16,1024]{1,0} %add.344.7), metadata={op_type="aten__add" op_name="aten__add.31/aten__add" source_file="/usr/local/lib/python3.10/site-packages/torch/_ops.py" source_line=756}
  %add.347.7 = f32[16,1024]{1,0} add(f32[16,1024]{1,0} %convert.1269.7, f32[16,1024]{1,0} %add.345.5), metadata={op_type="aten__add" op_name="aten__add.36/aten__add" source_file="/usr/local/lib/python3.10/site-packages/torch/_ops.py" source_line=756}
  %add.348.5 = f32[16,1024]{1,0} add(f32[16,1024]{1,0} %slice.358.7, f32[16,1024]{1,0} %add.347.7), metadata={op_type="aten__add" op_name="aten__add.49/aten__add" source_file="/usr/local/lib/python3.10/site-packages/torch/_ops.py" source_line=756}
  %add.350.3 = f32[16,1024]{1,0} add(f32[16,1024]{1,0} %convert.1285.3, f32[16,1024]{1,0} %add.348.5), metadata={op_type="aten__add" op_name="aten__add.54/aten__add" source_file="/usr/local/lib/python3.10/site-packages/torch/_ops.py" source_line=756}
  ROOT %add.351.1 = f32[16,1024]{1,0} add(f32[16,1024]{1,0} %slice.357.3, f32[16,1024]{1,0} %add.350.3), metadata={op_type="aten__add" op_name="aten__add.67/aten__add" source_file="/usr/local/lib/python3.10/site-packages/torch/_ops.py" source_line=756}
}

%fused_computation.287 (param_0.1061: f32[16,1024], param_1.999: f32[], param_2.638: bf16[1024]) -> bf16[16,1024] {
  %param_0.1061 = f32[16,1024]{1,0} parameter(0)
  %multiply.702 = f32[16,1024]{1,0} multiply(f32[16,1024]{1,0} %param_0.1061, f32[16,1024]{1,0} %param_0.1061), metadata={op_type="aten__pow" op_name="aten__pow" source_file="/usr/local/lib/python3.10/site-packages/torch/_ops.py" source_line=756}
  %constant_650 = f32[] constant(0), metadata={op_type="aten__mean" op_name="aten__mean" source_file="/usr/local/lib/python3.10/site-packages/torch/_ops.py" source_line=756}
  %reduce.61 = f32[16]{0} reduce(f32[16,1024]{1,0} %multiply.702, f32[] %constant_650), dimensions={1}, to_apply=%AddComputation.98, metadata={op_type="aten__mean" op_name="aten__mean" source_file="/usr/local/lib/python3.10/site-packages/torch/_ops.py" source_line=756}
  %constant_649 = f32[] constant(0.0009765625), metadata={op_type="aten__mean" op_name="aten__mean" source_file="/usr/local/lib/python3.10/site-packages/torch/_ops.py" source_line=756}
  %broadcast.806 = f32[16]{0} broadcast(f32[] %constant_649), dimensions={}, metadata={op_type="aten__mean" op_name="aten__mean" source_file="/usr/local/lib/python3.10/site-packages/torch/_ops.py" source_line=756}
  %multiply.701 = f32[16]{0} multiply(f32[16]{0} %reduce.61, f32[16]{0} %broadcast.806), metadata={op_type="aten__mean" op_name="aten__mean" source_file="/usr/local/lib/python3.10/site-packages/torch/_ops.py" source_line=756}
  %param_1.999 = f32[] parameter(1)
  %broadcast.805 = f32[16]{0} broadcast(f32[] %param_1.999), dimensions={}, metadata={op_type="aten__add" op_name="aten__add.14/aten__add" source_file="/usr/local/lib/python3.10/site-packages/torch/_ops.py" source_line=756}
  %add.431 = f32[16]{0} add(f32[16]{0} %multiply.701, f32[16]{0} %broadcast.805), metadata={op_type="aten__add" op_name="aten__add.68/aten__add" source_file="/usr/local/lib/python3.10/site-packages/torch/_ops.py" source_line=756}
  %rsqrt.146 = f32[16]{0} rsqrt(f32[16]{0} %add.431), metadata={op_type="aten__rsqrt" op_name="aten__rsqrt" source_file="/usr/local/lib/python3.10/site-packages/torch/_ops.py" source_line=756}
  %broadcast.804 = f32[16,1024]{1,0} broadcast(f32[16]{0} %rsqrt.146), dimensions={0}, metadata={op_type="aten__mul" op_name="aten__mul.69/aten__mul" source_file="/usr/local/lib/python3.10/site-packages/torch/_ops.py" source_line=756}
  %multiply.699 = f32[16,1024]{1,0} multiply(f32[16,1024]{1,0} %param_0.1061, f32[16,1024]{1,0} %broadcast.804), metadata={op_type="aten__mul" op_name="aten__mul.69/aten__mul" source_file="/usr/local/lib/python3.10/site-packages/torch/_ops.py" source_line=756}
  %param_2.638 = bf16[1024]{0} parameter(2)
  %convert.1287.1 = f32[1024]{0} convert(bf16[1024]{0} %param_2.638), metadata={op_type="xla__cast" op_name="xla__cast" source_file="/usr/local/lib/python3.10/site-packages/torch/_ops.py" source_line=756}
  %broadcast.584.1 = f32[16,1024]{1,0} broadcast(f32[1024]{0} %convert.1287.1), dimensions={1}, metadata={op_type="aten__mul" op_name="aten__mul.70/aten__mul" source_file="/usr/local/lib/python3.10/site-packages/torch/_ops.py" source_line=756}
  %multiply.598.1 = f32[16,1024]{1,0} multiply(f32[16,1024]{1,0} %multiply.699, f32[16,1024]{1,0} %broadcast.584.1), metadata={op_type="aten__mul" op_name="aten__mul.70/aten__mul" source_file="/usr/local/lib/python3.10/site-packages/torch/_ops.py" source_line=756}
  ROOT %convert.1289.1 = bf16[16,1024]{1,0} convert(f32[16,1024]{1,0} %multiply.598.1), metadata={op_type="xla__cast" op_name="xla__cast" source_file="/usr/local/lib/python3.10/site-packages/torch/_ops.py" source_line=756}
}

%fused_convert.22 (param_0.1137: bf16[16,6144]) -> bf16[16,3072] {
  %param_0.1137 = bf16[16,6144]{1,0} parameter(0)
  %slice.367.1 = bf16[16,3072]{1,0} slice(bf16[16,6144]{1,0} %param_0.1137), slice={[0:16], [0:3072]}, metadata={op_type="xla__select" op_name="xla__select" source_file="/usr/local/lib/python3.10/site-packages/torch/_ops.py" source_line=756}
  %convert.1290.8 = f32[16,3072]{1,0} convert(bf16[16,3072]{1,0} %slice.367.1)
  %constant_1_10 = bf16[] constant(1), metadata={op_type="xla__select" op_name="xla__select" source_file="/usr/local/lib/python3.10/site-packages/torch/_ops.py" source_line=756}
  %convert.1614.282 = f32[] convert(bf16[] %constant_1_10)
  %broadcast.668.282 = f32[16,3072]{1,0} broadcast(f32[] %convert.1614.282), dimensions={}, metadata={op_type="xla__select" op_name="xla__select" source_file="/usr/local/lib/python3.10/site-packages/torch/_ops.py" source_line=756}
  %negate.81.5 = f32[16,3072]{1,0} negate(f32[16,3072]{1,0} %convert.1290.8)
  %convert.1296.3 = bf16[16,3072]{1,0} convert(f32[16,3072]{1,0} %negate.81.5)
  %exponential.81.1 = bf16[16,3072]{1,0} exponential(bf16[16,3072]{1,0} %convert.1296.3)
  %convert.1297.1 = f32[16,3072]{1,0} convert(bf16[16,3072]{1,0} %exponential.81.1)
  %add.352.7 = f32[16,3072]{1,0} add(f32[16,3072]{1,0} %broadcast.668.282, f32[16,3072]{1,0} %convert.1297.1)
  %divide.81.5 = f32[16,3072]{1,0} divide(f32[16,3072]{1,0} %broadcast.668.282, f32[16,3072]{1,0} %add.352.7), metadata={op_type="aten__silu" op_name="aten__silu" source_file="/usr/local/lib/python3.10/site-packages/torch/_ops.py" source_line=756}
  %multiply.599.5 = f32[16,3072]{1,0} multiply(f32[16,3072]{1,0} %convert.1290.8, f32[16,3072]{1,0} %divide.81.5), metadata={op_type="aten__silu" op_name="aten__silu" source_file="/usr/local/lib/python3.10/site-packages/torch/_ops.py" source_line=756}
  %slice.368.1 = bf16[16,3072]{1,0} slice(bf16[16,6144]{1,0} %param_0.1137), slice={[0:16], [3072:6144]}, metadata={op_type="xla__select" op_name="xla__select" source_file="/usr/local/lib/python3.10/site-packages/torch/_ops.py" source_line=756}
  %convert.1298.1 = f32[16,3072]{1,0} convert(bf16[16,3072]{1,0} %slice.368.1), metadata={op_type="xla__cast" op_name="xla__cast" source_file="/usr/local/lib/python3.10/site-packages/torch/_ops.py" source_line=756}
  %multiply.600.3 = f32[16,3072]{1,0} multiply(f32[16,3072]{1,0} %multiply.599.5, f32[16,3072]{1,0} %convert.1298.1), metadata={op_type="aten__mul" op_name="aten__mul.71/aten__mul" source_file="/usr/local/lib/python3.10/site-packages/torch/_ops.py" source_line=756}
  ROOT %convert.1299.1 = bf16[16,3072]{1,0} convert(f32[16,3072]{1,0} %multiply.600.3), metadata={op_type="xla__cast" op_name="xla__cast" source_file="/usr/local/lib/python3.10/site-packages/torch/_ops.py" source_line=756}
}

%fused_computation.285 (param_0.1097: f32[], param_1.1047: bf16[1024], param_2.704: f32[16,1024], param_3.656: bf16[16,1024], param_4.390: bf16[16,26624]) -> bf16[16,1024] {
  %param_4.390 = bf16[16,26624]{1,0} parameter(4)
  %convert.1241.126 = f32[16,26624]{1,0} convert(bf16[16,26624]{1,0} %param_4.390), metadata={op_type="xla__cast" op_name="xla__cast" source_file="/usr/local/lib/python3.10/site-packages/torch/_ops.py" source_line=756}
  %slice.356.5 = f32[16,1024]{1,0} slice(f32[16,26624]{1,0} %convert.1241.126), slice={[0:16], [21504:22528]}, metadata={op_type="aten__mm" op_name="aten__mm" source_file="/usr/local/lib/python3.10/site-packages/torch/_ops.py" source_line=756}
  %param_3.656 = bf16[16,1024]{1,0} parameter(3)
  %convert.1300.5 = f32[16,1024]{1,0} convert(bf16[16,1024]{1,0} %param_3.656), metadata={op_type="xla__cast" op_name="xla__cast" source_file="/usr/local/lib/python3.10/site-packages/torch/_ops.py" source_line=756}
  %param_2.704 = f32[16,1024]{1,0} parameter(2)
  %add.353.5 = f32[16,1024]{1,0} add(f32[16,1024]{1,0} %convert.1300.5, f32[16,1024]{1,0} %param_2.704), metadata={op_type="aten__add" op_name="aten__add.72/aten__add" source_file="/usr/local/lib/python3.10/site-packages/torch/_ops.py" source_line=756}
  %add.354.3 = f32[16,1024]{1,0} add(f32[16,1024]{1,0} %slice.356.5, f32[16,1024]{1,0} %add.353.5), metadata={op_type="aten__add" op_name="aten__add.85/aten__add" source_file="/usr/local/lib/python3.10/site-packages/torch/_ops.py" source_line=756}
  %multiply.710 = f32[16,1024]{1,0} multiply(f32[16,1024]{1,0} %add.354.3, f32[16,1024]{1,0} %add.354.3), metadata={op_type="aten__pow" op_name="aten__pow" source_file="/usr/local/lib/python3.10/site-packages/torch/_ops.py" source_line=756}
  %constant_655 = f32[] constant(0), metadata={op_type="aten__mean" op_name="aten__mean" source_file="/usr/local/lib/python3.10/site-packages/torch/_ops.py" source_line=756}
  %reduce.63 = f32[16]{0} reduce(f32[16,1024]{1,0} %multiply.710, f32[] %constant_655), dimensions={1}, to_apply=%AddComputation.98, metadata={op_type="aten__mean" op_name="aten__mean" source_file="/usr/local/lib/python3.10/site-packages/torch/_ops.py" source_line=756}
  %constant_654 = f32[] constant(0.0009765625), metadata={op_type="aten__mean" op_name="aten__mean" source_file="/usr/local/lib/python3.10/site-packages/torch/_ops.py" source_line=756}
  %broadcast.812 = f32[16]{0} broadcast(f32[] %constant_654), dimensions={}, metadata={op_type="aten__mean" op_name="aten__mean" source_file="/usr/local/lib/python3.10/site-packages/torch/_ops.py" source_line=756}
  %multiply.708 = f32[16]{0} multiply(f32[16]{0} %reduce.63, f32[16]{0} %broadcast.812), metadata={op_type="aten__mean" op_name="aten__mean" source_file="/usr/local/lib/python3.10/site-packages/torch/_ops.py" source_line=756}
  %param_0.1097 = f32[] parameter(0)
  %broadcast.811 = f32[16]{0} broadcast(f32[] %param_0.1097), dimensions={}, metadata={op_type="aten__add" op_name="aten__add.14/aten__add" source_file="/usr/local/lib/python3.10/site-packages/torch/_ops.py" source_line=756}
  %add.433 = f32[16]{0} add(f32[16]{0} %multiply.708, f32[16]{0} %broadcast.811), metadata={op_type="aten__add" op_name="aten__add.86/aten__add" source_file="/usr/local/lib/python3.10/site-packages/torch/_ops.py" source_line=756}
  %rsqrt.148 = f32[16]{0} rsqrt(f32[16]{0} %add.433), metadata={op_type="aten__rsqrt" op_name="aten__rsqrt" source_file="/usr/local/lib/python3.10/site-packages/torch/_ops.py" source_line=756}
  %broadcast.810 = f32[16,1024]{1,0} broadcast(f32[16]{0} %rsqrt.148), dimensions={0}, metadata={op_type="aten__mul" op_name="aten__mul.87/aten__mul" source_file="/usr/local/lib/python3.10/site-packages/torch/_ops.py" source_line=756}
  %multiply.706 = f32[16,1024]{1,0} multiply(f32[16,1024]{1,0} %add.354.3, f32[16,1024]{1,0} %broadcast.810), metadata={op_type="aten__mul" op_name="aten__mul.87/aten__mul" source_file="/usr/local/lib/python3.10/site-packages/torch/_ops.py" source_line=756}
  %param_1.1047 = bf16[1024]{0} parameter(1)
  %convert.1301.1 = f32[1024]{0} convert(bf16[1024]{0} %param_1.1047), metadata={op_type="xla__cast" op_name="xla__cast" source_file="/usr/local/lib/python3.10/site-packages/torch/_ops.py" source_line=756}
  %broadcast.588.1 = f32[16,1024]{1,0} broadcast(f32[1024]{0} %convert.1301.1), dimensions={1}, metadata={op_type="aten__mul" op_name="aten__mul.88/aten__mul" source_file="/usr/local/lib/python3.10/site-packages/torch/_ops.py" source_line=756}
  %multiply.601.1 = f32[16,1024]{1,0} multiply(f32[16,1024]{1,0} %multiply.706, f32[16,1024]{1,0} %broadcast.588.1), metadata={op_type="aten__mul" op_name="aten__mul.88/aten__mul" source_file="/usr/local/lib/python3.10/site-packages/torch/_ops.py" source_line=756}
  ROOT %convert.1302.1 = bf16[16,1024]{1,0} convert(f32[16,1024]{1,0} %multiply.601.1), metadata={op_type="xla__cast" op_name="xla__cast" source_file="/usr/local/lib/python3.10/site-packages/torch/_ops.py" source_line=756}
}

%fused_convert.21 (param_0.1139: bf16[16,6144]) -> bf16[16,3072] {
  %param_0.1139 = bf16[16,6144]{1,0} parameter(0)
  %slice.369.1 = bf16[16,3072]{1,0} slice(bf16[16,6144]{1,0} %param_0.1139), slice={[0:16], [0:3072]}, metadata={op_type="xla__select" op_name="xla__select" source_file="/usr/local/lib/python3.10/site-packages/torch/_ops.py" source_line=756}
  %convert.1303.8 = f32[16,3072]{1,0} convert(bf16[16,3072]{1,0} %slice.369.1)
  %constant_1_12 = bf16[] constant(1), metadata={op_type="xla__select" op_name="xla__select" source_file="/usr/local/lib/python3.10/site-packages/torch/_ops.py" source_line=756}
  %convert.1614.272 = f32[] convert(bf16[] %constant_1_12)
  %broadcast.668.272 = f32[16,3072]{1,0} broadcast(f32[] %convert.1614.272), dimensions={}, metadata={op_type="xla__select" op_name="xla__select" source_file="/usr/local/lib/python3.10/site-packages/torch/_ops.py" source_line=756}
  %negate.82.5 = f32[16,3072]{1,0} negate(f32[16,3072]{1,0} %convert.1303.8)
  %convert.1310.3 = bf16[16,3072]{1,0} convert(f32[16,3072]{1,0} %negate.82.5)
  %exponential.82.1 = bf16[16,3072]{1,0} exponential(bf16[16,3072]{1,0} %convert.1310.3)
  %convert.1311.1 = f32[16,3072]{1,0} convert(bf16[16,3072]{1,0} %exponential.82.1)
  %add.356.7 = f32[16,3072]{1,0} add(f32[16,3072]{1,0} %broadcast.668.272, f32[16,3072]{1,0} %convert.1311.1)
  %divide.82.5 = f32[16,3072]{1,0} divide(f32[16,3072]{1,0} %broadcast.668.272, f32[16,3072]{1,0} %add.356.7), metadata={op_type="aten__silu" op_name="aten__silu" source_file="/usr/local/lib/python3.10/site-packages/torch/_ops.py" source_line=756}
  %multiply.602.5 = f32[16,3072]{1,0} multiply(f32[16,3072]{1,0} %convert.1303.8, f32[16,3072]{1,0} %divide.82.5), metadata={op_type="aten__silu" op_name="aten__silu" source_file="/usr/local/lib/python3.10/site-packages/torch/_ops.py" source_line=756}
  %slice.370.1 = bf16[16,3072]{1,0} slice(bf16[16,6144]{1,0} %param_0.1139), slice={[0:16], [3072:6144]}, metadata={op_type="xla__select" op_name="xla__select" source_file="/usr/local/lib/python3.10/site-packages/torch/_ops.py" source_line=756}
  %convert.1312.1 = f32[16,3072]{1,0} convert(bf16[16,3072]{1,0} %slice.370.1), metadata={op_type="xla__cast" op_name="xla__cast" source_file="/usr/local/lib/python3.10/site-packages/torch/_ops.py" source_line=756}
  %multiply.603.3 = f32[16,3072]{1,0} multiply(f32[16,3072]{1,0} %multiply.602.5, f32[16,3072]{1,0} %convert.1312.1), metadata={op_type="aten__mul" op_name="aten__mul.89/aten__mul" source_file="/usr/local/lib/python3.10/site-packages/torch/_ops.py" source_line=756}
  ROOT %convert.1313.1 = bf16[16,3072]{1,0} convert(f32[16,3072]{1,0} %multiply.603.3), metadata={op_type="xla__cast" op_name="xla__cast" source_file="/usr/local/lib/python3.10/site-packages/torch/_ops.py" source_line=756}
}

%fused_computation.283 (param_0.1126: f32[], param_1.1079: bf16[1024], param_2.756: f32[16,1024], param_3.728: bf16[16,1024], param_4.469: bf16[16,26624], param_5.100: bf16[16,1024]) -> bf16[16,1024] {
  %param_4.469 = bf16[16,26624]{1,0} parameter(4)
  %convert.1241.204 = f32[16,26624]{1,0} convert(bf16[16,26624]{1,0} %param_4.469), metadata={op_type="xla__cast" op_name="xla__cast" source_file="/usr/local/lib/python3.10/site-packages/torch/_ops.py" source_line=756}
  %slice.355.5 = f32[16,1024]{1,0} slice(f32[16,26624]{1,0} %convert.1241.204), slice={[0:16], [20480:21504]}, metadata={op_type="aten__mm" op_name="aten__mm" source_file="/usr/local/lib/python3.10/site-packages/torch/_ops.py" source_line=756}
  %param_5.100 = bf16[16,1024]{1,0} parameter(5)
  %convert.1314.5 = f32[16,1024]{1,0} convert(bf16[16,1024]{1,0} %param_5.100), metadata={op_type="xla__cast" op_name="xla__cast" source_file="/usr/local/lib/python3.10/site-packages/torch/_ops.py" source_line=756}
  %slice.356.9 = f32[16,1024]{1,0} slice(f32[16,26624]{1,0} %convert.1241.204), slice={[0:16], [21504:22528]}, metadata={op_type="aten__mm" op_name="aten__mm" source_file="/usr/local/lib/python3.10/site-packages/torch/_ops.py" source_line=756}
  %param_3.728 = bf16[16,1024]{1,0} parameter(3)
  %convert.1300.9 = f32[16,1024]{1,0} convert(bf16[16,1024]{1,0} %param_3.728), metadata={op_type="xla__cast" op_name="xla__cast" source_file="/usr/local/lib/python3.10/site-packages/torch/_ops.py" source_line=756}
  %param_2.756 = f32[16,1024]{1,0} parameter(2)
  %add.353.9 = f32[16,1024]{1,0} add(f32[16,1024]{1,0} %convert.1300.9, f32[16,1024]{1,0} %param_2.756), metadata={op_type="aten__add" op_name="aten__add.72/aten__add" source_file="/usr/local/lib/python3.10/site-packages/torch/_ops.py" source_line=756}
  %add.354.7 = f32[16,1024]{1,0} add(f32[16,1024]{1,0} %slice.356.9, f32[16,1024]{1,0} %add.353.9), metadata={op_type="aten__add" op_name="aten__add.85/aten__add" source_file="/usr/local/lib/python3.10/site-packages/torch/_ops.py" source_line=756}
  %add.357.5 = f32[16,1024]{1,0} add(f32[16,1024]{1,0} %convert.1314.5, f32[16,1024]{1,0} %add.354.7), metadata={op_type="aten__add" op_name="aten__add.90/aten__add" source_file="/usr/local/lib/python3.10/site-packages/torch/_ops.py" source_line=756}
  %add.358.3 = f32[16,1024]{1,0} add(f32[16,1024]{1,0} %slice.355.5, f32[16,1024]{1,0} %add.357.5), metadata={op_type="aten__add" op_name="aten__add.103/aten__add" source_file="/usr/local/lib/python3.10/site-packages/torch/_ops.py" source_line=756}
  %multiply.717 = f32[16,1024]{1,0} multiply(f32[16,1024]{1,0} %add.358.3, f32[16,1024]{1,0} %add.358.3), metadata={op_type="aten__pow" op_name="aten__pow" source_file="/usr/local/lib/python3.10/site-packages/torch/_ops.py" source_line=756}
  %constant_660 = f32[] constant(0), metadata={op_type="aten__mean" op_name="aten__mean" source_file="/usr/local/lib/python3.10/site-packages/torch/_ops.py" source_line=756}
  %reduce.65 = f32[16]{0} reduce(f32[16,1024]{1,0} %multiply.717, f32[] %constant_660), dimensions={1}, to_apply=%AddComputation.98, metadata={op_type="aten__mean" op_name="aten__mean" source_file="/usr/local/lib/python3.10/site-packages/torch/_ops.py" source_line=756}
  %constant_659 = f32[] constant(0.0009765625), metadata={op_type="aten__mean" op_name="aten__mean" source_file="/usr/local/lib/python3.10/site-packages/torch/_ops.py" source_line=756}
  %broadcast.819 = f32[16]{0} broadcast(f32[] %constant_659), dimensions={}, metadata={op_type="aten__mean" op_name="aten__mean" source_file="/usr/local/lib/python3.10/site-packages/torch/_ops.py" source_line=756}
  %multiply.716 = f32[16]{0} multiply(f32[16]{0} %reduce.65, f32[16]{0} %broadcast.819), metadata={op_type="aten__mean" op_name="aten__mean" source_file="/usr/local/lib/python3.10/site-packages/torch/_ops.py" source_line=756}
  %param_0.1126 = f32[] parameter(0)
  %broadcast.818 = f32[16]{0} broadcast(f32[] %param_0.1126), dimensions={}, metadata={op_type="aten__add" op_name="aten__add.14/aten__add" source_file="/usr/local/lib/python3.10/site-packages/torch/_ops.py" source_line=756}
  %add.435 = f32[16]{0} add(f32[16]{0} %multiply.716, f32[16]{0} %broadcast.818), metadata={op_type="aten__add" op_name="aten__add.104/aten__add" source_file="/usr/local/lib/python3.10/site-packages/torch/_ops.py" source_line=756}
  %rsqrt.150 = f32[16]{0} rsqrt(f32[16]{0} %add.435), metadata={op_type="aten__rsqrt" op_name="aten__rsqrt" source_file="/usr/local/lib/python3.10/site-packages/torch/_ops.py" source_line=756}
  %broadcast.817 = f32[16,1024]{1,0} broadcast(f32[16]{0} %rsqrt.150), dimensions={0}, metadata={op_type="aten__mul" op_name="aten__mul.105/aten__mul" source_file="/usr/local/lib/python3.10/site-packages/torch/_ops.py" source_line=756}
  %multiply.715 = f32[16,1024]{1,0} multiply(f32[16,1024]{1,0} %add.358.3, f32[16,1024]{1,0} %broadcast.817), metadata={op_type="aten__mul" op_name="aten__mul.105/aten__mul" source_file="/usr/local/lib/python3.10/site-packages/torch/_ops.py" source_line=756}
  %param_1.1079 = bf16[1024]{0} parameter(1)
  %convert.1316.1 = f32[1024]{0} convert(bf16[1024]{0} %param_1.1079), metadata={op_type="xla__cast" op_name="xla__cast" source_file="/usr/local/lib/python3.10/site-packages/torch/_ops.py" source_line=756}
  %broadcast.591.1 = f32[16,1024]{1,0} broadcast(f32[1024]{0} %convert.1316.1), dimensions={1}, metadata={op_type="aten__mul" op_name="aten__mul.106/aten__mul" source_file="/usr/local/lib/python3.10/site-packages/torch/_ops.py" source_line=756}
  %multiply.604.1 = f32[16,1024]{1,0} multiply(f32[16,1024]{1,0} %multiply.715, f32[16,1024]{1,0} %broadcast.591.1), metadata={op_type="aten__mul" op_name="aten__mul.106/aten__mul" source_file="/usr/local/lib/python3.10/site-packages/torch/_ops.py" source_line=756}
  ROOT %convert.1317.1 = bf16[16,1024]{1,0} convert(f32[16,1024]{1,0} %multiply.604.1), metadata={op_type="xla__cast" op_name="xla__cast" source_file="/usr/local/lib/python3.10/site-packages/torch/_ops.py" source_line=756}
}

%fused_convert.20 (param_0.1141: bf16[16,6144]) -> bf16[16,3072] {
  %param_0.1141 = bf16[16,6144]{1,0} parameter(0)
  %slice.371.1 = bf16[16,3072]{1,0} slice(bf16[16,6144]{1,0} %param_0.1141), slice={[0:16], [0:3072]}, metadata={op_type="xla__select" op_name="xla__select" source_file="/usr/local/lib/python3.10/site-packages/torch/_ops.py" source_line=756}
  %convert.1318.8 = f32[16,3072]{1,0} convert(bf16[16,3072]{1,0} %slice.371.1)
  %constant_1_14 = bf16[] constant(1), metadata={op_type="xla__select" op_name="xla__select" source_file="/usr/local/lib/python3.10/site-packages/torch/_ops.py" source_line=756}
  %convert.1614.262 = f32[] convert(bf16[] %constant_1_14)
  %broadcast.668.262 = f32[16,3072]{1,0} broadcast(f32[] %convert.1614.262), dimensions={}, metadata={op_type="xla__select" op_name="xla__select" source_file="/usr/local/lib/python3.10/site-packages/torch/_ops.py" source_line=756}
  %negate.83.5 = f32[16,3072]{1,0} negate(f32[16,3072]{1,0} %convert.1318.8)
  %convert.1322.3 = bf16[16,3072]{1,0} convert(f32[16,3072]{1,0} %negate.83.5)
  %exponential.83.1 = bf16[16,3072]{1,0} exponential(bf16[16,3072]{1,0} %convert.1322.3)
  %convert.1323.1 = f32[16,3072]{1,0} convert(bf16[16,3072]{1,0} %exponential.83.1)
  %add.359.7 = f32[16,3072]{1,0} add(f32[16,3072]{1,0} %broadcast.668.262, f32[16,3072]{1,0} %convert.1323.1)
  %divide.83.5 = f32[16,3072]{1,0} divide(f32[16,3072]{1,0} %broadcast.668.262, f32[16,3072]{1,0} %add.359.7), metadata={op_type="aten__silu" op_name="aten__silu" source_file="/usr/local/lib/python3.10/site-packages/torch/_ops.py" source_line=756}
  %multiply.605.5 = f32[16,3072]{1,0} multiply(f32[16,3072]{1,0} %convert.1318.8, f32[16,3072]{1,0} %divide.83.5), metadata={op_type="aten__silu" op_name="aten__silu" source_file="/usr/local/lib/python3.10/site-packages/torch/_ops.py" source_line=756}
  %slice.372.1 = bf16[16,3072]{1,0} slice(bf16[16,6144]{1,0} %param_0.1141), slice={[0:16], [3072:6144]}, metadata={op_type="xla__select" op_name="xla__select" source_file="/usr/local/lib/python3.10/site-packages/torch/_ops.py" source_line=756}
  %convert.1324.1 = f32[16,3072]{1,0} convert(bf16[16,3072]{1,0} %slice.372.1), metadata={op_type="xla__cast" op_name="xla__cast" source_file="/usr/local/lib/python3.10/site-packages/torch/_ops.py" source_line=756}
  %multiply.606.3 = f32[16,3072]{1,0} multiply(f32[16,3072]{1,0} %multiply.605.5, f32[16,3072]{1,0} %convert.1324.1), metadata={op_type="aten__mul" op_name="aten__mul.107/aten__mul" source_file="/usr/local/lib/python3.10/site-packages/torch/_ops.py" source_line=756}
  ROOT %convert.1325.1 = bf16[16,3072]{1,0} convert(f32[16,3072]{1,0} %multiply.606.3), metadata={op_type="xla__cast" op_name="xla__cast" source_file="/usr/local/lib/python3.10/site-packages/torch/_ops.py" source_line=756}
}

%fused_computation.281 (param_0.1094: f32[], param_1.1043: bf16[1024], param_2.760: bf16[16,1024], param_3.733: bf16[16,26624], param_4.475: f32[16,1024], param_5.109: bf16[16,1024], param_6.105: bf16[16,1024]) -> bf16[16,1024] {
  %param_3.733 = bf16[16,26624]{1,0} parameter(3)
  %convert.1241.122 = f32[16,26624]{1,0} convert(bf16[16,26624]{1,0} %param_3.733), metadata={op_type="xla__cast" op_name="xla__cast" source_file="/usr/local/lib/python3.10/site-packages/torch/_ops.py" source_line=756}
  %slice.354.5 = f32[16,1024]{1,0} slice(f32[16,26624]{1,0} %convert.1241.122), slice={[0:16], [19456:20480]}, metadata={op_type="aten__mm" op_name="aten__mm" source_file="/usr/local/lib/python3.10/site-packages/torch/_ops.py" source_line=756}
  %param_2.760 = bf16[16,1024]{1,0} parameter(2)
  %convert.1326.5 = f32[16,1024]{1,0} convert(bf16[16,1024]{1,0} %param_2.760), metadata={op_type="xla__cast" op_name="xla__cast" source_file="/usr/local/lib/python3.10/site-packages/torch/_ops.py" source_line=756}
  %slice.355.9 = f32[16,1024]{1,0} slice(f32[16,26624]{1,0} %convert.1241.122), slice={[0:16], [20480:21504]}, metadata={op_type="aten__mm" op_name="aten__mm" source_file="/usr/local/lib/python3.10/site-packages/torch/_ops.py" source_line=756}
  %param_6.105 = bf16[16,1024]{1,0} parameter(6)
  %convert.1314.9 = f32[16,1024]{1,0} convert(bf16[16,1024]{1,0} %param_6.105), metadata={op_type="xla__cast" op_name="xla__cast" source_file="/usr/local/lib/python3.10/site-packages/torch/_ops.py" source_line=756}
  %slice.356.13 = f32[16,1024]{1,0} slice(f32[16,26624]{1,0} %convert.1241.122), slice={[0:16], [21504:22528]}, metadata={op_type="aten__mm" op_name="aten__mm" source_file="/usr/local/lib/python3.10/site-packages/torch/_ops.py" source_line=756}
  %param_5.109 = bf16[16,1024]{1,0} parameter(5)
  %convert.1300.13 = f32[16,1024]{1,0} convert(bf16[16,1024]{1,0} %param_5.109), metadata={op_type="xla__cast" op_name="xla__cast" source_file="/usr/local/lib/python3.10/site-packages/torch/_ops.py" source_line=756}
  %param_4.475 = f32[16,1024]{1,0} parameter(4)
  %add.353.13 = f32[16,1024]{1,0} add(f32[16,1024]{1,0} %convert.1300.13, f32[16,1024]{1,0} %param_4.475), metadata={op_type="aten__add" op_name="aten__add.72/aten__add" source_file="/usr/local/lib/python3.10/site-packages/torch/_ops.py" source_line=756}
  %add.354.11 = f32[16,1024]{1,0} add(f32[16,1024]{1,0} %slice.356.13, f32[16,1024]{1,0} %add.353.13), metadata={op_type="aten__add" op_name="aten__add.85/aten__add" source_file="/usr/local/lib/python3.10/site-packages/torch/_ops.py" source_line=756}
  %add.357.9 = f32[16,1024]{1,0} add(f32[16,1024]{1,0} %convert.1314.9, f32[16,1024]{1,0} %add.354.11), metadata={op_type="aten__add" op_name="aten__add.90/aten__add" source_file="/usr/local/lib/python3.10/site-packages/torch/_ops.py" source_line=756}
  %add.358.7 = f32[16,1024]{1,0} add(f32[16,1024]{1,0} %slice.355.9, f32[16,1024]{1,0} %add.357.9), metadata={op_type="aten__add" op_name="aten__add.103/aten__add" source_file="/usr/local/lib/python3.10/site-packages/torch/_ops.py" source_line=756}
  %add.360.5 = f32[16,1024]{1,0} add(f32[16,1024]{1,0} %convert.1326.5, f32[16,1024]{1,0} %add.358.7), metadata={op_type="aten__add" op_name="aten__add.108/aten__add" source_file="/usr/local/lib/python3.10/site-packages/torch/_ops.py" source_line=756}
  %add.361.3 = f32[16,1024]{1,0} add(f32[16,1024]{1,0} %slice.354.5, f32[16,1024]{1,0} %add.360.5), metadata={op_type="aten__add" op_name="aten__add.121/aten__add" source_file="/usr/local/lib/python3.10/site-packages/torch/_ops.py" source_line=756}
  %multiply.723 = f32[16,1024]{1,0} multiply(f32[16,1024]{1,0} %add.361.3, f32[16,1024]{1,0} %add.361.3), metadata={op_type="aten__pow" op_name="aten__pow" source_file="/usr/local/lib/python3.10/site-packages/torch/_ops.py" source_line=756}
  %constant_665 = f32[] constant(0), metadata={op_type="aten__mean" op_name="aten__mean" source_file="/usr/local/lib/python3.10/site-packages/torch/_ops.py" source_line=756}
  %reduce.67 = f32[16]{0} reduce(f32[16,1024]{1,0} %multiply.723, f32[] %constant_665), dimensions={1}, to_apply=%AddComputation.98, metadata={op_type="aten__mean" op_name="aten__mean" source_file="/usr/local/lib/python3.10/site-packages/torch/_ops.py" source_line=756}
  %constant_664 = f32[] constant(0.0009765625), metadata={op_type="aten__mean" op_name="aten__mean" source_file="/usr/local/lib/python3.10/site-packages/torch/_ops.py" source_line=756}
  %broadcast.825 = f32[16]{0} broadcast(f32[] %constant_664), dimensions={}, metadata={op_type="aten__mean" op_name="aten__mean" source_file="/usr/local/lib/python3.10/site-packages/torch/_ops.py" source_line=756}
  %multiply.722 = f32[16]{0} multiply(f32[16]{0} %reduce.67, f32[16]{0} %broadcast.825), metadata={op_type="aten__mean" op_name="aten__mean" source_file="/usr/local/lib/python3.10/site-packages/torch/_ops.py" source_line=756}
  %param_0.1094 = f32[] parameter(0)
  %broadcast.824 = f32[16]{0} broadcast(f32[] %param_0.1094), dimensions={}, metadata={op_type="aten__add" op_name="aten__add.14/aten__add" source_file="/usr/local/lib/python3.10/site-packages/torch/_ops.py" source_line=756}
  %add.437 = f32[16]{0} add(f32[16]{0} %multiply.722, f32[16]{0} %broadcast.824), metadata={op_type="aten__add" op_name="aten__add.122/aten__add" source_file="/usr/local/lib/python3.10/site-packages/torch/_ops.py" source_line=756}
  %rsqrt.152 = f32[16]{0} rsqrt(f32[16]{0} %add.437), metadata={op_type="aten__rsqrt" op_name="aten__rsqrt" source_file="/usr/local/lib/python3.10/site-packages/torch/_ops.py" source_line=756}
  %broadcast.823 = f32[16,1024]{1,0} broadcast(f32[16]{0} %rsqrt.152), dimensions={0}, metadata={op_type="aten__mul" op_name="aten__mul.123/aten__mul" source_file="/usr/local/lib/python3.10/site-packages/torch/_ops.py" source_line=756}
  %multiply.721 = f32[16,1024]{1,0} multiply(f32[16,1024]{1,0} %add.361.3, f32[16,1024]{1,0} %broadcast.823), metadata={op_type="aten__mul" op_name="aten__mul.123/aten__mul" source_file="/usr/local/lib/python3.10/site-packages/torch/_ops.py" source_line=756}
  %param_1.1043 = bf16[1024]{0} parameter(1)
  %convert.1327.1 = f32[1024]{0} convert(bf16[1024]{0} %param_1.1043), metadata={op_type="xla__cast" op_name="xla__cast" source_file="/usr/local/lib/python3.10/site-packages/torch/_ops.py" source_line=756}
  %broadcast.594.1 = f32[16,1024]{1,0} broadcast(f32[1024]{0} %convert.1327.1), dimensions={1}, metadata={op_type="aten__mul" op_name="aten__mul.124/aten__mul" source_file="/usr/local/lib/python3.10/site-packages/torch/_ops.py" source_line=756}
  %multiply.607.1 = f32[16,1024]{1,0} multiply(f32[16,1024]{1,0} %multiply.721, f32[16,1024]{1,0} %broadcast.594.1), metadata={op_type="aten__mul" op_name="aten__mul.124/aten__mul" source_file="/usr/local/lib/python3.10/site-packages/torch/_ops.py" source_line=756}
  ROOT %convert.1328.1 = bf16[16,1024]{1,0} convert(f32[16,1024]{1,0} %multiply.607.1), metadata={op_type="xla__cast" op_name="xla__cast" source_file="/usr/local/lib/python3.10/site-packages/torch/_ops.py" source_line=756}
}

%fused_convert.19 (param_0.1143: bf16[16,6144]) -> bf16[16,3072] {
  %param_0.1143 = bf16[16,6144]{1,0} parameter(0)
  %slice.373.1 = bf16[16,3072]{1,0} slice(bf16[16,6144]{1,0} %param_0.1143), slice={[0:16], [0:3072]}, metadata={op_type="xla__select" op_name="xla__select" source_file="/usr/local/lib/python3.10/site-packages/torch/_ops.py" source_line=756}
  %convert.1329.8 = f32[16,3072]{1,0} convert(bf16[16,3072]{1,0} %slice.373.1)
  %constant_1_16 = bf16[] constant(1), metadata={op_type="xla__select" op_name="xla__select" source_file="/usr/local/lib/python3.10/site-packages/torch/_ops.py" source_line=756}
  %convert.1614.252 = f32[] convert(bf16[] %constant_1_16)
  %broadcast.668.252 = f32[16,3072]{1,0} broadcast(f32[] %convert.1614.252), dimensions={}, metadata={op_type="xla__select" op_name="xla__select" source_file="/usr/local/lib/python3.10/site-packages/torch/_ops.py" source_line=756}
  %negate.84.5 = f32[16,3072]{1,0} negate(f32[16,3072]{1,0} %convert.1329.8)
  %convert.1334.3 = bf16[16,3072]{1,0} convert(f32[16,3072]{1,0} %negate.84.5)
  %exponential.84.1 = bf16[16,3072]{1,0} exponential(bf16[16,3072]{1,0} %convert.1334.3)
  %convert.1335.1 = f32[16,3072]{1,0} convert(bf16[16,3072]{1,0} %exponential.84.1)
  %add.362.7 = f32[16,3072]{1,0} add(f32[16,3072]{1,0} %broadcast.668.252, f32[16,3072]{1,0} %convert.1335.1)
  %divide.84.5 = f32[16,3072]{1,0} divide(f32[16,3072]{1,0} %broadcast.668.252, f32[16,3072]{1,0} %add.362.7), metadata={op_type="aten__silu" op_name="aten__silu" source_file="/usr/local/lib/python3.10/site-packages/torch/_ops.py" source_line=756}
  %multiply.608.5 = f32[16,3072]{1,0} multiply(f32[16,3072]{1,0} %convert.1329.8, f32[16,3072]{1,0} %divide.84.5), metadata={op_type="aten__silu" op_name="aten__silu" source_file="/usr/local/lib/python3.10/site-packages/torch/_ops.py" source_line=756}
  %slice.374.1 = bf16[16,3072]{1,0} slice(bf16[16,6144]{1,0} %param_0.1143), slice={[0:16], [3072:6144]}, metadata={op_type="xla__select" op_name="xla__select" source_file="/usr/local/lib/python3.10/site-packages/torch/_ops.py" source_line=756}
  %convert.1336.1 = f32[16,3072]{1,0} convert(bf16[16,3072]{1,0} %slice.374.1), metadata={op_type="xla__cast" op_name="xla__cast" source_file="/usr/local/lib/python3.10/site-packages/torch/_ops.py" source_line=756}
  %multiply.609.3 = f32[16,3072]{1,0} multiply(f32[16,3072]{1,0} %multiply.608.5, f32[16,3072]{1,0} %convert.1336.1), metadata={op_type="aten__mul" op_name="aten__mul.125/aten__mul" source_file="/usr/local/lib/python3.10/site-packages/torch/_ops.py" source_line=756}
  ROOT %convert.1338.1 = bf16[16,3072]{1,0} convert(f32[16,3072]{1,0} %multiply.609.3), metadata={op_type="xla__cast" op_name="xla__cast" source_file="/usr/local/lib/python3.10/site-packages/torch/_ops.py" source_line=756}
}

%fused_add.1 (param_0.917: bf16[16,26624], param_1.1045: bf16[16,1024], param_2.758: bf16[16,1024], param_3.731: f32[16,1024], param_4.473: bf16[16,1024], param_5.105: bf16[16,1024]) -> f32[16,1024] {
  %param_0.917 = bf16[16,26624]{1,0} parameter(0)
  %convert.1241.42 = f32[16,26624]{1,0} convert(bf16[16,26624]{1,0} %param_0.917), metadata={op_type="xla__cast" op_name="xla__cast" source_file="/usr/local/lib/python3.10/site-packages/torch/_ops.py" source_line=756}
  %slice.353.3 = f32[16,1024]{1,0} slice(f32[16,26624]{1,0} %convert.1241.42), slice={[0:16], [18432:19456]}, metadata={op_type="aten__mm" op_name="aten__mm" source_file="/usr/local/lib/python3.10/site-packages/torch/_ops.py" source_line=756}
  %param_1.1045 = bf16[16,1024]{1,0} parameter(1)
  %convert.1339.3 = f32[16,1024]{1,0} convert(bf16[16,1024]{1,0} %param_1.1045), metadata={op_type="xla__cast" op_name="xla__cast" source_file="/usr/local/lib/python3.10/site-packages/torch/_ops.py" source_line=756}
  %slice.354.7 = f32[16,1024]{1,0} slice(f32[16,26624]{1,0} %convert.1241.42), slice={[0:16], [19456:20480]}, metadata={op_type="aten__mm" op_name="aten__mm" source_file="/usr/local/lib/python3.10/site-packages/torch/_ops.py" source_line=756}
  %param_2.758 = bf16[16,1024]{1,0} parameter(2)
  %convert.1326.7 = f32[16,1024]{1,0} convert(bf16[16,1024]{1,0} %param_2.758), metadata={op_type="xla__cast" op_name="xla__cast" source_file="/usr/local/lib/python3.10/site-packages/torch/_ops.py" source_line=756}
  %slice.355.7 = f32[16,1024]{1,0} slice(f32[16,26624]{1,0} %convert.1241.42), slice={[0:16], [20480:21504]}, metadata={op_type="aten__mm" op_name="aten__mm" source_file="/usr/local/lib/python3.10/site-packages/torch/_ops.py" source_line=756}
  %param_5.105 = bf16[16,1024]{1,0} parameter(5)
  %convert.1314.7 = f32[16,1024]{1,0} convert(bf16[16,1024]{1,0} %param_5.105), metadata={op_type="xla__cast" op_name="xla__cast" source_file="/usr/local/lib/python3.10/site-packages/torch/_ops.py" source_line=756}
  %slice.356.11 = f32[16,1024]{1,0} slice(f32[16,26624]{1,0} %convert.1241.42), slice={[0:16], [21504:22528]}, metadata={op_type="aten__mm" op_name="aten__mm" source_file="/usr/local/lib/python3.10/site-packages/torch/_ops.py" source_line=756}
  %param_4.473 = bf16[16,1024]{1,0} parameter(4)
  %convert.1300.11 = f32[16,1024]{1,0} convert(bf16[16,1024]{1,0} %param_4.473), metadata={op_type="xla__cast" op_name="xla__cast" source_file="/usr/local/lib/python3.10/site-packages/torch/_ops.py" source_line=756}
  %param_3.731 = f32[16,1024]{1,0} parameter(3)
  %add.353.11 = f32[16,1024]{1,0} add(f32[16,1024]{1,0} %convert.1300.11, f32[16,1024]{1,0} %param_3.731), metadata={op_type="aten__add" op_name="aten__add.72/aten__add" source_file="/usr/local/lib/python3.10/site-packages/torch/_ops.py" source_line=756}
  %add.354.9 = f32[16,1024]{1,0} add(f32[16,1024]{1,0} %slice.356.11, f32[16,1024]{1,0} %add.353.11), metadata={op_type="aten__add" op_name="aten__add.85/aten__add" source_file="/usr/local/lib/python3.10/site-packages/torch/_ops.py" source_line=756}
  %add.357.7 = f32[16,1024]{1,0} add(f32[16,1024]{1,0} %convert.1314.7, f32[16,1024]{1,0} %add.354.9), metadata={op_type="aten__add" op_name="aten__add.90/aten__add" source_file="/usr/local/lib/python3.10/site-packages/torch/_ops.py" source_line=756}
  %add.358.5 = f32[16,1024]{1,0} add(f32[16,1024]{1,0} %slice.355.7, f32[16,1024]{1,0} %add.357.7), metadata={op_type="aten__add" op_name="aten__add.103/aten__add" source_file="/usr/local/lib/python3.10/site-packages/torch/_ops.py" source_line=756}
  %add.360.7 = f32[16,1024]{1,0} add(f32[16,1024]{1,0} %convert.1326.7, f32[16,1024]{1,0} %add.358.5), metadata={op_type="aten__add" op_name="aten__add.108/aten__add" source_file="/usr/local/lib/python3.10/site-packages/torch/_ops.py" source_line=756}
  %add.361.5 = f32[16,1024]{1,0} add(f32[16,1024]{1,0} %slice.354.7, f32[16,1024]{1,0} %add.360.7), metadata={op_type="aten__add" op_name="aten__add.121/aten__add" source_file="/usr/local/lib/python3.10/site-packages/torch/_ops.py" source_line=756}
  %add.363.3 = f32[16,1024]{1,0} add(f32[16,1024]{1,0} %convert.1339.3, f32[16,1024]{1,0} %add.361.5), metadata={op_type="aten__add" op_name="aten__add.126/aten__add" source_file="/usr/local/lib/python3.10/site-packages/torch/_ops.py" source_line=756}
  ROOT %add.364.1 = f32[16,1024]{1,0} add(f32[16,1024]{1,0} %slice.353.3, f32[16,1024]{1,0} %add.363.3), metadata={op_type="aten__add" op_name="aten__add.139/aten__add" source_file="/usr/local/lib/python3.10/site-packages/torch/_ops.py" source_line=756}
}

%fused_computation.279 (param_0.1057: f32[16,1024], param_1.995: f32[], param_2.634: bf16[1024]) -> bf16[16,1024] {
  %param_0.1057 = f32[16,1024]{1,0} parameter(0)
  %multiply.729 = f32[16,1024]{1,0} multiply(f32[16,1024]{1,0} %param_0.1057, f32[16,1024]{1,0} %param_0.1057), metadata={op_type="aten__pow" op_name="aten__pow" source_file="/usr/local/lib/python3.10/site-packages/torch/_ops.py" source_line=756}
  %constant_674 = f32[] constant(0), metadata={op_type="aten__mean" op_name="aten__mean" source_file="/usr/local/lib/python3.10/site-packages/torch/_ops.py" source_line=756}
  %reduce.69 = f32[16]{0} reduce(f32[16,1024]{1,0} %multiply.729, f32[] %constant_674), dimensions={1}, to_apply=%AddComputation.98, metadata={op_type="aten__mean" op_name="aten__mean" source_file="/usr/local/lib/python3.10/site-packages/torch/_ops.py" source_line=756}
  %constant_671 = f32[] constant(0.0009765625), metadata={op_type="aten__mean" op_name="aten__mean" source_file="/usr/local/lib/python3.10/site-packages/torch/_ops.py" source_line=756}
  %broadcast.832 = f32[16]{0} broadcast(f32[] %constant_671), dimensions={}, metadata={op_type="aten__mean" op_name="aten__mean" source_file="/usr/local/lib/python3.10/site-packages/torch/_ops.py" source_line=756}
  %multiply.728 = f32[16]{0} multiply(f32[16]{0} %reduce.69, f32[16]{0} %broadcast.832), metadata={op_type="aten__mean" op_name="aten__mean" source_file="/usr/local/lib/python3.10/site-packages/torch/_ops.py" source_line=756}
  %param_1.995 = f32[] parameter(1)
  %broadcast.831 = f32[16]{0} broadcast(f32[] %param_1.995), dimensions={}, metadata={op_type="aten__add" op_name="aten__add.14/aten__add" source_file="/usr/local/lib/python3.10/site-packages/torch/_ops.py" source_line=756}
  %add.439 = f32[16]{0} add(f32[16]{0} %multiply.728, f32[16]{0} %broadcast.831), metadata={op_type="aten__add" op_name="aten__add.140/aten__add" source_file="/usr/local/lib/python3.10/site-packages/torch/_ops.py" source_line=756}
  %rsqrt.154 = f32[16]{0} rsqrt(f32[16]{0} %add.439), metadata={op_type="aten__rsqrt" op_name="aten__rsqrt" source_file="/usr/local/lib/python3.10/site-packages/torch/_ops.py" source_line=756}
  %broadcast.829 = f32[16,1024]{1,0} broadcast(f32[16]{0} %rsqrt.154), dimensions={0}, metadata={op_type="aten__mul" op_name="aten__mul.141/aten__mul" source_file="/usr/local/lib/python3.10/site-packages/torch/_ops.py" source_line=756}
  %multiply.727 = f32[16,1024]{1,0} multiply(f32[16,1024]{1,0} %param_0.1057, f32[16,1024]{1,0} %broadcast.829), metadata={op_type="aten__mul" op_name="aten__mul.141/aten__mul" source_file="/usr/local/lib/python3.10/site-packages/torch/_ops.py" source_line=756}
  %param_2.634 = bf16[1024]{0} parameter(2)
  %convert.1340.1 = f32[1024]{0} convert(bf16[1024]{0} %param_2.634), metadata={op_type="xla__cast" op_name="xla__cast" source_file="/usr/local/lib/python3.10/site-packages/torch/_ops.py" source_line=756}
  %broadcast.597.1 = f32[16,1024]{1,0} broadcast(f32[1024]{0} %convert.1340.1), dimensions={1}, metadata={op_type="aten__mul" op_name="aten__mul.142/aten__mul" source_file="/usr/local/lib/python3.10/site-packages/torch/_ops.py" source_line=756}
  %multiply.610.1 = f32[16,1024]{1,0} multiply(f32[16,1024]{1,0} %multiply.727, f32[16,1024]{1,0} %broadcast.597.1), metadata={op_type="aten__mul" op_name="aten__mul.142/aten__mul" source_file="/usr/local/lib/python3.10/site-packages/torch/_ops.py" source_line=756}
  ROOT %convert.1341.1 = bf16[16,1024]{1,0} convert(f32[16,1024]{1,0} %multiply.610.1), metadata={op_type="xla__cast" op_name="xla__cast" source_file="/usr/local/lib/python3.10/site-packages/torch/_ops.py" source_line=756}
}

%fused_convert.18 (param_0.1145: bf16[16,6144]) -> bf16[16,3072] {
  %param_0.1145 = bf16[16,6144]{1,0} parameter(0)
  %slice.375.1 = bf16[16,3072]{1,0} slice(bf16[16,6144]{1,0} %param_0.1145), slice={[0:16], [0:3072]}, metadata={op_type="xla__select" op_name="xla__select" source_file="/usr/local/lib/python3.10/site-packages/torch/_ops.py" source_line=756}
  %convert.1342.8 = f32[16,3072]{1,0} convert(bf16[16,3072]{1,0} %slice.375.1)
  %constant_1_18 = bf16[] constant(1), metadata={op_type="xla__select" op_name="xla__select" source_file="/usr/local/lib/python3.10/site-packages/torch/_ops.py" source_line=756}
  %convert.1614.242 = f32[] convert(bf16[] %constant_1_18)
  %broadcast.668.242 = f32[16,3072]{1,0} broadcast(f32[] %convert.1614.242), dimensions={}, metadata={op_type="xla__select" op_name="xla__select" source_file="/usr/local/lib/python3.10/site-packages/torch/_ops.py" source_line=756}
  %negate.85.5 = f32[16,3072]{1,0} negate(f32[16,3072]{1,0} %convert.1342.8)
  %convert.1348.3 = bf16[16,3072]{1,0} convert(f32[16,3072]{1,0} %negate.85.5)
  %exponential.85.1 = bf16[16,3072]{1,0} exponential(bf16[16,3072]{1,0} %convert.1348.3)
  %convert.1350.1 = f32[16,3072]{1,0} convert(bf16[16,3072]{1,0} %exponential.85.1)
  %add.365.7 = f32[16,3072]{1,0} add(f32[16,3072]{1,0} %broadcast.668.242, f32[16,3072]{1,0} %convert.1350.1)
  %divide.85.5 = f32[16,3072]{1,0} divide(f32[16,3072]{1,0} %broadcast.668.242, f32[16,3072]{1,0} %add.365.7), metadata={op_type="aten__silu" op_name="aten__silu" source_file="/usr/local/lib/python3.10/site-packages/torch/_ops.py" source_line=756}
  %multiply.611.5 = f32[16,3072]{1,0} multiply(f32[16,3072]{1,0} %convert.1342.8, f32[16,3072]{1,0} %divide.85.5), metadata={op_type="aten__silu" op_name="aten__silu" source_file="/usr/local/lib/python3.10/site-packages/torch/_ops.py" source_line=756}
  %slice.376.1 = bf16[16,3072]{1,0} slice(bf16[16,6144]{1,0} %param_0.1145), slice={[0:16], [3072:6144]}, metadata={op_type="xla__select" op_name="xla__select" source_file="/usr/local/lib/python3.10/site-packages/torch/_ops.py" source_line=756}
  %convert.1351.1 = f32[16,3072]{1,0} convert(bf16[16,3072]{1,0} %slice.376.1), metadata={op_type="xla__cast" op_name="xla__cast" source_file="/usr/local/lib/python3.10/site-packages/torch/_ops.py" source_line=756}
  %multiply.612.3 = f32[16,3072]{1,0} multiply(f32[16,3072]{1,0} %multiply.611.5, f32[16,3072]{1,0} %convert.1351.1), metadata={op_type="aten__mul" op_name="aten__mul.143/aten__mul" source_file="/usr/local/lib/python3.10/site-packages/torch/_ops.py" source_line=756}
  ROOT %convert.1353.1 = bf16[16,3072]{1,0} convert(f32[16,3072]{1,0} %multiply.612.3), metadata={op_type="xla__cast" op_name="xla__cast" source_file="/usr/local/lib/python3.10/site-packages/torch/_ops.py" source_line=756}
}

%fused_computation.277 (param_0.1091: f32[], param_1.1039: bf16[1024], param_2.692: f32[16,1024], param_3.640: bf16[16,1024], param_4.376: bf16[16,26624]) -> bf16[16,1024] {
  %param_4.376 = bf16[16,26624]{1,0} parameter(4)
  %convert.1241.118 = f32[16,26624]{1,0} convert(bf16[16,26624]{1,0} %param_4.376), metadata={op_type="xla__cast" op_name="xla__cast" source_file="/usr/local/lib/python3.10/site-packages/torch/_ops.py" source_line=756}
  %slice.352.5 = f32[16,1024]{1,0} slice(f32[16,26624]{1,0} %convert.1241.118), slice={[0:16], [17408:18432]}, metadata={op_type="aten__mm" op_name="aten__mm" source_file="/usr/local/lib/python3.10/site-packages/torch/_ops.py" source_line=756}
  %param_3.640 = bf16[16,1024]{1,0} parameter(3)
  %convert.1354.5 = f32[16,1024]{1,0} convert(bf16[16,1024]{1,0} %param_3.640), metadata={op_type="xla__cast" op_name="xla__cast" source_file="/usr/local/lib/python3.10/site-packages/torch/_ops.py" source_line=756}
  %param_2.692 = f32[16,1024]{1,0} parameter(2)
  %add.366.5 = f32[16,1024]{1,0} add(f32[16,1024]{1,0} %convert.1354.5, f32[16,1024]{1,0} %param_2.692), metadata={op_type="aten__add" op_name="aten__add.144/aten__add" source_file="/usr/local/lib/python3.10/site-packages/torch/_ops.py" source_line=756}
  %add.367.3 = f32[16,1024]{1,0} add(f32[16,1024]{1,0} %slice.352.5, f32[16,1024]{1,0} %add.366.5), metadata={op_type="aten__add" op_name="aten__add.157/aten__add" source_file="/usr/local/lib/python3.10/site-packages/torch/_ops.py" source_line=756}
  %multiply.736 = f32[16,1024]{1,0} multiply(f32[16,1024]{1,0} %add.367.3, f32[16,1024]{1,0} %add.367.3), metadata={op_type="aten__pow" op_name="aten__pow" source_file="/usr/local/lib/python3.10/site-packages/torch/_ops.py" source_line=756}
  %constant_682 = f32[] constant(0), metadata={op_type="aten__mean" op_name="aten__mean" source_file="/usr/local/lib/python3.10/site-packages/torch/_ops.py" source_line=756}
  %reduce.71 = f32[16]{0} reduce(f32[16,1024]{1,0} %multiply.736, f32[] %constant_682), dimensions={1}, to_apply=%AddComputation.98, metadata={op_type="aten__mean" op_name="aten__mean" source_file="/usr/local/lib/python3.10/site-packages/torch/_ops.py" source_line=756}
  %constant_678 = f32[] constant(0.0009765625), metadata={op_type="aten__mean" op_name="aten__mean" source_file="/usr/local/lib/python3.10/site-packages/torch/_ops.py" source_line=756}
  %broadcast.840 = f32[16]{0} broadcast(f32[] %constant_678), dimensions={}, metadata={op_type="aten__mean" op_name="aten__mean" source_file="/usr/local/lib/python3.10/site-packages/torch/_ops.py" source_line=756}
  %multiply.735 = f32[16]{0} multiply(f32[16]{0} %reduce.71, f32[16]{0} %broadcast.840), metadata={op_type="aten__mean" op_name="aten__mean" source_file="/usr/local/lib/python3.10/site-packages/torch/_ops.py" source_line=756}
  %param_0.1091 = f32[] parameter(0)
  %broadcast.838 = f32[16]{0} broadcast(f32[] %param_0.1091), dimensions={}, metadata={op_type="aten__add" op_name="aten__add.14/aten__add" source_file="/usr/local/lib/python3.10/site-packages/torch/_ops.py" source_line=756}
  %add.441 = f32[16]{0} add(f32[16]{0} %multiply.735, f32[16]{0} %broadcast.838), metadata={op_type="aten__add" op_name="aten__add.158/aten__add" source_file="/usr/local/lib/python3.10/site-packages/torch/_ops.py" source_line=756}
  %rsqrt.156 = f32[16]{0} rsqrt(f32[16]{0} %add.441), metadata={op_type="aten__rsqrt" op_name="aten__rsqrt" source_file="/usr/local/lib/python3.10/site-packages/torch/_ops.py" source_line=756}
  %broadcast.837 = f32[16,1024]{1,0} broadcast(f32[16]{0} %rsqrt.156), dimensions={0}, metadata={op_type="aten__mul" op_name="aten__mul.159/aten__mul" source_file="/usr/local/lib/python3.10/site-packages/torch/_ops.py" source_line=756}
  %multiply.734 = f32[16,1024]{1,0} multiply(f32[16,1024]{1,0} %add.367.3, f32[16,1024]{1,0} %broadcast.837), metadata={op_type="aten__mul" op_name="aten__mul.159/aten__mul" source_file="/usr/local/lib/python3.10/site-packages/torch/_ops.py" source_line=756}
  %param_1.1039 = bf16[1024]{0} parameter(1)
  %convert.1355.1 = f32[1024]{0} convert(bf16[1024]{0} %param_1.1039), metadata={op_type="xla__cast" op_name="xla__cast" source_file="/usr/local/lib/python3.10/site-packages/torch/_ops.py" source_line=756}
  %broadcast.601.1 = f32[16,1024]{1,0} broadcast(f32[1024]{0} %convert.1355.1), dimensions={1}, metadata={op_type="aten__mul" op_name="aten__mul.160/aten__mul" source_file="/usr/local/lib/python3.10/site-packages/torch/_ops.py" source_line=756}
  %multiply.613.1 = f32[16,1024]{1,0} multiply(f32[16,1024]{1,0} %multiply.734, f32[16,1024]{1,0} %broadcast.601.1), metadata={op_type="aten__mul" op_name="aten__mul.160/aten__mul" source_file="/usr/local/lib/python3.10/site-packages/torch/_ops.py" source_line=756}
  ROOT %convert.1357.1 = bf16[16,1024]{1,0} convert(f32[16,1024]{1,0} %multiply.613.1), metadata={op_type="xla__cast" op_name="xla__cast" source_file="/usr/local/lib/python3.10/site-packages/torch/_ops.py" source_line=756}
}

%fused_convert.17 (param_0.1147: bf16[16,6144]) -> bf16[16,3072] {
  %param_0.1147 = bf16[16,6144]{1,0} parameter(0)
  %slice.377.1 = bf16[16,3072]{1,0} slice(bf16[16,6144]{1,0} %param_0.1147), slice={[0:16], [0:3072]}, metadata={op_type="xla__select" op_name="xla__select" source_file="/usr/local/lib/python3.10/site-packages/torch/_ops.py" source_line=756}
  %convert.1359.8 = f32[16,3072]{1,0} convert(bf16[16,3072]{1,0} %slice.377.1)
  %constant_1_20 = bf16[] constant(1), metadata={op_type="xla__select" op_name="xla__select" source_file="/usr/local/lib/python3.10/site-packages/torch/_ops.py" source_line=756}
  %convert.1614.232 = f32[] convert(bf16[] %constant_1_20)
  %broadcast.668.232 = f32[16,3072]{1,0} broadcast(f32[] %convert.1614.232), dimensions={}, metadata={op_type="xla__select" op_name="xla__select" source_file="/usr/local/lib/python3.10/site-packages/torch/_ops.py" source_line=756}
  %negate.86.5 = f32[16,3072]{1,0} negate(f32[16,3072]{1,0} %convert.1359.8)
  %convert.1366.3 = bf16[16,3072]{1,0} convert(f32[16,3072]{1,0} %negate.86.5)
  %exponential.86.1 = bf16[16,3072]{1,0} exponential(bf16[16,3072]{1,0} %convert.1366.3)
  %convert.1367.1 = f32[16,3072]{1,0} convert(bf16[16,3072]{1,0} %exponential.86.1)
  %add.368.7 = f32[16,3072]{1,0} add(f32[16,3072]{1,0} %broadcast.668.232, f32[16,3072]{1,0} %convert.1367.1)
  %divide.86.5 = f32[16,3072]{1,0} divide(f32[16,3072]{1,0} %broadcast.668.232, f32[16,3072]{1,0} %add.368.7), metadata={op_type="aten__silu" op_name="aten__silu" source_file="/usr/local/lib/python3.10/site-packages/torch/_ops.py" source_line=756}
  %multiply.614.5 = f32[16,3072]{1,0} multiply(f32[16,3072]{1,0} %convert.1359.8, f32[16,3072]{1,0} %divide.86.5), metadata={op_type="aten__silu" op_name="aten__silu" source_file="/usr/local/lib/python3.10/site-packages/torch/_ops.py" source_line=756}
  %slice.378.1 = bf16[16,3072]{1,0} slice(bf16[16,6144]{1,0} %param_0.1147), slice={[0:16], [3072:6144]}, metadata={op_type="xla__select" op_name="xla__select" source_file="/usr/local/lib/python3.10/site-packages/torch/_ops.py" source_line=756}
  %convert.1368.1 = f32[16,3072]{1,0} convert(bf16[16,3072]{1,0} %slice.378.1), metadata={op_type="xla__cast" op_name="xla__cast" source_file="/usr/local/lib/python3.10/site-packages/torch/_ops.py" source_line=756}
  %multiply.616.3 = f32[16,3072]{1,0} multiply(f32[16,3072]{1,0} %multiply.614.5, f32[16,3072]{1,0} %convert.1368.1), metadata={op_type="aten__mul" op_name="aten__mul.161/aten__mul" source_file="/usr/local/lib/python3.10/site-packages/torch/_ops.py" source_line=756}
  ROOT %convert.1369.1 = bf16[16,3072]{1,0} convert(f32[16,3072]{1,0} %multiply.616.3), metadata={op_type="xla__cast" op_name="xla__cast" source_file="/usr/local/lib/python3.10/site-packages/torch/_ops.py" source_line=756}
}

%fused_computation.275 (param_0.1122: f32[], param_1.1075: bf16[1024], param_2.749: f32[16,1024], param_3.718: bf16[16,1024], param_4.458: bf16[16,26624], param_5.85: bf16[16,1024]) -> bf16[16,1024] {
  %param_4.458 = bf16[16,26624]{1,0} parameter(4)
  %convert.1241.192 = f32[16,26624]{1,0} convert(bf16[16,26624]{1,0} %param_4.458), metadata={op_type="xla__cast" op_name="xla__cast" source_file="/usr/local/lib/python3.10/site-packages/torch/_ops.py" source_line=756}
  %slice.351.5 = f32[16,1024]{1,0} slice(f32[16,26624]{1,0} %convert.1241.192), slice={[0:16], [16384:17408]}, metadata={op_type="aten__mm" op_name="aten__mm" source_file="/usr/local/lib/python3.10/site-packages/torch/_ops.py" source_line=756}
  %param_5.85 = bf16[16,1024]{1,0} parameter(5)
  %convert.1370.5 = f32[16,1024]{1,0} convert(bf16[16,1024]{1,0} %param_5.85), metadata={op_type="xla__cast" op_name="xla__cast" source_file="/usr/local/lib/python3.10/site-packages/torch/_ops.py" source_line=756}
  %slice.352.9 = f32[16,1024]{1,0} slice(f32[16,26624]{1,0} %convert.1241.192), slice={[0:16], [17408:18432]}, metadata={op_type="aten__mm" op_name="aten__mm" source_file="/usr/local/lib/python3.10/site-packages/torch/_ops.py" source_line=756}
  %param_3.718 = bf16[16,1024]{1,0} parameter(3)
  %convert.1354.9 = f32[16,1024]{1,0} convert(bf16[16,1024]{1,0} %param_3.718), metadata={op_type="xla__cast" op_name="xla__cast" source_file="/usr/local/lib/python3.10/site-packages/torch/_ops.py" source_line=756}
  %param_2.749 = f32[16,1024]{1,0} parameter(2)
  %add.366.9 = f32[16,1024]{1,0} add(f32[16,1024]{1,0} %convert.1354.9, f32[16,1024]{1,0} %param_2.749), metadata={op_type="aten__add" op_name="aten__add.144/aten__add" source_file="/usr/local/lib/python3.10/site-packages/torch/_ops.py" source_line=756}
  %add.367.7 = f32[16,1024]{1,0} add(f32[16,1024]{1,0} %slice.352.9, f32[16,1024]{1,0} %add.366.9), metadata={op_type="aten__add" op_name="aten__add.157/aten__add" source_file="/usr/local/lib/python3.10/site-packages/torch/_ops.py" source_line=756}
  %add.369.5 = f32[16,1024]{1,0} add(f32[16,1024]{1,0} %convert.1370.5, f32[16,1024]{1,0} %add.367.7), metadata={op_type="aten__add" op_name="aten__add.162/aten__add" source_file="/usr/local/lib/python3.10/site-packages/torch/_ops.py" source_line=756}
  %add.370.3 = f32[16,1024]{1,0} add(f32[16,1024]{1,0} %slice.351.5, f32[16,1024]{1,0} %add.369.5), metadata={op_type="aten__add" op_name="aten__add.175/aten__add" source_file="/usr/local/lib/python3.10/site-packages/torch/_ops.py" source_line=756}
  %multiply.742 = f32[16,1024]{1,0} multiply(f32[16,1024]{1,0} %add.370.3, f32[16,1024]{1,0} %add.370.3), metadata={op_type="aten__pow" op_name="aten__pow" source_file="/usr/local/lib/python3.10/site-packages/torch/_ops.py" source_line=756}
  %constant_687 = f32[] constant(0), metadata={op_type="aten__mean" op_name="aten__mean" source_file="/usr/local/lib/python3.10/site-packages/torch/_ops.py" source_line=756}
  %reduce.73 = f32[16]{0} reduce(f32[16,1024]{1,0} %multiply.742, f32[] %constant_687), dimensions={1}, to_apply=%AddComputation.98, metadata={op_type="aten__mean" op_name="aten__mean" source_file="/usr/local/lib/python3.10/site-packages/torch/_ops.py" source_line=756}
  %constant_686 = f32[] constant(0.0009765625), metadata={op_type="aten__mean" op_name="aten__mean" source_file="/usr/local/lib/python3.10/site-packages/torch/_ops.py" source_line=756}
  %broadcast.847 = f32[16]{0} broadcast(f32[] %constant_686), dimensions={}, metadata={op_type="aten__mean" op_name="aten__mean" source_file="/usr/local/lib/python3.10/site-packages/torch/_ops.py" source_line=756}
  %multiply.741 = f32[16]{0} multiply(f32[16]{0} %reduce.73, f32[16]{0} %broadcast.847), metadata={op_type="aten__mean" op_name="aten__mean" source_file="/usr/local/lib/python3.10/site-packages/torch/_ops.py" source_line=756}
  %param_0.1122 = f32[] parameter(0)
  %broadcast.846 = f32[16]{0} broadcast(f32[] %param_0.1122), dimensions={}, metadata={op_type="aten__add" op_name="aten__add.14/aten__add" source_file="/usr/local/lib/python3.10/site-packages/torch/_ops.py" source_line=756}
  %add.444 = f32[16]{0} add(f32[16]{0} %multiply.741, f32[16]{0} %broadcast.846), metadata={op_type="aten__add" op_name="aten__add.176/aten__add" source_file="/usr/local/lib/python3.10/site-packages/torch/_ops.py" source_line=756}
  %rsqrt.158 = f32[16]{0} rsqrt(f32[16]{0} %add.444), metadata={op_type="aten__rsqrt" op_name="aten__rsqrt" source_file="/usr/local/lib/python3.10/site-packages/torch/_ops.py" source_line=756}
  %broadcast.845 = f32[16,1024]{1,0} broadcast(f32[16]{0} %rsqrt.158), dimensions={0}, metadata={op_type="aten__mul" op_name="aten__mul.177/aten__mul" source_file="/usr/local/lib/python3.10/site-packages/torch/_ops.py" source_line=756}
  %multiply.740 = f32[16,1024]{1,0} multiply(f32[16,1024]{1,0} %add.370.3, f32[16,1024]{1,0} %broadcast.845), metadata={op_type="aten__mul" op_name="aten__mul.177/aten__mul" source_file="/usr/local/lib/python3.10/site-packages/torch/_ops.py" source_line=756}
  %param_1.1075 = bf16[1024]{0} parameter(1)
  %convert.1371.1 = f32[1024]{0} convert(bf16[1024]{0} %param_1.1075), metadata={op_type="xla__cast" op_name="xla__cast" source_file="/usr/local/lib/python3.10/site-packages/torch/_ops.py" source_line=756}
  %broadcast.604.1 = f32[16,1024]{1,0} broadcast(f32[1024]{0} %convert.1371.1), dimensions={1}, metadata={op_type="aten__mul" op_name="aten__mul.178/aten__mul" source_file="/usr/local/lib/python3.10/site-packages/torch/_ops.py" source_line=756}
  %multiply.617.1 = f32[16,1024]{1,0} multiply(f32[16,1024]{1,0} %multiply.740, f32[16,1024]{1,0} %broadcast.604.1), metadata={op_type="aten__mul" op_name="aten__mul.178/aten__mul" source_file="/usr/local/lib/python3.10/site-packages/torch/_ops.py" source_line=756}
  ROOT %convert.1372.1 = bf16[16,1024]{1,0} convert(f32[16,1024]{1,0} %multiply.617.1), metadata={op_type="xla__cast" op_name="xla__cast" source_file="/usr/local/lib/python3.10/site-packages/torch/_ops.py" source_line=756}
}

%fused_convert.16 (param_0.1149: bf16[16,6144]) -> bf16[16,3072] {
  %param_0.1149 = bf16[16,6144]{1,0} parameter(0)
  %slice.379.1 = bf16[16,3072]{1,0} slice(bf16[16,6144]{1,0} %param_0.1149), slice={[0:16], [0:3072]}, metadata={op_type="xla__select" op_name="xla__select" source_file="/usr/local/lib/python3.10/site-packages/torch/_ops.py" source_line=756}
  %convert.1373.8 = f32[16,3072]{1,0} convert(bf16[16,3072]{1,0} %slice.379.1)
  %constant_1_22 = bf16[] constant(1), metadata={op_type="xla__select" op_name="xla__select" source_file="/usr/local/lib/python3.10/site-packages/torch/_ops.py" source_line=756}
  %convert.1614.222 = f32[] convert(bf16[] %constant_1_22)
  %broadcast.668.222 = f32[16,3072]{1,0} broadcast(f32[] %convert.1614.222), dimensions={}, metadata={op_type="xla__select" op_name="xla__select" source_file="/usr/local/lib/python3.10/site-packages/torch/_ops.py" source_line=756}
  %negate.87.5 = f32[16,3072]{1,0} negate(f32[16,3072]{1,0} %convert.1373.8)
  %convert.1378.3 = bf16[16,3072]{1,0} convert(f32[16,3072]{1,0} %negate.87.5)
  %exponential.87.1 = bf16[16,3072]{1,0} exponential(bf16[16,3072]{1,0} %convert.1378.3)
  %convert.1379.1 = f32[16,3072]{1,0} convert(bf16[16,3072]{1,0} %exponential.87.1)
  %add.372.7 = f32[16,3072]{1,0} add(f32[16,3072]{1,0} %broadcast.668.222, f32[16,3072]{1,0} %convert.1379.1)
  %divide.87.5 = f32[16,3072]{1,0} divide(f32[16,3072]{1,0} %broadcast.668.222, f32[16,3072]{1,0} %add.372.7), metadata={op_type="aten__silu" op_name="aten__silu" source_file="/usr/local/lib/python3.10/site-packages/torch/_ops.py" source_line=756}
  %multiply.619.5 = f32[16,3072]{1,0} multiply(f32[16,3072]{1,0} %convert.1373.8, f32[16,3072]{1,0} %divide.87.5), metadata={op_type="aten__silu" op_name="aten__silu" source_file="/usr/local/lib/python3.10/site-packages/torch/_ops.py" source_line=756}
  %slice.380.1 = bf16[16,3072]{1,0} slice(bf16[16,6144]{1,0} %param_0.1149), slice={[0:16], [3072:6144]}, metadata={op_type="xla__select" op_name="xla__select" source_file="/usr/local/lib/python3.10/site-packages/torch/_ops.py" source_line=756}
  %convert.1382.1 = f32[16,3072]{1,0} convert(bf16[16,3072]{1,0} %slice.380.1), metadata={op_type="xla__cast" op_name="xla__cast" source_file="/usr/local/lib/python3.10/site-packages/torch/_ops.py" source_line=756}
  %multiply.620.3 = f32[16,3072]{1,0} multiply(f32[16,3072]{1,0} %multiply.619.5, f32[16,3072]{1,0} %convert.1382.1), metadata={op_type="aten__mul" op_name="aten__mul.179/aten__mul" source_file="/usr/local/lib/python3.10/site-packages/torch/_ops.py" source_line=756}
  ROOT %convert.1383.1 = bf16[16,3072]{1,0} convert(f32[16,3072]{1,0} %multiply.620.3), metadata={op_type="xla__cast" op_name="xla__cast" source_file="/usr/local/lib/python3.10/site-packages/torch/_ops.py" source_line=756}
}

%fused_computation.273 (param_0.1088: f32[], param_1.1035: bf16[1024], param_2.753: bf16[16,1024], param_3.723: bf16[16,26624], param_4.464: f32[16,1024], param_5.94: bf16[16,1024], param_6.88: bf16[16,1024]) -> bf16[16,1024] {
  %param_3.723 = bf16[16,26624]{1,0} parameter(3)
  %convert.1241.114 = f32[16,26624]{1,0} convert(bf16[16,26624]{1,0} %param_3.723), metadata={op_type="xla__cast" op_name="xla__cast" source_file="/usr/local/lib/python3.10/site-packages/torch/_ops.py" source_line=756}
  %slice.350.5 = f32[16,1024]{1,0} slice(f32[16,26624]{1,0} %convert.1241.114), slice={[0:16], [15360:16384]}, metadata={op_type="aten__mm" op_name="aten__mm" source_file="/usr/local/lib/python3.10/site-packages/torch/_ops.py" source_line=756}
  %param_2.753 = bf16[16,1024]{1,0} parameter(2)
  %convert.1384.5 = f32[16,1024]{1,0} convert(bf16[16,1024]{1,0} %param_2.753), metadata={op_type="xla__cast" op_name="xla__cast" source_file="/usr/local/lib/python3.10/site-packages/torch/_ops.py" source_line=756}
  %slice.351.9 = f32[16,1024]{1,0} slice(f32[16,26624]{1,0} %convert.1241.114), slice={[0:16], [16384:17408]}, metadata={op_type="aten__mm" op_name="aten__mm" source_file="/usr/local/lib/python3.10/site-packages/torch/_ops.py" source_line=756}
  %param_6.88 = bf16[16,1024]{1,0} parameter(6)
  %convert.1370.9 = f32[16,1024]{1,0} convert(bf16[16,1024]{1,0} %param_6.88), metadata={op_type="xla__cast" op_name="xla__cast" source_file="/usr/local/lib/python3.10/site-packages/torch/_ops.py" source_line=756}
  %slice.352.13 = f32[16,1024]{1,0} slice(f32[16,26624]{1,0} %convert.1241.114), slice={[0:16], [17408:18432]}, metadata={op_type="aten__mm" op_name="aten__mm" source_file="/usr/local/lib/python3.10/site-packages/torch/_ops.py" source_line=756}
  %param_5.94 = bf16[16,1024]{1,0} parameter(5)
  %convert.1354.13 = f32[16,1024]{1,0} convert(bf16[16,1024]{1,0} %param_5.94), metadata={op_type="xla__cast" op_name="xla__cast" source_file="/usr/local/lib/python3.10/site-packages/torch/_ops.py" source_line=756}
  %param_4.464 = f32[16,1024]{1,0} parameter(4)
  %add.366.13 = f32[16,1024]{1,0} add(f32[16,1024]{1,0} %convert.1354.13, f32[16,1024]{1,0} %param_4.464), metadata={op_type="aten__add" op_name="aten__add.144/aten__add" source_file="/usr/local/lib/python3.10/site-packages/torch/_ops.py" source_line=756}
  %add.367.11 = f32[16,1024]{1,0} add(f32[16,1024]{1,0} %slice.352.13, f32[16,1024]{1,0} %add.366.13), metadata={op_type="aten__add" op_name="aten__add.157/aten__add" source_file="/usr/local/lib/python3.10/site-packages/torch/_ops.py" source_line=756}
  %add.369.9 = f32[16,1024]{1,0} add(f32[16,1024]{1,0} %convert.1370.9, f32[16,1024]{1,0} %add.367.11), metadata={op_type="aten__add" op_name="aten__add.162/aten__add" source_file="/usr/local/lib/python3.10/site-packages/torch/_ops.py" source_line=756}
  %add.370.7 = f32[16,1024]{1,0} add(f32[16,1024]{1,0} %slice.351.9, f32[16,1024]{1,0} %add.369.9), metadata={op_type="aten__add" op_name="aten__add.175/aten__add" source_file="/usr/local/lib/python3.10/site-packages/torch/_ops.py" source_line=756}
  %add.373.5 = f32[16,1024]{1,0} add(f32[16,1024]{1,0} %convert.1384.5, f32[16,1024]{1,0} %add.370.7), metadata={op_type="aten__add" op_name="aten__add.180/aten__add" source_file="/usr/local/lib/python3.10/site-packages/torch/_ops.py" source_line=756}
  %add.374.3 = f32[16,1024]{1,0} add(f32[16,1024]{1,0} %slice.350.5, f32[16,1024]{1,0} %add.373.5), metadata={op_type="aten__add" op_name="aten__add.193/aten__add" source_file="/usr/local/lib/python3.10/site-packages/torch/_ops.py" source_line=756}
  %multiply.748 = f32[16,1024]{1,0} multiply(f32[16,1024]{1,0} %add.374.3, f32[16,1024]{1,0} %add.374.3), metadata={op_type="aten__pow" op_name="aten__pow" source_file="/usr/local/lib/python3.10/site-packages/torch/_ops.py" source_line=756}
  %constant_692 = f32[] constant(0), metadata={op_type="aten__mean" op_name="aten__mean" source_file="/usr/local/lib/python3.10/site-packages/torch/_ops.py" source_line=756}
  %reduce.75 = f32[16]{0} reduce(f32[16,1024]{1,0} %multiply.748, f32[] %constant_692), dimensions={1}, to_apply=%AddComputation.98, metadata={op_type="aten__mean" op_name="aten__mean" source_file="/usr/local/lib/python3.10/site-packages/torch/_ops.py" source_line=756}
  %constant_691 = f32[] constant(0.0009765625), metadata={op_type="aten__mean" op_name="aten__mean" source_file="/usr/local/lib/python3.10/site-packages/torch/_ops.py" source_line=756}
  %broadcast.853 = f32[16]{0} broadcast(f32[] %constant_691), dimensions={}, metadata={op_type="aten__mean" op_name="aten__mean" source_file="/usr/local/lib/python3.10/site-packages/torch/_ops.py" source_line=756}
  %multiply.747 = f32[16]{0} multiply(f32[16]{0} %reduce.75, f32[16]{0} %broadcast.853), metadata={op_type="aten__mean" op_name="aten__mean" source_file="/usr/local/lib/python3.10/site-packages/torch/_ops.py" source_line=756}
  %param_0.1088 = f32[] parameter(0)
  %broadcast.852 = f32[16]{0} broadcast(f32[] %param_0.1088), dimensions={}, metadata={op_type="aten__add" op_name="aten__add.14/aten__add" source_file="/usr/local/lib/python3.10/site-packages/torch/_ops.py" source_line=756}
  %add.446 = f32[16]{0} add(f32[16]{0} %multiply.747, f32[16]{0} %broadcast.852), metadata={op_type="aten__add" op_name="aten__add.194/aten__add" source_file="/usr/local/lib/python3.10/site-packages/torch/_ops.py" source_line=756}
  %rsqrt.160 = f32[16]{0} rsqrt(f32[16]{0} %add.446), metadata={op_type="aten__rsqrt" op_name="aten__rsqrt" source_file="/usr/local/lib/python3.10/site-packages/torch/_ops.py" source_line=756}
  %broadcast.851 = f32[16,1024]{1,0} broadcast(f32[16]{0} %rsqrt.160), dimensions={0}, metadata={op_type="aten__mul" op_name="aten__mul.195/aten__mul" source_file="/usr/local/lib/python3.10/site-packages/torch/_ops.py" source_line=756}
  %multiply.746 = f32[16,1024]{1,0} multiply(f32[16,1024]{1,0} %add.374.3, f32[16,1024]{1,0} %broadcast.851), metadata={op_type="aten__mul" op_name="aten__mul.195/aten__mul" source_file="/usr/local/lib/python3.10/site-packages/torch/_ops.py" source_line=756}
  %param_1.1035 = bf16[1024]{0} parameter(1)
  %convert.1385.1 = f32[1024]{0} convert(bf16[1024]{0} %param_1.1035), metadata={op_type="xla__cast" op_name="xla__cast" source_file="/usr/local/lib/python3.10/site-packages/torch/_ops.py" source_line=756}
  %broadcast.607.1 = f32[16,1024]{1,0} broadcast(f32[1024]{0} %convert.1385.1), dimensions={1}, metadata={op_type="aten__mul" op_name="aten__mul.196/aten__mul" source_file="/usr/local/lib/python3.10/site-packages/torch/_ops.py" source_line=756}
  %multiply.621.1 = f32[16,1024]{1,0} multiply(f32[16,1024]{1,0} %multiply.746, f32[16,1024]{1,0} %broadcast.607.1), metadata={op_type="aten__mul" op_name="aten__mul.196/aten__mul" source_file="/usr/local/lib/python3.10/site-packages/torch/_ops.py" source_line=756}
  ROOT %convert.1386.1 = bf16[16,1024]{1,0} convert(f32[16,1024]{1,0} %multiply.621.1), metadata={op_type="xla__cast" op_name="xla__cast" source_file="/usr/local/lib/python3.10/site-packages/torch/_ops.py" source_line=756}
}

%fused_convert.15 (param_0.1151: bf16[16,6144]) -> bf16[16,3072] {
  %param_0.1151 = bf16[16,6144]{1,0} parameter(0)
  %slice.381.1 = bf16[16,3072]{1,0} slice(bf16[16,6144]{1,0} %param_0.1151), slice={[0:16], [0:3072]}, metadata={op_type="xla__select" op_name="xla__select" source_file="/usr/local/lib/python3.10/site-packages/torch/_ops.py" source_line=756}
  %convert.1388.8 = f32[16,3072]{1,0} convert(bf16[16,3072]{1,0} %slice.381.1)
  %constant_1_24 = bf16[] constant(1), metadata={op_type="xla__select" op_name="xla__select" source_file="/usr/local/lib/python3.10/site-packages/torch/_ops.py" source_line=756}
  %convert.1614.212 = f32[] convert(bf16[] %constant_1_24)
  %broadcast.668.212 = f32[16,3072]{1,0} broadcast(f32[] %convert.1614.212), dimensions={}, metadata={op_type="xla__select" op_name="xla__select" source_file="/usr/local/lib/python3.10/site-packages/torch/_ops.py" source_line=756}
  %negate.88.5 = f32[16,3072]{1,0} negate(f32[16,3072]{1,0} %convert.1388.8)
  %convert.1392.3 = bf16[16,3072]{1,0} convert(f32[16,3072]{1,0} %negate.88.5)
  %exponential.88.1 = bf16[16,3072]{1,0} exponential(bf16[16,3072]{1,0} %convert.1392.3)
  %convert.1393.1 = f32[16,3072]{1,0} convert(bf16[16,3072]{1,0} %exponential.88.1)
  %add.375.7 = f32[16,3072]{1,0} add(f32[16,3072]{1,0} %broadcast.668.212, f32[16,3072]{1,0} %convert.1393.1)
  %divide.88.5 = f32[16,3072]{1,0} divide(f32[16,3072]{1,0} %broadcast.668.212, f32[16,3072]{1,0} %add.375.7), metadata={op_type="aten__silu" op_name="aten__silu" source_file="/usr/local/lib/python3.10/site-packages/torch/_ops.py" source_line=756}
  %multiply.622.5 = f32[16,3072]{1,0} multiply(f32[16,3072]{1,0} %convert.1388.8, f32[16,3072]{1,0} %divide.88.5), metadata={op_type="aten__silu" op_name="aten__silu" source_file="/usr/local/lib/python3.10/site-packages/torch/_ops.py" source_line=756}
  %slice.382.1 = bf16[16,3072]{1,0} slice(bf16[16,6144]{1,0} %param_0.1151), slice={[0:16], [3072:6144]}, metadata={op_type="xla__select" op_name="xla__select" source_file="/usr/local/lib/python3.10/site-packages/torch/_ops.py" source_line=756}
  %convert.1394.1 = f32[16,3072]{1,0} convert(bf16[16,3072]{1,0} %slice.382.1), metadata={op_type="xla__cast" op_name="xla__cast" source_file="/usr/local/lib/python3.10/site-packages/torch/_ops.py" source_line=756}
  %multiply.623.3 = f32[16,3072]{1,0} multiply(f32[16,3072]{1,0} %multiply.622.5, f32[16,3072]{1,0} %convert.1394.1), metadata={op_type="aten__mul" op_name="aten__mul.197/aten__mul" source_file="/usr/local/lib/python3.10/site-packages/torch/_ops.py" source_line=756}
  ROOT %convert.1395.1 = bf16[16,3072]{1,0} convert(f32[16,3072]{1,0} %multiply.623.3), metadata={op_type="xla__cast" op_name="xla__cast" source_file="/usr/local/lib/python3.10/site-packages/torch/_ops.py" source_line=756}
}

%fused_add.2 (param_0.925: bf16[16,26624], param_1.1037: bf16[16,1024], param_2.751: bf16[16,1024], param_3.721: f32[16,1024], param_4.462: bf16[16,1024], param_5.90: bf16[16,1024]) -> f32[16,1024] {
  %param_0.925 = bf16[16,26624]{1,0} parameter(0)
  %convert.1241.50 = f32[16,26624]{1,0} convert(bf16[16,26624]{1,0} %param_0.925), metadata={op_type="xla__cast" op_name="xla__cast" source_file="/usr/local/lib/python3.10/site-packages/torch/_ops.py" source_line=756}
  %slice.349.3 = f32[16,1024]{1,0} slice(f32[16,26624]{1,0} %convert.1241.50), slice={[0:16], [14336:15360]}, metadata={op_type="aten__mm" op_name="aten__mm" source_file="/usr/local/lib/python3.10/site-packages/torch/_ops.py" source_line=756}
  %param_1.1037 = bf16[16,1024]{1,0} parameter(1)
  %convert.1396.3 = f32[16,1024]{1,0} convert(bf16[16,1024]{1,0} %param_1.1037), metadata={op_type="xla__cast" op_name="xla__cast" source_file="/usr/local/lib/python3.10/site-packages/torch/_ops.py" source_line=756}
  %slice.350.7 = f32[16,1024]{1,0} slice(f32[16,26624]{1,0} %convert.1241.50), slice={[0:16], [15360:16384]}, metadata={op_type="aten__mm" op_name="aten__mm" source_file="/usr/local/lib/python3.10/site-packages/torch/_ops.py" source_line=756}
  %param_2.751 = bf16[16,1024]{1,0} parameter(2)
  %convert.1384.7 = f32[16,1024]{1,0} convert(bf16[16,1024]{1,0} %param_2.751), metadata={op_type="xla__cast" op_name="xla__cast" source_file="/usr/local/lib/python3.10/site-packages/torch/_ops.py" source_line=756}
  %slice.351.7 = f32[16,1024]{1,0} slice(f32[16,26624]{1,0} %convert.1241.50), slice={[0:16], [16384:17408]}, metadata={op_type="aten__mm" op_name="aten__mm" source_file="/usr/local/lib/python3.10/site-packages/torch/_ops.py" source_line=756}
  %param_5.90 = bf16[16,1024]{1,0} parameter(5)
  %convert.1370.7 = f32[16,1024]{1,0} convert(bf16[16,1024]{1,0} %param_5.90), metadata={op_type="xla__cast" op_name="xla__cast" source_file="/usr/local/lib/python3.10/site-packages/torch/_ops.py" source_line=756}
  %slice.352.11 = f32[16,1024]{1,0} slice(f32[16,26624]{1,0} %convert.1241.50), slice={[0:16], [17408:18432]}, metadata={op_type="aten__mm" op_name="aten__mm" source_file="/usr/local/lib/python3.10/site-packages/torch/_ops.py" source_line=756}
  %param_4.462 = bf16[16,1024]{1,0} parameter(4)
  %convert.1354.11 = f32[16,1024]{1,0} convert(bf16[16,1024]{1,0} %param_4.462), metadata={op_type="xla__cast" op_name="xla__cast" source_file="/usr/local/lib/python3.10/site-packages/torch/_ops.py" source_line=756}
  %param_3.721 = f32[16,1024]{1,0} parameter(3)
  %add.366.11 = f32[16,1024]{1,0} add(f32[16,1024]{1,0} %convert.1354.11, f32[16,1024]{1,0} %param_3.721), metadata={op_type="aten__add" op_name="aten__add.144/aten__add" source_file="/usr/local/lib/python3.10/site-packages/torch/_ops.py" source_line=756}
  %add.367.9 = f32[16,1024]{1,0} add(f32[16,1024]{1,0} %slice.352.11, f32[16,1024]{1,0} %add.366.11), metadata={op_type="aten__add" op_name="aten__add.157/aten__add" source_file="/usr/local/lib/python3.10/site-packages/torch/_ops.py" source_line=756}
  %add.369.7 = f32[16,1024]{1,0} add(f32[16,1024]{1,0} %convert.1370.7, f32[16,1024]{1,0} %add.367.9), metadata={op_type="aten__add" op_name="aten__add.162/aten__add" source_file="/usr/local/lib/python3.10/site-packages/torch/_ops.py" source_line=756}
  %add.370.5 = f32[16,1024]{1,0} add(f32[16,1024]{1,0} %slice.351.7, f32[16,1024]{1,0} %add.369.7), metadata={op_type="aten__add" op_name="aten__add.175/aten__add" source_file="/usr/local/lib/python3.10/site-packages/torch/_ops.py" source_line=756}
  %add.373.7 = f32[16,1024]{1,0} add(f32[16,1024]{1,0} %convert.1384.7, f32[16,1024]{1,0} %add.370.5), metadata={op_type="aten__add" op_name="aten__add.180/aten__add" source_file="/usr/local/lib/python3.10/site-packages/torch/_ops.py" source_line=756}
  %add.374.5 = f32[16,1024]{1,0} add(f32[16,1024]{1,0} %slice.350.7, f32[16,1024]{1,0} %add.373.7), metadata={op_type="aten__add" op_name="aten__add.193/aten__add" source_file="/usr/local/lib/python3.10/site-packages/torch/_ops.py" source_line=756}
  %add.376.3 = f32[16,1024]{1,0} add(f32[16,1024]{1,0} %convert.1396.3, f32[16,1024]{1,0} %add.374.5), metadata={op_type="aten__add" op_name="aten__add.198/aten__add" source_file="/usr/local/lib/python3.10/site-packages/torch/_ops.py" source_line=756}
  ROOT %add.377.1 = f32[16,1024]{1,0} add(f32[16,1024]{1,0} %slice.349.3, f32[16,1024]{1,0} %add.376.3), metadata={op_type="aten__add" op_name="aten__add.211/aten__add" source_file="/usr/local/lib/python3.10/site-packages/torch/_ops.py" source_line=756}
}

%fused_computation.271 (param_0.1053: f32[16,1024], param_1.991: f32[], param_2.630: bf16[1024]) -> bf16[16,1024] {
  %param_0.1053 = f32[16,1024]{1,0} parameter(0)
  %multiply.754 = f32[16,1024]{1,0} multiply(f32[16,1024]{1,0} %param_0.1053, f32[16,1024]{1,0} %param_0.1053), metadata={op_type="aten__pow" op_name="aten__pow" source_file="/usr/local/lib/python3.10/site-packages/torch/_ops.py" source_line=756}
  %constant_697 = f32[] constant(0), metadata={op_type="aten__mean" op_name="aten__mean" source_file="/usr/local/lib/python3.10/site-packages/torch/_ops.py" source_line=756}
  %reduce.77 = f32[16]{0} reduce(f32[16,1024]{1,0} %multiply.754, f32[] %constant_697), dimensions={1}, to_apply=%AddComputation.98, metadata={op_type="aten__mean" op_name="aten__mean" source_file="/usr/local/lib/python3.10/site-packages/torch/_ops.py" source_line=756}
  %constant_696 = f32[] constant(0.0009765625), metadata={op_type="aten__mean" op_name="aten__mean" source_file="/usr/local/lib/python3.10/site-packages/torch/_ops.py" source_line=756}
  %broadcast.860 = f32[16]{0} broadcast(f32[] %constant_696), dimensions={}, metadata={op_type="aten__mean" op_name="aten__mean" source_file="/usr/local/lib/python3.10/site-packages/torch/_ops.py" source_line=756}
  %multiply.753 = f32[16]{0} multiply(f32[16]{0} %reduce.77, f32[16]{0} %broadcast.860), metadata={op_type="aten__mean" op_name="aten__mean" source_file="/usr/local/lib/python3.10/site-packages/torch/_ops.py" source_line=756}
  %param_1.991 = f32[] parameter(1)
  %broadcast.859 = f32[16]{0} broadcast(f32[] %param_1.991), dimensions={}, metadata={op_type="aten__add" op_name="aten__add.14/aten__add" source_file="/usr/local/lib/python3.10/site-packages/torch/_ops.py" source_line=756}
  %add.448 = f32[16]{0} add(f32[16]{0} %multiply.753, f32[16]{0} %broadcast.859), metadata={op_type="aten__add" op_name="aten__add.212/aten__add" source_file="/usr/local/lib/python3.10/site-packages/torch/_ops.py" source_line=756}
  %rsqrt.162 = f32[16]{0} rsqrt(f32[16]{0} %add.448), metadata={op_type="aten__rsqrt" op_name="aten__rsqrt" source_file="/usr/local/lib/python3.10/site-packages/torch/_ops.py" source_line=756}
  %broadcast.858 = f32[16,1024]{1,0} broadcast(f32[16]{0} %rsqrt.162), dimensions={0}, metadata={op_type="aten__mul" op_name="aten__mul.213/aten__mul" source_file="/usr/local/lib/python3.10/site-packages/torch/_ops.py" source_line=756}
  %multiply.752 = f32[16,1024]{1,0} multiply(f32[16,1024]{1,0} %param_0.1053, f32[16,1024]{1,0} %broadcast.858), metadata={op_type="aten__mul" op_name="aten__mul.213/aten__mul" source_file="/usr/local/lib/python3.10/site-packages/torch/_ops.py" source_line=756}
  %param_2.630 = bf16[1024]{0} parameter(2)
  %convert.1397.1 = f32[1024]{0} convert(bf16[1024]{0} %param_2.630), metadata={op_type="xla__cast" op_name="xla__cast" source_file="/usr/local/lib/python3.10/site-packages/torch/_ops.py" source_line=756}
  %broadcast.610.1 = f32[16,1024]{1,0} broadcast(f32[1024]{0} %convert.1397.1), dimensions={1}, metadata={op_type="aten__mul" op_name="aten__mul.214/aten__mul" source_file="/usr/local/lib/python3.10/site-packages/torch/_ops.py" source_line=756}
  %multiply.625.1 = f32[16,1024]{1,0} multiply(f32[16,1024]{1,0} %multiply.752, f32[16,1024]{1,0} %broadcast.610.1), metadata={op_type="aten__mul" op_name="aten__mul.214/aten__mul" source_file="/usr/local/lib/python3.10/site-packages/torch/_ops.py" source_line=756}
  ROOT %convert.1398.1 = bf16[16,1024]{1,0} convert(f32[16,1024]{1,0} %multiply.625.1), metadata={op_type="xla__cast" op_name="xla__cast" source_file="/usr/local/lib/python3.10/site-packages/torch/_ops.py" source_line=756}
}

%fused_convert.14 (param_0.1153: bf16[16,6144]) -> bf16[16,3072] {
  %param_0.1153 = bf16[16,6144]{1,0} parameter(0)
  %slice.383.1 = bf16[16,3072]{1,0} slice(bf16[16,6144]{1,0} %param_0.1153), slice={[0:16], [0:3072]}, metadata={op_type="xla__select" op_name="xla__select" source_file="/usr/local/lib/python3.10/site-packages/torch/_ops.py" source_line=756}
  %convert.1399.8 = f32[16,3072]{1,0} convert(bf16[16,3072]{1,0} %slice.383.1)
  %constant_1_26 = bf16[] constant(1), metadata={op_type="xla__select" op_name="xla__select" source_file="/usr/local/lib/python3.10/site-packages/torch/_ops.py" source_line=756}
  %convert.1614.202 = f32[] convert(bf16[] %constant_1_26)
  %broadcast.668.202 = f32[16,3072]{1,0} broadcast(f32[] %convert.1614.202), dimensions={}, metadata={op_type="xla__select" op_name="xla__select" source_file="/usr/local/lib/python3.10/site-packages/torch/_ops.py" source_line=756}
  %negate.89.5 = f32[16,3072]{1,0} negate(f32[16,3072]{1,0} %convert.1399.8)
  %convert.1404.3 = bf16[16,3072]{1,0} convert(f32[16,3072]{1,0} %negate.89.5)
  %exponential.89.1 = bf16[16,3072]{1,0} exponential(bf16[16,3072]{1,0} %convert.1404.3)
  %convert.1405.1 = f32[16,3072]{1,0} convert(bf16[16,3072]{1,0} %exponential.89.1)
  %add.378.7 = f32[16,3072]{1,0} add(f32[16,3072]{1,0} %broadcast.668.202, f32[16,3072]{1,0} %convert.1405.1)
  %divide.89.5 = f32[16,3072]{1,0} divide(f32[16,3072]{1,0} %broadcast.668.202, f32[16,3072]{1,0} %add.378.7), metadata={op_type="aten__silu" op_name="aten__silu" source_file="/usr/local/lib/python3.10/site-packages/torch/_ops.py" source_line=756}
  %multiply.626.5 = f32[16,3072]{1,0} multiply(f32[16,3072]{1,0} %convert.1399.8, f32[16,3072]{1,0} %divide.89.5), metadata={op_type="aten__silu" op_name="aten__silu" source_file="/usr/local/lib/python3.10/site-packages/torch/_ops.py" source_line=756}
  %slice.384.1 = bf16[16,3072]{1,0} slice(bf16[16,6144]{1,0} %param_0.1153), slice={[0:16], [3072:6144]}, metadata={op_type="xla__select" op_name="xla__select" source_file="/usr/local/lib/python3.10/site-packages/torch/_ops.py" source_line=756}
  %convert.1406.1 = f32[16,3072]{1,0} convert(bf16[16,3072]{1,0} %slice.384.1), metadata={op_type="xla__cast" op_name="xla__cast" source_file="/usr/local/lib/python3.10/site-packages/torch/_ops.py" source_line=756}
  %multiply.627.3 = f32[16,3072]{1,0} multiply(f32[16,3072]{1,0} %multiply.626.5, f32[16,3072]{1,0} %convert.1406.1), metadata={op_type="aten__mul" op_name="aten__mul.215/aten__mul" source_file="/usr/local/lib/python3.10/site-packages/torch/_ops.py" source_line=756}
  ROOT %convert.1407.1 = bf16[16,3072]{1,0} convert(f32[16,3072]{1,0} %multiply.627.3), metadata={op_type="xla__cast" op_name="xla__cast" source_file="/usr/local/lib/python3.10/site-packages/torch/_ops.py" source_line=756}
}

%fused_computation.269 (param_0.1085: f32[], param_1.1031: bf16[1024], param_2.680: f32[16,1024], param_3.624: bf16[16,1024], param_4.362: bf16[16,26624]) -> bf16[16,1024] {
  %param_4.362 = bf16[16,26624]{1,0} parameter(4)
  %convert.1241.110 = f32[16,26624]{1,0} convert(bf16[16,26624]{1,0} %param_4.362), metadata={op_type="xla__cast" op_name="xla__cast" source_file="/usr/local/lib/python3.10/site-packages/torch/_ops.py" source_line=756}
  %slice.348.5 = f32[16,1024]{1,0} slice(f32[16,26624]{1,0} %convert.1241.110), slice={[0:16], [13312:14336]}, metadata={op_type="aten__mm" op_name="aten__mm" source_file="/usr/local/lib/python3.10/site-packages/torch/_ops.py" source_line=756}
  %param_3.624 = bf16[16,1024]{1,0} parameter(3)
  %convert.1408.5 = f32[16,1024]{1,0} convert(bf16[16,1024]{1,0} %param_3.624), metadata={op_type="xla__cast" op_name="xla__cast" source_file="/usr/local/lib/python3.10/site-packages/torch/_ops.py" source_line=756}
  %param_2.680 = f32[16,1024]{1,0} parameter(2)
  %add.379.5 = f32[16,1024]{1,0} add(f32[16,1024]{1,0} %convert.1408.5, f32[16,1024]{1,0} %param_2.680), metadata={op_type="aten__add" op_name="aten__add.216/aten__add" source_file="/usr/local/lib/python3.10/site-packages/torch/_ops.py" source_line=756}
  %add.380.3 = f32[16,1024]{1,0} add(f32[16,1024]{1,0} %slice.348.5, f32[16,1024]{1,0} %add.379.5), metadata={op_type="aten__add" op_name="aten__add.229/aten__add" source_file="/usr/local/lib/python3.10/site-packages/torch/_ops.py" source_line=756}
  %multiply.761 = f32[16,1024]{1,0} multiply(f32[16,1024]{1,0} %add.380.3, f32[16,1024]{1,0} %add.380.3), metadata={op_type="aten__pow" op_name="aten__pow" source_file="/usr/local/lib/python3.10/site-packages/torch/_ops.py" source_line=756}
  %constant_702 = f32[] constant(0), metadata={op_type="aten__mean" op_name="aten__mean" source_file="/usr/local/lib/python3.10/site-packages/torch/_ops.py" source_line=756}
  %reduce.79 = f32[16]{0} reduce(f32[16,1024]{1,0} %multiply.761, f32[] %constant_702), dimensions={1}, to_apply=%AddComputation.98, metadata={op_type="aten__mean" op_name="aten__mean" source_file="/usr/local/lib/python3.10/site-packages/torch/_ops.py" source_line=756}
  %constant_701 = f32[] constant(0.0009765625), metadata={op_type="aten__mean" op_name="aten__mean" source_file="/usr/local/lib/python3.10/site-packages/torch/_ops.py" source_line=756}
  %broadcast.867 = f32[16]{0} broadcast(f32[] %constant_701), dimensions={}, metadata={op_type="aten__mean" op_name="aten__mean" source_file="/usr/local/lib/python3.10/site-packages/torch/_ops.py" source_line=756}
  %multiply.760 = f32[16]{0} multiply(f32[16]{0} %reduce.79, f32[16]{0} %broadcast.867), metadata={op_type="aten__mean" op_name="aten__mean" source_file="/usr/local/lib/python3.10/site-packages/torch/_ops.py" source_line=756}
  %param_0.1085 = f32[] parameter(0)
  %broadcast.865 = f32[16]{0} broadcast(f32[] %param_0.1085), dimensions={}, metadata={op_type="aten__add" op_name="aten__add.14/aten__add" source_file="/usr/local/lib/python3.10/site-packages/torch/_ops.py" source_line=756}
  %add.450 = f32[16]{0} add(f32[16]{0} %multiply.760, f32[16]{0} %broadcast.865), metadata={op_type="aten__add" op_name="aten__add.230/aten__add" source_file="/usr/local/lib/python3.10/site-packages/torch/_ops.py" source_line=756}
  %rsqrt.164 = f32[16]{0} rsqrt(f32[16]{0} %add.450), metadata={op_type="aten__rsqrt" op_name="aten__rsqrt" source_file="/usr/local/lib/python3.10/site-packages/torch/_ops.py" source_line=756}
  %broadcast.864 = f32[16,1024]{1,0} broadcast(f32[16]{0} %rsqrt.164), dimensions={0}, metadata={op_type="aten__mul" op_name="aten__mul.231/aten__mul" source_file="/usr/local/lib/python3.10/site-packages/torch/_ops.py" source_line=756}
  %multiply.758 = f32[16,1024]{1,0} multiply(f32[16,1024]{1,0} %add.380.3, f32[16,1024]{1,0} %broadcast.864), metadata={op_type="aten__mul" op_name="aten__mul.231/aten__mul" source_file="/usr/local/lib/python3.10/site-packages/torch/_ops.py" source_line=756}
  %param_1.1031 = bf16[1024]{0} parameter(1)
  %convert.1410.1 = f32[1024]{0} convert(bf16[1024]{0} %param_1.1031), metadata={op_type="xla__cast" op_name="xla__cast" source_file="/usr/local/lib/python3.10/site-packages/torch/_ops.py" source_line=756}
  %broadcast.613.1 = f32[16,1024]{1,0} broadcast(f32[1024]{0} %convert.1410.1), dimensions={1}, metadata={op_type="aten__mul" op_name="aten__mul.232/aten__mul" source_file="/usr/local/lib/python3.10/site-packages/torch/_ops.py" source_line=756}
  %multiply.629.1 = f32[16,1024]{1,0} multiply(f32[16,1024]{1,0} %multiply.758, f32[16,1024]{1,0} %broadcast.613.1), metadata={op_type="aten__mul" op_name="aten__mul.232/aten__mul" source_file="/usr/local/lib/python3.10/site-packages/torch/_ops.py" source_line=756}
  ROOT %convert.1411.1 = bf16[16,1024]{1,0} convert(f32[16,1024]{1,0} %multiply.629.1), metadata={op_type="xla__cast" op_name="xla__cast" source_file="/usr/local/lib/python3.10/site-packages/torch/_ops.py" source_line=756}
}

%fused_convert.13 (param_0.1132: bf16[16,6144]) -> bf16[16,3072] {
  %param_0.1132 = bf16[16,6144]{1,0} parameter(0)
  %slice.385.1 = bf16[16,3072]{1,0} slice(bf16[16,6144]{1,0} %param_0.1132), slice={[0:16], [0:3072]}, metadata={op_type="xla__select" op_name="xla__select" source_file="/usr/local/lib/python3.10/site-packages/torch/_ops.py" source_line=756}
  %convert.1412.8 = f32[16,3072]{1,0} convert(bf16[16,3072]{1,0} %slice.385.1)
  %constant_1_5 = bf16[] constant(1), metadata={op_type="xla__select" op_name="xla__select" source_file="/usr/local/lib/python3.10/site-packages/torch/_ops.py" source_line=756}
  %convert.1614.192 = f32[] convert(bf16[] %constant_1_5)
  %broadcast.668.192 = f32[16,3072]{1,0} broadcast(f32[] %convert.1614.192), dimensions={}, metadata={op_type="xla__select" op_name="xla__select" source_file="/usr/local/lib/python3.10/site-packages/torch/_ops.py" source_line=756}
  %negate.90.5 = f32[16,3072]{1,0} negate(f32[16,3072]{1,0} %convert.1412.8)
  %convert.1416.3 = bf16[16,3072]{1,0} convert(f32[16,3072]{1,0} %negate.90.5)
  %exponential.90.1 = bf16[16,3072]{1,0} exponential(bf16[16,3072]{1,0} %convert.1416.3)
  %convert.1419.1 = f32[16,3072]{1,0} convert(bf16[16,3072]{1,0} %exponential.90.1)
  %add.381.7 = f32[16,3072]{1,0} add(f32[16,3072]{1,0} %broadcast.668.192, f32[16,3072]{1,0} %convert.1419.1)
  %divide.90.5 = f32[16,3072]{1,0} divide(f32[16,3072]{1,0} %broadcast.668.192, f32[16,3072]{1,0} %add.381.7), metadata={op_type="aten__silu" op_name="aten__silu" source_file="/usr/local/lib/python3.10/site-packages/torch/_ops.py" source_line=756}
  %multiply.630.5 = f32[16,3072]{1,0} multiply(f32[16,3072]{1,0} %convert.1412.8, f32[16,3072]{1,0} %divide.90.5), metadata={op_type="aten__silu" op_name="aten__silu" source_file="/usr/local/lib/python3.10/site-packages/torch/_ops.py" source_line=756}
  %slice.386.1 = bf16[16,3072]{1,0} slice(bf16[16,6144]{1,0} %param_0.1132), slice={[0:16], [3072:6144]}, metadata={op_type="xla__select" op_name="xla__select" source_file="/usr/local/lib/python3.10/site-packages/torch/_ops.py" source_line=756}
  %convert.1420.1 = f32[16,3072]{1,0} convert(bf16[16,3072]{1,0} %slice.386.1), metadata={op_type="xla__cast" op_name="xla__cast" source_file="/usr/local/lib/python3.10/site-packages/torch/_ops.py" source_line=756}
  %multiply.631.3 = f32[16,3072]{1,0} multiply(f32[16,3072]{1,0} %multiply.630.5, f32[16,3072]{1,0} %convert.1420.1), metadata={op_type="aten__mul" op_name="aten__mul.233/aten__mul" source_file="/usr/local/lib/python3.10/site-packages/torch/_ops.py" source_line=756}
  ROOT %convert.1422.1 = bf16[16,3072]{1,0} convert(f32[16,3072]{1,0} %multiply.631.3), metadata={op_type="xla__cast" op_name="xla__cast" source_file="/usr/local/lib/python3.10/site-packages/torch/_ops.py" source_line=756}
}

%fused_computation.267 (param_0.1118: f32[], param_1.1071: bf16[1024], param_2.742: f32[16,1024], param_3.708: bf16[16,1024], param_4.447: bf16[16,26624], param_5.70: bf16[16,1024]) -> bf16[16,1024] {
  %param_4.447 = bf16[16,26624]{1,0} parameter(4)
  %convert.1241.180 = f32[16,26624]{1,0} convert(bf16[16,26624]{1,0} %param_4.447), metadata={op_type="xla__cast" op_name="xla__cast" source_file="/usr/local/lib/python3.10/site-packages/torch/_ops.py" source_line=756}
  %slice.347.5 = f32[16,1024]{1,0} slice(f32[16,26624]{1,0} %convert.1241.180), slice={[0:16], [12288:13312]}, metadata={op_type="aten__mm" op_name="aten__mm" source_file="/usr/local/lib/python3.10/site-packages/torch/_ops.py" source_line=756}
  %param_5.70 = bf16[16,1024]{1,0} parameter(5)
  %convert.1423.5 = f32[16,1024]{1,0} convert(bf16[16,1024]{1,0} %param_5.70), metadata={op_type="xla__cast" op_name="xla__cast" source_file="/usr/local/lib/python3.10/site-packages/torch/_ops.py" source_line=756}
  %slice.348.9 = f32[16,1024]{1,0} slice(f32[16,26624]{1,0} %convert.1241.180), slice={[0:16], [13312:14336]}, metadata={op_type="aten__mm" op_name="aten__mm" source_file="/usr/local/lib/python3.10/site-packages/torch/_ops.py" source_line=756}
  %param_3.708 = bf16[16,1024]{1,0} parameter(3)
  %convert.1408.9 = f32[16,1024]{1,0} convert(bf16[16,1024]{1,0} %param_3.708), metadata={op_type="xla__cast" op_name="xla__cast" source_file="/usr/local/lib/python3.10/site-packages/torch/_ops.py" source_line=756}
  %param_2.742 = f32[16,1024]{1,0} parameter(2)
  %add.379.9 = f32[16,1024]{1,0} add(f32[16,1024]{1,0} %convert.1408.9, f32[16,1024]{1,0} %param_2.742), metadata={op_type="aten__add" op_name="aten__add.216/aten__add" source_file="/usr/local/lib/python3.10/site-packages/torch/_ops.py" source_line=756}
  %add.380.7 = f32[16,1024]{1,0} add(f32[16,1024]{1,0} %slice.348.9, f32[16,1024]{1,0} %add.379.9), metadata={op_type="aten__add" op_name="aten__add.229/aten__add" source_file="/usr/local/lib/python3.10/site-packages/torch/_ops.py" source_line=756}
  %add.382.5 = f32[16,1024]{1,0} add(f32[16,1024]{1,0} %convert.1423.5, f32[16,1024]{1,0} %add.380.7), metadata={op_type="aten__add" op_name="aten__add.234/aten__add" source_file="/usr/local/lib/python3.10/site-packages/torch/_ops.py" source_line=756}
  %add.383.3 = f32[16,1024]{1,0} add(f32[16,1024]{1,0} %slice.347.5, f32[16,1024]{1,0} %add.382.5), metadata={op_type="aten__add" op_name="aten__add.247/aten__add" source_file="/usr/local/lib/python3.10/site-packages/torch/_ops.py" source_line=756}
  %multiply.769 = f32[16,1024]{1,0} multiply(f32[16,1024]{1,0} %add.383.3, f32[16,1024]{1,0} %add.383.3), metadata={op_type="aten__pow" op_name="aten__pow" source_file="/usr/local/lib/python3.10/site-packages/torch/_ops.py" source_line=756}
  %constant_707 = f32[] constant(0), metadata={op_type="aten__mean" op_name="aten__mean" source_file="/usr/local/lib/python3.10/site-packages/torch/_ops.py" source_line=756}
  %reduce.81 = f32[16]{0} reduce(f32[16,1024]{1,0} %multiply.769, f32[] %constant_707), dimensions={1}, to_apply=%AddComputation.98, metadata={op_type="aten__mean" op_name="aten__mean" source_file="/usr/local/lib/python3.10/site-packages/torch/_ops.py" source_line=756}
  %constant_706 = f32[] constant(0.0009765625), metadata={op_type="aten__mean" op_name="aten__mean" source_file="/usr/local/lib/python3.10/site-packages/torch/_ops.py" source_line=756}
  %broadcast.875 = f32[16]{0} broadcast(f32[] %constant_706), dimensions={}, metadata={op_type="aten__mean" op_name="aten__mean" source_file="/usr/local/lib/python3.10/site-packages/torch/_ops.py" source_line=756}
  %multiply.767 = f32[16]{0} multiply(f32[16]{0} %reduce.81, f32[16]{0} %broadcast.875), metadata={op_type="aten__mean" op_name="aten__mean" source_file="/usr/local/lib/python3.10/site-packages/torch/_ops.py" source_line=756}
  %param_0.1118 = f32[] parameter(0)
  %broadcast.874 = f32[16]{0} broadcast(f32[] %param_0.1118), dimensions={}, metadata={op_type="aten__add" op_name="aten__add.14/aten__add" source_file="/usr/local/lib/python3.10/site-packages/torch/_ops.py" source_line=756}
  %add.452 = f32[16]{0} add(f32[16]{0} %multiply.767, f32[16]{0} %broadcast.874), metadata={op_type="aten__add" op_name="aten__add.248/aten__add" source_file="/usr/local/lib/python3.10/site-packages/torch/_ops.py" source_line=756}
  %rsqrt.166 = f32[16]{0} rsqrt(f32[16]{0} %add.452), metadata={op_type="aten__rsqrt" op_name="aten__rsqrt" source_file="/usr/local/lib/python3.10/site-packages/torch/_ops.py" source_line=756}
  %broadcast.872 = f32[16,1024]{1,0} broadcast(f32[16]{0} %rsqrt.166), dimensions={0}, metadata={op_type="aten__mul" op_name="aten__mul.249/aten__mul" source_file="/usr/local/lib/python3.10/site-packages/torch/_ops.py" source_line=756}
  %multiply.766 = f32[16,1024]{1,0} multiply(f32[16,1024]{1,0} %add.383.3, f32[16,1024]{1,0} %broadcast.872), metadata={op_type="aten__mul" op_name="aten__mul.249/aten__mul" source_file="/usr/local/lib/python3.10/site-packages/torch/_ops.py" source_line=756}
  %param_1.1071 = bf16[1024]{0} parameter(1)
  %convert.1425.1 = f32[1024]{0} convert(bf16[1024]{0} %param_1.1071), metadata={op_type="xla__cast" op_name="xla__cast" source_file="/usr/local/lib/python3.10/site-packages/torch/_ops.py" source_line=756}
  %broadcast.617.1 = f32[16,1024]{1,0} broadcast(f32[1024]{0} %convert.1425.1), dimensions={1}, metadata={op_type="aten__mul" op_name="aten__mul.250/aten__mul" source_file="/usr/local/lib/python3.10/site-packages/torch/_ops.py" source_line=756}
  %multiply.632.1 = f32[16,1024]{1,0} multiply(f32[16,1024]{1,0} %multiply.766, f32[16,1024]{1,0} %broadcast.617.1), metadata={op_type="aten__mul" op_name="aten__mul.250/aten__mul" source_file="/usr/local/lib/python3.10/site-packages/torch/_ops.py" source_line=756}
  ROOT %convert.1426.1 = bf16[16,1024]{1,0} convert(f32[16,1024]{1,0} %multiply.632.1), metadata={op_type="xla__cast" op_name="xla__cast" source_file="/usr/local/lib/python3.10/site-packages/torch/_ops.py" source_line=756}
}

%fused_convert.12 (param_0.1136: bf16[16,6144]) -> bf16[16,3072] {
  %param_0.1136 = bf16[16,6144]{1,0} parameter(0)
  %slice.387.1 = bf16[16,3072]{1,0} slice(bf16[16,6144]{1,0} %param_0.1136), slice={[0:16], [0:3072]}, metadata={op_type="xla__select" op_name="xla__select" source_file="/usr/local/lib/python3.10/site-packages/torch/_ops.py" source_line=756}
  %convert.1427.8 = f32[16,3072]{1,0} convert(bf16[16,3072]{1,0} %slice.387.1)
  %constant_1_9 = bf16[] constant(1), metadata={op_type="xla__select" op_name="xla__select" source_file="/usr/local/lib/python3.10/site-packages/torch/_ops.py" source_line=756}
  %convert.1614.182 = f32[] convert(bf16[] %constant_1_9)
  %broadcast.668.182 = f32[16,3072]{1,0} broadcast(f32[] %convert.1614.182), dimensions={}, metadata={op_type="xla__select" op_name="xla__select" source_file="/usr/local/lib/python3.10/site-packages/torch/_ops.py" source_line=756}
  %negate.91.5 = f32[16,3072]{1,0} negate(f32[16,3072]{1,0} %convert.1427.8)
  %convert.1434.3 = bf16[16,3072]{1,0} convert(f32[16,3072]{1,0} %negate.91.5)
  %exponential.91.1 = bf16[16,3072]{1,0} exponential(bf16[16,3072]{1,0} %convert.1434.3)
  %convert.1435.1 = f32[16,3072]{1,0} convert(bf16[16,3072]{1,0} %exponential.91.1)
  %add.384.7 = f32[16,3072]{1,0} add(f32[16,3072]{1,0} %broadcast.668.182, f32[16,3072]{1,0} %convert.1435.1)
  %divide.91.5 = f32[16,3072]{1,0} divide(f32[16,3072]{1,0} %broadcast.668.182, f32[16,3072]{1,0} %add.384.7), metadata={op_type="aten__silu" op_name="aten__silu" source_file="/usr/local/lib/python3.10/site-packages/torch/_ops.py" source_line=756}
  %multiply.633.5 = f32[16,3072]{1,0} multiply(f32[16,3072]{1,0} %convert.1427.8, f32[16,3072]{1,0} %divide.91.5), metadata={op_type="aten__silu" op_name="aten__silu" source_file="/usr/local/lib/python3.10/site-packages/torch/_ops.py" source_line=756}
  %slice.388.1 = bf16[16,3072]{1,0} slice(bf16[16,6144]{1,0} %param_0.1136), slice={[0:16], [3072:6144]}, metadata={op_type="xla__select" op_name="xla__select" source_file="/usr/local/lib/python3.10/site-packages/torch/_ops.py" source_line=756}
  %convert.1438.1 = f32[16,3072]{1,0} convert(bf16[16,3072]{1,0} %slice.388.1), metadata={op_type="xla__cast" op_name="xla__cast" source_file="/usr/local/lib/python3.10/site-packages/torch/_ops.py" source_line=756}
  %multiply.634.3 = f32[16,3072]{1,0} multiply(f32[16,3072]{1,0} %multiply.633.5, f32[16,3072]{1,0} %convert.1438.1), metadata={op_type="aten__mul" op_name="aten__mul.251/aten__mul" source_file="/usr/local/lib/python3.10/site-packages/torch/_ops.py" source_line=756}
  ROOT %convert.1439.1 = bf16[16,3072]{1,0} convert(f32[16,3072]{1,0} %multiply.634.3), metadata={op_type="xla__cast" op_name="xla__cast" source_file="/usr/local/lib/python3.10/site-packages/torch/_ops.py" source_line=756}
}

%fused_computation.265 (param_0.1082: f32[], param_1.1027: bf16[1024], param_2.746: bf16[16,1024], param_3.713: bf16[16,26624], param_4.453: f32[16,1024], param_5.79: bf16[16,1024], param_6.71: bf16[16,1024]) -> bf16[16,1024] {
  %param_3.713 = bf16[16,26624]{1,0} parameter(3)
  %convert.1241.106 = f32[16,26624]{1,0} convert(bf16[16,26624]{1,0} %param_3.713), metadata={op_type="xla__cast" op_name="xla__cast" source_file="/usr/local/lib/python3.10/site-packages/torch/_ops.py" source_line=756}
  %slice.346.5 = f32[16,1024]{1,0} slice(f32[16,26624]{1,0} %convert.1241.106), slice={[0:16], [11264:12288]}, metadata={op_type="aten__mm" op_name="aten__mm" source_file="/usr/local/lib/python3.10/site-packages/torch/_ops.py" source_line=756}
  %param_2.746 = bf16[16,1024]{1,0} parameter(2)
  %convert.1440.5 = f32[16,1024]{1,0} convert(bf16[16,1024]{1,0} %param_2.746), metadata={op_type="xla__cast" op_name="xla__cast" source_file="/usr/local/lib/python3.10/site-packages/torch/_ops.py" source_line=756}
  %slice.347.9 = f32[16,1024]{1,0} slice(f32[16,26624]{1,0} %convert.1241.106), slice={[0:16], [12288:13312]}, metadata={op_type="aten__mm" op_name="aten__mm" source_file="/usr/local/lib/python3.10/site-packages/torch/_ops.py" source_line=756}
  %param_6.71 = bf16[16,1024]{1,0} parameter(6)
  %convert.1423.9 = f32[16,1024]{1,0} convert(bf16[16,1024]{1,0} %param_6.71), metadata={op_type="xla__cast" op_name="xla__cast" source_file="/usr/local/lib/python3.10/site-packages/torch/_ops.py" source_line=756}
  %slice.348.13 = f32[16,1024]{1,0} slice(f32[16,26624]{1,0} %convert.1241.106), slice={[0:16], [13312:14336]}, metadata={op_type="aten__mm" op_name="aten__mm" source_file="/usr/local/lib/python3.10/site-packages/torch/_ops.py" source_line=756}
  %param_5.79 = bf16[16,1024]{1,0} parameter(5)
  %convert.1408.13 = f32[16,1024]{1,0} convert(bf16[16,1024]{1,0} %param_5.79), metadata={op_type="xla__cast" op_name="xla__cast" source_file="/usr/local/lib/python3.10/site-packages/torch/_ops.py" source_line=756}
  %param_4.453 = f32[16,1024]{1,0} parameter(4)
  %add.379.13 = f32[16,1024]{1,0} add(f32[16,1024]{1,0} %convert.1408.13, f32[16,1024]{1,0} %param_4.453), metadata={op_type="aten__add" op_name="aten__add.216/aten__add" source_file="/usr/local/lib/python3.10/site-packages/torch/_ops.py" source_line=756}
  %add.380.11 = f32[16,1024]{1,0} add(f32[16,1024]{1,0} %slice.348.13, f32[16,1024]{1,0} %add.379.13), metadata={op_type="aten__add" op_name="aten__add.229/aten__add" source_file="/usr/local/lib/python3.10/site-packages/torch/_ops.py" source_line=756}
  %add.382.9 = f32[16,1024]{1,0} add(f32[16,1024]{1,0} %convert.1423.9, f32[16,1024]{1,0} %add.380.11), metadata={op_type="aten__add" op_name="aten__add.234/aten__add" source_file="/usr/local/lib/python3.10/site-packages/torch/_ops.py" source_line=756}
  %add.383.7 = f32[16,1024]{1,0} add(f32[16,1024]{1,0} %slice.347.9, f32[16,1024]{1,0} %add.382.9), metadata={op_type="aten__add" op_name="aten__add.247/aten__add" source_file="/usr/local/lib/python3.10/site-packages/torch/_ops.py" source_line=756}
  %add.385.5 = f32[16,1024]{1,0} add(f32[16,1024]{1,0} %convert.1440.5, f32[16,1024]{1,0} %add.383.7), metadata={op_type="aten__add" op_name="aten__add.252/aten__add" source_file="/usr/local/lib/python3.10/site-packages/torch/_ops.py" source_line=756}
  %add.386.3 = f32[16,1024]{1,0} add(f32[16,1024]{1,0} %slice.346.5, f32[16,1024]{1,0} %add.385.5), metadata={op_type="aten__add" op_name="aten__add.265/aten__add" source_file="/usr/local/lib/python3.10/site-packages/torch/_ops.py" source_line=756}
  %multiply.776 = f32[16,1024]{1,0} multiply(f32[16,1024]{1,0} %add.386.3, f32[16,1024]{1,0} %add.386.3), metadata={op_type="aten__pow" op_name="aten__pow" source_file="/usr/local/lib/python3.10/site-packages/torch/_ops.py" source_line=756}
  %constant_712 = f32[] constant(0), metadata={op_type="aten__mean" op_name="aten__mean" source_file="/usr/local/lib/python3.10/site-packages/torch/_ops.py" source_line=756}
  %reduce.83 = f32[16]{0} reduce(f32[16,1024]{1,0} %multiply.776, f32[] %constant_712), dimensions={1}, to_apply=%AddComputation.98, metadata={op_type="aten__mean" op_name="aten__mean" source_file="/usr/local/lib/python3.10/site-packages/torch/_ops.py" source_line=756}
  %constant_711 = f32[] constant(0.0009765625), metadata={op_type="aten__mean" op_name="aten__mean" source_file="/usr/local/lib/python3.10/site-packages/torch/_ops.py" source_line=756}
  %broadcast.881 = f32[16]{0} broadcast(f32[] %constant_711), dimensions={}, metadata={op_type="aten__mean" op_name="aten__mean" source_file="/usr/local/lib/python3.10/site-packages/torch/_ops.py" source_line=756}
  %multiply.775 = f32[16]{0} multiply(f32[16]{0} %reduce.83, f32[16]{0} %broadcast.881), metadata={op_type="aten__mean" op_name="aten__mean" source_file="/usr/local/lib/python3.10/site-packages/torch/_ops.py" source_line=756}
  %param_0.1082 = f32[] parameter(0)
  %broadcast.880 = f32[16]{0} broadcast(f32[] %param_0.1082), dimensions={}, metadata={op_type="aten__add" op_name="aten__add.14/aten__add" source_file="/usr/local/lib/python3.10/site-packages/torch/_ops.py" source_line=756}
  %add.454 = f32[16]{0} add(f32[16]{0} %multiply.775, f32[16]{0} %broadcast.880), metadata={op_type="aten__add" op_name="aten__add.266/aten__add" source_file="/usr/local/lib/python3.10/site-packages/torch/_ops.py" source_line=756}
  %rsqrt.168 = f32[16]{0} rsqrt(f32[16]{0} %add.454), metadata={op_type="aten__rsqrt" op_name="aten__rsqrt" source_file="/usr/local/lib/python3.10/site-packages/torch/_ops.py" source_line=756}
  %broadcast.879 = f32[16,1024]{1,0} broadcast(f32[16]{0} %rsqrt.168), dimensions={0}, metadata={op_type="aten__mul" op_name="aten__mul.267/aten__mul" source_file="/usr/local/lib/python3.10/site-packages/torch/_ops.py" source_line=756}
  %multiply.774 = f32[16,1024]{1,0} multiply(f32[16,1024]{1,0} %add.386.3, f32[16,1024]{1,0} %broadcast.879), metadata={op_type="aten__mul" op_name="aten__mul.267/aten__mul" source_file="/usr/local/lib/python3.10/site-packages/torch/_ops.py" source_line=756}
  %param_1.1027 = bf16[1024]{0} parameter(1)
  %convert.1441.1 = f32[1024]{0} convert(bf16[1024]{0} %param_1.1027), metadata={op_type="xla__cast" op_name="xla__cast" source_file="/usr/local/lib/python3.10/site-packages/torch/_ops.py" source_line=756}
  %broadcast.621.1 = f32[16,1024]{1,0} broadcast(f32[1024]{0} %convert.1441.1), dimensions={1}, metadata={op_type="aten__mul" op_name="aten__mul.268/aten__mul" source_file="/usr/local/lib/python3.10/site-packages/torch/_ops.py" source_line=756}
  %multiply.636.1 = f32[16,1024]{1,0} multiply(f32[16,1024]{1,0} %multiply.774, f32[16,1024]{1,0} %broadcast.621.1), metadata={op_type="aten__mul" op_name="aten__mul.268/aten__mul" source_file="/usr/local/lib/python3.10/site-packages/torch/_ops.py" source_line=756}
  ROOT %convert.1442.1 = bf16[16,1024]{1,0} convert(f32[16,1024]{1,0} %multiply.636.1), metadata={op_type="xla__cast" op_name="xla__cast" source_file="/usr/local/lib/python3.10/site-packages/torch/_ops.py" source_line=756}
}

%fused_convert.11 (param_0.1140: bf16[16,6144]) -> bf16[16,3072] {
  %param_0.1140 = bf16[16,6144]{1,0} parameter(0)
  %slice.389.1 = bf16[16,3072]{1,0} slice(bf16[16,6144]{1,0} %param_0.1140), slice={[0:16], [0:3072]}, metadata={op_type="xla__select" op_name="xla__select" source_file="/usr/local/lib/python3.10/site-packages/torch/_ops.py" source_line=756}
  %convert.1443.8 = f32[16,3072]{1,0} convert(bf16[16,3072]{1,0} %slice.389.1)
  %constant_1_13 = bf16[] constant(1), metadata={op_type="xla__select" op_name="xla__select" source_file="/usr/local/lib/python3.10/site-packages/torch/_ops.py" source_line=756}
  %convert.1614.172 = f32[] convert(bf16[] %constant_1_13)
  %broadcast.668.172 = f32[16,3072]{1,0} broadcast(f32[] %convert.1614.172), dimensions={}, metadata={op_type="xla__select" op_name="xla__select" source_file="/usr/local/lib/python3.10/site-packages/torch/_ops.py" source_line=756}
  %negate.92.5 = f32[16,3072]{1,0} negate(f32[16,3072]{1,0} %convert.1443.8)
  %convert.1447.3 = bf16[16,3072]{1,0} convert(f32[16,3072]{1,0} %negate.92.5)
  %exponential.92.1 = bf16[16,3072]{1,0} exponential(bf16[16,3072]{1,0} %convert.1447.3)
  %convert.1449.1 = f32[16,3072]{1,0} convert(bf16[16,3072]{1,0} %exponential.92.1)
  %add.387.7 = f32[16,3072]{1,0} add(f32[16,3072]{1,0} %broadcast.668.172, f32[16,3072]{1,0} %convert.1449.1)
  %divide.92.5 = f32[16,3072]{1,0} divide(f32[16,3072]{1,0} %broadcast.668.172, f32[16,3072]{1,0} %add.387.7), metadata={op_type="aten__silu" op_name="aten__silu" source_file="/usr/local/lib/python3.10/site-packages/torch/_ops.py" source_line=756}
  %multiply.638.5 = f32[16,3072]{1,0} multiply(f32[16,3072]{1,0} %convert.1443.8, f32[16,3072]{1,0} %divide.92.5), metadata={op_type="aten__silu" op_name="aten__silu" source_file="/usr/local/lib/python3.10/site-packages/torch/_ops.py" source_line=756}
  %slice.390.1 = bf16[16,3072]{1,0} slice(bf16[16,6144]{1,0} %param_0.1140), slice={[0:16], [3072:6144]}, metadata={op_type="xla__select" op_name="xla__select" source_file="/usr/local/lib/python3.10/site-packages/torch/_ops.py" source_line=756}
  %convert.1450.1 = f32[16,3072]{1,0} convert(bf16[16,3072]{1,0} %slice.390.1), metadata={op_type="xla__cast" op_name="xla__cast" source_file="/usr/local/lib/python3.10/site-packages/torch/_ops.py" source_line=756}
  %multiply.639.3 = f32[16,3072]{1,0} multiply(f32[16,3072]{1,0} %multiply.638.5, f32[16,3072]{1,0} %convert.1450.1), metadata={op_type="aten__mul" op_name="aten__mul.269/aten__mul" source_file="/usr/local/lib/python3.10/site-packages/torch/_ops.py" source_line=756}
  ROOT %convert.1451.1 = bf16[16,3072]{1,0} convert(f32[16,3072]{1,0} %multiply.639.3), metadata={op_type="xla__cast" op_name="xla__cast" source_file="/usr/local/lib/python3.10/site-packages/torch/_ops.py" source_line=756}
}

%fused_add.3 (param_0.933: bf16[16,26624], param_1.1029: bf16[16,1024], param_2.744: bf16[16,1024], param_3.711: f32[16,1024], param_4.451: bf16[16,1024], param_5.75: bf16[16,1024]) -> f32[16,1024] {
  %param_0.933 = bf16[16,26624]{1,0} parameter(0)
  %convert.1241.58 = f32[16,26624]{1,0} convert(bf16[16,26624]{1,0} %param_0.933), metadata={op_type="xla__cast" op_name="xla__cast" source_file="/usr/local/lib/python3.10/site-packages/torch/_ops.py" source_line=756}
  %slice.344.3 = f32[16,1024]{1,0} slice(f32[16,26624]{1,0} %convert.1241.58), slice={[0:16], [10240:11264]}, metadata={op_type="aten__mm" op_name="aten__mm" source_file="/usr/local/lib/python3.10/site-packages/torch/_ops.py" source_line=756}
  %param_1.1029 = bf16[16,1024]{1,0} parameter(1)
  %convert.1454.3 = f32[16,1024]{1,0} convert(bf16[16,1024]{1,0} %param_1.1029), metadata={op_type="xla__cast" op_name="xla__cast" source_file="/usr/local/lib/python3.10/site-packages/torch/_ops.py" source_line=756}
  %slice.346.7 = f32[16,1024]{1,0} slice(f32[16,26624]{1,0} %convert.1241.58), slice={[0:16], [11264:12288]}, metadata={op_type="aten__mm" op_name="aten__mm" source_file="/usr/local/lib/python3.10/site-packages/torch/_ops.py" source_line=756}
  %param_2.744 = bf16[16,1024]{1,0} parameter(2)
  %convert.1440.7 = f32[16,1024]{1,0} convert(bf16[16,1024]{1,0} %param_2.744), metadata={op_type="xla__cast" op_name="xla__cast" source_file="/usr/local/lib/python3.10/site-packages/torch/_ops.py" source_line=756}
  %slice.347.7 = f32[16,1024]{1,0} slice(f32[16,26624]{1,0} %convert.1241.58), slice={[0:16], [12288:13312]}, metadata={op_type="aten__mm" op_name="aten__mm" source_file="/usr/local/lib/python3.10/site-packages/torch/_ops.py" source_line=756}
  %param_5.75 = bf16[16,1024]{1,0} parameter(5)
  %convert.1423.7 = f32[16,1024]{1,0} convert(bf16[16,1024]{1,0} %param_5.75), metadata={op_type="xla__cast" op_name="xla__cast" source_file="/usr/local/lib/python3.10/site-packages/torch/_ops.py" source_line=756}
  %slice.348.11 = f32[16,1024]{1,0} slice(f32[16,26624]{1,0} %convert.1241.58), slice={[0:16], [13312:14336]}, metadata={op_type="aten__mm" op_name="aten__mm" source_file="/usr/local/lib/python3.10/site-packages/torch/_ops.py" source_line=756}
  %param_4.451 = bf16[16,1024]{1,0} parameter(4)
  %convert.1408.11 = f32[16,1024]{1,0} convert(bf16[16,1024]{1,0} %param_4.451), metadata={op_type="xla__cast" op_name="xla__cast" source_file="/usr/local/lib/python3.10/site-packages/torch/_ops.py" source_line=756}
  %param_3.711 = f32[16,1024]{1,0} parameter(3)
  %add.379.11 = f32[16,1024]{1,0} add(f32[16,1024]{1,0} %convert.1408.11, f32[16,1024]{1,0} %param_3.711), metadata={op_type="aten__add" op_name="aten__add.216/aten__add" source_file="/usr/local/lib/python3.10/site-packages/torch/_ops.py" source_line=756}
  %add.380.9 = f32[16,1024]{1,0} add(f32[16,1024]{1,0} %slice.348.11, f32[16,1024]{1,0} %add.379.11), metadata={op_type="aten__add" op_name="aten__add.229/aten__add" source_file="/usr/local/lib/python3.10/site-packages/torch/_ops.py" source_line=756}
  %add.382.7 = f32[16,1024]{1,0} add(f32[16,1024]{1,0} %convert.1423.7, f32[16,1024]{1,0} %add.380.9), metadata={op_type="aten__add" op_name="aten__add.234/aten__add" source_file="/usr/local/lib/python3.10/site-packages/torch/_ops.py" source_line=756}
  %add.383.5 = f32[16,1024]{1,0} add(f32[16,1024]{1,0} %slice.347.7, f32[16,1024]{1,0} %add.382.7), metadata={op_type="aten__add" op_name="aten__add.247/aten__add" source_file="/usr/local/lib/python3.10/site-packages/torch/_ops.py" source_line=756}
  %add.385.7 = f32[16,1024]{1,0} add(f32[16,1024]{1,0} %convert.1440.7, f32[16,1024]{1,0} %add.383.5), metadata={op_type="aten__add" op_name="aten__add.252/aten__add" source_file="/usr/local/lib/python3.10/site-packages/torch/_ops.py" source_line=756}
…
  %fusion.306 = bf16[16,1024]{1,0} fusion(f32[] %p.28, bf16[1024]{0} %p.95, bf16[16,1024]{1,0} %get-tuple-element.43.0, bf16[16,26624]{1,0} %gemm_fusion_dot.104.0, f32[16,1024]{1,0} %loop_add_fusion.4, /*index=5*/bf16[16,1024]{1,0} %get-tuple-element.39.0, bf16[16,1024]{1,0} %get-tuple-element.41.0), kind=kCustom, calls=%fused_computation.249, metadata={op_type="xla__cast" op_name="xla__cast" source_file="/usr/local/lib/python3.10/site-packages/torch/_ops.py" source_line=756}, backend_config={"operation_queue_id":"0","wait_on_operation_queues":[],"fusion_backend_config":{"kind":"__triton","block_level_fusion_config":{"output_tiles":[{"sizes":["1","1024"]}],"num_warps":"2"}},"force_earliest_schedule":false}
  %custom-call.97.0 = (bf16[16,6144]{1,0}, s8[4194304]{0}) custom-call(bf16[16,1024]{1,0} %fusion.306, bf16[6144,1024]{1,0} %p.96), custom_call_target="__cublas$gemm", metadata={op_type="aten__mm" op_name="aten__mm" source_file="/usr/local/lib/python3.10/site-packages/torch/_ops.py" source_line=756}, backend_config={"operation_queue_id":"0","wait_on_operation_queues":[],"gemm_backend_config":{"alpha_real":1,"alpha_imag":0,"beta":0,"dot_dimension_numbers":{"lhs_contracting_dimensions":["1"],"rhs_contracting_dimensions":["1"],"lhs_batch_dimensions":[],"rhs_batch_dimensions":[]},"precision_config":{"operand_precision":["DEFAULT","DEFAULT"],"algorithm":"ALG_UNSET"},"epilogue":"DEFAULT","damax_output":false,"lhs_stride":"16384","rhs_stride":"6291456","grad_x":false,"grad_y":false},"force_earliest_schedule":false}
  %get-tuple-element.44.0 = bf16[16,6144]{1,0} get-tuple-element((bf16[16,6144]{1,0}, s8[4194304]{0}) %custom-call.97.0), index=0, metadata={op_type="aten__mm" op_name="aten__mm" source_file="/usr/local/lib/python3.10/site-packages/torch/_ops.py" source_line=756}
  %loop_convert_fusion.3 = bf16[16,3072]{1,0} fusion(bf16[16,6144]{1,0} %get-tuple-element.44.0), kind=kLoop, calls=%fused_convert.3, metadata={op_type="xla__cast" op_name="xla__cast" source_file="/usr/local/lib/python3.10/site-packages/torch/_ops.py" source_line=756 deduplicated_name="loop_convert_fusion"}
  %custom-call.98.0 = (bf16[16,1024]{1,0}, s8[4194304]{0}) custom-call(bf16[16,3072]{1,0} %loop_convert_fusion.3, bf16[1024,3072]{1,0} %p.97), custom_call_target="__cublas$gemm", metadata={op_type="aten__mm" op_name="aten__mm" source_file="/usr/local/lib/python3.10/site-packages/torch/_ops.py" source_line=756}, backend_config={"operation_queue_id":"0","wait_on_operation_queues":[],"gemm_backend_config":{"alpha_real":1,"alpha_imag":0,"beta":0,"dot_dimension_numbers":{"lhs_contracting_dimensions":["1"],"rhs_contracting_dimensions":["1"],"lhs_batch_dimensions":[],"rhs_batch_dimensions":[]},"precision_config":{"operand_precision":["DEFAULT","DEFAULT"],"algorithm":"ALG_UNSET"},"epilogue":"DEFAULT","damax_output":false,"lhs_stride":"49152","rhs_stride":"3145728","grad_x":false,"grad_y":false},"force_earliest_schedule":false}
  %get-tuple-element.45.0 = bf16[16,1024]{1,0} get-tuple-element((bf16[16,1024]{1,0}, s8[4194304]{0}) %custom-call.98.0), index=0, metadata={op_type="aten__mm" op_name="aten__mm" source_file="/usr/local/lib/python3.10/site-packages/torch/_ops.py" source_line=756}
  %loop_add_fusion.5 = f32[16,1024]{1,0} fusion(bf16[16,26624]{1,0} %gemm_fusion_dot.104.0, bf16[16,1024]{1,0} %get-tuple-element.45.0, bf16[16,1024]{1,0} %get-tuple-element.43.0, f32[16,1024]{1,0} %loop_add_fusion.4, bf16[16,1024]{1,0} %get-tuple-element.39.0, /*index=5*/bf16[16,1024]{1,0} %get-tuple-element.41.0), kind=kLoop, calls=%fused_add.5, metadata={op_type="aten__add" op_name="aten__add.427/aten__add" source_file="/usr/local/lib/python3.10/site-packages/torch/_ops.py" source_line=756}
  %fusion.304 = bf16[16,1024]{1,0} fusion(f32[16,1024]{1,0} %loop_add_fusion.5, f32[] %p.28, bf16[1024]{0} %p.98), kind=kCustom, calls=%fused_computation.247, metadata={op_type="xla__cast" op_name="xla__cast" source_file="/usr/local/lib/python3.10/site-packages/torch/_ops.py" source_line=756 deduplicated_name="fusion.304"}, backend_config={"operation_queue_id":"0","wait_on_operation_queues":[],"fusion_backend_config":{"kind":"__triton","block_level_fusion_config":{"output_tiles":[{"sizes":["1","128"]}],"num_warps":"2"}},"force_earliest_schedule":false}
  %custom-call.99.0 = (bf16[16,6144]{1,0}, s8[4194304]{0}) custom-call(bf16[16,1024]{1,0} %fusion.304, bf16[6144,1024]{1,0} %p.99), custom_call_target="__cublas$gemm", metadata={op_type="aten__mm" op_name="aten__mm" source_file="/usr/local/lib/python3.10/site-packages/torch/_ops.py" source_line=756}, backend_config={"operation_queue_id":"0","wait_on_operation_queues":[],"gemm_backend_config":{"alpha_real":1,"alpha_imag":0,"beta":0,"dot_dimension_numbers":{"lhs_contracting_dimensions":["1"],"rhs_contracting_dimensions":["1"],"lhs_batch_dimensions":[],"rhs_batch_dimensions":[]},"precision_config":{"operand_precision":["DEFAULT","DEFAULT"],"algorithm":"ALG_UNSET"},"epilogue":"DEFAULT","damax_output":false,"lhs_stride":"16384","rhs_stride":"6291456","grad_x":false,"grad_y":false},"force_earliest_schedule":false}
  %get-tuple-element.46.0 = bf16[16,6144]{1,0} get-tuple-element((bf16[16,6144]{1,0}, s8[4194304]{0}) %custom-call.99.0), index=0, metadata={op_type="aten__mm" op_name="aten__mm" source_file="/usr/local/lib/python3.10/site-packages/torch/_ops.py" source_line=756}
  %loop_convert_fusion.2 = bf16[16,3072]{1,0} fusion(bf16[16,6144]{1,0} %get-tuple-element.46.0), kind=kLoop, calls=%fused_convert.2, metadata={op_type="xla__cast" op_name="xla__cast" source_file="/usr/local/lib/python3.10/site-packages/torch/_ops.py" source_line=756 deduplicated_name="loop_convert_fusion"}
  %custom-call.100.0 = (bf16[16,1024]{1,0}, s8[4194304]{0}) custom-call(bf16[16,3072]{1,0} %loop_convert_fusion.2, bf16[1024,3072]{1,0} %p.100), custom_call_target="__cublas$gemm", metadata={op_type="aten__mm" op_name="aten__mm" source_file="/usr/local/lib/python3.10/site-packages/torch/_ops.py" source_line=756}, backend_config={"operation_queue_id":"0","wait_on_operation_queues":[],"gemm_backend_config":{"alpha_real":1,"alpha_imag":0,"beta":0,"dot_dimension_numbers":{"lhs_contracting_dimensions":["1"],"rhs_contracting_dimensions":["1"],"lhs_batch_dimensions":[],"rhs_batch_dimensions":[]},"precision_config":{"operand_precision":["DEFAULT","DEFAULT"],"algorithm":"ALG_UNSET"},"epilogue":"DEFAULT","damax_output":false,"lhs_stride":"49152","rhs_stride":"3145728","grad_x":false,"grad_y":false},"force_earliest_schedule":false}
  %get-tuple-element.47.0 = bf16[16,1024]{1,0} get-tuple-element((bf16[16,1024]{1,0}, s8[4194304]{0}) %custom-call.100.0), index=0, metadata={op_type="aten__mm" op_name="aten__mm" source_file="/usr/local/lib/python3.10/site-packages/torch/_ops.py" source_line=756}
  %fusion.302 = bf16[16,1024]{1,0} fusion(f32[] %p.28, bf16[1024]{0} %p.101, f32[16,1024]{1,0} %loop_add_fusion.5, bf16[16,1024]{1,0} %get-tuple-element.47.0, bf16[16,26624]{1,0} %gemm_fusion_dot.104.0), kind=kCustom, calls=%fused_computation.245, metadata={op_type="xla__cast" op_name="xla__cast" source_file="/usr/local/lib/python3.10/site-packages/torch/_ops.py" source_line=756}, backend_config={"operation_queue_id":"0","wait_on_operation_queues":[],"fusion_backend_config":{"kind":"__triton","block_level_fusion_config":{"output_tiles":[{"sizes":["1","1024"]}],"num_warps":"2"}},"force_earliest_schedule":false}
  %custom-call.101.0 = (bf16[16,6144]{1,0}, s8[4194304]{0}) custom-call(bf16[16,1024]{1,0} %fusion.302, bf16[6144,1024]{1,0} %p.102), custom_call_target="__cublas$gemm", metadata={op_type="aten__mm" op_name="aten__mm" source_file="/usr/local/lib/python3.10/site-packages/torch/_ops.py" source_line=756}, backend_config={"operation_queue_id":"0","wait_on_operation_queues":[],"gemm_backend_config":{"alpha_real":1,"alpha_imag":0,"beta":0,"dot_dimension_numbers":{"lhs_contracting_dimensions":["1"],"rhs_contracting_dimensions":["1"],"lhs_batch_dimensions":[],"rhs_batch_dimensions":[]},"precision_config":{"operand_precision":["DEFAULT","DEFAULT"],"algorithm":"ALG_UNSET"},"epilogue":"DEFAULT","damax_output":false,"lhs_stride":"16384","rhs_stride":"6291456","grad_x":false,"grad_y":false},"force_earliest_schedule":false}
  %get-tuple-element.48.0 = bf16[16,6144]{1,0} get-tuple-element((bf16[16,6144]{1,0}, s8[4194304]{0}) %custom-call.101.0), index=0, metadata={op_type="aten__mm" op_name="aten__mm" source_file="/usr/local/lib/python3.10/site-packages/torch/_ops.py" source_line=756}
  %loop_convert_fusion.1 = bf16[16,3072]{1,0} fusion(bf16[16,6144]{1,0} %get-tuple-element.48.0), kind=kLoop, calls=%fused_convert.1, metadata={op_type="xla__cast" op_name="xla__cast" source_file="/usr/local/lib/python3.10/site-packages/torch/_ops.py" source_line=756 deduplicated_name="loop_convert_fusion"}
  %custom-call.102.0 = (bf16[16,1024]{1,0}, s8[4194304]{0}) custom-call(bf16[16,3072]{1,0} %loop_convert_fusion.1, bf16[1024,3072]{1,0} %p.103), custom_call_target="__cublas$gemm", metadata={op_type="aten__mm" op_name="aten__mm" source_file="/usr/local/lib/python3.10/site-packages/torch/_ops.py" source_line=756}, backend_config={"operation_queue_id":"0","wait_on_operation_queues":[],"gemm_backend_config":{"alpha_real":1,"alpha_imag":0,"beta":0,"dot_dimension_numbers":{"lhs_contracting_dimensions":["1"],"rhs_contracting_dimensions":["1"],"lhs_batch_dimensions":[],"rhs_batch_dimensions":[]},"precision_config":{"operand_precision":["DEFAULT","DEFAULT"],"algorithm":"ALG_UNSET"},"epilogue":"DEFAULT","damax_output":false,"lhs_stride":"49152","rhs_stride":"3145728","grad_x":false,"grad_y":false},"force_earliest_schedule":false}
  %get-tuple-element.49.0 = bf16[16,1024]{1,0} get-tuple-element((bf16[16,1024]{1,0}, s8[4194304]{0}) %custom-call.102.0), index=0, metadata={op_type="aten__mm" op_name="aten__mm" source_file="/usr/local/lib/python3.10/site-packages/torch/_ops.py" source_line=756}
  %fusion.300 = bf16[16,1024]{1,0} fusion(f32[] %p.28, bf16[1024]{0} %p.104, f32[16,1024]{1,0} %loop_add_fusion.5, bf16[16,1024]{1,0} %get-tuple-element.47.0, bf16[16,26624]{1,0} %gemm_fusion_dot.104.0, /*index=5*/bf16[16,1024]{1,0} %get-tuple-element.49.0), kind=kCustom, calls=%fused_computation.243, metadata={op_type="xla__cast" op_name="xla__cast" source_file="/usr/local/lib/python3.10/site-packages/torch/_ops.py" source_line=756}, backend_config={"operation_queue_id":"0","wait_on_operation_queues":[],"fusion_backend_config":{"kind":"__triton","block_level_fusion_config":{"output_tiles":[{"sizes":["1","1024"]}],"num_warps":"2"}},"force_earliest_schedule":false}
  %custom-call.103.0 = (bf16[16,6144]{1,0}, s8[4194304]{0}) custom-call(bf16[16,1024]{1,0} %fusion.300, bf16[6144,1024]{1,0} %p.105), custom_call_target="__cublas$gemm", metadata={op_type="aten__mm" op_name="aten__mm" source_file="/usr/local/lib/python3.10/site-packages/torch/_ops.py" source_line=756}, backend_config={"operation_queue_id":"0","wait_on_operation_queues":[],"gemm_backend_config":{"alpha_real":1,"alpha_imag":0,"beta":0,"dot_dimension_numbers":{"lhs_contracting_dimensions":["1"],"rhs_contracting_dimensions":["1"],"lhs_batch_dimensions":[],"rhs_batch_dimensions":[]},"precision_config":{"operand_precision":["DEFAULT","DEFAULT"],"algorithm":"ALG_UNSET"},"epilogue":"DEFAULT","damax_output":false,"lhs_stride":"16384","rhs_stride":"6291456","grad_x":false,"grad_y":false},"force_earliest_schedule":false}
  %get-tuple-element.50.0 = bf16[16,6144]{1,0} get-tuple-element((bf16[16,6144]{1,0}, s8[4194304]{0}) %custom-call.103.0), index=0, metadata={op_type="aten__mm" op_name="aten__mm" source_file="/usr/local/lib/python3.10/site-packages/torch/_ops.py" source_line=756}
  %loop_convert_fusion = bf16[16,3072]{1,0} fusion(bf16[16,6144]{1,0} %get-tuple-element.50.0), kind=kLoop, calls=%fused_convert, metadata={op_type="xla__cast" op_name="xla__cast" source_file="/usr/local/lib/python3.10/site-packages/torch/_ops.py" source_line=756 deduplicated_name="loop_convert_fusion"}
  %custom-call.104.0 = (bf16[16,1024]{1,0}, s8[4194304]{0}) custom-call(bf16[16,3072]{1,0} %loop_convert_fusion, bf16[1024,3072]{1,0} %p.106), custom_call_target="__cublas$gemm", metadata={op_type="aten__mm" op_name="aten__mm" source_file="/usr/local/lib/python3.10/site-packages/torch/_ops.py" source_line=756}, backend_config={"operation_queue_id":"0","wait_on_operation_queues":[],"gemm_backend_config":{"alpha_real":1,"alpha_imag":0,"beta":0,"dot_dimension_numbers":{"lhs_contracting_dimensions":["1"],"rhs_contracting_dimensions":["1"],"lhs_batch_dimensions":[],"rhs_batch_dimensions":[]},"precision_config":{"operand_precision":["DEFAULT","DEFAULT"],"algorithm":"ALG_UNSET"},"epilogue":"DEFAULT","damax_output":false,"lhs_stride":"49152","rhs_stride":"3145728","grad_x":false,"grad_y":false},"force_earliest_schedule":false}
  %get-tuple-element.51.0 = bf16[16,1024]{1,0} get-tuple-element((bf16[16,1024]{1,0}, s8[4194304]{0}) %custom-call.104.0), index=0, metadata={op_type="aten__mm" op_name="aten__mm" source_file="/usr/local/lib/python3.10/site-packages/torch/_ops.py" source_line=756}
  %fusion.298 = bf16[16,1024]{1,0} fusion(f32[] %p.28, bf16[16,1024]{1,0} %get-tuple-element.51.0, bf16[1024]{0} %p.107, f32[16,1024]{1,0} %loop_add_fusion.5, bf16[16,1024]{1,0} %get-tuple-element.47.0, /*index=5*/bf16[16,26624]{1,0} %gemm_fusion_dot.104.0, bf16[16,1024]{1,0} %get-tuple-element.49.0), kind=kCustom, calls=%fused_computation.241, metadata={op_type="xla__cast" op_name="xla__cast" source_file="/usr/local/lib/python3.10/site-packages/torch/_ops.py" source_line=756}, backend_config={"operation_queue_id":"0","wait_on_operation_queues":[],"fusion_backend_config":{"kind":"__triton","block_level_fusion_config":{"output_tiles":[{"sizes":["1","1024"]}],"num_warps":"2"}},"force_earliest_schedule":false}
  %custom-call.105.0 = (bf16[16,4096]{1,0}, s8[4194304]{0}) custom-call(bf16[16,1024]{1,0} %fusion.298, bf16[4096,1024]{1,0} %p.108), custom_call_target="__cublas$gemm", metadata={op_type="aten__mm" op_name="aten__mm" source_file="/usr/local/lib/python3.10/site-packages/torch/_ops.py" source_line=756}, backend_config={"operation_queue_id":"0","wait_on_operation_queues":[],"gemm_backend_config":{"alpha_real":1,"alpha_imag":0,"beta":0,"dot_dimension_numbers":{"lhs_contracting_dimensions":["1"],"rhs_contracting_dimensions":["1"],"lhs_batch_dimensions":[],"rhs_batch_dimensions":[]},"precision_config":{"operand_precision":["DEFAULT","DEFAULT"],"algorithm":"ALG_UNSET"},"epilogue":"DEFAULT","damax_output":false,"lhs_stride":"16384","rhs_stride":"4194304","grad_x":false,"grad_y":false},"force_earliest_schedule":false}
  %get-tuple-element.52.0 = bf16[16,4096]{1,0} get-tuple-element((bf16[16,4096]{1,0}, s8[4194304]{0}) %custom-call.105.0), index=0, metadata={op_type="aten__mm" op_name="aten__mm" source_file="/usr/local/lib/python3.10/site-packages/torch/_ops.py" source_line=756}
  %wrapped_slice = bf16[16,1024]{1,0} fusion(bf16[16,4096]{1,0} %get-tuple-element.52.0), kind=kLoop, calls=%wrapped_slice_computation, metadata={op_type="aten__split" op_name="aten__split" source_file="/usr/local/lib/python3.10/site-packages/torch/_ops.py" source_line=756}
  %triton_softmax.28.0 = f32[16,8,128]{2,1,0} fusion(f32[] %p.28, bf16[16,4096]{1,0} %get-tuple-element.52.0), kind=kCustom, calls=%triton_softmax_computation.28, metadata={op_type="aten__mul" op_name="aten__mul.473/aten__mul" source_file="/usr/local/lib/python3.10/site-packages/torch/_ops.py" source_line=756}, backend_config={"operation_queue_id":"0","wait_on_operation_queues":[],"fusion_backend_config":{"kind":"__triton","block_level_fusion_config":{"output_tiles":[{"sizes":["1","1","128"]}],"num_warps":"1"}},"force_earliest_schedule":false}
  %input_concatenate_fusion = bf16[16,8,128]{2,1,0} fusion(f32[16,8,128]{2,1,0} %triton_softmax.28.0, bf16[128]{0} %p.109, bf16[40960,128]{1,0} %p.110, s32[16]{0} %p.111), kind=kInput, calls=%fused_concatenate, metadata={op_type="aten__cat" op_name="aten__cat" source_file="/usr/local/lib/python3.10/site-packages/torch/_ops.py" source_line=756}
  %bitcast.5230.0 = bf16[16,8,128]{2,1,0} bitcast(bf16[16,1024]{1,0} %wrapped_slice)
  %loop_slice_fusion = bf16[69353472]{0} fusion(bf16[2,4233,16,8,128]{4,3,2,1,0} %p.112), kind=kLoop, calls=%fused_slice, metadata={op_type="aten__as_strided" op_name="aten__as_strided" source_file="/usr/local/lib/python3.10/site-packages/torch/_higher_order_ops/auto_functionalize.py" source_line=54}
  %bitcast.5242.0 = bf16[4233,16,8,128]{3,2,1,0} bitcast(bf16[69353472]{0} %loop_slice_fusion)
  %wrapped_slice.1 = bf16[1,4233,16,8,128]{4,3,2,1,0} fusion(bf16[2,4233,16,8,128]{4,3,2,1,0} %p.112), kind=kLoop, calls=%wrapped_slice_computation.1, metadata={op_type="aten__as_strided" op_name="aten__as_strided" source_file="/usr/local/lib/python3.10/site-packages/torch/_higher_order_ops/auto_functionalize.py" source_line=54}
  ROOT %tuple = (bf16[16,8,128]{2,1,0}, bf16[16,8,128]{2,1,0}, bf16[4233,16,8,128]{3,2,1,0}, bf16[1,4233,16,8,128]{4,3,2,1,0}) tuple(bf16[16,8,128]{2,1,0} %input_concatenate_fusion, bf16[16,8,128]{2,1,0} %bitcast.5230.0, bf16[4233,16,8,128]{3,2,1,0} %bitcast.5242.0, bf16[1,4233,16,8,128]{4,3,2,1,0} %wrapped_slice.1)
}

ENTRY %SyncTensorsGraph.2069 (p0.1.0: bf16[128], p1.4.0: f32[], p2.6.0: bf16[4096,1024], p3.8.0: bf16[1024], p4.64.0: s32[16], p5.66.0: bf16[151936,1024], p6.70.0: bf16[1024,2048], p7.86.0: bf16[1024,3072], p8.88.0: bf16[6144,1024], p9.90.0: bf16[1024], p10.142.0: bf16[1024,2048], p11.158.0: bf16[1024,3072], p12.160.0: bf16[6144,1024], p13.162.0: bf16[1024], p14.214.0: bf16[1024,2048], p15.230.0: bf16[1024,3072], p16.232.0: bf16[6144,1024], p17.234.0: bf16[1024], p18.286.0: bf16[1024,2048], p19.302.0: bf16[1024,3072], p20.304.0: bf16[6144,1024], p21.306.0: bf16[1024], p22.358.0: bf16[1024,2048], p23.374.0: bf16[1024,3072], p24.376.0: bf16[6144,1024], p25.378.0: bf16[1024], p26.430.0: bf16[1024,2048], p27.446.0: bf16[1024,3072], p28.448.0: bf16[6144,1024], p29.450.0: bf16[1024], p30.502.0: bf16[1024,2048], p31.518.0: bf16[1024,3072], p32.520.0: bf16[6144,1024], p33.522.0: bf16[1024], p34.574.0: bf16[1024,2048], p35.590.0: bf16[1024,3072], p36.592.0: bf16[6144,1024], p37.594.0: bf16[1024], p38.646.0: bf16[1024,2048], p39.662.0: bf16[1024,3072], p40.664.0: bf16[6144,1024], p41.666.0: bf16[1024], p42.718.0: bf16[1024,2048], p43.734.0: bf16[1024,3072], p44.736.0: bf16[6144,1024], p45.738.0: bf16[1024], p46.790.0: bf16[1024,2048], p47.806.0: bf16[1024,3072], p48.808.0: bf16[6144,1024], p49.810.0: bf16[1024], p50.862.0: bf16[1024,2048], p51.878.0: bf16[1024,3072], p52.880.0: bf16[6144,1024], p53.882.0: bf16[1024], p54.934.0: bf16[1024,2048], p55.950.0: bf16[1024,3072], p56.952.0: bf16[6144,1024], p57.954.0: bf16[1024], p58.1006.0: bf16[1024,2048], p59.1022.0: bf16[1024,3072], p60.1024.0: bf16[6144,1024], p61.1026.0: bf16[1024], p62.1078.0: bf16[1024,2048], p63.1094.0: bf16[1024,3072], p64.1096.0: bf16[6144,1024], p65.1098.0: bf16[1024], p66.1150.0: bf16[1024,2048], p67.1166.0: bf16[1024,3072], p68.1168.0: bf16[6144,1024], p69.1170.0: bf16[1024], p70.1222.0: bf16[1024,2048], p71.1238.0: bf16[1024,3072], p72.1240.0: bf16[6144,1024], p73.1242.0: bf16[1024], p74.1294.0: bf16[1024,2048], p75.1310.0: bf16[1024,3072], p76.1312.0: bf16[6144,1024], p77.1314.0: bf16[1024], p78.1366.0: bf16[1024,2048], p79.1382.0: bf16[1024,3072], p80.1384.0: bf16[6144,1024], p81.1386.0: bf16[1024], p82.1438.0: bf16[1024,2048], p83.1454.0: bf16[1024,3072], p84.1456.0: bf16[6144,1024], p85.1458.0: bf16[1024], p86.1510.0: bf16[1024,2048], p87.1526.0: bf16[1024,3072], p88.1528.0: bf16[6144,1024], p89.1530.0: bf16[1024], p90.1582.0: bf16[1024,2048], p91.1598.0: bf16[1024,3072], p92.1600.0: bf16[6144,1024], p93.1602.0: bf16[1024], p94.1654.0: bf16[1024,2048], p95.1670.0: bf16[1024,3072], p96.1672.0: bf16[6144,1024], p97.1674.0: bf16[1024], p98.1726.0: bf16[1024,2048], p99.1742.0: bf16[1024,3072], p100.1744.0: bf16[6144,1024], p101.1746.0: bf16[1024], p102.1798.0: bf16[1024,2048], p103.1814.0: bf16[1024,3072], p104.1816.0: bf16[6144,1024], p105.1818.0: bf16[1024], p106.1870.0: bf16[1024,2048], p107.1886.0: bf16[1024,3072], p108.1888.0: bf16[6144,1024], p109.1890.0: bf16[1024], p110.2014.0: s32[16], p111.2015.0: bf16[40960,128], p112.2059.0: bf16[2,4233,16,8,128]) -> (bf16[16,8,128], bf16[16,8,128], bf16[4233,16,8,128], bf16[4233,16,8,128]) {
  %p1.4.0 = f32[] parameter(1), metadata={op_type="xla__device_data" op_name="xla__device_data" source_file="/usr/local/lib/python3.10/site-packages/torch/_ops.py" source_line=756}
  %p112.2059.0 = bf16[2,4233,16,8,128]{4,3,2,1,0} parameter(112), metadata={op_type="xla__device_data" op_name="xla__device_data" source_file="/usr/local/lib/python3.10/site-packages/torch_xla/_dynamo/dynamo_bridge.py" source_line=355}
  %p111.2015.0 = bf16[40960,128]{1,0} parameter(111), metadata={op_type="xla__device_data" op_name="xla__device_data" source_file="/usr/local/lib/python3.10/site-packages/torch_xla/_dynamo/dynamo_bridge.py" source_line=355}
  %p110.2014.0 = s32[16]{0} parameter(110), metadata={op_type="xla__device_data" op_name="xla__device_data" source_file="/usr/local/lib/python3.10/site-packages/torch_xla/_dynamo/dynamo_bridge.py" source_line=355}
  %p109.1890.0 = bf16[1024]{0} parameter(109), metadata={op_type="xla__device_data" op_name="xla__device_data" source_file="/usr/local/lib/python3.10/site-packages/torch_xla/_dynamo/dynamo_bridge.py" source_line=355}
  %p108.1888.0 = bf16[6144,1024]{1,0} parameter(108), metadata={op_type="xla__device_data" op_name="xla__device_data" source_file="/usr/local/lib/python3.10/site-packages/torch_xla/_dynamo/dynamo_bridge.py" source_line=355}
  %p107.1886.0 = bf16[1024,3072]{1,0} parameter(107), metadata={op_type="xla__device_data" op_name="xla__device_data" source_file="/usr/local/lib/python3.10/site-packages/torch_xla/_dynamo/dynamo_bridge.py" source_line=355}
  %p106.1870.0 = bf16[1024,2048]{1,0} parameter(106), metadata={op_type="xla__device_data" op_name="xla__device_data" source_file="/usr/local/lib/python3.10/site-packages/torch_xla/_dynamo/dynamo_bridge.py" source_line=355}
  %p105.1818.0 = bf16[1024]{0} parameter(105), metadata={op_type="xla__device_data" op_name="xla__device_data" source_file="/usr/local/lib/python3.10/site-packages/torch_xla/_dynamo/dynamo_bridge.py" source_line=355}
  %p104.1816.0 = bf16[6144,1024]{1,0} parameter(104), metadata={op_type="xla__device_data" op_name="xla__device_data" source_file="/usr/local/lib/python3.10/site-packages/torch_xla/_dynamo/dynamo_bridge.py" source_line=355}
  %p103.1814.0 = bf16[1024,3072]{1,0} parameter(103), metadata={op_type="xla__device_data" op_name="xla__device_data" source_file="/usr/local/lib/python3.10/site-packages/torch_xla/_dynamo/dynamo_bridge.py" source_line=355}
  %p102.1798.0 = bf16[1024,2048]{1,0} parameter(102), metadata={op_type="xla__device_data" op_name="xla__device_data" source_file="/usr/local/lib/python3.10/site-packages/torch_xla/_dynamo/dynamo_bridge.py" source_line=355}
  %p101.1746.0 = bf16[1024]{0} parameter(101), metadata={op_type="xla__device_data" op_name="xla__device_data" source_file="/usr/local/lib/python3.10/site-packages/torch_xla/_dynamo/dynamo_bridge.py" source_line=355}
  %p100.1744.0 = bf16[6144,1024]{1,0} parameter(100), metadata={op_type="xla__device_data" op_name="xla__device_data" source_file="/usr/local/lib/python3.10/site-packages/torch_xla/_dynamo/dynamo_bridge.py" source_line=355}
  %p99.1742.0 = bf16[1024,3072]{1,0} parameter(99), metadata={op_type="xla__device_data" op_name="xla__device_data" source_file="/usr/local/lib/python3.10/site-packages/torch_xla/_dynamo/dynamo_bridge.py" source_line=355}
  %p98.1726.0 = bf16[1024,2048]{1,0} parameter(98), metadata={op_type="xla__device_data" op_name="xla__device_data" source_file="/usr/local/lib/python3.10/site-packages/torch_xla/_dynamo/dynamo_bridge.py" source_line=355}
  %p97.1674.0 = bf16[1024]{0} parameter(97), metadata={op_type="xla__device_data" op_name="xla__device_data" source_file="/usr/local/lib/python3.10/site-packages/torch_xla/_dynamo/dynamo_bridge.py" source_line=355}
  %p96.1672.0 = bf16[6144,1024]{1,0} parameter(96), metadata={op_type="xla__device_data" op_name="xla__device_data" source_file="/usr/local/lib/python3.10/site-packages/torch_xla/_dynamo/dynamo_bridge.py" source_line=355}
  %p95.1670.0 = bf16[1024,3072]{1,0} parameter(95), metadata={op_type="xla__device_data" op_name="xla__device_data" source_file="/usr/local/lib/python3.10/site-packages/torch_xla/_dynamo/dynamo_bridge.py" source_line=355}
  %p94.1654.0 = bf16[1024,2048]{1,0} parameter(94), metadata={op_type="xla__device_data" op_name="xla__device_data" source_file="/usr/local/lib/python3.10/site-packages/torch_xla/_dynamo/dynamo_bridge.py" source_line=355}
  %p93.1602.0 = bf16[1024]{0} parameter(93), metadata={op_type="xla__device_data" op_name="xla__device_data" source_file="/usr/local/lib/python3.10/site-packages/torch_xla/_dynamo/dynamo_bridge.py" source_line=355}
  %p92.1600.0 = bf16[6144,1024]{1,0} parameter(92), metadata={op_type="xla__device_data" op_name="xla__device_data" source_file="/usr/local/lib/python3.10/site-packages/torch_xla/_dynamo/dynamo_bridge.py" source_line=355}
  %p91.1598.0 = bf16[1024,3072]{1,0} parameter(91), metadata={op_type="xla__device_data" op_name="xla__device_data" source_file="/usr/local/lib/python3.10/site-packages/torch_xla/_dynamo/dynamo_bridge.py" source_line=355}
  %p90.1582.0 = bf16[1024,2048]{1,0} parameter(90), metadata={op_type="xla__device_data" op_name="xla__device_data" source_file="/usr/local/lib/python3.10/site-packages/torch_xla/_dynamo/dynamo_bridge.py" source_line=355}
  %p89.1530.0 = bf16[1024]{0} parameter(89), metadata={op_type="xla__device_data" op_name="xla__device_data" source_file="/usr/local/lib/python3.10/site-packages/torch_xla/_dynamo/dynamo_bridge.py" source_line=355}
  %p88.1528.0 = bf16[6144,1024]{1,0} parameter(88), metadata={op_type="xla__device_data" op_name="xla__device_data" source_file="/usr/local/lib/python3.10/site-packages/torch_xla/_dynamo/dynamo_bridge.py" source_line=355}
  %p87.1526.0 = bf16[1024,3072]{1,0} parameter(87), metadata={op_type="xla__device_data" op_name="xla__device_data" source_file="/usr/local/lib/python3.10/site-packages/torch_xla/_dynamo/dynamo_bridge.py" source_line=355}
  %p86.1510.0 = bf16[1024,2048]{1,0} parameter(86), metadata={op_type="xla__device_data" op_name="xla__device_data" source_file="/usr/local/lib/python3.10/site-packages/torch_xla/_dynamo/dynamo_bridge.py" source_line=355}
  %p85.1458.0 = bf16[1024]{0} parameter(85), metadata={op_type="xla__device_data" op_name="xla__device_data" source_file="/usr/local/lib/python3.10/site-packages/torch_xla/_dynamo/dynamo_bridge.py" source_line=355}
  %p84.1456.0 = bf16[6144,1024]{1,0} parameter(84), metadata={op_type="xla__device_data" op_name="xla__device_data" source_file="/usr/local/lib/python3.10/site-packages/torch_xla/_dynamo/dynamo_bridge.py" source_line=355}
  %p83.1454.0 = bf16[1024,3072]{1,0} parameter(83), metadata={op_type="xla__device_data" op_name="xla__device_data" source_file="/usr/local/lib/python3.10/site-packages/torch_xla/_dynamo/dynamo_bridge.py" source_line=355}
  %p82.1438.0 = bf16[1024,2048]{1,0} parameter(82), metadata={op_type="xla__device_data" op_name="xla__device_data" source_file="/usr/local/lib/python3.10/site-packages/torch_xla/_dynamo/dynamo_bridge.py" source_line=355}
  %p81.1386.0 = bf16[1024]{0} parameter(81), metadata={op_type="xla__device_data" op_name="xla__device_data" source_file="/usr/local/lib/python3.10/site-packages/torch_xla/_dynamo/dynamo_bridge.py" source_line=355}
  %p80.1384.0 = bf16[6144,1024]{1,0} parameter(80), metadata={op_type="xla__device_data" op_name="xla__device_data" source_file="/usr/local/lib/python3.10/site-packages/torch_xla/_dynamo/dynamo_bridge.py" source_line=355}
  %p79.1382.0 = bf16[1024,3072]{1,0} parameter(79), metadata={op_type="xla__device_data" op_name="xla__device_data" source_file="/usr/local/lib/python3.10/site-packages/torch_xla/_dynamo/dynamo_bridge.py" source_line=355}
  %p78.1366.0 = bf16[1024,2048]{1,0} parameter(78), metadata={op_type="xla__device_data" op_name="xla__device_data" source_file="/usr/local/lib/python3.10/site-packages/torch_xla/_dynamo/dynamo_bridge.py" source_line=355}
  %p77.1314.0 = bf16[1024]{0} parameter(77), metadata={op_type="xla__device_data" op_name="xla__device_data" source_file="/usr/local/lib/python3.10/site-packages/torch_xla/_dynamo/dynamo_bridge.py" source_line=355}
  %p76.1312.0 = bf16[6144,1024]{1,0} parameter(76), metadata={op_type="xla__device_data" op_name="xla__device_data" source_file="/usr/local/lib/python3.10/site-packages/torch_xla/_dynamo/dynamo_bridge.py" source_line=355}
  %p75.1310.0 = bf16[1024,3072]{1,0} parameter(75), metadata={op_type="xla__device_data" op_name="xla__device_data" source_file="/usr/local/lib/python3.10/site-packages/torch_xla/_dynamo/dynamo_bridge.py" source_line=355}
  %p74.1294.0 = bf16[1024,2048]{1,0} parameter(74), metadata={op_type="xla__device_data" op_name="xla__device_data" source_file="/usr/local/lib/python3.10/site-packages/torch_xla/_dynamo/dynamo_bridge.py" source_line=355}
  %p73.1242.0 = bf16[1024]{0} parameter(73), metadata={op_type="xla__device_data" op_name="xla__device_data" source_file="/usr/local/lib/python3.10/site-packages/torch_xla/_dynamo/dynamo_bridge.py" source_line=355}
  %p72.1240.0 = bf16[6144,1024]{1,0} parameter(72), metadata={op_type="xla__device_data" op_name="xla__device_data" source_file="/usr/local/lib/python3.10/site-packages/torch_xla/_dynamo/dynamo_bridge.py" source_line=355}
  %p71.1238.0 = bf16[1024,3072]{1,0} parameter(71), metadata={op_type="xla__device_data" op_name="xla__device_data" source_file="/usr/local/lib/python3.10/site-packages/torch_xla/_dynamo/dynamo_bridge.py" source_line=355}
  %p70.1222.0 = bf16[1024,2048]{1,0} parameter(70), metadata={op_type="xla__device_data" op_name="xla__device_data" source_file="/usr/local/lib/python3.10/site-packages/torch_xla/_dynamo/dynamo_bridge.py" source_line=355}
  %p69.1170.0 = bf16[1024]{0} parameter(69), metadata={op_type="xla__device_data" op_name="xla__device_data" source_file="/usr/local/lib/python3.10/site-packages/torch_xla/_dynamo/dynamo_bridge.py" source_line=355}
  %p68.1168.0 = bf16[6144,1024]{1,0} parameter(68), metadata={op_type="xla__device_data" op_name="xla__device_data" source_file="/usr/local/lib/python3.10/site-packages/torch_xla/_dynamo/dynamo_bridge.py" source_line=355}
  %p67.1166.0 = bf16[1024,3072]{1,0} parameter(67), metadata={op_type="xla__device_data" op_name="xla__device_data" source_file="/usr/local/lib/python3.10/site-packages/torch_xla/_dynamo/dynamo_bridge.py" source_line=355}
  %p66.1150.0 = bf16[1024,2048]{1,0} parameter(66), metadata={op_type="xla__device_data" op_name="xla__device_data" source_file="/usr/local/lib/python3.10/site-packages/torch_xla/_dynamo/dynamo_bridge.py" source_line=355}
  %p65.1098.0 = bf16[1024]{0} parameter(65), metadata={op_type="xla__device_data" op_name="xla__device_data" source_file="/usr/local/lib/python3.10/site-packages/torch_xla/_dynamo/dynamo_bridge.py" source_line=355}
  %p64.1096.0 = bf16[6144,1024]{1,0} parameter(64), metadata={op_type="xla__device_data" op_name="xla__device_data" source_file="/usr/local/lib/python3.10/site-packages/torch_xla/_dynamo/dynamo_bridge.py" source_line=355}
  %p63.1094.0 = bf16[1024,3072]{1,0} parameter(63), metadata={op_type="xla__device_data" op_name="xla__device_data" source_file="/usr/local/lib/python3.10/site-packages/torch_xla/_dynamo/dynamo_bridge.py" source_line=355}
  %p62.1078.0 = bf16[1024,2048]{1,0} parameter(62), metadata={op_type="xla__device_data" op_name="xla__device_data" source_file="/usr/local/lib/python3.10/site-packages/torch_xla/_dynamo/dynamo_bridge.py" source_line=355}
  %p61.1026.0 = bf16[1024]{0} parameter(61), metadata={op_type="xla__device_data" op_name="xla__device_data" source_file="/usr/local/lib/python3.10/site-packages/torch_xla/_dynamo/dynamo_bridge.py" source_line=355}
  %p60.1024.0 = bf16[6144,1024]{1,0} parameter(60), metadata={op_type="xla__device_data" op_name="xla__device_data" source_file="/usr/local/lib/python3.10/site-packages/torch_xla/_dynamo/dynamo_bridge.py" source_line=355}
  %p59.1022.0 = bf16[1024,3072]{1,0} parameter(59), metadata={op_type="xla__device_data" op_name="xla__device_data" source_file="/usr/local/lib/python3.10/site-packages/torch_xla/_dynamo/dynamo_bridge.py" source_line=355}
  %p58.1006.0 = bf16[1024,2048]{1,0} parameter(58), metadata={op_type="xla__device_data" op_name="xla__device_data" source_file="/usr/local/lib/python3.10/site-packages/torch_xla/_dynamo/dynamo_bridge.py" source_line=355}
  %p57.954.0 = bf16[1024]{0} parameter(57), metadata={op_type="xla__device_data" op_name="xla__device_data" source_file="/usr/local/lib/python3.10/site-packages/torch_xla/_dynamo/dynamo_bridge.py" source_line=355}
  %p56.952.0 = bf16[6144,1024]{1,0} parameter(56), metadata={op_type="xla__device_data" op_name="xla__device_data" source_file="/usr/local/lib/python3.10/site-packages/torch_xla/_dynamo/dynamo_bridge.py" source_line=355}
  %p55.950.0 = bf16[1024,3072]{1,0} parameter(55), metadata={op_type="xla__device_data" op_name="xla__device_data" source_file="/usr/local/lib/python3.10/site-packages/torch_xla/_dynamo/dynamo_bridge.py" source_line=355}
  %p54.934.0 = bf16[1024,2048]{1,0} parameter(54), metadata={op_type="xla__device_data" op_name="xla__device_data" source_file="/usr/local/lib/python3.10/site-packages/torch_xla/_dynamo/dynamo_bridge.py" source_line=355}
  %p53.882.0 = bf16[1024]{0} parameter(53), metadata={op_type="xla__device_data" op_name="xla__device_data" source_file="/usr/local/lib/python3.10/site-packages/torch_xla/_dynamo/dynamo_bridge.py" source_line=355}
  %p52.880.0 = bf16[6144,1024]{1,0} parameter(52), metadata={op_type="xla__device_data" op_name="xla__device_data" source_file="/usr/local/lib/python3.10/site-packages/torch_xla/_dynamo/dynamo_bridge.py" source_line=355}
  %p51.878.0 = bf16[1024,3072]{1,0} parameter(51), metadata={op_type="xla__device_data" op_name="xla__device_data" source_file="/usr/local/lib/python3.10/site-packages/torch_xla/_dynamo/dynamo_bridge.py" source_line=355}
  %p50.862.0 = bf16[1024,2048]{1,0} parameter(50), metadata={op_type="xla__device_data" op_name="xla__device_data" source_file="/usr/local/lib/python3.10/site-packages/torch_xla/_dynamo/dynamo_bridge.py" source_line=355}
  %p49.810.0 = bf16[1024]{0} parameter(49), metadata={op_type="xla__device_data" op_name="xla__device_data" source_file="/usr/local/lib/python3.10/site-packages/torch_xla/_dynamo/dynamo_bridge.py" source_line=355}
  %p48.808.0 = bf16[6144,1024]{1,0} parameter(48), metadata={op_type="xla__device_data" op_name="xla__device_data" source_file="/usr/local/lib/python3.10/site-packages/torch_xla/_dynamo/dynamo_bridge.py" source_line=355}
  %p47.806.0 = bf16[1024,3072]{1,0} parameter(47), metadata={op_type="xla__device_data" op_name="xla__device_data" source_file="/usr/local/lib/python3.10/site-packages/torch_xla/_dynamo/dynamo_bridge.py" source_line=355}
  %p46.790.0 = bf16[1024,2048]{1,0} parameter(46), metadata={op_type="xla__device_data" op_name="xla__device_data" source_file="/usr/local/lib/python3.10/site-packages/torch_xla/_dynamo/dynamo_bridge.py" source_line=355}
  %p45.738.0 = bf16[1024]{0} parameter(45), metadata={op_type="xla__device_data" op_name="xla__device_data" source_file="/usr/local/lib/python3.10/site-packages/torch_xla/_dynamo/dynamo_bridge.py" source_line=355}
  %p44.736.0 = bf16[6144,1024]{1,0} parameter(44), metadata={op_type="xla__device_data" op_name="xla__device_data" source_file="/usr/local/lib/python3.10/site-packages/torch_xla/_dynamo/dynamo_bridge.py" source_line=355}
  %p43.734.0 = bf16[1024,3072]{1,0} parameter(43), metadata={op_type="xla__device_data" op_name="xla__device_data" source_file="/usr/local/lib/python3.10/site-packages/torch_xla/_dynamo/dynamo_bridge.py" source_line=355}
  %p42.718.0 = bf16[1024,2048]{1,0} parameter(42), metadata={op_type="xla__device_data" op_name="xla__device_data" source_file="/usr/local/lib/python3.10/site-packages/torch_xla/_dynamo/dynamo_bridge.py" source_line=355}
  %p41.666.0 = bf16[1024]{0} parameter(41), metadata={op_type="xla__device_data" op_name="xla__device_data" source_file="/usr/local/lib/python3.10/site-packages/torch_xla/_dynamo/dynamo_bridge.py" source_line=355}
  %p40.664.0 = bf16[6144,1024]{1,0} parameter(40), metadata={op_type="xla__device_data" op_name="xla__device_data" source_file="/usr/local/lib/python3.10/site-packages/torch_xla/_dynamo/dynamo_bridge.py" source_line=355}
  %p39.662.0 = bf16[1024,3072]{1,0} parameter(39), metadata={op_type="xla__device_data" op_name="xla__device_data" source_file="/usr/local/lib/python3.10/site-packages/torch_xla/_dynamo/dynamo_bridge.py" source_line=355}
  %p38.646.0 = bf16[1024,2048]{1,0} parameter(38), metadata={op_type="xla__device_data" op_name="xla__device_data" source_file="/usr/local/lib/python3.10/site-packages/torch_xla/_dynamo/dynamo_bridge.py" source_line=355}
  %p37.594.0 = bf16[1024]{0} parameter(37), metadata={op_type="xla__device_data" op_name="xla__device_data" source_file="/usr/local/lib/python3.10/site-packages/torch_xla/_dynamo/dynamo_bridge.py" source_line=355}
  %p36.592.0 = bf16[6144,1024]{1,0} parameter(36), metadata={op_type="xla__device_data" op_name="xla__device_data" source_file="/usr/local/lib/python3.10/site-packages/torch_xla/_dynamo/dynamo_bridge.py" source_line=355}
  %p35.590.0 = bf16[1024,3072]{1,0} parameter(35), metadata={op_type="xla__device_data" op_name="xla__device_data" source_file="/usr/local/lib/python3.10/site-packages/torch_xla/_dynamo/dynamo_bridge.py" source_line=355}
  %p34.574.0 = bf16[1024,2048]{1,0} parameter(34), metadata={op_type="xla__device_data" op_name="xla__device_data" source_file="/usr/local/lib/python3.10/site-packages/torch_xla/_dynamo/dynamo_bridge.py" source_line=355}
  %p33.522.0 = bf16[1024]{0} parameter(33), metadata={op_type="xla__device_data" op_name="xla__device_data" source_file="/usr/local/lib/python3.10/site-packages/torch_xla/_dynamo/dynamo_bridge.py" source_line=355}
  %p32.520.0 = bf16[6144,1024]{1,0} parameter(32), metadata={op_type="xla__device_data" op_name="xla__device_data" source_file="/usr/local/lib/python3.10/site-packages/torch_xla/_dynamo/dynamo_bridge.py" source_line=355}
  %p31.518.0 = bf16[1024,3072]{1,0} parameter(31), metadata={op_type="xla__device_data" op_name="xla__device_data" source_file="/usr/local/lib/python3.10/site-packages/torch_xla/_dynamo/dynamo_bridge.py" source_line=355}
  %p30.502.0 = bf16[1024,2048]{1,0} parameter(30), metadata={op_type="xla__device_data" op_name="xla__device_data" source_file="/usr/local/lib/python3.10/site-packages/torch_xla/_dynamo/dynamo_bridge.py" source_line=355}
  %p29.450.0 = bf16[1024]{0} parameter(29), metadata={op_type="xla__device_data" op_name="xla__device_data" source_file="/usr/local/lib/python3.10/site-packages/torch_xla/_dynamo/dynamo_bridge.py" source_line=355}
  %p28.448.0 = bf16[6144,1024]{1,0} parameter(28), metadata={op_type="xla__device_data" op_name="xla__device_data" source_file="/usr/local/lib/python3.10/site-packages/torch_xla/_dynamo/dynamo_bridge.py" source_line=355}
  %p27.446.0 = bf16[1024,3072]{1,0} parameter(27), metadata={op_type="xla__device_data" op_name="xla__device_data" source_file="/usr/local/lib/python3.10/site-packages/torch_xla/_dynamo/dynamo_bridge.py" source_line=355}
  %p26.430.0 = bf16[1024,2048]{1,0} parameter(26), metadata={op_type="xla__device_data" op_name="xla__device_data" source_file="/usr/local/lib/python3.10/site-packages/torch_xla/_dynamo/dynamo_bridge.py" source_line=355}
  %p25.378.0 = bf16[1024]{0} parameter(25), metadata={op_type="xla__device_data" op_name="xla__device_data" source_file="/usr/local/lib/python3.10/site-packages/torch_xla/_dynamo/dynamo_bridge.py" source_line=355}
  %p24.376.0 = bf16[6144,1024]{1,0} parameter(24), metadata={op_type="xla__device_data" op_name="xla__device_data" source_file="/usr/local/lib/python3.10/site-packages/torch_xla/_dynamo/dynamo_bridge.py" source_line=355}
  %p23.374.0 = bf16[1024,3072]{1,0} parameter(23), metadata={op_type="xla__device_data" op_name="xla__device_data" source_file="/usr/local/lib/python3.10/site-packages/torch_xla/_dynamo/dynamo_bridge.py" source_line=355}
  %p22.358.0 = bf16[1024,2048]{1,0} parameter(22), metadata={op_type="xla__device_data" op_name="xla__device_data" source_file="/usr/local/lib/python3.10/site-packages/torch_xla/_dynamo/dynamo_bridge.py" source_line=355}
  %p21.306.0 = bf16[1024]{0} parameter(21), metadata={op_type="xla__device_data" op_name="xla__device_data" source_file="/usr/local/lib/python3.10/site-packages/torch_xla/_dynamo/dynamo_bridge.py" source_line=355}
  %p20.304.0 = bf16[6144,1024]{1,0} parameter(20), metadata={op_type="xla__device_data" op_name="xla__device_data" source_file="/usr/local/lib/python3.10/site-packages/torch_xla/_dynamo/dynamo_bridge.py" source_line=355}
  %p19.302.0 = bf16[1024,3072]{1,0} parameter(19), metadata={op_type="xla__device_data" op_name="xla__device_data" source_file="/usr/local/lib/python3.10/site-packages/torch_xla/_dynamo/dynamo_bridge.py" source_line=355}
  %p18.286.0 = bf16[1024,2048]{1,0} parameter(18), metadata={op_type="xla__device_data" op_name="xla__device_data" source_file="/usr/local/lib/python3.10/site-packages/torch_xla/_dynamo/dynamo_bridge.py" source_line=355}
  %p17.234.0 = bf16[1024]{0} parameter(17), metadata={op_type="xla__device_data" op_name="xla__device_data" source_file="/usr/local/lib/python3.10/site-packages/torch_xla/_dynamo/dynamo_bridge.py" source_line=355}
  %p16.232.0 = bf16[6144,1024]{1,0} parameter(16), metadata={op_type="xla__device_data" op_name="xla__device_data" source_file="/usr/local/lib/python3.10/site-packages/torch_xla/_dynamo/dynamo_bridge.py" source_line=355}
  %p15.230.0 = bf16[1024,3072]{1,0} parameter(15), metadata={op_type="xla__device_data" op_name="xla__device_data" source_file="/usr/local/lib/python3.10/site-packages/torch_xla/_dynamo/dynamo_bridge.py" source_line=355}
  %p14.214.0 = bf16[1024,2048]{1,0} parameter(14), metadata={op_type="xla__device_data" op_name="xla__device_data" source_file="/usr/local/lib/python3.10/site-packages/torch_xla/_dynamo/dynamo_bridge.py" source_line=355}
  %p13.162.0 = bf16[1024]{0} parameter(13), metadata={op_type="xla__device_data" op_name="xla__device_data" source_file="/usr/local/lib/python3.10/site-packages/torch_xla/_dynamo/dynamo_bridge.py" source_line=355}
  %p12.160.0 = bf16[6144,1024]{1,0} parameter(12), metadata={op_type="xla__device_data" op_name="xla__device_data" source_file="/usr/local/lib/python3.10/site-packages/torch_xla/_dynamo/dynamo_bridge.py" source_line=355}
  %p11.158.0 = bf16[1024,3072]{1,0} parameter(11), metadata={op_type="xla__device_data" op_name="xla__device_data" source_file="/usr/local/lib/python3.10/site-packages/torch_xla/_dynamo/dynamo_bridge.py" source_line=355}
  %p10.142.0 = bf16[1024,2048]{1,0} parameter(10), metadata={op_type="xla__device_data" op_name="xla__device_data" source_file="/usr/local/lib/python3.10/site-packages/torch_xla/_dynamo/dynamo_bridge.py" source_line=355}
  %p9.90.0 = bf16[1024]{0} parameter(9), metadata={op_type="xla__device_data" op_name="xla__device_data" source_file="/usr/local/lib/python3.10/site-packages/torch_xla/_dynamo/dynamo_bridge.py" source_line=355}
  %p8.88.0 = bf16[6144,1024]{1,0} parameter(8), metadata={op_type="xla__device_data" op_name="xla__device_data" source_file="/usr/local/lib/python3.10/site-packages/torch_xla/_dynamo/dynamo_bridge.py" source_line=355}
  %p7.86.0 = bf16[1024,3072]{1,0} parameter(7), metadata={op_type="xla__device_data" op_name="xla__device_data" source_file="/usr/local/lib/python3.10/site-packages/torch_xla/_dynamo/dynamo_bridge.py" source_line=355}
  %p6.70.0 = bf16[1024,2048]{1,0} parameter(6), metadata={op_type="xla__device_data" op_name="xla__device_data" source_file="/usr/local/lib/python3.10/site-packages/torch_xla/_dynamo/dynamo_bridge.py" source_line=355}
  %p5.66.0 = bf16[151936,1024]{1,0} parameter(5), metadata={op_type="xla__device_data" op_name="xla__device_data" source_file="/usr/local/lib/python3.10/site-packages/torch_xla/_dynamo/dynamo_bridge.py" source_line=355}
  %p4.64.0 = s32[16]{0} parameter(4), metadata={op_type="xla__device_data" op_name="xla__device_data" source_file="/usr/local/lib/python3.10/site-packages/torch_xla/_dynamo/dynamo_bridge.py" source_line=355}
  %p3.8.0 = bf16[1024]{0} parameter(3), metadata={op_type="xla__device_data" op_name="xla__device_data" source_file="/usr/local/lib/python3.10/site-packages/torch_xla/_dynamo/dynamo_bridge.py" source_line=355}
  %p2.6.0 = bf16[4096,1024]{1,0} parameter(2), metadata={op_type="xla__device_data" op_name="xla__device_data" source_file="/usr/local/lib/python3.10/site-packages/torch_xla/_dynamo/dynamo_bridge.py" source_line=355}
  %p0.1.0 = bf16[128]{0} parameter(0), metadata={op_type="xla__device_data" op_name="xla__device_data" source_file="/usr/local/lib/python3.10/site-packages/torch_xla/_dynamo/dynamo_bridge.py" source_line=355}
  %call = (bf16[16,8,128]{2,1,0}, bf16[16,8,128]{2,1,0}, bf16[4233,16,8,128]{3,2,1,0}, bf16[1,4233,16,8,128]{4,3,2,1,0}) call(bf16[151936,1024]{1,0} %p5.66.0, s32[16]{0} %p4.64.0, bf16[1024,2048]{1,0} %p106.1870.0, bf16[1024,2048]{1,0} %p102.1798.0, bf16[1024,2048]{1,0} %p98.1726.0, /*index=5*/bf16[1024,2048]{1,0} %p94.1654.0, bf16[1024,2048]{1,0} %p90.1582.0, bf16[1024,2048]{1,0} %p86.1510.0, bf16[1024,2048]{1,0} %p82.1438.0, bf16[1024,2048]{1,0} %p78.1366.0, /*index=10*/bf16[1024,2048]{1,0} %p74.1294.0, bf16[1024,2048]{1,0} %p70.1222.0, bf16[1024,2048]{1,0} %p66.1150.0, bf16[1024,2048]{1,0} %p62.1078.0, bf16[1024,2048]{1,0} %p58.1006.0, /*index=15*/bf16[1024,2048]{1,0} %p54.934.0, bf16[1024,2048]{1,0} %p50.862.0, bf16[1024,2048]{1,0} %p46.790.0, bf16[1024,2048]{1,0} %p42.718.0, bf16[1024,2048]{1,0} %p38.646.0, /*index=20*/bf16[1024,2048]{1,0} %p34.574.0, bf16[1024,2048]{1,0} %p30.502.0, bf16[1024,2048]{1,0} %p26.430.0, bf16[1024,2048]{1,0} %p22.358.0, bf16[1024,2048]{1,0} %p18.286.0, /*index=25*/bf16[1024,2048]{1,0} %p14.214.0, bf16[1024,2048]{1,0} %p10.142.0, bf16[1024,2048]{1,0} %p6.70.0, f32[] %p1.4.0, bf16[1024]{0} %p9.90.0, /*index=30*/bf16[6144,1024]{1,0} %p8.88.0, bf16[1024,3072]{1,0} %p7.86.0, bf16[1024]{0} %p13.162.0, bf16[6144,1024]{1,0} %p12.160.0, bf16[1024,3072]{1,0} %p11.158.0, /*index=35*/bf16[1024]{0} %p17.234.0, bf16[6144,1024]{1,0} %p16.232.0, bf16[1024,3072]{1,0} %p15.230.0, bf16[1024]{0} %p21.306.0, bf16[6144,1024]{1,0} %p20.304.0, /*index=40*/bf16[1024,3072]{1,0} %p19.302.0, bf16[1024]{0} %p25.378.0, bf16[6144,1024]{1,0} %p24.376.0, bf16[1024,3072]{1,0} %p23.374.0, bf16[1024]{0} %p29.450.0, /*index=45*/bf16[6144,1024]{1,0} %p28.448.0, bf16[1024,3072]{1,0} %p27.446.0, bf16[1024]{0} %p33.522.0, bf16[6144,1024]{1,0} %p32.520.0, bf16[1024,3072]{1,0} %p31.518.0, /*index=50*/bf16[1024]{0} %p37.594.0, bf16[6144,1024]{1,0} %p36.592.0, bf16[1024,3072]{1,0} %p35.590.0, bf16[1024]{0} %p41.666.0, bf16[6144,1024]{1,0} %p40.664.0, /*index=55*/bf16[1024,3072]{1,0} %p39.662.0, bf16[1024]{0} %p45.738.0, bf16[6144,1024]{1,0} %p44.736.0, bf16[1024,3072]{1,0} %p43.734.0, bf16[1024]{0} %p49.810.0, /*index=60*/bf16[6144,1024]{1,0} %p48.808.0, bf16[1024,3072]{1,0} %p47.806.0, bf16[1024]{0} %p53.882.0, bf16[6144,1024]{1,0} %p52.880.0, bf16[1024,3072]{1,0} %p51.878.0, /*index=65*/bf16[1024]{0} %p57.954.0, bf16[6144,1024]{1,0} %p56.952.0, bf16[1024,3072]{1,0} %p55.950.0, bf16[1024]{0} %p61.1026.0, bf16[6144,1024]{1,0} %p60.1024.0, /*index=70*/bf16[1024,3072]{1,0} %p59.1022.0, bf16[1024]{0} %p65.1098.0, bf16[6144,1024]{1,0} %p64.1096.0, bf16[1024,3072]{1,0} %p63.1094.0, bf16[1024]{0} %p69.1170.0, /*index=75*/bf16[6144,1024]{1,0} %p68.1168.0, bf16[1024,3072]{1,0} %p67.1166.0, bf16[1024]{0} %p73.1242.0, bf16[6144,1024]{1,0} %p72.1240.0, bf16[1024,3072]{1,0} %p71.1238.0, /*index=80*/bf16[1024]{0} %p77.1314.0, bf16[6144,1024]{1,0} %p76.1312.0, bf16[1024,3072]{1,0} %p75.1310.0, bf16[1024]{0} %p81.1386.0, bf16[6144,1024]{1,0} %p80.1384.0, /*index=85*/bf16[1024,3072]{1,0} %p79.1382.0, bf16[1024]{0} %p85.1458.0, bf16[6144,1024]{1,0} %p84.1456.0, bf16[1024,3072]{1,0} %p83.1454.0, bf16[1024]{0} %p89.1530.0, /*index=90*/bf16[6144,1024]{1,0} %p88.1528.0, bf16[1024,3072]{1,0} %p87.1526.0, bf16[1024]{0} %p93.1602.0, bf16[6144,1024]{1,0} %p92.1600.0, bf16[1024,3072]{1,0} %p91.1598.0, /*index=95*/bf16[1024]{0} %p97.1674.0, bf16[6144,1024]{1,0} %p96.1672.0, bf16[1024,3072]{1,0} %p95.1670.0, bf16[1024]{0} %p101.1746.0, bf16[6144,1024]{1,0} %p100.1744.0, /*index=100*/bf16[1024,3072]{1,0} %p99.1742.0, bf16[1024]{0} %p105.1818.0, bf16[6144,1024]{1,0} %p104.1816.0, bf16[1024,3072]{1,0} %p103.1814.0, bf16[1024]{0} %p109.1890.0, /*index=105*/bf16[6144,1024]{1,0} %p108.1888.0, bf16[1024,3072]{1,0} %p107.1886.0, bf16[1024]{0} %p3.8.0, bf16[4096,1024]{1,0} %p2.6.0, bf16[128]{0} %p0.1.0, /*index=110*/bf16[40960,128]{1,0} %p111.2015.0, s32[16]{0} %p110.2014.0, bf16[2,4233,16,8,128]{4,3,2,1,0} %p112.2059.0), to_apply=%command_buffer
  %get-tuple-element.55 = bf16[16,8,128]{2,1,0} get-tuple-element((bf16[16,8,128]{2,1,0}, bf16[16,8,128]{2,1,0}, bf16[4233,16,8,128]{3,2,1,0}, bf16[1,4233,16,8,128]{4,3,2,1,0}) %call), index=0
  %get-tuple-element.56 = bf16[16,8,128]{2,1,0} get-tuple-element((bf16[16,8,128]{2,1,0}, bf16[16,8,128]{2,1,0}, bf16[4233,16,8,128]{3,2,1,0}, bf16[1,4233,16,8,128]{4,3,2,1,0}) %call), index=1
  %get-tuple-element.57 = bf16[4233,16,8,128]{3,2,1,0} get-tuple-element((bf16[16,8,128]{2,1,0}, bf16[16,8,128]{2,1,0}, bf16[4233,16,8,128]{3,2,1,0}, bf16[1,4233,16,8,128]{4,3,2,1,0}) %call), index=2
  %get-tuple-element.58 = bf16[1,4233,16,8,128]{4,3,2,1,0} get-tuple-element((bf16[16,8,128]{2,1,0}, bf16[16,8,128]{2,1,0}, bf16[4233,16,8,128]{3,2,1,0}, bf16[1,4233,16,8,128]{4,3,2,1,0}) %call), index=3
  %bitcast.5235.0 = bf16[4233,16,8,128]{3,2,1,0} bitcast(bf16[1,4233,16,8,128]{4,3,2,1,0} %get-tuple-element.58)
  ROOT %tuple.2068.0 = (bf16[16,8,128]{2,1,0}, bf16[16,8,128]{2,1,0}, bf16[4233,16,8,128]{3,2,1,0}, bf16[4233,16,8,128]{3,2,1,0}) tuple(bf16[16,8,128]{2,1,0} %get-tuple-element.55, bf16[16,8,128]{2,1,0} %get-tuple-element.56, bf16[4233,16,8,128]{3,2,1,0} %bitcast.5235.0, bf16[4233,16,8,128]{3,2,1,0} %get-tuple-element.57)
}

