HloModule SyncTensorsGraph.1625, is_scheduled=true, entry_computation_layout={(bf16[128]{0}, f32[], bf16[4096,1024]{1,0}, bf16[1024]{0}, s32[64]{0}, /*index=5*/bf16[151936,1024]{1,0}, bf16[1024,2048]{1,0}, bf16[1024,3072]{1,0}, bf16[6144,1024]{1,0}, bf16[1024]{0}, /*index=10*/bf16[1024,2048]{1,0}, bf16[1024,3072]{1,0}, bf16[6144,1024]{1,0}, bf16[1024]{0}, bf16[1024,2048]{1,0}, /*index=15*/bf16[1024,3072]{1,0}, bf16[6144,1024]{1,0}, bf16[1024]{0}, bf16[1024,2048]{1,0}, bf16[1024,3072]{1,0}, /*index=20*/bf16[6144,1024]{1,0}, bf16[1024]{0}, bf16[1024,2048]{1,0}, bf16[1024,3072]{1,0}, bf16[6144,1024]{1,0}, /*index=25*/bf16[1024]{0}, bf16[1024,2048]{1,0}, bf16[1024,3072]{1,0}, bf16[6144,1024]{1,0}, bf16[1024]{0}, /*index=30*/bf16[1024,2048]{1,0}, bf16[1024,3072]{1,0}, bf16[6144,1024]{1,0}, bf16[1024]{0}, bf16[1024,2048]{1,0}, /*index=35*/bf16[1024,3072]{1,0}, bf16[6144,1024]{1,0}, bf16[1024]{0}, bf16[1024,2048]{1,0}, bf16[1024,3072]{1,0}, /*index=40*/bf16[6144,1024]{1,0}, bf16[1024]{0}, bf16[1024,2048]{1,0}, bf16[1024,3072]{1,0}, bf16[6144,1024]{1,0}, /*index=45*/bf16[1024]{0}, bf16[1024,2048]{1,0}, bf16[1024,3072]{1,0}, bf16[6144,1024]{1,0}, bf16[1024]{0}, /*index=50*/bf16[1024,2048]{1,0}, bf16[1024,3072]{1,0}, bf16[6144,1024]{1,0}, bf16[1024]{0}, bf16[1024,2048]{1,0}, /*index=55*/bf16[1024,3072]{1,0}, bf16[6144,1024]{1,0}, bf16[1024]{0}, bf16[1024,2048]{1,0}, bf16[1024,3072]{1,0}, /*index=60*/bf16[6144,1024]{1,0}, bf16[1024]{0}, bf16[1024,2048]{1,0}, bf16[1024,3072]{1,0}, bf16[6144,1024]{1,0}, /*index=65*/bf16[1024]{0}, bf16[1024,2048]{1,0}, bf16[1024,3072]{1,0}, bf16[6144,1024]{1,0}, bf16[1024]{0}, /*index=70*/bf16[1024,2048]{1,0}, bf16[1024,3072]{1,0}, bf16[6144,1024]{1,0}, bf16[1024]{0}, bf16[1024,2048]{1,0}, /*index=75*/bf16[1024,3072]{1,0}, bf16[6144,1024]{1,0}, bf16[1024]{0}, bf16[1024,2048]{1,0}, bf16[1024,3072]{1,0}, /*index=80*/bf16[6144,1024]{1,0}, bf16[1024]{0}, bf16[1024,2048]{1,0}, bf16[1024,3072]{1,0}, bf16[6144,1024]{1,0}, /*index=85*/bf16[1024]{0}, s32[64]{0}, bf16[40960,128]{1,0}, bf16[2,4233,16,8,128]{4,3,2,1,0})->(bf16[64,8,128]{2,1,0}, bf16[64,8,128]{2,1,0}, bf16[4233,16,8,128]{3,2,1,0}, bf16[4233,16,8,128]{3,2,1,0})}, frontend_attributes={fingerprint_before_lhs="295bc83c05e2d11d787cdb98d723630c"}

%fused_gather (param_0.9: bf16[151936,1024], param_1.665: s32[64]) -> bf16[64,1,1024] {
  %param_0.9 = bf16[151936,1024]{1,0} parameter(0)
  %param_1.665 = s32[64]{0} parameter(1)
  %convert.969.1 = s64[64]{0} convert(s32[64]{0} %param_1.665), metadata={op_type="xla__cast" op_name="xla__cast" source_file="/usr/local/lib/python3.10/site-packages/torch/_ops.py" source_line=756}
  %convert.970.1 = u32[64]{0} convert(s64[64]{0} %convert.969.1), metadata={op_type="aten__index_select" op_name="aten__index_select" source_file="/usr/local/lib/python3.10/site-packages/torch/_ops.py" source_line=756}
  %bitcast.3141.1 = u32[64,1]{1,0} bitcast(u32[64]{0} %convert.970.1)
  ROOT %gather.3 = bf16[64,1,1024]{2,0,1} gather(bf16[151936,1024]{1,0} %param_0.9, u32[64,1]{1,0} %bitcast.3141.1), offset_dims={1,2}, collapsed_slice_dims={}, start_index_map={0}, index_vector_dim=1, slice_sizes={1,1024}, metadata={op_type="aten__index_select" op_name="aten__index_select" source_file="/usr/local/lib/python3.10/site-packages/torch/_ops.py" source_line=756}
}

%wrapped_concatenate_computation (param_0.877: bf16[1024,2048], param_1.696: bf16[1024,2048], param_2.460: bf16[1024,2048], param_3.439: bf16[1024,2048], param_4.259: bf16[1024,2048], param_5.96: bf16[1024,2048], param_6.91: bf16[1024,2048], param_7.58: bf16[1024,2048], param_8.29: bf16[1024,2048], param_9.18: bf16[1024,2048], param_10.9: bf16[1024,2048], param_11.4: bf16[1024,2048], param_12: bf16[1024,2048], param_13: bf16[1024,2048], param_14: bf16[1024,2048], param_15: bf16[1024,2048], param_16: bf16[1024,2048], param_17: bf16[1024,2048], param_18: bf16[1024,2048], param_19: bf16[1024,2048]) -> bf16[20480,2048] {
  %param_0.877 = bf16[1024,2048]{1,0} parameter(0)
  %param_1.696 = bf16[1024,2048]{1,0} parameter(1)
  %param_2.460 = bf16[1024,2048]{1,0} parameter(2)
  %param_3.439 = bf16[1024,2048]{1,0} parameter(3)
  %param_4.259 = bf16[1024,2048]{1,0} parameter(4)
  %param_5.96 = bf16[1024,2048]{1,0} parameter(5)
  %param_6.91 = bf16[1024,2048]{1,0} parameter(6)
  %param_7.58 = bf16[1024,2048]{1,0} parameter(7)
  %param_8.29 = bf16[1024,2048]{1,0} parameter(8)
  %param_9.18 = bf16[1024,2048]{1,0} parameter(9)
  %param_10.9 = bf16[1024,2048]{1,0} parameter(10)
  %param_11.4 = bf16[1024,2048]{1,0} parameter(11)
  %param_12 = bf16[1024,2048]{1,0} parameter(12)
  %param_13 = bf16[1024,2048]{1,0} parameter(13)
  %param_14 = bf16[1024,2048]{1,0} parameter(14)
  %param_15 = bf16[1024,2048]{1,0} parameter(15)
  %param_16 = bf16[1024,2048]{1,0} parameter(16)
  %param_17 = bf16[1024,2048]{1,0} parameter(17)
  %param_18 = bf16[1024,2048]{1,0} parameter(18)
  %param_19 = bf16[1024,2048]{1,0} parameter(19)
  ROOT %concatenate.43.1 = bf16[20480,2048]{1,0} concatenate(bf16[1024,2048]{1,0} %param_0.877, bf16[1024,2048]{1,0} %param_1.696, bf16[1024,2048]{1,0} %param_2.460, bf16[1024,2048]{1,0} %param_3.439, bf16[1024,2048]{1,0} %param_4.259, /*index=5*/bf16[1024,2048]{1,0} %param_5.96, bf16[1024,2048]{1,0} %param_6.91, bf16[1024,2048]{1,0} %param_7.58, bf16[1024,2048]{1,0} %param_8.29, bf16[1024,2048]{1,0} %param_9.18, /*index=10*/bf16[1024,2048]{1,0} %param_10.9, bf16[1024,2048]{1,0} %param_11.4, bf16[1024,2048]{1,0} %param_12, bf16[1024,2048]{1,0} %param_13, bf16[1024,2048]{1,0} %param_14, /*index=15*/bf16[1024,2048]{1,0} %param_15, bf16[1024,2048]{1,0} %param_16, bf16[1024,2048]{1,0} %param_17, bf16[1024,2048]{1,0} %param_18, bf16[1024,2048]{1,0} %param_19), dimensions={0}, metadata={op_type="xla__device_data" op_name="xla__device_data" source_file="/usr/local/lib/python3.10/site-packages/torch_xla/_dynamo/dynamo_bridge.py" source_line=355}
}

%gemm_fusion_dot.80_computation (parameter_0: bf16[20480,2048]) -> bf16[64,20480] {
  %constant_210 = bf16[] constant(0), metadata={op_type="aten__expand" op_name="aten__expand" source_file="/usr/local/lib/python3.10/site-packages/torch/_ops.py" source_line=756}
  %broadcast.173 = bf16[64,2048]{1,0} broadcast(bf16[] %constant_210), dimensions={}, metadata={op_type="aten__expand" op_name="aten__expand" source_file="/usr/local/lib/python3.10/site-packages/torch/_ops.py" source_line=756}
  %parameter_0 = bf16[20480,2048]{1,0} parameter(0)
  ROOT %dot.81 = bf16[64,20480]{1,0} dot(bf16[64,2048]{1,0} %broadcast.173, bf16[20480,2048]{1,0} %parameter_0), lhs_contracting_dims={1}, rhs_contracting_dims={1}, metadata={op_type="aten__mm" op_name="aten__mm" source_file="/usr/local/lib/python3.10/site-packages/torch/_ops.py" source_line=756}
}

%AddComputation.86 (x.87: f32[], y.88: f32[]) -> f32[] {
  %y.88 = f32[] parameter(1)
  %x.87 = f32[] parameter(0)
  ROOT %add.265 = f32[] add(f32[] %x.87, f32[] %y.88)
}

%fused_computation.210 (param_0.841: f32[], param_1.662: bf16[64,1,1024], param_2.415: bf16[64,20480], param_3.375: bf16[1024]) -> bf16[64,1024] {
  %param_2.415 = bf16[64,20480]{1,0} parameter(2)
  %convert.968.66 = f32[64,20480]{1,0} convert(bf16[64,20480]{1,0} %param_2.415), metadata={op_type="xla__cast" op_name="xla__cast" source_file="/usr/local/lib/python3.10/site-packages/torch/_ops.py" source_line=756}
  %slice.280.9 = f32[64,1024]{1,0} slice(f32[64,20480]{1,0} %convert.968.66), slice={[0:64], [19456:20480]}, metadata={op_type="aten__mm" op_name="aten__mm" source_file="/usr/local/lib/python3.10/site-packages/torch/_ops.py" source_line=756}
  %param_1.662 = bf16[64,1,1024]{2,0,1} parameter(1)
  %bitcast.3144.9 = bf16[64,1024]{1,0} bitcast(bf16[64,1,1024]{2,0,1} %param_1.662)
  %convert.971.9 = f32[64,1024]{1,0} convert(bf16[64,1024]{1,0} %bitcast.3144.9), metadata={op_type="xla__cast" op_name="xla__cast" source_file="/usr/local/lib/python3.10/site-packages/torch/_ops.py" source_line=756}
  %add.266.7 = f32[64,1024]{1,0} add(f32[64,1024]{1,0} %slice.280.9, f32[64,1024]{1,0} %convert.971.9), metadata={op_type="aten__add" op_name="aten__add.1027/aten__add" source_file="/usr/local/lib/python3.10/site-packages/torch/_ops.py" source_line=756}
  %multiply.541 = f32[64,1024]{1,0} multiply(f32[64,1024]{1,0} %add.266.7, f32[64,1024]{1,0} %add.266.7), metadata={op_type="aten__pow" op_name="aten__pow" source_file="/usr/local/lib/python3.10/site-packages/torch/_ops.py" source_line=756}
  %constant_479 = f32[] constant(0), metadata={op_type="aten__mean" op_name="aten__mean" source_file="/usr/local/lib/python3.10/site-packages/torch/_ops.py" source_line=756}
  %reduce.45 = f32[64]{0} reduce(f32[64,1024]{1,0} %multiply.541, f32[] %constant_479), dimensions={1}, to_apply=%AddComputation.86, metadata={op_type="aten__mean" op_name="aten__mean" source_file="/usr/local/lib/python3.10/site-packages/torch/_ops.py" source_line=756}
  %constant_478 = f32[] constant(0.0009765625), metadata={op_type="aten__mean" op_name="aten__mean" source_file="/usr/local/lib/python3.10/site-packages/torch/_ops.py" source_line=756}
  %broadcast.622 = f32[64]{0} broadcast(f32[] %constant_478), dimensions={}, metadata={op_type="aten__mean" op_name="aten__mean" source_file="/usr/local/lib/python3.10/site-packages/torch/_ops.py" source_line=756}
  %multiply.539 = f32[64]{0} multiply(f32[64]{0} %reduce.45, f32[64]{0} %broadcast.622), metadata={op_type="aten__mean" op_name="aten__mean" source_file="/usr/local/lib/python3.10/site-packages/torch/_ops.py" source_line=756}
  %param_0.841 = f32[] parameter(0)
  %broadcast.621 = f32[64]{0} broadcast(f32[] %param_0.841), dimensions={}, metadata={op_type="aten__add" op_name="aten__add.1028/aten__add" source_file="/usr/local/lib/python3.10/site-packages/torch/_ops.py" source_line=756}
  %add.332 = f32[64]{0} add(f32[64]{0} %multiply.539, f32[64]{0} %broadcast.621), metadata={op_type="aten__add" op_name="aten__add.1028/aten__add" source_file="/usr/local/lib/python3.10/site-packages/torch/_ops.py" source_line=756}
  %rsqrt.112 = f32[64]{0} rsqrt(f32[64]{0} %add.332), metadata={op_type="aten__rsqrt" op_name="aten__rsqrt" source_file="/usr/local/lib/python3.10/site-packages/torch/_ops.py" source_line=756}
  %broadcast.620 = f32[64,1024]{1,0} broadcast(f32[64]{0} %rsqrt.112), dimensions={0}, metadata={op_type="aten__mul" op_name="aten__mul.1029/aten__mul" source_file="/usr/local/lib/python3.10/site-packages/torch/_ops.py" source_line=756}
  %multiply.538 = f32[64,1024]{1,0} multiply(f32[64,1024]{1,0} %add.266.7, f32[64,1024]{1,0} %broadcast.620), metadata={op_type="aten__mul" op_name="aten__mul.1029/aten__mul" source_file="/usr/local/lib/python3.10/site-packages/torch/_ops.py" source_line=756}
  %param_3.375 = bf16[1024]{0} parameter(3)
  %convert.972.1 = f32[1024]{0} convert(bf16[1024]{0} %param_3.375), metadata={op_type="xla__cast" op_name="xla__cast" source_file="/usr/local/lib/python3.10/site-packages/torch/_ops.py" source_line=756}
  %broadcast.451.1 = f32[64,1024]{1,0} broadcast(f32[1024]{0} %convert.972.1), dimensions={1}, metadata={op_type="aten__mul" op_name="aten__mul.1030/aten__mul" source_file="/usr/local/lib/python3.10/site-packages/torch/_ops.py" source_line=756}
  %multiply.460.1 = f32[64,1024]{1,0} multiply(f32[64,1024]{1,0} %multiply.538, f32[64,1024]{1,0} %broadcast.451.1), metadata={op_type="aten__mul" op_name="aten__mul.1030/aten__mul" source_file="/usr/local/lib/python3.10/site-packages/torch/_ops.py" source_line=756}
  ROOT %convert.975.1 = bf16[64,1024]{1,0} convert(f32[64,1024]{1,0} %multiply.460.1), metadata={op_type="xla__cast" op_name="xla__cast" source_file="/usr/local/lib/python3.10/site-packages/torch/_ops.py" source_line=756}
}

%fused_convert.19 (param_0.593: bf16[64,6144]) -> bf16[64,3072] {
  %param_0.593 = bf16[64,6144]{1,0} parameter(0)
  %slice.281.1 = bf16[64,3072]{1,0} slice(bf16[64,6144]{1,0} %param_0.593), slice={[0:64], [0:3072]}, metadata={op_type="xla__select" op_name="xla__select" source_file="/usr/local/lib/python3.10/site-packages/torch/_ops.py" source_line=756}
  %convert.976.6 = f32[64,3072]{1,0} convert(bf16[64,3072]{1,0} %slice.281.1)
  %constant_1_4 = bf16[] constant(1), metadata={op_type="xla__select" op_name="xla__select" source_file="/usr/local/lib/python3.10/site-packages/torch/_ops.py" source_line=756}
  %convert.1259.2 = f32[] convert(bf16[] %constant_1_4)
  %broadcast.525.160 = f32[64,3072]{1,0} broadcast(f32[] %convert.1259.2), dimensions={}, metadata={op_type="xla__select" op_name="xla__select" source_file="/usr/local/lib/python3.10/site-packages/torch/_ops.py" source_line=756}
  %negate.60.7 = f32[64,3072]{1,0} negate(f32[64,3072]{1,0} %convert.976.6)
  %convert.982.5 = bf16[64,3072]{1,0} convert(f32[64,3072]{1,0} %negate.60.7)
  %exponential.60.3 = bf16[64,3072]{1,0} exponential(bf16[64,3072]{1,0} %convert.982.5)
  %convert.983.1 = f32[64,3072]{1,0} convert(bf16[64,3072]{1,0} %exponential.60.3)
  %add.267.5 = f32[64,3072]{1,0} add(f32[64,3072]{1,0} %broadcast.525.160, f32[64,3072]{1,0} %convert.983.1)
  %divide.60.3 = f32[64,3072]{1,0} divide(f32[64,3072]{1,0} %broadcast.525.160, f32[64,3072]{1,0} %add.267.5), metadata={op_type="aten__silu" op_name="aten__silu" source_file="/usr/local/lib/python3.10/site-packages/torch/_ops.py" source_line=756}
  %multiply.461.3 = f32[64,3072]{1,0} multiply(f32[64,3072]{1,0} %convert.976.6, f32[64,3072]{1,0} %divide.60.3), metadata={op_type="aten__silu" op_name="aten__silu" source_file="/usr/local/lib/python3.10/site-packages/torch/_ops.py" source_line=756}
  %slice.282.1 = bf16[64,3072]{1,0} slice(bf16[64,6144]{1,0} %param_0.593), slice={[0:64], [3072:6144]}, metadata={op_type="xla__select" op_name="xla__select" source_file="/usr/local/lib/python3.10/site-packages/torch/_ops.py" source_line=756}
  %convert.985.1 = f32[64,3072]{1,0} convert(bf16[64,3072]{1,0} %slice.282.1), metadata={op_type="xla__cast" op_name="xla__cast" source_file="/usr/local/lib/python3.10/site-packages/torch/_ops.py" source_line=756}
  %multiply.463.1 = f32[64,3072]{1,0} multiply(f32[64,3072]{1,0} %multiply.461.3, f32[64,3072]{1,0} %convert.985.1), metadata={op_type="aten__mul" op_name="aten__mul.1031/aten__mul" source_file="/usr/local/lib/python3.10/site-packages/torch/_ops.py" source_line=756}
  ROOT %convert.987.1 = bf16[64,3072]{1,0} convert(f32[64,3072]{1,0} %multiply.463.1), metadata={op_type="xla__cast" op_name="xla__cast" source_file="/usr/local/lib/python3.10/site-packages/torch/_ops.py" source_line=756}
}

%fused_computation.209 (param_0.857: f32[], param_1.671: bf16[1024], param_2.426: bf16[64,1,1024], param_3.393: bf16[64,20480], param_4.205: bf16[64,1024]) -> bf16[64,1024] {
  %param_3.393 = bf16[64,20480]{1,0} parameter(3)
  %convert.968.114 = f32[64,20480]{1,0} convert(bf16[64,20480]{1,0} %param_3.393), metadata={op_type="xla__cast" op_name="xla__cast" source_file="/usr/local/lib/python3.10/site-packages/torch/_ops.py" source_line=756}
  %slice.279.5 = f32[64,1024]{1,0} slice(f32[64,20480]{1,0} %convert.968.114), slice={[0:64], [18432:19456]}, metadata={op_type="aten__mm" op_name="aten__mm" source_file="/usr/local/lib/python3.10/site-packages/torch/_ops.py" source_line=756}
  %param_4.205 = bf16[64,1024]{1,0} parameter(4)
  %convert.989.3 = f32[64,1024]{1,0} convert(bf16[64,1024]{1,0} %param_4.205), metadata={op_type="xla__cast" op_name="xla__cast" source_file="/usr/local/lib/python3.10/site-packages/torch/_ops.py" source_line=756}
  %slice.280.11 = f32[64,1024]{1,0} slice(f32[64,20480]{1,0} %convert.968.114), slice={[0:64], [19456:20480]}, metadata={op_type="aten__mm" op_name="aten__mm" source_file="/usr/local/lib/python3.10/site-packages/torch/_ops.py" source_line=756}
  %param_2.426 = bf16[64,1,1024]{2,0,1} parameter(2)
  %bitcast.3144.11 = bf16[64,1024]{1,0} bitcast(bf16[64,1,1024]{2,0,1} %param_2.426)
  %convert.971.11 = f32[64,1024]{1,0} convert(bf16[64,1024]{1,0} %bitcast.3144.11), metadata={op_type="xla__cast" op_name="xla__cast" source_file="/usr/local/lib/python3.10/site-packages/torch/_ops.py" source_line=756}
  %add.266.9 = f32[64,1024]{1,0} add(f32[64,1024]{1,0} %slice.280.11, f32[64,1024]{1,0} %convert.971.11), metadata={op_type="aten__add" op_name="aten__add.1027/aten__add" source_file="/usr/local/lib/python3.10/site-packages/torch/_ops.py" source_line=756}
  %add.268.3 = f32[64,1024]{1,0} add(f32[64,1024]{1,0} %convert.989.3, f32[64,1024]{1,0} %add.266.9), metadata={op_type="aten__add" op_name="aten__add.1032/aten__add" source_file="/usr/local/lib/python3.10/site-packages/torch/_ops.py" source_line=756}
  %add.269.3 = f32[64,1024]{1,0} add(f32[64,1024]{1,0} %slice.279.5, f32[64,1024]{1,0} %add.268.3), metadata={op_type="aten__add" op_name="aten__add.1045/aten__add" source_file="/usr/local/lib/python3.10/site-packages/torch/_ops.py" source_line=756}
  %multiply.548 = f32[64,1024]{1,0} multiply(f32[64,1024]{1,0} %add.269.3, f32[64,1024]{1,0} %add.269.3), metadata={op_type="aten__pow" op_name="aten__pow" source_file="/usr/local/lib/python3.10/site-packages/torch/_ops.py" source_line=756}
  %constant_484 = f32[] constant(0), metadata={op_type="aten__mean" op_name="aten__mean" source_file="/usr/local/lib/python3.10/site-packages/torch/_ops.py" source_line=756}
  %reduce.47 = f32[64]{0} reduce(f32[64,1024]{1,0} %multiply.548, f32[] %constant_484), dimensions={1}, to_apply=%AddComputation.86, metadata={op_type="aten__mean" op_name="aten__mean" source_file="/usr/local/lib/python3.10/site-packages/torch/_ops.py" source_line=756}
  %constant_483 = f32[] constant(0.0009765625), metadata={op_type="aten__mean" op_name="aten__mean" source_file="/usr/local/lib/python3.10/site-packages/torch/_ops.py" source_line=756}
  %broadcast.628 = f32[64]{0} broadcast(f32[] %constant_483), dimensions={}, metadata={op_type="aten__mean" op_name="aten__mean" source_file="/usr/local/lib/python3.10/site-packages/torch/_ops.py" source_line=756}
  %multiply.547 = f32[64]{0} multiply(f32[64]{0} %reduce.47, f32[64]{0} %broadcast.628), metadata={op_type="aten__mean" op_name="aten__mean" source_file="/usr/local/lib/python3.10/site-packages/torch/_ops.py" source_line=756}
  %param_0.857 = f32[] parameter(0)
  %broadcast.627 = f32[64]{0} broadcast(f32[] %param_0.857), dimensions={}, metadata={op_type="aten__add" op_name="aten__add.1028/aten__add" source_file="/usr/local/lib/python3.10/site-packages/torch/_ops.py" source_line=756}
  %add.334 = f32[64]{0} add(f32[64]{0} %multiply.547, f32[64]{0} %broadcast.627), metadata={op_type="aten__add" op_name="aten__add.1046/aten__add" source_file="/usr/local/lib/python3.10/site-packages/torch/_ops.py" source_line=756}
  %rsqrt.114 = f32[64]{0} rsqrt(f32[64]{0} %add.334), metadata={op_type="aten__rsqrt" op_name="aten__rsqrt" source_file="/usr/local/lib/python3.10/site-packages/torch/_ops.py" source_line=756}
  %broadcast.626 = f32[64,1024]{1,0} broadcast(f32[64]{0} %rsqrt.114), dimensions={0}, metadata={op_type="aten__mul" op_name="aten__mul.1047/aten__mul" source_file="/usr/local/lib/python3.10/site-packages/torch/_ops.py" source_line=756}
  %multiply.546 = f32[64,1024]{1,0} multiply(f32[64,1024]{1,0} %add.269.3, f32[64,1024]{1,0} %broadcast.626), metadata={op_type="aten__mul" op_name="aten__mul.1047/aten__mul" source_file="/usr/local/lib/python3.10/site-packages/torch/_ops.py" source_line=756}
  %param_1.671 = bf16[1024]{0} parameter(1)
  %convert.990.1 = f32[1024]{0} convert(bf16[1024]{0} %param_1.671), metadata={op_type="xla__cast" op_name="xla__cast" source_file="/usr/local/lib/python3.10/site-packages/torch/_ops.py" source_line=756}
  %broadcast.454.1 = f32[64,1024]{1,0} broadcast(f32[1024]{0} %convert.990.1), dimensions={1}, metadata={op_type="aten__mul" op_name="aten__mul.1048/aten__mul" source_file="/usr/local/lib/python3.10/site-packages/torch/_ops.py" source_line=756}
  %multiply.464.1 = f32[64,1024]{1,0} multiply(f32[64,1024]{1,0} %multiply.546, f32[64,1024]{1,0} %broadcast.454.1), metadata={op_type="aten__mul" op_name="aten__mul.1048/aten__mul" source_file="/usr/local/lib/python3.10/site-packages/torch/_ops.py" source_line=756}
  ROOT %convert.991.1 = bf16[64,1024]{1,0} convert(f32[64,1024]{1,0} %multiply.464.1), metadata={op_type="xla__cast" op_name="xla__cast" source_file="/usr/local/lib/python3.10/site-packages/torch/_ops.py" source_line=756}
}

%fused_convert.18 (param_0.595: bf16[64,6144]) -> bf16[64,3072] {
  %param_0.595 = bf16[64,6144]{1,0} parameter(0)
  %slice.283.1 = bf16[64,3072]{1,0} slice(bf16[64,6144]{1,0} %param_0.595), slice={[0:64], [0:3072]}, metadata={op_type="xla__select" op_name="xla__select" source_file="/usr/local/lib/python3.10/site-packages/torch/_ops.py" source_line=756}
  %convert.994.6 = f32[64,3072]{1,0} convert(bf16[64,3072]{1,0} %slice.283.1)
  %constant_1_6 = bf16[] constant(1), metadata={op_type="xla__select" op_name="xla__select" source_file="/usr/local/lib/python3.10/site-packages/torch/_ops.py" source_line=756}
  %convert.1259.4 = f32[] convert(bf16[] %constant_1_6)
  %broadcast.525.156 = f32[64,3072]{1,0} broadcast(f32[] %convert.1259.4), dimensions={}, metadata={op_type="xla__select" op_name="xla__select" source_file="/usr/local/lib/python3.10/site-packages/torch/_ops.py" source_line=756}
  %negate.61.7 = f32[64,3072]{1,0} negate(f32[64,3072]{1,0} %convert.994.6)
  %convert.998.5 = bf16[64,3072]{1,0} convert(f32[64,3072]{1,0} %negate.61.7)
  %exponential.61.3 = bf16[64,3072]{1,0} exponential(bf16[64,3072]{1,0} %convert.998.5)
  %convert.999.1 = f32[64,3072]{1,0} convert(bf16[64,3072]{1,0} %exponential.61.3)
  %add.270.5 = f32[64,3072]{1,0} add(f32[64,3072]{1,0} %broadcast.525.156, f32[64,3072]{1,0} %convert.999.1)
  %divide.61.3 = f32[64,3072]{1,0} divide(f32[64,3072]{1,0} %broadcast.525.156, f32[64,3072]{1,0} %add.270.5), metadata={op_type="aten__silu" op_name="aten__silu" source_file="/usr/local/lib/python3.10/site-packages/torch/_ops.py" source_line=756}
  %multiply.465.3 = f32[64,3072]{1,0} multiply(f32[64,3072]{1,0} %convert.994.6, f32[64,3072]{1,0} %divide.61.3), metadata={op_type="aten__silu" op_name="aten__silu" source_file="/usr/local/lib/python3.10/site-packages/torch/_ops.py" source_line=756}
  %slice.284.1 = bf16[64,3072]{1,0} slice(bf16[64,6144]{1,0} %param_0.595), slice={[0:64], [3072:6144]}, metadata={op_type="xla__select" op_name="xla__select" source_file="/usr/local/lib/python3.10/site-packages/torch/_ops.py" source_line=756}
  %convert.1000.1 = f32[64,3072]{1,0} convert(bf16[64,3072]{1,0} %slice.284.1), metadata={op_type="xla__cast" op_name="xla__cast" source_file="/usr/local/lib/python3.10/site-packages/torch/_ops.py" source_line=756}
  %multiply.466.1 = f32[64,3072]{1,0} multiply(f32[64,3072]{1,0} %multiply.465.3, f32[64,3072]{1,0} %convert.1000.1), metadata={op_type="aten__mul" op_name="aten__mul.1049/aten__mul" source_file="/usr/local/lib/python3.10/site-packages/torch/_ops.py" source_line=756}
  ROOT %convert.1001.1 = bf16[64,3072]{1,0} convert(f32[64,3072]{1,0} %multiply.466.1), metadata={op_type="xla__cast" op_name="xla__cast" source_file="/usr/local/lib/python3.10/site-packages/torch/_ops.py" source_line=756}
}

%fused_computation.208 (param_0.839: f32[], param_1.674: bf16[64,1024], param_2.430: bf16[64,20480], param_3.396: bf16[1024], param_4.211: bf16[64,1,1024], param_5.35: bf16[64,1024]) -> bf16[64,1024] {
  %param_2.430 = bf16[64,20480]{1,0} parameter(2)
  %convert.968.100 = f32[64,20480]{1,0} convert(bf16[64,20480]{1,0} %param_2.430), metadata={op_type="xla__cast" op_name="xla__cast" source_file="/usr/local/lib/python3.10/site-packages/torch/_ops.py" source_line=756}
  %slice.278.5 = f32[64,1024]{1,0} slice(f32[64,20480]{1,0} %convert.968.100), slice={[0:64], [17408:18432]}, metadata={op_type="aten__mm" op_name="aten__mm" source_file="/usr/local/lib/python3.10/site-packages/torch/_ops.py" source_line=756}
  %param_1.674 = bf16[64,1024]{1,0} parameter(1)
  %convert.1002.3 = f32[64,1024]{1,0} convert(bf16[64,1024]{1,0} %param_1.674), metadata={op_type="xla__cast" op_name="xla__cast" source_file="/usr/local/lib/python3.10/site-packages/torch/_ops.py" source_line=756}
  %slice.279.9 = f32[64,1024]{1,0} slice(f32[64,20480]{1,0} %convert.968.100), slice={[0:64], [18432:19456]}, metadata={op_type="aten__mm" op_name="aten__mm" source_file="/usr/local/lib/python3.10/site-packages/torch/_ops.py" source_line=756}
  %param_5.35 = bf16[64,1024]{1,0} parameter(5)
  %convert.989.7 = f32[64,1024]{1,0} convert(bf16[64,1024]{1,0} %param_5.35), metadata={op_type="xla__cast" op_name="xla__cast" source_file="/usr/local/lib/python3.10/site-packages/torch/_ops.py" source_line=756}
  %slice.280.15 = f32[64,1024]{1,0} slice(f32[64,20480]{1,0} %convert.968.100), slice={[0:64], [19456:20480]}, metadata={op_type="aten__mm" op_name="aten__mm" source_file="/usr/local/lib/python3.10/site-packages/torch/_ops.py" source_line=756}
  %param_4.211 = bf16[64,1,1024]{2,0,1} parameter(4)
  %bitcast.3144.15 = bf16[64,1024]{1,0} bitcast(bf16[64,1,1024]{2,0,1} %param_4.211)
  %convert.971.15 = f32[64,1024]{1,0} convert(bf16[64,1024]{1,0} %bitcast.3144.15), metadata={op_type="xla__cast" op_name="xla__cast" source_file="/usr/local/lib/python3.10/site-packages/torch/_ops.py" source_line=756}
  %add.266.13 = f32[64,1024]{1,0} add(f32[64,1024]{1,0} %slice.280.15, f32[64,1024]{1,0} %convert.971.15), metadata={op_type="aten__add" op_name="aten__add.1027/aten__add" source_file="/usr/local/lib/python3.10/site-packages/torch/_ops.py" source_line=756}
  %add.268.7 = f32[64,1024]{1,0} add(f32[64,1024]{1,0} %convert.989.7, f32[64,1024]{1,0} %add.266.13), metadata={op_type="aten__add" op_name="aten__add.1032/aten__add" source_file="/usr/local/lib/python3.10/site-packages/torch/_ops.py" source_line=756}
  %add.269.7 = f32[64,1024]{1,0} add(f32[64,1024]{1,0} %slice.279.9, f32[64,1024]{1,0} %add.268.7), metadata={op_type="aten__add" op_name="aten__add.1045/aten__add" source_file="/usr/local/lib/python3.10/site-packages/torch/_ops.py" source_line=756}
  %add.272.3 = f32[64,1024]{1,0} add(f32[64,1024]{1,0} %convert.1002.3, f32[64,1024]{1,0} %add.269.7), metadata={op_type="aten__add" op_name="aten__add.1050/aten__add" source_file="/usr/local/lib/python3.10/site-packages/torch/_ops.py" source_line=756}
  %add.273.3 = f32[64,1024]{1,0} add(f32[64,1024]{1,0} %slice.278.5, f32[64,1024]{1,0} %add.272.3), metadata={op_type="aten__add" op_name="aten__add.1063/aten__add" source_file="/usr/local/lib/python3.10/site-packages/torch/_ops.py" source_line=756}
  %multiply.556 = f32[64,1024]{1,0} multiply(f32[64,1024]{1,0} %add.273.3, f32[64,1024]{1,0} %add.273.3), metadata={op_type="aten__pow" op_name="aten__pow" source_file="/usr/local/lib/python3.10/site-packages/torch/_ops.py" source_line=756}
  %constant_489 = f32[] constant(0), metadata={op_type="aten__mean" op_name="aten__mean" source_file="/usr/local/lib/python3.10/site-packages/torch/_ops.py" source_line=756}
  %reduce.49 = f32[64]{0} reduce(f32[64,1024]{1,0} %multiply.556, f32[] %constant_489), dimensions={1}, to_apply=%AddComputation.86, metadata={op_type="aten__mean" op_name="aten__mean" source_file="/usr/local/lib/python3.10/site-packages/torch/_ops.py" source_line=756}
  %constant_488 = f32[] constant(0.0009765625), metadata={op_type="aten__mean" op_name="aten__mean" source_file="/usr/local/lib/python3.10/site-packages/torch/_ops.py" source_line=756}
  %broadcast.635 = f32[64]{0} broadcast(f32[] %constant_488), dimensions={}, metadata={op_type="aten__mean" op_name="aten__mean" source_file="/usr/local/lib/python3.10/site-packages/torch/_ops.py" source_line=756}
  %multiply.555 = f32[64]{0} multiply(f32[64]{0} %reduce.49, f32[64]{0} %broadcast.635), metadata={op_type="aten__mean" op_name="aten__mean" source_file="/usr/local/lib/python3.10/site-packages/torch/_ops.py" source_line=756}
  %param_0.839 = f32[] parameter(0)
  %broadcast.634 = f32[64]{0} broadcast(f32[] %param_0.839), dimensions={}, metadata={op_type="aten__add" op_name="aten__add.1028/aten__add" source_file="/usr/local/lib/python3.10/site-packages/torch/_ops.py" source_line=756}
  %add.336 = f32[64]{0} add(f32[64]{0} %multiply.555, f32[64]{0} %broadcast.634), metadata={op_type="aten__add" op_name="aten__add.1064/aten__add" source_file="/usr/local/lib/python3.10/site-packages/torch/_ops.py" source_line=756}
  %rsqrt.116 = f32[64]{0} rsqrt(f32[64]{0} %add.336), metadata={op_type="aten__rsqrt" op_name="aten__rsqrt" source_file="/usr/local/lib/python3.10/site-packages/torch/_ops.py" source_line=756}
  %broadcast.633 = f32[64,1024]{1,0} broadcast(f32[64]{0} %rsqrt.116), dimensions={0}, metadata={op_type="aten__mul" op_name="aten__mul.1065/aten__mul" source_file="/usr/local/lib/python3.10/site-packages/torch/_ops.py" source_line=756}
  %multiply.554 = f32[64,1024]{1,0} multiply(f32[64,1024]{1,0} %add.273.3, f32[64,1024]{1,0} %broadcast.633), metadata={op_type="aten__mul" op_name="aten__mul.1065/aten__mul" source_file="/usr/local/lib/python3.10/site-packages/torch/_ops.py" source_line=756}
  %param_3.396 = bf16[1024]{0} parameter(3)
  %convert.1003.1 = f32[1024]{0} convert(bf16[1024]{0} %param_3.396), metadata={op_type="xla__cast" op_name="xla__cast" source_file="/usr/local/lib/python3.10/site-packages/torch/_ops.py" source_line=756}
  %broadcast.457.1 = f32[64,1024]{1,0} broadcast(f32[1024]{0} %convert.1003.1), dimensions={1}, metadata={op_type="aten__mul" op_name="aten__mul.1066/aten__mul" source_file="/usr/local/lib/python3.10/site-packages/torch/_ops.py" source_line=756}
  %multiply.467.1 = f32[64,1024]{1,0} multiply(f32[64,1024]{1,0} %multiply.554, f32[64,1024]{1,0} %broadcast.457.1), metadata={op_type="aten__mul" op_name="aten__mul.1066/aten__mul" source_file="/usr/local/lib/python3.10/site-packages/torch/_ops.py" source_line=756}
  ROOT %convert.1005.1 = bf16[64,1024]{1,0} convert(f32[64,1024]{1,0} %multiply.467.1), metadata={op_type="xla__cast" op_name="xla__cast" source_file="/usr/local/lib/python3.10/site-packages/torch/_ops.py" source_line=756}
}

%fused_convert.17 (param_0.597: bf16[64,6144]) -> bf16[64,3072] {
  %param_0.597 = bf16[64,6144]{1,0} parameter(0)
  %slice.285.1 = bf16[64,3072]{1,0} slice(bf16[64,6144]{1,0} %param_0.597), slice={[0:64], [0:3072]}, metadata={op_type="xla__select" op_name="xla__select" source_file="/usr/local/lib/python3.10/site-packages/torch/_ops.py" source_line=756}
  %convert.1006.6 = f32[64,3072]{1,0} convert(bf16[64,3072]{1,0} %slice.285.1)
  %constant_1_8 = bf16[] constant(1), metadata={op_type="xla__select" op_name="xla__select" source_file="/usr/local/lib/python3.10/site-packages/torch/_ops.py" source_line=756}
  %convert.1259.6 = f32[] convert(bf16[] %constant_1_8)
  %broadcast.525.152 = f32[64,3072]{1,0} broadcast(f32[] %convert.1259.6), dimensions={}, metadata={op_type="xla__select" op_name="xla__select" source_file="/usr/local/lib/python3.10/site-packages/torch/_ops.py" source_line=756}
  %negate.62.7 = f32[64,3072]{1,0} negate(f32[64,3072]{1,0} %convert.1006.6)
  %convert.1012.5 = bf16[64,3072]{1,0} convert(f32[64,3072]{1,0} %negate.62.7)
  %exponential.62.3 = bf16[64,3072]{1,0} exponential(bf16[64,3072]{1,0} %convert.1012.5)
  %convert.1013.1 = f32[64,3072]{1,0} convert(bf16[64,3072]{1,0} %exponential.62.3)
  %add.274.5 = f32[64,3072]{1,0} add(f32[64,3072]{1,0} %broadcast.525.152, f32[64,3072]{1,0} %convert.1013.1)
  %divide.62.3 = f32[64,3072]{1,0} divide(f32[64,3072]{1,0} %broadcast.525.152, f32[64,3072]{1,0} %add.274.5), metadata={op_type="aten__silu" op_name="aten__silu" source_file="/usr/local/lib/python3.10/site-packages/torch/_ops.py" source_line=756}
  %multiply.469.3 = f32[64,3072]{1,0} multiply(f32[64,3072]{1,0} %convert.1006.6, f32[64,3072]{1,0} %divide.62.3), metadata={op_type="aten__silu" op_name="aten__silu" source_file="/usr/local/lib/python3.10/site-packages/torch/_ops.py" source_line=756}
  %slice.286.1 = bf16[64,3072]{1,0} slice(bf16[64,6144]{1,0} %param_0.597), slice={[0:64], [3072:6144]}, metadata={op_type="xla__select" op_name="xla__select" source_file="/usr/local/lib/python3.10/site-packages/torch/_ops.py" source_line=756}
  %convert.1014.1 = f32[64,3072]{1,0} convert(bf16[64,3072]{1,0} %slice.286.1), metadata={op_type="xla__cast" op_name="xla__cast" source_file="/usr/local/lib/python3.10/site-packages/torch/_ops.py" source_line=756}
  %multiply.470.1 = f32[64,3072]{1,0} multiply(f32[64,3072]{1,0} %multiply.469.3, f32[64,3072]{1,0} %convert.1014.1), metadata={op_type="aten__mul" op_name="aten__mul.1067/aten__mul" source_file="/usr/local/lib/python3.10/site-packages/torch/_ops.py" source_line=756}
  ROOT %convert.1016.1 = bf16[64,3072]{1,0} convert(f32[64,3072]{1,0} %multiply.470.1), metadata={op_type="xla__cast" op_name="xla__cast" source_file="/usr/local/lib/python3.10/site-packages/torch/_ops.py" source_line=756}
}

%fused_computation.207 (param_0.874: f32[], param_1.692: bf16[1024], param_2.455: bf16[64,1,1024], param_3.433: bf16[64,20480], param_4.250: bf16[64,1024], param_5.86: bf16[64,1024], param_6.79: bf16[64,1024]) -> bf16[64,1024] {
  %param_3.433 = bf16[64,20480]{1,0} parameter(3)
  %convert.968.166 = f32[64,20480]{1,0} convert(bf16[64,20480]{1,0} %param_3.433), metadata={op_type="xla__cast" op_name="xla__cast" source_file="/usr/local/lib/python3.10/site-packages/torch/_ops.py" source_line=756}
  %slice.277.5 = f32[64,1024]{1,0} slice(f32[64,20480]{1,0} %convert.968.166), slice={[0:64], [16384:17408]}, metadata={op_type="aten__mm" op_name="aten__mm" source_file="/usr/local/lib/python3.10/site-packages/torch/_ops.py" source_line=756}
  %param_6.79 = bf16[64,1024]{1,0} parameter(6)
  %convert.1017.3 = f32[64,1024]{1,0} convert(bf16[64,1024]{1,0} %param_6.79), metadata={op_type="xla__cast" op_name="xla__cast" source_file="/usr/local/lib/python3.10/site-packages/torch/_ops.py" source_line=756}
  %slice.278.9 = f32[64,1024]{1,0} slice(f32[64,20480]{1,0} %convert.968.166), slice={[0:64], [17408:18432]}, metadata={op_type="aten__mm" op_name="aten__mm" source_file="/usr/local/lib/python3.10/site-packages/torch/_ops.py" source_line=756}
  %param_5.86 = bf16[64,1024]{1,0} parameter(5)
  %convert.1002.7 = f32[64,1024]{1,0} convert(bf16[64,1024]{1,0} %param_5.86), metadata={op_type="xla__cast" op_name="xla__cast" source_file="/usr/local/lib/python3.10/site-packages/torch/_ops.py" source_line=756}
  %slice.279.11 = f32[64,1024]{1,0} slice(f32[64,20480]{1,0} %convert.968.166), slice={[0:64], [18432:19456]}, metadata={op_type="aten__mm" op_name="aten__mm" source_file="/usr/local/lib/python3.10/site-packages/torch/_ops.py" source_line=756}
  %param_4.250 = bf16[64,1024]{1,0} parameter(4)
  %convert.989.9 = f32[64,1024]{1,0} convert(bf16[64,1024]{1,0} %param_4.250), metadata={op_type="xla__cast" op_name="xla__cast" source_file="/usr/local/lib/python3.10/site-packages/torch/_ops.py" source_line=756}
  %slice.280.17 = f32[64,1024]{1,0} slice(f32[64,20480]{1,0} %convert.968.166), slice={[0:64], [19456:20480]}, metadata={op_type="aten__mm" op_name="aten__mm" source_file="/usr/local/lib/python3.10/site-packages/torch/_ops.py" source_line=756}
  %param_2.455 = bf16[64,1,1024]{2,0,1} parameter(2)
  %bitcast.3144.17 = bf16[64,1024]{1,0} bitcast(bf16[64,1,1024]{2,0,1} %param_2.455)
  %convert.971.17 = f32[64,1024]{1,0} convert(bf16[64,1024]{1,0} %bitcast.3144.17), metadata={op_type="xla__cast" op_name="xla__cast" source_file="/usr/local/lib/python3.10/site-packages/torch/_ops.py" source_line=756}
  %add.266.15 = f32[64,1024]{1,0} add(f32[64,1024]{1,0} %slice.280.17, f32[64,1024]{1,0} %convert.971.17), metadata={op_type="aten__add" op_name="aten__add.1027/aten__add" source_file="/usr/local/lib/python3.10/site-packages/torch/_ops.py" source_line=756}
  %add.268.9 = f32[64,1024]{1,0} add(f32[64,1024]{1,0} %convert.989.9, f32[64,1024]{1,0} %add.266.15), metadata={op_type="aten__add" op_name="aten__add.1032/aten__add" source_file="/usr/local/lib/python3.10/site-packages/torch/_ops.py" source_line=756}
  %add.269.9 = f32[64,1024]{1,0} add(f32[64,1024]{1,0} %slice.279.11, f32[64,1024]{1,0} %add.268.9), metadata={op_type="aten__add" op_name="aten__add.1045/aten__add" source_file="/usr/local/lib/python3.10/site-packages/torch/_ops.py" source_line=756}
  %add.272.7 = f32[64,1024]{1,0} add(f32[64,1024]{1,0} %convert.1002.7, f32[64,1024]{1,0} %add.269.9), metadata={op_type="aten__add" op_name="aten__add.1050/aten__add" source_file="/usr/local/lib/python3.10/site-packages/torch/_ops.py" source_line=756}
  %add.273.7 = f32[64,1024]{1,0} add(f32[64,1024]{1,0} %slice.278.9, f32[64,1024]{1,0} %add.272.7), metadata={op_type="aten__add" op_name="aten__add.1063/aten__add" source_file="/usr/local/lib/python3.10/site-packages/torch/_ops.py" source_line=756}
  %add.275.3 = f32[64,1024]{1,0} add(f32[64,1024]{1,0} %convert.1017.3, f32[64,1024]{1,0} %add.273.7), metadata={op_type="aten__add" op_name="aten__add.1068/aten__add" source_file="/usr/local/lib/python3.10/site-packages/torch/_ops.py" source_line=756}
  %add.276.3 = f32[64,1024]{1,0} add(f32[64,1024]{1,0} %slice.277.5, f32[64,1024]{1,0} %add.275.3), metadata={op_type="aten__add" op_name="aten__add.1081/aten__add" source_file="/usr/local/lib/python3.10/site-packages/torch/_ops.py" source_line=756}
  %multiply.563 = f32[64,1024]{1,0} multiply(f32[64,1024]{1,0} %add.276.3, f32[64,1024]{1,0} %add.276.3), metadata={op_type="aten__pow" op_name="aten__pow" source_file="/usr/local/lib/python3.10/site-packages/torch/_ops.py" source_line=756}
  %constant_495 = f32[] constant(0), metadata={op_type="aten__mean" op_name="aten__mean" source_file="/usr/local/lib/python3.10/site-packages/torch/_ops.py" source_line=756}
  %reduce.51 = f32[64]{0} reduce(f32[64,1024]{1,0} %multiply.563, f32[] %constant_495), dimensions={1}, to_apply=%AddComputation.86, metadata={op_type="aten__mean" op_name="aten__mean" source_file="/usr/local/lib/python3.10/site-packages/torch/_ops.py" source_line=756}
  %constant_494 = f32[] constant(0.0009765625), metadata={op_type="aten__mean" op_name="aten__mean" source_file="/usr/local/lib/python3.10/site-packages/torch/_ops.py" source_line=756}
  %broadcast.643 = f32[64]{0} broadcast(f32[] %constant_494), dimensions={}, metadata={op_type="aten__mean" op_name="aten__mean" source_file="/usr/local/lib/python3.10/site-packages/torch/_ops.py" source_line=756}
  %multiply.562 = f32[64]{0} multiply(f32[64]{0} %reduce.51, f32[64]{0} %broadcast.643), metadata={op_type="aten__mean" op_name="aten__mean" source_file="/usr/local/lib/python3.10/site-packages/torch/_ops.py" source_line=756}
  %param_0.874 = f32[] parameter(0)
  %broadcast.642 = f32[64]{0} broadcast(f32[] %param_0.874), dimensions={}, metadata={op_type="aten__add" op_name="aten__add.1028/aten__add" source_file="/usr/local/lib/python3.10/site-packages/torch/_ops.py" source_line=756}
  %add.338 = f32[64]{0} add(f32[64]{0} %multiply.562, f32[64]{0} %broadcast.642), metadata={op_type="aten__add" op_name="aten__add.1082/aten__add" source_file="/usr/local/lib/python3.10/site-packages/torch/_ops.py" source_line=756}
  %rsqrt.118 = f32[64]{0} rsqrt(f32[64]{0} %add.338), metadata={op_type="aten__rsqrt" op_name="aten__rsqrt" source_file="/usr/local/lib/python3.10/site-packages/torch/_ops.py" source_line=756}
  %broadcast.641 = f32[64,1024]{1,0} broadcast(f32[64]{0} %rsqrt.118), dimensions={0}, metadata={op_type="aten__mul" op_name="aten__mul.1083/aten__mul" source_file="/usr/local/lib/python3.10/site-packages/torch/_ops.py" source_line=756}
  %multiply.561 = f32[64,1024]{1,0} multiply(f32[64,1024]{1,0} %add.276.3, f32[64,1024]{1,0} %broadcast.641), metadata={op_type="aten__mul" op_name="aten__mul.1083/aten__mul" source_file="/usr/local/lib/python3.10/site-packages/torch/_ops.py" source_line=756}
  %param_1.692 = bf16[1024]{0} parameter(1)
  %convert.1018.1 = f32[1024]{0} convert(bf16[1024]{0} %param_1.692), metadata={op_type="xla__cast" op_name="xla__cast" source_file="/usr/local/lib/python3.10/site-packages/torch/_ops.py" source_line=756}
  %broadcast.461.1 = f32[64,1024]{1,0} broadcast(f32[1024]{0} %convert.1018.1), dimensions={1}, metadata={op_type="aten__mul" op_name="aten__mul.1084/aten__mul" source_file="/usr/local/lib/python3.10/site-packages/torch/_ops.py" source_line=756}
  %multiply.471.1 = f32[64,1024]{1,0} multiply(f32[64,1024]{1,0} %multiply.561, f32[64,1024]{1,0} %broadcast.461.1), metadata={op_type="aten__mul" op_name="aten__mul.1084/aten__mul" source_file="/usr/local/lib/python3.10/site-packages/torch/_ops.py" source_line=756}
  ROOT %convert.1019.1 = bf16[64,1024]{1,0} convert(f32[64,1024]{1,0} %multiply.471.1), metadata={op_type="xla__cast" op_name="xla__cast" source_file="/usr/local/lib/python3.10/site-packages/torch/_ops.py" source_line=756}
}

%fused_convert.16 (param_0.599: bf16[64,6144]) -> bf16[64,3072] {
  %param_0.599 = bf16[64,6144]{1,0} parameter(0)
  %slice.287.1 = bf16[64,3072]{1,0} slice(bf16[64,6144]{1,0} %param_0.599), slice={[0:64], [0:3072]}, metadata={op_type="xla__select" op_name="xla__select" source_file="/usr/local/lib/python3.10/site-packages/torch/_ops.py" source_line=756}
  %convert.1020.6 = f32[64,3072]{1,0} convert(bf16[64,3072]{1,0} %slice.287.1)
  %constant_1_10 = bf16[] constant(1), metadata={op_type="xla__select" op_name="xla__select" source_file="/usr/local/lib/python3.10/site-packages/torch/_ops.py" source_line=756}
  %convert.1259.8 = f32[] convert(bf16[] %constant_1_10)
  %broadcast.525.148 = f32[64,3072]{1,0} broadcast(f32[] %convert.1259.8), dimensions={}, metadata={op_type="xla__select" op_name="xla__select" source_file="/usr/local/lib/python3.10/site-packages/torch/_ops.py" source_line=756}
  %negate.63.7 = f32[64,3072]{1,0} negate(f32[64,3072]{1,0} %convert.1020.6)
  %convert.1024.5 = bf16[64,3072]{1,0} convert(f32[64,3072]{1,0} %negate.63.7)
  %exponential.63.3 = bf16[64,3072]{1,0} exponential(bf16[64,3072]{1,0} %convert.1024.5)
  %convert.1025.1 = f32[64,3072]{1,0} convert(bf16[64,3072]{1,0} %exponential.63.3)
  %add.277.5 = f32[64,3072]{1,0} add(f32[64,3072]{1,0} %broadcast.525.148, f32[64,3072]{1,0} %convert.1025.1)
  %divide.63.3 = f32[64,3072]{1,0} divide(f32[64,3072]{1,0} %broadcast.525.148, f32[64,3072]{1,0} %add.277.5), metadata={op_type="aten__silu" op_name="aten__silu" source_file="/usr/local/lib/python3.10/site-packages/torch/_ops.py" source_line=756}
  %multiply.473.3 = f32[64,3072]{1,0} multiply(f32[64,3072]{1,0} %convert.1020.6, f32[64,3072]{1,0} %divide.63.3), metadata={op_type="aten__silu" op_name="aten__silu" source_file="/usr/local/lib/python3.10/site-packages/torch/_ops.py" source_line=756}
  %slice.288.1 = bf16[64,3072]{1,0} slice(bf16[64,6144]{1,0} %param_0.599), slice={[0:64], [3072:6144]}, metadata={op_type="xla__select" op_name="xla__select" source_file="/usr/local/lib/python3.10/site-packages/torch/_ops.py" source_line=756}
  %convert.1026.1 = f32[64,3072]{1,0} convert(bf16[64,3072]{1,0} %slice.288.1), metadata={op_type="xla__cast" op_name="xla__cast" source_file="/usr/local/lib/python3.10/site-packages/torch/_ops.py" source_line=756}
  %multiply.474.1 = f32[64,3072]{1,0} multiply(f32[64,3072]{1,0} %multiply.473.3, f32[64,3072]{1,0} %convert.1026.1), metadata={op_type="aten__mul" op_name="aten__mul.1085/aten__mul" source_file="/usr/local/lib/python3.10/site-packages/torch/_ops.py" source_line=756}
  ROOT %convert.1027.1 = bf16[64,3072]{1,0} convert(f32[64,3072]{1,0} %multiply.474.1), metadata={op_type="xla__cast" op_name="xla__cast" source_file="/usr/local/lib/python3.10/site-packages/torch/_ops.py" source_line=756}
}

%fused_computation.206 (param_0.837: f32[], param_1.695: bf16[64,1024], param_2.459: bf16[64,20480], param_3.438: bf16[1024], param_4.258: bf16[64,1,1024], param_5.95: bf16[64,1024], param_6.90: bf16[64,1024], param_7.57: bf16[64,1024]) -> bf16[64,1024] {
  %param_2.459 = bf16[64,20480]{1,0} parameter(2)
  %convert.968.96 = f32[64,20480]{1,0} convert(bf16[64,20480]{1,0} %param_2.459), metadata={op_type="xla__cast" op_name="xla__cast" source_file="/usr/local/lib/python3.10/site-packages/torch/_ops.py" source_line=756}
  %slice.276.5 = f32[64,1024]{1,0} slice(f32[64,20480]{1,0} %convert.968.96), slice={[0:64], [15360:16384]}, metadata={op_type="aten__mm" op_name="aten__mm" source_file="/usr/local/lib/python3.10/site-packages/torch/_ops.py" source_line=756}
  %param_1.695 = bf16[64,1024]{1,0} parameter(1)
  %convert.1028.3 = f32[64,1024]{1,0} convert(bf16[64,1024]{1,0} %param_1.695), metadata={op_type="xla__cast" op_name="xla__cast" source_file="/usr/local/lib/python3.10/site-packages/torch/_ops.py" source_line=756}
  %slice.277.9 = f32[64,1024]{1,0} slice(f32[64,20480]{1,0} %convert.968.96), slice={[0:64], [16384:17408]}, metadata={op_type="aten__mm" op_name="aten__mm" source_file="/usr/local/lib/python3.10/site-packages/torch/_ops.py" source_line=756}
  %param_7.57 = bf16[64,1024]{1,0} parameter(7)
  %convert.1017.7 = f32[64,1024]{1,0} convert(bf16[64,1024]{1,0} %param_7.57), metadata={op_type="xla__cast" op_name="xla__cast" source_file="/usr/local/lib/python3.10/site-packages/torch/_ops.py" source_line=756}
  %slice.278.13 = f32[64,1024]{1,0} slice(f32[64,20480]{1,0} %convert.968.96), slice={[0:64], [17408:18432]}, metadata={op_type="aten__mm" op_name="aten__mm" source_file="/usr/local/lib/python3.10/site-packages/torch/_ops.py" source_line=756}
  %param_6.90 = bf16[64,1024]{1,0} parameter(6)
  %convert.1002.11 = f32[64,1024]{1,0} convert(bf16[64,1024]{1,0} %param_6.90), metadata={op_type="xla__cast" op_name="xla__cast" source_file="/usr/local/lib/python3.10/site-packages/torch/_ops.py" source_line=756}
  %slice.279.15 = f32[64,1024]{1,0} slice(f32[64,20480]{1,0} %convert.968.96), slice={[0:64], [18432:19456]}, metadata={op_type="aten__mm" op_name="aten__mm" source_file="/usr/local/lib/python3.10/site-packages/torch/_ops.py" source_line=756}
  %param_5.95 = bf16[64,1024]{1,0} parameter(5)
  %convert.989.13 = f32[64,1024]{1,0} convert(bf16[64,1024]{1,0} %param_5.95), metadata={op_type="xla__cast" op_name="xla__cast" source_file="/usr/local/lib/python3.10/site-packages/torch/_ops.py" source_line=756}
  %slice.280.21 = f32[64,1024]{1,0} slice(f32[64,20480]{1,0} %convert.968.96), slice={[0:64], [19456:20480]}, metadata={op_type="aten__mm" op_name="aten__mm" source_file="/usr/local/lib/python3.10/site-packages/torch/_ops.py" source_line=756}
  %param_4.258 = bf16[64,1,1024]{2,0,1} parameter(4)
  %bitcast.3144.21 = bf16[64,1024]{1,0} bitcast(bf16[64,1,1024]{2,0,1} %param_4.258)
  %convert.971.21 = f32[64,1024]{1,0} convert(bf16[64,1024]{1,0} %bitcast.3144.21), metadata={op_type="xla__cast" op_name="xla__cast" source_file="/usr/local/lib/python3.10/site-packages/torch/_ops.py" source_line=756}
  %add.266.19 = f32[64,1024]{1,0} add(f32[64,1024]{1,0} %slice.280.21, f32[64,1024]{1,0} %convert.971.21), metadata={op_type="aten__add" op_name="aten__add.1027/aten__add" source_file="/usr/local/lib/python3.10/site-packages/torch/_ops.py" source_line=756}
  %add.268.13 = f32[64,1024]{1,0} add(f32[64,1024]{1,0} %convert.989.13, f32[64,1024]{1,0} %add.266.19), metadata={op_type="aten__add" op_name="aten__add.1032/aten__add" source_file="/usr/local/lib/python3.10/site-packages/torch/_ops.py" source_line=756}
  %add.269.13 = f32[64,1024]{1,0} add(f32[64,1024]{1,0} %slice.279.15, f32[64,1024]{1,0} %add.268.13), metadata={op_type="aten__add" op_name="aten__add.1045/aten__add" source_file="/usr/local/lib/python3.10/site-packages/torch/_ops.py" source_line=756}
  %add.272.11 = f32[64,1024]{1,0} add(f32[64,1024]{1,0} %convert.1002.11, f32[64,1024]{1,0} %add.269.13), metadata={op_type="aten__add" op_name="aten__add.1050/aten__add" source_file="/usr/local/lib/python3.10/site-packages/torch/_ops.py" source_line=756}
  %add.273.11 = f32[64,1024]{1,0} add(f32[64,1024]{1,0} %slice.278.13, f32[64,1024]{1,0} %add.272.11), metadata={op_type="aten__add" op_name="aten__add.1063/aten__add" source_file="/usr/local/lib/python3.10/site-packages/torch/_ops.py" source_line=756}
  %add.275.7 = f32[64,1024]{1,0} add(f32[64,1024]{1,0} %convert.1017.7, f32[64,1024]{1,0} %add.273.11), metadata={op_type="aten__add" op_name="aten__add.1068/aten__add" source_file="/usr/local/lib/python3.10/site-packages/torch/_ops.py" source_line=756}
  %add.276.7 = f32[64,1024]{1,0} add(f32[64,1024]{1,0} %slice.277.9, f32[64,1024]{1,0} %add.275.7), metadata={op_type="aten__add" op_name="aten__add.1081/aten__add" source_file="/usr/local/lib/python3.10/site-packages/torch/_ops.py" source_line=756}
  %add.278.3 = f32[64,1024]{1,0} add(f32[64,1024]{1,0} %convert.1028.3, f32[64,1024]{1,0} %add.276.7), metadata={op_type="aten__add" op_name="aten__add.1086/aten__add" source_file="/usr/local/lib/python3.10/site-packages/torch/_ops.py" source_line=756}
  %add.279.3 = f32[64,1024]{1,0} add(f32[64,1024]{1,0} %slice.276.5, f32[64,1024]{1,0} %add.278.3), metadata={op_type="aten__add" op_name="aten__add.1099/aten__add" source_file="/usr/local/lib/python3.10/site-packages/torch/_ops.py" source_line=756}
  %multiply.569 = f32[64,1024]{1,0} multiply(f32[64,1024]{1,0} %add.279.3, f32[64,1024]{1,0} %add.279.3), metadata={op_type="aten__pow" op_name="aten__pow" source_file="/usr/local/lib/python3.10/site-packages/torch/_ops.py" source_line=756}
  %constant_500 = f32[] constant(0), metadata={op_type="aten__mean" op_name="aten__mean" source_file="/usr/local/lib/python3.10/site-packages/torch/_ops.py" source_line=756}
  %reduce.53 = f32[64]{0} reduce(f32[64,1024]{1,0} %multiply.569, f32[] %constant_500), dimensions={1}, to_apply=%AddComputation.86, metadata={op_type="aten__mean" op_name="aten__mean" source_file="/usr/local/lib/python3.10/site-packages/torch/_ops.py" source_line=756}
  %constant_499 = f32[] constant(0.0009765625), metadata={op_type="aten__mean" op_name="aten__mean" source_file="/usr/local/lib/python3.10/site-packages/torch/_ops.py" source_line=756}
  %broadcast.650 = f32[64]{0} broadcast(f32[] %constant_499), dimensions={}, metadata={op_type="aten__mean" op_name="aten__mean" source_file="/usr/local/lib/python3.10/site-packages/torch/_ops.py" source_line=756}
  %multiply.568 = f32[64]{0} multiply(f32[64]{0} %reduce.53, f32[64]{0} %broadcast.650), metadata={op_type="aten__mean" op_name="aten__mean" source_file="/usr/local/lib/python3.10/site-packages/torch/_ops.py" source_line=756}
  %param_0.837 = f32[] parameter(0)
  %broadcast.649 = f32[64]{0} broadcast(f32[] %param_0.837), dimensions={}, metadata={op_type="aten__add" op_name="aten__add.1028/aten__add" source_file="/usr/local/lib/python3.10/site-packages/torch/_ops.py" source_line=756}
  %add.340 = f32[64]{0} add(f32[64]{0} %multiply.568, f32[64]{0} %broadcast.649), metadata={op_type="aten__add" op_name="aten__add.1100/aten__add" source_file="/usr/local/lib/python3.10/site-packages/torch/_ops.py" source_line=756}
  %rsqrt.120 = f32[64]{0} rsqrt(f32[64]{0} %add.340), metadata={op_type="aten__rsqrt" op_name="aten__rsqrt" source_file="/usr/local/lib/python3.10/site-packages/torch/_ops.py" source_line=756}
  %broadcast.648 = f32[64,1024]{1,0} broadcast(f32[64]{0} %rsqrt.120), dimensions={0}, metadata={op_type="aten__mul" op_name="aten__mul.1101/aten__mul" source_file="/usr/local/lib/python3.10/site-packages/torch/_ops.py" source_line=756}
  %multiply.567 = f32[64,1024]{1,0} multiply(f32[64,1024]{1,0} %add.279.3, f32[64,1024]{1,0} %broadcast.648), metadata={op_type="aten__mul" op_name="aten__mul.1101/aten__mul" source_file="/usr/local/lib/python3.10/site-packages/torch/_ops.py" source_line=756}
  %param_3.438 = bf16[1024]{0} parameter(3)
  %convert.1029.1 = f32[1024]{0} convert(bf16[1024]{0} %param_3.438), metadata={op_type="xla__cast" op_name="xla__cast" source_file="/usr/local/lib/python3.10/site-packages/torch/_ops.py" source_line=756}
  %broadcast.465.1 = f32[64,1024]{1,0} broadcast(f32[1024]{0} %convert.1029.1), dimensions={1}, metadata={op_type="aten__mul" op_name="aten__mul.1102/aten__mul" source_file="/usr/local/lib/python3.10/site-packages/torch/_ops.py" source_line=756}
  %multiply.475.1 = f32[64,1024]{1,0} multiply(f32[64,1024]{1,0} %multiply.567, f32[64,1024]{1,0} %broadcast.465.1), metadata={op_type="aten__mul" op_name="aten__mul.1102/aten__mul" source_file="/usr/local/lib/python3.10/site-packages/torch/_ops.py" source_line=756}
  ROOT %convert.1031.1 = bf16[64,1024]{1,0} convert(f32[64,1024]{1,0} %multiply.475.1), metadata={op_type="xla__cast" op_name="xla__cast" source_file="/usr/local/lib/python3.10/site-packages/torch/_ops.py" source_line=756}
}

%fused_convert.15 (param_0.601: bf16[64,6144]) -> bf16[64,3072] {
  %param_0.601 = bf16[64,6144]{1,0} parameter(0)
  %slice.289.1 = bf16[64,3072]{1,0} slice(bf16[64,6144]{1,0} %param_0.601), slice={[0:64], [0:3072]}, metadata={op_type="xla__select" op_name="xla__select" source_file="/usr/local/lib/python3.10/site-packages/torch/_ops.py" source_line=756}
  %convert.1032.6 = f32[64,3072]{1,0} convert(bf16[64,3072]{1,0} %slice.289.1)
  %constant_1_12 = bf16[] constant(1), metadata={op_type="xla__select" op_name="xla__select" source_file="/usr/local/lib/python3.10/site-packages/torch/_ops.py" source_line=756}
  %convert.1259.10 = f32[] convert(bf16[] %constant_1_12)
  %broadcast.525.144 = f32[64,3072]{1,0} broadcast(f32[] %convert.1259.10), dimensions={}, metadata={op_type="xla__select" op_name="xla__select" source_file="/usr/local/lib/python3.10/site-packages/torch/_ops.py" source_line=756}
  %negate.64.7 = f32[64,3072]{1,0} negate(f32[64,3072]{1,0} %convert.1032.6)
  %convert.1036.5 = bf16[64,3072]{1,0} convert(f32[64,3072]{1,0} %negate.64.7)
  %exponential.64.3 = bf16[64,3072]{1,0} exponential(bf16[64,3072]{1,0} %convert.1036.5)
  %convert.1038.1 = f32[64,3072]{1,0} convert(bf16[64,3072]{1,0} %exponential.64.3)
  %add.280.5 = f32[64,3072]{1,0} add(f32[64,3072]{1,0} %broadcast.525.144, f32[64,3072]{1,0} %convert.1038.1)
  %divide.64.3 = f32[64,3072]{1,0} divide(f32[64,3072]{1,0} %broadcast.525.144, f32[64,3072]{1,0} %add.280.5), metadata={op_type="aten__silu" op_name="aten__silu" source_file="/usr/local/lib/python3.10/site-packages/torch/_ops.py" source_line=756}
  %multiply.476.3 = f32[64,3072]{1,0} multiply(f32[64,3072]{1,0} %convert.1032.6, f32[64,3072]{1,0} %divide.64.3), metadata={op_type="aten__silu" op_name="aten__silu" source_file="/usr/local/lib/python3.10/site-packages/torch/_ops.py" source_line=756}
  %slice.290.1 = bf16[64,3072]{1,0} slice(bf16[64,6144]{1,0} %param_0.601), slice={[0:64], [3072:6144]}, metadata={op_type="xla__select" op_name="xla__select" source_file="/usr/local/lib/python3.10/site-packages/torch/_ops.py" source_line=756}
  %convert.1039.1 = f32[64,3072]{1,0} convert(bf16[64,3072]{1,0} %slice.290.1), metadata={op_type="xla__cast" op_name="xla__cast" source_file="/usr/local/lib/python3.10/site-packages/torch/_ops.py" source_line=756}
  %multiply.477.1 = f32[64,3072]{1,0} multiply(f32[64,3072]{1,0} %multiply.476.3, f32[64,3072]{1,0} %convert.1039.1), metadata={op_type="aten__mul" op_name="aten__mul.1103/aten__mul" source_file="/usr/local/lib/python3.10/site-packages/torch/_ops.py" source_line=756}
  ROOT %convert.1040.1 = bf16[64,3072]{1,0} convert(f32[64,3072]{1,0} %multiply.477.1), metadata={op_type="xla__cast" op_name="xla__cast" source_file="/usr/local/lib/python3.10/site-packages/torch/_ops.py" source_line=756}
}

%fused_add (param_0.728: bf16[64,20480], param_1.623: bf16[64,1024], param_2.457: bf16[64,1024], param_3.436: bf16[64,1,1024], param_4.255: bf16[64,1024], param_5.91: bf16[64,1024], param_6.85: bf16[64,1024]) -> f32[64,1024] {
  %param_0.728 = bf16[64,20480]{1,0} parameter(0)
  %convert.968.32 = f32[64,20480]{1,0} convert(bf16[64,20480]{1,0} %param_0.728), metadata={op_type="xla__cast" op_name="xla__cast" source_file="/usr/local/lib/python3.10/site-packages/torch/_ops.py" source_line=756}
  %slice.275.3 = f32[64,1024]{1,0} slice(f32[64,20480]{1,0} %convert.968.32), slice={[0:64], [14336:15360]}, metadata={op_type="aten__mm" op_name="aten__mm" source_file="/usr/local/lib/python3.10/site-packages/torch/_ops.py" source_line=756}
  %param_1.623 = bf16[64,1024]{1,0} parameter(1)
  %convert.1041.1 = f32[64,1024]{1,0} convert(bf16[64,1024]{1,0} %param_1.623), metadata={op_type="xla__cast" op_name="xla__cast" source_file="/usr/local/lib/python3.10/site-packages/torch/_ops.py" source_line=756}
  %slice.276.7 = f32[64,1024]{1,0} slice(f32[64,20480]{1,0} %convert.968.32), slice={[0:64], [15360:16384]}, metadata={op_type="aten__mm" op_name="aten__mm" source_file="/usr/local/lib/python3.10/site-packages/torch/_ops.py" source_line=756}
  %param_2.457 = bf16[64,1024]{1,0} parameter(2)
  %convert.1028.5 = f32[64,1024]{1,0} convert(bf16[64,1024]{1,0} %param_2.457), metadata={op_type="xla__cast" op_name="xla__cast" source_file="/usr/local/lib/python3.10/site-packages/torch/_ops.py" source_line=756}
  %slice.277.7 = f32[64,1024]{1,0} slice(f32[64,20480]{1,0} %convert.968.32), slice={[0:64], [16384:17408]}, metadata={op_type="aten__mm" op_name="aten__mm" source_file="/usr/local/lib/python3.10/site-packages/torch/_ops.py" source_line=756}
  %param_6.85 = bf16[64,1024]{1,0} parameter(6)
  %convert.1017.5 = f32[64,1024]{1,0} convert(bf16[64,1024]{1,0} %param_6.85), metadata={op_type="xla__cast" op_name="xla__cast" source_file="/usr/local/lib/python3.10/site-packages/torch/_ops.py" source_line=756}
  %slice.278.11 = f32[64,1024]{1,0} slice(f32[64,20480]{1,0} %convert.968.32), slice={[0:64], [17408:18432]}, metadata={op_type="aten__mm" op_name="aten__mm" source_file="/usr/local/lib/python3.10/site-packages/torch/_ops.py" source_line=756}
  %param_5.91 = bf16[64,1024]{1,0} parameter(5)
  %convert.1002.9 = f32[64,1024]{1,0} convert(bf16[64,1024]{1,0} %param_5.91), metadata={op_type="xla__cast" op_name="xla__cast" source_file="/usr/local/lib/python3.10/site-packages/torch/_ops.py" source_line=756}
  %slice.279.13 = f32[64,1024]{1,0} slice(f32[64,20480]{1,0} %convert.968.32), slice={[0:64], [18432:19456]}, metadata={op_type="aten__mm" op_name="aten__mm" source_file="/usr/local/lib/python3.10/site-packages/torch/_ops.py" source_line=756}
  %param_4.255 = bf16[64,1024]{1,0} parameter(4)
  %convert.989.11 = f32[64,1024]{1,0} convert(bf16[64,1024]{1,0} %param_4.255), metadata={op_type="xla__cast" op_name="xla__cast" source_file="/usr/local/lib/python3.10/site-packages/torch/_ops.py" source_line=756}
  %slice.280.19 = f32[64,1024]{1,0} slice(f32[64,20480]{1,0} %convert.968.32), slice={[0:64], [19456:20480]}, metadata={op_type="aten__mm" op_name="aten__mm" source_file="/usr/local/lib/python3.10/site-packages/torch/_ops.py" source_line=756}
  %param_3.436 = bf16[64,1,1024]{2,0,1} parameter(3)
  %bitcast.3144.19 = bf16[64,1024]{1,0} bitcast(bf16[64,1,1024]{2,0,1} %param_3.436)
  %convert.971.19 = f32[64,1024]{1,0} convert(bf16[64,1024]{1,0} %bitcast.3144.19), metadata={op_type="xla__cast" op_name="xla__cast" source_file="/usr/local/lib/python3.10/site-packages/torch/_ops.py" source_line=756}
  %add.266.17 = f32[64,1024]{1,0} add(f32[64,1024]{1,0} %slice.280.19, f32[64,1024]{1,0} %convert.971.19), metadata={op_type="aten__add" op_name="aten__add.1027/aten__add" source_file="/usr/local/lib/python3.10/site-packages/torch/_ops.py" source_line=756}
  %add.268.11 = f32[64,1024]{1,0} add(f32[64,1024]{1,0} %convert.989.11, f32[64,1024]{1,0} %add.266.17), metadata={op_type="aten__add" op_name="aten__add.1032/aten__add" source_file="/usr/local/lib/python3.10/site-packages/torch/_ops.py" source_line=756}
  %add.269.11 = f32[64,1024]{1,0} add(f32[64,1024]{1,0} %slice.279.13, f32[64,1024]{1,0} %add.268.11), metadata={op_type="aten__add" op_name="aten__add.1045/aten__add" source_file="/usr/local/lib/python3.10/site-packages/torch/_ops.py" source_line=756}
  %add.272.9 = f32[64,1024]{1,0} add(f32[64,1024]{1,0} %convert.1002.9, f32[64,1024]{1,0} %add.269.11), metadata={op_type="aten__add" op_name="aten__add.1050/aten__add" source_file="/usr/local/lib/python3.10/site-packages/torch/_ops.py" source_line=756}
  %add.273.9 = f32[64,1024]{1,0} add(f32[64,1024]{1,0} %slice.278.11, f32[64,1024]{1,0} %add.272.9), metadata={op_type="aten__add" op_name="aten__add.1063/aten__add" source_file="/usr/local/lib/python3.10/site-packages/torch/_ops.py" source_line=756}
  %add.275.5 = f32[64,1024]{1,0} add(f32[64,1024]{1,0} %convert.1017.5, f32[64,1024]{1,0} %add.273.9), metadata={op_type="aten__add" op_name="aten__add.1068/aten__add" source_file="/usr/local/lib/python3.10/site-packages/torch/_ops.py" source_line=756}
  %add.276.5 = f32[64,1024]{1,0} add(f32[64,1024]{1,0} %slice.277.7, f32[64,1024]{1,0} %add.275.5), metadata={op_type="aten__add" op_name="aten__add.1081/aten__add" source_file="/usr/local/lib/python3.10/site-packages/torch/_ops.py" source_line=756}
  %add.278.5 = f32[64,1024]{1,0} add(f32[64,1024]{1,0} %convert.1028.5, f32[64,1024]{1,0} %add.276.5), metadata={op_type="aten__add" op_name="aten__add.1086/aten__add" source_file="/usr/local/lib/python3.10/site-packages/torch/_ops.py" source_line=756}
  %add.279.5 = f32[64,1024]{1,0} add(f32[64,1024]{1,0} %slice.276.7, f32[64,1024]{1,0} %add.278.5), metadata={op_type="aten__add" op_name="aten__add.1099/aten__add" source_file="/usr/local/lib/python3.10/site-packages/torch/_ops.py" source_line=756}
  %add.281.1 = f32[64,1024]{1,0} add(f32[64,1024]{1,0} %convert.1041.1, f32[64,1024]{1,0} %add.279.5), metadata={op_type="aten__add" op_name="aten__add.1104/aten__add" source_file="/usr/local/lib/python3.10/site-packages/torch/_ops.py" source_line=756}
  ROOT %add.282.1 = f32[64,1024]{1,0} add(f32[64,1024]{1,0} %slice.275.3, f32[64,1024]{1,0} %add.281.1), metadata={op_type="aten__add" op_name="aten__add.1117/aten__add" source_file="/usr/local/lib/python3.10/site-packages/torch/_ops.py" source_line=756}
}

%fused_computation.205 (param_0.836: f32[64,1024], param_1.657: f32[], param_2.410: bf16[1024]) -> bf16[64,1024] {
  %param_0.836 = f32[64,1024]{1,0} parameter(0)
  %multiply.576 = f32[64,1024]{1,0} multiply(f32[64,1024]{1,0} %param_0.836, f32[64,1024]{1,0} %param_0.836), metadata={op_type="aten__pow" op_name="aten__pow" source_file="/usr/local/lib/python3.10/site-packages/torch/_ops.py" source_line=756}
  %constant_505 = f32[] constant(0), metadata={op_type="aten__mean" op_name="aten__mean" source_file="/usr/local/lib/python3.10/site-packages/torch/_ops.py" source_line=756}
  %reduce.55 = f32[64]{0} reduce(f32[64,1024]{1,0} %multiply.576, f32[] %constant_505), dimensions={1}, to_apply=%AddComputation.86, metadata={op_type="aten__mean" op_name="aten__mean" source_file="/usr/local/lib/python3.10/site-packages/torch/_ops.py" source_line=756}
  %constant_504 = f32[] constant(0.0009765625), metadata={op_type="aten__mean" op_name="aten__mean" source_file="/usr/local/lib/python3.10/site-packages/torch/_ops.py" source_line=756}
  %broadcast.656 = f32[64]{0} broadcast(f32[] %constant_504), dimensions={}, metadata={op_type="aten__mean" op_name="aten__mean" source_file="/usr/local/lib/python3.10/site-packages/torch/_ops.py" source_line=756}
  %multiply.575 = f32[64]{0} multiply(f32[64]{0} %reduce.55, f32[64]{0} %broadcast.656), metadata={op_type="aten__mean" op_name="aten__mean" source_file="/usr/local/lib/python3.10/site-packages/torch/_ops.py" source_line=756}
  %param_1.657 = f32[] parameter(1)
  %broadcast.655 = f32[64]{0} broadcast(f32[] %param_1.657), dimensions={}, metadata={op_type="aten__add" op_name="aten__add.1028/aten__add" source_file="/usr/local/lib/python3.10/site-packages/torch/_ops.py" source_line=756}
  %add.342 = f32[64]{0} add(f32[64]{0} %multiply.575, f32[64]{0} %broadcast.655), metadata={op_type="aten__add" op_name="aten__add.1118/aten__add" source_file="/usr/local/lib/python3.10/site-packages/torch/_ops.py" source_line=756}
  %rsqrt.122 = f32[64]{0} rsqrt(f32[64]{0} %add.342), metadata={op_type="aten__rsqrt" op_name="aten__rsqrt" source_file="/usr/local/lib/python3.10/site-packages/torch/_ops.py" source_line=756}
  %broadcast.654 = f32[64,1024]{1,0} broadcast(f32[64]{0} %rsqrt.122), dimensions={0}, metadata={op_type="aten__mul" op_name="aten__mul.1119/aten__mul" source_file="/usr/local/lib/python3.10/site-packages/torch/_ops.py" source_line=756}
  %multiply.573 = f32[64,1024]{1,0} multiply(f32[64,1024]{1,0} %param_0.836, f32[64,1024]{1,0} %broadcast.654), metadata={op_type="aten__mul" op_name="aten__mul.1119/aten__mul" source_file="/usr/local/lib/python3.10/site-packages/torch/_ops.py" source_line=756}
  %param_2.410 = bf16[1024]{0} parameter(2)
  %convert.1042.1 = f32[1024]{0} convert(bf16[1024]{0} %param_2.410), metadata={op_type="xla__cast" op_name="xla__cast" source_file="/usr/local/lib/python3.10/site-packages/torch/_ops.py" source_line=756}
  %broadcast.469.1 = f32[64,1024]{1,0} broadcast(f32[1024]{0} %convert.1042.1), dimensions={1}, metadata={op_type="aten__mul" op_name="aten__mul.1120/aten__mul" source_file="/usr/local/lib/python3.10/site-packages/torch/_ops.py" source_line=756}
  %multiply.478.1 = f32[64,1024]{1,0} multiply(f32[64,1024]{1,0} %multiply.573, f32[64,1024]{1,0} %broadcast.469.1), metadata={op_type="aten__mul" op_name="aten__mul.1120/aten__mul" source_file="/usr/local/lib/python3.10/site-packages/torch/_ops.py" source_line=756}
  ROOT %convert.1043.1 = bf16[64,1024]{1,0} convert(f32[64,1024]{1,0} %multiply.478.1), metadata={op_type="xla__cast" op_name="xla__cast" source_file="/usr/local/lib/python3.10/site-packages/torch/_ops.py" source_line=756}
}

%fused_convert.14 (param_0.603: bf16[64,6144]) -> bf16[64,3072] {
  %param_0.603 = bf16[64,6144]{1,0} parameter(0)
  %slice.291.1 = bf16[64,3072]{1,0} slice(bf16[64,6144]{1,0} %param_0.603), slice={[0:64], [0:3072]}, metadata={op_type="xla__select" op_name="xla__select" source_file="/usr/local/lib/python3.10/site-packages/torch/_ops.py" source_line=756}
  %convert.1044.6 = f32[64,3072]{1,0} convert(bf16[64,3072]{1,0} %slice.291.1)
  %constant_1_14 = bf16[] constant(1), metadata={op_type="xla__select" op_name="xla__select" source_file="/usr/local/lib/python3.10/site-packages/torch/_ops.py" source_line=756}
  %convert.1259.12 = f32[] convert(bf16[] %constant_1_14)
  %broadcast.525.140 = f32[64,3072]{1,0} broadcast(f32[] %convert.1259.12), dimensions={}, metadata={op_type="xla__select" op_name="xla__select" source_file="/usr/local/lib/python3.10/site-packages/torch/_ops.py" source_line=756}
  %negate.65.7 = f32[64,3072]{1,0} negate(f32[64,3072]{1,0} %convert.1044.6)
  %convert.1051.5 = bf16[64,3072]{1,0} convert(f32[64,3072]{1,0} %negate.65.7)
  %exponential.65.3 = bf16[64,3072]{1,0} exponential(bf16[64,3072]{1,0} %convert.1051.5)
  %convert.1053.1 = f32[64,3072]{1,0} convert(bf16[64,3072]{1,0} %exponential.65.3)
  %add.283.5 = f32[64,3072]{1,0} add(f32[64,3072]{1,0} %broadcast.525.140, f32[64,3072]{1,0} %convert.1053.1)
  %divide.65.3 = f32[64,3072]{1,0} divide(f32[64,3072]{1,0} %broadcast.525.140, f32[64,3072]{1,0} %add.283.5), metadata={op_type="aten__silu" op_name="aten__silu" source_file="/usr/local/lib/python3.10/site-packages/torch/_ops.py" source_line=756}
  %multiply.480.3 = f32[64,3072]{1,0} multiply(f32[64,3072]{1,0} %convert.1044.6, f32[64,3072]{1,0} %divide.65.3), metadata={op_type="aten__silu" op_name="aten__silu" source_file="/usr/local/lib/python3.10/site-packages/torch/_ops.py" source_line=756}
  %slice.292.1 = bf16[64,3072]{1,0} slice(bf16[64,6144]{1,0} %param_0.603), slice={[0:64], [3072:6144]}, metadata={op_type="xla__select" op_name="xla__select" source_file="/usr/local/lib/python3.10/site-packages/torch/_ops.py" source_line=756}
  %convert.1054.1 = f32[64,3072]{1,0} convert(bf16[64,3072]{1,0} %slice.292.1), metadata={op_type="xla__cast" op_name="xla__cast" source_file="/usr/local/lib/python3.10/site-packages/torch/_ops.py" source_line=756}
  %multiply.482.1 = f32[64,3072]{1,0} multiply(f32[64,3072]{1,0} %multiply.480.3, f32[64,3072]{1,0} %convert.1054.1), metadata={op_type="aten__mul" op_name="aten__mul.1121/aten__mul" source_file="/usr/local/lib/python3.10/site-packages/torch/_ops.py" source_line=756}
  ROOT %convert.1055.1 = bf16[64,3072]{1,0} convert(f32[64,3072]{1,0} %multiply.482.1), metadata={op_type="xla__cast" op_name="xla__cast" source_file="/usr/local/lib/python3.10/site-packages/torch/_ops.py" source_line=756}
}

%fused_computation.204 (param_0.835: f32[], param_1.656: f32[64,1024], param_2.409: bf16[64,1024], param_3.372: bf16[64,20480], param_4.189: bf16[1024]) -> bf16[64,1024] {
  %param_3.372 = bf16[64,20480]{1,0} parameter(3)
  %convert.968.92 = f32[64,20480]{1,0} convert(bf16[64,20480]{1,0} %param_3.372), metadata={op_type="xla__cast" op_name="xla__cast" source_file="/usr/local/lib/python3.10/site-packages/torch/_ops.py" source_line=756}
  %slice.274.5 = f32[64,1024]{1,0} slice(f32[64,20480]{1,0} %convert.968.92), slice={[0:64], [13312:14336]}, metadata={op_type="aten__mm" op_name="aten__mm" source_file="/usr/local/lib/python3.10/site-packages/torch/_ops.py" source_line=756}
  %param_2.409 = bf16[64,1024]{1,0} parameter(2)
  %convert.1057.3 = f32[64,1024]{1,0} convert(bf16[64,1024]{1,0} %param_2.409), metadata={op_type="xla__cast" op_name="xla__cast" source_file="/usr/local/lib/python3.10/site-packages/torch/_ops.py" source_line=756}
  %param_1.656 = f32[64,1024]{1,0} parameter(1)
  %add.284.3 = f32[64,1024]{1,0} add(f32[64,1024]{1,0} %convert.1057.3, f32[64,1024]{1,0} %param_1.656), metadata={op_type="aten__add" op_name="aten__add.1122/aten__add" source_file="/usr/local/lib/python3.10/site-packages/torch/_ops.py" source_line=756}
  %add.285.3 = f32[64,1024]{1,0} add(f32[64,1024]{1,0} %slice.274.5, f32[64,1024]{1,0} %add.284.3), metadata={op_type="aten__add" op_name="aten__add.1135/aten__add" source_file="/usr/local/lib/python3.10/site-packages/torch/_ops.py" source_line=756}
  %multiply.582 = f32[64,1024]{1,0} multiply(f32[64,1024]{1,0} %add.285.3, f32[64,1024]{1,0} %add.285.3), metadata={op_type="aten__pow" op_name="aten__pow" source_file="/usr/local/lib/python3.10/site-packages/torch/_ops.py" source_line=756}
  %constant_510 = f32[] constant(0), metadata={op_type="aten__mean" op_name="aten__mean" source_file="/usr/local/lib/python3.10/site-packages/torch/_ops.py" source_line=756}
  %reduce.57 = f32[64]{0} reduce(f32[64,1024]{1,0} %multiply.582, f32[] %constant_510), dimensions={1}, to_apply=%AddComputation.86, metadata={op_type="aten__mean" op_name="aten__mean" source_file="/usr/local/lib/python3.10/site-packages/torch/_ops.py" source_line=756}
  %constant_509 = f32[] constant(0.0009765625), metadata={op_type="aten__mean" op_name="aten__mean" source_file="/usr/local/lib/python3.10/site-packages/torch/_ops.py" source_line=756}
  %broadcast.663 = f32[64]{0} broadcast(f32[] %constant_509), dimensions={}, metadata={op_type="aten__mean" op_name="aten__mean" source_file="/usr/local/lib/python3.10/site-packages/torch/_ops.py" source_line=756}
  %multiply.581 = f32[64]{0} multiply(f32[64]{0} %reduce.57, f32[64]{0} %broadcast.663), metadata={op_type="aten__mean" op_name="aten__mean" source_file="/usr/local/lib/python3.10/site-packages/torch/_ops.py" source_line=756}
  %param_0.835 = f32[] parameter(0)
  %broadcast.662 = f32[64]{0} broadcast(f32[] %param_0.835), dimensions={}, metadata={op_type="aten__add" op_name="aten__add.1028/aten__add" source_file="/usr/local/lib/python3.10/site-packages/torch/_ops.py" source_line=756}
  %add.345 = f32[64]{0} add(f32[64]{0} %multiply.581, f32[64]{0} %broadcast.662), metadata={op_type="aten__add" op_name="aten__add.1136/aten__add" source_file="/usr/local/lib/python3.10/site-packages/torch/_ops.py" source_line=756}
  %rsqrt.124 = f32[64]{0} rsqrt(f32[64]{0} %add.345), metadata={op_type="aten__rsqrt" op_name="aten__rsqrt" source_file="/usr/local/lib/python3.10/site-packages/torch/_ops.py" source_line=756}
  %broadcast.661 = f32[64,1024]{1,0} broadcast(f32[64]{0} %rsqrt.124), dimensions={0}, metadata={op_type="aten__mul" op_name="aten__mul.1137/aten__mul" source_file="/usr/local/lib/python3.10/site-packages/torch/_ops.py" source_line=756}
  %multiply.580 = f32[64,1024]{1,0} multiply(f32[64,1024]{1,0} %add.285.3, f32[64,1024]{1,0} %broadcast.661), metadata={op_type="aten__mul" op_name="aten__mul.1137/aten__mul" source_file="/usr/local/lib/python3.10/site-packages/torch/_ops.py" source_line=756}
  %param_4.189 = bf16[1024]{0} parameter(4)
  %convert.1059.1 = f32[1024]{0} convert(bf16[1024]{0} %param_4.189), metadata={op_type="xla__cast" op_name="xla__cast" source_file="/usr/local/lib/python3.10/site-packages/torch/_ops.py" source_line=756}
  %broadcast.473.1 = f32[64,1024]{1,0} broadcast(f32[1024]{0} %convert.1059.1), dimensions={1}, metadata={op_type="aten__mul" op_name="aten__mul.1138/aten__mul" source_file="/usr/local/lib/python3.10/site-packages/torch/_ops.py" source_line=756}
  %multiply.483.1 = f32[64,1024]{1,0} multiply(f32[64,1024]{1,0} %multiply.580, f32[64,1024]{1,0} %broadcast.473.1), metadata={op_type="aten__mul" op_name="aten__mul.1138/aten__mul" source_file="/usr/local/lib/python3.10/site-packages/torch/_ops.py" source_line=756}
  ROOT %convert.1061.1 = bf16[64,1024]{1,0} convert(f32[64,1024]{1,0} %multiply.483.1), metadata={op_type="xla__cast" op_name="xla__cast" source_file="/usr/local/lib/python3.10/site-packages/torch/_ops.py" source_line=756}
}

%fused_convert.13 (param_0.605: bf16[64,6144]) -> bf16[64,3072] {
  %param_0.605 = bf16[64,6144]{1,0} parameter(0)
  %slice.293.1 = bf16[64,3072]{1,0} slice(bf16[64,6144]{1,0} %param_0.605), slice={[0:64], [0:3072]}, metadata={op_type="xla__select" op_name="xla__select" source_file="/usr/local/lib/python3.10/site-packages/torch/_ops.py" source_line=756}
  %convert.1062.6 = f32[64,3072]{1,0} convert(bf16[64,3072]{1,0} %slice.293.1)
  %constant_1_16 = bf16[] constant(1), metadata={op_type="xla__select" op_name="xla__select" source_file="/usr/local/lib/python3.10/site-packages/torch/_ops.py" source_line=756}
  %convert.1259.14 = f32[] convert(bf16[] %constant_1_16)
  %broadcast.525.136 = f32[64,3072]{1,0} broadcast(f32[] %convert.1259.14), dimensions={}, metadata={op_type="xla__select" op_name="xla__select" source_file="/usr/local/lib/python3.10/site-packages/torch/_ops.py" source_line=756}
  %negate.66.7 = f32[64,3072]{1,0} negate(f32[64,3072]{1,0} %convert.1062.6)
  %convert.1068.5 = bf16[64,3072]{1,0} convert(f32[64,3072]{1,0} %negate.66.7)
  %exponential.66.3 = bf16[64,3072]{1,0} exponential(bf16[64,3072]{1,0} %convert.1068.5)
  %convert.1069.1 = f32[64,3072]{1,0} convert(bf16[64,3072]{1,0} %exponential.66.3)
  %add.286.5 = f32[64,3072]{1,0} add(f32[64,3072]{1,0} %broadcast.525.136, f32[64,3072]{1,0} %convert.1069.1)
  %divide.66.3 = f32[64,3072]{1,0} divide(f32[64,3072]{1,0} %broadcast.525.136, f32[64,3072]{1,0} %add.286.5), metadata={op_type="aten__silu" op_name="aten__silu" source_file="/usr/local/lib/python3.10/site-packages/torch/_ops.py" source_line=756}
  %multiply.484.3 = f32[64,3072]{1,0} multiply(f32[64,3072]{1,0} %convert.1062.6, f32[64,3072]{1,0} %divide.66.3), metadata={op_type="aten__silu" op_name="aten__silu" source_file="/usr/local/lib/python3.10/site-packages/torch/_ops.py" source_line=756}
  %slice.294.1 = bf16[64,3072]{1,0} slice(bf16[64,6144]{1,0} %param_0.605), slice={[0:64], [3072:6144]}, metadata={op_type="xla__select" op_name="xla__select" source_file="/usr/local/lib/python3.10/site-packages/torch/_ops.py" source_line=756}
  %convert.1070.1 = f32[64,3072]{1,0} convert(bf16[64,3072]{1,0} %slice.294.1), metadata={op_type="xla__cast" op_name="xla__cast" source_file="/usr/local/lib/python3.10/site-packages/torch/_ops.py" source_line=756}
  %multiply.485.1 = f32[64,3072]{1,0} multiply(f32[64,3072]{1,0} %multiply.484.3, f32[64,3072]{1,0} %convert.1070.1), metadata={op_type="aten__mul" op_name="aten__mul.1139/aten__mul" source_file="/usr/local/lib/python3.10/site-packages/torch/_ops.py" source_line=756}
  ROOT %convert.1071.1 = bf16[64,3072]{1,0} convert(f32[64,3072]{1,0} %multiply.485.1), metadata={op_type="xla__cast" op_name="xla__cast" source_file="/usr/local/lib/python3.10/site-packages/torch/_ops.py" source_line=756}
}

%fused_computation.203 (param_0.870: f32[], param_1.687: bf16[1024], param_2.448: f32[64,1024], param_3.423: bf16[64,1024], param_4.238: bf16[64,20480], param_5.71: bf16[64,1024]) -> bf16[64,1024] {
  %param_4.238 = bf16[64,20480]{1,0} parameter(4)
  %convert.968.150 = f32[64,20480]{1,0} convert(bf16[64,20480]{1,0} %param_4.238), metadata={op_type="xla__cast" op_name="xla__cast" source_file="/usr/local/lib/python3.10/site-packages/torch/_ops.py" source_line=756}
  %slice.273.5 = f32[64,1024]{1,0} slice(f32[64,20480]{1,0} %convert.968.150), slice={[0:64], [12288:13312]}, metadata={op_type="aten__mm" op_name="aten__mm" source_file="/usr/local/lib/python3.10/site-packages/torch/_ops.py" source_line=756}
  %param_5.71 = bf16[64,1024]{1,0} parameter(5)
  %convert.1072.3 = f32[64,1024]{1,0} convert(bf16[64,1024]{1,0} %param_5.71), metadata={op_type="xla__cast" op_name="xla__cast" source_file="/usr/local/lib/python3.10/site-packages/torch/_ops.py" source_line=756}
  %slice.274.9 = f32[64,1024]{1,0} slice(f32[64,20480]{1,0} %convert.968.150), slice={[0:64], [13312:14336]}, metadata={op_type="aten__mm" op_name="aten__mm" source_file="/usr/local/lib/python3.10/site-packages/torch/_ops.py" source_line=756}
  %param_3.423 = bf16[64,1024]{1,0} parameter(3)
  %convert.1057.7 = f32[64,1024]{1,0} convert(bf16[64,1024]{1,0} %param_3.423), metadata={op_type="xla__cast" op_name="xla__cast" source_file="/usr/local/lib/python3.10/site-packages/torch/_ops.py" source_line=756}
  %param_2.448 = f32[64,1024]{1,0} parameter(2)
  %add.284.7 = f32[64,1024]{1,0} add(f32[64,1024]{1,0} %convert.1057.7, f32[64,1024]{1,0} %param_2.448), metadata={op_type="aten__add" op_name="aten__add.1122/aten__add" source_file="/usr/local/lib/python3.10/site-packages/torch/_ops.py" source_line=756}
  %add.285.7 = f32[64,1024]{1,0} add(f32[64,1024]{1,0} %slice.274.9, f32[64,1024]{1,0} %add.284.7), metadata={op_type="aten__add" op_name="aten__add.1135/aten__add" source_file="/usr/local/lib/python3.10/site-packages/torch/_ops.py" source_line=756}
  %add.288.3 = f32[64,1024]{1,0} add(f32[64,1024]{1,0} %convert.1072.3, f32[64,1024]{1,0} %add.285.7), metadata={op_type="aten__add" op_name="aten__add.1140/aten__add" source_file="/usr/local/lib/python3.10/site-packages/torch/_ops.py" source_line=756}
  %add.289.3 = f32[64,1024]{1,0} add(f32[64,1024]{1,0} %slice.273.5, f32[64,1024]{1,0} %add.288.3), metadata={op_type="aten__add" op_name="aten__add.1153/aten__add" source_file="/usr/local/lib/python3.10/site-packages/torch/_ops.py" source_line=756}
  %multiply.588 = f32[64,1024]{1,0} multiply(f32[64,1024]{1,0} %add.289.3, f32[64,1024]{1,0} %add.289.3), metadata={op_type="aten__pow" op_name="aten__pow" source_file="/usr/local/lib/python3.10/site-packages/torch/_ops.py" source_line=756}
  %constant_519 = f32[] constant(0), metadata={op_type="aten__mean" op_name="aten__mean" source_file="/usr/local/lib/python3.10/site-packages/torch/_ops.py" source_line=756}
  %reduce.59 = f32[64]{0} reduce(f32[64,1024]{1,0} %multiply.588, f32[] %constant_519), dimensions={1}, to_apply=%AddComputation.86, metadata={op_type="aten__mean" op_name="aten__mean" source_file="/usr/local/lib/python3.10/site-packages/torch/_ops.py" source_line=756}
  %constant_518 = f32[] constant(0.0009765625), metadata={op_type="aten__mean" op_name="aten__mean" source_file="/usr/local/lib/python3.10/site-packages/torch/_ops.py" source_line=756}
  %broadcast.669 = f32[64]{0} broadcast(f32[] %constant_518), dimensions={}, metadata={op_type="aten__mean" op_name="aten__mean" source_file="/usr/local/lib/python3.10/site-packages/torch/_ops.py" source_line=756}
  %multiply.587 = f32[64]{0} multiply(f32[64]{0} %reduce.59, f32[64]{0} %broadcast.669), metadata={op_type="aten__mean" op_name="aten__mean" source_file="/usr/local/lib/python3.10/site-packages/torch/_ops.py" source_line=756}
  %param_0.870 = f32[] parameter(0)
  %broadcast.668 = f32[64]{0} broadcast(f32[] %param_0.870), dimensions={}, metadata={op_type="aten__add" op_name="aten__add.1028/aten__add" source_file="/usr/local/lib/python3.10/site-packages/torch/_ops.py" source_line=756}
  %add.347 = f32[64]{0} add(f32[64]{0} %multiply.587, f32[64]{0} %broadcast.668), metadata={op_type="aten__add" op_name="aten__add.1154/aten__add" source_file="/usr/local/lib/python3.10/site-packages/torch/_ops.py" source_line=756}
  %rsqrt.126 = f32[64]{0} rsqrt(f32[64]{0} %add.347), metadata={op_type="aten__rsqrt" op_name="aten__rsqrt" source_file="/usr/local/lib/python3.10/site-packages/torch/_ops.py" source_line=756}
  %broadcast.667 = f32[64,1024]{1,0} broadcast(f32[64]{0} %rsqrt.126), dimensions={0}, metadata={op_type="aten__mul" op_name="aten__mul.1155/aten__mul" source_file="/usr/local/lib/python3.10/site-packages/torch/_ops.py" source_line=756}
  %multiply.586 = f32[64,1024]{1,0} multiply(f32[64,1024]{1,0} %add.289.3, f32[64,1024]{1,0} %broadcast.667), metadata={op_type="aten__mul" op_name="aten__mul.1155/aten__mul" source_file="/usr/local/lib/python3.10/site-packages/torch/_ops.py" source_line=756}
  %param_1.687 = bf16[1024]{0} parameter(1)
  %convert.1073.1 = f32[1024]{0} convert(bf16[1024]{0} %param_1.687), metadata={op_type="xla__cast" op_name="xla__cast" source_file="/usr/local/lib/python3.10/site-packages/torch/_ops.py" source_line=756}
  %broadcast.476.1 = f32[64,1024]{1,0} broadcast(f32[1024]{0} %convert.1073.1), dimensions={1}, metadata={op_type="aten__mul" op_name="aten__mul.1156/aten__mul" source_file="/usr/local/lib/python3.10/site-packages/torch/_ops.py" source_line=756}
  %multiply.487.1 = f32[64,1024]{1,0} multiply(f32[64,1024]{1,0} %multiply.586, f32[64,1024]{1,0} %broadcast.476.1), metadata={op_type="aten__mul" op_name="aten__mul.1156/aten__mul" source_file="/usr/local/lib/python3.10/site-packages/torch/_ops.py" source_line=756}
  ROOT %convert.1074.1 = bf16[64,1024]{1,0} convert(f32[64,1024]{1,0} %multiply.487.1), metadata={op_type="xla__cast" op_name="xla__cast" source_file="/usr/local/lib/python3.10/site-packages/torch/_ops.py" source_line=756}
}

%fused_convert.12 (param_0.607: bf16[64,6144]) -> bf16[64,3072] {
  %param_0.607 = bf16[64,6144]{1,0} parameter(0)
  %slice.295.1 = bf16[64,3072]{1,0} slice(bf16[64,6144]{1,0} %param_0.607), slice={[0:64], [0:3072]}, metadata={op_type="xla__select" op_name="xla__select" source_file="/usr/local/lib/python3.10/site-packages/torch/_ops.py" source_line=756}
  %convert.1075.6 = f32[64,3072]{1,0} convert(bf16[64,3072]{1,0} %slice.295.1)
  %constant_1_18 = bf16[] constant(1), metadata={op_type="xla__select" op_name="xla__select" source_file="/usr/local/lib/python3.10/site-packages/torch/_ops.py" source_line=756}
  %convert.1259.16 = f32[] convert(bf16[] %constant_1_18)
  %broadcast.525.132 = f32[64,3072]{1,0} broadcast(f32[] %convert.1259.16), dimensions={}, metadata={op_type="xla__select" op_name="xla__select" source_file="/usr/local/lib/python3.10/site-packages/torch/_ops.py" source_line=756}
  %negate.67.7 = f32[64,3072]{1,0} negate(f32[64,3072]{1,0} %convert.1075.6)
  %convert.1082.5 = bf16[64,3072]{1,0} convert(f32[64,3072]{1,0} %negate.67.7)
  %exponential.67.3 = bf16[64,3072]{1,0} exponential(bf16[64,3072]{1,0} %convert.1082.5)
  %convert.1083.1 = f32[64,3072]{1,0} convert(bf16[64,3072]{1,0} %exponential.67.3)
  %add.290.5 = f32[64,3072]{1,0} add(f32[64,3072]{1,0} %broadcast.525.132, f32[64,3072]{1,0} %convert.1083.1)
  %divide.67.3 = f32[64,3072]{1,0} divide(f32[64,3072]{1,0} %broadcast.525.132, f32[64,3072]{1,0} %add.290.5), metadata={op_type="aten__silu" op_name="aten__silu" source_file="/usr/local/lib/python3.10/site-packages/torch/_ops.py" source_line=756}
  %multiply.488.3 = f32[64,3072]{1,0} multiply(f32[64,3072]{1,0} %convert.1075.6, f32[64,3072]{1,0} %divide.67.3), metadata={op_type="aten__silu" op_name="aten__silu" source_file="/usr/local/lib/python3.10/site-packages/torch/_ops.py" source_line=756}
  %slice.296.1 = bf16[64,3072]{1,0} slice(bf16[64,6144]{1,0} %param_0.607), slice={[0:64], [3072:6144]}, metadata={op_type="xla__select" op_name="xla__select" source_file="/usr/local/lib/python3.10/site-packages/torch/_ops.py" source_line=756}
  %convert.1084.1 = f32[64,3072]{1,0} convert(bf16[64,3072]{1,0} %slice.296.1), metadata={op_type="xla__cast" op_name="xla__cast" source_file="/usr/local/lib/python3.10/site-packages/torch/_ops.py" source_line=756}
  %multiply.489.1 = f32[64,3072]{1,0} multiply(f32[64,3072]{1,0} %multiply.488.3, f32[64,3072]{1,0} %convert.1084.1), metadata={op_type="aten__mul" op_name="aten__mul.1157/aten__mul" source_file="/usr/local/lib/python3.10/site-packages/torch/_ops.py" source_line=756}
  ROOT %convert.1085.1 = bf16[64,3072]{1,0} convert(f32[64,3072]{1,0} %multiply.489.1), metadata={op_type="xla__cast" op_name="xla__cast" source_file="/usr/local/lib/python3.10/site-packages/torch/_ops.py" source_line=756}
}

%fused_computation.202 (param_0.833: f32[], param_1.690: bf16[64,1024], param_2.452: bf16[64,20480], param_3.428: bf16[1024], param_4.244: f32[64,1024], param_5.80: bf16[64,1024], param_6.72: bf16[64,1024]) -> bf16[64,1024] {
  %param_2.452 = bf16[64,20480]{1,0} parameter(2)
  %convert.968.88 = f32[64,20480]{1,0} convert(bf16[64,20480]{1,0} %param_2.452), metadata={op_type="xla__cast" op_name="xla__cast" source_file="/usr/local/lib/python3.10/site-packages/torch/_ops.py" source_line=756}
  %slice.272.5 = f32[64,1024]{1,0} slice(f32[64,20480]{1,0} %convert.968.88), slice={[0:64], [11264:12288]}, metadata={op_type="aten__mm" op_name="aten__mm" source_file="/usr/local/lib/python3.10/site-packages/torch/_ops.py" source_line=756}
  %param_1.690 = bf16[64,1024]{1,0} parameter(1)
  %convert.1086.3 = f32[64,1024]{1,0} convert(bf16[64,1024]{1,0} %param_1.690), metadata={op_type="xla__cast" op_name="xla__cast" source_file="/usr/local/lib/python3.10/site-packages/torch/_ops.py" source_line=756}
  %slice.273.9 = f32[64,1024]{1,0} slice(f32[64,20480]{1,0} %convert.968.88), slice={[0:64], [12288:13312]}, metadata={op_type="aten__mm" op_name="aten__mm" source_file="/usr/local/lib/python3.10/site-packages/torch/_ops.py" source_line=756}
  %param_6.72 = bf16[64,1024]{1,0} parameter(6)
  %convert.1072.7 = f32[64,1024]{1,0} convert(bf16[64,1024]{1,0} %param_6.72), metadata={op_type="xla__cast" op_name="xla__cast" source_file="/usr/local/lib/python3.10/site-packages/torch/_ops.py" source_line=756}
  %slice.274.13 = f32[64,1024]{1,0} slice(f32[64,20480]{1,0} %convert.968.88), slice={[0:64], [13312:14336]}, metadata={op_type="aten__mm" op_name="aten__mm" source_file="/usr/local/lib/python3.10/site-packages/torch/_ops.py" source_line=756}
  %param_5.80 = bf16[64,1024]{1,0} parameter(5)
  %convert.1057.11 = f32[64,1024]{1,0} convert(bf16[64,1024]{1,0} %param_5.80), metadata={op_type="xla__cast" op_name="xla__cast" source_file="/usr/local/lib/python3.10/site-packages/torch/_ops.py" source_line=756}
  %param_4.244 = f32[64,1024]{1,0} parameter(4)
  %add.284.11 = f32[64,1024]{1,0} add(f32[64,1024]{1,0} %convert.1057.11, f32[64,1024]{1,0} %param_4.244), metadata={op_type="aten__add" op_name="aten__add.1122/aten__add" source_file="/usr/local/lib/python3.10/site-packages/torch/_ops.py" source_line=756}
  %add.285.11 = f32[64,1024]{1,0} add(f32[64,1024]{1,0} %slice.274.13, f32[64,1024]{1,0} %add.284.11), metadata={op_type="aten__add" op_name="aten__add.1135/aten__add" source_file="/usr/local/lib/python3.10/site-packages/torch/_ops.py" source_line=756}
  %add.288.7 = f32[64,1024]{1,0} add(f32[64,1024]{1,0} %convert.1072.7, f32[64,1024]{1,0} %add.285.11), metadata={op_type="aten__add" op_name="aten__add.1140/aten__add" source_file="/usr/local/lib/python3.10/site-packages/torch/_ops.py" source_line=756}
  %add.289.7 = f32[64,1024]{1,0} add(f32[64,1024]{1,0} %slice.273.9, f32[64,1024]{1,0} %add.288.7), metadata={op_type="aten__add" op_name="aten__add.1153/aten__add" source_file="/usr/local/lib/python3.10/site-packages/torch/_ops.py" source_line=756}
  %add.291.3 = f32[64,1024]{1,0} add(f32[64,1024]{1,0} %convert.1086.3, f32[64,1024]{1,0} %add.289.7), metadata={op_type="aten__add" op_name="aten__add.1158/aten__add" source_file="/usr/local/lib/python3.10/site-packages/torch/_ops.py" source_line=756}
  %add.292.3 = f32[64,1024]{1,0} add(f32[64,1024]{1,0} %slice.272.5, f32[64,1024]{1,0} %add.291.3), metadata={op_type="aten__add" op_name="aten__add.1171/aten__add" source_file="/usr/local/lib/python3.10/site-packages/torch/_ops.py" source_line=756}
  %multiply.594 = f32[64,1024]{1,0} multiply(f32[64,1024]{1,0} %add.292.3, f32[64,1024]{1,0} %add.292.3), metadata={op_type="aten__pow" op_name="aten__pow" source_file="/usr/local/lib/python3.10/site-packages/torch/_ops.py" source_line=756}
  %constant_527 = f32[] constant(0), metadata={op_type="aten__mean" op_name="aten__mean" source_file="/usr/local/lib/python3.10/site-packages/torch/_ops.py" source_line=756}
  %reduce.61 = f32[64]{0} reduce(f32[64,1024]{1,0} %multiply.594, f32[] %constant_527), dimensions={1}, to_apply=%AddComputation.86, metadata={op_type="aten__mean" op_name="aten__mean" source_file="/usr/local/lib/python3.10/site-packages/torch/_ops.py" source_line=756}
  %constant_526 = f32[] constant(0.0009765625), metadata={op_type="aten__mean" op_name="aten__mean" source_file="/usr/local/lib/python3.10/site-packages/torch/_ops.py" source_line=756}
  %broadcast.676 = f32[64]{0} broadcast(f32[] %constant_526), dimensions={}, metadata={op_type="aten__mean" op_name="aten__mean" source_file="/usr/local/lib/python3.10/site-packages/torch/_ops.py" source_line=756}
  %multiply.593 = f32[64]{0} multiply(f32[64]{0} %reduce.61, f32[64]{0} %broadcast.676), metadata={op_type="aten__mean" op_name="aten__mean" source_file="/usr/local/lib/python3.10/site-packages/torch/_ops.py" source_line=756}
  %param_0.833 = f32[] parameter(0)
  %broadcast.675 = f32[64]{0} broadcast(f32[] %param_0.833), dimensions={}, metadata={op_type="aten__add" op_name="aten__add.1028/aten__add" source_file="/usr/local/lib/python3.10/site-packages/torch/_ops.py" source_line=756}
  %add.349 = f32[64]{0} add(f32[64]{0} %multiply.593, f32[64]{0} %broadcast.675), metadata={op_type="aten__add" op_name="aten__add.1172/aten__add" source_file="/usr/local/lib/python3.10/site-packages/torch/_ops.py" source_line=756}
  %rsqrt.128 = f32[64]{0} rsqrt(f32[64]{0} %add.349), metadata={op_type="aten__rsqrt" op_name="aten__rsqrt" source_file="/usr/local/lib/python3.10/site-packages/torch/_ops.py" source_line=756}
  %broadcast.673 = f32[64,1024]{1,0} broadcast(f32[64]{0} %rsqrt.128), dimensions={0}, metadata={op_type="aten__mul" op_name="aten__mul.1173/aten__mul" source_file="/usr/local/lib/python3.10/site-packages/torch/_ops.py" source_line=756}
  %multiply.592 = f32[64,1024]{1,0} multiply(f32[64,1024]{1,0} %add.292.3, f32[64,1024]{1,0} %broadcast.673), metadata={op_type="aten__mul" op_name="aten__mul.1173/aten__mul" source_file="/usr/local/lib/python3.10/site-packages/torch/_ops.py" source_line=756}
  %param_3.428 = bf16[1024]{0} parameter(3)
  %convert.1088.1 = f32[1024]{0} convert(bf16[1024]{0} %param_3.428), metadata={op_type="xla__cast" op_name="xla__cast" source_file="/usr/local/lib/python3.10/site-packages/torch/_ops.py" source_line=756}
  %broadcast.479.1 = f32[64,1024]{1,0} broadcast(f32[1024]{0} %convert.1088.1), dimensions={1}, metadata={op_type="aten__mul" op_name="aten__mul.1174/aten__mul" source_file="/usr/local/lib/python3.10/site-packages/torch/_ops.py" source_line=756}
  %multiply.490.1 = f32[64,1024]{1,0} multiply(f32[64,1024]{1,0} %multiply.592, f32[64,1024]{1,0} %broadcast.479.1), metadata={op_type="aten__mul" op_name="aten__mul.1174/aten__mul" source_file="/usr/local/lib/python3.10/site-packages/torch/_ops.py" source_line=756}
  ROOT %convert.1089.1 = bf16[64,1024]{1,0} convert(f32[64,1024]{1,0} %multiply.490.1), metadata={op_type="xla__cast" op_name="xla__cast" source_file="/usr/local/lib/python3.10/site-packages/torch/_ops.py" source_line=756}
}

%fused_convert.11 (param_0.609: bf16[64,6144]) -> bf16[64,3072] {
  %param_0.609 = bf16[64,6144]{1,0} parameter(0)
  %slice.297.1 = bf16[64,3072]{1,0} slice(bf16[64,6144]{1,0} %param_0.609), slice={[0:64], [0:3072]}, metadata={op_type="xla__select" op_name="xla__select" source_file="/usr/local/lib/python3.10/site-packages/torch/_ops.py" source_line=756}
  %convert.1090.6 = f32[64,3072]{1,0} convert(bf16[64,3072]{1,0} %slice.297.1)
  %constant_1_20 = bf16[] constant(1), metadata={op_type="xla__select" op_name="xla__select" source_file="/usr/local/lib/python3.10/site-packages/torch/_ops.py" source_line=756}
  %convert.1259.18 = f32[] convert(bf16[] %constant_1_20)
  %broadcast.525.128 = f32[64,3072]{1,0} broadcast(f32[] %convert.1259.18), dimensions={}, metadata={op_type="xla__select" op_name="xla__select" source_file="/usr/local/lib/python3.10/site-packages/torch/_ops.py" source_line=756}
  %negate.68.7 = f32[64,3072]{1,0} negate(f32[64,3072]{1,0} %convert.1090.6)
  %convert.1094.5 = bf16[64,3072]{1,0} convert(f32[64,3072]{1,0} %negate.68.7)
  %exponential.68.3 = bf16[64,3072]{1,0} exponential(bf16[64,3072]{1,0} %convert.1094.5)
  %convert.1095.1 = f32[64,3072]{1,0} convert(bf16[64,3072]{1,0} %exponential.68.3)
  %add.293.5 = f32[64,3072]{1,0} add(f32[64,3072]{1,0} %broadcast.525.128, f32[64,3072]{1,0} %convert.1095.1)
  %divide.68.3 = f32[64,3072]{1,0} divide(f32[64,3072]{1,0} %broadcast.525.128, f32[64,3072]{1,0} %add.293.5), metadata={op_type="aten__silu" op_name="aten__silu" source_file="/usr/local/lib/python3.10/site-packages/torch/_ops.py" source_line=756}
  %multiply.491.3 = f32[64,3072]{1,0} multiply(f32[64,3072]{1,0} %convert.1090.6, f32[64,3072]{1,0} %divide.68.3), metadata={op_type="aten__silu" op_name="aten__silu" source_file="/usr/local/lib/python3.10/site-packages/torch/_ops.py" source_line=756}
  %slice.298.1 = bf16[64,3072]{1,0} slice(bf16[64,6144]{1,0} %param_0.609), slice={[0:64], [3072:6144]}, metadata={op_type="xla__select" op_name="xla__select" source_file="/usr/local/lib/python3.10/site-packages/torch/_ops.py" source_line=756}
  %convert.1096.1 = f32[64,3072]{1,0} convert(bf16[64,3072]{1,0} %slice.298.1), metadata={op_type="xla__cast" op_name="xla__cast" source_file="/usr/local/lib/python3.10/site-packages/torch/_ops.py" source_line=756}
  %multiply.492.1 = f32[64,3072]{1,0} multiply(f32[64,3072]{1,0} %multiply.491.3, f32[64,3072]{1,0} %convert.1096.1), metadata={op_type="aten__mul" op_name="aten__mul.1175/aten__mul" source_file="/usr/local/lib/python3.10/site-packages/torch/_ops.py" source_line=756}
  ROOT %convert.1097.1 = bf16[64,3072]{1,0} convert(f32[64,3072]{1,0} %multiply.492.1), metadata={op_type="xla__cast" op_name="xla__cast" source_file="/usr/local/lib/python3.10/site-packages/torch/_ops.py" source_line=756}
}

%fused_add.1 (param_0.716: bf16[64,20480], param_1.615: bf16[64,1024], param_2.450: bf16[64,1024], param_3.426: f32[64,1024], param_4.242: bf16[64,1024], param_5.76: bf16[64,1024]) -> f32[64,1024] {
  %param_0.716 = bf16[64,20480]{1,0} parameter(0)
  %convert.968.40 = f32[64,20480]{1,0} convert(bf16[64,20480]{1,0} %param_0.716), metadata={op_type="xla__cast" op_name="xla__cast" source_file="/usr/local/lib/python3.10/site-packages/torch/_ops.py" source_line=756}
  %slice.271.3 = f32[64,1024]{1,0} slice(f32[64,20480]{1,0} %convert.968.40), slice={[0:64], [10240:11264]}, metadata={op_type="aten__mm" op_name="aten__mm" source_file="/usr/local/lib/python3.10/site-packages/torch/_ops.py" source_line=756}
  %param_1.615 = bf16[64,1024]{1,0} parameter(1)
  %convert.1098.1 = f32[64,1024]{1,0} convert(bf16[64,1024]{1,0} %param_1.615), metadata={op_type="xla__cast" op_name="xla__cast" source_file="/usr/local/lib/python3.10/site-packages/torch/_ops.py" source_line=756}
  %slice.272.7 = f32[64,1024]{1,0} slice(f32[64,20480]{1,0} %convert.968.40), slice={[0:64], [11264:12288]}, metadata={op_type="aten__mm" op_name="aten__mm" source_file="/usr/local/lib/python3.10/site-packages/torch/_ops.py" source_line=756}
  %param_2.450 = bf16[64,1024]{1,0} parameter(2)
  %convert.1086.5 = f32[64,1024]{1,0} convert(bf16[64,1024]{1,0} %param_2.450), metadata={op_type="xla__cast" op_name="xla__cast" source_file="/usr/local/lib/python3.10/site-packages/torch/_ops.py" source_line=756}
  %slice.273.7 = f32[64,1024]{1,0} slice(f32[64,20480]{1,0} %convert.968.40), slice={[0:64], [12288:13312]}, metadata={op_type="aten__mm" op_name="aten__mm" source_file="/usr/local/lib/python3.10/site-packages/torch/_ops.py" source_line=756}
  %param_5.76 = bf16[64,1024]{1,0} parameter(5)
  %convert.1072.5 = f32[64,1024]{1,0} convert(bf16[64,1024]{1,0} %param_5.76), metadata={op_type="xla__cast" op_name="xla__cast" source_file="/usr/local/lib/python3.10/site-packages/torch/_ops.py" source_line=756}
  %slice.274.11 = f32[64,1024]{1,0} slice(f32[64,20480]{1,0} %convert.968.40), slice={[0:64], [13312:14336]}, metadata={op_type="aten__mm" op_name="aten__mm" source_file="/usr/local/lib/python3.10/site-packages/torch/_ops.py" source_line=756}
  %param_4.242 = bf16[64,1024]{1,0} parameter(4)
  %convert.1057.9 = f32[64,1024]{1,0} convert(bf16[64,1024]{1,0} %param_4.242), metadata={op_type="xla__cast" op_name="xla__cast" source_file="/usr/local/lib/python3.10/site-packages/torch/_ops.py" source_line=756}
  %param_3.426 = f32[64,1024]{1,0} parameter(3)
  %add.284.9 = f32[64,1024]{1,0} add(f32[64,1024]{1,0} %convert.1057.9, f32[64,1024]{1,0} %param_3.426), metadata={op_type="aten__add" op_name="aten__add.1122/aten__add" source_file="/usr/local/lib/python3.10/site-packages/torch/_ops.py" source_line=756}
  %add.285.9 = f32[64,1024]{1,0} add(f32[64,1024]{1,0} %slice.274.11, f32[64,1024]{1,0} %add.284.9), metadata={op_type="aten__add" op_name="aten__add.1135/aten__add" source_file="/usr/local/lib/python3.10/site-packages/torch/_ops.py" source_line=756}
  %add.288.5 = f32[64,1024]{1,0} add(f32[64,1024]{1,0} %convert.1072.5, f32[64,1024]{1,0} %add.285.9), metadata={op_type="aten__add" op_name="aten__add.1140/aten__add" source_file="/usr/local/lib/python3.10/site-packages/torch/_ops.py" source_line=756}
  %add.289.5 = f32[64,1024]{1,0} add(f32[64,1024]{1,0} %slice.273.7, f32[64,1024]{1,0} %add.288.5), metadata={op_type="aten__add" op_name="aten__add.1153/aten__add" source_file="/usr/local/lib/python3.10/site-packages/torch/_ops.py" source_line=756}
  %add.291.5 = f32[64,1024]{1,0} add(f32[64,1024]{1,0} %convert.1086.5, f32[64,1024]{1,0} %add.289.5), metadata={op_type="aten__add" op_name="aten__add.1158/aten__add" source_file="/usr/local/lib/python3.10/site-packages/torch/_ops.py" source_line=756}
  %add.292.5 = f32[64,1024]{1,0} add(f32[64,1024]{1,0} %slice.272.7, f32[64,1024]{1,0} %add.291.5), metadata={op_type="aten__add" op_name="aten__add.1171/aten__add" source_file="/usr/local/lib/python3.10/site-packages/torch/_ops.py" source_line=756}
  %add.294.1 = f32[64,1024]{1,0} add(f32[64,1024]{1,0} %convert.1098.1, f32[64,1024]{1,0} %add.292.5), metadata={op_type="aten__add" op_name="aten__add.1176/aten__add" source_file="/usr/local/lib/python3.10/site-packages/torch/_ops.py" source_line=756}
  ROOT %add.295.1 = f32[64,1024]{1,0} add(f32[64,1024]{1,0} %slice.271.3, f32[64,1024]{1,0} %add.294.1), metadata={op_type="aten__add" op_name="aten__add.1189/aten__add" source_file="/usr/local/lib/python3.10/site-packages/torch/_ops.py" source_line=756}
}

%fused_computation.201 (param_0.832: f32[64,1024], param_1.653: f32[], param_2.406: bf16[1024]) -> bf16[64,1024] {
  %param_0.832 = f32[64,1024]{1,0} parameter(0)
  %multiply.600 = f32[64,1024]{1,0} multiply(f32[64,1024]{1,0} %param_0.832, f32[64,1024]{1,0} %param_0.832), metadata={op_type="aten__pow" op_name="aten__pow" source_file="/usr/local/lib/python3.10/site-packages/torch/_ops.py" source_line=756}
  %constant_532 = f32[] constant(0), metadata={op_type="aten__mean" op_name="aten__mean" source_file="/usr/local/lib/python3.10/site-packages/torch/_ops.py" source_line=756}
  %reduce.63 = f32[64]{0} reduce(f32[64,1024]{1,0} %multiply.600, f32[] %constant_532), dimensions={1}, to_apply=%AddComputation.86, metadata={op_type="aten__mean" op_name="aten__mean" source_file="/usr/local/lib/python3.10/site-packages/torch/_ops.py" source_line=756}
  %constant_531 = f32[] constant(0.0009765625), metadata={op_type="aten__mean" op_name="aten__mean" source_file="/usr/local/lib/python3.10/site-packages/torch/_ops.py" source_line=756}
  %broadcast.684 = f32[64]{0} broadcast(f32[] %constant_531), dimensions={}, metadata={op_type="aten__mean" op_name="aten__mean" source_file="/usr/local/lib/python3.10/site-packages/torch/_ops.py" source_line=756}
  %multiply.599 = f32[64]{0} multiply(f32[64]{0} %reduce.63, f32[64]{0} %broadcast.684), metadata={op_type="aten__mean" op_name="aten__mean" source_file="/usr/local/lib/python3.10/site-packages/torch/_ops.py" source_line=756}
  %param_1.653 = f32[] parameter(1)
  %broadcast.682 = f32[64]{0} broadcast(f32[] %param_1.653), dimensions={}, metadata={op_type="aten__add" op_name="aten__add.1028/aten__add" source_file="/usr/local/lib/python3.10/site-packages/torch/_ops.py" source_line=756}
  %add.351 = f32[64]{0} add(f32[64]{0} %multiply.599, f32[64]{0} %broadcast.682), metadata={op_type="aten__add" op_name="aten__add.1190/aten__add" source_file="/usr/local/lib/python3.10/site-packages/torch/_ops.py" source_line=756}
  %rsqrt.130 = f32[64]{0} rsqrt(f32[64]{0} %add.351), metadata={op_type="aten__rsqrt" op_name="aten__rsqrt" source_file="/usr/local/lib/python3.10/site-packages/torch/_ops.py" source_line=756}
  %broadcast.681 = f32[64,1024]{1,0} broadcast(f32[64]{0} %rsqrt.130), dimensions={0}, metadata={op_type="aten__mul" op_name="aten__mul.1191/aten__mul" source_file="/usr/local/lib/python3.10/site-packages/torch/_ops.py" source_line=756}
  %multiply.598 = f32[64,1024]{1,0} multiply(f32[64,1024]{1,0} %param_0.832, f32[64,1024]{1,0} %broadcast.681), metadata={op_type="aten__mul" op_name="aten__mul.1191/aten__mul" source_file="/usr/local/lib/python3.10/site-packages/torch/_ops.py" source_line=756}
  %param_2.406 = bf16[1024]{0} parameter(2)
  %convert.1099.1 = f32[1024]{0} convert(bf16[1024]{0} %param_2.406), metadata={op_type="xla__cast" op_name="xla__cast" source_file="/usr/local/lib/python3.10/site-packages/torch/_ops.py" source_line=756}
  %broadcast.482.1 = f32[64,1024]{1,0} broadcast(f32[1024]{0} %convert.1099.1), dimensions={1}, metadata={op_type="aten__mul" op_name="aten__mul.1192/aten__mul" source_file="/usr/local/lib/python3.10/site-packages/torch/_ops.py" source_line=756}
  %multiply.493.1 = f32[64,1024]{1,0} multiply(f32[64,1024]{1,0} %multiply.598, f32[64,1024]{1,0} %broadcast.482.1), metadata={op_type="aten__mul" op_name="aten__mul.1192/aten__mul" source_file="/usr/local/lib/python3.10/site-packages/torch/_ops.py" source_line=756}
  ROOT %convert.1100.1 = bf16[64,1024]{1,0} convert(f32[64,1024]{1,0} %multiply.493.1), metadata={op_type="xla__cast" op_name="xla__cast" source_file="/usr/local/lib/python3.10/site-packages/torch/_ops.py" source_line=756}
}

%fused_convert.10 (param_0.611: bf16[64,6144]) -> bf16[64,3072] {
  %param_0.611 = bf16[64,6144]{1,0} parameter(0)
  %slice.299.1 = bf16[64,3072]{1,0} slice(bf16[64,6144]{1,0} %param_0.611), slice={[0:64], [0:3072]}, metadata={op_type="xla__select" op_name="xla__select" source_file="/usr/local/lib/python3.10/site-packages/torch/_ops.py" source_line=756}
  %convert.1101.6 = f32[64,3072]{1,0} convert(bf16[64,3072]{1,0} %slice.299.1)
  %constant_1_1 = bf16[] constant(1), metadata={op_type="xla__select" op_name="xla__select" source_file="/usr/local/lib/python3.10/site-packages/torch/_ops.py" source_line=756}
  %convert.1259.20 = f32[] convert(bf16[] %constant_1_1)
  %broadcast.525.124 = f32[64,3072]{1,0} broadcast(f32[] %convert.1259.20), dimensions={}, metadata={op_type="xla__select" op_name="xla__select" source_file="/usr/local/lib/python3.10/site-packages/torch/_ops.py" source_line=756}
  %negate.69.7 = f32[64,3072]{1,0} negate(f32[64,3072]{1,0} %convert.1101.6)
  %convert.1106.5 = bf16[64,3072]{1,0} convert(f32[64,3072]{1,0} %negate.69.7)
  %exponential.69.3 = bf16[64,3072]{1,0} exponential(bf16[64,3072]{1,0} %convert.1106.5)
  %convert.1107.1 = f32[64,3072]{1,0} convert(bf16[64,3072]{1,0} %exponential.69.3)
  %add.296.5 = f32[64,3072]{1,0} add(f32[64,3072]{1,0} %broadcast.525.124, f32[64,3072]{1,0} %convert.1107.1)
  %divide.69.3 = f32[64,3072]{1,0} divide(f32[64,3072]{1,0} %broadcast.525.124, f32[64,3072]{1,0} %add.296.5), metadata={op_type="aten__silu" op_name="aten__silu" source_file="/usr/local/lib/python3.10/site-packages/torch/_ops.py" source_line=756}
  %multiply.494.3 = f32[64,3072]{1,0} multiply(f32[64,3072]{1,0} %convert.1101.6, f32[64,3072]{1,0} %divide.69.3), metadata={op_type="aten__silu" op_name="aten__silu" source_file="/usr/local/lib/python3.10/site-packages/torch/_ops.py" source_line=756}
  %slice.300.1 = bf16[64,3072]{1,0} slice(bf16[64,6144]{1,0} %param_0.611), slice={[0:64], [3072:6144]}, metadata={op_type="xla__select" op_name="xla__select" source_file="/usr/local/lib/python3.10/site-packages/torch/_ops.py" source_line=756}
  %convert.1108.1 = f32[64,3072]{1,0} convert(bf16[64,3072]{1,0} %slice.300.1), metadata={op_type="xla__cast" op_name="xla__cast" source_file="/usr/local/lib/python3.10/site-packages/torch/_ops.py" source_line=756}
  %multiply.495.1 = f32[64,3072]{1,0} multiply(f32[64,3072]{1,0} %multiply.494.3, f32[64,3072]{1,0} %convert.1108.1), metadata={op_type="aten__mul" op_name="aten__mul.1193/aten__mul" source_file="/usr/local/lib/python3.10/site-packages/torch/_ops.py" source_line=756}
  ROOT %convert.1110.1 = bf16[64,3072]{1,0} convert(f32[64,3072]{1,0} %multiply.495.1), metadata={op_type="xla__cast" op_name="xla__cast" source_file="/usr/local/lib/python3.10/site-packages/torch/_ops.py" source_line=756}
}

%fused_computation.200 (param_0.831: f32[], param_1.652: f32[64,1024], param_2.405: bf16[64,1024], param_3.370: bf16[64,20480], param_4.187: bf16[1024]) -> bf16[64,1024] {
  %param_3.370 = bf16[64,20480]{1,0} parameter(3)
  %convert.968.84 = f32[64,20480]{1,0} convert(bf16[64,20480]{1,0} %param_3.370), metadata={op_type="xla__cast" op_name="xla__cast" source_file="/usr/local/lib/python3.10/site-packages/torch/_ops.py" source_line=756}
  %slice.270.5 = f32[64,1024]{1,0} slice(f32[64,20480]{1,0} %convert.968.84), slice={[0:64], [9216:10240]}, metadata={op_type="aten__mm" op_name="aten__mm" source_file="/usr/local/lib/python3.10/site-packages/torch/_ops.py" source_line=756}
  %param_2.405 = bf16[64,1024]{1,0} parameter(2)
  %convert.1111.3 = f32[64,1024]{1,0} convert(bf16[64,1024]{1,0} %param_2.405), metadata={op_type="xla__cast" op_name="xla__cast" source_file="/usr/local/lib/python3.10/site-packages/torch/_ops.py" source_line=756}
  %param_1.652 = f32[64,1024]{1,0} parameter(1)
  %add.297.3 = f32[64,1024]{1,0} add(f32[64,1024]{1,0} %convert.1111.3, f32[64,1024]{1,0} %param_1.652), metadata={op_type="aten__add" op_name="aten__add.1194/aten__add" source_file="/usr/local/lib/python3.10/site-packages/torch/_ops.py" source_line=756}
  %add.298.3 = f32[64,1024]{1,0} add(f32[64,1024]{1,0} %slice.270.5, f32[64,1024]{1,0} %add.297.3), metadata={op_type="aten__add" op_name="aten__add.1207/aten__add" source_file="/usr/local/lib/python3.10/site-packages/torch/_ops.py" source_line=756}
  %multiply.608 = f32[64,1024]{1,0} multiply(f32[64,1024]{1,0} %add.298.3, f32[64,1024]{1,0} %add.298.3), metadata={op_type="aten__pow" op_name="aten__pow" source_file="/usr/local/lib/python3.10/site-packages/torch/_ops.py" source_line=756}
  %constant_537 = f32[] constant(0), metadata={op_type="aten__mean" op_name="aten__mean" source_file="/usr/local/lib/python3.10/site-packages/torch/_ops.py" source_line=756}
  %reduce.65 = f32[64]{0} reduce(f32[64,1024]{1,0} %multiply.608, f32[] %constant_537), dimensions={1}, to_apply=%AddComputation.86, metadata={op_type="aten__mean" op_name="aten__mean" source_file="/usr/local/lib/python3.10/site-packages/torch/_ops.py" source_line=756}
  %constant_536 = f32[] constant(0.0009765625), metadata={op_type="aten__mean" op_name="aten__mean" source_file="/usr/local/lib/python3.10/site-packages/torch/_ops.py" source_line=756}
  %broadcast.691 = f32[64]{0} broadcast(f32[] %constant_536), dimensions={}, metadata={op_type="aten__mean" op_name="aten__mean" source_file="/usr/local/lib/python3.10/site-packages/torch/_ops.py" source_line=756}
  %multiply.607 = f32[64]{0} multiply(f32[64]{0} %reduce.65, f32[64]{0} %broadcast.691), metadata={op_type="aten__mean" op_name="aten__mean" source_file="/usr/local/lib/python3.10/site-packages/torch/_ops.py" source_line=756}
  %param_0.831 = f32[] parameter(0)
  %broadcast.690 = f32[64]{0} broadcast(f32[] %param_0.831), dimensions={}, metadata={op_type="aten__add" op_name="aten__add.1028/aten__add" source_file="/usr/local/lib/python3.10/site-packages/torch/_ops.py" source_line=756}
  %add.353 = f32[64]{0} add(f32[64]{0} %multiply.607, f32[64]{0} %broadcast.690), metadata={op_type="aten__add" op_name="aten__add.1208/aten__add" source_file="/usr/local/lib/python3.10/site-packages/torch/_ops.py" source_line=756}
  %rsqrt.132 = f32[64]{0} rsqrt(f32[64]{0} %add.353), metadata={op_type="aten__rsqrt" op_name="aten__rsqrt" source_file="/usr/local/lib/python3.10/site-packages/torch/_ops.py" source_line=756}
  %broadcast.689 = f32[64,1024]{1,0} broadcast(f32[64]{0} %rsqrt.132), dimensions={0}, metadata={op_type="aten__mul" op_name="aten__mul.1209/aten__mul" source_file="/usr/local/lib/python3.10/site-packages/torch/_ops.py" source_line=756}
  %multiply.605 = f32[64,1024]{1,0} multiply(f32[64,1024]{1,0} %add.298.3, f32[64,1024]{1,0} %broadcast.689), metadata={op_type="aten__mul" op_name="aten__mul.1209/aten__mul" source_file="/usr/local/lib/python3.10/site-packages/torch/_ops.py" source_line=756}
  %param_4.187 = bf16[1024]{0} parameter(4)
  %convert.1112.1 = f32[1024]{0} convert(bf16[1024]{0} %param_4.187), metadata={op_type="xla__cast" op_name="xla__cast" source_file="/usr/local/lib/python3.10/site-packages/torch/_ops.py" source_line=756}
  %broadcast.486.1 = f32[64,1024]{1,0} broadcast(f32[1024]{0} %convert.1112.1), dimensions={1}, metadata={op_type="aten__mul" op_name="aten__mul.1210/aten__mul" source_file="/usr/local/lib/python3.10/site-packages/torch/_ops.py" source_line=756}
  %multiply.496.1 = f32[64,1024]{1,0} multiply(f32[64,1024]{1,0} %multiply.605, f32[64,1024]{1,0} %broadcast.486.1), metadata={op_type="aten__mul" op_name="aten__mul.1210/aten__mul" source_file="/usr/local/lib/python3.10/site-packages/torch/_ops.py" source_line=756}
  ROOT %convert.1113.1 = bf16[64,1024]{1,0} convert(f32[64,1024]{1,0} %multiply.496.1), metadata={op_type="xla__cast" op_name="xla__cast" source_file="/usr/local/lib/python3.10/site-packages/torch/_ops.py" source_line=756}
}

%fused_convert.9 (param_0.596: bf16[64,6144]) -> bf16[64,3072] {
  %param_0.596 = bf16[64,6144]{1,0} parameter(0)
  %slice.301.1 = bf16[64,3072]{1,0} slice(bf16[64,6144]{1,0} %param_0.596), slice={[0:64], [0:3072]}, metadata={op_type="xla__select" op_name="xla__select" source_file="/usr/local/lib/python3.10/site-packages/torch/_ops.py" source_line=756}
  %convert.1114.6 = f32[64,3072]{1,0} convert(bf16[64,3072]{1,0} %slice.301.1)
  %constant_1_7 = bf16[] constant(1), metadata={op_type="xla__select" op_name="xla__select" source_file="/usr/local/lib/python3.10/site-packages/torch/_ops.py" source_line=756}
  %convert.1259.5 = f32[] convert(bf16[] %constant_1_7)
  %broadcast.525.120 = f32[64,3072]{1,0} broadcast(f32[] %convert.1259.5), dimensions={}, metadata={op_type="xla__select" op_name="xla__select" source_file="/usr/local/lib/python3.10/site-packages/torch/_ops.py" source_line=756}
  %negate.70.7 = f32[64,3072]{1,0} negate(f32[64,3072]{1,0} %convert.1114.6)
  %convert.1120.5 = bf16[64,3072]{1,0} convert(f32[64,3072]{1,0} %negate.70.7)
  %exponential.70.3 = bf16[64,3072]{1,0} exponential(bf16[64,3072]{1,0} %convert.1120.5)
  %convert.1122.1 = f32[64,3072]{1,0} convert(bf16[64,3072]{1,0} %exponential.70.3)
  %add.299.5 = f32[64,3072]{1,0} add(f32[64,3072]{1,0} %broadcast.525.120, f32[64,3072]{1,0} %convert.1122.1)
  %divide.70.3 = f32[64,3072]{1,0} divide(f32[64,3072]{1,0} %broadcast.525.120, f32[64,3072]{1,0} %add.299.5), metadata={op_type="aten__silu" op_name="aten__silu" source_file="/usr/local/lib/python3.10/site-packages/torch/_ops.py" source_line=756}
  %multiply.497.3 = f32[64,3072]{1,0} multiply(f32[64,3072]{1,0} %convert.1114.6, f32[64,3072]{1,0} %divide.70.3), metadata={op_type="aten__silu" op_name="aten__silu" source_file="/usr/local/lib/python3.10/site-packages/torch/_ops.py" source_line=756}
  %slice.302.1 = bf16[64,3072]{1,0} slice(bf16[64,6144]{1,0} %param_0.596), slice={[0:64], [3072:6144]}, metadata={op_type="xla__select" op_name="xla__select" source_file="/usr/local/lib/python3.10/site-packages/torch/_ops.py" source_line=756}
  %convert.1123.1 = f32[64,3072]{1,0} convert(bf16[64,3072]{1,0} %slice.302.1), metadata={op_type="xla__cast" op_name="xla__cast" source_file="/usr/local/lib/python3.10/site-packages/torch/_ops.py" source_line=756}
  %multiply.498.1 = f32[64,3072]{1,0} multiply(f32[64,3072]{1,0} %multiply.497.3, f32[64,3072]{1,0} %convert.1123.1), metadata={op_type="aten__mul" op_name="aten__mul.1211/aten__mul" source_file="/usr/local/lib/python3.10/site-packages/torch/_ops.py" source_line=756}
  ROOT %convert.1125.1 = bf16[64,3072]{1,0} convert(f32[64,3072]{1,0} %multiply.498.1), metadata={op_type="xla__cast" op_name="xla__cast" source_file="/usr/local/lib/python3.10/site-packages/torch/_ops.py" source_line=756}
}

%fused_computation.199 (param_0.866: f32[], param_1.682: bf16[1024], param_2.441: f32[64,1024], param_3.413: bf16[64,1024], param_4.227: bf16[64,20480], param_5.56: bf16[64,1024]) -> bf16[64,1024] {
  %param_4.227 = bf16[64,20480]{1,0} parameter(4)
  %convert.968.138 = f32[64,20480]{1,0} convert(bf16[64,20480]{1,0} %param_4.227), metadata={op_type="xla__cast" op_name="xla__cast" source_file="/usr/local/lib/python3.10/site-packages/torch/_ops.py" source_line=756}
  %slice.269.5 = f32[64,1024]{1,0} slice(f32[64,20480]{1,0} %convert.968.138), slice={[0:64], [8192:9216]}, metadata={op_type="aten__mm" op_name="aten__mm" source_file="/usr/local/lib/python3.10/site-packages/torch/_ops.py" source_line=756}
  %param_5.56 = bf16[64,1024]{1,0} parameter(5)
  %convert.1126.3 = f32[64,1024]{1,0} convert(bf16[64,1024]{1,0} %param_5.56), metadata={op_type="xla__cast" op_name="xla__cast" source_file="/usr/local/lib/python3.10/site-packages/torch/_ops.py" source_line=756}
  %slice.270.9 = f32[64,1024]{1,0} slice(f32[64,20480]{1,0} %convert.968.138), slice={[0:64], [9216:10240]}, metadata={op_type="aten__mm" op_name="aten__mm" source_file="/usr/local/lib/python3.10/site-packages/torch/_ops.py" source_line=756}
  %param_3.413 = bf16[64,1024]{1,0} parameter(3)
  %convert.1111.7 = f32[64,1024]{1,0} convert(bf16[64,1024]{1,0} %param_3.413), metadata={op_type="xla__cast" op_name="xla__cast" source_file="/usr/local/lib/python3.10/site-packages/torch/_ops.py" source_line=756}
  %param_2.441 = f32[64,1024]{1,0} parameter(2)
  %add.297.7 = f32[64,1024]{1,0} add(f32[64,1024]{1,0} %convert.1111.7, f32[64,1024]{1,0} %param_2.441), metadata={op_type="aten__add" op_name="aten__add.1194/aten__add" source_file="/usr/local/lib/python3.10/site-packages/torch/_ops.py" source_line=756}
  %add.298.7 = f32[64,1024]{1,0} add(f32[64,1024]{1,0} %slice.270.9, f32[64,1024]{1,0} %add.297.7), metadata={op_type="aten__add" op_name="aten__add.1207/aten__add" source_file="/usr/local/lib/python3.10/site-packages/torch/_ops.py" source_line=756}
  %add.300.3 = f32[64,1024]{1,0} add(f32[64,1024]{1,0} %convert.1126.3, f32[64,1024]{1,0} %add.298.7), metadata={op_type="aten__add" op_name="aten__add.1212/aten__add" source_file="/usr/local/lib/python3.10/site-packages/torch/_ops.py" source_line=756}
  %add.301.3 = f32[64,1024]{1,0} add(f32[64,1024]{1,0} %slice.269.5, f32[64,1024]{1,0} %add.300.3), metadata={op_type="aten__add" op_name="aten__add.1225/aten__add" source_file="/usr/local/lib/python3.10/site-packages/torch/_ops.py" source_line=756}
  %multiply.615 = f32[64,1024]{1,0} multiply(f32[64,1024]{1,0} %add.301.3, f32[64,1024]{1,0} %add.301.3), metadata={op_type="aten__pow" op_name="aten__pow" source_file="/usr/local/lib/python3.10/site-packages/torch/_ops.py" source_line=756}
  %constant_542 = f32[] constant(0), metadata={op_type="aten__mean" op_name="aten__mean" source_file="/usr/local/lib/python3.10/site-packages/torch/_ops.py" source_line=756}
  %reduce.67 = f32[64]{0} reduce(f32[64,1024]{1,0} %multiply.615, f32[] %constant_542), dimensions={1}, to_apply=%AddComputation.86, metadata={op_type="aten__mean" op_name="aten__mean" source_file="/usr/local/lib/python3.10/site-packages/torch/_ops.py" source_line=756}
  %constant_541 = f32[] constant(0.0009765625), metadata={op_type="aten__mean" op_name="aten__mean" source_file="/usr/local/lib/python3.10/site-packages/torch/_ops.py" source_line=756}
  %broadcast.697 = f32[64]{0} broadcast(f32[] %constant_541), dimensions={}, metadata={op_type="aten__mean" op_name="aten__mean" source_file="/usr/local/lib/python3.10/site-packages/torch/_ops.py" source_line=756}
  %multiply.614 = f32[64]{0} multiply(f32[64]{0} %reduce.67, f32[64]{0} %broadcast.697), metadata={op_type="aten__mean" op_name="aten__mean" source_file="/usr/local/lib/python3.10/site-packages/torch/_ops.py" source_line=756}
  %param_0.866 = f32[] parameter(0)
  %broadcast.696 = f32[64]{0} broadcast(f32[] %param_0.866), dimensions={}, metadata={op_type="aten__add" op_name="aten__add.1028/aten__add" source_file="/usr/local/lib/python3.10/site-packages/torch/_ops.py" source_line=756}
  %add.355 = f32[64]{0} add(f32[64]{0} %multiply.614, f32[64]{0} %broadcast.696), metadata={op_type="aten__add" op_name="aten__add.1226/aten__add" source_file="/usr/local/lib/python3.10/site-packages/torch/_ops.py" source_line=756}
  %rsqrt.134 = f32[64]{0} rsqrt(f32[64]{0} %add.355), metadata={op_type="aten__rsqrt" op_name="aten__rsqrt" source_file="/usr/local/lib/python3.10/site-packages/torch/_ops.py" source_line=756}
  %broadcast.695 = f32[64,1024]{1,0} broadcast(f32[64]{0} %rsqrt.134), dimensions={0}, metadata={op_type="aten__mul" op_name="aten__mul.1227/aten__mul" source_file="/usr/local/lib/python3.10/site-packages/torch/_ops.py" source_line=756}
  %multiply.613 = f32[64,1024]{1,0} multiply(f32[64,1024]{1,0} %add.301.3, f32[64,1024]{1,0} %broadcast.695), metadata={op_type="aten__mul" op_name="aten__mul.1227/aten__mul" source_file="/usr/local/lib/python3.10/site-packages/torch/_ops.py" source_line=756}
  %param_1.682 = bf16[1024]{0} parameter(1)
  %convert.1127.1 = f32[1024]{0} convert(bf16[1024]{0} %param_1.682), metadata={op_type="xla__cast" op_name="xla__cast" source_file="/usr/local/lib/python3.10/site-packages/torch/_ops.py" source_line=756}
  %broadcast.489.1 = f32[64,1024]{1,0} broadcast(f32[1024]{0} %convert.1127.1), dimensions={1}, metadata={op_type="aten__mul" op_name="aten__mul.1228/aten__mul" source_file="/usr/local/lib/python3.10/site-packages/torch/_ops.py" source_line=756}
  %multiply.499.1 = f32[64,1024]{1,0} multiply(f32[64,1024]{1,0} %multiply.613, f32[64,1024]{1,0} %broadcast.489.1), metadata={op_type="aten__mul" op_name="aten__mul.1228/aten__mul" source_file="/usr/local/lib/python3.10/site-packages/torch/_ops.py" source_line=756}
  ROOT %convert.1129.1 = bf16[64,1024]{1,0} convert(f32[64,1024]{1,0} %multiply.499.1), metadata={op_type="xla__cast" op_name="xla__cast" source_file="/usr/local/lib/python3.10/site-packages/torch/_ops.py" source_line=756}
}

%fused_convert.8 (param_0.600: bf16[64,6144]) -> bf16[64,3072] {
  %param_0.600 = bf16[64,6144]{1,0} parameter(0)
  %slice.303.1 = bf16[64,3072]{1,0} slice(bf16[64,6144]{1,0} %param_0.600), slice={[0:64], [0:3072]}, metadata={op_type="xla__select" op_name="xla__select" source_file="/usr/local/lib/python3.10/site-packages/torch/_ops.py" source_line=756}
  %convert.1131.6 = f32[64,3072]{1,0} convert(bf16[64,3072]{1,0} %slice.303.1)
  %constant_1_11 = bf16[] constant(1), metadata={op_type="xla__select" op_name="xla__select" source_file="/usr/local/lib/python3.10/site-packages/torch/_ops.py" source_line=756}
  %convert.1259.9 = f32[] convert(bf16[] %constant_1_11)
  %broadcast.525.116 = f32[64,3072]{1,0} broadcast(f32[] %convert.1259.9), dimensions={}, metadata={op_type="xla__select" op_name="xla__select" source_file="/usr/local/lib/python3.10/site-packages/torch/_ops.py" source_line=756}
  %negate.71.7 = f32[64,3072]{1,0} negate(f32[64,3072]{1,0} %convert.1131.6)
  %convert.1138.5 = bf16[64,3072]{1,0} convert(f32[64,3072]{1,0} %negate.71.7)
  %exponential.71.3 = bf16[64,3072]{1,0} exponential(bf16[64,3072]{1,0} %convert.1138.5)
  %convert.1139.1 = f32[64,3072]{1,0} convert(bf16[64,3072]{1,0} %exponential.71.3)
  %add.302.5 = f32[64,3072]{1,0} add(f32[64,3072]{1,0} %broadcast.525.116, f32[64,3072]{1,0} %convert.1139.1)
  %divide.71.3 = f32[64,3072]{1,0} divide(f32[64,3072]{1,0} %broadcast.525.116, f32[64,3072]{1,0} %add.302.5), metadata={op_type="aten__silu" op_name="aten__silu" source_file="/usr/local/lib/python3.10/site-packages/torch/_ops.py" source_line=756}
  %multiply.500.3 = f32[64,3072]{1,0} multiply(f32[64,3072]{1,0} %convert.1131.6, f32[64,3072]{1,0} %divide.71.3), metadata={op_type="aten__silu" op_name="aten__silu" source_file="/usr/local/lib/python3.10/site-packages/torch/_ops.py" source_line=756}
  %slice.304.1 = bf16[64,3072]{1,0} slice(bf16[64,6144]{1,0} %param_0.600), slice={[0:64], [3072:6144]}, metadata={op_type="xla__select" op_name="xla__select" source_file="/usr/local/lib/python3.10/site-packages/torch/_ops.py" source_line=756}
  %convert.1140.1 = f32[64,3072]{1,0} convert(bf16[64,3072]{1,0} %slice.304.1), metadata={op_type="xla__cast" op_name="xla__cast" source_file="/usr/local/lib/python3.10/site-packages/torch/_ops.py" source_line=756}
  %multiply.501.1 = f32[64,3072]{1,0} multiply(f32[64,3072]{1,0} %multiply.500.3, f32[64,3072]{1,0} %convert.1140.1), metadata={op_type="aten__mul" op_name="aten__mul.1229/aten__mul" source_file="/usr/local/lib/python3.10/site-packages/torch/_ops.py" source_line=756}
  ROOT %convert.1141.1 = bf16[64,3072]{1,0} convert(f32[64,3072]{1,0} %multiply.501.1), metadata={op_type="xla__cast" op_name="xla__cast" source_file="/usr/local/lib/python3.10/site-packages/torch/_ops.py" source_line=756}
}

%fused_computation.198 (param_0.829: f32[], param_1.685: bf16[64,1024], param_2.445: bf16[64,20480], param_3.418: bf16[1024], param_4.233: f32[64,1024], param_5.65: bf16[64,1024], param_6.55: bf16[64,1024]) -> bf16[64,1024] {
  %param_2.445 = bf16[64,20480]{1,0} parameter(2)
  %convert.968.80 = f32[64,20480]{1,0} convert(bf16[64,20480]{1,0} %param_2.445), metadata={op_type="xla__cast" op_name="xla__cast" source_file="/usr/local/lib/python3.10/site-packages/torch/_ops.py" source_line=756}
  %slice.268.5 = f32[64,1024]{1,0} slice(f32[64,20480]{1,0} %convert.968.80), slice={[0:64], [7168:8192]}, metadata={op_type="aten__mm" op_name="aten__mm" source_file="/usr/local/lib/python3.10/site-packages/torch/_ops.py" source_line=756}
  %param_1.685 = bf16[64,1024]{1,0} parameter(1)
  %convert.1142.3 = f32[64,1024]{1,0} convert(bf16[64,1024]{1,0} %param_1.685), metadata={op_type="xla__cast" op_name="xla__cast" source_file="/usr/local/lib/python3.10/site-packages/torch/_ops.py" source_line=756}
  %slice.269.9 = f32[64,1024]{1,0} slice(f32[64,20480]{1,0} %convert.968.80), slice={[0:64], [8192:9216]}, metadata={op_type="aten__mm" op_name="aten__mm" source_file="/usr/local/lib/python3.10/site-packages/torch/_ops.py" source_line=756}
  %param_6.55 = bf16[64,1024]{1,0} parameter(6)
  %convert.1126.7 = f32[64,1024]{1,0} convert(bf16[64,1024]{1,0} %param_6.55), metadata={op_type="xla__cast" op_name="xla__cast" source_file="/usr/local/lib/python3.10/site-packages/torch/_ops.py" source_line=756}
  %slice.270.13 = f32[64,1024]{1,0} slice(f32[64,20480]{1,0} %convert.968.80), slice={[0:64], [9216:10240]}, metadata={op_type="aten__mm" op_name="aten__mm" source_file="/usr/local/lib/python3.10/site-packages/torch/_ops.py" source_line=756}
  %param_5.65 = bf16[64,1024]{1,0} parameter(5)
  %convert.1111.11 = f32[64,1024]{1,0} convert(bf16[64,1024]{1,0} %param_5.65), metadata={op_type="xla__cast" op_name="xla__cast" source_file="/usr/local/lib/python3.10/site-packages/torch/_ops.py" source_line=756}
  %param_4.233 = f32[64,1024]{1,0} parameter(4)
  %add.297.11 = f32[64,1024]{1,0} add(f32[64,1024]{1,0} %convert.1111.11, f32[64,1024]{1,0} %param_4.233), metadata={op_type="aten__add" op_name="aten__add.1194/aten__add" source_file="/usr/local/lib/python3.10/site-packages/torch/_ops.py" source_line=756}
  %add.298.11 = f32[64,1024]{1,0} add(f32[64,1024]{1,0} %slice.270.13, f32[64,1024]{1,0} %add.297.11), metadata={op_type="aten__add" op_name="aten__add.1207/aten__add" source_file="/usr/local/lib/python3.10/site-packages/torch/_ops.py" source_line=756}
  %add.300.7 = f32[64,1024]{1,0} add(f32[64,1024]{1,0} %convert.1126.7, f32[64,1024]{1,0} %add.298.11), metadata={op_type="aten__add" op_name="aten__add.1212/aten__add" source_file="/usr/local/lib/python3.10/site-packages/torch/_ops.py" source_line=756}
  %add.301.7 = f32[64,1024]{1,0} add(f32[64,1024]{1,0} %slice.269.9, f32[64,1024]{1,0} %add.300.7), metadata={op_type="aten__add" op_name="aten__add.1225/aten__add" source_file="/usr/local/lib/python3.10/site-packages/torch/_ops.py" source_line=756}
  %add.303.3 = f32[64,1024]{1,0} add(f32[64,1024]{1,0} %convert.1142.3, f32[64,1024]{1,0} %add.301.7), metadata={op_type="aten__add" op_name="aten__add.1230/aten__add" source_file="/usr/local/lib/python3.10/site-packages/torch/_ops.py" source_line=756}
  %add.304.3 = f32[64,1024]{1,0} add(f32[64,1024]{1,0} %slice.268.5, f32[64,1024]{1,0} %add.303.3), metadata={op_type="aten__add" op_name="aten__add.1243/aten__add" source_file="/usr/local/lib/python3.10/site-packages/torch/_ops.py" source_line=756}
  %multiply.622 = f32[64,1024]{1,0} multiply(f32[64,1024]{1,0} %add.304.3, f32[64,1024]{1,0} %add.304.3), metadata={op_type="aten__pow" op_name="aten__pow" source_file="/usr/local/lib/python3.10/site-packages/torch/_ops.py" source_line=756}
  %constant_547 = f32[] constant(0), metadata={op_type="aten__mean" op_name="aten__mean" source_file="/usr/local/lib/python3.10/site-packages/torch/_ops.py" source_line=756}
  %reduce.69 = f32[64]{0} reduce(f32[64,1024]{1,0} %multiply.622, f32[] %constant_547), dimensions={1}, to_apply=%AddComputation.86, metadata={op_type="aten__mean" op_name="aten__mean" source_file="/usr/local/lib/python3.10/site-packages/torch/_ops.py" source_line=756}
  %constant_546 = f32[] constant(0.0009765625), metadata={op_type="aten__mean" op_name="aten__mean" source_file="/usr/local/lib/python3.10/site-packages/torch/_ops.py" source_line=756}
  %broadcast.704 = f32[64]{0} broadcast(f32[] %constant_546), dimensions={}, metadata={op_type="aten__mean" op_name="aten__mean" source_file="/usr/local/lib/python3.10/site-packages/torch/_ops.py" source_line=756}
  %multiply.621 = f32[64]{0} multiply(f32[64]{0} %reduce.69, f32[64]{0} %broadcast.704), metadata={op_type="aten__mean" op_name="aten__mean" source_file="/usr/local/lib/python3.10/site-packages/torch/_ops.py" source_line=756}
  %param_0.829 = f32[] parameter(0)
  %broadcast.703 = f32[64]{0} broadcast(f32[] %param_0.829), dimensions={}, metadata={op_type="aten__add" op_name="aten__add.1028/aten__add" source_file="/usr/local/lib/python3.10/site-packages/torch/_ops.py" source_line=756}
  %add.357 = f32[64]{0} add(f32[64]{0} %multiply.621, f32[64]{0} %broadcast.703), metadata={op_type="aten__add" op_name="aten__add.1244/aten__add" source_file="/usr/local/lib/python3.10/site-packages/torch/_ops.py" source_line=756}
  %rsqrt.136 = f32[64]{0} rsqrt(f32[64]{0} %add.357), metadata={op_type="aten__rsqrt" op_name="aten__rsqrt" source_file="/usr/local/lib/python3.10/site-packages/torch/_ops.py" source_line=756}
  %broadcast.702 = f32[64,1024]{1,0} broadcast(f32[64]{0} %rsqrt.136), dimensions={0}, metadata={op_type="aten__mul" op_name="aten__mul.1245/aten__mul" source_file="/usr/local/lib/python3.10/site-packages/torch/_ops.py" source_line=756}
  %multiply.620 = f32[64,1024]{1,0} multiply(f32[64,1024]{1,0} %add.304.3, f32[64,1024]{1,0} %broadcast.702), metadata={op_type="aten__mul" op_name="aten__mul.1245/aten__mul" source_file="/usr/local/lib/python3.10/site-packages/torch/_ops.py" source_line=756}
  %param_3.418 = bf16[1024]{0} parameter(3)
  %convert.1143.1 = f32[1024]{0} convert(bf16[1024]{0} %param_3.418), metadata={op_type="xla__cast" op_name="xla__cast" source_file="/usr/local/lib/python3.10/site-packages/torch/_ops.py" source_line=756}
  %broadcast.492.1 = f32[64,1024]{1,0} broadcast(f32[1024]{0} %convert.1143.1), dimensions={1}, metadata={op_type="aten__mul" op_name="aten__mul.1246/aten__mul" source_file="/usr/local/lib/python3.10/site-packages/torch/_ops.py" source_line=756}
  %multiply.503.1 = f32[64,1024]{1,0} multiply(f32[64,1024]{1,0} %multiply.620, f32[64,1024]{1,0} %broadcast.492.1), metadata={op_type="aten__mul" op_name="aten__mul.1246/aten__mul" source_file="/usr/local/lib/python3.10/site-packages/torch/_ops.py" source_line=756}
  ROOT %convert.1144.1 = bf16[64,1024]{1,0} convert(f32[64,1024]{1,0} %multiply.503.1), metadata={op_type="xla__cast" op_name="xla__cast" source_file="/usr/local/lib/python3.10/site-packages/torch/_ops.py" source_line=756}
}

%fused_convert.7 (param_0.604: bf16[64,6144]) -> bf16[64,3072] {
  %param_0.604 = bf16[64,6144]{1,0} parameter(0)
  %slice.305.1 = bf16[64,3072]{1,0} slice(bf16[64,6144]{1,0} %param_0.604), slice={[0:64], [0:3072]}, metadata={op_type="xla__select" op_name="xla__select" source_file="/usr/local/lib/python3.10/site-packages/torch/_ops.py" source_line=756}
  %convert.1145.6 = f32[64,3072]{1,0} convert(bf16[64,3072]{1,0} %slice.305.1)
  %constant_1_15 = bf16[] constant(1), metadata={op_type="xla__select" op_name="xla__select" source_file="/usr/local/lib/python3.10/site-packages/torch/_ops.py" source_line=756}
  %convert.1259.13 = f32[] convert(bf16[] %constant_1_15)
  %broadcast.525.112 = f32[64,3072]{1,0} broadcast(f32[] %convert.1259.13), dimensions={}, metadata={op_type="xla__select" op_name="xla__select" source_file="/usr/local/lib/python3.10/site-packages/torch/_ops.py" source_line=756}
  %negate.72.7 = f32[64,3072]{1,0} negate(f32[64,3072]{1,0} %convert.1145.6)
  %convert.1150.5 = bf16[64,3072]{1,0} convert(f32[64,3072]{1,0} %negate.72.7)
  %exponential.72.3 = bf16[64,3072]{1,0} exponential(bf16[64,3072]{1,0} %convert.1150.5)
  %convert.1151.1 = f32[64,3072]{1,0} convert(bf16[64,3072]{1,0} %exponential.72.3)
  %add.306.5 = f32[64,3072]{1,0} add(f32[64,3072]{1,0} %broadcast.525.112, f32[64,3072]{1,0} %convert.1151.1)
  %divide.72.3 = f32[64,3072]{1,0} divide(f32[64,3072]{1,0} %broadcast.525.112, f32[64,3072]{1,0} %add.306.5), metadata={op_type="aten__silu" op_name="aten__silu" source_file="/usr/local/lib/python3.10/site-packages/torch/_ops.py" source_line=756}
  %multiply.504.3 = f32[64,3072]{1,0} multiply(f32[64,3072]{1,0} %convert.1145.6, f32[64,3072]{1,0} %divide.72.3), metadata={op_type="aten__silu" op_name="aten__silu" source_file="/usr/local/lib/python3.10/site-packages/torch/_ops.py" source_line=756}
  %slice.306.1 = bf16[64,3072]{1,0} slice(bf16[64,6144]{1,0} %param_0.604), slice={[0:64], [3072:6144]}, metadata={op_type="xla__select" op_name="xla__select" source_file="/usr/local/lib/python3.10/site-packages/torch/_ops.py" source_line=756}
  %convert.1154.1 = f32[64,3072]{1,0} convert(bf16[64,3072]{1,0} %slice.306.1), metadata={op_type="xla__cast" op_name="xla__cast" source_file="/usr/local/lib/python3.10/site-packages/torch/_ops.py" source_line=756}
  %multiply.505.1 = f32[64,3072]{1,0} multiply(f32[64,3072]{1,0} %multiply.504.3, f32[64,3072]{1,0} %convert.1154.1), metadata={op_type="aten__mul" op_name="aten__mul.1247/aten__mul" source_file="/usr/local/lib/python3.10/site-packages/torch/_ops.py" source_line=756}
  ROOT %convert.1155.1 = bf16[64,3072]{1,0} convert(f32[64,3072]{1,0} %multiply.505.1), metadata={op_type="xla__cast" op_name="xla__cast" source_file="/usr/local/lib/python3.10/site-packages/torch/_ops.py" source_line=756}
}

%fused_add.2 (param_0.704: bf16[64,20480], param_1.607: bf16[64,1024], param_2.443: bf16[64,1024], param_3.416: f32[64,1024], param_4.231: bf16[64,1024], param_5.61: bf16[64,1024]) -> f32[64,1024] {
  %param_0.704 = bf16[64,20480]{1,0} parameter(0)
  %convert.968.48 = f32[64,20480]{1,0} convert(bf16[64,20480]{1,0} %param_0.704), metadata={op_type="xla__cast" op_name="xla__cast" source_file="/usr/local/lib/python3.10/site-packages/torch/_ops.py" source_line=756}
  %slice.267.3 = f32[64,1024]{1,0} slice(f32[64,20480]{1,0} %convert.968.48), slice={[0:64], [6144:7168]}, metadata={op_type="aten__mm" op_name="aten__mm" source_file="/usr/local/lib/python3.10/site-packages/torch/_ops.py" source_line=756}
  %param_1.607 = bf16[64,1024]{1,0} parameter(1)
  %convert.1156.1 = f32[64,1024]{1,0} convert(bf16[64,1024]{1,0} %param_1.607), metadata={op_type="xla__cast" op_name="xla__cast" source_file="/usr/local/lib/python3.10/site-packages/torch/_ops.py" source_line=756}
  %slice.268.7 = f32[64,1024]{1,0} slice(f32[64,20480]{1,0} %convert.968.48), slice={[0:64], [7168:8192]}, metadata={op_type="aten__mm" op_name="aten__mm" source_file="/usr/local/lib/python3.10/site-packages/torch/_ops.py" source_line=756}
  %param_2.443 = bf16[64,1024]{1,0} parameter(2)
  %convert.1142.5 = f32[64,1024]{1,0} convert(bf16[64,1024]{1,0} %param_2.443), metadata={op_type="xla__cast" op_name="xla__cast" source_file="/usr/local/lib/python3.10/site-packages/torch/_ops.py" source_line=756}
  %slice.269.7 = f32[64,1024]{1,0} slice(f32[64,20480]{1,0} %convert.968.48), slice={[0:64], [8192:9216]}, metadata={op_type="aten__mm" op_name="aten__mm" source_file="/usr/local/lib/python3.10/site-packages/torch/_ops.py" source_line=756}
  %param_5.61 = bf16[64,1024]{1,0} parameter(5)
  %convert.1126.5 = f32[64,1024]{1,0} convert(bf16[64,1024]{1,0} %param_5.61), metadata={op_type="xla__cast" op_name="xla__cast" source_file="/usr/local/lib/python3.10/site-packages/torch/_ops.py" source_line=756}
  %slice.270.11 = f32[64,1024]{1,0} slice(f32[64,20480]{1,0} %convert.968.48), slice={[0:64], [9216:10240]}, metadata={op_type="aten__mm" op_name="aten__mm" source_file="/usr/local/lib/python3.10/site-packages/torch/_ops.py" source_line=756}
  %param_4.231 = bf16[64,1024]{1,0} parameter(4)
  %convert.1111.9 = f32[64,1024]{1,0} convert(bf16[64,1024]{1,0} %param_4.231), metadata={op_type="xla__cast" op_name="xla__cast" source_file="/usr/local/lib/python3.10/site-packages/torch/_ops.py" source_line=756}
  %param_3.416 = f32[64,1024]{1,0} parameter(3)
  %add.297.9 = f32[64,1024]{1,0} add(f32[64,1024]{1,0} %convert.1111.9, f32[64,1024]{1,0} %param_3.416), metadata={op_type="aten__add" op_name="aten__add.1194/aten__add" source_file="/usr/local/lib/python3.10/site-packages/torch/_ops.py" source_line=756}
  %add.298.9 = f32[64,1024]{1,0} add(f32[64,1024]{1,0} %slice.270.11, f32[64,1024]{1,0} %add.297.9), metadata={op_type="aten__add" op_name="aten__add.1207/aten__add" source_file="/usr/local/lib/python3.10/site-packages/torch/_ops.py" source_line=756}
  %add.300.5 = f32[64,1024]{1,0} add(f32[64,1024]{1,0} %convert.1126.5, f32[64,1024]{1,0} %add.298.9), metadata={op_type="aten__add" op_name="aten__add.1212/aten__add" source_file="/usr/local/lib/python3.10/site-packages/torch/_ops.py" source_line=756}
  %add.301.5 = f32[64,1024]{1,0} add(f32[64,1024]{1,0} %slice.269.7, f32[64,1024]{1,0} %add.300.5), metadata={op_type="aten__add" op_name="aten__add.1225/aten__add" source_file="/usr/local/lib/python3.10/site-packages/torch/_ops.py" source_line=756}
  %add.303.5 = f32[64,1024]{1,0} add(f32[64,1024]{1,0} %convert.1142.5, f32[64,1024]{1,0} %add.301.5), metadata={op_type="aten__add" op_name="aten__add.1230/aten__add" source_file="/usr/local/lib/python3.10/site-packages/torch/_ops.py" source_line=756}
  %add.304.5 = f32[64,1024]{1,0} add(f32[64,1024]{1,0} %slice.268.7, f32[64,1024]{1,0} %add.303.5), metadata={op_type="aten__add" op_name="aten__add.1243/aten__add" source_file="/usr/local/lib/python3.10/site-packages/torch/_ops.py" source_line=756}
  %add.307.1 = f32[64,1024]{1,0} add(f32[64,1024]{1,0} %convert.1156.1, f32[64,1024]{1,0} %add.304.5), metadata={op_type="aten__add" op_name="aten__add.1248/aten__add" source_file="/usr/local/lib/python3.10/site-packages/torch/_ops.py" source_line=756}
  ROOT %add.308.1 = f32[64,1024]{1,0} add(f32[64,1024]{1,0} %slice.267.3, f32[64,1024]{1,0} %add.307.1), metadata={op_type="aten__add" op_name="aten__add.1261/aten__add" source_file="/usr/local/lib/python3.10/site-packages/torch/_ops.py" source_line=756}
}

%fused_computation.197 (param_0.828: f32[64,1024], param_1.649: f32[], param_2.402: bf16[1024]) -> bf16[64,1024] {
  %param_0.828 = f32[64,1024]{1,0} parameter(0)
  %multiply.631 = f32[64,1024]{1,0} multiply(f32[64,1024]{1,0} %param_0.828, f32[64,1024]{1,0} %param_0.828), metadata={op_type="aten__pow" op_name="aten__pow" source_file="/usr/local/lib/python3.10/site-packages/torch/_ops.py" source_line=756}
  %constant_552 = f32[] constant(0), metadata={op_type="aten__mean" op_name="aten__mean" source_file="/usr/local/lib/python3.10/site-packages/torch/_ops.py" source_line=756}
  %reduce.71 = f32[64]{0} reduce(f32[64,1024]{1,0} %multiply.631, f32[] %constant_552), dimensions={1}, to_apply=%AddComputation.86, metadata={op_type="aten__mean" op_name="aten__mean" source_file="/usr/local/lib/python3.10/site-packages/torch/_ops.py" source_line=756}
  %constant_551 = f32[] constant(0.0009765625), metadata={op_type="aten__mean" op_name="aten__mean" source_file="/usr/local/lib/python3.10/site-packages/torch/_ops.py" source_line=756}
  %broadcast.711 = f32[64]{0} broadcast(f32[] %constant_551), dimensions={}, metadata={op_type="aten__mean" op_name="aten__mean" source_file="/usr/local/lib/python3.10/site-packages/torch/_ops.py" source_line=756}
  %multiply.629 = f32[64]{0} multiply(f32[64]{0} %reduce.71, f32[64]{0} %broadcast.711), metadata={op_type="aten__mean" op_name="aten__mean" source_file="/usr/local/lib/python3.10/site-packages/torch/_ops.py" source_line=756}
  %param_1.649 = f32[] parameter(1)
  %broadcast.709 = f32[64]{0} broadcast(f32[] %param_1.649), dimensions={}, metadata={op_type="aten__add" op_name="aten__add.1028/aten__add" source_file="/usr/local/lib/python3.10/site-packages/torch/_ops.py" source_line=756}
  %add.360 = f32[64]{0} add(f32[64]{0} %multiply.629, f32[64]{0} %broadcast.709), metadata={op_type="aten__add" op_name="aten__add.1262/aten__add" source_file="/usr/local/lib/python3.10/site-packages/torch/_ops.py" source_line=756}
  %rsqrt.138 = f32[64]{0} rsqrt(f32[64]{0} %add.360), metadata={op_type="aten__rsqrt" op_name="aten__rsqrt" source_file="/usr/local/lib/python3.10/site-packages/torch/_ops.py" source_line=756}
  %broadcast.708 = f32[64,1024]{1,0} broadcast(f32[64]{0} %rsqrt.138), dimensions={0}, metadata={op_type="aten__mul" op_name="aten__mul.1263/aten__mul" source_file="/usr/local/lib/python3.10/site-packages/torch/_ops.py" source_line=756}
  %multiply.628 = f32[64,1024]{1,0} multiply(f32[64,1024]{1,0} %param_0.828, f32[64,1024]{1,0} %broadcast.708), metadata={op_type="aten__mul" op_name="aten__mul.1263/aten__mul" source_file="/usr/local/lib/python3.10/site-packages/torch/_ops.py" source_line=756}
  %param_2.402 = bf16[1024]{0} parameter(2)
  %convert.1157.1 = f32[1024]{0} convert(bf16[1024]{0} %param_2.402), metadata={op_type="xla__cast" op_name="xla__cast" source_file="/usr/local/lib/python3.10/site-packages/torch/_ops.py" source_line=756}
  %broadcast.497.1 = f32[64,1024]{1,0} broadcast(f32[1024]{0} %convert.1157.1), dimensions={1}, metadata={op_type="aten__mul" op_name="aten__mul.1264/aten__mul" source_file="/usr/local/lib/python3.10/site-packages/torch/_ops.py" source_line=756}
  %multiply.506.1 = f32[64,1024]{1,0} multiply(f32[64,1024]{1,0} %multiply.628, f32[64,1024]{1,0} %broadcast.497.1), metadata={op_type="aten__mul" op_name="aten__mul.1264/aten__mul" source_file="/usr/local/lib/python3.10/site-packages/torch/_ops.py" source_line=756}
  ROOT %convert.1158.1 = bf16[64,1024]{1,0} convert(f32[64,1024]{1,0} %multiply.506.1), metadata={op_type="xla__cast" op_name="xla__cast" source_file="/usr/local/lib/python3.10/site-packages/torch/_ops.py" source_line=756}
}

%fused_convert.6 (param_0.608: bf16[64,6144]) -> bf16[64,3072] {
  %param_0.608 = bf16[64,6144]{1,0} parameter(0)
  %slice.307.1 = bf16[64,3072]{1,0} slice(bf16[64,6144]{1,0} %param_0.608), slice={[0:64], [0:3072]}, metadata={op_type="xla__select" op_name="xla__select" source_file="/usr/local/lib/python3.10/site-packages/torch/_ops.py" source_line=756}
  %convert.1160.6 = f32[64,3072]{1,0} convert(bf16[64,3072]{1,0} %slice.307.1)
  %constant_1_19 = bf16[] constant(1), metadata={op_type="xla__select" op_name="xla__select" source_file="/usr/local/lib/python3.10/site-packages/torch/_ops.py" source_line=756}
  %convert.1259.17 = f32[] convert(bf16[] %constant_1_19)
  %broadcast.525.108 = f32[64,3072]{1,0} broadcast(f32[] %convert.1259.17), dimensions={}, metadata={op_type="xla__select" op_name="xla__select" source_file="/usr/local/lib/python3.10/site-packages/torch/_ops.py" source_line=756}
  %negate.73.7 = f32[64,3072]{1,0} negate(f32[64,3072]{1,0} %convert.1160.6)
  %convert.1164.5 = bf16[64,3072]{1,0} convert(f32[64,3072]{1,0} %negate.73.7)
  %exponential.73.3 = bf16[64,3072]{1,0} exponential(bf16[64,3072]{1,0} %convert.1164.5)
  %convert.1165.1 = f32[64,3072]{1,0} convert(bf16[64,3072]{1,0} %exponential.73.3)
  %add.309.5 = f32[64,3072]{1,0} add(f32[64,3072]{1,0} %broadcast.525.108, f32[64,3072]{1,0} %convert.1165.1)
  %divide.73.3 = f32[64,3072]{1,0} divide(f32[64,3072]{1,0} %broadcast.525.108, f32[64,3072]{1,0} %add.309.5), metadata={op_type="aten__silu" op_name="aten__silu" source_file="/usr/local/lib/python3.10/site-packages/torch/_ops.py" source_line=756}
  %multiply.507.3 = f32[64,3072]{1,0} multiply(f32[64,3072]{1,0} %convert.1160.6, f32[64,3072]{1,0} %divide.73.3), metadata={op_type="aten__silu" op_name="aten__silu" source_file="/usr/local/lib/python3.10/site-packages/torch/_ops.py" source_line=756}
  %slice.308.1 = bf16[64,3072]{1,0} slice(bf16[64,6144]{1,0} %param_0.608), slice={[0:64], [3072:6144]}, metadata={op_type="xla__select" op_name="xla__select" source_file="/usr/local/lib/python3.10/site-packages/torch/_ops.py" source_line=756}
  %convert.1166.1 = f32[64,3072]{1,0} convert(bf16[64,3072]{1,0} %slice.308.1), metadata={op_type="xla__cast" op_name="xla__cast" source_file="/usr/local/lib/python3.10/site-packages/torch/_ops.py" source_line=756}
  %multiply.508.1 = f32[64,3072]{1,0} multiply(f32[64,3072]{1,0} %multiply.507.3, f32[64,3072]{1,0} %convert.1166.1), metadata={op_type="aten__mul" op_name="aten__mul.1265/aten__mul" source_file="/usr/local/lib/python3.10/site-packages/torch/_ops.py" source_line=756}
  ROOT %convert.1167.1 = bf16[64,3072]{1,0} convert(f32[64,3072]{1,0} %multiply.508.1), metadata={op_type="xla__cast" op_name="xla__cast" source_file="/usr/local/lib/python3.10/site-packages/torch/_ops.py" source_line=756}
}

%fused_computation.196 (param_0.827: f32[], param_1.648: f32[64,1024], param_2.401: bf16[64,1024], param_3.368: bf16[64,20480], param_4.185: bf16[1024]) -> bf16[64,1024] {
  %param_3.368 = bf16[64,20480]{1,0} parameter(3)
  %convert.968.76 = f32[64,20480]{1,0} convert(bf16[64,20480]{1,0} %param_3.368), metadata={op_type="xla__cast" op_name="xla__cast" source_file="/usr/local/lib/python3.10/site-packages/torch/_ops.py" source_line=756}
  %slice.266.5 = f32[64,1024]{1,0} slice(f32[64,20480]{1,0} %convert.968.76), slice={[0:64], [5120:6144]}, metadata={op_type="aten__mm" op_name="aten__mm" source_file="/usr/local/lib/python3.10/site-packages/torch/_ops.py" source_line=756}
  %param_2.401 = bf16[64,1024]{1,0} parameter(2)
  %convert.1168.3 = f32[64,1024]{1,0} convert(bf16[64,1024]{1,0} %param_2.401), metadata={op_type="xla__cast" op_name="xla__cast" source_file="/usr/local/lib/python3.10/site-packages/torch/_ops.py" source_line=756}
  %param_1.648 = f32[64,1024]{1,0} parameter(1)
  %add.310.3 = f32[64,1024]{1,0} add(f32[64,1024]{1,0} %convert.1168.3, f32[64,1024]{1,0} %param_1.648), metadata={op_type="aten__add" op_name="aten__add.1266/aten__add" source_file="/usr/local/lib/python3.10/site-packages/torch/_ops.py" source_line=756}
  %add.311.3 = f32[64,1024]{1,0} add(f32[64,1024]{1,0} %slice.266.5, f32[64,1024]{1,0} %add.310.3), metadata={op_type="aten__add" op_name="aten__add.1279/aten__add" source_file="/usr/local/lib/python3.10/site-packages/torch/_ops.py" source_line=756}
  %multiply.637 = f32[64,1024]{1,0} multiply(f32[64,1024]{1,0} %add.311.3, f32[64,1024]{1,0} %add.311.3), metadata={op_type="aten__pow" op_name="aten__pow" source_file="/usr/local/lib/python3.10/site-packages/torch/_ops.py" source_line=756}
  %constant_557 = f32[] constant(0), metadata={op_type="aten__mean" op_name="aten__mean" source_file="/usr/local/lib/python3.10/site-packages/torch/_ops.py" source_line=756}
  %reduce.73 = f32[64]{0} reduce(f32[64,1024]{1,0} %multiply.637, f32[] %constant_557), dimensions={1}, to_apply=%AddComputation.86, metadata={op_type="aten__mean" op_name="aten__mean" source_file="/usr/local/lib/python3.10/site-packages/torch/_ops.py" source_line=756}
  %constant_556 = f32[] constant(0.0009765625), metadata={op_type="aten__mean" op_name="aten__mean" source_file="/usr/local/lib/python3.10/site-packages/torch/_ops.py" source_line=756}
  %broadcast.719 = f32[64]{0} broadcast(f32[] %constant_556), dimensions={}, metadata={op_type="aten__mean" op_name="aten__mean" source_file="/usr/local/lib/python3.10/site-packages/torch/_ops.py" source_line=756}
  %multiply.636 = f32[64]{0} multiply(f32[64]{0} %reduce.73, f32[64]{0} %broadcast.719), metadata={op_type="aten__mean" op_name="aten__mean" source_file="/usr/local/lib/python3.10/site-packages/torch/_ops.py" source_line=756}
  %param_0.827 = f32[] parameter(0)
  %broadcast.718 = f32[64]{0} broadcast(f32[] %param_0.827), dimensions={}, metadata={op_type="aten__add" op_name="aten__add.1028/aten__add" source_file="/usr/local/lib/python3.10/site-packages/torch/_ops.py" source_line=756}
  %add.362 = f32[64]{0} add(f32[64]{0} %multiply.636, f32[64]{0} %broadcast.718), metadata={op_type="aten__add" op_name="aten__add.1280/aten__add" source_file="/usr/local/lib/python3.10/site-packages/torch/_ops.py" source_line=756}
  %rsqrt.140 = f32[64]{0} rsqrt(f32[64]{0} %add.362), metadata={op_type="aten__rsqrt" op_name="aten__rsqrt" source_file="/usr/local/lib/python3.10/site-packages/torch/_ops.py" source_line=756}
  %broadcast.716 = f32[64,1024]{1,0} broadcast(f32[64]{0} %rsqrt.140), dimensions={0}, metadata={op_type="aten__mul" op_name="aten__mul.1281/aten__mul" source_file="/usr/local/lib/python3.10/site-packages/torch/_ops.py" source_line=756}
  %multiply.635 = f32[64,1024]{1,0} multiply(f32[64,1024]{1,0} %add.311.3, f32[64,1024]{1,0} %broadcast.716), metadata={op_type="aten__mul" op_name="aten__mul.1281/aten__mul" source_file="/usr/local/lib/python3.10/site-packages/torch/_ops.py" source_line=756}
  %param_4.185 = bf16[1024]{0} parameter(4)
  %convert.1169.1 = f32[1024]{0} convert(bf16[1024]{0} %param_4.185), metadata={op_type="xla__cast" op_name="xla__cast" source_file="/usr/local/lib/python3.10/site-packages/torch/_ops.py" source_line=756}
  %broadcast.500.1 = f32[64,1024]{1,0} broadcast(f32[1024]{0} %convert.1169.1), dimensions={1}, metadata={op_type="aten__mul" op_name="aten__mul.1282/aten__mul" source_file="/usr/local/lib/python3.10/site-packages/torch/_ops.py" source_line=756}
  %multiply.509.1 = f32[64,1024]{1,0} multiply(f32[64,1024]{1,0} %multiply.635, f32[64,1024]{1,0} %broadcast.500.1), metadata={op_type="aten__mul" op_name="aten__mul.1282/aten__mul" source_file="/usr/local/lib/python3.10/site-packages/torch/_ops.py" source_line=756}
  ROOT %convert.1170.1 = bf16[64,1024]{1,0} convert(f32[64,1024]{1,0} %multiply.509.1), metadata={op_type="xla__cast" op_name="xla__cast" source_file="/usr/local/lib/python3.10/site-packages/torch/_ops.py" source_line=756}
}

%fused_convert.5 (param_0.594: bf16[64,6144]) -> bf16[64,3072] {
  %param_0.594 = bf16[64,6144]{1,0} parameter(0)
  %slice.309.1 = bf16[64,3072]{1,0} slice(bf16[64,6144]{1,0} %param_0.594), slice={[0:64], [0:3072]}, metadata={op_type="xla__select" op_name="xla__select" source_file="/usr/local/lib/python3.10/site-packages/torch/_ops.py" source_line=756}
  %convert.1171.6 = f32[64,3072]{1,0} convert(bf16[64,3072]{1,0} %slice.309.1)
  %constant_1_5 = bf16[] constant(1), metadata={op_type="xla__select" op_name="xla__select" source_file="/usr/local/lib/python3.10/site-packages/torch/_ops.py" source_line=756}
  %convert.1259.3 = f32[] convert(bf16[] %constant_1_5)
  %broadcast.525.104 = f32[64,3072]{1,0} broadcast(f32[] %convert.1259.3), dimensions={}, metadata={op_type="xla__select" op_name="xla__select" source_file="/usr/local/lib/python3.10/site-packages/torch/_ops.py" source_line=756}
  %negate.74.7 = f32[64,3072]{1,0} negate(f32[64,3072]{1,0} %convert.1171.6)
  %convert.1176.5 = bf16[64,3072]{1,0} convert(f32[64,3072]{1,0} %negate.74.7)
  %exponential.74.3 = bf16[64,3072]{1,0} exponential(bf16[64,3072]{1,0} %convert.1176.5)
  %convert.1177.1 = f32[64,3072]{1,0} convert(bf16[64,3072]{1,0} %exponential.74.3)
  %add.312.5 = f32[64,3072]{1,0} add(f32[64,3072]{1,0} %broadcast.525.104, f32[64,3072]{1,0} %convert.1177.1)
  %divide.74.3 = f32[64,3072]{1,0} divide(f32[64,3072]{1,0} %broadcast.525.104, f32[64,3072]{1,0} %add.312.5), metadata={op_type="aten__silu" op_name="aten__silu" source_file="/usr/local/lib/python3.10/site-packages/torch/_ops.py" source_line=756}
  %multiply.510.3 = f32[64,3072]{1,0} multiply(f32[64,3072]{1,0} %convert.1171.6, f32[64,3072]{1,0} %divide.74.3), metadata={op_type="aten__silu" op_name="aten__silu" source_file="/usr/local/lib/python3.10/site-packages/torch/_ops.py" source_line=756}
  %slice.310.1 = bf16[64,3072]{1,0} slice(bf16[64,6144]{1,0} %param_0.594), slice={[0:64], [3072:6144]}, metadata={op_type="xla__select" op_name="xla__select" source_file="/usr/local/lib/python3.10/site-packages/torch/_ops.py" source_line=756}
  %convert.1178.1 = f32[64,3072]{1,0} convert(bf16[64,3072]{1,0} %slice.310.1), metadata={op_type="xla__cast" op_name="xla__cast" source_file="/usr/local/lib/python3.10/site-packages/torch/_ops.py" source_line=756}
…
ad_x":false,"grad_y":false},"force_earliest_schedule":false}
  %get-tuple-element.27.0 = bf16[64,1024]{1,0} get-tuple-element((bf16[64,1024]{1,0}, s8[4194304]{0}) %custom-call.68.0), index=0, metadata={op_type="aten__mm" op_name="aten__mm" source_file="/usr/local/lib/python3.10/site-packages/torch/_ops.py" source_line=756}
  %fusion.241 = bf16[64,1024]{1,0} fusion(f32[] %p.22, f32[64,1024]{1,0} %loop_add_fusion.2, bf16[64,1024]{1,0} %get-tuple-element.27.0, bf16[64,20480]{1,0} %gemm_fusion_dot.80.0, bf16[1024]{0} %p.65), kind=kCustom, calls=%fused_computation.196, metadata={op_type="xla__cast" op_name="xla__cast" source_file="/usr/local/lib/python3.10/site-packages/torch/_ops.py" source_line=756}, backend_config={"operation_queue_id":"0","wait_on_operation_queues":[],"fusion_backend_config":{"kind":"__triton","block_level_fusion_config":{"output_tiles":[{"sizes":["1","1024"]}],"num_warps":"2"}},"force_earliest_schedule":false}
  %custom-call.69.0 = (bf16[64,6144]{1,0}, s8[4194304]{0}) custom-call(bf16[64,1024]{1,0} %fusion.241, bf16[6144,1024]{1,0} %p.66), custom_call_target="__cublas$gemm", metadata={op_type="aten__mm" op_name="aten__mm" source_file="/usr/local/lib/python3.10/site-packages/torch/_ops.py" source_line=756}, backend_config={"operation_queue_id":"0","wait_on_operation_queues":[],"gemm_backend_config":{"alpha_real":1,"alpha_imag":0,"beta":0,"dot_dimension_numbers":{"lhs_contracting_dimensions":["1"],"rhs_contracting_dimensions":["1"],"lhs_batch_dimensions":[],"rhs_batch_dimensions":[]},"precision_config":{"operand_precision":["DEFAULT","DEFAULT"],"algorithm":"ALG_UNSET"},"epilogue":"DEFAULT","damax_output":false,"lhs_stride":"65536","rhs_stride":"6291456","grad_x":false,"grad_y":false},"force_earliest_schedule":false}
  %get-tuple-element.28.0 = bf16[64,6144]{1,0} get-tuple-element((bf16[64,6144]{1,0}, s8[4194304]{0}) %custom-call.69.0), index=0, metadata={op_type="aten__mm" op_name="aten__mm" source_file="/usr/local/lib/python3.10/site-packages/torch/_ops.py" source_line=756}
  %loop_convert_fusion.5 = bf16[64,3072]{1,0} fusion(bf16[64,6144]{1,0} %get-tuple-element.28.0), kind=kLoop, calls=%fused_convert.5, metadata={op_type="xla__cast" op_name="xla__cast" source_file="/usr/local/lib/python3.10/site-packages/torch/_ops.py" source_line=756 deduplicated_name="loop_convert_fusion"}
  %custom-call.70.0 = (bf16[64,1024]{1,0}, s8[4194304]{0}) custom-call(bf16[64,3072]{1,0} %loop_convert_fusion.5, bf16[1024,3072]{1,0} %p.67), custom_call_target="__cublas$gemm", metadata={op_type="aten__mm" op_name="aten__mm" source_file="/usr/local/lib/python3.10/site-packages/torch/_ops.py" source_line=756}, backend_config={"operation_queue_id":"0","wait_on_operation_queues":[],"gemm_backend_config":{"alpha_real":1,"alpha_imag":0,"beta":0,"dot_dimension_numbers":{"lhs_contracting_dimensions":["1"],"rhs_contracting_dimensions":["1"],"lhs_batch_dimensions":[],"rhs_batch_dimensions":[]},"precision_config":{"operand_precision":["DEFAULT","DEFAULT"],"algorithm":"ALG_UNSET"},"epilogue":"DEFAULT","damax_output":false,"lhs_stride":"196608","rhs_stride":"3145728","grad_x":false,"grad_y":false},"force_earliest_schedule":false}
  %get-tuple-element.29.0 = bf16[64,1024]{1,0} get-tuple-element((bf16[64,1024]{1,0}, s8[4194304]{0}) %custom-call.70.0), index=0, metadata={op_type="aten__mm" op_name="aten__mm" source_file="/usr/local/lib/python3.10/site-packages/torch/_ops.py" source_line=756}
  %fusion.240 = bf16[64,1024]{1,0} fusion(f32[] %p.22, bf16[1024]{0} %p.68, f32[64,1024]{1,0} %loop_add_fusion.2, bf16[64,1024]{1,0} %get-tuple-element.27.0, bf16[64,20480]{1,0} %gemm_fusion_dot.80.0, /*index=5*/bf16[64,1024]{1,0} %get-tuple-element.29.0), kind=kCustom, calls=%fused_computation.195, metadata={op_type="xla__cast" op_name="xla__cast" source_file="/usr/local/lib/python3.10/site-packages/torch/_ops.py" source_line=756}, backend_config={"operation_queue_id":"0","wait_on_operation_queues":[],"fusion_backend_config":{"kind":"__triton","block_level_fusion_config":{"output_tiles":[{"sizes":["1","1024"]}],"num_warps":"2"}},"force_earliest_schedule":false}
  %custom-call.71.0 = (bf16[64,6144]{1,0}, s8[4194304]{0}) custom-call(bf16[64,1024]{1,0} %fusion.240, bf16[6144,1024]{1,0} %p.69), custom_call_target="__cublas$gemm", metadata={op_type="aten__mm" op_name="aten__mm" source_file="/usr/local/lib/python3.10/site-packages/torch/_ops.py" source_line=756}, backend_config={"operation_queue_id":"0","wait_on_operation_queues":[],"gemm_backend_config":{"alpha_real":1,"alpha_imag":0,"beta":0,"dot_dimension_numbers":{"lhs_contracting_dimensions":["1"],"rhs_contracting_dimensions":["1"],"lhs_batch_dimensions":[],"rhs_batch_dimensions":[]},"precision_config":{"operand_precision":["DEFAULT","DEFAULT"],"algorithm":"ALG_UNSET"},"epilogue":"DEFAULT","damax_output":false,"lhs_stride":"65536","rhs_stride":"6291456","grad_x":false,"grad_y":false},"force_earliest_schedule":false}
  %get-tuple-element.30.0 = bf16[64,6144]{1,0} get-tuple-element((bf16[64,6144]{1,0}, s8[4194304]{0}) %custom-call.71.0), index=0, metadata={op_type="aten__mm" op_name="aten__mm" source_file="/usr/local/lib/python3.10/site-packages/torch/_ops.py" source_line=756}
  %loop_convert_fusion.4 = bf16[64,3072]{1,0} fusion(bf16[64,6144]{1,0} %get-tuple-element.30.0), kind=kLoop, calls=%fused_convert.4, metadata={op_type="xla__cast" op_name="xla__cast" source_file="/usr/local/lib/python3.10/site-packages/torch/_ops.py" source_line=756 deduplicated_name="loop_convert_fusion"}
  %custom-call.72.0 = (bf16[64,1024]{1,0}, s8[4194304]{0}) custom-call(bf16[64,3072]{1,0} %loop_convert_fusion.4, bf16[1024,3072]{1,0} %p.70), custom_call_target="__cublas$gemm", metadata={op_type="aten__mm" op_name="aten__mm" source_file="/usr/local/lib/python3.10/site-packages/torch/_ops.py" source_line=756}, backend_config={"operation_queue_id":"0","wait_on_operation_queues":[],"gemm_backend_config":{"alpha_real":1,"alpha_imag":0,"beta":0,"dot_dimension_numbers":{"lhs_contracting_dimensions":["1"],"rhs_contracting_dimensions":["1"],"lhs_batch_dimensions":[],"rhs_batch_dimensions":[]},"precision_config":{"operand_precision":["DEFAULT","DEFAULT"],"algorithm":"ALG_UNSET"},"epilogue":"DEFAULT","damax_output":false,"lhs_stride":"196608","rhs_stride":"3145728","grad_x":false,"grad_y":false},"force_earliest_schedule":false}
  %get-tuple-element.31.0 = bf16[64,1024]{1,0} get-tuple-element((bf16[64,1024]{1,0}, s8[4194304]{0}) %custom-call.72.0), index=0, metadata={op_type="aten__mm" op_name="aten__mm" source_file="/usr/local/lib/python3.10/site-packages/torch/_ops.py" source_line=756}
  %fusion.239 = bf16[64,1024]{1,0} fusion(f32[] %p.22, bf16[64,1024]{1,0} %get-tuple-element.31.0, bf16[64,20480]{1,0} %gemm_fusion_dot.80.0, bf16[1024]{0} %p.71, f32[64,1024]{1,0} %loop_add_fusion.2, /*index=5*/bf16[64,1024]{1,0} %get-tuple-element.27.0, bf16[64,1024]{1,0} %get-tuple-element.29.0), kind=kCustom, calls=%fused_computation.194, metadata={op_type="xla__cast" op_name="xla__cast" source_file="/usr/local/lib/python3.10/site-packages/torch/_ops.py" source_line=756}, backend_config={"operation_queue_id":"0","wait_on_operation_queues":[],"fusion_backend_config":{"kind":"__triton","block_level_fusion_config":{"output_tiles":[{"sizes":["1","1024"]}],"num_warps":"2"}},"force_earliest_schedule":false}
  %custom-call.73.0 = (bf16[64,6144]{1,0}, s8[4194304]{0}) custom-call(bf16[64,1024]{1,0} %fusion.239, bf16[6144,1024]{1,0} %p.72), custom_call_target="__cublas$gemm", metadata={op_type="aten__mm" op_name="aten__mm" source_file="/usr/local/lib/python3.10/site-packages/torch/_ops.py" source_line=756}, backend_config={"operation_queue_id":"0","wait_on_operation_queues":[],"gemm_backend_config":{"alpha_real":1,"alpha_imag":0,"beta":0,"dot_dimension_numbers":{"lhs_contracting_dimensions":["1"],"rhs_contracting_dimensions":["1"],"lhs_batch_dimensions":[],"rhs_batch_dimensions":[]},"precision_config":{"operand_precision":["DEFAULT","DEFAULT"],"algorithm":"ALG_UNSET"},"epilogue":"DEFAULT","damax_output":false,"lhs_stride":"65536","rhs_stride":"6291456","grad_x":false,"grad_y":false},"force_earliest_schedule":false}
  %get-tuple-element.32.0 = bf16[64,6144]{1,0} get-tuple-element((bf16[64,6144]{1,0}, s8[4194304]{0}) %custom-call.73.0), index=0, metadata={op_type="aten__mm" op_name="aten__mm" source_file="/usr/local/lib/python3.10/site-packages/torch/_ops.py" source_line=756}
  %loop_convert_fusion.3 = bf16[64,3072]{1,0} fusion(bf16[64,6144]{1,0} %get-tuple-element.32.0), kind=kLoop, calls=%fused_convert.3, metadata={op_type="xla__cast" op_name="xla__cast" source_file="/usr/local/lib/python3.10/site-packages/torch/_ops.py" source_line=756 deduplicated_name="loop_convert_fusion"}
  %custom-call.74.0 = (bf16[64,1024]{1,0}, s8[4194304]{0}) custom-call(bf16[64,3072]{1,0} %loop_convert_fusion.3, bf16[1024,3072]{1,0} %p.73), custom_call_target="__cublas$gemm", metadata={op_type="aten__mm" op_name="aten__mm" source_file="/usr/local/lib/python3.10/site-packages/torch/_ops.py" source_line=756}, backend_config={"operation_queue_id":"0","wait_on_operation_queues":[],"gemm_backend_config":{"alpha_real":1,"alpha_imag":0,"beta":0,"dot_dimension_numbers":{"lhs_contracting_dimensions":["1"],"rhs_contracting_dimensions":["1"],"lhs_batch_dimensions":[],"rhs_batch_dimensions":[]},"precision_config":{"operand_precision":["DEFAULT","DEFAULT"],"algorithm":"ALG_UNSET"},"epilogue":"DEFAULT","damax_output":false,"lhs_stride":"196608","rhs_stride":"3145728","grad_x":false,"grad_y":false},"force_earliest_schedule":false}
  %get-tuple-element.33.0 = bf16[64,1024]{1,0} get-tuple-element((bf16[64,1024]{1,0}, s8[4194304]{0}) %custom-call.74.0), index=0, metadata={op_type="aten__mm" op_name="aten__mm" source_file="/usr/local/lib/python3.10/site-packages/torch/_ops.py" source_line=756}
  %loop_add_fusion.3 = f32[64,1024]{1,0} fusion(bf16[64,20480]{1,0} %gemm_fusion_dot.80.0, bf16[64,1024]{1,0} %get-tuple-element.33.0, bf16[64,1024]{1,0} %get-tuple-element.31.0, f32[64,1024]{1,0} %loop_add_fusion.2, bf16[64,1024]{1,0} %get-tuple-element.27.0, /*index=5*/bf16[64,1024]{1,0} %get-tuple-element.29.0), kind=kLoop, calls=%fused_add.3, metadata={op_type="aten__add" op_name="aten__add.1333/aten__add" source_file="/usr/local/lib/python3.10/site-packages/torch/_ops.py" source_line=756}
  %fusion.238 = bf16[64,1024]{1,0} fusion(f32[64,1024]{1,0} %loop_add_fusion.3, f32[] %p.22, bf16[1024]{0} %p.74), kind=kCustom, calls=%fused_computation.193, metadata={op_type="xla__cast" op_name="xla__cast" source_file="/usr/local/lib/python3.10/site-packages/torch/_ops.py" source_line=756 deduplicated_name="fusion.238"}, backend_config={"operation_queue_id":"0","wait_on_operation_queues":[],"fusion_backend_config":{"kind":"__triton","block_level_fusion_config":{"output_tiles":[{"sizes":["1","1024"]}],"num_warps":"2"}},"force_earliest_schedule":false}
  %custom-call.75.0 = (bf16[64,6144]{1,0}, s8[4194304]{0}) custom-call(bf16[64,1024]{1,0} %fusion.238, bf16[6144,1024]{1,0} %p.75), custom_call_target="__cublas$gemm", metadata={op_type="aten__mm" op_name="aten__mm" source_file="/usr/local/lib/python3.10/site-packages/torch/_ops.py" source_line=756}, backend_config={"operation_queue_id":"0","wait_on_operation_queues":[],"gemm_backend_config":{"alpha_real":1,"alpha_imag":0,"beta":0,"dot_dimension_numbers":{"lhs_contracting_dimensions":["1"],"rhs_contracting_dimensions":["1"],"lhs_batch_dimensions":[],"rhs_batch_dimensions":[]},"precision_config":{"operand_precision":["DEFAULT","DEFAULT"],"algorithm":"ALG_UNSET"},"epilogue":"DEFAULT","damax_output":false,"lhs_stride":"65536","rhs_stride":"6291456","grad_x":false,"grad_y":false},"force_earliest_schedule":false}
  %get-tuple-element.34.0 = bf16[64,6144]{1,0} get-tuple-element((bf16[64,6144]{1,0}, s8[4194304]{0}) %custom-call.75.0), index=0, metadata={op_type="aten__mm" op_name="aten__mm" source_file="/usr/local/lib/python3.10/site-packages/torch/_ops.py" source_line=756}
  %loop_convert_fusion.2 = bf16[64,3072]{1,0} fusion(bf16[64,6144]{1,0} %get-tuple-element.34.0), kind=kLoop, calls=%fused_convert.2, metadata={op_type="xla__cast" op_name="xla__cast" source_file="/usr/local/lib/python3.10/site-packages/torch/_ops.py" source_line=756 deduplicated_name="loop_convert_fusion"}
  %custom-call.76.0 = (bf16[64,1024]{1,0}, s8[4194304]{0}) custom-call(bf16[64,3072]{1,0} %loop_convert_fusion.2, bf16[1024,3072]{1,0} %p.76), custom_call_target="__cublas$gemm", metadata={op_type="aten__mm" op_name="aten__mm" source_file="/usr/local/lib/python3.10/site-packages/torch/_ops.py" source_line=756}, backend_config={"operation_queue_id":"0","wait_on_operation_queues":[],"gemm_backend_config":{"alpha_real":1,"alpha_imag":0,"beta":0,"dot_dimension_numbers":{"lhs_contracting_dimensions":["1"],"rhs_contracting_dimensions":["1"],"lhs_batch_dimensions":[],"rhs_batch_dimensions":[]},"precision_config":{"operand_precision":["DEFAULT","DEFAULT"],"algorithm":"ALG_UNSET"},"epilogue":"DEFAULT","damax_output":false,"lhs_stride":"196608","rhs_stride":"3145728","grad_x":false,"grad_y":false},"force_earliest_schedule":false}
  %get-tuple-element.35.0 = bf16[64,1024]{1,0} get-tuple-element((bf16[64,1024]{1,0}, s8[4194304]{0}) %custom-call.76.0), index=0, metadata={op_type="aten__mm" op_name="aten__mm" source_file="/usr/local/lib/python3.10/site-packages/torch/_ops.py" source_line=756}
  %fusion.237 = bf16[64,1024]{1,0} fusion(f32[] %p.22, f32[64,1024]{1,0} %loop_add_fusion.3, bf16[64,1024]{1,0} %get-tuple-element.35.0, bf16[64,20480]{1,0} %gemm_fusion_dot.80.0, bf16[1024]{0} %p.77), kind=kCustom, calls=%fused_computation.192, metadata={op_type="xla__cast" op_name="xla__cast" source_file="/usr/local/lib/python3.10/site-packages/torch/_ops.py" source_line=756}, backend_config={"operation_queue_id":"0","wait_on_operation_queues":[],"fusion_backend_config":{"kind":"__triton","block_level_fusion_config":{"output_tiles":[{"sizes":["1","1024"]}],"num_warps":"2"}},"force_earliest_schedule":false}
  %custom-call.77.0 = (bf16[64,6144]{1,0}, s8[4194304]{0}) custom-call(bf16[64,1024]{1,0} %fusion.237, bf16[6144,1024]{1,0} %p.78), custom_call_target="__cublas$gemm", metadata={op_type="aten__mm" op_name="aten__mm" source_file="/usr/local/lib/python3.10/site-packages/torch/_ops.py" source_line=756}, backend_config={"operation_queue_id":"0","wait_on_operation_queues":[],"gemm_backend_config":{"alpha_real":1,"alpha_imag":0,"beta":0,"dot_dimension_numbers":{"lhs_contracting_dimensions":["1"],"rhs_contracting_dimensions":["1"],"lhs_batch_dimensions":[],"rhs_batch_dimensions":[]},"precision_config":{"operand_precision":["DEFAULT","DEFAULT"],"algorithm":"ALG_UNSET"},"epilogue":"DEFAULT","damax_output":false,"lhs_stride":"65536","rhs_stride":"6291456","grad_x":false,"grad_y":false},"force_earliest_schedule":false}
  %get-tuple-element.36.0 = bf16[64,6144]{1,0} get-tuple-element((bf16[64,6144]{1,0}, s8[4194304]{0}) %custom-call.77.0), index=0, metadata={op_type="aten__mm" op_name="aten__mm" source_file="/usr/local/lib/python3.10/site-packages/torch/_ops.py" source_line=756}
  %loop_convert_fusion.1 = bf16[64,3072]{1,0} fusion(bf16[64,6144]{1,0} %get-tuple-element.36.0), kind=kLoop, calls=%fused_convert.1, metadata={op_type="xla__cast" op_name="xla__cast" source_file="/usr/local/lib/python3.10/site-packages/torch/_ops.py" source_line=756 deduplicated_name="loop_convert_fusion"}
  %custom-call.78.0 = (bf16[64,1024]{1,0}, s8[4194304]{0}) custom-call(bf16[64,3072]{1,0} %loop_convert_fusion.1, bf16[1024,3072]{1,0} %p.79), custom_call_target="__cublas$gemm", metadata={op_type="aten__mm" op_name="aten__mm" source_file="/usr/local/lib/python3.10/site-packages/torch/_ops.py" source_line=756}, backend_config={"operation_queue_id":"0","wait_on_operation_queues":[],"gemm_backend_config":{"alpha_real":1,"alpha_imag":0,"beta":0,"dot_dimension_numbers":{"lhs_contracting_dimensions":["1"],"rhs_contracting_dimensions":["1"],"lhs_batch_dimensions":[],"rhs_batch_dimensions":[]},"precision_config":{"operand_precision":["DEFAULT","DEFAULT"],"algorithm":"ALG_UNSET"},"epilogue":"DEFAULT","damax_output":false,"lhs_stride":"196608","rhs_stride":"3145728","grad_x":false,"grad_y":false},"force_earliest_schedule":false}
  %get-tuple-element.37.0 = bf16[64,1024]{1,0} get-tuple-element((bf16[64,1024]{1,0}, s8[4194304]{0}) %custom-call.78.0), index=0, metadata={op_type="aten__mm" op_name="aten__mm" source_file="/usr/local/lib/python3.10/site-packages/torch/_ops.py" source_line=756}
  %fusion.236 = bf16[64,1024]{1,0} fusion(f32[] %p.22, bf16[1024]{0} %p.80, f32[64,1024]{1,0} %loop_add_fusion.3, bf16[64,1024]{1,0} %get-tuple-element.35.0, bf16[64,20480]{1,0} %gemm_fusion_dot.80.0, /*index=5*/bf16[64,1024]{1,0} %get-tuple-element.37.0), kind=kCustom, calls=%fused_computation.191, metadata={op_type="xla__cast" op_name="xla__cast" source_file="/usr/local/lib/python3.10/site-packages/torch/_ops.py" source_line=756}, backend_config={"operation_queue_id":"0","wait_on_operation_queues":[],"fusion_backend_config":{"kind":"__triton","block_level_fusion_config":{"output_tiles":[{"sizes":["1","1024"]}],"num_warps":"2"}},"force_earliest_schedule":false}
  %custom-call.79.0 = (bf16[64,6144]{1,0}, s8[4194304]{0}) custom-call(bf16[64,1024]{1,0} %fusion.236, bf16[6144,1024]{1,0} %p.81), custom_call_target="__cublas$gemm", metadata={op_type="aten__mm" op_name="aten__mm" source_file="/usr/local/lib/python3.10/site-packages/torch/_ops.py" source_line=756}, backend_config={"operation_queue_id":"0","wait_on_operation_queues":[],"gemm_backend_config":{"alpha_real":1,"alpha_imag":0,"beta":0,"dot_dimension_numbers":{"lhs_contracting_dimensions":["1"],"rhs_contracting_dimensions":["1"],"lhs_batch_dimensions":[],"rhs_batch_dimensions":[]},"precision_config":{"operand_precision":["DEFAULT","DEFAULT"],"algorithm":"ALG_UNSET"},"epilogue":"DEFAULT","damax_output":false,"lhs_stride":"65536","rhs_stride":"6291456","grad_x":false,"grad_y":false},"force_earliest_schedule":false}
  %get-tuple-element.38.0 = bf16[64,6144]{1,0} get-tuple-element((bf16[64,6144]{1,0}, s8[4194304]{0}) %custom-call.79.0), index=0, metadata={op_type="aten__mm" op_name="aten__mm" source_file="/usr/local/lib/python3.10/site-packages/torch/_ops.py" source_line=756}
  %loop_convert_fusion = bf16[64,3072]{1,0} fusion(bf16[64,6144]{1,0} %get-tuple-element.38.0), kind=kLoop, calls=%fused_convert, metadata={op_type="xla__cast" op_name="xla__cast" source_file="/usr/local/lib/python3.10/site-packages/torch/_ops.py" source_line=756 deduplicated_name="loop_convert_fusion"}
  %custom-call.80.0 = (bf16[64,1024]{1,0}, s8[4194304]{0}) custom-call(bf16[64,3072]{1,0} %loop_convert_fusion, bf16[1024,3072]{1,0} %p.82), custom_call_target="__cublas$gemm", metadata={op_type="aten__mm" op_name="aten__mm" source_file="/usr/local/lib/python3.10/site-packages/torch/_ops.py" source_line=756}, backend_config={"operation_queue_id":"0","wait_on_operation_queues":[],"gemm_backend_config":{"alpha_real":1,"alpha_imag":0,"beta":0,"dot_dimension_numbers":{"lhs_contracting_dimensions":["1"],"rhs_contracting_dimensions":["1"],"lhs_batch_dimensions":[],"rhs_batch_dimensions":[]},"precision_config":{"operand_precision":["DEFAULT","DEFAULT"],"algorithm":"ALG_UNSET"},"epilogue":"DEFAULT","damax_output":false,"lhs_stride":"196608","rhs_stride":"3145728","grad_x":false,"grad_y":false},"force_earliest_schedule":false}
  %get-tuple-element.39.0 = bf16[64,1024]{1,0} get-tuple-element((bf16[64,1024]{1,0}, s8[4194304]{0}) %custom-call.80.0), index=0, metadata={op_type="aten__mm" op_name="aten__mm" source_file="/usr/local/lib/python3.10/site-packages/torch/_ops.py" source_line=756}
  %fusion.234 = bf16[64,1024]{1,0} fusion(f32[] %p.22, bf16[64,1024]{1,0} %get-tuple-element.39.0, bf16[1024]{0} %p.83, f32[64,1024]{1,0} %loop_add_fusion.3, bf16[64,1024]{1,0} %get-tuple-element.35.0, /*index=5*/bf16[64,20480]{1,0} %gemm_fusion_dot.80.0, bf16[64,1024]{1,0} %get-tuple-element.37.0), kind=kCustom, calls=%fused_computation.189, metadata={op_type="xla__cast" op_name="xla__cast" source_file="/usr/local/lib/python3.10/site-packages/torch/_ops.py" source_line=756}, backend_config={"operation_queue_id":"0","wait_on_operation_queues":[],"fusion_backend_config":{"kind":"__triton","block_level_fusion_config":{"output_tiles":[{"sizes":["1","1024"]}],"num_warps":"2"}},"force_earliest_schedule":false}
  %custom-call.81.0 = (bf16[64,4096]{1,0}, s8[4194304]{0}) custom-call(bf16[64,1024]{1,0} %fusion.234, bf16[4096,1024]{1,0} %p.84), custom_call_target="__cublas$gemm", metadata={op_type="aten__mm" op_name="aten__mm" source_file="/usr/local/lib/python3.10/site-packages/torch/_ops.py" source_line=756}, backend_config={"operation_queue_id":"0","wait_on_operation_queues":[],"gemm_backend_config":{"alpha_real":1,"alpha_imag":0,"beta":0,"dot_dimension_numbers":{"lhs_contracting_dimensions":["1"],"rhs_contracting_dimensions":["1"],"lhs_batch_dimensions":[],"rhs_batch_dimensions":[]},"precision_config":{"operand_precision":["DEFAULT","DEFAULT"],"algorithm":"ALG_UNSET"},"epilogue":"DEFAULT","damax_output":false,"lhs_stride":"65536","rhs_stride":"4194304","grad_x":false,"grad_y":false},"force_earliest_schedule":false}
  %get-tuple-element.40.0 = bf16[64,4096]{1,0} get-tuple-element((bf16[64,4096]{1,0}, s8[4194304]{0}) %custom-call.81.0), index=0, metadata={op_type="aten__mm" op_name="aten__mm" source_file="/usr/local/lib/python3.10/site-packages/torch/_ops.py" source_line=756}
  %wrapped_slice = bf16[64,1024]{1,0} fusion(bf16[64,4096]{1,0} %get-tuple-element.40.0), kind=kLoop, calls=%wrapped_slice_computation, metadata={op_type="aten__split" op_name="aten__split" source_file="/usr/local/lib/python3.10/site-packages/torch/_ops.py" source_line=756}
  %triton_softmax.22.0 = f32[64,8,128]{2,1,0} fusion(f32[] %p.22, bf16[64,4096]{1,0} %get-tuple-element.40.0), kind=kCustom, calls=%triton_softmax_computation.22, metadata={op_type="aten__mul" op_name="aten__mul.1379/aten__mul" source_file="/usr/local/lib/python3.10/site-packages/torch/_ops.py" source_line=756}, backend_config={"operation_queue_id":"0","wait_on_operation_queues":[],"fusion_backend_config":{"kind":"__triton","block_level_fusion_config":{"output_tiles":[{"sizes":["1","4","128"]}],"num_warps":"2"}},"force_earliest_schedule":false}
  %input_concatenate_fusion = bf16[64,8,128]{2,1,0} fusion(f32[64,8,128]{2,1,0} %triton_softmax.22.0, bf16[128]{0} %p.85, bf16[40960,128]{1,0} %p.86, s32[64]{0} %p.87), kind=kInput, calls=%fused_concatenate, metadata={op_type="aten__cat" op_name="aten__cat" source_file="/usr/local/lib/python3.10/site-packages/torch/_ops.py" source_line=756}
  %bitcast.4113.0 = bf16[64,8,128]{2,1,0} bitcast(bf16[64,1024]{1,0} %wrapped_slice)
  %loop_slice_fusion = bf16[69353472]{0} fusion(bf16[2,4233,16,8,128]{4,3,2,1,0} %p.88), kind=kLoop, calls=%fused_slice, metadata={op_type="aten__as_strided" op_name="aten__as_strided" source_file="/usr/local/lib/python3.10/site-packages/torch/_higher_order_ops/auto_functionalize.py" source_line=54}
  %bitcast.4125.0 = bf16[4233,16,8,128]{3,2,1,0} bitcast(bf16[69353472]{0} %loop_slice_fusion)
  %wrapped_slice.1 = bf16[1,4233,16,8,128]{4,3,2,1,0} fusion(bf16[2,4233,16,8,128]{4,3,2,1,0} %p.88), kind=kLoop, calls=%wrapped_slice_computation.1, metadata={op_type="aten__as_strided" op_name="aten__as_strided" source_file="/usr/local/lib/python3.10/site-packages/torch/_higher_order_ops/auto_functionalize.py" source_line=54}
  ROOT %tuple = (bf16[64,8,128]{2,1,0}, bf16[64,8,128]{2,1,0}, bf16[4233,16,8,128]{3,2,1,0}, bf16[1,4233,16,8,128]{4,3,2,1,0}) tuple(bf16[64,8,128]{2,1,0} %input_concatenate_fusion, bf16[64,8,128]{2,1,0} %bitcast.4113.0, bf16[4233,16,8,128]{3,2,1,0} %bitcast.4125.0, bf16[1,4233,16,8,128]{4,3,2,1,0} %wrapped_slice.1)
}

ENTRY %SyncTensorsGraph.1625 (p0.1.0: bf16[128], p1.4.0: f32[], p2.6.0: bf16[4096,1024], p3.8.0: bf16[1024], p4.52.0: s32[64], p5.54.0: bf16[151936,1024], p6.58.0: bf16[1024,2048], p7.74.0: bf16[1024,3072], p8.76.0: bf16[6144,1024], p9.78.0: bf16[1024], p10.130.0: bf16[1024,2048], p11.146.0: bf16[1024,3072], p12.148.0: bf16[6144,1024], p13.150.0: bf16[1024], p14.202.0: bf16[1024,2048], p15.218.0: bf16[1024,3072], p16.220.0: bf16[6144,1024], p17.222.0: bf16[1024], p18.274.0: bf16[1024,2048], p19.290.0: bf16[1024,3072], p20.292.0: bf16[6144,1024], p21.294.0: bf16[1024], p22.346.0: bf16[1024,2048], p23.362.0: bf16[1024,3072], p24.364.0: bf16[6144,1024], p25.366.0: bf16[1024], p26.418.0: bf16[1024,2048], p27.434.0: bf16[1024,3072], p28.436.0: bf16[6144,1024], p29.438.0: bf16[1024], p30.490.0: bf16[1024,2048], p31.506.0: bf16[1024,3072], p32.508.0: bf16[6144,1024], p33.510.0: bf16[1024], p34.562.0: bf16[1024,2048], p35.578.0: bf16[1024,3072], p36.580.0: bf16[6144,1024], p37.582.0: bf16[1024], p38.634.0: bf16[1024,2048], p39.650.0: bf16[1024,3072], p40.652.0: bf16[6144,1024], p41.654.0: bf16[1024], p42.706.0: bf16[1024,2048], p43.722.0: bf16[1024,3072], p44.724.0: bf16[6144,1024], p45.726.0: bf16[1024], p46.778.0: bf16[1024,2048], p47.794.0: bf16[1024,3072], p48.796.0: bf16[6144,1024], p49.798.0: bf16[1024], p50.850.0: bf16[1024,2048], p51.866.0: bf16[1024,3072], p52.868.0: bf16[6144,1024], p53.870.0: bf16[1024], p54.922.0: bf16[1024,2048], p55.938.0: bf16[1024,3072], p56.940.0: bf16[6144,1024], p57.942.0: bf16[1024], p58.994.0: bf16[1024,2048], p59.1010.0: bf16[1024,3072], p60.1012.0: bf16[6144,1024], p61.1014.0: bf16[1024], p62.1066.0: bf16[1024,2048], p63.1082.0: bf16[1024,3072], p64.1084.0: bf16[6144,1024], p65.1086.0: bf16[1024], p66.1138.0: bf16[1024,2048], p67.1154.0: bf16[1024,3072], p68.1156.0: bf16[6144,1024], p69.1158.0: bf16[1024], p70.1210.0: bf16[1024,2048], p71.1226.0: bf16[1024,3072], p72.1228.0: bf16[6144,1024], p73.1230.0: bf16[1024], p74.1282.0: bf16[1024,2048], p75.1298.0: bf16[1024,3072], p76.1300.0: bf16[6144,1024], p77.1302.0: bf16[1024], p78.1354.0: bf16[1024,2048], p79.1370.0: bf16[1024,3072], p80.1372.0: bf16[6144,1024], p81.1374.0: bf16[1024], p82.1426.0: bf16[1024,2048], p83.1442.0: bf16[1024,3072], p84.1444.0: bf16[6144,1024], p85.1446.0: bf16[1024], p86.1570.0: s32[64], p87.1571.0: bf16[40960,128], p88.1615.0: bf16[2,4233,16,8,128]) -> (bf16[64,8,128], bf16[64,8,128], bf16[4233,16,8,128], bf16[4233,16,8,128]) {
  %p1.4.0 = f32[] parameter(1), metadata={op_type="xla__device_data" op_name="xla__device_data" source_file="/usr/local/lib/python3.10/site-packages/torch/_ops.py" source_line=756}
  %p88.1615.0 = bf16[2,4233,16,8,128]{4,3,2,1,0} parameter(88), metadata={op_type="xla__device_data" op_name="xla__device_data" source_file="/usr/local/lib/python3.10/site-packages/torch_xla/_dynamo/dynamo_bridge.py" source_line=355}
  %p87.1571.0 = bf16[40960,128]{1,0} parameter(87), metadata={op_type="xla__device_data" op_name="xla__device_data" source_file="/usr/local/lib/python3.10/site-packages/torch_xla/_dynamo/dynamo_bridge.py" source_line=355}
  %p86.1570.0 = s32[64]{0} parameter(86), metadata={op_type="xla__device_data" op_name="xla__device_data" source_file="/usr/local/lib/python3.10/site-packages/torch_xla/_dynamo/dynamo_bridge.py" source_line=355}
  %p85.1446.0 = bf16[1024]{0} parameter(85), metadata={op_type="xla__device_data" op_name="xla__device_data" source_file="/usr/local/lib/python3.10/site-packages/torch_xla/_dynamo/dynamo_bridge.py" source_line=355}
  %p84.1444.0 = bf16[6144,1024]{1,0} parameter(84), metadata={op_type="xla__device_data" op_name="xla__device_data" source_file="/usr/local/lib/python3.10/site-packages/torch_xla/_dynamo/dynamo_bridge.py" source_line=355}
  %p83.1442.0 = bf16[1024,3072]{1,0} parameter(83), metadata={op_type="xla__device_data" op_name="xla__device_data" source_file="/usr/local/lib/python3.10/site-packages/torch_xla/_dynamo/dynamo_bridge.py" source_line=355}
  %p82.1426.0 = bf16[1024,2048]{1,0} parameter(82), metadata={op_type="xla__device_data" op_name="xla__device_data" source_file="/usr/local/lib/python3.10/site-packages/torch_xla/_dynamo/dynamo_bridge.py" source_line=355}
  %p81.1374.0 = bf16[1024]{0} parameter(81), metadata={op_type="xla__device_data" op_name="xla__device_data" source_file="/usr/local/lib/python3.10/site-packages/torch_xla/_dynamo/dynamo_bridge.py" source_line=355}
  %p80.1372.0 = bf16[6144,1024]{1,0} parameter(80), metadata={op_type="xla__device_data" op_name="xla__device_data" source_file="/usr/local/lib/python3.10/site-packages/torch_xla/_dynamo/dynamo_bridge.py" source_line=355}
  %p79.1370.0 = bf16[1024,3072]{1,0} parameter(79), metadata={op_type="xla__device_data" op_name="xla__device_data" source_file="/usr/local/lib/python3.10/site-packages/torch_xla/_dynamo/dynamo_bridge.py" source_line=355}
  %p78.1354.0 = bf16[1024,2048]{1,0} parameter(78), metadata={op_type="xla__device_data" op_name="xla__device_data" source_file="/usr/local/lib/python3.10/site-packages/torch_xla/_dynamo/dynamo_bridge.py" source_line=355}
  %p77.1302.0 = bf16[1024]{0} parameter(77), metadata={op_type="xla__device_data" op_name="xla__device_data" source_file="/usr/local/lib/python3.10/site-packages/torch_xla/_dynamo/dynamo_bridge.py" source_line=355}
  %p76.1300.0 = bf16[6144,1024]{1,0} parameter(76), metadata={op_type="xla__device_data" op_name="xla__device_data" source_file="/usr/local/lib/python3.10/site-packages/torch_xla/_dynamo/dynamo_bridge.py" source_line=355}
  %p75.1298.0 = bf16[1024,3072]{1,0} parameter(75), metadata={op_type="xla__device_data" op_name="xla__device_data" source_file="/usr/local/lib/python3.10/site-packages/torch_xla/_dynamo/dynamo_bridge.py" source_line=355}
  %p74.1282.0 = bf16[1024,2048]{1,0} parameter(74), metadata={op_type="xla__device_data" op_name="xla__device_data" source_file="/usr/local/lib/python3.10/site-packages/torch_xla/_dynamo/dynamo_bridge.py" source_line=355}
  %p73.1230.0 = bf16[1024]{0} parameter(73), metadata={op_type="xla__device_data" op_name="xla__device_data" source_file="/usr/local/lib/python3.10/site-packages/torch_xla/_dynamo/dynamo_bridge.py" source_line=355}
  %p72.1228.0 = bf16[6144,1024]{1,0} parameter(72), metadata={op_type="xla__device_data" op_name="xla__device_data" source_file="/usr/local/lib/python3.10/site-packages/torch_xla/_dynamo/dynamo_bridge.py" source_line=355}
  %p71.1226.0 = bf16[1024,3072]{1,0} parameter(71), metadata={op_type="xla__device_data" op_name="xla__device_data" source_file="/usr/local/lib/python3.10/site-packages/torch_xla/_dynamo/dynamo_bridge.py" source_line=355}
  %p70.1210.0 = bf16[1024,2048]{1,0} parameter(70), metadata={op_type="xla__device_data" op_name="xla__device_data" source_file="/usr/local/lib/python3.10/site-packages/torch_xla/_dynamo/dynamo_bridge.py" source_line=355}
  %p69.1158.0 = bf16[1024]{0} parameter(69), metadata={op_type="xla__device_data" op_name="xla__device_data" source_file="/usr/local/lib/python3.10/site-packages/torch_xla/_dynamo/dynamo_bridge.py" source_line=355}
  %p68.1156.0 = bf16[6144,1024]{1,0} parameter(68), metadata={op_type="xla__device_data" op_name="xla__device_data" source_file="/usr/local/lib/python3.10/site-packages/torch_xla/_dynamo/dynamo_bridge.py" source_line=355}
  %p67.1154.0 = bf16[1024,3072]{1,0} parameter(67), metadata={op_type="xla__device_data" op_name="xla__device_data" source_file="/usr/local/lib/python3.10/site-packages/torch_xla/_dynamo/dynamo_bridge.py" source_line=355}
  %p66.1138.0 = bf16[1024,2048]{1,0} parameter(66), metadata={op_type="xla__device_data" op_name="xla__device_data" source_file="/usr/local/lib/python3.10/site-packages/torch_xla/_dynamo/dynamo_bridge.py" source_line=355}
  %p65.1086.0 = bf16[1024]{0} parameter(65), metadata={op_type="xla__device_data" op_name="xla__device_data" source_file="/usr/local/lib/python3.10/site-packages/torch_xla/_dynamo/dynamo_bridge.py" source_line=355}
  %p64.1084.0 = bf16[6144,1024]{1,0} parameter(64), metadata={op_type="xla__device_data" op_name="xla__device_data" source_file="/usr/local/lib/python3.10/site-packages/torch_xla/_dynamo/dynamo_bridge.py" source_line=355}
  %p63.1082.0 = bf16[1024,3072]{1,0} parameter(63), metadata={op_type="xla__device_data" op_name="xla__device_data" source_file="/usr/local/lib/python3.10/site-packages/torch_xla/_dynamo/dynamo_bridge.py" source_line=355}
  %p62.1066.0 = bf16[1024,2048]{1,0} parameter(62), metadata={op_type="xla__device_data" op_name="xla__device_data" source_file="/usr/local/lib/python3.10/site-packages/torch_xla/_dynamo/dynamo_bridge.py" source_line=355}
  %p61.1014.0 = bf16[1024]{0} parameter(61), metadata={op_type="xla__device_data" op_name="xla__device_data" source_file="/usr/local/lib/python3.10/site-packages/torch_xla/_dynamo/dynamo_bridge.py" source_line=355}
  %p60.1012.0 = bf16[6144,1024]{1,0} parameter(60), metadata={op_type="xla__device_data" op_name="xla__device_data" source_file="/usr/local/lib/python3.10/site-packages/torch_xla/_dynamo/dynamo_bridge.py" source_line=355}
  %p59.1010.0 = bf16[1024,3072]{1,0} parameter(59), metadata={op_type="xla__device_data" op_name="xla__device_data" source_file="/usr/local/lib/python3.10/site-packages/torch_xla/_dynamo/dynamo_bridge.py" source_line=355}
  %p58.994.0 = bf16[1024,2048]{1,0} parameter(58), metadata={op_type="xla__device_data" op_name="xla__device_data" source_file="/usr/local/lib/python3.10/site-packages/torch_xla/_dynamo/dynamo_bridge.py" source_line=355}
  %p57.942.0 = bf16[1024]{0} parameter(57), metadata={op_type="xla__device_data" op_name="xla__device_data" source_file="/usr/local/lib/python3.10/site-packages/torch_xla/_dynamo/dynamo_bridge.py" source_line=355}
  %p56.940.0 = bf16[6144,1024]{1,0} parameter(56), metadata={op_type="xla__device_data" op_name="xla__device_data" source_file="/usr/local/lib/python3.10/site-packages/torch_xla/_dynamo/dynamo_bridge.py" source_line=355}
  %p55.938.0 = bf16[1024,3072]{1,0} parameter(55), metadata={op_type="xla__device_data" op_name="xla__device_data" source_file="/usr/local/lib/python3.10/site-packages/torch_xla/_dynamo/dynamo_bridge.py" source_line=355}
  %p54.922.0 = bf16[1024,2048]{1,0} parameter(54), metadata={op_type="xla__device_data" op_name="xla__device_data" source_file="/usr/local/lib/python3.10/site-packages/torch_xla/_dynamo/dynamo_bridge.py" source_line=355}
  %p53.870.0 = bf16[1024]{0} parameter(53), metadata={op_type="xla__device_data" op_name="xla__device_data" source_file="/usr/local/lib/python3.10/site-packages/torch_xla/_dynamo/dynamo_bridge.py" source_line=355}
  %p52.868.0 = bf16[6144,1024]{1,0} parameter(52), metadata={op_type="xla__device_data" op_name="xla__device_data" source_file="/usr/local/lib/python3.10/site-packages/torch_xla/_dynamo/dynamo_bridge.py" source_line=355}
  %p51.866.0 = bf16[1024,3072]{1,0} parameter(51), metadata={op_type="xla__device_data" op_name="xla__device_data" source_file="/usr/local/lib/python3.10/site-packages/torch_xla/_dynamo/dynamo_bridge.py" source_line=355}
  %p50.850.0 = bf16[1024,2048]{1,0} parameter(50), metadata={op_type="xla__device_data" op_name="xla__device_data" source_file="/usr/local/lib/python3.10/site-packages/torch_xla/_dynamo/dynamo_bridge.py" source_line=355}
  %p49.798.0 = bf16[1024]{0} parameter(49), metadata={op_type="xla__device_data" op_name="xla__device_data" source_file="/usr/local/lib/python3.10/site-packages/torch_xla/_dynamo/dynamo_bridge.py" source_line=355}
  %p48.796.0 = bf16[6144,1024]{1,0} parameter(48), metadata={op_type="xla__device_data" op_name="xla__device_data" source_file="/usr/local/lib/python3.10/site-packages/torch_xla/_dynamo/dynamo_bridge.py" source_line=355}
  %p47.794.0 = bf16[1024,3072]{1,0} parameter(47), metadata={op_type="xla__device_data" op_name="xla__device_data" source_file="/usr/local/lib/python3.10/site-packages/torch_xla/_dynamo/dynamo_bridge.py" source_line=355}
  %p46.778.0 = bf16[1024,2048]{1,0} parameter(46), metadata={op_type="xla__device_data" op_name="xla__device_data" source_file="/usr/local/lib/python3.10/site-packages/torch_xla/_dynamo/dynamo_bridge.py" source_line=355}
  %p45.726.0 = bf16[1024]{0} parameter(45), metadata={op_type="xla__device_data" op_name="xla__device_data" source_file="/usr/local/lib/python3.10/site-packages/torch_xla/_dynamo/dynamo_bridge.py" source_line=355}
  %p44.724.0 = bf16[6144,1024]{1,0} parameter(44), metadata={op_type="xla__device_data" op_name="xla__device_data" source_file="/usr/local/lib/python3.10/site-packages/torch_xla/_dynamo/dynamo_bridge.py" source_line=355}
  %p43.722.0 = bf16[1024,3072]{1,0} parameter(43), metadata={op_type="xla__device_data" op_name="xla__device_data" source_file="/usr/local/lib/python3.10/site-packages/torch_xla/_dynamo/dynamo_bridge.py" source_line=355}
  %p42.706.0 = bf16[1024,2048]{1,0} parameter(42), metadata={op_type="xla__device_data" op_name="xla__device_data" source_file="/usr/local/lib/python3.10/site-packages/torch_xla/_dynamo/dynamo_bridge.py" source_line=355}
  %p41.654.0 = bf16[1024]{0} parameter(41), metadata={op_type="xla__device_data" op_name="xla__device_data" source_file="/usr/local/lib/python3.10/site-packages/torch_xla/_dynamo/dynamo_bridge.py" source_line=355}
  %p40.652.0 = bf16[6144,1024]{1,0} parameter(40), metadata={op_type="xla__device_data" op_name="xla__device_data" source_file="/usr/local/lib/python3.10/site-packages/torch_xla/_dynamo/dynamo_bridge.py" source_line=355}
  %p39.650.0 = bf16[1024,3072]{1,0} parameter(39), metadata={op_type="xla__device_data" op_name="xla__device_data" source_file="/usr/local/lib/python3.10/site-packages/torch_xla/_dynamo/dynamo_bridge.py" source_line=355}
  %p38.634.0 = bf16[1024,2048]{1,0} parameter(38), metadata={op_type="xla__device_data" op_name="xla__device_data" source_file="/usr/local/lib/python3.10/site-packages/torch_xla/_dynamo/dynamo_bridge.py" source_line=355}
  %p37.582.0 = bf16[1024]{0} parameter(37), metadata={op_type="xla__device_data" op_name="xla__device_data" source_file="/usr/local/lib/python3.10/site-packages/torch_xla/_dynamo/dynamo_bridge.py" source_line=355}
  %p36.580.0 = bf16[6144,1024]{1,0} parameter(36), metadata={op_type="xla__device_data" op_name="xla__device_data" source_file="/usr/local/lib/python3.10/site-packages/torch_xla/_dynamo/dynamo_bridge.py" source_line=355}
  %p35.578.0 = bf16[1024,3072]{1,0} parameter(35), metadata={op_type="xla__device_data" op_name="xla__device_data" source_file="/usr/local/lib/python3.10/site-packages/torch_xla/_dynamo/dynamo_bridge.py" source_line=355}
  %p34.562.0 = bf16[1024,2048]{1,0} parameter(34), metadata={op_type="xla__device_data" op_name="xla__device_data" source_file="/usr/local/lib/python3.10/site-packages/torch_xla/_dynamo/dynamo_bridge.py" source_line=355}
  %p33.510.0 = bf16[1024]{0} parameter(33), metadata={op_type="xla__device_data" op_name="xla__device_data" source_file="/usr/local/lib/python3.10/site-packages/torch_xla/_dynamo/dynamo_bridge.py" source_line=355}
  %p32.508.0 = bf16[6144,1024]{1,0} parameter(32), metadata={op_type="xla__device_data" op_name="xla__device_data" source_file="/usr/local/lib/python3.10/site-packages/torch_xla/_dynamo/dynamo_bridge.py" source_line=355}
  %p31.506.0 = bf16[1024,3072]{1,0} parameter(31), metadata={op_type="xla__device_data" op_name="xla__device_data" source_file="/usr/local/lib/python3.10/site-packages/torch_xla/_dynamo/dynamo_bridge.py" source_line=355}
  %p30.490.0 = bf16[1024,2048]{1,0} parameter(30), metadata={op_type="xla__device_data" op_name="xla__device_data" source_file="/usr/local/lib/python3.10/site-packages/torch_xla/_dynamo/dynamo_bridge.py" source_line=355}
  %p29.438.0 = bf16[1024]{0} parameter(29), metadata={op_type="xla__device_data" op_name="xla__device_data" source_file="/usr/local/lib/python3.10/site-packages/torch_xla/_dynamo/dynamo_bridge.py" source_line=355}
  %p28.436.0 = bf16[6144,1024]{1,0} parameter(28), metadata={op_type="xla__device_data" op_name="xla__device_data" source_file="/usr/local/lib/python3.10/site-packages/torch_xla/_dynamo/dynamo_bridge.py" source_line=355}
  %p27.434.0 = bf16[1024,3072]{1,0} parameter(27), metadata={op_type="xla__device_data" op_name="xla__device_data" source_file="/usr/local/lib/python3.10/site-packages/torch_xla/_dynamo/dynamo_bridge.py" source_line=355}
  %p26.418.0 = bf16[1024,2048]{1,0} parameter(26), metadata={op_type="xla__device_data" op_name="xla__device_data" source_file="/usr/local/lib/python3.10/site-packages/torch_xla/_dynamo/dynamo_bridge.py" source_line=355}
  %p25.366.0 = bf16[1024]{0} parameter(25), metadata={op_type="xla__device_data" op_name="xla__device_data" source_file="/usr/local/lib/python3.10/site-packages/torch_xla/_dynamo/dynamo_bridge.py" source_line=355}
  %p24.364.0 = bf16[6144,1024]{1,0} parameter(24), metadata={op_type="xla__device_data" op_name="xla__device_data" source_file="/usr/local/lib/python3.10/site-packages/torch_xla/_dynamo/dynamo_bridge.py" source_line=355}
  %p23.362.0 = bf16[1024,3072]{1,0} parameter(23), metadata={op_type="xla__device_data" op_name="xla__device_data" source_file="/usr/local/lib/python3.10/site-packages/torch_xla/_dynamo/dynamo_bridge.py" source_line=355}
  %p22.346.0 = bf16[1024,2048]{1,0} parameter(22), metadata={op_type="xla__device_data" op_name="xla__device_data" source_file="/usr/local/lib/python3.10/site-packages/torch_xla/_dynamo/dynamo_bridge.py" source_line=355}
  %p21.294.0 = bf16[1024]{0} parameter(21), metadata={op_type="xla__device_data" op_name="xla__device_data" source_file="/usr/local/lib/python3.10/site-packages/torch_xla/_dynamo/dynamo_bridge.py" source_line=355}
  %p20.292.0 = bf16[6144,1024]{1,0} parameter(20), metadata={op_type="xla__device_data" op_name="xla__device_data" source_file="/usr/local/lib/python3.10/site-packages/torch_xla/_dynamo/dynamo_bridge.py" source_line=355}
  %p19.290.0 = bf16[1024,3072]{1,0} parameter(19), metadata={op_type="xla__device_data" op_name="xla__device_data" source_file="/usr/local/lib/python3.10/site-packages/torch_xla/_dynamo/dynamo_bridge.py" source_line=355}
  %p18.274.0 = bf16[1024,2048]{1,0} parameter(18), metadata={op_type="xla__device_data" op_name="xla__device_data" source_file="/usr/local/lib/python3.10/site-packages/torch_xla/_dynamo/dynamo_bridge.py" source_line=355}
  %p17.222.0 = bf16[1024]{0} parameter(17), metadata={op_type="xla__device_data" op_name="xla__device_data" source_file="/usr/local/lib/python3.10/site-packages/torch_xla/_dynamo/dynamo_bridge.py" source_line=355}
  %p16.220.0 = bf16[6144,1024]{1,0} parameter(16), metadata={op_type="xla__device_data" op_name="xla__device_data" source_file="/usr/local/lib/python3.10/site-packages/torch_xla/_dynamo/dynamo_bridge.py" source_line=355}
  %p15.218.0 = bf16[1024,3072]{1,0} parameter(15), metadata={op_type="xla__device_data" op_name="xla__device_data" source_file="/usr/local/lib/python3.10/site-packages/torch_xla/_dynamo/dynamo_bridge.py" source_line=355}
  %p14.202.0 = bf16[1024,2048]{1,0} parameter(14), metadata={op_type="xla__device_data" op_name="xla__device_data" source_file="/usr/local/lib/python3.10/site-packages/torch_xla/_dynamo/dynamo_bridge.py" source_line=355}
  %p13.150.0 = bf16[1024]{0} parameter(13), metadata={op_type="xla__device_data" op_name="xla__device_data" source_file="/usr/local/lib/python3.10/site-packages/torch_xla/_dynamo/dynamo_bridge.py" source_line=355}
  %p12.148.0 = bf16[6144,1024]{1,0} parameter(12), metadata={op_type="xla__device_data" op_name="xla__device_data" source_file="/usr/local/lib/python3.10/site-packages/torch_xla/_dynamo/dynamo_bridge.py" source_line=355}
  %p11.146.0 = bf16[1024,3072]{1,0} parameter(11), metadata={op_type="xla__device_data" op_name="xla__device_data" source_file="/usr/local/lib/python3.10/site-packages/torch_xla/_dynamo/dynamo_bridge.py" source_line=355}
  %p10.130.0 = bf16[1024,2048]{1,0} parameter(10), metadata={op_type="xla__device_data" op_name="xla__device_data" source_file="/usr/local/lib/python3.10/site-packages/torch_xla/_dynamo/dynamo_bridge.py" source_line=355}
  %p9.78.0 = bf16[1024]{0} parameter(9), metadata={op_type="xla__device_data" op_name="xla__device_data" source_file="/usr/local/lib/python3.10/site-packages/torch_xla/_dynamo/dynamo_bridge.py" source_line=355}
  %p8.76.0 = bf16[6144,1024]{1,0} parameter(8), metadata={op_type="xla__device_data" op_name="xla__device_data" source_file="/usr/local/lib/python3.10/site-packages/torch_xla/_dynamo/dynamo_bridge.py" source_line=355}
  %p7.74.0 = bf16[1024,3072]{1,0} parameter(7), metadata={op_type="xla__device_data" op_name="xla__device_data" source_file="/usr/local/lib/python3.10/site-packages/torch_xla/_dynamo/dynamo_bridge.py" source_line=355}
  %p6.58.0 = bf16[1024,2048]{1,0} parameter(6), metadata={op_type="xla__device_data" op_name="xla__device_data" source_file="/usr/local/lib/python3.10/site-packages/torch_xla/_dynamo/dynamo_bridge.py" source_line=355}
  %p5.54.0 = bf16[151936,1024]{1,0} parameter(5), metadata={op_type="xla__device_data" op_name="xla__device_data" source_file="/usr/local/lib/python3.10/site-packages/torch_xla/_dynamo/dynamo_bridge.py" source_line=355}
  %p4.52.0 = s32[64]{0} parameter(4), metadata={op_type="xla__device_data" op_name="xla__device_data" source_file="/usr/local/lib/python3.10/site-packages/torch_xla/_dynamo/dynamo_bridge.py" source_line=355}
  %p3.8.0 = bf16[1024]{0} parameter(3), metadata={op_type="xla__device_data" op_name="xla__device_data" source_file="/usr/local/lib/python3.10/site-packages/torch_xla/_dynamo/dynamo_bridge.py" source_line=355}
  %p2.6.0 = bf16[4096,1024]{1,0} parameter(2), metadata={op_type="xla__device_data" op_name="xla__device_data" source_file="/usr/local/lib/python3.10/site-packages/torch_xla/_dynamo/dynamo_bridge.py" source_line=355}
  %p0.1.0 = bf16[128]{0} parameter(0), metadata={op_type="xla__device_data" op_name="xla__device_data" source_file="/usr/local/lib/python3.10/site-packages/torch_xla/_dynamo/dynamo_bridge.py" source_line=355}
  %call = (bf16[64,8,128]{2,1,0}, bf16[64,8,128]{2,1,0}, bf16[4233,16,8,128]{3,2,1,0}, bf16[1,4233,16,8,128]{4,3,2,1,0}) call(bf16[151936,1024]{1,0} %p5.54.0, s32[64]{0} %p4.52.0, bf16[1024,2048]{1,0} %p82.1426.0, bf16[1024,2048]{1,0} %p78.1354.0, bf16[1024,2048]{1,0} %p74.1282.0, /*index=5*/bf16[1024,2048]{1,0} %p70.1210.0, bf16[1024,2048]{1,0} %p66.1138.0, bf16[1024,2048]{1,0} %p62.1066.0, bf16[1024,2048]{1,0} %p58.994.0, bf16[1024,2048]{1,0} %p54.922.0, /*index=10*/bf16[1024,2048]{1,0} %p50.850.0, bf16[1024,2048]{1,0} %p46.778.0, bf16[1024,2048]{1,0} %p42.706.0, bf16[1024,2048]{1,0} %p38.634.0, bf16[1024,2048]{1,0} %p34.562.0, /*index=15*/bf16[1024,2048]{1,0} %p30.490.0, bf16[1024,2048]{1,0} %p26.418.0, bf16[1024,2048]{1,0} %p22.346.0, bf16[1024,2048]{1,0} %p18.274.0, bf16[1024,2048]{1,0} %p14.202.0, /*index=20*/bf16[1024,2048]{1,0} %p10.130.0, bf16[1024,2048]{1,0} %p6.58.0, f32[] %p1.4.0, bf16[1024]{0} %p9.78.0, bf16[6144,1024]{1,0} %p8.76.0, /*index=25*/bf16[1024,3072]{1,0} %p7.74.0, bf16[1024]{0} %p13.150.0, bf16[6144,1024]{1,0} %p12.148.0, bf16[1024,3072]{1,0} %p11.146.0, bf16[1024]{0} %p17.222.0, /*index=30*/bf16[6144,1024]{1,0} %p16.220.0, bf16[1024,3072]{1,0} %p15.218.0, bf16[1024]{0} %p21.294.0, bf16[6144,1024]{1,0} %p20.292.0, bf16[1024,3072]{1,0} %p19.290.0, /*index=35*/bf16[1024]{0} %p25.366.0, bf16[6144,1024]{1,0} %p24.364.0, bf16[1024,3072]{1,0} %p23.362.0, bf16[1024]{0} %p29.438.0, bf16[6144,1024]{1,0} %p28.436.0, /*index=40*/bf16[1024,3072]{1,0} %p27.434.0, bf16[1024]{0} %p33.510.0, bf16[6144,1024]{1,0} %p32.508.0, bf16[1024,3072]{1,0} %p31.506.0, bf16[1024]{0} %p37.582.0, /*index=45*/bf16[6144,1024]{1,0} %p36.580.0, bf16[1024,3072]{1,0} %p35.578.0, bf16[1024]{0} %p41.654.0, bf16[6144,1024]{1,0} %p40.652.0, bf16[1024,3072]{1,0} %p39.650.0, /*index=50*/bf16[1024]{0} %p45.726.0, bf16[6144,1024]{1,0} %p44.724.0, bf16[1024,3072]{1,0} %p43.722.0, bf16[1024]{0} %p49.798.0, bf16[6144,1024]{1,0} %p48.796.0, /*index=55*/bf16[1024,3072]{1,0} %p47.794.0, bf16[1024]{0} %p53.870.0, bf16[6144,1024]{1,0} %p52.868.0, bf16[1024,3072]{1,0} %p51.866.0, bf16[1024]{0} %p57.942.0, /*index=60*/bf16[6144,1024]{1,0} %p56.940.0, bf16[1024,3072]{1,0} %p55.938.0, bf16[1024]{0} %p61.1014.0, bf16[6144,1024]{1,0} %p60.1012.0, bf16[1024,3072]{1,0} %p59.1010.0, /*index=65*/bf16[1024]{0} %p65.1086.0, bf16[6144,1024]{1,0} %p64.1084.0, bf16[1024,3072]{1,0} %p63.1082.0, bf16[1024]{0} %p69.1158.0, bf16[6144,1024]{1,0} %p68.1156.0, /*index=70*/bf16[1024,3072]{1,0} %p67.1154.0, bf16[1024]{0} %p73.1230.0, bf16[6144,1024]{1,0} %p72.1228.0, bf16[1024,3072]{1,0} %p71.1226.0, bf16[1024]{0} %p77.1302.0, /*index=75*/bf16[6144,1024]{1,0} %p76.1300.0, bf16[1024,3072]{1,0} %p75.1298.0, bf16[1024]{0} %p81.1374.0, bf16[6144,1024]{1,0} %p80.1372.0, bf16[1024,3072]{1,0} %p79.1370.0, /*index=80*/bf16[1024]{0} %p85.1446.0, bf16[6144,1024]{1,0} %p84.1444.0, bf16[1024,3072]{1,0} %p83.1442.0, bf16[1024]{0} %p3.8.0, bf16[4096,1024]{1,0} %p2.6.0, /*index=85*/bf16[128]{0} %p0.1.0, bf16[40960,128]{1,0} %p87.1571.0, s32[64]{0} %p86.1570.0, bf16[2,4233,16,8,128]{4,3,2,1,0} %p88.1615.0), to_apply=%command_buffer
  %get-tuple-element.43 = bf16[64,8,128]{2,1,0} get-tuple-element((bf16[64,8,128]{2,1,0}, bf16[64,8,128]{2,1,0}, bf16[4233,16,8,128]{3,2,1,0}, bf16[1,4233,16,8,128]{4,3,2,1,0}) %call), index=0
  %get-tuple-element.44 = bf16[64,8,128]{2,1,0} get-tuple-element((bf16[64,8,128]{2,1,0}, bf16[64,8,128]{2,1,0}, bf16[4233,16,8,128]{3,2,1,0}, bf16[1,4233,16,8,128]{4,3,2,1,0}) %call), index=1
  %get-tuple-element.45 = bf16[4233,16,8,128]{3,2,1,0} get-tuple-element((bf16[64,8,128]{2,1,0}, bf16[64,8,128]{2,1,0}, bf16[4233,16,8,128]{3,2,1,0}, bf16[1,4233,16,8,128]{4,3,2,1,0}) %call), index=2
  %get-tuple-element.46 = bf16[1,4233,16,8,128]{4,3,2,1,0} get-tuple-element((bf16[64,8,128]{2,1,0}, bf16[64,8,128]{2,1,0}, bf16[4233,16,8,128]{3,2,1,0}, bf16[1,4233,16,8,128]{4,3,2,1,0}) %call), index=3
  %bitcast.4118.0 = bf16[4233,16,8,128]{3,2,1,0} bitcast(bf16[1,4233,16,8,128]{4,3,2,1,0} %get-tuple-element.46)
  ROOT %tuple.1624.0 = (bf16[64,8,128]{2,1,0}, bf16[64,8,128]{2,1,0}, bf16[4233,16,8,128]{3,2,1,0}, bf16[4233,16,8,128]{3,2,1,0}) tuple(bf16[64,8,128]{2,1,0} %get-tuple-element.43, bf16[64,8,128]{2,1,0} %get-tuple-element.44, bf16[4233,16,8,128]{3,2,1,0} %bitcast.4118.0, bf16[4233,16,8,128]{3,2,1,0} %get-tuple-element.45)
}

