#indexing_map = #xla.indexing_map<"(tid_0) -> (tid_0 * 22528), domain: tid_0 in [0, 15]">
#indexing_map1 = #xla.indexing_map<"(tid_0) -> (tid_0 * 1024), domain: tid_0 in [0, 15]">
#indexing_map2 = #xla.indexing_map<"(tid_0) -> (tid_0 * 22528 + 1024), domain: tid_0 in [0, 15]">
module {
  tt.func @fusion_256_impl(%arg0: !tt.ptr<f32> {tt.divisibility = 16 : i32}, %arg1: !tt.ptr<bf16> {tt.divisibility = 16 : i32}, %arg2: !tt.ptr<f32> {tt.divisibility = 16 : i32}, %arg3: !tt.ptr<bf16> {tt.divisibility = 16 : i32}, %arg4: !tt.ptr<bf16> {tt.divisibility = 16 : i32}, %arg5: !tt.ptr<bf16> {tt.divisibility = 16 : i32}, %arg6: !tt.ptr<bf16> {tt.divisibility = 16 : i32}) {
    %cst = arith.constant dense<9.765625E-4> : tensor<1xf32>
    %c21504_i64 = arith.constant 21504 : i64
    %c1024_i64 = arith.constant 1024 : i64
    %c0_i32 = arith.constant 0 : i32
    %c16_i64 = arith.constant 16 : i64
    %c22528_i64 = arith.constant 22528 : i64
    %c1_i64 = arith.constant 1 : i64
    %0 = tt.get_program_id x : i32
    %1 = arith.extsi %0 : i32 to i64
    %2 = arith.index_castui %1 : i64 to index
    %3 = arith.subi %c16_i64, %1 : i64
    %4 = xla.apply_indexing #indexing_map(%2)
    %5 = arith.index_castui %4 : index to i64
    %6 = tt.addptr %arg4, %5 : !tt.ptr<bf16>, i64
    %7 = tt.make_tensor_ptr %6, [%3, %c22528_i64], [%c22528_i64, %c1_i64], [%c0_i32, %c0_i32] {order = array<i32: 1, 0>} : <tensor<1x1024xbf16>>
    %8 = tt.load %7 : !tt.ptr<tensor<1x1024xbf16>>
    %9 = arith.extf %8 : tensor<1x1024xbf16> to tensor<1x1024xf32>
    %10 = xla.apply_indexing #indexing_map1(%2)
    %11 = arith.index_castui %10 : index to i64
    %12 = tt.addptr %arg5, %11 : !tt.ptr<bf16>, i64
    %13 = tt.make_tensor_ptr %12, [%3, %c1024_i64], [%c1024_i64, %c1_i64], [%c0_i32, %c0_i32] {order = array<i32: 1, 0>} : <tensor<1x1024xbf16>>
    %14 = tt.load %13 : !tt.ptr<tensor<1x1024xbf16>>
    %15 = arith.extf %14 : tensor<1x1024xbf16> to tensor<1x1024xf32>
    %16 = xla.apply_indexing #indexing_map2(%2)
    %17 = arith.index_castui %16 : index to i64
    %18 = tt.addptr %arg4, %17 : !tt.ptr<bf16>, i64
    %19 = tt.make_tensor_ptr %18, [%3, %c21504_i64], [%c22528_i64, %c1_i64], [%c0_i32, %c0_i32] {order = array<i32: 1, 0>} : <tensor<1x1024xbf16>>
    %20 = tt.load %19 : !tt.ptr<tensor<1x1024xbf16>>
    %21 = arith.extf %20 : tensor<1x1024xbf16> to tensor<1x1024xf32>
    %22 = tt.addptr %arg3, %11 : !tt.ptr<bf16>, i64
    %23 = tt.make_tensor_ptr %22, [%3, %c1024_i64], [%c1024_i64, %c1_i64], [%c0_i32, %c0_i32] {order = array<i32: 1, 0>} : <tensor<1x1024xbf16>>
    %24 = tt.load %23 : !tt.ptr<tensor<1x1024xbf16>>
    %25 = arith.extf %24 : tensor<1x1024xbf16> to tensor<1x1024xf32>
    %26 = tt.addptr %arg2, %11 : !tt.ptr<f32>, i64
    %27 = tt.make_tensor_ptr %26, [%3, %c1024_i64], [%c1024_i64, %c1_i64], [%c0_i32, %c0_i32] {order = array<i32: 1, 0>} : <tensor<1x1024xf32>>
    %28 = tt.load %27 : !tt.ptr<tensor<1x1024xf32>>
    %29 = arith.addf %25, %28 : tensor<1x1024xf32>
    %30 = arith.addf %21, %29 : tensor<1x1024xf32>
    %31 = arith.addf %15, %30 : tensor<1x1024xf32>
    %32 = arith.addf %9, %31 : tensor<1x1024xf32>
    %33 = arith.mulf %32, %32 : tensor<1x1024xf32>
    %34 = "tt.reduce"(%33) <{axis = 1 : i32}> ({
    ^bb0(%arg7: f32, %arg8: f32):
      %51 = arith.addf %arg7, %arg8 : f32
      tt.reduce.return %51 : f32
    }) : (tensor<1x1024xf32>) -> tensor<1xf32>
    %35 = arith.mulf %34, %cst : tensor<1xf32>
    %36 = tt.load %arg0 : !tt.ptr<f32>
    %37 = tt.splat %36 : f32 -> tensor<1xf32>
    %38 = arith.addf %35, %37 : tensor<1xf32>
    %39 = tt.extern_elementwise %38 {libname = "libdevice", libpath = "/usr/local/cuda-12.6/nvvm/libdevice/libdevice.10.bc", pure = true, symbol = "__nv_rsqrtf"} : (tensor<1xf32>) -> tensor<1xf32>
    %40 = tt.expand_dims %39 {axis = 1 : i32} : tensor<1xf32> -> tensor<1x1xf32>
    %41 = tt.broadcast %40 : tensor<1x1xf32> -> tensor<1x1024xf32>
    %42 = arith.mulf %32, %41 : tensor<1x1024xf32>
    %43 = tt.make_tensor_ptr %arg1, [%c1024_i64], [%c1_i64], [%c0_i32] {order = array<i32: 0>} : <tensor<1024xbf16>>
    %44 = tt.load %43 : !tt.ptr<tensor<1024xbf16>>
    %45 = arith.extf %44 : tensor<1024xbf16> to tensor<1024xf32>
    %46 = tt.expand_dims %45 {axis = 0 : i32} : tensor<1024xf32> -> tensor<1x1024xf32>
    %47 = arith.mulf %42, %46 : tensor<1x1024xf32>
    %48 = arith.truncf %47 : tensor<1x1024xf32> to tensor<1x1024xbf16>
    %49 = tt.addptr %arg6, %11 : !tt.ptr<bf16>, i64
    %50 = tt.make_tensor_ptr %49, [%3, %c1024_i64], [%c1024_i64, %c1_i64], [%c0_i32, %c0_i32] {order = array<i32: 1, 0>} : <tensor<1x1024xbf16>>
    tt.store %50, %48 : !tt.ptr<tensor<1x1024xbf16>>
    tt.return
  }
}
