HloModule SyncTensorsGraph.2069, entry_computation_layout={(bf16[128]{0}, f32[], bf16[4096,1024]{1,0}, bf16[1024]{0}, s32[32]{0}, /*index=5*/bf16[151936,1024]{1,0}, bf16[1024,2048]{1,0}, bf16[1024,3072]{1,0}, bf16[6144,1024]{1,0}, bf16[1024]{0}, /*index=10*/bf16[1024,2048]{1,0}, bf16[1024,3072]{1,0}, bf16[6144,1024]{1,0}, bf16[1024]{0}, bf16[1024,2048]{1,0}, /*index=15*/bf16[1024,3072]{1,0}, bf16[6144,1024]{1,0}, bf16[1024]{0}, bf16[1024,2048]{1,0}, bf16[1024,3072]{1,0}, /*index=20*/bf16[6144,1024]{1,0}, bf16[1024]{0}, bf16[1024,2048]{1,0}, bf16[1024,3072]{1,0}, bf16[6144,1024]{1,0}, /*index=25*/bf16[1024]{0}, bf16[1024,2048]{1,0}, bf16[1024,3072]{1,0}, bf16[6144,1024]{1,0}, bf16[1024]{0}, /*index=30*/bf16[1024,2048]{1,0}, bf16[1024,3072]{1,0}, bf16[6144,1024]{1,0}, bf16[1024]{0}, bf16[1024,2048]{1,0}, /*index=35*/bf16[1024,3072]{1,0}, bf16[6144,1024]{1,0}, bf16[1024]{0}, bf16[1024,2048]{1,0}, bf16[1024,3072]{1,0}, /*index=40*/bf16[6144,1024]{1,0}, bf16[1024]{0}, bf16[1024,2048]{1,0}, bf16[1024,3072]{1,0}, bf16[6144,1024]{1,0}, /*index=45*/bf16[1024]{0}, bf16[1024,2048]{1,0}, bf16[1024,3072]{1,0}, bf16[6144,1024]{1,0}, bf16[1024]{0}, /*index=50*/bf16[1024,2048]{1,0}, bf16[1024,3072]{1,0}, bf16[6144,1024]{1,0}, bf16[1024]{0}, bf16[1024,2048]{1,0}, /*index=55*/bf16[1024,3072]{1,0}, bf16[6144,1024]{1,0}, bf16[1024]{0}, bf16[1024,2048]{1,0}, bf16[1024,3072]{1,0}, /*index=60*/bf16[6144,1024]{1,0}, bf16[1024]{0}, bf16[1024,2048]{1,0}, bf16[1024,3072]{1,0}, bf16[6144,1024]{1,0}, /*index=65*/bf16[1024]{0}, bf16[1024,2048]{1,0}, bf16[1024,3072]{1,0}, bf16[6144,1024]{1,0}, bf16[1024]{0}, /*index=70*/bf16[1024,2048]{1,0}, bf16[1024,3072]{1,0}, bf16[6144,1024]{1,0}, bf16[1024]{0}, bf16[1024,2048]{1,0}, /*index=75*/bf16[1024,3072]{1,0}, bf16[6144,1024]{1,0}, bf16[1024]{0}, bf16[1024,2048]{1,0}, bf16[1024,3072]{1,0}, /*index=80*/bf16[6144,1024]{1,0}, bf16[1024]{0}, bf16[1024,2048]{1,0}, bf16[1024,3072]{1,0}, bf16[6144,1024]{1,0}, /*index=85*/bf16[1024]{0}, bf16[1024,2048]{1,0}, bf16[1024,3072]{1,0}, bf16[6144,1024]{1,0}, bf16[1024]{0}, /*index=90*/bf16[1024,2048]{1,0}, bf16[1024,3072]{1,0}, bf16[6144,1024]{1,0}, bf16[1024]{0}, bf16[1024,2048]{1,0}, /*index=95*/bf16[1024,3072]{1,0}, bf16[6144,1024]{1,0}, bf16[1024]{0}, bf16[1024,2048]{1,0}, bf16[1024,3072]{1,0}, /*index=100*/bf16[6144,1024]{1,0}, bf16[1024]{0}, bf16[1024,2048]{1,0}, bf16[1024,3072]{1,0}, bf16[6144,1024]{1,0}, /*index=105*/bf16[1024]{0}, bf16[1024,2048]{1,0}, bf16[1024,3072]{1,0}, bf16[6144,1024]{1,0}, bf16[1024]{0}, /*index=110*/s32[32]{0}, bf16[40960,128]{1,0}, bf16[2,4233,16,8,128]{4,3,2,1,0})->(bf16[32,8,128]{2,1,0}, bf16[32,8,128]{2,1,0}, bf16[4233,16,8,128]{3,2,1,0}, bf16[4233,16,8,128]{3,2,1,0})}

%AddComputation.98 (x.99: f32[], y.100: f32[]) -> f32[] {
  %x.99 = f32[] parameter(0)
  %y.100 = f32[] parameter(1)
  ROOT %add.101 = f32[] add(f32[] %x.99, f32[] %y.100)
}

%AddComputation.170 (x.171: f32[], y.172: f32[]) -> f32[] {
  %x.171 = f32[] parameter(0)
  %y.172 = f32[] parameter(1)
  ROOT %add.173 = f32[] add(f32[] %x.171, f32[] %y.172)
}

%AddComputation.242 (x.243: f32[], y.244: f32[]) -> f32[] {
  %x.243 = f32[] parameter(0)
  %y.244 = f32[] parameter(1)
  ROOT %add.245 = f32[] add(f32[] %x.243, f32[] %y.244)
}

%AddComputation.314 (x.315: f32[], y.316: f32[]) -> f32[] {
  %x.315 = f32[] parameter(0)
  %y.316 = f32[] parameter(1)
  ROOT %add.317 = f32[] add(f32[] %x.315, f32[] %y.316)
}

%AddComputation.386 (x.387: f32[], y.388: f32[]) -> f32[] {
  %x.387 = f32[] parameter(0)
  %y.388 = f32[] parameter(1)
  ROOT %add.389 = f32[] add(f32[] %x.387, f32[] %y.388)
}

%AddComputation.458 (x.459: f32[], y.460: f32[]) -> f32[] {
  %x.459 = f32[] parameter(0)
  %y.460 = f32[] parameter(1)
  ROOT %add.461 = f32[] add(f32[] %x.459, f32[] %y.460)
}

%AddComputation.530 (x.531: f32[], y.532: f32[]) -> f32[] {
  %x.531 = f32[] parameter(0)
  %y.532 = f32[] parameter(1)
  ROOT %add.533 = f32[] add(f32[] %x.531, f32[] %y.532)
}

%AddComputation.602 (x.603: f32[], y.604: f32[]) -> f32[] {
  %x.603 = f32[] parameter(0)
  %y.604 = f32[] parameter(1)
  ROOT %add.605 = f32[] add(f32[] %x.603, f32[] %y.604)
}

%AddComputation.674 (x.675: f32[], y.676: f32[]) -> f32[] {
  %x.675 = f32[] parameter(0)
  %y.676 = f32[] parameter(1)
  ROOT %add.677 = f32[] add(f32[] %x.675, f32[] %y.676)
}

%AddComputation.746 (x.747: f32[], y.748: f32[]) -> f32[] {
  %x.747 = f32[] parameter(0)
  %y.748 = f32[] parameter(1)
  ROOT %add.749 = f32[] add(f32[] %x.747, f32[] %y.748)
}

%AddComputation.818 (x.819: f32[], y.820: f32[]) -> f32[] {
  %x.819 = f32[] parameter(0)
  %y.820 = f32[] parameter(1)
  ROOT %add.821 = f32[] add(f32[] %x.819, f32[] %y.820)
}

%AddComputation.890 (x.891: f32[], y.892: f32[]) -> f32[] {
  %x.891 = f32[] parameter(0)
  %y.892 = f32[] parameter(1)
  ROOT %add.893 = f32[] add(f32[] %x.891, f32[] %y.892)
}

%AddComputation.962 (x.963: f32[], y.964: f32[]) -> f32[] {
  %x.963 = f32[] parameter(0)
  %y.964 = f32[] parameter(1)
  ROOT %add.965 = f32[] add(f32[] %x.963, f32[] %y.964)
}

%AddComputation.1034 (x.1035: f32[], y.1036: f32[]) -> f32[] {
  %x.1035 = f32[] parameter(0)
  %y.1036 = f32[] parameter(1)
  ROOT %add.1037 = f32[] add(f32[] %x.1035, f32[] %y.1036)
}

%AddComputation.1106 (x.1107: f32[], y.1108: f32[]) -> f32[] {
  %x.1107 = f32[] parameter(0)
  %y.1108 = f32[] parameter(1)
  ROOT %add.1109 = f32[] add(f32[] %x.1107, f32[] %y.1108)
}

%AddComputation.1178 (x.1179: f32[], y.1180: f32[]) -> f32[] {
  %x.1179 = f32[] parameter(0)
  %y.1180 = f32[] parameter(1)
  ROOT %add.1181 = f32[] add(f32[] %x.1179, f32[] %y.1180)
}

%AddComputation.1250 (x.1251: f32[], y.1252: f32[]) -> f32[] {
  %x.1251 = f32[] parameter(0)
  %y.1252 = f32[] parameter(1)
  ROOT %add.1253 = f32[] add(f32[] %x.1251, f32[] %y.1252)
}

%AddComputation.1322 (x.1323: f32[], y.1324: f32[]) -> f32[] {
  %x.1323 = f32[] parameter(0)
  %y.1324 = f32[] parameter(1)
  ROOT %add.1325 = f32[] add(f32[] %x.1323, f32[] %y.1324)
}

%AddComputation.1394 (x.1395: f32[], y.1396: f32[]) -> f32[] {
  %x.1395 = f32[] parameter(0)
  %y.1396 = f32[] parameter(1)
  ROOT %add.1397 = f32[] add(f32[] %x.1395, f32[] %y.1396)
}

%AddComputation.1466 (x.1467: f32[], y.1468: f32[]) -> f32[] {
  %x.1467 = f32[] parameter(0)
  %y.1468 = f32[] parameter(1)
  ROOT %add.1469 = f32[] add(f32[] %x.1467, f32[] %y.1468)
}

%AddComputation.1538 (x.1539: f32[], y.1540: f32[]) -> f32[] {
  %x.1539 = f32[] parameter(0)
  %y.1540 = f32[] parameter(1)
  ROOT %add.1541 = f32[] add(f32[] %x.1539, f32[] %y.1540)
}

%AddComputation.1610 (x.1611: f32[], y.1612: f32[]) -> f32[] {
  %x.1611 = f32[] parameter(0)
  %y.1612 = f32[] parameter(1)
  ROOT %add.1613 = f32[] add(f32[] %x.1611, f32[] %y.1612)
}

%AddComputation.1682 (x.1683: f32[], y.1684: f32[]) -> f32[] {
  %x.1683 = f32[] parameter(0)
  %y.1684 = f32[] parameter(1)
  ROOT %add.1685 = f32[] add(f32[] %x.1683, f32[] %y.1684)
}

%AddComputation.1754 (x.1755: f32[], y.1756: f32[]) -> f32[] {
  %x.1755 = f32[] parameter(0)
  %y.1756 = f32[] parameter(1)
  ROOT %add.1757 = f32[] add(f32[] %x.1755, f32[] %y.1756)
}

%AddComputation.1826 (x.1827: f32[], y.1828: f32[]) -> f32[] {
  %x.1827 = f32[] parameter(0)
  %y.1828 = f32[] parameter(1)
  ROOT %add.1829 = f32[] add(f32[] %x.1827, f32[] %y.1828)
}

%AddComputation.1898 (x.1899: f32[], y.1900: f32[]) -> f32[] {
  %x.1899 = f32[] parameter(0)
  %y.1900 = f32[] parameter(1)
  ROOT %add.1901 = f32[] add(f32[] %x.1899, f32[] %y.1900)
}

%AddComputation.1944 (x.1945: f32[], y.1946: f32[]) -> f32[] {
  %x.1945 = f32[] parameter(0)
  %y.1946 = f32[] parameter(1)
  ROOT %add.1947 = f32[] add(f32[] %x.1945, f32[] %y.1946)
}

%AddComputation.1982 (x.1983: f32[], y.1984: f32[]) -> f32[] {
  %x.1983 = f32[] parameter(0)
  %y.1984 = f32[] parameter(1)
  ROOT %add.1985 = f32[] add(f32[] %x.1983, f32[] %y.1984)
}

ENTRY %SyncTensorsGraph.2069 (p0.1: bf16[128], p1.4: f32[], p2.6: bf16[4096,1024], p3.8: bf16[1024], p4.64: s32[32], p5.66: bf16[151936,1024], p6.70: bf16[1024,2048], p7.86: bf16[1024,3072], p8.88: bf16[6144,1024], p9.90: bf16[1024], p10.142: bf16[1024,2048], p11.158: bf16[1024,3072], p12.160: bf16[6144,1024], p13.162: bf16[1024], p14.214: bf16[1024,2048], p15.230: bf16[1024,3072], p16.232: bf16[6144,1024], p17.234: bf16[1024], p18.286: bf16[1024,2048], p19.302: bf16[1024,3072], p20.304: bf16[6144,1024], p21.306: bf16[1024], p22.358: bf16[1024,2048], p23.374: bf16[1024,3072], p24.376: bf16[6144,1024], p25.378: bf16[1024], p26.430: bf16[1024,2048], p27.446: bf16[1024,3072], p28.448: bf16[6144,1024], p29.450: bf16[1024], p30.502: bf16[1024,2048], p31.518: bf16[1024,3072], p32.520: bf16[6144,1024], p33.522: bf16[1024], p34.574: bf16[1024,2048], p35.590: bf16[1024,3072], p36.592: bf16[6144,1024], p37.594: bf16[1024], p38.646: bf16[1024,2048], p39.662: bf16[1024,3072], p40.664: bf16[6144,1024], p41.666: bf16[1024], p42.718: bf16[1024,2048], p43.734: bf16[1024,3072], p44.736: bf16[6144,1024], p45.738: bf16[1024], p46.790: bf16[1024,2048], p47.806: bf16[1024,3072], p48.808: bf16[6144,1024], p49.810: bf16[1024], p50.862: bf16[1024,2048], p51.878: bf16[1024,3072], p52.880: bf16[6144,1024], p53.882: bf16[1024], p54.934: bf16[1024,2048], p55.950: bf16[1024,3072], p56.952: bf16[6144,1024], p57.954: bf16[1024], p58.1006: bf16[1024,2048], p59.1022: bf16[1024,3072], p60.1024: bf16[6144,1024], p61.1026: bf16[1024], p62.1078: bf16[1024,2048], p63.1094: bf16[1024,3072], p64.1096: bf16[6144,1024], p65.1098: bf16[1024], p66.1150: bf16[1024,2048], p67.1166: bf16[1024,3072], p68.1168: bf16[6144,1024], p69.1170: bf16[1024], p70.1222: bf16[1024,2048], p71.1238: bf16[1024,3072], p72.1240: bf16[6144,1024], p73.1242: bf16[1024], p74.1294: bf16[1024,2048], p75.1310: bf16[1024,3072], p76.1312: bf16[6144,1024], p77.1314: bf16[1024], p78.1366: bf16[1024,2048], p79.1382: bf16[1024,3072], p80.1384: bf16[6144,1024], p81.1386: bf16[1024], p82.1438: bf16[1024,2048], p83.1454: bf16[1024,3072], p84.1456: bf16[6144,1024], p85.1458: bf16[1024], p86.1510: bf16[1024,2048], p87.1526: bf16[1024,3072], p88.1528: bf16[6144,1024], p89.1530: bf16[1024], p90.1582: bf16[1024,2048], p91.1598: bf16[1024,3072], p92.1600: bf16[6144,1024], p93.1602: bf16[1024], p94.1654: bf16[1024,2048], p95.1670: bf16[1024,3072], p96.1672: bf16[6144,1024], p97.1674: bf16[1024], p98.1726: bf16[1024,2048], p99.1742: bf16[1024,3072], p100.1744: bf16[6144,1024], p101.1746: bf16[1024], p102.1798: bf16[1024,2048], p103.1814: bf16[1024,3072], p104.1816: bf16[6144,1024], p105.1818: bf16[1024], p106.1870: bf16[1024,2048], p107.1886: bf16[1024,3072], p108.1888: bf16[6144,1024], p109.1890: bf16[1024], p110.2014: s32[32], p111.2015: bf16[40960,128], p112.2059: bf16[2,4233,16,8,128]) -> (bf16[32,8,128], bf16[32,8,128], bf16[4233,16,8,128], bf16[4233,16,8,128]) {
  %constant.1872 = bf16[] constant(0), metadata={op_type="prim__Constant" op_name="prim__Constant" source_file="/usr/local/lib/python3.10/site-packages/torch/_ops.py" source_line=756}
  %reshape.1873 = bf16[1,1]{1,0} reshape(bf16[] %constant.1872), metadata={op_type="aten__expand" op_name="aten__expand" source_file="/usr/local/lib/python3.10/site-packages/torch/_ops.py" source_line=756}
  %broadcast.1874 = bf16[1,1]{1,0} broadcast(bf16[1,1]{1,0} %reshape.1873), dimensions={0,1}, metadata={op_type="aten__expand" op_name="aten__expand" source_file="/usr/local/lib/python3.10/site-packages/torch/_ops.py" source_line=756}
  %reshape.1875 = bf16[] reshape(bf16[1,1]{1,0} %broadcast.1874), metadata={op_type="aten__expand" op_name="aten__expand" source_file="/usr/local/lib/python3.10/site-packages/torch/_ops.py" source_line=756}
  %broadcast.1876 = bf16[32,2048]{1,0} broadcast(bf16[] %reshape.1875), dimensions={}, metadata={op_type="aten__expand" op_name="aten__expand" source_file="/usr/local/lib/python3.10/site-packages/torch/_ops.py" source_line=756}
  %reshape.1877 = bf16[32,16,128]{2,1,0} reshape(bf16[32,2048]{1,0} %broadcast.1876), metadata={op_type="aten__view" op_name="aten__view" source_file="/usr/local/lib/python3.10/site-packages/torch/_ops.py" source_line=756}
  %reshape.1878 = bf16[32,2048]{1,0} reshape(bf16[32,16,128]{2,1,0} %reshape.1877), metadata={op_type="aten__view" op_name="aten__view" source_file="/usr/local/lib/python3.10/site-packages/torch/_ops.py" source_line=756}
  %p106.1870 = bf16[1024,2048]{1,0} parameter(106), metadata={op_type="xla__device_data" op_name="xla__device_data" source_file="/usr/local/lib/python3.10/site-packages/torch_xla/_dynamo/dynamo_bridge.py" source_line=355}
  %transpose.1871 = bf16[2048,1024]{0,1} transpose(bf16[1024,2048]{1,0} %p106.1870), dimensions={1,0}, metadata={op_type="aten__permute" op_name="aten__permute" source_file="/usr/local/lib/python3.10/site-packages/torch/_ops.py" source_line=756}
  %dot.1879 = bf16[32,1024]{1,0} dot(bf16[32,2048]{1,0} %reshape.1878, bf16[2048,1024]{0,1} %transpose.1871), lhs_contracting_dims={1}, rhs_contracting_dims={0}, metadata={op_type="aten__mm" op_name="aten__mm" source_file="/usr/local/lib/python3.10/site-packages/torch/_ops.py" source_line=756}
  %convert.1880 = f32[32,1024]{1,0} convert(bf16[32,1024]{1,0} %dot.1879), metadata={op_type="xla__cast" op_name="xla__cast" source_file="/usr/local/lib/python3.10/site-packages/torch/_ops.py" source_line=756}
  %constant.1800 = bf16[] constant(0), metadata={op_type="prim__Constant" op_name="prim__Constant" source_file="/usr/local/lib/python3.10/site-packages/torch/_ops.py" source_line=756}
  %reshape.1801 = bf16[1,1]{1,0} reshape(bf16[] %constant.1800), metadata={op_type="aten__expand" op_name="aten__expand" source_file="/usr/local/lib/python3.10/site-packages/torch/_ops.py" source_line=756}
  %broadcast.1802 = bf16[1,1]{1,0} broadcast(bf16[1,1]{1,0} %reshape.1801), dimensions={0,1}, metadata={op_type="aten__expand" op_name="aten__expand" source_file="/usr/local/lib/python3.10/site-packages/torch/_ops.py" source_line=756}
  %reshape.1803 = bf16[] reshape(bf16[1,1]{1,0} %broadcast.1802), metadata={op_type="aten__expand" op_name="aten__expand" source_file="/usr/local/lib/python3.10/site-packages/torch/_ops.py" source_line=756}
  %broadcast.1804 = bf16[32,2048]{1,0} broadcast(bf16[] %reshape.1803), dimensions={}, metadata={op_type="aten__expand" op_name="aten__expand" source_file="/usr/local/lib/python3.10/site-packages/torch/_ops.py" source_line=756}
  %reshape.1805 = bf16[32,16,128]{2,1,0} reshape(bf16[32,2048]{1,0} %broadcast.1804), metadata={op_type="aten__view" op_name="aten__view" source_file="/usr/local/lib/python3.10/site-packages/torch/_ops.py" source_line=756}
  %reshape.1806 = bf16[32,2048]{1,0} reshape(bf16[32,16,128]{2,1,0} %reshape.1805), metadata={op_type="aten__view" op_name="aten__view" source_file="/usr/local/lib/python3.10/site-packages/torch/_ops.py" source_line=756}
  %p102.1798 = bf16[1024,2048]{1,0} parameter(102), metadata={op_type="xla__device_data" op_name="xla__device_data" source_file="/usr/local/lib/python3.10/site-packages/torch_xla/_dynamo/dynamo_bridge.py" source_line=355}
  %transpose.1799 = bf16[2048,1024]{0,1} transpose(bf16[1024,2048]{1,0} %p102.1798), dimensions={1,0}, metadata={op_type="aten__permute" op_name="aten__permute" source_file="/usr/local/lib/python3.10/site-packages/torch/_ops.py" source_line=756}
  %dot.1807 = bf16[32,1024]{1,0} dot(bf16[32,2048]{1,0} %reshape.1806, bf16[2048,1024]{0,1} %transpose.1799), lhs_contracting_dims={1}, rhs_contracting_dims={0}, metadata={op_type="aten__mm" op_name="aten__mm" source_file="/usr/local/lib/python3.10/site-packages/torch/_ops.py" source_line=756}
  %convert.1808 = f32[32,1024]{1,0} convert(bf16[32,1024]{1,0} %dot.1807), metadata={op_type="xla__cast" op_name="xla__cast" source_file="/usr/local/lib/python3.10/site-packages/torch/_ops.py" source_line=756}
  %constant.1728 = bf16[] constant(0), metadata={op_type="prim__Constant" op_name="prim__Constant" source_file="/usr/local/lib/python3.10/site-packages/torch/_ops.py" source_line=756}
  %reshape.1729 = bf16[1,1]{1,0} reshape(bf16[] %constant.1728), metadata={op_type="aten__expand" op_name="aten__expand" source_file="/usr/local/lib/python3.10/site-packages/torch/_ops.py" source_line=756}
  %broadcast.1730 = bf16[1,1]{1,0} broadcast(bf16[1,1]{1,0} %reshape.1729), dimensions={0,1}, metadata={op_type="aten__expand" op_name="aten__expand" source_file="/usr/local/lib/python3.10/site-packages/torch/_ops.py" source_line=756}
  %reshape.1731 = bf16[] reshape(bf16[1,1]{1,0} %broadcast.1730), metadata={op_type="aten__expand" op_name="aten__expand" source_file="/usr/local/lib/python3.10/site-packages/torch/_ops.py" source_line=756}
  %broadcast.1732 = bf16[32,2048]{1,0} broadcast(bf16[] %reshape.1731), dimensions={}, metadata={op_type="aten__expand" op_name="aten__expand" source_file="/usr/local/lib/python3.10/site-packages/torch/_ops.py" source_line=756}
  %reshape.1733 = bf16[32,16,128]{2,1,0} reshape(bf16[32,2048]{1,0} %broadcast.1732), metadata={op_type="aten__view" op_name="aten__view" source_file="/usr/local/lib/python3.10/site-packages/torch/_ops.py" source_line=756}
  %reshape.1734 = bf16[32,2048]{1,0} reshape(bf16[32,16,128]{2,1,0} %reshape.1733), metadata={op_type="aten__view" op_name="aten__view" source_file="/usr/local/lib/python3.10/site-packages/torch/_ops.py" source_line=756}
  %p98.1726 = bf16[1024,2048]{1,0} parameter(98), metadata={op_type="xla__device_data" op_name="xla__device_data" source_file="/usr/local/lib/python3.10/site-packages/torch_xla/_dynamo/dynamo_bridge.py" source_line=355}
  %transpose.1727 = bf16[2048,1024]{0,1} transpose(bf16[1024,2048]{1,0} %p98.1726), dimensions={1,0}, metadata={op_type="aten__permute" op_name="aten__permute" source_file="/usr/local/lib/python3.10/site-packages/torch/_ops.py" source_line=756}
  %dot.1735 = bf16[32,1024]{1,0} dot(bf16[32,2048]{1,0} %reshape.1734, bf16[2048,1024]{0,1} %transpose.1727), lhs_contracting_dims={1}, rhs_contracting_dims={0}, metadata={op_type="aten__mm" op_name="aten__mm" source_file="/usr/local/lib/python3.10/site-packages/torch/_ops.py" source_line=756}
  %convert.1736 = f32[32,1024]{1,0} convert(bf16[32,1024]{1,0} %dot.1735), metadata={op_type="xla__cast" op_name="xla__cast" source_file="/usr/local/lib/python3.10/site-packages/torch/_ops.py" source_line=756}
  %constant.1656 = bf16[] constant(0), metadata={op_type="prim__Constant" op_name="prim__Constant" source_file="/usr/local/lib/python3.10/site-packages/torch/_ops.py" source_line=756}
  %reshape.1657 = bf16[1,1]{1,0} reshape(bf16[] %constant.1656), metadata={op_type="aten__expand" op_name="aten__expand" source_file="/usr/local/lib/python3.10/site-packages/torch/_ops.py" source_line=756}
  %broadcast.1658 = bf16[1,1]{1,0} broadcast(bf16[1,1]{1,0} %reshape.1657), dimensions={0,1}, metadata={op_type="aten__expand" op_name="aten__expand" source_file="/usr/local/lib/python3.10/site-packages/torch/_ops.py" source_line=756}
  %reshape.1659 = bf16[] reshape(bf16[1,1]{1,0} %broadcast.1658), metadata={op_type="aten__expand" op_name="aten__expand" source_file="/usr/local/lib/python3.10/site-packages/torch/_ops.py" source_line=756}
  %broadcast.1660 = bf16[32,2048]{1,0} broadcast(bf16[] %reshape.1659), dimensions={}, metadata={op_type="aten__expand" op_name="aten__expand" source_file="/usr/local/lib/python3.10/site-packages/torch/_ops.py" source_line=756}
  %reshape.1661 = bf16[32,16,128]{2,1,0} reshape(bf16[32,2048]{1,0} %broadcast.1660), metadata={op_type="aten__view" op_name="aten__view" source_file="/usr/local/lib/python3.10/site-packages/torch/_ops.py" source_line=756}
  %reshape.1662 = bf16[32,2048]{1,0} reshape(bf16[32,16,128]{2,1,0} %reshape.1661), metadata={op_type="aten__view" op_name="aten__view" source_file="/usr/local/lib/python3.10/site-packages/torch/_ops.py" source_line=756}
  %p94.1654 = bf16[1024,2048]{1,0} parameter(94), metadata={op_type="xla__device_data" op_name="xla__device_data" source_file="/usr/local/lib/python3.10/site-packages/torch_xla/_dynamo/dynamo_bridge.py" source_line=355}
  %transpose.1655 = bf16[2048,1024]{0,1} transpose(bf16[1024,2048]{1,0} %p94.1654), dimensions={1,0}, metadata={op_type="aten__permute" op_name="aten__permute" source_file="/usr/local/lib/python3.10/site-packages/torch/_ops.py" source_line=756}
  %dot.1663 = bf16[32,1024]{1,0} dot(bf16[32,2048]{1,0} %reshape.1662, bf16[2048,1024]{0,1} %transpose.1655), lhs_contracting_dims={1}, rhs_contracting_dims={0}, metadata={op_type="aten__mm" op_name="aten__mm" source_file="/usr/local/lib/python3.10/site-packages/torch/_ops.py" source_line=756}
  %convert.1664 = f32[32,1024]{1,0} convert(bf16[32,1024]{1,0} %dot.1663), metadata={op_type="xla__cast" op_name="xla__cast" source_file="/usr/local/lib/python3.10/site-packages/torch/_ops.py" source_line=756}
  %constant.1584 = bf16[] constant(0), metadata={op_type="prim__Constant" op_name="prim__Constant" source_file="/usr/local/lib/python3.10/site-packages/torch/_ops.py" source_line=756}
  %reshape.1585 = bf16[1,1]{1,0} reshape(bf16[] %constant.1584), metadata={op_type="aten__expand" op_name="aten__expand" source_file="/usr/local/lib/python3.10/site-packages/torch/_ops.py" source_line=756}
  %broadcast.1586 = bf16[1,1]{1,0} broadcast(bf16[1,1]{1,0} %reshape.1585), dimensions={0,1}, metadata={op_type="aten__expand" op_name="aten__expand" source_file="/usr/local/lib/python3.10/site-packages/torch/_ops.py" source_line=756}
  %reshape.1587 = bf16[] reshape(bf16[1,1]{1,0} %broadcast.1586), metadata={op_type="aten__expand" op_name="aten__expand" source_file="/usr/local/lib/python3.10/site-packages/torch/_ops.py" source_line=756}
  %broadcast.1588 = bf16[32,2048]{1,0} broadcast(bf16[] %reshape.1587), dimensions={}, metadata={op_type="aten__expand" op_name="aten__expand" source_file="/usr/local/lib/python3.10/site-packages/torch/_ops.py" source_line=756}
  %reshape.1589 = bf16[32,16,128]{2,1,0} reshape(bf16[32,2048]{1,0} %broadcast.1588), metadata={op_type="aten__view" op_name="aten__view" source_file="/usr/local/lib/python3.10/site-packages/torch/_ops.py" source_line=756}
  %reshape.1590 = bf16[32,2048]{1,0} reshape(bf16[32,16,128]{2,1,0} %reshape.1589), metadata={op_type="aten__view" op_name="aten__view" source_file="/usr/local/lib/python3.10/site-packages/torch/_ops.py" source_line=756}
  %p90.1582 = bf16[1024,2048]{1,0} parameter(90), metadata={op_type="xla__device_data" op_name="xla__device_data" source_file="/usr/local/lib/python3.10/site-packages/torch_xla/_dynamo/dynamo_bridge.py" source_line=355}
  %transpose.1583 = bf16[2048,1024]{0,1} transpose(bf16[1024,2048]{1,0} %p90.1582), dimensions={1,0}, metadata={op_type="aten__permute" op_name="aten__permute" source_file="/usr/local/lib/python3.10/site-packages/torch/_ops.py" source_line=756}
  %dot.1591 = bf16[32,1024]{1,0} dot(bf16[32,2048]{1,0} %reshape.1590, bf16[2048,1024]{0,1} %transpose.1583), lhs_contracting_dims={1}, rhs_contracting_dims={0}, metadata={op_type="aten__mm" op_name="aten__mm" source_file="/usr/local/lib/python3.10/site-packages/torch/_ops.py" source_line=756}
  %convert.1592 = f32[32,1024]{1,0} convert(bf16[32,1024]{1,0} %dot.1591), metadata={op_type="xla__cast" op_name="xla__cast" source_file="/usr/local/lib/python3.10/site-packages/torch/_ops.py" source_line=756}
  %constant.1512 = bf16[] constant(0), metadata={op_type="prim__Constant" op_name="prim__Constant" source_file="/usr/local/lib/python3.10/site-packages/torch/_ops.py" source_line=756}
  %reshape.1513 = bf16[1,1]{1,0} reshape(bf16[] %constant.1512), metadata={op_type="aten__expand" op_name="aten__expand" source_file="/usr/local/lib/python3.10/site-packages/torch/_ops.py" source_line=756}
  %broadcast.1514 = bf16[1,1]{1,0} broadcast(bf16[1,1]{1,0} %reshape.1513), dimensions={0,1}, metadata={op_type="aten__expand" op_name="aten__expand" source_file="/usr/local/lib/python3.10/site-packages/torch/_ops.py" source_line=756}
  %reshape.1515 = bf16[] reshape(bf16[1,1]{1,0} %broadcast.1514), metadata={op_type="aten__expand" op_name="aten__expand" source_file="/usr/local/lib/python3.10/site-packages/torch/_ops.py" source_line=756}
  %broadcast.1516 = bf16[32,2048]{1,0} broadcast(bf16[] %reshape.1515), dimensions={}, metadata={op_type="aten__expand" op_name="aten__expand" source_file="/usr/local/lib/python3.10/site-packages/torch/_ops.py" source_line=756}
  %reshape.1517 = bf16[32,16,128]{2,1,0} reshape(bf16[32,2048]{1,0} %broadcast.1516), metadata={op_type="aten__view" op_name="aten__view" source_file="/usr/local/lib/python3.10/site-packages/torch/_ops.py" source_line=756}
  %reshape.1518 = bf16[32,2048]{1,0} reshape(bf16[32,16,128]{2,1,0} %reshape.1517), metadata={op_type="aten__view" op_name="aten__view" source_file="/usr/local/lib/python3.10/site-packages/torch/_ops.py" source_line=756}
  %p86.1510 = bf16[1024,2048]{1,0} parameter(86), metadata={op_type="xla__device_data" op_name="xla__device_data" source_file="/usr/local/lib/python3.10/site-packages/torch_xla/_dynamo/dynamo_bridge.py" source_line=355}
  %transpose.1511 = bf16[2048,1024]{0,1} transpose(bf16[1024,2048]{1,0} %p86.1510), dimensions={1,0}, metadata={op_type="aten__permute" op_name="aten__permute" source_file="/usr/local/lib/python3.10/site-packages/torch/_ops.py" source_line=756}
  %dot.1519 = bf16[32,1024]{1,0} dot(bf16[32,2048]{1,0} %reshape.1518, bf16[2048,1024]{0,1} %transpose.1511), lhs_contracting_dims={1}, rhs_contracting_dims={0}, metadata={op_type="aten__mm" op_name="aten__mm" source_file="/usr/local/lib/python3.10/site-packages/torch/_ops.py" source_line=756}
  %convert.1520 = f32[32,1024]{1,0} convert(bf16[32,1024]{1,0} %dot.1519), metadata={op_type="xla__cast" op_name="xla__cast" source_file="/usr/local/lib/python3.10/site-packages/torch/_ops.py" source_line=756}
  %constant.1440 = bf16[] constant(0), metadata={op_type="prim__Constant" op_name="prim__Constant" source_file="/usr/local/lib/python3.10/site-packages/torch/_ops.py" source_line=756}
  %reshape.1441 = bf16[1,1]{1,0} reshape(bf16[] %constant.1440), metadata={op_type="aten__expand" op_name="aten__expand" source_file="/usr/local/lib/python3.10/site-packages/torch/_ops.py" source_line=756}
  %broadcast.1442 = bf16[1,1]{1,0} broadcast(bf16[1,1]{1,0} %reshape.1441), dimensions={0,1}, metadata={op_type="aten__expand" op_name="aten__expand" source_file="/usr/local/lib/python3.10/site-packages/torch/_ops.py" source_line=756}
  %reshape.1443 = bf16[] reshape(bf16[1,1]{1,0} %broadcast.1442), metadata={op_type="aten__expand" op_name="aten__expand" source_file="/usr/local/lib/python3.10/site-packages/torch/_ops.py" source_line=756}
  %broadcast.1444 = bf16[32,2048]{1,0} broadcast(bf16[] %reshape.1443), dimensions={}, metadata={op_type="aten__expand" op_name="aten__expand" source_file="/usr/local/lib/python3.10/site-packages/torch/_ops.py" source_line=756}
  %reshape.1445 = bf16[32,16,128]{2,1,0} reshape(bf16[32,2048]{1,0} %broadcast.1444), metadata={op_type="aten__view" op_name="aten__view" source_file="/usr/local/lib/python3.10/site-packages/torch/_ops.py" source_line=756}
  %reshape.1446 = bf16[32,2048]{1,0} reshape(bf16[32,16,128]{2,1,0} %reshape.1445), metadata={op_type="aten__view" op_name="aten__view" source_file="/usr/local/lib/python3.10/site-packages/torch/_ops.py" source_line=756}
  %p82.1438 = bf16[1024,2048]{1,0} parameter(82), metadata={op_type="xla__device_data" op_name="xla__device_data" source_file="/usr/local/lib/python3.10/site-packages/torch_xla/_dynamo/dynamo_bridge.py" source_line=355}
  %transpose.1439 = bf16[2048,1024]{0,1} transpose(bf16[1024,2048]{1,0} %p82.1438), dimensions={1,0}, metadata={op_type="aten__permute" op_name="aten__permute" source_file="/usr/local/lib/python3.10/site-packages/torch/_ops.py" source_line=756}
  %dot.1447 = bf16[32,1024]{1,0} dot(bf16[32,2048]{1,0} %reshape.1446, bf16[2048,1024]{0,1} %transpose.1439), lhs_contracting_dims={1}, rhs_contracting_dims={0}, metadata={op_type="aten__mm" op_name="aten__mm" source_file="/usr/local/lib/python3.10/site-packages/torch/_ops.py" source_line=756}
  %convert.1448 = f32[32,1024]{1,0} convert(bf16[32,1024]{1,0} %dot.1447), metadata={op_type="xla__cast" op_name="xla__cast" source_file="/usr/local/lib/python3.10/site-packages/torch/_ops.py" source_line=756}
  %constant.1368 = bf16[] constant(0), metadata={op_type="prim__Constant" op_name="prim__Constant" source_file="/usr/local/lib/python3.10/site-packages/torch/_ops.py" source_line=756}
  %reshape.1369 = bf16[1,1]{1,0} reshape(bf16[] %constant.1368), metadata={op_type="aten__expand" op_name="aten__expand" source_file="/usr/local/lib/python3.10/site-packages/torch/_ops.py" source_line=756}
  %broadcast.1370 = bf16[1,1]{1,0} broadcast(bf16[1,1]{1,0} %reshape.1369), dimensions={0,1}, metadata={op_type="aten__expand" op_name="aten__expand" source_file="/usr/local/lib/python3.10/site-packages/torch/_ops.py" source_line=756}
  %reshape.1371 = bf16[] reshape(bf16[1,1]{1,0} %broadcast.1370), metadata={op_type="aten__expand" op_name="aten__expand" source_file="/usr/local/lib/python3.10/site-packages/torch/_ops.py" source_line=756}
  %broadcast.1372 = bf16[32,2048]{1,0} broadcast(bf16[] %reshape.1371), dimensions={}, metadata={op_type="aten__expand" op_name="aten__expand" source_file="/usr/local/lib/python3.10/site-packages/torch/_ops.py" source_line=756}
  %reshape.1373 = bf16[32,16,128]{2,1,0} reshape(bf16[32,2048]{1,0} %broadcast.1372), metadata={op_type="aten__view" op_name="aten__view" source_file="/usr/local/lib/python3.10/site-packages/torch/_ops.py" source_line=756}
  %reshape.1374 = bf16[32,2048]{1,0} reshape(bf16[32,16,128]{2,1,0} %reshape.1373), metadata={op_type="aten__view" op_name="aten__view" source_file="/usr/local/lib/python3.10/site-packages/torch/_ops.py" source_line=756}
  %p78.1366 = bf16[1024,2048]{1,0} parameter(78), metadata={op_type="xla__device_data" op_name="xla__device_data" source_file="/usr/local/lib/python3.10/site-packages/torch_xla/_dynamo/dynamo_bridge.py" source_line=355}
  %transpose.1367 = bf16[2048,1024]{0,1} transpose(bf16[1024,2048]{1,0} %p78.1366), dimensions={1,0}, metadata={op_type="aten__permute" op_name="aten__permute" source_file="/usr/local/lib/python3.10/site-packages/torch/_ops.py" source_line=756}
  %dot.1375 = bf16[32,1024]{1,0} dot(bf16[32,2048]{1,0} %reshape.1374, bf16[2048,1024]{0,1} %transpose.1367), lhs_contracting_dims={1}, rhs_contracting_dims={0}, metadata={op_type="aten__mm" op_name="aten__mm" source_file="/usr/local/lib/python3.10/site-packages/torch/_ops.py" source_line=756}
  %convert.1376 = f32[32,1024]{1,0} convert(bf16[32,1024]{1,0} %dot.1375), metadata={op_type="xla__cast" op_name="xla__cast" source_file="/usr/local/lib/python3.10/site-packages/torch/_ops.py" source_line=756}
  %constant.1296 = bf16[] constant(0), metadata={op_type="prim__Constant" op_name="prim__Constant" source_file="/usr/local/lib/python3.10/site-packages/torch/_ops.py" source_line=756}
  %reshape.1297 = bf16[1,1]{1,0} reshape(bf16[] %constant.1296), metadata={op_type="aten__expand" op_name="aten__expand" source_file="/usr/local/lib/python3.10/site-packages/torch/_ops.py" source_line=756}
  %broadcast.1298 = bf16[1,1]{1,0} broadcast(bf16[1,1]{1,0} %reshape.1297), dimensions={0,1}, metadata={op_type="aten__expand" op_name="aten__expand" source_file="/usr/local/lib/python3.10/site-packages/torch/_ops.py" source_line=756}
  %reshape.1299 = bf16[] reshape(bf16[1,1]{1,0} %broadcast.1298), metadata={op_type="aten__expand" op_name="aten__expand" source_file="/usr/local/lib/python3.10/site-packages/torch/_ops.py" source_line=756}
  %broadcast.1300 = bf16[32,2048]{1,0} broadcast(bf16[] %reshape.1299), dimensions={}, metadata={op_type="aten__expand" op_name="aten__expand" source_file="/usr/local/lib/python3.10/site-packages/torch/_ops.py" source_line=756}
  %reshape.1301 = bf16[32,16,128]{2,1,0} reshape(bf16[32,2048]{1,0} %broadcast.1300), metadata={op_type="aten__view" op_name="aten__view" source_file="/usr/local/lib/python3.10/site-packages/torch/_ops.py" source_line=756}
  %reshape.1302 = bf16[32,2048]{1,0} reshape(bf16[32,16,128]{2,1,0} %reshape.1301), metadata={op_type="aten__view" op_name="aten__view" source_file="/usr/local/lib/python3.10/site-packages/torch/_ops.py" source_line=756}
  %p74.1294 = bf16[1024,2048]{1,0} parameter(74), metadata={op_type="xla__device_data" op_name="xla__device_data" source_file="/usr/local/lib/python3.10/site-packages/torch_xla/_dynamo/dynamo_bridge.py" source_line=355}
  %transpose.1295 = bf16[2048,1024]{0,1} transpose(bf16[1024,2048]{1,0} %p74.1294), dimensions={1,0}, metadata={op_type="aten__permute" op_name="aten__permute" source_file="/usr/local/lib/python3.10/site-packages/torch/_ops.py" source_line=756}
  %dot.1303 = bf16[32,1024]{1,0} dot(bf16[32,2048]{1,0} %reshape.1302, bf16[2048,1024]{0,1} %transpose.1295), lhs_contracting_dims={1}, rhs_contracting_dims={0}, metadata={op_type="aten__mm" op_name="aten__mm" source_file="/usr/local/lib/python3.10/site-packages/torch/_ops.py" source_line=756}
  %convert.1304 = f32[32,1024]{1,0} convert(bf16[32,1024]{1,0} %dot.1303), metadata={op_type="xla__cast" op_name="xla__cast" source_file="/usr/local/lib/python3.10/site-packages/torch/_ops.py" source_line=756}
  %constant.1224 = bf16[] constant(0), metadata={op_type="prim__Constant" op_name="prim__Constant" source_file="/usr/local/lib/python3.10/site-packages/torch/_ops.py" source_line=756}
  %reshape.1225 = bf16[1,1]{1,0} reshape(bf16[] %constant.1224), metadata={op_type="aten__expand" op_name="aten__expand" source_file="/usr/local/lib/python3.10/site-packages/torch/_ops.py" source_line=756}
  %broadcast.1226 = bf16[1,1]{1,0} broadcast(bf16[1,1]{1,0} %reshape.1225), dimensions={0,1}, metadata={op_type="aten__expand" op_name="aten__expand" source_file="/usr/local/lib/python3.10/site-packages/torch/_ops.py" source_line=756}
  %reshape.1227 = bf16[] reshape(bf16[1,1]{1,0} %broadcast.1226), metadata={op_type="aten__expand" op_name="aten__expand" source_file="/usr/local/lib/python3.10/site-packages/torch/_ops.py" source_line=756}
  %broadcast.1228 = bf16[32,2048]{1,0} broadcast(bf16[] %reshape.1227), dimensions={}, metadata={op_type="aten__expand" op_name="aten__expand" source_file="/usr/local/lib/python3.10/site-packages/torch/_ops.py" source_line=756}
  %reshape.1229 = bf16[32,16,128]{2,1,0} reshape(bf16[32,2048]{1,0} %broadcast.1228), metadata={op_type="aten__view" op_name="aten__view" source_file="/usr/local/lib/python3.10/site-packages/torch/_ops.py" source_line=756}
  %reshape.1230 = bf16[32,2048]{1,0} reshape(bf16[32,16,128]{2,1,0} %reshape.1229), metadata={op_type="aten__view" op_name="aten__view" source_file="/usr/local/lib/python3.10/site-packages/torch/_ops.py" source_line=756}
  %p70.1222 = bf16[1024,2048]{1,0} parameter(70), metadata={op_type="xla__device_data" op_name="xla__device_data" source_file="/usr/local/lib/python3.10/site-packages/torch_xla/_dynamo/dynamo_bridge.py" source_line=355}
  %transpose.1223 = bf16[2048,1024]{0,1} transpose(bf16[1024,2048]{1,0} %p70.1222), dimensions={1,0}, metadata={op_type="aten__permute" op_name="aten__permute" source_file="/usr/local/lib/python3.10/site-packages/torch/_ops.py" source_line=756}
  %dot.1231 = bf16[32,1024]{1,0} dot(bf16[32,2048]{1,0} %reshape.1230, bf16[2048,1024]{0,1} %transpose.1223), lhs_contracting_dims={1}, rhs_contracting_dims={0}, metadata={op_type="aten__mm" op_name="aten__mm" source_file="/usr/local/lib/python3.10/site-packages/torch/_ops.py" source_line=756}
  %convert.1232 = f32[32,1024]{1,0} convert(bf16[32,1024]{1,0} %dot.1231), metadata={op_type="xla__cast" op_name="xla__cast" source_file="/usr/local/lib/python3.10/site-packages/torch/_ops.py" source_line=756}
  %constant.1152 = bf16[] constant(0), metadata={op_type="prim__Constant" op_name="prim__Constant" source_file="/usr/local/lib/python3.10/site-packages/torch/_ops.py" source_line=756}
  %reshape.1153 = bf16[1,1]{1,0} reshape(bf16[] %constant.1152), metadata={op_type="aten__expand" op_name="aten__expand" source_file="/usr/local/lib/python3.10/site-packages/torch/_ops.py" source_line=756}
  %broadcast.1154 = bf16[1,1]{1,0} broadcast(bf16[1,1]{1,0} %reshape.1153), dimensions={0,1}, metadata={op_type="aten__expand" op_name="aten__expand" source_file="/usr/local/lib/python3.10/site-packages/torch/_ops.py" source_line=756}
  %reshape.1155 = bf16[] reshape(bf16[1,1]{1,0} %broadcast.1154), metadata={op_type="aten__expand" op_name="aten__expand" source_file="/usr/local/lib/python3.10/site-packages/torch/_ops.py" source_line=756}
  %broadcast.1156 = bf16[32,2048]{1,0} broadcast(bf16[] %reshape.1155), dimensions={}, metadata={op_type="aten__expand" op_name="aten__expand" source_file="/usr/local/lib/python3.10/site-packages/torch/_ops.py" source_line=756}
  %reshape.1157 = bf16[32,16,128]{2,1,0} reshape(bf16[32,2048]{1,0} %broadcast.1156), metadata={op_type="aten__view" op_name="aten__view" source_file="/usr/local/lib/python3.10/site-packages/torch/_ops.py" source_line=756}
  %reshape.1158 = bf16[32,2048]{1,0} reshape(bf16[32,16,128]{2,1,0} %reshape.1157), metadata={op_type="aten__view" op_name="aten__view" source_file="/usr/local/lib/python3.10/site-packages/torch/_ops.py" source_line=756}
  %p66.1150 = bf16[1024,2048]{1,0} parameter(66), metadata={op_type="xla__device_data" op_name="xla__device_data" source_file="/usr/local/lib/python3.10/site-packages/torch_xla/_dynamo/dynamo_bridge.py" source_line=355}
  %transpose.1151 = bf16[2048,1024]{0,1} transpose(bf16[1024,2048]{1,0} %p66.1150), dimensions={1,0}, metadata={op_type="aten__permute" op_name="aten__permute" source_file="/usr/local/lib/python3.10/site-packages/torch/_ops.py" source_line=756}
  %dot.1159 = bf16[32,1024]{1,0} dot(bf16[32,2048]{1,0} %reshape.1158, bf16[2048,1024]{0,1} %transpose.1151), lhs_contracting_dims={1}, rhs_contracting_dims={0}, metadata={op_type="aten__mm" op_name="aten__mm" source_file="/usr/local/lib/python3.10/site-packages/torch/_ops.py" source_line=756}
  %convert.1160 = f32[32,1024]{1,0} convert(bf16[32,1024]{1,0} %dot.1159), metadata={op_type="xla__cast" op_name="xla__cast" source_file="/usr/local/lib/python3.10/site-packages/torch/_ops.py" source_line=756}
  %constant.1080 = bf16[] constant(0), metadata={op_type="prim__Constant" op_name="prim__Constant" source_file="/usr/local/lib/python3.10/site-packages/torch/_ops.py" source_line=756}
  %reshape.1081 = bf16[1,1]{1,0} reshape(bf16[] %constant.1080), metadata={op_type="aten__expand" op_name="aten__expand" source_file="/usr/local/lib/python3.10/site-packages/torch/_ops.py" source_line=756}
  %broadcast.1082 = bf16[1,1]{1,0} broadcast(bf16[1,1]{1,0} %reshape.1081), dimensions={0,1}, metadata={op_type="aten__expand" op_name="aten__expand" source_file="/usr/local/lib/python3.10/site-packages/torch/_ops.py" source_line=756}
  %reshape.1083 = bf16[] reshape(bf16[1,1]{1,0} %broadcast.1082), metadata={op_type="aten__expand" op_name="aten__expand" source_file="/usr/local/lib/python3.10/site-packages/torch/_ops.py" source_line=756}
  %broadcast.1084 = bf16[32,2048]{1,0} broadcast(bf16[] %reshape.1083), dimensions={}, metadata={op_type="aten__expand" op_name="aten__expand" source_file="/usr/local/lib/python3.10/site-packages/torch/_ops.py" source_line=756}
  %reshape.1085 = bf16[32,16,128]{2,1,0} reshape(bf16[32,2048]{1,0} %broadcast.1084), metadata={op_type="aten__view" op_name="aten__view" source_file="/usr/local/lib/python3.10/site-packages/torch/_ops.py" source_line=756}
  %reshape.1086 = bf16[32,2048]{1,0} reshape(bf16[32,16,128]{2,1,0} %reshape.1085), metadata={op_type="aten__view" op_name="aten__view" source_file="/usr/local/lib/python3.10/site-packages/torch/_ops.py" source_line=756}
  %p62.1078 = bf16[1024,2048]{1,0} parameter(62), metadata={op_type="xla__device_data" op_name="xla__device_data" source_file="/usr/local/lib/python3.10/site-packages/torch_xla/_dynamo/dynamo_bridge.py" source_line=355}
  %transpose.1079 = bf16[2048,1024]{0,1} transpose(bf16[1024,2048]{1,0} %p62.1078), dimensions={1,0}, metadata={op_type="aten__permute" op_name="aten__permute" source_file="/usr/local/lib/python3.10/site-packages/torch/_ops.py" source_line=756}
  %dot.1087 = bf16[32,1024]{1,0} dot(bf16[32,2048]{1,0} %reshape.1086, bf16[2048,1024]{0,1} %transpose.1079), lhs_contracting_dims={1}, rhs_contracting_dims={0}, metadata={op_type="aten__mm" op_name="aten__mm" source_file="/usr/local/lib/python3.10/site-packages/torch/_ops.py" source_line=756}
  %convert.1088 = f32[32,1024]{1,0} convert(bf16[32,1024]{1,0} %dot.1087), metadata={op_type="xla__cast" op_name="xla__cast" source_file="/usr/local/lib/python3.10/site-packages/torch/_ops.py" source_line=756}
  %constant.1008 = bf16[] constant(0), metadata={op_type="prim__Constant" op_name="prim__Constant" source_file="/usr/local/lib/python3.10/site-packages/torch/_ops.py" source_line=756}
  %reshape.1009 = bf16[1,1]{1,0} reshape(bf16[] %constant.1008), metadata={op_type="aten__expand" op_name="aten__expand" source_file="/usr/local/lib/python3.10/site-packages/torch/_ops.py" source_line=756}
  %broadcast.1010 = bf16[1,1]{1,0} broadcast(bf16[1,1]{1,0} %reshape.1009), dimensions={0,1}, metadata={op_type="aten__expand" op_name="aten__expand" source_file="/usr/local/lib/python3.10/site-packages/torch/_ops.py" source_line=756}
  %reshape.1011 = bf16[] reshape(bf16[1,1]{1,0} %broadcast.1010), metadata={op_type="aten__expand" op_name="aten__expand" source_file="/usr/local/lib/python3.10/site-packages/torch/_ops.py" source_line=756}
  %broadcast.1012 = bf16[32,2048]{1,0} broadcast(bf16[] %reshape.1011), dimensions={}, metadata={op_type="aten__expand" op_name="aten__expand" source_file="/usr/local/lib/python3.10/site-packages/torch/_ops.py" source_line=756}
  %reshape.1013 = bf16[32,16,128]{2,1,0} reshape(bf16[32,2048]{1,0} %broadcast.1012), metadata={op_type="aten__view" op_name="aten__view" source_file="/usr/local/lib/python3.10/site-packages/torch/_ops.py" source_line=756}
  %reshape.1014 = bf16[32,2048]{1,0} reshape(bf16[32,16,128]{2,1,0} %reshape.1013), metadata={op_type="aten__view" op_name="aten__view" source_file="/usr/local/lib/python3.10/site-packages/torch/_ops.py" source_line=756}
  %p58.1006 = bf16[1024,2048]{1,0} parameter(58), metadata={op_type="xla__device_data" op_name="xla__device_data" source_file="/usr/local/lib/python3.10/site-packages/torch_xla/_dynamo/dynamo_bridge.py" source_line=355}
  %transpose.1007 = bf16[2048,1024]{0,1} transpose(bf16[1024,2048]{1,0} %p58.1006), dimensions={1,0}, metadata={op_type="aten__permute" op_name="aten__permute" source_file="/usr/local/lib/python3.10/site-packages/torch/_ops.py" source_line=756}
  %dot.1015 = bf16[32,1024]{1,0} dot(bf16[32,2048]{1,0} %reshape.1014, bf16[2048,1024]{0,1} %transpose.1007), lhs_contracting_dims={1}, rhs_contracting_dims={0}, metadata={op_type="aten__mm" op_name="aten__mm" source_file="/usr/local/lib/python3.10/site-packages/torch/_ops.py" source_line=756}
  %convert.1016 = f32[32,1024]{1,0} convert(bf16[32,1024]{1,0} %dot.1015), metadata={op_type="xla__cast" op_name="xla__cast" source_file="/usr/local/lib/python3.10/site-packages/torch/_ops.py" source_line=756}
  %constant.936 = bf16[] constant(0), metadata={op_type="prim__Constant" op_name="prim__Constant" source_file="/usr/local/lib/python3.10/site-packages/torch/_ops.py" source_line=756}
  %reshape.937 = bf16[1,1]{1,0} reshape(bf16[] %constant.936), metadata={op_type="aten__expand" op_name="aten__expand" source_file="/usr/local/lib/python3.10/site-packages/torch/_ops.py" source_line=756}
  %broadcast.938 = bf16[1,1]{1,0} broadcast(bf16[1,1]{1,0} %reshape.937), dimensions={0,1}, metadata={op_type="aten__expand" op_name="aten__expand" source_file="/usr/local/lib/python3.10/site-packages/torch/_ops.py" source_line=756}
  %reshape.939 = bf16[] reshape(bf16[1,1]{1,0} %broadcast.938), metadata={op_type="aten__expand" op_name="aten__expand" source_file="/usr/local/lib/python3.10/site-packages/torch/_ops.py" source_line=756}
  %broadcast.940 = bf16[32,2048]{1,0} broadcast(bf16[] %reshape.939), dimensions={}, metadata={op_type="aten__expand" op_name="aten__expand" source_file="/usr/local/lib/python3.10/site-packages/torch/_ops.py" source_line=756}
  %reshape.941 = bf16[32,16,128]{2,1,0} reshape(bf16[32,2048]{1,0} %broadcast.940), metadata={op_type="aten__view" op_name="aten__view" source_file="/usr/local/lib/python3.10/site-packages/torch/_ops.py" source_line=756}
  %reshape.942 = bf16[32,2048]{1,0} reshape(bf16[32,16,128]{2,1,0} %reshape.941), metadata={op_type="aten__view" op_name="aten__view" source_file="/usr/local/lib/python3.10/site-packages/torch/_ops.py" source_line=756}
  %p54.934 = bf16[1024,2048]{1,0} parameter(54), metadata={op_type="xla__device_data" op_name="xla__device_data" source_file="/usr/local/lib/python3.10/site-packages/torch_xla/_dynamo/dynamo_bridge.py" source_line=355}
  %transpose.935 = bf16[2048,1024]{0,1} transpose(bf16[1024,2048]{1,0} %p54.934), dimensions={1,0}, metadata={op_type="aten__permute" op_name="aten__permute" source_file="/usr/local/lib/python3.10/site-packages/torch/_ops.py" source_line=756}
  %dot.943 = bf16[32,1024]{1,0} dot(bf16[32,2048]{1,0} %reshape.942, bf16[2048,1024]{0,1} %transpose.935), lhs_contracting_dims={1}, rhs_contracting_dims={0}, metadata={op_type="aten__mm" op_name="aten__mm" source_file="/usr/local/lib/python3.10/site-packages/torch/_ops.py" source_line=756}
  %convert.944 = f32[32,1024]{1,0} convert(bf16[32,1024]{1,0} %dot.943), metadata={op_type="xla__cast" op_name="xla__cast" source_file="/usr/local/lib/python3.10/site-packages/torch/_ops.py" source_line=756}
  %constant.864 = bf16[] constant(0), metadata={op_type="prim__Constant" op_name="prim__Constant" source_file="/usr/local/lib/python3.10/site-packages/torch/_ops.py" source_line=756}
  %reshape.865 = bf16[1,1]{1,0} reshape(bf16[] %constant.864), metadata={op_type="aten__expand" op_name="aten__expand" source_file="/usr/local/lib/python3.10/site-packages/torch/_ops.py" source_line=756}
  %broadcast.866 = bf16[1,1]{1,0} broadcast(bf16[1,1]{1,0} %reshape.865), dimensions={0,1}, metadata={op_type="aten__expand" op_name="aten__expand" source_file="/usr/local/lib/python3.10/site-packages/torch/_ops.py" source_line=756}
  %reshape.867 = bf16[] reshape(bf16[1,1]{1,0} %broadcast.866), metadata={op_type="aten__expand" op_name="aten__expand" source_file="/usr/local/lib/python3.10/site-packages/torch/_ops.py" source_line=756}
  %broadcast.868 = bf16[32,2048]{1,0} broadcast(bf16[] %reshape.867), dimensions={}, metadata={op_type="aten__expand" op_name="aten__expand" source_file="/usr/local/lib/python3.10/site-packages/torch/_ops.py" source_line=756}
  %reshape.869 = bf16[32,16,128]{2,1,0} reshape(bf16[32,2048]{1,0} %broadcast.868), metadata={op_type="aten__view" op_name="aten__view" source_file="/usr/local/lib/python3.10/site-packages/torch/_ops.py" source_line=756}
  %reshape.870 = bf16[32,2048]{1,0} reshape(bf16[32,16,128]{2,1,0} %reshape.869), metadata={op_type="aten__view" op_name="aten__view" source_file="/usr/local/lib/python3.10/site-packages/torch/_ops.py" source_line=756}
  %p50.862 = bf16[1024,2048]{1,0} parameter(50), metadata={op_type="xla__device_data" op_name="xla__device_data" source_file="/usr/local/lib/python3.10/site-packages/torch_xla/_dynamo/dynamo_bridge.py" source_line=355}
  %transpose.863 = bf16[2048,1024]{0,1} transpose(bf16[1024,2048]{1,0} %p50.862), dimensions={1,0}, metadata={op_type="aten__permute" op_name="aten__permute" source_file="/usr/local/lib/python3.10/site-packages/torch/_ops.py" source_line=756}
  %dot.871 = bf16[32,1024]{1,0} dot(bf16[32,2048]{1,0} %reshape.870, bf16[2048,1024]{0,1} %transpose.863), lhs_contracting_dims={1}, rhs_contracting_dims={0}, metadata={op_type="aten__mm" op_name="aten__mm" source_file="/usr/local/lib/python3.10/site-packages/torch/_ops.py" source_line=756}
  %convert.872 = f32[32,1024]{1,0} convert(bf16[32,1024]{1,0} %dot.871), metadata={op_type="xla__cast" op_name="xla__cast" source_file="/usr/local/lib/python3.10/site-packages/torch/_ops.py" source_line=756}
  %constant.792 = bf16[] constant(0), metadata={op_type="prim__Constant" op_name="prim__Constant" source_file="/usr/local/lib/python3.10/site-packages/torch/_ops.py" source_line=756}
  %reshape.793 = bf16[1,1]{1,0} reshape(bf16[] %constant.792), metadata={op_type="aten__expand" op_name="aten__expand" source_file="/usr/local/lib/python3.10/site-packages/torch/_ops.py" source_line=756}
  %broadcast.794 = bf16[1,1]{1,0} broadcast(bf16[1,1]{1,0} %reshape.793), dimensions={0,1}, metadata={op_type="aten__expand" op_name="aten__expand" source_file="/usr/local/lib/python3.10/site-packages/torch/_ops.py" source_line=756}
  %reshape.795 = bf16[] reshape(bf16[1,1]{1,0} %broadcast.794), metadata={op_type="aten__expand" op_name="aten__expand" source_file="/usr/local/lib/python3.10/site-packages/torch/_ops.py" source_line=756}
  %broadcast.796 = bf16[32,2048]{1,0} broadcast(bf16[] %reshape.795), dimensions={}, metadata={op_type="aten__expand" op_name="aten__expand" source_file="/usr/local/lib/python3.10/site-packages/torch/_ops.py" source_line=756}
  %reshape.797 = bf16[32,16,128]{2,1,0} reshape(bf16[32,2048]{1,0} %broadcast.796), metadata={op_type="aten__view" op_name="aten__view" source_file="/usr/local/lib/python3.10/site-packages/torch/_ops.py" source_line=756}
  %reshape.798 = bf16[32,2048]{1,0} reshape(bf16[32,16,128]{2,1,0} %reshape.797), metadata={op_type="aten__view" op_name="aten__view" source_file="/usr/local/lib/python3.10/site-packages/torch/_ops.py" source_line=756}
  %p46.790 = bf16[1024,2048]{1,0} parameter(46), metadata={op_type="xla__device_data" op_name="xla__device_data" source_file="/usr/local/lib/python3.10/site-packages/torch_xla/_dynamo/dynamo_bridge.py" source_line=355}
  %transpose.791 = bf16[2048,1024]{0,1} transpose(bf16[1024,2048]{1,0} %p46.790), dimensions={1,0}, metadata={op_type="aten__permute" op_name="aten__permute" source_file="/usr/local/lib/python3.10/site-packages/torch/_ops.py" source_line=756}
  %dot.799 = bf16[32,1024]{1,0} dot(bf16[32,2048]{1,0} %reshape.798, bf16[2048,1024]{0,1} %transpose.791), lhs_contracting_dims={1}, rhs_contracting_dims={0}, metadata={op_type="aten__mm" op_name="aten__mm" source_file="/usr/local/lib/python3.10/site-packages/torch/_ops.py" source_line=756}
  %convert.800 = f32[32,1024]{1,0} convert(bf16[32,1024]{1,0} %dot.799), metadata={op_type="xla__cast" op_name="xla__cast" source_file="/usr/local/lib/python3.10/site-packages/torch/_ops.py" source_line=756}
  %constant.720 = bf16[] constant(0), metadata={op_type="prim__Constant" op_name="prim__Constant" source_file="/usr/local/lib/python3.10/site-packages/torch/_ops.py" source_line=756}
  %reshape.721 = bf16[1,1]{1,0} reshape(bf16[] %constant.720), metadata={op_type="aten__expand" op_name="aten__expand" source_file="/usr/local/lib/python3.10/site-packages/torch/_ops.py" source_line=756}
  %broadcast.722 = bf16[1,1]{1,0} broadcast(bf16[1,1]{1,0} %reshape.721), dimensions={0,1}, metadata={op_type="aten__expand" op_name="aten__expand" source_file="/usr/local/lib/python3.10/site-packages/torch/_ops.py" source_line=756}
  %reshape.723 = bf16[] reshape(bf16[1,1]{1,0} %broadcast.722), metadata={op_type="aten__expand" op_name="aten__expand" source_file="/usr/local/lib/python3.10/site-packages/torch/_ops.py" source_line=756}
  %broadcast.724 = bf16[32,2048]{1,0} broadcast(bf16[] %reshape.723), dimensions={}, metadata={op_type="aten__expand" op_name="aten__expand" source_file="/usr/local/lib/python3.10/site-packages/torch/_ops.py" source_line=756}
  %reshape.725 = bf16[32,16,128]{2,1,0} reshape(bf16[32,2048]{1,0} %broadcast.724), metadata={op_type="aten__view" op_name="aten__view" source_file="/usr/local/lib/python3.10/site-packages/torch/_ops.py" source_line=756}
  %reshape.726 = bf16[32,2048]{1,0} reshape(bf16[32,16,128]{2,1,0} %reshape.725), metadata={op_type="aten__view" op_name="aten__view" source_file="/usr/local/lib/python3.10/site-packages/torch/_ops.py" source_line=756}
  %p42.718 = bf16[1024,2048]{1,0} parameter(42), metadata={op_type="xla__device_data" op_name="xla__device_data" source_file="/usr/local/lib/python3.10/site-packages/torch_xla/_dynamo/dynamo_bridge.py" source_line=355}
  %transpose.719 = bf16[2048,1024]{0,1} transpose(bf16[1024,2048]{1,0} %p42.718), dimensions={1,0}, metadata={op_type="aten__permute" op_name="aten__permute" source_file="/usr/local/lib/python3.10/site-packages/torch/_ops.py" source_line=756}
  %dot.727 = bf16[32,1024]{1,0} dot(bf16[32,2048]{1,0} %reshape.726, bf16[2048,1024]{0,1} %transpose.719), lhs_contracting_dims={1}, rhs_contracting_dims={0}, metadata={op_type="aten__mm" op_name="aten__mm" source_file="/usr/local/lib/python3.10/site-packages/torch/_ops.py" source_line=756}
  %convert.728 = f32[32,1024]{1,0} convert(bf16[32,1024]{1,0} %dot.727), metadata={op_type="xla__cast" op_name="xla__cast" source_file="/usr/local/lib/python3.10/site-packages/torch/_ops.py" source_line=756}
  %constant.648 = bf16[] constant(0), metadata={op_type="prim__Constant" op_name="prim__Constant" source_file="/usr/local/lib/python3.10/site-packages/torch/_ops.py" source_line=756}
  %reshape.649 = bf16[1,1]{1,0} reshape(bf16[] %constant.648), metadata={op_type="aten__expand" op_name="aten__expand" source_file="/usr/local/lib/python3.10/site-packages/torch/_ops.py" source_line=756}
  %broadcast.650 = bf16[1,1]{1,0} broadcast(bf16[1,1]{1,0} %reshape.649), dimensions={0,1}, metadata={op_type="aten__expand" op_name="aten__expand" source_file="/usr/local/lib/python3.10/site-packages/torch/_ops.py" source_line=756}
  %reshape.651 = bf16[] reshape(bf16[1,1]{1,0} %broadcast.650), metadata={op_type="aten__expand" op_name="aten__expand" source_file="/usr/local/lib/python3.10/site-packages/torch/_ops.py" source_line=756}
  %broadcast.652 = bf16[32,2048]{1,0} broadcast(bf16[] %reshape.651), dimensions={}, metadata={op_type="aten__expand" op_name="aten__expand" source_file="/usr/local/lib/python3.10/site-packages/torch/_ops.py" source_line=756}
  %reshape.653 = bf16[32,16,128]{2,1,0} reshape(bf16[32,2048]{1,0} %broadcast.652), metadata={op_type="aten__view" op_name="aten__view" source_file="/usr/local/lib/python3.10/site-packages/torch/_ops.py" source_line=756}
  %reshape.654 = bf16[32,2048]{1,0} reshape(bf16[32,16,128]{2,1,0} %reshape.653), metadata={op_type="aten__view" op_name="aten__view" source_file="/usr/local/lib/python3.10/site-packages/torch/_ops.py" source_line=756}
  %p38.646 = bf16[1024,2048]{1,0} parameter(38), metadata={op_type="xla__device_data" op_name="xla__device_data" source_file="/usr/local/lib/python3.10/site-packages/torch_xla/_dynamo/dynamo_bridge.py" source_line=355}
  %transpose.647 = bf16[2048,1024]{0,1} transpose(bf16[1024,2048]{1,0} %p38.646), dimensions={1,0}, metadata={op_type="aten__permute" op_name="aten__permute" source_file="/usr/local/lib/python3.10/site-packages/torch/_ops.py" source_line=756}
  %dot.655 = bf16[32,1024]{1,0} dot(bf16[32,2048]{1,0} %reshape.654, bf16[2048,1024]{0,1} %transpose.647), lhs_contracting_dims={1}, rhs_contracting_dims={0}, metadata={op_type="aten__mm" op_name="aten__mm" source_file="/usr/local/lib/python3.10/site-packages/torch/_ops.py" source_line=756}
  %convert.656 = f32[32,1024]{1,0} convert(bf16[32,1024]{1,0} %dot.655), metadata={op_type="xla__cast" op_name="xla__cast" source_file="/usr/local/lib/python3.10/site-packages/torch/_ops.py" source_line=756}
  %constant.576 = bf16[] constant(0), metadata={op_type="prim__Constant" op_name="prim__Constant" source_file="/usr/local/lib/python3.10/site-packages/torch/_ops.py" source_line=756}
  %reshape.577 = bf16[1,1]{1,0} reshape(bf16[] %constant.576), metadata={op_type="aten__expand" op_name="aten__expand" source_file="/usr/local/lib/python3.10/site-packages/torch/_ops.py" source_line=756}
  %broadcast.578 = bf16[1,1]{1,0} broadcast(bf16[1,1]{1,0} %reshape.577), dimensions={0,1}, metadata={op_type="aten__expand" op_name="aten__expand" source_file="/usr/local/lib/python3.10/site-packages/torch/_ops.py" source_line=756}
  %reshape.579 = bf16[] reshape(bf16[1,1]{1,0} %broadcast.578), metadata={op_type="aten__expand" op_name="aten__expand" source_file="/usr/local/lib/python3.10/site-packages/torch/_ops.py" source_line=756}
  %broadcast.580 = bf16[32,2048]{1,0} broadcast(bf16[] %reshape.579), dimensions={}, metadata={op_type="aten__expand" op_name="aten__expand" source_file="/usr/local/lib/python3.10/site-packages/torch/_ops.py" source_line=756}
  %reshape.581 = bf16[32,16,128]{2,1,0} reshape(bf16[32,2048]{1,0} %broadcast.580), metadata={op_type="aten__view" op_name="aten__view" source_file="/usr/local/lib/python3.10/site-packages/torch/_ops.py" source_line=756}
  %reshape.582 = bf16[32,2048]{1,0} reshape(bf16[32,16,128]{2,1,0} %reshape.581), metadata={op_type="aten__view" op_name="aten__view" source_file="/usr/local/lib/python3.10/site-packages/torch/_ops.py" source_line=756}
  %p34.574 = bf16[1024,2048]{1,0} parameter(34), metadata={op_type="xla__device_data" op_name="xla__device_data" source_file="/usr/local/lib/python3.10/site-packages/torch_xla/_dynamo/dynamo_bridge.py" source_line=355}
  %transpose.575 = bf16[2048,1024]{0,1} transpose(bf16[1024,2048]{1,0} %p34.574), dimensions={1,0}, metadata={op_type="aten__permute" op_name="aten__permute" source_file="/usr/local/lib/python3.10/site-packages/torch/_ops.py" source_line=756}
  %dot.583 = bf16[32,1024]{1,0} dot(bf16[32,2048]{1,0} %reshape.582, bf16[2048,1024]{0,1} %transpose.575), lhs_contracting_dims={1}, rhs_contracting_dims={0}, metadata={op_type="aten__mm" op_name="aten__mm" source_file="/usr/local/lib/python3.10/site-packages/torch/_ops.py" source_line=756}
  %convert.584 = f32[32,1024]{1,0} convert(bf16[32,1024]{1,0} %dot.583), metadata={op_type="xla__cast" op_name="xla__cast" source_file="/usr/local/lib/python3.10/site-packages/torch/_ops.py" source_line=756}
  %constant.504 = bf16[] constant(0), metadata={op_type="prim__Constant" op_name="prim__Constant" source_file="/usr/local/lib/python3.10/site-packages/torch/_ops.py" source_line=756}
  %reshape.505 = bf16[1,1]{1,0} reshape(bf16[] %constant.504), metadata={op_type="aten__expand" op_name="aten__expand" source_file="/usr/local/lib/python3.10/site-packages/torch/_ops.py" source_line=756}
  %broadcast.506 = bf16[1,1]{1,0} broadcast(bf16[1,1]{1,0} %reshape.505), dimensions={0,1}, metadata={op_type="aten__expand" op_name="aten__expand" source_file="/usr/local/lib/python3.10/site-packages/torch/_ops.py" source_line=756}
  %reshape.507 = bf16[] reshape(bf16[1,1]{1,0} %broadcast.506), metadata={op_type="aten__expand" op_name="aten__expand" source_file="/usr/local/lib/python3.10/site-packages/torch/_ops.py" source_line=756}
  %broadcast.508 = bf16[32,2048]{1,0} broadcast(bf16[] %reshape.507), dimensions={}, metadata={op_type="aten__expand" op_name="aten__expand" source_file="/usr/local/lib/python3.10/site-packages/torch/_ops.py" source_line=756}
  %reshape.509 = bf16[32,16,128]{2,1,0} reshape(bf16[32,2048]{1,0} %broadcast.508), metadata={op_type="aten__view" op_name="aten__view" source_file="/usr/local/lib/python3.10/site-packages/torch/_ops.py" source_line=756}
  %reshape.510 = bf16[32,2048]{1,0} reshape(bf16[32,16,128]{2,1,0} %reshape.509), metadata={op_type="aten__view" op_name="aten__view" source_file="/usr/local/lib/python3.10/site-packages/torch/_ops.py" source_line=756}
  %p30.502 = bf16[1024,2048]{1,0} parameter(30), metadata={op_type="xla__device_data" op_name="xla__device_data" source_file="/usr/local/lib/python3.10/site-packages/torch_xla/_dynamo/dynamo_bridge.py" source_line=355}
  %transpose.503 = bf16[2048,1024]{0,1} transpose(bf16[1024,2048]{1,0} %p30.502), dimensions={1,0}, metadata={op_type="aten__permute" op_name="aten__permute" source_file="/usr/local/lib/python3.10/site-packages/torch/_ops.py" source_line=756}
  %dot.511 = bf16[32,1024]{1,0} dot(bf16[32,2048]{1,0} %reshape.510, bf16[2048,1024]{0,1} %transpose.503), lhs_contracting_dims={1}, rhs_contracting_dims={0}, metadata={op_type="aten__mm" op_name="aten__mm" source_file="/usr/local/lib/python3.10/site-packages/torch/_ops.py" source_line=756}
  %convert.512 = f32[32,1024]{1,0} convert(bf16[32,1024]{1,0} %dot.511), metadata={op_type="xla__cast" op_name="xla__cast" source_file="/usr/local/lib/python3.10/site-packages/torch/_ops.py" source_line=756}
  %constant.432 = bf16[] constant(0), metadata={op_type="prim__Constant" op_name="prim__Constant" source_file="/usr/local/lib/python3.10/site-packages/torch/_ops.py" source_line=756}
  %reshape.433 = bf16[1,1]{1,0} reshape(bf16[] %constant.432), metadata={op_type="aten__expand" op_name="aten__expand" source_file="/usr/local/lib/python3.10/site-packages/torch/_ops.py" source_line=756}
  %broadcast.434 = bf16[1,1]{1,0} broadcast(bf16[1,1]{1,0} %reshape.433), dimensions={0,1}, metadata={op_type="aten__expand" op_name="aten__expand" source_file="/usr/local/lib/python3.10/site-packages/torch/_ops.py" source_line=756}
  %reshape.435 = bf16[] reshape(bf16[1,1]{1,0} %broadcast.434), metadata={op_type="aten__expand" op_name="aten__expand" source_file="/usr/local/lib/python3.10/site-packages/torch/_ops.py" source_line=756}
  %broadcast.436 = bf16[32,2048]{1,0} broadcast(bf16[] %reshape.435), dimensions={}, metadata={op_type="aten__expand" op_name="aten__expand" source_file="/usr/local/lib/python3.10/site-packages/torch/_ops.py" source_line=756}
  %reshape.437 = bf16[32,16,128]{2,1,0} reshape(bf16[32,2048]{1,0} %broadcast.436), metadata={op_type="aten__view" op_name="aten__view" source_file="/usr/local/lib/python3.10/site-packages/torch/_ops.py" source_line=756}
  %reshape.438 = bf16[32,2048]{1,0} reshape(bf16[32,16,128]{2,1,0} %reshape.437), metadata={op_type="aten__view" op_name="aten__view" source_file="/usr/local/lib/python3.10/site-packages/torch/_ops.py" source_line=756}
  %p26.430 = bf16[1024,2048]{1,0} parameter(26), metadata={op_type="xla__device_data" op_name="xla__device_data" source_file="/usr/local/lib/python3.10/site-packages/torch_xla/_dynamo/dynamo_bridge.py" source_line=355}
  %transpose.431 = bf16[2048,1024]{0,1} transpose(bf16[1024,2048]{1,0} %p26.430), dimensions={1,0}, metadata={op_type="aten__permute" op_name="aten__permute" source_file="/usr/local/lib/python3.10/site-packages/torch/_ops.py" source_line=756}
  %dot.439 = bf16[32,1024]{1,0} dot(bf16[32,2048]{1,0} %reshape.438, bf16[2048,1024]{0,1} %transpose.431), lhs_contracting_dims={1}, rhs_contracting_dims={0}, metadata={op_type="aten__mm" op_name="aten__mm" source_file="/usr/local/lib/python3.10/site-packages/torch/_ops.py" source_line=756}
  %convert.440 = f32[32,1024]{1,0} convert(bf16[32,1024]{1,0} %dot.439), metadata={op_type="xla__cast" op_name="xla__cast" source_file="/usr/local/lib/python3.10/site-packages/torch/_ops.py" source_line=756}
  %constant.360 = bf16[] constant(0), metadata={op_type="prim__Constant" op_name="prim__Constant" source_file="/usr/local/lib/python3.10/site-packages/torch/_ops.py" source_line=756}
  %reshape.361 = bf16[1,1]{1,0} reshape(bf16[] %constant.360), metadata={op_type="aten__expand" op_name="aten__expand" source_file="/usr/local/lib/python3.10/site-packages/torch/_ops.py" source_line=756}
  %broadcast.362 = bf16[1,1]{1,0} broadcast(bf16[1,1]{1,0} %reshape.361), dimensions={0,1}, metadata={op_type="aten__expand" op_name="aten__expand" source_file="/usr/local/lib/python3.10/site-packages/torch/_ops.py" source_line=756}
  %reshape.363 = bf16[] reshape(bf16[1,1]{1,0} %broadcast.362), metadata={op_type="aten__expand" op_name="aten__expand" source_file="/usr/local/lib/python3.10/site-packages/torch/_ops.py" source_line=756}
  %broadcast.364 = bf16[32,2048]{1,0} broadcast(bf16[] %reshape.363), dimensions={}, metadata={op_type="aten__expand" op_name="aten__expand" source_file="/usr/local/lib/python3.10/site-packages/torch/_ops.py" source_line=756}
  %reshape.365 = bf16[32,16,128]{2,1,0} reshape(bf16[32,2048]{1,0} %broadcast.364), metadata={op_type="aten__view" op_name="aten__view" source_file="/usr/local/lib/python3.10/site-packages/torch/_ops.py" source_line=756}
  %reshape.366 = bf16[32,2048]{1,0} reshape(bf16[32,16,128]{2,1,0} %reshape.365), metadata={op_type="aten__view" op_name="aten__view" source_file="/usr/local/lib/python3.10/site-packages/torch/_ops.py" source_line=756}
  %p22.358 = bf16[1024,2048]{1,0} parameter(22), metadata={op_type="xla__device_data" op_name="xla__device_data" source_file="/usr/local/lib/python3.10/site-packages/torch_xla/_dynamo/dynamo_bridge.py" source_line=355}
  %transpose.359 = bf16[2048,1024]{0,1} transpose(bf16[1024,2048]{1,0} %p22.358), dimensions={1,0}, metadata={op_type="aten__permute" op_name="aten__permute" source_file="/usr/local/lib/python3.10/site-packages/torch/_ops.py" source_line=756}
  %dot.367 = bf16[32,1024]{1,0} dot(bf16[32,2048]{1,0} %reshape.366, bf16[2048,1024]{0,1} %transpose.359), lhs_contracting_dims={1}, rhs_contracting_dims={0}, metadata={op_type="aten__mm" op_name="aten__mm" source_file="/usr/local/lib/python3.10/site-packages/torch/_ops.py" source_line=756}
  %convert.368 = f32[32,1024]{1,0} convert(bf16[32,1024]{1,0} %dot.367), metadata={op_type="xla__cast" op_name="xla__cast" source_file="/usr/local/lib/python3.10/site-packages/torch/_ops.py" source_line=756}
  %constant.288 = bf16[] constant(0), metadata={op_type="prim__Constant" op_name="prim__Constant" source_file="/usr/local/lib/python3.10/site-packages/torch/_ops.py" source_line=756}
  %reshape.289 = bf16[1,1]{1,0} reshape(bf16[] %constant.288), metadata={op_type="aten__expand" op_name="aten__expand" source_file="/usr/local/lib/python3.10/site-packages/torch/_ops.py" source_line=756}
  %broadcast.290 = bf16[1,1]{1,0} broadcast(bf16[1,1]{1,0} %reshape.289), dimensions={0,1}, metadata={op_type="aten__expand" op_name="aten__expand" source_file="/usr/local/lib/python3.10/site-packages/torch/_ops.py" source_line=756}
  %reshape.291 = bf16[] reshape(bf16[1,1]{1,0} %broadcast.290), metadata={op_type="aten__expand" op_name="aten__expand" source_file="/usr/local/lib/python3.10/site-packages/torch/_ops.py" source_line=756}
  %broadcast.292 = bf16[32,2048]{1,0} broadcast(bf16[] %reshape.291), dimensions={}, metadata={op_type="aten__expand" op_name="aten__expand" source_file="/usr/local/lib/python3.10/site-packages/torch/_ops.py" source_line=756}
  %reshape.293 = bf16[32,16,128]{2,1,0} reshape(bf16[32,2048]{1,0} %broadcast.292), metadata={op_type="aten__view" op_name="aten__view" source_file="/usr/local/lib/python3.10/site-packages/torch/_ops.py" source_line=756}
  %reshape.294 = bf16[32,2048]{1,0} reshape(bf16[32,16,128]{2,1,0} %reshape.293), metadata={op_type="aten__view" op_name="aten__view" source_file="/usr/local/lib/python3.10/site-packages/torch/_ops.py" source_line=756}
  %p18.286 = bf16[1024,2048]{1,0} parameter(18), metadata={op_type="xla__device_data" op_name="xla__device_data" source_file="/usr/local/lib/python3.10/site-packages/torch_xla/_dynamo/dynamo_bridge.py" source_line=355}
  %transpose.287 = bf16[2048,1024]{0,1} transpose(bf16[1024,2048]{1,0} %p18.286), dimensions={1,0}, metadata={op_type="aten__permute" op_name="aten__permute" source_file="/usr/local/lib/python3.10/site-packages/torch/_ops.py" source_line=756}
  %dot.295 = bf16[32,1024]{1,0} dot(bf16[32,2048]{1,0} %reshape.294, bf16[2048,1024]{0,1} %transpose.287), lhs_contracting_dims={1}, rhs_contracting_dims={0}, metadata={op_type="aten__mm" op_name="aten__mm" source_file="/usr/local/lib/python3.10/site-packages/torch/_ops.py" source_line=756}
  %convert.296 = f32[32,1024]{1,0} convert(bf16[32,1024]{1,0} %dot.295), metadata={op_type="xla__cast" op_name="xla__cast" source_file="/usr/local/lib/python3.10/site-packages/torch/_ops.py" source_line=756}
  %constant.216 = bf16[] constant(0), metadata={op_type="prim__Constant" op_name="prim__Constant" source_file="/usr/local/lib/python3.10/site-packages/torch/_ops.py" source_line=756}
  %reshape.217 = bf16[1,1]{1,0} reshape(bf16[] %constant.216), metadata={op_type="aten__expand" op_name="aten__expand" source_file="/usr/local/lib/python3.10/site-packages/torch/_ops.py" source_line=756}
  %broadcast.218 = bf16[1,1]{1,0} broadcast(bf16[1,1]{1,0} %reshape.217), dimensions={0,1}, metadata={op_type="aten__expand" op_name="aten__expand" source_file="/usr/local/lib/python3.10/site-packages/torch/_ops.py" source_line=756}
  %reshape.219 = bf16[] reshape(bf16[1,1]{1,0} %broadcast.218), metadata={op_type="aten__expand" op_name="aten__expand" source_file="/usr/local/lib/python3.10/site-packages/torch/_ops.py" source_line=756}
  %broadcast.220 = bf16[32,2048]{1,0} broadcast(bf16[] %reshape.219), dimensions={}, metadata={op_type="aten__expand" op_name="aten__expand" source_file="/usr/local/lib/python3.10/site-packages/torch/_ops.py" source_line=756}
  %reshape.221 = bf16[32,16,128]{2,1,0} reshape(bf16[32,2048]{1,0} %broadcast.220), metadata={op_type="aten__view" op_name="aten__view" source_file="/usr/local/lib/python3.10/site-packages/torch/_ops.py" source_line=756}
  %reshape.222 = bf16[32,2048]{1,0} reshape(bf16[32,16,128]{2,1,0} %reshape.221), metadata={op_type="aten__view" op_name="aten__view" source_file="/usr/local/lib/python3.10/site-packages/torch/_ops.py" source_line=756}
  %p14.214 = bf16[1024,2048]{1,0} parameter(14), metadata={op_type="xla__device_data" op_name="xla__device_data" source_file="/usr/local/lib/python3.10/site-packages/torch_xla/_dynamo/dynamo_bridge.py" source_line=355}
  %transpose.215 = bf16[2048,1024]{0,1} transpose(bf16[1024,2048]{1,0} %p14.214), dimensions={1,0}, metadata={op_type="aten__permute" op_name="aten__permute" source_file="/usr/local/lib/python3.10/site-packages/torch/_ops.py" source_line=756}
  %dot.223 = bf16[32,1024]{1,0} dot(bf16[32,2048]{1,0} %reshape.222, bf16[2048,1024]{0,1} %transpose.215), lhs_contracting_dims={1}, rhs_contracting_dims={0}, metadata={op_type="aten__mm" op_name="aten__mm" source_file="/usr/local/lib/python3.10/site-packages/torch/_ops.py" source_line=756}
  %convert.224 = f32[32,1024]{1,0} convert(bf16[32,1024]{1,0} %dot.223), metadata={op_type="xla__cast" op_name="xla__cast" source_file="/usr/local/lib/python3.10/site-packages/torch/_ops.py" source_line=756}
  %constant.144 = bf16[] constant(0), metadata={op_type="prim__Constant" op_name="prim__Constant" source_file="/usr/local/lib/python3.10/site-packages/torch/_ops.py" source_line=756}
  %reshape.145 = bf16[1,1]{1,0} reshape(bf16[] %constant.144), metadata={op_type="aten__expand" op_name="aten__expand" source_file="/usr/local/lib/python3.10/site-packages/torch/_ops.py" source_line=756}
  %broadcast.146 = bf16[1,1]{1,0} broadcast(bf16[1,1]{1,0} %reshape.145), dimensions={0,1}, metadata={op_type="aten__expand" op_name="aten__expand" source_file="/usr/local/lib/python3.10/site-packages/torch/_ops.py" source_line=756}
  %reshape.147 = bf16[] reshape(bf16[1,1]{1,0} %broadcast.146), metadata={op_type="aten__expand" op_name="aten__expand" source_file="/usr/local/lib/python3.10/site-packages/torch/_ops.py" source_line=756}
  %broadcast.148 = bf16[32,2048]{1,0} broadcast(bf16[] %reshape.147), dimensions={}, metadata={op_type="aten__expand" op_name="aten__expand" source_file="/usr/local/lib/python3.10/site-packages/torch/_ops.py" source_line=756}
  %reshape.149 = bf16[32,16,128]{2,1,0} reshape(bf16[32,2048]{1,0} %broadcast.148), metadata={op_type="aten__view" op_name="aten__view" source_file="/usr/local/lib/python3.10/site-packages/torch/_ops.py" source_line=756}
  %reshape.150 = bf16[32,2048]{1,0} reshape(bf16[32,16,128]{2,1,0} %reshape.149), metadata={op_type="aten__view" op_name="aten__view" source_file="/usr/local/lib/python3.10/site-packages/torch/_ops.py" source_line=756}
  %p10.142 = bf16[1024,2048]{1,0} parameter(10), metadata={op_type="xla__device_data" op_name="xla__device_data" source_file="/usr/local/lib/python3.10/site-packages/torch_xla/_dynamo/dynamo_bridge.py" source_line=355}
  %transpose.143 = bf16[2048,1024]{0,1} transpose(bf16[1024,2048]{1,0} %p10.142), dimensions={1,0}, metadata={op_type="aten__permute" op_name="aten__permute" source_file="/usr/local/lib/python3.10/site-packages/torch/_ops.py" source_line=756}
  %dot.151 = bf16[32,1024]{1,0} dot(bf16[32,2048]{1,0} %reshape.150, bf16[2048,1024]{0,1} %transpose.143), lhs_contracting_dims={1}, rhs_contracting_dims={0}, metadata={op_type="aten__mm" op_name="aten__mm" source_file="/usr/local/lib/python3.10/site-packages/torch/_ops.py" source_line=756}
  %convert.152 = f32[32,1024]{1,0} convert(bf16[32,1024]{1,0} %dot.151), metadata={op_type="xla__cast" op_name="xla__cast" source_file="/usr/local/lib/python3.10/site-packages/torch/_ops.py" source_line=756}
  %constant.72 = bf16[] constant(0), metadata={op_type="prim__Constant" op_name="prim__Constant" source_file="/usr/local/lib/python3.10/site-packages/torch/_ops.py" source_line=756}
  %reshape.73 = bf16[1,1]{1,0} reshape(bf16[] %constant.72), metadata={op_type="aten__expand" op_name="aten__expand" source_file="/usr/local/lib/python3.10/site-packages/torch/_ops.py" source_line=756}
  %broadcast.74 = bf16[1,1]{1,0} broadcast(bf16[1,1]{1,0} %reshape.73), dimensions={0,1}, metadata={op_type="aten__expand" op_name="aten__expand" source_file="/usr/local/lib/python3.10/site-packages/torch/_ops.py" source_line=756}
  %reshape.75 = bf16[] reshape(bf16[1,1]{1,0} %broadcast.74), metadata={op_type="aten__expand" op_name="aten__expand" source_file="/usr/local/lib/python3.10/site-packages/torch/_ops.py" source_line=756}
  %broadcast.76 = bf16[32,2048]{1,0} broadcast(bf16[] %reshape.75), dimensions={}, metadata={op_type="aten__expand" op_name="aten__expand" source_file="/usr/local/lib/python3.10/site-packages/torch/_ops.py" source_line=756}
  %reshape.77 = bf16[32,16,128]{2,1,0} reshape(bf16[32,2048]{1,0} %broadcast.76), metadata={op_type="aten__view" op_name="aten__view" source_file="/usr/local/lib/python3.10/site-packages/torch/_ops.py" source_line=756}
  %reshape.78 = bf16[32,2048]{1,0} reshape(bf16[32,16,128]{2,1,0} %reshape.77), metadata={op_type="aten__view" op_name="aten__view" source_file="/usr/local/lib/python3.10/site-packages/torch/_ops.py" source_line=756}
  %p6.70 = bf16[1024,2048]{1,0} parameter(6), metadata={op_type="xla__device_data" op_name="xla__device_data" source_file="/usr/local/lib/python3.10/site-packages/torch_xla/_dynamo/dynamo_bridge.py" source_line=355}
  %transpose.71 = bf16[2048,1024]{0,1} transpose(bf16[1024,2048]{1,0} %p6.70), dimensions={1,0}, metadata={op_type="aten__permute" op_name="aten__permute" source_file="/usr/local/lib/python3.10/site-packages/torch/_ops.py" source_line=756}
  %dot.79 = bf16[32,1024]{1,0} dot(bf16[32,2048]{1,0} %reshape.78, bf16[2048,1024]{0,1} %transpose.71), lhs_contracting_dims={1}, rhs_contracting_dims={0}, metadata={op_type="aten__mm" op_name="aten__mm" source_file="/usr/local/lib/python3.10/site-packages/torch/_ops.py" source_line=756}
  %convert.80 = f32[32,1024]{1,0} convert(bf16[32,1024]{1,0} %dot.79), metadata={op_type="xla__cast" op_name="xla__cast" source_file="/usr/local/lib/python3.10/site-packages/torch/_ops.py" source_line=756}
  %p5.66 = bf16[151936,1024]{1,0} parameter(5), metadata={op_type="xla__device_data" op_name="xla__device_data" source_file="/usr/local/lib/python3.10/site-packages/torch_xla/_dynamo/dynamo_bridge.py" source_line=355}
  %p4.64 = s32[32]{0} parameter(4), metadata={op_type="xla__device_data" op_name="xla__device_data" source_file="/usr/local/lib/python3.10/site-packages/torch_xla/_dynamo/dynamo_bridge.py" source_line=355}
  %convert.65 = s64[32]{0} convert(s32[32]{0} %p4.64), metadata={op_type="xla__cast" op_name="xla__cast" source_file="/usr/local/lib/python3.10/site-packages/torch/_ops.py" source_line=756}
  %convert.67 = u32[32]{0} convert(s64[32]{0} %convert.65), metadata={op_type="aten__index_select" op_name="aten__index_select" source_file="/usr/local/lib/python3.10/site-packages/torch/_ops.py" source_line=756}
  %gather.68 = bf16[32,1024]{1,0} gather(bf16[151936,1024]{1,0} %p5.66, u32[32]{0} %convert.67), offset_dims={1}, collapsed_slice_dims={0}, start_index_map={0}, index_vector_dim=1, slice_sizes={1,1024}, metadata={op_type="aten__index_select" op_name="aten__index_select" source_file="/usr/local/lib/python3.10/site-packages/torch/_ops.py" source_line=756}
  %convert.69 = f32[32,1024]{1,0} convert(bf16[32,1024]{1,0} %gather.68), metadata={op_type="xla__cast" op_name="xla__cast" source_file="/usr/local/lib/python3.10/site-packages/torch/_ops.py" source_line=756}
  %constant.63 = f32[] constant(1), metadata={op_type="prim__Constant" op_name="prim__Constant" source_file="/usr/local/lib/python3.10/site-packages/torch/_ops.py" source_line=756}
  %broadcast.81 = f32[32,1024]{1,0} broadcast(f32[] %constant.63), dimensions={}, metadata={op_type="aten__add" op_name="aten__add.520/aten__add" source_file="/usr/local/lib/python3.10/site-packages/torch/_ops.py" source_line=756}
  %multiply.82 = f32[32,1024]{1,0} multiply(f32[32,1024]{1,0} %convert.69, f32[32,1024]{1,0} %broadcast.81), metadata={op_type="aten__add" op_name="aten__add.520/aten__add" source_file="/usr/local/lib/python3.10/site-packages/torch/_ops.py" source_line=756}
  %add.83 = f32[32,1024]{1,0} add(f32[32,1024]{1,0} %convert.80, f32[32,1024]{1,0} %multiply.82), metadata={op_type="aten__add" op_name="aten__add.520/aten__add" source_file="/usr/local/lib/python3.10/site-packages/torch/_ops.py" source_line=756}
  %constant.93 = f32[] constant(2), metadata={op_type="prim__Constant" op_name="prim__Constant" source_file="/usr/local/lib/python3.10/site-packages/torch/_ops.py" source_line=756}
  %broadcast.94 = f32[32,1024]{1,0} broadcast(f32[] %constant.93), dimensions={}, metadata={op_type="aten__pow" op_name="aten__pow" source_file="/usr/local/lib/python3.10/site-packages/torch/_ops.py" source_line=756}
  %power.95 = f32[32,1024]{1,0} power(f32[32,1024]{1,0} %add.83, f32[32,1024]{1,0} %broadcast.94), metadata={op_type="aten__pow" op_name="aten__pow" source_file="/usr/local/lib/python3.10/site-packages/torch/_ops.py" source_line=756}
  %constant.96 = f32[] constant(0), metadata={op_type="aten__mean" op_name="aten__mean" source_file="/usr/local/lib/python3.10/site-packages/torch/_ops.py" source_line=756}
  %reduce.102 = f32[32]{0} reduce(f32[32,1024]{1,0} %power.95, f32[] %constant.96), dimensions={1}, to_apply=%AddComputation.98, metadata={op_type="aten__mean" op_name="aten__mean" source_file="/usr/local/lib/python3.10/site-packages/torch/_ops.py" source_line=756}
  %constant.97 = s32[] constant(1024), metadata={op_type="aten__mean" op_name="aten__mean" source_file="/usr/local/lib/python3.10/site-packages/torch/_ops.py" source_line=756}
  %constant.103 = s32[] constant(0), metadata={op_type="aten__mean" op_name="aten__mean" source_file="/usr/local/lib/python3.10/site-packages/torch/_ops.py" source_line=756}
  %compare.108 = pred[] compare(s32[] %constant.97, s32[] %constant.103), direction=NE, metadata={op_type="aten__mean" op_name="aten__mean" source_file="/usr/local/lib/python3.10/site-packages/torch/_ops.py" source_line=756}
  %constant.104 = f32[] constant(1), metadata={op_type="aten__mean" op_name="aten__mean" source_file="/usr/local/lib/python3.10/site-packages/torch/_ops.py" source_line=756}
  %convert.106 = f32[] convert(s32[] %constant.97), metadata={op_type="aten__mean" op_name="aten__mean" source_file="/usr/local/lib/python3.10/site-packages/torch/_ops.py" source_line=756}
  %divide.107 = f32[] divide(f32[] %constant.104, f32[] %convert.106), metadata={op_type="aten__mean" op_name="aten__mean" source_file="/usr/local/lib/python3.10/site-packages/torch/_ops.py" source_line=756}
  %constant.105 = f32[] constant(nan), metadata={op_type="aten__mean" op_name="aten__mean" source_file="/usr/local/lib/python3.10/site-packages/torch/_ops.py" source_line=756}
  %select.109 = f32[] select(pred[] %compare.108, f32[] %divide.107, f32[] %constant.105), metadata={op_type="aten__mean" op_name="aten__mean" source_file="/usr/local/lib/python3.10/site-packages/torch/_ops.py" source_line=756}
  %broadcast.110 = f32[32]{0} broadcast(f32[] %select.109), dimensions={}, metadata={op_type="aten__mean" op_name="aten__mean" source_file="/usr/local/lib/python3.10/site-packages/torch/_ops.py" source_line=756}
  %multiply.111 = f32[32]{0} multiply(f32[32]{0} %reduce.102, f32[32]{0} %broadcast.110), metadata={op_type="aten__mean" op_name="aten__mean" source_file="/usr/local/lib/python3.10/site-packages/torch/_ops.py" source_line=756}
  %reshape.112 = f32[32,1]{1,0} reshape(f32[32]{0} %multiply.111), metadata={op_type="aten__mean" op_name="aten__mean" source_file="/usr/local/lib/python3.10/site-packages/torch/_ops.py" source_line=756}
  %convert.113 = f32[32,1]{1,0} convert(f32[32,1]{1,0} %reshape.112), metadata={op_type="aten__mean" op_name="aten__mean" source_file="/usr/local/lib/python3.10/site-packages/torch/_ops.py" source_line=756}
  %p1.4 = f32[] parameter(1), metadata={op_type="xla__device_data" op_name="xla__device_data" source_file="/usr/local/lib/python3.10/site-packages/torch/_ops.py" source_line=756}
  %constant.92 = f32[] constant(1), metadata={op_type="prim__Constant" op_name="prim__Constant" source_file="/usr/local/lib/python3.10/site-packages/torch/_ops.py" source_line=756}
  %multiply.114 = f32[] multiply(f32[] %p1.4, f32[] %constant.92), metadata={op_type="aten__add" op_name="aten__add.521/aten__add" source_file="/usr/local/lib/python3.10/site-packages/torch/_ops.py" source_line=756}
  %broadcast.115 = f32[32,1]{1,0} broadcast(f32[] %multiply.114), dimensions={}, metadata={op_type="aten__add" op_name="aten__add.521/aten__add" source_file="/usr/local/lib/python3.10/site-packages/torch/_ops.py" source_line=756}
  %add.116 = f32[32,1]{1,0} add(f32[32,1]{1,0} %convert.113, f32[32,1]{1,0} %broadcast.115), metadata={op_type="aten__add" op_name="aten__add.521/aten__add" source_file="/usr/local/lib/python3.10/site-packages/torch/_ops.py" source_line=756}
  %rsqrt.117 = f32[32,1]{1,0} rsqrt(f32[32,1]{1,0} %add.116), metadata={op_type="aten__rsqrt" op_name="aten__rsqrt" source_file="/usr/local/lib/python3.10/site-packages/torch/_ops.py" source_line=756}
  %reshape.118 = f32[32]{0} reshape(f32[32,1]{1,0} %rsqrt.117), metadata={op_type="aten__mul" op_name="aten__mul.522/aten__mul" source_file="/usr/local/lib/python3.10/site-packages/torch/_ops.py" source_line=756}
  %broadcast.119 = f32[32,1024]{1,0} broadcast(f32[32]{0} %reshape.118), dimensions={0}, metadata={op_type="aten__mul" op_name="aten__mul.522/aten__mul" source_file="/usr/local/lib/python3.10/site-packages/torch/_ops.py" source_line=756}
  %multiply.120 = f32[32,1024]{1,0} multiply(f32[32,1024]{1,0} %add.83, f32[32,1024]{1,0} %broadcast.119), metadata={op_type="aten__mul" op_name="aten__mul.522/aten__mul" source_file="/usr/local/lib/python3.10/site-packages/torch/_ops.py" source_line=756}
  %convert.121 = bf16[32,1024]{1,0} convert(f32[32,1024]{1,0} %multiply.120), metadata={op_type="xla__cast" op_name="xla__cast" source_file="/usr/local/lib/python3.10/site-packages/torch/_ops.py" source_line=756}
  %convert.122 = f32[32,1024]{1,0} convert(bf16[32,1024]{1,0} %convert.121), metadata={op_type="xla__cast" op_name="xla__cast" source_file="/usr/local/lib/python3.10/site-packages/torch/_ops.py" source_line=756}
  %p9.90 = bf16[1024]{0} parameter(9), metadata={op_type="xla__device_data" op_name="xla__device_data" source_file="/usr/local/lib/python3.10/site-packages/torch_xla/_dynamo/dynamo_bridge.py" source_line=355}
  %convert.91 = f32[1024]{0} convert(bf16[1024]{0} %p9.90), metadata={op_type="xla__cast" op_name="xla__cast" source_file="/usr/local/lib/python3.10/site-packages/torch/_ops.py" source_line=756}
  %broadcast.123 = f32[32,1024]{1,0} broadcast(f32[1024]{0} %convert.91), dimensions={1}, metadata={op_type="aten__mul" op_name="aten__mul.523/aten__mul" source_file="/usr/local/lib/python3.10/site-packages/torch/_ops.py" source_line=756}
  %multiply.124 = f32[32,1024]{1,0} multiply(f32[32,1024]{1,0} %convert.122, f32[32,1024]{1,0} %broadcast.123), metadata={op_type="aten__mul" op_name="aten__mul.523/aten__mul" source_file="/usr/local/lib/python3.10/site-packages/torch/_ops.py" source_line=756}
  %convert.125 = bf16[32,1024]{1,0} convert(f32[32,1024]{1,0} %multiply.124), metadata={op_type="xla__cast" op_name="xla__cast" source_file="/usr/local/lib/python3.10/site-packages/torch/_ops.py" source_line=756}
  %p8.88 = bf16[6144,1024]{1,0} parameter(8), metadata={op_type="xla__device_data" op_name="xla__device_data" source_file="/usr/local/lib/python3.10/site-packages/torch_xla/_dynamo/dynamo_bridge.py" source_line=355}
  %transpose.89 = bf16[1024,6144]{0,1} transpose(bf16[6144,1024]{1,0} %p8.88), dimensions={1,0}, metadata={op_type="aten__permute" op_name="aten__permute" source_file="/usr/local/lib/python3.10/site-packages/torch/_ops.py" source_line=756}
  %dot.126 = bf16[32,6144]{1,0} dot(bf16[32,1024]{1,0} %convert.125, bf16[1024,6144]{0,1} %transpose.89), lhs_contracting_dims={1}, rhs_contracting_dims={0}, metadata={op_type="aten__mm" op_name="aten__mm" source_file="/usr/local/lib/python3.10/site-packages/torch/_ops.py" source_line=756}
  %slice.129 = bf16[32,3072]{1,0} slice(bf16[32,6144]{1,0} %dot.126), slice={[0:32], [0:3072]}, metadata={op_type="xla__select" op_name="xla__select" source_file="/usr/local/lib/python3.10/site-packages/torch/_ops.py" source_line=756}
  %logistic.130 = bf16[32,3072]{1,0} logistic(bf16[32,3072]{1,0} %slice.129), metadata={op_type="aten__silu" op_name="aten__silu" source_file="/usr/local/lib/python3.10/site-packages/torch/_ops.py" source_line=756}
  %multiply.131 = bf16[32,3072]{1,0} multiply(bf16[32,3072]{1,0} %slice.129, bf16[32,3072]{1,0} %logistic.130), metadata={op_type="aten__silu" op_name="aten__silu" source_file="/usr/local/lib/python3.10/site-packages/torch/_ops.py" source_line=756}
  %convert.132 = f32[32,3072]{1,0} convert(bf16[32,3072]{1,0} %multiply.131), metadata={op_type="xla__cast" op_name="xla__cast" source_file="/usr/local/lib/python3.10/site-packages/torch/_ops.py" source_line=756}
  %slice.127 = bf16[32,3072]{1,0} slice(bf16[32,6144]{1,0} %dot.126), slice={[0:32], [3072:6144]}, metadata={op_type="xla__select" op_name="xla__select" source_file="/usr/local/lib/python3.10/site-packages/torch/_ops.py" source_line=756}
  %convert.128 = f32[32,3072]{1,0} convert(bf16[32,3072]{1,0} %slice.127), metadata={op_type="xla__cast" op_name="xla__cast" source_file="/usr/local/lib/python3.10/site-packages/torch/_ops.py" source_line=756}
  %multiply.133 = f32[32,3072]{1,0} multiply(f32[32,3072]{1,0} %convert.132, f32[32,3072]{1,0} %convert.128), metadata={op_type="aten__mul" op_name="aten__mul.524/aten__mul" source_file="/usr/local/lib/python3.10/site-packages/torch/_ops.py" source_line=756}
  %convert.134 = bf16[32,3072]{1,0} convert(f32[32,3072]{1,0} %multiply.133), metadata={op_type="xla__cast" op_name="xla__cast" source_file="/usr/local/lib/python3.10/site-packages/torch/_ops.py" source_line=756}
  %p7.86 = bf16[1024,3072]{1,0} parameter(7), metadata={op_type="xla__device_data" op_name="xla__device_data" source_file="/usr/local/lib/python3.10/site-packages/torch_xla/_dynamo/dynamo_bridge.py" source_line=355}
  %transpose.87 = bf16[3072,1024]{0,1} transpose(bf16[1024,3072]{1,0} %p7.86), dimensions={1,0}, metadata={op_type="aten__permute" op_name="aten__permute" source_file="/usr/local/lib/python3.10/site-packages/torch/_ops.py" source_line=756}
  %dot.135 = bf16[32,1024]{1,0} dot(bf16[32,3072]{1,0} %convert.134, bf16[3072,1024]{0,1} %transpose.87), lhs_contracting_dims={1}, rhs_contracting_dims={0}, metadata={op_type="aten__mm" op_name="aten__mm" source_file="/usr/local/lib/python3.10/site-packages/torch/_ops.py" source_line=756}
  %convert.136 = f32[32,1024]{1,0} convert(bf16[32,1024]{1,0} %dot.135), metadata={op_type="xla__cast" op_name="xla__cast" source_file="/usr/local/lib/python3.10/site-packages/torch/_ops.py" source_line=756}
  %convert.84 = bf16[32,1024]{1,0} convert(f32[32,1024]{1,0} %add.83), metadata={op_type="xla__cast" op_name="xla__cast" source_file="/usr/local/lib/python3.10/site-packages/torch/_ops.py" source_line=756}
  %convert.85 = f32[32,1024]{1,0} convert(bf16[32,1024]{1,0} %convert.84), metadata={op_type="xla__cast" op_name="xla__cast" source_file="/usr/local/lib/python3.10/site-packages/torch/_ops.py" source_line=756}
  %constant.62 = f32[] constant(1), metadata={op_type="prim__Constant" op_name="prim__Constant" source_file="/usr/local/lib/python3.10/site-packages/torch/_ops.py" source_line=756}
  %broadcast.137 = f32[32,1024]{1,0} broadcast(f32[] %constant.62), dimensions={}, metadata={op_type="aten__add" op_name="aten__add.525/aten__add" source_file="/usr/local/lib/python3.10/site-packages/torch/_ops.py" source_line=756}
  %multiply.138 = f32[32,1024]{1,0} multiply(f32[32,1024]{1,0} %convert.85, f32[32,1024]{1,0} %broadcast.137), metadata={op_type="aten__add" op_name="aten__add.525/aten__add" source_file="/usr/local/lib/python3.10/site-packages/torch/_ops.py" source_line=756}
  %add.139 = f32[32,1024]{1,0} add(f32[32,1024]{1,0} %convert.136, f32[32,1024]{1,0} %multiply.138), metadata={op_type="aten__add" op_name="aten__add.525/aten__add" source_file="/usr/local/lib/python3.10/site-packages/torch/_ops.py" source_line=756}
  %convert.140 = bf16[32,1024]{1,0} convert(f32[32,1024]{1,0} %add.139), metadata={op_type="xla__cast" op_name="xla__cast" source_file="/usr/local/lib/python3.10/site-packages/torch/_ops.py" source_line=756}
  %convert.141 = f32[32,1024]{1,0} convert(bf16[32,1024]{1,0} %convert.140), metadata={op_type="xla__cast" op_name="xla__cast" source_file="/usr/local/lib/python3.10/site-packages/torch/_ops.py" source_line=756}
  %constant.61 = f32[] constant(1), metadata={op_type="prim__Constant" op_name="prim__Constant" source_file="/usr/local/lib/python3.10/site-packages/torch/_ops.py" source_line=756}
  %broadcast.153 = f32[32,1024]{1,0} broadcast(f32[] %constant.61), dimensions={}, metadata={op_type="aten__add" op_name="aten__add.538/aten__add" source_file="/usr/local/lib/python3.10/site-packages/torch/_ops.py" source_line=756}
  %multiply.154 = f32[32,1024]{1,0} multiply(f32[32,1024]{1,0} %convert.141, f32[32,1024]{1,0} %broadcast.153), metadata={op_type="aten__add" op_name="aten__add.538/aten__add" source_file="/usr/local/lib/python3.10/site-packages/torch/_ops.py" source_line=756}
  %add.155 = f32[32,1024]{1,0} add(f32[32,1024]{1,0} %convert.152, f32[32,1024]{1,0} %multiply.154), metadata={op_type="aten__add" op_name="aten__add.538/aten__add" source_file="/usr/local/lib/python3.10/site-packages/torch/_ops.py" source_line=756}
  %constant.165 = f32[] constant(2), metadata={op_type="prim__Constant" op_name="prim__Constant" source_file="/usr/local/lib/python3.10/site-packages/torch/_ops.py" source_line=756}
  %broadcast.166 = f32[32,1024]{1,0} broadcast(f32[] %constant.165), dimensions={}, metadata={op_type="aten__pow" op_name="aten__pow" source_file="/usr/local/lib/python3.10/site-packages/torch/_ops.py" source_line=756}
  %power.167 = f32[32,1024]{1,0} power(f32[32,1024]{1,0} %add.155, f32[32,1024]{1,0} %broadcast.166), metadata={op_type="aten__pow" op_name="aten__pow" source_file="/usr/local/lib/python3.10/site-packages/torch/_ops.py" source_line=756}
  %constant.168 = f32[] constant(0), metadata={op_type="aten__mean" op_name="aten__mean" source_file="/usr/local/lib/python3.10/site-packages/torch/_ops.py" source_line=756}
  %reduce.174 = f32[32]{0} reduce(f32[32,1024]{1,0} %power.167, f32[] %constant.168), dimensions={1}, to_apply=%AddComputation.170, metadata={op_type="aten__mean" op_name="aten__mean" source_file="/usr/local/lib/python3.10/site-packages/torch/_ops.py" source_line=756}
  %constant.169 = s32[] constant(1024), metadata={op_type="aten__mean" op_name="aten__mean" source_file="/usr/local/lib/python3.10/site-packages/torch/_ops.py" source_line=756}
  %constant.175 = s32[] constant(0), metadata={op_type="aten__mean" op_name="aten__mean" source_file="/usr/local/lib/python3.10/site-packages/torch/_ops.py" source_line=756}
  %compare.180 = pred[] compare(s32[] %constant.169, s32[] %constant.175), direction=NE, metadata={op_type="aten__mean" op_name="aten__mean" source_file="/usr/local/lib/python3.10/site-packages/torch/_ops.py" source_line=756}
  %constant.176 = f32[] constant(1), metadata={op_type="aten__mean" op_name="aten__mean" source_file="/usr/local/lib/python3.10/site-packages/torch/_ops.py" source_line=756}
  %convert.178 = f32[] convert(s32[] %constant.169), metadata={op_type="aten__mean" op_name="aten__mean" source_file="/usr/local/lib/python3.10/site-packages/torch/_ops.py" source_line=756}
  %divide.179 = f32[] divide(f32[] %constant.176, f32[] %convert.178), metadata={op_type="aten__mean" op_name="aten__mean" source_file="/usr/local/lib/python3.10/site-packages/torch/_ops.py" source_line=756}
  %constant.177 = f32[] constant(nan), metadata={op_type="aten__mean" op_name="aten__mean" source_file="/usr/local/lib/python3.10/site-packages/torch/_ops.py" source_line=756}
  %select.181 = f32[] select(pred[] %compare.180, f32[] %divide.179, f32[] %constant.177), metadata={op_type="aten__mean" op_name="aten__mean" source_file="/usr/local/lib/python3.10/site-packages/torch/_ops.py" source_line=756}
  %broadcast.182 = f32[32]{0} broadcast(f32[] %select.181), dimensions={}, metadata={op_type="aten__mean" op_name="aten__mean" source_file="/usr/local/lib/python3.10/site-packages/torch/_ops.py" source_line=756}
  %multiply.183 = f32[32]{0} multiply(f32[32]{0} %reduce.174, f32[32]{0} %broadcast.182), metadata={op_type="aten__mean" op_name="aten__mean" source_file="/usr/local/lib/python3.10/site-packages/torch/_ops.py" source_line=756}
  %reshape.184 = f32[32,1]{1,0} reshape(f32[32]{0} %multiply.183), metadata={op_type="aten__mean" op_name="aten__mean" source_file="/usr/local/lib/python3.10/site-packages/torch/_ops.py" source_line=756}
  %convert.185 = f32[32,1]{1,0} convert(f32[32,1]{1,0} %reshape.184), metadata={op_type="aten__mean" op_name="aten__mean" source_file="/usr/local/lib/python3.10/site-packages/torch/_ops.py" source_line=756}
  %constant.164 = f32[] constant(1), metadata={op_type="prim__Constant" op_name="prim__Constant" source_file="/usr/local/lib/python3.10/site-packages/torch/_ops.py" source_line=756}
  %multiply.186 = f32[] multiply(f32[] %p1.4, f32[] %constant.164), metadata={op_type="aten__add" op_name="aten__add.539/aten__add" source_file="/usr/local/lib/python3.10/site-packages/torch/_ops.py" source_line=756}
  %broadcast.187 = f32[32,1]{1,0} broadcast(f32[] %multiply.186), dimensions={}, metadata={op_type="aten__add" op_name="aten__add.539/aten__add" source_file="/usr/local/lib/python3.10/site-packages/torch/_ops.py" source_line=756}
  %add.188 = f32[32,1]{1,0} add(f32[32,1]{1,0} %convert.185, f32[32,1]{1,0} %broadcast.187), metadata={op_type="aten__add" op_name="aten__add.539/aten__add" source_file="/usr/local/lib/python3.10/site-packages/torch/_ops.py" source_line=756}
  %rsqrt.189 = f32[32,1]{1,0} rsqrt(f32[32,1]{1,0} %add.188), metadata={op_type="aten__rsqrt" op_name="aten__rsqrt" source_file="/usr/local/lib/python3.10/site-packages/torch/_ops.py" source_line=756}
  %reshape.190 = f32[32]{0} reshape(f32[32,1]{1,0} %rsqrt.189), metadata={op_type="aten__mul" op_name="aten__mul.540/aten__mul" source_file="/usr/local/lib/python3.10/site-packages/torch/_ops.py" source_line=756}
  %broadcast.191 = f32[32,1024]{1,0} broadcast(f32[32]{0} %reshape.190), dimensions={0}, metadata={op_type="aten__mul" op_name="aten__mul.540/aten__mul" source_file="/usr/local/lib/python3.10/site-packages/torch/_ops.py" source_line=756}
  %multiply.192 = f32[32,1024]{1,0} multiply(f32[32,1024]{1,0} %add.155, f32[32,1024]{1,0} %broadcast.191), metadata={op_type="aten__mul" op_name="aten__mul.540/aten__mul" source_file="/usr/local/lib/python3.10/site-packages/torch/_ops.py" source_line=756}
  %convert.193 = bf16[32,1024]{1,0} convert(f32[32,1024]{1,0} %multiply.192), metadata={op_type="xla__cast" op_name="xla__cast" source_file="/usr/local/lib/python3.10/site-packages/torch/_ops.py" source_line=756}
  %convert.194 = f32[32,1024]{1,0} convert(bf16[32,1024]{1,0} %convert.193), metadata={op_type="xla__cast" op_name="xla__cast" source_file="/usr/local/lib/python3.10/site-packages/torch/_ops.py" source_line=756}
  %p13.162 = bf16[1024]{0} parameter(13), metadata={op_type="xla__device_data" op_name="xla__device_data" source_file="/usr/local/lib/python3.10/site-packages/torch_xla/_dynamo/dynamo_bridge.py" source_line=355}
  %convert.163 = f32[1024]{0} convert(bf16[1024]{0} %p13.162), metadata={op_type="xla__cast" op_name="xla__cast" source_file="/usr/local/lib/python3.10/site-packages/torch/_ops.py" source_line=756}
  %broadcast.195 = f32[32,1024]{1,0} broadcast(f32[1024]{0} %convert.163), dimensions={1}, metadata={op_type="aten__mul" op_name="aten__mul.541/aten__mul" source_file="/usr/local/lib/python3.10/site-packages/torch/_ops.py" source_line=756}
  %multiply.196 = f32[32,1024]{1,0} multiply(f32[32,1024]{1,0} %convert.194, f32[32,1024]{1,0} %broadcast.195), metadata={op_type="aten__mul" op_name="aten__mul.541/aten__mul" source_file="/usr/local/lib/python3.10/site-packages/torch/_ops.py" source_line=756}
  %convert.197 = bf16[32,1024]{1,0} convert(f32[32,1024]{1,0} %multiply.196), metadata={op_type="xla__cast" op_name="xla__cast" source_file="/usr/local/lib/python3.10/site-packages/torch/_ops.py" source_line=756}
  %p12.160 = bf16[6144,1024]{1,0} parameter(12), metadata={op_type="xla__device_data" op_name="xla__device_data" source_file="/usr/local/lib/python3.10/site-packages/torch_xla/_dynamo/dynamo_bridge.py" source_line=355}
  %transpose.161 = bf16[1024,6144]{0,1} transpose(bf16[6144,1024]{1,0} %p12.160), dimensions={1,0}, metadata={op_type="aten__permute" op_name="aten__permute" source_file="/usr/local/lib/python3.10/site-packages/torch/_ops.py" source_line=756}
  %dot.198 = bf16[32,6144]{1,0} dot(bf16[32,1024]{1,0} %convert.197, bf16[1024,6144]{0,1} %transpose.161), lhs_contracting_dims={1}, rhs_contracting_dims={0}, metadata={op_type="aten__mm" op_name="aten__mm" source_file="/usr/local/lib/python3.10/site-packages/torch/_ops.py" source_line=756}
  %slice.201 = bf16[32,3072]{1,0} slice(bf16[32,6144]{1,0} %dot.198), slice={[0:32], [0:3072]}, metadata={op_type="xla__select" op_name="xla__select" source_file="/usr/local/lib/python3.10/site-packages/torch/_ops.py" source_line=756}
  %logistic.202 = bf16[32,3072]{1,0} logistic(bf16[32,3072]{1,0} %slice.201), metadata={op_type="aten__silu" op_name="aten__silu" source_file="/usr/local/lib/python3.10/site-packages/torch/_ops.py" source_line=756}
  %multiply.203 = bf16[32,3072]{1,0} multiply(bf16[32,3072]{1,0} %slice.201, bf16[32,3072]{1,0} %logistic.202), metadata={op_type="aten__silu" op_name="aten__silu" source_file="/usr/local/lib/python3.10/site-packages/torch/_ops.py" source_line=756}
  %convert.204 = f32[32,3072]{1,0} convert(bf16[32,3072]{1,0} %multiply.203), metadata={op_type="xla__cast" op_name="xla__cast" source_file="/usr/local/lib/python3.10/site-packages/torch/_ops.py" source_line=756}
  %slice.199 = bf16[32,3072]{1,0} slice(bf16[32,6144]{1,0} %dot.198), slice={[0:32], [3072:6144]}, metadata={op_type="xla__select" op_name="xla__select" source_file="/usr/local/lib/python3.10/site-packages/torch/_ops.py" source_line=756}
  %convert.200 = f32[32,3072]{1,0} convert(bf16[32,3072]{1,0} %slice.199), metadata={op_type="xla__cast" op_name="xla__cast" source_file="/usr/local/lib/python3.10/site-packages/torch/_ops.py" source_line=756}
  %multiply.205 = f32[32,3072]{1,0} multiply(f32[32,3072]{1,0} %convert.204, f32[32,3072]{1,0} %convert.200), metadata={op_type="aten__mul" op_name="aten__mul.542/aten__mul" source_file="/usr/local/lib/python3.10/site-packages/torch/_ops.py" source_line=756}
  %convert.206 = bf16[32,3072]{1,0} convert(f32[32,3072]{1,0} %multiply.205), metadata={op_type="xla__cast" op_name="xla__cast" source_file="/usr/local/lib/python3.10/site-packages/torch/_ops.py" source_line=756}
  %p11.158 = bf16[1024,3072]{1,0} parameter(11), metadata={op_type="xla__device_data" op_name="xla__device_data" source_file="/usr/local/lib/python3.10/site-packages/torch_xla/_dynamo/dynamo_bridge.py" source_line=355}
  %transpose.159 = bf16[3072,1024]{0,1} transpose(bf16[1024,3072]{1,0} %p11.158), dimensions={1,0}, metadata={op_type="aten__permute" op_name="aten__permute" source_file="/usr/local/lib/python3.10/site-packages/torch/_ops.py" source_line=756}
  %dot.207 = bf16[32,1024]{1,0} dot(bf16[32,3072]{1,0} %convert.206, bf16[3072,1024]{0,1} %transpose.159), lhs_contracting_dims={1}, rhs_contracting_dims={0}, metadata={op_type="aten__mm" op_name="aten__mm" source_file="/usr/local/lib/python3.10/site-packages/torch/_ops.py" source_line=756}
  %convert.208 = f32[32,1024]{1,0} convert(bf16[32,1024]{1,0} %dot.207), metadata={op_type="xla__cast" op_name="xla__cast" source_file="/usr/local/lib/python3.10/site-packages/torch/_ops.py" source_line=756}
  %convert.156 = bf16[32,1024]{1,0} convert(f32[32,1024]{1,0} %add.155), metadata={op_type="xla__cast" op_name="xla__cast" source_file="/usr/local/lib/python3.10/site-packages/torch/_ops.py" source_line=756}
  %convert.157 = f32[32,1024]{1,0} convert(bf16[32,1024]{1,0} %convert.156), metadata={op_type="xla__cast" op_name="xla__cast" source_file="/usr/local/lib/python3.10/site-packages/torch/_ops.py" source_line=756}
  %constant.60 = f32[] constant(1), metadata={op_type="prim__Constant" op_name="prim__Constant" source_file="/usr/local/lib/python3.10/site-packages/torch/_ops.py" source_line=756}
  %broadcast.209 = f32[32,1024]{1,0} broadcast(f32[] %constant.60), dimensions={}, metadata={op_type="aten__add" op_name="aten__add.543/aten__add" source_file="/usr/local/lib/python3.10/site-packages/torch/_ops.py" source_line=756}
  %multiply.210 = f32[32,1024]{1,0} multiply(f32[32,1024]{1,0} %convert.157, f32[32,1024]{1,0} %broadcast.209), metadata={op_type="aten__add" op_name="aten__add.543/aten__add" source_file="/usr/local/lib/python3.10/site-packages/torch/_ops.py" source_line=756}
  %add.211 = f32[32,1024]{1,0} add(f32[32,1024]{1,0} %convert.208, f32[32,1024]{1,0} %multiply.210), metadata={op_type="aten__add" op_name="aten__add.543/aten__add" source_file="/usr/local/lib/python3.10/site-packages/torch/_ops.py" source_line=756}
  %convert.212 = bf16[32,1024]{1,0} convert(f32[32,1024]{1,0} %add.211), metadata={op_type="xla__cast" op_name="xla__cast" source_file="/usr/local/lib/python3.10/site-packages/torch/_ops.py" source_line=756}
  %convert.213 = f32[32,1024]{1,0} convert(bf16[32,1024]{1,0} %convert.212), metadata={op_type="xla__cast" op_name="xla__cast" source_file="/usr/local/lib/python3.10/site-packages/torch/_ops.py" source_line=756}
  %constant.59 = f32[] constant(1), metadata={op_type="prim__Constant" op_name="prim__Constant" source_file="/usr/local/lib/python3.10/site-packages/torch/_ops.py" source_line=756}
  %broadcast.225 = f32[32,1024]{1,0} broadcast(f32[] %constant.59), dimensions={}, metadata={op_type="aten__add" op_name="aten__add.556/aten__add" source_file="/usr/local/lib/python3.10/site-packages/torch/_ops.py" source_line=756}
  %multiply.226 = f32[32,1024]{1,0} multiply(f32[32,1024]{1,0} %convert.213, f32[32,1024]{1,0} %broadcast.225), metadata={op_type="aten__add" op_name="aten__add.556/aten__add" source_file="/usr/local/lib/python3.10/site-packages/torch/_ops.py" source_line=756}
  %add.227 = f32[32,1024]{1,0} add(f32[32,1024]{1,0} %convert.224, f32[32,1024]{1,0} %multiply.226), metadata={op_type="aten__add" op_name="aten__add.556/aten__add" source_file="/usr/local/lib/python3.10/site-packages/torch/_ops.py" source_line=756}
  %constant.237 = f32[] constant(2), metadata={op_type="prim__Constant" op_name="prim__Constant" source_file="/usr/local/lib/python3.10/site-packages/torch/_ops.py" source_line=756}
  %broadcast.238 = f32[32,1024]{1,0} broadcast(f32[] %constant.237), dimensions={}, metadata={op_type="aten__pow" op_name="aten__pow" source_file="/usr/local/lib/python3.10/site-packages/torch/_ops.py" source_line=756}
  %power.239 = f32[32,1024]{1,0} power(f32[32,1024]{1,0} %add.227, f32[32,1024]{1,0} %broadcast.238), metadata={op_type="aten__pow" op_name="aten__pow" source_file="/usr/local/lib/python3.10/site-packages/torch/_ops.py" source_line=756}
  %constant.240 = f32[] constant(0), metadata={op_type="aten__mean" op_name="aten__mean" source_file="/usr/local/lib/python3.10/site-packages/torch/_ops.py" source_line=756}
  %reduce.246 = f32[32]{0} reduce(f32[32,1024]{1,0} %power.239, f32[] %constant.240), dimensions={1}, to_apply=%AddComputation.242, metadata={op_type="aten__mean" op_name="aten__mean" source_file="/usr/local/lib/python3.10/site-packages/torch/_ops.py" source_line=756}
  %constant.241 = s32[] constant(1024), metadata={op_type="aten__mean" op_name="aten__mean" source_file="/usr/local/lib/python3.10/site-packages/torch/_ops.py" source_line=756}
  %constant.247 = s32[] constant(0), metadata={op_type="aten__mean" op_name="aten__mean" source_file="/usr/local/lib/python3.10/site-packages/torch/_ops.py" source_line=756}
  %compare.252 = pred[] compare(s32[] %constant.241, s32[] %constant.247), direction=NE, metadata={op_type="aten__mean" op_name="aten__mean" source_file="/usr/local/lib/python3.10/site-packages/torch/_ops.py" source_line=756}
  %constant.248 = f32[] constant(1), metadata={op_type="aten__mean" op_name="aten__mean" source_file="/usr/local/lib/python3.10/site-packages/torch/_ops.py" source_line=756}
  %convert.250 = f32[] convert(s32[] %constant.241), metadata={op_type="aten__mean" op_name="aten__mean" source_file="/usr/local/lib/python3.10/site-packages/torch/_ops.py" source_line=756}
  %divide.251 = f32[] divide(f32[] %constant.248, f32[] %convert.250), metadata={op_type="aten__mean" op_name="aten__mean" source_file="/usr/local/lib/python3.10/site-packages/torch/_ops.py" source_line=756}
  %constant.249 = f32[] constant(nan), metadata={op_type="aten__mean" op_name="aten__mean" source_file="/usr/local/lib/python3.10/site-packages/torch/_ops.py" source_line=756}
  %select.253 = f32[] select(pred[] %compare.252, f32[] %divide.251, f32[] %constant.249), metadata={op_type="aten__mean" op_name="aten__mean" source_file="/usr/local/lib/python3.10/site-packages/torch/_ops.py" source_line=756}
  %broadcast.254 = f32[32]{0} broadcast(f32[] %select.253), dimensions={}, metadata={op_type="aten__mean" op_name="aten__mean" source_file="/usr/local/lib/python3.10/site-packages/torch/_ops.py" source_line=756}
  %multiply.255 = f32[32]{0} multiply(f32[32]{0} %reduce.246, f32[32]{0} %broadcast.254), metadata={op_type="aten__mean" op_name="aten__mean" source_file="/usr/local/lib/python3.10/site-packages/torch/_ops.py" source_line=756}
  %reshape.256 = f32[32,1]{1,0} reshape(f32[32]{0} %multiply.255), metadata={op_type="aten__mean" op_name="aten__mean" source_file="/usr/local/lib/python3.10/site-packages/torch/_ops.py" source_line=756}
  %convert.257 = f32[32,1]{1,0} convert(f32[32,1]{1,0} %reshape.256), metadata={op_type="aten__mean" op_name="aten__mean" source_file="/usr/local/lib/python3.10/site-packages/torch/_ops.py" source_line=756}
  %constant.236 = f32[] constant(1), metadata={op_type="prim__Constant" op_name="prim__Constant" source_file="/usr/local/lib/python3.10/site-packages/torch/_ops.py" source_line=756}
  %multiply.258 = f32[] multiply(f32[] %p1.4, f32[] %constant.236), metadata={op_type="aten__add" op_name="aten__add.557/aten__add" source_file="/usr/local/lib/python3.10/site-packages/torch/_ops.py" source_line=756}
  %broadcast.259 = f32[32,1]{1,0} broadcast(f32[] %multiply.258), dimensions={}, metadata={op_type="aten__add" op_name="aten__add.557/aten__add" source_file="/usr/local/lib/python3.10/site-packages/torch/_ops.py" source_line=756}
  %add.260 = f32[32,1]{1,0} add(f32[32,1]{1,0} %convert.257, f32[32,1]{1,0} %broadcast.259), metadata={op_type="aten__add" op_name="aten__add.557/aten__add" source_file="/usr/local/lib/python3.10/site-packages/torch/_ops.py" source_line=756}
  %rsqrt.261 = f32[32,1]{1,0} rsqrt(f32[32,1]{1,0} %add.260), metadata={op_type="aten__rsqrt" op_name="aten__rsqrt" source_file="/usr/local/lib/python3.10/site-packages/torch/_ops.py" source_line=756}
  %reshape.262 = f32[32]{0} reshape(f32[32,1]{1,0} %rsqrt.261), metadata={op_type="aten__mul" op_name="aten__mul.558/aten__mul" source_file="/usr/local/lib/python3.10/site-packages/torch/_ops.py" source_line=756}
  %broadcast.263 = f32[32,1024]{1,0} broadcast(f32[32]{0} %reshape.262), dimensions={0}, metadata={op_type="aten__mul" op_name="aten__mul.558/aten__mul" source_file="/usr/local/lib/python3.10/site-packages/torch/_ops.py" source_line=756}
  %multiply.264 = f32[32,1024]{1,0} multiply(f32[32,1024]{1,0} %add.227, f32[32,1024]{1,0} %broadcast.263), metadata={op_type="aten__mul" op_name="aten__mul.558/aten__mul" source_file="/usr/local/lib/python3.10/site-packages/torch/_ops.py" source_line=756}
  %convert.265 = bf16[32,1024]{1,0} convert(f32[32,1024]{1,0} %multiply.264), metadata={op_type="xla__cast" op_name="xla__cast" source_file="/usr/local/lib/python3.10/site-packages/torch/_ops.py" source_line=756}
  %convert.266 = f32[32,1024]{1,0} convert(bf16[32,1024]{1,0} %convert.265), metadata={op_type="xla__cast" op_name="xla__cast" source_file="/usr/local/lib/python3.10/site-packages/torch/_ops.py" source_line=756}
  %p17.234 = bf16[1024]{0} parameter(17), metadata={op_type="xla__device_data" op_name="xla__device_data" source_file="/usr/local/lib/python3.10/site-packages/torch_xla/_dynamo/dynamo_bridge.py" source_line=355}
  %convert.235 = f32[1024]{0} convert(bf16[1024]{0} %p17.234), metadata={op_type="xla__cast" op_name="xla__cast" source_file="/usr/local/lib/python3.10/site-packages/torch/_ops.py" source_line=756}
  %broadcast.267 = f32[32,1024]{1,0} broadcast(f32[1024]{0} %convert.235), dimensions={1}, metadata={op_type="aten__mul" op_name="aten__mul.559/aten__mul" source_file="/usr/local/lib/python3.10/site-packages/torch/_ops.py" source_line=756}
  %multiply.268 = f32[32,1024]{1,0} multiply(f32[32,1024]{1,0} %convert.266, f32[32,1024]{1,0} %broadcast.267), metadata={op_type="aten__mul" op_name="aten__mul.559/aten__mul" source_file="/usr/local/lib/python3.10/site-packages/torch/_ops.py" source_line=756}
  %convert.269 = bf16[32,1024]{1,0} convert(f32[32,1024]{1,0} %multiply.268), metadata={op_type="xla__cast" op_name="xla__cast" source_file="/usr/local/lib/python3.10/site-packages/torch/_ops.py" source_line=756}
  %p16.232 = bf16[6144,1024]{1,0} parameter(16), metadata={op_type="xla__device_data" op_name="xla__device_data" source_file="/usr/local/lib/python3.10/site-packages/torch_xla/_dynamo/dynamo_bridge.py" source_line=355}
  %transpose.233 = bf16[1024,6144]{0,1} transpose(bf16[6144,1024]{1,0} %p16.232), dimensions={1,0}, metadata={op_type="aten__permute" op_name="aten__permute" source_file="/usr/local/lib/python3.10/site-packages/torch/_ops.py" source_line=756}
  %dot.270 = bf16[32,6144]{1,0} dot(bf16[32,1024]{1,0} %convert.269, bf16[1024,6144]{0,1} %transpose.233), lhs_contracting_dims={1}, rhs_contracting_dims={0}, metadata={op_type="aten__mm" op_name="aten__mm" source_file="/usr/local/lib/python3.10/site-packages/torch/_ops.py" source_line=756}
  %slice.273 = bf16[32,3072]{1,0} slice(bf16[32,6144]{1,0} %dot.270), slice={[0:32], [0:3072]}, metadata={op_type="xla__select" op_name="xla__select" source_file="/usr/local/lib/python3.10/site-packages/torch/_ops.py" source_line=756}
  %logistic.274 = bf16[32,3072]{1,0} logistic(bf16[32,3072]{1,0} %slice.273), metadata={op_type="aten__silu" op_name="aten__silu" source_file="/usr/local/lib/python3.10/site-packages/torch/_ops.py" source_line=756}
  %multiply.275 = bf16[32,3072]{1,0} multiply(bf16[32,3072]{1,0} %slice.273, bf16[32,3072]{1,0} %logistic.274), metadata={op_type="aten__silu" op_name="aten__silu" source_file="/usr/local/lib/python3.10/site-packages/torch/_ops.py" source_line=756}
  %convert.276 = f32[32,3072]{1,0} convert(bf16[32,3072]{1,0} %multiply.275), metadata={op_type="xla__cast" op_name="xla__cast" source_file="/usr/local/lib/python3.10/site-packages/torch/_ops.py" source_line=756}
  %slice.271 = bf16[32,3072]{1,0} slice(bf16[32,6144]{1,0} %dot.270), slice={[0:32], [3072:6144]}, metadata={op_type="xla__select" op_name="xla__select" source_file="/usr/local/lib/python3.10/site-packages/torch/_ops.py" source_line=756}
  %convert.272 = f32[32,3072]{1,0} convert(bf16[32,3072]{1,0} %slice.271), metadata={op_type="xla__cast" op_name="xla__cast" source_file="/usr/local/lib/python3.10/site-packages/torch/_ops.py" source_line=756}
  %multiply.277 = f32[32,3072]{1,0} multiply(f32[32,3072]{1,0} %convert.276, f32[32,3072]{1,0} %convert.272), metadata={op_type="aten__mul" op_name="aten__mul.560/aten__mul" source_file="/usr/local/lib/python3.10/site-packages/torch/_ops.py" source_line=756}
  %convert.278 = bf16[32,3072]{1,0} convert(f32[32,3072]{1,0} %multiply.277), metadata={op_type="xla__cast" op_name="xla__cast" source_file="/usr/local/lib/python3.10/site-packages/torch/_ops.py" source_line=756}
  %p15.230 = bf16[1024,3072]{1,0} parameter(15), metadata={op_type="xla__device_data" op_name="xla__device_data" source_file="/usr/local/lib/python3.10/site-packages/torch_xla/_dynamo/dynamo_bridge.py" source_line=355}
  %transpose.231 = bf16[3072,1024]{0,1} transpose(bf16[1024,3072]{1,0} %p15.230), dimensions={1,0}, metadata={op_type="aten__permute" op_name="aten__permute" source_file="/usr/local/lib/python3.10/site-packages/torch/_ops.py" source_line=756}
  %dot.279 = bf16[32,1024]{1,0} dot(bf16[32,3072]{1,0} %convert.278, bf16[3072,1024]{0,1} %transpose.231), lhs_contracting_dims={1}, rhs_contracting_dims={0}, metadata={op_type="aten__mm" op_name="aten__mm" source_file="/usr/local/lib/python3.10/site-packages/torch/_ops.py" source_line=756}
  %convert.280 = f32[32,1024]{1,0} convert(bf16[32,1024]{1,0} %dot.279), metadata={op_type="xla__cast" op_name="xla__cast" source_file="/usr/local/lib/python3.10/site-packages/torch/_ops.py" source_line=756}
  %convert.228 = bf16[32,1024]{1,0} convert(f32[32,1024]{1,0} %add.227), metadata={op_type="xla__cast" op_name="xla__cast" source_file="/usr/local/lib/python3.10/site-packages/torch/_ops.py" source_line=756}
  %convert.229 = f32[32,1024]{1,0} convert(bf16[32,1024]{1,0} %convert.228), metadata={op_type="xla__cast" op_name="xla__cast" source_file="/usr/local/lib/python3.10/site-packages/torch/_ops.py" source_line=756}
  %constant.58 = f32[] constant(1), metadata={op_type="prim__Constant" op_name="prim__Constant" source_file="/usr/local/lib/python3.10/site-packages/torch/_ops.py" source_line=756}
  %broadcast.281 = f32[32,1024]{1,0} broadcast(f32[] %constant.58), dimensions={}, metadata={op_type="aten__add" op_name="aten__add.561/aten__add" source_file="/usr/local/lib/python3.10/site-packages/torch/_ops.py" source_line=756}
  %multiply.282 = f32[32,1024]{1,0} multiply(f32[32,1024]{1,0} %convert.229, f32[32,1024]{1,0} %broadcast.281), metadata={op_type="aten__add" op_name="aten__add.561/aten__add" source_file="/usr/local/lib/python3.10/site-packages/torch/_ops.py" source_line=756}
  %add.283 = f32[32,1024]{1,0} add(f32[32,1024]{1,0} %convert.280, f32[32,1024]{1,0} %multiply.282), metadata={op_type="aten__add" op_name="aten__add.561/aten__add" source_file="/usr/local/lib/python3.10/site-packages/torch/_ops.py" source_line=756}
  %convert.284 = bf16[32,1024]{1,0} convert(f32[32,1024]{1,0} %add.283), metadata={op_type="xla__cast" op_name="xla__cast" source_file="/usr/local/lib/python3.10/site-packages/torch/_ops.py" source_line=756}
  %convert.285 = f32[32,1024]{1,0} convert(bf16[32,1024]{1,0} %convert.284), metadata={op_type="xla__cast" op_name="xla__cast" source_file="/usr/local/lib/python3.10/site-packages/torch/_ops.py" source_line=756}
  %constant.57 = f32[] constant(1), metadata={op_type="prim__Constant" op_name="prim__Constant" source_file="/usr/local/lib/python3.10/site-packages/torch/_ops.py" source_line=756}
  %broadcast.297 = f32[32,1024]{1,0} broadcast(f32[] %constant.57), dimensions={}, metadata={op_type="aten__add" op_name="aten__add.574/aten__add" source_file="/usr/local/lib/python3.10/site-packages/torch/_ops.py" source_line=756}
  %multiply.298 = f32[32,1024]{1,0} multiply(f32[32,1024]{1,0} %convert.285, f32[32,1024]{1,0} %broadcast.297), metadata={op_type="aten__add" op_name="aten__add.574/aten__add" source_file="/usr/local/lib/python3.10/site-packages/torch/_ops.py" source_line=756}
  %add.299 = f32[32,1024]{1,0} add(f32[32,1024]{1,0} %convert.296, f32[32,1024]{1,0} %multiply.298), metadata={op_type="aten__add" op_name="aten__add.574/aten__add" source_file="/usr/local/lib/python3.10/site-packages/torch/_ops.py" source_line=756}
  %constant.309 = f32[] constant(2), metadata={op_type="prim__Constant" op_name="prim__Constant" source_file="/usr/local/lib/python3.10/site-packages/torch/_ops.py" source_line=756}
  %broadcast.310 = f32[32,1024]{1,0} broadcast(f32[] %constant.309), dimensions={}, metadata={op_type="aten__pow" op_name="aten__pow" source_file="/usr/local/lib/python3.10/site-packages/torch/_ops.py" source_line=756}
  %power.311 = f32[32,1024]{1,0} power(f32[32,1024]{1,0} %add.299, f32[32,1024]{1,0} %broadcast.310), metadata={op_type="aten__pow" op_name="aten__pow" source_file="/usr/local/lib/python3.10/site-packages/torch/_ops.py" source_line=756}
  %constant.312 = f32[] constant(0), metadata={op_type="aten__mean" op_name="aten__mean" source_file="/usr/local/lib/python3.10/site-packages/torch/_ops.py" source_line=756}
  %reduce.318 = f32[32]{0} reduce(f32[32,1024]{1,0} %power.311, f32[] %constant.312), dimensions={1}, to_apply=%AddComputation.314, metadata={op_type="aten__mean" op_name="aten__mean" source_file="/usr/local/lib/python3.10/site-packages/torch/_ops.py" source_line=756}
  %constant.313 = s32[] constant(1024), metadata={op_type="aten__mean" op_name="aten__mean" source_file="/usr/local/lib/python3.10/site-packages/torch/_ops.py" source_line=756}
  %constant.319 = s32[] constant(0), metadata={op_type="aten__mean" op_name="aten__mean" source_file="/usr/local/lib/python3.10/site-packages/torch/_ops.py" source_line=756}
  %compare.324 = pred[] compare(s32[] %constant.313, s32[] %constant.319), direction=NE, metadata={op_type="aten__mean" op_name="aten__mean" source_file="/usr/local/lib/python3.10/site-packages/torch/_ops.py" source_line=756}
  %constant.320 = f32[] constant(1), metadata={op_type="aten__mean" op_name="aten__mean" source_file="/usr/local/lib/python3.10/site-packages/torch/_ops.py" source_line=756}
  %convert.322 = f32[] convert(s32[] %constant.313), metadata={op_type="aten__mean" op_name="aten__mean" source_file="/usr/local/lib/python3.10/site-packages/torch/_ops.py" source_line=756}
  %divide.323 = f32[] divide(f32[] %constant.320, f32[] %convert.322), metadata={op_type="aten__mean" op_name="aten__mean" source_file="/usr/local/lib/python3.10/site-packages/torch/_ops.py" source_line=756}
  %constant.321 = f32[] constant(nan), metadata={op_type="aten__mean" op_name="aten__mean" source_file="/usr/local/lib/python3.10/site-packages/torch/_ops.py" source_line=756}
  %select.325 = f32[] select(pred[] %compare.324, f32[] %divide.323, f32[] %constant.321), metadata={op_type="aten__mean" op_name="aten__mean" source_file="/usr/local/lib/python3.10/site-packages/torch/_ops.py" source_line=756}
  %broadcast.326 = f32[32]{0} broadcast(f32[] %select.325), dimensions={}, metadata={op_type="aten__mean" op_name="aten__mean" source_file="/usr/local/lib/python3.10/site-packages/torch/_ops.py" source_line=756}
  %multiply.327 = f32[32]{0} multiply(f32[32]{0} %reduce.318, f32[32]{0} %broadcast.326), metadata={op_type="aten__mean" op_name="aten__mean" source_file="/usr/local/lib/python3.10/site-packages/torch/_ops.py" source_line=756}
  %reshape.328 = f32[32,1]{1,0} reshape(f32[32]{0} %multiply.327), metadata={op_type="aten__mean" op_name="aten__mean" source_file="/usr/local/lib/python3.10/site-packages/torch/_ops.py" source_line=756}
  %convert.329 = f32[32,1]{1,0} convert(f32[32,1]{1,0} %reshape.328), metadata={op_type="aten__mean" op_name="aten__mean" source_file="/usr/local/lib/python3.10/site-packages/torch/_ops.py" source_line=756}
  %constant.308 = f32[] constant(1), metadata={op_type="prim__Constant" op_name="prim__Constant" source_file="/usr/local/lib/python3.10/site-packages/torch/_ops.py" source_line=756}
  %multiply.330 = f32[] multiply(f32[] %p1.4, f32[] %constant.308), metadata={op_type="aten__add" op_name="aten__add.575/aten__add" source_file="/usr/local/lib/python3.10/site-packages/torch/_ops.py" source_line=756}
  %broadcast.331 = f32[32,1]{1,0} broadcast(f32[] %multiply.330), dimensions={}, metadata={op_type="aten__add" op_name="aten__add.575/aten__add" source_file="/usr/local/lib/python3.10/site-packages/torch/_ops.py" source_line=756}
  %add.332 = f32[32,1]{1,0} add(f32[32,1]{1,0} %convert.329, f32[32,1]{1,0} %broadcast.331), metadata={op_type="aten__add" op_name="aten__add.575/aten__add" source_file="/usr/local/lib/python3.10/site-packages/torch/_ops.py" source_line=756}
  %rsqrt.333 = f32[32,1]{1,0} rsqrt(f32[32,1]{1,0} %add.332), metadata={op_type="aten__rsqrt" op_name="aten__rsqrt" source_file="/usr/local/lib/python3.10/site-packages/torch/_ops.py" source_line=756}
  %reshape.334 = f32[32]{0} reshape(f32[32,1]{1,0} %rsqrt.333), metadata={op_type="aten__mul" op_name="aten__mul.576/aten__mul" source_file="/usr/local/lib/python3.10/site-packages/torch/_ops.py" source_line=756}
  %broadcast.335 = f32[32,1024]{1,0} broadcast(f32[32]{0} %reshape.334), dimensions={0}, metadata={op_type="aten__mul" op_name="aten__mul.576/aten__mul" source_file="/usr/local/lib/python3.10/site-packages/torch/_ops.py" source_line=756}
  %multiply.336 = f32[32,1024]{1,0} multiply(f32[32,1024]{1,0} %add.299, f32[32,1024]{1,0} %broadcast.335), metadata={op_type="aten__mul" op_name="aten__mul.576/aten__mul" source_file="/usr/local/lib/python3.10/site-packages/torch/_ops.py" source_line=756}
  %convert.337 = bf16[32,1024]{1,0} convert(f32[32,1024]{1,0} %multiply.336), metadata={op_type="xla__cast" op_name="xla__cast" source_file="/usr/local/lib/python3.10/site-packages/torch/_ops.py" source_line=756}
  %convert.338 = f32[32,1024]{1,0} convert(bf16[32,1024]{1,0} %convert.337), metadata={op_type="xla__cast" op_name="xla__cast" source_file="/usr/local/lib/python3.10/site-packages/torch/_ops.py" source_line=756}
  %p21.306 = bf16[1024]{0} parameter(21), metadata={op_type="xla__device_data" op_name="xla__device_data" source_file="/usr/local/lib/python3.10/site-packages/torch_xla/_dynamo/dynamo_bridge.py" source_line=355}
  %convert.307 = f32[1024]{0} convert(bf16[1024]{0} %p21.306), metadata={op_type="xla__cast" op_name="xla__cast" source_file="/usr/local/lib/python3.10/site-packages/torch/_ops.py" source_line=756}
  %broadcast.339 = f32[32,1024]{1,0} broadcast(f32[1024]{0} %convert.307), dimensions={1}, metadata={op_type="aten__mul" op_name="aten__mul.577/aten__mul" source_file="/usr/local/lib/python3.10/site-packages/torch/_ops.py" source_line=756}
  %multiply.340 = f32[32,1024]{1,0} multiply(f32[32,1024]{1,0} %convert.338, f32[32,1024]{1,0} %broadcast.339), metadata={op_type="aten__mul" op_name="aten__mul.577/aten__mul" source_file="/usr/local/lib/python3.10/site-packages/torch/_ops.py" source_line=756}
  %convert.341 = bf16[32,1024]{1,0} convert(f32[32,1024]{1,0} %multiply.340), metadata={op_type="xla__cast" op_name="xla__cast" source_file="/usr/local/lib/python3.10/site-packages/torch/_ops.py" source_line=756}
  %p20.304 = bf16[6144,1024]{1,0} parameter(20), metadata={op_type="xla__device_data" op_name="xla__device_data" source_file="/usr/local/lib/python3.10/site-packages/torch_xla/_dynamo/dynamo_bridge.py" source_line=355}
  %transpose.305 = bf16[1024,6144]{0,1} transpose(bf16[6144,1024]{1,0} %p20.304), dimensions={1,0}, metadata={op_type="aten__permute" op_name="aten__permute" source_file="/usr/local/lib/python3.10/site-packages/torch/_ops.py" source_line=756}
  %dot.342 = bf16[32,6144]{1,0} dot(bf16[32,1024]{1,0} %convert.341, bf16[1024,6144]{0,1} %transpose.305), lhs_contracting_dims={1}, rhs_contracting_dims={0}, metadata={op_type="aten__mm" op_name="aten__mm" source_file="/usr/local/lib/python3.10/site-packages/torch/_ops.py" source_line=756}
  %slice.345 = bf16[32,3072]{1,0} slice(bf16[32,6144]{1,0} %dot.342), slice={[0:32], [0:3072]}, metadata={op_type="xla__select" op_name="xla__select" source_file="/usr/local/lib/python3.10/site-packages/torch/_ops.py" source_line=756}
  %logistic.346 = bf16[32,3072]{1,0} logistic(bf16[32,3072]{1,0} %slice.345), metadata={op_type="aten__silu" op_name="aten__silu" source_file="/usr/local/lib/python3.10/site-packages/torch/_ops.py" source_line=756}
  %multiply.347 = bf16[32,3072]{1,0} multiply(bf16[32,3072]{1,0} %slice.345, bf16[32,3072]{1,0} %logistic.346), metadata={op_type="aten__silu" op_name="aten__silu" source_file="/usr/local/lib/python3.10/site-packages/torch/_ops.py" source_line=756}
  %convert.348 = f32[32,3072]{1,0} convert(bf16[32,3072]{1,0} %multiply.347), metadata={op_type="xla__cast" op_name="xla__cast" source_file="/usr/local/lib/python3.10/site-packages/torch/_ops.py" source_line=756}
  %slice.343 = bf16[32,3072]{1,0} slice(bf16[32,6144]{1,0} %dot.342), slice={[0:32], [3072:6144]}, metadata={op_type="xla__select" op_name="xla__select" source_file="/usr/local/lib/python3.10/site-packages/torch/_ops.py" source_line=756}
  %convert.344 = f32[32,3072]{1,0} convert(bf16[32,3072]{1,0} %slice.343), metadata={op_type="xla__cast" op_name="xla__cast" source_file="/usr/local/lib/python3.10/site-packages/torch/_ops.py" source_line=756}
  %multiply.349 = f32[32,3072]{1,0} multiply(f32[32,3072]{1,0} %convert.348, f32[32,3072]{1,0} %convert.344), metadata={op_type="aten__mul" op_name="aten__mul.578/aten__mul" source_file="/usr/local/lib/python3.10/site-packages/torch/_ops.py" source_line=756}
  %convert.350 = bf16[32,3072]{1,0} convert(f32[32,3072]{1,0} %multiply.349), metadata={op_type="xla__cast" op_name="xla__cast" source_file="/usr/local/lib/python3.10/site-packages/torch/_ops.py" source_line=756}
  %p19.302 = bf16[1024,3072]{1,0} parameter(19), metadata={op_type="xla__device_data" op_name="xla__device_data" source_file="/usr/local/lib/python3.10/site-packages/torch_xla/_dynamo/dynamo_bridge.py" source_line=355}
  %transpose.303 = bf16[3072,1024]{0,1} transpose(bf16[1024,3072]{1,0} %p19.302), dimensions={1,0}, metadata={op_type="aten__permute" op_name="aten__permute" source_file="/usr/local/lib/python3.10/site-packages/torch/_ops.py" source_line=756}
  %dot.351 = bf16[32,1024]{1,0} dot(bf16[32,3072]{1,0} %convert.350, bf16[3072,1024]{0,1} %transpose.303), lhs_contracting_dims={1}, rhs_contracting_dims={0}, metadata={op_type="aten__mm" op_name="aten__mm" source_file="/usr/local/lib/python3.10/site-packages/torch/_ops.py" source_line=756}
  %convert.352 = f32[32,1024]{1,0} convert(bf16[32,1024]{1,0} %dot.351), metadata={op_type="xla__cast" op_name="xla__cast" source_file="/usr/local/lib/python3.10/site-packages/torch/_ops.py" source_line=756}
  %convert.300 = bf16[32,1024]{1,0} convert(f32[32,1024]{1,0} %add.299), metadata={op_type="xla__cast" op_name="xla__cast" source_file="/usr/local/lib/python3.10/site-packages/torch/_ops.py" source_line=756}
  %convert.301 = f32[32,1024]{1,0} convert(bf16[32,1024]{1,0} %convert.300), metadata={op_type="xla__cast" op_name="xla__cast" source_file="/usr/local/lib/python3.10/site-packages/torch/_ops.py" source_line=756}
  %constant.56 = f32[] constant(1), metadata={op_type="prim__Constant" op_name="prim__Constant" source_file="/usr/local/lib/python3.10/site-packages/torch/_ops.py" source_line=756}
  %broadcast.353 = f32[32,1024]{1,0} broadcast(f32[] %constant.56), dimensions={}, metadata={op_type="aten__add" op_name="aten__add.579/aten__add" source_file="/usr/local/lib/python3.10/site-packages/torch/_ops.py" source_line=756}
  %multiply.354 = f32[32,1024]{1,0} multiply(f32[32,1024]{1,0} %convert.301, f32[32,1024]{1,0} %broadcast.353), metadata={op_type="aten__add" op_name="aten__add.579/aten__add" source_file="/usr/local/lib/python3.10/site-packages/torch/_ops.py" source_line=756}
  %add.355 = f32[32,1024]{1,0} add(f32[32,1024]{1,0} %convert.352, f32[32,1024]{1,0} %multiply.354), metadata={op_type="aten__add" op_name="aten__add.579/aten__add" source_file="/usr/local/lib/python3.10/site-packages/torch/_ops.py" source_line=756}
  %convert.356 = bf16[32,1024]{1,0} convert(f32[32,1024]{1,0} %add.355), metadata={op_type="xla__cast" op_name="xla__cast" source_file="/usr/local/lib/python3.10/site-packages/torch/_ops.py" source_line=756}
  %convert.357 = f32[32,1024]{1,0} convert(bf16[32,1024]{1,0} %convert.356), metadata={op_type="xla__cast" op_name="xla__cast" source_file="/usr/local/lib/python3.10/site-packages/torch/_ops.py" source_line=756}
  %constant.55 = f32[] constant(1), metadata={op_type="prim__Constant" op_name="prim__Constant" source_file="/usr/local/lib/python3.10/site-packages/torch/_ops.py" source_line=756}
  %broadcast.369 = f32[32,1024]{1,0} broadcast(f32[] %constant.55), dimensions={}, metadata={op_type="aten__add" op_name="aten__add.592/aten__add" source_file="/usr/local/lib/python3.10/site-packages/torch/_ops.py" source_line=756}
  %multiply.370 = f32[32,1024]{1,0} multiply(f32[32,1024]{1,0} %convert.357, f32[32,1024]{1,0} %broadcast.369), metadata={op_type="aten__add" op_name="aten__add.592/aten__add" source_file="/usr/local/lib/python3.10/site-packages/torch/_ops.py" source_line=756}
  %add.371 = f32[32,1024]{1,0} add(f32[32,1024]{1,0} %convert.368, f32[32,1024]{1,0} %multiply.370), metadata={op_type="aten__add" op_name="aten__add.592/aten__add" source_file="/usr/local/lib/python3.10/site-packages/torch/_ops.py" source_line=756}
  %constant.381 = f32[] constant(2), metadata={op_type="prim__Constant" op_name="prim__Constant" source_file="/usr/local/lib/python3.10/site-packages/torch/_ops.py" source_line=756}
  %broadcast.382 = f32[32,1024]{1,0} broadcast(f32[] %constant.381), dimensions={}, metadata={op_type="aten__pow" op_name="aten__pow" source_file="/usr/local/lib/python3.10/site-packages/torch/_ops.py" source_line=756}
  %power.383 = f32[32,1024]{1,0} power(f32[32,1024]{1,0} %add.371, f32[32,1024]{1,0} %broadcast.382), metadata={op_type="aten__pow" op_name="aten__pow" source_file="/usr/local/lib/python3.10/site-packages/torch/_ops.py" source_line=756}
  %constant.384 = f32[] constant(0), metadata={op_type="aten__mean" op_name="aten__mean" source_file="/usr/local/lib/python3.10/site-packages/torch/_ops.py" source_line=756}
  %reduce.390 = f32[32]{0} reduce(f32[32,1024]{1,0} %power.383, f32[] %constant.384), dimensions={1}, to_apply=%AddComputation.386, metadata={op_type="aten__mean" op_name="aten__mean" source_file="/usr/local/lib/python3.10/site-packages/torch/_ops.py" source_line=756}
  %constant.385 = s32[] constant(1024), metadata={op_type="aten__mean" op_name="aten__mean" source_file="/usr/local/lib/python3.10/site-packages/torch/_ops.py" source_line=756}
  %constant.391 = s32[] constant(0), metadata={op_type="aten__mean" op_name="aten__mean" source_file="/usr/local/lib/python3.10/site-packages/torch/_ops.py" source_line=756}
  %compare.396 = pred[] compare(s32[] %constant.385, s32[] %constant.391), direction=NE, metadata={op_type="aten__mean" op_name="aten__mean" source_file="/usr/local/lib/python3.10/site-packages/torch/_ops.py" source_line=756}
  %constant.392 = f32[] constant(1), metadata={op_type="aten__mean" op_name="aten__mean" source_file="/usr/local/lib/python3.10/site-packages/torch/_ops.py" source_line=756}
  %convert.394 = f32[] convert(s32[] %constant.385), metadata={op_type="aten__mean" op_name="aten__mean" source_file="/usr/local/lib/python3.10/site-packages/torch/_ops.py" source_line=756}
  %divide.395 = f32[] divide(f32[] %constant.392, f32[] %convert.394), metadata={op_type="aten__mean" op_name="aten__mean" source_file="/usr/local/lib/python3.10/site-packages/torch/_ops.py" source_line=756}
  %constant.393 = f32[] constant(nan), metadata={op_type="aten__mean" op_name="aten__mean" source_file="/usr/local/lib/python3.10/site-packages/torch/_ops.py" source_line=756}
  %select.397 = f32[] select(pred[] %compare.396, f32[] %divide.395, f32[] %constant.393), metadata={op_type="aten__mean" op_name="aten__mean" source_file="/usr/local/lib/python3.10/site-packages/torch/_ops.py" source_line=756}
  %broadcast.398 = f32[32]{0} broadcast(f32[] %select.397), dimensions={}, metadata={op_type="aten__mean" op_name="aten__mean" source_file="/usr/local/lib/python3.10/site-packages/torch/_ops.py" source_line=756}
  %multiply.399 = f32[32]{0} multiply(f32[32]{0} %reduce.390, f32[32]{0} %broadcast.398), metadata={op_type="aten__mean" op_name="aten__mean" source_file="/usr/local/lib/python3.10/site-packages/torch/_ops.py" source_line=756}
  %reshape.400 = f32[32,1]{1,0} reshape(f32[32]{0} %multiply.399), metadata={op_type="aten__mean" op_name="aten__mean" source_file="/usr/local/lib/python3.10/site-packages/torch/_ops.py" source_line=756}
  %convert.401 = f32[32,1]{1,0} convert(f32[32,1]{1,0} %reshape.400), metadata={op_type="aten__mean" op_name="aten__mean" source_file="/usr/local/lib/python3.10/site-packages/torch/_ops.py" source_line=756}
  %constant.380 = f32[] constant(1), metadata={op_type="prim__Constant" op_name="prim__Constant" source_file="/usr/local/lib/python3.10/site-packages/torch/_ops.py" source_line=756}
  %multiply.402 = f32[] multiply(f32[] %p1.4, f32[] %constant.380), metadata={op_type="aten__add" op_name="aten__add.593/aten__add" source_file="/usr/local/lib/python3.10/site-packages/torch/_ops.py" source_line=756}
  %broadcast.403 = f32[32,1]{1,0} broadcast(f32[] %multiply.402), dimensions={}, metadata={op_type="aten__add" op_name="aten__add.593/aten__add" source_file="/usr/local/lib/python3.10/site-packages/torch/_ops.py" source_line=756}
  %add.404 = f32[32,1]{1,0} add(f32[32,1]{1,0} %convert.401, f32[32,1]{1,0} %broadcast.403), metadata={op_type="aten__add" op_name="aten__add.593/aten__add" source_file="/usr/local/lib/python3.10/site-packages/torch/_ops.py" source_line=756}
  %rsqrt.405 = f32[32,1]{1,0} rsqrt(f32[32,1]{1,0} %add.404), metadata={op_type="aten__rsqrt" op_name="aten__rsqrt" source_file="/usr/local/lib/python3.10/site-packages/torch/_ops.py" source_line=756}
  %reshape.406 = f32[32]{0} reshape(f32[32,1]{1,0} %rsqrt.405), metadata={op_type="aten__mul" op_name="aten__mul.594/aten__mul" source_file="/usr/local/lib/python3.10/site-packages/torch/_ops.py" source_line=756}
  %broadcast.407 = f32[32,1024]{1,0} broadcast(f32[32]{0} %reshape.406), dimensions={0}, metadata={op_type="aten__mul" op_name="aten__mul.594/aten__mul" source_file="/usr/local/lib/python3.10/site-packages/torch/_ops.py" source_line=756}
  %multiply.408 = f32[32,1024]{1,0} multiply(f32[32,1024]{1,0} %add.371, f32[32,1024]{1,0} %broadcast.407), metadata={op_type="aten__mul" op_name="aten__mul.594/aten__mul" source_file="/usr/local/lib/python3.10/site-packages/torch/_ops.py" source_line=756}
  %convert.409 = bf16[32,1024]{1,0} convert(f32[32,1024]{1,0} %multiply.408), metadata={op_type="xla__cast" op_name="xla__cast" source_file="/usr/local/lib/python3.10/site-packages/torch/_ops.py" source_line=756}
  %convert.410 = f32[32,1024]{1,0} convert(bf16[32,1024]{1,0} %convert.409), metadata={op_type="xla__cast" op_name="xla__cast" source_file="/usr/local/lib/python3.10/site-packages/torch/_ops.py" source_line=756}
  %p25.378 = bf16[1024]{0} parameter(25), metadata={op_type="xla__device_data" op_name="xla__device_data" source_file="/usr/local/lib/python3.10/site-packages/torch_xla/_dynamo/dynamo_bridge.py" source_line=355}
  %convert.379 = f32[1024]{0} convert(bf16[1024]{0} %p25.378), metadata={op_type="xla__cast" op_name="xla__cast" source_file="/usr/local/lib/python3.10/site-packages/torch/_ops.py" source_line=756}
  %broadcast.411 = f32[32,1024]{1,0} broadcast(f32[1024]{0} %convert.379), dimensions={1}, metadata={op_type="aten__mul" op_name="aten__mul.595/aten__mul" source_file="/usr/local/lib/python3.10/site-packages/torch/_ops.py" source_line=756}
  %multiply.412 = f32[32,1024]{1,0} multiply(f32[32,1024]{1,0} %convert.410, f32[32,1024]{1,0} %broadcast.411), metadata={op_type="aten__mul" op_name="aten__mul.595/aten__mul" source_file="/usr/local/lib/python3.10/site-packages/torch/_ops.py" source_line=756}
  %convert.413 = bf16[32,1024]{1,0} convert(f32[32,1024]{1,0} %multiply.412), metadata={op_type="xla__cast" op_name="xla__cast" source_file="/usr/local/lib/python3.10/site-packages/torch/_ops.py" source_line=756}
  %p24.376 = bf16[6144,1024]{1,0} parameter(24), metadata={op_type="xla__device_data" op_name="xla__device_data" source_file="/usr/local/lib/python3.10/site-packages/torch_xla/_dynamo/dynamo_bridge.py" source_line=355}
  %transpose.377 = bf16[1024,6144]{0,1} transpose(bf16[6144,1024]{1,0} %p24.376), dimensions={1,0}, metadata={op_type="aten__permute" op_name="aten__permute" source_file="/usr/local/lib/python3.10/site-packages/torch/_ops.py" source_line=756}
  %dot.414 = bf16[32,6144]{1,0} dot(bf16[32,1024]{1,0} %convert.413, bf16[1024,6144]{0,1} %transpose.377), lhs_contracting_dims={1}, rhs_contracting_dims={0}, metadata={op_type="aten__mm" op_name="aten__mm" source_file="/usr/local/lib/python3.10/site-packages/torch/_ops.py" source_line=756}
  %slice.417 = bf16[32,3072]{1,0} slice(bf16[32,6144]{1,0} %dot.414), slice={[0:32], [0:3072]}, metadata={op_type="xla__select" op_name="xla__select" source_file="/usr/local/lib/python3.10/site-packages/torch/_ops.py" source_line=756}
  %logistic.418 = bf16[32,3072]{1,0} logistic(bf16[32,3072]{1,0} %slice.417), metadata={op_type="aten__silu" op_name="aten__silu" source_file="/usr/local/lib/python3.10/site-packages/torch/_ops.py" source_line=756}
  %multiply.419 = bf16[32,3072]{1,0} multiply(bf16[32,3072]{1,0} %slice.417, bf16[32,3072]{1,0} %logistic.418), metadata={op_type="aten__silu" op_name="aten__silu" source_file="/usr/local/lib/python3.10/site-packages/torch/_ops.py" source_line=756}
  %convert.420 = f32[32,3072]{1,0} convert(bf16[32,3072]{1,0} %multiply.419), metadata={op_type="xla__cast" op_name="xla__cast" source_file="/usr/local/lib/python3.10/site-packages/torch/_ops.py" source_line=756}
  %slice.415 = bf16[32,3072]{1,0} slice(bf16[32,6144]{1,0} %dot.414), slice={[0:32], [3072:6144]}, metadata={op_type="xla__select" op_name="xla__select" source_file="/usr/local/lib/python3.10/site-packages/torch/_ops.py" source_line=756}
  %convert.416 = f32[32,3072]{1,0} convert(bf16[32,3072]{1,0} %slice.415), metadata={op_type="xla__cast" op_name="xla__cast" source_file="/usr/local/lib/python3.10/site-packages/torch/_ops.py" source_line=756}
  %multiply.421 = f32[32,3072]{1,0} multiply(f32[32,3072]{1,0} %convert.420, f32[32,3072]{1,0} %convert.416), metadata={op_type="aten__mul" op_name="aten__mul.596/aten__mul" source_file="/usr/local/lib/python3.10/site-packages/torch/_ops.py" source_line=756}
  %convert.422 = bf16[32,3072]{1,0} convert(f32[32,3072]{1,0} %multiply.421), metadata={op_type="xla__cast" op_name="xla__cast" source_file="/usr/local/lib/python3.10/site-packages/torch/_ops.py" source_line=756}
  %p23.374 = bf16[1024,3072]{1,0} parameter(23), metadata={op_type="xla__device_data" op_name="xla__device_data" source_file="/usr/local/lib/python3.10/site-packages/torch_xla/_dynamo/dynamo_bridge.py" source_line=355}
  %transpose.375 = bf16[3072,1024]{0,1} transpose(bf16[1024,3072]{1,0} %p23.374), dimensions={1,0}, metadata={op_type="aten__permute" op_name="aten__permute" source_file="/usr/local/lib/python3.10/site-packages/torch/_ops.py" source_line=756}
  %dot.423 = bf16[32,1024]{1,0} dot(bf16[32,3072]{1,0} %convert.422, bf16[3072,1024]{0,1} %transpose.375), lhs_contracting_dims={1}, rhs_contracting_dims={0}, metadata={op_type="aten__mm" op_name="aten__mm" source_file="/usr/local/lib/python3.10/site-packages/torch/_ops.py" source_line=756}
  %convert.424 = f32[32,1024]{1,0} convert(bf16[32,1024]{1,0} %dot.423), metadata={op_type="xla__cast" op_name="xla__cast" source_file="/usr/local/lib/python3.10/site-packages/torch/_ops.py" source_line=756}
  %convert.372 = bf16[32,1024]{1,0} convert(f32[32,1024]{1,0} %add.371), metadata={op_type="xla__cast" op_name="xla__cast" source_file="/usr/local/lib/python3.10/site-packages/torch/_ops.py" source_line=756}
  %convert.373 = f32[32,1024]{1,0} convert(bf16[32,1024]{1,0} %convert.372), metadata={op_type="xla__cast" op_name="xla__cast" source_file="/usr/local/lib/python3.10/site-packages/torch/_ops.py" source_line=756}
  %constant.54 = f32[] constant(1), metadata={op_type="prim__Constant" op_name="prim__Constant" source_file="/usr/local/lib/python3.10/site-packages/torch/_ops.py" source_line=756}
  %broadcast.425 = f32[32,1024]{1,0} broadcast(f32[] %constant.54), dimensions={}, metadata={op_type="aten__add" op_name="aten__add.597/aten__add" source_file="/usr/local/lib/python3.10/site-packages/torch/_ops.py" source_line=756}
  %multiply.426 = f32[32,1024]{1,0} multiply(f32[32,1024]{1,0} %convert.373, f32[32,1024]{1,0} %broadcast.425), metadata={op_type="aten__add" op_name="aten__add.597/aten__add" source_file="/usr/local/lib/python3.10/site-packages/torch/_ops.py" source_line=756}
  %add.427 = f32[32,1024]{1,0} add(f32[32,1024]{1,0} %convert.424, f32[32,1024]{1,0} %multiply.426), metadata={op_type="aten__add" op_name="aten__add.597/aten__add" source_file="/usr/local/lib/python3.10/site-packages/torch/_ops.py" source_line=756}
  %convert.428 = bf16[32,1024]{1,0} convert(f32[32,1024]{1,0} %add.427), metadata={op_type="xla__cast" op_name="xla__cast" source_file="/usr/local/lib/python3.10/site-packages/torch/_ops.py" source_line=756}
  %convert.429 = f32[32,1024]{1,0} convert(bf16[32,1024]{1,0} %convert.428), metadata={op_type="xla__cast" op_name="xla__cast" source_file="/usr/local/lib/python3.10/site-packages/torch/_ops.py" source_line=756}
  %constant.53 = f32[] constant(1), metadata={op_type="prim__Constant" op_name="prim__Constant" source_file="/usr/local/lib/python3.10/site-packages/torch/_ops.py" source_line=756}
  %broadcast.441 = f32[32,1024]{1,0} broadcast(f32[] %constant.53), dimensions={}, metadata={op_type="aten__add" op_name="aten__add.610/aten__add" source_file="/usr/local/lib/python3.10/site-packages/torch/_ops.py" source_line=756}
  %multiply.442 = f32[32,1024]{1,0} multiply(f32[32,1024]{1,0} %convert.429, f32[32,1024]{1,0} %broadcast.441), metadata={op_type="aten__add" op_name="aten__add.610/aten__add" source_file="/usr/local/lib/python3.10/site-packages/torch/_ops.py" source_line=756}
  %add.443 = f32[32,1024]{1,0} add(f32[32,1024]{1,0} %convert.440, f32[32,1024]{1,0} %multiply.442), metadata={op_type="aten__add" op_name="aten__add.610/aten__add" source_file="/usr/local/lib/python3.10/site-packages/torch/_ops.py" source_line=756}
  %constant.453 = f32[] constant(2), metadata={op_type="prim__Constant" op_name="prim__Constant" source_file="/usr/local/lib/python3.10/site-packages/torch/_ops.py" source_line=756}
  %broadcast.454 = f32[32,1024]{1,0} broadcast(f32[] %constant.453), dimensions={}, metadata={op_type="aten__pow" op_name="aten__pow" source_file="/usr/local/lib/python3.10/site-packages/torch/_ops.py" source_line=756}
  %power.455 = f32[32,1024]{1,0} power(f32[32,1024]{1,0} %add.443, f32[32,1024]{1,0} %broadcast.454), metadata={op_type="aten__pow" op_name="aten__pow" source_file="/usr/local/lib/python3.10/site-packages/torch/_ops.py" source_line=756}
  %constant.456 = f32[] constant(0), metadata={op_type="aten__mean" op_name="aten__mean" source_file="/usr/local/lib/python3.10/site-packages/torch/_ops.py" source_line=756}
  %reduce.462 = f32[32]{0} reduce(f32[32,1024]{1,0} %power.455, f32[] %constant.456), dimensions={1}, to_apply=%AddComputation.458, metadata={op_type="aten__mean" op_name="aten__mean" source_file="/usr/local/lib/python3.10/site-packages/torch/_ops.py" source_line=756}
  %constant.457 = s32[] constant(1024), metadata={op_type="aten__mean" op_name="aten__mean" source_file="/usr/local/lib/python3.10/site-packages/torch/_ops.py" source_line=756}
  %constant.463 = s32[] constant(0), metadata={op_type="aten__mean" op_name="aten__mean" source_file="/usr/local/lib/python3.10/site-packages/torch/_ops.py" source_line=756}
  %compare.468 = pred[] compare(s32[] %constant.457, s32[] %constant.463), direction=NE, metadata={op_type="aten__mean" op_name="aten__mean" source_file="/usr/local/lib/python3.10/site-packages/torch/_ops.py" source_line=756}
  %constant.464 = f32[] constant(1), metadata={op_type="aten__mean" op_name="aten__mean" source_file="/usr/local/lib/python3.10/site-packages/torch/_ops.py" source_line=756}
  %convert.466 = f32[] convert(s32[] %constant.457), metadata={op_type="aten__mean" op_name="aten__mean" source_file="/usr/local/lib/python3.10/site-packages/torch/_ops.py" source_line=756}
  %divide.467 = f32[] divide(f32[] %constant.464, f32[] %convert.466), metadata={op_type="aten__mean" op_name="aten__mean" source_file="/usr/local/lib/python3.10/site-packages/torch/_ops.py" source_line=756}
  %constant.465 = f32[] constant(nan), metadata={op_type="aten__mean" op_name="aten__mean" source_file="/usr/local/lib/python3.10/site-packages/torch/_ops.py" source_line=756}
  %select.469 = f32[] select(pred[] %compare.468, f32[] %divide.467, f32[] %constant.465), metadata={op_type="aten__mean" op_name="aten__mean" source_file="/usr/local/lib/python3.10/site-packages/torch/_ops.py" source_line=756}
  %broadcast.470 = f32[32]{0} broadcast(f32[] %select.469), dimensions={}, metadata={op_type="aten__mean" op_name="aten__mean" source_file="/usr/local/lib/python3.10/site-packages/torch/_ops.py" source_line=756}
  %multiply.471 = f32[32]{0} multiply(f32[32]{0} %reduce.462, f32[32]{0} %broadcast.470), metadata={op_type="aten__mean" op_name="aten__mean" source_file="/usr/local/lib/python3.10/site-packages/torch/_ops.py" source_line=756}
  %reshape.472 = f32[32,1]{1,0} reshape(f32[32]{0} %multiply.471), metadata={op_type="aten__mean" op_name="aten__mean" source_file="/usr/local/lib/python3.10/site-packages/torch/_ops.py" source_line=756}
  %convert.473 = f32[32,1]{1,0} convert(f32[32,1]{1,0} %reshape.472), metadata={op_type="aten__mean" op_name="aten__mean" source_file="/usr/local/lib/python3.10/site-packages/torch/_ops.py" source_line=756}
  %constant.452 = f32[] constant(1), metadata={op_type="prim__Constant" op_name="prim__Constant" source_file="/usr/local/lib/python3.10/site-packages/torch/_ops.py" source_line=756}
  %multiply.474 = f32[] multiply(f32[] %p1.4, f32[] %constant.452), metadata={op_type="aten__add" op_name="aten__add.611/aten__add" source_file="/usr/local/lib/python3.10/site-packages/torch/_ops.py" source_line=756}
  %broadcast.475 = f32[32,1]{1,0} broadcast(f32[] %multiply.474), dimensions={}, metadata={op_type="aten__add" op_name="aten__add.611/aten__add" source_file="/usr/local/lib/python3.10/site-packages/torch/_ops.py" source_line=756}
  %add.476 = f32[32,1]{1,0} add(f32[32,1]{1,0} %convert.473, f32[32,1]{1,0} %broadcast.475), metadata={op_type="aten__add" op_name="aten__add.611/aten__add" source_file="/usr/local/lib/python3.10/site-packages/torch/_ops.py" source_line=756}
  %rsqrt.477 = f32[32,1]{1,0} rsqrt(f32[32,1]{1,0} %add.476), metadata={op_type="aten__rsqrt" op_name="aten__rsqrt" source_file="/usr/local/lib/python3.10/site-packages/torch/_ops.py" source_line=756}
  %reshape.478 = f32[32]{0} reshape(f32[32,1]{1,0} %rsqrt.477), metadata={op_type="aten__mul" op_name="aten__mul.612/aten__mul" source_file="/usr/local/lib/python3.10/site-packages/torch/_ops.py" source_line=756}
  %broadcast.479 = f32[32,1024]{1,0} broadcast(f32[32]{0} %reshape.478), dimensions={0}, metadata={op_type="aten__mul" op_name="aten__mul.612/aten__mul" source_file="/usr/local/lib/python3.10/site-packages/torch/_ops.py" source_line=756}
  %multiply.480 = f32[32,1024]{1,0} multiply(f32[32,1024]{1,0} %add.443, f32[32,1024]{1,0} %broadcast.479), metadata={op_type="aten__mul" op_name="aten__mul.612/aten__mul" source_file="/usr/local/lib/python3.10/site-packages/torch/_ops.py" source_line=756}
  %convert.481 = bf16[32,1024]{1,0} convert(f32[32,1024]{1,0} %multiply.480), metadata={op_type="xla__cast" op_name="xla__cast" source_file="/usr/local/lib/python3.10/site-packages/torch/_ops.py" source_line=756}
  %convert.482 = f32[32,1024]{1,0} convert(bf16[32,1024]{1,0} %convert.481), metadata={op_type="xla__cast" op_name="xla__cast" source_file="/usr/local/lib/python3.10/site-packages/torch/_ops.py" source_line=756}
  %p29.450 = bf16[1024]{0} parameter(29), metadata={op_type="xla__device_data" op_name="xla__device_data" source_file="/usr/local/lib/python3.10/site-packages/torch_xla/_dynamo/dynamo_bridge.py" source_line=355}
  %convert.451 = f32[1024]{0} convert(bf16[1024]{0} %p29.450), metadata={op_type="xla__cast" op_name="xla__cast" source_file="/usr/local/lib/python3.10/site-packages/torch/_ops.py" source_line=756}
  %broadcast.483 = f32[32,1024]{1,0} broadcast(f32[1024]{0} %convert.451), dimensions={1}, metadata={op_type="aten__mul" op_name="aten__mul.613/aten__mul" source_file="/usr/local/lib/python3.10/site-packages/torch/_ops.py" source_line=756}
  %multiply.484 = f32[32,1024]{1,0} multiply(f32[32,1024]{1,0} %convert.482, f32[32,1024]{1,0} %broadcast.483), metadata={op_type="aten__mul" op_name="aten__mul.613/aten__mul" source_file="/usr/local/lib/python3.10/site-packages/torch/_ops.py" source_line=756}
  %convert.485 = bf16[32,1024]{1,0} convert(f32[32,1024]{1,0} %multiply.484), metadata={op_type="xla__cast" op_name="xla__cast" source_file="/usr/local/lib/python3.10/site-packages/torch/_ops.py" source_line=756}
  %p28.448 = bf16[6144,1024]{1,0} parameter(28), metadata={op_type="xla__device_data" op_name="xla__device_data" source_file="/usr/local/lib/python3.10/site-packages/torch_xla/_dynamo/dynamo_bridge.py" source_line=355}
  %transpose.449 = bf16[1024,6144]{0,1} transpose(bf16[6144,1024]{1,0} %p28.448), dimensions={1,0}, metadata={op_type="aten__permute" op_name="aten__permute" source_file="/usr/local/lib/python3.10/site-packages/torch/_ops.py" source_line=756}
…
  %multiply.1848 = f32[32,1024]{1,0} multiply(f32[32,1024]{1,0} %add.1811, f32[32,1024]{1,0} %broadcast.1847), metadata={op_type="aten__mul" op_name="aten__mul.954/aten__mul" source_file="/usr/local/lib/python3.10/site-packages/torch/_ops.py" source_line=756}
  %convert.1849 = bf16[32,1024]{1,0} convert(f32[32,1024]{1,0} %multiply.1848), metadata={op_type="xla__cast" op_name="xla__cast" source_file="/usr/local/lib/python3.10/site-packages/torch/_ops.py" source_line=756}
  %convert.1850 = f32[32,1024]{1,0} convert(bf16[32,1024]{1,0} %convert.1849), metadata={op_type="xla__cast" op_name="xla__cast" source_file="/usr/local/lib/python3.10/site-packages/torch/_ops.py" source_line=756}
  %p105.1818 = bf16[1024]{0} parameter(105), metadata={op_type="xla__device_data" op_name="xla__device_data" source_file="/usr/local/lib/python3.10/site-packages/torch_xla/_dynamo/dynamo_bridge.py" source_line=355}
  %convert.1819 = f32[1024]{0} convert(bf16[1024]{0} %p105.1818), metadata={op_type="xla__cast" op_name="xla__cast" source_file="/usr/local/lib/python3.10/site-packages/torch/_ops.py" source_line=756}
  %broadcast.1851 = f32[32,1024]{1,0} broadcast(f32[1024]{0} %convert.1819), dimensions={1}, metadata={op_type="aten__mul" op_name="aten__mul.955/aten__mul" source_file="/usr/local/lib/python3.10/site-packages/torch/_ops.py" source_line=756}
  %multiply.1852 = f32[32,1024]{1,0} multiply(f32[32,1024]{1,0} %convert.1850, f32[32,1024]{1,0} %broadcast.1851), metadata={op_type="aten__mul" op_name="aten__mul.955/aten__mul" source_file="/usr/local/lib/python3.10/site-packages/torch/_ops.py" source_line=756}
  %convert.1853 = bf16[32,1024]{1,0} convert(f32[32,1024]{1,0} %multiply.1852), metadata={op_type="xla__cast" op_name="xla__cast" source_file="/usr/local/lib/python3.10/site-packages/torch/_ops.py" source_line=756}
  %p104.1816 = bf16[6144,1024]{1,0} parameter(104), metadata={op_type="xla__device_data" op_name="xla__device_data" source_file="/usr/local/lib/python3.10/site-packages/torch_xla/_dynamo/dynamo_bridge.py" source_line=355}
  %transpose.1817 = bf16[1024,6144]{0,1} transpose(bf16[6144,1024]{1,0} %p104.1816), dimensions={1,0}, metadata={op_type="aten__permute" op_name="aten__permute" source_file="/usr/local/lib/python3.10/site-packages/torch/_ops.py" source_line=756}
  %dot.1854 = bf16[32,6144]{1,0} dot(bf16[32,1024]{1,0} %convert.1853, bf16[1024,6144]{0,1} %transpose.1817), lhs_contracting_dims={1}, rhs_contracting_dims={0}, metadata={op_type="aten__mm" op_name="aten__mm" source_file="/usr/local/lib/python3.10/site-packages/torch/_ops.py" source_line=756}
  %slice.1857 = bf16[32,3072]{1,0} slice(bf16[32,6144]{1,0} %dot.1854), slice={[0:32], [0:3072]}, metadata={op_type="xla__select" op_name="xla__select" source_file="/usr/local/lib/python3.10/site-packages/torch/_ops.py" source_line=756}
  %logistic.1858 = bf16[32,3072]{1,0} logistic(bf16[32,3072]{1,0} %slice.1857), metadata={op_type="aten__silu" op_name="aten__silu" source_file="/usr/local/lib/python3.10/site-packages/torch/_ops.py" source_line=756}
  %multiply.1859 = bf16[32,3072]{1,0} multiply(bf16[32,3072]{1,0} %slice.1857, bf16[32,3072]{1,0} %logistic.1858), metadata={op_type="aten__silu" op_name="aten__silu" source_file="/usr/local/lib/python3.10/site-packages/torch/_ops.py" source_line=756}
  %convert.1860 = f32[32,3072]{1,0} convert(bf16[32,3072]{1,0} %multiply.1859), metadata={op_type="xla__cast" op_name="xla__cast" source_file="/usr/local/lib/python3.10/site-packages/torch/_ops.py" source_line=756}
  %slice.1855 = bf16[32,3072]{1,0} slice(bf16[32,6144]{1,0} %dot.1854), slice={[0:32], [3072:6144]}, metadata={op_type="xla__select" op_name="xla__select" source_file="/usr/local/lib/python3.10/site-packages/torch/_ops.py" source_line=756}
  %convert.1856 = f32[32,3072]{1,0} convert(bf16[32,3072]{1,0} %slice.1855), metadata={op_type="xla__cast" op_name="xla__cast" source_file="/usr/local/lib/python3.10/site-packages/torch/_ops.py" source_line=756}
  %multiply.1861 = f32[32,3072]{1,0} multiply(f32[32,3072]{1,0} %convert.1860, f32[32,3072]{1,0} %convert.1856), metadata={op_type="aten__mul" op_name="aten__mul.956/aten__mul" source_file="/usr/local/lib/python3.10/site-packages/torch/_ops.py" source_line=756}
  %convert.1862 = bf16[32,3072]{1,0} convert(f32[32,3072]{1,0} %multiply.1861), metadata={op_type="xla__cast" op_name="xla__cast" source_file="/usr/local/lib/python3.10/site-packages/torch/_ops.py" source_line=756}
  %p103.1814 = bf16[1024,3072]{1,0} parameter(103), metadata={op_type="xla__device_data" op_name="xla__device_data" source_file="/usr/local/lib/python3.10/site-packages/torch_xla/_dynamo/dynamo_bridge.py" source_line=355}
  %transpose.1815 = bf16[3072,1024]{0,1} transpose(bf16[1024,3072]{1,0} %p103.1814), dimensions={1,0}, metadata={op_type="aten__permute" op_name="aten__permute" source_file="/usr/local/lib/python3.10/site-packages/torch/_ops.py" source_line=756}
  %dot.1863 = bf16[32,1024]{1,0} dot(bf16[32,3072]{1,0} %convert.1862, bf16[3072,1024]{0,1} %transpose.1815), lhs_contracting_dims={1}, rhs_contracting_dims={0}, metadata={op_type="aten__mm" op_name="aten__mm" source_file="/usr/local/lib/python3.10/site-packages/torch/_ops.py" source_line=756}
  %convert.1864 = f32[32,1024]{1,0} convert(bf16[32,1024]{1,0} %dot.1863), metadata={op_type="xla__cast" op_name="xla__cast" source_file="/usr/local/lib/python3.10/site-packages/torch/_ops.py" source_line=756}
  %convert.1812 = bf16[32,1024]{1,0} convert(f32[32,1024]{1,0} %add.1811), metadata={op_type="xla__cast" op_name="xla__cast" source_file="/usr/local/lib/python3.10/site-packages/torch/_ops.py" source_line=756}
  %convert.1813 = f32[32,1024]{1,0} convert(bf16[32,1024]{1,0} %convert.1812), metadata={op_type="xla__cast" op_name="xla__cast" source_file="/usr/local/lib/python3.10/site-packages/torch/_ops.py" source_line=756}
  %constant.14 = f32[] constant(1), metadata={op_type="prim__Constant" op_name="prim__Constant" source_file="/usr/local/lib/python3.10/site-packages/torch/_ops.py" source_line=756}
  %broadcast.1865 = f32[32,1024]{1,0} broadcast(f32[] %constant.14), dimensions={}, metadata={op_type="aten__add" op_name="aten__add.957/aten__add" source_file="/usr/local/lib/python3.10/site-packages/torch/_ops.py" source_line=756}
  %multiply.1866 = f32[32,1024]{1,0} multiply(f32[32,1024]{1,0} %convert.1813, f32[32,1024]{1,0} %broadcast.1865), metadata={op_type="aten__add" op_name="aten__add.957/aten__add" source_file="/usr/local/lib/python3.10/site-packages/torch/_ops.py" source_line=756}
  %add.1867 = f32[32,1024]{1,0} add(f32[32,1024]{1,0} %convert.1864, f32[32,1024]{1,0} %multiply.1866), metadata={op_type="aten__add" op_name="aten__add.957/aten__add" source_file="/usr/local/lib/python3.10/site-packages/torch/_ops.py" source_line=756}
  %convert.1868 = bf16[32,1024]{1,0} convert(f32[32,1024]{1,0} %add.1867), metadata={op_type="xla__cast" op_name="xla__cast" source_file="/usr/local/lib/python3.10/site-packages/torch/_ops.py" source_line=756}
  %convert.1869 = f32[32,1024]{1,0} convert(bf16[32,1024]{1,0} %convert.1868), metadata={op_type="xla__cast" op_name="xla__cast" source_file="/usr/local/lib/python3.10/site-packages/torch/_ops.py" source_line=756}
  %constant.13 = f32[] constant(1), metadata={op_type="prim__Constant" op_name="prim__Constant" source_file="/usr/local/lib/python3.10/site-packages/torch/_ops.py" source_line=756}
  %broadcast.1881 = f32[32,1024]{1,0} broadcast(f32[] %constant.13), dimensions={}, metadata={op_type="aten__add" op_name="aten__add.970/aten__add" source_file="/usr/local/lib/python3.10/site-packages/torch/_ops.py" source_line=756}
  %multiply.1882 = f32[32,1024]{1,0} multiply(f32[32,1024]{1,0} %convert.1869, f32[32,1024]{1,0} %broadcast.1881), metadata={op_type="aten__add" op_name="aten__add.970/aten__add" source_file="/usr/local/lib/python3.10/site-packages/torch/_ops.py" source_line=756}
  %add.1883 = f32[32,1024]{1,0} add(f32[32,1024]{1,0} %convert.1880, f32[32,1024]{1,0} %multiply.1882), metadata={op_type="aten__add" op_name="aten__add.970/aten__add" source_file="/usr/local/lib/python3.10/site-packages/torch/_ops.py" source_line=756}
  %constant.1893 = f32[] constant(2), metadata={op_type="prim__Constant" op_name="prim__Constant" source_file="/usr/local/lib/python3.10/site-packages/torch/_ops.py" source_line=756}
  %broadcast.1894 = f32[32,1024]{1,0} broadcast(f32[] %constant.1893), dimensions={}, metadata={op_type="aten__pow" op_name="aten__pow" source_file="/usr/local/lib/python3.10/site-packages/torch/_ops.py" source_line=756}
  %power.1895 = f32[32,1024]{1,0} power(f32[32,1024]{1,0} %add.1883, f32[32,1024]{1,0} %broadcast.1894), metadata={op_type="aten__pow" op_name="aten__pow" source_file="/usr/local/lib/python3.10/site-packages/torch/_ops.py" source_line=756}
  %constant.1896 = f32[] constant(0), metadata={op_type="aten__mean" op_name="aten__mean" source_file="/usr/local/lib/python3.10/site-packages/torch/_ops.py" source_line=756}
  %reduce.1902 = f32[32]{0} reduce(f32[32,1024]{1,0} %power.1895, f32[] %constant.1896), dimensions={1}, to_apply=%AddComputation.1898, metadata={op_type="aten__mean" op_name="aten__mean" source_file="/usr/local/lib/python3.10/site-packages/torch/_ops.py" source_line=756}
  %constant.1897 = s32[] constant(1024), metadata={op_type="aten__mean" op_name="aten__mean" source_file="/usr/local/lib/python3.10/site-packages/torch/_ops.py" source_line=756}
  %constant.1903 = s32[] constant(0), metadata={op_type="aten__mean" op_name="aten__mean" source_file="/usr/local/lib/python3.10/site-packages/torch/_ops.py" source_line=756}
  %compare.1908 = pred[] compare(s32[] %constant.1897, s32[] %constant.1903), direction=NE, metadata={op_type="aten__mean" op_name="aten__mean" source_file="/usr/local/lib/python3.10/site-packages/torch/_ops.py" source_line=756}
  %constant.1904 = f32[] constant(1), metadata={op_type="aten__mean" op_name="aten__mean" source_file="/usr/local/lib/python3.10/site-packages/torch/_ops.py" source_line=756}
  %convert.1906 = f32[] convert(s32[] %constant.1897), metadata={op_type="aten__mean" op_name="aten__mean" source_file="/usr/local/lib/python3.10/site-packages/torch/_ops.py" source_line=756}
  %divide.1907 = f32[] divide(f32[] %constant.1904, f32[] %convert.1906), metadata={op_type="aten__mean" op_name="aten__mean" source_file="/usr/local/lib/python3.10/site-packages/torch/_ops.py" source_line=756}
  %constant.1905 = f32[] constant(nan), metadata={op_type="aten__mean" op_name="aten__mean" source_file="/usr/local/lib/python3.10/site-packages/torch/_ops.py" source_line=756}
  %select.1909 = f32[] select(pred[] %compare.1908, f32[] %divide.1907, f32[] %constant.1905), metadata={op_type="aten__mean" op_name="aten__mean" source_file="/usr/local/lib/python3.10/site-packages/torch/_ops.py" source_line=756}
  %broadcast.1910 = f32[32]{0} broadcast(f32[] %select.1909), dimensions={}, metadata={op_type="aten__mean" op_name="aten__mean" source_file="/usr/local/lib/python3.10/site-packages/torch/_ops.py" source_line=756}
  %multiply.1911 = f32[32]{0} multiply(f32[32]{0} %reduce.1902, f32[32]{0} %broadcast.1910), metadata={op_type="aten__mean" op_name="aten__mean" source_file="/usr/local/lib/python3.10/site-packages/torch/_ops.py" source_line=756}
  %reshape.1912 = f32[32,1]{1,0} reshape(f32[32]{0} %multiply.1911), metadata={op_type="aten__mean" op_name="aten__mean" source_file="/usr/local/lib/python3.10/site-packages/torch/_ops.py" source_line=756}
  %convert.1913 = f32[32,1]{1,0} convert(f32[32,1]{1,0} %reshape.1912), metadata={op_type="aten__mean" op_name="aten__mean" source_file="/usr/local/lib/python3.10/site-packages/torch/_ops.py" source_line=756}
  %constant.1892 = f32[] constant(1), metadata={op_type="prim__Constant" op_name="prim__Constant" source_file="/usr/local/lib/python3.10/site-packages/torch/_ops.py" source_line=756}
  %multiply.1914 = f32[] multiply(f32[] %p1.4, f32[] %constant.1892), metadata={op_type="aten__add" op_name="aten__add.971/aten__add" source_file="/usr/local/lib/python3.10/site-packages/torch/_ops.py" source_line=756}
  %broadcast.1915 = f32[32,1]{1,0} broadcast(f32[] %multiply.1914), dimensions={}, metadata={op_type="aten__add" op_name="aten__add.971/aten__add" source_file="/usr/local/lib/python3.10/site-packages/torch/_ops.py" source_line=756}
  %add.1916 = f32[32,1]{1,0} add(f32[32,1]{1,0} %convert.1913, f32[32,1]{1,0} %broadcast.1915), metadata={op_type="aten__add" op_name="aten__add.971/aten__add" source_file="/usr/local/lib/python3.10/site-packages/torch/_ops.py" source_line=756}
  %rsqrt.1917 = f32[32,1]{1,0} rsqrt(f32[32,1]{1,0} %add.1916), metadata={op_type="aten__rsqrt" op_name="aten__rsqrt" source_file="/usr/local/lib/python3.10/site-packages/torch/_ops.py" source_line=756}
  %reshape.1918 = f32[32]{0} reshape(f32[32,1]{1,0} %rsqrt.1917), metadata={op_type="aten__mul" op_name="aten__mul.972/aten__mul" source_file="/usr/local/lib/python3.10/site-packages/torch/_ops.py" source_line=756}
  %broadcast.1919 = f32[32,1024]{1,0} broadcast(f32[32]{0} %reshape.1918), dimensions={0}, metadata={op_type="aten__mul" op_name="aten__mul.972/aten__mul" source_file="/usr/local/lib/python3.10/site-packages/torch/_ops.py" source_line=756}
  %multiply.1920 = f32[32,1024]{1,0} multiply(f32[32,1024]{1,0} %add.1883, f32[32,1024]{1,0} %broadcast.1919), metadata={op_type="aten__mul" op_name="aten__mul.972/aten__mul" source_file="/usr/local/lib/python3.10/site-packages/torch/_ops.py" source_line=756}
  %convert.1921 = bf16[32,1024]{1,0} convert(f32[32,1024]{1,0} %multiply.1920), metadata={op_type="xla__cast" op_name="xla__cast" source_file="/usr/local/lib/python3.10/site-packages/torch/_ops.py" source_line=756}
  %convert.1922 = f32[32,1024]{1,0} convert(bf16[32,1024]{1,0} %convert.1921), metadata={op_type="xla__cast" op_name="xla__cast" source_file="/usr/local/lib/python3.10/site-packages/torch/_ops.py" source_line=756}
  %p109.1890 = bf16[1024]{0} parameter(109), metadata={op_type="xla__device_data" op_name="xla__device_data" source_file="/usr/local/lib/python3.10/site-packages/torch_xla/_dynamo/dynamo_bridge.py" source_line=355}
  %convert.1891 = f32[1024]{0} convert(bf16[1024]{0} %p109.1890), metadata={op_type="xla__cast" op_name="xla__cast" source_file="/usr/local/lib/python3.10/site-packages/torch/_ops.py" source_line=756}
  %broadcast.1923 = f32[32,1024]{1,0} broadcast(f32[1024]{0} %convert.1891), dimensions={1}, metadata={op_type="aten__mul" op_name="aten__mul.973/aten__mul" source_file="/usr/local/lib/python3.10/site-packages/torch/_ops.py" source_line=756}
  %multiply.1924 = f32[32,1024]{1,0} multiply(f32[32,1024]{1,0} %convert.1922, f32[32,1024]{1,0} %broadcast.1923), metadata={op_type="aten__mul" op_name="aten__mul.973/aten__mul" source_file="/usr/local/lib/python3.10/site-packages/torch/_ops.py" source_line=756}
  %convert.1925 = bf16[32,1024]{1,0} convert(f32[32,1024]{1,0} %multiply.1924), metadata={op_type="xla__cast" op_name="xla__cast" source_file="/usr/local/lib/python3.10/site-packages/torch/_ops.py" source_line=756}
  %p108.1888 = bf16[6144,1024]{1,0} parameter(108), metadata={op_type="xla__device_data" op_name="xla__device_data" source_file="/usr/local/lib/python3.10/site-packages/torch_xla/_dynamo/dynamo_bridge.py" source_line=355}
  %transpose.1889 = bf16[1024,6144]{0,1} transpose(bf16[6144,1024]{1,0} %p108.1888), dimensions={1,0}, metadata={op_type="aten__permute" op_name="aten__permute" source_file="/usr/local/lib/python3.10/site-packages/torch/_ops.py" source_line=756}
  %dot.1926 = bf16[32,6144]{1,0} dot(bf16[32,1024]{1,0} %convert.1925, bf16[1024,6144]{0,1} %transpose.1889), lhs_contracting_dims={1}, rhs_contracting_dims={0}, metadata={op_type="aten__mm" op_name="aten__mm" source_file="/usr/local/lib/python3.10/site-packages/torch/_ops.py" source_line=756}
  %slice.1929 = bf16[32,3072]{1,0} slice(bf16[32,6144]{1,0} %dot.1926), slice={[0:32], [0:3072]}, metadata={op_type="xla__select" op_name="xla__select" source_file="/usr/local/lib/python3.10/site-packages/torch/_ops.py" source_line=756}
  %logistic.1930 = bf16[32,3072]{1,0} logistic(bf16[32,3072]{1,0} %slice.1929), metadata={op_type="aten__silu" op_name="aten__silu" source_file="/usr/local/lib/python3.10/site-packages/torch/_ops.py" source_line=756}
  %multiply.1931 = bf16[32,3072]{1,0} multiply(bf16[32,3072]{1,0} %slice.1929, bf16[32,3072]{1,0} %logistic.1930), metadata={op_type="aten__silu" op_name="aten__silu" source_file="/usr/local/lib/python3.10/site-packages/torch/_ops.py" source_line=756}
  %convert.1932 = f32[32,3072]{1,0} convert(bf16[32,3072]{1,0} %multiply.1931), metadata={op_type="xla__cast" op_name="xla__cast" source_file="/usr/local/lib/python3.10/site-packages/torch/_ops.py" source_line=756}
  %slice.1927 = bf16[32,3072]{1,0} slice(bf16[32,6144]{1,0} %dot.1926), slice={[0:32], [3072:6144]}, metadata={op_type="xla__select" op_name="xla__select" source_file="/usr/local/lib/python3.10/site-packages/torch/_ops.py" source_line=756}
  %convert.1928 = f32[32,3072]{1,0} convert(bf16[32,3072]{1,0} %slice.1927), metadata={op_type="xla__cast" op_name="xla__cast" source_file="/usr/local/lib/python3.10/site-packages/torch/_ops.py" source_line=756}
  %multiply.1933 = f32[32,3072]{1,0} multiply(f32[32,3072]{1,0} %convert.1932, f32[32,3072]{1,0} %convert.1928), metadata={op_type="aten__mul" op_name="aten__mul.974/aten__mul" source_file="/usr/local/lib/python3.10/site-packages/torch/_ops.py" source_line=756}
  %convert.1934 = bf16[32,3072]{1,0} convert(f32[32,3072]{1,0} %multiply.1933), metadata={op_type="xla__cast" op_name="xla__cast" source_file="/usr/local/lib/python3.10/site-packages/torch/_ops.py" source_line=756}
  %p107.1886 = bf16[1024,3072]{1,0} parameter(107), metadata={op_type="xla__device_data" op_name="xla__device_data" source_file="/usr/local/lib/python3.10/site-packages/torch_xla/_dynamo/dynamo_bridge.py" source_line=355}
  %transpose.1887 = bf16[3072,1024]{0,1} transpose(bf16[1024,3072]{1,0} %p107.1886), dimensions={1,0}, metadata={op_type="aten__permute" op_name="aten__permute" source_file="/usr/local/lib/python3.10/site-packages/torch/_ops.py" source_line=756}
  %dot.1935 = bf16[32,1024]{1,0} dot(bf16[32,3072]{1,0} %convert.1934, bf16[3072,1024]{0,1} %transpose.1887), lhs_contracting_dims={1}, rhs_contracting_dims={0}, metadata={op_type="aten__mm" op_name="aten__mm" source_file="/usr/local/lib/python3.10/site-packages/torch/_ops.py" source_line=756}
  %convert.1936 = f32[32,1024]{1,0} convert(bf16[32,1024]{1,0} %dot.1935), metadata={op_type="xla__cast" op_name="xla__cast" source_file="/usr/local/lib/python3.10/site-packages/torch/_ops.py" source_line=756}
  %convert.1884 = bf16[32,1024]{1,0} convert(f32[32,1024]{1,0} %add.1883), metadata={op_type="xla__cast" op_name="xla__cast" source_file="/usr/local/lib/python3.10/site-packages/torch/_ops.py" source_line=756}
  %convert.1885 = f32[32,1024]{1,0} convert(bf16[32,1024]{1,0} %convert.1884), metadata={op_type="xla__cast" op_name="xla__cast" source_file="/usr/local/lib/python3.10/site-packages/torch/_ops.py" source_line=756}
  %constant.12 = f32[] constant(1), metadata={op_type="prim__Constant" op_name="prim__Constant" source_file="/usr/local/lib/python3.10/site-packages/torch/_ops.py" source_line=756}
  %broadcast.1937 = f32[32,1024]{1,0} broadcast(f32[] %constant.12), dimensions={}, metadata={op_type="aten__add" op_name="aten__add.975/aten__add" source_file="/usr/local/lib/python3.10/site-packages/torch/_ops.py" source_line=756}
  %multiply.1938 = f32[32,1024]{1,0} multiply(f32[32,1024]{1,0} %convert.1885, f32[32,1024]{1,0} %broadcast.1937), metadata={op_type="aten__add" op_name="aten__add.975/aten__add" source_file="/usr/local/lib/python3.10/site-packages/torch/_ops.py" source_line=756}
  %add.1939 = f32[32,1024]{1,0} add(f32[32,1024]{1,0} %convert.1936, f32[32,1024]{1,0} %multiply.1938), metadata={op_type="aten__add" op_name="aten__add.975/aten__add" source_file="/usr/local/lib/python3.10/site-packages/torch/_ops.py" source_line=756}
  %constant.11 = f32[] constant(2), metadata={op_type="prim__Constant" op_name="prim__Constant" source_file="/usr/local/lib/python3.10/site-packages/torch/_ops.py" source_line=756}
  %broadcast.1940 = f32[32,1024]{1,0} broadcast(f32[] %constant.11), dimensions={}, metadata={op_type="aten__pow" op_name="aten__pow" source_file="/usr/local/lib/python3.10/site-packages/torch/_ops.py" source_line=756}
  %power.1941 = f32[32,1024]{1,0} power(f32[32,1024]{1,0} %add.1939, f32[32,1024]{1,0} %broadcast.1940), metadata={op_type="aten__pow" op_name="aten__pow" source_file="/usr/local/lib/python3.10/site-packages/torch/_ops.py" source_line=756}
  %constant.1942 = f32[] constant(0), metadata={op_type="aten__mean" op_name="aten__mean" source_file="/usr/local/lib/python3.10/site-packages/torch/_ops.py" source_line=756}
  %reduce.1948 = f32[32]{0} reduce(f32[32,1024]{1,0} %power.1941, f32[] %constant.1942), dimensions={1}, to_apply=%AddComputation.1944, metadata={op_type="aten__mean" op_name="aten__mean" source_file="/usr/local/lib/python3.10/site-packages/torch/_ops.py" source_line=756}
  %constant.1943 = s32[] constant(1024), metadata={op_type="aten__mean" op_name="aten__mean" source_file="/usr/local/lib/python3.10/site-packages/torch/_ops.py" source_line=756}
  %constant.1949 = s32[] constant(0), metadata={op_type="aten__mean" op_name="aten__mean" source_file="/usr/local/lib/python3.10/site-packages/torch/_ops.py" source_line=756}
  %compare.1954 = pred[] compare(s32[] %constant.1943, s32[] %constant.1949), direction=NE, metadata={op_type="aten__mean" op_name="aten__mean" source_file="/usr/local/lib/python3.10/site-packages/torch/_ops.py" source_line=756}
  %constant.1950 = f32[] constant(1), metadata={op_type="aten__mean" op_name="aten__mean" source_file="/usr/local/lib/python3.10/site-packages/torch/_ops.py" source_line=756}
  %convert.1952 = f32[] convert(s32[] %constant.1943), metadata={op_type="aten__mean" op_name="aten__mean" source_file="/usr/local/lib/python3.10/site-packages/torch/_ops.py" source_line=756}
  %divide.1953 = f32[] divide(f32[] %constant.1950, f32[] %convert.1952), metadata={op_type="aten__mean" op_name="aten__mean" source_file="/usr/local/lib/python3.10/site-packages/torch/_ops.py" source_line=756}
  %constant.1951 = f32[] constant(nan), metadata={op_type="aten__mean" op_name="aten__mean" source_file="/usr/local/lib/python3.10/site-packages/torch/_ops.py" source_line=756}
  %select.1955 = f32[] select(pred[] %compare.1954, f32[] %divide.1953, f32[] %constant.1951), metadata={op_type="aten__mean" op_name="aten__mean" source_file="/usr/local/lib/python3.10/site-packages/torch/_ops.py" source_line=756}
  %broadcast.1956 = f32[32]{0} broadcast(f32[] %select.1955), dimensions={}, metadata={op_type="aten__mean" op_name="aten__mean" source_file="/usr/local/lib/python3.10/site-packages/torch/_ops.py" source_line=756}
  %multiply.1957 = f32[32]{0} multiply(f32[32]{0} %reduce.1948, f32[32]{0} %broadcast.1956), metadata={op_type="aten__mean" op_name="aten__mean" source_file="/usr/local/lib/python3.10/site-packages/torch/_ops.py" source_line=756}
  %reshape.1958 = f32[32,1]{1,0} reshape(f32[32]{0} %multiply.1957), metadata={op_type="aten__mean" op_name="aten__mean" source_file="/usr/local/lib/python3.10/site-packages/torch/_ops.py" source_line=756}
  %convert.1959 = f32[32,1]{1,0} convert(f32[32,1]{1,0} %reshape.1958), metadata={op_type="aten__mean" op_name="aten__mean" source_file="/usr/local/lib/python3.10/site-packages/torch/_ops.py" source_line=756}
  %constant.10 = f32[] constant(1), metadata={op_type="prim__Constant" op_name="prim__Constant" source_file="/usr/local/lib/python3.10/site-packages/torch/_ops.py" source_line=756}
  %multiply.1960 = f32[] multiply(f32[] %p1.4, f32[] %constant.10), metadata={op_type="aten__add" op_name="aten__add.976/aten__add" source_file="/usr/local/lib/python3.10/site-packages/torch/_ops.py" source_line=756}
  %broadcast.1961 = f32[32,1]{1,0} broadcast(f32[] %multiply.1960), dimensions={}, metadata={op_type="aten__add" op_name="aten__add.976/aten__add" source_file="/usr/local/lib/python3.10/site-packages/torch/_ops.py" source_line=756}
  %add.1962 = f32[32,1]{1,0} add(f32[32,1]{1,0} %convert.1959, f32[32,1]{1,0} %broadcast.1961), metadata={op_type="aten__add" op_name="aten__add.976/aten__add" source_file="/usr/local/lib/python3.10/site-packages/torch/_ops.py" source_line=756}
  %rsqrt.1963 = f32[32,1]{1,0} rsqrt(f32[32,1]{1,0} %add.1962), metadata={op_type="aten__rsqrt" op_name="aten__rsqrt" source_file="/usr/local/lib/python3.10/site-packages/torch/_ops.py" source_line=756}
  %reshape.1964 = f32[32]{0} reshape(f32[32,1]{1,0} %rsqrt.1963), metadata={op_type="aten__mul" op_name="aten__mul.977/aten__mul" source_file="/usr/local/lib/python3.10/site-packages/torch/_ops.py" source_line=756}
  %broadcast.1965 = f32[32,1024]{1,0} broadcast(f32[32]{0} %reshape.1964), dimensions={0}, metadata={op_type="aten__mul" op_name="aten__mul.977/aten__mul" source_file="/usr/local/lib/python3.10/site-packages/torch/_ops.py" source_line=756}
  %multiply.1966 = f32[32,1024]{1,0} multiply(f32[32,1024]{1,0} %add.1939, f32[32,1024]{1,0} %broadcast.1965), metadata={op_type="aten__mul" op_name="aten__mul.977/aten__mul" source_file="/usr/local/lib/python3.10/site-packages/torch/_ops.py" source_line=756}
  %convert.1967 = bf16[32,1024]{1,0} convert(f32[32,1024]{1,0} %multiply.1966), metadata={op_type="xla__cast" op_name="xla__cast" source_file="/usr/local/lib/python3.10/site-packages/torch/_ops.py" source_line=756}
  %convert.1968 = f32[32,1024]{1,0} convert(bf16[32,1024]{1,0} %convert.1967), metadata={op_type="xla__cast" op_name="xla__cast" source_file="/usr/local/lib/python3.10/site-packages/torch/_ops.py" source_line=756}
  %p3.8 = bf16[1024]{0} parameter(3), metadata={op_type="xla__device_data" op_name="xla__device_data" source_file="/usr/local/lib/python3.10/site-packages/torch_xla/_dynamo/dynamo_bridge.py" source_line=355}
  %convert.9 = f32[1024]{0} convert(bf16[1024]{0} %p3.8), metadata={op_type="xla__cast" op_name="xla__cast" source_file="/usr/local/lib/python3.10/site-packages/torch/_ops.py" source_line=756}
  %broadcast.1969 = f32[32,1024]{1,0} broadcast(f32[1024]{0} %convert.9), dimensions={1}, metadata={op_type="aten__mul" op_name="aten__mul.978/aten__mul" source_file="/usr/local/lib/python3.10/site-packages/torch/_ops.py" source_line=756}
  %multiply.1970 = f32[32,1024]{1,0} multiply(f32[32,1024]{1,0} %convert.1968, f32[32,1024]{1,0} %broadcast.1969), metadata={op_type="aten__mul" op_name="aten__mul.978/aten__mul" source_file="/usr/local/lib/python3.10/site-packages/torch/_ops.py" source_line=756}
  %convert.1971 = bf16[32,1024]{1,0} convert(f32[32,1024]{1,0} %multiply.1970), metadata={op_type="xla__cast" op_name="xla__cast" source_file="/usr/local/lib/python3.10/site-packages/torch/_ops.py" source_line=756}
  %p2.6 = bf16[4096,1024]{1,0} parameter(2), metadata={op_type="xla__device_data" op_name="xla__device_data" source_file="/usr/local/lib/python3.10/site-packages/torch_xla/_dynamo/dynamo_bridge.py" source_line=355}
  %transpose.7 = bf16[1024,4096]{0,1} transpose(bf16[4096,1024]{1,0} %p2.6), dimensions={1,0}, metadata={op_type="aten__permute" op_name="aten__permute" source_file="/usr/local/lib/python3.10/site-packages/torch/_ops.py" source_line=756}
  %dot.1972 = bf16[32,4096]{1,0} dot(bf16[32,1024]{1,0} %convert.1971, bf16[1024,4096]{0,1} %transpose.7), lhs_contracting_dims={1}, rhs_contracting_dims={0}, metadata={op_type="aten__mm" op_name="aten__mm" source_file="/usr/local/lib/python3.10/site-packages/torch/_ops.py" source_line=756}
  %slice.1973 = bf16[32,2048]{1,0} slice(bf16[32,4096]{1,0} %dot.1972), slice={[0:32], [0:2048]}, metadata={op_type="aten__split" op_name="aten__split" source_file="/usr/local/lib/python3.10/site-packages/torch/_ops.py" source_line=756}
  %slice.1974 = bf16[32,1024]{1,0} slice(bf16[32,4096]{1,0} %dot.1972), slice={[0:32], [2048:3072]}, metadata={op_type="aten__split" op_name="aten__split" source_file="/usr/local/lib/python3.10/site-packages/torch/_ops.py" source_line=756}
  %reshape.1976 = bf16[32,8,128]{2,1,0} reshape(bf16[32,1024]{1,0} %slice.1974), metadata={op_type="aten__view" op_name="aten__view" source_file="/usr/local/lib/python3.10/site-packages/torch/_ops.py" source_line=756}
  %convert.1977 = f32[32,8,128]{2,1,0} convert(bf16[32,8,128]{2,1,0} %reshape.1976), metadata={op_type="xla__cast" op_name="xla__cast" source_file="/usr/local/lib/python3.10/site-packages/torch/_ops.py" source_line=756}
  %constant.5 = f32[] constant(2), metadata={op_type="prim__Constant" op_name="prim__Constant" source_file="/usr/local/lib/python3.10/site-packages/torch/_ops.py" source_line=756}
  %broadcast.1978 = f32[32,8,128]{2,1,0} broadcast(f32[] %constant.5), dimensions={}, metadata={op_type="aten__pow" op_name="aten__pow" source_file="/usr/local/lib/python3.10/site-packages/torch/_ops.py" source_line=756}
  %power.1979 = f32[32,8,128]{2,1,0} power(f32[32,8,128]{2,1,0} %convert.1977, f32[32,8,128]{2,1,0} %broadcast.1978), metadata={op_type="aten__pow" op_name="aten__pow" source_file="/usr/local/lib/python3.10/site-packages/torch/_ops.py" source_line=756}
  %constant.1980 = f32[] constant(0), metadata={op_type="aten__mean" op_name="aten__mean" source_file="/usr/local/lib/python3.10/site-packages/torch/_ops.py" source_line=756}
  %reduce.1986 = f32[32,8]{1,0} reduce(f32[32,8,128]{2,1,0} %power.1979, f32[] %constant.1980), dimensions={2}, to_apply=%AddComputation.1982, metadata={op_type="aten__mean" op_name="aten__mean" source_file="/usr/local/lib/python3.10/site-packages/torch/_ops.py" source_line=756}
  %constant.1981 = s32[] constant(128), metadata={op_type="aten__mean" op_name="aten__mean" source_file="/usr/local/lib/python3.10/site-packages/torch/_ops.py" source_line=756}
  %constant.1987 = s32[] constant(0), metadata={op_type="aten__mean" op_name="aten__mean" source_file="/usr/local/lib/python3.10/site-packages/torch/_ops.py" source_line=756}
  %compare.1992 = pred[] compare(s32[] %constant.1981, s32[] %constant.1987), direction=NE, metadata={op_type="aten__mean" op_name="aten__mean" source_file="/usr/local/lib/python3.10/site-packages/torch/_ops.py" source_line=756}
  %constant.1988 = f32[] constant(1), metadata={op_type="aten__mean" op_name="aten__mean" source_file="/usr/local/lib/python3.10/site-packages/torch/_ops.py" source_line=756}
  %convert.1990 = f32[] convert(s32[] %constant.1981), metadata={op_type="aten__mean" op_name="aten__mean" source_file="/usr/local/lib/python3.10/site-packages/torch/_ops.py" source_line=756}
  %divide.1991 = f32[] divide(f32[] %constant.1988, f32[] %convert.1990), metadata={op_type="aten__mean" op_name="aten__mean" source_file="/usr/local/lib/python3.10/site-packages/torch/_ops.py" source_line=756}
  %constant.1989 = f32[] constant(nan), metadata={op_type="aten__mean" op_name="aten__mean" source_file="/usr/local/lib/python3.10/site-packages/torch/_ops.py" source_line=756}
  %select.1993 = f32[] select(pred[] %compare.1992, f32[] %divide.1991, f32[] %constant.1989), metadata={op_type="aten__mean" op_name="aten__mean" source_file="/usr/local/lib/python3.10/site-packages/torch/_ops.py" source_line=756}
  %broadcast.1994 = f32[32,8]{1,0} broadcast(f32[] %select.1993), dimensions={}, metadata={op_type="aten__mean" op_name="aten__mean" source_file="/usr/local/lib/python3.10/site-packages/torch/_ops.py" source_line=756}
  %multiply.1995 = f32[32,8]{1,0} multiply(f32[32,8]{1,0} %reduce.1986, f32[32,8]{1,0} %broadcast.1994), metadata={op_type="aten__mean" op_name="aten__mean" source_file="/usr/local/lib/python3.10/site-packages/torch/_ops.py" source_line=756}
  %reshape.1996 = f32[32,8,1]{2,1,0} reshape(f32[32,8]{1,0} %multiply.1995), metadata={op_type="aten__mean" op_name="aten__mean" source_file="/usr/local/lib/python3.10/site-packages/torch/_ops.py" source_line=756}
  %convert.1997 = f32[32,8,1]{2,1,0} convert(f32[32,8,1]{2,1,0} %reshape.1996), metadata={op_type="aten__mean" op_name="aten__mean" source_file="/usr/local/lib/python3.10/site-packages/torch/_ops.py" source_line=756}
  %constant.3 = f32[] constant(1), metadata={op_type="prim__Constant" op_name="prim__Constant" source_file="/usr/local/lib/python3.10/site-packages/torch/_ops.py" source_line=756}
  %multiply.1998 = f32[] multiply(f32[] %p1.4, f32[] %constant.3), metadata={op_type="aten__add" op_name="aten__add.979/aten__add" source_file="/usr/local/lib/python3.10/site-packages/torch/_ops.py" source_line=756}
  %broadcast.1999 = f32[32,8,1]{2,1,0} broadcast(f32[] %multiply.1998), dimensions={}, metadata={op_type="aten__add" op_name="aten__add.979/aten__add" source_file="/usr/local/lib/python3.10/site-packages/torch/_ops.py" source_line=756}
  %add.2000 = f32[32,8,1]{2,1,0} add(f32[32,8,1]{2,1,0} %convert.1997, f32[32,8,1]{2,1,0} %broadcast.1999), metadata={op_type="aten__add" op_name="aten__add.979/aten__add" source_file="/usr/local/lib/python3.10/site-packages/torch/_ops.py" source_line=756}
  %rsqrt.2001 = f32[32,8,1]{2,1,0} rsqrt(f32[32,8,1]{2,1,0} %add.2000), metadata={op_type="aten__rsqrt" op_name="aten__rsqrt" source_file="/usr/local/lib/python3.10/site-packages/torch/_ops.py" source_line=756}
  %reshape.2002 = f32[32,8]{1,0} reshape(f32[32,8,1]{2,1,0} %rsqrt.2001), metadata={op_type="aten__mul" op_name="aten__mul.980/aten__mul" source_file="/usr/local/lib/python3.10/site-packages/torch/_ops.py" source_line=756}
  %broadcast.2003 = f32[32,8,128]{2,1,0} broadcast(f32[32,8]{1,0} %reshape.2002), dimensions={0,1}, metadata={op_type="aten__mul" op_name="aten__mul.980/aten__mul" source_file="/usr/local/lib/python3.10/site-packages/torch/_ops.py" source_line=756}
  %multiply.2004 = f32[32,8,128]{2,1,0} multiply(f32[32,8,128]{2,1,0} %convert.1977, f32[32,8,128]{2,1,0} %broadcast.2003), metadata={op_type="aten__mul" op_name="aten__mul.980/aten__mul" source_file="/usr/local/lib/python3.10/site-packages/torch/_ops.py" source_line=756}
  %convert.2005 = bf16[32,8,128]{2,1,0} convert(f32[32,8,128]{2,1,0} %multiply.2004), metadata={op_type="xla__cast" op_name="xla__cast" source_file="/usr/local/lib/python3.10/site-packages/torch/_ops.py" source_line=756}
  %convert.2006 = f32[32,8,128]{2,1,0} convert(bf16[32,8,128]{2,1,0} %convert.2005), metadata={op_type="xla__cast" op_name="xla__cast" source_file="/usr/local/lib/python3.10/site-packages/torch/_ops.py" source_line=756}
  %p0.1 = bf16[128]{0} parameter(0), metadata={op_type="xla__device_data" op_name="xla__device_data" source_file="/usr/local/lib/python3.10/site-packages/torch_xla/_dynamo/dynamo_bridge.py" source_line=355}
  %convert.2 = f32[128]{0} convert(bf16[128]{0} %p0.1), metadata={op_type="xla__cast" op_name="xla__cast" source_file="/usr/local/lib/python3.10/site-packages/torch/_ops.py" source_line=756}
  %broadcast.2007 = f32[32,8,128]{2,1,0} broadcast(f32[128]{0} %convert.2), dimensions={2}, metadata={op_type="aten__mul" op_name="aten__mul.981/aten__mul" source_file="/usr/local/lib/python3.10/site-packages/torch/_ops.py" source_line=756}
  %multiply.2008 = f32[32,8,128]{2,1,0} multiply(f32[32,8,128]{2,1,0} %convert.2006, f32[32,8,128]{2,1,0} %broadcast.2007), metadata={op_type="aten__mul" op_name="aten__mul.981/aten__mul" source_file="/usr/local/lib/python3.10/site-packages/torch/_ops.py" source_line=756}
  %convert.2009 = bf16[32,8,128]{2,1,0} convert(f32[32,8,128]{2,1,0} %multiply.2008), metadata={op_type="xla__cast" op_name="xla__cast" source_file="/usr/local/lib/python3.10/site-packages/torch/_ops.py" source_line=756}
  %reshape.2010 = bf16[32,1024]{1,0} reshape(bf16[32,8,128]{2,1,0} %convert.2009), metadata={op_type="aten__view" op_name="aten__view" source_file="/usr/local/lib/python3.10/site-packages/torch/_ops.py" source_line=756}
  %reshape.2011 = bf16[32,8,128]{2,1,0} reshape(bf16[32,1024]{1,0} %reshape.2010), metadata={op_type="aten__view" op_name="aten__view" source_file="/usr/local/lib/python3.10/site-packages/torch/_ops.py" source_line=756}
  %slice.2021 = bf16[32,8,64]{2,1,0} slice(bf16[32,8,128]{2,1,0} %reshape.2011), slice={[0:32], [0:8], [0:64]}, metadata={op_type="aten__split" op_name="aten__split" source_file="/usr/local/lib/python3.10/site-packages/torch/_ops.py" source_line=756}
  %convert.2046 = f32[32,8,64]{2,1,0} convert(bf16[32,8,64]{2,1,0} %slice.2021), metadata={op_type="xla__cast" op_name="xla__cast" source_file="/usr/local/lib/python3.10/site-packages/torch/_ops.py" source_line=756}
  %p111.2015 = bf16[40960,128]{1,0} parameter(111), metadata={op_type="xla__device_data" op_name="xla__device_data" source_file="/usr/local/lib/python3.10/site-packages/torch_xla/_dynamo/dynamo_bridge.py" source_line=355}
  %p110.2014 = s32[32]{0} parameter(110), metadata={op_type="xla__device_data" op_name="xla__device_data" source_file="/usr/local/lib/python3.10/site-packages/torch_xla/_dynamo/dynamo_bridge.py" source_line=355}
  %gather.2016 = bf16[32,128]{1,0} gather(bf16[40960,128]{1,0} %p111.2015, s32[32]{0} %p110.2014), offset_dims={1}, collapsed_slice_dims={0}, start_index_map={0}, index_vector_dim=1, slice_sizes={1,128}, metadata={op_type="aten__index_select" op_name="aten__index_select" source_file="/usr/local/lib/python3.10/site-packages/torch/_ops.py" source_line=756}
  %slice.2017 = bf16[32,64]{1,0} slice(bf16[32,128]{1,0} %gather.2016), slice={[0:32], [0:64]}, metadata={op_type="aten__split" op_name="aten__split" source_file="/usr/local/lib/python3.10/site-packages/torch/_ops.py" source_line=756}
  %reshape.2028 = bf16[32,1,64]{2,1,0} reshape(bf16[32,64]{1,0} %slice.2017), metadata={op_type="aten__view" op_name="aten__view" source_file="/usr/local/lib/python3.10/site-packages/torch/_ops.py" source_line=756}
  %convert.2045 = f32[32,1,64]{2,1,0} convert(bf16[32,1,64]{2,1,0} %reshape.2028), metadata={op_type="xla__cast" op_name="xla__cast" source_file="/usr/local/lib/python3.10/site-packages/torch/_ops.py" source_line=756}
  %reshape.2047 = f32[32,64]{1,0} reshape(f32[32,1,64]{2,1,0} %convert.2045), metadata={op_type="aten__mul" op_name="aten__mul.982/aten__mul" source_file="/usr/local/lib/python3.10/site-packages/torch/_ops.py" source_line=756}
  %broadcast.2048 = f32[32,8,64]{2,1,0} broadcast(f32[32,64]{1,0} %reshape.2047), dimensions={0,2}, metadata={op_type="aten__mul" op_name="aten__mul.982/aten__mul" source_file="/usr/local/lib/python3.10/site-packages/torch/_ops.py" source_line=756}
  %multiply.2049 = f32[32,8,64]{2,1,0} multiply(f32[32,8,64]{2,1,0} %convert.2046, f32[32,8,64]{2,1,0} %broadcast.2048), metadata={op_type="aten__mul" op_name="aten__mul.982/aten__mul" source_file="/usr/local/lib/python3.10/site-packages/torch/_ops.py" source_line=756}
  %convert.2050 = bf16[32,8,64]{2,1,0} convert(f32[32,8,64]{2,1,0} %multiply.2049), metadata={op_type="xla__cast" op_name="xla__cast" source_file="/usr/local/lib/python3.10/site-packages/torch/_ops.py" source_line=756}
  %slice.2022 = bf16[32,8,64]{2,1,0} slice(bf16[32,8,128]{2,1,0} %reshape.2011), slice={[0:32], [0:8], [64:128]}, metadata={op_type="aten__split" op_name="aten__split" source_file="/usr/local/lib/python3.10/site-packages/torch/_ops.py" source_line=756}
  %convert.2040 = f32[32,8,64]{2,1,0} convert(bf16[32,8,64]{2,1,0} %slice.2022), metadata={op_type="xla__cast" op_name="xla__cast" source_file="/usr/local/lib/python3.10/site-packages/torch/_ops.py" source_line=756}
  %slice.2018 = bf16[32,64]{1,0} slice(bf16[32,128]{1,0} %gather.2016), slice={[0:32], [64:128]}, metadata={op_type="aten__split" op_name="aten__split" source_file="/usr/local/lib/python3.10/site-packages/torch/_ops.py" source_line=756}
  %reshape.2019 = bf16[32,1,64]{2,1,0} reshape(bf16[32,64]{1,0} %slice.2018), metadata={op_type="aten__view" op_name="aten__view" source_file="/usr/local/lib/python3.10/site-packages/torch/_ops.py" source_line=756}
  %convert.2039 = f32[32,1,64]{2,1,0} convert(bf16[32,1,64]{2,1,0} %reshape.2019), metadata={op_type="xla__cast" op_name="xla__cast" source_file="/usr/local/lib/python3.10/site-packages/torch/_ops.py" source_line=756}
  %reshape.2041 = f32[32,64]{1,0} reshape(f32[32,1,64]{2,1,0} %convert.2039), metadata={op_type="aten__mul" op_name="aten__mul.983/aten__mul" source_file="/usr/local/lib/python3.10/site-packages/torch/_ops.py" source_line=756}
  %broadcast.2042 = f32[32,8,64]{2,1,0} broadcast(f32[32,64]{1,0} %reshape.2041), dimensions={0,2}, metadata={op_type="aten__mul" op_name="aten__mul.983/aten__mul" source_file="/usr/local/lib/python3.10/site-packages/torch/_ops.py" source_line=756}
  %multiply.2043 = f32[32,8,64]{2,1,0} multiply(f32[32,8,64]{2,1,0} %convert.2040, f32[32,8,64]{2,1,0} %broadcast.2042), metadata={op_type="aten__mul" op_name="aten__mul.983/aten__mul" source_file="/usr/local/lib/python3.10/site-packages/torch/_ops.py" source_line=756}
  %convert.2044 = bf16[32,8,64]{2,1,0} convert(f32[32,8,64]{2,1,0} %multiply.2043), metadata={op_type="xla__cast" op_name="xla__cast" source_file="/usr/local/lib/python3.10/site-packages/torch/_ops.py" source_line=756}
  %constant.2038 = bf16[] constant(1), metadata={op_type="prim__Constant" op_name="prim__Constant" source_file="/usr/local/lib/python3.10/site-packages/torch/_ops.py" source_line=756}
  %broadcast.2051 = bf16[32,8,64]{2,1,0} broadcast(bf16[] %constant.2038), dimensions={}, metadata={op_type="aten__sub" op_name="aten__sub.984/aten__sub" source_file="/usr/local/lib/python3.10/site-packages/torch/_ops.py" source_line=756}
  %multiply.2052 = bf16[32,8,64]{2,1,0} multiply(bf16[32,8,64]{2,1,0} %convert.2044, bf16[32,8,64]{2,1,0} %broadcast.2051), metadata={op_type="aten__sub" op_name="aten__sub.984/aten__sub" source_file="/usr/local/lib/python3.10/site-packages/torch/_ops.py" source_line=756}
  %subtract.2053 = bf16[32,8,64]{2,1,0} subtract(bf16[32,8,64]{2,1,0} %convert.2050, bf16[32,8,64]{2,1,0} %multiply.2052), metadata={op_type="aten__sub" op_name="aten__sub.984/aten__sub" source_file="/usr/local/lib/python3.10/site-packages/torch/_ops.py" source_line=756}
  %convert.2030 = f32[32,8,64]{2,1,0} convert(bf16[32,8,64]{2,1,0} %slice.2022), metadata={op_type="xla__cast" op_name="xla__cast" source_file="/usr/local/lib/python3.10/site-packages/torch/_ops.py" source_line=756}
  %convert.2029 = f32[32,1,64]{2,1,0} convert(bf16[32,1,64]{2,1,0} %reshape.2028), metadata={op_type="xla__cast" op_name="xla__cast" source_file="/usr/local/lib/python3.10/site-packages/torch/_ops.py" source_line=756}
  %reshape.2031 = f32[32,64]{1,0} reshape(f32[32,1,64]{2,1,0} %convert.2029), metadata={op_type="aten__mul" op_name="aten__mul.985/aten__mul" source_file="/usr/local/lib/python3.10/site-packages/torch/_ops.py" source_line=756}
  %broadcast.2032 = f32[32,8,64]{2,1,0} broadcast(f32[32,64]{1,0} %reshape.2031), dimensions={0,2}, metadata={op_type="aten__mul" op_name="aten__mul.985/aten__mul" source_file="/usr/local/lib/python3.10/site-packages/torch/_ops.py" source_line=756}
  %multiply.2033 = f32[32,8,64]{2,1,0} multiply(f32[32,8,64]{2,1,0} %convert.2030, f32[32,8,64]{2,1,0} %broadcast.2032), metadata={op_type="aten__mul" op_name="aten__mul.985/aten__mul" source_file="/usr/local/lib/python3.10/site-packages/torch/_ops.py" source_line=756}
  %convert.2034 = bf16[32,8,64]{2,1,0} convert(f32[32,8,64]{2,1,0} %multiply.2033), metadata={op_type="xla__cast" op_name="xla__cast" source_file="/usr/local/lib/python3.10/site-packages/torch/_ops.py" source_line=756}
  %convert.2023 = f32[32,8,64]{2,1,0} convert(bf16[32,8,64]{2,1,0} %slice.2021), metadata={op_type="xla__cast" op_name="xla__cast" source_file="/usr/local/lib/python3.10/site-packages/torch/_ops.py" source_line=756}
  %convert.2020 = f32[32,1,64]{2,1,0} convert(bf16[32,1,64]{2,1,0} %reshape.2019), metadata={op_type="xla__cast" op_name="xla__cast" source_file="/usr/local/lib/python3.10/site-packages/torch/_ops.py" source_line=756}
  %reshape.2024 = f32[32,64]{1,0} reshape(f32[32,1,64]{2,1,0} %convert.2020), metadata={op_type="aten__mul" op_name="aten__mul.986/aten__mul" source_file="/usr/local/lib/python3.10/site-packages/torch/_ops.py" source_line=756}
  %broadcast.2025 = f32[32,8,64]{2,1,0} broadcast(f32[32,64]{1,0} %reshape.2024), dimensions={0,2}, metadata={op_type="aten__mul" op_name="aten__mul.986/aten__mul" source_file="/usr/local/lib/python3.10/site-packages/torch/_ops.py" source_line=756}
  %multiply.2026 = f32[32,8,64]{2,1,0} multiply(f32[32,8,64]{2,1,0} %convert.2023, f32[32,8,64]{2,1,0} %broadcast.2025), metadata={op_type="aten__mul" op_name="aten__mul.986/aten__mul" source_file="/usr/local/lib/python3.10/site-packages/torch/_ops.py" source_line=756}
  %convert.2027 = bf16[32,8,64]{2,1,0} convert(f32[32,8,64]{2,1,0} %multiply.2026), metadata={op_type="xla__cast" op_name="xla__cast" source_file="/usr/local/lib/python3.10/site-packages/torch/_ops.py" source_line=756}
  %constant.2013 = bf16[] constant(1), metadata={op_type="prim__Constant" op_name="prim__Constant" source_file="/usr/local/lib/python3.10/site-packages/torch/_ops.py" source_line=756}
  %broadcast.2035 = bf16[32,8,64]{2,1,0} broadcast(bf16[] %constant.2013), dimensions={}, metadata={op_type="aten__add" op_name="aten__add.987/aten__add" source_file="/usr/local/lib/python3.10/site-packages/torch/_ops.py" source_line=756}
  %multiply.2036 = bf16[32,8,64]{2,1,0} multiply(bf16[32,8,64]{2,1,0} %convert.2027, bf16[32,8,64]{2,1,0} %broadcast.2035), metadata={op_type="aten__add" op_name="aten__add.987/aten__add" source_file="/usr/local/lib/python3.10/site-packages/torch/_ops.py" source_line=756}
  %add.2037 = bf16[32,8,64]{2,1,0} add(bf16[32,8,64]{2,1,0} %convert.2034, bf16[32,8,64]{2,1,0} %multiply.2036), metadata={op_type="aten__add" op_name="aten__add.987/aten__add" source_file="/usr/local/lib/python3.10/site-packages/torch/_ops.py" source_line=756}
  %concatenate.2054 = bf16[32,8,128]{2,1,0} concatenate(bf16[32,8,64]{2,1,0} %subtract.2053, bf16[32,8,64]{2,1,0} %add.2037), dimensions={2}, metadata={op_type="aten__cat" op_name="aten__cat" source_file="/usr/local/lib/python3.10/site-packages/torch/_ops.py" source_line=756}
  %slice.2012 = bf16[32,8,0]{2,1,0} slice(bf16[32,8,128]{2,1,0} %reshape.2011), slice={[0:32], [0:8], [128:128]}, metadata={op_type="xla__select" op_name="xla__select" source_file="/usr/local/lib/python3.10/site-packages/torch/_ops.py" source_line=756}
  %concatenate.2055 = bf16[32,8,128]{2,1,0} concatenate(bf16[32,8,128]{2,1,0} %concatenate.2054, bf16[32,8,0]{2,1,0} %slice.2012), dimensions={2}, metadata={op_type="aten__cat" op_name="aten__cat" source_file="/usr/local/lib/python3.10/site-packages/torch/_ops.py" source_line=756}
  %reshape.2056 = bf16[32,1024]{1,0} reshape(bf16[32,8,128]{2,1,0} %concatenate.2055), metadata={op_type="aten__view" op_name="aten__view" source_file="/usr/local/lib/python3.10/site-packages/torch/_ops.py" source_line=756}
  %reshape.2057 = bf16[32,8,128]{2,1,0} reshape(bf16[32,1024]{1,0} %reshape.2056), metadata={op_type="aten__view" op_name="aten__view" source_file="/usr/local/lib/python3.10/site-packages/torch/_ops.py" source_line=756}
  %slice.1975 = bf16[32,1024]{1,0} slice(bf16[32,4096]{1,0} %dot.1972), slice={[0:32], [3072:4096]}, metadata={op_type="aten__split" op_name="aten__split" source_file="/usr/local/lib/python3.10/site-packages/torch/_ops.py" source_line=756}
  %reshape.2058 = bf16[32,8,128]{2,1,0} reshape(bf16[32,1024]{1,0} %slice.1975), metadata={op_type="aten__view" op_name="aten__view" source_file="/usr/local/lib/python3.10/site-packages/torch/_ops.py" source_line=756}
  %p112.2059 = bf16[2,4233,16,8,128]{4,3,2,1,0} parameter(112), metadata={op_type="xla__device_data" op_name="xla__device_data" source_file="/usr/local/lib/python3.10/site-packages/torch_xla/_dynamo/dynamo_bridge.py" source_line=355}
  %reshape.2060 = bf16[138706944]{0} reshape(bf16[2,4233,16,8,128]{4,3,2,1,0} %p112.2059), metadata={op_type="aten__as_strided" op_name="aten__as_strided" source_file="/usr/local/lib/python3.10/site-packages/torch/_prims_common/__init__.py" source_line=1991}
  %reshape.2061 = bf16[2,4233,16,8,128]{4,3,2,1,0} reshape(bf16[138706944]{0} %reshape.2060), metadata={op_type="aten__as_strided" op_name="aten__as_strided" source_file="/usr/local/lib/python3.10/site-packages/torch/_prims_common/__init__.py" source_line=1992}
  %reshape.2062 = bf16[138706944]{0} reshape(bf16[2,4233,16,8,128]{4,3,2,1,0} %reshape.2061), metadata={op_type="aten__as_strided" op_name="aten__as_strided" source_file="/usr/local/lib/python3.10/site-packages/torch/_higher_order_ops/auto_functionalize.py" source_line=54}
  %slice.2063 = bf16[69353472]{0} slice(bf16[138706944]{0} %reshape.2062), slice={[0:69353472]}, metadata={op_type="aten__as_strided" op_name="aten__as_strided" source_file="/usr/local/lib/python3.10/site-packages/torch/_higher_order_ops/auto_functionalize.py" source_line=54}
  %reshape.2064 = bf16[4233,16,8,128]{3,2,1,0} reshape(bf16[69353472]{0} %slice.2063), metadata={op_type="aten__as_strided" op_name="aten__as_strided" source_file="/usr/local/lib/python3.10/site-packages/torch/_higher_order_ops/auto_functionalize.py" source_line=54}
  %reshape.2065 = bf16[138706944]{0} reshape(bf16[2,4233,16,8,128]{4,3,2,1,0} %reshape.2061), metadata={op_type="aten__as_strided" op_name="aten__as_strided" source_file="/usr/local/lib/python3.10/site-packages/torch/_higher_order_ops/auto_functionalize.py" source_line=54}
  %slice.2066 = bf16[69353472]{0} slice(bf16[138706944]{0} %reshape.2065), slice={[69353472:138706944]}, metadata={op_type="aten__as_strided" op_name="aten__as_strided" source_file="/usr/local/lib/python3.10/site-packages/torch/_higher_order_ops/auto_functionalize.py" source_line=54}
  %reshape.2067 = bf16[4233,16,8,128]{3,2,1,0} reshape(bf16[69353472]{0} %slice.2066), metadata={op_type="aten__as_strided" op_name="aten__as_strided" source_file="/usr/local/lib/python3.10/site-packages/torch/_higher_order_ops/auto_functionalize.py" source_line=54}
  ROOT %tuple.2068 = (bf16[32,8,128]{2,1,0}, bf16[32,8,128]{2,1,0}, bf16[4233,16,8,128]{3,2,1,0}, bf16[4233,16,8,128]{3,2,1,0}) tuple(bf16[32,8,128]{2,1,0} %reshape.2057, bf16[32,8,128]{2,1,0} %reshape.2058, bf16[4233,16,8,128]{3,2,1,0} %reshape.2064, bf16[4233,16,8,128]{3,2,1,0} %reshape.2067)
}

