HloModule SyncTensorsGraph.1033, is_scheduled=true, entry_computation_layout={(bf16[128]{0}, f32[], bf16[4096,1024]{1,0}, bf16[1024]{0}, s32[32]{0}, /*index=5*/bf16[151936,1024]{1,0}, bf16[1024,2048]{1,0}, bf16[1024,3072]{1,0}, bf16[6144,1024]{1,0}, bf16[1024]{0}, /*index=10*/bf16[1024,2048]{1,0}, bf16[1024,3072]{1,0}, bf16[6144,1024]{1,0}, bf16[1024]{0}, bf16[1024,2048]{1,0}, /*index=15*/bf16[1024,3072]{1,0}, bf16[6144,1024]{1,0}, bf16[1024]{0}, bf16[1024,2048]{1,0}, bf16[1024,3072]{1,0}, /*index=20*/bf16[6144,1024]{1,0}, bf16[1024]{0}, bf16[1024,2048]{1,0}, bf16[1024,3072]{1,0}, bf16[6144,1024]{1,0}, /*index=25*/bf16[1024]{0}, bf16[1024,2048]{1,0}, bf16[1024,3072]{1,0}, bf16[6144,1024]{1,0}, bf16[1024]{0}, /*index=30*/bf16[1024,2048]{1,0}, bf16[1024,3072]{1,0}, bf16[6144,1024]{1,0}, bf16[1024]{0}, bf16[1024,2048]{1,0}, /*index=35*/bf16[1024,3072]{1,0}, bf16[6144,1024]{1,0}, bf16[1024]{0}, bf16[1024,2048]{1,0}, bf16[1024,3072]{1,0}, /*index=40*/bf16[6144,1024]{1,0}, bf16[1024]{0}, bf16[1024,2048]{1,0}, bf16[1024,3072]{1,0}, bf16[6144,1024]{1,0}, /*index=45*/bf16[1024]{0}, bf16[1024,2048]{1,0}, bf16[1024,3072]{1,0}, bf16[6144,1024]{1,0}, bf16[1024]{0}, /*index=50*/bf16[1024,2048]{1,0}, bf16[1024,3072]{1,0}, bf16[6144,1024]{1,0}, bf16[1024]{0}, s32[32]{0}, /*index=55*/bf16[40960,128]{1,0}, bf16[2,4233,16,8,128]{4,3,2,1,0})->(bf16[32,8,128]{2,1,0}, bf16[32,8,128]{2,1,0}, bf16[4233,16,8,128]{3,2,1,0}, bf16[4233,16,8,128]{3,2,1,0})}, frontend_attributes={fingerprint_before_lhs="78628751579cd68c4507e38ad13830ea"}

%fused_gather (param_0.9: bf16[151936,1024], param_1.485: s32[32]) -> bf16[32,1,1024] {
  %param_0.9 = bf16[151936,1024]{1,0} parameter(0)
  %param_1.485 = s32[32]{0} parameter(1)
  %convert.613.1 = s64[32]{0} convert(s32[32]{0} %param_1.485), metadata={op_type="xla__cast" op_name="xla__cast" source_file="/usr/local/lib/python3.10/site-packages/torch/_ops.py" source_line=756}
  %convert.614.1 = u32[32]{0} convert(s64[32]{0} %convert.613.1), metadata={op_type="aten__index_select" op_name="aten__index_select" source_file="/usr/local/lib/python3.10/site-packages/torch/_ops.py" source_line=756}
  %bitcast.2014.1 = u32[32,1]{1,0} bitcast(u32[32]{0} %convert.614.1)
  ROOT %gather.3 = bf16[32,1,1024]{2,0,1} gather(bf16[151936,1024]{1,0} %param_0.9, u32[32,1]{1,0} %bitcast.2014.1), offset_dims={1,2}, collapsed_slice_dims={}, start_index_map={0}, index_vector_dim=1, slice_sizes={1,1024}, metadata={op_type="aten__index_select" op_name="aten__index_select" source_file="/usr/local/lib/python3.10/site-packages/torch/_ops.py" source_line=756}
}

%wrapped_concatenate_computation (param_0.609: bf16[1024,2048], param_1.504: bf16[1024,2048], param_2.330: bf16[1024,2048], param_3.266: bf16[1024,2048], param_4.139: bf16[1024,2048], param_5.58: bf16[1024,2048], param_6.56: bf16[1024,2048], param_7.40: bf16[1024,2048], param_8.23: bf16[1024,2048], param_9.18: bf16[1024,2048], param_10.9: bf16[1024,2048], param_11.4: bf16[1024,2048]) -> bf16[12288,2048] {
  %param_0.609 = bf16[1024,2048]{1,0} parameter(0)
  %param_1.504 = bf16[1024,2048]{1,0} parameter(1)
  %param_2.330 = bf16[1024,2048]{1,0} parameter(2)
  %param_3.266 = bf16[1024,2048]{1,0} parameter(3)
  %param_4.139 = bf16[1024,2048]{1,0} parameter(4)
  %param_5.58 = bf16[1024,2048]{1,0} parameter(5)
  %param_6.56 = bf16[1024,2048]{1,0} parameter(6)
  %param_7.40 = bf16[1024,2048]{1,0} parameter(7)
  %param_8.23 = bf16[1024,2048]{1,0} parameter(8)
  %param_9.18 = bf16[1024,2048]{1,0} parameter(9)
  %param_10.9 = bf16[1024,2048]{1,0} parameter(10)
  %param_11.4 = bf16[1024,2048]{1,0} parameter(11)
  ROOT %concatenate.27.1 = bf16[12288,2048]{1,0} concatenate(bf16[1024,2048]{1,0} %param_0.609, bf16[1024,2048]{1,0} %param_1.504, bf16[1024,2048]{1,0} %param_2.330, bf16[1024,2048]{1,0} %param_3.266, bf16[1024,2048]{1,0} %param_4.139, /*index=5*/bf16[1024,2048]{1,0} %param_5.58, bf16[1024,2048]{1,0} %param_6.56, bf16[1024,2048]{1,0} %param_7.40, bf16[1024,2048]{1,0} %param_8.23, bf16[1024,2048]{1,0} %param_9.18, /*index=10*/bf16[1024,2048]{1,0} %param_10.9, bf16[1024,2048]{1,0} %param_11.4), dimensions={0}, metadata={op_type="xla__device_data" op_name="xla__device_data" source_file="/usr/local/lib/python3.10/site-packages/torch_xla/_dynamo/dynamo_bridge.py" source_line=355}
}

%gemm_fusion_dot.47_computation (parameter_0: bf16[12288,2048]) -> bf16[32,12288] {
  %parameter_0 = bf16[12288,2048]{1,0} parameter(0)
  %constant_130 = bf16[] constant(0), metadata={op_type="aten__expand" op_name="aten__expand" source_file="/usr/local/lib/python3.10/site-packages/torch/_ops.py" source_line=756}
  %broadcast.112 = bf16[32,2048]{1,0} broadcast(bf16[] %constant_130), dimensions={}, metadata={op_type="aten__expand" op_name="aten__expand" source_file="/usr/local/lib/python3.10/site-packages/torch/_ops.py" source_line=756}
  %dot.49 = bf16[12288,32]{0,1} dot(bf16[12288,2048]{1,0} %parameter_0, bf16[32,2048]{1,0} %broadcast.112), lhs_contracting_dims={1}, rhs_contracting_dims={1}, metadata={op_type="aten__mm" op_name="aten__mm" source_file="/usr/local/lib/python3.10/site-packages/torch/_ops.py" source_line=756}
  ROOT %bitcast.975 = bf16[32,12288]{1,0} bitcast(bf16[12288,32]{0,1} %dot.49), metadata={op_type="aten__mm" op_name="aten__mm" source_file="/usr/local/lib/python3.10/site-packages/torch/_ops.py" source_line=756}
}

%AddComputation.70 (x.71: f32[], y.72: f32[]) -> f32[] {
  %y.72 = f32[] parameter(1)
  %x.71 = f32[] parameter(0)
  ROOT %add.165 = f32[] add(f32[] %x.71, f32[] %y.72)
}

%fused_computation.129 (param_0.592: f32[], param_1.483: bf16[32,1,1024], param_2.301: bf16[32,12288], param_3.230: bf16[1024]) -> bf16[32,1024] {
  %param_2.301 = bf16[32,12288]{1,0} parameter(2)
  %convert.611.42 = f32[32,12288]{1,0} convert(bf16[32,12288]{1,0} %param_2.301), metadata={op_type="xla__cast" op_name="xla__cast" source_file="/usr/local/lib/python3.10/site-packages/torch/_ops.py" source_line=756}
  %slice.174.9 = f32[32,1024]{1,0} slice(f32[32,12288]{1,0} %convert.611.42), slice={[0:32], [11264:12288]}, metadata={op_type="aten__mm" op_name="aten__mm" source_file="/usr/local/lib/python3.10/site-packages/torch/_ops.py" source_line=756}
  %param_1.483 = bf16[32,1,1024]{2,0,1} parameter(1)
  %bitcast.2017.9 = bf16[32,1024]{1,0} bitcast(bf16[32,1,1024]{2,0,1} %param_1.483)
  %convert.615.9 = f32[32,1024]{1,0} convert(bf16[32,1024]{1,0} %bitcast.2017.9), metadata={op_type="xla__cast" op_name="xla__cast" source_file="/usr/local/lib/python3.10/site-packages/torch/_ops.py" source_line=756}
  %add.166.7 = f32[32,1024]{1,0} add(f32[32,1024]{1,0} %slice.174.9, f32[32,1024]{1,0} %convert.615.9), metadata={op_type="aten__add" op_name="aten__add.520/aten__add" source_file="/usr/local/lib/python3.10/site-packages/torch/_ops.py" source_line=756}
  %multiply.426 = f32[32,1024]{1,0} multiply(f32[32,1024]{1,0} %add.166.7, f32[32,1024]{1,0} %add.166.7), metadata={op_type="aten__pow" op_name="aten__pow" source_file="/usr/local/lib/python3.10/site-packages/torch/_ops.py" source_line=756}
  %constant_402 = f32[] constant(0), metadata={op_type="aten__mean" op_name="aten__mean" source_file="/usr/local/lib/python3.10/site-packages/torch/_ops.py" source_line=756}
  %reduce.53 = f32[32]{0} reduce(f32[32,1024]{1,0} %multiply.426, f32[] %constant_402), dimensions={1}, to_apply=%AddComputation.70, metadata={op_type="aten__mean" op_name="aten__mean" source_file="/usr/local/lib/python3.10/site-packages/torch/_ops.py" source_line=756}
  %constant_401 = f32[] constant(0.0009765625), metadata={op_type="aten__mean" op_name="aten__mean" source_file="/usr/local/lib/python3.10/site-packages/torch/_ops.py" source_line=756}
  %broadcast.477 = f32[32]{0} broadcast(f32[] %constant_401), dimensions={}, metadata={op_type="aten__mean" op_name="aten__mean" source_file="/usr/local/lib/python3.10/site-packages/torch/_ops.py" source_line=756}
  %multiply.425 = f32[32]{0} multiply(f32[32]{0} %reduce.53, f32[32]{0} %broadcast.477), metadata={op_type="aten__mean" op_name="aten__mean" source_file="/usr/local/lib/python3.10/site-packages/torch/_ops.py" source_line=756}
  %param_0.592 = f32[] parameter(0)
  %broadcast.476 = f32[32]{0} broadcast(f32[] %param_0.592), dimensions={}, metadata={op_type="aten__add" op_name="aten__add.521/aten__add" source_file="/usr/local/lib/python3.10/site-packages/torch/_ops.py" source_line=756}
  %add.231 = f32[32]{0} add(f32[32]{0} %multiply.425, f32[32]{0} %broadcast.476), metadata={op_type="aten__add" op_name="aten__add.521/aten__add" source_file="/usr/local/lib/python3.10/site-packages/torch/_ops.py" source_line=756}
  %rsqrt.96 = f32[32]{0} rsqrt(f32[32]{0} %add.231), metadata={op_type="aten__rsqrt" op_name="aten__rsqrt" source_file="/usr/local/lib/python3.10/site-packages/torch/_ops.py" source_line=756}
  %broadcast.475 = f32[32,1024]{1,0} broadcast(f32[32]{0} %rsqrt.96), dimensions={0}, metadata={op_type="aten__mul" op_name="aten__mul.522/aten__mul" source_file="/usr/local/lib/python3.10/site-packages/torch/_ops.py" source_line=756}
  %multiply.424 = f32[32,1024]{1,0} multiply(f32[32,1024]{1,0} %add.166.7, f32[32,1024]{1,0} %broadcast.475), metadata={op_type="aten__mul" op_name="aten__mul.522/aten__mul" source_file="/usr/local/lib/python3.10/site-packages/torch/_ops.py" source_line=756}
  %param_3.230 = bf16[1024]{0} parameter(3)
  %convert.618.1 = f32[1024]{0} convert(bf16[1024]{0} %param_3.230), metadata={op_type="xla__cast" op_name="xla__cast" source_file="/usr/local/lib/python3.10/site-packages/torch/_ops.py" source_line=756}
  %broadcast.289.3 = f32[32,1024]{1,0} broadcast(f32[1024]{0} %convert.618.1), dimensions={1}, metadata={op_type="aten__mul" op_name="aten__mul.523/aten__mul" source_file="/usr/local/lib/python3.10/site-packages/torch/_ops.py" source_line=756}
  %multiply.291.3 = f32[32,1024]{1,0} multiply(f32[32,1024]{1,0} %multiply.424, f32[32,1024]{1,0} %broadcast.289.3), metadata={op_type="aten__mul" op_name="aten__mul.523/aten__mul" source_file="/usr/local/lib/python3.10/site-packages/torch/_ops.py" source_line=756}
  ROOT %convert.619.1 = bf16[32,1024]{1,0} convert(f32[32,1024]{1,0} %multiply.291.3), metadata={op_type="xla__cast" op_name="xla__cast" source_file="/usr/local/lib/python3.10/site-packages/torch/_ops.py" source_line=756}
}

%fused_convert (param_0.498: bf16[32,6144]) -> bf16[32,3072] {
  %param_0.498 = bf16[32,6144]{1,0} parameter(0)
  %slice.175.1 = bf16[32,3072]{1,0} slice(bf16[32,6144]{1,0} %param_0.498), slice={[0:32], [0:3072]}, metadata={op_type="xla__select" op_name="xla__select" source_file="/usr/local/lib/python3.10/site-packages/torch/_ops.py" source_line=756}
  %convert.620.8 = f32[32,3072]{1,0} convert(bf16[32,3072]{1,0} %slice.175.1)
  %constant_1_4 = bf16[] constant(1), metadata={op_type="xla__select" op_name="xla__select" source_file="/usr/local/lib/python3.10/site-packages/torch/_ops.py" source_line=756}
  %convert.791.2 = f32[] convert(bf16[] %constant_1_4)
  %broadcast.337.48 = f32[32,3072]{1,0} broadcast(f32[] %convert.791.2), dimensions={}, metadata={op_type="xla__select" op_name="xla__select" source_file="/usr/local/lib/python3.10/site-packages/torch/_ops.py" source_line=756}
  %negate.36.7 = f32[32,3072]{1,0} negate(f32[32,3072]{1,0} %convert.620.8)
  %convert.624.5 = bf16[32,3072]{1,0} convert(f32[32,3072]{1,0} %negate.36.7)
  %exponential.36.3 = bf16[32,3072]{1,0} exponential(bf16[32,3072]{1,0} %convert.624.5)
  %convert.625.1 = f32[32,3072]{1,0} convert(bf16[32,3072]{1,0} %exponential.36.3)
  %add.167.3 = f32[32,3072]{1,0} add(f32[32,3072]{1,0} %broadcast.337.48, f32[32,3072]{1,0} %convert.625.1)
  %divide.36.3 = f32[32,3072]{1,0} divide(f32[32,3072]{1,0} %broadcast.337.48, f32[32,3072]{1,0} %add.167.3), metadata={op_type="aten__silu" op_name="aten__silu" source_file="/usr/local/lib/python3.10/site-packages/torch/_ops.py" source_line=756}
  %multiply.292.5 = f32[32,3072]{1,0} multiply(f32[32,3072]{1,0} %convert.620.8, f32[32,3072]{1,0} %divide.36.3), metadata={op_type="aten__silu" op_name="aten__silu" source_file="/usr/local/lib/python3.10/site-packages/torch/_ops.py" source_line=756}
  %slice.176.1 = bf16[32,3072]{1,0} slice(bf16[32,6144]{1,0} %param_0.498), slice={[0:32], [3072:6144]}, metadata={op_type="xla__select" op_name="xla__select" source_file="/usr/local/lib/python3.10/site-packages/torch/_ops.py" source_line=756}
  %convert.626.1 = f32[32,3072]{1,0} convert(bf16[32,3072]{1,0} %slice.176.1), metadata={op_type="xla__cast" op_name="xla__cast" source_file="/usr/local/lib/python3.10/site-packages/torch/_ops.py" source_line=756}
  %multiply.293.3 = f32[32,3072]{1,0} multiply(f32[32,3072]{1,0} %multiply.292.5, f32[32,3072]{1,0} %convert.626.1), metadata={op_type="aten__mul" op_name="aten__mul.524/aten__mul" source_file="/usr/local/lib/python3.10/site-packages/torch/_ops.py" source_line=756}
  ROOT %convert.627.1 = bf16[32,3072]{1,0} convert(f32[32,3072]{1,0} %multiply.293.3), metadata={op_type="xla__cast" op_name="xla__cast" source_file="/usr/local/lib/python3.10/site-packages/torch/_ops.py" source_line=756}
}

%fused_computation.130 (param_0.598: f32[], param_1.493: bf16[1024], param_2.311: bf16[32,1,1024], param_3.242: bf16[32,12288], param_4.107: bf16[32,1024]) -> bf16[32,1024] {
  %param_3.242 = bf16[32,12288]{1,0} parameter(3)
  %convert.611.74 = f32[32,12288]{1,0} convert(bf16[32,12288]{1,0} %param_3.242), metadata={op_type="xla__cast" op_name="xla__cast" source_file="/usr/local/lib/python3.10/site-packages/torch/_ops.py" source_line=756}
  %slice.172.5 = f32[32,1024]{1,0} slice(f32[32,12288]{1,0} %convert.611.74), slice={[0:32], [10240:11264]}, metadata={op_type="aten__mm" op_name="aten__mm" source_file="/usr/local/lib/python3.10/site-packages/torch/_ops.py" source_line=756}
  %param_4.107 = bf16[32,1024]{1,0} parameter(4)
  %convert.629.3 = f32[32,1024]{1,0} convert(bf16[32,1024]{1,0} %param_4.107), metadata={op_type="xla__cast" op_name="xla__cast" source_file="/usr/local/lib/python3.10/site-packages/torch/_ops.py" source_line=756}
  %slice.174.11 = f32[32,1024]{1,0} slice(f32[32,12288]{1,0} %convert.611.74), slice={[0:32], [11264:12288]}, metadata={op_type="aten__mm" op_name="aten__mm" source_file="/usr/local/lib/python3.10/site-packages/torch/_ops.py" source_line=756}
  %param_2.311 = bf16[32,1,1024]{2,0,1} parameter(2)
  %bitcast.2017.11 = bf16[32,1024]{1,0} bitcast(bf16[32,1,1024]{2,0,1} %param_2.311)
  %convert.615.11 = f32[32,1024]{1,0} convert(bf16[32,1024]{1,0} %bitcast.2017.11), metadata={op_type="xla__cast" op_name="xla__cast" source_file="/usr/local/lib/python3.10/site-packages/torch/_ops.py" source_line=756}
  %add.166.9 = f32[32,1024]{1,0} add(f32[32,1024]{1,0} %slice.174.11, f32[32,1024]{1,0} %convert.615.11), metadata={op_type="aten__add" op_name="aten__add.520/aten__add" source_file="/usr/local/lib/python3.10/site-packages/torch/_ops.py" source_line=756}
  %add.168.3 = f32[32,1024]{1,0} add(f32[32,1024]{1,0} %convert.629.3, f32[32,1024]{1,0} %add.166.9), metadata={op_type="aten__add" op_name="aten__add.525/aten__add" source_file="/usr/local/lib/python3.10/site-packages/torch/_ops.py" source_line=756}
  %add.169.3 = f32[32,1024]{1,0} add(f32[32,1024]{1,0} %slice.172.5, f32[32,1024]{1,0} %add.168.3), metadata={op_type="aten__add" op_name="aten__add.538/aten__add" source_file="/usr/local/lib/python3.10/site-packages/torch/_ops.py" source_line=756}
  %multiply.352 = f32[32,1024]{1,0} multiply(f32[32,1024]{1,0} %add.169.3, f32[32,1024]{1,0} %add.169.3), metadata={op_type="aten__pow" op_name="aten__pow" source_file="/usr/local/lib/python3.10/site-packages/torch/_ops.py" source_line=756}
  %constant_340 = f32[] constant(0), metadata={op_type="aten__mean" op_name="aten__mean" source_file="/usr/local/lib/python3.10/site-packages/torch/_ops.py" source_line=756}
  %reduce.31 = f32[32]{0} reduce(f32[32,1024]{1,0} %multiply.352, f32[] %constant_340), dimensions={1}, to_apply=%AddComputation.70, metadata={op_type="aten__mean" op_name="aten__mean" source_file="/usr/local/lib/python3.10/site-packages/torch/_ops.py" source_line=756}
  %constant_339 = f32[] constant(0.0009765625), metadata={op_type="aten__mean" op_name="aten__mean" source_file="/usr/local/lib/python3.10/site-packages/torch/_ops.py" source_line=756}
  %broadcast.402 = f32[32]{0} broadcast(f32[] %constant_339), dimensions={}, metadata={op_type="aten__mean" op_name="aten__mean" source_file="/usr/local/lib/python3.10/site-packages/torch/_ops.py" source_line=756}
  %multiply.351 = f32[32]{0} multiply(f32[32]{0} %reduce.31, f32[32]{0} %broadcast.402), metadata={op_type="aten__mean" op_name="aten__mean" source_file="/usr/local/lib/python3.10/site-packages/torch/_ops.py" source_line=756}
  %param_0.598 = f32[] parameter(0)
  %broadcast.401 = f32[32]{0} broadcast(f32[] %param_0.598), dimensions={}, metadata={op_type="aten__add" op_name="aten__add.521/aten__add" source_file="/usr/local/lib/python3.10/site-packages/torch/_ops.py" source_line=756}
  %add.208 = f32[32]{0} add(f32[32]{0} %multiply.351, f32[32]{0} %broadcast.401), metadata={op_type="aten__add" op_name="aten__add.539/aten__add" source_file="/usr/local/lib/python3.10/site-packages/torch/_ops.py" source_line=756}
  %rsqrt.73 = f32[32]{0} rsqrt(f32[32]{0} %add.208), metadata={op_type="aten__rsqrt" op_name="aten__rsqrt" source_file="/usr/local/lib/python3.10/site-packages/torch/_ops.py" source_line=756}
  %broadcast.400 = f32[32,1024]{1,0} broadcast(f32[32]{0} %rsqrt.73), dimensions={0}, metadata={op_type="aten__mul" op_name="aten__mul.540/aten__mul" source_file="/usr/local/lib/python3.10/site-packages/torch/_ops.py" source_line=756}
  %multiply.350 = f32[32,1024]{1,0} multiply(f32[32,1024]{1,0} %add.169.3, f32[32,1024]{1,0} %broadcast.400), metadata={op_type="aten__mul" op_name="aten__mul.540/aten__mul" source_file="/usr/local/lib/python3.10/site-packages/torch/_ops.py" source_line=756}
  %param_1.493 = bf16[1024]{0} parameter(1)
  %convert.630.1 = f32[1024]{0} convert(bf16[1024]{0} %param_1.493), metadata={op_type="xla__cast" op_name="xla__cast" source_file="/usr/local/lib/python3.10/site-packages/torch/_ops.py" source_line=756}
  %broadcast.292.3 = f32[32,1024]{1,0} broadcast(f32[1024]{0} %convert.630.1), dimensions={1}, metadata={op_type="aten__mul" op_name="aten__mul.541/aten__mul" source_file="/usr/local/lib/python3.10/site-packages/torch/_ops.py" source_line=756}
  %multiply.294.3 = f32[32,1024]{1,0} multiply(f32[32,1024]{1,0} %multiply.350, f32[32,1024]{1,0} %broadcast.292.3), metadata={op_type="aten__mul" op_name="aten__mul.541/aten__mul" source_file="/usr/local/lib/python3.10/site-packages/torch/_ops.py" source_line=756}
  ROOT %convert.631.1 = bf16[32,1024]{1,0} convert(f32[32,1024]{1,0} %multiply.294.3), metadata={op_type="xla__cast" op_name="xla__cast" source_file="/usr/local/lib/python3.10/site-packages/torch/_ops.py" source_line=756}
}

%fused_convert.1 (param_0.500: bf16[32,6144]) -> bf16[32,3072] {
  %param_0.500 = bf16[32,6144]{1,0} parameter(0)
  %slice.177.1 = bf16[32,3072]{1,0} slice(bf16[32,6144]{1,0} %param_0.500), slice={[0:32], [0:3072]}, metadata={op_type="xla__select" op_name="xla__select" source_file="/usr/local/lib/python3.10/site-packages/torch/_ops.py" source_line=756}
  %convert.634.8 = f32[32,3072]{1,0} convert(bf16[32,3072]{1,0} %slice.177.1)
  %constant_1_6 = bf16[] constant(1), metadata={op_type="xla__select" op_name="xla__select" source_file="/usr/local/lib/python3.10/site-packages/torch/_ops.py" source_line=756}
  %convert.791.4 = f32[] convert(bf16[] %constant_1_6)
  %broadcast.337.46 = f32[32,3072]{1,0} broadcast(f32[] %convert.791.4), dimensions={}, metadata={op_type="xla__select" op_name="xla__select" source_file="/usr/local/lib/python3.10/site-packages/torch/_ops.py" source_line=756}
  %negate.37.7 = f32[32,3072]{1,0} negate(f32[32,3072]{1,0} %convert.634.8)
  %convert.638.5 = bf16[32,3072]{1,0} convert(f32[32,3072]{1,0} %negate.37.7)
  %exponential.37.3 = bf16[32,3072]{1,0} exponential(bf16[32,3072]{1,0} %convert.638.5)
  %convert.640.1 = f32[32,3072]{1,0} convert(bf16[32,3072]{1,0} %exponential.37.3)
  %add.170.3 = f32[32,3072]{1,0} add(f32[32,3072]{1,0} %broadcast.337.46, f32[32,3072]{1,0} %convert.640.1)
  %divide.37.3 = f32[32,3072]{1,0} divide(f32[32,3072]{1,0} %broadcast.337.46, f32[32,3072]{1,0} %add.170.3), metadata={op_type="aten__silu" op_name="aten__silu" source_file="/usr/local/lib/python3.10/site-packages/torch/_ops.py" source_line=756}
  %multiply.295.5 = f32[32,3072]{1,0} multiply(f32[32,3072]{1,0} %convert.634.8, f32[32,3072]{1,0} %divide.37.3), metadata={op_type="aten__silu" op_name="aten__silu" source_file="/usr/local/lib/python3.10/site-packages/torch/_ops.py" source_line=756}
  %slice.178.1 = bf16[32,3072]{1,0} slice(bf16[32,6144]{1,0} %param_0.500), slice={[0:32], [3072:6144]}, metadata={op_type="xla__select" op_name="xla__select" source_file="/usr/local/lib/python3.10/site-packages/torch/_ops.py" source_line=756}
  %convert.641.1 = f32[32,3072]{1,0} convert(bf16[32,3072]{1,0} %slice.178.1), metadata={op_type="xla__cast" op_name="xla__cast" source_file="/usr/local/lib/python3.10/site-packages/torch/_ops.py" source_line=756}
  %multiply.296.3 = f32[32,3072]{1,0} multiply(f32[32,3072]{1,0} %multiply.295.5, f32[32,3072]{1,0} %convert.641.1), metadata={op_type="aten__mul" op_name="aten__mul.542/aten__mul" source_file="/usr/local/lib/python3.10/site-packages/torch/_ops.py" source_line=756}
  ROOT %convert.642.1 = bf16[32,3072]{1,0} convert(f32[32,3072]{1,0} %multiply.296.3), metadata={op_type="xla__cast" op_name="xla__cast" source_file="/usr/local/lib/python3.10/site-packages/torch/_ops.py" source_line=756}
}

%fused_computation.131 (param_0.573: f32[], param_1.471: bf16[1024], param_2.315: bf16[32,1024], param_3.245: bf16[32,12288], param_4.113: bf16[32,1,1024], param_5.27: bf16[32,1024]) -> bf16[32,1024] {
  %param_3.245 = bf16[32,12288]{1,0} parameter(3)
  %convert.611.60 = f32[32,12288]{1,0} convert(bf16[32,12288]{1,0} %param_3.245), metadata={op_type="xla__cast" op_name="xla__cast" source_file="/usr/local/lib/python3.10/site-packages/torch/_ops.py" source_line=756}
  %slice.170.5 = f32[32,1024]{1,0} slice(f32[32,12288]{1,0} %convert.611.60), slice={[0:32], [9216:10240]}, metadata={op_type="aten__mm" op_name="aten__mm" source_file="/usr/local/lib/python3.10/site-packages/torch/_ops.py" source_line=756}
  %param_2.315 = bf16[32,1024]{1,0} parameter(2)
  %convert.643.3 = f32[32,1024]{1,0} convert(bf16[32,1024]{1,0} %param_2.315), metadata={op_type="xla__cast" op_name="xla__cast" source_file="/usr/local/lib/python3.10/site-packages/torch/_ops.py" source_line=756}
  %slice.172.9 = f32[32,1024]{1,0} slice(f32[32,12288]{1,0} %convert.611.60), slice={[0:32], [10240:11264]}, metadata={op_type="aten__mm" op_name="aten__mm" source_file="/usr/local/lib/python3.10/site-packages/torch/_ops.py" source_line=756}
  %param_5.27 = bf16[32,1024]{1,0} parameter(5)
  %convert.629.7 = f32[32,1024]{1,0} convert(bf16[32,1024]{1,0} %param_5.27), metadata={op_type="xla__cast" op_name="xla__cast" source_file="/usr/local/lib/python3.10/site-packages/torch/_ops.py" source_line=756}
  %slice.174.15 = f32[32,1024]{1,0} slice(f32[32,12288]{1,0} %convert.611.60), slice={[0:32], [11264:12288]}, metadata={op_type="aten__mm" op_name="aten__mm" source_file="/usr/local/lib/python3.10/site-packages/torch/_ops.py" source_line=756}
  %param_4.113 = bf16[32,1,1024]{2,0,1} parameter(4)
  %bitcast.2017.15 = bf16[32,1024]{1,0} bitcast(bf16[32,1,1024]{2,0,1} %param_4.113)
  %convert.615.15 = f32[32,1024]{1,0} convert(bf16[32,1024]{1,0} %bitcast.2017.15), metadata={op_type="xla__cast" op_name="xla__cast" source_file="/usr/local/lib/python3.10/site-packages/torch/_ops.py" source_line=756}
  %add.166.13 = f32[32,1024]{1,0} add(f32[32,1024]{1,0} %slice.174.15, f32[32,1024]{1,0} %convert.615.15), metadata={op_type="aten__add" op_name="aten__add.520/aten__add" source_file="/usr/local/lib/python3.10/site-packages/torch/_ops.py" source_line=756}
  %add.168.7 = f32[32,1024]{1,0} add(f32[32,1024]{1,0} %convert.629.7, f32[32,1024]{1,0} %add.166.13), metadata={op_type="aten__add" op_name="aten__add.525/aten__add" source_file="/usr/local/lib/python3.10/site-packages/torch/_ops.py" source_line=756}
  %add.169.7 = f32[32,1024]{1,0} add(f32[32,1024]{1,0} %slice.172.9, f32[32,1024]{1,0} %add.168.7), metadata={op_type="aten__add" op_name="aten__add.538/aten__add" source_file="/usr/local/lib/python3.10/site-packages/torch/_ops.py" source_line=756}
  %add.171.3 = f32[32,1024]{1,0} add(f32[32,1024]{1,0} %convert.643.3, f32[32,1024]{1,0} %add.169.7), metadata={op_type="aten__add" op_name="aten__add.543/aten__add" source_file="/usr/local/lib/python3.10/site-packages/torch/_ops.py" source_line=756}
  %add.172.3 = f32[32,1024]{1,0} add(f32[32,1024]{1,0} %slice.170.5, f32[32,1024]{1,0} %add.171.3), metadata={op_type="aten__add" op_name="aten__add.556/aten__add" source_file="/usr/local/lib/python3.10/site-packages/torch/_ops.py" source_line=756}
  %multiply.358 = f32[32,1024]{1,0} multiply(f32[32,1024]{1,0} %add.172.3, f32[32,1024]{1,0} %add.172.3), metadata={op_type="aten__pow" op_name="aten__pow" source_file="/usr/local/lib/python3.10/site-packages/torch/_ops.py" source_line=756}
  %constant_345 = f32[] constant(0), metadata={op_type="aten__mean" op_name="aten__mean" source_file="/usr/local/lib/python3.10/site-packages/torch/_ops.py" source_line=756}
  %reduce.33 = f32[32]{0} reduce(f32[32,1024]{1,0} %multiply.358, f32[] %constant_345), dimensions={1}, to_apply=%AddComputation.70, metadata={op_type="aten__mean" op_name="aten__mean" source_file="/usr/local/lib/python3.10/site-packages/torch/_ops.py" source_line=756}
  %constant_344 = f32[] constant(0.0009765625), metadata={op_type="aten__mean" op_name="aten__mean" source_file="/usr/local/lib/python3.10/site-packages/torch/_ops.py" source_line=756}
  %broadcast.410 = f32[32]{0} broadcast(f32[] %constant_344), dimensions={}, metadata={op_type="aten__mean" op_name="aten__mean" source_file="/usr/local/lib/python3.10/site-packages/torch/_ops.py" source_line=756}
  %multiply.357 = f32[32]{0} multiply(f32[32]{0} %reduce.33, f32[32]{0} %broadcast.410), metadata={op_type="aten__mean" op_name="aten__mean" source_file="/usr/local/lib/python3.10/site-packages/torch/_ops.py" source_line=756}
  %param_0.573 = f32[] parameter(0)
  %broadcast.409 = f32[32]{0} broadcast(f32[] %param_0.573), dimensions={}, metadata={op_type="aten__add" op_name="aten__add.521/aten__add" source_file="/usr/local/lib/python3.10/site-packages/torch/_ops.py" source_line=756}
  %add.210 = f32[32]{0} add(f32[32]{0} %multiply.357, f32[32]{0} %broadcast.409), metadata={op_type="aten__add" op_name="aten__add.557/aten__add" source_file="/usr/local/lib/python3.10/site-packages/torch/_ops.py" source_line=756}
  %rsqrt.75 = f32[32]{0} rsqrt(f32[32]{0} %add.210), metadata={op_type="aten__rsqrt" op_name="aten__rsqrt" source_file="/usr/local/lib/python3.10/site-packages/torch/_ops.py" source_line=756}
  %broadcast.407 = f32[32,1024]{1,0} broadcast(f32[32]{0} %rsqrt.75), dimensions={0}, metadata={op_type="aten__mul" op_name="aten__mul.558/aten__mul" source_file="/usr/local/lib/python3.10/site-packages/torch/_ops.py" source_line=756}
  %multiply.356 = f32[32,1024]{1,0} multiply(f32[32,1024]{1,0} %add.172.3, f32[32,1024]{1,0} %broadcast.407), metadata={op_type="aten__mul" op_name="aten__mul.558/aten__mul" source_file="/usr/local/lib/python3.10/site-packages/torch/_ops.py" source_line=756}
  %param_1.471 = bf16[1024]{0} parameter(1)
  %convert.644.1 = f32[1024]{0} convert(bf16[1024]{0} %param_1.471), metadata={op_type="xla__cast" op_name="xla__cast" source_file="/usr/local/lib/python3.10/site-packages/torch/_ops.py" source_line=756}
  %broadcast.295.3 = f32[32,1024]{1,0} broadcast(f32[1024]{0} %convert.644.1), dimensions={1}, metadata={op_type="aten__mul" op_name="aten__mul.559/aten__mul" source_file="/usr/local/lib/python3.10/site-packages/torch/_ops.py" source_line=756}
  %multiply.297.3 = f32[32,1024]{1,0} multiply(f32[32,1024]{1,0} %multiply.356, f32[32,1024]{1,0} %broadcast.295.3), metadata={op_type="aten__mul" op_name="aten__mul.559/aten__mul" source_file="/usr/local/lib/python3.10/site-packages/torch/_ops.py" source_line=756}
  ROOT %convert.645.1 = bf16[32,1024]{1,0} convert(f32[32,1024]{1,0} %multiply.297.3), metadata={op_type="xla__cast" op_name="xla__cast" source_file="/usr/local/lib/python3.10/site-packages/torch/_ops.py" source_line=756}
}

%fused_convert.2 (param_0.502: bf16[32,6144]) -> bf16[32,3072] {
  %param_0.502 = bf16[32,6144]{1,0} parameter(0)
  %slice.179.1 = bf16[32,3072]{1,0} slice(bf16[32,6144]{1,0} %param_0.502), slice={[0:32], [0:3072]}, metadata={op_type="xla__select" op_name="xla__select" source_file="/usr/local/lib/python3.10/site-packages/torch/_ops.py" source_line=756}
  %convert.646.8 = f32[32,3072]{1,0} convert(bf16[32,3072]{1,0} %slice.179.1)
  %constant_1_8 = bf16[] constant(1), metadata={op_type="xla__select" op_name="xla__select" source_file="/usr/local/lib/python3.10/site-packages/torch/_ops.py" source_line=756}
  %convert.791.6 = f32[] convert(bf16[] %constant_1_8)
  %broadcast.337.44 = f32[32,3072]{1,0} broadcast(f32[] %convert.791.6), dimensions={}, metadata={op_type="xla__select" op_name="xla__select" source_file="/usr/local/lib/python3.10/site-packages/torch/_ops.py" source_line=756}
  %negate.38.7 = f32[32,3072]{1,0} negate(f32[32,3072]{1,0} %convert.646.8)
  %convert.650.5 = bf16[32,3072]{1,0} convert(f32[32,3072]{1,0} %negate.38.7)
  %exponential.38.3 = bf16[32,3072]{1,0} exponential(bf16[32,3072]{1,0} %convert.650.5)
  %convert.651.1 = f32[32,3072]{1,0} convert(bf16[32,3072]{1,0} %exponential.38.3)
  %add.173.3 = f32[32,3072]{1,0} add(f32[32,3072]{1,0} %broadcast.337.44, f32[32,3072]{1,0} %convert.651.1)
  %divide.38.3 = f32[32,3072]{1,0} divide(f32[32,3072]{1,0} %broadcast.337.44, f32[32,3072]{1,0} %add.173.3), metadata={op_type="aten__silu" op_name="aten__silu" source_file="/usr/local/lib/python3.10/site-packages/torch/_ops.py" source_line=756}
  %multiply.298.5 = f32[32,3072]{1,0} multiply(f32[32,3072]{1,0} %convert.646.8, f32[32,3072]{1,0} %divide.38.3), metadata={op_type="aten__silu" op_name="aten__silu" source_file="/usr/local/lib/python3.10/site-packages/torch/_ops.py" source_line=756}
  %slice.180.1 = bf16[32,3072]{1,0} slice(bf16[32,6144]{1,0} %param_0.502), slice={[0:32], [3072:6144]}, metadata={op_type="xla__select" op_name="xla__select" source_file="/usr/local/lib/python3.10/site-packages/torch/_ops.py" source_line=756}
  %convert.652.1 = f32[32,3072]{1,0} convert(bf16[32,3072]{1,0} %slice.180.1), metadata={op_type="xla__cast" op_name="xla__cast" source_file="/usr/local/lib/python3.10/site-packages/torch/_ops.py" source_line=756}
  %multiply.300.3 = f32[32,3072]{1,0} multiply(f32[32,3072]{1,0} %multiply.298.5, f32[32,3072]{1,0} %convert.652.1), metadata={op_type="aten__mul" op_name="aten__mul.560/aten__mul" source_file="/usr/local/lib/python3.10/site-packages/torch/_ops.py" source_line=756}
  ROOT %convert.653.1 = bf16[32,3072]{1,0} convert(f32[32,3072]{1,0} %multiply.300.3), metadata={op_type="xla__cast" op_name="xla__cast" source_file="/usr/local/lib/python3.10/site-packages/torch/_ops.py" source_line=756}
}

%fused_computation.132 (param_0.606: f32[], param_1.501: bf16[1024], param_2.325: bf16[32,1,1024], param_3.260: bf16[32,12288], param_4.130: bf16[32,1024], param_5.48: bf16[32,1024], param_6.44: bf16[32,1024]) -> bf16[32,1024] {
  %param_3.260 = bf16[32,12288]{1,0} parameter(3)
  %convert.611.102 = f32[32,12288]{1,0} convert(bf16[32,12288]{1,0} %param_3.260), metadata={op_type="xla__cast" op_name="xla__cast" source_file="/usr/local/lib/python3.10/site-packages/torch/_ops.py" source_line=756}
  %slice.169.5 = f32[32,1024]{1,0} slice(f32[32,12288]{1,0} %convert.611.102), slice={[0:32], [8192:9216]}, metadata={op_type="aten__mm" op_name="aten__mm" source_file="/usr/local/lib/python3.10/site-packages/torch/_ops.py" source_line=756}
  %param_6.44 = bf16[32,1024]{1,0} parameter(6)
  %convert.655.3 = f32[32,1024]{1,0} convert(bf16[32,1024]{1,0} %param_6.44), metadata={op_type="xla__cast" op_name="xla__cast" source_file="/usr/local/lib/python3.10/site-packages/torch/_ops.py" source_line=756}
  %slice.170.9 = f32[32,1024]{1,0} slice(f32[32,12288]{1,0} %convert.611.102), slice={[0:32], [9216:10240]}, metadata={op_type="aten__mm" op_name="aten__mm" source_file="/usr/local/lib/python3.10/site-packages/torch/_ops.py" source_line=756}
  %param_5.48 = bf16[32,1024]{1,0} parameter(5)
  %convert.643.7 = f32[32,1024]{1,0} convert(bf16[32,1024]{1,0} %param_5.48), metadata={op_type="xla__cast" op_name="xla__cast" source_file="/usr/local/lib/python3.10/site-packages/torch/_ops.py" source_line=756}
  %slice.172.11 = f32[32,1024]{1,0} slice(f32[32,12288]{1,0} %convert.611.102), slice={[0:32], [10240:11264]}, metadata={op_type="aten__mm" op_name="aten__mm" source_file="/usr/local/lib/python3.10/site-packages/torch/_ops.py" source_line=756}
  %param_4.130 = bf16[32,1024]{1,0} parameter(4)
  %convert.629.9 = f32[32,1024]{1,0} convert(bf16[32,1024]{1,0} %param_4.130), metadata={op_type="xla__cast" op_name="xla__cast" source_file="/usr/local/lib/python3.10/site-packages/torch/_ops.py" source_line=756}
  %slice.174.17 = f32[32,1024]{1,0} slice(f32[32,12288]{1,0} %convert.611.102), slice={[0:32], [11264:12288]}, metadata={op_type="aten__mm" op_name="aten__mm" source_file="/usr/local/lib/python3.10/site-packages/torch/_ops.py" source_line=756}
  %param_2.325 = bf16[32,1,1024]{2,0,1} parameter(2)
  %bitcast.2017.17 = bf16[32,1024]{1,0} bitcast(bf16[32,1,1024]{2,0,1} %param_2.325)
  %convert.615.17 = f32[32,1024]{1,0} convert(bf16[32,1024]{1,0} %bitcast.2017.17), metadata={op_type="xla__cast" op_name="xla__cast" source_file="/usr/local/lib/python3.10/site-packages/torch/_ops.py" source_line=756}
  %add.166.15 = f32[32,1024]{1,0} add(f32[32,1024]{1,0} %slice.174.17, f32[32,1024]{1,0} %convert.615.17), metadata={op_type="aten__add" op_name="aten__add.520/aten__add" source_file="/usr/local/lib/python3.10/site-packages/torch/_ops.py" source_line=756}
  %add.168.9 = f32[32,1024]{1,0} add(f32[32,1024]{1,0} %convert.629.9, f32[32,1024]{1,0} %add.166.15), metadata={op_type="aten__add" op_name="aten__add.525/aten__add" source_file="/usr/local/lib/python3.10/site-packages/torch/_ops.py" source_line=756}
  %add.169.9 = f32[32,1024]{1,0} add(f32[32,1024]{1,0} %slice.172.11, f32[32,1024]{1,0} %add.168.9), metadata={op_type="aten__add" op_name="aten__add.538/aten__add" source_file="/usr/local/lib/python3.10/site-packages/torch/_ops.py" source_line=756}
  %add.171.7 = f32[32,1024]{1,0} add(f32[32,1024]{1,0} %convert.643.7, f32[32,1024]{1,0} %add.169.9), metadata={op_type="aten__add" op_name="aten__add.543/aten__add" source_file="/usr/local/lib/python3.10/site-packages/torch/_ops.py" source_line=756}
  %add.172.7 = f32[32,1024]{1,0} add(f32[32,1024]{1,0} %slice.170.9, f32[32,1024]{1,0} %add.171.7), metadata={op_type="aten__add" op_name="aten__add.556/aten__add" source_file="/usr/local/lib/python3.10/site-packages/torch/_ops.py" source_line=756}
  %add.174.3 = f32[32,1024]{1,0} add(f32[32,1024]{1,0} %convert.655.3, f32[32,1024]{1,0} %add.172.7), metadata={op_type="aten__add" op_name="aten__add.561/aten__add" source_file="/usr/local/lib/python3.10/site-packages/torch/_ops.py" source_line=756}
  %add.175.3 = f32[32,1024]{1,0} add(f32[32,1024]{1,0} %slice.169.5, f32[32,1024]{1,0} %add.174.3), metadata={op_type="aten__add" op_name="aten__add.574/aten__add" source_file="/usr/local/lib/python3.10/site-packages/torch/_ops.py" source_line=756}
  %multiply.364 = f32[32,1024]{1,0} multiply(f32[32,1024]{1,0} %add.175.3, f32[32,1024]{1,0} %add.175.3), metadata={op_type="aten__pow" op_name="aten__pow" source_file="/usr/local/lib/python3.10/site-packages/torch/_ops.py" source_line=756}
  %constant_350 = f32[] constant(0), metadata={op_type="aten__mean" op_name="aten__mean" source_file="/usr/local/lib/python3.10/site-packages/torch/_ops.py" source_line=756}
  %reduce.35 = f32[32]{0} reduce(f32[32,1024]{1,0} %multiply.364, f32[] %constant_350), dimensions={1}, to_apply=%AddComputation.70, metadata={op_type="aten__mean" op_name="aten__mean" source_file="/usr/local/lib/python3.10/site-packages/torch/_ops.py" source_line=756}
  %constant_349 = f32[] constant(0.0009765625), metadata={op_type="aten__mean" op_name="aten__mean" source_file="/usr/local/lib/python3.10/site-packages/torch/_ops.py" source_line=756}
  %broadcast.417 = f32[32]{0} broadcast(f32[] %constant_349), dimensions={}, metadata={op_type="aten__mean" op_name="aten__mean" source_file="/usr/local/lib/python3.10/site-packages/torch/_ops.py" source_line=756}
  %multiply.363 = f32[32]{0} multiply(f32[32]{0} %reduce.35, f32[32]{0} %broadcast.417), metadata={op_type="aten__mean" op_name="aten__mean" source_file="/usr/local/lib/python3.10/site-packages/torch/_ops.py" source_line=756}
  %param_0.606 = f32[] parameter(0)
  %broadcast.416 = f32[32]{0} broadcast(f32[] %param_0.606), dimensions={}, metadata={op_type="aten__add" op_name="aten__add.521/aten__add" source_file="/usr/local/lib/python3.10/site-packages/torch/_ops.py" source_line=756}
  %add.212 = f32[32]{0} add(f32[32]{0} %multiply.363, f32[32]{0} %broadcast.416), metadata={op_type="aten__add" op_name="aten__add.575/aten__add" source_file="/usr/local/lib/python3.10/site-packages/torch/_ops.py" source_line=756}
  %rsqrt.77 = f32[32]{0} rsqrt(f32[32]{0} %add.212), metadata={op_type="aten__rsqrt" op_name="aten__rsqrt" source_file="/usr/local/lib/python3.10/site-packages/torch/_ops.py" source_line=756}
  %broadcast.415 = f32[32,1024]{1,0} broadcast(f32[32]{0} %rsqrt.77), dimensions={0}, metadata={op_type="aten__mul" op_name="aten__mul.576/aten__mul" source_file="/usr/local/lib/python3.10/site-packages/torch/_ops.py" source_line=756}
  %multiply.362 = f32[32,1024]{1,0} multiply(f32[32,1024]{1,0} %add.175.3, f32[32,1024]{1,0} %broadcast.415), metadata={op_type="aten__mul" op_name="aten__mul.576/aten__mul" source_file="/usr/local/lib/python3.10/site-packages/torch/_ops.py" source_line=756}
  %param_1.501 = bf16[1024]{0} parameter(1)
  %convert.656.1 = f32[1024]{0} convert(bf16[1024]{0} %param_1.501), metadata={op_type="xla__cast" op_name="xla__cast" source_file="/usr/local/lib/python3.10/site-packages/torch/_ops.py" source_line=756}
  %broadcast.299.3 = f32[32,1024]{1,0} broadcast(f32[1024]{0} %convert.656.1), dimensions={1}, metadata={op_type="aten__mul" op_name="aten__mul.577/aten__mul" source_file="/usr/local/lib/python3.10/site-packages/torch/_ops.py" source_line=756}
  %multiply.301.3 = f32[32,1024]{1,0} multiply(f32[32,1024]{1,0} %multiply.362, f32[32,1024]{1,0} %broadcast.299.3), metadata={op_type="aten__mul" op_name="aten__mul.577/aten__mul" source_file="/usr/local/lib/python3.10/site-packages/torch/_ops.py" source_line=756}
  ROOT %convert.657.1 = bf16[32,1024]{1,0} convert(f32[32,1024]{1,0} %multiply.301.3), metadata={op_type="xla__cast" op_name="xla__cast" source_file="/usr/local/lib/python3.10/site-packages/torch/_ops.py" source_line=756}
}

%fused_convert.3 (param_0.504: bf16[32,6144]) -> bf16[32,3072] {
  %param_0.504 = bf16[32,6144]{1,0} parameter(0)
  %slice.181.1 = bf16[32,3072]{1,0} slice(bf16[32,6144]{1,0} %param_0.504), slice={[0:32], [0:3072]}, metadata={op_type="xla__select" op_name="xla__select" source_file="/usr/local/lib/python3.10/site-packages/torch/_ops.py" source_line=756}
  %convert.658.8 = f32[32,3072]{1,0} convert(bf16[32,3072]{1,0} %slice.181.1)
  %constant_1_10 = bf16[] constant(1), metadata={op_type="xla__select" op_name="xla__select" source_file="/usr/local/lib/python3.10/site-packages/torch/_ops.py" source_line=756}
  %convert.791.8 = f32[] convert(bf16[] %constant_1_10)
  %broadcast.337.42 = f32[32,3072]{1,0} broadcast(f32[] %convert.791.8), dimensions={}, metadata={op_type="xla__select" op_name="xla__select" source_file="/usr/local/lib/python3.10/site-packages/torch/_ops.py" source_line=756}
  %negate.39.7 = f32[32,3072]{1,0} negate(f32[32,3072]{1,0} %convert.658.8)
  %convert.663.5 = bf16[32,3072]{1,0} convert(f32[32,3072]{1,0} %negate.39.7)
  %exponential.39.3 = bf16[32,3072]{1,0} exponential(bf16[32,3072]{1,0} %convert.663.5)
  %convert.664.1 = f32[32,3072]{1,0} convert(bf16[32,3072]{1,0} %exponential.39.3)
  %add.176.3 = f32[32,3072]{1,0} add(f32[32,3072]{1,0} %broadcast.337.42, f32[32,3072]{1,0} %convert.664.1)
  %divide.39.3 = f32[32,3072]{1,0} divide(f32[32,3072]{1,0} %broadcast.337.42, f32[32,3072]{1,0} %add.176.3), metadata={op_type="aten__silu" op_name="aten__silu" source_file="/usr/local/lib/python3.10/site-packages/torch/_ops.py" source_line=756}
  %multiply.303.5 = f32[32,3072]{1,0} multiply(f32[32,3072]{1,0} %convert.658.8, f32[32,3072]{1,0} %divide.39.3), metadata={op_type="aten__silu" op_name="aten__silu" source_file="/usr/local/lib/python3.10/site-packages/torch/_ops.py" source_line=756}
  %slice.182.1 = bf16[32,3072]{1,0} slice(bf16[32,6144]{1,0} %param_0.504), slice={[0:32], [3072:6144]}, metadata={op_type="xla__select" op_name="xla__select" source_file="/usr/local/lib/python3.10/site-packages/torch/_ops.py" source_line=756}
  %convert.665.1 = f32[32,3072]{1,0} convert(bf16[32,3072]{1,0} %slice.182.1), metadata={op_type="xla__cast" op_name="xla__cast" source_file="/usr/local/lib/python3.10/site-packages/torch/_ops.py" source_line=756}
  %multiply.304.3 = f32[32,3072]{1,0} multiply(f32[32,3072]{1,0} %multiply.303.5, f32[32,3072]{1,0} %convert.665.1), metadata={op_type="aten__mul" op_name="aten__mul.578/aten__mul" source_file="/usr/local/lib/python3.10/site-packages/torch/_ops.py" source_line=756}
  ROOT %convert.666.1 = bf16[32,3072]{1,0} convert(f32[32,3072]{1,0} %multiply.304.3), metadata={op_type="xla__cast" op_name="xla__cast" source_file="/usr/local/lib/python3.10/site-packages/torch/_ops.py" source_line=756}
}

%fused_computation.133 (param_0.570: f32[], param_1.467: bf16[1024], param_2.329: bf16[32,1024], param_3.265: bf16[32,12288], param_4.138: bf16[32,1,1024], param_5.57: bf16[32,1024], param_6.55: bf16[32,1024], param_7.39: bf16[32,1024]) -> bf16[32,1024] {
  %param_3.265 = bf16[32,12288]{1,0} parameter(3)
  %convert.611.56 = f32[32,12288]{1,0} convert(bf16[32,12288]{1,0} %param_3.265), metadata={op_type="xla__cast" op_name="xla__cast" source_file="/usr/local/lib/python3.10/site-packages/torch/_ops.py" source_line=756}
  %slice.168.5 = f32[32,1024]{1,0} slice(f32[32,12288]{1,0} %convert.611.56), slice={[0:32], [7168:8192]}, metadata={op_type="aten__mm" op_name="aten__mm" source_file="/usr/local/lib/python3.10/site-packages/torch/_ops.py" source_line=756}
  %param_2.329 = bf16[32,1024]{1,0} parameter(2)
  %convert.667.3 = f32[32,1024]{1,0} convert(bf16[32,1024]{1,0} %param_2.329), metadata={op_type="xla__cast" op_name="xla__cast" source_file="/usr/local/lib/python3.10/site-packages/torch/_ops.py" source_line=756}
  %slice.169.9 = f32[32,1024]{1,0} slice(f32[32,12288]{1,0} %convert.611.56), slice={[0:32], [8192:9216]}, metadata={op_type="aten__mm" op_name="aten__mm" source_file="/usr/local/lib/python3.10/site-packages/torch/_ops.py" source_line=756}
  %param_7.39 = bf16[32,1024]{1,0} parameter(7)
  %convert.655.7 = f32[32,1024]{1,0} convert(bf16[32,1024]{1,0} %param_7.39), metadata={op_type="xla__cast" op_name="xla__cast" source_file="/usr/local/lib/python3.10/site-packages/torch/_ops.py" source_line=756}
  %slice.170.13 = f32[32,1024]{1,0} slice(f32[32,12288]{1,0} %convert.611.56), slice={[0:32], [9216:10240]}, metadata={op_type="aten__mm" op_name="aten__mm" source_file="/usr/local/lib/python3.10/site-packages/torch/_ops.py" source_line=756}
  %param_6.55 = bf16[32,1024]{1,0} parameter(6)
  %convert.643.11 = f32[32,1024]{1,0} convert(bf16[32,1024]{1,0} %param_6.55), metadata={op_type="xla__cast" op_name="xla__cast" source_file="/usr/local/lib/python3.10/site-packages/torch/_ops.py" source_line=756}
  %slice.172.15 = f32[32,1024]{1,0} slice(f32[32,12288]{1,0} %convert.611.56), slice={[0:32], [10240:11264]}, metadata={op_type="aten__mm" op_name="aten__mm" source_file="/usr/local/lib/python3.10/site-packages/torch/_ops.py" source_line=756}
  %param_5.57 = bf16[32,1024]{1,0} parameter(5)
  %convert.629.13 = f32[32,1024]{1,0} convert(bf16[32,1024]{1,0} %param_5.57), metadata={op_type="xla__cast" op_name="xla__cast" source_file="/usr/local/lib/python3.10/site-packages/torch/_ops.py" source_line=756}
  %slice.174.21 = f32[32,1024]{1,0} slice(f32[32,12288]{1,0} %convert.611.56), slice={[0:32], [11264:12288]}, metadata={op_type="aten__mm" op_name="aten__mm" source_file="/usr/local/lib/python3.10/site-packages/torch/_ops.py" source_line=756}
  %param_4.138 = bf16[32,1,1024]{2,0,1} parameter(4)
  %bitcast.2017.21 = bf16[32,1024]{1,0} bitcast(bf16[32,1,1024]{2,0,1} %param_4.138)
  %convert.615.21 = f32[32,1024]{1,0} convert(bf16[32,1024]{1,0} %bitcast.2017.21), metadata={op_type="xla__cast" op_name="xla__cast" source_file="/usr/local/lib/python3.10/site-packages/torch/_ops.py" source_line=756}
  %add.166.19 = f32[32,1024]{1,0} add(f32[32,1024]{1,0} %slice.174.21, f32[32,1024]{1,0} %convert.615.21), metadata={op_type="aten__add" op_name="aten__add.520/aten__add" source_file="/usr/local/lib/python3.10/site-packages/torch/_ops.py" source_line=756}
  %add.168.13 = f32[32,1024]{1,0} add(f32[32,1024]{1,0} %convert.629.13, f32[32,1024]{1,0} %add.166.19), metadata={op_type="aten__add" op_name="aten__add.525/aten__add" source_file="/usr/local/lib/python3.10/site-packages/torch/_ops.py" source_line=756}
  %add.169.13 = f32[32,1024]{1,0} add(f32[32,1024]{1,0} %slice.172.15, f32[32,1024]{1,0} %add.168.13), metadata={op_type="aten__add" op_name="aten__add.538/aten__add" source_file="/usr/local/lib/python3.10/site-packages/torch/_ops.py" source_line=756}
  %add.171.11 = f32[32,1024]{1,0} add(f32[32,1024]{1,0} %convert.643.11, f32[32,1024]{1,0} %add.169.13), metadata={op_type="aten__add" op_name="aten__add.543/aten__add" source_file="/usr/local/lib/python3.10/site-packages/torch/_ops.py" source_line=756}
  %add.172.11 = f32[32,1024]{1,0} add(f32[32,1024]{1,0} %slice.170.13, f32[32,1024]{1,0} %add.171.11), metadata={op_type="aten__add" op_name="aten__add.556/aten__add" source_file="/usr/local/lib/python3.10/site-packages/torch/_ops.py" source_line=756}
  %add.174.7 = f32[32,1024]{1,0} add(f32[32,1024]{1,0} %convert.655.7, f32[32,1024]{1,0} %add.172.11), metadata={op_type="aten__add" op_name="aten__add.561/aten__add" source_file="/usr/local/lib/python3.10/site-packages/torch/_ops.py" source_line=756}
  %add.175.7 = f32[32,1024]{1,0} add(f32[32,1024]{1,0} %slice.169.9, f32[32,1024]{1,0} %add.174.7), metadata={op_type="aten__add" op_name="aten__add.574/aten__add" source_file="/usr/local/lib/python3.10/site-packages/torch/_ops.py" source_line=756}
  %add.177.3 = f32[32,1024]{1,0} add(f32[32,1024]{1,0} %convert.667.3, f32[32,1024]{1,0} %add.175.7), metadata={op_type="aten__add" op_name="aten__add.579/aten__add" source_file="/usr/local/lib/python3.10/site-packages/torch/_ops.py" source_line=756}
  %add.178.3 = f32[32,1024]{1,0} add(f32[32,1024]{1,0} %slice.168.5, f32[32,1024]{1,0} %add.177.3), metadata={op_type="aten__add" op_name="aten__add.592/aten__add" source_file="/usr/local/lib/python3.10/site-packages/torch/_ops.py" source_line=756}
  %multiply.370 = f32[32,1024]{1,0} multiply(f32[32,1024]{1,0} %add.178.3, f32[32,1024]{1,0} %add.178.3), metadata={op_type="aten__pow" op_name="aten__pow" source_file="/usr/local/lib/python3.10/site-packages/torch/_ops.py" source_line=756}
  %constant_359 = f32[] constant(0), metadata={op_type="aten__mean" op_name="aten__mean" source_file="/usr/local/lib/python3.10/site-packages/torch/_ops.py" source_line=756}
  %reduce.37 = f32[32]{0} reduce(f32[32,1024]{1,0} %multiply.370, f32[] %constant_359), dimensions={1}, to_apply=%AddComputation.70, metadata={op_type="aten__mean" op_name="aten__mean" source_file="/usr/local/lib/python3.10/site-packages/torch/_ops.py" source_line=756}
  %constant_358 = f32[] constant(0.0009765625), metadata={op_type="aten__mean" op_name="aten__mean" source_file="/usr/local/lib/python3.10/site-packages/torch/_ops.py" source_line=756}
  %broadcast.423 = f32[32]{0} broadcast(f32[] %constant_358), dimensions={}, metadata={op_type="aten__mean" op_name="aten__mean" source_file="/usr/local/lib/python3.10/site-packages/torch/_ops.py" source_line=756}
  %multiply.369 = f32[32]{0} multiply(f32[32]{0} %reduce.37, f32[32]{0} %broadcast.423), metadata={op_type="aten__mean" op_name="aten__mean" source_file="/usr/local/lib/python3.10/site-packages/torch/_ops.py" source_line=756}
  %param_0.570 = f32[] parameter(0)
  %broadcast.422 = f32[32]{0} broadcast(f32[] %param_0.570), dimensions={}, metadata={op_type="aten__add" op_name="aten__add.521/aten__add" source_file="/usr/local/lib/python3.10/site-packages/torch/_ops.py" source_line=756}
  %add.214 = f32[32]{0} add(f32[32]{0} %multiply.369, f32[32]{0} %broadcast.422), metadata={op_type="aten__add" op_name="aten__add.593/aten__add" source_file="/usr/local/lib/python3.10/site-packages/torch/_ops.py" source_line=756}
  %rsqrt.79 = f32[32]{0} rsqrt(f32[32]{0} %add.214), metadata={op_type="aten__rsqrt" op_name="aten__rsqrt" source_file="/usr/local/lib/python3.10/site-packages/torch/_ops.py" source_line=756}
  %broadcast.421 = f32[32,1024]{1,0} broadcast(f32[32]{0} %rsqrt.79), dimensions={0}, metadata={op_type="aten__mul" op_name="aten__mul.594/aten__mul" source_file="/usr/local/lib/python3.10/site-packages/torch/_ops.py" source_line=756}
  %multiply.368 = f32[32,1024]{1,0} multiply(f32[32,1024]{1,0} %add.178.3, f32[32,1024]{1,0} %broadcast.421), metadata={op_type="aten__mul" op_name="aten__mul.594/aten__mul" source_file="/usr/local/lib/python3.10/site-packages/torch/_ops.py" source_line=756}
  %param_1.467 = bf16[1024]{0} parameter(1)
  %convert.668.1 = f32[1024]{0} convert(bf16[1024]{0} %param_1.467), metadata={op_type="xla__cast" op_name="xla__cast" source_file="/usr/local/lib/python3.10/site-packages/torch/_ops.py" source_line=756}
  %broadcast.302.3 = f32[32,1024]{1,0} broadcast(f32[1024]{0} %convert.668.1), dimensions={1}, metadata={op_type="aten__mul" op_name="aten__mul.595/aten__mul" source_file="/usr/local/lib/python3.10/site-packages/torch/_ops.py" source_line=756}
  %multiply.305.3 = f32[32,1024]{1,0} multiply(f32[32,1024]{1,0} %multiply.368, f32[32,1024]{1,0} %broadcast.302.3), metadata={op_type="aten__mul" op_name="aten__mul.595/aten__mul" source_file="/usr/local/lib/python3.10/site-packages/torch/_ops.py" source_line=756}
  ROOT %convert.671.1 = bf16[32,1024]{1,0} convert(f32[32,1024]{1,0} %multiply.305.3), metadata={op_type="xla__cast" op_name="xla__cast" source_file="/usr/local/lib/python3.10/site-packages/torch/_ops.py" source_line=756}
}

%fused_convert.4 (param_0.506: bf16[32,6144]) -> bf16[32,3072] {
  %param_0.506 = bf16[32,6144]{1,0} parameter(0)
  %slice.183.1 = bf16[32,3072]{1,0} slice(bf16[32,6144]{1,0} %param_0.506), slice={[0:32], [0:3072]}, metadata={op_type="xla__select" op_name="xla__select" source_file="/usr/local/lib/python3.10/site-packages/torch/_ops.py" source_line=756}
  %convert.672.8 = f32[32,3072]{1,0} convert(bf16[32,3072]{1,0} %slice.183.1)
  %constant_1_12 = bf16[] constant(1), metadata={op_type="xla__select" op_name="xla__select" source_file="/usr/local/lib/python3.10/site-packages/torch/_ops.py" source_line=756}
  %convert.791.10 = f32[] convert(bf16[] %constant_1_12)
  %broadcast.337.40 = f32[32,3072]{1,0} broadcast(f32[] %convert.791.10), dimensions={}, metadata={op_type="xla__select" op_name="xla__select" source_file="/usr/local/lib/python3.10/site-packages/torch/_ops.py" source_line=756}
  %negate.40.7 = f32[32,3072]{1,0} negate(f32[32,3072]{1,0} %convert.672.8)
  %convert.678.5 = bf16[32,3072]{1,0} convert(f32[32,3072]{1,0} %negate.40.7)
  %exponential.40.3 = bf16[32,3072]{1,0} exponential(bf16[32,3072]{1,0} %convert.678.5)
  %convert.679.1 = f32[32,3072]{1,0} convert(bf16[32,3072]{1,0} %exponential.40.3)
  %add.179.3 = f32[32,3072]{1,0} add(f32[32,3072]{1,0} %broadcast.337.40, f32[32,3072]{1,0} %convert.679.1)
  %divide.40.3 = f32[32,3072]{1,0} divide(f32[32,3072]{1,0} %broadcast.337.40, f32[32,3072]{1,0} %add.179.3), metadata={op_type="aten__silu" op_name="aten__silu" source_file="/usr/local/lib/python3.10/site-packages/torch/_ops.py" source_line=756}
  %multiply.306.5 = f32[32,3072]{1,0} multiply(f32[32,3072]{1,0} %convert.672.8, f32[32,3072]{1,0} %divide.40.3), metadata={op_type="aten__silu" op_name="aten__silu" source_file="/usr/local/lib/python3.10/site-packages/torch/_ops.py" source_line=756}
  %slice.184.1 = bf16[32,3072]{1,0} slice(bf16[32,6144]{1,0} %param_0.506), slice={[0:32], [3072:6144]}, metadata={op_type="xla__select" op_name="xla__select" source_file="/usr/local/lib/python3.10/site-packages/torch/_ops.py" source_line=756}
  %convert.681.1 = f32[32,3072]{1,0} convert(bf16[32,3072]{1,0} %slice.184.1), metadata={op_type="xla__cast" op_name="xla__cast" source_file="/usr/local/lib/python3.10/site-packages/torch/_ops.py" source_line=756}
  %multiply.307.3 = f32[32,3072]{1,0} multiply(f32[32,3072]{1,0} %multiply.306.5, f32[32,3072]{1,0} %convert.681.1), metadata={op_type="aten__mul" op_name="aten__mul.596/aten__mul" source_file="/usr/local/lib/python3.10/site-packages/torch/_ops.py" source_line=756}
  ROOT %convert.683.1 = bf16[32,3072]{1,0} convert(f32[32,3072]{1,0} %multiply.307.3), metadata={op_type="xla__cast" op_name="xla__cast" source_file="/usr/local/lib/python3.10/site-packages/torch/_ops.py" source_line=756}
}

%fused_add (param_0.461: bf16[32,12288], param_1.469: bf16[32,1024], param_2.327: bf16[32,1024], param_3.263: bf16[32,1,1024], param_4.135: bf16[32,1024], param_5.53: bf16[32,1024], param_6.50: bf16[32,1024]) -> f32[32,1024] {
  %param_0.461 = bf16[32,12288]{1,0} parameter(0)
  %convert.611.24 = f32[32,12288]{1,0} convert(bf16[32,12288]{1,0} %param_0.461), metadata={op_type="xla__cast" op_name="xla__cast" source_file="/usr/local/lib/python3.10/site-packages/torch/_ops.py" source_line=756}
  %slice.167.3 = f32[32,1024]{1,0} slice(f32[32,12288]{1,0} %convert.611.24), slice={[0:32], [6144:7168]}, metadata={op_type="aten__mm" op_name="aten__mm" source_file="/usr/local/lib/python3.10/site-packages/torch/_ops.py" source_line=756}
  %param_1.469 = bf16[32,1024]{1,0} parameter(1)
  %convert.685.1 = f32[32,1024]{1,0} convert(bf16[32,1024]{1,0} %param_1.469), metadata={op_type="xla__cast" op_name="xla__cast" source_file="/usr/local/lib/python3.10/site-packages/torch/_ops.py" source_line=756}
  %slice.168.7 = f32[32,1024]{1,0} slice(f32[32,12288]{1,0} %convert.611.24), slice={[0:32], [7168:8192]}, metadata={op_type="aten__mm" op_name="aten__mm" source_file="/usr/local/lib/python3.10/site-packages/torch/_ops.py" source_line=756}
  %param_2.327 = bf16[32,1024]{1,0} parameter(2)
  %convert.667.5 = f32[32,1024]{1,0} convert(bf16[32,1024]{1,0} %param_2.327), metadata={op_type="xla__cast" op_name="xla__cast" source_file="/usr/local/lib/python3.10/site-packages/torch/_ops.py" source_line=756}
  %slice.169.7 = f32[32,1024]{1,0} slice(f32[32,12288]{1,0} %convert.611.24), slice={[0:32], [8192:9216]}, metadata={op_type="aten__mm" op_name="aten__mm" source_file="/usr/local/lib/python3.10/site-packages/torch/_ops.py" source_line=756}
  %param_6.50 = bf16[32,1024]{1,0} parameter(6)
  %convert.655.5 = f32[32,1024]{1,0} convert(bf16[32,1024]{1,0} %param_6.50), metadata={op_type="xla__cast" op_name="xla__cast" source_file="/usr/local/lib/python3.10/site-packages/torch/_ops.py" source_line=756}
  %slice.170.11 = f32[32,1024]{1,0} slice(f32[32,12288]{1,0} %convert.611.24), slice={[0:32], [9216:10240]}, metadata={op_type="aten__mm" op_name="aten__mm" source_file="/usr/local/lib/python3.10/site-packages/torch/_ops.py" source_line=756}
  %param_5.53 = bf16[32,1024]{1,0} parameter(5)
  %convert.643.9 = f32[32,1024]{1,0} convert(bf16[32,1024]{1,0} %param_5.53), metadata={op_type="xla__cast" op_name="xla__cast" source_file="/usr/local/lib/python3.10/site-packages/torch/_ops.py" source_line=756}
  %slice.172.13 = f32[32,1024]{1,0} slice(f32[32,12288]{1,0} %convert.611.24), slice={[0:32], [10240:11264]}, metadata={op_type="aten__mm" op_name="aten__mm" source_file="/usr/local/lib/python3.10/site-packages/torch/_ops.py" source_line=756}
  %param_4.135 = bf16[32,1024]{1,0} parameter(4)
  %convert.629.11 = f32[32,1024]{1,0} convert(bf16[32,1024]{1,0} %param_4.135), metadata={op_type="xla__cast" op_name="xla__cast" source_file="/usr/local/lib/python3.10/site-packages/torch/_ops.py" source_line=756}
  %slice.174.19 = f32[32,1024]{1,0} slice(f32[32,12288]{1,0} %convert.611.24), slice={[0:32], [11264:12288]}, metadata={op_type="aten__mm" op_name="aten__mm" source_file="/usr/local/lib/python3.10/site-packages/torch/_ops.py" source_line=756}
  %param_3.263 = bf16[32,1,1024]{2,0,1} parameter(3)
  %bitcast.2017.19 = bf16[32,1024]{1,0} bitcast(bf16[32,1,1024]{2,0,1} %param_3.263)
  %convert.615.19 = f32[32,1024]{1,0} convert(bf16[32,1024]{1,0} %bitcast.2017.19), metadata={op_type="xla__cast" op_name="xla__cast" source_file="/usr/local/lib/python3.10/site-packages/torch/_ops.py" source_line=756}
  %add.166.17 = f32[32,1024]{1,0} add(f32[32,1024]{1,0} %slice.174.19, f32[32,1024]{1,0} %convert.615.19), metadata={op_type="aten__add" op_name="aten__add.520/aten__add" source_file="/usr/local/lib/python3.10/site-packages/torch/_ops.py" source_line=756}
  %add.168.11 = f32[32,1024]{1,0} add(f32[32,1024]{1,0} %convert.629.11, f32[32,1024]{1,0} %add.166.17), metadata={op_type="aten__add" op_name="aten__add.525/aten__add" source_file="/usr/local/lib/python3.10/site-packages/torch/_ops.py" source_line=756}
  %add.169.11 = f32[32,1024]{1,0} add(f32[32,1024]{1,0} %slice.172.13, f32[32,1024]{1,0} %add.168.11), metadata={op_type="aten__add" op_name="aten__add.538/aten__add" source_file="/usr/local/lib/python3.10/site-packages/torch/_ops.py" source_line=756}
  %add.171.9 = f32[32,1024]{1,0} add(f32[32,1024]{1,0} %convert.643.9, f32[32,1024]{1,0} %add.169.11), metadata={op_type="aten__add" op_name="aten__add.543/aten__add" source_file="/usr/local/lib/python3.10/site-packages/torch/_ops.py" source_line=756}
  %add.172.9 = f32[32,1024]{1,0} add(f32[32,1024]{1,0} %slice.170.11, f32[32,1024]{1,0} %add.171.9), metadata={op_type="aten__add" op_name="aten__add.556/aten__add" source_file="/usr/local/lib/python3.10/site-packages/torch/_ops.py" source_line=756}
  %add.174.5 = f32[32,1024]{1,0} add(f32[32,1024]{1,0} %convert.655.5, f32[32,1024]{1,0} %add.172.9), metadata={op_type="aten__add" op_name="aten__add.561/aten__add" source_file="/usr/local/lib/python3.10/site-packages/torch/_ops.py" source_line=756}
  %add.175.5 = f32[32,1024]{1,0} add(f32[32,1024]{1,0} %slice.169.7, f32[32,1024]{1,0} %add.174.5), metadata={op_type="aten__add" op_name="aten__add.574/aten__add" source_file="/usr/local/lib/python3.10/site-packages/torch/_ops.py" source_line=756}
  %add.177.5 = f32[32,1024]{1,0} add(f32[32,1024]{1,0} %convert.667.5, f32[32,1024]{1,0} %add.175.5), metadata={op_type="aten__add" op_name="aten__add.579/aten__add" source_file="/usr/local/lib/python3.10/site-packages/torch/_ops.py" source_line=756}
  %add.178.5 = f32[32,1024]{1,0} add(f32[32,1024]{1,0} %slice.168.7, f32[32,1024]{1,0} %add.177.5), metadata={op_type="aten__add" op_name="aten__add.592/aten__add" source_file="/usr/local/lib/python3.10/site-packages/torch/_ops.py" source_line=756}
  %add.180.1 = f32[32,1024]{1,0} add(f32[32,1024]{1,0} %convert.685.1, f32[32,1024]{1,0} %add.178.5), metadata={op_type="aten__add" op_name="aten__add.597/aten__add" source_file="/usr/local/lib/python3.10/site-packages/torch/_ops.py" source_line=756}
  ROOT %add.181.1 = f32[32,1024]{1,0} add(f32[32,1024]{1,0} %slice.167.3, f32[32,1024]{1,0} %add.180.1), metadata={op_type="aten__add" op_name="aten__add.610/aten__add" source_file="/usr/local/lib/python3.10/site-packages/torch/_ops.py" source_line=756}
}

%fused_computation.134 (param_0.555: f32[32,1024], param_1.449: f32[], param_2.253: bf16[1024]) -> bf16[32,1024] {
  %param_0.555 = f32[32,1024]{1,0} parameter(0)
  %multiply.378 = f32[32,1024]{1,0} multiply(f32[32,1024]{1,0} %param_0.555, f32[32,1024]{1,0} %param_0.555), metadata={op_type="aten__pow" op_name="aten__pow" source_file="/usr/local/lib/python3.10/site-packages/torch/_ops.py" source_line=756}
  %constant_367 = f32[] constant(0), metadata={op_type="aten__mean" op_name="aten__mean" source_file="/usr/local/lib/python3.10/site-packages/torch/_ops.py" source_line=756}
  %reduce.39 = f32[32]{0} reduce(f32[32,1024]{1,0} %multiply.378, f32[] %constant_367), dimensions={1}, to_apply=%AddComputation.70, metadata={op_type="aten__mean" op_name="aten__mean" source_file="/usr/local/lib/python3.10/site-packages/torch/_ops.py" source_line=756}
  %constant_366 = f32[] constant(0.0009765625), metadata={op_type="aten__mean" op_name="aten__mean" source_file="/usr/local/lib/python3.10/site-packages/torch/_ops.py" source_line=756}
  %broadcast.430 = f32[32]{0} broadcast(f32[] %constant_366), dimensions={}, metadata={op_type="aten__mean" op_name="aten__mean" source_file="/usr/local/lib/python3.10/site-packages/torch/_ops.py" source_line=756}
  %multiply.377 = f32[32]{0} multiply(f32[32]{0} %reduce.39, f32[32]{0} %broadcast.430), metadata={op_type="aten__mean" op_name="aten__mean" source_file="/usr/local/lib/python3.10/site-packages/torch/_ops.py" source_line=756}
  %param_1.449 = f32[] parameter(1)
  %broadcast.429 = f32[32]{0} broadcast(f32[] %param_1.449), dimensions={}, metadata={op_type="aten__add" op_name="aten__add.521/aten__add" source_file="/usr/local/lib/python3.10/site-packages/torch/_ops.py" source_line=756}
  %add.216 = f32[32]{0} add(f32[32]{0} %multiply.377, f32[32]{0} %broadcast.429), metadata={op_type="aten__add" op_name="aten__add.611/aten__add" source_file="/usr/local/lib/python3.10/site-packages/torch/_ops.py" source_line=756}
  %rsqrt.81 = f32[32]{0} rsqrt(f32[32]{0} %add.216), metadata={op_type="aten__rsqrt" op_name="aten__rsqrt" source_file="/usr/local/lib/python3.10/site-packages/torch/_ops.py" source_line=756}
  %broadcast.428 = f32[32,1024]{1,0} broadcast(f32[32]{0} %rsqrt.81), dimensions={0}, metadata={op_type="aten__mul" op_name="aten__mul.612/aten__mul" source_file="/usr/local/lib/python3.10/site-packages/torch/_ops.py" source_line=756}
  %multiply.376 = f32[32,1024]{1,0} multiply(f32[32,1024]{1,0} %param_0.555, f32[32,1024]{1,0} %broadcast.428), metadata={op_type="aten__mul" op_name="aten__mul.612/aten__mul" source_file="/usr/local/lib/python3.10/site-packages/torch/_ops.py" source_line=756}
  %param_2.253 = bf16[1024]{0} parameter(2)
  %convert.686.1 = f32[1024]{0} convert(bf16[1024]{0} %param_2.253), metadata={op_type="xla__cast" op_name="xla__cast" source_file="/usr/local/lib/python3.10/site-packages/torch/_ops.py" source_line=756}
  %broadcast.306.3 = f32[32,1024]{1,0} broadcast(f32[1024]{0} %convert.686.1), dimensions={1}, metadata={op_type="aten__mul" op_name="aten__mul.613/aten__mul" source_file="/usr/local/lib/python3.10/site-packages/torch/_ops.py" source_line=756}
  %multiply.309.3 = f32[32,1024]{1,0} multiply(f32[32,1024]{1,0} %multiply.376, f32[32,1024]{1,0} %broadcast.306.3), metadata={op_type="aten__mul" op_name="aten__mul.613/aten__mul" source_file="/usr/local/lib/python3.10/site-packages/torch/_ops.py" source_line=756}
  ROOT %convert.687.1 = bf16[32,1024]{1,0} convert(f32[32,1024]{1,0} %multiply.309.3), metadata={op_type="xla__cast" op_name="xla__cast" source_file="/usr/local/lib/python3.10/site-packages/torch/_ops.py" source_line=756}
}

%fused_convert.5 (param_0.508: bf16[32,6144]) -> bf16[32,3072] {
  %param_0.508 = bf16[32,6144]{1,0} parameter(0)
  %slice.185.1 = bf16[32,3072]{1,0} slice(bf16[32,6144]{1,0} %param_0.508), slice={[0:32], [0:3072]}, metadata={op_type="xla__select" op_name="xla__select" source_file="/usr/local/lib/python3.10/site-packages/torch/_ops.py" source_line=756}
  %convert.690.8 = f32[32,3072]{1,0} convert(bf16[32,3072]{1,0} %slice.185.1)
  %constant_1_1 = bf16[] constant(1), metadata={op_type="xla__select" op_name="xla__select" source_file="/usr/local/lib/python3.10/site-packages/torch/_ops.py" source_line=756}
  %convert.791.12 = f32[] convert(bf16[] %constant_1_1)
  %broadcast.337.38 = f32[32,3072]{1,0} broadcast(f32[] %convert.791.12), dimensions={}, metadata={op_type="xla__select" op_name="xla__select" source_file="/usr/local/lib/python3.10/site-packages/torch/_ops.py" source_line=756}
  %negate.41.7 = f32[32,3072]{1,0} negate(f32[32,3072]{1,0} %convert.690.8)
  %convert.694.5 = bf16[32,3072]{1,0} convert(f32[32,3072]{1,0} %negate.41.7)
  %exponential.41.3 = bf16[32,3072]{1,0} exponential(bf16[32,3072]{1,0} %convert.694.5)
  %convert.695.1 = f32[32,3072]{1,0} convert(bf16[32,3072]{1,0} %exponential.41.3)
  %add.182.3 = f32[32,3072]{1,0} add(f32[32,3072]{1,0} %broadcast.337.38, f32[32,3072]{1,0} %convert.695.1)
  %divide.41.3 = f32[32,3072]{1,0} divide(f32[32,3072]{1,0} %broadcast.337.38, f32[32,3072]{1,0} %add.182.3), metadata={op_type="aten__silu" op_name="aten__silu" source_file="/usr/local/lib/python3.10/site-packages/torch/_ops.py" source_line=756}
  %multiply.310.5 = f32[32,3072]{1,0} multiply(f32[32,3072]{1,0} %convert.690.8, f32[32,3072]{1,0} %divide.41.3), metadata={op_type="aten__silu" op_name="aten__silu" source_file="/usr/local/lib/python3.10/site-packages/torch/_ops.py" source_line=756}
  %slice.186.1 = bf16[32,3072]{1,0} slice(bf16[32,6144]{1,0} %param_0.508), slice={[0:32], [3072:6144]}, metadata={op_type="xla__select" op_name="xla__select" source_file="/usr/local/lib/python3.10/site-packages/torch/_ops.py" source_line=756}
  %convert.696.1 = f32[32,3072]{1,0} convert(bf16[32,3072]{1,0} %slice.186.1), metadata={op_type="xla__cast" op_name="xla__cast" source_file="/usr/local/lib/python3.10/site-packages/torch/_ops.py" source_line=756}
  %multiply.311.3 = f32[32,3072]{1,0} multiply(f32[32,3072]{1,0} %multiply.310.5, f32[32,3072]{1,0} %convert.696.1), metadata={op_type="aten__mul" op_name="aten__mul.614/aten__mul" source_file="/usr/local/lib/python3.10/site-packages/torch/_ops.py" source_line=756}
  ROOT %convert.697.1 = bf16[32,3072]{1,0} convert(f32[32,3072]{1,0} %multiply.311.3), metadata={op_type="xla__cast" op_name="xla__cast" source_file="/usr/local/lib/python3.10/site-packages/torch/_ops.py" source_line=756}
}

%fused_computation.135 (param_0.567: f32[], param_1.463: bf16[1024], param_2.272: f32[32,1024], param_3.201: bf16[32,1024], param_4.71: bf16[32,12288]) -> bf16[32,1024] {
  %param_4.71 = bf16[32,12288]{1,0} parameter(4)
  %convert.611.52 = f32[32,12288]{1,0} convert(bf16[32,12288]{1,0} %param_4.71), metadata={op_type="xla__cast" op_name="xla__cast" source_file="/usr/local/lib/python3.10/site-packages/torch/_ops.py" source_line=756}
  %slice.166.5 = f32[32,1024]{1,0} slice(f32[32,12288]{1,0} %convert.611.52), slice={[0:32], [5120:6144]}, metadata={op_type="aten__mm" op_name="aten__mm" source_file="/usr/local/lib/python3.10/site-packages/torch/_ops.py" source_line=756}
  %param_3.201 = bf16[32,1024]{1,0} parameter(3)
  %convert.698.3 = f32[32,1024]{1,0} convert(bf16[32,1024]{1,0} %param_3.201), metadata={op_type="xla__cast" op_name="xla__cast" source_file="/usr/local/lib/python3.10/site-packages/torch/_ops.py" source_line=756}
  %param_2.272 = f32[32,1024]{1,0} parameter(2)
  %add.184.3 = f32[32,1024]{1,0} add(f32[32,1024]{1,0} %convert.698.3, f32[32,1024]{1,0} %param_2.272), metadata={op_type="aten__add" op_name="aten__add.615/aten__add" source_file="/usr/local/lib/python3.10/site-packages/torch/_ops.py" source_line=756}
  %add.185.3 = f32[32,1024]{1,0} add(f32[32,1024]{1,0} %slice.166.5, f32[32,1024]{1,0} %add.184.3), metadata={op_type="aten__add" op_name="aten__add.628/aten__add" source_file="/usr/local/lib/python3.10/site-packages/torch/_ops.py" source_line=756}
  %multiply.386 = f32[32,1024]{1,0} multiply(f32[32,1024]{1,0} %add.185.3, f32[32,1024]{1,0} %add.185.3), metadata={op_type="aten__pow" op_name="aten__pow" source_file="/usr/local/lib/python3.10/site-packages/torch/_ops.py" source_line=756}
  %constant_372 = f32[] constant(0), metadata={op_type="aten__mean" op_name="aten__mean" source_file="/usr/local/lib/python3.10/site-packages/torch/_ops.py" source_line=756}
  %reduce.41 = f32[32]{0} reduce(f32[32,1024]{1,0} %multiply.386, f32[] %constant_372), dimensions={1}, to_apply=%AddComputation.70, metadata={op_type="aten__mean" op_name="aten__mean" source_file="/usr/local/lib/python3.10/site-packages/torch/_ops.py" source_line=756}
  %constant_371 = f32[] constant(0.0009765625), metadata={op_type="aten__mean" op_name="aten__mean" source_file="/usr/local/lib/python3.10/site-packages/torch/_ops.py" source_line=756}
  %broadcast.436 = f32[32]{0} broadcast(f32[] %constant_371), dimensions={}, metadata={op_type="aten__mean" op_name="aten__mean" source_file="/usr/local/lib/python3.10/site-packages/torch/_ops.py" source_line=756}
  %multiply.385 = f32[32]{0} multiply(f32[32]{0} %reduce.41, f32[32]{0} %broadcast.436), metadata={op_type="aten__mean" op_name="aten__mean" source_file="/usr/local/lib/python3.10/site-packages/torch/_ops.py" source_line=756}
  %param_0.567 = f32[] parameter(0)
  %broadcast.435 = f32[32]{0} broadcast(f32[] %param_0.567), dimensions={}, metadata={op_type="aten__add" op_name="aten__add.521/aten__add" source_file="/usr/local/lib/python3.10/site-packages/torch/_ops.py" source_line=756}
  %add.219 = f32[32]{0} add(f32[32]{0} %multiply.385, f32[32]{0} %broadcast.435), metadata={op_type="aten__add" op_name="aten__add.629/aten__add" source_file="/usr/local/lib/python3.10/site-packages/torch/_ops.py" source_line=756}
  %rsqrt.83 = f32[32]{0} rsqrt(f32[32]{0} %add.219), metadata={op_type="aten__rsqrt" op_name="aten__rsqrt" source_file="/usr/local/lib/python3.10/site-packages/torch/_ops.py" source_line=756}
  %broadcast.434 = f32[32,1024]{1,0} broadcast(f32[32]{0} %rsqrt.83), dimensions={0}, metadata={op_type="aten__mul" op_name="aten__mul.630/aten__mul" source_file="/usr/local/lib/python3.10/site-packages/torch/_ops.py" source_line=756}
  %multiply.383 = f32[32,1024]{1,0} multiply(f32[32,1024]{1,0} %add.185.3, f32[32,1024]{1,0} %broadcast.434), metadata={op_type="aten__mul" op_name="aten__mul.630/aten__mul" source_file="/usr/local/lib/python3.10/site-packages/torch/_ops.py" source_line=756}
  %param_1.463 = bf16[1024]{0} parameter(1)
  %convert.699.1 = f32[1024]{0} convert(bf16[1024]{0} %param_1.463), metadata={op_type="xla__cast" op_name="xla__cast" source_file="/usr/local/lib/python3.10/site-packages/torch/_ops.py" source_line=756}
  %broadcast.310.3 = f32[32,1024]{1,0} broadcast(f32[1024]{0} %convert.699.1), dimensions={1}, metadata={op_type="aten__mul" op_name="aten__mul.631/aten__mul" source_file="/usr/local/lib/python3.10/site-packages/torch/_ops.py" source_line=756}
  %multiply.313.3 = f32[32,1024]{1,0} multiply(f32[32,1024]{1,0} %multiply.383, f32[32,1024]{1,0} %broadcast.310.3), metadata={op_type="aten__mul" op_name="aten__mul.631/aten__mul" source_file="/usr/local/lib/python3.10/site-packages/torch/_ops.py" source_line=756}
  ROOT %convert.701.1 = bf16[32,1024]{1,0} convert(f32[32,1024]{1,0} %multiply.313.3), metadata={op_type="xla__cast" op_name="xla__cast" source_file="/usr/local/lib/python3.10/site-packages/torch/_ops.py" source_line=756}
}

%fused_convert.6 (param_0.501: bf16[32,6144]) -> bf16[32,3072] {
  %param_0.501 = bf16[32,6144]{1,0} parameter(0)
  %slice.187.1 = bf16[32,3072]{1,0} slice(bf16[32,6144]{1,0} %param_0.501), slice={[0:32], [0:3072]}, metadata={op_type="xla__select" op_name="xla__select" source_file="/usr/local/lib/python3.10/site-packages/torch/_ops.py" source_line=756}
  %convert.702.8 = f32[32,3072]{1,0} convert(bf16[32,3072]{1,0} %slice.187.1)
  %constant_1_7 = bf16[] constant(1), metadata={op_type="xla__select" op_name="xla__select" source_file="/usr/local/lib/python3.10/site-packages/torch/_ops.py" source_line=756}
  %convert.791.5 = f32[] convert(bf16[] %constant_1_7)
  %broadcast.337.36 = f32[32,3072]{1,0} broadcast(f32[] %convert.791.5), dimensions={}, metadata={op_type="xla__select" op_name="xla__select" source_file="/usr/local/lib/python3.10/site-packages/torch/_ops.py" source_line=756}
  %negate.42.7 = f32[32,3072]{1,0} negate(f32[32,3072]{1,0} %convert.702.8)
  %convert.708.5 = bf16[32,3072]{1,0} convert(f32[32,3072]{1,0} %negate.42.7)
  %exponential.42.3 = bf16[32,3072]{1,0} exponential(bf16[32,3072]{1,0} %convert.708.5)
  %convert.709.1 = f32[32,3072]{1,0} convert(bf16[32,3072]{1,0} %exponential.42.3)
  %add.186.3 = f32[32,3072]{1,0} add(f32[32,3072]{1,0} %broadcast.337.36, f32[32,3072]{1,0} %convert.709.1)
  %divide.42.3 = f32[32,3072]{1,0} divide(f32[32,3072]{1,0} %broadcast.337.36, f32[32,3072]{1,0} %add.186.3), metadata={op_type="aten__silu" op_name="aten__silu" source_file="/usr/local/lib/python3.10/site-packages/torch/_ops.py" source_line=756}
  %multiply.314.5 = f32[32,3072]{1,0} multiply(f32[32,3072]{1,0} %convert.702.8, f32[32,3072]{1,0} %divide.42.3), metadata={op_type="aten__silu" op_name="aten__silu" source_file="/usr/local/lib/python3.10/site-packages/torch/_ops.py" source_line=756}
  %slice.188.1 = bf16[32,3072]{1,0} slice(bf16[32,6144]{1,0} %param_0.501), slice={[0:32], [3072:6144]}, metadata={op_type="xla__select" op_name="xla__select" source_file="/usr/local/lib/python3.10/site-packages/torch/_ops.py" source_line=756}
  %convert.710.1 = f32[32,3072]{1,0} convert(bf16[32,3072]{1,0} %slice.188.1), metadata={op_type="xla__cast" op_name="xla__cast" source_file="/usr/local/lib/python3.10/site-packages/torch/_ops.py" source_line=756}
  %multiply.315.3 = f32[32,3072]{1,0} multiply(f32[32,3072]{1,0} %multiply.314.5, f32[32,3072]{1,0} %convert.710.1), metadata={op_type="aten__mul" op_name="aten__mul.632/aten__mul" source_file="/usr/local/lib/python3.10/site-packages/torch/_ops.py" source_line=756}
  ROOT %convert.712.1 = bf16[32,3072]{1,0} convert(f32[32,3072]{1,0} %multiply.315.3), metadata={op_type="xla__cast" op_name="xla__cast" source_file="/usr/local/lib/python3.10/site-packages/torch/_ops.py" source_line=756}
}

%fused_computation.136 (param_0.602: f32[], param_1.497: bf16[1024], param_2.318: f32[32,1024], param_3.250: bf16[32,1024], param_4.118: bf16[32,12288], param_5.33: bf16[32,1024]) -> bf16[32,1024] {
  %param_4.118 = bf16[32,12288]{1,0} parameter(4)
  %convert.611.86 = f32[32,12288]{1,0} convert(bf16[32,12288]{1,0} %param_4.118), metadata={op_type="xla__cast" op_name="xla__cast" source_file="/usr/local/lib/python3.10/site-packages/torch/_ops.py" source_line=756}
  %slice.165.5 = f32[32,1024]{1,0} slice(f32[32,12288]{1,0} %convert.611.86), slice={[0:32], [4096:5120]}, metadata={op_type="aten__mm" op_name="aten__mm" source_file="/usr/local/lib/python3.10/site-packages/torch/_ops.py" source_line=756}
  %param_5.33 = bf16[32,1024]{1,0} parameter(5)
  %convert.713.3 = f32[32,1024]{1,0} convert(bf16[32,1024]{1,0} %param_5.33), metadata={op_type="xla__cast" op_name="xla__cast" source_file="/usr/local/lib/python3.10/site-packages/torch/_ops.py" source_line=756}
  %slice.166.9 = f32[32,1024]{1,0} slice(f32[32,12288]{1,0} %convert.611.86), slice={[0:32], [5120:6144]}, metadata={op_type="aten__mm" op_name="aten__mm" source_file="/usr/local/lib/python3.10/site-packages/torch/_ops.py" source_line=756}
  %param_3.250 = bf16[32,1024]{1,0} parameter(3)
  %convert.698.7 = f32[32,1024]{1,0} convert(bf16[32,1024]{1,0} %param_3.250), metadata={op_type="xla__cast" op_name="xla__cast" source_file="/usr/local/lib/python3.10/site-packages/torch/_ops.py" source_line=756}
  %param_2.318 = f32[32,1024]{1,0} parameter(2)
  %add.184.7 = f32[32,1024]{1,0} add(f32[32,1024]{1,0} %convert.698.7, f32[32,1024]{1,0} %param_2.318), metadata={op_type="aten__add" op_name="aten__add.615/aten__add" source_file="/usr/local/lib/python3.10/site-packages/torch/_ops.py" source_line=756}
  %add.185.7 = f32[32,1024]{1,0} add(f32[32,1024]{1,0} %slice.166.9, f32[32,1024]{1,0} %add.184.7), metadata={op_type="aten__add" op_name="aten__add.628/aten__add" source_file="/usr/local/lib/python3.10/site-packages/torch/_ops.py" source_line=756}
  %add.187.3 = f32[32,1024]{1,0} add(f32[32,1024]{1,0} %convert.713.3, f32[32,1024]{1,0} %add.185.7), metadata={op_type="aten__add" op_name="aten__add.633/aten__add" source_file="/usr/local/lib/python3.10/site-packages/torch/_ops.py" source_line=756}
  %add.188.3 = f32[32,1024]{1,0} add(f32[32,1024]{1,0} %slice.165.5, f32[32,1024]{1,0} %add.187.3), metadata={op_type="aten__add" op_name="aten__add.646/aten__add" source_file="/usr/local/lib/python3.10/site-packages/torch/_ops.py" source_line=756}
  %multiply.394 = f32[32,1024]{1,0} multiply(f32[32,1024]{1,0} %add.188.3, f32[32,1024]{1,0} %add.188.3), metadata={op_type="aten__pow" op_name="aten__pow" source_file="/usr/local/lib/python3.10/site-packages/torch/_ops.py" source_line=756}
  %constant_377 = f32[] constant(0), metadata={op_type="aten__mean" op_name="aten__mean" source_file="/usr/local/lib/python3.10/site-packages/torch/_ops.py" source_line=756}
  %reduce.43 = f32[32]{0} reduce(f32[32,1024]{1,0} %multiply.394, f32[] %constant_377), dimensions={1}, to_apply=%AddComputation.70, metadata={op_type="aten__mean" op_name="aten__mean" source_file="/usr/local/lib/python3.10/site-packages/torch/_ops.py" source_line=756}
  %constant_376 = f32[] constant(0.0009765625), metadata={op_type="aten__mean" op_name="aten__mean" source_file="/usr/local/lib/python3.10/site-packages/torch/_ops.py" source_line=756}
  %broadcast.443 = f32[32]{0} broadcast(f32[] %constant_376), dimensions={}, metadata={op_type="aten__mean" op_name="aten__mean" source_file="/usr/local/lib/python3.10/site-packages/torch/_ops.py" source_line=756}
  %multiply.392 = f32[32]{0} multiply(f32[32]{0} %reduce.43, f32[32]{0} %broadcast.443), metadata={op_type="aten__mean" op_name="aten__mean" source_file="/usr/local/lib/python3.10/site-packages/torch/_ops.py" source_line=756}
  %param_0.602 = f32[] parameter(0)
  %broadcast.441 = f32[32]{0} broadcast(f32[] %param_0.602), dimensions={}, metadata={op_type="aten__add" op_name="aten__add.521/aten__add" source_file="/usr/local/lib/python3.10/site-packages/torch/_ops.py" source_line=756}
  %add.221 = f32[32]{0} add(f32[32]{0} %multiply.392, f32[32]{0} %broadcast.441), metadata={op_type="aten__add" op_name="aten__add.647/aten__add" source_file="/usr/local/lib/python3.10/site-packages/torch/_ops.py" source_line=756}
  %rsqrt.85 = f32[32]{0} rsqrt(f32[32]{0} %add.221), metadata={op_type="aten__rsqrt" op_name="aten__rsqrt" source_file="/usr/local/lib/python3.10/site-packages/torch/_ops.py" source_line=756}
  %broadcast.440 = f32[32,1024]{1,0} broadcast(f32[32]{0} %rsqrt.85), dimensions={0}, metadata={op_type="aten__mul" op_name="aten__mul.648/aten__mul" source_file="/usr/local/lib/python3.10/site-packages/torch/_ops.py" source_line=756}
  %multiply.390 = f32[32,1024]{1,0} multiply(f32[32,1024]{1,0} %add.188.3, f32[32,1024]{1,0} %broadcast.440), metadata={op_type="aten__mul" op_name="aten__mul.648/aten__mul" source_file="/usr/local/lib/python3.10/site-packages/torch/_ops.py" source_line=756}
  %param_1.497 = bf16[1024]{0} parameter(1)
  %convert.714.1 = f32[1024]{0} convert(bf16[1024]{0} %param_1.497), metadata={op_type="xla__cast" op_name="xla__cast" source_file="/usr/local/lib/python3.10/site-packages/torch/_ops.py" source_line=756}
  %broadcast.314.3 = f32[32,1024]{1,0} broadcast(f32[1024]{0} %convert.714.1), dimensions={1}, metadata={op_type="aten__mul" op_name="aten__mul.649/aten__mul" source_file="/usr/local/lib/python3.10/site-packages/torch/_ops.py" source_line=756}
  %multiply.316.3 = f32[32,1024]{1,0} multiply(f32[32,1024]{1,0} %multiply.390, f32[32,1024]{1,0} %broadcast.314.3), metadata={op_type="aten__mul" op_name="aten__mul.649/aten__mul" source_file="/usr/local/lib/python3.10/site-packages/torch/_ops.py" source_line=756}
  ROOT %convert.715.1 = bf16[32,1024]{1,0} convert(f32[32,1024]{1,0} %multiply.316.3), metadata={op_type="xla__cast" op_name="xla__cast" source_file="/usr/local/lib/python3.10/site-packages/torch/_ops.py" source_line=756}
}

%fused_convert.7 (param_0.505: bf16[32,6144]) -> bf16[32,3072] {
  %param_0.505 = bf16[32,6144]{1,0} parameter(0)
  %slice.189.1 = bf16[32,3072]{1,0} slice(bf16[32,6144]{1,0} %param_0.505), slice={[0:32], [0:3072]}, metadata={op_type="xla__select" op_name="xla__select" source_file="/usr/local/lib/python3.10/site-packages/torch/_ops.py" source_line=756}
  %convert.716.8 = f32[32,3072]{1,0} convert(bf16[32,3072]{1,0} %slice.189.1)
  %constant_1_11 = bf16[] constant(1), metadata={op_type="xla__select" op_name="xla__select" source_file="/usr/local/lib/python3.10/site-packages/torch/_ops.py" source_line=756}
  %convert.791.9 = f32[] convert(bf16[] %constant_1_11)
  %broadcast.337.34 = f32[32,3072]{1,0} broadcast(f32[] %convert.791.9), dimensions={}, metadata={op_type="xla__select" op_name="xla__select" source_file="/usr/local/lib/python3.10/site-packages/torch/_ops.py" source_line=756}
  %negate.43.7 = f32[32,3072]{1,0} negate(f32[32,3072]{1,0} %convert.716.8)
  %convert.720.5 = bf16[32,3072]{1,0} convert(f32[32,3072]{1,0} %negate.43.7)
  %exponential.43.3 = bf16[32,3072]{1,0} exponential(bf16[32,3072]{1,0} %convert.720.5)
  %convert.721.1 = f32[32,3072]{1,0} convert(bf16[32,3072]{1,0} %exponential.43.3)
  %add.189.3 = f32[32,3072]{1,0} add(f32[32,3072]{1,0} %broadcast.337.34, f32[32,3072]{1,0} %convert.721.1)
  %divide.43.3 = f32[32,3072]{1,0} divide(f32[32,3072]{1,0} %broadcast.337.34, f32[32,3072]{1,0} %add.189.3), metadata={op_type="aten__silu" op_name="aten__silu" source_file="/usr/local/lib/python3.10/site-packages/torch/_ops.py" source_line=756}
  %multiply.317.5 = f32[32,3072]{1,0} multiply(f32[32,3072]{1,0} %convert.716.8, f32[32,3072]{1,0} %divide.43.3), metadata={op_type="aten__silu" op_name="aten__silu" source_file="/usr/local/lib/python3.10/site-packages/torch/_ops.py" source_line=756}
  %slice.190.1 = bf16[32,3072]{1,0} slice(bf16[32,6144]{1,0} %param_0.505), slice={[0:32], [3072:6144]}, metadata={op_type="xla__select" op_name="xla__select" source_file="/usr/local/lib/python3.10/site-packages/torch/_ops.py" source_line=756}
  %convert.722.1 = f32[32,3072]{1,0} convert(bf16[32,3072]{1,0} %slice.190.1), metadata={op_type="xla__cast" op_name="xla__cast" source_file="/usr/local/lib/python3.10/site-packages/torch/_ops.py" source_line=756}
  %multiply.318.3 = f32[32,3072]{1,0} multiply(f32[32,3072]{1,0} %multiply.317.5, f32[32,3072]{1,0} %convert.722.1), metadata={op_type="aten__mul" op_name="aten__mul.650/aten__mul" source_file="/usr/local/lib/python3.10/site-packages/torch/_ops.py" source_line=756}
  ROOT %convert.723.1 = bf16[32,3072]{1,0} convert(f32[32,3072]{1,0} %multiply.318.3), metadata={op_type="xla__cast" op_name="xla__cast" source_file="/usr/local/lib/python3.10/site-packages/torch/_ops.py" source_line=756}
}

%fused_computation.137 (param_0.564: f32[], param_1.459: bf16[1024], param_2.322: bf16[32,1024], param_3.255: bf16[32,12288], param_4.124: f32[32,1024], param_5.42: bf16[32,1024], param_6.37: bf16[32,1024]) -> bf16[32,1024] {
  %param_3.255 = bf16[32,12288]{1,0} parameter(3)
  %convert.611.48 = f32[32,12288]{1,0} convert(bf16[32,12288]{1,0} %param_3.255), metadata={op_type="xla__cast" op_name="xla__cast" source_file="/usr/local/lib/python3.10/site-packages/torch/_ops.py" source_line=756}
  %slice.164.5 = f32[32,1024]{1,0} slice(f32[32,12288]{1,0} %convert.611.48), slice={[0:32], [3072:4096]}, metadata={op_type="aten__mm" op_name="aten__mm" source_file="/usr/local/lib/python3.10/site-packages/torch/_ops.py" source_line=756}
  %param_2.322 = bf16[32,1024]{1,0} parameter(2)
  %convert.724.3 = f32[32,1024]{1,0} convert(bf16[32,1024]{1,0} %param_2.322), metadata={op_type="xla__cast" op_name="xla__cast" source_file="/usr/local/lib/python3.10/site-packages/torch/_ops.py" source_line=756}
  %slice.165.9 = f32[32,1024]{1,0} slice(f32[32,12288]{1,0} %convert.611.48), slice={[0:32], [4096:5120]}, metadata={op_type="aten__mm" op_name="aten__mm" source_file="/usr/local/lib/python3.10/site-packages/torch/_ops.py" source_line=756}
  %param_6.37 = bf16[32,1024]{1,0} parameter(6)
  %convert.713.7 = f32[32,1024]{1,0} convert(bf16[32,1024]{1,0} %param_6.37), metadata={op_type="xla__cast" op_name="xla__cast" source_file="/usr/local/lib/python3.10/site-packages/torch/_ops.py" source_line=756}
  %slice.166.13 = f32[32,1024]{1,0} slice(f32[32,12288]{1,0} %convert.611.48), slice={[0:32], [5120:6144]}, metadata={op_type="aten__mm" op_name="aten__mm" source_file="/usr/local/lib/python3.10/site-packages/torch/_ops.py" source_line=756}
  %param_5.42 = bf16[32,1024]{1,0} parameter(5)
  %convert.698.11 = f32[32,1024]{1,0} convert(bf16[32,1024]{1,0} %param_5.42), metadata={op_type="xla__cast" op_name="xla__cast" source_file="/usr/local/lib/python3.10/site-packages/torch/_ops.py" source_line=756}
  %param_4.124 = f32[32,1024]{1,0} parameter(4)
  %add.184.11 = f32[32,1024]{1,0} add(f32[32,1024]{1,0} %convert.698.11, f32[32,1024]{1,0} %param_4.124), metadata={op_type="aten__add" op_name="aten__add.615/aten__add" source_file="/usr/local/lib/python3.10/site-packages/torch/_ops.py" source_line=756}
  %add.185.11 = f32[32,1024]{1,0} add(f32[32,1024]{1,0} %slice.166.13, f32[32,1024]{1,0} %add.184.11), metadata={op_type="aten__add" op_name="aten__add.628/aten__add" source_file="/usr/local/lib/python3.10/site-packages/torch/_ops.py" source_line=756}
  %add.187.7 = f32[32,1024]{1,0} add(f32[32,1024]{1,0} %convert.713.7, f32[32,1024]{1,0} %add.185.11), metadata={op_type="aten__add" op_name="aten__add.633/aten__add" source_file="/usr/local/lib/python3.10/site-packages/torch/_ops.py" source_line=756}
  %add.188.7 = f32[32,1024]{1,0} add(f32[32,1024]{1,0} %slice.165.9, f32[32,1024]{1,0} %add.187.7), metadata={op_type="aten__add" op_name="aten__add.646/aten__add" source_file="/usr/local/lib/python3.10/site-packages/torch/_ops.py" source_line=756}
  %add.190.3 = f32[32,1024]{1,0} add(f32[32,1024]{1,0} %convert.724.3, f32[32,1024]{1,0} %add.188.7), metadata={op_type="aten__add" op_name="aten__add.651/aten__add" source_file="/usr/local/lib/python3.10/site-packages/torch/_ops.py" source_line=756}
  %add.191.3 = f32[32,1024]{1,0} add(f32[32,1024]{1,0} %slice.164.5, f32[32,1024]{1,0} %add.190.3), metadata={op_type="aten__add" op_name="aten__add.664/aten__add" source_file="/usr/local/lib/python3.10/site-packages/torch/_ops.py" source_line=756}
  %multiply.401 = f32[32,1024]{1,0} multiply(f32[32,1024]{1,0} %add.191.3, f32[32,1024]{1,0} %add.191.3), metadata={op_type="aten__pow" op_name="aten__pow" source_file="/usr/local/lib/python3.10/site-packages/torch/_ops.py" source_line=756}
  %constant_382 = f32[] constant(0), metadata={op_type="aten__mean" op_name="aten__mean" source_file="/usr/local/lib/python3.10/site-packages/torch/_ops.py" source_line=756}
  %reduce.45 = f32[32]{0} reduce(f32[32,1024]{1,0} %multiply.401, f32[] %constant_382), dimensions={1}, to_apply=%AddComputation.70, metadata={op_type="aten__mean" op_name="aten__mean" source_file="/usr/local/lib/python3.10/site-packages/torch/_ops.py" source_line=756}
  %constant_381 = f32[] constant(0.0009765625), metadata={op_type="aten__mean" op_name="aten__mean" source_file="/usr/local/lib/python3.10/site-packages/torch/_ops.py" source_line=756}
  %broadcast.450 = f32[32]{0} broadcast(f32[] %constant_381), dimensions={}, metadata={op_type="aten__mean" op_name="aten__mean" source_file="/usr/local/lib/python3.10/site-packages/torch/_ops.py" source_line=756}
  %multiply.400 = f32[32]{0} multiply(f32[32]{0} %reduce.45, f32[32]{0} %broadcast.450), metadata={op_type="aten__mean" op_name="aten__mean" source_file="/usr/local/lib/python3.10/site-packages/torch/_ops.py" source_line=756}
  %param_0.564 = f32[] parameter(0)
  %broadcast.449 = f32[32]{0} broadcast(f32[] %param_0.564), dimensions={}, metadata={op_type="aten__add" op_name="aten__add.521/aten__add" source_file="/usr/local/lib/python3.10/site-packages/torch/_ops.py" source_line=756}
  %add.223 = f32[32]{0} add(f32[32]{0} %multiply.400, f32[32]{0} %broadcast.449), metadata={op_type="aten__add" op_name="aten__add.665/aten__add" source_file="/usr/local/lib/python3.10/site-packages/torch/_ops.py" source_line=756}
  %rsqrt.87 = f32[32]{0} rsqrt(f32[32]{0} %add.223), metadata={op_type="aten__rsqrt" op_name="aten__rsqrt" source_file="/usr/local/lib/python3.10/site-packages/torch/_ops.py" source_line=756}
  %broadcast.448 = f32[32,1024]{1,0} broadcast(f32[32]{0} %rsqrt.87), dimensions={0}, metadata={op_type="aten__mul" op_name="aten__mul.666/aten__mul" source_file="/usr/local/lib/python3.10/site-packages/torch/_ops.py" source_line=756}
  %multiply.399 = f32[32,1024]{1,0} multiply(f32[32,1024]{1,0} %add.191.3, f32[32,1024]{1,0} %broadcast.448), metadata={op_type="aten__mul" op_name="aten__mul.666/aten__mul" source_file="/usr/local/lib/python3.10/site-packages/torch/_ops.py" source_line=756}
  %param_1.459 = bf16[1024]{0} parameter(1)
  %convert.725.1 = f32[1024]{0} convert(bf16[1024]{0} %param_1.459), metadata={op_type="xla__cast" op_name="xla__cast" source_file="/usr/local/lib/python3.10/site-packages/torch/_ops.py" source_line=756}
  %broadcast.317.3 = f32[32,1024]{1,0} broadcast(f32[1024]{0} %convert.725.1), dimensions={1}, metadata={op_type="aten__mul" op_name="aten__mul.667/aten__mul" source_file="/usr/local/lib/python3.10/site-packages/torch/_ops.py" source_line=756}
  %multiply.320.3 = f32[32,1024]{1,0} multiply(f32[32,1024]{1,0} %multiply.399, f32[32,1024]{1,0} %broadcast.317.3), metadata={op_type="aten__mul" op_name="aten__mul.667/aten__mul" source_file="/usr/local/lib/python3.10/site-packages/torch/_ops.py" source_line=756}
  ROOT %convert.727.1 = bf16[32,1024]{1,0} convert(f32[32,1024]{1,0} %multiply.320.3), metadata={op_type="xla__cast" op_name="xla__cast" source_file="/usr/local/lib/python3.10/site-packages/torch/_ops.py" source_line=756}
}

%fused_convert.8 (param_0.499: bf16[32,6144]) -> bf16[32,3072] {
  %param_0.499 = bf16[32,6144]{1,0} parameter(0)
  %slice.191.1 = bf16[32,3072]{1,0} slice(bf16[32,6144]{1,0} %param_0.499), slice={[0:32], [0:3072]}, metadata={op_type="xla__select" op_name="xla__select" source_file="/usr/local/lib/python3.10/site-packages/torch/_ops.py" source_line=756}
  %convert.728.8 = f32[32,3072]{1,0} convert(bf16[32,3072]{1,0} %slice.191.1)
  %constant_1_5 = bf16[] constant(1), metadata={op_type="xla__select" op_name="xla__select" source_file="/usr/local/lib/python3.10/site-packages/torch/_ops.py" source_line=756}
  %convert.791.3 = f32[] convert(bf16[] %constant_1_5)
  %broadcast.337.32 = f32[32,3072]{1,0} broadcast(f32[] %convert.791.3), dimensions={}, metadata={op_type="xla__select" op_name="xla__select" source_file="/usr/local/lib/python3.10/site-packages/torch/_ops.py" source_line=756}
  %negate.44.7 = f32[32,3072]{1,0} negate(f32[32,3072]{1,0} %convert.728.8)
  %convert.732.5 = bf16[32,3072]{1,0} convert(f32[32,3072]{1,0} %negate.44.7)
  %exponential.44.3 = bf16[32,3072]{1,0} exponential(bf16[32,3072]{1,0} %convert.732.5)
  %convert.734.1 = f32[32,3072]{1,0} convert(bf16[32,3072]{1,0} %exponential.44.3)
  %add.192.3 = f32[32,3072]{1,0} add(f32[32,3072]{1,0} %broadcast.337.32, f32[32,3072]{1,0} %convert.734.1)
  %divide.44.3 = f32[32,3072]{1,0} divide(f32[32,3072]{1,0} %broadcast.337.32, f32[32,3072]{1,0} %add.192.3), metadata={op_type="aten__silu" op_name="aten__silu" source_file="/usr/local/lib/python3.10/site-packages/torch/_ops.py" source_line=756}
  %multiply.322.5 = f32[32,3072]{1,0} multiply(f32[32,3072]{1,0} %convert.728.8, f32[32,3072]{1,0} %divide.44.3), metadata={op_type="aten__silu" op_name="aten__silu" source_file="/usr/local/lib/python3.10/site-packages/torch/_ops.py" source_line=756}
  %slice.192.1 = bf16[32,3072]{1,0} slice(bf16[32,6144]{1,0} %param_0.499), slice={[0:32], [3072:6144]}, metadata={op_type="xla__select" op_name="xla__select" source_file="/usr/local/lib/python3.10/site-packages/torch/_ops.py" source_line=756}
  %convert.735.1 = f32[32,3072]{1,0} convert(bf16[32,3072]{1,0} %slice.192.1), metadata={op_type="xla__cast" op_name="xla__cast" source_file="/usr/local/lib/python3.10/site-packages/torch/_ops.py" source_line=756}
  %multiply.323.3 = f32[32,3072]{1,0} multiply(f32[32,3072]{1,0} %multiply.322.5, f32[32,3072]{1,0} %convert.735.1), metadata={op_type="aten__mul" op_name="aten__mul.668/aten__mul" source_file="/usr/local/lib/python3.10/site-packages/torch/_ops.py" source_line=756}
  ROOT %convert.736.1 = bf16[32,3072]{1,0} convert(f32[32,3072]{1,0} %multiply.323.3), metadata={op_type="xla__cast" op_name="xla__cast" source_file="/usr/local/lib/python3.10/site-packages/torch/_ops.py" source_line=756}
}

%fused_add.1 (param_0.477: bf16[32,12288], param_1.461: bf16[32,1024], param_2.320: bf16[32,1024], param_3.253: f32[32,1024], param_4.122: bf16[32,1024], param_5.38: bf16[32,1024]) -> f32[32,1024] {
  %param_0.477 = bf16[32,12288]{1,0} parameter(0)
  %convert.611.32 = f32[32,12288]{1,0} convert(bf16[32,12288]{1,0} %param_0.477), metadata={op_type="xla__cast" op_name="xla__cast" source_file="/usr/local/lib/python3.10/site-packages/torch/_ops.py" source_line=756}
  %slice.163.3 = f32[32,1024]{1,0} slice(f32[32,12288]{1,0} %convert.611.32), slice={[0:32], [2048:3072]}, metadata={op_type="aten__mm" op_name="aten__mm" source_file="/usr/local/lib/python3.10/site-packages/torch/_ops.py" source_line=756}
  %param_1.461 = bf16[32,1024]{1,0} parameter(1)
  %convert.737.1 = f32[32,1024]{1,0} convert(bf16[32,1024]{1,0} %param_1.461), metadata={op_type="xla__cast" op_name="xla__cast" source_file="/usr/local/lib/python3.10/site-packages/torch/_ops.py" source_line=756}
  %slice.164.7 = f32[32,1024]{1,0} slice(f32[32,12288]{1,0} %convert.611.32), slice={[0:32], [3072:4096]}, metadata={op_type="aten__mm" op_name="aten__mm" source_file="/usr/local/lib/python3.10/site-packages/torch/_ops.py" source_line=756}
  %param_2.320 = bf16[32,1024]{1,0} parameter(2)
  %convert.724.5 = f32[32,1024]{1,0} convert(bf16[32,1024]{1,0} %param_2.320), metadata={op_type="xla__cast" op_name="xla__cast" source_file="/usr/local/lib/python3.10/site-packages/torch/_ops.py" source_line=756}
  %slice.165.7 = f32[32,1024]{1,0} slice(f32[32,12288]{1,0} %convert.611.32), slice={[0:32], [4096:5120]}, metadata={op_type="aten__mm" op_name="aten__mm" source_file="/usr/local/lib/python3.10/site-packages/torch/_ops.py" source_line=756}
  %param_5.38 = bf16[32,1024]{1,0} parameter(5)
  %convert.713.5 = f32[32,1024]{1,0} convert(bf16[32,1024]{1,0} %param_5.38), metadata={op_type="xla__cast" op_name="xla__cast" source_file="/usr/local/lib/python3.10/site-packages/torch/_ops.py" source_line=756}
  %slice.166.11 = f32[32,1024]{1,0} slice(f32[32,12288]{1,0} %convert.611.32), slice={[0:32], [5120:6144]}, metadata={op_type="aten__mm" op_name="aten__mm" source_file="/usr/local/lib/python3.10/site-packages/torch/_ops.py" source_line=756}
  %param_4.122 = bf16[32,1024]{1,0} parameter(4)
  %convert.698.9 = f32[32,1024]{1,0} convert(bf16[32,1024]{1,0} %param_4.122), metadata={op_type="xla__cast" op_name="xla__cast" source_file="/usr/local/lib/python3.10/site-packages/torch/_ops.py" source_line=756}
  %param_3.253 = f32[32,1024]{1,0} parameter(3)
  %add.184.9 = f32[32,1024]{1,0} add(f32[32,1024]{1,0} %convert.698.9, f32[32,1024]{1,0} %param_3.253), metadata={op_type="aten__add" op_name="aten__add.615/aten__add" source_file="/usr/local/lib/python3.10/site-packages/torch/_ops.py" source_line=756}
  %add.185.9 = f32[32,1024]{1,0} add(f32[32,1024]{1,0} %slice.166.11, f32[32,1024]{1,0} %add.184.9), metadata={op_type="aten__add" op_name="aten__add.628/aten__add" source_file="/usr/local/lib/python3.10/site-packages/torch/_ops.py" source_line=756}
  %add.187.5 = f32[32,1024]{1,0} add(f32[32,1024]{1,0} %convert.713.5, f32[32,1024]{1,0} %add.185.9), metadata={op_type="aten__add" op_name="aten__add.633/aten__add" source_file="/usr/local/lib/python3.10/site-packages/torch/_ops.py" source_line=756}
  %add.188.5 = f32[32,1024]{1,0} add(f32[32,1024]{1,0} %slice.165.7, f32[32,1024]{1,0} %add.187.5), metadata={op_type="aten__add" op_name="aten__add.646/aten__add" source_file="/usr/local/lib/python3.10/site-packages/torch/_ops.py" source_line=756}
  %add.190.5 = f32[32,1024]{1,0} add(f32[32,1024]{1,0} %convert.724.5, f32[32,1024]{1,0} %add.188.5), metadata={op_type="aten__add" op_name="aten__add.651/aten__add" source_file="/usr/local/lib/python3.10/site-packages/torch/_ops.py" source_line=756}
  %add.191.5 = f32[32,1024]{1,0} add(f32[32,1024]{1,0} %slice.164.7, f32[32,1024]{1,0} %add.190.5), metadata={op_type="aten__add" op_name="aten__add.664/aten__add" source_file="/usr/local/lib/python3.10/site-packages/torch/_ops.py" source_line=756}
  %add.193.1 = f32[32,1024]{1,0} add(f32[32,1024]{1,0} %convert.737.1, f32[32,1024]{1,0} %add.191.5), metadata={op_type="aten__add" op_name="aten__add.669/aten__add" source_file="/usr/local/lib/python3.10/site-packages/torch/_ops.py" source_line=756}
  ROOT %add.194.1 = f32[32,1024]{1,0} add(f32[32,1024]{1,0} %slice.163.3, f32[32,1024]{1,0} %add.193.1), metadata={op_type="aten__add" op_name="aten__add.682/aten__add" source_file="/usr/local/lib/python3.10/site-packages/torch/_ops.py" source_line=756}
}

%fused_computation.138 (param_0.551: f32[32,1024], param_1.445: f32[], param_2.249: bf16[1024]) -> bf16[32,1024] {
  %param_0.551 = f32[32,1024]{1,0} parameter(0)
  %multiply.407 = f32[32,1024]{1,0} multiply(f32[32,1024]{1,0} %param_0.551, f32[32,1024]{1,0} %param_0.551), metadata={op_type="aten__pow" op_name="aten__pow" source_file="/usr/local/lib/python3.10/site-packages/torch/_ops.py" source_line=756}
  %constant_387 = f32[] constant(0), metadata={op_type="aten__mean" op_name="aten__mean" source_file="/usr/local/lib/python3.10/site-packages/torch/_ops.py" source_line=756}
  %reduce.47 = f32[32]{0} reduce(f32[32,1024]{1,0} %multiply.407, f32[] %constant_387), dimensions={1}, to_apply=%AddComputation.70, metadata={op_type="aten__mean" op_name="aten__mean" source_file="/usr/local/lib/python3.10/site-packages/torch/_ops.py" source_line=756}
  %constant_386 = f32[] constant(0.0009765625), metadata={op_type="aten__mean" op_name="aten__mean" source_file="/usr/local/lib/python3.10/site-packages/torch/_ops.py" source_line=756}
  %broadcast.458 = f32[32]{0} broadcast(f32[] %constant_386), dimensions={}, metadata={op_type="aten__mean" op_name="aten__mean" source_file="/usr/local/lib/python3.10/site-packages/torch/_ops.py" source_line=756}
  %multiply.406 = f32[32]{0} multiply(f32[32]{0} %reduce.47, f32[32]{0} %broadcast.458), metadata={op_type="aten__mean" op_name="aten__mean" source_file="/usr/local/lib/python3.10/site-packages/torch/_ops.py" source_line=756}
  %param_1.445 = f32[] parameter(1)
  %broadcast.457 = f32[32]{0} broadcast(f32[] %param_1.445), dimensions={}, metadata={op_type="aten__add" op_name="aten__add.521/aten__add" source_file="/usr/local/lib/python3.10/site-packages/torch/_ops.py" source_line=756}
  %add.225 = f32[32]{0} add(f32[32]{0} %multiply.406, f32[32]{0} %broadcast.457), metadata={op_type="aten__add" op_name="aten__add.683/aten__add" source_file="/usr/local/lib/python3.10/site-packages/torch/_ops.py" source_line=756}
  %rsqrt.90 = f32[32]{0} rsqrt(f32[32]{0} %add.225), metadata={op_type="aten__rsqrt" op_name="aten__rsqrt" source_file="/usr/local/lib/python3.10/site-packages/torch/_ops.py" source_line=756}
  %broadcast.456 = f32[32,1024]{1,0} broadcast(f32[32]{0} %rsqrt.90), dimensions={0}, metadata={op_type="aten__mul" op_name="aten__mul.684/aten__mul" source_file="/usr/local/lib/python3.10/site-packages/torch/_ops.py" source_line=756}
  %multiply.405 = f32[32,1024]{1,0} multiply(f32[32,1024]{1,0} %param_0.551, f32[32,1024]{1,0} %broadcast.456), metadata={op_type="aten__mul" op_name="aten__mul.684/aten__mul" source_file="/usr/local/lib/python3.10/site-packages/torch/_ops.py" source_line=756}
  %param_2.249 = bf16[1024]{0} parameter(2)
  %convert.738.1 = f32[1024]{0} convert(bf16[1024]{0} %param_2.249), metadata={op_type="xla__cast" op_name="xla__cast" source_file="/usr/local/lib/python3.10/site-packages/torch/_ops.py" source_line=756}
  %broadcast.320.3 = f32[32,1024]{1,0} broadcast(f32[1024]{0} %convert.738.1), dimensions={1}, metadata={op_type="aten__mul" op_name="aten__mul.685/aten__mul" source_file="/usr/local/lib/python3.10/site-packages/torch/_ops.py" source_line=756}
  %multiply.324.3 = f32[32,1024]{1,0} multiply(f32[32,1024]{1,0} %multiply.405, f32[32,1024]{1,0} %broadcast.320.3), metadata={op_type="aten__mul" op_name="aten__mul.685/aten__mul" source_file="/usr/local/lib/python3.10/site-packages/torch/_ops.py" source_line=756}
  ROOT %convert.739.1 = bf16[32,1024]{1,0} convert(f32[32,1024]{1,0} %multiply.324.3), metadata={op_type="xla__cast" op_name="xla__cast" source_file="/usr/local/lib/python3.10/site-packages/torch/_ops.py" source_line=756}
}

%fused_convert.9 (param_0.507: bf16[32,6144]) -> bf16[32,3072] {
  %param_0.507 = bf16[32,6144]{1,0} parameter(0)
  %slice.193.1 = bf16[32,3072]{1,0} slice(bf16[32,6144]{1,0} %param_0.507), slice={[0:32], [0:3072]}, metadata={op_type="xla__select" op_name="xla__select" source_file="/usr/local/lib/python3.10/site-packages/torch/_ops.py" source_line=756}
  %convert.740.8 = f32[32,3072]{1,0} convert(bf16[32,3072]{1,0} %slice.193.1)
  %constant_1_13 = bf16[] constant(1), metadata={op_type="xla__select" op_name="xla__select" source_file="/usr/local/lib/python3.10/site-packages/torch/_ops.py" source_line=756}
  %convert.791.11 = f32[] convert(bf16[] %constant_1_13)
  %broadcast.337.30 = f32[32,3072]{1,0} broadcast(f32[] %convert.791.11), dimensions={}, metadata={op_type="xla__select" op_name="xla__select" source_file="/usr/local/lib/python3.10/site-packages/torch/_ops.py" source_line=756}
  %negate.45.7 = f32[32,3072]{1,0} negate(f32[32,3072]{1,0} %convert.740.8)
  %convert.747.5 = bf16[32,3072]{1,0} convert(f32[32,3072]{1,0} %negate.45.7)
  %exponential.45.3 = bf16[32,3072]{1,0} exponential(bf16[32,3072]{1,0} %convert.747.5)
  %convert.749.1 = f32[32,3072]{1,0} convert(bf16[32,3072]{1,0} %exponential.45.3)
  %add.195.3 = f32[32,3072]{1,0} add(f32[32,3072]{1,0} %broadcast.337.30, f32[32,3072]{1,0} %convert.749.1)
  %divide.45.3 = f32[32,3072]{1,0} divide(f32[32,3072]{1,0} %broadcast.337.30, f32[32,3072]{1,0} %add.195.3), metadata={op_type="aten__silu" op_name="aten__silu" source_file="/usr/local/lib/python3.10/site-packages/torch/_ops.py" source_line=756}
  %multiply.325.5 = f32[32,3072]{1,0} multiply(f32[32,3072]{1,0} %convert.740.8, f32[32,3072]{1,0} %divide.45.3), metadata={op_type="aten__silu" op_name="aten__silu" source_file="/usr/local/lib/python3.10/site-packages/torch/_ops.py" source_line=756}
  %slice.194.1 = bf16[32,3072]{1,0} slice(bf16[32,6144]{1,0} %param_0.507), slice={[0:32], [3072:6144]}, metadata={op_type="xla__select" op_name="xla__select" source_file="/usr/local/lib/python3.10/site-packages/torch/_ops.py" source_line=756}
  %convert.750.1 = f32[32,3072]{1,0} convert(bf16[32,3072]{1,0} %slice.194.1), metadata={op_type="xla__cast" op_name="xla__cast" source_file="/usr/local/lib/python3.10/site-packages/torch/_ops.py" source_line=756}
  %multiply.327.3 = f32[32,3072]{1,0} multiply(f32[32,3072]{1,0} %multiply.325.5, f32[32,3072]{1,0} %convert.750.1), metadata={op_type="aten__mul" op_name="aten__mul.686/aten__mul" source_file="/usr/local/lib/python3.10/site-packages/torch/_ops.py" source_line=756}
  ROOT %convert.751.1 = bf16[32,3072]{1,0} convert(f32[32,3072]{1,0} %multiply.327.3), metadata={op_type="xla__cast" op_name="xla__cast" source_file="/usr/local/lib/python3.10/site-packages/torch/_ops.py" source_line=756}
}

%fused_computation.139 (param_0.561: f32[], param_1.455: bf16[1024], param_2.260: f32[32,1024], param_3.185: bf16[32,1024], param_4.57: bf16[32,12288]) -> bf16[32,1024] {
  %param_4.57 = bf16[32,12288]{1,0} parameter(4)
  %convert.611.44 = f32[32,12288]{1,0} convert(bf16[32,12288]{1,0} %param_4.57), metadata={op_type="xla__cast" op_name="xla__cast" source_file="/usr/local/lib/python3.10/site-packages/torch/_ops.py" source_line=756}
  %slice.162.5 = f32[32,1024]{1,0} slice(f32[32,12288]{1,0} %convert.611.44), slice={[0:32], [1024:2048]}, metadata={op_type="aten__mm" op_name="aten__mm" source_file="/usr/local/lib/python3.10/site-packages/torch/_ops.py" source_line=756}
  %param_3.185 = bf16[32,1024]{1,0} parameter(3)
  %convert.753.3 = f32[32,1024]{1,0} convert(bf16[32,1024]{1,0} %param_3.185), metadata={op_type="xla__cast" op_name="xla__cast" source_file="/usr/local/lib/python3.10/site-packages/torch/_ops.py" source_line=756}
  %param_2.260 = f32[32,1024]{1,0} parameter(2)
  %add.196.3 = f32[32,1024]{1,0} add(f32[32,1024]{1,0} %convert.753.3, f32[32,1024]{1,0} %param_2.260), metadata={op_type="aten__add" op_name="aten__add.687/aten__add" source_file="/usr/local/lib/python3.10/site-packages/torch/_ops.py" source_line=756}
  %add.197.3 = f32[32,1024]{1,0} add(f32[32,1024]{1,0} %slice.162.5, f32[32,1024]{1,0} %add.196.3), metadata={op_type="aten__add" op_name="aten__add.700/aten__add" source_file="/usr/local/lib/python3.10/site-packages/torch/_ops.py" source_line=756}
  %multiply.413 = f32[32,1024]{1,0} multiply(f32[32,1024]{1,0} %add.197.3, f32[32,1024]{1,0} %add.197.3), metadata={op_type="aten__pow" op_name="aten__pow" source_file="/usr/local/lib/python3.10/site-packages/torch/_ops.py" source_line=756}
  %constant_392 = f32[] constant(0), metadata={op_type="aten__mean" op_name="aten__mean" source_file="/usr/local/lib/python3.10/site-packages/torch/_ops.py" source_line=756}
  %reduce.49 = f32[32]{0} reduce(f32[32,1024]{1,0} %multiply.413, f32[] %constant_392), dimensions={1}, to_apply=%AddComputation.70, metadata={op_type="aten__mean" op_name="aten__mean" source_file="/usr/local/lib/python3.10/site-packages/torch/_ops.py" source_line=756}
  %constant_391 = f32[] constant(0.0009765625), metadata={op_type="aten__mean" op_name="aten__mean" source_file="/usr/local/lib/python3.10/site-packages/torch/_ops.py" source_line=756}
  %broadcast.464 = f32[32]{0} broadcast(f32[] %constant_391), dimensions={}, metadata={op_type="aten__mean" op_name="aten__mean" source_file="/usr/local/lib/python3.10/site-packages/torch/_ops.py" source_line=756}
  %multiply.412 = f32[32]{0} multiply(f32[32]{0} %reduce.49, f32[32]{0} %broadcast.464), metadata={op_type="aten__mean" op_name="aten__mean" source_file="/usr/local/lib/python3.10/site-packages/torch/_ops.py" source_line=756}
  %param_0.561 = f32[] parameter(0)
  %broadcast.463 = f32[32]{0} broadcast(f32[] %param_0.561), dimensions={}, metadata={op_type="aten__add" op_name="aten__add.521/aten__add" source_file="/usr/local/lib/python3.10/site-packages/torch/_ops.py" source_line=756}
  %add.227 = f32[32]{0} add(f32[32]{0} %multiply.412, f32[32]{0} %broadcast.463), metadata={op_type="aten__add" op_name="aten__add.701/aten__add" source_file="/usr/local/lib/python3.10/site-packages/torch/_ops.py" source_line=756}
  %rsqrt.92 = f32[32]{0} rsqrt(f32[32]{0} %add.227), metadata={op_type="aten__rsqrt" op_name="aten__rsqrt" source_file="/usr/local/lib/python3.10/site-packages/torch/_ops.py" source_line=756}
  %broadcast.462 = f32[32,1024]{1,0} broadcast(f32[32]{0} %rsqrt.92), dimensions={0}, metadata={op_type="aten__mul" op_name="aten__mul.702/aten__mul" source_file="/usr/local/lib/python3.10/site-packages/torch/_ops.py" source_line=756}
  %multiply.411 = f32[32,1024]{1,0} multiply(f32[32,1024]{1,0} %add.197.3, f32[32,1024]{1,0} %broadcast.462), metadata={op_type="aten__mul" op_name="aten__mul.702/aten__mul" source_file="/usr/local/lib/python3.10/site-packages/torch/_ops.py" source_line=756}
  %param_1.455 = bf16[1024]{0} parameter(1)
  %convert.755.1 = f32[1024]{0} convert(bf16[1024]{0} %param_1.455), metadata={op_type="xla__cast" op_name="xla__cast" source_file="/usr/local/lib/python3.10/site-packages/torch/_ops.py" source_line=756}
  %broadcast.323.3 = f32[32,1024]{1,0} broadcast(f32[1024]{0} %convert.755.1), dimensions={1}, metadata={op_type="aten__mul" op_name="aten__mul.703/aten__mul" source_file="/usr/local/lib/python3.10/site-packages/torch/_ops.py" source_line=756}
  %multiply.328.3 = f32[32,1024]{1,0} multiply(f32[32,1024]{1,0} %multiply.411, f32[32,1024]{1,0} %broadcast.323.3), metadata={op_type="aten__mul" op_name="aten__mul.703/aten__mul" source_file="/usr/local/lib/python3.10/site-packages/torch/_ops.py" source_line=756}
  ROOT %convert.757.1 = bf16[32,1024]{1,0} convert(f32[32,1024]{1,0} %multiply.328.3), metadata={op_type="xla__cast" op_name="xla__cast" source_file="/usr/local/lib/python3.10/site-packages/torch/_ops.py" source_line=756}
}

%fused_convert.10 (param_0.503: bf16[32,6144]) -> bf16[32,3072] {
  %param_0.503 = bf16[32,6144]{1,0} parameter(0)
  %slice.195.1 = bf16[32,3072]{1,0} slice(bf16[32,6144]{1,0} %param_0.503), slice={[0:32], [0:3072]}, metadata={op_type="xla__select" op_name="xla__select" source_file="/usr/local/lib/python3.10/site-packages/torch/_ops.py" source_line=756}
  %convert.758.8 = f32[32,3072]{1,0} convert(bf16[32,3072]{1,0} %slice.195.1)
  %constant_1_9 = bf16[] constant(1), metadata={op_type="xla__select" op_name="xla__select" source_file="/usr/local/lib/python3.10/site-packages/torch/_ops.py" source_line=756}
  %convert.791.7 = f32[] convert(bf16[] %constant_1_9)
  %broadcast.337.28 = f32[32,3072]{1,0} broadcast(f32[] %convert.791.7), dimensions={}, metadata={op_type="xla__select" op_name="xla__select" source_file="/usr/local/lib/python3.10/site-packages/torch/_ops.py" source_line=756}
  %negate.46.7 = f32[32,3072]{1,0} negate(f32[32,3072]{1,0} %convert.758.8)
  %convert.764.5 = bf16[32,3072]{1,0} convert(f32[32,3072]{1,0} %negate.46.7)
  %exponential.46.3 = bf16[32,3072]{1,0} exponential(bf16[32,3072]{1,0} %convert.764.5)
  %convert.765.1 = f32[32,3072]{1,0} convert(bf16[32,3072]{1,0} %exponential.46.3)
  %add.198.3 = f32[32,3072]{1,0} add(f32[32,3072]{1,0} %broadcast.337.28, f32[32,3072]{1,0} %convert.765.1)
  %divide.46.3 = f32[32,3072]{1,0} divide(f32[32,3072]{1,0} %broadcast.337.28, f32[32,3072]{1,0} %add.198.3), metadata={op_type="aten__silu" op_name="aten__silu" source_file="/usr/local/lib/python3.10/site-packages/torch/_ops.py" source_line=756}
  %multiply.329.5 = f32[32,3072]{1,0} multiply(f32[32,3072]{1,0} %convert.758.8, f32[32,3072]{1,0} %divide.46.3), metadata={op_type="aten__silu" op_name="aten__silu" source_file="/usr/local/lib/python3.10/site-packages/torch/_ops.py" source_line=756}
  %slice.196.1 = bf16[32,3072]{1,0} slice(bf16[32,6144]{1,0} %param_0.503), slice={[0:32], [3072:6144]}, metadata={op_type="xla__select" op_name="xla__select" source_file="/usr/local/lib/python3.10/site-packages/torch/_ops.py" source_line=756}
  %convert.766.1 = f32[32,3072]{1,0} convert(bf16[32,3072]{1,0} %slice.196.1), metadata={op_type="xla__cast" op_name="xla__cast" source_file="/usr/local/lib/python3.10/site-packages/torch/_ops.py" source_line=756}
  %multiply.330.3 = f32[32,3072]{1,0} multiply(f32[32,3072]{1,0} %multiply.329.5, f32[32,3072]{1,0} %convert.766.1), metadata={op_type="aten__mul" op_name="aten__mul.704/aten__mul" source_file="/usr/local/lib/python3.10/site-packages/torch/_ops.py" source_line=756}
  ROOT %convert.767.1 = bf16[32,3072]{1,0} convert(f32[32,3072]{1,0} %multiply.330.3), metadata={op_type="xla__cast" op_name="xla__cast" source_file="/usr/local/lib/python3.10/site-packages/torch/_ops.py" source_line=756}
}

%fused_computation.140 (param_0.595: f32[], param_1.489: bf16[1024], param_2.306: f32[32,1024], param_3.235: bf16[32,1024], param_4.98: bf16[32,12288], param_5.6: bf16[32,1024]) -> bf16[32,1024] {
  %param_4.98 = bf16[32,12288]{1,0} parameter(4)
  %convert.611.66 = f32[32,12288]{1,0} convert(bf16[32,12288]{1,0} %param_4.98), metadata={op_type="xla__cast" op_name="xla__cast" source_file="/usr/local/lib/python3.10/site-packages/torch/_ops.py" source_line=756}
  %slice.161.5 = f32[32,1024]{1,0} slice(f32[32,12288]{1,0} %convert.611.66), slice={[0:32], [0:1024]}, metadata={op_type="aten__mm" op_name="aten__mm" source_file="/usr/local/lib/python3.10/site-packages/torch/_ops.py" source_line=756}
  %param_5.6 = bf16[32,1024]{1,0} parameter(5)
  %convert.768.3 = f32[32,1024]{1,0} convert(bf16[32,1024]{1,0} %param_5.6), metadata={op_type="xla__cast" op_name="xla__cast" source_file="/usr/local/lib/python3.10/site-packages/torch/_ops.py" source_line=756}
  %slice.162.9 = f32[32,1024]{1,0} slice(f32[32,12288]{1,0} %convert.611.66), slice={[0:32], [1024:2048]}, metadata={op_type="aten__mm" op_name="aten__mm" source_file="/usr/local/lib/python3.10/site-packages/torch/_ops.py" source_line=756}
  %param_3.235 = bf16[32,1024]{1,0} parameter(3)
  %convert.753.7 = f32[32,1024]{1,0} convert(bf16[32,1024]{1,0} %param_3.235), metadata={op_type="xla__cast" op_name="xla__cast" source_file="/usr/local/lib/python3.10/site-packages/torch/_ops.py" source_line=756}
  %param_2.306 = f32[32,1024]{1,0} parameter(2)
  %add.196.7 = f32[32,1024]{1,0} add(f32[32,1024]{1,0} %convert.753.7, f32[32,1024]{1,0} %param_2.306), metadata={op_type="aten__add" op_name="aten__add.687/aten__add" source_file="/usr/local/lib/python3.10/site-packages/torch/_ops.py" source_line=756}
  %add.197.7 = f32[32,1024]{1,0} add(f32[32,1024]{1,0} %slice.162.9, f32[32,1024]{1,0} %add.196.7), metadata={op_type="aten__add" op_name="aten__add.700/aten__add" source_file="/usr/local/lib/python3.10/site-packages/torch/_ops.py" source_line=756}
  %add.200.3 = f32[32,1024]{1,0} add(f32[32,1024]{1,0} %convert.768.3, f32[32,1024]{1,0} %add.197.7), metadata={op_type="aten__add" op_name="aten__add.705/aten__add" source_file="/usr/local/lib/python3.10/site-packages/torch/_ops.py" source_line=756}
  %add.201.3 = f32[32,1024]{1,0} add(f32[32,1024]{1,0} %slice.161.5, f32[32,1024]{1,0} %add.200.3), metadata={op_type="aten__add" op_name="aten__add.718/aten__add" source_file="/usr/local/lib/python3.10/site-packages/torch/_ops.py" source_line=756}
  %multiply.420 = f32[32,1024]{1,0} multiply(f32[32,1024]{1,0} %add.201.3, f32[32,1024]{1,0} %add.201.3), metadata={op_type="aten__pow" op_name="aten__pow" source_file="/usr/local/lib/python3.10/site-packages/torch/_ops.py" source_line=756}
  %constant_397 = f32[] constant(0), metadata={op_type="aten__mean" op_name="aten__mean" source_file="/usr/local/lib/python3.10/site-packages/torch/_ops.py" source_line=756}
  %reduce.51 = f32[32]{0} reduce(f32[32,1024]{1,0} %multiply.420, f32[] %constant_397), dimensions={1}, to_apply=%AddComputation.70, metadata={op_type="aten__mean" op_name="aten__mean" source_file="/usr/local/lib/python3.10/site-packages/torch/_ops.py" source_line=756}
  %constant_396 = f32[] constant(0.0009765625), metadata={op_type="aten__mean" op_name="aten__mean" source_file="/usr/local/lib/python3.10/site-packages/torch/_ops.py" source_line=756}
  %broadcast.471 = f32[32]{0} broadcast(f32[] %constant_396), dimensions={}, metadata={op_type="aten__mean" op_name="aten__mean" source_file="/usr/local/lib/python3.10/site-packages/torch/_ops.py" source_line=756}
  %multiply.419 = f32[32]{0} multiply(f32[32]{0} %reduce.51, f32[32]{0} %broadcast.471), metadata={op_type="aten__mean" op_name="aten__mean" source_file="/usr/local/lib/python3.10/site-packages/torch/_ops.py" source_line=756}
  %param_0.595 = f32[] parameter(0)
  %broadcast.470 = f32[32]{0} broadcast(f32[] %param_0.595), dimensions={}, metadata={op_type="aten__add" op_name="aten__add.521/aten__add" source_file="/usr/local/lib/python3.10/site-packages/torch/_ops.py" source_line=756}
  %add.229 = f32[32]{0} add(f32[32]{0} %multiply.419, f32[32]{0} %broadcast.470), metadata={op_type="aten__add" op_name="aten__add.719/aten__add" source_file="/usr/local/lib/python3.10/site-packages/torch/_ops.py" source_line=756}
  %rsqrt.94 = f32[32]{0} rsqrt(f32[32]{0} %add.229), metadata={op_type="aten__rsqrt" op_name="aten__rsqrt" source_file="/usr/local/lib/python3.10/site-packages/torch/_ops.py" source_line=756}
  %broadcast.468 = f32[32,1024]{1,0} broadcast(f32[32]{0} %rsqrt.94), dimensions={0}, metadata={op_type="aten__mul" op_name="aten__mul.720/aten__mul" source_file="/usr/local/lib/python3.10/site-packages/torch/_ops.py" source_line=756}
  %multiply.418 = f32[32,1024]{1,0} multiply(f32[32,1024]{1,0} %add.201.3, f32[32,1024]{1,0} %broadcast.468), metadata={op_type="aten__mul" op_name="aten__mul.720/aten__mul" source_file="/usr/local/lib/python3.10/site-packages/torch/_ops.py" source_line=756}
  %param_1.489 = bf16[1024]{0} parameter(1)
  %convert.769.1 = f32[1024]{0} convert(bf16[1024]{0} %param_1.489), metadata={op_type="xla__cast" op_name="xla__cast" source_file="/usr/local/lib/python3.10/site-packages/torch/_ops.py" source_line=756}
  %broadcast.327.3 = f32[32,1024]{1,0} broadcast(f32[1024]{0} %convert.769.1), dimensions={1}, metadata={op_type="aten__mul" op_name="aten__mul.721/aten__mul" source_file="/usr/local/lib/python3.10/site-packages/torch/_ops.py" source_line=756}
  %multiply.331.3 = f32[32,1024]{1,0} multiply(f32[32,1024]{1,0} %multiply.418, f32[32,1024]{1,0} %broadcast.327.3), metadata={op_type="aten__mul" op_name="aten__mul.721/aten__mul" source_file="/usr/local/lib/python3.10/site-packages/torch/_ops.py" source_line=756}
  ROOT %convert.770.1 = bf16[32,1024]{1,0} convert(f32[32,1024]{1,0} %multiply.331.3), metadata={op_type="xla__cast" op_name="xla__cast" source_file="/usr/local/lib/python3.10/site-packages/torch/_ops.py" source_line=756}
}

%fused_convert.11 (param_0.497: bf16[32,6144]) -> bf16[32,3072] {
  %param_0.497 = bf16[32,6144]{1,0} parameter(0)
  %slice.197.1 = bf16[32,3072]{1,0} slice(bf16[32,6144]{1,0} %param_0.497), slice={[0:32], [0:3072]}, metadata={op_type="xla__select" op_name="xla__select" source_file="/usr/local/lib/python3.10/site-packages/torch/_ops.py" source_line=756}
  %convert.771.8 = f32[32,3072]{1,0} convert(bf16[32,3072]{1,0} %slice.197.1)
  %constant_1_3 = bf16[] constant(1), metadata={op_type="xla__select" op_name="xla__select" source_file="/usr/local/lib/python3.10/site-packages/torch/_ops.py" source_line=756}
  %convert.791.1 = f32[] convert(bf16[] %constant_1_3)
  %broadcast.337.26 = f32[32,3072]{1,0} broadcast(f32[] %convert.791.1), dimensions={}, metadata={op_type="xla__select" op_name="xla__select" source_file="/usr/local/lib/python3.10/site-packages/torch/_ops.py" source_line=756}
  %negate.47.7 = f32[32,3072]{1,0} negate(f32[32,3072]{1,0} %convert.771.8)
  %convert.778.5 = bf16[32,3072]{1,0} convert(f32[32,3072]{1,0} %negate.47.7)
  %exponential.47.3 = bf16[32,3072]{1,0} exponential(bf16[32,3072]{1,0} %convert.778.5)
  %convert.779.1 = f32[32,3072]{1,0} convert(bf16[32,3072]{1,0} %exponential.47.3)
  %add.202.3 = f32[32,3072]{1,0} add(f32[32,3072]{1,0} %broadcast.337.26, f32[32,3072]{1,0} %convert.779.1)
  %divide.47.3 = f32[32,3072]{1,0} divide(f32[32,3072]{1,0} %broadcast.337.26, f32[32,3072]{1,0} %add.202.3), metadata={op_type="aten__silu" op_name="aten__silu" source_file="/usr/local/lib/python3.10/site-packages/torch/_ops.py" source_line=756}
  %multiply.332.5 = f32[32,3072]{1,0} multiply(f32[32,3072]{1,0} %convert.771.8, f32[32,3072]{1,0} %divide.47.3), metadata={op_type="aten__silu" op_name="aten__silu" source_file="/usr/local/lib/python3.10/site-packages/torch/_ops.py" source_line=756}
  %slice.198.1 = bf16[32,3072]{1,0} slice(bf16[32,6144]{1,0} %param_0.497), slice={[0:32], [3072:6144]}, metadata={op_type="xla__select" op_name="xla__select" source_file="/usr/local/lib/python3.10/site-packages/torch/_ops.py" source_line=756}
  %convert.780.1 = f32[32,3072]{1,0} convert(bf16[32,3072]{1,0} %slice.198.1), metadata={op_type="xla__cast" op_name="xla__cast" source_file="/usr/local/lib/python3.10/site-packages/torch/_ops.py" source_line=756}
  %multiply.333.3 = f32[32,3072]{1,0} multiply(f32[32,3072]{1,0} %multiply.332.5, f32[32,3072]{1,0} %convert.780.1), metadata={op_type="aten__mul" op_name="aten__mul.722/aten__mul" source_file="/usr/local/lib/python3.10/site-packages/torch/_ops.py" source_line=756}
  ROOT %convert.781.1 = bf16[32,3072]{1,0} convert(f32[32,3072]{1,0} %multiply.333.3), metadata={op_type="xla__cast" op_name="xla__cast" source_file="/usr/local/lib/python3.10/site-packages/torch/_ops.py" source_line=756}
}

%fused_computation.141 (param_0.548: f32[], param_1.491: bf16[32,1024], param_2.308: bf16[1024], param_3.238: f32[32,1024], param_4.102: bf16[32,1024], param_5.11: bf16[32,12288], param_6.11: bf16[32,1024]) -> bf16[32,1024] {
  %param_1.491 = bf16[32,1024]{1,0} parameter(1)
  %convert.782.5 = f32[32,1024]{1,0} convert(bf16[32,1024]{1,0} %param_1.491), metadata={op_type="xla__cast" op_name="xla__cast" source_file="/usr/local/lib/python3.10/site-packages/torch/_ops.py" source_line=756}
  %param_5.11 = bf16[32,12288]{1,0} parameter(5)
  %convert.611.70 = f32[32,12288]{1,0} convert(bf16[32,12288]{1,0} %param_5.11), metadata={op_type="xla__cast" op_name="xla__cast" source_file="/usr/local/lib/python3.10/site-packages/torch/_ops.py" source_line=756}
  %slice.161.7 = f32[32,1024]{1,0} slice(f32[32,12288]{1,0} %convert.611.70), slice={[0:32], [0:1024]}, metadata={op_type="aten__mm" op_name="aten__mm" source_file="/usr/local/lib/python3.10/site-packages/torch/_ops.py" source_line=756}
  %param_6.11 = bf16[32,1024]{1,0} parameter(6)
  %convert.768.5 = f32[32,1024]{1,0} convert(bf16[32,1024]{1,0} %param_6.11), metadata={op_type="xla__cast" op_name="xla__cast" source_file="/usr/local/lib/python3.10/site-packages/torch/_ops.py" source_line=756}
  %slice.162.11 = f32[32,1024]{1,0} slice(f32[32,12288]{1,0} %convert.611.70), slice={[0:32], [1024:2048]}, metadata={op_type="aten__mm" op_name="aten__mm" source_file="/usr/local/lib/python3.10/site-packages/torch/_ops.py" source_line=756}
  %param_4.102 = bf16[32,1024]{1,0} parameter(4)
  %convert.753.9 = f32[32,1024]{1,0} convert(bf16[32,1024]{1,0} %param_4.102), metadata={op_type="xla__cast" op_name="xla__cast" source_file="/usr/local/lib/python3.10/site-packages/torch/_ops.py" source_line=756}
  %param_3.238 = f32[32,1024]{1,0} parameter(3)
  %add.196.9 = f32[32,1024]{1,0} add(f32[32,1024]{1,0} %convert.753.9, f32[32,1024]{1,0} %param_3.238), metadata={op_type="aten__add" op_name="aten__add.687/aten__add" source_file="/usr/local/lib/python3.10/site-packages/torch/_ops.py" source_line=756}
  %add.197.9 = f32[32,1024]{1,0} add(f32[32,1024]{1,0} %slice.162.11, f32[32,1024]{1,0} %add.196.9), metadata={op_type="aten__add" op_name="aten__add.700/aten__add" source_file="/usr/local/lib/python3.10/site-packages/torch/_ops.py" source_line=756}
  %add.200.5 = f32[32,1024]{1,0} add(f32[32,1024]{1,0} %convert.768.5, f32[32,1024]{1,0} %add.197.9), metadata={op_type="aten__add" op_name="aten__add.705/aten__add" source_file="/usr/local/lib/python3.10/site-packages/torch/_ops.py" source_line=756}
  %add.201.5 = f32[32,1024]{1,0} add(f32[32,1024]{1,0} %slice.161.7, f32[32,1024]{1,0} %add.200.5), metadata={op_type="aten__add" op_name="aten__add.718/aten__add" source_file="/usr/local/lib/python3.10/site-packages/torch/_ops.py" source_line=756}
  %add.203.5 = f32[32,1024]{1,0} add(f32[32,1024]{1,0} %convert.782.5, f32[32,1024]{1,0} %add.201.5), metadata={op_type="aten__add" op_name="aten__add.723/aten__add" source_file="/usr/local/lib/python3.10/site-packages/torch/_ops.py" source_line=756}
  %multiply.432 = f32[32,1024]{1,0} multiply(f32[32,1024]{1,0} %add.203.5, f32[32,1024]{1,0} %add.203.5), metadata={op_type="aten__pow" op_name="aten__pow" source_file="/usr/local/lib/python3.10/site-packages/torch/_ops.py" source_line=756}
  %constant_408 = f32[] constant(0), metadata={op_type="aten__mean" op_name="aten__mean" source_file="/usr/local/lib/python3.10/site-packages/torch/_ops.py" source_line=756}
  %reduce.55 = f32[32]{0} reduce(f32[32,1024]{1,0} %multiply.432, f32[] %constant_408), dimensions={1}, to_apply=%AddComputation.70, metadata={op_type="aten__mean" op_name="aten__mean" source_file="/usr/local/lib/python3.10/site-packages/torch/_ops.py" source_line=756}
  %constant_407 = f32[] constant(0.0009765625), metadata={op_type="aten__mean" op_name="aten__mean" source_file="/usr/local/lib/python3.10/site-packages/torch/_ops.py" source_line=756}
  %broadcast.486 = f32[32]{0} broadcast(f32[] %constant_407), dimensions={}, metadata={op_type="aten__mean" op_name="aten__mean" source_file="/usr/local/lib/python3.10/site-packages/torch/_ops.py" source_line=756}
  %multiply.431 = f32[32]{0} multiply(f32[32]{0} %reduce.55, f32[32]{0} %broadcast.486), metadata={op_type="aten__mean" op_name="aten__mean" source_file="/usr/local/lib/python3.10/site-packages/torch/_ops.py" source_line=756}
  %param_0.548 = f32[] parameter(0)
  %broadcast.484 = f32[32]{0} broadcast(f32[] %param_0.548), dimensions={}, metadata={op_type="aten__add" op_name="aten__add.521/aten__add" source_file="/usr/local/lib/python3.10/site-packages/torch/_ops.py" source_line=756}
  %add.234 = f32[32]{0} add(f32[32]{0} %multiply.431, f32[32]{0} %broadcast.484), metadata={op_type="aten__add" op_name="aten__add.724/aten__add" source_file="/usr/local/lib/python3.10/site-packages/torch/_ops.py" source_line=756}
  %rsqrt.98 = f32[32]{0} rsqrt(f32[32]{0} %add.234), metadata={op_type="aten__rsqrt" op_name="aten__rsqrt" source_file="/usr/local/lib/python3.10/site-packages/torch/_ops.py" source_line=756}
  %broadcast.483 = f32[32,1024]{1,0} broadcast(f32[32]{0} %rsqrt.98), dimensions={0}, metadata={op_type="aten__mul" op_name="aten__mul.725/aten__mul" source_file="/usr/local/lib/python3.10/site-packages/torch/_ops.py" source_line=756}
  %multiply.430 = f32[32,1024]{1,0} multiply(f32[32,1024]{1,0} %add.203.5, f32[32,1024]{1,0} %broadcast.483), metadata={op_type="aten__mul" op_name="aten__mul.725/aten__mul" source_file="/usr/local/lib/python3.10/site-packages/torch/_ops.py" source_line=756}
  %param_2.308 = bf16[1024]{0} parameter(2)
  %convert.784.1 = f32[1024]{0} convert(bf16[1024]{0} %param_2.308), metadata={op_type="xla__cast" op_name="xla__cast" source_file="/usr/local/lib/python3.10/site-packages/torch/_ops.py" source_line=756}
  %broadcast.330.3 = f32[32,1024]{1,0} broadcast(f32[1024]{0} %convert.784.1), dimensions={1}, metadata={op_type="aten__mul" op_name="aten__mul.726/aten__mul" source_file="/usr/local/lib/python3.10/site-packages/torch/_ops.py" source_line=756}
  %multiply.334.3 = f32[32,1024]{1,0} multiply(f32[32,1024]{1,0} %multiply.430, f32[32,1024]{1,0} %broadcast.330.3), metadata={op_type="aten__mul" op_name="aten__mul.726/aten__mul" source_file="/usr/local/lib/python3.10/site-packages/torch/_ops.py" source_line=756}
  ROOT %convert.785.1 = bf16[32,1024]{1,0} convert(f32[32,1024]{1,0} %multiply.334.3), metadata={op_type="xla__cast" op_name="xla__cast" source_file="/usr/local/lib/python3.10/site-packages/torch/_ops.py" source_line=756}
}

%wrapped_slice_computation (param_0.610: bf16[32,4096]) -> bf16[32,1024] {
  %param_0.610 = bf16[32,4096]{1,0} parameter(0)
  ROOT %slice.204.1 = bf16[32,1024]{1,0} slice(bf16[32,4096]{1,0} %param_0.610), slice={[0:32], [3072:4096]}, metadata={op_type="aten__split" op_name="aten__split" source_file="/usr/local/lib/python3.10/site-packages/torch/_ops.py" source_line=756}
}

%fused_computation.115 (param_0.591: f32[], param_1.482: bf16[32,4096], param_2.300: bf16[128]) -> f32[32,8,128] {
  %param_1.482 = bf16[32,4096]{1,0} parameter(1)
  %slice.199.1 = bf16[32,1024]{1,0} slice(bf16[32,4096]{1,0} %param_1.482), slice={[0:32], [2048:3072]}, metadata={op_type="aten__split" op_name="aten__split" source_file="/usr/local/lib/python3.10/site-packages/torch/_ops.py" source_line=756}
  %bitcast.2574.5 = bf16[32,8,128]{2,1,0} bitcast(bf16[32,1024]{1,0} %slice.199.1)
  %convert.786.5 = f32[32,8,128]{2,1,0} convert(bf16[32,8,128]{2,1,0} %bitcast.2574.5), metadata={op_type="xla__cast" op_name="xla__cast" source_file="/usr/local/lib/python3.10/site-packages/torch/_ops.py" source_line=756}
  %multiply.346 = f32[32,8,128]{2,1,0} multiply(f32[32,8,128]{2,1,0} %convert.786.5, f32[32,8,128]{2,1,0} %convert.786.5), metadata={op_type="aten__pow" op_name="aten__pow" source_file="/usr/local/lib/python3.10/site-packages/torch/_ops.py" source_line=756}
  %constant_325 = f32[] constant(0), metadata={op_type="aten__mean" op_name="aten__mean" source_file="/usr/local/lib/python3.10/site-packages/torch/_ops.py" source_line=756}
  %reduce.29 = f32[32,8]{1,0} reduce(f32[32,8,128]{2,1,0} %multiply.346, f32[] %constant_325), dimensions={2}, to_apply=%AddComputation.70, metadata={op_type="aten__mean" op_name="aten__mean" source_file="/usr/local/lib/python3.10/site-packages/torch/_ops.py" source_line=756}
  %constant_324 = f32[] constant(0.0078125), metadata={op_type="aten__mean" op_name="aten__mean" source_file="/usr/local/lib/python3.10/site-packages/torch/_ops.py" source_line=756}
  %broadcast.395 = f32[32,8]{1,0} broadcast(f32[] %constant_324), dimensions={}, metadata={op_type="aten__mean" op_name="aten__mean" source_file="/usr/local/lib/python3.10/site-packages/torch/_ops.py" source_line=756}
  %multiply.345 = f32[32,8]{1,0} multiply(f32[32,8]{1,0} %reduce.29, f32[32,8]{1,0} %broadcast.395), metadata={op_type="aten__mean" op_name="aten__mean" source_file="/usr/local/lib/python3.10/site-packages/torch/_ops.py" source_line=756}
  %param_0.591 = f32[] parameter(0)
  %broadcast.394 = f32[32,8]{1,0} broadcast(f32[] %param_0.591), dimensions={}, metadata={op_type="aten__add" op_name="aten__add.727/aten__add" source_file="/usr/local/lib/python3.10/site-packages/torch/_ops.py" source_line=756}
  %add.206 = f32[32,8]{1,0} add(f32[32,8]{1,0} %multiply.345, f32[32,8]{1,0} %broadcast.394), metadata={op_type="aten__add" op_name="aten__add.727/aten__add" source_file="/usr/local/lib/python3.10/site-packages/torch/_ops.py" source_line=756}
  %rsqrt.71 = f32[32,8]{1,0} rsqrt(f32[32,8]{1,0} %add.206), metadata={op_type="aten__rsqrt" op_name="aten__rsqrt" source_file="/usr/local/lib/python3.10/site-packages/torch/_ops.py" source_line=756}
  %broadcast.393 = f32[32,8,128]{2,1,0} broadcast(f32[32,8]{1,0} %rsqrt.71), dimensions={0,1}, metadata={op_type="aten__mul" op_name="aten__mul.728/aten__mul" source_file="/usr/local/lib/python3.10/site-packages/torch/_ops.py" source_line=756}
  %multiply.344 = f32[32,8,128]{2,1,0} multiply(f32[32,8,128]{2,1,0} %convert.786.5, f32[32,8,128]{2,1,0} %broadcast.393), metadata={op_type="aten__mul" op_name="aten__mul.728/aten__mul" source_file="/usr/local/lib/python3.10/site-packages/torch/_ops.py" source_line=756}
  %param_2.300 = bf16[128]{0} parameter(2)
  %convert.787.1 = f32[128]{0} convert(bf16[128]{0} %param_2.300), metadata={op_type="xla__cast" op_name="xla__cast" source_file="/usr/local/lib/python3.10/site-packages/torch/_ops.py" source_line=756}
  %broadcast.331.1 = f32[32,8,128]{2,1,0} broadcast(f32[128]{0} %convert.787.1), dimensions={2}, metadata={op_type="aten__mul" op_name="aten__mul.729/aten__mul" source_file="/usr/local/lib/python3.10/site-packages/torch/_ops.py" source_line=756}
  ROOT %multiply.335.1 = f32[32,8,128]{2,1,0} multiply(f32[32,8,128]{2,1,0} %multiply.344, f32[32,8,128]{2,1,0} %broadcast.331.1), metadata={op_type="aten__mul" op_name="aten__mul.729/aten__mul" source_file="/usr/local/lib/python3.10/site-packages/torch/_ops.py" source_line=756}
}

%fused_concatenate (param_0.590: f32[32,8,128], param_1.487: bf16[40960,128], param_2.303: s32[32]) -> bf16[32,8,128] {
  %param_0.590 = f32[32,8,128]{2,1,0} parameter(0)
  %slice.200.4 = f32[32,8,64]{2,1,0} slice(f32[32,8,128]{2,1,0} %param_0.590), slice={[0:32], [0:8], [0:64]}, metadata={op_type="aten__split" op_name="aten__split" source_file="/usr/local/lib/python3.10/site-packages/torch/_ops.py" source_line=756}
  %param_1.487 = bf16[40960,128]{1,0} parameter(1)
  %param_2.303 = s32[32]{0} parameter(2)
  %bitcast.2590.3 = s32[32,1]{1,0} bitcast(s32[32]{0} %param_2.303)
  %gather.1.3 = bf16[32,1,128]{2,0,1} gather(bf16[40960,128]{1,0} %param_1.487, s32[32,1]{1,0} %bitcast.2590.3), offset_dims={1,2}, collapsed_slice_dims={}, start_index_map={0}, index_vector_dim=1, slice_sizes={1,128}, metadata={op_type="aten__index_select" op_name="aten__index_select" source_file="/usr/local/lib/python3.10/site-packages/torch/_ops.py" source_line=756}
  %bitcast.2593.7 = bf16[32,128]{1,0} bitcast(bf16[32,1,128]{2,0,1} %gather.1.3)
  %convert.788.7 = f32[32,128]{1,0} convert(bf16[32,128]{1,0} %bitcast.2593.7), metadata={op_type="xla__cast" op_name="xla__cast" source_file="/usr/local/lib/python3.10/site-packages/torch/_ops.py" source_line=756}
  %slice.201.3 = f32[32,64]{1,0} slice(f32[32,128]{1,0} %convert.788.7), slice={[0:32], [0:64]}, metadata={op_type="aten__split" op_name="aten__split" source_file="/usr/local/lib/python3.10/site-packages/torch/_ops.py" source_line=756}
  %broadcast.332.12 = f32[32,8,64]{2,1,0} broadcast(f32[32,64]{1,0} %slice.201.3), dimensions={0,2}, metadata={op_type="aten__mul" op_name="aten__mul.730/aten__mul" source_file="/usr/local/lib/python3.10/site-packages/torch/_ops.py" source_line=756}
  %multiply.336.7 = f32[32,8,64]{2,1,0} multiply(f32[32,8,64]{2,1,0} %slice.200.4, f32[32,8,64]{2,1,0} %broadcast.332.12), metadata={op_type="aten__mul" op_name="aten__mul.730/aten__mul" source_file="/usr/local/lib/python3.10/site-packages/torch/_ops.py" source_line=756}
  %slice.202.4 = f32[32,8,64]{2,1,0} slice(f32[32,8,128]{2,1,0} %param_0.590), slice={[0:32], [0:8], [64:128]}, metadata={op_type="aten__split" op_name="aten__split" source_file="/usr/local/lib/python3.10/site-packages/torch/_ops.py" source_line=756}
  %slice.203.3 = f32[32,64]{1,0} slice(f32[32,128]{1,0} %convert.788.7), slice={[0:32], [64:128]}, metadata={op_type="aten__split" op_name="aten__split" source_file="/usr/local/lib/python3.10/site-packages/torch/_ops.py" source_line=756}
  %broadcast.333.8 = f32[32,8,64]{2,1,0} broadcast(f32[32,64]{1,0} %slice.203.3), dimensions={0,2}, metadata={op_type="aten__mul" op_name="aten__mul.731/aten__mul" source_file="/usr/local/lib/python3.10/site-packages/torch/_ops.py" source_line=756}
  %multiply.337.5 = f32[32,8,64]{2,1,0} multiply(f32[32,8,64]{2,1,0} %slice.202.4, f32[32,8,64]{2,1,0} %broadcast.333.8), metadata={op_type="aten__mul" op_name="aten__mul.731/aten__mul" source_file="/usr/local/lib/python3.10/site-packages/torch/_ops.py" source_line=756}
  %subtract.2.5 = f32[32,8,64]{2,1,0} subtract(f32[32,8,64]{2,1,0} %multiply.336.7, f32[32,8,64]{2,1,0} %multiply.337.5), metadata={op_type="aten__sub" op_name="aten__sub.732/aten__sub" source_file="/usr/local/lib/python3.10/site-packages/torch/_ops.py" source_line=756}
  %convert.789.3 = bf16[32,8,64]{2,1,0} convert(f32[32,8,64]{2,1,0} %subtract.2.5)
  %multiply.338.7 = f32[32,8,64]{2,1,0} multiply(f32[32,8,64]{2,1,0} %slice.202.4, f32[32,8,64]{2,1,0} %broadcast.332.12), metadata={op_type="aten__mul" op_name="aten__mul.733/aten__mul" source_file="/usr/local/lib/python3.10/site-packages/torch/_ops.py" source_line=756}
  %multiply.339.5 = f32[32,8,64]{2,1,0} multiply(f32[32,8,64]{2,1,0} %slice.200.4, f32[32,8,64]{2,1,0} %broadcast.333.8), metadata={op_type="aten__mul" op_name="aten__mul.734/aten__mul" source_file="/usr/local/lib/python3.10/site-packages/torch/_ops.py" source_line=756}
  %add.204.5 = f32[32,8,64]{2,1,0} add(f32[32,8,64]{2,1,0} %multiply.338.7, f32[32,8,64]{2,1,0} %multiply.339.5), metadata={op_type="aten__add" op_name="aten__add.735/aten__add" source_file="/usr/local/lib/python3.10/site-packages/torch/_ops.py" source_line=756}
  %convert.790.3 = bf16[32,8,64]{2,1,0} convert(f32[32,8,64]{2,1,0} %add.204.5)
  ROOT %concatenate.28.1 = bf16[32,8,128]{2,1,0} concatenate(bf16[32,8,64]{2,1,0} %convert.789.3, bf16[32,8,64]{2,1,0} %convert.790.3), dimensions={2}, metadata={op_type="aten__cat" op_name="aten__cat" source_file="/usr/local/lib/python3.10/site-packages/torch/_ops.py" source_line=756}
}

%fused_slice (param_0.1: bf16[2,4233,16,8,128]) -> bf16[69353472] {
  %param_0.1 = bf16[2,4233,16,8,128]{4,3,2,1,0} parameter(0)
  %bitcast.2634.1 = bf16[138706944]{0} bitcast(bf16[2,4233,16,8,128]{4,3,2,1,0} %param_0.1)
  ROOT %slice.206.1 = bf16[69353472]{0} slice(bf16[138706944]{0} %bitcast.2634.1), slice={[69353472:138706944]}, metadata={op_type="aten__as_strided" op_name="aten__as_strided" source_file="/usr/local/lib/python3.10/site-packages/torch/_higher_order_ops/auto_functionalize.py" source_line=54}
}

%wrapped_slice_computation.1 (param_0.611: bf16[2,4233,16,8,128]) -> bf16[1,4233,16,8,128] {
  %param_0.611 = bf16[2,4233,16,8,128]{4,3,2,1,0} parameter(0)
  ROOT %slice.205.1 = bf16[1,4233,16,8,128]{4,3,2,1,0} slice(bf16[2,4233,16,8,128]{4,3,2,1,0} %param_0.611), slice={[0:1], [0:4233], [0:16], [0:8], [0:128]}, metadata={op_type="aten__as_strided" op_name="aten__as_strided" source_file="/usr/local/lib/python3.10/site-packages/torch/_higher_order_ops/auto_functionalize.py" source_line=54}
}

%command_buffer (p: bf16[151936,1024], p.1: s32[32], p.2: bf16[1024,2048], p.3: bf16[1024,2048], p.4: bf16[1024,2048], p.5: bf16[1024,2048], p.6: bf16[1024,2048], p.7: bf16[1024,2048], p.8: bf16[1024,2048], p.9: bf16[1024,2048], p.10: bf16[1024,2048], p.11: bf16[1024,2048], p.12: bf16[1024,2048], p.13: bf16[1024,2048], p.14: f32[], p.15: bf16[1024], p.16: bf16[6144,1024], p.17: bf16[1024,3072], p.18: bf16[1024], p.19: bf16[6144,1024], p.20: bf16[1024,3072], p.21: bf16[1024], p.22: bf16[6144,1024], p.23: bf16[1024,3072], p.24: bf16[1024], p.25: bf16[6144,1024], p.26: bf16[1024,3072], p.27: bf16[1024], p.28: bf16[6144,1024], p.29: bf16[1024,3072], p.30: bf16[1024], p.31: bf16[6144,1024], p.32: bf16[1024,3072], p.33: bf16[1024], p.34: bf16[6144,1024], p.35: bf16[1024,3072], p.36: bf16[1024], p.37: bf16[6144,1024], p.38: bf16[1024,3072], p.39: bf16[1024], p.40: bf16[6144,1024], p.41: bf16[1024,3072], p.42: bf16[1024], p.43: bf16[6144,1024], p.44: bf16[1024,3072], p.45: bf16[1024], p.46: bf16[6144,1024], p.47: bf16[1024,3072], p.48: bf16[1024], p.49: bf16[6144,1024], p.50: bf16[1024,3072], p.51: bf16[1024], p.52: bf16[4096,1024], p.53: bf16[128], p.54: bf16[40960,128], p.55: s32[32], p.56: bf16[2,4233,16,8,128]) -> (bf16[32,8,128], bf16[32,8,128], bf16[4233,16,8,128], bf16[1,4233,16,8,128]) {
  %p = bf16[151936,1024]{1,0} parameter(0)
  %p.1 = s32[32]{0} parameter(1)
  %p.2 = bf16[1024,2048]{1,0} parameter(2)
  %p.3 = bf16[1024,2048]{1,0} parameter(3)
  %p.4 = bf16[1024,2048]{1,0} parameter(4)
  %p.5 = bf16[1024,2048]{1,0} parameter(5)
  %p.6 = bf16[1024,2048]{1,0} parameter(6)
  %p.7 = bf16[1024,2048]{1,0} parameter(7)
  %p.8 = bf16[1024,2048]{1,0} parameter(8)
  %p.9 = bf16[1024,2048]{1,0} parameter(9)
  %p.10 = bf16[1024,2048]{1,0} parameter(10)
  %p.11 = bf16[1024,2048]{1,0} parameter(11)
  %p.12 = bf16[1024,2048]{1,0} parameter(12)
  %p.13 = bf16[1024,2048]{1,0} parameter(13)
  %p.14 = f32[] parameter(14)
  %p.15 = bf16[1024]{0} parameter(15)
  %p.16 = bf16[6144,1024]{1,0} parameter(16)
  %p.17 = bf16[1024,3072]{1,0} parameter(17)
  %p.18 = bf16[1024]{0} parameter(18)
  %p.19 = bf16[6144,1024]{1,0} parameter(19)
  %p.20 = bf16[1024,3072]{1,0} parameter(20)
  %p.21 = bf16[1024]{0} parameter(21)
  %p.22 = bf16[6144,1024]{1,0} parameter(22)
  %p.23 = bf16[1024,3072]{1,0} parameter(23)
  %p.24 = bf16[1024]{0} parameter(24)
  %p.25 = bf16[6144,1024]{1,0} parameter(25)
  %p.26 = bf16[1024,3072]{1,0} parameter(26)
  %p.27 = bf16[1024]{0} parameter(27)
  %p.28 = bf16[6144,1024]{1,0} parameter(28)
  %p.29 = bf16[1024,3072]{1,0} parameter(29)
  %p.30 = bf16[1024]{0} parameter(30)
  %p.31 = bf16[6144,1024]{1,0} parameter(31)
  %p.32 = bf16[1024,3072]{1,0} parameter(32)
  %p.33 = bf16[1024]{0} parameter(33)
  %p.34 = bf16[6144,1024]{1,0} parameter(34)
  %p.35 = bf16[1024,3072]{1,0} parameter(35)
  %p.36 = bf16[1024]{0} parameter(36)
  %p.37 = bf16[6144,1024]{1,0} parameter(37)
  %p.38 = bf16[1024,3072]{1,0} parameter(38)
  %p.39 = bf16[1024]{0} parameter(39)
  %p.40 = bf16[6144,1024]{1,0} parameter(40)
  %p.41 = bf16[1024,3072]{1,0} parameter(41)
  %p.42 = bf16[1024]{0} parameter(42)
  %p.43 = bf16[6144,1024]{1,0} parameter(43)
  %p.44 = bf16[1024,3072]{1,0} parameter(44)
  %p.45 = bf16[1024]{0} parameter(45)
  %p.46 = bf16[6144,1024]{1,0} parameter(46)
  %p.47 = bf16[1024,3072]{1,0} parameter(47)
  %p.48 = bf16[1024]{0} parameter(48)
  %p.49 = bf16[6144,1024]{1,0} parameter(49)
  %p.50 = bf16[1024,3072]{1,0} parameter(50)
  %p.51 = bf16[1024]{0} parameter(51)
  %p.52 = bf16[4096,1024]{1,0} parameter(52)
  %p.53 = bf16[128]{0} parameter(53)
  %p.54 = bf16[40960,128]{1,0} parameter(54)
  %p.55 = s32[32]{0} parameter(55)
  %p.56 = bf16[2,4233,16,8,128]{4,3,2,1,0} parameter(56)
  %loop_gather_fusion = bf16[32,1,1024]{2,0,1} fusion(bf16[151936,1024]{1,0} %p, s32[32]{0} %p.1), kind=kLoop, calls=%fused_gather, metadata={op_type="aten__index_select" op_name="aten__index_select" source_file="/usr/local/lib/python3.10/site-packages/torch/_ops.py" source_line=756}
  %wrapped_concatenate = bf16[12288,2048]{1,0} fusion(bf16[1024,2048]{1,0} %p.2, bf16[1024,2048]{1,0} %p.3, bf16[1024,2048]{1,0} %p.4, bf16[1024,2048]{1,0} %p.5, bf16[1024,2048]{1,0} %p.6, /*index=5*/bf16[1024,2048]{1,0} %p.7, bf16[1024,2048]{1,0} %p.8, bf16[1024,2048]{1,0} %p.9, bf16[1024,2048]{1,0} %p.10, bf16[1024,2048]{1,0} %p.11, /*index=10*/bf16[1024,2048]{1,0} %p.12, bf16[1024,2048]{1,0} %p.13), kind=kLoop, calls=%wrapped_concatenate_computation, metadata={op_type="xla__device_data" op_name="xla__device_data" source_file="/usr/local/lib/python3.10/site-packages/torch_xla/_dynamo/dynamo_bridge.py" source_line=355}
  %gemm_fusion_dot.47.0 = bf16[32,12288]{1,0} fusion(bf16[12288,2048]{1,0} %wrapped_concatenate), kind=kCustom, calls=%gemm_fusion_dot.47_computation, metadata={op_type="aten__mm" op_name="aten__mm" source_file="/usr/local/lib/python3.10/site-packages/torch/_ops.py" source_line=756}, backend_config={"operation_queue_id":"0","wait_on_operation_queues":[],"fusion_backend_config":{"kind":"__triton_gemm","triton_gemm_config":{"block_m":"64","block_n":"32","block_k":"128","split_k":"1","num_stages":"4","num_warps":"4","num_ctas":"1"}},"force_earliest_schedule":false}
  %fusion.158 = bf16[32,1024]{1,0} fusion(f32[] %p.14, bf16[32,1,1024]{2,0,1} %loop_gather_fusion, bf16[32,12288]{1,0} %gemm_fusion_dot.47.0, bf16[1024]{0} %p.15), kind=kCustom, calls=%fused_computation.129, metadata={op_type="xla__cast" op_name="xla__cast" source_file="/usr/local/lib/python3.10/site-packages/torch/_ops.py" source_line=756}, backend_config={"operation_queue_id":"0","wait_on_operation_queues":[],"fusion_backend_config":{"kind":"__triton","block_level_fusion_config":{"output_tiles":[{"sizes":["1","1024"]}],"num_warps":"2"}},"force_earliest_schedule":false}
  %custom-call.25.0 = (bf16[32,6144]{1,0}, s8[4194304]{0}) custom-call(bf16[32,1024]{1,0} %fusion.158, bf16[6144,1024]{1,0} %p.16), custom_call_target="__cublas$gemm", metadata={op_type="aten__mm" op_name="aten__mm" source_file="/usr/local/lib/python3.10/site-packages/torch/_ops.py" source_line=756}, backend_config={"operation_queue_id":"0","wait_on_operation_queues":[],"gemm_backend_config":{"alpha_real":1,"alpha_imag":0,"beta":0,"dot_dimension_numbers":{"lhs_contracting_dimensions":["1"],"rhs_contracting_dimensions":["1"],"lhs_batch_dimensions":[],"rhs_batch_dimensions":[]},"precision_config":{"operand_precision":["DEFAULT","DEFAULT"],"algorithm":"ALG_UNSET"},"epilogue":"DEFAULT","damax_output":false,"lhs_stride":"32768","rhs_stride":"6291456","grad_x":false,"grad_y":false},"force_earliest_schedule":false}
  %get-tuple-element.25 = bf16[32,6144]{1,0} get-tuple-element((bf16[32,6144]{1,0}, s8[4194304]{0}) %custom-call.25.0), index=0, metadata={op_type="aten__mm" op_name="aten__mm" source_file="/usr/local/lib/python3.10/site-packages/torch/_ops.py" source_line=756}
  %loop_convert_fusion = bf16[32,3072]{1,0} fusion(bf16[32,6144]{1,0} %get-tuple-element.25), kind=kLoop, calls=%fused_convert, metadata={op_type="xla__cast" op_name="xla__cast" source_file="/usr/local/lib/python3.10/site-packages/torch/_ops.py" source_line=756 deduplicated_name="loop_convert_fusion"}
  %custom-call.26.0 = (bf16[32,1024]{1,0}, s8[4194304]{0}) custom-call(bf16[32,3072]{1,0} %loop_convert_fusion, bf16[1024,3072]{1,0} %p.17), custom_call_target="__cublas$gemm", metadata={op_type="aten__mm" op_name="aten__mm" source_file="/usr/local/lib/python3.10/site-packages/torch/_ops.py" source_line=756}, backend_config={"operation_queue_id":"0","wait_on_operation_queues":[],"gemm_backend_config":{"alpha_real":1,"alpha_imag":0,"beta":0,"dot_dimension_numbers":{"lhs_contracting_dimensions":["1"],"rhs_contracting_dimensions":["1"],"lhs_batch_dimensions":[],"rhs_batch_dimensions":[]},"precision_config":{"operand_precision":["DEFAULT","DEFAULT"],"algorithm":"ALG_UNSET"},"epilogue":"DEFAULT","damax_output":false,"lhs_stride":"98304","rhs_stride":"3145728","grad_x":false,"grad_y":false},"force_earliest_schedule":false}
  %get-tuple-element.1.0 = bf16[32,1024]{1,0} get-tuple-element((bf16[32,1024]{1,0}, s8[4194304]{0}) %custom-call.26.0), index=0, metadata={op_type="aten__mm" op_name="aten__mm" source_file="/usr/local/lib/python3.10/site-packages/torch/_ops.py" source_line=756}
  %fusion.159 = bf16[32,1024]{1,0} fusion(f32[] %p.14, bf16[1024]{0} %p.18, bf16[32,1,1024]{2,0,1} %loop_gather_fusion, bf16[32,12288]{1,0} %gemm_fusion_dot.47.0, bf16[32,1024]{1,0} %get-tuple-element.1.0), kind=kCustom, calls=%fused_computation.130, metadata={op_type="xla__cast" op_name="xla__cast" source_file="/usr/local/lib/python3.10/site-packages/torch/_ops.py" source_line=756}, backend_config={"operation_queue_id":"0","wait_on_operation_queues":[],"fusion_backend_config":{"kind":"__triton","block_level_fusion_config":{"output_tiles":[{"sizes":["1","1024"]}],"num_warps":"2"}},"force_earliest_schedule":false}
  %custom-call.27.0 = (bf16[32,6144]{1,0}, s8[4194304]{0}) custom-call(bf16[32,1024]{1,0} %fusion.159, bf16[6144,1024]{1,0} %p.19), custom_call_target="__cublas$gemm", metadata={op_type="aten__mm" op_name="aten__mm" source_file="/usr/local/lib/python3.10/site-packages/torch/_ops.py" source_line=756}, backend_config={"operation_queue_id":"0","wait_on_operation_queues":[],"gemm_backend_config":{"alpha_real":1,"alpha_imag":0,"beta":0,"dot_dimension_numbers":{"lhs_contracting_dimensions":["1"],"rhs_contracting_dimensions":["1"],"lhs_batch_dimensions":[],"rhs_batch_dimensions":[]},"precision_config":{"operand_precision":["DEFAULT","DEFAULT"],"algorithm":"ALG_UNSET"},"epilogue":"DEFAULT","damax_output":false,"lhs_stride":"32768","rhs_stride":"6291456","grad_x":false,"grad_y":false},"force_earliest_schedule":false}
  %get-tuple-element.2.0 = bf16[32,6144]{1,0} get-tuple-element((bf16[32,6144]{1,0}, s8[4194304]{0}) %custom-call.27.0), index=0, metadata={op_type="aten__mm" op_name="aten__mm" source_file="/usr/local/lib/python3.10/site-packages/torch/_ops.py" source_line=756}
  %loop_convert_fusion.1 = bf16[32,3072]{1,0} fusion(bf16[32,6144]{1,0} %get-tuple-element.2.0), kind=kLoop, calls=%fused_convert.1, metadata={op_type="xla__cast" op_name="xla__cast" source_file="/usr/local/lib/python3.10/site-packages/torch/_ops.py" source_line=756 deduplicated_name="loop_convert_fusion"}
  %custom-call.28.0 = (bf16[32,1024]{1,0}, s8[4194304]{0}) custom-call(bf16[32,3072]{1,0} %loop_convert_fusion.1, bf16[1024,3072]{1,0} %p.20), custom_call_target="__cublas$gemm", metadata={op_type="aten__mm" op_name="aten__mm" source_file="/usr/local/lib/python3.10/site-packages/torch/_ops.py" source_line=756}, backend_config={"operation_queue_id":"0","wait_on_operation_queues":[],"gemm_backend_config":{"alpha_real":1,"alpha_imag":0,"beta":0,"dot_dimension_numbers":{"lhs_contracting_dimensions":["1"],"rhs_contracting_dimensions":["1"],"lhs_batch_dimensions":[],"rhs_batch_dimensions":[]},"precision_config":{"operand_precision":["DEFAULT","DEFAULT"],"algorithm":"ALG_UNSET"},"epilogue":"DEFAULT","damax_output":false,"lhs_stride":"98304","rhs_stride":"3145728","grad_x":false,"grad_y":false},"force_earliest_schedule":false}
  %get-tuple-element.3.0 = bf16[32,1024]{1,0} get-tuple-element((bf16[32,1024]{1,0}, s8[4194304]{0}) %custom-call.28.0), index=0, metadata={op_type="aten__mm" op_name="aten__mm" source_file="/usr/local/lib/python3.10/site-packages/torch/_ops.py" source_line=756}
  %fusion.160 = bf16[32,1024]{1,0} fusion(f32[] %p.14, bf16[1024]{0} %p.21, bf16[32,1024]{1,0} %get-tuple-element.3.0, bf16[32,12288]{1,0} %gemm_fusion_dot.47.0, bf16[32,1,1024]{2,0,1} %loop_gather_fusion, /*index=5*/bf16[32,1024]{1,0} %get-tuple-element.1.0), kind=kCustom, calls=%fused_computation.131, metadata={op_type="xla__cast" op_name="xla__cast" source_file="/usr/local/lib/python3.10/site-packages/torch/_ops.py" source_line=756}, backend_config={"operation_queue_id":"0","wait_on_operation_queues":[],"fusion_backend_config":{"kind":"__triton","block_level_fusion_config":{"output_tiles":[{"sizes":["1","1024"]}],"num_warps":"2"}},"force_earliest_schedule":false}
  %custom-call.29.0 = (bf16[32,6144]{1,0}, s8[4194304]{0}) custom-call(bf16[32,1024]{1,0} %fusion.160, bf16[6144,1024]{1,0} %p.22), custom_call_target="__cublas$gemm", metadata={op_type="aten__mm" op_name="aten__mm" source_file="/usr/local/lib/python3.10/site-packages/torch/_ops.py" source_line=756}, backend_config={"operation_queue_id":"0","wait_on_operation_queues":[],"gemm_backend_config":{"alpha_real":1,"alpha_imag":0,"beta":0,"dot_dimension_numbers":{"lhs_contracting_dimensions":["1"],"rhs_contracting_dimensions":["1"],"lhs_batch_dimensions":[],"rhs_batch_dimensions":[]},"precision_config":{"operand_precision":["DEFAULT","DEFAULT"],"algorithm":"ALG_UNSET"},"epilogue":"DEFAULT","damax_output":false,"lhs_stride":"32768","rhs_stride":"6291456","grad_x":false,"grad_y":false},"force_earliest_schedule":false}
  %get-tuple-element.4.0 = bf16[32,6144]{1,0} get-tuple-element((bf16[32,6144]{1,0}, s8[4194304]{0}) %custom-call.29.0), index=0, metadata={op_type="aten__mm" op_name="aten__mm" source_file="/usr/local/lib/python3.10/site-packages/torch/_ops.py" source_line=756}
  %loop_convert_fusion.2 = bf16[32,3072]{1,0} fusion(bf16[32,6144]{1,0} %get-tuple-element.4.0), kind=kLoop, calls=%fused_convert.2, metadata={op_type="xla__cast" op_name="xla__cast" source_file="/usr/local/lib/python3.10/site-packages/torch/_ops.py" source_line=756 deduplicated_name="loop_convert_fusion"}
…
es":["1","1024"]}],"num_warps":"2"}},"force_earliest_schedule":false}
  %custom-call.31.0 = (bf16[32,6144]{1,0}, s8[4194304]{0}) custom-call(bf16[32,1024]{1,0} %fusion.161, bf16[6144,1024]{1,0} %p.25), custom_call_target="__cublas$gemm", metadata={op_type="aten__mm" op_name="aten__mm" source_file="/usr/local/lib/python3.10/site-packages/torch/_ops.py" source_line=756}, backend_config={"operation_queue_id":"0","wait_on_operation_queues":[],"gemm_backend_config":{"alpha_real":1,"alpha_imag":0,"beta":0,"dot_dimension_numbers":{"lhs_contracting_dimensions":["1"],"rhs_contracting_dimensions":["1"],"lhs_batch_dimensions":[],"rhs_batch_dimensions":[]},"precision_config":{"operand_precision":["DEFAULT","DEFAULT"],"algorithm":"ALG_UNSET"},"epilogue":"DEFAULT","damax_output":false,"lhs_stride":"32768","rhs_stride":"6291456","grad_x":false,"grad_y":false},"force_earliest_schedule":false}
  %get-tuple-element.6.0 = bf16[32,6144]{1,0} get-tuple-element((bf16[32,6144]{1,0}, s8[4194304]{0}) %custom-call.31.0), index=0, metadata={op_type="aten__mm" op_name="aten__mm" source_file="/usr/local/lib/python3.10/site-packages/torch/_ops.py" source_line=756}
  %loop_convert_fusion.3 = bf16[32,3072]{1,0} fusion(bf16[32,6144]{1,0} %get-tuple-element.6.0), kind=kLoop, calls=%fused_convert.3, metadata={op_type="xla__cast" op_name="xla__cast" source_file="/usr/local/lib/python3.10/site-packages/torch/_ops.py" source_line=756 deduplicated_name="loop_convert_fusion"}
  %custom-call.32.0 = (bf16[32,1024]{1,0}, s8[4194304]{0}) custom-call(bf16[32,3072]{1,0} %loop_convert_fusion.3, bf16[1024,3072]{1,0} %p.26), custom_call_target="__cublas$gemm", metadata={op_type="aten__mm" op_name="aten__mm" source_file="/usr/local/lib/python3.10/site-packages/torch/_ops.py" source_line=756}, backend_config={"operation_queue_id":"0","wait_on_operation_queues":[],"gemm_backend_config":{"alpha_real":1,"alpha_imag":0,"beta":0,"dot_dimension_numbers":{"lhs_contracting_dimensions":["1"],"rhs_contracting_dimensions":["1"],"lhs_batch_dimensions":[],"rhs_batch_dimensions":[]},"precision_config":{"operand_precision":["DEFAULT","DEFAULT"],"algorithm":"ALG_UNSET"},"epilogue":"DEFAULT","damax_output":false,"lhs_stride":"98304","rhs_stride":"3145728","grad_x":false,"grad_y":false},"force_earliest_schedule":false}
  %get-tuple-element.7.0 = bf16[32,1024]{1,0} get-tuple-element((bf16[32,1024]{1,0}, s8[4194304]{0}) %custom-call.32.0), index=0, metadata={op_type="aten__mm" op_name="aten__mm" source_file="/usr/local/lib/python3.10/site-packages/torch/_ops.py" source_line=756}
  %fusion.162 = bf16[32,1024]{1,0} fusion(f32[] %p.14, bf16[1024]{0} %p.27, bf16[32,1024]{1,0} %get-tuple-element.7.0, bf16[32,12288]{1,0} %gemm_fusion_dot.47.0, bf16[32,1,1024]{2,0,1} %loop_gather_fusion, /*index=5*/bf16[32,1024]{1,0} %get-tuple-element.1.0, bf16[32,1024]{1,0} %get-tuple-element.3.0, bf16[32,1024]{1,0} %get-tuple-element.5.0), kind=kCustom, calls=%fused_computation.133, metadata={op_type="xla__cast" op_name="xla__cast" source_file="/usr/local/lib/python3.10/site-packages/torch/_ops.py" source_line=756}, backend_config={"operation_queue_id":"0","wait_on_operation_queues":[],"fusion_backend_config":{"kind":"__triton","block_level_fusion_config":{"output_tiles":[{"sizes":["1","1024"]}],"num_warps":"2"}},"force_earliest_schedule":false}
  %custom-call.33.0 = (bf16[32,6144]{1,0}, s8[4194304]{0}) custom-call(bf16[32,1024]{1,0} %fusion.162, bf16[6144,1024]{1,0} %p.28), custom_call_target="__cublas$gemm", metadata={op_type="aten__mm" op_name="aten__mm" source_file="/usr/local/lib/python3.10/site-packages/torch/_ops.py" source_line=756}, backend_config={"operation_queue_id":"0","wait_on_operation_queues":[],"gemm_backend_config":{"alpha_real":1,"alpha_imag":0,"beta":0,"dot_dimension_numbers":{"lhs_contracting_dimensions":["1"],"rhs_contracting_dimensions":["1"],"lhs_batch_dimensions":[],"rhs_batch_dimensions":[]},"precision_config":{"operand_precision":["DEFAULT","DEFAULT"],"algorithm":"ALG_UNSET"},"epilogue":"DEFAULT","damax_output":false,"lhs_stride":"32768","rhs_stride":"6291456","grad_x":false,"grad_y":false},"force_earliest_schedule":false}
  %get-tuple-element.8.0 = bf16[32,6144]{1,0} get-tuple-element((bf16[32,6144]{1,0}, s8[4194304]{0}) %custom-call.33.0), index=0, metadata={op_type="aten__mm" op_name="aten__mm" source_file="/usr/local/lib/python3.10/site-packages/torch/_ops.py" source_line=756}
  %loop_convert_fusion.4 = bf16[32,3072]{1,0} fusion(bf16[32,6144]{1,0} %get-tuple-element.8.0), kind=kLoop, calls=%fused_convert.4, metadata={op_type="xla__cast" op_name="xla__cast" source_file="/usr/local/lib/python3.10/site-packages/torch/_ops.py" source_line=756 deduplicated_name="loop_convert_fusion"}
  %custom-call.34.0 = (bf16[32,1024]{1,0}, s8[4194304]{0}) custom-call(bf16[32,3072]{1,0} %loop_convert_fusion.4, bf16[1024,3072]{1,0} %p.29), custom_call_target="__cublas$gemm", metadata={op_type="aten__mm" op_name="aten__mm" source_file="/usr/local/lib/python3.10/site-packages/torch/_ops.py" source_line=756}, backend_config={"operation_queue_id":"0","wait_on_operation_queues":[],"gemm_backend_config":{"alpha_real":1,"alpha_imag":0,"beta":0,"dot_dimension_numbers":{"lhs_contracting_dimensions":["1"],"rhs_contracting_dimensions":["1"],"lhs_batch_dimensions":[],"rhs_batch_dimensions":[]},"precision_config":{"operand_precision":["DEFAULT","DEFAULT"],"algorithm":"ALG_UNSET"},"epilogue":"DEFAULT","damax_output":false,"lhs_stride":"98304","rhs_stride":"3145728","grad_x":false,"grad_y":false},"force_earliest_schedule":false}
  %get-tuple-element.9.0 = bf16[32,1024]{1,0} get-tuple-element((bf16[32,1024]{1,0}, s8[4194304]{0}) %custom-call.34.0), index=0, metadata={op_type="aten__mm" op_name="aten__mm" source_file="/usr/local/lib/python3.10/site-packages/torch/_ops.py" source_line=756}
  %loop_add_fusion = f32[32,1024]{1,0} fusion(bf16[32,12288]{1,0} %gemm_fusion_dot.47.0, bf16[32,1024]{1,0} %get-tuple-element.9.0, bf16[32,1024]{1,0} %get-tuple-element.7.0, bf16[32,1,1024]{2,0,1} %loop_gather_fusion, bf16[32,1024]{1,0} %get-tuple-element.1.0, /*index=5*/bf16[32,1024]{1,0} %get-tuple-element.3.0, bf16[32,1024]{1,0} %get-tuple-element.5.0), kind=kLoop, calls=%fused_add, metadata={op_type="aten__add" op_name="aten__add.610/aten__add" source_file="/usr/local/lib/python3.10/site-packages/torch/_ops.py" source_line=756}
  %fusion.163 = bf16[32,1024]{1,0} fusion(f32[32,1024]{1,0} %loop_add_fusion, f32[] %p.14, bf16[1024]{0} %p.30), kind=kCustom, calls=%fused_computation.134, metadata={op_type="xla__cast" op_name="xla__cast" source_file="/usr/local/lib/python3.10/site-packages/torch/_ops.py" source_line=756 deduplicated_name="fusion.163"}, backend_config={"operation_queue_id":"0","wait_on_operation_queues":[],"fusion_backend_config":{"kind":"__triton","block_level_fusion_config":{"output_tiles":[{"sizes":["1","1024"]}],"num_warps":"2"}},"force_earliest_schedule":false}
  %custom-call.35.0 = (bf16[32,6144]{1,0}, s8[4194304]{0}) custom-call(bf16[32,1024]{1,0} %fusion.163, bf16[6144,1024]{1,0} %p.31), custom_call_target="__cublas$gemm", metadata={op_type="aten__mm" op_name="aten__mm" source_file="/usr/local/lib/python3.10/site-packages/torch/_ops.py" source_line=756}, backend_config={"operation_queue_id":"0","wait_on_operation_queues":[],"gemm_backend_config":{"alpha_real":1,"alpha_imag":0,"beta":0,"dot_dimension_numbers":{"lhs_contracting_dimensions":["1"],"rhs_contracting_dimensions":["1"],"lhs_batch_dimensions":[],"rhs_batch_dimensions":[]},"precision_config":{"operand_precision":["DEFAULT","DEFAULT"],"algorithm":"ALG_UNSET"},"epilogue":"DEFAULT","damax_output":false,"lhs_stride":"32768","rhs_stride":"6291456","grad_x":false,"grad_y":false},"force_earliest_schedule":false}
  %get-tuple-element.10.0 = bf16[32,6144]{1,0} get-tuple-element((bf16[32,6144]{1,0}, s8[4194304]{0}) %custom-call.35.0), index=0, metadata={op_type="aten__mm" op_name="aten__mm" source_file="/usr/local/lib/python3.10/site-packages/torch/_ops.py" source_line=756}
  %loop_convert_fusion.5 = bf16[32,3072]{1,0} fusion(bf16[32,6144]{1,0} %get-tuple-element.10.0), kind=kLoop, calls=%fused_convert.5, metadata={op_type="xla__cast" op_name="xla__cast" source_file="/usr/local/lib/python3.10/site-packages/torch/_ops.py" source_line=756 deduplicated_name="loop_convert_fusion"}
  %custom-call.36.0 = (bf16[32,1024]{1,0}, s8[4194304]{0}) custom-call(bf16[32,3072]{1,0} %loop_convert_fusion.5, bf16[1024,3072]{1,0} %p.32), custom_call_target="__cublas$gemm", metadata={op_type="aten__mm" op_name="aten__mm" source_file="/usr/local/lib/python3.10/site-packages/torch/_ops.py" source_line=756}, backend_config={"operation_queue_id":"0","wait_on_operation_queues":[],"gemm_backend_config":{"alpha_real":1,"alpha_imag":0,"beta":0,"dot_dimension_numbers":{"lhs_contracting_dimensions":["1"],"rhs_contracting_dimensions":["1"],"lhs_batch_dimensions":[],"rhs_batch_dimensions":[]},"precision_config":{"operand_precision":["DEFAULT","DEFAULT"],"algorithm":"ALG_UNSET"},"epilogue":"DEFAULT","damax_output":false,"lhs_stride":"98304","rhs_stride":"3145728","grad_x":false,"grad_y":false},"force_earliest_schedule":false}
  %get-tuple-element.11.0 = bf16[32,1024]{1,0} get-tuple-element((bf16[32,1024]{1,0}, s8[4194304]{0}) %custom-call.36.0), index=0, metadata={op_type="aten__mm" op_name="aten__mm" source_file="/usr/local/lib/python3.10/site-packages/torch/_ops.py" source_line=756}
  %fusion.164 = bf16[32,1024]{1,0} fusion(f32[] %p.14, bf16[1024]{0} %p.33, f32[32,1024]{1,0} %loop_add_fusion, bf16[32,1024]{1,0} %get-tuple-element.11.0, bf16[32,12288]{1,0} %gemm_fusion_dot.47.0), kind=kCustom, calls=%fused_computation.135, metadata={op_type="xla__cast" op_name="xla__cast" source_file="/usr/local/lib/python3.10/site-packages/torch/_ops.py" source_line=756}, backend_config={"operation_queue_id":"0","wait_on_operation_queues":[],"fusion_backend_config":{"kind":"__triton","block_level_fusion_config":{"output_tiles":[{"sizes":["1","1024"]}],"num_warps":"2"}},"force_earliest_schedule":false}
  %custom-call.37.0 = (bf16[32,6144]{1,0}, s8[4194304]{0}) custom-call(bf16[32,1024]{1,0} %fusion.164, bf16[6144,1024]{1,0} %p.34), custom_call_target="__cublas$gemm", metadata={op_type="aten__mm" op_name="aten__mm" source_file="/usr/local/lib/python3.10/site-packages/torch/_ops.py" source_line=756}, backend_config={"operation_queue_id":"0","wait_on_operation_queues":[],"gemm_backend_config":{"alpha_real":1,"alpha_imag":0,"beta":0,"dot_dimension_numbers":{"lhs_contracting_dimensions":["1"],"rhs_contracting_dimensions":["1"],"lhs_batch_dimensions":[],"rhs_batch_dimensions":[]},"precision_config":{"operand_precision":["DEFAULT","DEFAULT"],"algorithm":"ALG_UNSET"},"epilogue":"DEFAULT","damax_output":false,"lhs_stride":"32768","rhs_stride":"6291456","grad_x":false,"grad_y":false},"force_earliest_schedule":false}
  %get-tuple-element.12.0 = bf16[32,6144]{1,0} get-tuple-element((bf16[32,6144]{1,0}, s8[4194304]{0}) %custom-call.37.0), index=0, metadata={op_type="aten__mm" op_name="aten__mm" source_file="/usr/local/lib/python3.10/site-packages/torch/_ops.py" source_line=756}
  %loop_convert_fusion.6 = bf16[32,3072]{1,0} fusion(bf16[32,6144]{1,0} %get-tuple-element.12.0), kind=kLoop, calls=%fused_convert.6, metadata={op_type="xla__cast" op_name="xla__cast" source_file="/usr/local/lib/python3.10/site-packages/torch/_ops.py" source_line=756 deduplicated_name="loop_convert_fusion"}
  %custom-call.38.0 = (bf16[32,1024]{1,0}, s8[4194304]{0}) custom-call(bf16[32,3072]{1,0} %loop_convert_fusion.6, bf16[1024,3072]{1,0} %p.35), custom_call_target="__cublas$gemm", metadata={op_type="aten__mm" op_name="aten__mm" source_file="/usr/local/lib/python3.10/site-packages/torch/_ops.py" source_line=756}, backend_config={"operation_queue_id":"0","wait_on_operation_queues":[],"gemm_backend_config":{"alpha_real":1,"alpha_imag":0,"beta":0,"dot_dimension_numbers":{"lhs_contracting_dimensions":["1"],"rhs_contracting_dimensions":["1"],"lhs_batch_dimensions":[],"rhs_batch_dimensions":[]},"precision_config":{"operand_precision":["DEFAULT","DEFAULT"],"algorithm":"ALG_UNSET"},"epilogue":"DEFAULT","damax_output":false,"lhs_stride":"98304","rhs_stride":"3145728","grad_x":false,"grad_y":false},"force_earliest_schedule":false}
  %get-tuple-element.13.0 = bf16[32,1024]{1,0} get-tuple-element((bf16[32,1024]{1,0}, s8[4194304]{0}) %custom-call.38.0), index=0, metadata={op_type="aten__mm" op_name="aten__mm" source_file="/usr/local/lib/python3.10/site-packages/torch/_ops.py" source_line=756}
  %fusion.165 = bf16[32,1024]{1,0} fusion(f32[] %p.14, bf16[1024]{0} %p.36, f32[32,1024]{1,0} %loop_add_fusion, bf16[32,1024]{1,0} %get-tuple-element.11.0, bf16[32,12288]{1,0} %gemm_fusion_dot.47.0, /*index=5*/bf16[32,1024]{1,0} %get-tuple-element.13.0), kind=kCustom, calls=%fused_computation.136, metadata={op_type="xla__cast" op_name="xla__cast" source_file="/usr/local/lib/python3.10/site-packages/torch/_ops.py" source_line=756}, backend_config={"operation_queue_id":"0","wait_on_operation_queues":[],"fusion_backend_config":{"kind":"__triton","block_level_fusion_config":{"output_tiles":[{"sizes":["1","1024"]}],"num_warps":"2"}},"force_earliest_schedule":false}
  %custom-call.39.0 = (bf16[32,6144]{1,0}, s8[4194304]{0}) custom-call(bf16[32,1024]{1,0} %fusion.165, bf16[6144,1024]{1,0} %p.37), custom_call_target="__cublas$gemm", metadata={op_type="aten__mm" op_name="aten__mm" source_file="/usr/local/lib/python3.10/site-packages/torch/_ops.py" source_line=756}, backend_config={"operation_queue_id":"0","wait_on_operation_queues":[],"gemm_backend_config":{"alpha_real":1,"alpha_imag":0,"beta":0,"dot_dimension_numbers":{"lhs_contracting_dimensions":["1"],"rhs_contracting_dimensions":["1"],"lhs_batch_dimensions":[],"rhs_batch_dimensions":[]},"precision_config":{"operand_precision":["DEFAULT","DEFAULT"],"algorithm":"ALG_UNSET"},"epilogue":"DEFAULT","damax_output":false,"lhs_stride":"32768","rhs_stride":"6291456","grad_x":false,"grad_y":false},"force_earliest_schedule":false}
  %get-tuple-element.14.0 = bf16[32,6144]{1,0} get-tuple-element((bf16[32,6144]{1,0}, s8[4194304]{0}) %custom-call.39.0), index=0, metadata={op_type="aten__mm" op_name="aten__mm" source_file="/usr/local/lib/python3.10/site-packages/torch/_ops.py" source_line=756}
  %loop_convert_fusion.7 = bf16[32,3072]{1,0} fusion(bf16[32,6144]{1,0} %get-tuple-element.14.0), kind=kLoop, calls=%fused_convert.7, metadata={op_type="xla__cast" op_name="xla__cast" source_file="/usr/local/lib/python3.10/site-packages/torch/_ops.py" source_line=756 deduplicated_name="loop_convert_fusion"}
  %custom-call.40.0 = (bf16[32,1024]{1,0}, s8[4194304]{0}) custom-call(bf16[32,3072]{1,0} %loop_convert_fusion.7, bf16[1024,3072]{1,0} %p.38), custom_call_target="__cublas$gemm", metadata={op_type="aten__mm" op_name="aten__mm" source_file="/usr/local/lib/python3.10/site-packages/torch/_ops.py" source_line=756}, backend_config={"operation_queue_id":"0","wait_on_operation_queues":[],"gemm_backend_config":{"alpha_real":1,"alpha_imag":0,"beta":0,"dot_dimension_numbers":{"lhs_contracting_dimensions":["1"],"rhs_contracting_dimensions":["1"],"lhs_batch_dimensions":[],"rhs_batch_dimensions":[]},"precision_config":{"operand_precision":["DEFAULT","DEFAULT"],"algorithm":"ALG_UNSET"},"epilogue":"DEFAULT","damax_output":false,"lhs_stride":"98304","rhs_stride":"3145728","grad_x":false,"grad_y":false},"force_earliest_schedule":false}
  %get-tuple-element.15.0 = bf16[32,1024]{1,0} get-tuple-element((bf16[32,1024]{1,0}, s8[4194304]{0}) %custom-call.40.0), index=0, metadata={op_type="aten__mm" op_name="aten__mm" source_file="/usr/local/lib/python3.10/site-packages/torch/_ops.py" source_line=756}
  %fusion.166 = bf16[32,1024]{1,0} fusion(f32[] %p.14, bf16[1024]{0} %p.39, bf16[32,1024]{1,0} %get-tuple-element.15.0, bf16[32,12288]{1,0} %gemm_fusion_dot.47.0, f32[32,1024]{1,0} %loop_add_fusion, /*index=5*/bf16[32,1024]{1,0} %get-tuple-element.11.0, bf16[32,1024]{1,0} %get-tuple-element.13.0), kind=kCustom, calls=%fused_computation.137, metadata={op_type="xla__cast" op_name="xla__cast" source_file="/usr/local/lib/python3.10/site-packages/torch/_ops.py" source_line=756}, backend_config={"operation_queue_id":"0","wait_on_operation_queues":[],"fusion_backend_config":{"kind":"__triton","block_level_fusion_config":{"output_tiles":[{"sizes":["1","1024"]}],"num_warps":"2"}},"force_earliest_schedule":false}
  %custom-call.41.0 = (bf16[32,6144]{1,0}, s8[4194304]{0}) custom-call(bf16[32,1024]{1,0} %fusion.166, bf16[6144,1024]{1,0} %p.40), custom_call_target="__cublas$gemm", metadata={op_type="aten__mm" op_name="aten__mm" source_file="/usr/local/lib/python3.10/site-packages/torch/_ops.py" source_line=756}, backend_config={"operation_queue_id":"0","wait_on_operation_queues":[],"gemm_backend_config":{"alpha_real":1,"alpha_imag":0,"beta":0,"dot_dimension_numbers":{"lhs_contracting_dimensions":["1"],"rhs_contracting_dimensions":["1"],"lhs_batch_dimensions":[],"rhs_batch_dimensions":[]},"precision_config":{"operand_precision":["DEFAULT","DEFAULT"],"algorithm":"ALG_UNSET"},"epilogue":"DEFAULT","damax_output":false,"lhs_stride":"32768","rhs_stride":"6291456","grad_x":false,"grad_y":false},"force_earliest_schedule":false}
  %get-tuple-element.16.0 = bf16[32,6144]{1,0} get-tuple-element((bf16[32,6144]{1,0}, s8[4194304]{0}) %custom-call.41.0), index=0, metadata={op_type="aten__mm" op_name="aten__mm" source_file="/usr/local/lib/python3.10/site-packages/torch/_ops.py" source_line=756}
  %loop_convert_fusion.8 = bf16[32,3072]{1,0} fusion(bf16[32,6144]{1,0} %get-tuple-element.16.0), kind=kLoop, calls=%fused_convert.8, metadata={op_type="xla__cast" op_name="xla__cast" source_file="/usr/local/lib/python3.10/site-packages/torch/_ops.py" source_line=756 deduplicated_name="loop_convert_fusion"}
  %custom-call.42.0 = (bf16[32,1024]{1,0}, s8[4194304]{0}) custom-call(bf16[32,3072]{1,0} %loop_convert_fusion.8, bf16[1024,3072]{1,0} %p.41), custom_call_target="__cublas$gemm", metadata={op_type="aten__mm" op_name="aten__mm" source_file="/usr/local/lib/python3.10/site-packages/torch/_ops.py" source_line=756}, backend_config={"operation_queue_id":"0","wait_on_operation_queues":[],"gemm_backend_config":{"alpha_real":1,"alpha_imag":0,"beta":0,"dot_dimension_numbers":{"lhs_contracting_dimensions":["1"],"rhs_contracting_dimensions":["1"],"lhs_batch_dimensions":[],"rhs_batch_dimensions":[]},"precision_config":{"operand_precision":["DEFAULT","DEFAULT"],"algorithm":"ALG_UNSET"},"epilogue":"DEFAULT","damax_output":false,"lhs_stride":"98304","rhs_stride":"3145728","grad_x":false,"grad_y":false},"force_earliest_schedule":false}
  %get-tuple-element.17.0 = bf16[32,1024]{1,0} get-tuple-element((bf16[32,1024]{1,0}, s8[4194304]{0}) %custom-call.42.0), index=0, metadata={op_type="aten__mm" op_name="aten__mm" source_file="/usr/local/lib/python3.10/site-packages/torch/_ops.py" source_line=756}
  %loop_add_fusion.1 = f32[32,1024]{1,0} fusion(bf16[32,12288]{1,0} %gemm_fusion_dot.47.0, bf16[32,1024]{1,0} %get-tuple-element.17.0, bf16[32,1024]{1,0} %get-tuple-element.15.0, f32[32,1024]{1,0} %loop_add_fusion, bf16[32,1024]{1,0} %get-tuple-element.11.0, /*index=5*/bf16[32,1024]{1,0} %get-tuple-element.13.0), kind=kLoop, calls=%fused_add.1, metadata={op_type="aten__add" op_name="aten__add.682/aten__add" source_file="/usr/local/lib/python3.10/site-packages/torch/_ops.py" source_line=756}
  %fusion.167 = bf16[32,1024]{1,0} fusion(f32[32,1024]{1,0} %loop_add_fusion.1, f32[] %p.14, bf16[1024]{0} %p.42), kind=kCustom, calls=%fused_computation.138, metadata={op_type="xla__cast" op_name="xla__cast" source_file="/usr/local/lib/python3.10/site-packages/torch/_ops.py" source_line=756 deduplicated_name="fusion.163"}, backend_config={"operation_queue_id":"0","wait_on_operation_queues":[],"fusion_backend_config":{"kind":"__triton","block_level_fusion_config":{"output_tiles":[{"sizes":["1","1024"]}],"num_warps":"2"}},"force_earliest_schedule":false}
  %custom-call.43.0 = (bf16[32,6144]{1,0}, s8[4194304]{0}) custom-call(bf16[32,1024]{1,0} %fusion.167, bf16[6144,1024]{1,0} %p.43), custom_call_target="__cublas$gemm", metadata={op_type="aten__mm" op_name="aten__mm" source_file="/usr/local/lib/python3.10/site-packages/torch/_ops.py" source_line=756}, backend_config={"operation_queue_id":"0","wait_on_operation_queues":[],"gemm_backend_config":{"alpha_real":1,"alpha_imag":0,"beta":0,"dot_dimension_numbers":{"lhs_contracting_dimensions":["1"],"rhs_contracting_dimensions":["1"],"lhs_batch_dimensions":[],"rhs_batch_dimensions":[]},"precision_config":{"operand_precision":["DEFAULT","DEFAULT"],"algorithm":"ALG_UNSET"},"epilogue":"DEFAULT","damax_output":false,"lhs_stride":"32768","rhs_stride":"6291456","grad_x":false,"grad_y":false},"force_earliest_schedule":false}
  %get-tuple-element.18.0 = bf16[32,6144]{1,0} get-tuple-element((bf16[32,6144]{1,0}, s8[4194304]{0}) %custom-call.43.0), index=0, metadata={op_type="aten__mm" op_name="aten__mm" source_file="/usr/local/lib/python3.10/site-packages/torch/_ops.py" source_line=756}
  %loop_convert_fusion.9 = bf16[32,3072]{1,0} fusion(bf16[32,6144]{1,0} %get-tuple-element.18.0), kind=kLoop, calls=%fused_convert.9, metadata={op_type="xla__cast" op_name="xla__cast" source_file="/usr/local/lib/python3.10/site-packages/torch/_ops.py" source_line=756 deduplicated_name="loop_convert_fusion"}
  %custom-call.44.0 = (bf16[32,1024]{1,0}, s8[4194304]{0}) custom-call(bf16[32,3072]{1,0} %loop_convert_fusion.9, bf16[1024,3072]{1,0} %p.44), custom_call_target="__cublas$gemm", metadata={op_type="aten__mm" op_name="aten__mm" source_file="/usr/local/lib/python3.10/site-packages/torch/_ops.py" source_line=756}, backend_config={"operation_queue_id":"0","wait_on_operation_queues":[],"gemm_backend_config":{"alpha_real":1,"alpha_imag":0,"beta":0,"dot_dimension_numbers":{"lhs_contracting_dimensions":["1"],"rhs_contracting_dimensions":["1"],"lhs_batch_dimensions":[],"rhs_batch_dimensions":[]},"precision_config":{"operand_precision":["DEFAULT","DEFAULT"],"algorithm":"ALG_UNSET"},"epilogue":"DEFAULT","damax_output":false,"lhs_stride":"98304","rhs_stride":"3145728","grad_x":false,"grad_y":false},"force_earliest_schedule":false}
  %get-tuple-element.19.0 = bf16[32,1024]{1,0} get-tuple-element((bf16[32,1024]{1,0}, s8[4194304]{0}) %custom-call.44.0), index=0, metadata={op_type="aten__mm" op_name="aten__mm" source_file="/usr/local/lib/python3.10/site-packages/torch/_ops.py" source_line=756}
  %fusion.168 = bf16[32,1024]{1,0} fusion(f32[] %p.14, bf16[1024]{0} %p.45, f32[32,1024]{1,0} %loop_add_fusion.1, bf16[32,1024]{1,0} %get-tuple-element.19.0, bf16[32,12288]{1,0} %gemm_fusion_dot.47.0), kind=kCustom, calls=%fused_computation.139, metadata={op_type="xla__cast" op_name="xla__cast" source_file="/usr/local/lib/python3.10/site-packages/torch/_ops.py" source_line=756}, backend_config={"operation_queue_id":"0","wait_on_operation_queues":[],"fusion_backend_config":{"kind":"__triton","block_level_fusion_config":{"output_tiles":[{"sizes":["1","1024"]}],"num_warps":"2"}},"force_earliest_schedule":false}
  %custom-call.45.0 = (bf16[32,6144]{1,0}, s8[4194304]{0}) custom-call(bf16[32,1024]{1,0} %fusion.168, bf16[6144,1024]{1,0} %p.46), custom_call_target="__cublas$gemm", metadata={op_type="aten__mm" op_name="aten__mm" source_file="/usr/local/lib/python3.10/site-packages/torch/_ops.py" source_line=756}, backend_config={"operation_queue_id":"0","wait_on_operation_queues":[],"gemm_backend_config":{"alpha_real":1,"alpha_imag":0,"beta":0,"dot_dimension_numbers":{"lhs_contracting_dimensions":["1"],"rhs_contracting_dimensions":["1"],"lhs_batch_dimensions":[],"rhs_batch_dimensions":[]},"precision_config":{"operand_precision":["DEFAULT","DEFAULT"],"algorithm":"ALG_UNSET"},"epilogue":"DEFAULT","damax_output":false,"lhs_stride":"32768","rhs_stride":"6291456","grad_x":false,"grad_y":false},"force_earliest_schedule":false}
  %get-tuple-element.20.0 = bf16[32,6144]{1,0} get-tuple-element((bf16[32,6144]{1,0}, s8[4194304]{0}) %custom-call.45.0), index=0, metadata={op_type="aten__mm" op_name="aten__mm" source_file="/usr/local/lib/python3.10/site-packages/torch/_ops.py" source_line=756}
  %loop_convert_fusion.10 = bf16[32,3072]{1,0} fusion(bf16[32,6144]{1,0} %get-tuple-element.20.0), kind=kLoop, calls=%fused_convert.10, metadata={op_type="xla__cast" op_name="xla__cast" source_file="/usr/local/lib/python3.10/site-packages/torch/_ops.py" source_line=756 deduplicated_name="loop_convert_fusion"}
  %custom-call.46.0 = (bf16[32,1024]{1,0}, s8[4194304]{0}) custom-call(bf16[32,3072]{1,0} %loop_convert_fusion.10, bf16[1024,3072]{1,0} %p.47), custom_call_target="__cublas$gemm", metadata={op_type="aten__mm" op_name="aten__mm" source_file="/usr/local/lib/python3.10/site-packages/torch/_ops.py" source_line=756}, backend_config={"operation_queue_id":"0","wait_on_operation_queues":[],"gemm_backend_config":{"alpha_real":1,"alpha_imag":0,"beta":0,"dot_dimension_numbers":{"lhs_contracting_dimensions":["1"],"rhs_contracting_dimensions":["1"],"lhs_batch_dimensions":[],"rhs_batch_dimensions":[]},"precision_config":{"operand_precision":["DEFAULT","DEFAULT"],"algorithm":"ALG_UNSET"},"epilogue":"DEFAULT","damax_output":false,"lhs_stride":"98304","rhs_stride":"3145728","grad_x":false,"grad_y":false},"force_earliest_schedule":false}
  %get-tuple-element.21.0 = bf16[32,1024]{1,0} get-tuple-element((bf16[32,1024]{1,0}, s8[4194304]{0}) %custom-call.46.0), index=0, metadata={op_type="aten__mm" op_name="aten__mm" source_file="/usr/local/lib/python3.10/site-packages/torch/_ops.py" source_line=756}
  %fusion.169 = bf16[32,1024]{1,0} fusion(f32[] %p.14, bf16[1024]{0} %p.48, f32[32,1024]{1,0} %loop_add_fusion.1, bf16[32,1024]{1,0} %get-tuple-element.19.0, bf16[32,12288]{1,0} %gemm_fusion_dot.47.0, /*index=5*/bf16[32,1024]{1,0} %get-tuple-element.21.0), kind=kCustom, calls=%fused_computation.140, metadata={op_type="xla__cast" op_name="xla__cast" source_file="/usr/local/lib/python3.10/site-packages/torch/_ops.py" source_line=756}, backend_config={"operation_queue_id":"0","wait_on_operation_queues":[],"fusion_backend_config":{"kind":"__triton","block_level_fusion_config":{"output_tiles":[{"sizes":["1","1024"]}],"num_warps":"2"}},"force_earliest_schedule":false}
  %custom-call.47.0 = (bf16[32,6144]{1,0}, s8[4194304]{0}) custom-call(bf16[32,1024]{1,0} %fusion.169, bf16[6144,1024]{1,0} %p.49), custom_call_target="__cublas$gemm", metadata={op_type="aten__mm" op_name="aten__mm" source_file="/usr/local/lib/python3.10/site-packages/torch/_ops.py" source_line=756}, backend_config={"operation_queue_id":"0","wait_on_operation_queues":[],"gemm_backend_config":{"alpha_real":1,"alpha_imag":0,"beta":0,"dot_dimension_numbers":{"lhs_contracting_dimensions":["1"],"rhs_contracting_dimensions":["1"],"lhs_batch_dimensions":[],"rhs_batch_dimensions":[]},"precision_config":{"operand_precision":["DEFAULT","DEFAULT"],"algorithm":"ALG_UNSET"},"epilogue":"DEFAULT","damax_output":false,"lhs_stride":"32768","rhs_stride":"6291456","grad_x":false,"grad_y":false},"force_earliest_schedule":false}
  %get-tuple-element.22.0 = bf16[32,6144]{1,0} get-tuple-element((bf16[32,6144]{1,0}, s8[4194304]{0}) %custom-call.47.0), index=0, metadata={op_type="aten__mm" op_name="aten__mm" source_file="/usr/local/lib/python3.10/site-packages/torch/_ops.py" source_line=756}
  %loop_convert_fusion.11 = bf16[32,3072]{1,0} fusion(bf16[32,6144]{1,0} %get-tuple-element.22.0), kind=kLoop, calls=%fused_convert.11, metadata={op_type="xla__cast" op_name="xla__cast" source_file="/usr/local/lib/python3.10/site-packages/torch/_ops.py" source_line=756 deduplicated_name="loop_convert_fusion"}
  %custom-call.48.0 = (bf16[32,1024]{1,0}, s8[4194304]{0}) custom-call(bf16[32,3072]{1,0} %loop_convert_fusion.11, bf16[1024,3072]{1,0} %p.50), custom_call_target="__cublas$gemm", metadata={op_type="aten__mm" op_name="aten__mm" source_file="/usr/local/lib/python3.10/site-packages/torch/_ops.py" source_line=756}, backend_config={"operation_queue_id":"0","wait_on_operation_queues":[],"gemm_backend_config":{"alpha_real":1,"alpha_imag":0,"beta":0,"dot_dimension_numbers":{"lhs_contracting_dimensions":["1"],"rhs_contracting_dimensions":["1"],"lhs_batch_dimensions":[],"rhs_batch_dimensions":[]},"precision_config":{"operand_precision":["DEFAULT","DEFAULT"],"algorithm":"ALG_UNSET"},"epilogue":"DEFAULT","damax_output":false,"lhs_stride":"98304","rhs_stride":"3145728","grad_x":false,"grad_y":false},"force_earliest_schedule":false}
  %get-tuple-element.23.0 = bf16[32,1024]{1,0} get-tuple-element((bf16[32,1024]{1,0}, s8[4194304]{0}) %custom-call.48.0), index=0, metadata={op_type="aten__mm" op_name="aten__mm" source_file="/usr/local/lib/python3.10/site-packages/torch/_ops.py" source_line=756}
  %fusion.170 = bf16[32,1024]{1,0} fusion(f32[] %p.14, bf16[32,1024]{1,0} %get-tuple-element.23.0, bf16[1024]{0} %p.51, f32[32,1024]{1,0} %loop_add_fusion.1, bf16[32,1024]{1,0} %get-tuple-element.19.0, /*index=5*/bf16[32,12288]{1,0} %gemm_fusion_dot.47.0, bf16[32,1024]{1,0} %get-tuple-element.21.0), kind=kCustom, calls=%fused_computation.141, metadata={op_type="xla__cast" op_name="xla__cast" source_file="/usr/local/lib/python3.10/site-packages/torch/_ops.py" source_line=756}, backend_config={"operation_queue_id":"0","wait_on_operation_queues":[],"fusion_backend_config":{"kind":"__triton","block_level_fusion_config":{"output_tiles":[{"sizes":["1","1024"]}],"num_warps":"2"}},"force_earliest_schedule":false}
  %custom-call.49.0 = (bf16[32,4096]{1,0}, s8[4194304]{0}) custom-call(bf16[32,1024]{1,0} %fusion.170, bf16[4096,1024]{1,0} %p.52), custom_call_target="__cublas$gemm", metadata={op_type="aten__mm" op_name="aten__mm" source_file="/usr/local/lib/python3.10/site-packages/torch/_ops.py" source_line=756}, backend_config={"operation_queue_id":"0","wait_on_operation_queues":[],"gemm_backend_config":{"alpha_real":1,"alpha_imag":0,"beta":0,"dot_dimension_numbers":{"lhs_contracting_dimensions":["1"],"rhs_contracting_dimensions":["1"],"lhs_batch_dimensions":[],"rhs_batch_dimensions":[]},"precision_config":{"operand_precision":["DEFAULT","DEFAULT"],"algorithm":"ALG_UNSET"},"epilogue":"DEFAULT","damax_output":false,"lhs_stride":"32768","rhs_stride":"4194304","grad_x":false,"grad_y":false},"force_earliest_schedule":false}
  %get-tuple-element.24.0 = bf16[32,4096]{1,0} get-tuple-element((bf16[32,4096]{1,0}, s8[4194304]{0}) %custom-call.49.0), index=0, metadata={op_type="aten__mm" op_name="aten__mm" source_file="/usr/local/lib/python3.10/site-packages/torch/_ops.py" source_line=756}
  %wrapped_slice = bf16[32,1024]{1,0} fusion(bf16[32,4096]{1,0} %get-tuple-element.24.0), kind=kLoop, calls=%wrapped_slice_computation, metadata={op_type="aten__split" op_name="aten__split" source_file="/usr/local/lib/python3.10/site-packages/torch/_ops.py" source_line=756}
  %fusion.144 = f32[32,8,128]{2,1,0} fusion(f32[] %p.14, bf16[32,4096]{1,0} %get-tuple-element.24.0, bf16[128]{0} %p.53), kind=kCustom, calls=%fused_computation.115, metadata={op_type="aten__mul" op_name="aten__mul.729/aten__mul" source_file="/usr/local/lib/python3.10/site-packages/torch/_ops.py" source_line=756}, backend_config={"operation_queue_id":"0","wait_on_operation_queues":[],"fusion_backend_config":{"kind":"__triton","block_level_fusion_config":{"output_tiles":[{"sizes":["1","4","128"]}],"num_warps":"2"}},"force_earliest_schedule":false}
  %input_concatenate_fusion = bf16[32,8,128]{2,1,0} fusion(f32[32,8,128]{2,1,0} %fusion.144, bf16[40960,128]{1,0} %p.54, s32[32]{0} %p.55), kind=kInput, calls=%fused_concatenate, metadata={op_type="aten__cat" op_name="aten__cat" source_file="/usr/local/lib/python3.10/site-packages/torch/_ops.py" source_line=756}
  %bitcast.2626.0 = bf16[32,8,128]{2,1,0} bitcast(bf16[32,1024]{1,0} %wrapped_slice)
  %loop_slice_fusion = bf16[69353472]{0} fusion(bf16[2,4233,16,8,128]{4,3,2,1,0} %p.56), kind=kLoop, calls=%fused_slice, metadata={op_type="aten__as_strided" op_name="aten__as_strided" source_file="/usr/local/lib/python3.10/site-packages/torch/_higher_order_ops/auto_functionalize.py" source_line=54}
  %bitcast.2638.0 = bf16[4233,16,8,128]{3,2,1,0} bitcast(bf16[69353472]{0} %loop_slice_fusion)
  %wrapped_slice.1 = bf16[1,4233,16,8,128]{4,3,2,1,0} fusion(bf16[2,4233,16,8,128]{4,3,2,1,0} %p.56), kind=kLoop, calls=%wrapped_slice_computation.1, metadata={op_type="aten__as_strided" op_name="aten__as_strided" source_file="/usr/local/lib/python3.10/site-packages/torch/_higher_order_ops/auto_functionalize.py" source_line=54}
  ROOT %tuple = (bf16[32,8,128]{2,1,0}, bf16[32,8,128]{2,1,0}, bf16[4233,16,8,128]{3,2,1,0}, bf16[1,4233,16,8,128]{4,3,2,1,0}) tuple(bf16[32,8,128]{2,1,0} %input_concatenate_fusion, bf16[32,8,128]{2,1,0} %bitcast.2626.0, bf16[4233,16,8,128]{3,2,1,0} %bitcast.2638.0, bf16[1,4233,16,8,128]{4,3,2,1,0} %wrapped_slice.1)
}

ENTRY %SyncTensorsGraph.1033 (p0.1.0: bf16[128], p1.4.0: f32[], p2.6.0: bf16[4096,1024], p3.8.0: bf16[1024], p4.36.0: s32[32], p5.38.0: bf16[151936,1024], p6.42.0: bf16[1024,2048], p7.58.0: bf16[1024,3072], p8.60.0: bf16[6144,1024], p9.62.0: bf16[1024], p10.114.0: bf16[1024,2048], p11.130.0: bf16[1024,3072], p12.132.0: bf16[6144,1024], p13.134.0: bf16[1024], p14.186.0: bf16[1024,2048], p15.202.0: bf16[1024,3072], p16.204.0: bf16[6144,1024], p17.206.0: bf16[1024], p18.258.0: bf16[1024,2048], p19.274.0: bf16[1024,3072], p20.276.0: bf16[6144,1024], p21.278.0: bf16[1024], p22.330.0: bf16[1024,2048], p23.346.0: bf16[1024,3072], p24.348.0: bf16[6144,1024], p25.350.0: bf16[1024], p26.402.0: bf16[1024,2048], p27.418.0: bf16[1024,3072], p28.420.0: bf16[6144,1024], p29.422.0: bf16[1024], p30.474.0: bf16[1024,2048], p31.490.0: bf16[1024,3072], p32.492.0: bf16[6144,1024], p33.494.0: bf16[1024], p34.546.0: bf16[1024,2048], p35.562.0: bf16[1024,3072], p36.564.0: bf16[6144,1024], p37.566.0: bf16[1024], p38.618.0: bf16[1024,2048], p39.634.0: bf16[1024,3072], p40.636.0: bf16[6144,1024], p41.638.0: bf16[1024], p42.690.0: bf16[1024,2048], p43.706.0: bf16[1024,3072], p44.708.0: bf16[6144,1024], p45.710.0: bf16[1024], p46.762.0: bf16[1024,2048], p47.778.0: bf16[1024,3072], p48.780.0: bf16[6144,1024], p49.782.0: bf16[1024], p50.834.0: bf16[1024,2048], p51.850.0: bf16[1024,3072], p52.852.0: bf16[6144,1024], p53.854.0: bf16[1024], p54.978.0: s32[32], p55.979.0: bf16[40960,128], p56.1023.0: bf16[2,4233,16,8,128]) -> (bf16[32,8,128], bf16[32,8,128], bf16[4233,16,8,128], bf16[4233,16,8,128]) {
  %p1.4.0 = f32[] parameter(1), metadata={op_type="xla__device_data" op_name="xla__device_data" source_file="/usr/local/lib/python3.10/site-packages/torch/_ops.py" source_line=756}
  %p56.1023.0 = bf16[2,4233,16,8,128]{4,3,2,1,0} parameter(56), metadata={op_type="xla__device_data" op_name="xla__device_data" source_file="/usr/local/lib/python3.10/site-packages/torch_xla/_dynamo/dynamo_bridge.py" source_line=355}
  %p55.979.0 = bf16[40960,128]{1,0} parameter(55), metadata={op_type="xla__device_data" op_name="xla__device_data" source_file="/usr/local/lib/python3.10/site-packages/torch_xla/_dynamo/dynamo_bridge.py" source_line=355}
  %p54.978.0 = s32[32]{0} parameter(54), metadata={op_type="xla__device_data" op_name="xla__device_data" source_file="/usr/local/lib/python3.10/site-packages/torch_xla/_dynamo/dynamo_bridge.py" source_line=355}
  %p53.854.0 = bf16[1024]{0} parameter(53), metadata={op_type="xla__device_data" op_name="xla__device_data" source_file="/usr/local/lib/python3.10/site-packages/torch_xla/_dynamo/dynamo_bridge.py" source_line=355}
  %p52.852.0 = bf16[6144,1024]{1,0} parameter(52), metadata={op_type="xla__device_data" op_name="xla__device_data" source_file="/usr/local/lib/python3.10/site-packages/torch_xla/_dynamo/dynamo_bridge.py" source_line=355}
  %p51.850.0 = bf16[1024,3072]{1,0} parameter(51), metadata={op_type="xla__device_data" op_name="xla__device_data" source_file="/usr/local/lib/python3.10/site-packages/torch_xla/_dynamo/dynamo_bridge.py" source_line=355}
  %p50.834.0 = bf16[1024,2048]{1,0} parameter(50), metadata={op_type="xla__device_data" op_name="xla__device_data" source_file="/usr/local/lib/python3.10/site-packages/torch_xla/_dynamo/dynamo_bridge.py" source_line=355}
  %p49.782.0 = bf16[1024]{0} parameter(49), metadata={op_type="xla__device_data" op_name="xla__device_data" source_file="/usr/local/lib/python3.10/site-packages/torch_xla/_dynamo/dynamo_bridge.py" source_line=355}
  %p48.780.0 = bf16[6144,1024]{1,0} parameter(48), metadata={op_type="xla__device_data" op_name="xla__device_data" source_file="/usr/local/lib/python3.10/site-packages/torch_xla/_dynamo/dynamo_bridge.py" source_line=355}
  %p47.778.0 = bf16[1024,3072]{1,0} parameter(47), metadata={op_type="xla__device_data" op_name="xla__device_data" source_file="/usr/local/lib/python3.10/site-packages/torch_xla/_dynamo/dynamo_bridge.py" source_line=355}
  %p46.762.0 = bf16[1024,2048]{1,0} parameter(46), metadata={op_type="xla__device_data" op_name="xla__device_data" source_file="/usr/local/lib/python3.10/site-packages/torch_xla/_dynamo/dynamo_bridge.py" source_line=355}
  %p45.710.0 = bf16[1024]{0} parameter(45), metadata={op_type="xla__device_data" op_name="xla__device_data" source_file="/usr/local/lib/python3.10/site-packages/torch_xla/_dynamo/dynamo_bridge.py" source_line=355}
  %p44.708.0 = bf16[6144,1024]{1,0} parameter(44), metadata={op_type="xla__device_data" op_name="xla__device_data" source_file="/usr/local/lib/python3.10/site-packages/torch_xla/_dynamo/dynamo_bridge.py" source_line=355}
  %p43.706.0 = bf16[1024,3072]{1,0} parameter(43), metadata={op_type="xla__device_data" op_name="xla__device_data" source_file="/usr/local/lib/python3.10/site-packages/torch_xla/_dynamo/dynamo_bridge.py" source_line=355}
  %p42.690.0 = bf16[1024,2048]{1,0} parameter(42), metadata={op_type="xla__device_data" op_name="xla__device_data" source_file="/usr/local/lib/python3.10/site-packages/torch_xla/_dynamo/dynamo_bridge.py" source_line=355}
  %p41.638.0 = bf16[1024]{0} parameter(41), metadata={op_type="xla__device_data" op_name="xla__device_data" source_file="/usr/local/lib/python3.10/site-packages/torch_xla/_dynamo/dynamo_bridge.py" source_line=355}
  %p40.636.0 = bf16[6144,1024]{1,0} parameter(40), metadata={op_type="xla__device_data" op_name="xla__device_data" source_file="/usr/local/lib/python3.10/site-packages/torch_xla/_dynamo/dynamo_bridge.py" source_line=355}
  %p39.634.0 = bf16[1024,3072]{1,0} parameter(39), metadata={op_type="xla__device_data" op_name="xla__device_data" source_file="/usr/local/lib/python3.10/site-packages/torch_xla/_dynamo/dynamo_bridge.py" source_line=355}
  %p38.618.0 = bf16[1024,2048]{1,0} parameter(38), metadata={op_type="xla__device_data" op_name="xla__device_data" source_file="/usr/local/lib/python3.10/site-packages/torch_xla/_dynamo/dynamo_bridge.py" source_line=355}
  %p37.566.0 = bf16[1024]{0} parameter(37), metadata={op_type="xla__device_data" op_name="xla__device_data" source_file="/usr/local/lib/python3.10/site-packages/torch_xla/_dynamo/dynamo_bridge.py" source_line=355}
  %p36.564.0 = bf16[6144,1024]{1,0} parameter(36), metadata={op_type="xla__device_data" op_name="xla__device_data" source_file="/usr/local/lib/python3.10/site-packages/torch_xla/_dynamo/dynamo_bridge.py" source_line=355}
  %p35.562.0 = bf16[1024,3072]{1,0} parameter(35), metadata={op_type="xla__device_data" op_name="xla__device_data" source_file="/usr/local/lib/python3.10/site-packages/torch_xla/_dynamo/dynamo_bridge.py" source_line=355}
  %p34.546.0 = bf16[1024,2048]{1,0} parameter(34), metadata={op_type="xla__device_data" op_name="xla__device_data" source_file="/usr/local/lib/python3.10/site-packages/torch_xla/_dynamo/dynamo_bridge.py" source_line=355}
  %p33.494.0 = bf16[1024]{0} parameter(33), metadata={op_type="xla__device_data" op_name="xla__device_data" source_file="/usr/local/lib/python3.10/site-packages/torch_xla/_dynamo/dynamo_bridge.py" source_line=355}
  %p32.492.0 = bf16[6144,1024]{1,0} parameter(32), metadata={op_type="xla__device_data" op_name="xla__device_data" source_file="/usr/local/lib/python3.10/site-packages/torch_xla/_dynamo/dynamo_bridge.py" source_line=355}
  %p31.490.0 = bf16[1024,3072]{1,0} parameter(31), metadata={op_type="xla__device_data" op_name="xla__device_data" source_file="/usr/local/lib/python3.10/site-packages/torch_xla/_dynamo/dynamo_bridge.py" source_line=355}
  %p30.474.0 = bf16[1024,2048]{1,0} parameter(30), metadata={op_type="xla__device_data" op_name="xla__device_data" source_file="/usr/local/lib/python3.10/site-packages/torch_xla/_dynamo/dynamo_bridge.py" source_line=355}
  %p29.422.0 = bf16[1024]{0} parameter(29), metadata={op_type="xla__device_data" op_name="xla__device_data" source_file="/usr/local/lib/python3.10/site-packages/torch_xla/_dynamo/dynamo_bridge.py" source_line=355}
  %p28.420.0 = bf16[6144,1024]{1,0} parameter(28), metadata={op_type="xla__device_data" op_name="xla__device_data" source_file="/usr/local/lib/python3.10/site-packages/torch_xla/_dynamo/dynamo_bridge.py" source_line=355}
  %p27.418.0 = bf16[1024,3072]{1,0} parameter(27), metadata={op_type="xla__device_data" op_name="xla__device_data" source_file="/usr/local/lib/python3.10/site-packages/torch_xla/_dynamo/dynamo_bridge.py" source_line=355}
  %p26.402.0 = bf16[1024,2048]{1,0} parameter(26), metadata={op_type="xla__device_data" op_name="xla__device_data" source_file="/usr/local/lib/python3.10/site-packages/torch_xla/_dynamo/dynamo_bridge.py" source_line=355}
  %p25.350.0 = bf16[1024]{0} parameter(25), metadata={op_type="xla__device_data" op_name="xla__device_data" source_file="/usr/local/lib/python3.10/site-packages/torch_xla/_dynamo/dynamo_bridge.py" source_line=355}
  %p24.348.0 = bf16[6144,1024]{1,0} parameter(24), metadata={op_type="xla__device_data" op_name="xla__device_data" source_file="/usr/local/lib/python3.10/site-packages/torch_xla/_dynamo/dynamo_bridge.py" source_line=355}
  %p23.346.0 = bf16[1024,3072]{1,0} parameter(23), metadata={op_type="xla__device_data" op_name="xla__device_data" source_file="/usr/local/lib/python3.10/site-packages/torch_xla/_dynamo/dynamo_bridge.py" source_line=355}
  %p22.330.0 = bf16[1024,2048]{1,0} parameter(22), metadata={op_type="xla__device_data" op_name="xla__device_data" source_file="/usr/local/lib/python3.10/site-packages/torch_xla/_dynamo/dynamo_bridge.py" source_line=355}
  %p21.278.0 = bf16[1024]{0} parameter(21), metadata={op_type="xla__device_data" op_name="xla__device_data" source_file="/usr/local/lib/python3.10/site-packages/torch_xla/_dynamo/dynamo_bridge.py" source_line=355}
  %p20.276.0 = bf16[6144,1024]{1,0} parameter(20), metadata={op_type="xla__device_data" op_name="xla__device_data" source_file="/usr/local/lib/python3.10/site-packages/torch_xla/_dynamo/dynamo_bridge.py" source_line=355}
  %p19.274.0 = bf16[1024,3072]{1,0} parameter(19), metadata={op_type="xla__device_data" op_name="xla__device_data" source_file="/usr/local/lib/python3.10/site-packages/torch_xla/_dynamo/dynamo_bridge.py" source_line=355}
  %p18.258.0 = bf16[1024,2048]{1,0} parameter(18), metadata={op_type="xla__device_data" op_name="xla__device_data" source_file="/usr/local/lib/python3.10/site-packages/torch_xla/_dynamo/dynamo_bridge.py" source_line=355}
  %p17.206.0 = bf16[1024]{0} parameter(17), metadata={op_type="xla__device_data" op_name="xla__device_data" source_file="/usr/local/lib/python3.10/site-packages/torch_xla/_dynamo/dynamo_bridge.py" source_line=355}
  %p16.204.0 = bf16[6144,1024]{1,0} parameter(16), metadata={op_type="xla__device_data" op_name="xla__device_data" source_file="/usr/local/lib/python3.10/site-packages/torch_xla/_dynamo/dynamo_bridge.py" source_line=355}
  %p15.202.0 = bf16[1024,3072]{1,0} parameter(15), metadata={op_type="xla__device_data" op_name="xla__device_data" source_file="/usr/local/lib/python3.10/site-packages/torch_xla/_dynamo/dynamo_bridge.py" source_line=355}
  %p14.186.0 = bf16[1024,2048]{1,0} parameter(14), metadata={op_type="xla__device_data" op_name="xla__device_data" source_file="/usr/local/lib/python3.10/site-packages/torch_xla/_dynamo/dynamo_bridge.py" source_line=355}
  %p13.134.0 = bf16[1024]{0} parameter(13), metadata={op_type="xla__device_data" op_name="xla__device_data" source_file="/usr/local/lib/python3.10/site-packages/torch_xla/_dynamo/dynamo_bridge.py" source_line=355}
  %p12.132.0 = bf16[6144,1024]{1,0} parameter(12), metadata={op_type="xla__device_data" op_name="xla__device_data" source_file="/usr/local/lib/python3.10/site-packages/torch_xla/_dynamo/dynamo_bridge.py" source_line=355}
  %p11.130.0 = bf16[1024,3072]{1,0} parameter(11), metadata={op_type="xla__device_data" op_name="xla__device_data" source_file="/usr/local/lib/python3.10/site-packages/torch_xla/_dynamo/dynamo_bridge.py" source_line=355}
  %p10.114.0 = bf16[1024,2048]{1,0} parameter(10), metadata={op_type="xla__device_data" op_name="xla__device_data" source_file="/usr/local/lib/python3.10/site-packages/torch_xla/_dynamo/dynamo_bridge.py" source_line=355}
  %p9.62.0 = bf16[1024]{0} parameter(9), metadata={op_type="xla__device_data" op_name="xla__device_data" source_file="/usr/local/lib/python3.10/site-packages/torch_xla/_dynamo/dynamo_bridge.py" source_line=355}
  %p8.60.0 = bf16[6144,1024]{1,0} parameter(8), metadata={op_type="xla__device_data" op_name="xla__device_data" source_file="/usr/local/lib/python3.10/site-packages/torch_xla/_dynamo/dynamo_bridge.py" source_line=355}
  %p7.58.0 = bf16[1024,3072]{1,0} parameter(7), metadata={op_type="xla__device_data" op_name="xla__device_data" source_file="/usr/local/lib/python3.10/site-packages/torch_xla/_dynamo/dynamo_bridge.py" source_line=355}
  %p6.42.0 = bf16[1024,2048]{1,0} parameter(6), metadata={op_type="xla__device_data" op_name="xla__device_data" source_file="/usr/local/lib/python3.10/site-packages/torch_xla/_dynamo/dynamo_bridge.py" source_line=355}
  %p5.38.0 = bf16[151936,1024]{1,0} parameter(5), metadata={op_type="xla__device_data" op_name="xla__device_data" source_file="/usr/local/lib/python3.10/site-packages/torch_xla/_dynamo/dynamo_bridge.py" source_line=355}
  %p4.36.0 = s32[32]{0} parameter(4), metadata={op_type="xla__device_data" op_name="xla__device_data" source_file="/usr/local/lib/python3.10/site-packages/torch_xla/_dynamo/dynamo_bridge.py" source_line=355}
  %p3.8.0 = bf16[1024]{0} parameter(3), metadata={op_type="xla__device_data" op_name="xla__device_data" source_file="/usr/local/lib/python3.10/site-packages/torch_xla/_dynamo/dynamo_bridge.py" source_line=355}
  %p2.6.0 = bf16[4096,1024]{1,0} parameter(2), metadata={op_type="xla__device_data" op_name="xla__device_data" source_file="/usr/local/lib/python3.10/site-packages/torch_xla/_dynamo/dynamo_bridge.py" source_line=355}
  %p0.1.0 = bf16[128]{0} parameter(0), metadata={op_type="xla__device_data" op_name="xla__device_data" source_file="/usr/local/lib/python3.10/site-packages/torch_xla/_dynamo/dynamo_bridge.py" source_line=355}
  %call = (bf16[32,8,128]{2,1,0}, bf16[32,8,128]{2,1,0}, bf16[4233,16,8,128]{3,2,1,0}, bf16[1,4233,16,8,128]{4,3,2,1,0}) call(bf16[151936,1024]{1,0} %p5.38.0, s32[32]{0} %p4.36.0, bf16[1024,2048]{1,0} %p50.834.0, bf16[1024,2048]{1,0} %p46.762.0, bf16[1024,2048]{1,0} %p42.690.0, /*index=5*/bf16[1024,2048]{1,0} %p38.618.0, bf16[1024,2048]{1,0} %p34.546.0, bf16[1024,2048]{1,0} %p30.474.0, bf16[1024,2048]{1,0} %p26.402.0, bf16[1024,2048]{1,0} %p22.330.0, /*index=10*/bf16[1024,2048]{1,0} %p18.258.0, bf16[1024,2048]{1,0} %p14.186.0, bf16[1024,2048]{1,0} %p10.114.0, bf16[1024,2048]{1,0} %p6.42.0, f32[] %p1.4.0, /*index=15*/bf16[1024]{0} %p9.62.0, bf16[6144,1024]{1,0} %p8.60.0, bf16[1024,3072]{1,0} %p7.58.0, bf16[1024]{0} %p13.134.0, bf16[6144,1024]{1,0} %p12.132.0, /*index=20*/bf16[1024,3072]{1,0} %p11.130.0, bf16[1024]{0} %p17.206.0, bf16[6144,1024]{1,0} %p16.204.0, bf16[1024,3072]{1,0} %p15.202.0, bf16[1024]{0} %p21.278.0, /*index=25*/bf16[6144,1024]{1,0} %p20.276.0, bf16[1024,3072]{1,0} %p19.274.0, bf16[1024]{0} %p25.350.0, bf16[6144,1024]{1,0} %p24.348.0, bf16[1024,3072]{1,0} %p23.346.0, /*index=30*/bf16[1024]{0} %p29.422.0, bf16[6144,1024]{1,0} %p28.420.0, bf16[1024,3072]{1,0} %p27.418.0, bf16[1024]{0} %p33.494.0, bf16[6144,1024]{1,0} %p32.492.0, /*index=35*/bf16[1024,3072]{1,0} %p31.490.0, bf16[1024]{0} %p37.566.0, bf16[6144,1024]{1,0} %p36.564.0, bf16[1024,3072]{1,0} %p35.562.0, bf16[1024]{0} %p41.638.0, /*index=40*/bf16[6144,1024]{1,0} %p40.636.0, bf16[1024,3072]{1,0} %p39.634.0, bf16[1024]{0} %p45.710.0, bf16[6144,1024]{1,0} %p44.708.0, bf16[1024,3072]{1,0} %p43.706.0, /*index=45*/bf16[1024]{0} %p49.782.0, bf16[6144,1024]{1,0} %p48.780.0, bf16[1024,3072]{1,0} %p47.778.0, bf16[1024]{0} %p53.854.0, bf16[6144,1024]{1,0} %p52.852.0, /*index=50*/bf16[1024,3072]{1,0} %p51.850.0, bf16[1024]{0} %p3.8.0, bf16[4096,1024]{1,0} %p2.6.0, bf16[128]{0} %p0.1.0, bf16[40960,128]{1,0} %p55.979.0, /*index=55*/s32[32]{0} %p54.978.0, bf16[2,4233,16,8,128]{4,3,2,1,0} %p56.1023.0), to_apply=%command_buffer
  %get-tuple-element.27 = bf16[32,8,128]{2,1,0} get-tuple-element((bf16[32,8,128]{2,1,0}, bf16[32,8,128]{2,1,0}, bf16[4233,16,8,128]{3,2,1,0}, bf16[1,4233,16,8,128]{4,3,2,1,0}) %call), index=0
  %get-tuple-element.28 = bf16[32,8,128]{2,1,0} get-tuple-element((bf16[32,8,128]{2,1,0}, bf16[32,8,128]{2,1,0}, bf16[4233,16,8,128]{3,2,1,0}, bf16[1,4233,16,8,128]{4,3,2,1,0}) %call), index=1
  %get-tuple-element.29 = bf16[4233,16,8,128]{3,2,1,0} get-tuple-element((bf16[32,8,128]{2,1,0}, bf16[32,8,128]{2,1,0}, bf16[4233,16,8,128]{3,2,1,0}, bf16[1,4233,16,8,128]{4,3,2,1,0}) %call), index=2
  %get-tuple-element.30 = bf16[1,4233,16,8,128]{4,3,2,1,0} get-tuple-element((bf16[32,8,128]{2,1,0}, bf16[32,8,128]{2,1,0}, bf16[4233,16,8,128]{3,2,1,0}, bf16[1,4233,16,8,128]{4,3,2,1,0}) %call), index=3
  %bitcast.2631.0 = bf16[4233,16,8,128]{3,2,1,0} bitcast(bf16[1,4233,16,8,128]{4,3,2,1,0} %get-tuple-element.30)
  ROOT %tuple.1032.0 = (bf16[32,8,128]{2,1,0}, bf16[32,8,128]{2,1,0}, bf16[4233,16,8,128]{3,2,1,0}, bf16[4233,16,8,128]{3,2,1,0}) tuple(bf16[32,8,128]{2,1,0} %get-tuple-element.27, bf16[32,8,128]{2,1,0} %get-tuple-element.28, bf16[4233,16,8,128]{3,2,1,0} %bitcast.2631.0, bf16[4233,16,8,128]{3,2,1,0} %get-tuple-element.29)
}

