HloModule SyncTensorsGraph.1847, is_scheduled=true, entry_computation_layout={(bf16[128]{0}, f32[], bf16[4096,1024]{1,0}, bf16[1024]{0}, s32[64]{0}, /*index=5*/bf16[151936,1024]{1,0}, bf16[1024,2048]{1,0}, bf16[1024,3072]{1,0}, bf16[6144,1024]{1,0}, bf16[1024]{0}, /*index=10*/bf16[1024,2048]{1,0}, bf16[1024,3072]{1,0}, bf16[6144,1024]{1,0}, bf16[1024]{0}, bf16[1024,2048]{1,0}, /*index=15*/bf16[1024,3072]{1,0}, bf16[6144,1024]{1,0}, bf16[1024]{0}, bf16[1024,2048]{1,0}, bf16[1024,3072]{1,0}, /*index=20*/bf16[6144,1024]{1,0}, bf16[1024]{0}, bf16[1024,2048]{1,0}, bf16[1024,3072]{1,0}, bf16[6144,1024]{1,0}, /*index=25*/bf16[1024]{0}, bf16[1024,2048]{1,0}, bf16[1024,3072]{1,0}, bf16[6144,1024]{1,0}, bf16[1024]{0}, /*index=30*/bf16[1024,2048]{1,0}, bf16[1024,3072]{1,0}, bf16[6144,1024]{1,0}, bf16[1024]{0}, bf16[1024,2048]{1,0}, /*index=35*/bf16[1024,3072]{1,0}, bf16[6144,1024]{1,0}, bf16[1024]{0}, bf16[1024,2048]{1,0}, bf16[1024,3072]{1,0}, /*index=40*/bf16[6144,1024]{1,0}, bf16[1024]{0}, bf16[1024,2048]{1,0}, bf16[1024,3072]{1,0}, bf16[6144,1024]{1,0}, /*index=45*/bf16[1024]{0}, bf16[1024,2048]{1,0}, bf16[1024,3072]{1,0}, bf16[6144,1024]{1,0}, bf16[1024]{0}, /*index=50*/bf16[1024,2048]{1,0}, bf16[1024,3072]{1,0}, bf16[6144,1024]{1,0}, bf16[1024]{0}, bf16[1024,2048]{1,0}, /*index=55*/bf16[1024,3072]{1,0}, bf16[6144,1024]{1,0}, bf16[1024]{0}, bf16[1024,2048]{1,0}, bf16[1024,3072]{1,0}, /*index=60*/bf16[6144,1024]{1,0}, bf16[1024]{0}, bf16[1024,2048]{1,0}, bf16[1024,3072]{1,0}, bf16[6144,1024]{1,0}, /*index=65*/bf16[1024]{0}, bf16[1024,2048]{1,0}, bf16[1024,3072]{1,0}, bf16[6144,1024]{1,0}, bf16[1024]{0}, /*index=70*/bf16[1024,2048]{1,0}, bf16[1024,3072]{1,0}, bf16[6144,1024]{1,0}, bf16[1024]{0}, bf16[1024,2048]{1,0}, /*index=75*/bf16[1024,3072]{1,0}, bf16[6144,1024]{1,0}, bf16[1024]{0}, bf16[1024,2048]{1,0}, bf16[1024,3072]{1,0}, /*index=80*/bf16[6144,1024]{1,0}, bf16[1024]{0}, bf16[1024,2048]{1,0}, bf16[1024,3072]{1,0}, bf16[6144,1024]{1,0}, /*index=85*/bf16[1024]{0}, bf16[1024,2048]{1,0}, bf16[1024,3072]{1,0}, bf16[6144,1024]{1,0}, bf16[1024]{0}, /*index=90*/bf16[1024,2048]{1,0}, bf16[1024,3072]{1,0}, bf16[6144,1024]{1,0}, bf16[1024]{0}, bf16[1024,2048]{1,0}, /*index=95*/bf16[1024,3072]{1,0}, bf16[6144,1024]{1,0}, bf16[1024]{0}, s32[64]{0}, bf16[40960,128]{1,0}, /*index=100*/bf16[2,4233,16,8,128]{4,3,2,1,0})->(bf16[64,8,128]{2,1,0}, bf16[64,8,128]{2,1,0}, bf16[4233,16,8,128]{3,2,1,0}, bf16[4233,16,8,128]{3,2,1,0})}, frontend_attributes={fingerprint_before_lhs="482996b7b86955875cc838965dd92b94"}

%fused_gather (param_0.9: bf16[151936,1024], param_1.757: s32[64]) -> bf16[64,1,1024] {
  %param_0.9 = bf16[151936,1024]{1,0} parameter(0)
  %param_1.757 = s32[64]{0} parameter(1)
  %convert.1105.1 = s64[64]{0} convert(s32[64]{0} %param_1.757), metadata={op_type="xla__cast" op_name="xla__cast" source_file="/usr/local/lib/python3.10/site-packages/torch/_ops.py" source_line=756}
  %convert.1106.1 = u32[64]{0} convert(s64[64]{0} %convert.1105.1), metadata={op_type="aten__index_select" op_name="aten__index_select" source_file="/usr/local/lib/python3.10/site-packages/torch/_ops.py" source_line=756}
  %bitcast.3564.1 = u32[64,1]{1,0} bitcast(u32[64]{0} %convert.1106.1)
  ROOT %gather.3 = bf16[64,1,1024]{2,0,1} gather(bf16[151936,1024]{1,0} %param_0.9, u32[64,1]{1,0} %bitcast.3564.1), offset_dims={1,2}, collapsed_slice_dims={}, start_index_map={0}, index_vector_dim=1, slice_sizes={1,1024}, metadata={op_type="aten__index_select" op_name="aten__index_select" source_file="/usr/local/lib/python3.10/site-packages/torch/_ops.py" source_line=756}
}

%wrapped_concatenate_computation (param_0.995: bf16[1024,2048], param_1.788: bf16[1024,2048], param_2.520: bf16[1024,2048], param_3.499: bf16[1024,2048], param_4.290: bf16[1024,2048], param_5.106: bf16[1024,2048], param_6.99: bf16[1024,2048], param_7.60: bf16[1024,2048], param_8.21: bf16[1024,2048], param_9.4: bf16[1024,2048], param_10: bf16[1024,2048], param_11: bf16[1024,2048], param_12: bf16[1024,2048], param_13: bf16[1024,2048], param_14: bf16[1024,2048], param_15: bf16[1024,2048], param_16: bf16[1024,2048], param_17: bf16[1024,2048], param_18: bf16[1024,2048], param_19: bf16[1024,2048], param_20: bf16[1024,2048], param_21: bf16[1024,2048], param_22: bf16[1024,2048]) -> bf16[23552,2048] {
  %param_0.995 = bf16[1024,2048]{1,0} parameter(0)
  %param_1.788 = bf16[1024,2048]{1,0} parameter(1)
  %param_2.520 = bf16[1024,2048]{1,0} parameter(2)
  %param_3.499 = bf16[1024,2048]{1,0} parameter(3)
  %param_4.290 = bf16[1024,2048]{1,0} parameter(4)
  %param_5.106 = bf16[1024,2048]{1,0} parameter(5)
  %param_6.99 = bf16[1024,2048]{1,0} parameter(6)
  %param_7.60 = bf16[1024,2048]{1,0} parameter(7)
  %param_8.21 = bf16[1024,2048]{1,0} parameter(8)
  %param_9.4 = bf16[1024,2048]{1,0} parameter(9)
  %param_10 = bf16[1024,2048]{1,0} parameter(10)
  %param_11 = bf16[1024,2048]{1,0} parameter(11)
  %param_12 = bf16[1024,2048]{1,0} parameter(12)
  %param_13 = bf16[1024,2048]{1,0} parameter(13)
  %param_14 = bf16[1024,2048]{1,0} parameter(14)
  %param_15 = bf16[1024,2048]{1,0} parameter(15)
  %param_16 = bf16[1024,2048]{1,0} parameter(16)
  %param_17 = bf16[1024,2048]{1,0} parameter(17)
  %param_18 = bf16[1024,2048]{1,0} parameter(18)
  %param_19 = bf16[1024,2048]{1,0} parameter(19)
  %param_20 = bf16[1024,2048]{1,0} parameter(20)
  %param_21 = bf16[1024,2048]{1,0} parameter(21)
  %param_22 = bf16[1024,2048]{1,0} parameter(22)
  ROOT %concatenate.49.1 = bf16[23552,2048]{1,0} concatenate(bf16[1024,2048]{1,0} %param_0.995, bf16[1024,2048]{1,0} %param_1.788, bf16[1024,2048]{1,0} %param_2.520, bf16[1024,2048]{1,0} %param_3.499, bf16[1024,2048]{1,0} %param_4.290, /*index=5*/bf16[1024,2048]{1,0} %param_5.106, bf16[1024,2048]{1,0} %param_6.99, bf16[1024,2048]{1,0} %param_7.60, bf16[1024,2048]{1,0} %param_8.21, bf16[1024,2048]{1,0} %param_9.4, /*index=10*/bf16[1024,2048]{1,0} %param_10, bf16[1024,2048]{1,0} %param_11, bf16[1024,2048]{1,0} %param_12, bf16[1024,2048]{1,0} %param_13, bf16[1024,2048]{1,0} %param_14, /*index=15*/bf16[1024,2048]{1,0} %param_15, bf16[1024,2048]{1,0} %param_16, bf16[1024,2048]{1,0} %param_17, bf16[1024,2048]{1,0} %param_18, bf16[1024,2048]{1,0} %param_19, /*index=20*/bf16[1024,2048]{1,0} %param_20, bf16[1024,2048]{1,0} %param_21, bf16[1024,2048]{1,0} %param_22), dimensions={0}, metadata={op_type="xla__device_data" op_name="xla__device_data" source_file="/usr/local/lib/python3.10/site-packages/torch_xla/_dynamo/dynamo_bridge.py" source_line=355}
}

%gemm_fusion_dot.92_computation (parameter_0: bf16[23552,2048]) -> bf16[64,23552] {
  %constant_244 = bf16[] constant(0), metadata={op_type="aten__expand" op_name="aten__expand" source_file="/usr/local/lib/python3.10/site-packages/torch/_ops.py" source_line=756}
  %broadcast.197 = bf16[64,2048]{1,0} broadcast(bf16[] %constant_244), dimensions={}, metadata={op_type="aten__expand" op_name="aten__expand" source_file="/usr/local/lib/python3.10/site-packages/torch/_ops.py" source_line=756}
  %parameter_0 = bf16[23552,2048]{1,0} parameter(0)
  ROOT %dot.93 = bf16[64,23552]{1,0} dot(bf16[64,2048]{1,0} %broadcast.197, bf16[23552,2048]{1,0} %parameter_0), lhs_contracting_dims={1}, rhs_contracting_dims={1}, metadata={op_type="aten__mm" op_name="aten__mm" source_file="/usr/local/lib/python3.10/site-packages/torch/_ops.py" source_line=756}
}

%AddComputation.92 (x.93: f32[], y.94: f32[]) -> f32[] {
  %y.94 = f32[] parameter(1)
  %x.93 = f32[] parameter(0)
  ROOT %add.303 = f32[] add(f32[] %x.93, f32[] %y.94)
}

%fused_computation.240 (param_0.959: f32[], param_1.754: bf16[64,1,1024], param_2.475: bf16[64,23552], param_3.432: bf16[1024]) -> bf16[64,1024] {
  %param_2.475 = bf16[64,23552]{1,0} parameter(2)
  %convert.1104.75 = f32[64,23552]{1,0} convert(bf16[64,23552]{1,0} %param_2.475), metadata={op_type="xla__cast" op_name="xla__cast" source_file="/usr/local/lib/python3.10/site-packages/torch/_ops.py" source_line=756}
  %slice.319.9 = f32[64,1024]{1,0} slice(f32[64,23552]{1,0} %convert.1104.75), slice={[0:64], [22528:23552]}, metadata={op_type="aten__mm" op_name="aten__mm" source_file="/usr/local/lib/python3.10/site-packages/torch/_ops.py" source_line=756}
  %param_1.754 = bf16[64,1,1024]{2,0,1} parameter(1)
  %bitcast.3567.9 = bf16[64,1024]{1,0} bitcast(bf16[64,1,1024]{2,0,1} %param_1.754)
  %convert.1107.9 = f32[64,1024]{1,0} convert(bf16[64,1024]{1,0} %bitcast.3567.9), metadata={op_type="xla__cast" op_name="xla__cast" source_file="/usr/local/lib/python3.10/site-packages/torch/_ops.py" source_line=756}
  %add.304.7 = f32[64,1024]{1,0} add(f32[64,1024]{1,0} %slice.319.9, f32[64,1024]{1,0} %convert.1107.9), metadata={op_type="aten__add" op_name="aten__add.1027/aten__add" source_file="/usr/local/lib/python3.10/site-packages/torch/_ops.py" source_line=756}
  %multiply.614 = f32[64,1024]{1,0} multiply(f32[64,1024]{1,0} %add.304.7, f32[64,1024]{1,0} %add.304.7), metadata={op_type="aten__pow" op_name="aten__pow" source_file="/usr/local/lib/python3.10/site-packages/torch/_ops.py" source_line=756}
  %constant_547 = f32[] constant(0), metadata={op_type="aten__mean" op_name="aten__mean" source_file="/usr/local/lib/python3.10/site-packages/torch/_ops.py" source_line=756}
  %reduce.51 = f32[64]{0} reduce(f32[64,1024]{1,0} %multiply.614, f32[] %constant_547), dimensions={1}, to_apply=%AddComputation.92, metadata={op_type="aten__mean" op_name="aten__mean" source_file="/usr/local/lib/python3.10/site-packages/torch/_ops.py" source_line=756}
  %constant_546 = f32[] constant(0.0009765625), metadata={op_type="aten__mean" op_name="aten__mean" source_file="/usr/local/lib/python3.10/site-packages/torch/_ops.py" source_line=756}
  %broadcast.706 = f32[64]{0} broadcast(f32[] %constant_546), dimensions={}, metadata={op_type="aten__mean" op_name="aten__mean" source_file="/usr/local/lib/python3.10/site-packages/torch/_ops.py" source_line=756}
  %multiply.613 = f32[64]{0} multiply(f32[64]{0} %reduce.51, f32[64]{0} %broadcast.706), metadata={op_type="aten__mean" op_name="aten__mean" source_file="/usr/local/lib/python3.10/site-packages/torch/_ops.py" source_line=756}
  %param_0.959 = f32[] parameter(0)
  %broadcast.705 = f32[64]{0} broadcast(f32[] %param_0.959), dimensions={}, metadata={op_type="aten__add" op_name="aten__add.1028/aten__add" source_file="/usr/local/lib/python3.10/site-packages/torch/_ops.py" source_line=756}
  %add.379 = f32[64]{0} add(f32[64]{0} %multiply.613, f32[64]{0} %broadcast.705), metadata={op_type="aten__add" op_name="aten__add.1028/aten__add" source_file="/usr/local/lib/python3.10/site-packages/torch/_ops.py" source_line=756}
  %rsqrt.127 = f32[64]{0} rsqrt(f32[64]{0} %add.379), metadata={op_type="aten__rsqrt" op_name="aten__rsqrt" source_file="/usr/local/lib/python3.10/site-packages/torch/_ops.py" source_line=756}
  %broadcast.704 = f32[64,1024]{1,0} broadcast(f32[64]{0} %rsqrt.127), dimensions={0}, metadata={op_type="aten__mul" op_name="aten__mul.1029/aten__mul" source_file="/usr/local/lib/python3.10/site-packages/torch/_ops.py" source_line=756}
  %multiply.611 = f32[64,1024]{1,0} multiply(f32[64,1024]{1,0} %add.304.7, f32[64,1024]{1,0} %broadcast.704), metadata={op_type="aten__mul" op_name="aten__mul.1029/aten__mul" source_file="/usr/local/lib/python3.10/site-packages/torch/_ops.py" source_line=756}
  %param_3.432 = bf16[1024]{0} parameter(3)
  %convert.1109.1 = f32[1024]{0} convert(bf16[1024]{0} %param_3.432), metadata={op_type="xla__cast" op_name="xla__cast" source_file="/usr/local/lib/python3.10/site-packages/torch/_ops.py" source_line=756}
  %broadcast.513.1 = f32[64,1024]{1,0} broadcast(f32[1024]{0} %convert.1109.1), dimensions={1}, metadata={op_type="aten__mul" op_name="aten__mul.1030/aten__mul" source_file="/usr/local/lib/python3.10/site-packages/torch/_ops.py" source_line=756}
  %multiply.524.1 = f32[64,1024]{1,0} multiply(f32[64,1024]{1,0} %multiply.611, f32[64,1024]{1,0} %broadcast.513.1), metadata={op_type="aten__mul" op_name="aten__mul.1030/aten__mul" source_file="/usr/local/lib/python3.10/site-packages/torch/_ops.py" source_line=756}
  ROOT %convert.1110.1 = bf16[64,1024]{1,0} convert(f32[64,1024]{1,0} %multiply.524.1), metadata={op_type="xla__cast" op_name="xla__cast" source_file="/usr/local/lib/python3.10/site-packages/torch/_ops.py" source_line=756}
}

%fused_convert.22 (param_0.680: bf16[64,6144]) -> bf16[64,3072] {
  %param_0.680 = bf16[64,6144]{1,0} parameter(0)
  %slice.320.1 = bf16[64,3072]{1,0} slice(bf16[64,6144]{1,0} %param_0.680), slice={[0:64], [0:3072]}, metadata={op_type="xla__select" op_name="xla__select" source_file="/usr/local/lib/python3.10/site-packages/torch/_ops.py" source_line=756}
  %convert.1111.6 = f32[64,3072]{1,0} convert(bf16[64,3072]{1,0} %slice.320.1)
  %constant_1_4 = bf16[] constant(1), metadata={op_type="xla__select" op_name="xla__select" source_file="/usr/local/lib/python3.10/site-packages/torch/_ops.py" source_line=756}
  %convert.1439.2 = f32[] convert(bf16[] %constant_1_4)
  %broadcast.597.184 = f32[64,3072]{1,0} broadcast(f32[] %convert.1439.2), dimensions={}, metadata={op_type="xla__select" op_name="xla__select" source_file="/usr/local/lib/python3.10/site-packages/torch/_ops.py" source_line=756}
  %negate.69.7 = f32[64,3072]{1,0} negate(f32[64,3072]{1,0} %convert.1111.6)
  %convert.1116.5 = bf16[64,3072]{1,0} convert(f32[64,3072]{1,0} %negate.69.7)
  %exponential.69.3 = bf16[64,3072]{1,0} exponential(bf16[64,3072]{1,0} %convert.1116.5)
  %convert.1117.1 = f32[64,3072]{1,0} convert(bf16[64,3072]{1,0} %exponential.69.3)
  %add.305.5 = f32[64,3072]{1,0} add(f32[64,3072]{1,0} %broadcast.597.184, f32[64,3072]{1,0} %convert.1117.1)
  %divide.69.3 = f32[64,3072]{1,0} divide(f32[64,3072]{1,0} %broadcast.597.184, f32[64,3072]{1,0} %add.305.5), metadata={op_type="aten__silu" op_name="aten__silu" source_file="/usr/local/lib/python3.10/site-packages/torch/_ops.py" source_line=756}
  %multiply.525.3 = f32[64,3072]{1,0} multiply(f32[64,3072]{1,0} %convert.1111.6, f32[64,3072]{1,0} %divide.69.3), metadata={op_type="aten__silu" op_name="aten__silu" source_file="/usr/local/lib/python3.10/site-packages/torch/_ops.py" source_line=756}
  %slice.321.1 = bf16[64,3072]{1,0} slice(bf16[64,6144]{1,0} %param_0.680), slice={[0:64], [3072:6144]}, metadata={op_type="xla__select" op_name="xla__select" source_file="/usr/local/lib/python3.10/site-packages/torch/_ops.py" source_line=756}
  %convert.1118.1 = f32[64,3072]{1,0} convert(bf16[64,3072]{1,0} %slice.321.1), metadata={op_type="xla__cast" op_name="xla__cast" source_file="/usr/local/lib/python3.10/site-packages/torch/_ops.py" source_line=756}
  %multiply.526.1 = f32[64,3072]{1,0} multiply(f32[64,3072]{1,0} %multiply.525.3, f32[64,3072]{1,0} %convert.1118.1), metadata={op_type="aten__mul" op_name="aten__mul.1031/aten__mul" source_file="/usr/local/lib/python3.10/site-packages/torch/_ops.py" source_line=756}
  ROOT %convert.1119.1 = bf16[64,3072]{1,0} convert(f32[64,3072]{1,0} %multiply.526.1), metadata={op_type="xla__cast" op_name="xla__cast" source_file="/usr/local/lib/python3.10/site-packages/torch/_ops.py" source_line=756}
}

%fused_computation.239 (param_0.937: f32[], param_1.732: bf16[64,1,1024], param_2.453: bf16[64,23552], param_3.421: bf16[64,1024], param_4.215: bf16[1024]) -> bf16[64,1024] {
  %param_2.453 = bf16[64,23552]{1,0} parameter(2)
  %convert.1104.119 = f32[64,23552]{1,0} convert(bf16[64,23552]{1,0} %param_2.453), metadata={op_type="xla__cast" op_name="xla__cast" source_file="/usr/local/lib/python3.10/site-packages/torch/_ops.py" source_line=756}
  %slice.318.5 = f32[64,1024]{1,0} slice(f32[64,23552]{1,0} %convert.1104.119), slice={[0:64], [21504:22528]}, metadata={op_type="aten__mm" op_name="aten__mm" source_file="/usr/local/lib/python3.10/site-packages/torch/_ops.py" source_line=756}
  %param_3.421 = bf16[64,1024]{1,0} parameter(3)
  %convert.1120.3 = f32[64,1024]{1,0} convert(bf16[64,1024]{1,0} %param_3.421), metadata={op_type="xla__cast" op_name="xla__cast" source_file="/usr/local/lib/python3.10/site-packages/torch/_ops.py" source_line=756}
  %slice.319.11 = f32[64,1024]{1,0} slice(f32[64,23552]{1,0} %convert.1104.119), slice={[0:64], [22528:23552]}, metadata={op_type="aten__mm" op_name="aten__mm" source_file="/usr/local/lib/python3.10/site-packages/torch/_ops.py" source_line=756}
  %param_1.732 = bf16[64,1,1024]{2,0,1} parameter(1)
  %bitcast.3567.11 = bf16[64,1024]{1,0} bitcast(bf16[64,1,1024]{2,0,1} %param_1.732)
  %convert.1107.11 = f32[64,1024]{1,0} convert(bf16[64,1024]{1,0} %bitcast.3567.11), metadata={op_type="xla__cast" op_name="xla__cast" source_file="/usr/local/lib/python3.10/site-packages/torch/_ops.py" source_line=756}
  %add.304.9 = f32[64,1024]{1,0} add(f32[64,1024]{1,0} %slice.319.11, f32[64,1024]{1,0} %convert.1107.11), metadata={op_type="aten__add" op_name="aten__add.1027/aten__add" source_file="/usr/local/lib/python3.10/site-packages/torch/_ops.py" source_line=756}
  %add.306.3 = f32[64,1024]{1,0} add(f32[64,1024]{1,0} %convert.1120.3, f32[64,1024]{1,0} %add.304.9), metadata={op_type="aten__add" op_name="aten__add.1032/aten__add" source_file="/usr/local/lib/python3.10/site-packages/torch/_ops.py" source_line=756}
  %add.307.3 = f32[64,1024]{1,0} add(f32[64,1024]{1,0} %slice.318.5, f32[64,1024]{1,0} %add.306.3), metadata={op_type="aten__add" op_name="aten__add.1045/aten__add" source_file="/usr/local/lib/python3.10/site-packages/torch/_ops.py" source_line=756}
  %multiply.621 = f32[64,1024]{1,0} multiply(f32[64,1024]{1,0} %add.307.3, f32[64,1024]{1,0} %add.307.3), metadata={op_type="aten__pow" op_name="aten__pow" source_file="/usr/local/lib/python3.10/site-packages/torch/_ops.py" source_line=756}
  %constant_552 = f32[] constant(0), metadata={op_type="aten__mean" op_name="aten__mean" source_file="/usr/local/lib/python3.10/site-packages/torch/_ops.py" source_line=756}
  %reduce.53 = f32[64]{0} reduce(f32[64,1024]{1,0} %multiply.621, f32[] %constant_552), dimensions={1}, to_apply=%AddComputation.92, metadata={op_type="aten__mean" op_name="aten__mean" source_file="/usr/local/lib/python3.10/site-packages/torch/_ops.py" source_line=756}
  %constant_551 = f32[] constant(0.0009765625), metadata={op_type="aten__mean" op_name="aten__mean" source_file="/usr/local/lib/python3.10/site-packages/torch/_ops.py" source_line=756}
  %broadcast.713 = f32[64]{0} broadcast(f32[] %constant_551), dimensions={}, metadata={op_type="aten__mean" op_name="aten__mean" source_file="/usr/local/lib/python3.10/site-packages/torch/_ops.py" source_line=756}
  %multiply.620 = f32[64]{0} multiply(f32[64]{0} %reduce.53, f32[64]{0} %broadcast.713), metadata={op_type="aten__mean" op_name="aten__mean" source_file="/usr/local/lib/python3.10/site-packages/torch/_ops.py" source_line=756}
  %param_0.937 = f32[] parameter(0)
  %broadcast.712 = f32[64]{0} broadcast(f32[] %param_0.937), dimensions={}, metadata={op_type="aten__add" op_name="aten__add.1028/aten__add" source_file="/usr/local/lib/python3.10/site-packages/torch/_ops.py" source_line=756}
  %add.381 = f32[64]{0} add(f32[64]{0} %multiply.620, f32[64]{0} %broadcast.712), metadata={op_type="aten__add" op_name="aten__add.1046/aten__add" source_file="/usr/local/lib/python3.10/site-packages/torch/_ops.py" source_line=756}
  %rsqrt.129 = f32[64]{0} rsqrt(f32[64]{0} %add.381), metadata={op_type="aten__rsqrt" op_name="aten__rsqrt" source_file="/usr/local/lib/python3.10/site-packages/torch/_ops.py" source_line=756}
  %broadcast.711 = f32[64,1024]{1,0} broadcast(f32[64]{0} %rsqrt.129), dimensions={0}, metadata={op_type="aten__mul" op_name="aten__mul.1047/aten__mul" source_file="/usr/local/lib/python3.10/site-packages/torch/_ops.py" source_line=756}
  %multiply.619 = f32[64,1024]{1,0} multiply(f32[64,1024]{1,0} %add.307.3, f32[64,1024]{1,0} %broadcast.711), metadata={op_type="aten__mul" op_name="aten__mul.1047/aten__mul" source_file="/usr/local/lib/python3.10/site-packages/torch/_ops.py" source_line=756}
  %param_4.215 = bf16[1024]{0} parameter(4)
  %convert.1121.1 = f32[1024]{0} convert(bf16[1024]{0} %param_4.215), metadata={op_type="xla__cast" op_name="xla__cast" source_file="/usr/local/lib/python3.10/site-packages/torch/_ops.py" source_line=756}
  %broadcast.516.1 = f32[64,1024]{1,0} broadcast(f32[1024]{0} %convert.1121.1), dimensions={1}, metadata={op_type="aten__mul" op_name="aten__mul.1048/aten__mul" source_file="/usr/local/lib/python3.10/site-packages/torch/_ops.py" source_line=756}
  %multiply.527.1 = f32[64,1024]{1,0} multiply(f32[64,1024]{1,0} %multiply.619, f32[64,1024]{1,0} %broadcast.516.1), metadata={op_type="aten__mul" op_name="aten__mul.1048/aten__mul" source_file="/usr/local/lib/python3.10/site-packages/torch/_ops.py" source_line=756}
  ROOT %convert.1122.1 = bf16[64,1024]{1,0} convert(f32[64,1024]{1,0} %multiply.527.1), metadata={op_type="xla__cast" op_name="xla__cast" source_file="/usr/local/lib/python3.10/site-packages/torch/_ops.py" source_line=756}
}

%fused_convert.21 (param_0.682: bf16[64,6144]) -> bf16[64,3072] {
  %param_0.682 = bf16[64,6144]{1,0} parameter(0)
  %slice.322.1 = bf16[64,3072]{1,0} slice(bf16[64,6144]{1,0} %param_0.682), slice={[0:64], [0:3072]}, metadata={op_type="xla__select" op_name="xla__select" source_file="/usr/local/lib/python3.10/site-packages/torch/_ops.py" source_line=756}
  %convert.1125.6 = f32[64,3072]{1,0} convert(bf16[64,3072]{1,0} %slice.322.1)
  %constant_1_6 = bf16[] constant(1), metadata={op_type="xla__select" op_name="xla__select" source_file="/usr/local/lib/python3.10/site-packages/torch/_ops.py" source_line=756}
  %convert.1439.4 = f32[] convert(bf16[] %constant_1_6)
  %broadcast.597.180 = f32[64,3072]{1,0} broadcast(f32[] %convert.1439.4), dimensions={}, metadata={op_type="xla__select" op_name="xla__select" source_file="/usr/local/lib/python3.10/site-packages/torch/_ops.py" source_line=756}
  %negate.70.7 = f32[64,3072]{1,0} negate(f32[64,3072]{1,0} %convert.1125.6)
  %convert.1131.5 = bf16[64,3072]{1,0} convert(f32[64,3072]{1,0} %negate.70.7)
  %exponential.70.3 = bf16[64,3072]{1,0} exponential(bf16[64,3072]{1,0} %convert.1131.5)
  %convert.1132.1 = f32[64,3072]{1,0} convert(bf16[64,3072]{1,0} %exponential.70.3)
  %add.308.5 = f32[64,3072]{1,0} add(f32[64,3072]{1,0} %broadcast.597.180, f32[64,3072]{1,0} %convert.1132.1)
  %divide.70.3 = f32[64,3072]{1,0} divide(f32[64,3072]{1,0} %broadcast.597.180, f32[64,3072]{1,0} %add.308.5), metadata={op_type="aten__silu" op_name="aten__silu" source_file="/usr/local/lib/python3.10/site-packages/torch/_ops.py" source_line=756}
  %multiply.528.3 = f32[64,3072]{1,0} multiply(f32[64,3072]{1,0} %convert.1125.6, f32[64,3072]{1,0} %divide.70.3), metadata={op_type="aten__silu" op_name="aten__silu" source_file="/usr/local/lib/python3.10/site-packages/torch/_ops.py" source_line=756}
  %slice.323.1 = bf16[64,3072]{1,0} slice(bf16[64,6144]{1,0} %param_0.682), slice={[0:64], [3072:6144]}, metadata={op_type="xla__select" op_name="xla__select" source_file="/usr/local/lib/python3.10/site-packages/torch/_ops.py" source_line=756}
  %convert.1133.1 = f32[64,3072]{1,0} convert(bf16[64,3072]{1,0} %slice.323.1), metadata={op_type="xla__cast" op_name="xla__cast" source_file="/usr/local/lib/python3.10/site-packages/torch/_ops.py" source_line=756}
  %multiply.529.1 = f32[64,3072]{1,0} multiply(f32[64,3072]{1,0} %multiply.528.3, f32[64,3072]{1,0} %convert.1133.1), metadata={op_type="aten__mul" op_name="aten__mul.1049/aten__mul" source_file="/usr/local/lib/python3.10/site-packages/torch/_ops.py" source_line=756}
  ROOT %convert.1135.1 = bf16[64,3072]{1,0} convert(f32[64,3072]{1,0} %multiply.529.1), metadata={op_type="xla__cast" op_name="xla__cast" source_file="/usr/local/lib/python3.10/site-packages/torch/_ops.py" source_line=756}
}

%fused_computation.238 (param_0.992: f32[], param_1.784: bf16[1024], param_2.515: bf16[64,1,1024], param_3.493: bf16[64,23552], param_4.283: bf16[64,1024], param_5.96: bf16[64,1024]) -> bf16[64,1024] {
  %param_3.493 = bf16[64,23552]{1,0} parameter(3)
  %convert.1104.185 = f32[64,23552]{1,0} convert(bf16[64,23552]{1,0} %param_3.493), metadata={op_type="xla__cast" op_name="xla__cast" source_file="/usr/local/lib/python3.10/site-packages/torch/_ops.py" source_line=756}
  %slice.317.5 = f32[64,1024]{1,0} slice(f32[64,23552]{1,0} %convert.1104.185), slice={[0:64], [20480:21504]}, metadata={op_type="aten__mm" op_name="aten__mm" source_file="/usr/local/lib/python3.10/site-packages/torch/_ops.py" source_line=756}
  %param_5.96 = bf16[64,1024]{1,0} parameter(5)
  %convert.1137.3 = f32[64,1024]{1,0} convert(bf16[64,1024]{1,0} %param_5.96), metadata={op_type="xla__cast" op_name="xla__cast" source_file="/usr/local/lib/python3.10/site-packages/torch/_ops.py" source_line=756}
  %slice.318.9 = f32[64,1024]{1,0} slice(f32[64,23552]{1,0} %convert.1104.185), slice={[0:64], [21504:22528]}, metadata={op_type="aten__mm" op_name="aten__mm" source_file="/usr/local/lib/python3.10/site-packages/torch/_ops.py" source_line=756}
  %param_4.283 = bf16[64,1024]{1,0} parameter(4)
  %convert.1120.7 = f32[64,1024]{1,0} convert(bf16[64,1024]{1,0} %param_4.283), metadata={op_type="xla__cast" op_name="xla__cast" source_file="/usr/local/lib/python3.10/site-packages/torch/_ops.py" source_line=756}
  %slice.319.15 = f32[64,1024]{1,0} slice(f32[64,23552]{1,0} %convert.1104.185), slice={[0:64], [22528:23552]}, metadata={op_type="aten__mm" op_name="aten__mm" source_file="/usr/local/lib/python3.10/site-packages/torch/_ops.py" source_line=756}
  %param_2.515 = bf16[64,1,1024]{2,0,1} parameter(2)
  %bitcast.3567.15 = bf16[64,1024]{1,0} bitcast(bf16[64,1,1024]{2,0,1} %param_2.515)
  %convert.1107.15 = f32[64,1024]{1,0} convert(bf16[64,1024]{1,0} %bitcast.3567.15), metadata={op_type="xla__cast" op_name="xla__cast" source_file="/usr/local/lib/python3.10/site-packages/torch/_ops.py" source_line=756}
  %add.304.13 = f32[64,1024]{1,0} add(f32[64,1024]{1,0} %slice.319.15, f32[64,1024]{1,0} %convert.1107.15), metadata={op_type="aten__add" op_name="aten__add.1027/aten__add" source_file="/usr/local/lib/python3.10/site-packages/torch/_ops.py" source_line=756}
  %add.306.7 = f32[64,1024]{1,0} add(f32[64,1024]{1,0} %convert.1120.7, f32[64,1024]{1,0} %add.304.13), metadata={op_type="aten__add" op_name="aten__add.1032/aten__add" source_file="/usr/local/lib/python3.10/site-packages/torch/_ops.py" source_line=756}
  %add.307.7 = f32[64,1024]{1,0} add(f32[64,1024]{1,0} %slice.318.9, f32[64,1024]{1,0} %add.306.7), metadata={op_type="aten__add" op_name="aten__add.1045/aten__add" source_file="/usr/local/lib/python3.10/site-packages/torch/_ops.py" source_line=756}
  %add.309.3 = f32[64,1024]{1,0} add(f32[64,1024]{1,0} %convert.1137.3, f32[64,1024]{1,0} %add.307.7), metadata={op_type="aten__add" op_name="aten__add.1050/aten__add" source_file="/usr/local/lib/python3.10/site-packages/torch/_ops.py" source_line=756}
  %add.310.3 = f32[64,1024]{1,0} add(f32[64,1024]{1,0} %slice.317.5, f32[64,1024]{1,0} %add.309.3), metadata={op_type="aten__add" op_name="aten__add.1063/aten__add" source_file="/usr/local/lib/python3.10/site-packages/torch/_ops.py" source_line=756}
  %multiply.628 = f32[64,1024]{1,0} multiply(f32[64,1024]{1,0} %add.310.3, f32[64,1024]{1,0} %add.310.3), metadata={op_type="aten__pow" op_name="aten__pow" source_file="/usr/local/lib/python3.10/site-packages/torch/_ops.py" source_line=756}
  %constant_557 = f32[] constant(0), metadata={op_type="aten__mean" op_name="aten__mean" source_file="/usr/local/lib/python3.10/site-packages/torch/_ops.py" source_line=756}
  %reduce.55 = f32[64]{0} reduce(f32[64,1024]{1,0} %multiply.628, f32[] %constant_557), dimensions={1}, to_apply=%AddComputation.92, metadata={op_type="aten__mean" op_name="aten__mean" source_file="/usr/local/lib/python3.10/site-packages/torch/_ops.py" source_line=756}
  %constant_556 = f32[] constant(0.0009765625), metadata={op_type="aten__mean" op_name="aten__mean" source_file="/usr/local/lib/python3.10/site-packages/torch/_ops.py" source_line=756}
  %broadcast.721 = f32[64]{0} broadcast(f32[] %constant_556), dimensions={}, metadata={op_type="aten__mean" op_name="aten__mean" source_file="/usr/local/lib/python3.10/site-packages/torch/_ops.py" source_line=756}
  %multiply.627 = f32[64]{0} multiply(f32[64]{0} %reduce.55, f32[64]{0} %broadcast.721), metadata={op_type="aten__mean" op_name="aten__mean" source_file="/usr/local/lib/python3.10/site-packages/torch/_ops.py" source_line=756}
  %param_0.992 = f32[] parameter(0)
  %broadcast.720 = f32[64]{0} broadcast(f32[] %param_0.992), dimensions={}, metadata={op_type="aten__add" op_name="aten__add.1028/aten__add" source_file="/usr/local/lib/python3.10/site-packages/torch/_ops.py" source_line=756}
  %add.384 = f32[64]{0} add(f32[64]{0} %multiply.627, f32[64]{0} %broadcast.720), metadata={op_type="aten__add" op_name="aten__add.1064/aten__add" source_file="/usr/local/lib/python3.10/site-packages/torch/_ops.py" source_line=756}
  %rsqrt.131 = f32[64]{0} rsqrt(f32[64]{0} %add.384), metadata={op_type="aten__rsqrt" op_name="aten__rsqrt" source_file="/usr/local/lib/python3.10/site-packages/torch/_ops.py" source_line=756}
  %broadcast.719 = f32[64,1024]{1,0} broadcast(f32[64]{0} %rsqrt.131), dimensions={0}, metadata={op_type="aten__mul" op_name="aten__mul.1065/aten__mul" source_file="/usr/local/lib/python3.10/site-packages/torch/_ops.py" source_line=756}
  %multiply.626 = f32[64,1024]{1,0} multiply(f32[64,1024]{1,0} %add.310.3, f32[64,1024]{1,0} %broadcast.719), metadata={op_type="aten__mul" op_name="aten__mul.1065/aten__mul" source_file="/usr/local/lib/python3.10/site-packages/torch/_ops.py" source_line=756}
  %param_1.784 = bf16[1024]{0} parameter(1)
  %convert.1139.1 = f32[1024]{0} convert(bf16[1024]{0} %param_1.784), metadata={op_type="xla__cast" op_name="xla__cast" source_file="/usr/local/lib/python3.10/site-packages/torch/_ops.py" source_line=756}
  %broadcast.519.1 = f32[64,1024]{1,0} broadcast(f32[1024]{0} %convert.1139.1), dimensions={1}, metadata={op_type="aten__mul" op_name="aten__mul.1066/aten__mul" source_file="/usr/local/lib/python3.10/site-packages/torch/_ops.py" source_line=756}
  %multiply.530.1 = f32[64,1024]{1,0} multiply(f32[64,1024]{1,0} %multiply.626, f32[64,1024]{1,0} %broadcast.519.1), metadata={op_type="aten__mul" op_name="aten__mul.1066/aten__mul" source_file="/usr/local/lib/python3.10/site-packages/torch/_ops.py" source_line=756}
  ROOT %convert.1140.1 = bf16[64,1024]{1,0} convert(f32[64,1024]{1,0} %multiply.530.1), metadata={op_type="xla__cast" op_name="xla__cast" source_file="/usr/local/lib/python3.10/site-packages/torch/_ops.py" source_line=756}
}

%fused_convert.20 (param_0.684: bf16[64,6144]) -> bf16[64,3072] {
  %param_0.684 = bf16[64,6144]{1,0} parameter(0)
  %slice.324.1 = bf16[64,3072]{1,0} slice(bf16[64,6144]{1,0} %param_0.684), slice={[0:64], [0:3072]}, metadata={op_type="xla__select" op_name="xla__select" source_file="/usr/local/lib/python3.10/site-packages/torch/_ops.py" source_line=756}
  %convert.1141.6 = f32[64,3072]{1,0} convert(bf16[64,3072]{1,0} %slice.324.1)
  %constant_1_8 = bf16[] constant(1), metadata={op_type="xla__select" op_name="xla__select" source_file="/usr/local/lib/python3.10/site-packages/torch/_ops.py" source_line=756}
  %convert.1439.6 = f32[] convert(bf16[] %constant_1_8)
  %broadcast.597.176 = f32[64,3072]{1,0} broadcast(f32[] %convert.1439.6), dimensions={}, metadata={op_type="xla__select" op_name="xla__select" source_file="/usr/local/lib/python3.10/site-packages/torch/_ops.py" source_line=756}
  %negate.71.7 = f32[64,3072]{1,0} negate(f32[64,3072]{1,0} %convert.1141.6)
  %convert.1147.5 = bf16[64,3072]{1,0} convert(f32[64,3072]{1,0} %negate.71.7)
  %exponential.71.3 = bf16[64,3072]{1,0} exponential(bf16[64,3072]{1,0} %convert.1147.5)
  %convert.1148.1 = f32[64,3072]{1,0} convert(bf16[64,3072]{1,0} %exponential.71.3)
  %add.312.5 = f32[64,3072]{1,0} add(f32[64,3072]{1,0} %broadcast.597.176, f32[64,3072]{1,0} %convert.1148.1)
  %divide.71.3 = f32[64,3072]{1,0} divide(f32[64,3072]{1,0} %broadcast.597.176, f32[64,3072]{1,0} %add.312.5), metadata={op_type="aten__silu" op_name="aten__silu" source_file="/usr/local/lib/python3.10/site-packages/torch/_ops.py" source_line=756}
  %multiply.531.3 = f32[64,3072]{1,0} multiply(f32[64,3072]{1,0} %convert.1141.6, f32[64,3072]{1,0} %divide.71.3), metadata={op_type="aten__silu" op_name="aten__silu" source_file="/usr/local/lib/python3.10/site-packages/torch/_ops.py" source_line=756}
  %slice.325.1 = bf16[64,3072]{1,0} slice(bf16[64,6144]{1,0} %param_0.684), slice={[0:64], [3072:6144]}, metadata={op_type="xla__select" op_name="xla__select" source_file="/usr/local/lib/python3.10/site-packages/torch/_ops.py" source_line=756}
  %convert.1149.1 = f32[64,3072]{1,0} convert(bf16[64,3072]{1,0} %slice.325.1), metadata={op_type="xla__cast" op_name="xla__cast" source_file="/usr/local/lib/python3.10/site-packages/torch/_ops.py" source_line=756}
  %multiply.532.1 = f32[64,3072]{1,0} multiply(f32[64,3072]{1,0} %multiply.531.3, f32[64,3072]{1,0} %convert.1149.1), metadata={op_type="aten__mul" op_name="aten__mul.1067/aten__mul" source_file="/usr/local/lib/python3.10/site-packages/torch/_ops.py" source_line=756}
  ROOT %convert.1150.1 = bf16[64,3072]{1,0} convert(f32[64,3072]{1,0} %multiply.532.1), metadata={op_type="xla__cast" op_name="xla__cast" source_file="/usr/local/lib/python3.10/site-packages/torch/_ops.py" source_line=756}
}

%fused_computation.237 (param_0.957: f32[], param_1.787: bf16[64,1024], param_2.519: bf16[64,23552], param_3.498: bf16[1024], param_4.289: bf16[64,1,1024], param_5.105: bf16[64,1024], param_6.98: bf16[64,1024]) -> bf16[64,1024] {
  %param_2.519 = bf16[64,23552]{1,0} parameter(2)
  %convert.1104.113 = f32[64,23552]{1,0} convert(bf16[64,23552]{1,0} %param_2.519), metadata={op_type="xla__cast" op_name="xla__cast" source_file="/usr/local/lib/python3.10/site-packages/torch/_ops.py" source_line=756}
  %slice.316.5 = f32[64,1024]{1,0} slice(f32[64,23552]{1,0} %convert.1104.113), slice={[0:64], [19456:20480]}, metadata={op_type="aten__mm" op_name="aten__mm" source_file="/usr/local/lib/python3.10/site-packages/torch/_ops.py" source_line=756}
  %param_1.787 = bf16[64,1024]{1,0} parameter(1)
  %convert.1151.3 = f32[64,1024]{1,0} convert(bf16[64,1024]{1,0} %param_1.787), metadata={op_type="xla__cast" op_name="xla__cast" source_file="/usr/local/lib/python3.10/site-packages/torch/_ops.py" source_line=756}
  %slice.317.9 = f32[64,1024]{1,0} slice(f32[64,23552]{1,0} %convert.1104.113), slice={[0:64], [20480:21504]}, metadata={op_type="aten__mm" op_name="aten__mm" source_file="/usr/local/lib/python3.10/site-packages/torch/_ops.py" source_line=756}
  %param_6.98 = bf16[64,1024]{1,0} parameter(6)
  %convert.1137.7 = f32[64,1024]{1,0} convert(bf16[64,1024]{1,0} %param_6.98), metadata={op_type="xla__cast" op_name="xla__cast" source_file="/usr/local/lib/python3.10/site-packages/torch/_ops.py" source_line=756}
  %slice.318.13 = f32[64,1024]{1,0} slice(f32[64,23552]{1,0} %convert.1104.113), slice={[0:64], [21504:22528]}, metadata={op_type="aten__mm" op_name="aten__mm" source_file="/usr/local/lib/python3.10/site-packages/torch/_ops.py" source_line=756}
  %param_5.105 = bf16[64,1024]{1,0} parameter(5)
  %convert.1120.11 = f32[64,1024]{1,0} convert(bf16[64,1024]{1,0} %param_5.105), metadata={op_type="xla__cast" op_name="xla__cast" source_file="/usr/local/lib/python3.10/site-packages/torch/_ops.py" source_line=756}
  %slice.319.19 = f32[64,1024]{1,0} slice(f32[64,23552]{1,0} %convert.1104.113), slice={[0:64], [22528:23552]}, metadata={op_type="aten__mm" op_name="aten__mm" source_file="/usr/local/lib/python3.10/site-packages/torch/_ops.py" source_line=756}
  %param_4.289 = bf16[64,1,1024]{2,0,1} parameter(4)
  %bitcast.3567.19 = bf16[64,1024]{1,0} bitcast(bf16[64,1,1024]{2,0,1} %param_4.289)
  %convert.1107.19 = f32[64,1024]{1,0} convert(bf16[64,1024]{1,0} %bitcast.3567.19), metadata={op_type="xla__cast" op_name="xla__cast" source_file="/usr/local/lib/python3.10/site-packages/torch/_ops.py" source_line=756}
  %add.304.17 = f32[64,1024]{1,0} add(f32[64,1024]{1,0} %slice.319.19, f32[64,1024]{1,0} %convert.1107.19), metadata={op_type="aten__add" op_name="aten__add.1027/aten__add" source_file="/usr/local/lib/python3.10/site-packages/torch/_ops.py" source_line=756}
  %add.306.11 = f32[64,1024]{1,0} add(f32[64,1024]{1,0} %convert.1120.11, f32[64,1024]{1,0} %add.304.17), metadata={op_type="aten__add" op_name="aten__add.1032/aten__add" source_file="/usr/local/lib/python3.10/site-packages/torch/_ops.py" source_line=756}
  %add.307.11 = f32[64,1024]{1,0} add(f32[64,1024]{1,0} %slice.318.13, f32[64,1024]{1,0} %add.306.11), metadata={op_type="aten__add" op_name="aten__add.1045/aten__add" source_file="/usr/local/lib/python3.10/site-packages/torch/_ops.py" source_line=756}
  %add.309.7 = f32[64,1024]{1,0} add(f32[64,1024]{1,0} %convert.1137.7, f32[64,1024]{1,0} %add.307.11), metadata={op_type="aten__add" op_name="aten__add.1050/aten__add" source_file="/usr/local/lib/python3.10/site-packages/torch/_ops.py" source_line=756}
  %add.310.7 = f32[64,1024]{1,0} add(f32[64,1024]{1,0} %slice.317.9, f32[64,1024]{1,0} %add.309.7), metadata={op_type="aten__add" op_name="aten__add.1063/aten__add" source_file="/usr/local/lib/python3.10/site-packages/torch/_ops.py" source_line=756}
  %add.313.3 = f32[64,1024]{1,0} add(f32[64,1024]{1,0} %convert.1151.3, f32[64,1024]{1,0} %add.310.7), metadata={op_type="aten__add" op_name="aten__add.1068/aten__add" source_file="/usr/local/lib/python3.10/site-packages/torch/_ops.py" source_line=756}
  %add.314.3 = f32[64,1024]{1,0} add(f32[64,1024]{1,0} %slice.316.5, f32[64,1024]{1,0} %add.313.3), metadata={op_type="aten__add" op_name="aten__add.1081/aten__add" source_file="/usr/local/lib/python3.10/site-packages/torch/_ops.py" source_line=756}
  %multiply.637 = f32[64,1024]{1,0} multiply(f32[64,1024]{1,0} %add.314.3, f32[64,1024]{1,0} %add.314.3), metadata={op_type="aten__pow" op_name="aten__pow" source_file="/usr/local/lib/python3.10/site-packages/torch/_ops.py" source_line=756}
  %constant_562 = f32[] constant(0), metadata={op_type="aten__mean" op_name="aten__mean" source_file="/usr/local/lib/python3.10/site-packages/torch/_ops.py" source_line=756}
  %reduce.57 = f32[64]{0} reduce(f32[64,1024]{1,0} %multiply.637, f32[] %constant_562), dimensions={1}, to_apply=%AddComputation.92, metadata={op_type="aten__mean" op_name="aten__mean" source_file="/usr/local/lib/python3.10/site-packages/torch/_ops.py" source_line=756}
  %constant_561 = f32[] constant(0.0009765625), metadata={op_type="aten__mean" op_name="aten__mean" source_file="/usr/local/lib/python3.10/site-packages/torch/_ops.py" source_line=756}
  %broadcast.728 = f32[64]{0} broadcast(f32[] %constant_561), dimensions={}, metadata={op_type="aten__mean" op_name="aten__mean" source_file="/usr/local/lib/python3.10/site-packages/torch/_ops.py" source_line=756}
  %multiply.635 = f32[64]{0} multiply(f32[64]{0} %reduce.57, f32[64]{0} %broadcast.728), metadata={op_type="aten__mean" op_name="aten__mean" source_file="/usr/local/lib/python3.10/site-packages/torch/_ops.py" source_line=756}
  %param_0.957 = f32[] parameter(0)
  %broadcast.727 = f32[64]{0} broadcast(f32[] %param_0.957), dimensions={}, metadata={op_type="aten__add" op_name="aten__add.1028/aten__add" source_file="/usr/local/lib/python3.10/site-packages/torch/_ops.py" source_line=756}
  %add.386 = f32[64]{0} add(f32[64]{0} %multiply.635, f32[64]{0} %broadcast.727), metadata={op_type="aten__add" op_name="aten__add.1082/aten__add" source_file="/usr/local/lib/python3.10/site-packages/torch/_ops.py" source_line=756}
  %rsqrt.133 = f32[64]{0} rsqrt(f32[64]{0} %add.386), metadata={op_type="aten__rsqrt" op_name="aten__rsqrt" source_file="/usr/local/lib/python3.10/site-packages/torch/_ops.py" source_line=756}
  %broadcast.726 = f32[64,1024]{1,0} broadcast(f32[64]{0} %rsqrt.133), dimensions={0}, metadata={op_type="aten__mul" op_name="aten__mul.1083/aten__mul" source_file="/usr/local/lib/python3.10/site-packages/torch/_ops.py" source_line=756}
  %multiply.634 = f32[64,1024]{1,0} multiply(f32[64,1024]{1,0} %add.314.3, f32[64,1024]{1,0} %broadcast.726), metadata={op_type="aten__mul" op_name="aten__mul.1083/aten__mul" source_file="/usr/local/lib/python3.10/site-packages/torch/_ops.py" source_line=756}
  %param_3.498 = bf16[1024]{0} parameter(3)
  %convert.1152.1 = f32[1024]{0} convert(bf16[1024]{0} %param_3.498), metadata={op_type="xla__cast" op_name="xla__cast" source_file="/usr/local/lib/python3.10/site-packages/torch/_ops.py" source_line=756}
  %broadcast.523.1 = f32[64,1024]{1,0} broadcast(f32[1024]{0} %convert.1152.1), dimensions={1}, metadata={op_type="aten__mul" op_name="aten__mul.1084/aten__mul" source_file="/usr/local/lib/python3.10/site-packages/torch/_ops.py" source_line=756}
  %multiply.533.1 = f32[64,1024]{1,0} multiply(f32[64,1024]{1,0} %multiply.634, f32[64,1024]{1,0} %broadcast.523.1), metadata={op_type="aten__mul" op_name="aten__mul.1084/aten__mul" source_file="/usr/local/lib/python3.10/site-packages/torch/_ops.py" source_line=756}
  ROOT %convert.1153.1 = bf16[64,1024]{1,0} convert(f32[64,1024]{1,0} %multiply.533.1), metadata={op_type="xla__cast" op_name="xla__cast" source_file="/usr/local/lib/python3.10/site-packages/torch/_ops.py" source_line=756}
}

%fused_convert.19 (param_0.686: bf16[64,6144]) -> bf16[64,3072] {
  %param_0.686 = bf16[64,6144]{1,0} parameter(0)
  %slice.326.1 = bf16[64,3072]{1,0} slice(bf16[64,6144]{1,0} %param_0.686), slice={[0:64], [0:3072]}, metadata={op_type="xla__select" op_name="xla__select" source_file="/usr/local/lib/python3.10/site-packages/torch/_ops.py" source_line=756}
  %convert.1155.6 = f32[64,3072]{1,0} convert(bf16[64,3072]{1,0} %slice.326.1)
  %constant_1_10 = bf16[] constant(1), metadata={op_type="xla__select" op_name="xla__select" source_file="/usr/local/lib/python3.10/site-packages/torch/_ops.py" source_line=756}
  %convert.1439.8 = f32[] convert(bf16[] %constant_1_10)
  %broadcast.597.172 = f32[64,3072]{1,0} broadcast(f32[] %convert.1439.8), dimensions={}, metadata={op_type="xla__select" op_name="xla__select" source_file="/usr/local/lib/python3.10/site-packages/torch/_ops.py" source_line=756}
  %negate.72.7 = f32[64,3072]{1,0} negate(f32[64,3072]{1,0} %convert.1155.6)
  %convert.1161.5 = bf16[64,3072]{1,0} convert(f32[64,3072]{1,0} %negate.72.7)
  %exponential.72.3 = bf16[64,3072]{1,0} exponential(bf16[64,3072]{1,0} %convert.1161.5)
  %convert.1162.1 = f32[64,3072]{1,0} convert(bf16[64,3072]{1,0} %exponential.72.3)
  %add.315.5 = f32[64,3072]{1,0} add(f32[64,3072]{1,0} %broadcast.597.172, f32[64,3072]{1,0} %convert.1162.1)
  %divide.72.3 = f32[64,3072]{1,0} divide(f32[64,3072]{1,0} %broadcast.597.172, f32[64,3072]{1,0} %add.315.5), metadata={op_type="aten__silu" op_name="aten__silu" source_file="/usr/local/lib/python3.10/site-packages/torch/_ops.py" source_line=756}
  %multiply.534.3 = f32[64,3072]{1,0} multiply(f32[64,3072]{1,0} %convert.1155.6, f32[64,3072]{1,0} %divide.72.3), metadata={op_type="aten__silu" op_name="aten__silu" source_file="/usr/local/lib/python3.10/site-packages/torch/_ops.py" source_line=756}
  %slice.327.1 = bf16[64,3072]{1,0} slice(bf16[64,6144]{1,0} %param_0.686), slice={[0:64], [3072:6144]}, metadata={op_type="xla__select" op_name="xla__select" source_file="/usr/local/lib/python3.10/site-packages/torch/_ops.py" source_line=756}
  %convert.1163.1 = f32[64,3072]{1,0} convert(bf16[64,3072]{1,0} %slice.327.1), metadata={op_type="xla__cast" op_name="xla__cast" source_file="/usr/local/lib/python3.10/site-packages/torch/_ops.py" source_line=756}
  %multiply.535.1 = f32[64,3072]{1,0} multiply(f32[64,3072]{1,0} %multiply.534.3, f32[64,3072]{1,0} %convert.1163.1), metadata={op_type="aten__mul" op_name="aten__mul.1085/aten__mul" source_file="/usr/local/lib/python3.10/site-packages/torch/_ops.py" source_line=756}
  ROOT %convert.1164.1 = bf16[64,3072]{1,0} convert(f32[64,3072]{1,0} %multiply.535.1), metadata={op_type="xla__cast" op_name="xla__cast" source_file="/usr/local/lib/python3.10/site-packages/torch/_ops.py" source_line=756}
}

%fused_add (param_0.839: bf16[64,23552], param_1.712: bf16[64,1024], param_2.517: bf16[64,1024], param_3.496: bf16[64,1,1024], param_4.287: bf16[64,1024], param_5.101: bf16[64,1024]) -> f32[64,1024] {
  %param_0.839 = bf16[64,23552]{1,0} parameter(0)
  %convert.1104.33 = f32[64,23552]{1,0} convert(bf16[64,23552]{1,0} %param_0.839), metadata={op_type="xla__cast" op_name="xla__cast" source_file="/usr/local/lib/python3.10/site-packages/torch/_ops.py" source_line=756}
  %slice.315.3 = f32[64,1024]{1,0} slice(f32[64,23552]{1,0} %convert.1104.33), slice={[0:64], [18432:19456]}, metadata={op_type="aten__mm" op_name="aten__mm" source_file="/usr/local/lib/python3.10/site-packages/torch/_ops.py" source_line=756}
  %param_1.712 = bf16[64,1024]{1,0} parameter(1)
  %convert.1166.1 = f32[64,1024]{1,0} convert(bf16[64,1024]{1,0} %param_1.712), metadata={op_type="xla__cast" op_name="xla__cast" source_file="/usr/local/lib/python3.10/site-packages/torch/_ops.py" source_line=756}
  %slice.316.7 = f32[64,1024]{1,0} slice(f32[64,23552]{1,0} %convert.1104.33), slice={[0:64], [19456:20480]}, metadata={op_type="aten__mm" op_name="aten__mm" source_file="/usr/local/lib/python3.10/site-packages/torch/_ops.py" source_line=756}
  %param_2.517 = bf16[64,1024]{1,0} parameter(2)
  %convert.1151.5 = f32[64,1024]{1,0} convert(bf16[64,1024]{1,0} %param_2.517), metadata={op_type="xla__cast" op_name="xla__cast" source_file="/usr/local/lib/python3.10/site-packages/torch/_ops.py" source_line=756}
  %slice.317.7 = f32[64,1024]{1,0} slice(f32[64,23552]{1,0} %convert.1104.33), slice={[0:64], [20480:21504]}, metadata={op_type="aten__mm" op_name="aten__mm" source_file="/usr/local/lib/python3.10/site-packages/torch/_ops.py" source_line=756}
  %param_5.101 = bf16[64,1024]{1,0} parameter(5)
  %convert.1137.5 = f32[64,1024]{1,0} convert(bf16[64,1024]{1,0} %param_5.101), metadata={op_type="xla__cast" op_name="xla__cast" source_file="/usr/local/lib/python3.10/site-packages/torch/_ops.py" source_line=756}
  %slice.318.11 = f32[64,1024]{1,0} slice(f32[64,23552]{1,0} %convert.1104.33), slice={[0:64], [21504:22528]}, metadata={op_type="aten__mm" op_name="aten__mm" source_file="/usr/local/lib/python3.10/site-packages/torch/_ops.py" source_line=756}
  %param_4.287 = bf16[64,1024]{1,0} parameter(4)
  %convert.1120.9 = f32[64,1024]{1,0} convert(bf16[64,1024]{1,0} %param_4.287), metadata={op_type="xla__cast" op_name="xla__cast" source_file="/usr/local/lib/python3.10/site-packages/torch/_ops.py" source_line=756}
  %slice.319.17 = f32[64,1024]{1,0} slice(f32[64,23552]{1,0} %convert.1104.33), slice={[0:64], [22528:23552]}, metadata={op_type="aten__mm" op_name="aten__mm" source_file="/usr/local/lib/python3.10/site-packages/torch/_ops.py" source_line=756}
  %param_3.496 = bf16[64,1,1024]{2,0,1} parameter(3)
  %bitcast.3567.17 = bf16[64,1024]{1,0} bitcast(bf16[64,1,1024]{2,0,1} %param_3.496)
  %convert.1107.17 = f32[64,1024]{1,0} convert(bf16[64,1024]{1,0} %bitcast.3567.17), metadata={op_type="xla__cast" op_name="xla__cast" source_file="/usr/local/lib/python3.10/site-packages/torch/_ops.py" source_line=756}
  %add.304.15 = f32[64,1024]{1,0} add(f32[64,1024]{1,0} %slice.319.17, f32[64,1024]{1,0} %convert.1107.17), metadata={op_type="aten__add" op_name="aten__add.1027/aten__add" source_file="/usr/local/lib/python3.10/site-packages/torch/_ops.py" source_line=756}
  %add.306.9 = f32[64,1024]{1,0} add(f32[64,1024]{1,0} %convert.1120.9, f32[64,1024]{1,0} %add.304.15), metadata={op_type="aten__add" op_name="aten__add.1032/aten__add" source_file="/usr/local/lib/python3.10/site-packages/torch/_ops.py" source_line=756}
  %add.307.9 = f32[64,1024]{1,0} add(f32[64,1024]{1,0} %slice.318.11, f32[64,1024]{1,0} %add.306.9), metadata={op_type="aten__add" op_name="aten__add.1045/aten__add" source_file="/usr/local/lib/python3.10/site-packages/torch/_ops.py" source_line=756}
  %add.309.5 = f32[64,1024]{1,0} add(f32[64,1024]{1,0} %convert.1137.5, f32[64,1024]{1,0} %add.307.9), metadata={op_type="aten__add" op_name="aten__add.1050/aten__add" source_file="/usr/local/lib/python3.10/site-packages/torch/_ops.py" source_line=756}
  %add.310.5 = f32[64,1024]{1,0} add(f32[64,1024]{1,0} %slice.317.7, f32[64,1024]{1,0} %add.309.5), metadata={op_type="aten__add" op_name="aten__add.1063/aten__add" source_file="/usr/local/lib/python3.10/site-packages/torch/_ops.py" source_line=756}
  %add.313.5 = f32[64,1024]{1,0} add(f32[64,1024]{1,0} %convert.1151.5, f32[64,1024]{1,0} %add.310.5), metadata={op_type="aten__add" op_name="aten__add.1068/aten__add" source_file="/usr/local/lib/python3.10/site-packages/torch/_ops.py" source_line=756}
  %add.314.5 = f32[64,1024]{1,0} add(f32[64,1024]{1,0} %slice.316.7, f32[64,1024]{1,0} %add.313.5), metadata={op_type="aten__add" op_name="aten__add.1081/aten__add" source_file="/usr/local/lib/python3.10/site-packages/torch/_ops.py" source_line=756}
  %add.316.1 = f32[64,1024]{1,0} add(f32[64,1024]{1,0} %convert.1166.1, f32[64,1024]{1,0} %add.314.5), metadata={op_type="aten__add" op_name="aten__add.1086/aten__add" source_file="/usr/local/lib/python3.10/site-packages/torch/_ops.py" source_line=756}
  ROOT %add.317.1 = f32[64,1024]{1,0} add(f32[64,1024]{1,0} %slice.315.3, f32[64,1024]{1,0} %add.316.1), metadata={op_type="aten__add" op_name="aten__add.1099/aten__add" source_file="/usr/local/lib/python3.10/site-packages/torch/_ops.py" source_line=756}
}

%fused_computation.236 (param_0.956: f32[64,1024], param_1.751: f32[], param_2.472: bf16[1024]) -> bf16[64,1024] {
  %param_0.956 = f32[64,1024]{1,0} parameter(0)
  %multiply.643 = f32[64,1024]{1,0} multiply(f32[64,1024]{1,0} %param_0.956, f32[64,1024]{1,0} %param_0.956), metadata={op_type="aten__pow" op_name="aten__pow" source_file="/usr/local/lib/python3.10/site-packages/torch/_ops.py" source_line=756}
  %constant_567 = f32[] constant(0), metadata={op_type="aten__mean" op_name="aten__mean" source_file="/usr/local/lib/python3.10/site-packages/torch/_ops.py" source_line=756}
  %reduce.59 = f32[64]{0} reduce(f32[64,1024]{1,0} %multiply.643, f32[] %constant_567), dimensions={1}, to_apply=%AddComputation.92, metadata={op_type="aten__mean" op_name="aten__mean" source_file="/usr/local/lib/python3.10/site-packages/torch/_ops.py" source_line=756}
  %constant_566 = f32[] constant(0.0009765625), metadata={op_type="aten__mean" op_name="aten__mean" source_file="/usr/local/lib/python3.10/site-packages/torch/_ops.py" source_line=756}
  %broadcast.734 = f32[64]{0} broadcast(f32[] %constant_566), dimensions={}, metadata={op_type="aten__mean" op_name="aten__mean" source_file="/usr/local/lib/python3.10/site-packages/torch/_ops.py" source_line=756}
  %multiply.642 = f32[64]{0} multiply(f32[64]{0} %reduce.59, f32[64]{0} %broadcast.734), metadata={op_type="aten__mean" op_name="aten__mean" source_file="/usr/local/lib/python3.10/site-packages/torch/_ops.py" source_line=756}
  %param_1.751 = f32[] parameter(1)
  %broadcast.733 = f32[64]{0} broadcast(f32[] %param_1.751), dimensions={}, metadata={op_type="aten__add" op_name="aten__add.1028/aten__add" source_file="/usr/local/lib/python3.10/site-packages/torch/_ops.py" source_line=756}
  %add.388 = f32[64]{0} add(f32[64]{0} %multiply.642, f32[64]{0} %broadcast.733), metadata={op_type="aten__add" op_name="aten__add.1100/aten__add" source_file="/usr/local/lib/python3.10/site-packages/torch/_ops.py" source_line=756}
  %rsqrt.135 = f32[64]{0} rsqrt(f32[64]{0} %add.388), metadata={op_type="aten__rsqrt" op_name="aten__rsqrt" source_file="/usr/local/lib/python3.10/site-packages/torch/_ops.py" source_line=756}
  %broadcast.732 = f32[64,1024]{1,0} broadcast(f32[64]{0} %rsqrt.135), dimensions={0}, metadata={op_type="aten__mul" op_name="aten__mul.1101/aten__mul" source_file="/usr/local/lib/python3.10/site-packages/torch/_ops.py" source_line=756}
  %multiply.641 = f32[64,1024]{1,0} multiply(f32[64,1024]{1,0} %param_0.956, f32[64,1024]{1,0} %broadcast.732), metadata={op_type="aten__mul" op_name="aten__mul.1101/aten__mul" source_file="/usr/local/lib/python3.10/site-packages/torch/_ops.py" source_line=756}
  %param_2.472 = bf16[1024]{0} parameter(2)
  %convert.1167.1 = f32[1024]{0} convert(bf16[1024]{0} %param_2.472), metadata={op_type="xla__cast" op_name="xla__cast" source_file="/usr/local/lib/python3.10/site-packages/torch/_ops.py" source_line=756}
  %broadcast.526.1 = f32[64,1024]{1,0} broadcast(f32[1024]{0} %convert.1167.1), dimensions={1}, metadata={op_type="aten__mul" op_name="aten__mul.1102/aten__mul" source_file="/usr/local/lib/python3.10/site-packages/torch/_ops.py" source_line=756}
  %multiply.536.1 = f32[64,1024]{1,0} multiply(f32[64,1024]{1,0} %multiply.641, f32[64,1024]{1,0} %broadcast.526.1), metadata={op_type="aten__mul" op_name="aten__mul.1102/aten__mul" source_file="/usr/local/lib/python3.10/site-packages/torch/_ops.py" source_line=756}
  ROOT %convert.1168.1 = bf16[64,1024]{1,0} convert(f32[64,1024]{1,0} %multiply.536.1), metadata={op_type="xla__cast" op_name="xla__cast" source_file="/usr/local/lib/python3.10/site-packages/torch/_ops.py" source_line=756}
}

%fused_convert.18 (param_0.688: bf16[64,6144]) -> bf16[64,3072] {
  %param_0.688 = bf16[64,6144]{1,0} parameter(0)
  %slice.328.1 = bf16[64,3072]{1,0} slice(bf16[64,6144]{1,0} %param_0.688), slice={[0:64], [0:3072]}, metadata={op_type="xla__select" op_name="xla__select" source_file="/usr/local/lib/python3.10/site-packages/torch/_ops.py" source_line=756}
  %convert.1169.6 = f32[64,3072]{1,0} convert(bf16[64,3072]{1,0} %slice.328.1)
  %constant_1_12 = bf16[] constant(1), metadata={op_type="xla__select" op_name="xla__select" source_file="/usr/local/lib/python3.10/site-packages/torch/_ops.py" source_line=756}
  %convert.1439.10 = f32[] convert(bf16[] %constant_1_12)
  %broadcast.597.168 = f32[64,3072]{1,0} broadcast(f32[] %convert.1439.10), dimensions={}, metadata={op_type="xla__select" op_name="xla__select" source_file="/usr/local/lib/python3.10/site-packages/torch/_ops.py" source_line=756}
  %negate.73.7 = f32[64,3072]{1,0} negate(f32[64,3072]{1,0} %convert.1169.6)
  %convert.1173.5 = bf16[64,3072]{1,0} convert(f32[64,3072]{1,0} %negate.73.7)
  %exponential.73.3 = bf16[64,3072]{1,0} exponential(bf16[64,3072]{1,0} %convert.1173.5)
  %convert.1174.1 = f32[64,3072]{1,0} convert(bf16[64,3072]{1,0} %exponential.73.3)
  %add.318.5 = f32[64,3072]{1,0} add(f32[64,3072]{1,0} %broadcast.597.168, f32[64,3072]{1,0} %convert.1174.1)
  %divide.73.3 = f32[64,3072]{1,0} divide(f32[64,3072]{1,0} %broadcast.597.168, f32[64,3072]{1,0} %add.318.5), metadata={op_type="aten__silu" op_name="aten__silu" source_file="/usr/local/lib/python3.10/site-packages/torch/_ops.py" source_line=756}
  %multiply.538.3 = f32[64,3072]{1,0} multiply(f32[64,3072]{1,0} %convert.1169.6, f32[64,3072]{1,0} %divide.73.3), metadata={op_type="aten__silu" op_name="aten__silu" source_file="/usr/local/lib/python3.10/site-packages/torch/_ops.py" source_line=756}
  %slice.329.1 = bf16[64,3072]{1,0} slice(bf16[64,6144]{1,0} %param_0.688), slice={[0:64], [3072:6144]}, metadata={op_type="xla__select" op_name="xla__select" source_file="/usr/local/lib/python3.10/site-packages/torch/_ops.py" source_line=756}
  %convert.1175.1 = f32[64,3072]{1,0} convert(bf16[64,3072]{1,0} %slice.329.1), metadata={op_type="xla__cast" op_name="xla__cast" source_file="/usr/local/lib/python3.10/site-packages/torch/_ops.py" source_line=756}
  %multiply.539.1 = f32[64,3072]{1,0} multiply(f32[64,3072]{1,0} %multiply.538.3, f32[64,3072]{1,0} %convert.1175.1), metadata={op_type="aten__mul" op_name="aten__mul.1103/aten__mul" source_file="/usr/local/lib/python3.10/site-packages/torch/_ops.py" source_line=756}
  ROOT %convert.1176.1 = bf16[64,3072]{1,0} convert(f32[64,3072]{1,0} %multiply.539.1), metadata={op_type="xla__cast" op_name="xla__cast" source_file="/usr/local/lib/python3.10/site-packages/torch/_ops.py" source_line=756}
}

%fused_computation.235 (param_0.955: f32[], param_1.750: f32[64,1024], param_2.471: bf16[64,1024], param_3.430: bf16[64,23552], param_4.224: bf16[1024]) -> bf16[64,1024] {
  %param_3.430 = bf16[64,23552]{1,0} parameter(3)
  %convert.1104.109 = f32[64,23552]{1,0} convert(bf16[64,23552]{1,0} %param_3.430), metadata={op_type="xla__cast" op_name="xla__cast" source_file="/usr/local/lib/python3.10/site-packages/torch/_ops.py" source_line=756}
  %slice.314.5 = f32[64,1024]{1,0} slice(f32[64,23552]{1,0} %convert.1104.109), slice={[0:64], [17408:18432]}, metadata={op_type="aten__mm" op_name="aten__mm" source_file="/usr/local/lib/python3.10/site-packages/torch/_ops.py" source_line=756}
  %param_2.471 = bf16[64,1024]{1,0} parameter(2)
  %convert.1177.3 = f32[64,1024]{1,0} convert(bf16[64,1024]{1,0} %param_2.471), metadata={op_type="xla__cast" op_name="xla__cast" source_file="/usr/local/lib/python3.10/site-packages/torch/_ops.py" source_line=756}
  %param_1.750 = f32[64,1024]{1,0} parameter(1)
  %add.319.3 = f32[64,1024]{1,0} add(f32[64,1024]{1,0} %convert.1177.3, f32[64,1024]{1,0} %param_1.750), metadata={op_type="aten__add" op_name="aten__add.1104/aten__add" source_file="/usr/local/lib/python3.10/site-packages/torch/_ops.py" source_line=756}
  %add.320.3 = f32[64,1024]{1,0} add(f32[64,1024]{1,0} %slice.314.5, f32[64,1024]{1,0} %add.319.3), metadata={op_type="aten__add" op_name="aten__add.1117/aten__add" source_file="/usr/local/lib/python3.10/site-packages/torch/_ops.py" source_line=756}
  %multiply.649 = f32[64,1024]{1,0} multiply(f32[64,1024]{1,0} %add.320.3, f32[64,1024]{1,0} %add.320.3), metadata={op_type="aten__pow" op_name="aten__pow" source_file="/usr/local/lib/python3.10/site-packages/torch/_ops.py" source_line=756}
  %constant_573 = f32[] constant(0), metadata={op_type="aten__mean" op_name="aten__mean" source_file="/usr/local/lib/python3.10/site-packages/torch/_ops.py" source_line=756}
  %reduce.61 = f32[64]{0} reduce(f32[64,1024]{1,0} %multiply.649, f32[] %constant_573), dimensions={1}, to_apply=%AddComputation.92, metadata={op_type="aten__mean" op_name="aten__mean" source_file="/usr/local/lib/python3.10/site-packages/torch/_ops.py" source_line=756}
  %constant_572 = f32[] constant(0.0009765625), metadata={op_type="aten__mean" op_name="aten__mean" source_file="/usr/local/lib/python3.10/site-packages/torch/_ops.py" source_line=756}
  %broadcast.741 = f32[64]{0} broadcast(f32[] %constant_572), dimensions={}, metadata={op_type="aten__mean" op_name="aten__mean" source_file="/usr/local/lib/python3.10/site-packages/torch/_ops.py" source_line=756}
  %multiply.648 = f32[64]{0} multiply(f32[64]{0} %reduce.61, f32[64]{0} %broadcast.741), metadata={op_type="aten__mean" op_name="aten__mean" source_file="/usr/local/lib/python3.10/site-packages/torch/_ops.py" source_line=756}
  %param_0.955 = f32[] parameter(0)
  %broadcast.740 = f32[64]{0} broadcast(f32[] %param_0.955), dimensions={}, metadata={op_type="aten__add" op_name="aten__add.1028/aten__add" source_file="/usr/local/lib/python3.10/site-packages/torch/_ops.py" source_line=756}
  %add.390 = f32[64]{0} add(f32[64]{0} %multiply.648, f32[64]{0} %broadcast.740), metadata={op_type="aten__add" op_name="aten__add.1118/aten__add" source_file="/usr/local/lib/python3.10/site-packages/torch/_ops.py" source_line=756}
  %rsqrt.137 = f32[64]{0} rsqrt(f32[64]{0} %add.390), metadata={op_type="aten__rsqrt" op_name="aten__rsqrt" source_file="/usr/local/lib/python3.10/site-packages/torch/_ops.py" source_line=756}
  %broadcast.739 = f32[64,1024]{1,0} broadcast(f32[64]{0} %rsqrt.137), dimensions={0}, metadata={op_type="aten__mul" op_name="aten__mul.1119/aten__mul" source_file="/usr/local/lib/python3.10/site-packages/torch/_ops.py" source_line=756}
  %multiply.647 = f32[64,1024]{1,0} multiply(f32[64,1024]{1,0} %add.320.3, f32[64,1024]{1,0} %broadcast.739), metadata={op_type="aten__mul" op_name="aten__mul.1119/aten__mul" source_file="/usr/local/lib/python3.10/site-packages/torch/_ops.py" source_line=756}
  %param_4.224 = bf16[1024]{0} parameter(4)
  %convert.1178.1 = f32[1024]{0} convert(bf16[1024]{0} %param_4.224), metadata={op_type="xla__cast" op_name="xla__cast" source_file="/usr/local/lib/python3.10/site-packages/torch/_ops.py" source_line=756}
  %broadcast.529.1 = f32[64,1024]{1,0} broadcast(f32[1024]{0} %convert.1178.1), dimensions={1}, metadata={op_type="aten__mul" op_name="aten__mul.1120/aten__mul" source_file="/usr/local/lib/python3.10/site-packages/torch/_ops.py" source_line=756}
  %multiply.541.1 = f32[64,1024]{1,0} multiply(f32[64,1024]{1,0} %multiply.647, f32[64,1024]{1,0} %broadcast.529.1), metadata={op_type="aten__mul" op_name="aten__mul.1120/aten__mul" source_file="/usr/local/lib/python3.10/site-packages/torch/_ops.py" source_line=756}
  ROOT %convert.1179.1 = bf16[64,1024]{1,0} convert(f32[64,1024]{1,0} %multiply.541.1), metadata={op_type="xla__cast" op_name="xla__cast" source_file="/usr/local/lib/python3.10/site-packages/torch/_ops.py" source_line=756}
}

%fused_convert.17 (param_0.690: bf16[64,6144]) -> bf16[64,3072] {
  %param_0.690 = bf16[64,6144]{1,0} parameter(0)
  %slice.330.1 = bf16[64,3072]{1,0} slice(bf16[64,6144]{1,0} %param_0.690), slice={[0:64], [0:3072]}, metadata={op_type="xla__select" op_name="xla__select" source_file="/usr/local/lib/python3.10/site-packages/torch/_ops.py" source_line=756}
  %convert.1181.6 = f32[64,3072]{1,0} convert(bf16[64,3072]{1,0} %slice.330.1)
  %constant_1_14 = bf16[] constant(1), metadata={op_type="xla__select" op_name="xla__select" source_file="/usr/local/lib/python3.10/site-packages/torch/_ops.py" source_line=756}
  %convert.1439.12 = f32[] convert(bf16[] %constant_1_14)
  %broadcast.597.164 = f32[64,3072]{1,0} broadcast(f32[] %convert.1439.12), dimensions={}, metadata={op_type="xla__select" op_name="xla__select" source_file="/usr/local/lib/python3.10/site-packages/torch/_ops.py" source_line=756}
  %negate.74.7 = f32[64,3072]{1,0} negate(f32[64,3072]{1,0} %convert.1181.6)
  %convert.1185.5 = bf16[64,3072]{1,0} convert(f32[64,3072]{1,0} %negate.74.7)
  %exponential.74.3 = bf16[64,3072]{1,0} exponential(bf16[64,3072]{1,0} %convert.1185.5)
  %convert.1186.1 = f32[64,3072]{1,0} convert(bf16[64,3072]{1,0} %exponential.74.3)
  %add.321.5 = f32[64,3072]{1,0} add(f32[64,3072]{1,0} %broadcast.597.164, f32[64,3072]{1,0} %convert.1186.1)
  %divide.74.3 = f32[64,3072]{1,0} divide(f32[64,3072]{1,0} %broadcast.597.164, f32[64,3072]{1,0} %add.321.5), metadata={op_type="aten__silu" op_name="aten__silu" source_file="/usr/local/lib/python3.10/site-packages/torch/_ops.py" source_line=756}
  %multiply.542.3 = f32[64,3072]{1,0} multiply(f32[64,3072]{1,0} %convert.1181.6, f32[64,3072]{1,0} %divide.74.3), metadata={op_type="aten__silu" op_name="aten__silu" source_file="/usr/local/lib/python3.10/site-packages/torch/_ops.py" source_line=756}
  %slice.331.1 = bf16[64,3072]{1,0} slice(bf16[64,6144]{1,0} %param_0.690), slice={[0:64], [3072:6144]}, metadata={op_type="xla__select" op_name="xla__select" source_file="/usr/local/lib/python3.10/site-packages/torch/_ops.py" source_line=756}
  %convert.1188.1 = f32[64,3072]{1,0} convert(bf16[64,3072]{1,0} %slice.331.1), metadata={op_type="xla__cast" op_name="xla__cast" source_file="/usr/local/lib/python3.10/site-packages/torch/_ops.py" source_line=756}
  %multiply.543.1 = f32[64,3072]{1,0} multiply(f32[64,3072]{1,0} %multiply.542.3, f32[64,3072]{1,0} %convert.1188.1), metadata={op_type="aten__mul" op_name="aten__mul.1121/aten__mul" source_file="/usr/local/lib/python3.10/site-packages/torch/_ops.py" source_line=756}
  ROOT %convert.1189.1 = bf16[64,3072]{1,0} convert(f32[64,3072]{1,0} %multiply.543.1), metadata={op_type="xla__cast" op_name="xla__cast" source_file="/usr/local/lib/python3.10/site-packages/torch/_ops.py" source_line=756}
}

%fused_computation.234 (param_0.988: f32[], param_1.779: bf16[1024], param_2.508: f32[64,1024], param_3.483: bf16[64,1024], param_4.272: bf16[64,23552], param_5.81: bf16[64,1024]) -> bf16[64,1024] {
  %param_4.272 = bf16[64,23552]{1,0} parameter(4)
  %convert.1104.171 = f32[64,23552]{1,0} convert(bf16[64,23552]{1,0} %param_4.272), metadata={op_type="xla__cast" op_name="xla__cast" source_file="/usr/local/lib/python3.10/site-packages/torch/_ops.py" source_line=756}
  %slice.313.5 = f32[64,1024]{1,0} slice(f32[64,23552]{1,0} %convert.1104.171), slice={[0:64], [16384:17408]}, metadata={op_type="aten__mm" op_name="aten__mm" source_file="/usr/local/lib/python3.10/site-packages/torch/_ops.py" source_line=756}
  %param_5.81 = bf16[64,1024]{1,0} parameter(5)
  %convert.1190.3 = f32[64,1024]{1,0} convert(bf16[64,1024]{1,0} %param_5.81), metadata={op_type="xla__cast" op_name="xla__cast" source_file="/usr/local/lib/python3.10/site-packages/torch/_ops.py" source_line=756}
  %slice.314.9 = f32[64,1024]{1,0} slice(f32[64,23552]{1,0} %convert.1104.171), slice={[0:64], [17408:18432]}, metadata={op_type="aten__mm" op_name="aten__mm" source_file="/usr/local/lib/python3.10/site-packages/torch/_ops.py" source_line=756}
  %param_3.483 = bf16[64,1024]{1,0} parameter(3)
  %convert.1177.7 = f32[64,1024]{1,0} convert(bf16[64,1024]{1,0} %param_3.483), metadata={op_type="xla__cast" op_name="xla__cast" source_file="/usr/local/lib/python3.10/site-packages/torch/_ops.py" source_line=756}
  %param_2.508 = f32[64,1024]{1,0} parameter(2)
  %add.319.7 = f32[64,1024]{1,0} add(f32[64,1024]{1,0} %convert.1177.7, f32[64,1024]{1,0} %param_2.508), metadata={op_type="aten__add" op_name="aten__add.1104/aten__add" source_file="/usr/local/lib/python3.10/site-packages/torch/_ops.py" source_line=756}
  %add.320.7 = f32[64,1024]{1,0} add(f32[64,1024]{1,0} %slice.314.9, f32[64,1024]{1,0} %add.319.7), metadata={op_type="aten__add" op_name="aten__add.1117/aten__add" source_file="/usr/local/lib/python3.10/site-packages/torch/_ops.py" source_line=756}
  %add.322.3 = f32[64,1024]{1,0} add(f32[64,1024]{1,0} %convert.1190.3, f32[64,1024]{1,0} %add.320.7), metadata={op_type="aten__add" op_name="aten__add.1122/aten__add" source_file="/usr/local/lib/python3.10/site-packages/torch/_ops.py" source_line=756}
  %add.323.3 = f32[64,1024]{1,0} add(f32[64,1024]{1,0} %slice.313.5, f32[64,1024]{1,0} %add.322.3), metadata={op_type="aten__add" op_name="aten__add.1135/aten__add" source_file="/usr/local/lib/python3.10/site-packages/torch/_ops.py" source_line=756}
  %multiply.656 = f32[64,1024]{1,0} multiply(f32[64,1024]{1,0} %add.323.3, f32[64,1024]{1,0} %add.323.3), metadata={op_type="aten__pow" op_name="aten__pow" source_file="/usr/local/lib/python3.10/site-packages/torch/_ops.py" source_line=756}
  %constant_578 = f32[] constant(0), metadata={op_type="aten__mean" op_name="aten__mean" source_file="/usr/local/lib/python3.10/site-packages/torch/_ops.py" source_line=756}
  %reduce.63 = f32[64]{0} reduce(f32[64,1024]{1,0} %multiply.656, f32[] %constant_578), dimensions={1}, to_apply=%AddComputation.92, metadata={op_type="aten__mean" op_name="aten__mean" source_file="/usr/local/lib/python3.10/site-packages/torch/_ops.py" source_line=756}
  %constant_577 = f32[] constant(0.0009765625), metadata={op_type="aten__mean" op_name="aten__mean" source_file="/usr/local/lib/python3.10/site-packages/torch/_ops.py" source_line=756}
  %broadcast.747 = f32[64]{0} broadcast(f32[] %constant_577), dimensions={}, metadata={op_type="aten__mean" op_name="aten__mean" source_file="/usr/local/lib/python3.10/site-packages/torch/_ops.py" source_line=756}
  %multiply.655 = f32[64]{0} multiply(f32[64]{0} %reduce.63, f32[64]{0} %broadcast.747), metadata={op_type="aten__mean" op_name="aten__mean" source_file="/usr/local/lib/python3.10/site-packages/torch/_ops.py" source_line=756}
  %param_0.988 = f32[] parameter(0)
  %broadcast.746 = f32[64]{0} broadcast(f32[] %param_0.988), dimensions={}, metadata={op_type="aten__add" op_name="aten__add.1028/aten__add" source_file="/usr/local/lib/python3.10/site-packages/torch/_ops.py" source_line=756}
  %add.392 = f32[64]{0} add(f32[64]{0} %multiply.655, f32[64]{0} %broadcast.746), metadata={op_type="aten__add" op_name="aten__add.1136/aten__add" source_file="/usr/local/lib/python3.10/site-packages/torch/_ops.py" source_line=756}
  %rsqrt.139 = f32[64]{0} rsqrt(f32[64]{0} %add.392), metadata={op_type="aten__rsqrt" op_name="aten__rsqrt" source_file="/usr/local/lib/python3.10/site-packages/torch/_ops.py" source_line=756}
  %broadcast.745 = f32[64,1024]{1,0} broadcast(f32[64]{0} %rsqrt.139), dimensions={0}, metadata={op_type="aten__mul" op_name="aten__mul.1137/aten__mul" source_file="/usr/local/lib/python3.10/site-packages/torch/_ops.py" source_line=756}
  %multiply.654 = f32[64,1024]{1,0} multiply(f32[64,1024]{1,0} %add.323.3, f32[64,1024]{1,0} %broadcast.745), metadata={op_type="aten__mul" op_name="aten__mul.1137/aten__mul" source_file="/usr/local/lib/python3.10/site-packages/torch/_ops.py" source_line=756}
  %param_1.779 = bf16[1024]{0} parameter(1)
  %convert.1191.1 = f32[1024]{0} convert(bf16[1024]{0} %param_1.779), metadata={op_type="xla__cast" op_name="xla__cast" source_file="/usr/local/lib/python3.10/site-packages/torch/_ops.py" source_line=756}
  %broadcast.532.1 = f32[64,1024]{1,0} broadcast(f32[1024]{0} %convert.1191.1), dimensions={1}, metadata={op_type="aten__mul" op_name="aten__mul.1138/aten__mul" source_file="/usr/local/lib/python3.10/site-packages/torch/_ops.py" source_line=756}
  %multiply.544.1 = f32[64,1024]{1,0} multiply(f32[64,1024]{1,0} %multiply.654, f32[64,1024]{1,0} %broadcast.532.1), metadata={op_type="aten__mul" op_name="aten__mul.1138/aten__mul" source_file="/usr/local/lib/python3.10/site-packages/torch/_ops.py" source_line=756}
  ROOT %convert.1192.1 = bf16[64,1024]{1,0} convert(f32[64,1024]{1,0} %multiply.544.1), metadata={op_type="xla__cast" op_name="xla__cast" source_file="/usr/local/lib/python3.10/site-packages/torch/_ops.py" source_line=756}
}

%fused_convert.16 (param_0.692: bf16[64,6144]) -> bf16[64,3072] {
  %param_0.692 = bf16[64,6144]{1,0} parameter(0)
  %slice.332.1 = bf16[64,3072]{1,0} slice(bf16[64,6144]{1,0} %param_0.692), slice={[0:64], [0:3072]}, metadata={op_type="xla__select" op_name="xla__select" source_file="/usr/local/lib/python3.10/site-packages/torch/_ops.py" source_line=756}
  %convert.1193.6 = f32[64,3072]{1,0} convert(bf16[64,3072]{1,0} %slice.332.1)
  %constant_1_16 = bf16[] constant(1), metadata={op_type="xla__select" op_name="xla__select" source_file="/usr/local/lib/python3.10/site-packages/torch/_ops.py" source_line=756}
  %convert.1439.14 = f32[] convert(bf16[] %constant_1_16)
  %broadcast.597.160 = f32[64,3072]{1,0} broadcast(f32[] %convert.1439.14), dimensions={}, metadata={op_type="xla__select" op_name="xla__select" source_file="/usr/local/lib/python3.10/site-packages/torch/_ops.py" source_line=756}
  %negate.75.7 = f32[64,3072]{1,0} negate(f32[64,3072]{1,0} %convert.1193.6)
  %convert.1200.5 = bf16[64,3072]{1,0} convert(f32[64,3072]{1,0} %negate.75.7)
  %exponential.75.3 = bf16[64,3072]{1,0} exponential(bf16[64,3072]{1,0} %convert.1200.5)
  %convert.1201.1 = f32[64,3072]{1,0} convert(bf16[64,3072]{1,0} %exponential.75.3)
  %add.324.5 = f32[64,3072]{1,0} add(f32[64,3072]{1,0} %broadcast.597.160, f32[64,3072]{1,0} %convert.1201.1)
  %divide.75.3 = f32[64,3072]{1,0} divide(f32[64,3072]{1,0} %broadcast.597.160, f32[64,3072]{1,0} %add.324.5), metadata={op_type="aten__silu" op_name="aten__silu" source_file="/usr/local/lib/python3.10/site-packages/torch/_ops.py" source_line=756}
  %multiply.545.3 = f32[64,3072]{1,0} multiply(f32[64,3072]{1,0} %convert.1193.6, f32[64,3072]{1,0} %divide.75.3), metadata={op_type="aten__silu" op_name="aten__silu" source_file="/usr/local/lib/python3.10/site-packages/torch/_ops.py" source_line=756}
  %slice.333.1 = bf16[64,3072]{1,0} slice(bf16[64,6144]{1,0} %param_0.692), slice={[0:64], [3072:6144]}, metadata={op_type="xla__select" op_name="xla__select" source_file="/usr/local/lib/python3.10/site-packages/torch/_ops.py" source_line=756}
  %convert.1203.1 = f32[64,3072]{1,0} convert(bf16[64,3072]{1,0} %slice.333.1), metadata={op_type="xla__cast" op_name="xla__cast" source_file="/usr/local/lib/python3.10/site-packages/torch/_ops.py" source_line=756}
  %multiply.547.1 = f32[64,3072]{1,0} multiply(f32[64,3072]{1,0} %multiply.545.3, f32[64,3072]{1,0} %convert.1203.1), metadata={op_type="aten__mul" op_name="aten__mul.1139/aten__mul" source_file="/usr/local/lib/python3.10/site-packages/torch/_ops.py" source_line=756}
  ROOT %convert.1204.1 = bf16[64,3072]{1,0} convert(f32[64,3072]{1,0} %multiply.547.1), metadata={op_type="xla__cast" op_name="xla__cast" source_file="/usr/local/lib/python3.10/site-packages/torch/_ops.py" source_line=756}
}

%fused_computation.233 (param_0.953: f32[], param_1.782: bf16[64,1024], param_2.512: bf16[64,23552], param_3.488: bf16[1024], param_4.278: f32[64,1024], param_5.90: bf16[64,1024], param_6.80: bf16[64,1024]) -> bf16[64,1024] {
  %param_2.512 = bf16[64,23552]{1,0} parameter(2)
  %convert.1104.105 = f32[64,23552]{1,0} convert(bf16[64,23552]{1,0} %param_2.512), metadata={op_type="xla__cast" op_name="xla__cast" source_file="/usr/local/lib/python3.10/site-packages/torch/_ops.py" source_line=756}
  %slice.312.5 = f32[64,1024]{1,0} slice(f32[64,23552]{1,0} %convert.1104.105), slice={[0:64], [15360:16384]}, metadata={op_type="aten__mm" op_name="aten__mm" source_file="/usr/local/lib/python3.10/site-packages/torch/_ops.py" source_line=756}
  %param_1.782 = bf16[64,1024]{1,0} parameter(1)
  %convert.1205.3 = f32[64,1024]{1,0} convert(bf16[64,1024]{1,0} %param_1.782), metadata={op_type="xla__cast" op_name="xla__cast" source_file="/usr/local/lib/python3.10/site-packages/torch/_ops.py" source_line=756}
  %slice.313.9 = f32[64,1024]{1,0} slice(f32[64,23552]{1,0} %convert.1104.105), slice={[0:64], [16384:17408]}, metadata={op_type="aten__mm" op_name="aten__mm" source_file="/usr/local/lib/python3.10/site-packages/torch/_ops.py" source_line=756}
  %param_6.80 = bf16[64,1024]{1,0} parameter(6)
  %convert.1190.7 = f32[64,1024]{1,0} convert(bf16[64,1024]{1,0} %param_6.80), metadata={op_type="xla__cast" op_name="xla__cast" source_file="/usr/local/lib/python3.10/site-packages/torch/_ops.py" source_line=756}
  %slice.314.13 = f32[64,1024]{1,0} slice(f32[64,23552]{1,0} %convert.1104.105), slice={[0:64], [17408:18432]}, metadata={op_type="aten__mm" op_name="aten__mm" source_file="/usr/local/lib/python3.10/site-packages/torch/_ops.py" source_line=756}
  %param_5.90 = bf16[64,1024]{1,0} parameter(5)
  %convert.1177.11 = f32[64,1024]{1,0} convert(bf16[64,1024]{1,0} %param_5.90), metadata={op_type="xla__cast" op_name="xla__cast" source_file="/usr/local/lib/python3.10/site-packages/torch/_ops.py" source_line=756}
  %param_4.278 = f32[64,1024]{1,0} parameter(4)
  %add.319.11 = f32[64,1024]{1,0} add(f32[64,1024]{1,0} %convert.1177.11, f32[64,1024]{1,0} %param_4.278), metadata={op_type="aten__add" op_name="aten__add.1104/aten__add" source_file="/usr/local/lib/python3.10/site-packages/torch/_ops.py" source_line=756}
  %add.320.11 = f32[64,1024]{1,0} add(f32[64,1024]{1,0} %slice.314.13, f32[64,1024]{1,0} %add.319.11), metadata={op_type="aten__add" op_name="aten__add.1117/aten__add" source_file="/usr/local/lib/python3.10/site-packages/torch/_ops.py" source_line=756}
  %add.322.7 = f32[64,1024]{1,0} add(f32[64,1024]{1,0} %convert.1190.7, f32[64,1024]{1,0} %add.320.11), metadata={op_type="aten__add" op_name="aten__add.1122/aten__add" source_file="/usr/local/lib/python3.10/site-packages/torch/_ops.py" source_line=756}
  %add.323.7 = f32[64,1024]{1,0} add(f32[64,1024]{1,0} %slice.313.9, f32[64,1024]{1,0} %add.322.7), metadata={op_type="aten__add" op_name="aten__add.1135/aten__add" source_file="/usr/local/lib/python3.10/site-packages/torch/_ops.py" source_line=756}
  %add.325.3 = f32[64,1024]{1,0} add(f32[64,1024]{1,0} %convert.1205.3, f32[64,1024]{1,0} %add.323.7), metadata={op_type="aten__add" op_name="aten__add.1140/aten__add" source_file="/usr/local/lib/python3.10/site-packages/torch/_ops.py" source_line=756}
  %add.327.3 = f32[64,1024]{1,0} add(f32[64,1024]{1,0} %slice.312.5, f32[64,1024]{1,0} %add.325.3), metadata={op_type="aten__add" op_name="aten__add.1153/aten__add" source_file="/usr/local/lib/python3.10/site-packages/torch/_ops.py" source_line=756}
  %multiply.662 = f32[64,1024]{1,0} multiply(f32[64,1024]{1,0} %add.327.3, f32[64,1024]{1,0} %add.327.3), metadata={op_type="aten__pow" op_name="aten__pow" source_file="/usr/local/lib/python3.10/site-packages/torch/_ops.py" source_line=756}
  %constant_583 = f32[] constant(0), metadata={op_type="aten__mean" op_name="aten__mean" source_file="/usr/local/lib/python3.10/site-packages/torch/_ops.py" source_line=756}
  %reduce.65 = f32[64]{0} reduce(f32[64,1024]{1,0} %multiply.662, f32[] %constant_583), dimensions={1}, to_apply=%AddComputation.92, metadata={op_type="aten__mean" op_name="aten__mean" source_file="/usr/local/lib/python3.10/site-packages/torch/_ops.py" source_line=756}
  %constant_582 = f32[] constant(0.0009765625), metadata={op_type="aten__mean" op_name="aten__mean" source_file="/usr/local/lib/python3.10/site-packages/torch/_ops.py" source_line=756}
  %broadcast.754 = f32[64]{0} broadcast(f32[] %constant_582), dimensions={}, metadata={op_type="aten__mean" op_name="aten__mean" source_file="/usr/local/lib/python3.10/site-packages/torch/_ops.py" source_line=756}
  %multiply.661 = f32[64]{0} multiply(f32[64]{0} %reduce.65, f32[64]{0} %broadcast.754), metadata={op_type="aten__mean" op_name="aten__mean" source_file="/usr/local/lib/python3.10/site-packages/torch/_ops.py" source_line=756}
  %param_0.953 = f32[] parameter(0)
  %broadcast.753 = f32[64]{0} broadcast(f32[] %param_0.953), dimensions={}, metadata={op_type="aten__add" op_name="aten__add.1028/aten__add" source_file="/usr/local/lib/python3.10/site-packages/torch/_ops.py" source_line=756}
  %add.394 = f32[64]{0} add(f32[64]{0} %multiply.661, f32[64]{0} %broadcast.753), metadata={op_type="aten__add" op_name="aten__add.1154/aten__add" source_file="/usr/local/lib/python3.10/site-packages/torch/_ops.py" source_line=756}
  %rsqrt.141 = f32[64]{0} rsqrt(f32[64]{0} %add.394), metadata={op_type="aten__rsqrt" op_name="aten__rsqrt" source_file="/usr/local/lib/python3.10/site-packages/torch/_ops.py" source_line=756}
  %broadcast.751 = f32[64,1024]{1,0} broadcast(f32[64]{0} %rsqrt.141), dimensions={0}, metadata={op_type="aten__mul" op_name="aten__mul.1155/aten__mul" source_file="/usr/local/lib/python3.10/site-packages/torch/_ops.py" source_line=756}
  %multiply.660 = f32[64,1024]{1,0} multiply(f32[64,1024]{1,0} %add.327.3, f32[64,1024]{1,0} %broadcast.751), metadata={op_type="aten__mul" op_name="aten__mul.1155/aten__mul" source_file="/usr/local/lib/python3.10/site-packages/torch/_ops.py" source_line=756}
  %param_3.488 = bf16[1024]{0} parameter(3)
  %convert.1207.1 = f32[1024]{0} convert(bf16[1024]{0} %param_3.488), metadata={op_type="xla__cast" op_name="xla__cast" source_file="/usr/local/lib/python3.10/site-packages/torch/_ops.py" source_line=756}
  %broadcast.535.1 = f32[64,1024]{1,0} broadcast(f32[1024]{0} %convert.1207.1), dimensions={1}, metadata={op_type="aten__mul" op_name="aten__mul.1156/aten__mul" source_file="/usr/local/lib/python3.10/site-packages/torch/_ops.py" source_line=756}
  %multiply.548.1 = f32[64,1024]{1,0} multiply(f32[64,1024]{1,0} %multiply.660, f32[64,1024]{1,0} %broadcast.535.1), metadata={op_type="aten__mul" op_name="aten__mul.1156/aten__mul" source_file="/usr/local/lib/python3.10/site-packages/torch/_ops.py" source_line=756}
  ROOT %convert.1209.1 = bf16[64,1024]{1,0} convert(f32[64,1024]{1,0} %multiply.548.1), metadata={op_type="xla__cast" op_name="xla__cast" source_file="/usr/local/lib/python3.10/site-packages/torch/_ops.py" source_line=756}
}

%fused_convert.15 (param_0.694: bf16[64,6144]) -> bf16[64,3072] {
  %param_0.694 = bf16[64,6144]{1,0} parameter(0)
  %slice.334.1 = bf16[64,3072]{1,0} slice(bf16[64,6144]{1,0} %param_0.694), slice={[0:64], [0:3072]}, metadata={op_type="xla__select" op_name="xla__select" source_file="/usr/local/lib/python3.10/site-packages/torch/_ops.py" source_line=756}
  %convert.1211.6 = f32[64,3072]{1,0} convert(bf16[64,3072]{1,0} %slice.334.1)
  %constant_1_18 = bf16[] constant(1), metadata={op_type="xla__select" op_name="xla__select" source_file="/usr/local/lib/python3.10/site-packages/torch/_ops.py" source_line=756}
  %convert.1439.16 = f32[] convert(bf16[] %constant_1_18)
  %broadcast.597.156 = f32[64,3072]{1,0} broadcast(f32[] %convert.1439.16), dimensions={}, metadata={op_type="xla__select" op_name="xla__select" source_file="/usr/local/lib/python3.10/site-packages/torch/_ops.py" source_line=756}
  %negate.76.7 = f32[64,3072]{1,0} negate(f32[64,3072]{1,0} %convert.1211.6)
  %convert.1217.5 = bf16[64,3072]{1,0} convert(f32[64,3072]{1,0} %negate.76.7)
  %exponential.76.3 = bf16[64,3072]{1,0} exponential(bf16[64,3072]{1,0} %convert.1217.5)
  %convert.1218.1 = f32[64,3072]{1,0} convert(bf16[64,3072]{1,0} %exponential.76.3)
  %add.328.5 = f32[64,3072]{1,0} add(f32[64,3072]{1,0} %broadcast.597.156, f32[64,3072]{1,0} %convert.1218.1)
  %divide.76.3 = f32[64,3072]{1,0} divide(f32[64,3072]{1,0} %broadcast.597.156, f32[64,3072]{1,0} %add.328.5), metadata={op_type="aten__silu" op_name="aten__silu" source_file="/usr/local/lib/python3.10/site-packages/torch/_ops.py" source_line=756}
  %multiply.549.3 = f32[64,3072]{1,0} multiply(f32[64,3072]{1,0} %convert.1211.6, f32[64,3072]{1,0} %divide.76.3), metadata={op_type="aten__silu" op_name="aten__silu" source_file="/usr/local/lib/python3.10/site-packages/torch/_ops.py" source_line=756}
  %slice.335.1 = bf16[64,3072]{1,0} slice(bf16[64,6144]{1,0} %param_0.694), slice={[0:64], [3072:6144]}, metadata={op_type="xla__select" op_name="xla__select" source_file="/usr/local/lib/python3.10/site-packages/torch/_ops.py" source_line=756}
  %convert.1219.1 = f32[64,3072]{1,0} convert(bf16[64,3072]{1,0} %slice.335.1), metadata={op_type="xla__cast" op_name="xla__cast" source_file="/usr/local/lib/python3.10/site-packages/torch/_ops.py" source_line=756}
  %multiply.551.1 = f32[64,3072]{1,0} multiply(f32[64,3072]{1,0} %multiply.549.3, f32[64,3072]{1,0} %convert.1219.1), metadata={op_type="aten__mul" op_name="aten__mul.1157/aten__mul" source_file="/usr/local/lib/python3.10/site-packages/torch/_ops.py" source_line=756}
  ROOT %convert.1220.1 = bf16[64,3072]{1,0} convert(f32[64,3072]{1,0} %multiply.551.1), metadata={op_type="xla__cast" op_name="xla__cast" source_file="/usr/local/lib/python3.10/site-packages/torch/_ops.py" source_line=756}
}

%fused_add.1 (param_0.827: bf16[64,23552], param_1.704: bf16[64,1024], param_2.510: bf16[64,1024], param_3.486: f32[64,1024], param_4.276: bf16[64,1024], param_5.86: bf16[64,1024]) -> f32[64,1024] {
  %param_0.827 = bf16[64,23552]{1,0} parameter(0)
  %convert.1104.41 = f32[64,23552]{1,0} convert(bf16[64,23552]{1,0} %param_0.827), metadata={op_type="xla__cast" op_name="xla__cast" source_file="/usr/local/lib/python3.10/site-packages/torch/_ops.py" source_line=756}
  %slice.311.3 = f32[64,1024]{1,0} slice(f32[64,23552]{1,0} %convert.1104.41), slice={[0:64], [14336:15360]}, metadata={op_type="aten__mm" op_name="aten__mm" source_file="/usr/local/lib/python3.10/site-packages/torch/_ops.py" source_line=756}
  %param_1.704 = bf16[64,1024]{1,0} parameter(1)
  %convert.1221.1 = f32[64,1024]{1,0} convert(bf16[64,1024]{1,0} %param_1.704), metadata={op_type="xla__cast" op_name="xla__cast" source_file="/usr/local/lib/python3.10/site-packages/torch/_ops.py" source_line=756}
  %slice.312.7 = f32[64,1024]{1,0} slice(f32[64,23552]{1,0} %convert.1104.41), slice={[0:64], [15360:16384]}, metadata={op_type="aten__mm" op_name="aten__mm" source_file="/usr/local/lib/python3.10/site-packages/torch/_ops.py" source_line=756}
  %param_2.510 = bf16[64,1024]{1,0} parameter(2)
  %convert.1205.5 = f32[64,1024]{1,0} convert(bf16[64,1024]{1,0} %param_2.510), metadata={op_type="xla__cast" op_name="xla__cast" source_file="/usr/local/lib/python3.10/site-packages/torch/_ops.py" source_line=756}
  %slice.313.7 = f32[64,1024]{1,0} slice(f32[64,23552]{1,0} %convert.1104.41), slice={[0:64], [16384:17408]}, metadata={op_type="aten__mm" op_name="aten__mm" source_file="/usr/local/lib/python3.10/site-packages/torch/_ops.py" source_line=756}
  %param_5.86 = bf16[64,1024]{1,0} parameter(5)
  %convert.1190.5 = f32[64,1024]{1,0} convert(bf16[64,1024]{1,0} %param_5.86), metadata={op_type="xla__cast" op_name="xla__cast" source_file="/usr/local/lib/python3.10/site-packages/torch/_ops.py" source_line=756}
  %slice.314.11 = f32[64,1024]{1,0} slice(f32[64,23552]{1,0} %convert.1104.41), slice={[0:64], [17408:18432]}, metadata={op_type="aten__mm" op_name="aten__mm" source_file="/usr/local/lib/python3.10/site-packages/torch/_ops.py" source_line=756}
  %param_4.276 = bf16[64,1024]{1,0} parameter(4)
  %convert.1177.9 = f32[64,1024]{1,0} convert(bf16[64,1024]{1,0} %param_4.276), metadata={op_type="xla__cast" op_name="xla__cast" source_file="/usr/local/lib/python3.10/site-packages/torch/_ops.py" source_line=756}
  %param_3.486 = f32[64,1024]{1,0} parameter(3)
  %add.319.9 = f32[64,1024]{1,0} add(f32[64,1024]{1,0} %convert.1177.9, f32[64,1024]{1,0} %param_3.486), metadata={op_type="aten__add" op_name="aten__add.1104/aten__add" source_file="/usr/local/lib/python3.10/site-packages/torch/_ops.py" source_line=756}
  %add.320.9 = f32[64,1024]{1,0} add(f32[64,1024]{1,0} %slice.314.11, f32[64,1024]{1,0} %add.319.9), metadata={op_type="aten__add" op_name="aten__add.1117/aten__add" source_file="/usr/local/lib/python3.10/site-packages/torch/_ops.py" source_line=756}
  %add.322.5 = f32[64,1024]{1,0} add(f32[64,1024]{1,0} %convert.1190.5, f32[64,1024]{1,0} %add.320.9), metadata={op_type="aten__add" op_name="aten__add.1122/aten__add" source_file="/usr/local/lib/python3.10/site-packages/torch/_ops.py" source_line=756}
  %add.323.5 = f32[64,1024]{1,0} add(f32[64,1024]{1,0} %slice.313.7, f32[64,1024]{1,0} %add.322.5), metadata={op_type="aten__add" op_name="aten__add.1135/aten__add" source_file="/usr/local/lib/python3.10/site-packages/torch/_ops.py" source_line=756}
  %add.325.5 = f32[64,1024]{1,0} add(f32[64,1024]{1,0} %convert.1205.5, f32[64,1024]{1,0} %add.323.5), metadata={op_type="aten__add" op_name="aten__add.1140/aten__add" source_file="/usr/local/lib/python3.10/site-packages/torch/_ops.py" source_line=756}
  %add.327.5 = f32[64,1024]{1,0} add(f32[64,1024]{1,0} %slice.312.7, f32[64,1024]{1,0} %add.325.5), metadata={op_type="aten__add" op_name="aten__add.1153/aten__add" source_file="/usr/local/lib/python3.10/site-packages/torch/_ops.py" source_line=756}
  %add.329.1 = f32[64,1024]{1,0} add(f32[64,1024]{1,0} %convert.1221.1, f32[64,1024]{1,0} %add.327.5), metadata={op_type="aten__add" op_name="aten__add.1158/aten__add" source_file="/usr/local/lib/python3.10/site-packages/torch/_ops.py" source_line=756}
  ROOT %add.330.1 = f32[64,1024]{1,0} add(f32[64,1024]{1,0} %slice.311.3, f32[64,1024]{1,0} %add.329.1), metadata={op_type="aten__add" op_name="aten__add.1171/aten__add" source_file="/usr/local/lib/python3.10/site-packages/torch/_ops.py" source_line=756}
}

%fused_computation.232 (param_0.952: f32[64,1024], param_1.747: f32[], param_2.468: bf16[1024]) -> bf16[64,1024] {
  %param_0.952 = f32[64,1024]{1,0} parameter(0)
  %multiply.668 = f32[64,1024]{1,0} multiply(f32[64,1024]{1,0} %param_0.952, f32[64,1024]{1,0} %param_0.952), metadata={op_type="aten__pow" op_name="aten__pow" source_file="/usr/local/lib/python3.10/site-packages/torch/_ops.py" source_line=756}
  %constant_588 = f32[] constant(0), metadata={op_type="aten__mean" op_name="aten__mean" source_file="/usr/local/lib/python3.10/site-packages/torch/_ops.py" source_line=756}
  %reduce.67 = f32[64]{0} reduce(f32[64,1024]{1,0} %multiply.668, f32[] %constant_588), dimensions={1}, to_apply=%AddComputation.92, metadata={op_type="aten__mean" op_name="aten__mean" source_file="/usr/local/lib/python3.10/site-packages/torch/_ops.py" source_line=756}
  %constant_587 = f32[] constant(0.0009765625), metadata={op_type="aten__mean" op_name="aten__mean" source_file="/usr/local/lib/python3.10/site-packages/torch/_ops.py" source_line=756}
  %broadcast.762 = f32[64]{0} broadcast(f32[] %constant_587), dimensions={}, metadata={op_type="aten__mean" op_name="aten__mean" source_file="/usr/local/lib/python3.10/site-packages/torch/_ops.py" source_line=756}
  %multiply.667 = f32[64]{0} multiply(f32[64]{0} %reduce.67, f32[64]{0} %broadcast.762), metadata={op_type="aten__mean" op_name="aten__mean" source_file="/usr/local/lib/python3.10/site-packages/torch/_ops.py" source_line=756}
  %param_1.747 = f32[] parameter(1)
  %broadcast.760 = f32[64]{0} broadcast(f32[] %param_1.747), dimensions={}, metadata={op_type="aten__add" op_name="aten__add.1028/aten__add" source_file="/usr/local/lib/python3.10/site-packages/torch/_ops.py" source_line=756}
  %add.396 = f32[64]{0} add(f32[64]{0} %multiply.667, f32[64]{0} %broadcast.760), metadata={op_type="aten__add" op_name="aten__add.1172/aten__add" source_file="/usr/local/lib/python3.10/site-packages/torch/_ops.py" source_line=756}
  %rsqrt.143 = f32[64]{0} rsqrt(f32[64]{0} %add.396), metadata={op_type="aten__rsqrt" op_name="aten__rsqrt" source_file="/usr/local/lib/python3.10/site-packages/torch/_ops.py" source_line=756}
  %broadcast.759 = f32[64,1024]{1,0} broadcast(f32[64]{0} %rsqrt.143), dimensions={0}, metadata={op_type="aten__mul" op_name="aten__mul.1173/aten__mul" source_file="/usr/local/lib/python3.10/site-packages/torch/_ops.py" source_line=756}
  %multiply.666 = f32[64,1024]{1,0} multiply(f32[64,1024]{1,0} %param_0.952, f32[64,1024]{1,0} %broadcast.759), metadata={op_type="aten__mul" op_name="aten__mul.1173/aten__mul" source_file="/usr/local/lib/python3.10/site-packages/torch/_ops.py" source_line=756}
  %param_2.468 = bf16[1024]{0} parameter(2)
  %convert.1222.1 = f32[1024]{0} convert(bf16[1024]{0} %param_2.468), metadata={op_type="xla__cast" op_name="xla__cast" source_file="/usr/local/lib/python3.10/site-packages/torch/_ops.py" source_line=756}
  %broadcast.539.1 = f32[64,1024]{1,0} broadcast(f32[1024]{0} %convert.1222.1), dimensions={1}, metadata={op_type="aten__mul" op_name="aten__mul.1174/aten__mul" source_file="/usr/local/lib/python3.10/site-packages/torch/_ops.py" source_line=756}
  %multiply.552.1 = f32[64,1024]{1,0} multiply(f32[64,1024]{1,0} %multiply.666, f32[64,1024]{1,0} %broadcast.539.1), metadata={op_type="aten__mul" op_name="aten__mul.1174/aten__mul" source_file="/usr/local/lib/python3.10/site-packages/torch/_ops.py" source_line=756}
  ROOT %convert.1223.1 = bf16[64,1024]{1,0} convert(f32[64,1024]{1,0} %multiply.552.1), metadata={op_type="xla__cast" op_name="xla__cast" source_file="/usr/local/lib/python3.10/site-packages/torch/_ops.py" source_line=756}
}

%fused_convert.14 (param_0.696: bf16[64,6144]) -> bf16[64,3072] {
  %param_0.696 = bf16[64,6144]{1,0} parameter(0)
  %slice.336.1 = bf16[64,3072]{1,0} slice(bf16[64,6144]{1,0} %param_0.696), slice={[0:64], [0:3072]}, metadata={op_type="xla__select" op_name="xla__select" source_file="/usr/local/lib/python3.10/site-packages/torch/_ops.py" source_line=756}
  %convert.1224.6 = f32[64,3072]{1,0} convert(bf16[64,3072]{1,0} %slice.336.1)
  %constant_1_20 = bf16[] constant(1), metadata={op_type="xla__select" op_name="xla__select" source_file="/usr/local/lib/python3.10/site-packages/torch/_ops.py" source_line=756}
  %convert.1439.18 = f32[] convert(bf16[] %constant_1_20)
  %broadcast.597.152 = f32[64,3072]{1,0} broadcast(f32[] %convert.1439.18), dimensions={}, metadata={op_type="xla__select" op_name="xla__select" source_file="/usr/local/lib/python3.10/site-packages/torch/_ops.py" source_line=756}
  %negate.77.7 = f32[64,3072]{1,0} negate(f32[64,3072]{1,0} %convert.1224.6)
  %convert.1229.5 = bf16[64,3072]{1,0} convert(f32[64,3072]{1,0} %negate.77.7)
  %exponential.77.3 = bf16[64,3072]{1,0} exponential(bf16[64,3072]{1,0} %convert.1229.5)
  %convert.1232.1 = f32[64,3072]{1,0} convert(bf16[64,3072]{1,0} %exponential.77.3)
  %add.331.5 = f32[64,3072]{1,0} add(f32[64,3072]{1,0} %broadcast.597.152, f32[64,3072]{1,0} %convert.1232.1)
  %divide.77.3 = f32[64,3072]{1,0} divide(f32[64,3072]{1,0} %broadcast.597.152, f32[64,3072]{1,0} %add.331.5), metadata={op_type="aten__silu" op_name="aten__silu" source_file="/usr/local/lib/python3.10/site-packages/torch/_ops.py" source_line=756}
  %multiply.553.3 = f32[64,3072]{1,0} multiply(f32[64,3072]{1,0} %convert.1224.6, f32[64,3072]{1,0} %divide.77.3), metadata={op_type="aten__silu" op_name="aten__silu" source_file="/usr/local/lib/python3.10/site-packages/torch/_ops.py" source_line=756}
  %slice.338.1 = bf16[64,3072]{1,0} slice(bf16[64,6144]{1,0} %param_0.696), slice={[0:64], [3072:6144]}, metadata={op_type="xla__select" op_name="xla__select" source_file="/usr/local/lib/python3.10/site-packages/torch/_ops.py" source_line=756}
  %convert.1233.1 = f32[64,3072]{1,0} convert(bf16[64,3072]{1,0} %slice.338.1), metadata={op_type="xla__cast" op_name="xla__cast" source_file="/usr/local/lib/python3.10/site-packages/torch/_ops.py" source_line=756}
  %multiply.554.1 = f32[64,3072]{1,0} multiply(f32[64,3072]{1,0} %multiply.553.3, f32[64,3072]{1,0} %convert.1233.1), metadata={op_type="aten__mul" op_name="aten__mul.1175/aten__mul" source_file="/usr/local/lib/python3.10/site-packages/torch/_ops.py" source_line=756}
  ROOT %convert.1234.1 = bf16[64,3072]{1,0} convert(f32[64,3072]{1,0} %multiply.554.1), metadata={op_type="xla__cast" op_name="xla__cast" source_file="/usr/local/lib/python3.10/site-packages/torch/_ops.py" source_line=756}
}

%fused_computation.231 (param_0.951: f32[], param_1.746: f32[64,1024], param_2.467: bf16[64,1024], param_3.428: bf16[64,23552], param_4.222: bf16[1024]) -> bf16[64,1024] {
  %param_3.428 = bf16[64,23552]{1,0} parameter(3)
  %convert.1104.101 = f32[64,23552]{1,0} convert(bf16[64,23552]{1,0} %param_3.428), metadata={op_type="xla__cast" op_name="xla__cast" source_file="/usr/local/lib/python3.10/site-packages/torch/_ops.py" source_line=756}
  %slice.310.5 = f32[64,1024]{1,0} slice(f32[64,23552]{1,0} %convert.1104.101), slice={[0:64], [13312:14336]}, metadata={op_type="aten__mm" op_name="aten__mm" source_file="/usr/local/lib/python3.10/site-packages/torch/_ops.py" source_line=756}
  %param_2.467 = bf16[64,1024]{1,0} parameter(2)
  %convert.1235.3 = f32[64,1024]{1,0} convert(bf16[64,1024]{1,0} %param_2.467), metadata={op_type="xla__cast" op_name="xla__cast" source_file="/usr/local/lib/python3.10/site-packages/torch/_ops.py" source_line=756}
  %param_1.746 = f32[64,1024]{1,0} parameter(1)
  %add.332.3 = f32[64,1024]{1,0} add(f32[64,1024]{1,0} %convert.1235.3, f32[64,1024]{1,0} %param_1.746), metadata={op_type="aten__add" op_name="aten__add.1176/aten__add" source_file="/usr/local/lib/python3.10/site-packages/torch/_ops.py" source_line=756}
  %add.333.3 = f32[64,1024]{1,0} add(f32[64,1024]{1,0} %slice.310.5, f32[64,1024]{1,0} %add.332.3), metadata={op_type="aten__add" op_name="aten__add.1189/aten__add" source_file="/usr/local/lib/python3.10/site-packages/torch/_ops.py" source_line=756}
  %multiply.674 = f32[64,1024]{1,0} multiply(f32[64,1024]{1,0} %add.333.3, f32[64,1024]{1,0} %add.333.3), metadata={op_type="aten__pow" op_name="aten__pow" source_file="/usr/local/lib/python3.10/site-packages/torch/_ops.py" source_line=756}
  %constant_597 = f32[] constant(0), metadata={op_type="aten__mean" op_name="aten__mean" source_file="/usr/local/lib/python3.10/site-packages/torch/_ops.py" source_line=756}
  %reduce.69 = f32[64]{0} reduce(f32[64,1024]{1,0} %multiply.674, f32[] %constant_597), dimensions={1}, to_apply=%AddComputation.92, metadata={op_type="aten__mean" op_name="aten__mean" source_file="/usr/local/lib/python3.10/site-packages/torch/_ops.py" source_line=756}
  %constant_596 = f32[] constant(0.0009765625), metadata={op_type="aten__mean" op_name="aten__mean" source_file="/usr/local/lib/python3.10/site-packages/torch/_ops.py" source_line=756}
  %broadcast.769 = f32[64]{0} broadcast(f32[] %constant_596), dimensions={}, metadata={op_type="aten__mean" op_name="aten__mean" source_file="/usr/local/lib/python3.10/site-packages/torch/_ops.py" source_line=756}
  %multiply.673 = f32[64]{0} multiply(f32[64]{0} %reduce.69, f32[64]{0} %broadcast.769), metadata={op_type="aten__mean" op_name="aten__mean" source_file="/usr/local/lib/python3.10/site-packages/torch/_ops.py" source_line=756}
  %param_0.951 = f32[] parameter(0)
  %broadcast.768 = f32[64]{0} broadcast(f32[] %param_0.951), dimensions={}, metadata={op_type="aten__add" op_name="aten__add.1028/aten__add" source_file="/usr/local/lib/python3.10/site-packages/torch/_ops.py" source_line=756}
  %add.399 = f32[64]{0} add(f32[64]{0} %multiply.673, f32[64]{0} %broadcast.768), metadata={op_type="aten__add" op_name="aten__add.1190/aten__add" source_file="/usr/local/lib/python3.10/site-packages/torch/_ops.py" source_line=756}
  %rsqrt.145 = f32[64]{0} rsqrt(f32[64]{0} %add.399), metadata={op_type="aten__rsqrt" op_name="aten__rsqrt" source_file="/usr/local/lib/python3.10/site-packages/torch/_ops.py" source_line=756}
  %broadcast.767 = f32[64,1024]{1,0} broadcast(f32[64]{0} %rsqrt.145), dimensions={0}, metadata={op_type="aten__mul" op_name="aten__mul.1191/aten__mul" source_file="/usr/local/lib/python3.10/site-packages/torch/_ops.py" source_line=756}
  %multiply.672 = f32[64,1024]{1,0} multiply(f32[64,1024]{1,0} %add.333.3, f32[64,1024]{1,0} %broadcast.767), metadata={op_type="aten__mul" op_name="aten__mul.1191/aten__mul" source_file="/usr/local/lib/python3.10/site-packages/torch/_ops.py" source_line=756}
  %param_4.222 = bf16[1024]{0} parameter(4)
  %convert.1236.1 = f32[1024]{0} convert(bf16[1024]{0} %param_4.222), metadata={op_type="xla__cast" op_name="xla__cast" source_file="/usr/local/lib/python3.10/site-packages/torch/_ops.py" source_line=756}
  %broadcast.543.1 = f32[64,1024]{1,0} broadcast(f32[1024]{0} %convert.1236.1), dimensions={1}, metadata={op_type="aten__mul" op_name="aten__mul.1192/aten__mul" source_file="/usr/local/lib/python3.10/site-packages/torch/_ops.py" source_line=756}
  %multiply.555.1 = f32[64,1024]{1,0} multiply(f32[64,1024]{1,0} %multiply.672, f32[64,1024]{1,0} %broadcast.543.1), metadata={op_type="aten__mul" op_name="aten__mul.1192/aten__mul" source_file="/usr/local/lib/python3.10/site-packages/torch/_ops.py" source_line=756}
  ROOT %convert.1238.1 = bf16[64,1024]{1,0} convert(f32[64,1024]{1,0} %multiply.555.1), metadata={op_type="xla__cast" op_name="xla__cast" source_file="/usr/local/lib/python3.10/site-packages/torch/_ops.py" source_line=756}
}

%fused_convert.13 (param_0.698: bf16[64,6144]) -> bf16[64,3072] {
  %param_0.698 = bf16[64,6144]{1,0} parameter(0)
  %slice.340.1 = bf16[64,3072]{1,0} slice(bf16[64,6144]{1,0} %param_0.698), slice={[0:64], [0:3072]}, metadata={op_type="xla__select" op_name="xla__select" source_file="/usr/local/lib/python3.10/site-packages/torch/_ops.py" source_line=756}
  %convert.1239.6 = f32[64,3072]{1,0} convert(bf16[64,3072]{1,0} %slice.340.1)
  %constant_1_22 = bf16[] constant(1), metadata={op_type="xla__select" op_name="xla__select" source_file="/usr/local/lib/python3.10/site-packages/torch/_ops.py" source_line=756}
  %convert.1439.20 = f32[] convert(bf16[] %constant_1_22)
  %broadcast.597.148 = f32[64,3072]{1,0} broadcast(f32[] %convert.1439.20), dimensions={}, metadata={op_type="xla__select" op_name="xla__select" source_file="/usr/local/lib/python3.10/site-packages/torch/_ops.py" source_line=756}
  %negate.78.7 = f32[64,3072]{1,0} negate(f32[64,3072]{1,0} %convert.1239.6)
  %convert.1243.5 = bf16[64,3072]{1,0} convert(f32[64,3072]{1,0} %negate.78.7)
  %exponential.78.3 = bf16[64,3072]{1,0} exponential(bf16[64,3072]{1,0} %convert.1243.5)
  %convert.1244.1 = f32[64,3072]{1,0} convert(bf16[64,3072]{1,0} %exponential.78.3)
  %add.334.5 = f32[64,3072]{1,0} add(f32[64,3072]{1,0} %broadcast.597.148, f32[64,3072]{1,0} %convert.1244.1)
  %divide.78.3 = f32[64,3072]{1,0} divide(f32[64,3072]{1,0} %broadcast.597.148, f32[64,3072]{1,0} %add.334.5), metadata={op_type="aten__silu" op_name="aten__silu" source_file="/usr/local/lib/python3.10/site-packages/torch/_ops.py" source_line=756}
  %multiply.556.3 = f32[64,3072]{1,0} multiply(f32[64,3072]{1,0} %convert.1239.6, f32[64,3072]{1,0} %divide.78.3), metadata={op_type="aten__silu" op_name="aten__silu" source_file="/usr/local/lib/python3.10/site-packages/torch/_ops.py" source_line=756}
  %slice.341.1 = bf16[64,3072]{1,0} slice(bf16[64,6144]{1,0} %param_0.698), slice={[0:64], [3072:6144]}, metadata={op_type="xla__select" op_name="xla__select" source_file="/usr/local/lib/python3.10/site-packages/torch/_ops.py" source_line=756}
  %convert.1245.1 = f32[64,3072]{1,0} convert(bf16[64,3072]{1,0} %slice.341.1), metadata={op_type="xla__cast" op_name="xla__cast" source_file="/usr/local/lib/python3.10/site-packages/torch/_ops.py" source_line=756}
  %multiply.558.1 = f32[64,3072]{1,0} multiply(f32[64,3072]{1,0} %multiply.556.3, f32[64,3072]{1,0} %convert.1245.1), metadata={op_type="aten__mul" op_name="aten__mul.1193/aten__mul" source_file="/usr/local/lib/python3.10/site-packages/torch/_ops.py" source_line=756}
  ROOT %convert.1246.1 = bf16[64,3072]{1,0} convert(f32[64,3072]{1,0} %multiply.558.1), metadata={op_type="xla__cast" op_name="xla__cast" source_file="/usr/local/lib/python3.10/site-packages/torch/_ops.py" source_line=756}
}

%fused_computation.230 (param_0.984: f32[], param_1.774: bf16[1024], param_2.501: f32[64,1024], param_3.473: bf16[64,1024], param_4.261: bf16[64,23552], param_5.66: bf16[64,1024]) -> bf16[64,1024] {
  %param_4.261 = bf16[64,23552]{1,0} parameter(4)
  %convert.1104.159 = f32[64,23552]{1,0} convert(bf16[64,23552]{1,0} %param_4.261), metadata={op_type="xla__cast" op_name="xla__cast" source_file="/usr/local/lib/python3.10/site-packages/torch/_ops.py" source_line=756}
  %slice.309.5 = f32[64,1024]{1,0} slice(f32[64,23552]{1,0} %convert.1104.159), slice={[0:64], [12288:13312]}, metadata={op_type="aten__mm" op_name="aten__mm" source_file="/usr/local/lib/python3.10/site-packages/torch/_ops.py" source_line=756}
  %param_5.66 = bf16[64,1024]{1,0} parameter(5)
  %convert.1247.3 = f32[64,1024]{1,0} convert(bf16[64,1024]{1,0} %param_5.66), metadata={op_type="xla__cast" op_name="xla__cast" source_file="/usr/local/lib/python3.10/site-packages/torch/_ops.py" source_line=756}
  %slice.310.9 = f32[64,1024]{1,0} slice(f32[64,23552]{1,0} %convert.1104.159), slice={[0:64], [13312:14336]}, metadata={op_type="aten__mm" op_name="aten__mm" source_file="/usr/local/lib/python3.10/site-packages/torch/_ops.py" source_line=756}
  %param_3.473 = bf16[64,1024]{1,0} parameter(3)
  %convert.1235.7 = f32[64,1024]{1,0} convert(bf16[64,1024]{1,0} %param_3.473), metadata={op_type="xla__cast" op_name="xla__cast" source_file="/usr/local/lib/python3.10/site-packages/torch/_ops.py" source_line=756}
  %param_2.501 = f32[64,1024]{1,0} parameter(2)
  %add.332.7 = f32[64,1024]{1,0} add(f32[64,1024]{1,0} %convert.1235.7, f32[64,1024]{1,0} %param_2.501), metadata={op_type="aten__add" op_name="aten__add.1176/aten__add" source_file="/usr/local/lib/python3.10/site-packages/torch/_ops.py" source_line=756}
  %add.333.7 = f32[64,1024]{1,0} add(f32[64,1024]{1,0} %slice.310.9, f32[64,1024]{1,0} %add.332.7), metadata={op_type="aten__add" op_name="aten__add.1189/aten__add" source_file="/usr/local/lib/python3.10/site-packages/torch/_ops.py" source_line=756}
  %add.335.3 = f32[64,1024]{1,0} add(f32[64,1024]{1,0} %convert.1247.3, f32[64,1024]{1,0} %add.333.7), metadata={op_type="aten__add" op_name="aten__add.1194/aten__add" source_file="/usr/local/lib/python3.10/site-packages/torch/_ops.py" source_line=756}
  %add.336.3 = f32[64,1024]{1,0} add(f32[64,1024]{1,0} %slice.309.5, f32[64,1024]{1,0} %add.335.3), metadata={op_type="aten__add" op_name="aten__add.1207/aten__add" source_file="/usr/local/lib/python3.10/site-packages/torch/_ops.py" source_line=756}
  %multiply.680 = f32[64,1024]{1,0} multiply(f32[64,1024]{1,0} %add.336.3, f32[64,1024]{1,0} %add.336.3), metadata={op_type="aten__pow" op_name="aten__pow" source_file="/usr/local/lib/python3.10/site-packages/torch/_ops.py" source_line=756}
  %constant_605 = f32[] constant(0), metadata={op_type="aten__mean" op_name="aten__mean" source_file="/usr/local/lib/python3.10/site-packages/torch/_ops.py" source_line=756}
  %reduce.71 = f32[64]{0} reduce(f32[64,1024]{1,0} %multiply.680, f32[] %constant_605), dimensions={1}, to_apply=%AddComputation.92, metadata={op_type="aten__mean" op_name="aten__mean" source_file="/usr/local/lib/python3.10/site-packages/torch/_ops.py" source_line=756}
  %constant_604 = f32[] constant(0.0009765625), metadata={op_type="aten__mean" op_name="aten__mean" source_file="/usr/local/lib/python3.10/site-packages/torch/_ops.py" source_line=756}
  %broadcast.775 = f32[64]{0} broadcast(f32[] %constant_604), dimensions={}, metadata={op_type="aten__mean" op_name="aten__mean" source_file="/usr/local/lib/python3.10/site-packages/torch/_ops.py" source_line=756}
  %multiply.679 = f32[64]{0} multiply(f32[64]{0} %reduce.71, f32[64]{0} %broadcast.775), metadata={op_type="aten__mean" op_name="aten__mean" source_file="/usr/local/lib/python3.10/site-packages/torch/_ops.py" source_line=756}
  %param_0.984 = f32[] parameter(0)
  %broadcast.774 = f32[64]{0} broadcast(f32[] %param_0.984), dimensions={}, metadata={op_type="aten__add" op_name="aten__add.1028/aten__add" source_file="/usr/local/lib/python3.10/site-packages/torch/_ops.py" source_line=756}
  %add.401 = f32[64]{0} add(f32[64]{0} %multiply.679, f32[64]{0} %broadcast.774), metadata={op_type="aten__add" op_name="aten__add.1208/aten__add" source_file="/usr/local/lib/python3.10/site-packages/torch/_ops.py" source_line=756}
  %rsqrt.147 = f32[64]{0} rsqrt(f32[64]{0} %add.401), metadata={op_type="aten__rsqrt" op_name="aten__rsqrt" source_file="/usr/local/lib/python3.10/site-packages/torch/_ops.py" source_line=756}
  %broadcast.773 = f32[64,1024]{1,0} broadcast(f32[64]{0} %rsqrt.147), dimensions={0}, metadata={op_type="aten__mul" op_name="aten__mul.1209/aten__mul" source_file="/usr/local/lib/python3.10/site-packages/torch/_ops.py" source_line=756}
  %multiply.678 = f32[64,1024]{1,0} multiply(f32[64,1024]{1,0} %add.336.3, f32[64,1024]{1,0} %broadcast.773), metadata={op_type="aten__mul" op_name="aten__mul.1209/aten__mul" source_file="/usr/local/lib/python3.10/site-packages/torch/_ops.py" source_line=756}
  %param_1.774 = bf16[1024]{0} parameter(1)
  %convert.1248.1 = f32[1024]{0} convert(bf16[1024]{0} %param_1.774), metadata={op_type="xla__cast" op_name="xla__cast" source_file="/usr/local/lib/python3.10/site-packages/torch/_ops.py" source_line=756}
  %broadcast.547.1 = f32[64,1024]{1,0} broadcast(f32[1024]{0} %convert.1248.1), dimensions={1}, metadata={op_type="aten__mul" op_name="aten__mul.1210/aten__mul" source_file="/usr/local/lib/python3.10/site-packages/torch/_ops.py" source_line=756}
  %multiply.560.1 = f32[64,1024]{1,0} multiply(f32[64,1024]{1,0} %multiply.678, f32[64,1024]{1,0} %broadcast.547.1), metadata={op_type="aten__mul" op_name="aten__mul.1210/aten__mul" source_file="/usr/local/lib/python3.10/site-packages/torch/_ops.py" source_line=756}
  ROOT %convert.1249.1 = bf16[64,1024]{1,0} convert(f32[64,1024]{1,0} %multiply.560.1), metadata={op_type="xla__cast" op_name="xla__cast" source_file="/usr/local/lib/python3.10/site-packages/torch/_ops.py" source_line=756}
}

%fused_convert.12 (param_0.700: bf16[64,6144]) -> bf16[64,3072] {
  %param_0.700 = bf16[64,6144]{1,0} parameter(0)
  %slice.342.1 = bf16[64,3072]{1,0} slice(bf16[64,6144]{1,0} %param_0.700), slice={[0:64], [0:3072]}, metadata={op_type="xla__select" op_name="xla__select" source_file="/usr/local/lib/python3.10/site-packages/torch/_ops.py" source_line=756}
  %convert.1250.6 = f32[64,3072]{1,0} convert(bf16[64,3072]{1,0} %slice.342.1)
  %constant_1_24 = bf16[] constant(1), metadata={op_type="xla__select" op_name="xla__select" source_file="/usr/local/lib/python3.10/site-packages/torch/_ops.py" source_line=756}
  %convert.1439.22 = f32[] convert(bf16[] %constant_1_24)
  %broadcast.597.144 = f32[64,3072]{1,0} broadcast(f32[] %convert.1439.22), dimensions={}, metadata={op_type="xla__select" op_name="xla__select" source_file="/usr/local/lib/python3.10/site-packages/torch/_ops.py" source_line=756}
  %negate.79.7 = f32[64,3072]{1,0} negate(f32[64,3072]{1,0} %convert.1250.6)
  %convert.1255.5 = bf16[64,3072]{1,0} convert(f32[64,3072]{1,0} %negate.79.7)
  %exponential.79.3 = bf16[64,3072]{1,0} exponential(bf16[64,3072]{1,0} %convert.1255.5)
  %convert.1256.1 = f32[64,3072]{1,0} convert(bf16[64,3072]{1,0} %exponential.79.3)
  %add.337.5 = f32[64,3072]{1,0} add(f32[64,3072]{1,0} %broadcast.597.144, f32[64,3072]{1,0} %convert.1256.1)
  %divide.79.3 = f32[64,3072]{1,0} divide(f32[64,3072]{1,0} %broadcast.597.144, f32[64,3072]{1,0} %add.337.5), metadata={op_type="aten__silu" op_name="aten__silu" source_file="/usr/local/lib/python3.10/site-packages/torch/_ops.py" source_line=756}
  %multiply.561.3 = f32[64,3072]{1,0} multiply(f32[64,3072]{1,0} %convert.1250.6, f32[64,3072]{1,0} %divide.79.3), metadata={op_type="aten__silu" op_name="aten__silu" source_file="/usr/local/lib/python3.10/site-packages/torch/_ops.py" source_line=756}
  %slice.343.1 = bf16[64,3072]{1,0} slice(bf16[64,6144]{1,0} %param_0.700), slice={[0:64], [3072:6144]}, metadata={op_type="xla__select" op_name="xla__select" source_file="/usr/local/lib/python3.10/site-packages/torch/_ops.py" source_line=756}
  %convert.1257.1 = f32[64,3072]{1,0} convert(bf16[64,3072]{1,0} %slice.343.1), metadata={op_type="xla__cast" op_name="xla__cast" source_file="/usr/local/lib/python3.10/site-packages/torch/_ops.py" source_line=756}
  %multiply.562.1 = f32[64,3072]{1,0} multiply(f32[64,3072]{1,0} %multiply.561.3, f32[64,3072]{1,0} %convert.1257.1), metadata={op_type="aten__mul" op_name="aten__mul.1211/aten__mul" source_file="/usr/local/lib/python3.10/site-packages/torch/_ops.py" source_line=756}
  ROOT %convert.1258.1 = bf16[64,3072]{1,0} convert(f32[64,3072]{1,0} %multiply.562.1), metadata={op_type="xla__cast" op_name="xla__cast" source_file="/usr/local/lib/python3.10/site-packages/torch/_ops.py" source_line=756}
}

%fused_computation.229 (param_0.949: f32[], param_1.777: bf16[64,1024], param_2.505: bf16[64,23552], param_3.478: bf16[1024], param_4.267: f32[64,1024], param_5.75: bf16[64,1024], param_6.63: bf16[64,1024]) -> bf16[64,1024] {
  %param_2.505 = bf16[64,23552]{1,0} parameter(2)
  %convert.1104.97 = f32[64,23552]{1,0} convert(bf16[64,23552]{1,0} %param_2.505), metadata={op_type="xla__cast" op_name="xla__cast" source_file="/usr/local/lib/python3.10/site-packages/torch/_ops.py" source_line=756}
  %slice.308.5 = f32[64,1024]{1,0} slice(f32[64,23552]{1,0} %convert.1104.97), slice={[0:64], [11264:12288]}, metadata={op_type="aten__mm" op_name="aten__mm" source_file="/usr/local/lib/python3.10/site-packages/torch/_ops.py" source_line=756}
  %param_1.777 = bf16[64,1024]{1,0} parameter(1)
  %convert.1260.3 = f32[64,1024]{1,0} convert(bf16[64,1024]{1,0} %param_1.777), metadata={op_type="xla__cast" op_name="xla__cast" source_file="/usr/local/lib/python3.10/site-packages/torch/_ops.py" source_line=756}
  %slice.309.9 = f32[64,1024]{1,0} slice(f32[64,23552]{1,0} %convert.1104.97), slice={[0:64], [12288:13312]}, metadata={op_type="aten__mm" op_name="aten__mm" source_file="/usr/local/lib/python3.10/site-packages/torch/_ops.py" source_line=756}
  %param_6.63 = bf16[64,1024]{1,0} parameter(6)
  %convert.1247.7 = f32[64,1024]{1,0} convert(bf16[64,1024]{1,0} %param_6.63), metadata={op_type="xla__cast" op_name="xla__cast" source_file="/usr/local/lib/python3.10/site-packages/torch/_ops.py" source_line=756}
  %slice.310.13 = f32[64,1024]{1,0} slice(f32[64,23552]{1,0} %convert.1104.97), slice={[0:64], [13312:14336]}, metadata={op_type="aten__mm" op_name="aten__mm" source_file="/usr/local/lib/python3.10/site-packages/torch/_ops.py" source_line=756}
  %param_5.75 = bf16[64,1024]{1,0} parameter(5)
  %convert.1235.11 = f32[64,1024]{1,0} convert(bf16[64,1024]{1,0} %param_5.75), metadata={op_type="xla__cast" op_name="xla__cast" source_file="/usr/local/lib/python3.10/site-packages/torch/_ops.py" source_line=756}
  %param_4.267 = f32[64,1024]{1,0} parameter(4)
  %add.332.11 = f32[64,1024]{1,0} add(f32[64,1024]{1,0} %convert.1235.11, f32[64,1024]{1,0} %param_4.267), metadata={op_type="aten__add" op_name="aten__add.1176/aten__add" source_file="/usr/local/lib/python3.10/site-packages/torch/_ops.py" source_line=756}
  %add.333.11 = f32[64,1024]{1,0} add(f32[64,1024]{1,0} %slice.310.13, f32[64,1024]{1,0} %add.332.11), metadata={op_type="aten__add" op_name="aten__add.1189/aten__add" source_file="/usr/local/lib/python3.10/site-packages/torch/_ops.py" source_line=756}
  %add.335.7 = f32[64,1024]{1,0} add(f32[64,1024]{1,0} %convert.1247.7, f32[64,1024]{1,0} %add.333.11), metadata={op_type="aten__add" op_name="aten__add.1194/aten__add" source_file="/usr/local/lib/python3.10/site-packages/torch/_ops.py" source_line=756}
  %add.336.7 = f32[64,1024]{1,0} add(f32[64,1024]{1,0} %slice.309.9, f32[64,1024]{1,0} %add.335.7), metadata={op_type="aten__add" op_name="aten__add.1207/aten__add" source_file="/usr/local/lib/python3.10/site-packages/torch/_ops.py" source_line=756}
  %add.338.3 = f32[64,1024]{1,0} add(f32[64,1024]{1,0} %convert.1260.3, f32[64,1024]{1,0} %add.336.7), metadata={op_type="aten__add" op_name="aten__add.1212/aten__add" source_file="/usr/local/lib/python3.10/site-packages/torch/_ops.py" source_line=756}
  %add.339.3 = f32[64,1024]{1,0} add(f32[64,1024]{1,0} %slice.308.5, f32[64,1024]{1,0} %add.338.3), metadata={op_type="aten__add" op_name="aten__add.1225/aten__add" source_file="/usr/local/lib/python3.10/site-packages/torch/_ops.py" source_line=756}
  %multiply.688 = f32[64,1024]{1,0} multiply(f32[64,1024]{1,0} %add.339.3, f32[64,1024]{1,0} %add.339.3), metadata={op_type="aten__pow" op_name="aten__pow" source_file="/usr/local/lib/python3.10/site-packages/torch/_ops.py" source_line=756}
  %constant_610 = f32[] constant(0), metadata={op_type="aten__mean" op_name="aten__mean" source_file="/usr/local/lib/python3.10/site-packages/torch/_ops.py" source_line=756}
  %reduce.73 = f32[64]{0} reduce(f32[64,1024]{1,0} %multiply.688, f32[] %constant_610), dimensions={1}, to_apply=%AddComputation.92, metadata={op_type="aten__mean" op_name="aten__mean" source_file="/usr/local/lib/python3.10/site-packages/torch/_ops.py" source_line=756}
  %constant_609 = f32[] constant(0.0009765625), metadata={op_type="aten__mean" op_name="aten__mean" source_file="/usr/local/lib/python3.10/site-packages/torch/_ops.py" source_line=756}
  %broadcast.782 = f32[64]{0} broadcast(f32[] %constant_609), dimensions={}, metadata={op_type="aten__mean" op_name="aten__mean" source_file="/usr/local/lib/python3.10/site-packages/torch/_ops.py" source_line=756}
  %multiply.687 = f32[64]{0} multiply(f32[64]{0} %reduce.73, f32[64]{0} %broadcast.782), metadata={op_type="aten__mean" op_name="aten__mean" source_file="/usr/local/lib/python3.10/site-packages/torch/_ops.py" source_line=756}
  %param_0.949 = f32[] parameter(0)
  %broadcast.781 = f32[64]{0} broadcast(f32[] %param_0.949), dimensions={}, metadata={op_type="aten__add" op_name="aten__add.1028/aten__add" source_file="/usr/local/lib/python3.10/site-packages/torch/_ops.py" source_line=756}
  %add.403 = f32[64]{0} add(f32[64]{0} %multiply.687, f32[64]{0} %broadcast.781), metadata={op_type="aten__add" op_name="aten__add.1226/aten__add" source_file="/usr/local/lib/python3.10/site-packages/torch/_ops.py" source_line=756}
  %rsqrt.149 = f32[64]{0} rsqrt(f32[64]{0} %add.403), metadata={op_type="aten__rsqrt" op_name="aten__rsqrt" source_file="/usr/local/lib/python3.10/site-packages/torch/_ops.py" source_line=756}
  %broadcast.780 = f32[64,1024]{1,0} broadcast(f32[64]{0} %rsqrt.149), dimensions={0}, metadata={op_type="aten__mul" op_name="aten__mul.1227/aten__mul" source_file="/usr/local/lib/python3.10/site-packages/torch/_ops.py" source_line=756}
  %multiply.686 = f32[64,1024]{1,0} multiply(f32[64,1024]{1,0} %add.339.3, f32[64,1024]{1,0} %broadcast.780), metadata={op_type="aten__mul" op_name="aten__mul.1227/aten__mul" source_file="/usr/local/lib/python3.10/site-packages/torch/_ops.py" source_line=756}
  %param_3.478 = bf16[1024]{0} parameter(3)
  %convert.1261.1 = f32[1024]{0} convert(bf16[1024]{0} %param_3.478), metadata={op_type="xla__cast" op_name="xla__cast" source_file="/usr/local/lib/python3.10/site-packages/torch/_ops.py" source_line=756}
  %broadcast.551.1 = f32[64,1024]{1,0} broadcast(f32[1024]{0} %convert.1261.1), dimensions={1}, metadata={op_type="aten__mul" op_name="aten__mul.1228/aten__mul" source_file="/usr/local/lib/python3.10/site-packages/torch/_ops.py" source_line=756}
  %multiply.563.1 = f32[64,1024]{1,0} multiply(f32[64,1024]{1,0} %multiply.686, f32[64,1024]{1,0} %broadcast.551.1), metadata={op_type="aten__mul" op_name="aten__mul.1228/aten__mul" source_file="/usr/local/lib/python3.10/site-packages/torch/_ops.py" source_line=756}
  ROOT %convert.1262.1 = bf16[64,1024]{1,0} convert(f32[64,1024]{1,0} %multiply.563.1), metadata={op_type="xla__cast" op_name="xla__cast" source_file="/usr/local/lib/python3.10/site-packages/torch/_ops.py" source_line=756}
}

%fused_convert.11 (param_0.681: bf16[64,6144]) -> bf16[64,3072] {
  %param_0.681 = bf16[64,6144]{1,0} parameter(0)
  %slice.344.1 = bf16[64,3072]{1,0} slice(bf16[64,6144]{1,0} %param_0.681), slice={[0:64], [0:3072]}, metadata={op_type="xla__select" op_name="xla__select" source_file="/usr/local/lib/python3.10/site-packages/torch/_ops.py" source_line=756}
  %convert.1263.6 = f32[64,3072]{1,0} convert(bf16[64,3072]{1,0} %slice.344.1)
  %constant_1_5 = bf16[] constant(1), metadata={op_type="xla__select" op_name="xla__select" source_file="/usr/local/lib/python3.10/site-packages/torch/_ops.py" source_line=756}
  %convert.1439.3 = f32[] convert(bf16[] %constant_1_5)
  %broadcast.597.140 = f32[64,3072]{1,0} broadcast(f32[] %convert.1439.3), dimensions={}, metadata={op_type="xla__select" op_name="xla__select" source_file="/usr/local/lib/python3.10/site-packages/torch/_ops.py" source_line=756}
  %negate.80.7 = f32[64,3072]{1,0} negate(f32[64,3072]{1,0} %convert.1263.6)
  %convert.1269.5 = bf16[64,3072]{1,0} convert(f32[64,3072]{1,0} %negate.80.7)
  %exponential.80.3 = bf16[64,3072]{1,0} exponential(bf16[64,3072]{1,0} %convert.1269.5)
  %convert.1270.1 = f32[64,3072]{1,0} convert(bf16[64,3072]{1,0} %exponential.80.3)
  %add.340.5 = f32[64,3072]{1,0} add(f32[64,3072]{1,0} %broadcast.597.140, f32[64,3072]{1,0} %convert.1270.1)
  %divide.80.3 = f32[64,3072]{1,0} divide(f32[64,3072]{1,0} %broadcast.597.140, f32[64,3072]{1,0} %add.340.5), metadata={op_type="aten__silu" op_name="aten__silu" source_file="/usr/local/lib/python3.10/site-packages/torch/_ops.py" source_line=756}
  %multiply.565.3 = f32[64,3072]{1,0} multiply(f32[64,3072]{1,0} %convert.1263.6, f32[64,3072]{1,0} %divide.80.3), metadata={op_type="aten__silu" op_name="aten__silu" source_file="/usr/local/lib/python3.10/site-packages/torch/_ops.py" source_line=756}
  %slice.345.1 = bf16[64,3072]{1,0} slice(bf16[64,6144]{1,0} %param_0.681), slice={[0:64], [3072:6144]}, metadata={op_type="xla__select" op_name="xla__select" source_file="/usr/local/lib/python3.10/site-packages/torch/_ops.py" source_line=756}
  %convert.1272.1 = f32[64,3072]{1,0} convert(bf16[64,3072]{1,0} %slice.345.1), metadata={op_type="xla__cast" op_name="xla__cast" source_file="/usr/local/lib/python3.10/site-packages/torch/_ops.py" source_line=756}
  %multiply.566.1 = f32[64,3072]{1,0} multiply(f32[64,3072]{1,0} %multiply.565.3, f32[64,3072]{1,0} %convert.1272.1), metadata={op_type="aten__mul" op_name="aten__mul.1229/aten__mul" source_file="/usr/local/lib/python3.10/site-packages/torch/_ops.py" source_line=756}
  ROOT %convert.1273.1 = bf16[64,3072]{1,0} convert(f32[64,3072]{1,0} %multiply.566.1), metadata={op_type="xla__cast" op_name="xla__cast" source_file="/usr/local/lib/python3.10/site-packages/torch/_ops.py" source_line=756}
}

%fused_add.2 (param_0.815: bf16[64,23552], param_1.696: bf16[64,1024], param_2.503: bf16[64,1024], param_3.476: f32[64,1024], param_4.265: bf16[64,1024], param_5.71: bf16[64,1024]) -> f32[64,1024] {
  %param_0.815 = bf16[64,23552]{1,0} parameter(0)
  %convert.1104.49 = f32[64,23552]{1,0} convert(bf16[64,23552]{1,0} %param_0.815), metadata={op_type="xla__cast" op_name="xla__cast" source_file="/usr/local/lib/python3.10/site-packages/torch/_ops.py" source_line=756}
  %slice.307.3 = f32[64,1024]{1,0} slice(f32[64,23552]{1,0} %convert.1104.49), slice={[0:64], [10240:11264]}, metadata={op_type="aten__mm" op_name="aten__mm" source_file="/usr/local/lib/python3.10/site-packages/torch/_ops.py" source_line=756}
  %param_1.696 = bf16[64,1024]{1,0} parameter(1)
  %convert.1275.1 = f32[64,1024]{1,0} convert(bf16[64,1024]{1,0} %param_1.696), metadata={op_type="xla__cast" op_name="xla__cast" source_file="/usr/local/lib/python3.10/site-packages/torch/_ops.py" source_line=756}
  %slice.308.7 = f32[64,1024]{1,0} slice(f32[64,23552]{1,0} %convert.1104.49), slice={[0:64], [11264:12288]}, metadata={op_type="aten__mm" op_name="aten__mm" source_file="/usr/local/lib/python3.10/site-packages/torch/_ops.py" source_line=756}
  %param_2.503 = bf16[64,1024]{1,0} parameter(2)
  %convert.1260.5 = f32[64,1024]{1,0} convert(bf16[64,1024]{1,0} %param_2.503), metadata={op_type="xla__cast" op_name="xla__cast" source_file="/usr/local/lib/python3.10/site-packages/torch/_ops.py" source_line=756}
  %slice.309.7 = f32[64,1024]{1,0} slice(f32[64,23552]{1,0} %convert.1104.49), slice={[0:64], [12288:13312]}, metadata={op_type="aten__mm" op_name="aten__mm" source_file="/usr/local/lib/python3.10/site-packages/torch/_ops.py" source_line=756}
  %param_5.71 = bf16[64,1024]{1,0} parameter(5)
  %convert.1247.5 = f32[64,1024]{1,0} convert(bf16[64,1024]{1,0} %param_5.71), metadata={op_type="xla__cast" op_name="xla__cast" source_file="/usr/local/lib/python3.10/site-packages/torch/_ops.py" source_line=756}
  %slice.310.11 = f32[64,1024]{1,0} slice(f32[64,23552]{1,0} %convert.1104.49), slice={[0:64], [13312:14336]}, metadata={op_type="aten__mm" op_name="aten__mm" source_file="/usr/local/lib/python3.10/site-packages/torch/_ops.py" source_line=756}
  %param_4.265 = bf16[64,1024]{1,0} parameter(4)
  %convert.1235.9 = f32[64,1024]{1,0} convert(bf16[64,1024]{1,0} %param_4.265), metadata={op_type="xla__cast" op_name="xla__cast" source_file="/usr/local/lib/python3.10/site-packages/torch/_ops.py" source_line=756}
  %param_3.476 = f32[64,1024]{1,0} parameter(3)
  %add.332.9 = f32[64,1024]{1,0} add(f32[64,1024]{1,0} %convert.1235.9, f32[64,1024]{1,0} %param_3.476), metadata={op_type="aten__add" op_name="aten__add.1176/aten__add" source_file="/usr/local/lib/python3.10/site-packages/torch/_ops.py" source_line=756}
  %add.333.9 = f32[64,1024]{1,0} add(f32[64,1024]{1,0} %slice.310.11, f32[64,1024]{1,0} %add.332.9), metadata={op_type="aten__add" op_name="aten__add.1189/aten__add" source_file="/usr/local/lib/python3.10/site-packages/torch/_ops.py" source_line=756}
  %add.335.5 = f32[64,1024]{1,0} add(f32[64,1024]{1,0} %convert.1247.5, f32[64,1024]{1,0} %add.333.9), metadata={op_type="aten__add" op_name="aten__add.1194/aten__add" source_file="/usr/local/lib/python3.10/site-packages/torch/_ops.py" source_line=756}
  %add.336.5 = f32[64,1024]{1,0} add(f32[64,1024]{1,0} %slice.309.7, f32[64,1024]{1,0} %add.335.5), metadata={op_type="aten__add" op_name="aten__add.1207/aten__add" source_file="/usr/local/lib/python3.10/site-packages/torch/_ops.py" source_line=756}
  %add.338.5 = f32[64,1024]{1,0} add(f32[64,1024]{1,0} %convert.1260.5, f32[64,1024]{1,0} %add.336.5), metadata={op_type="aten__add" op_name="aten__add.1212/aten__add" source_file="/usr/local/lib/python3.10/site-packages/torch/_ops.py" source_line=756}
  %add.339.5 = f32[64,1024]{1,0} add(f32[64,1024]{1,0} %slice.308.7, f32[64,1024]{1,0} %add.338.5), metadata={op_type="aten__add" op_name="aten__add.1225/aten__add" source_file="/usr/local/lib/python3.10/site-packages/torch/_ops.py" source_line=756}
  %add.341.1 = f32[64,1024]{1,0} add(f32[64,1024]{1,0} %convert.1275.1, f32[64,1024]{1,0} %add.339.5), metadata={op_type="aten__add" op_name="aten__add.1230/aten__add" source_file="/usr/local/lib/python3.10/site-packages/torch/_ops.py" source_line=756}
  ROOT %add.342.1 = f32[64,1024]{1,0} add(f32[64,1024]{1,0} %slice.307.3, f32[64,1024]{1,0} %add.341.1), metadata={op_type="aten__add" op_name="aten__add.1243/aten__add" source_file="/usr/local/lib/python3.10/site-packages/torch/_ops.py" source_line=756}
}

%fused_computation.228 (param_0.948: f32[64,1024], param_1.743: f32[], param_2.464: bf16[1024]) -> bf16[64,1024] {
  %param_0.948 = f32[64,1024]{1,0} parameter(0)
  %multiply.696 = f32[64,1024]{1,0} multiply(f32[64,1024]{1,0} %param_0.948, f32[64,1024]{1,0} %param_0.948), metadata={op_type="aten__pow" op_name="aten__pow" source_file="/usr/local/lib/python3.10/site-packages/torch/_ops.py" source_line=756}
  %constant_615 = f32[] constant(0), metadata={op_type="aten__mean" op_name="aten__mean" source_file="/usr/local/lib/python3.10/site-packages/torch/_ops.py" source_line=756}
  %reduce.75 = f32[64]{0} reduce(f32[64,1024]{1,0} %multiply.696, f32[] %constant_615), dimensions={1}, to_apply=%AddComputation.92, metadata={op_type="aten__mean" op_name="aten__mean" source_file="/usr/local/lib/python3.10/site-packages/torch/_ops.py" source_line=756}
  %constant_614 = f32[] constant(0.0009765625), metadata={op_type="aten__mean" op_name="aten__mean" source_file="/usr/local/lib/python3.10/site-packages/torch/_ops.py" source_line=756}
  %broadcast.789 = f32[64]{0} broadcast(f32[] %constant_614), dimensions={}, metadata={op_type="aten__mean" op_name="aten__mean" source_file="/usr/local/lib/python3.10/site-packages/torch/_ops.py" source_line=756}
  %multiply.695 = f32[64]{0} multiply(f32[64]{0} %reduce.75, f32[64]{0} %broadcast.789), metadata={op_type="aten__mean" op_name="aten__mean" source_file="/usr/local/lib/python3.10/site-packages/torch/_ops.py" source_line=756}
  %param_1.743 = f32[] parameter(1)
  %broadcast.787 = f32[64]{0} broadcast(f32[] %param_1.743), dimensions={}, metadata={op_type="aten__add" op_name="aten__add.1028/aten__add" source_file="/usr/local/lib/python3.10/site-packages/torch/_ops.py" source_line=756}
  %add.405 = f32[64]{0} add(f32[64]{0} %multiply.695, f32[64]{0} %broadcast.787), metadata={op_type="aten__add" op_name="aten__add.1244/aten__add" source_file="/usr/local/lib/python3.10/site-packages/torch/_ops.py" source_line=756}
  %rsqrt.151 = f32[64]{0} rsqrt(f32[64]{0} %add.405), metadata={op_type="aten__rsqrt" op_name="aten__rsqrt" source_file="/usr/local/lib/python3.10/site-packages/torch/_ops.py" source_line=756}
  %broadcast.786 = f32[64,1024]{1,0} broadcast(f32[64]{0} %rsqrt.151), dimensions={0}, metadata={op_type="aten__mul" op_name="aten__mul.1245/aten__mul" source_file="/usr/local/lib/python3.10/site-packages/torch/_ops.py" source_line=756}
  %multiply.693 = f32[64,1024]{1,0} multiply(f32[64,1024]{1,0} %param_0.948, f32[64,1024]{1,0} %broadcast.786), metadata={op_type="aten__mul" op_name="aten__mul.1245/aten__mul" source_file="/usr/local/lib/python3.10/site-packages/torch/_ops.py" source_line=756}
  %param_2.464 = bf16[1024]{0} parameter(2)
  %convert.1276.1 = f32[1024]{0} convert(bf16[1024]{0} %param_2.464), metadata={op_type="xla__cast" op_name="xla__cast" source_file="/usr/local/lib/python3.10/site-packages/torch/_ops.py" source_line=756}
  %broadcast.554.1 = f32[64,1024]{1,0} broadcast(f32[1024]{0} %convert.1276.1), dimensions={1}, metadata={op_type="aten__mul" op_name="aten__mul.1246/aten__mul" source_file="/usr/local/lib/python3.10/site-packages/torch/_ops.py" source_line=756}
  %multiply.567.1 = f32[64,1024]{1,0} multiply(f32[64,1024]{1,0} %multiply.693, f32[64,1024]{1,0} %broadcast.554.1), metadata={op_type="aten__mul" op_name="aten__mul.1246/aten__mul" source_file="/usr/local/lib/python3.10/site-packages/torch/_ops.py" source_line=756}
  ROOT %convert.1277.1 = bf16[64,1024]{1,0} convert(f32[64,1024]{1,0} %multiply.567.1), metadata={op_type="xla__cast" op_name="xla__cast" source_file="/usr/local/lib/python3.10/site-packages/torch/_ops.py" source_line=756}
}

%fused_convert.10 (param_0.685: bf16[64,6144]) -> bf16[64,3072] {
  %param_0.685 = bf16[64,6144]{1,0} parameter(0)
  %slice.346.1 = bf16[64,3072]{1,0} slice(bf16[64,6144]{1,0} %param_0.685), slice={[0:64], [0:3072]}, metadata={op_type="xla__select" op_name="xla__select" source_file="/usr/local/lib/python3.10/site-packages/torch/_ops.py" source_line=756}
  %convert.1279.6 = f32[64,3072]{1,0} convert(bf16[64,3072]{1,0} %slice.346.1)
  %constant_1_9 = bf16[] constant(1), metadata={op_type="xla__select" op_name="xla__select" source_file="/usr/local/lib/python3.10/site-packages/torch/_ops.py" source_line=756}
  %convert.1439.7 = f32[] convert(bf16[] %constant_1_9)
  %broadcast.597.136 = f32[64,3072]{1,0} broadcast(f32[] %convert.1439.7), dimensions={}, metadata={op_type="xla__select" op_name="xla__select" source_file="/usr/local/lib/python3.10/site-packages/torch/_ops.py" source_line=756}
  %negate.81.7 = f32[64,3072]{1,0} negate(f32[64,3072]{1,0} %convert.1279.6)
  %convert.1285.5 = bf16[64,3072]{1,0} convert(f32[64,3072]{1,0} %negate.81.7)
  %exponential.81.3 = bf16[64,3072]{1,0} exponential(bf16[64,3072]{1,0} %convert.1285.5)
  %convert.1288.1 = f32[64,3072]{1,0} convert(bf16[64,3072]{1,0} %exponential.81.3)
  %add.343.5 = f32[64,3072]{1,0} add(f32[64,3072]{1,0} %broadcast.597.136, f32[64,3072]{1,0} %convert.1288.1)
  %divide.81.3 = f32[64,3072]{1,0} divide(f32[64,3072]{1,0} %broadcast.597.136, f32[64,3072]{1,0} %add.343.5), metadata={op_type="aten__silu" op_name="aten__silu" source_file="/usr/local/lib/python3.10/site-packages/torch/_ops.py" source_line=756}
  %multiply.568.3 = f32[64,3072]{1,0} multiply(f32[64,3072]{1,0} %convert.1279.6, f32[64,3072]{1,0} %divide.81.3), metadata={op_type="aten__silu" op_name="aten__silu" source_file="/usr/local/lib/python3.10/site-packages/torch/_ops.py" source_line=756}
  %slice.347.1 = bf16[64,3072]{1,0} slice(bf16[64,6144]{1,0} %param_0.685), slice={[0:64], [3072:6144]}, metadata={op_type="xla__select" op_name="xla__select" source_file="/usr/local/lib/python3.10/site-packages/torch/_ops.py" source_line=756}
  %convert.1289.1 = f32[64,3072]{1,0} convert(bf16[64,3072]{1,0} %slice.347.1), metadata={op_type="xla__cast" op_name="xla__cast" source_file="/usr/local/lib/python3.10/site-packages/torch/_ops.py" source_line=756}
  %multiply.569.1 = f32[64,3072]{1,0} multiply(f32[64,3072]{1,0} %multiply.568.3, f32[64,3072]{1,0} %convert.1289.1), metadata={op_type="aten__mul" op_name="aten__mul.1247/aten__mul" source_file="/usr/local/lib/python3.10/site-packages/torch/_ops.py" source_line=756}
  ROOT %convert.1290.1 = bf16[64,3072]{1,0} convert(f32[64,3072]{1,0} %multiply.569.1), metadata={op_type="xla__cast" op_name="xla__cast" source_file="/usr/local/lib/python3.10/site-packages/torch/_ops.py" source_line=756}
}

%fused_computation.227 (param_0.947: f32[], param_1.742: f32[64,1024], param_2.463: bf16[64,1024], param_3.426: bf16[64,23552], param_4.220: bf16[1024]) -> bf16[64,1024] {
  %param_3.426 = bf16[64,23552]{1,0} parameter(3)
  %convert.1104.93 = f32[64,23552]{1,0} convert(bf16[64,23552]{1,0} %param_3.426), metadata={op_type="xla__cast" op_name="xla__cast" source_file="/usr/local/lib/python3.10/site-packages/torch/_ops.py" source_line=756}
  %slice.306.5 = f32[64,1024]{1,0} slice(f32[64,23552]{1,0} %convert.1104.93), slice={[0:64], [9216:10240]}, metadata={op_type="aten__mm" op_name="aten__mm" source_file="/usr/local/lib/python3.10/site-packages/torch/_ops.py" source_line=756}
  %param_2.463 = bf16[64,1024]{1,0} parameter(2)
  %convert.1291.3 = f32[64,1024]{1,0} convert(bf16[64,1024]{1,0} %param_2.463), metadata={op_type="xla__cast" op_name="xla__cast" source_file="/usr/local/lib/python3.10/site-packages/torch/_ops.py" source_line=756}
  %param_1.742 = f32[64,1024]{1,0} parameter(1)
  %add.344.3 = f32[64,1024]{1,0} add(f32[64,1024]{1,0} %convert.1291.3, f32[64,1024]{1,0} %param_1.742), metadata={op_type="aten__add" op_name="aten__add.1248/aten__add" source_file="/usr/local/lib/python3.10/site-packages/torch/_ops.py" source_line=756}
  %add.345.3 = f32[64,1024]{1,0} add(f32[64,1024]{1,0} %slice.306.5, f32[64,1024]{1,0} %add.344.3), metadata={op_type="aten__add" op_name="aten__add.1261/aten__add" source_file="/usr/local/lib/python3.10/site-packages/torch/_ops.py" source_line=756}
  %multiply.704 = f32[64,1024]{1,0} multiply(f32[64,1024]{1,0} %add.345.3, f32[64,1024]{1,0} %add.345.3), metadata={op_type="aten__pow" op_name="aten__pow" source_file="/usr/local/lib/python3.10/site-packages/torch/_ops.py" source_line=756}
  %constant_620 = f32[] constant(0), metadata={op_type="aten__mean" op_name="aten__mean" source_file="/usr/local/lib/python3.10/site-packages/torch/_ops.py" source_line=756}
  %reduce.77 = f32[64]{0} reduce(f32[64,1024]{1,0} %multiply.704, f32[] %constant_620), dimensions={1}, to_apply=%AddComputation.92, metadata={op_type="aten__mean" op_name="aten__mean" source_file="/usr/local/lib/python3.10/site-packages/torch/_ops.py" source_line=756}
  %constant_619 = f32[] constant(0.0009765625), metadata={op_type="aten__mean" op_name="aten__mean" source_file="/usr/local/lib/python3.10/site-packages/torch/_ops.py" source_line=756}
  %broadcast.797 = f32[64]{0} broadcast(f32[] %constant_619), dimensions={}, metadata={op_type="aten__mean" op_name="aten__mean" source_file="/usr/local/lib/python3.10/site-packages/torch/_ops.py" source_line=756}
  %multiply.702 = f32[64]{0} multiply(f32[64]{0} %reduce.77, f32[64]{0} %broadcast.797), metadata={op_type="aten__mean" op_name="aten__mean" source_file="/usr/local/lib/python3.10/site-packages/torch/_ops.py" source_line=756}
  %param_0.947 = f32[] parameter(0)
  %broadcast.796 = f32[64]{0} broadcast(f32[] %param_0.947), dimensions={}, metadata={op_type="aten__add" op_name="aten__add.1028/aten__add" source_file="/usr/local/lib/python3.10/site-packages/torch/_ops.py" source_line=756}
  %add.407 = f32[64]{0} add(f32[64]{0} %multiply.702, f32[64]{0} %broadcast.796), metadata={op_type="aten__add" op_name="aten__add.1262/aten__add" source_file="/usr/local/lib/python3.10/site-packages/torch/_ops.py" source_line=756}
  %rsqrt.153 = f32[64]{0} rsqrt(f32[64]{0} %add.407), metadata={op_type="aten__rsqrt" op_name="aten__rsqrt" source_file="/usr/local/lib/python3.10/site-packages/torch/_ops.py" source_line=756}
  %broadcast.794 = f32[64,1024]{1,0} broadcast(f32[64]{0} %rsqrt.153), dimensions={0}, metadata={op_type="aten__mul" op_name="aten__mul.1263/aten__mul" source_file="/usr/local/lib/python3.10/site-packages/torch/_ops.py" source_line=756}
  %multiply.700 = f32[64,1024]{1,0} multiply(f32[64,1024]{1,0} %add.345.3, f32[64,1024]{1,0} %broadcast.794), metadata={op_type="aten__mul" op_name="aten__mul.1263/aten__mul" source_file="/usr/local/lib/python3.10/site-packages/torch/_ops.py" source_line=756}
  %param_4.220 = bf16[1024]{0} parameter(4)
  %convert.1292.1 = f32[1024]{0} convert(bf16[1024]{0} %param_4.220), metadata={op_type="xla__cast" op_name="xla__cast" source_file="/usr/local/lib/python3.10/site-packages/torch/_ops.py" source_line=756}
  %broadcast.557.1 = f32[64,1024]{1,0} broadcast(f32[1024]{0} %convert.1292.1), dimensions={1}, metadata={op_type="aten__mul" op_name="aten__mul.1264/aten__mul" source_file="/usr/local/lib/python3.10/site-packages/torch/_ops.py" source_line=756}
  %multiply.570.1 = f32[64,1024]{1,0} multiply(f32[64,1024]{1,0} %multiply.700, f32[64,1024]{1,0} %broadcast.557.1), metadata={op_type="aten__mul" op_name="aten__mul.1264/aten__mul" source_file="/usr/local/lib/python3.10/site-packages/torch/_ops.py" source_line=756}
  ROOT %convert.1293.1 = bf16[64,1024]{1,0} convert(f32[64,1024]{1,0} %multiply.570.1), metadata={op_type="xla__cast" op_name="xla__cast" source_file="/usr/local/lib/python3.10/site-packages/torch/_ops.py" source_line=756}
}

%fused_convert.9 (param_0.689: bf16[64,6144]) -> bf16[64,3072] {
  %param_0.689 = bf16[64,6144]{1,0} parameter(0)
  %slice.348.1 = bf16[64,3072]{1,0} slice(bf16[64,6144]{1,0} %param_0.689), slice={[0:64], [0:3072]}, metadata={op_type="xla__select" op_name="xla__select" source_file="/usr/local/lib/python3.10/site-packages/torch/_ops.py" source_line=756}
  %convert.1294.6 = f32[64,3072]{1,0} convert(bf16[64,3072]{1,0} %slice.348.1)
  %constant_1_13 = bf16[] constant(1), metadata={op_type="xla__select" op_name="xla__select" source_file="/usr/local/lib/python3.10/site-packages/torch/_ops.py" source_line=756}
  %convert.1439.11 = f32[] convert(bf16[] %constant_1_13)
  %broadcast.597.132 = f32[64,3072]{1,0} broadcast(f32[] %convert.1439.11), dimensions={}, metadata={op_type="xla__select" op_name="xla__select" source_file="/usr/local/lib/python3.10/site-packages/torch/_ops.py" source_line=756}
  %negate.82.7 = f32[64,3072]{1,0} negate(f32[64,3072]{1,0} %convert.1294.6)
  %convert.1299.5 = bf16[64,3072]{1,0} convert(f32[64,3072]{1,0} %negate.82.7)
  %exponential.82.3 = bf16[64,3072]{1,0} exponential(bf16[64,3072]{1,0} %convert.1299.5)
  %convert.1300.1 = f32[64,3072]{1,0} convert(bf16[64,3072]{1,0} %exponential.82.3)
  %add.346.5 = f32[64,3072]{1,0} add(f32[64,3072]{1,0} %broadcast.597.132, f32[64,3072]{1,0} %convert.1300.1)
  %divide.82.3 = f32[64,3072]{1,0} divide(f32[64,3072]{1,0} %broadcast.597.132, f32[64,3072]{1,0} %add.346.5), metadata={op_type="aten__silu" op_name="aten__silu" source_file="/usr/local/lib/python3.10/site-packages/torch/_ops.py" source_line=756}
  %multiply.571.3 = f32[64,3072]{1,0} multiply(f32[64,3072]{1,0} %convert.1294.6, f32[64,3072]{1,0} %divide.82.3), metadata={op_type="aten__silu" op_name="aten__silu" source_file="/usr/local/lib/python3.10/site-packages/torch/_ops.py" source_line=756}
  %slice.349.1 = bf16[64,3072]{1,0} slice(bf16[64,6144]{1,0} %param_0.689), slice={[0:64], [3072:6144]}, metadata={op_type="xla__select" op_name="xla__select" source_file="/usr/local/lib/python3.10/site-packages/torch/_ops.py" source_line=756}
  %convert.1301.1 = f32[64,3072]{1,0} convert(bf16[64,3072]{1,0} %slice.349.1), metadata={op_type="xla__cast" op_name="xla__cast" source_file="/usr/local/lib/python3.10/site-packages/torch/_ops.py" source_line=756}
  %multiply.572.1 = f32[64,3072]{1,0} multiply(f32[64,3072]{1,0} %multiply.571.3, f32[64,3072]{1,0} %convert.1301.1), metadata={op_type="aten__mul" op_name="aten__mul.1265/aten__mul" source_file="/usr/local/lib/python3.10/site-packages/torch/_ops.py" source_line=756}
  ROOT %convert.1304.1 = bf16[64,3072]{1,0} convert(f32[64,3072]{1,0} %multiply.572.1), metadata={op_type="xla__cast" op_name="xla__cast" source_file="/usr/local/lib/python3.10/site-packages/torch/_ops.py" source_line=756}
}

%fused_computation.226 (param_0.980: f32[], param_1.769: bf16[1024], param_2.494: f32[64,1024], param_3.463: bf16[64,1024], param_4.250: bf16[64,23552], param_5.51: bf16[64,1024]) -> bf16[64,1024] {
  %param_4.250 = bf16[64,23552]{1,0} parameter(4)
  %convert.1104.147 = f32[64,23552]{1,0} convert(bf16[64,23552]{1,0} %param_4.250), metadata={op_type="xla__cast" op_name="xla__cast" source_file="/usr/local/lib/python3.10/site-packages/torch/_ops.py" source_line=756}
  %slice.305.5 = f32[64,1024]{1,0} slice(f32[64,23552]{1,0} %convert.1104.147), slice={[0:64], [8192:9216]}, metadata={op_type="aten__mm" op_name="aten__mm" source_file="/usr/local/lib/python3.10/site-packages/torch/_ops.py" source_line=756}
  %param_5.51 = bf16[64,1024]{1,0} parameter(5)
  %convert.1305.3 = f32[64,1024]{1,0} convert(bf16[64,1024]{1,0} %param_5.51), metadata={op_type="xla__cast" op_name="xla__cast" source_file="/usr/local/lib/python3.10/site-packages/torch/_ops.py" source_line=756}
  %slice.306.9 = f32[64,1024]{1,0} slice(f32[64,23552]{1,0} %convert.1104.147), slice={[0:64], [9216:10240]}, metadata={op_type="aten__mm" op_name="aten__mm" source_file="/usr/local/lib/python3.10/site-packages/torch/_ops.py" source_line=756}
  %param_3.463 = bf16[64,1024]{1,0} parameter(3)
  %convert.1291.7 = f32[64,1024]{1,0} convert(bf16[64,1024]{1,0} %param_3.463), metadata={op_type="xla__cast" op_name="xla__cast" source_file="/usr/local/lib/python3.10/site-packages/torch/_ops.py" source_line=756}
  %param_2.494 = f32[64,1024]{1,0} parameter(2)
  %add.344.7 = f32[64,1024]{1,0} add(f32[64,1024]{1,0} %convert.1291.7, f32[64,1024]{1,0} %param_2.494), metadata={op_type="aten__add" op_name="aten__add.1248/aten__add" source_file="/usr/local/lib/python3.10/site-packages/torch/_ops.py" source_line=756}
  %add.345.7 = f32[64,1024]{1,0} add(f32[64,1024]{1,0} %slice.306.9, f32[64,1024]{1,0} %add.344.7), metadata={op_type="aten__add" op_name="aten__add.1261/aten__add" source_file="/usr/local/lib/python3.10/site-packages/torch/_ops.py" source_line=756}
  %add.347.3 = f32[64,1024]{1,0} add(f32[64,1024]{1,0} %convert.1305.3, f32[64,1024]{1,0} %add.345.7), metadata={op_type="aten__add" op_name="aten__add.1266/aten__add" source_file="/usr/local/lib/python3.10/site-packages/torch/_ops.py" source_line=756}
  %add.348.3 = f32[64,1024]{1,0} add(f32[64,1024]{1,0} %slice.305.5, f32[64,1024]{1,0} %add.347.3), metadata={op_type="aten__add" op_name="aten__add.1279/aten__add" source_file="/usr/local/lib/python3.10/site-packages/torch/_ops.py" source_line=756}
  %multiply.711 = f32[64,1024]{1,0} multiply(f32[64,1024]{1,0} %add.348.3, f32[64,1024]{1,0} %add.348.3), metadata={op_type="aten__pow" op_name="aten__pow" source_file="/usr/local/lib/python3.10/site-packages/torch/_ops.py" source_line=756}
  %constant_625 = f32[] constant(0), metadata={op_type="aten__mean" op_name="aten__mean" source_file="/usr/local/lib/python3.10/site-packages/torch/_ops.py" source_line=756}
  %reduce.79 = f32[64]{0} reduce(f32[64,1024]{1,0} %multiply.711, f32[] %constant_625), dimensions={1}, to_apply=%AddComputation.92, metadata={op_type="aten__mean" op_name="aten__mean" source_file="/usr/local/lib/python3.10/site-packages/torch/_ops.py" source_line=756}
  %constant_624 = f32[] constant(0.0009765625), metadata={op_type="aten__mean" op_name="aten__mean" source_file="/usr/local/lib/python3.10/site-packages/torch/_ops.py" source_line=756}
  %broadcast.803 = f32[64]{0} broadcast(f32[] %constant_624), dimensions={}, metadata={op_type="aten__mean" op_name="aten__mean" source_file="/usr/local/lib/python3.10/site-packages/torch/_ops.py" source_line=756}
  %multiply.710 = f32[64]{0} multiply(f32[64]{0} %reduce.79, f32[64]{0} %broadcast.803), metadata={op_type="aten__mean" op_name="aten__mean" source_file="/usr/local/lib/python3.10/site-packages/torch/_ops.py" source_line=756}
  %param_0.980 = f32[] parameter(0)
  %broadcast.802 = f32[64]{0} broadcast(f32[] %param_0.980), dimensions={}, metadata={op_type="aten__add" op_name="aten__add.1028/aten__add" source_file="/usr/local/lib/python3.10/site-packages/torch/_ops.py" source_line=756}
  %add.409 = f32[64]{0} add(f32[64]{0} %multiply.710, f32[64]{0} %broadcast.802), metadata={op_type="aten__add" op_name="aten__add.1280/aten__add" source_file="/usr/local/lib/python3.10/site-packages/torch/_ops.py" source_line=756}
  %rsqrt.155 = f32[64]{0} rsqrt(f32[64]{0} %add.409), metadata={op_type="aten__rsqrt" op_name="aten__rsqrt" source_file="/usr/local/lib/python3.10/site-packages/torch/_ops.py" source_line=756}
  %broadcast.801 = f32[64,1024]{1,0} broadcast(f32[64]{0} %rsqrt.155), dimensions={0}, metadata={op_type="aten__mul" op_name="aten__mul.1281/aten__mul" source_file="/usr/local/lib/python3.10/site-packages/torch/_ops.py" source_line=756}
  %multiply.709 = f32[64,1024]{1,0} multiply(f32[64,1024]{1,0} %add.348.3, f32[64,1024]{1,0} %broadcast.801), metadata={op_type="aten__mul" op_name="aten__mul.1281/aten__mul" source_file="/usr/local/lib/python3.10/site-packages/torch/_ops.py" source_line=756}
  %param_1.769 = bf16[1024]{0} parameter(1)
  %convert.1306.1 = f32[1024]{0} convert(bf16[1024]{0} %param_1.769), metadata={op_type="xla__cast" op_name="xla__cast" source_file="/usr/local/lib/python3.10/site-packages/torch/_ops.py" source_line=756}
  %broadcast.560.1 = f32[64,1024]{1,0} broadcast(f32[1024]{0} %convert.1306.1), dimensions={1}, metadata={op_type="aten__mul" op_name="aten__mul.1282/aten__mul" source_file="/usr/local/lib/python3.10/site-packages/torch/_ops.py" source_line=756}
  %multiply.573.1 = f32[64,1024]{1,0} multiply(f32[64,1024]{1,0} %multiply.709, f32[64,1024]{1,0} %broadcast.560.1), metadata={op_type="aten__mul" op_name="aten__mul.1282/aten__mul" source_file="/usr/local/lib/python3.10/site-packages/torch/_ops.py" source_line=756}
  ROOT %convert.1307.1 = bf16[64,1024]{1,0} convert(f32[64,1024]{1,0} %multiply.573.1), metadata={op_type="xla__cast" op_name="xla__cast" source_file="/usr/local/lib/python3.10/site-packages/torch/_ops.py" source_line=756}
}

%fused_convert.8 (param_0.693: bf16[64,6144]) -> bf16[64,3072] {
  %param_0.693 = bf16[64,6144]{1,0} parameter(0)
  %slice.350.1 = bf16[64,3072]{1,0} slice(bf16[64,6144]{1,0} %param_0.693), slice={[0:64], [0:3072]}, metadata={op_type="xla__select" op_name="xla__select" source_file="/usr/local/lib/python3.10/site-packages/torch/_ops.py" source_line=756}
  %convert.1308.6 = f32[64,3072]{1,0} convert(bf16[64,3072]{1,0} %slice.350.1)
  %constant_1_17 = bf16[] constant(1), metadata={op_type="xla__select" op_name="xla__select" source_file="/usr/local/lib/python3.10/site-packages/torch/_ops.py" source_line=756}
  %convert.1439.15 = f32[] convert(bf16[] %constant_1_17)
  %broadcast.597.128 = f32[64,3072]{1,0} broadcast(f32[] %convert.1439.15), dimensions={}, metadata={op_type="xla__select" op_name="xla__select" source_file="/usr/local/lib/python3.10/site-packages/torch/_ops.py" source_line=756}
  %negate.83.7 = f32[64,3072]{1,0} negate(f32[64,3072]{1,0} %convert.1308.6)
  %convert.1313.5 = bf16[64,3072]{1,0} convert(f32[64,3072]{1,0} %negate.83.7)
  %exponential.83.3 = bf16[64,3072]{1,0} exponential(bf16[64,3072]{1,0} %convert.1313.5)
  %convert.1314.1 = f32[64,3072]{1,0} convert(bf16[64,3072]{1,0} %exponential.83.3)
  %add.350.5 = f32[64,3072]{1,0} add(f32[64,3072]{1,0} %broadcast.597.128, f32[64,3072]{1,0} %convert.1314.1)
  %divide.83.3 = f32[64,3072]{1,0} divide(f32[64,3072]{1,0} %broadcast.597.128, f32[64,3072]{1,0} %add.350.5), metadata={op_type="aten__silu" op_name="aten__silu" source_file="/usr/local/lib/python3.10/site-packages/torch/_ops.py" source_line=756}
  %multiply.574.3 = f32[64,3072]{1,0} multiply(f32[64,3072]{1,0} %convert.1308.6, f32[64,3072]{1,0} %divide.83.3), metadata={op_type="aten__silu" op_name="aten__silu" source_file="/usr/local/lib/python3.10/site-packages/torch/_ops.py" source_line=756}
  %slice.351.1 = bf16[64,3072]{1,0} slice(bf16[64,6144]{1,0} %param_0.693), slice={[0:64], [3072:6144]}, metadata={op_type="xla__select" op_name="xla__select" source_file="/usr/local/lib/python3.10/site-packages/torch/_ops.py" source_line=756}
  %convert.1315.1 = f32[64,3072]{1,0} convert(bf16[64,3072]{1,0} %slice.351.1), metadata={op_type="xla__cast" op_name="xla__cast" source_file="/usr/local/lib/python3.10/site-packages/torch/_ops.py" source_line=756}
  %multiply.575.1 = f32[64,3072]{1,0} multiply(f32[64,3072]{1,0} %multiply.574.3, f32[64,3072]{1,0} %convert.1315.1), metadata={op_type="aten__mul" op_name="aten__mul.1283/aten__mul" source_file="/usr/local/lib/python3.10/site-packages/torch/_ops.py" source_line=756}
  ROOT %convert.1316.1 = bf16[64,3072]{1,0} convert(f32[64,3072]{1,0} %multiply.575.1), metadata={op_type="xla__cast" op_name="xla__cast" source_file="/usr/local/lib/python3.10/site-packages/torch/_ops.py" source_line=756}
}

%fused_computation.225 (param_0.945: f32[], param_1.772: bf16[64,1024], param_2.498: bf16[64,23552], param_3.468: bf16[1024], param_4.256: f32[64,1024], param_5.60: bf16[64,1024], param_6.46: bf16[64,1024]) -> bf16[64,1024] {
  %param_2.498 = bf16[64,23552]{1,0} parameter(2)
  %convert.1104.89 = f32[64,23552]{1,0} convert(bf16[64,23552]{1,0} %param_2.498), metadata={op_type="xla__cast" op_name="xla__cast" source_file="/usr/local/lib/python3.10/site-packages/torch/_ops.py" source_line=756}
  %slice.304.5 = f32[64,1024]{1,0} slice(f32[64,23552]{1,0} %convert.1104.89), slice={[0:64], [7168:8192]}, metadata={op_type="aten__mm" op_name="aten__mm" source_file="/usr/local/lib/python3.10/site-packages/torch/_ops.py" source_line=756}
  %param_1.772 = bf16[64,1024]{1,0} parameter(1)
  %convert.1317.3 = f32[64,1024]{1,0} convert(bf16[64,1024]{1,0} %param_1.772), metadata={op_type="xla__cast" op_name="xla__cast" source_file="/usr/local/lib/python3.10/site-packages/torch/_ops.py" source_line=756}
  %slice.305.9 = f32[64,1024]{1,0} slice(f32[64,23552]{1,0} %convert.1104.89), slice={[0:64], [8192:9216]}, metadata={op_type="aten__mm" op_name="aten__mm" source_file="/usr/local/lib/python3.10/site-packages/torch/_ops.py" source_line=756}
  %param_6.46 = bf16[64,1024]{1,0} parameter(6)
  %convert.1305.7 = f32[64,1024]{1,0} convert(bf16[64,1024]{1,0} %param_6.46), metadata={op_type="xla__cast" op_name="xla__cast" source_file="/usr/local/lib/python3.10/site-packages/torch/_ops.py" source_line=756}
  %slice.306.13 = f32[64,1024]{1,0} slice(f32[64,23552]{1,0} %convert.1104.89), slice={[0:64], [9216:10240]}, metadata={op_type="aten__mm" op_name="aten__mm" source_file="/usr/local/lib/python3.10/site-packages/torch/_ops.py" source_line=756}
  %param_5.60 = bf16[64,1024]{1,0} parameter(5)
  %convert.1291.11 = f32[64,1024]{1,0} convert(bf16[64,1024]{1,0} %param_5.60), metadata={op_type="xla__cast" op_name="xla__cast" source_file="/usr/local/lib/python3.10/site-packages/torch/_ops.py" source_line=756}
  %param_4.256 = f32[64,1024]{1,0} parameter(4)
  %add.344.11 = f32[64,1024]{1,0} add(f32[64,1024]{1,0} %convert.1291.11, f32[64,1024]{1,0} %param_4.256), metadata={op_type="aten__add" op_name="aten__add.1248/aten__add" source_file="/usr/local/lib/python3.10/site-packages/torch/_ops.py" source_line=756}
  %add.345.11 = f32[64,1024]{1,0} add(f32[64,1024]{1,0} %slice.306.13, f32[64,1024]{1,0} %add.344.11), metadata={op_type="aten__add" op_name="aten__add.1261/aten__add" source_file="/usr/local/lib/python3.10/site-packages/torch/_ops.py" source_line=756}
…
  %get-tuple-element.35.0 = bf16[64,1024]{1,0} get-tuple-element((bf16[64,1024]{1,0}, s8[4194304]{0}) %custom-call.82.0), index=0, metadata={op_type="aten__mm" op_name="aten__mm" source_file="/usr/local/lib/python3.10/site-packages/torch/_ops.py" source_line=756}
  %fusion.273 = bf16[64,1024]{1,0} fusion(f32[] %p.25, bf16[1024]{0} %p.80, f32[64,1024]{1,0} %loop_add_fusion.3, bf16[64,1024]{1,0} %get-tuple-element.33.0, bf16[64,23552]{1,0} %gemm_fusion_dot.92.0, /*index=5*/bf16[64,1024]{1,0} %get-tuple-element.35.0), kind=kCustom, calls=%fused_computation.222, metadata={op_type="xla__cast" op_name="xla__cast" source_file="/usr/local/lib/python3.10/site-packages/torch/_ops.py" source_line=756}, backend_config={"operation_queue_id":"0","wait_on_operation_queues":[],"fusion_backend_config":{"kind":"__triton","block_level_fusion_config":{"output_tiles":[{"sizes":["1","1024"]}],"num_warps":"2"}},"force_earliest_schedule":false}
  %custom-call.83.0 = (bf16[64,6144]{1,0}, s8[4194304]{0}) custom-call(bf16[64,1024]{1,0} %fusion.273, bf16[6144,1024]{1,0} %p.81), custom_call_target="__cublas$gemm", metadata={op_type="aten__mm" op_name="aten__mm" source_file="/usr/local/lib/python3.10/site-packages/torch/_ops.py" source_line=756}, backend_config={"operation_queue_id":"0","wait_on_operation_queues":[],"gemm_backend_config":{"alpha_real":1,"alpha_imag":0,"beta":0,"dot_dimension_numbers":{"lhs_contracting_dimensions":["1"],"rhs_contracting_dimensions":["1"],"lhs_batch_dimensions":[],"rhs_batch_dimensions":[]},"precision_config":{"operand_precision":["DEFAULT","DEFAULT"],"algorithm":"ALG_UNSET"},"epilogue":"DEFAULT","damax_output":false,"lhs_stride":"65536","rhs_stride":"6291456","grad_x":false,"grad_y":false},"force_earliest_schedule":false}
  %get-tuple-element.36.0 = bf16[64,6144]{1,0} get-tuple-element((bf16[64,6144]{1,0}, s8[4194304]{0}) %custom-call.83.0), index=0, metadata={op_type="aten__mm" op_name="aten__mm" source_file="/usr/local/lib/python3.10/site-packages/torch/_ops.py" source_line=756}
  %loop_convert_fusion.4 = bf16[64,3072]{1,0} fusion(bf16[64,6144]{1,0} %get-tuple-element.36.0), kind=kLoop, calls=%fused_convert.4, metadata={op_type="xla__cast" op_name="xla__cast" source_file="/usr/local/lib/python3.10/site-packages/torch/_ops.py" source_line=756 deduplicated_name="loop_convert_fusion"}
  %custom-call.84.0 = (bf16[64,1024]{1,0}, s8[4194304]{0}) custom-call(bf16[64,3072]{1,0} %loop_convert_fusion.4, bf16[1024,3072]{1,0} %p.82), custom_call_target="__cublas$gemm", metadata={op_type="aten__mm" op_name="aten__mm" source_file="/usr/local/lib/python3.10/site-packages/torch/_ops.py" source_line=756}, backend_config={"operation_queue_id":"0","wait_on_operation_queues":[],"gemm_backend_config":{"alpha_real":1,"alpha_imag":0,"beta":0,"dot_dimension_numbers":{"lhs_contracting_dimensions":["1"],"rhs_contracting_dimensions":["1"],"lhs_batch_dimensions":[],"rhs_batch_dimensions":[]},"precision_config":{"operand_precision":["DEFAULT","DEFAULT"],"algorithm":"ALG_UNSET"},"epilogue":"DEFAULT","damax_output":false,"lhs_stride":"196608","rhs_stride":"3145728","grad_x":false,"grad_y":false},"force_earliest_schedule":false}
  %get-tuple-element.37.0 = bf16[64,1024]{1,0} get-tuple-element((bf16[64,1024]{1,0}, s8[4194304]{0}) %custom-call.84.0), index=0, metadata={op_type="aten__mm" op_name="aten__mm" source_file="/usr/local/lib/python3.10/site-packages/torch/_ops.py" source_line=756}
  %fusion.272 = bf16[64,1024]{1,0} fusion(f32[] %p.25, bf16[64,1024]{1,0} %get-tuple-element.37.0, bf16[64,23552]{1,0} %gemm_fusion_dot.92.0, bf16[1024]{0} %p.83, f32[64,1024]{1,0} %loop_add_fusion.3, /*index=5*/bf16[64,1024]{1,0} %get-tuple-element.33.0, bf16[64,1024]{1,0} %get-tuple-element.35.0), kind=kCustom, calls=%fused_computation.221, metadata={op_type="xla__cast" op_name="xla__cast" source_file="/usr/local/lib/python3.10/site-packages/torch/_ops.py" source_line=756}, backend_config={"operation_queue_id":"0","wait_on_operation_queues":[],"fusion_backend_config":{"kind":"__triton","block_level_fusion_config":{"output_tiles":[{"sizes":["1","1024"]}],"num_warps":"2"}},"force_earliest_schedule":false}
  %custom-call.85.0 = (bf16[64,6144]{1,0}, s8[4194304]{0}) custom-call(bf16[64,1024]{1,0} %fusion.272, bf16[6144,1024]{1,0} %p.84), custom_call_target="__cublas$gemm", metadata={op_type="aten__mm" op_name="aten__mm" source_file="/usr/local/lib/python3.10/site-packages/torch/_ops.py" source_line=756}, backend_config={"operation_queue_id":"0","wait_on_operation_queues":[],"gemm_backend_config":{"alpha_real":1,"alpha_imag":0,"beta":0,"dot_dimension_numbers":{"lhs_contracting_dimensions":["1"],"rhs_contracting_dimensions":["1"],"lhs_batch_dimensions":[],"rhs_batch_dimensions":[]},"precision_config":{"operand_precision":["DEFAULT","DEFAULT"],"algorithm":"ALG_UNSET"},"epilogue":"DEFAULT","damax_output":false,"lhs_stride":"65536","rhs_stride":"6291456","grad_x":false,"grad_y":false},"force_earliest_schedule":false}
  %get-tuple-element.38.0 = bf16[64,6144]{1,0} get-tuple-element((bf16[64,6144]{1,0}, s8[4194304]{0}) %custom-call.85.0), index=0, metadata={op_type="aten__mm" op_name="aten__mm" source_file="/usr/local/lib/python3.10/site-packages/torch/_ops.py" source_line=756}
  %loop_convert_fusion.3 = bf16[64,3072]{1,0} fusion(bf16[64,6144]{1,0} %get-tuple-element.38.0), kind=kLoop, calls=%fused_convert.3, metadata={op_type="xla__cast" op_name="xla__cast" source_file="/usr/local/lib/python3.10/site-packages/torch/_ops.py" source_line=756 deduplicated_name="loop_convert_fusion"}
  %custom-call.86.0 = (bf16[64,1024]{1,0}, s8[4194304]{0}) custom-call(bf16[64,3072]{1,0} %loop_convert_fusion.3, bf16[1024,3072]{1,0} %p.85), custom_call_target="__cublas$gemm", metadata={op_type="aten__mm" op_name="aten__mm" source_file="/usr/local/lib/python3.10/site-packages/torch/_ops.py" source_line=756}, backend_config={"operation_queue_id":"0","wait_on_operation_queues":[],"gemm_backend_config":{"alpha_real":1,"alpha_imag":0,"beta":0,"dot_dimension_numbers":{"lhs_contracting_dimensions":["1"],"rhs_contracting_dimensions":["1"],"lhs_batch_dimensions":[],"rhs_batch_dimensions":[]},"precision_config":{"operand_precision":["DEFAULT","DEFAULT"],"algorithm":"ALG_UNSET"},"epilogue":"DEFAULT","damax_output":false,"lhs_stride":"196608","rhs_stride":"3145728","grad_x":false,"grad_y":false},"force_earliest_schedule":false}
  %get-tuple-element.39.0 = bf16[64,1024]{1,0} get-tuple-element((bf16[64,1024]{1,0}, s8[4194304]{0}) %custom-call.86.0), index=0, metadata={op_type="aten__mm" op_name="aten__mm" source_file="/usr/local/lib/python3.10/site-packages/torch/_ops.py" source_line=756}
  %loop_add_fusion.4 = f32[64,1024]{1,0} fusion(bf16[64,23552]{1,0} %gemm_fusion_dot.92.0, bf16[64,1024]{1,0} %get-tuple-element.39.0, bf16[64,1024]{1,0} %get-tuple-element.37.0, f32[64,1024]{1,0} %loop_add_fusion.3, bf16[64,1024]{1,0} %get-tuple-element.33.0, /*index=5*/bf16[64,1024]{1,0} %get-tuple-element.35.0), kind=kLoop, calls=%fused_add.4, metadata={op_type="aten__add" op_name="aten__add.1387/aten__add" source_file="/usr/local/lib/python3.10/site-packages/torch/_ops.py" source_line=756}
  %fusion.271 = bf16[64,1024]{1,0} fusion(f32[64,1024]{1,0} %loop_add_fusion.4, f32[] %p.25, bf16[1024]{0} %p.86), kind=kCustom, calls=%fused_computation.220, metadata={op_type="xla__cast" op_name="xla__cast" source_file="/usr/local/lib/python3.10/site-packages/torch/_ops.py" source_line=756 deduplicated_name="fusion.271"}, backend_config={"operation_queue_id":"0","wait_on_operation_queues":[],"fusion_backend_config":{"kind":"__triton","block_level_fusion_config":{"output_tiles":[{"sizes":["1","1024"]}],"num_warps":"2"}},"force_earliest_schedule":false}
  %custom-call.87.0 = (bf16[64,6144]{1,0}, s8[4194304]{0}) custom-call(bf16[64,1024]{1,0} %fusion.271, bf16[6144,1024]{1,0} %p.87), custom_call_target="__cublas$gemm", metadata={op_type="aten__mm" op_name="aten__mm" source_file="/usr/local/lib/python3.10/site-packages/torch/_ops.py" source_line=756}, backend_config={"operation_queue_id":"0","wait_on_operation_queues":[],"gemm_backend_config":{"alpha_real":1,"alpha_imag":0,"beta":0,"dot_dimension_numbers":{"lhs_contracting_dimensions":["1"],"rhs_contracting_dimensions":["1"],"lhs_batch_dimensions":[],"rhs_batch_dimensions":[]},"precision_config":{"operand_precision":["DEFAULT","DEFAULT"],"algorithm":"ALG_UNSET"},"epilogue":"DEFAULT","damax_output":false,"lhs_stride":"65536","rhs_stride":"6291456","grad_x":false,"grad_y":false},"force_earliest_schedule":false}
  %get-tuple-element.40.0 = bf16[64,6144]{1,0} get-tuple-element((bf16[64,6144]{1,0}, s8[4194304]{0}) %custom-call.87.0), index=0, metadata={op_type="aten__mm" op_name="aten__mm" source_file="/usr/local/lib/python3.10/site-packages/torch/_ops.py" source_line=756}
  %loop_convert_fusion.2 = bf16[64,3072]{1,0} fusion(bf16[64,6144]{1,0} %get-tuple-element.40.0), kind=kLoop, calls=%fused_convert.2, metadata={op_type="xla__cast" op_name="xla__cast" source_file="/usr/local/lib/python3.10/site-packages/torch/_ops.py" source_line=756 deduplicated_name="loop_convert_fusion"}
  %custom-call.88.0 = (bf16[64,1024]{1,0}, s8[4194304]{0}) custom-call(bf16[64,3072]{1,0} %loop_convert_fusion.2, bf16[1024,3072]{1,0} %p.88), custom_call_target="__cublas$gemm", metadata={op_type="aten__mm" op_name="aten__mm" source_file="/usr/local/lib/python3.10/site-packages/torch/_ops.py" source_line=756}, backend_config={"operation_queue_id":"0","wait_on_operation_queues":[],"gemm_backend_config":{"alpha_real":1,"alpha_imag":0,"beta":0,"dot_dimension_numbers":{"lhs_contracting_dimensions":["1"],"rhs_contracting_dimensions":["1"],"lhs_batch_dimensions":[],"rhs_batch_dimensions":[]},"precision_config":{"operand_precision":["DEFAULT","DEFAULT"],"algorithm":"ALG_UNSET"},"epilogue":"DEFAULT","damax_output":false,"lhs_stride":"196608","rhs_stride":"3145728","grad_x":false,"grad_y":false},"force_earliest_schedule":false}
  %get-tuple-element.41.0 = bf16[64,1024]{1,0} get-tuple-element((bf16[64,1024]{1,0}, s8[4194304]{0}) %custom-call.88.0), index=0, metadata={op_type="aten__mm" op_name="aten__mm" source_file="/usr/local/lib/python3.10/site-packages/torch/_ops.py" source_line=756}
  %fusion.270 = bf16[64,1024]{1,0} fusion(f32[] %p.25, f32[64,1024]{1,0} %loop_add_fusion.4, bf16[64,1024]{1,0} %get-tuple-element.41.0, bf16[64,23552]{1,0} %gemm_fusion_dot.92.0, bf16[1024]{0} %p.89), kind=kCustom, calls=%fused_computation.219, metadata={op_type="xla__cast" op_name="xla__cast" source_file="/usr/local/lib/python3.10/site-packages/torch/_ops.py" source_line=756}, backend_config={"operation_queue_id":"0","wait_on_operation_queues":[],"fusion_backend_config":{"kind":"__triton","block_level_fusion_config":{"output_tiles":[{"sizes":["1","1024"]}],"num_warps":"2"}},"force_earliest_schedule":false}
  %custom-call.89.0 = (bf16[64,6144]{1,0}, s8[4194304]{0}) custom-call(bf16[64,1024]{1,0} %fusion.270, bf16[6144,1024]{1,0} %p.90), custom_call_target="__cublas$gemm", metadata={op_type="aten__mm" op_name="aten__mm" source_file="/usr/local/lib/python3.10/site-packages/torch/_ops.py" source_line=756}, backend_config={"operation_queue_id":"0","wait_on_operation_queues":[],"gemm_backend_config":{"alpha_real":1,"alpha_imag":0,"beta":0,"dot_dimension_numbers":{"lhs_contracting_dimensions":["1"],"rhs_contracting_dimensions":["1"],"lhs_batch_dimensions":[],"rhs_batch_dimensions":[]},"precision_config":{"operand_precision":["DEFAULT","DEFAULT"],"algorithm":"ALG_UNSET"},"epilogue":"DEFAULT","damax_output":false,"lhs_stride":"65536","rhs_stride":"6291456","grad_x":false,"grad_y":false},"force_earliest_schedule":false}
  %get-tuple-element.42.0 = bf16[64,6144]{1,0} get-tuple-element((bf16[64,6144]{1,0}, s8[4194304]{0}) %custom-call.89.0), index=0, metadata={op_type="aten__mm" op_name="aten__mm" source_file="/usr/local/lib/python3.10/site-packages/torch/_ops.py" source_line=756}
  %loop_convert_fusion.1 = bf16[64,3072]{1,0} fusion(bf16[64,6144]{1,0} %get-tuple-element.42.0), kind=kLoop, calls=%fused_convert.1, metadata={op_type="xla__cast" op_name="xla__cast" source_file="/usr/local/lib/python3.10/site-packages/torch/_ops.py" source_line=756 deduplicated_name="loop_convert_fusion"}
  %custom-call.90.0 = (bf16[64,1024]{1,0}, s8[4194304]{0}) custom-call(bf16[64,3072]{1,0} %loop_convert_fusion.1, bf16[1024,3072]{1,0} %p.91), custom_call_target="__cublas$gemm", metadata={op_type="aten__mm" op_name="aten__mm" source_file="/usr/local/lib/python3.10/site-packages/torch/_ops.py" source_line=756}, backend_config={"operation_queue_id":"0","wait_on_operation_queues":[],"gemm_backend_config":{"alpha_real":1,"alpha_imag":0,"beta":0,"dot_dimension_numbers":{"lhs_contracting_dimensions":["1"],"rhs_contracting_dimensions":["1"],"lhs_batch_dimensions":[],"rhs_batch_dimensions":[]},"precision_config":{"operand_precision":["DEFAULT","DEFAULT"],"algorithm":"ALG_UNSET"},"epilogue":"DEFAULT","damax_output":false,"lhs_stride":"196608","rhs_stride":"3145728","grad_x":false,"grad_y":false},"force_earliest_schedule":false}
  %get-tuple-element.43.0 = bf16[64,1024]{1,0} get-tuple-element((bf16[64,1024]{1,0}, s8[4194304]{0}) %custom-call.90.0), index=0, metadata={op_type="aten__mm" op_name="aten__mm" source_file="/usr/local/lib/python3.10/site-packages/torch/_ops.py" source_line=756}
  %fusion.269 = bf16[64,1024]{1,0} fusion(f32[] %p.25, bf16[1024]{0} %p.92, f32[64,1024]{1,0} %loop_add_fusion.4, bf16[64,1024]{1,0} %get-tuple-element.41.0, bf16[64,23552]{1,0} %gemm_fusion_dot.92.0, /*index=5*/bf16[64,1024]{1,0} %get-tuple-element.43.0), kind=kCustom, calls=%fused_computation.218, metadata={op_type="xla__cast" op_name="xla__cast" source_file="/usr/local/lib/python3.10/site-packages/torch/_ops.py" source_line=756}, backend_config={"operation_queue_id":"0","wait_on_operation_queues":[],"fusion_backend_config":{"kind":"__triton","block_level_fusion_config":{"output_tiles":[{"sizes":["1","1024"]}],"num_warps":"2"}},"force_earliest_schedule":false}
  %custom-call.91.0 = (bf16[64,6144]{1,0}, s8[4194304]{0}) custom-call(bf16[64,1024]{1,0} %fusion.269, bf16[6144,1024]{1,0} %p.93), custom_call_target="__cublas$gemm", metadata={op_type="aten__mm" op_name="aten__mm" source_file="/usr/local/lib/python3.10/site-packages/torch/_ops.py" source_line=756}, backend_config={"operation_queue_id":"0","wait_on_operation_queues":[],"gemm_backend_config":{"alpha_real":1,"alpha_imag":0,"beta":0,"dot_dimension_numbers":{"lhs_contracting_dimensions":["1"],"rhs_contracting_dimensions":["1"],"lhs_batch_dimensions":[],"rhs_batch_dimensions":[]},"precision_config":{"operand_precision":["DEFAULT","DEFAULT"],"algorithm":"ALG_UNSET"},"epilogue":"DEFAULT","damax_output":false,"lhs_stride":"65536","rhs_stride":"6291456","grad_x":false,"grad_y":false},"force_earliest_schedule":false}
  %get-tuple-element.44.0 = bf16[64,6144]{1,0} get-tuple-element((bf16[64,6144]{1,0}, s8[4194304]{0}) %custom-call.91.0), index=0, metadata={op_type="aten__mm" op_name="aten__mm" source_file="/usr/local/lib/python3.10/site-packages/torch/_ops.py" source_line=756}
  %loop_convert_fusion = bf16[64,3072]{1,0} fusion(bf16[64,6144]{1,0} %get-tuple-element.44.0), kind=kLoop, calls=%fused_convert, metadata={op_type="xla__cast" op_name="xla__cast" source_file="/usr/local/lib/python3.10/site-packages/torch/_ops.py" source_line=756 deduplicated_name="loop_convert_fusion"}
  %custom-call.92.0 = (bf16[64,1024]{1,0}, s8[4194304]{0}) custom-call(bf16[64,3072]{1,0} %loop_convert_fusion, bf16[1024,3072]{1,0} %p.94), custom_call_target="__cublas$gemm", metadata={op_type="aten__mm" op_name="aten__mm" source_file="/usr/local/lib/python3.10/site-packages/torch/_ops.py" source_line=756}, backend_config={"operation_queue_id":"0","wait_on_operation_queues":[],"gemm_backend_config":{"alpha_real":1,"alpha_imag":0,"beta":0,"dot_dimension_numbers":{"lhs_contracting_dimensions":["1"],"rhs_contracting_dimensions":["1"],"lhs_batch_dimensions":[],"rhs_batch_dimensions":[]},"precision_config":{"operand_precision":["DEFAULT","DEFAULT"],"algorithm":"ALG_UNSET"},"epilogue":"DEFAULT","damax_output":false,"lhs_stride":"196608","rhs_stride":"3145728","grad_x":false,"grad_y":false},"force_earliest_schedule":false}
  %get-tuple-element.45.0 = bf16[64,1024]{1,0} get-tuple-element((bf16[64,1024]{1,0}, s8[4194304]{0}) %custom-call.92.0), index=0, metadata={op_type="aten__mm" op_name="aten__mm" source_file="/usr/local/lib/python3.10/site-packages/torch/_ops.py" source_line=756}
  %fusion.267 = bf16[64,1024]{1,0} fusion(f32[] %p.25, bf16[64,1024]{1,0} %get-tuple-element.45.0, bf16[1024]{0} %p.95, f32[64,1024]{1,0} %loop_add_fusion.4, bf16[64,1024]{1,0} %get-tuple-element.41.0, /*index=5*/bf16[64,23552]{1,0} %gemm_fusion_dot.92.0, bf16[64,1024]{1,0} %get-tuple-element.43.0), kind=kCustom, calls=%fused_computation.216, metadata={op_type="xla__cast" op_name="xla__cast" source_file="/usr/local/lib/python3.10/site-packages/torch/_ops.py" source_line=756}, backend_config={"operation_queue_id":"0","wait_on_operation_queues":[],"fusion_backend_config":{"kind":"__triton","block_level_fusion_config":{"output_tiles":[{"sizes":["1","1024"]}],"num_warps":"2"}},"force_earliest_schedule":false}
  %custom-call.93.0 = (bf16[64,4096]{1,0}, s8[4194304]{0}) custom-call(bf16[64,1024]{1,0} %fusion.267, bf16[4096,1024]{1,0} %p.96), custom_call_target="__cublas$gemm", metadata={op_type="aten__mm" op_name="aten__mm" source_file="/usr/local/lib/python3.10/site-packages/torch/_ops.py" source_line=756}, backend_config={"operation_queue_id":"0","wait_on_operation_queues":[],"gemm_backend_config":{"alpha_real":1,"alpha_imag":0,"beta":0,"dot_dimension_numbers":{"lhs_contracting_dimensions":["1"],"rhs_contracting_dimensions":["1"],"lhs_batch_dimensions":[],"rhs_batch_dimensions":[]},"precision_config":{"operand_precision":["DEFAULT","DEFAULT"],"algorithm":"ALG_UNSET"},"epilogue":"DEFAULT","damax_output":false,"lhs_stride":"65536","rhs_stride":"4194304","grad_x":false,"grad_y":false},"force_earliest_schedule":false}
  %get-tuple-element.46.0 = bf16[64,4096]{1,0} get-tuple-element((bf16[64,4096]{1,0}, s8[4194304]{0}) %custom-call.93.0), index=0, metadata={op_type="aten__mm" op_name="aten__mm" source_file="/usr/local/lib/python3.10/site-packages/torch/_ops.py" source_line=756}
  %wrapped_slice = bf16[64,1024]{1,0} fusion(bf16[64,4096]{1,0} %get-tuple-element.46.0), kind=kLoop, calls=%wrapped_slice_computation, metadata={op_type="aten__split" op_name="aten__split" source_file="/usr/local/lib/python3.10/site-packages/torch/_ops.py" source_line=756}
  %triton_softmax.25.0 = f32[64,8,128]{2,1,0} fusion(f32[] %p.25, bf16[64,4096]{1,0} %get-tuple-element.46.0), kind=kCustom, calls=%triton_softmax_computation.25, metadata={op_type="aten__mul" op_name="aten__mul.1433/aten__mul" source_file="/usr/local/lib/python3.10/site-packages/torch/_ops.py" source_line=756}, backend_config={"operation_queue_id":"0","wait_on_operation_queues":[],"fusion_backend_config":{"kind":"__triton","block_level_fusion_config":{"output_tiles":[{"sizes":["1","4","128"]}],"num_warps":"2"}},"force_earliest_schedule":false}
  %input_concatenate_fusion = bf16[64,8,128]{2,1,0} fusion(f32[64,8,128]{2,1,0} %triton_softmax.25.0, bf16[128]{0} %p.97, bf16[40960,128]{1,0} %p.98, s32[64]{0} %p.99), kind=kInput, calls=%fused_concatenate, metadata={op_type="aten__cat" op_name="aten__cat" source_file="/usr/local/lib/python3.10/site-packages/torch/_ops.py" source_line=756}
  %bitcast.4671.0 = bf16[64,8,128]{2,1,0} bitcast(bf16[64,1024]{1,0} %wrapped_slice)
  %loop_slice_fusion = bf16[69353472]{0} fusion(bf16[2,4233,16,8,128]{4,3,2,1,0} %p.100), kind=kLoop, calls=%fused_slice, metadata={op_type="aten__as_strided" op_name="aten__as_strided" source_file="/usr/local/lib/python3.10/site-packages/torch/_higher_order_ops/auto_functionalize.py" source_line=54}
  %bitcast.4683.0 = bf16[4233,16,8,128]{3,2,1,0} bitcast(bf16[69353472]{0} %loop_slice_fusion)
  %wrapped_slice.1 = bf16[1,4233,16,8,128]{4,3,2,1,0} fusion(bf16[2,4233,16,8,128]{4,3,2,1,0} %p.100), kind=kLoop, calls=%wrapped_slice_computation.1, metadata={op_type="aten__as_strided" op_name="aten__as_strided" source_file="/usr/local/lib/python3.10/site-packages/torch/_higher_order_ops/auto_functionalize.py" source_line=54}
  ROOT %tuple = (bf16[64,8,128]{2,1,0}, bf16[64,8,128]{2,1,0}, bf16[4233,16,8,128]{3,2,1,0}, bf16[1,4233,16,8,128]{4,3,2,1,0}) tuple(bf16[64,8,128]{2,1,0} %input_concatenate_fusion, bf16[64,8,128]{2,1,0} %bitcast.4671.0, bf16[4233,16,8,128]{3,2,1,0} %bitcast.4683.0, bf16[1,4233,16,8,128]{4,3,2,1,0} %wrapped_slice.1)
}

ENTRY %SyncTensorsGraph.1847 (p0.1.0: bf16[128], p1.4.0: f32[], p2.6.0: bf16[4096,1024], p3.8.0: bf16[1024], p4.58.0: s32[64], p5.60.0: bf16[151936,1024], p6.64.0: bf16[1024,2048], p7.80.0: bf16[1024,3072], p8.82.0: bf16[6144,1024], p9.84.0: bf16[1024], p10.136.0: bf16[1024,2048], p11.152.0: bf16[1024,3072], p12.154.0: bf16[6144,1024], p13.156.0: bf16[1024], p14.208.0: bf16[1024,2048], p15.224.0: bf16[1024,3072], p16.226.0: bf16[6144,1024], p17.228.0: bf16[1024], p18.280.0: bf16[1024,2048], p19.296.0: bf16[1024,3072], p20.298.0: bf16[6144,1024], p21.300.0: bf16[1024], p22.352.0: bf16[1024,2048], p23.368.0: bf16[1024,3072], p24.370.0: bf16[6144,1024], p25.372.0: bf16[1024], p26.424.0: bf16[1024,2048], p27.440.0: bf16[1024,3072], p28.442.0: bf16[6144,1024], p29.444.0: bf16[1024], p30.496.0: bf16[1024,2048], p31.512.0: bf16[1024,3072], p32.514.0: bf16[6144,1024], p33.516.0: bf16[1024], p34.568.0: bf16[1024,2048], p35.584.0: bf16[1024,3072], p36.586.0: bf16[6144,1024], p37.588.0: bf16[1024], p38.640.0: bf16[1024,2048], p39.656.0: bf16[1024,3072], p40.658.0: bf16[6144,1024], p41.660.0: bf16[1024], p42.712.0: bf16[1024,2048], p43.728.0: bf16[1024,3072], p44.730.0: bf16[6144,1024], p45.732.0: bf16[1024], p46.784.0: bf16[1024,2048], p47.800.0: bf16[1024,3072], p48.802.0: bf16[6144,1024], p49.804.0: bf16[1024], p50.856.0: bf16[1024,2048], p51.872.0: bf16[1024,3072], p52.874.0: bf16[6144,1024], p53.876.0: bf16[1024], p54.928.0: bf16[1024,2048], p55.944.0: bf16[1024,3072], p56.946.0: bf16[6144,1024], p57.948.0: bf16[1024], p58.1000.0: bf16[1024,2048], p59.1016.0: bf16[1024,3072], p60.1018.0: bf16[6144,1024], p61.1020.0: bf16[1024], p62.1072.0: bf16[1024,2048], p63.1088.0: bf16[1024,3072], p64.1090.0: bf16[6144,1024], p65.1092.0: bf16[1024], p66.1144.0: bf16[1024,2048], p67.1160.0: bf16[1024,3072], p68.1162.0: bf16[6144,1024], p69.1164.0: bf16[1024], p70.1216.0: bf16[1024,2048], p71.1232.0: bf16[1024,3072], p72.1234.0: bf16[6144,1024], p73.1236.0: bf16[1024], p74.1288.0: bf16[1024,2048], p75.1304.0: bf16[1024,3072], p76.1306.0: bf16[6144,1024], p77.1308.0: bf16[1024], p78.1360.0: bf16[1024,2048], p79.1376.0: bf16[1024,3072], p80.1378.0: bf16[6144,1024], p81.1380.0: bf16[1024], p82.1432.0: bf16[1024,2048], p83.1448.0: bf16[1024,3072], p84.1450.0: bf16[6144,1024], p85.1452.0: bf16[1024], p86.1504.0: bf16[1024,2048], p87.1520.0: bf16[1024,3072], p88.1522.0: bf16[6144,1024], p89.1524.0: bf16[1024], p90.1576.0: bf16[1024,2048], p91.1592.0: bf16[1024,3072], p92.1594.0: bf16[6144,1024], p93.1596.0: bf16[1024], p94.1648.0: bf16[1024,2048], p95.1664.0: bf16[1024,3072], p96.1666.0: bf16[6144,1024], p97.1668.0: bf16[1024], p98.1792.0: s32[64], p99.1793.0: bf16[40960,128], p100.1837.0: bf16[2,4233,16,8,128]) -> (bf16[64,8,128], bf16[64,8,128], bf16[4233,16,8,128], bf16[4233,16,8,128]) {
  %p1.4.0 = f32[] parameter(1), metadata={op_type="xla__device_data" op_name="xla__device_data" source_file="/usr/local/lib/python3.10/site-packages/torch/_ops.py" source_line=756}
  %p100.1837.0 = bf16[2,4233,16,8,128]{4,3,2,1,0} parameter(100), metadata={op_type="xla__device_data" op_name="xla__device_data" source_file="/usr/local/lib/python3.10/site-packages/torch_xla/_dynamo/dynamo_bridge.py" source_line=355}
  %p99.1793.0 = bf16[40960,128]{1,0} parameter(99), metadata={op_type="xla__device_data" op_name="xla__device_data" source_file="/usr/local/lib/python3.10/site-packages/torch_xla/_dynamo/dynamo_bridge.py" source_line=355}
  %p98.1792.0 = s32[64]{0} parameter(98), metadata={op_type="xla__device_data" op_name="xla__device_data" source_file="/usr/local/lib/python3.10/site-packages/torch_xla/_dynamo/dynamo_bridge.py" source_line=355}
  %p97.1668.0 = bf16[1024]{0} parameter(97), metadata={op_type="xla__device_data" op_name="xla__device_data" source_file="/usr/local/lib/python3.10/site-packages/torch_xla/_dynamo/dynamo_bridge.py" source_line=355}
  %p96.1666.0 = bf16[6144,1024]{1,0} parameter(96), metadata={op_type="xla__device_data" op_name="xla__device_data" source_file="/usr/local/lib/python3.10/site-packages/torch_xla/_dynamo/dynamo_bridge.py" source_line=355}
  %p95.1664.0 = bf16[1024,3072]{1,0} parameter(95), metadata={op_type="xla__device_data" op_name="xla__device_data" source_file="/usr/local/lib/python3.10/site-packages/torch_xla/_dynamo/dynamo_bridge.py" source_line=355}
  %p94.1648.0 = bf16[1024,2048]{1,0} parameter(94), metadata={op_type="xla__device_data" op_name="xla__device_data" source_file="/usr/local/lib/python3.10/site-packages/torch_xla/_dynamo/dynamo_bridge.py" source_line=355}
  %p93.1596.0 = bf16[1024]{0} parameter(93), metadata={op_type="xla__device_data" op_name="xla__device_data" source_file="/usr/local/lib/python3.10/site-packages/torch_xla/_dynamo/dynamo_bridge.py" source_line=355}
  %p92.1594.0 = bf16[6144,1024]{1,0} parameter(92), metadata={op_type="xla__device_data" op_name="xla__device_data" source_file="/usr/local/lib/python3.10/site-packages/torch_xla/_dynamo/dynamo_bridge.py" source_line=355}
  %p91.1592.0 = bf16[1024,3072]{1,0} parameter(91), metadata={op_type="xla__device_data" op_name="xla__device_data" source_file="/usr/local/lib/python3.10/site-packages/torch_xla/_dynamo/dynamo_bridge.py" source_line=355}
  %p90.1576.0 = bf16[1024,2048]{1,0} parameter(90), metadata={op_type="xla__device_data" op_name="xla__device_data" source_file="/usr/local/lib/python3.10/site-packages/torch_xla/_dynamo/dynamo_bridge.py" source_line=355}
  %p89.1524.0 = bf16[1024]{0} parameter(89), metadata={op_type="xla__device_data" op_name="xla__device_data" source_file="/usr/local/lib/python3.10/site-packages/torch_xla/_dynamo/dynamo_bridge.py" source_line=355}
  %p88.1522.0 = bf16[6144,1024]{1,0} parameter(88), metadata={op_type="xla__device_data" op_name="xla__device_data" source_file="/usr/local/lib/python3.10/site-packages/torch_xla/_dynamo/dynamo_bridge.py" source_line=355}
  %p87.1520.0 = bf16[1024,3072]{1,0} parameter(87), metadata={op_type="xla__device_data" op_name="xla__device_data" source_file="/usr/local/lib/python3.10/site-packages/torch_xla/_dynamo/dynamo_bridge.py" source_line=355}
  %p86.1504.0 = bf16[1024,2048]{1,0} parameter(86), metadata={op_type="xla__device_data" op_name="xla__device_data" source_file="/usr/local/lib/python3.10/site-packages/torch_xla/_dynamo/dynamo_bridge.py" source_line=355}
  %p85.1452.0 = bf16[1024]{0} parameter(85), metadata={op_type="xla__device_data" op_name="xla__device_data" source_file="/usr/local/lib/python3.10/site-packages/torch_xla/_dynamo/dynamo_bridge.py" source_line=355}
  %p84.1450.0 = bf16[6144,1024]{1,0} parameter(84), metadata={op_type="xla__device_data" op_name="xla__device_data" source_file="/usr/local/lib/python3.10/site-packages/torch_xla/_dynamo/dynamo_bridge.py" source_line=355}
  %p83.1448.0 = bf16[1024,3072]{1,0} parameter(83), metadata={op_type="xla__device_data" op_name="xla__device_data" source_file="/usr/local/lib/python3.10/site-packages/torch_xla/_dynamo/dynamo_bridge.py" source_line=355}
  %p82.1432.0 = bf16[1024,2048]{1,0} parameter(82), metadata={op_type="xla__device_data" op_name="xla__device_data" source_file="/usr/local/lib/python3.10/site-packages/torch_xla/_dynamo/dynamo_bridge.py" source_line=355}
  %p81.1380.0 = bf16[1024]{0} parameter(81), metadata={op_type="xla__device_data" op_name="xla__device_data" source_file="/usr/local/lib/python3.10/site-packages/torch_xla/_dynamo/dynamo_bridge.py" source_line=355}
  %p80.1378.0 = bf16[6144,1024]{1,0} parameter(80), metadata={op_type="xla__device_data" op_name="xla__device_data" source_file="/usr/local/lib/python3.10/site-packages/torch_xla/_dynamo/dynamo_bridge.py" source_line=355}
  %p79.1376.0 = bf16[1024,3072]{1,0} parameter(79), metadata={op_type="xla__device_data" op_name="xla__device_data" source_file="/usr/local/lib/python3.10/site-packages/torch_xla/_dynamo/dynamo_bridge.py" source_line=355}
  %p78.1360.0 = bf16[1024,2048]{1,0} parameter(78), metadata={op_type="xla__device_data" op_name="xla__device_data" source_file="/usr/local/lib/python3.10/site-packages/torch_xla/_dynamo/dynamo_bridge.py" source_line=355}
  %p77.1308.0 = bf16[1024]{0} parameter(77), metadata={op_type="xla__device_data" op_name="xla__device_data" source_file="/usr/local/lib/python3.10/site-packages/torch_xla/_dynamo/dynamo_bridge.py" source_line=355}
  %p76.1306.0 = bf16[6144,1024]{1,0} parameter(76), metadata={op_type="xla__device_data" op_name="xla__device_data" source_file="/usr/local/lib/python3.10/site-packages/torch_xla/_dynamo/dynamo_bridge.py" source_line=355}
  %p75.1304.0 = bf16[1024,3072]{1,0} parameter(75), metadata={op_type="xla__device_data" op_name="xla__device_data" source_file="/usr/local/lib/python3.10/site-packages/torch_xla/_dynamo/dynamo_bridge.py" source_line=355}
  %p74.1288.0 = bf16[1024,2048]{1,0} parameter(74), metadata={op_type="xla__device_data" op_name="xla__device_data" source_file="/usr/local/lib/python3.10/site-packages/torch_xla/_dynamo/dynamo_bridge.py" source_line=355}
  %p73.1236.0 = bf16[1024]{0} parameter(73), metadata={op_type="xla__device_data" op_name="xla__device_data" source_file="/usr/local/lib/python3.10/site-packages/torch_xla/_dynamo/dynamo_bridge.py" source_line=355}
  %p72.1234.0 = bf16[6144,1024]{1,0} parameter(72), metadata={op_type="xla__device_data" op_name="xla__device_data" source_file="/usr/local/lib/python3.10/site-packages/torch_xla/_dynamo/dynamo_bridge.py" source_line=355}
  %p71.1232.0 = bf16[1024,3072]{1,0} parameter(71), metadata={op_type="xla__device_data" op_name="xla__device_data" source_file="/usr/local/lib/python3.10/site-packages/torch_xla/_dynamo/dynamo_bridge.py" source_line=355}
  %p70.1216.0 = bf16[1024,2048]{1,0} parameter(70), metadata={op_type="xla__device_data" op_name="xla__device_data" source_file="/usr/local/lib/python3.10/site-packages/torch_xla/_dynamo/dynamo_bridge.py" source_line=355}
  %p69.1164.0 = bf16[1024]{0} parameter(69), metadata={op_type="xla__device_data" op_name="xla__device_data" source_file="/usr/local/lib/python3.10/site-packages/torch_xla/_dynamo/dynamo_bridge.py" source_line=355}
  %p68.1162.0 = bf16[6144,1024]{1,0} parameter(68), metadata={op_type="xla__device_data" op_name="xla__device_data" source_file="/usr/local/lib/python3.10/site-packages/torch_xla/_dynamo/dynamo_bridge.py" source_line=355}
  %p67.1160.0 = bf16[1024,3072]{1,0} parameter(67), metadata={op_type="xla__device_data" op_name="xla__device_data" source_file="/usr/local/lib/python3.10/site-packages/torch_xla/_dynamo/dynamo_bridge.py" source_line=355}
  %p66.1144.0 = bf16[1024,2048]{1,0} parameter(66), metadata={op_type="xla__device_data" op_name="xla__device_data" source_file="/usr/local/lib/python3.10/site-packages/torch_xla/_dynamo/dynamo_bridge.py" source_line=355}
  %p65.1092.0 = bf16[1024]{0} parameter(65), metadata={op_type="xla__device_data" op_name="xla__device_data" source_file="/usr/local/lib/python3.10/site-packages/torch_xla/_dynamo/dynamo_bridge.py" source_line=355}
  %p64.1090.0 = bf16[6144,1024]{1,0} parameter(64), metadata={op_type="xla__device_data" op_name="xla__device_data" source_file="/usr/local/lib/python3.10/site-packages/torch_xla/_dynamo/dynamo_bridge.py" source_line=355}
  %p63.1088.0 = bf16[1024,3072]{1,0} parameter(63), metadata={op_type="xla__device_data" op_name="xla__device_data" source_file="/usr/local/lib/python3.10/site-packages/torch_xla/_dynamo/dynamo_bridge.py" source_line=355}
  %p62.1072.0 = bf16[1024,2048]{1,0} parameter(62), metadata={op_type="xla__device_data" op_name="xla__device_data" source_file="/usr/local/lib/python3.10/site-packages/torch_xla/_dynamo/dynamo_bridge.py" source_line=355}
  %p61.1020.0 = bf16[1024]{0} parameter(61), metadata={op_type="xla__device_data" op_name="xla__device_data" source_file="/usr/local/lib/python3.10/site-packages/torch_xla/_dynamo/dynamo_bridge.py" source_line=355}
  %p60.1018.0 = bf16[6144,1024]{1,0} parameter(60), metadata={op_type="xla__device_data" op_name="xla__device_data" source_file="/usr/local/lib/python3.10/site-packages/torch_xla/_dynamo/dynamo_bridge.py" source_line=355}
  %p59.1016.0 = bf16[1024,3072]{1,0} parameter(59), metadata={op_type="xla__device_data" op_name="xla__device_data" source_file="/usr/local/lib/python3.10/site-packages/torch_xla/_dynamo/dynamo_bridge.py" source_line=355}
  %p58.1000.0 = bf16[1024,2048]{1,0} parameter(58), metadata={op_type="xla__device_data" op_name="xla__device_data" source_file="/usr/local/lib/python3.10/site-packages/torch_xla/_dynamo/dynamo_bridge.py" source_line=355}
  %p57.948.0 = bf16[1024]{0} parameter(57), metadata={op_type="xla__device_data" op_name="xla__device_data" source_file="/usr/local/lib/python3.10/site-packages/torch_xla/_dynamo/dynamo_bridge.py" source_line=355}
  %p56.946.0 = bf16[6144,1024]{1,0} parameter(56), metadata={op_type="xla__device_data" op_name="xla__device_data" source_file="/usr/local/lib/python3.10/site-packages/torch_xla/_dynamo/dynamo_bridge.py" source_line=355}
  %p55.944.0 = bf16[1024,3072]{1,0} parameter(55), metadata={op_type="xla__device_data" op_name="xla__device_data" source_file="/usr/local/lib/python3.10/site-packages/torch_xla/_dynamo/dynamo_bridge.py" source_line=355}
  %p54.928.0 = bf16[1024,2048]{1,0} parameter(54), metadata={op_type="xla__device_data" op_name="xla__device_data" source_file="/usr/local/lib/python3.10/site-packages/torch_xla/_dynamo/dynamo_bridge.py" source_line=355}
  %p53.876.0 = bf16[1024]{0} parameter(53), metadata={op_type="xla__device_data" op_name="xla__device_data" source_file="/usr/local/lib/python3.10/site-packages/torch_xla/_dynamo/dynamo_bridge.py" source_line=355}
  %p52.874.0 = bf16[6144,1024]{1,0} parameter(52), metadata={op_type="xla__device_data" op_name="xla__device_data" source_file="/usr/local/lib/python3.10/site-packages/torch_xla/_dynamo/dynamo_bridge.py" source_line=355}
  %p51.872.0 = bf16[1024,3072]{1,0} parameter(51), metadata={op_type="xla__device_data" op_name="xla__device_data" source_file="/usr/local/lib/python3.10/site-packages/torch_xla/_dynamo/dynamo_bridge.py" source_line=355}
  %p50.856.0 = bf16[1024,2048]{1,0} parameter(50), metadata={op_type="xla__device_data" op_name="xla__device_data" source_file="/usr/local/lib/python3.10/site-packages/torch_xla/_dynamo/dynamo_bridge.py" source_line=355}
  %p49.804.0 = bf16[1024]{0} parameter(49), metadata={op_type="xla__device_data" op_name="xla__device_data" source_file="/usr/local/lib/python3.10/site-packages/torch_xla/_dynamo/dynamo_bridge.py" source_line=355}
  %p48.802.0 = bf16[6144,1024]{1,0} parameter(48), metadata={op_type="xla__device_data" op_name="xla__device_data" source_file="/usr/local/lib/python3.10/site-packages/torch_xla/_dynamo/dynamo_bridge.py" source_line=355}
  %p47.800.0 = bf16[1024,3072]{1,0} parameter(47), metadata={op_type="xla__device_data" op_name="xla__device_data" source_file="/usr/local/lib/python3.10/site-packages/torch_xla/_dynamo/dynamo_bridge.py" source_line=355}
  %p46.784.0 = bf16[1024,2048]{1,0} parameter(46), metadata={op_type="xla__device_data" op_name="xla__device_data" source_file="/usr/local/lib/python3.10/site-packages/torch_xla/_dynamo/dynamo_bridge.py" source_line=355}
  %p45.732.0 = bf16[1024]{0} parameter(45), metadata={op_type="xla__device_data" op_name="xla__device_data" source_file="/usr/local/lib/python3.10/site-packages/torch_xla/_dynamo/dynamo_bridge.py" source_line=355}
  %p44.730.0 = bf16[6144,1024]{1,0} parameter(44), metadata={op_type="xla__device_data" op_name="xla__device_data" source_file="/usr/local/lib/python3.10/site-packages/torch_xla/_dynamo/dynamo_bridge.py" source_line=355}
  %p43.728.0 = bf16[1024,3072]{1,0} parameter(43), metadata={op_type="xla__device_data" op_name="xla__device_data" source_file="/usr/local/lib/python3.10/site-packages/torch_xla/_dynamo/dynamo_bridge.py" source_line=355}
  %p42.712.0 = bf16[1024,2048]{1,0} parameter(42), metadata={op_type="xla__device_data" op_name="xla__device_data" source_file="/usr/local/lib/python3.10/site-packages/torch_xla/_dynamo/dynamo_bridge.py" source_line=355}
  %p41.660.0 = bf16[1024]{0} parameter(41), metadata={op_type="xla__device_data" op_name="xla__device_data" source_file="/usr/local/lib/python3.10/site-packages/torch_xla/_dynamo/dynamo_bridge.py" source_line=355}
  %p40.658.0 = bf16[6144,1024]{1,0} parameter(40), metadata={op_type="xla__device_data" op_name="xla__device_data" source_file="/usr/local/lib/python3.10/site-packages/torch_xla/_dynamo/dynamo_bridge.py" source_line=355}
  %p39.656.0 = bf16[1024,3072]{1,0} parameter(39), metadata={op_type="xla__device_data" op_name="xla__device_data" source_file="/usr/local/lib/python3.10/site-packages/torch_xla/_dynamo/dynamo_bridge.py" source_line=355}
  %p38.640.0 = bf16[1024,2048]{1,0} parameter(38), metadata={op_type="xla__device_data" op_name="xla__device_data" source_file="/usr/local/lib/python3.10/site-packages/torch_xla/_dynamo/dynamo_bridge.py" source_line=355}
  %p37.588.0 = bf16[1024]{0} parameter(37), metadata={op_type="xla__device_data" op_name="xla__device_data" source_file="/usr/local/lib/python3.10/site-packages/torch_xla/_dynamo/dynamo_bridge.py" source_line=355}
  %p36.586.0 = bf16[6144,1024]{1,0} parameter(36), metadata={op_type="xla__device_data" op_name="xla__device_data" source_file="/usr/local/lib/python3.10/site-packages/torch_xla/_dynamo/dynamo_bridge.py" source_line=355}
  %p35.584.0 = bf16[1024,3072]{1,0} parameter(35), metadata={op_type="xla__device_data" op_name="xla__device_data" source_file="/usr/local/lib/python3.10/site-packages/torch_xla/_dynamo/dynamo_bridge.py" source_line=355}
  %p34.568.0 = bf16[1024,2048]{1,0} parameter(34), metadata={op_type="xla__device_data" op_name="xla__device_data" source_file="/usr/local/lib/python3.10/site-packages/torch_xla/_dynamo/dynamo_bridge.py" source_line=355}
  %p33.516.0 = bf16[1024]{0} parameter(33), metadata={op_type="xla__device_data" op_name="xla__device_data" source_file="/usr/local/lib/python3.10/site-packages/torch_xla/_dynamo/dynamo_bridge.py" source_line=355}
  %p32.514.0 = bf16[6144,1024]{1,0} parameter(32), metadata={op_type="xla__device_data" op_name="xla__device_data" source_file="/usr/local/lib/python3.10/site-packages/torch_xla/_dynamo/dynamo_bridge.py" source_line=355}
  %p31.512.0 = bf16[1024,3072]{1,0} parameter(31), metadata={op_type="xla__device_data" op_name="xla__device_data" source_file="/usr/local/lib/python3.10/site-packages/torch_xla/_dynamo/dynamo_bridge.py" source_line=355}
  %p30.496.0 = bf16[1024,2048]{1,0} parameter(30), metadata={op_type="xla__device_data" op_name="xla__device_data" source_file="/usr/local/lib/python3.10/site-packages/torch_xla/_dynamo/dynamo_bridge.py" source_line=355}
  %p29.444.0 = bf16[1024]{0} parameter(29), metadata={op_type="xla__device_data" op_name="xla__device_data" source_file="/usr/local/lib/python3.10/site-packages/torch_xla/_dynamo/dynamo_bridge.py" source_line=355}
  %p28.442.0 = bf16[6144,1024]{1,0} parameter(28), metadata={op_type="xla__device_data" op_name="xla__device_data" source_file="/usr/local/lib/python3.10/site-packages/torch_xla/_dynamo/dynamo_bridge.py" source_line=355}
  %p27.440.0 = bf16[1024,3072]{1,0} parameter(27), metadata={op_type="xla__device_data" op_name="xla__device_data" source_file="/usr/local/lib/python3.10/site-packages/torch_xla/_dynamo/dynamo_bridge.py" source_line=355}
  %p26.424.0 = bf16[1024,2048]{1,0} parameter(26), metadata={op_type="xla__device_data" op_name="xla__device_data" source_file="/usr/local/lib/python3.10/site-packages/torch_xla/_dynamo/dynamo_bridge.py" source_line=355}
  %p25.372.0 = bf16[1024]{0} parameter(25), metadata={op_type="xla__device_data" op_name="xla__device_data" source_file="/usr/local/lib/python3.10/site-packages/torch_xla/_dynamo/dynamo_bridge.py" source_line=355}
  %p24.370.0 = bf16[6144,1024]{1,0} parameter(24), metadata={op_type="xla__device_data" op_name="xla__device_data" source_file="/usr/local/lib/python3.10/site-packages/torch_xla/_dynamo/dynamo_bridge.py" source_line=355}
  %p23.368.0 = bf16[1024,3072]{1,0} parameter(23), metadata={op_type="xla__device_data" op_name="xla__device_data" source_file="/usr/local/lib/python3.10/site-packages/torch_xla/_dynamo/dynamo_bridge.py" source_line=355}
  %p22.352.0 = bf16[1024,2048]{1,0} parameter(22), metadata={op_type="xla__device_data" op_name="xla__device_data" source_file="/usr/local/lib/python3.10/site-packages/torch_xla/_dynamo/dynamo_bridge.py" source_line=355}
  %p21.300.0 = bf16[1024]{0} parameter(21), metadata={op_type="xla__device_data" op_name="xla__device_data" source_file="/usr/local/lib/python3.10/site-packages/torch_xla/_dynamo/dynamo_bridge.py" source_line=355}
  %p20.298.0 = bf16[6144,1024]{1,0} parameter(20), metadata={op_type="xla__device_data" op_name="xla__device_data" source_file="/usr/local/lib/python3.10/site-packages/torch_xla/_dynamo/dynamo_bridge.py" source_line=355}
  %p19.296.0 = bf16[1024,3072]{1,0} parameter(19), metadata={op_type="xla__device_data" op_name="xla__device_data" source_file="/usr/local/lib/python3.10/site-packages/torch_xla/_dynamo/dynamo_bridge.py" source_line=355}
  %p18.280.0 = bf16[1024,2048]{1,0} parameter(18), metadata={op_type="xla__device_data" op_name="xla__device_data" source_file="/usr/local/lib/python3.10/site-packages/torch_xla/_dynamo/dynamo_bridge.py" source_line=355}
  %p17.228.0 = bf16[1024]{0} parameter(17), metadata={op_type="xla__device_data" op_name="xla__device_data" source_file="/usr/local/lib/python3.10/site-packages/torch_xla/_dynamo/dynamo_bridge.py" source_line=355}
  %p16.226.0 = bf16[6144,1024]{1,0} parameter(16), metadata={op_type="xla__device_data" op_name="xla__device_data" source_file="/usr/local/lib/python3.10/site-packages/torch_xla/_dynamo/dynamo_bridge.py" source_line=355}
  %p15.224.0 = bf16[1024,3072]{1,0} parameter(15), metadata={op_type="xla__device_data" op_name="xla__device_data" source_file="/usr/local/lib/python3.10/site-packages/torch_xla/_dynamo/dynamo_bridge.py" source_line=355}
  %p14.208.0 = bf16[1024,2048]{1,0} parameter(14), metadata={op_type="xla__device_data" op_name="xla__device_data" source_file="/usr/local/lib/python3.10/site-packages/torch_xla/_dynamo/dynamo_bridge.py" source_line=355}
  %p13.156.0 = bf16[1024]{0} parameter(13), metadata={op_type="xla__device_data" op_name="xla__device_data" source_file="/usr/local/lib/python3.10/site-packages/torch_xla/_dynamo/dynamo_bridge.py" source_line=355}
  %p12.154.0 = bf16[6144,1024]{1,0} parameter(12), metadata={op_type="xla__device_data" op_name="xla__device_data" source_file="/usr/local/lib/python3.10/site-packages/torch_xla/_dynamo/dynamo_bridge.py" source_line=355}
  %p11.152.0 = bf16[1024,3072]{1,0} parameter(11), metadata={op_type="xla__device_data" op_name="xla__device_data" source_file="/usr/local/lib/python3.10/site-packages/torch_xla/_dynamo/dynamo_bridge.py" source_line=355}
  %p10.136.0 = bf16[1024,2048]{1,0} parameter(10), metadata={op_type="xla__device_data" op_name="xla__device_data" source_file="/usr/local/lib/python3.10/site-packages/torch_xla/_dynamo/dynamo_bridge.py" source_line=355}
  %p9.84.0 = bf16[1024]{0} parameter(9), metadata={op_type="xla__device_data" op_name="xla__device_data" source_file="/usr/local/lib/python3.10/site-packages/torch_xla/_dynamo/dynamo_bridge.py" source_line=355}
  %p8.82.0 = bf16[6144,1024]{1,0} parameter(8), metadata={op_type="xla__device_data" op_name="xla__device_data" source_file="/usr/local/lib/python3.10/site-packages/torch_xla/_dynamo/dynamo_bridge.py" source_line=355}
  %p7.80.0 = bf16[1024,3072]{1,0} parameter(7), metadata={op_type="xla__device_data" op_name="xla__device_data" source_file="/usr/local/lib/python3.10/site-packages/torch_xla/_dynamo/dynamo_bridge.py" source_line=355}
  %p6.64.0 = bf16[1024,2048]{1,0} parameter(6), metadata={op_type="xla__device_data" op_name="xla__device_data" source_file="/usr/local/lib/python3.10/site-packages/torch_xla/_dynamo/dynamo_bridge.py" source_line=355}
  %p5.60.0 = bf16[151936,1024]{1,0} parameter(5), metadata={op_type="xla__device_data" op_name="xla__device_data" source_file="/usr/local/lib/python3.10/site-packages/torch_xla/_dynamo/dynamo_bridge.py" source_line=355}
  %p4.58.0 = s32[64]{0} parameter(4), metadata={op_type="xla__device_data" op_name="xla__device_data" source_file="/usr/local/lib/python3.10/site-packages/torch_xla/_dynamo/dynamo_bridge.py" source_line=355}
  %p3.8.0 = bf16[1024]{0} parameter(3), metadata={op_type="xla__device_data" op_name="xla__device_data" source_file="/usr/local/lib/python3.10/site-packages/torch_xla/_dynamo/dynamo_bridge.py" source_line=355}
  %p2.6.0 = bf16[4096,1024]{1,0} parameter(2), metadata={op_type="xla__device_data" op_name="xla__device_data" source_file="/usr/local/lib/python3.10/site-packages/torch_xla/_dynamo/dynamo_bridge.py" source_line=355}
  %p0.1.0 = bf16[128]{0} parameter(0), metadata={op_type="xla__device_data" op_name="xla__device_data" source_file="/usr/local/lib/python3.10/site-packages/torch_xla/_dynamo/dynamo_bridge.py" source_line=355}
  %call = (bf16[64,8,128]{2,1,0}, bf16[64,8,128]{2,1,0}, bf16[4233,16,8,128]{3,2,1,0}, bf16[1,4233,16,8,128]{4,3,2,1,0}) call(bf16[151936,1024]{1,0} %p5.60.0, s32[64]{0} %p4.58.0, bf16[1024,2048]{1,0} %p94.1648.0, bf16[1024,2048]{1,0} %p90.1576.0, bf16[1024,2048]{1,0} %p86.1504.0, /*index=5*/bf16[1024,2048]{1,0} %p82.1432.0, bf16[1024,2048]{1,0} %p78.1360.0, bf16[1024,2048]{1,0} %p74.1288.0, bf16[1024,2048]{1,0} %p70.1216.0, bf16[1024,2048]{1,0} %p66.1144.0, /*index=10*/bf16[1024,2048]{1,0} %p62.1072.0, bf16[1024,2048]{1,0} %p58.1000.0, bf16[1024,2048]{1,0} %p54.928.0, bf16[1024,2048]{1,0} %p50.856.0, bf16[1024,2048]{1,0} %p46.784.0, /*index=15*/bf16[1024,2048]{1,0} %p42.712.0, bf16[1024,2048]{1,0} %p38.640.0, bf16[1024,2048]{1,0} %p34.568.0, bf16[1024,2048]{1,0} %p30.496.0, bf16[1024,2048]{1,0} %p26.424.0, /*index=20*/bf16[1024,2048]{1,0} %p22.352.0, bf16[1024,2048]{1,0} %p18.280.0, bf16[1024,2048]{1,0} %p14.208.0, bf16[1024,2048]{1,0} %p10.136.0, bf16[1024,2048]{1,0} %p6.64.0, /*index=25*/f32[] %p1.4.0, bf16[1024]{0} %p9.84.0, bf16[6144,1024]{1,0} %p8.82.0, bf16[1024,3072]{1,0} %p7.80.0, bf16[1024]{0} %p13.156.0, /*index=30*/bf16[6144,1024]{1,0} %p12.154.0, bf16[1024,3072]{1,0} %p11.152.0, bf16[1024]{0} %p17.228.0, bf16[6144,1024]{1,0} %p16.226.0, bf16[1024,3072]{1,0} %p15.224.0, /*index=35*/bf16[1024]{0} %p21.300.0, bf16[6144,1024]{1,0} %p20.298.0, bf16[1024,3072]{1,0} %p19.296.0, bf16[1024]{0} %p25.372.0, bf16[6144,1024]{1,0} %p24.370.0, /*index=40*/bf16[1024,3072]{1,0} %p23.368.0, bf16[1024]{0} %p29.444.0, bf16[6144,1024]{1,0} %p28.442.0, bf16[1024,3072]{1,0} %p27.440.0, bf16[1024]{0} %p33.516.0, /*index=45*/bf16[6144,1024]{1,0} %p32.514.0, bf16[1024,3072]{1,0} %p31.512.0, bf16[1024]{0} %p37.588.0, bf16[6144,1024]{1,0} %p36.586.0, bf16[1024,3072]{1,0} %p35.584.0, /*index=50*/bf16[1024]{0} %p41.660.0, bf16[6144,1024]{1,0} %p40.658.0, bf16[1024,3072]{1,0} %p39.656.0, bf16[1024]{0} %p45.732.0, bf16[6144,1024]{1,0} %p44.730.0, /*index=55*/bf16[1024,3072]{1,0} %p43.728.0, bf16[1024]{0} %p49.804.0, bf16[6144,1024]{1,0} %p48.802.0, bf16[1024,3072]{1,0} %p47.800.0, bf16[1024]{0} %p53.876.0, /*index=60*/bf16[6144,1024]{1,0} %p52.874.0, bf16[1024,3072]{1,0} %p51.872.0, bf16[1024]{0} %p57.948.0, bf16[6144,1024]{1,0} %p56.946.0, bf16[1024,3072]{1,0} %p55.944.0, /*index=65*/bf16[1024]{0} %p61.1020.0, bf16[6144,1024]{1,0} %p60.1018.0, bf16[1024,3072]{1,0} %p59.1016.0, bf16[1024]{0} %p65.1092.0, bf16[6144,1024]{1,0} %p64.1090.0, /*index=70*/bf16[1024,3072]{1,0} %p63.1088.0, bf16[1024]{0} %p69.1164.0, bf16[6144,1024]{1,0} %p68.1162.0, bf16[1024,3072]{1,0} %p67.1160.0, bf16[1024]{0} %p73.1236.0, /*index=75*/bf16[6144,1024]{1,0} %p72.1234.0, bf16[1024,3072]{1,0} %p71.1232.0, bf16[1024]{0} %p77.1308.0, bf16[6144,1024]{1,0} %p76.1306.0, bf16[1024,3072]{1,0} %p75.1304.0, /*index=80*/bf16[1024]{0} %p81.1380.0, bf16[6144,1024]{1,0} %p80.1378.0, bf16[1024,3072]{1,0} %p79.1376.0, bf16[1024]{0} %p85.1452.0, bf16[6144,1024]{1,0} %p84.1450.0, /*index=85*/bf16[1024,3072]{1,0} %p83.1448.0, bf16[1024]{0} %p89.1524.0, bf16[6144,1024]{1,0} %p88.1522.0, bf16[1024,3072]{1,0} %p87.1520.0, bf16[1024]{0} %p93.1596.0, /*index=90*/bf16[6144,1024]{1,0} %p92.1594.0, bf16[1024,3072]{1,0} %p91.1592.0, bf16[1024]{0} %p97.1668.0, bf16[6144,1024]{1,0} %p96.1666.0, bf16[1024,3072]{1,0} %p95.1664.0, /*index=95*/bf16[1024]{0} %p3.8.0, bf16[4096,1024]{1,0} %p2.6.0, bf16[128]{0} %p0.1.0, bf16[40960,128]{1,0} %p99.1793.0, s32[64]{0} %p98.1792.0, /*index=100*/bf16[2,4233,16,8,128]{4,3,2,1,0} %p100.1837.0), to_apply=%command_buffer
  %get-tuple-element.49 = bf16[64,8,128]{2,1,0} get-tuple-element((bf16[64,8,128]{2,1,0}, bf16[64,8,128]{2,1,0}, bf16[4233,16,8,128]{3,2,1,0}, bf16[1,4233,16,8,128]{4,3,2,1,0}) %call), index=0
  %get-tuple-element.50 = bf16[64,8,128]{2,1,0} get-tuple-element((bf16[64,8,128]{2,1,0}, bf16[64,8,128]{2,1,0}, bf16[4233,16,8,128]{3,2,1,0}, bf16[1,4233,16,8,128]{4,3,2,1,0}) %call), index=1
  %get-tuple-element.51 = bf16[4233,16,8,128]{3,2,1,0} get-tuple-element((bf16[64,8,128]{2,1,0}, bf16[64,8,128]{2,1,0}, bf16[4233,16,8,128]{3,2,1,0}, bf16[1,4233,16,8,128]{4,3,2,1,0}) %call), index=2
  %get-tuple-element.52 = bf16[1,4233,16,8,128]{4,3,2,1,0} get-tuple-element((bf16[64,8,128]{2,1,0}, bf16[64,8,128]{2,1,0}, bf16[4233,16,8,128]{3,2,1,0}, bf16[1,4233,16,8,128]{4,3,2,1,0}) %call), index=3
  %bitcast.4676.0 = bf16[4233,16,8,128]{3,2,1,0} bitcast(bf16[1,4233,16,8,128]{4,3,2,1,0} %get-tuple-element.52)
  ROOT %tuple.1846.0 = (bf16[64,8,128]{2,1,0}, bf16[64,8,128]{2,1,0}, bf16[4233,16,8,128]{3,2,1,0}, bf16[4233,16,8,128]{3,2,1,0}) tuple(bf16[64,8,128]{2,1,0} %get-tuple-element.49, bf16[64,8,128]{2,1,0} %get-tuple-element.50, bf16[4233,16,8,128]{3,2,1,0} %bitcast.4676.0, bf16[4233,16,8,128]{3,2,1,0} %get-tuple-element.51)
}

