HloModule SyncTensorsGraph.293, entry_computation_layout={(bf16[128]{0}, f32[], bf16[4096,1024]{1,0}, bf16[1024]{0}, s32[16]{0}, /*index=5*/bf16[151936,1024]{1,0}, bf16[1024,2048]{1,0}, bf16[1024,3072]{1,0}, bf16[6144,1024]{1,0}, bf16[1024]{0}, /*index=10*/bf16[1024,2048]{1,0}, bf16[1024,3072]{1,0}, bf16[6144,1024]{1,0}, bf16[1024]{0}, s32[16]{0}, /*index=15*/bf16[40960,128]{1,0}, bf16[2,4233,16,8,128]{4,3,2,1,0})->(bf16[16,8,128]{2,1,0}, bf16[16,8,128]{2,1,0}, bf16[4233,16,8,128]{3,2,1,0}, bf16[4233,16,8,128]{3,2,1,0})}

%AddComputation.50 (x.51: f32[], y.52: f32[]) -> f32[] {
  %x.51 = f32[] parameter(0)
  %y.52 = f32[] parameter(1)
  ROOT %add.53 = f32[] add(f32[] %x.51, f32[] %y.52)
}

%AddComputation.122 (x.123: f32[], y.124: f32[]) -> f32[] {
  %x.123 = f32[] parameter(0)
  %y.124 = f32[] parameter(1)
  ROOT %add.125 = f32[] add(f32[] %x.123, f32[] %y.124)
}

%AddComputation.168 (x.169: f32[], y.170: f32[]) -> f32[] {
  %x.169 = f32[] parameter(0)
  %y.170 = f32[] parameter(1)
  ROOT %add.171 = f32[] add(f32[] %x.169, f32[] %y.170)
}

%AddComputation.206 (x.207: f32[], y.208: f32[]) -> f32[] {
  %x.207 = f32[] parameter(0)
  %y.208 = f32[] parameter(1)
  ROOT %add.209 = f32[] add(f32[] %x.207, f32[] %y.208)
}

ENTRY %SyncTensorsGraph.293 (p0.1: bf16[128], p1.4: f32[], p2.6: bf16[4096,1024], p3.8: bf16[1024], p4.16: s32[16], p5.18: bf16[151936,1024], p6.22: bf16[1024,2048], p7.38: bf16[1024,3072], p8.40: bf16[6144,1024], p9.42: bf16[1024], p10.94: bf16[1024,2048], p11.110: bf16[1024,3072], p12.112: bf16[6144,1024], p13.114: bf16[1024], p14.238: s32[16], p15.239: bf16[40960,128], p16.283: bf16[2,4233,16,8,128]) -> (bf16[16,8,128], bf16[16,8,128], bf16[4233,16,8,128], bf16[4233,16,8,128]) {
  %constant.96 = bf16[] constant(0), metadata={op_type="prim__Constant" op_name="prim__Constant" source_file="/usr/local/lib/python3.10/site-packages/torch/_ops.py" source_line=756}
  %reshape.97 = bf16[1,1]{1,0} reshape(bf16[] %constant.96), metadata={op_type="aten__expand" op_name="aten__expand" source_file="/usr/local/lib/python3.10/site-packages/torch/_ops.py" source_line=756}
  %broadcast.98 = bf16[1,1]{1,0} broadcast(bf16[1,1]{1,0} %reshape.97), dimensions={0,1}, metadata={op_type="aten__expand" op_name="aten__expand" source_file="/usr/local/lib/python3.10/site-packages/torch/_ops.py" source_line=756}
  %reshape.99 = bf16[] reshape(bf16[1,1]{1,0} %broadcast.98), metadata={op_type="aten__expand" op_name="aten__expand" source_file="/usr/local/lib/python3.10/site-packages/torch/_ops.py" source_line=756}
  %broadcast.100 = bf16[16,2048]{1,0} broadcast(bf16[] %reshape.99), dimensions={}, metadata={op_type="aten__expand" op_name="aten__expand" source_file="/usr/local/lib/python3.10/site-packages/torch/_ops.py" source_line=756}
  %reshape.101 = bf16[16,16,128]{2,1,0} reshape(bf16[16,2048]{1,0} %broadcast.100), metadata={op_type="aten__view" op_name="aten__view" source_file="/usr/local/lib/python3.10/site-packages/torch/_ops.py" source_line=756}
  %reshape.102 = bf16[16,2048]{1,0} reshape(bf16[16,16,128]{2,1,0} %reshape.101), metadata={op_type="aten__view" op_name="aten__view" source_file="/usr/local/lib/python3.10/site-packages/torch/_ops.py" source_line=756}
  %p10.94 = bf16[1024,2048]{1,0} parameter(10), metadata={op_type="xla__device_data" op_name="xla__device_data" source_file="/usr/local/lib/python3.10/site-packages/torch_xla/_dynamo/dynamo_bridge.py" source_line=355}
  %transpose.95 = bf16[2048,1024]{0,1} transpose(bf16[1024,2048]{1,0} %p10.94), dimensions={1,0}, metadata={op_type="aten__permute" op_name="aten__permute" source_file="/usr/local/lib/python3.10/site-packages/torch/_ops.py" source_line=756}
  %dot.103 = bf16[16,1024]{1,0} dot(bf16[16,2048]{1,0} %reshape.102, bf16[2048,1024]{0,1} %transpose.95), lhs_contracting_dims={1}, rhs_contracting_dims={0}, metadata={op_type="aten__mm" op_name="aten__mm" source_file="/usr/local/lib/python3.10/site-packages/torch/_ops.py" source_line=756}
  %convert.104 = f32[16,1024]{1,0} convert(bf16[16,1024]{1,0} %dot.103), metadata={op_type="xla__cast" op_name="xla__cast" source_file="/usr/local/lib/python3.10/site-packages/torch/_ops.py" source_line=756}
  %constant.24 = bf16[] constant(0), metadata={op_type="prim__Constant" op_name="prim__Constant" source_file="/usr/local/lib/python3.10/site-packages/torch/_ops.py" source_line=756}
  %reshape.25 = bf16[1,1]{1,0} reshape(bf16[] %constant.24), metadata={op_type="aten__expand" op_name="aten__expand" source_file="/usr/local/lib/python3.10/site-packages/torch/_ops.py" source_line=756}
  %broadcast.26 = bf16[1,1]{1,0} broadcast(bf16[1,1]{1,0} %reshape.25), dimensions={0,1}, metadata={op_type="aten__expand" op_name="aten__expand" source_file="/usr/local/lib/python3.10/site-packages/torch/_ops.py" source_line=756}
  %reshape.27 = bf16[] reshape(bf16[1,1]{1,0} %broadcast.26), metadata={op_type="aten__expand" op_name="aten__expand" source_file="/usr/local/lib/python3.10/site-packages/torch/_ops.py" source_line=756}
  %broadcast.28 = bf16[16,2048]{1,0} broadcast(bf16[] %reshape.27), dimensions={}, metadata={op_type="aten__expand" op_name="aten__expand" source_file="/usr/local/lib/python3.10/site-packages/torch/_ops.py" source_line=756}
  %reshape.29 = bf16[16,16,128]{2,1,0} reshape(bf16[16,2048]{1,0} %broadcast.28), metadata={op_type="aten__view" op_name="aten__view" source_file="/usr/local/lib/python3.10/site-packages/torch/_ops.py" source_line=756}
  %reshape.30 = bf16[16,2048]{1,0} reshape(bf16[16,16,128]{2,1,0} %reshape.29), metadata={op_type="aten__view" op_name="aten__view" source_file="/usr/local/lib/python3.10/site-packages/torch/_ops.py" source_line=756}
  %p6.22 = bf16[1024,2048]{1,0} parameter(6), metadata={op_type="xla__device_data" op_name="xla__device_data" source_file="/usr/local/lib/python3.10/site-packages/torch_xla/_dynamo/dynamo_bridge.py" source_line=355}
  %transpose.23 = bf16[2048,1024]{0,1} transpose(bf16[1024,2048]{1,0} %p6.22), dimensions={1,0}, metadata={op_type="aten__permute" op_name="aten__permute" source_file="/usr/local/lib/python3.10/site-packages/torch/_ops.py" source_line=756}
  %dot.31 = bf16[16,1024]{1,0} dot(bf16[16,2048]{1,0} %reshape.30, bf16[2048,1024]{0,1} %transpose.23), lhs_contracting_dims={1}, rhs_contracting_dims={0}, metadata={op_type="aten__mm" op_name="aten__mm" source_file="/usr/local/lib/python3.10/site-packages/torch/_ops.py" source_line=756}
  %convert.32 = f32[16,1024]{1,0} convert(bf16[16,1024]{1,0} %dot.31), metadata={op_type="xla__cast" op_name="xla__cast" source_file="/usr/local/lib/python3.10/site-packages/torch/_ops.py" source_line=756}
  %p5.18 = bf16[151936,1024]{1,0} parameter(5), metadata={op_type="xla__device_data" op_name="xla__device_data" source_file="/usr/local/lib/python3.10/site-packages/torch_xla/_dynamo/dynamo_bridge.py" source_line=355}
  %p4.16 = s32[16]{0} parameter(4), metadata={op_type="xla__device_data" op_name="xla__device_data" source_file="/usr/local/lib/python3.10/site-packages/torch_xla/_dynamo/dynamo_bridge.py" source_line=355}
  %convert.17 = s64[16]{0} convert(s32[16]{0} %p4.16), metadata={op_type="xla__cast" op_name="xla__cast" source_file="/usr/local/lib/python3.10/site-packages/torch/_ops.py" source_line=756}
  %convert.19 = u32[16]{0} convert(s64[16]{0} %convert.17), metadata={op_type="aten__index_select" op_name="aten__index_select" source_file="/usr/local/lib/python3.10/site-packages/torch/_ops.py" source_line=756}
  %gather.20 = bf16[16,1024]{1,0} gather(bf16[151936,1024]{1,0} %p5.18, u32[16]{0} %convert.19), offset_dims={1}, collapsed_slice_dims={0}, start_index_map={0}, index_vector_dim=1, slice_sizes={1,1024}, metadata={op_type="aten__index_select" op_name="aten__index_select" source_file="/usr/local/lib/python3.10/site-packages/torch/_ops.py" source_line=756}
  %convert.21 = f32[16,1024]{1,0} convert(bf16[16,1024]{1,0} %gather.20), metadata={op_type="xla__cast" op_name="xla__cast" source_file="/usr/local/lib/python3.10/site-packages/torch/_ops.py" source_line=756}
  %constant.15 = f32[] constant(1), metadata={op_type="prim__Constant" op_name="prim__Constant" source_file="/usr/local/lib/python3.10/site-packages/torch/_ops.py" source_line=756}
  %broadcast.33 = f32[16,1024]{1,0} broadcast(f32[] %constant.15), dimensions={}, metadata={op_type="aten__add" op_name="aten__add.13/aten__add" source_file="/usr/local/lib/python3.10/site-packages/torch/_ops.py" source_line=756}
  %multiply.34 = f32[16,1024]{1,0} multiply(f32[16,1024]{1,0} %convert.21, f32[16,1024]{1,0} %broadcast.33), metadata={op_type="aten__add" op_name="aten__add.13/aten__add" source_file="/usr/local/lib/python3.10/site-packages/torch/_ops.py" source_line=756}
  %add.35 = f32[16,1024]{1,0} add(f32[16,1024]{1,0} %convert.32, f32[16,1024]{1,0} %multiply.34), metadata={op_type="aten__add" op_name="aten__add.13/aten__add" source_file="/usr/local/lib/python3.10/site-packages/torch/_ops.py" source_line=756}
  %constant.45 = f32[] constant(2), metadata={op_type="prim__Constant" op_name="prim__Constant" source_file="/usr/local/lib/python3.10/site-packages/torch/_ops.py" source_line=756}
  %broadcast.46 = f32[16,1024]{1,0} broadcast(f32[] %constant.45), dimensions={}, metadata={op_type="aten__pow" op_name="aten__pow" source_file="/usr/local/lib/python3.10/site-packages/torch/_ops.py" source_line=756}
  %power.47 = f32[16,1024]{1,0} power(f32[16,1024]{1,0} %add.35, f32[16,1024]{1,0} %broadcast.46), metadata={op_type="aten__pow" op_name="aten__pow" source_file="/usr/local/lib/python3.10/site-packages/torch/_ops.py" source_line=756}
  %constant.48 = f32[] constant(0), metadata={op_type="aten__mean" op_name="aten__mean" source_file="/usr/local/lib/python3.10/site-packages/torch/_ops.py" source_line=756}
  %reduce.54 = f32[16]{0} reduce(f32[16,1024]{1,0} %power.47, f32[] %constant.48), dimensions={1}, to_apply=%AddComputation.50, metadata={op_type="aten__mean" op_name="aten__mean" source_file="/usr/local/lib/python3.10/site-packages/torch/_ops.py" source_line=756}
  %constant.49 = s32[] constant(1024), metadata={op_type="aten__mean" op_name="aten__mean" source_file="/usr/local/lib/python3.10/site-packages/torch/_ops.py" source_line=756}
  %constant.55 = s32[] constant(0), metadata={op_type="aten__mean" op_name="aten__mean" source_file="/usr/local/lib/python3.10/site-packages/torch/_ops.py" source_line=756}
  %compare.60 = pred[] compare(s32[] %constant.49, s32[] %constant.55), direction=NE, metadata={op_type="aten__mean" op_name="aten__mean" source_file="/usr/local/lib/python3.10/site-packages/torch/_ops.py" source_line=756}
  %constant.56 = f32[] constant(1), metadata={op_type="aten__mean" op_name="aten__mean" source_file="/usr/local/lib/python3.10/site-packages/torch/_ops.py" source_line=756}
  %convert.58 = f32[] convert(s32[] %constant.49), metadata={op_type="aten__mean" op_name="aten__mean" source_file="/usr/local/lib/python3.10/site-packages/torch/_ops.py" source_line=756}
  %divide.59 = f32[] divide(f32[] %constant.56, f32[] %convert.58), metadata={op_type="aten__mean" op_name="aten__mean" source_file="/usr/local/lib/python3.10/site-packages/torch/_ops.py" source_line=756}
  %constant.57 = f32[] constant(nan), metadata={op_type="aten__mean" op_name="aten__mean" source_file="/usr/local/lib/python3.10/site-packages/torch/_ops.py" source_line=756}
  %select.61 = f32[] select(pred[] %compare.60, f32[] %divide.59, f32[] %constant.57), metadata={op_type="aten__mean" op_name="aten__mean" source_file="/usr/local/lib/python3.10/site-packages/torch/_ops.py" source_line=756}
  %broadcast.62 = f32[16]{0} broadcast(f32[] %select.61), dimensions={}, metadata={op_type="aten__mean" op_name="aten__mean" source_file="/usr/local/lib/python3.10/site-packages/torch/_ops.py" source_line=756}
  %multiply.63 = f32[16]{0} multiply(f32[16]{0} %reduce.54, f32[16]{0} %broadcast.62), metadata={op_type="aten__mean" op_name="aten__mean" source_file="/usr/local/lib/python3.10/site-packages/torch/_ops.py" source_line=756}
  %reshape.64 = f32[16,1]{1,0} reshape(f32[16]{0} %multiply.63), metadata={op_type="aten__mean" op_name="aten__mean" source_file="/usr/local/lib/python3.10/site-packages/torch/_ops.py" source_line=756}
  %convert.65 = f32[16,1]{1,0} convert(f32[16,1]{1,0} %reshape.64), metadata={op_type="aten__mean" op_name="aten__mean" source_file="/usr/local/lib/python3.10/site-packages/torch/_ops.py" source_line=756}
  %p1.4 = f32[] parameter(1), metadata={op_type="xla__device_data" op_name="xla__device_data" source_file="/usr/local/lib/python3.10/site-packages/torch/_ops.py" source_line=756}
  %constant.44 = f32[] constant(1), metadata={op_type="prim__Constant" op_name="prim__Constant" source_file="/usr/local/lib/python3.10/site-packages/torch/_ops.py" source_line=756}
  %multiply.66 = f32[] multiply(f32[] %p1.4, f32[] %constant.44), metadata={op_type="aten__add" op_name="aten__add.14/aten__add" source_file="/usr/local/lib/python3.10/site-packages/torch/_ops.py" source_line=756}
  %broadcast.67 = f32[16,1]{1,0} broadcast(f32[] %multiply.66), dimensions={}, metadata={op_type="aten__add" op_name="aten__add.14/aten__add" source_file="/usr/local/lib/python3.10/site-packages/torch/_ops.py" source_line=756}
  %add.68 = f32[16,1]{1,0} add(f32[16,1]{1,0} %convert.65, f32[16,1]{1,0} %broadcast.67), metadata={op_type="aten__add" op_name="aten__add.14/aten__add" source_file="/usr/local/lib/python3.10/site-packages/torch/_ops.py" source_line=756}
  %rsqrt.69 = f32[16,1]{1,0} rsqrt(f32[16,1]{1,0} %add.68), metadata={op_type="aten__rsqrt" op_name="aten__rsqrt" source_file="/usr/local/lib/python3.10/site-packages/torch/_ops.py" source_line=756}
  %reshape.70 = f32[16]{0} reshape(f32[16,1]{1,0} %rsqrt.69), metadata={op_type="aten__mul" op_name="aten__mul.15/aten__mul" source_file="/usr/local/lib/python3.10/site-packages/torch/_ops.py" source_line=756}
  %broadcast.71 = f32[16,1024]{1,0} broadcast(f32[16]{0} %reshape.70), dimensions={0}, metadata={op_type="aten__mul" op_name="aten__mul.15/aten__mul" source_file="/usr/local/lib/python3.10/site-packages/torch/_ops.py" source_line=756}
  %multiply.72 = f32[16,1024]{1,0} multiply(f32[16,1024]{1,0} %add.35, f32[16,1024]{1,0} %broadcast.71), metadata={op_type="aten__mul" op_name="aten__mul.15/aten__mul" source_file="/usr/local/lib/python3.10/site-packages/torch/_ops.py" source_line=756}
  %convert.73 = bf16[16,1024]{1,0} convert(f32[16,1024]{1,0} %multiply.72), metadata={op_type="xla__cast" op_name="xla__cast" source_file="/usr/local/lib/python3.10/site-packages/torch/_ops.py" source_line=756}
  %convert.74 = f32[16,1024]{1,0} convert(bf16[16,1024]{1,0} %convert.73), metadata={op_type="xla__cast" op_name="xla__cast" source_file="/usr/local/lib/python3.10/site-packages/torch/_ops.py" source_line=756}
  %p9.42 = bf16[1024]{0} parameter(9), metadata={op_type="xla__device_data" op_name="xla__device_data" source_file="/usr/local/lib/python3.10/site-packages/torch_xla/_dynamo/dynamo_bridge.py" source_line=355}
  %convert.43 = f32[1024]{0} convert(bf16[1024]{0} %p9.42), metadata={op_type="xla__cast" op_name="xla__cast" source_file="/usr/local/lib/python3.10/site-packages/torch/_ops.py" source_line=756}
  %broadcast.75 = f32[16,1024]{1,0} broadcast(f32[1024]{0} %convert.43), dimensions={1}, metadata={op_type="aten__mul" op_name="aten__mul.16/aten__mul" source_file="/usr/local/lib/python3.10/site-packages/torch/_ops.py" source_line=756}
  %multiply.76 = f32[16,1024]{1,0} multiply(f32[16,1024]{1,0} %convert.74, f32[16,1024]{1,0} %broadcast.75), metadata={op_type="aten__mul" op_name="aten__mul.16/aten__mul" source_file="/usr/local/lib/python3.10/site-packages/torch/_ops.py" source_line=756}
  %convert.77 = bf16[16,1024]{1,0} convert(f32[16,1024]{1,0} %multiply.76), metadata={op_type="xla__cast" op_name="xla__cast" source_file="/usr/local/lib/python3.10/site-packages/torch/_ops.py" source_line=756}
  %p8.40 = bf16[6144,1024]{1,0} parameter(8), metadata={op_type="xla__device_data" op_name="xla__device_data" source_file="/usr/local/lib/python3.10/site-packages/torch_xla/_dynamo/dynamo_bridge.py" source_line=355}
  %transpose.41 = bf16[1024,6144]{0,1} transpose(bf16[6144,1024]{1,0} %p8.40), dimensions={1,0}, metadata={op_type="aten__permute" op_name="aten__permute" source_file="/usr/local/lib/python3.10/site-packages/torch/_ops.py" source_line=756}
  %dot.78 = bf16[16,6144]{1,0} dot(bf16[16,1024]{1,0} %convert.77, bf16[1024,6144]{0,1} %transpose.41), lhs_contracting_dims={1}, rhs_contracting_dims={0}, metadata={op_type="aten__mm" op_name="aten__mm" source_file="/usr/local/lib/python3.10/site-packages/torch/_ops.py" source_line=756}
  %slice.81 = bf16[16,3072]{1,0} slice(bf16[16,6144]{1,0} %dot.78), slice={[0:16], [0:3072]}, metadata={op_type="xla__select" op_name="xla__select" source_file="/usr/local/lib/python3.10/site-packages/torch/_ops.py" source_line=756}
  %logistic.82 = bf16[16,3072]{1,0} logistic(bf16[16,3072]{1,0} %slice.81), metadata={op_type="aten__silu" op_name="aten__silu" source_file="/usr/local/lib/python3.10/site-packages/torch/_ops.py" source_line=756}
  %multiply.83 = bf16[16,3072]{1,0} multiply(bf16[16,3072]{1,0} %slice.81, bf16[16,3072]{1,0} %logistic.82), metadata={op_type="aten__silu" op_name="aten__silu" source_file="/usr/local/lib/python3.10/site-packages/torch/_ops.py" source_line=756}
  %convert.84 = f32[16,3072]{1,0} convert(bf16[16,3072]{1,0} %multiply.83), metadata={op_type="xla__cast" op_name="xla__cast" source_file="/usr/local/lib/python3.10/site-packages/torch/_ops.py" source_line=756}
  %slice.79 = bf16[16,3072]{1,0} slice(bf16[16,6144]{1,0} %dot.78), slice={[0:16], [3072:6144]}, metadata={op_type="xla__select" op_name="xla__select" source_file="/usr/local/lib/python3.10/site-packages/torch/_ops.py" source_line=756}
  %convert.80 = f32[16,3072]{1,0} convert(bf16[16,3072]{1,0} %slice.79), metadata={op_type="xla__cast" op_name="xla__cast" source_file="/usr/local/lib/python3.10/site-packages/torch/_ops.py" source_line=756}
  %multiply.85 = f32[16,3072]{1,0} multiply(f32[16,3072]{1,0} %convert.84, f32[16,3072]{1,0} %convert.80), metadata={op_type="aten__mul" op_name="aten__mul.17/aten__mul" source_file="/usr/local/lib/python3.10/site-packages/torch/_ops.py" source_line=756}
  %convert.86 = bf16[16,3072]{1,0} convert(f32[16,3072]{1,0} %multiply.85), metadata={op_type="xla__cast" op_name="xla__cast" source_file="/usr/local/lib/python3.10/site-packages/torch/_ops.py" source_line=756}
  %p7.38 = bf16[1024,3072]{1,0} parameter(7), metadata={op_type="xla__device_data" op_name="xla__device_data" source_file="/usr/local/lib/python3.10/site-packages/torch_xla/_dynamo/dynamo_bridge.py" source_line=355}
  %transpose.39 = bf16[3072,1024]{0,1} transpose(bf16[1024,3072]{1,0} %p7.38), dimensions={1,0}, metadata={op_type="aten__permute" op_name="aten__permute" source_file="/usr/local/lib/python3.10/site-packages/torch/_ops.py" source_line=756}
  %dot.87 = bf16[16,1024]{1,0} dot(bf16[16,3072]{1,0} %convert.86, bf16[3072,1024]{0,1} %transpose.39), lhs_contracting_dims={1}, rhs_contracting_dims={0}, metadata={op_type="aten__mm" op_name="aten__mm" source_file="/usr/local/lib/python3.10/site-packages/torch/_ops.py" source_line=756}
  %convert.88 = f32[16,1024]{1,0} convert(bf16[16,1024]{1,0} %dot.87), metadata={op_type="xla__cast" op_name="xla__cast" source_file="/usr/local/lib/python3.10/site-packages/torch/_ops.py" source_line=756}
  %convert.36 = bf16[16,1024]{1,0} convert(f32[16,1024]{1,0} %add.35), metadata={op_type="xla__cast" op_name="xla__cast" source_file="/usr/local/lib/python3.10/site-packages/torch/_ops.py" source_line=756}
  %convert.37 = f32[16,1024]{1,0} convert(bf16[16,1024]{1,0} %convert.36), metadata={op_type="xla__cast" op_name="xla__cast" source_file="/usr/local/lib/python3.10/site-packages/torch/_ops.py" source_line=756}
  %constant.14 = f32[] constant(1), metadata={op_type="prim__Constant" op_name="prim__Constant" source_file="/usr/local/lib/python3.10/site-packages/torch/_ops.py" source_line=756}
  %broadcast.89 = f32[16,1024]{1,0} broadcast(f32[] %constant.14), dimensions={}, metadata={op_type="aten__add" op_name="aten__add.18/aten__add" source_file="/usr/local/lib/python3.10/site-packages/torch/_ops.py" source_line=756}
  %multiply.90 = f32[16,1024]{1,0} multiply(f32[16,1024]{1,0} %convert.37, f32[16,1024]{1,0} %broadcast.89), metadata={op_type="aten__add" op_name="aten__add.18/aten__add" source_file="/usr/local/lib/python3.10/site-packages/torch/_ops.py" source_line=756}
  %add.91 = f32[16,1024]{1,0} add(f32[16,1024]{1,0} %convert.88, f32[16,1024]{1,0} %multiply.90), metadata={op_type="aten__add" op_name="aten__add.18/aten__add" source_file="/usr/local/lib/python3.10/site-packages/torch/_ops.py" source_line=756}
  %convert.92 = bf16[16,1024]{1,0} convert(f32[16,1024]{1,0} %add.91), metadata={op_type="xla__cast" op_name="xla__cast" source_file="/usr/local/lib/python3.10/site-packages/torch/_ops.py" source_line=756}
  %convert.93 = f32[16,1024]{1,0} convert(bf16[16,1024]{1,0} %convert.92), metadata={op_type="xla__cast" op_name="xla__cast" source_file="/usr/local/lib/python3.10/site-packages/torch/_ops.py" source_line=756}
  %constant.13 = f32[] constant(1), metadata={op_type="prim__Constant" op_name="prim__Constant" source_file="/usr/local/lib/python3.10/site-packages/torch/_ops.py" source_line=756}
  %broadcast.105 = f32[16,1024]{1,0} broadcast(f32[] %constant.13), dimensions={}, metadata={op_type="aten__add" op_name="aten__add.31/aten__add" source_file="/usr/local/lib/python3.10/site-packages/torch/_ops.py" source_line=756}
  %multiply.106 = f32[16,1024]{1,0} multiply(f32[16,1024]{1,0} %convert.93, f32[16,1024]{1,0} %broadcast.105), metadata={op_type="aten__add" op_name="aten__add.31/aten__add" source_file="/usr/local/lib/python3.10/site-packages/torch/_ops.py" source_line=756}
  %add.107 = f32[16,1024]{1,0} add(f32[16,1024]{1,0} %convert.104, f32[16,1024]{1,0} %multiply.106), metadata={op_type="aten__add" op_name="aten__add.31/aten__add" source_file="/usr/local/lib/python3.10/site-packages/torch/_ops.py" source_line=756}
  %constant.117 = f32[] constant(2), metadata={op_type="prim__Constant" op_name="prim__Constant" source_file="/usr/local/lib/python3.10/site-packages/torch/_ops.py" source_line=756}
  %broadcast.118 = f32[16,1024]{1,0} broadcast(f32[] %constant.117), dimensions={}, metadata={op_type="aten__pow" op_name="aten__pow" source_file="/usr/local/lib/python3.10/site-packages/torch/_ops.py" source_line=756}
  %power.119 = f32[16,1024]{1,0} power(f32[16,1024]{1,0} %add.107, f32[16,1024]{1,0} %broadcast.118), metadata={op_type="aten__pow" op_name="aten__pow" source_file="/usr/local/lib/python3.10/site-packages/torch/_ops.py" source_line=756}
  %constant.120 = f32[] constant(0), metadata={op_type="aten__mean" op_name="aten__mean" source_file="/usr/local/lib/python3.10/site-packages/torch/_ops.py" source_line=756}
  %reduce.126 = f32[16]{0} reduce(f32[16,1024]{1,0} %power.119, f32[] %constant.120), dimensions={1}, to_apply=%AddComputation.122, metadata={op_type="aten__mean" op_name="aten__mean" source_file="/usr/local/lib/python3.10/site-packages/torch/_ops.py" source_line=756}
  %constant.121 = s32[] constant(1024), metadata={op_type="aten__mean" op_name="aten__mean" source_file="/usr/local/lib/python3.10/site-packages/torch/_ops.py" source_line=756}
  %constant.127 = s32[] constant(0), metadata={op_type="aten__mean" op_name="aten__mean" source_file="/usr/local/lib/python3.10/site-packages/torch/_ops.py" source_line=756}
  %compare.132 = pred[] compare(s32[] %constant.121, s32[] %constant.127), direction=NE, metadata={op_type="aten__mean" op_name="aten__mean" source_file="/usr/local/lib/python3.10/site-packages/torch/_ops.py" source_line=756}
  %constant.128 = f32[] constant(1), metadata={op_type="aten__mean" op_name="aten__mean" source_file="/usr/local/lib/python3.10/site-packages/torch/_ops.py" source_line=756}
  %convert.130 = f32[] convert(s32[] %constant.121), metadata={op_type="aten__mean" op_name="aten__mean" source_file="/usr/local/lib/python3.10/site-packages/torch/_ops.py" source_line=756}
  %divide.131 = f32[] divide(f32[] %constant.128, f32[] %convert.130), metadata={op_type="aten__mean" op_name="aten__mean" source_file="/usr/local/lib/python3.10/site-packages/torch/_ops.py" source_line=756}
  %constant.129 = f32[] constant(nan), metadata={op_type="aten__mean" op_name="aten__mean" source_file="/usr/local/lib/python3.10/site-packages/torch/_ops.py" source_line=756}
  %select.133 = f32[] select(pred[] %compare.132, f32[] %divide.131, f32[] %constant.129), metadata={op_type="aten__mean" op_name="aten__mean" source_file="/usr/local/lib/python3.10/site-packages/torch/_ops.py" source_line=756}
  %broadcast.134 = f32[16]{0} broadcast(f32[] %select.133), dimensions={}, metadata={op_type="aten__mean" op_name="aten__mean" source_file="/usr/local/lib/python3.10/site-packages/torch/_ops.py" source_line=756}
  %multiply.135 = f32[16]{0} multiply(f32[16]{0} %reduce.126, f32[16]{0} %broadcast.134), metadata={op_type="aten__mean" op_name="aten__mean" source_file="/usr/local/lib/python3.10/site-packages/torch/_ops.py" source_line=756}
  %reshape.136 = f32[16,1]{1,0} reshape(f32[16]{0} %multiply.135), metadata={op_type="aten__mean" op_name="aten__mean" source_file="/usr/local/lib/python3.10/site-packages/torch/_ops.py" source_line=756}
  %convert.137 = f32[16,1]{1,0} convert(f32[16,1]{1,0} %reshape.136), metadata={op_type="aten__mean" op_name="aten__mean" source_file="/usr/local/lib/python3.10/site-packages/torch/_ops.py" source_line=756}
  %constant.116 = f32[] constant(1), metadata={op_type="prim__Constant" op_name="prim__Constant" source_file="/usr/local/lib/python3.10/site-packages/torch/_ops.py" source_line=756}
  %multiply.138 = f32[] multiply(f32[] %p1.4, f32[] %constant.116), metadata={op_type="aten__add" op_name="aten__add.32/aten__add" source_file="/usr/local/lib/python3.10/site-packages/torch/_ops.py" source_line=756}
  %broadcast.139 = f32[16,1]{1,0} broadcast(f32[] %multiply.138), dimensions={}, metadata={op_type="aten__add" op_name="aten__add.32/aten__add" source_file="/usr/local/lib/python3.10/site-packages/torch/_ops.py" source_line=756}
  %add.140 = f32[16,1]{1,0} add(f32[16,1]{1,0} %convert.137, f32[16,1]{1,0} %broadcast.139), metadata={op_type="aten__add" op_name="aten__add.32/aten__add" source_file="/usr/local/lib/python3.10/site-packages/torch/_ops.py" source_line=756}
  %rsqrt.141 = f32[16,1]{1,0} rsqrt(f32[16,1]{1,0} %add.140), metadata={op_type="aten__rsqrt" op_name="aten__rsqrt" source_file="/usr/local/lib/python3.10/site-packages/torch/_ops.py" source_line=756}
  %reshape.142 = f32[16]{0} reshape(f32[16,1]{1,0} %rsqrt.141), metadata={op_type="aten__mul" op_name="aten__mul.33/aten__mul" source_file="/usr/local/lib/python3.10/site-packages/torch/_ops.py" source_line=756}
  %broadcast.143 = f32[16,1024]{1,0} broadcast(f32[16]{0} %reshape.142), dimensions={0}, metadata={op_type="aten__mul" op_name="aten__mul.33/aten__mul" source_file="/usr/local/lib/python3.10/site-packages/torch/_ops.py" source_line=756}
  %multiply.144 = f32[16,1024]{1,0} multiply(f32[16,1024]{1,0} %add.107, f32[16,1024]{1,0} %broadcast.143), metadata={op_type="aten__mul" op_name="aten__mul.33/aten__mul" source_file="/usr/local/lib/python3.10/site-packages/torch/_ops.py" source_line=756}
  %convert.145 = bf16[16,1024]{1,0} convert(f32[16,1024]{1,0} %multiply.144), metadata={op_type="xla__cast" op_name="xla__cast" source_file="/usr/local/lib/python3.10/site-packages/torch/_ops.py" source_line=756}
  %convert.146 = f32[16,1024]{1,0} convert(bf16[16,1024]{1,0} %convert.145), metadata={op_type="xla__cast" op_name="xla__cast" source_file="/usr/local/lib/python3.10/site-packages/torch/_ops.py" source_line=756}
  %p13.114 = bf16[1024]{0} parameter(13), metadata={op_type="xla__device_data" op_name="xla__device_data" source_file="/usr/local/lib/python3.10/site-packages/torch_xla/_dynamo/dynamo_bridge.py" source_line=355}
  %convert.115 = f32[1024]{0} convert(bf16[1024]{0} %p13.114), metadata={op_type="xla__cast" op_name="xla__cast" source_file="/usr/local/lib/python3.10/site-packages/torch/_ops.py" source_line=756}
  %broadcast.147 = f32[16,1024]{1,0} broadcast(f32[1024]{0} %convert.115), dimensions={1}, metadata={op_type="aten__mul" op_name="aten__mul.34/aten__mul" source_file="/usr/local/lib/python3.10/site-packages/torch/_ops.py" source_line=756}
  %multiply.148 = f32[16,1024]{1,0} multiply(f32[16,1024]{1,0} %convert.146, f32[16,1024]{1,0} %broadcast.147), metadata={op_type="aten__mul" op_name="aten__mul.34/aten__mul" source_file="/usr/local/lib/python3.10/site-packages/torch/_ops.py" source_line=756}
  %convert.149 = bf16[16,1024]{1,0} convert(f32[16,1024]{1,0} %multiply.148), metadata={op_type="xla__cast" op_name="xla__cast" source_file="/usr/local/lib/python3.10/site-packages/torch/_ops.py" source_line=756}
  %p12.112 = bf16[6144,1024]{1,0} parameter(12), metadata={op_type="xla__device_data" op_name="xla__device_data" source_file="/usr/local/lib/python3.10/site-packages/torch_xla/_dynamo/dynamo_bridge.py" source_line=355}
  %transpose.113 = bf16[1024,6144]{0,1} transpose(bf16[6144,1024]{1,0} %p12.112), dimensions={1,0}, metadata={op_type="aten__permute" op_name="aten__permute" source_file="/usr/local/lib/python3.10/site-packages/torch/_ops.py" source_line=756}
  %dot.150 = bf16[16,6144]{1,0} dot(bf16[16,1024]{1,0} %convert.149, bf16[1024,6144]{0,1} %transpose.113), lhs_contracting_dims={1}, rhs_contracting_dims={0}, metadata={op_type="aten__mm" op_name="aten__mm" source_file="/usr/local/lib/python3.10/site-packages/torch/_ops.py" source_line=756}
  %slice.153 = bf16[16,3072]{1,0} slice(bf16[16,6144]{1,0} %dot.150), slice={[0:16], [0:3072]}, metadata={op_type="xla__select" op_name="xla__select" source_file="/usr/local/lib/python3.10/site-packages/torch/_ops.py" source_line=756}
  %logistic.154 = bf16[16,3072]{1,0} logistic(bf16[16,3072]{1,0} %slice.153), metadata={op_type="aten__silu" op_name="aten__silu" source_file="/usr/local/lib/python3.10/site-packages/torch/_ops.py" source_line=756}
  %multiply.155 = bf16[16,3072]{1,0} multiply(bf16[16,3072]{1,0} %slice.153, bf16[16,3072]{1,0} %logistic.154), metadata={op_type="aten__silu" op_name="aten__silu" source_file="/usr/local/lib/python3.10/site-packages/torch/_ops.py" source_line=756}
  %convert.156 = f32[16,3072]{1,0} convert(bf16[16,3072]{1,0} %multiply.155), metadata={op_type="xla__cast" op_name="xla__cast" source_file="/usr/local/lib/python3.10/site-packages/torch/_ops.py" source_line=756}
  %slice.151 = bf16[16,3072]{1,0} slice(bf16[16,6144]{1,0} %dot.150), slice={[0:16], [3072:6144]}, metadata={op_type="xla__select" op_name="xla__select" source_file="/usr/local/lib/python3.10/site-packages/torch/_ops.py" source_line=756}
  %convert.152 = f32[16,3072]{1,0} convert(bf16[16,3072]{1,0} %slice.151), metadata={op_type="xla__cast" op_name="xla__cast" source_file="/usr/local/lib/python3.10/site-packages/torch/_ops.py" source_line=756}
  %multiply.157 = f32[16,3072]{1,0} multiply(f32[16,3072]{1,0} %convert.156, f32[16,3072]{1,0} %convert.152), metadata={op_type="aten__mul" op_name="aten__mul.35/aten__mul" source_file="/usr/local/lib/python3.10/site-packages/torch/_ops.py" source_line=756}
  %convert.158 = bf16[16,3072]{1,0} convert(f32[16,3072]{1,0} %multiply.157), metadata={op_type="xla__cast" op_name="xla__cast" source_file="/usr/local/lib/python3.10/site-packages/torch/_ops.py" source_line=756}
  %p11.110 = bf16[1024,3072]{1,0} parameter(11), metadata={op_type="xla__device_data" op_name="xla__device_data" source_file="/usr/local/lib/python3.10/site-packages/torch_xla/_dynamo/dynamo_bridge.py" source_line=355}
  %transpose.111 = bf16[3072,1024]{0,1} transpose(bf16[1024,3072]{1,0} %p11.110), dimensions={1,0}, metadata={op_type="aten__permute" op_name="aten__permute" source_file="/usr/local/lib/python3.10/site-packages/torch/_ops.py" source_line=756}
  %dot.159 = bf16[16,1024]{1,0} dot(bf16[16,3072]{1,0} %convert.158, bf16[3072,1024]{0,1} %transpose.111), lhs_contracting_dims={1}, rhs_contracting_dims={0}, metadata={op_type="aten__mm" op_name="aten__mm" source_file="/usr/local/lib/python3.10/site-packages/torch/_ops.py" source_line=756}
  %convert.160 = f32[16,1024]{1,0} convert(bf16[16,1024]{1,0} %dot.159), metadata={op_type="xla__cast" op_name="xla__cast" source_file="/usr/local/lib/python3.10/site-packages/torch/_ops.py" source_line=756}
  %convert.108 = bf16[16,1024]{1,0} convert(f32[16,1024]{1,0} %add.107), metadata={op_type="xla__cast" op_name="xla__cast" source_file="/usr/local/lib/python3.10/site-packages/torch/_ops.py" source_line=756}
  %convert.109 = f32[16,1024]{1,0} convert(bf16[16,1024]{1,0} %convert.108), metadata={op_type="xla__cast" op_name="xla__cast" source_file="/usr/local/lib/python3.10/site-packages/torch/_ops.py" source_line=756}
  %constant.12 = f32[] constant(1), metadata={op_type="prim__Constant" op_name="prim__Constant" source_file="/usr/local/lib/python3.10/site-packages/torch/_ops.py" source_line=756}
  %broadcast.161 = f32[16,1024]{1,0} broadcast(f32[] %constant.12), dimensions={}, metadata={op_type="aten__add" op_name="aten__add.36/aten__add" source_file="/usr/local/lib/python3.10/site-packages/torch/_ops.py" source_line=756}
  %multiply.162 = f32[16,1024]{1,0} multiply(f32[16,1024]{1,0} %convert.109, f32[16,1024]{1,0} %broadcast.161), metadata={op_type="aten__add" op_name="aten__add.36/aten__add" source_file="/usr/local/lib/python3.10/site-packages/torch/_ops.py" source_line=756}
  %add.163 = f32[16,1024]{1,0} add(f32[16,1024]{1,0} %convert.160, f32[16,1024]{1,0} %multiply.162), metadata={op_type="aten__add" op_name="aten__add.36/aten__add" source_file="/usr/local/lib/python3.10/site-packages/torch/_ops.py" source_line=756}
  %constant.11 = f32[] constant(2), metadata={op_type="prim__Constant" op_name="prim__Constant" source_file="/usr/local/lib/python3.10/site-packages/torch/_ops.py" source_line=756}
  %broadcast.164 = f32[16,1024]{1,0} broadcast(f32[] %constant.11), dimensions={}, metadata={op_type="aten__pow" op_name="aten__pow" source_file="/usr/local/lib/python3.10/site-packages/torch/_ops.py" source_line=756}
  %power.165 = f32[16,1024]{1,0} power(f32[16,1024]{1,0} %add.163, f32[16,1024]{1,0} %broadcast.164), metadata={op_type="aten__pow" op_name="aten__pow" source_file="/usr/local/lib/python3.10/site-packages/torch/_ops.py" source_line=756}
  %constant.166 = f32[] constant(0), metadata={op_type="aten__mean" op_name="aten__mean" source_file="/usr/local/lib/python3.10/site-packages/torch/_ops.py" source_line=756}
  %reduce.172 = f32[16]{0} reduce(f32[16,1024]{1,0} %power.165, f32[] %constant.166), dimensions={1}, to_apply=%AddComputation.168, metadata={op_type="aten__mean" op_name="aten__mean" source_file="/usr/local/lib/python3.10/site-packages/torch/_ops.py" source_line=756}
  %constant.167 = s32[] constant(1024), metadata={op_type="aten__mean" op_name="aten__mean" source_file="/usr/local/lib/python3.10/site-packages/torch/_ops.py" source_line=756}
  %constant.173 = s32[] constant(0), metadata={op_type="aten__mean" op_name="aten__mean" source_file="/usr/local/lib/python3.10/site-packages/torch/_ops.py" source_line=756}
  %compare.178 = pred[] compare(s32[] %constant.167, s32[] %constant.173), direction=NE, metadata={op_type="aten__mean" op_name="aten__mean" source_file="/usr/local/lib/python3.10/site-packages/torch/_ops.py" source_line=756}
  %constant.174 = f32[] constant(1), metadata={op_type="aten__mean" op_name="aten__mean" source_file="/usr/local/lib/python3.10/site-packages/torch/_ops.py" source_line=756}
  %convert.176 = f32[] convert(s32[] %constant.167), metadata={op_type="aten__mean" op_name="aten__mean" source_file="/usr/local/lib/python3.10/site-packages/torch/_ops.py" source_line=756}
  %divide.177 = f32[] divide(f32[] %constant.174, f32[] %convert.176), metadata={op_type="aten__mean" op_name="aten__mean" source_file="/usr/local/lib/python3.10/site-packages/torch/_ops.py" source_line=756}
  %constant.175 = f32[] constant(nan), metadata={op_type="aten__mean" op_name="aten__mean" source_file="/usr/local/lib/python3.10/site-packages/torch/_ops.py" source_line=756}
  %select.179 = f32[] select(pred[] %compare.178, f32[] %divide.177, f32[] %constant.175), metadata={op_type="aten__mean" op_name="aten__mean" source_file="/usr/local/lib/python3.10/site-packages/torch/_ops.py" source_line=756}
  %broadcast.180 = f32[16]{0} broadcast(f32[] %select.179), dimensions={}, metadata={op_type="aten__mean" op_name="aten__mean" source_file="/usr/local/lib/python3.10/site-packages/torch/_ops.py" source_line=756}
  %multiply.181 = f32[16]{0} multiply(f32[16]{0} %reduce.172, f32[16]{0} %broadcast.180), metadata={op_type="aten__mean" op_name="aten__mean" source_file="/usr/local/lib/python3.10/site-packages/torch/_ops.py" source_line=756}
  %reshape.182 = f32[16,1]{1,0} reshape(f32[16]{0} %multiply.181), metadata={op_type="aten__mean" op_name="aten__mean" source_file="/usr/local/lib/python3.10/site-packages/torch/_ops.py" source_line=756}
  %convert.183 = f32[16,1]{1,0} convert(f32[16,1]{1,0} %reshape.182), metadata={op_type="aten__mean" op_name="aten__mean" source_file="/usr/local/lib/python3.10/site-packages/torch/_ops.py" source_line=756}
  %constant.10 = f32[] constant(1), metadata={op_type="prim__Constant" op_name="prim__Constant" source_file="/usr/local/lib/python3.10/site-packages/torch/_ops.py" source_line=756}
  %multiply.184 = f32[] multiply(f32[] %p1.4, f32[] %constant.10), metadata={op_type="aten__add" op_name="aten__add.37/aten__add" source_file="/usr/local/lib/python3.10/site-packages/torch/_ops.py" source_line=756}
  %broadcast.185 = f32[16,1]{1,0} broadcast(f32[] %multiply.184), dimensions={}, metadata={op_type="aten__add" op_name="aten__add.37/aten__add" source_file="/usr/local/lib/python3.10/site-packages/torch/_ops.py" source_line=756}
  %add.186 = f32[16,1]{1,0} add(f32[16,1]{1,0} %convert.183, f32[16,1]{1,0} %broadcast.185), metadata={op_type="aten__add" op_name="aten__add.37/aten__add" source_file="/usr/local/lib/python3.10/site-packages/torch/_ops.py" source_line=756}
  %rsqrt.187 = f32[16,1]{1,0} rsqrt(f32[16,1]{1,0} %add.186), metadata={op_type="aten__rsqrt" op_name="aten__rsqrt" source_file="/usr/local/lib/python3.10/site-packages/torch/_ops.py" source_line=756}
  %reshape.188 = f32[16]{0} reshape(f32[16,1]{1,0} %rsqrt.187), metadata={op_type="aten__mul" op_name="aten__mul.38/aten__mul" source_file="/usr/local/lib/python3.10/site-packages/torch/_ops.py" source_line=756}
  %broadcast.189 = f32[16,1024]{1,0} broadcast(f32[16]{0} %reshape.188), dimensions={0}, metadata={op_type="aten__mul" op_name="aten__mul.38/aten__mul" source_file="/usr/local/lib/python3.10/site-packages/torch/_ops.py" source_line=756}
  %multiply.190 = f32[16,1024]{1,0} multiply(f32[16,1024]{1,0} %add.163, f32[16,1024]{1,0} %broadcast.189), metadata={op_type="aten__mul" op_name="aten__mul.38/aten__mul" source_file="/usr/local/lib/python3.10/site-packages/torch/_ops.py" source_line=756}
  %convert.191 = bf16[16,1024]{1,0} convert(f32[16,1024]{1,0} %multiply.190), metadata={op_type="xla__cast" op_name="xla__cast" source_file="/usr/local/lib/python3.10/site-packages/torch/_ops.py" source_line=756}
  %convert.192 = f32[16,1024]{1,0} convert(bf16[16,1024]{1,0} %convert.191), metadata={op_type="xla__cast" op_name="xla__cast" source_file="/usr/local/lib/python3.10/site-packages/torch/_ops.py" source_line=756}
  %p3.8 = bf16[1024]{0} parameter(3), metadata={op_type="xla__device_data" op_name="xla__device_data" source_file="/usr/local/lib/python3.10/site-packages/torch_xla/_dynamo/dynamo_bridge.py" source_line=355}
  %convert.9 = f32[1024]{0} convert(bf16[1024]{0} %p3.8), metadata={op_type="xla__cast" op_name="xla__cast" source_file="/usr/local/lib/python3.10/site-packages/torch/_ops.py" source_line=756}
  %broadcast.193 = f32[16,1024]{1,0} broadcast(f32[1024]{0} %convert.9), dimensions={1}, metadata={op_type="aten__mul" op_name="aten__mul.39/aten__mul" source_file="/usr/local/lib/python3.10/site-packages/torch/_ops.py" source_line=756}
  %multiply.194 = f32[16,1024]{1,0} multiply(f32[16,1024]{1,0} %convert.192, f32[16,1024]{1,0} %broadcast.193), metadata={op_type="aten__mul" op_name="aten__mul.39/aten__mul" source_file="/usr/local/lib/python3.10/site-packages/torch/_ops.py" source_line=756}
  %convert.195 = bf16[16,1024]{1,0} convert(f32[16,1024]{1,0} %multiply.194), metadata={op_type="xla__cast" op_name="xla__cast" source_file="/usr/local/lib/python3.10/site-packages/torch/_ops.py" source_line=756}
  %p2.6 = bf16[4096,1024]{1,0} parameter(2), metadata={op_type="xla__device_data" op_name="xla__device_data" source_file="/usr/local/lib/python3.10/site-packages/torch_xla/_dynamo/dynamo_bridge.py" source_line=355}
  %transpose.7 = bf16[1024,4096]{0,1} transpose(bf16[4096,1024]{1,0} %p2.6), dimensions={1,0}, metadata={op_type="aten__permute" op_name="aten__permute" source_file="/usr/local/lib/python3.10/site-packages/torch/_ops.py" source_line=756}
  %dot.196 = bf16[16,4096]{1,0} dot(bf16[16,1024]{1,0} %convert.195, bf16[1024,4096]{0,1} %transpose.7), lhs_contracting_dims={1}, rhs_contracting_dims={0}, metadata={op_type="aten__mm" op_name="aten__mm" source_file="/usr/local/lib/python3.10/site-packages/torch/_ops.py" source_line=756}
  %slice.197 = bf16[16,2048]{1,0} slice(bf16[16,4096]{1,0} %dot.196), slice={[0:16], [0:2048]}, metadata={op_type="aten__split" op_name="aten__split" source_file="/usr/local/lib/python3.10/site-packages/torch/_ops.py" source_line=756}
  %slice.198 = bf16[16,1024]{1,0} slice(bf16[16,4096]{1,0} %dot.196), slice={[0:16], [2048:3072]}, metadata={op_type="aten__split" op_name="aten__split" source_file="/usr/local/lib/python3.10/site-packages/torch/_ops.py" source_line=756}
  %reshape.200 = bf16[16,8,128]{2,1,0} reshape(bf16[16,1024]{1,0} %slice.198), metadata={op_type="aten__view" op_name="aten__view" source_file="/usr/local/lib/python3.10/site-packages/torch/_ops.py" source_line=756}
  %convert.201 = f32[16,8,128]{2,1,0} convert(bf16[16,8,128]{2,1,0} %reshape.200), metadata={op_type="xla__cast" op_name="xla__cast" source_file="/usr/local/lib/python3.10/site-packages/torch/_ops.py" source_line=756}
  %constant.5 = f32[] constant(2), metadata={op_type="prim__Constant" op_name="prim__Constant" source_file="/usr/local/lib/python3.10/site-packages/torch/_ops.py" source_line=756}
  %broadcast.202 = f32[16,8,128]{2,1,0} broadcast(f32[] %constant.5), dimensions={}, metadata={op_type="aten__pow" op_name="aten__pow" source_file="/usr/local/lib/python3.10/site-packages/torch/_ops.py" source_line=756}
  %power.203 = f32[16,8,128]{2,1,0} power(f32[16,8,128]{2,1,0} %convert.201, f32[16,8,128]{2,1,0} %broadcast.202), metadata={op_type="aten__pow" op_name="aten__pow" source_file="/usr/local/lib/python3.10/site-packages/torch/_ops.py" source_line=756}
  %constant.204 = f32[] constant(0), metadata={op_type="aten__mean" op_name="aten__mean" source_file="/usr/local/lib/python3.10/site-packages/torch/_ops.py" source_line=756}
  %reduce.210 = f32[16,8]{1,0} reduce(f32[16,8,128]{2,1,0} %power.203, f32[] %constant.204), dimensions={2}, to_apply=%AddComputation.206, metadata={op_type="aten__mean" op_name="aten__mean" source_file="/usr/local/lib/python3.10/site-packages/torch/_ops.py" source_line=756}
  %constant.205 = s32[] constant(128), metadata={op_type="aten__mean" op_name="aten__mean" source_file="/usr/local/lib/python3.10/site-packages/torch/_ops.py" source_line=756}
  %constant.211 = s32[] constant(0), metadata={op_type="aten__mean" op_name="aten__mean" source_file="/usr/local/lib/python3.10/site-packages/torch/_ops.py" source_line=756}
  %compare.216 = pred[] compare(s32[] %constant.205, s32[] %constant.211), direction=NE, metadata={op_type="aten__mean" op_name="aten__mean" source_file="/usr/local/lib/python3.10/site-packages/torch/_ops.py" source_line=756}
  %constant.212 = f32[] constant(1), metadata={op_type="aten__mean" op_name="aten__mean" source_file="/usr/local/lib/python3.10/site-packages/torch/_ops.py" source_line=756}
  %convert.214 = f32[] convert(s32[] %constant.205), metadata={op_type="aten__mean" op_name="aten__mean" source_file="/usr/local/lib/python3.10/site-packages/torch/_ops.py" source_line=756}
  %divide.215 = f32[] divide(f32[] %constant.212, f32[] %convert.214), metadata={op_type="aten__mean" op_name="aten__mean" source_file="/usr/local/lib/python3.10/site-packages/torch/_ops.py" source_line=756}
  %constant.213 = f32[] constant(nan), metadata={op_type="aten__mean" op_name="aten__mean" source_file="/usr/local/lib/python3.10/site-packages/torch/_ops.py" source_line=756}
  %select.217 = f32[] select(pred[] %compare.216, f32[] %divide.215, f32[] %constant.213), metadata={op_type="aten__mean" op_name="aten__mean" source_file="/usr/local/lib/python3.10/site-packages/torch/_ops.py" source_line=756}
  %broadcast.218 = f32[16,8]{1,0} broadcast(f32[] %select.217), dimensions={}, metadata={op_type="aten__mean" op_name="aten__mean" source_file="/usr/local/lib/python3.10/site-packages/torch/_ops.py" source_line=756}
  %multiply.219 = f32[16,8]{1,0} multiply(f32[16,8]{1,0} %reduce.210, f32[16,8]{1,0} %broadcast.218), metadata={op_type="aten__mean" op_name="aten__mean" source_file="/usr/local/lib/python3.10/site-packages/torch/_ops.py" source_line=756}
  %reshape.220 = f32[16,8,1]{2,1,0} reshape(f32[16,8]{1,0} %multiply.219), metadata={op_type="aten__mean" op_name="aten__mean" source_file="/usr/local/lib/python3.10/site-packages/torch/_ops.py" source_line=756}
  %convert.221 = f32[16,8,1]{2,1,0} convert(f32[16,8,1]{2,1,0} %reshape.220), metadata={op_type="aten__mean" op_name="aten__mean" source_file="/usr/local/lib/python3.10/site-packages/torch/_ops.py" source_line=756}
  %constant.3 = f32[] constant(1), metadata={op_type="prim__Constant" op_name="prim__Constant" source_file="/usr/local/lib/python3.10/site-packages/torch/_ops.py" source_line=756}
  %multiply.222 = f32[] multiply(f32[] %p1.4, f32[] %constant.3), metadata={op_type="aten__add" op_name="aten__add.40/aten__add" source_file="/usr/local/lib/python3.10/site-packages/torch/_ops.py" source_line=756}
  %broadcast.223 = f32[16,8,1]{2,1,0} broadcast(f32[] %multiply.222), dimensions={}, metadata={op_type="aten__add" op_name="aten__add.40/aten__add" source_file="/usr/local/lib/python3.10/site-packages/torch/_ops.py" source_line=756}
  %add.224 = f32[16,8,1]{2,1,0} add(f32[16,8,1]{2,1,0} %convert.221, f32[16,8,1]{2,1,0} %broadcast.223), metadata={op_type="aten__add" op_name="aten__add.40/aten__add" source_file="/usr/local/lib/python3.10/site-packages/torch/_ops.py" source_line=756}
  %rsqrt.225 = f32[16,8,1]{2,1,0} rsqrt(f32[16,8,1]{2,1,0} %add.224), metadata={op_type="aten__rsqrt" op_name="aten__rsqrt" source_file="/usr/local/lib/python3.10/site-packages/torch/_ops.py" source_line=756}
  %reshape.226 = f32[16,8]{1,0} reshape(f32[16,8,1]{2,1,0} %rsqrt.225), metadata={op_type="aten__mul" op_name="aten__mul.41/aten__mul" source_file="/usr/local/lib/python3.10/site-packages/torch/_ops.py" source_line=756}
  %broadcast.227 = f32[16,8,128]{2,1,0} broadcast(f32[16,8]{1,0} %reshape.226), dimensions={0,1}, metadata={op_type="aten__mul" op_name="aten__mul.41/aten__mul" source_file="/usr/local/lib/python3.10/site-packages/torch/_ops.py" source_line=756}
  %multiply.228 = f32[16,8,128]{2,1,0} multiply(f32[16,8,128]{2,1,0} %convert.201, f32[16,8,128]{2,1,0} %broadcast.227), metadata={op_type="aten__mul" op_name="aten__mul.41/aten__mul" source_file="/usr/local/lib/python3.10/site-packages/torch/_ops.py" source_line=756}
  %convert.229 = bf16[16,8,128]{2,1,0} convert(f32[16,8,128]{2,1,0} %multiply.228), metadata={op_type="xla__cast" op_name="xla__cast" source_file="/usr/local/lib/python3.10/site-packages/torch/_ops.py" source_line=756}
  %convert.230 = f32[16,8,128]{2,1,0} convert(bf16[16,8,128]{2,1,0} %convert.229), metadata={op_type="xla__cast" op_name="xla__cast" source_file="/usr/local/lib/python3.10/site-packages/torch/_ops.py" source_line=756}
  %p0.1 = bf16[128]{0} parameter(0), metadata={op_type="xla__device_data" op_name="xla__device_data" source_file="/usr/local/lib/python3.10/site-packages/torch_xla/_dynamo/dynamo_bridge.py" source_line=355}
  %convert.2 = f32[128]{0} convert(bf16[128]{0} %p0.1), metadata={op_type="xla__cast" op_name="xla__cast" source_file="/usr/local/lib/python3.10/site-packages/torch/_ops.py" source_line=756}
  %broadcast.231 = f32[16,8,128]{2,1,0} broadcast(f32[128]{0} %convert.2), dimensions={2}, metadata={op_type="aten__mul" op_name="aten__mul.42/aten__mul" source_file="/usr/local/lib/python3.10/site-packages/torch/_ops.py" source_line=756}
  %multiply.232 = f32[16,8,128]{2,1,0} multiply(f32[16,8,128]{2,1,0} %convert.230, f32[16,8,128]{2,1,0} %broadcast.231), metadata={op_type="aten__mul" op_name="aten__mul.42/aten__mul" source_file="/usr/local/lib/python3.10/site-packages/torch/_ops.py" source_line=756}
  %convert.233 = bf16[16,8,128]{2,1,0} convert(f32[16,8,128]{2,1,0} %multiply.232), metadata={op_type="xla__cast" op_name="xla__cast" source_file="/usr/local/lib/python3.10/site-packages/torch/_ops.py" source_line=756}
  %reshape.234 = bf16[16,1024]{1,0} reshape(bf16[16,8,128]{2,1,0} %convert.233), metadata={op_type="aten__view" op_name="aten__view" source_file="/usr/local/lib/python3.10/site-packages/torch/_ops.py" source_line=756}
  %reshape.235 = bf16[16,8,128]{2,1,0} reshape(bf16[16,1024]{1,0} %reshape.234), metadata={op_type="aten__view" op_name="aten__view" source_file="/usr/local/lib/python3.10/site-packages/torch/_ops.py" source_line=756}
  %slice.245 = bf16[16,8,64]{2,1,0} slice(bf16[16,8,128]{2,1,0} %reshape.235), slice={[0:16], [0:8], [0:64]}, metadata={op_type="aten__split" op_name="aten__split" source_file="/usr/local/lib/python3.10/site-packages/torch/_ops.py" source_line=756}
  %convert.270 = f32[16,8,64]{2,1,0} convert(bf16[16,8,64]{2,1,0} %slice.245), metadata={op_type="xla__cast" op_name="xla__cast" source_file="/usr/local/lib/python3.10/site-packages/torch/_ops.py" source_line=756}
  %p15.239 = bf16[40960,128]{1,0} parameter(15), metadata={op_type="xla__device_data" op_name="xla__device_data" source_file="/usr/local/lib/python3.10/site-packages/torch_xla/_dynamo/dynamo_bridge.py" source_line=355}
  %p14.238 = s32[16]{0} parameter(14), metadata={op_type="xla__device_data" op_name="xla__device_data" source_file="/usr/local/lib/python3.10/site-packages/torch_xla/_dynamo/dynamo_bridge.py" source_line=355}
  %gather.240 = bf16[16,128]{1,0} gather(bf16[40960,128]{1,0} %p15.239, s32[16]{0} %p14.238), offset_dims={1}, collapsed_slice_dims={0}, start_index_map={0}, index_vector_dim=1, slice_sizes={1,128}, metadata={op_type="aten__index_select" op_name="aten__index_select" source_file="/usr/local/lib/python3.10/site-packages/torch/_ops.py" source_line=756}
  %slice.241 = bf16[16,64]{1,0} slice(bf16[16,128]{1,0} %gather.240), slice={[0:16], [0:64]}, metadata={op_type="aten__split" op_name="aten__split" source_file="/usr/local/lib/python3.10/site-packages/torch/_ops.py" source_line=756}
  %reshape.252 = bf16[16,1,64]{2,1,0} reshape(bf16[16,64]{1,0} %slice.241), metadata={op_type="aten__view" op_name="aten__view" source_file="/usr/local/lib/python3.10/site-packages/torch/_ops.py" source_line=756}
  %convert.269 = f32[16,1,64]{2,1,0} convert(bf16[16,1,64]{2,1,0} %reshape.252), metadata={op_type="xla__cast" op_name="xla__cast" source_file="/usr/local/lib/python3.10/site-packages/torch/_ops.py" source_line=756}
  %reshape.271 = f32[16,64]{1,0} reshape(f32[16,1,64]{2,1,0} %convert.269), metadata={op_type="aten__mul" op_name="aten__mul.43/aten__mul" source_file="/usr/local/lib/python3.10/site-packages/torch/_ops.py" source_line=756}
  %broadcast.272 = f32[16,8,64]{2,1,0} broadcast(f32[16,64]{1,0} %reshape.271), dimensions={0,2}, metadata={op_type="aten__mul" op_name="aten__mul.43/aten__mul" source_file="/usr/local/lib/python3.10/site-packages/torch/_ops.py" source_line=756}
  %multiply.273 = f32[16,8,64]{2,1,0} multiply(f32[16,8,64]{2,1,0} %convert.270, f32[16,8,64]{2,1,0} %broadcast.272), metadata={op_type="aten__mul" op_name="aten__mul.43/aten__mul" source_file="/usr/local/lib/python3.10/site-packages/torch/_ops.py" source_line=756}
  %convert.274 = bf16[16,8,64]{2,1,0} convert(f32[16,8,64]{2,1,0} %multiply.273), metadata={op_type="xla__cast" op_name="xla__cast" source_file="/usr/local/lib/python3.10/site-packages/torch/_ops.py" source_line=756}
  %slice.246 = bf16[16,8,64]{2,1,0} slice(bf16[16,8,128]{2,1,0} %reshape.235), slice={[0:16], [0:8], [64:128]}, metadata={op_type="aten__split" op_name="aten__split" source_file="/usr/local/lib/python3.10/site-packages/torch/_ops.py" source_line=756}
  %convert.264 = f32[16,8,64]{2,1,0} convert(bf16[16,8,64]{2,1,0} %slice.246), metadata={op_type="xla__cast" op_name="xla__cast" source_file="/usr/local/lib/python3.10/site-packages/torch/_ops.py" source_line=756}
  %slice.242 = bf16[16,64]{1,0} slice(bf16[16,128]{1,0} %gather.240), slice={[0:16], [64:128]}, metadata={op_type="aten__split" op_name="aten__split" source_file="/usr/local/lib/python3.10/site-packages/torch/_ops.py" source_line=756}
  %reshape.243 = bf16[16,1,64]{2,1,0} reshape(bf16[16,64]{1,0} %slice.242), metadata={op_type="aten__view" op_name="aten__view" source_file="/usr/local/lib/python3.10/site-packages/torch/_ops.py" source_line=756}
  %convert.263 = f32[16,1,64]{2,1,0} convert(bf16[16,1,64]{2,1,0} %reshape.243), metadata={op_type="xla__cast" op_name="xla__cast" source_file="/usr/local/lib/python3.10/site-packages/torch/_ops.py" source_line=756}
  %reshape.265 = f32[16,64]{1,0} reshape(f32[16,1,64]{2,1,0} %convert.263), metadata={op_type="aten__mul" op_name="aten__mul.44/aten__mul" source_file="/usr/local/lib/python3.10/site-packages/torch/_ops.py" source_line=756}
  %broadcast.266 = f32[16,8,64]{2,1,0} broadcast(f32[16,64]{1,0} %reshape.265), dimensions={0,2}, metadata={op_type="aten__mul" op_name="aten__mul.44/aten__mul" source_file="/usr/local/lib/python3.10/site-packages/torch/_ops.py" source_line=756}
  %multiply.267 = f32[16,8,64]{2,1,0} multiply(f32[16,8,64]{2,1,0} %convert.264, f32[16,8,64]{2,1,0} %broadcast.266), metadata={op_type="aten__mul" op_name="aten__mul.44/aten__mul" source_file="/usr/local/lib/python3.10/site-packages/torch/_ops.py" source_line=756}
  %convert.268 = bf16[16,8,64]{2,1,0} convert(f32[16,8,64]{2,1,0} %multiply.267), metadata={op_type="xla__cast" op_name="xla__cast" source_file="/usr/local/lib/python3.10/site-packages/torch/_ops.py" source_line=756}
  %constant.262 = bf16[] constant(1), metadata={op_type="prim__Constant" op_name="prim__Constant" source_file="/usr/local/lib/python3.10/site-packages/torch/_ops.py" source_line=756}
  %broadcast.275 = bf16[16,8,64]{2,1,0} broadcast(bf16[] %constant.262), dimensions={}, metadata={op_type="aten__sub" op_name="aten__sub.45/aten__sub" source_file="/usr/local/lib/python3.10/site-packages/torch/_ops.py" source_line=756}
  %multiply.276 = bf16[16,8,64]{2,1,0} multiply(bf16[16,8,64]{2,1,0} %convert.268, bf16[16,8,64]{2,1,0} %broadcast.275), metadata={op_type="aten__sub" op_name="aten__sub.45/aten__sub" source_file="/usr/local/lib/python3.10/site-packages/torch/_ops.py" source_line=756}
  %subtract.277 = bf16[16,8,64]{2,1,0} subtract(bf16[16,8,64]{2,1,0} %convert.274, bf16[16,8,64]{2,1,0} %multiply.276), metadata={op_type="aten__sub" op_name="aten__sub.45/aten__sub" source_file="/usr/local/lib/python3.10/site-packages/torch/_ops.py" source_line=756}
  %convert.254 = f32[16,8,64]{2,1,0} convert(bf16[16,8,64]{2,1,0} %slice.246), metadata={op_type="xla__cast" op_name="xla__cast" source_file="/usr/local/lib/python3.10/site-packages/torch/_ops.py" source_line=756}
  %convert.253 = f32[16,1,64]{2,1,0} convert(bf16[16,1,64]{2,1,0} %reshape.252), metadata={op_type="xla__cast" op_name="xla__cast" source_file="/usr/local/lib/python3.10/site-packages/torch/_ops.py" source_line=756}
  %reshape.255 = f32[16,64]{1,0} reshape(f32[16,1,64]{2,1,0} %convert.253), metadata={op_type="aten__mul" op_name="aten__mul.46/aten__mul" source_file="/usr/local/lib/python3.10/site-packages/torch/_ops.py" source_line=756}
  %broadcast.256 = f32[16,8,64]{2,1,0} broadcast(f32[16,64]{1,0} %reshape.255), dimensions={0,2}, metadata={op_type="aten__mul" op_name="aten__mul.46/aten__mul" source_file="/usr/local/lib/python3.10/site-packages/torch/_ops.py" source_line=756}
  %multiply.257 = f32[16,8,64]{2,1,0} multiply(f32[16,8,64]{2,1,0} %convert.254, f32[16,8,64]{2,1,0} %broadcast.256), metadata={op_type="aten__mul" op_name="aten__mul.46/aten__mul" source_file="/usr/local/lib/python3.10/site-packages/torch/_ops.py" source_line=756}
  %convert.258 = bf16[16,8,64]{2,1,0} convert(f32[16,8,64]{2,1,0} %multiply.257), metadata={op_type="xla__cast" op_name="xla__cast" source_file="/usr/local/lib/python3.10/site-packages/torch/_ops.py" source_line=756}
  %convert.247 = f32[16,8,64]{2,1,0} convert(bf16[16,8,64]{2,1,0} %slice.245), metadata={op_type="xla__cast" op_name="xla__cast" source_file="/usr/local/lib/python3.10/site-packages/torch/_ops.py" source_line=756}
  %convert.244 = f32[16,1,64]{2,1,0} convert(bf16[16,1,64]{2,1,0} %reshape.243), metadata={op_type="xla__cast" op_name="xla__cast" source_file="/usr/local/lib/python3.10/site-packages/torch/_ops.py" source_line=756}
  %reshape.248 = f32[16,64]{1,0} reshape(f32[16,1,64]{2,1,0} %convert.244), metadata={op_type="aten__mul" op_name="aten__mul.47/aten__mul" source_file="/usr/local/lib/python3.10/site-packages/torch/_ops.py" source_line=756}
  %broadcast.249 = f32[16,8,64]{2,1,0} broadcast(f32[16,64]{1,0} %reshape.248), dimensions={0,2}, metadata={op_type="aten__mul" op_name="aten__mul.47/aten__mul" source_file="/usr/local/lib/python3.10/site-packages/torch/_ops.py" source_line=756}
  %multiply.250 = f32[16,8,64]{2,1,0} multiply(f32[16,8,64]{2,1,0} %convert.247, f32[16,8,64]{2,1,0} %broadcast.249), metadata={op_type="aten__mul" op_name="aten__mul.47/aten__mul" source_file="/usr/local/lib/python3.10/site-packages/torch/_ops.py" source_line=756}
  %convert.251 = bf16[16,8,64]{2,1,0} convert(f32[16,8,64]{2,1,0} %multiply.250), metadata={op_type="xla__cast" op_name="xla__cast" source_file="/usr/local/lib/python3.10/site-packages/torch/_ops.py" source_line=756}
  %constant.237 = bf16[] constant(1), metadata={op_type="prim__Constant" op_name="prim__Constant" source_file="/usr/local/lib/python3.10/site-packages/torch/_ops.py" source_line=756}
  %broadcast.259 = bf16[16,8,64]{2,1,0} broadcast(bf16[] %constant.237), dimensions={}, metadata={op_type="aten__add" op_name="aten__add.48/aten__add" source_file="/usr/local/lib/python3.10/site-packages/torch/_ops.py" source_line=756}
  %multiply.260 = bf16[16,8,64]{2,1,0} multiply(bf16[16,8,64]{2,1,0} %convert.251, bf16[16,8,64]{2,1,0} %broadcast.259), metadata={op_type="aten__add" op_name="aten__add.48/aten__add" source_file="/usr/local/lib/python3.10/site-packages/torch/_ops.py" source_line=756}
  %add.261 = bf16[16,8,64]{2,1,0} add(bf16[16,8,64]{2,1,0} %convert.258, bf16[16,8,64]{2,1,0} %multiply.260), metadata={op_type="aten__add" op_name="aten__add.48/aten__add" source_file="/usr/local/lib/python3.10/site-packages/torch/_ops.py" source_line=756}
  %concatenate.278 = bf16[16,8,128]{2,1,0} concatenate(bf16[16,8,64]{2,1,0} %subtract.277, bf16[16,8,64]{2,1,0} %add.261), dimensions={2}, metadata={op_type="aten__cat" op_name="aten__cat" source_file="/usr/local/lib/python3.10/site-packages/torch/_ops.py" source_line=756}
  %slice.236 = bf16[16,8,0]{2,1,0} slice(bf16[16,8,128]{2,1,0} %reshape.235), slice={[0:16], [0:8], [128:128]}, metadata={op_type="xla__select" op_name="xla__select" source_file="/usr/local/lib/python3.10/site-packages/torch/_ops.py" source_line=756}
  %concatenate.279 = bf16[16,8,128]{2,1,0} concatenate(bf16[16,8,128]{2,1,0} %concatenate.278, bf16[16,8,0]{2,1,0} %slice.236), dimensions={2}, metadata={op_type="aten__cat" op_name="aten__cat" source_file="/usr/local/lib/python3.10/site-packages/torch/_ops.py" source_line=756}
  %reshape.280 = bf16[16,1024]{1,0} reshape(bf16[16,8,128]{2,1,0} %concatenate.279), metadata={op_type="aten__view" op_name="aten__view" source_file="/usr/local/lib/python3.10/site-packages/torch/_ops.py" source_line=756}
  %reshape.281 = bf16[16,8,128]{2,1,0} reshape(bf16[16,1024]{1,0} %reshape.280), metadata={op_type="aten__view" op_name="aten__view" source_file="/usr/local/lib/python3.10/site-packages/torch/_ops.py" source_line=756}
  %slice.199 = bf16[16,1024]{1,0} slice(bf16[16,4096]{1,0} %dot.196), slice={[0:16], [3072:4096]}, metadata={op_type="aten__split" op_name="aten__split" source_file="/usr/local/lib/python3.10/site-packages/torch/_ops.py" source_line=756}
  %reshape.282 = bf16[16,8,128]{2,1,0} reshape(bf16[16,1024]{1,0} %slice.199), metadata={op_type="aten__view" op_name="aten__view" source_file="/usr/local/lib/python3.10/site-packages/torch/_ops.py" source_line=756}
  %p16.283 = bf16[2,4233,16,8,128]{4,3,2,1,0} parameter(16), metadata={op_type="xla__device_data" op_name="xla__device_data" source_file="/usr/local/lib/python3.10/site-packages/torch_xla/_dynamo/dynamo_bridge.py" source_line=355}
  %reshape.284 = bf16[138706944]{0} reshape(bf16[2,4233,16,8,128]{4,3,2,1,0} %p16.283), metadata={op_type="aten__as_strided" op_name="aten__as_strided" source_file="/usr/local/lib/python3.10/site-packages/torch/_prims_common/__init__.py" source_line=1991}
  %reshape.285 = bf16[2,4233,16,8,128]{4,3,2,1,0} reshape(bf16[138706944]{0} %reshape.284), metadata={op_type="aten__as_strided" op_name="aten__as_strided" source_file="/usr/local/lib/python3.10/site-packages/torch/_prims_common/__init__.py" source_line=1992}
  %reshape.286 = bf16[138706944]{0} reshape(bf16[2,4233,16,8,128]{4,3,2,1,0} %reshape.285), metadata={op_type="aten__as_strided" op_name="aten__as_strided" source_file="/usr/local/lib/python3.10/site-packages/torch/_higher_order_ops/auto_functionalize.py" source_line=54}
  %slice.287 = bf16[69353472]{0} slice(bf16[138706944]{0} %reshape.286), slice={[0:69353472]}, metadata={op_type="aten__as_strided" op_name="aten__as_strided" source_file="/usr/local/lib/python3.10/site-packages/torch/_higher_order_ops/auto_functionalize.py" source_line=54}
  %reshape.288 = bf16[4233,16,8,128]{3,2,1,0} reshape(bf16[69353472]{0} %slice.287), metadata={op_type="aten__as_strided" op_name="aten__as_strided" source_file="/usr/local/lib/python3.10/site-packages/torch/_higher_order_ops/auto_functionalize.py" source_line=54}
  %reshape.289 = bf16[138706944]{0} reshape(bf16[2,4233,16,8,128]{4,3,2,1,0} %reshape.285), metadata={op_type="aten__as_strided" op_name="aten__as_strided" source_file="/usr/local/lib/python3.10/site-packages/torch/_higher_order_ops/auto_functionalize.py" source_line=54}
  %slice.290 = bf16[69353472]{0} slice(bf16[138706944]{0} %reshape.289), slice={[69353472:138706944]}, metadata={op_type="aten__as_strided" op_name="aten__as_strided" source_file="/usr/local/lib/python3.10/site-packages/torch/_higher_order_ops/auto_functionalize.py" source_line=54}
  %reshape.291 = bf16[4233,16,8,128]{3,2,1,0} reshape(bf16[69353472]{0} %slice.290), metadata={op_type="aten__as_strided" op_name="aten__as_strided" source_file="/usr/local/lib/python3.10/site-packages/torch/_higher_order_ops/auto_functionalize.py" source_line=54}
  ROOT %tuple.292 = (bf16[16,8,128]{2,1,0}, bf16[16,8,128]{2,1,0}, bf16[4233,16,8,128]{3,2,1,0}, bf16[4233,16,8,128]{3,2,1,0}) tuple(bf16[16,8,128]{2,1,0} %reshape.281, bf16[16,8,128]{2,1,0} %reshape.282, bf16[4233,16,8,128]{3,2,1,0} %reshape.288, bf16[4233,16,8,128]{3,2,1,0} %reshape.291)
}

