#indexing_map = #xla.indexing_map<"(d0) -> (0), domain: d0 in [0, 31]">
#indexing_map1 = #xla.indexing_map<"(tid_0, tid_1) -> (2048), domain: tid_0 in [0, 31], tid_1 in [0, 0]">
#indexing_map2 = #xla.indexing_map<"(tid_0, tid_1) -> (tid_0 * 4096 + 2048), domain: tid_0 in [0, 31], tid_1 in [0, 0]">
#indexing_map3 = #xla.indexing_map<"(tid_0, tid_1) -> (0), domain: tid_0 in [0, 31], tid_1 in [0, 0]">
#indexing_map4 = #xla.indexing_map<"(tid_0, tid_1) -> (tid_0 * 1024), domain: tid_0 in [0, 31], tid_1 in [0, 0]">
#indexing_map5 = #xla.indexing_map<"(tid_0, tid_1) -> (3072), domain: tid_0 in [0, 31], tid_1 in [0, 0]">
#indexing_map6 = #xla.indexing_map<"(tid_0, tid_1) -> (tid_0 * 4096 + 3072), domain: tid_0 in [0, 31], tid_1 in [0, 0]">
module {
  tt.func @fusion_63_impl(%arg0: !tt.ptr<f32> {tt.divisibility = 16 : i32}, %arg1: !tt.ptr<bf16> {tt.divisibility = 16 : i32}, %arg2: !tt.ptr<bf16> {tt.divisibility = 16 : i32}, %arg3: !tt.ptr<bf16> {tt.divisibility = 16 : i32}, %arg4: !tt.ptr<bf16> {tt.divisibility = 16 : i32}, %arg5: !tt.ptr<bf16> {tt.divisibility = 16 : i32}) {
    %0 = tt.get_program_id x : i32
    %1 = arith.extsi %0 : i32 to i64
    %2 = arith.index_castui %1 : i64 to index
    %3 = xla.apply_indexing #indexing_map(%2)
    %c1_i64 = arith.constant 1 : i64
    %c4096_i64 = arith.constant 4096 : i64
    %4 = xla.apply_indexing #indexing_map1(%2, %3)
    %c32_i64 = arith.constant 32 : i64
    %5 = arith.index_castui %2 : index to i64
    %6 = arith.subi %c32_i64, %5 : i64
    %c4096_i64_0 = arith.constant 4096 : i64
    %7 = arith.index_castui %4 : index to i64
    %8 = arith.subi %c4096_i64_0, %7 : i64
    %9 = xla.apply_indexing #indexing_map2(%2, %3)
    %10 = arith.index_castui %9 : index to i64
    %11 = tt.addptr %arg3, %10 : !tt.ptr<bf16>, i64
    %c0_i32 = arith.constant 0 : i32
    %12 = tt.make_tensor_ptr %11, [%6, %8], [%c4096_i64, %c1_i64], [%c0_i32, %c0_i32] {order = array<i32: 1, 0>} : <tensor<1x1024xbf16>>
    %13 = tt.load %12 : !tt.ptr<tensor<1x1024xbf16>>
    %14 = arith.extf %13 : tensor<1x1024xbf16> to tensor<1x1024xf32>
    %c1_i64_1 = arith.constant 1 : i64
    %c1024_i64 = arith.constant 1024 : i64
    %15 = xla.apply_indexing #indexing_map3(%2, %3)
    %c32_i64_2 = arith.constant 32 : i64
    %16 = arith.index_castui %2 : index to i64
    %17 = arith.subi %c32_i64_2, %16 : i64
    %c1024_i64_3 = arith.constant 1024 : i64
    %18 = arith.index_castui %15 : index to i64
    %19 = arith.subi %c1024_i64_3, %18 : i64
    %20 = xla.apply_indexing #indexing_map4(%2, %3)
    %21 = arith.index_castui %20 : index to i64
    %22 = tt.addptr %arg4, %21 : !tt.ptr<bf16>, i64
    %c0_i32_4 = arith.constant 0 : i32
    %23 = tt.make_tensor_ptr %22, [%17, %19], [%c1024_i64, %c1_i64_1], [%c0_i32_4, %c0_i32_4] {order = array<i32: 1, 0>} : <tensor<1x1024xbf16>>
    %24 = tt.load %23 : !tt.ptr<tensor<1x1024xbf16>>
    %25 = arith.extf %24 : tensor<1x1024xbf16> to tensor<1x1024xf32>
    %c1_i64_5 = arith.constant 1 : i64
    %c4096_i64_6 = arith.constant 4096 : i64
    %26 = xla.apply_indexing #indexing_map5(%2, %3)
    %c32_i64_7 = arith.constant 32 : i64
    %27 = arith.index_castui %2 : index to i64
    %28 = arith.subi %c32_i64_7, %27 : i64
    %c4096_i64_8 = arith.constant 4096 : i64
    %29 = arith.index_castui %26 : index to i64
    %30 = arith.subi %c4096_i64_8, %29 : i64
    %31 = xla.apply_indexing #indexing_map6(%2, %3)
    %32 = arith.index_castui %31 : index to i64
    %33 = tt.addptr %arg3, %32 : !tt.ptr<bf16>, i64
    %c0_i32_9 = arith.constant 0 : i32
    %34 = tt.make_tensor_ptr %33, [%28, %30], [%c4096_i64_6, %c1_i64_5], [%c0_i32_9, %c0_i32_9] {order = array<i32: 1, 0>} : <tensor<1x1024xbf16>>
    %35 = tt.load %34 : !tt.ptr<tensor<1x1024xbf16>>
    %36 = arith.extf %35 : tensor<1x1024xbf16> to tensor<1x1024xf32>
    %c1_i64_10 = arith.constant 1 : i64
    %c1024_i64_11 = arith.constant 1024 : i64
    %c0_i64 = arith.constant 0 : i64
    %37 = xla.apply_indexing #indexing_map3(%2, %3)
    %38 = xla.apply_indexing #indexing_map3(%2, %3)
    %c32_i64_12 = arith.constant 32 : i64
    %39 = arith.index_castui %2 : index to i64
    %40 = arith.subi %c32_i64_12, %39 : i64
    %c1_i64_13 = arith.constant 1 : i64
    %41 = arith.index_castui %37 : index to i64
    %42 = arith.subi %c1_i64_13, %41 : i64
    %c1024_i64_14 = arith.constant 1024 : i64
    %43 = arith.index_castui %38 : index to i64
    %44 = arith.subi %c1024_i64_14, %43 : i64
    %45 = xla.apply_indexing #indexing_map4(%2, %3)
    %46 = arith.index_castui %45 : index to i64
    %47 = tt.addptr %arg2, %46 : !tt.ptr<bf16>, i64
    %c0_i32_15 = arith.constant 0 : i32
    %48 = tt.make_tensor_ptr %47, [%40, %42, %44], [%c1024_i64_11, %c0_i64, %c1_i64_10], [%c0_i32_15, %c0_i32_15, %c0_i32_15] {order = array<i32: 2, 1, 0>} : <tensor<1x1x1024xbf16>>
    %49 = tt.load %48 : !tt.ptr<tensor<1x1x1024xbf16>>
    %50 = tt.trans %49 {order = array<i32: 1, 0, 2>} : tensor<1x1x1024xbf16> -> tensor<1x1x1024xbf16>
    %51 = tt.reshape %50 : tensor<1x1x1024xbf16> -> tensor<1x1024xbf16>
    %52 = arith.extf %51 : tensor<1x1024xbf16> to tensor<1x1024xf32>
    %53 = arith.addf %36, %52 : tensor<1x1024xf32>
    %54 = arith.addf %25, %53 : tensor<1x1024xf32>
    %55 = arith.addf %14, %54 : tensor<1x1024xf32>
    %56 = arith.mulf %55, %55 : tensor<1x1024xf32>
    %cst = arith.constant 0.000000e+00 : f32
    %57 = "tt.reduce"(%56) <{axis = 1 : i32}> ({
    ^bb0(%arg6: f32, %arg7: f32):
      %93 = arith.addf %arg6, %arg7 : f32
      tt.reduce.return %93 : f32
    }) : (tensor<1x1024xf32>) -> tensor<1xf32>
    %cst_16 = arith.constant 9.765625E-4 : f32
    %58 = tt.splat %cst_16 : f32 -> tensor<1xf32>
    %59 = arith.mulf %57, %58 : tensor<1xf32>
    %60 = xla.apply_indexing #indexing_map3(%2, %3)
    %61 = arith.index_castui %60 : index to i64
    %62 = tt.addptr %arg0, %61 : !tt.ptr<f32>, i64
    %c0_i32_17 = arith.constant 0 : i32
    %63 = tt.make_tensor_ptr %62, [], [], [] {order = array<i32>} : <tensor<f32>>
    %64 = tt.load %62 : !tt.ptr<f32>
    %65 = tt.splat %64 : f32 -> tensor<1xf32>
    %66 = arith.addf %59, %65 : tensor<1xf32>
    %67 = tt.extern_elementwise %66 {libname = "libdevice", libpath = "/usr/local/cuda-12.6/nvvm/libdevice/libdevice.10.bc", pure = true, symbol = "__nv_rsqrtf"} : (tensor<1xf32>) -> tensor<1xf32>
    %68 = tt.expand_dims %67 {axis = 1 : i32} : tensor<1xf32> -> tensor<1x1xf32>
    %69 = tt.broadcast %68 : tensor<1x1xf32> -> tensor<1x1024xf32>
    %70 = arith.mulf %55, %69 : tensor<1x1024xf32>
    %c1_i64_18 = arith.constant 1 : i64
    %71 = xla.apply_indexing #indexing_map3(%2, %3)
    %c1024_i64_19 = arith.constant 1024 : i64
    %72 = arith.index_castui %71 : index to i64
    %73 = arith.subi %c1024_i64_19, %72 : i64
    %74 = xla.apply_indexing #indexing_map3(%2, %3)
    %75 = arith.index_castui %74 : index to i64
    %76 = tt.addptr %arg1, %75 : !tt.ptr<bf16>, i64
    %c0_i32_20 = arith.constant 0 : i32
    %77 = tt.make_tensor_ptr %76, [%73], [%c1_i64_18], [%c0_i32_20] {order = array<i32: 0>} : <tensor<1024xbf16>>
    %78 = tt.load %77 : !tt.ptr<tensor<1024xbf16>>
    %79 = arith.extf %78 : tensor<1024xbf16> to tensor<1024xf32>
    %80 = tt.expand_dims %79 {axis = 0 : i32} : tensor<1024xf32> -> tensor<1x1024xf32>
    %81 = tt.broadcast %80 : tensor<1x1024xf32> -> tensor<1x1024xf32>
    %82 = arith.mulf %70, %81 : tensor<1x1024xf32>
    %83 = arith.truncf %82 : tensor<1x1024xf32> to tensor<1x1024xbf16>
    %c1_i64_21 = arith.constant 1 : i64
    %c1024_i64_22 = arith.constant 1024 : i64
    %84 = xla.apply_indexing #indexing_map3(%2, %3)
    %c32_i64_23 = arith.constant 32 : i64
    %85 = arith.index_castui %2 : index to i64
    %86 = arith.subi %c32_i64_23, %85 : i64
    %c1024_i64_24 = arith.constant 1024 : i64
    %87 = arith.index_castui %84 : index to i64
    %88 = arith.subi %c1024_i64_24, %87 : i64
    %89 = xla.apply_indexing #indexing_map4(%2, %3)
    %90 = arith.index_castui %89 : index to i64
    %91 = tt.addptr %arg5, %90 : !tt.ptr<bf16>, i64
    %c0_i32_25 = arith.constant 0 : i32
    %92 = tt.make_tensor_ptr %91, [%86, %88], [%c1024_i64_22, %c1_i64_21], [%c0_i32_25, %c0_i32_25] {order = array<i32: 1, 0>} : <tensor<1x1024xbf16>>
    tt.store %92, %83 : !tt.ptr<tensor<1x1024xbf16>>
    tt.return
  }
}
