HloModule SyncTensorsGraph.885, is_scheduled=true, entry_computation_layout={(bf16[128]{0}, f32[], bf16[4096,1024]{1,0}, bf16[1024]{0}, s32[64]{0}, /*index=5*/bf16[151936,1024]{1,0}, bf16[1024,2048]{1,0}, bf16[1024,3072]{1,0}, bf16[6144,1024]{1,0}, bf16[1024]{0}, /*index=10*/bf16[1024,2048]{1,0}, bf16[1024,3072]{1,0}, bf16[6144,1024]{1,0}, bf16[1024]{0}, bf16[1024,2048]{1,0}, /*index=15*/bf16[1024,3072]{1,0}, bf16[6144,1024]{1,0}, bf16[1024]{0}, bf16[1024,2048]{1,0}, bf16[1024,3072]{1,0}, /*index=20*/bf16[6144,1024]{1,0}, bf16[1024]{0}, bf16[1024,2048]{1,0}, bf16[1024,3072]{1,0}, bf16[6144,1024]{1,0}, /*index=25*/bf16[1024]{0}, bf16[1024,2048]{1,0}, bf16[1024,3072]{1,0}, bf16[6144,1024]{1,0}, bf16[1024]{0}, /*index=30*/bf16[1024,2048]{1,0}, bf16[1024,3072]{1,0}, bf16[6144,1024]{1,0}, bf16[1024]{0}, bf16[1024,2048]{1,0}, /*index=35*/bf16[1024,3072]{1,0}, bf16[6144,1024]{1,0}, bf16[1024]{0}, bf16[1024,2048]{1,0}, bf16[1024,3072]{1,0}, /*index=40*/bf16[6144,1024]{1,0}, bf16[1024]{0}, bf16[1024,2048]{1,0}, bf16[1024,3072]{1,0}, bf16[6144,1024]{1,0}, /*index=45*/bf16[1024]{0}, s32[64]{0}, bf16[40960,128]{1,0}, bf16[2,4233,16,8,128]{4,3,2,1,0})->(bf16[64,8,128]{2,1,0}, bf16[64,8,128]{2,1,0}, bf16[4233,16,8,128]{3,2,1,0}, bf16[4233,16,8,128]{3,2,1,0})}, frontend_attributes={fingerprint_before_lhs="84ff40027a35a0f1e455e1e8344fe942"}

%fused_gather (param_0.9: bf16[151936,1024], param_1.365: s32[64]) -> bf16[64,1,1024] {
  %param_0.9 = bf16[151936,1024]{1,0} parameter(0)
  %param_1.365 = s32[64]{0} parameter(1)
  %convert.519.1 = s64[64]{0} convert(s32[64]{0} %param_1.365), metadata={op_type="xla__cast" op_name="xla__cast" source_file="/usr/local/lib/python3.10/site-packages/torch/_ops.py" source_line=756}
  %convert.520.1 = u32[64]{0} convert(s64[64]{0} %convert.519.1), metadata={op_type="aten__index_select" op_name="aten__index_select" source_file="/usr/local/lib/python3.10/site-packages/torch/_ops.py" source_line=756}
  %bitcast.1731.1 = u32[64,1]{1,0} bitcast(u32[64]{0} %convert.520.1)
  ROOT %gather.3 = bf16[64,1,1024]{2,0,1} gather(bf16[151936,1024]{1,0} %param_0.9, u32[64,1]{1,0} %bitcast.1731.1), offset_dims={1,2}, collapsed_slice_dims={}, start_index_map={0}, index_vector_dim=1, slice_sizes={1,1024}, metadata={op_type="aten__index_select" op_name="aten__index_select" source_file="/usr/local/lib/python3.10/site-packages/torch/_ops.py" source_line=756}
}

%wrapped_concatenate_computation (param_0.475: bf16[1024,2048], param_1.381: bf16[1024,2048], param_2.249: bf16[1024,2048], param_3.234: bf16[1024,2048], param_4.133: bf16[1024,2048], param_5.51: bf16[1024,2048], param_6.39: bf16[1024,2048], param_7.19: bf16[1024,2048], param_8.3: bf16[1024,2048], param_9: bf16[1024,2048]) -> bf16[10240,2048] {
  %param_0.475 = bf16[1024,2048]{1,0} parameter(0)
  %param_1.381 = bf16[1024,2048]{1,0} parameter(1)
  %param_2.249 = bf16[1024,2048]{1,0} parameter(2)
  %param_3.234 = bf16[1024,2048]{1,0} parameter(3)
  %param_4.133 = bf16[1024,2048]{1,0} parameter(4)
  %param_5.51 = bf16[1024,2048]{1,0} parameter(5)
  %param_6.39 = bf16[1024,2048]{1,0} parameter(6)
  %param_7.19 = bf16[1024,2048]{1,0} parameter(7)
  %param_8.3 = bf16[1024,2048]{1,0} parameter(8)
  %param_9 = bf16[1024,2048]{1,0} parameter(9)
  ROOT %concatenate.23.1 = bf16[10240,2048]{1,0} concatenate(bf16[1024,2048]{1,0} %param_0.475, bf16[1024,2048]{1,0} %param_1.381, bf16[1024,2048]{1,0} %param_2.249, bf16[1024,2048]{1,0} %param_3.234, bf16[1024,2048]{1,0} %param_4.133, /*index=5*/bf16[1024,2048]{1,0} %param_5.51, bf16[1024,2048]{1,0} %param_6.39, bf16[1024,2048]{1,0} %param_7.19, bf16[1024,2048]{1,0} %param_8.3, bf16[1024,2048]{1,0} %param_9), dimensions={0}, metadata={op_type="xla__device_data" op_name="xla__device_data" source_file="/usr/local/lib/python3.10/site-packages/torch_xla/_dynamo/dynamo_bridge.py" source_line=355}
}

%gemm_fusion_dot.39_computation (parameter_0: bf16[10240,2048]) -> bf16[64,10240] {
  %constant_111 = bf16[] constant(0), metadata={op_type="aten__expand" op_name="aten__expand" source_file="/usr/local/lib/python3.10/site-packages/torch/_ops.py" source_line=756}
  %broadcast.97 = bf16[64,2048]{1,0} broadcast(bf16[] %constant_111), dimensions={}, metadata={op_type="aten__expand" op_name="aten__expand" source_file="/usr/local/lib/python3.10/site-packages/torch/_ops.py" source_line=756}
  %parameter_0 = bf16[10240,2048]{1,0} parameter(0)
  ROOT %dot.40 = bf16[64,10240]{1,0} dot(bf16[64,2048]{1,0} %broadcast.97, bf16[10240,2048]{1,0} %parameter_0), lhs_contracting_dims={1}, rhs_contracting_dims={1}, metadata={op_type="aten__mm" op_name="aten__mm" source_file="/usr/local/lib/python3.10/site-packages/torch/_ops.py" source_line=756}
}

%AddComputation.66 (x.67: f32[], y.68: f32[]) -> f32[] {
  %y.68 = f32[] parameter(1)
  %x.67 = f32[] parameter(0)
  ROOT %add.139 = f32[] add(f32[] %x.67, f32[] %y.68)
}

%fused_computation.110 (param_0.451: f32[], param_1.362: bf16[64,1,1024], param_2.225: bf16[64,10240], param_3.200: bf16[1024]) -> bf16[64,1024] {
  %param_2.225 = bf16[64,10240]{1,0} parameter(2)
  %convert.518.36 = f32[64,10240]{1,0} convert(bf16[64,10240]{1,0} %param_2.225), metadata={op_type="xla__cast" op_name="xla__cast" source_file="/usr/local/lib/python3.10/site-packages/torch/_ops.py" source_line=756}
  %slice.146.9 = f32[64,1024]{1,0} slice(f32[64,10240]{1,0} %convert.518.36), slice={[0:64], [9216:10240]}, metadata={op_type="aten__mm" op_name="aten__mm" source_file="/usr/local/lib/python3.10/site-packages/torch/_ops.py" source_line=756}
  %param_1.362 = bf16[64,1,1024]{2,0,1} parameter(1)
  %bitcast.1734.9 = bf16[64,1024]{1,0} bitcast(bf16[64,1,1024]{2,0,1} %param_1.362)
  %convert.523.9 = f32[64,1024]{1,0} convert(bf16[64,1024]{1,0} %bitcast.1734.9), metadata={op_type="xla__cast" op_name="xla__cast" source_file="/usr/local/lib/python3.10/site-packages/torch/_ops.py" source_line=756}
  %add.140.7 = f32[64,1024]{1,0} add(f32[64,1024]{1,0} %slice.146.9, f32[64,1024]{1,0} %convert.523.9), metadata={op_type="aten__add" op_name="aten__add.1027/aten__add" source_file="/usr/local/lib/python3.10/site-packages/torch/_ops.py" source_line=756}
  %multiply.294 = f32[64,1024]{1,0} multiply(f32[64,1024]{1,0} %add.140.7, f32[64,1024]{1,0} %add.140.7), metadata={op_type="aten__pow" op_name="aten__pow" source_file="/usr/local/lib/python3.10/site-packages/torch/_ops.py" source_line=756}
  %constant_255 = f32[] constant(0), metadata={op_type="aten__mean" op_name="aten__mean" source_file="/usr/local/lib/python3.10/site-packages/torch/_ops.py" source_line=756}
  %reduce.25 = f32[64]{0} reduce(f32[64,1024]{1,0} %multiply.294, f32[] %constant_255), dimensions={1}, to_apply=%AddComputation.66, metadata={op_type="aten__mean" op_name="aten__mean" source_file="/usr/local/lib/python3.10/site-packages/torch/_ops.py" source_line=756}
  %constant_254 = f32[] constant(0.0009765625), metadata={op_type="aten__mean" op_name="aten__mean" source_file="/usr/local/lib/python3.10/site-packages/torch/_ops.py" source_line=756}
  %broadcast.340 = f32[64]{0} broadcast(f32[] %constant_254), dimensions={}, metadata={op_type="aten__mean" op_name="aten__mean" source_file="/usr/local/lib/python3.10/site-packages/torch/_ops.py" source_line=756}
  %multiply.293 = f32[64]{0} multiply(f32[64]{0} %reduce.25, f32[64]{0} %broadcast.340), metadata={op_type="aten__mean" op_name="aten__mean" source_file="/usr/local/lib/python3.10/site-packages/torch/_ops.py" source_line=756}
  %param_0.451 = f32[] parameter(0)
  %broadcast.339 = f32[64]{0} broadcast(f32[] %param_0.451), dimensions={}, metadata={op_type="aten__add" op_name="aten__add.1028/aten__add" source_file="/usr/local/lib/python3.10/site-packages/torch/_ops.py" source_line=756}
  %add.174 = f32[64]{0} add(f32[64]{0} %multiply.293, f32[64]{0} %broadcast.339), metadata={op_type="aten__add" op_name="aten__add.1028/aten__add" source_file="/usr/local/lib/python3.10/site-packages/torch/_ops.py" source_line=756}
  %rsqrt.61 = f32[64]{0} rsqrt(f32[64]{0} %add.174), metadata={op_type="aten__rsqrt" op_name="aten__rsqrt" source_file="/usr/local/lib/python3.10/site-packages/torch/_ops.py" source_line=756}
  %broadcast.338 = f32[64,1024]{1,0} broadcast(f32[64]{0} %rsqrt.61), dimensions={0}, metadata={op_type="aten__mul" op_name="aten__mul.1029/aten__mul" source_file="/usr/local/lib/python3.10/site-packages/torch/_ops.py" source_line=756}
  %multiply.292 = f32[64,1024]{1,0} multiply(f32[64,1024]{1,0} %add.140.7, f32[64,1024]{1,0} %broadcast.338), metadata={op_type="aten__mul" op_name="aten__mul.1029/aten__mul" source_file="/usr/local/lib/python3.10/site-packages/torch/_ops.py" source_line=756}
  %param_3.200 = bf16[1024]{0} parameter(3)
  %convert.524.1 = f32[1024]{0} convert(bf16[1024]{0} %param_3.200), metadata={op_type="xla__cast" op_name="xla__cast" source_file="/usr/local/lib/python3.10/site-packages/torch/_ops.py" source_line=756}
  %broadcast.248.1 = f32[64,1024]{1,0} broadcast(f32[1024]{0} %convert.524.1), dimensions={1}, metadata={op_type="aten__mul" op_name="aten__mul.1030/aten__mul" source_file="/usr/local/lib/python3.10/site-packages/torch/_ops.py" source_line=756}
  %multiply.252.1 = f32[64,1024]{1,0} multiply(f32[64,1024]{1,0} %multiply.292, f32[64,1024]{1,0} %broadcast.248.1), metadata={op_type="aten__mul" op_name="aten__mul.1030/aten__mul" source_file="/usr/local/lib/python3.10/site-packages/torch/_ops.py" source_line=756}
  ROOT %convert.526.1 = bf16[64,1024]{1,0} convert(f32[64,1024]{1,0} %multiply.252.1), metadata={op_type="xla__cast" op_name="xla__cast" source_file="/usr/local/lib/python3.10/site-packages/torch/_ops.py" source_line=756}
}

%fused_convert.9 (param_0.396: bf16[64,6144]) -> bf16[64,3072] {
  %param_0.396 = bf16[64,6144]{1,0} parameter(0)
  %slice.147.1 = bf16[64,3072]{1,0} slice(bf16[64,6144]{1,0} %param_0.396), slice={[0:64], [0:3072]}, metadata={op_type="xla__select" op_name="xla__select" source_file="/usr/local/lib/python3.10/site-packages/torch/_ops.py" source_line=756}
  %convert.527.6 = f32[64,3072]{1,0} convert(bf16[64,3072]{1,0} %slice.147.1)
  %constant_1_4 = bf16[] constant(1), metadata={op_type="xla__select" op_name="xla__select" source_file="/usr/local/lib/python3.10/site-packages/torch/_ops.py" source_line=756}
  %convert.673.2 = f32[] convert(bf16[] %constant_1_4)
  %broadcast.288.80 = f32[64,3072]{1,0} broadcast(f32[] %convert.673.2), dimensions={}, metadata={op_type="xla__select" op_name="xla__select" source_file="/usr/local/lib/python3.10/site-packages/torch/_ops.py" source_line=756}
  %negate.30.7 = f32[64,3072]{1,0} negate(f32[64,3072]{1,0} %convert.527.6)
  %convert.533.5 = bf16[64,3072]{1,0} convert(f32[64,3072]{1,0} %negate.30.7)
  %exponential.30.3 = bf16[64,3072]{1,0} exponential(bf16[64,3072]{1,0} %convert.533.5)
  %convert.535.1 = f32[64,3072]{1,0} convert(bf16[64,3072]{1,0} %exponential.30.3)
  %add.142.5 = f32[64,3072]{1,0} add(f32[64,3072]{1,0} %broadcast.288.80, f32[64,3072]{1,0} %convert.535.1)
  %divide.30.3 = f32[64,3072]{1,0} divide(f32[64,3072]{1,0} %broadcast.288.80, f32[64,3072]{1,0} %add.142.5), metadata={op_type="aten__silu" op_name="aten__silu" source_file="/usr/local/lib/python3.10/site-packages/torch/_ops.py" source_line=756}
  %multiply.253.3 = f32[64,3072]{1,0} multiply(f32[64,3072]{1,0} %convert.527.6, f32[64,3072]{1,0} %divide.30.3), metadata={op_type="aten__silu" op_name="aten__silu" source_file="/usr/local/lib/python3.10/site-packages/torch/_ops.py" source_line=756}
  %slice.148.1 = bf16[64,3072]{1,0} slice(bf16[64,6144]{1,0} %param_0.396), slice={[0:64], [3072:6144]}, metadata={op_type="xla__select" op_name="xla__select" source_file="/usr/local/lib/python3.10/site-packages/torch/_ops.py" source_line=756}
  %convert.537.1 = f32[64,3072]{1,0} convert(bf16[64,3072]{1,0} %slice.148.1), metadata={op_type="xla__cast" op_name="xla__cast" source_file="/usr/local/lib/python3.10/site-packages/torch/_ops.py" source_line=756}
  %multiply.254.1 = f32[64,3072]{1,0} multiply(f32[64,3072]{1,0} %multiply.253.3, f32[64,3072]{1,0} %convert.537.1), metadata={op_type="aten__mul" op_name="aten__mul.1031/aten__mul" source_file="/usr/local/lib/python3.10/site-packages/torch/_ops.py" source_line=756}
  ROOT %convert.538.1 = bf16[64,3072]{1,0} convert(f32[64,3072]{1,0} %multiply.254.1), metadata={op_type="xla__cast" op_name="xla__cast" source_file="/usr/local/lib/python3.10/site-packages/torch/_ops.py" source_line=756}
}

%fused_computation.109 (param_0.467: f32[], param_1.371: bf16[1024], param_2.236: bf16[64,1,1024], param_3.218: bf16[64,10240], param_4.115: bf16[64,1024]) -> bf16[64,1024] {
  %param_3.218 = bf16[64,10240]{1,0} parameter(3)
  %convert.518.64 = f32[64,10240]{1,0} convert(bf16[64,10240]{1,0} %param_3.218), metadata={op_type="xla__cast" op_name="xla__cast" source_file="/usr/local/lib/python3.10/site-packages/torch/_ops.py" source_line=756}
  %slice.145.5 = f32[64,1024]{1,0} slice(f32[64,10240]{1,0} %convert.518.64), slice={[0:64], [8192:9216]}, metadata={op_type="aten__mm" op_name="aten__mm" source_file="/usr/local/lib/python3.10/site-packages/torch/_ops.py" source_line=756}
  %param_4.115 = bf16[64,1024]{1,0} parameter(4)
  %convert.539.3 = f32[64,1024]{1,0} convert(bf16[64,1024]{1,0} %param_4.115), metadata={op_type="xla__cast" op_name="xla__cast" source_file="/usr/local/lib/python3.10/site-packages/torch/_ops.py" source_line=756}
  %slice.146.11 = f32[64,1024]{1,0} slice(f32[64,10240]{1,0} %convert.518.64), slice={[0:64], [9216:10240]}, metadata={op_type="aten__mm" op_name="aten__mm" source_file="/usr/local/lib/python3.10/site-packages/torch/_ops.py" source_line=756}
  %param_2.236 = bf16[64,1,1024]{2,0,1} parameter(2)
  %bitcast.1734.11 = bf16[64,1024]{1,0} bitcast(bf16[64,1,1024]{2,0,1} %param_2.236)
  %convert.523.11 = f32[64,1024]{1,0} convert(bf16[64,1024]{1,0} %bitcast.1734.11), metadata={op_type="xla__cast" op_name="xla__cast" source_file="/usr/local/lib/python3.10/site-packages/torch/_ops.py" source_line=756}
  %add.140.9 = f32[64,1024]{1,0} add(f32[64,1024]{1,0} %slice.146.11, f32[64,1024]{1,0} %convert.523.11), metadata={op_type="aten__add" op_name="aten__add.1027/aten__add" source_file="/usr/local/lib/python3.10/site-packages/torch/_ops.py" source_line=756}
  %add.143.3 = f32[64,1024]{1,0} add(f32[64,1024]{1,0} %convert.539.3, f32[64,1024]{1,0} %add.140.9), metadata={op_type="aten__add" op_name="aten__add.1032/aten__add" source_file="/usr/local/lib/python3.10/site-packages/torch/_ops.py" source_line=756}
  %add.144.3 = f32[64,1024]{1,0} add(f32[64,1024]{1,0} %slice.145.5, f32[64,1024]{1,0} %add.143.3), metadata={op_type="aten__add" op_name="aten__add.1045/aten__add" source_file="/usr/local/lib/python3.10/site-packages/torch/_ops.py" source_line=756}
  %multiply.302 = f32[64,1024]{1,0} multiply(f32[64,1024]{1,0} %add.144.3, f32[64,1024]{1,0} %add.144.3), metadata={op_type="aten__pow" op_name="aten__pow" source_file="/usr/local/lib/python3.10/site-packages/torch/_ops.py" source_line=756}
  %constant_261 = f32[] constant(0), metadata={op_type="aten__mean" op_name="aten__mean" source_file="/usr/local/lib/python3.10/site-packages/torch/_ops.py" source_line=756}
  %reduce.27 = f32[64]{0} reduce(f32[64,1024]{1,0} %multiply.302, f32[] %constant_261), dimensions={1}, to_apply=%AddComputation.66, metadata={op_type="aten__mean" op_name="aten__mean" source_file="/usr/local/lib/python3.10/site-packages/torch/_ops.py" source_line=756}
  %constant_260 = f32[] constant(0.0009765625), metadata={op_type="aten__mean" op_name="aten__mean" source_file="/usr/local/lib/python3.10/site-packages/torch/_ops.py" source_line=756}
  %broadcast.346 = f32[64]{0} broadcast(f32[] %constant_260), dimensions={}, metadata={op_type="aten__mean" op_name="aten__mean" source_file="/usr/local/lib/python3.10/site-packages/torch/_ops.py" source_line=756}
  %multiply.301 = f32[64]{0} multiply(f32[64]{0} %reduce.27, f32[64]{0} %broadcast.346), metadata={op_type="aten__mean" op_name="aten__mean" source_file="/usr/local/lib/python3.10/site-packages/torch/_ops.py" source_line=756}
  %param_0.467 = f32[] parameter(0)
  %broadcast.345 = f32[64]{0} broadcast(f32[] %param_0.467), dimensions={}, metadata={op_type="aten__add" op_name="aten__add.1028/aten__add" source_file="/usr/local/lib/python3.10/site-packages/torch/_ops.py" source_line=756}
  %add.176 = f32[64]{0} add(f32[64]{0} %multiply.301, f32[64]{0} %broadcast.345), metadata={op_type="aten__add" op_name="aten__add.1046/aten__add" source_file="/usr/local/lib/python3.10/site-packages/torch/_ops.py" source_line=756}
  %rsqrt.63 = f32[64]{0} rsqrt(f32[64]{0} %add.176), metadata={op_type="aten__rsqrt" op_name="aten__rsqrt" source_file="/usr/local/lib/python3.10/site-packages/torch/_ops.py" source_line=756}
  %broadcast.344 = f32[64,1024]{1,0} broadcast(f32[64]{0} %rsqrt.63), dimensions={0}, metadata={op_type="aten__mul" op_name="aten__mul.1047/aten__mul" source_file="/usr/local/lib/python3.10/site-packages/torch/_ops.py" source_line=756}
  %multiply.300 = f32[64,1024]{1,0} multiply(f32[64,1024]{1,0} %add.144.3, f32[64,1024]{1,0} %broadcast.344), metadata={op_type="aten__mul" op_name="aten__mul.1047/aten__mul" source_file="/usr/local/lib/python3.10/site-packages/torch/_ops.py" source_line=756}
  %param_1.371 = bf16[1024]{0} parameter(1)
  %convert.542.1 = f32[1024]{0} convert(bf16[1024]{0} %param_1.371), metadata={op_type="xla__cast" op_name="xla__cast" source_file="/usr/local/lib/python3.10/site-packages/torch/_ops.py" source_line=756}
  %broadcast.252.1 = f32[64,1024]{1,0} broadcast(f32[1024]{0} %convert.542.1), dimensions={1}, metadata={op_type="aten__mul" op_name="aten__mul.1048/aten__mul" source_file="/usr/local/lib/python3.10/site-packages/torch/_ops.py" source_line=756}
  %multiply.255.1 = f32[64,1024]{1,0} multiply(f32[64,1024]{1,0} %multiply.300, f32[64,1024]{1,0} %broadcast.252.1), metadata={op_type="aten__mul" op_name="aten__mul.1048/aten__mul" source_file="/usr/local/lib/python3.10/site-packages/torch/_ops.py" source_line=756}
  ROOT %convert.543.1 = bf16[64,1024]{1,0} convert(f32[64,1024]{1,0} %multiply.255.1), metadata={op_type="xla__cast" op_name="xla__cast" source_file="/usr/local/lib/python3.10/site-packages/torch/_ops.py" source_line=756}
}

%fused_convert.8 (param_0.398: bf16[64,6144]) -> bf16[64,3072] {
  %param_0.398 = bf16[64,6144]{1,0} parameter(0)
  %slice.149.1 = bf16[64,3072]{1,0} slice(bf16[64,6144]{1,0} %param_0.398), slice={[0:64], [0:3072]}, metadata={op_type="xla__select" op_name="xla__select" source_file="/usr/local/lib/python3.10/site-packages/torch/_ops.py" source_line=756}
  %convert.544.6 = f32[64,3072]{1,0} convert(bf16[64,3072]{1,0} %slice.149.1)
  %constant_1_6 = bf16[] constant(1), metadata={op_type="xla__select" op_name="xla__select" source_file="/usr/local/lib/python3.10/site-packages/torch/_ops.py" source_line=756}
  %convert.673.4 = f32[] convert(bf16[] %constant_1_6)
  %broadcast.288.76 = f32[64,3072]{1,0} broadcast(f32[] %convert.673.4), dimensions={}, metadata={op_type="xla__select" op_name="xla__select" source_file="/usr/local/lib/python3.10/site-packages/torch/_ops.py" source_line=756}
  %negate.31.7 = f32[64,3072]{1,0} negate(f32[64,3072]{1,0} %convert.544.6)
  %convert.548.5 = bf16[64,3072]{1,0} convert(f32[64,3072]{1,0} %negate.31.7)
  %exponential.31.3 = bf16[64,3072]{1,0} exponential(bf16[64,3072]{1,0} %convert.548.5)
  %convert.549.1 = f32[64,3072]{1,0} convert(bf16[64,3072]{1,0} %exponential.31.3)
  %add.145.5 = f32[64,3072]{1,0} add(f32[64,3072]{1,0} %broadcast.288.76, f32[64,3072]{1,0} %convert.549.1)
  %divide.31.3 = f32[64,3072]{1,0} divide(f32[64,3072]{1,0} %broadcast.288.76, f32[64,3072]{1,0} %add.145.5), metadata={op_type="aten__silu" op_name="aten__silu" source_file="/usr/local/lib/python3.10/site-packages/torch/_ops.py" source_line=756}
  %multiply.256.3 = f32[64,3072]{1,0} multiply(f32[64,3072]{1,0} %convert.544.6, f32[64,3072]{1,0} %divide.31.3), metadata={op_type="aten__silu" op_name="aten__silu" source_file="/usr/local/lib/python3.10/site-packages/torch/_ops.py" source_line=756}
  %slice.150.1 = bf16[64,3072]{1,0} slice(bf16[64,6144]{1,0} %param_0.398), slice={[0:64], [3072:6144]}, metadata={op_type="xla__select" op_name="xla__select" source_file="/usr/local/lib/python3.10/site-packages/torch/_ops.py" source_line=756}
  %convert.550.1 = f32[64,3072]{1,0} convert(bf16[64,3072]{1,0} %slice.150.1), metadata={op_type="xla__cast" op_name="xla__cast" source_file="/usr/local/lib/python3.10/site-packages/torch/_ops.py" source_line=756}
  %multiply.257.1 = f32[64,3072]{1,0} multiply(f32[64,3072]{1,0} %multiply.256.3, f32[64,3072]{1,0} %convert.550.1), metadata={op_type="aten__mul" op_name="aten__mul.1049/aten__mul" source_file="/usr/local/lib/python3.10/site-packages/torch/_ops.py" source_line=756}
  ROOT %convert.551.1 = bf16[64,3072]{1,0} convert(f32[64,3072]{1,0} %multiply.257.1), metadata={op_type="xla__cast" op_name="xla__cast" source_file="/usr/local/lib/python3.10/site-packages/torch/_ops.py" source_line=756}
}

%fused_computation.108 (param_0.449: f32[], param_1.374: bf16[64,1024], param_2.240: bf16[64,10240], param_3.221: bf16[1024], param_4.121: bf16[64,1,1024], param_5.35: bf16[64,1024]) -> bf16[64,1024] {
  %param_2.240 = bf16[64,10240]{1,0} parameter(2)
  %convert.518.50 = f32[64,10240]{1,0} convert(bf16[64,10240]{1,0} %param_2.240), metadata={op_type="xla__cast" op_name="xla__cast" source_file="/usr/local/lib/python3.10/site-packages/torch/_ops.py" source_line=756}
  %slice.144.5 = f32[64,1024]{1,0} slice(f32[64,10240]{1,0} %convert.518.50), slice={[0:64], [7168:8192]}, metadata={op_type="aten__mm" op_name="aten__mm" source_file="/usr/local/lib/python3.10/site-packages/torch/_ops.py" source_line=756}
  %param_1.374 = bf16[64,1024]{1,0} parameter(1)
  %convert.553.3 = f32[64,1024]{1,0} convert(bf16[64,1024]{1,0} %param_1.374), metadata={op_type="xla__cast" op_name="xla__cast" source_file="/usr/local/lib/python3.10/site-packages/torch/_ops.py" source_line=756}
  %slice.145.9 = f32[64,1024]{1,0} slice(f32[64,10240]{1,0} %convert.518.50), slice={[0:64], [8192:9216]}, metadata={op_type="aten__mm" op_name="aten__mm" source_file="/usr/local/lib/python3.10/site-packages/torch/_ops.py" source_line=756}
  %param_5.35 = bf16[64,1024]{1,0} parameter(5)
  %convert.539.7 = f32[64,1024]{1,0} convert(bf16[64,1024]{1,0} %param_5.35), metadata={op_type="xla__cast" op_name="xla__cast" source_file="/usr/local/lib/python3.10/site-packages/torch/_ops.py" source_line=756}
  %slice.146.15 = f32[64,1024]{1,0} slice(f32[64,10240]{1,0} %convert.518.50), slice={[0:64], [9216:10240]}, metadata={op_type="aten__mm" op_name="aten__mm" source_file="/usr/local/lib/python3.10/site-packages/torch/_ops.py" source_line=756}
  %param_4.121 = bf16[64,1,1024]{2,0,1} parameter(4)
  %bitcast.1734.15 = bf16[64,1024]{1,0} bitcast(bf16[64,1,1024]{2,0,1} %param_4.121)
  %convert.523.15 = f32[64,1024]{1,0} convert(bf16[64,1024]{1,0} %bitcast.1734.15), metadata={op_type="xla__cast" op_name="xla__cast" source_file="/usr/local/lib/python3.10/site-packages/torch/_ops.py" source_line=756}
  %add.140.13 = f32[64,1024]{1,0} add(f32[64,1024]{1,0} %slice.146.15, f32[64,1024]{1,0} %convert.523.15), metadata={op_type="aten__add" op_name="aten__add.1027/aten__add" source_file="/usr/local/lib/python3.10/site-packages/torch/_ops.py" source_line=756}
  %add.143.7 = f32[64,1024]{1,0} add(f32[64,1024]{1,0} %convert.539.7, f32[64,1024]{1,0} %add.140.13), metadata={op_type="aten__add" op_name="aten__add.1032/aten__add" source_file="/usr/local/lib/python3.10/site-packages/torch/_ops.py" source_line=756}
  %add.144.7 = f32[64,1024]{1,0} add(f32[64,1024]{1,0} %slice.145.9, f32[64,1024]{1,0} %add.143.7), metadata={op_type="aten__add" op_name="aten__add.1045/aten__add" source_file="/usr/local/lib/python3.10/site-packages/torch/_ops.py" source_line=756}
  %add.146.3 = f32[64,1024]{1,0} add(f32[64,1024]{1,0} %convert.553.3, f32[64,1024]{1,0} %add.144.7), metadata={op_type="aten__add" op_name="aten__add.1050/aten__add" source_file="/usr/local/lib/python3.10/site-packages/torch/_ops.py" source_line=756}
  %add.147.3 = f32[64,1024]{1,0} add(f32[64,1024]{1,0} %slice.144.5, f32[64,1024]{1,0} %add.146.3), metadata={op_type="aten__add" op_name="aten__add.1063/aten__add" source_file="/usr/local/lib/python3.10/site-packages/torch/_ops.py" source_line=756}
  %multiply.310 = f32[64,1024]{1,0} multiply(f32[64,1024]{1,0} %add.147.3, f32[64,1024]{1,0} %add.147.3), metadata={op_type="aten__pow" op_name="aten__pow" source_file="/usr/local/lib/python3.10/site-packages/torch/_ops.py" source_line=756}
  %constant_266 = f32[] constant(0), metadata={op_type="aten__mean" op_name="aten__mean" source_file="/usr/local/lib/python3.10/site-packages/torch/_ops.py" source_line=756}
  %reduce.29 = f32[64]{0} reduce(f32[64,1024]{1,0} %multiply.310, f32[] %constant_266), dimensions={1}, to_apply=%AddComputation.66, metadata={op_type="aten__mean" op_name="aten__mean" source_file="/usr/local/lib/python3.10/site-packages/torch/_ops.py" source_line=756}
  %constant_265 = f32[] constant(0.0009765625), metadata={op_type="aten__mean" op_name="aten__mean" source_file="/usr/local/lib/python3.10/site-packages/torch/_ops.py" source_line=756}
  %broadcast.353 = f32[64]{0} broadcast(f32[] %constant_265), dimensions={}, metadata={op_type="aten__mean" op_name="aten__mean" source_file="/usr/local/lib/python3.10/site-packages/torch/_ops.py" source_line=756}
  %multiply.309 = f32[64]{0} multiply(f32[64]{0} %reduce.29, f32[64]{0} %broadcast.353), metadata={op_type="aten__mean" op_name="aten__mean" source_file="/usr/local/lib/python3.10/site-packages/torch/_ops.py" source_line=756}
  %param_0.449 = f32[] parameter(0)
  %broadcast.352 = f32[64]{0} broadcast(f32[] %param_0.449), dimensions={}, metadata={op_type="aten__add" op_name="aten__add.1028/aten__add" source_file="/usr/local/lib/python3.10/site-packages/torch/_ops.py" source_line=756}
  %add.178 = f32[64]{0} add(f32[64]{0} %multiply.309, f32[64]{0} %broadcast.352), metadata={op_type="aten__add" op_name="aten__add.1064/aten__add" source_file="/usr/local/lib/python3.10/site-packages/torch/_ops.py" source_line=756}
  %rsqrt.65 = f32[64]{0} rsqrt(f32[64]{0} %add.178), metadata={op_type="aten__rsqrt" op_name="aten__rsqrt" source_file="/usr/local/lib/python3.10/site-packages/torch/_ops.py" source_line=756}
  %broadcast.351 = f32[64,1024]{1,0} broadcast(f32[64]{0} %rsqrt.65), dimensions={0}, metadata={op_type="aten__mul" op_name="aten__mul.1065/aten__mul" source_file="/usr/local/lib/python3.10/site-packages/torch/_ops.py" source_line=756}
  %multiply.307 = f32[64,1024]{1,0} multiply(f32[64,1024]{1,0} %add.147.3, f32[64,1024]{1,0} %broadcast.351), metadata={op_type="aten__mul" op_name="aten__mul.1065/aten__mul" source_file="/usr/local/lib/python3.10/site-packages/torch/_ops.py" source_line=756}
  %param_3.221 = bf16[1024]{0} parameter(3)
  %convert.554.1 = f32[1024]{0} convert(bf16[1024]{0} %param_3.221), metadata={op_type="xla__cast" op_name="xla__cast" source_file="/usr/local/lib/python3.10/site-packages/torch/_ops.py" source_line=756}
  %broadcast.255.1 = f32[64,1024]{1,0} broadcast(f32[1024]{0} %convert.554.1), dimensions={1}, metadata={op_type="aten__mul" op_name="aten__mul.1066/aten__mul" source_file="/usr/local/lib/python3.10/site-packages/torch/_ops.py" source_line=756}
  %multiply.258.1 = f32[64,1024]{1,0} multiply(f32[64,1024]{1,0} %multiply.307, f32[64,1024]{1,0} %broadcast.255.1), metadata={op_type="aten__mul" op_name="aten__mul.1066/aten__mul" source_file="/usr/local/lib/python3.10/site-packages/torch/_ops.py" source_line=756}
  ROOT %convert.555.1 = bf16[64,1024]{1,0} convert(f32[64,1024]{1,0} %multiply.258.1), metadata={op_type="xla__cast" op_name="xla__cast" source_file="/usr/local/lib/python3.10/site-packages/torch/_ops.py" source_line=756}
}

%fused_convert.7 (param_0.400: bf16[64,6144]) -> bf16[64,3072] {
  %param_0.400 = bf16[64,6144]{1,0} parameter(0)
  %slice.151.1 = bf16[64,3072]{1,0} slice(bf16[64,6144]{1,0} %param_0.400), slice={[0:64], [0:3072]}, metadata={op_type="xla__select" op_name="xla__select" source_file="/usr/local/lib/python3.10/site-packages/torch/_ops.py" source_line=756}
  %convert.558.6 = f32[64,3072]{1,0} convert(bf16[64,3072]{1,0} %slice.151.1)
  %constant_1_8 = bf16[] constant(1), metadata={op_type="xla__select" op_name="xla__select" source_file="/usr/local/lib/python3.10/site-packages/torch/_ops.py" source_line=756}
  %convert.673.6 = f32[] convert(bf16[] %constant_1_8)
  %broadcast.288.72 = f32[64,3072]{1,0} broadcast(f32[] %convert.673.6), dimensions={}, metadata={op_type="xla__select" op_name="xla__select" source_file="/usr/local/lib/python3.10/site-packages/torch/_ops.py" source_line=756}
  %negate.32.7 = f32[64,3072]{1,0} negate(f32[64,3072]{1,0} %convert.558.6)
  %convert.562.5 = bf16[64,3072]{1,0} convert(f32[64,3072]{1,0} %negate.32.7)
  %exponential.32.3 = bf16[64,3072]{1,0} exponential(bf16[64,3072]{1,0} %convert.562.5)
  %convert.564.1 = f32[64,3072]{1,0} convert(bf16[64,3072]{1,0} %exponential.32.3)
  %add.148.5 = f32[64,3072]{1,0} add(f32[64,3072]{1,0} %broadcast.288.72, f32[64,3072]{1,0} %convert.564.1)
  %divide.32.3 = f32[64,3072]{1,0} divide(f32[64,3072]{1,0} %broadcast.288.72, f32[64,3072]{1,0} %add.148.5), metadata={op_type="aten__silu" op_name="aten__silu" source_file="/usr/local/lib/python3.10/site-packages/torch/_ops.py" source_line=756}
  %multiply.259.3 = f32[64,3072]{1,0} multiply(f32[64,3072]{1,0} %convert.558.6, f32[64,3072]{1,0} %divide.32.3), metadata={op_type="aten__silu" op_name="aten__silu" source_file="/usr/local/lib/python3.10/site-packages/torch/_ops.py" source_line=756}
  %slice.152.1 = bf16[64,3072]{1,0} slice(bf16[64,6144]{1,0} %param_0.400), slice={[0:64], [3072:6144]}, metadata={op_type="xla__select" op_name="xla__select" source_file="/usr/local/lib/python3.10/site-packages/torch/_ops.py" source_line=756}
  %convert.565.1 = f32[64,3072]{1,0} convert(bf16[64,3072]{1,0} %slice.152.1), metadata={op_type="xla__cast" op_name="xla__cast" source_file="/usr/local/lib/python3.10/site-packages/torch/_ops.py" source_line=756}
  %multiply.260.1 = f32[64,3072]{1,0} multiply(f32[64,3072]{1,0} %multiply.259.3, f32[64,3072]{1,0} %convert.565.1), metadata={op_type="aten__mul" op_name="aten__mul.1067/aten__mul" source_file="/usr/local/lib/python3.10/site-packages/torch/_ops.py" source_line=756}
  ROOT %convert.566.1 = bf16[64,3072]{1,0} convert(f32[64,3072]{1,0} %multiply.260.1), metadata={op_type="xla__cast" op_name="xla__cast" source_file="/usr/local/lib/python3.10/site-packages/torch/_ops.py" source_line=756}
}

%fused_add (param_0.364: bf16[64,10240], param_1.337: bf16[64,1024], param_2.238: bf16[64,1024], param_3.220: bf16[64,1,1024], param_4.119: bf16[64,1024]) -> f32[64,1024] {
  %param_0.364 = bf16[64,10240]{1,0} parameter(0)
  %convert.518.18 = f32[64,10240]{1,0} convert(bf16[64,10240]{1,0} %param_0.364), metadata={op_type="xla__cast" op_name="xla__cast" source_file="/usr/local/lib/python3.10/site-packages/torch/_ops.py" source_line=756}
  %slice.143.3 = f32[64,1024]{1,0} slice(f32[64,10240]{1,0} %convert.518.18), slice={[0:64], [6144:7168]}, metadata={op_type="aten__mm" op_name="aten__mm" source_file="/usr/local/lib/python3.10/site-packages/torch/_ops.py" source_line=756}
  %param_1.337 = bf16[64,1024]{1,0} parameter(1)
  %convert.567.1 = f32[64,1024]{1,0} convert(bf16[64,1024]{1,0} %param_1.337), metadata={op_type="xla__cast" op_name="xla__cast" source_file="/usr/local/lib/python3.10/site-packages/torch/_ops.py" source_line=756}
  %slice.144.7 = f32[64,1024]{1,0} slice(f32[64,10240]{1,0} %convert.518.18), slice={[0:64], [7168:8192]}, metadata={op_type="aten__mm" op_name="aten__mm" source_file="/usr/local/lib/python3.10/site-packages/torch/_ops.py" source_line=756}
  %param_2.238 = bf16[64,1024]{1,0} parameter(2)
  %convert.553.5 = f32[64,1024]{1,0} convert(bf16[64,1024]{1,0} %param_2.238), metadata={op_type="xla__cast" op_name="xla__cast" source_file="/usr/local/lib/python3.10/site-packages/torch/_ops.py" source_line=756}
  %slice.145.7 = f32[64,1024]{1,0} slice(f32[64,10240]{1,0} %convert.518.18), slice={[0:64], [8192:9216]}, metadata={op_type="aten__mm" op_name="aten__mm" source_file="/usr/local/lib/python3.10/site-packages/torch/_ops.py" source_line=756}
  %param_4.119 = bf16[64,1024]{1,0} parameter(4)
  %convert.539.5 = f32[64,1024]{1,0} convert(bf16[64,1024]{1,0} %param_4.119), metadata={op_type="xla__cast" op_name="xla__cast" source_file="/usr/local/lib/python3.10/site-packages/torch/_ops.py" source_line=756}
  %slice.146.13 = f32[64,1024]{1,0} slice(f32[64,10240]{1,0} %convert.518.18), slice={[0:64], [9216:10240]}, metadata={op_type="aten__mm" op_name="aten__mm" source_file="/usr/local/lib/python3.10/site-packages/torch/_ops.py" source_line=756}
  %param_3.220 = bf16[64,1,1024]{2,0,1} parameter(3)
  %bitcast.1734.13 = bf16[64,1024]{1,0} bitcast(bf16[64,1,1024]{2,0,1} %param_3.220)
  %convert.523.13 = f32[64,1024]{1,0} convert(bf16[64,1024]{1,0} %bitcast.1734.13), metadata={op_type="xla__cast" op_name="xla__cast" source_file="/usr/local/lib/python3.10/site-packages/torch/_ops.py" source_line=756}
  %add.140.11 = f32[64,1024]{1,0} add(f32[64,1024]{1,0} %slice.146.13, f32[64,1024]{1,0} %convert.523.13), metadata={op_type="aten__add" op_name="aten__add.1027/aten__add" source_file="/usr/local/lib/python3.10/site-packages/torch/_ops.py" source_line=756}
  %add.143.5 = f32[64,1024]{1,0} add(f32[64,1024]{1,0} %convert.539.5, f32[64,1024]{1,0} %add.140.11), metadata={op_type="aten__add" op_name="aten__add.1032/aten__add" source_file="/usr/local/lib/python3.10/site-packages/torch/_ops.py" source_line=756}
  %add.144.5 = f32[64,1024]{1,0} add(f32[64,1024]{1,0} %slice.145.7, f32[64,1024]{1,0} %add.143.5), metadata={op_type="aten__add" op_name="aten__add.1045/aten__add" source_file="/usr/local/lib/python3.10/site-packages/torch/_ops.py" source_line=756}
  %add.146.5 = f32[64,1024]{1,0} add(f32[64,1024]{1,0} %convert.553.5, f32[64,1024]{1,0} %add.144.5), metadata={op_type="aten__add" op_name="aten__add.1050/aten__add" source_file="/usr/local/lib/python3.10/site-packages/torch/_ops.py" source_line=756}
  %add.147.5 = f32[64,1024]{1,0} add(f32[64,1024]{1,0} %slice.144.7, f32[64,1024]{1,0} %add.146.5), metadata={op_type="aten__add" op_name="aten__add.1063/aten__add" source_file="/usr/local/lib/python3.10/site-packages/torch/_ops.py" source_line=756}
  %add.149.1 = f32[64,1024]{1,0} add(f32[64,1024]{1,0} %convert.567.1, f32[64,1024]{1,0} %add.147.5), metadata={op_type="aten__add" op_name="aten__add.1068/aten__add" source_file="/usr/local/lib/python3.10/site-packages/torch/_ops.py" source_line=756}
  ROOT %add.150.1 = f32[64,1024]{1,0} add(f32[64,1024]{1,0} %slice.143.3, f32[64,1024]{1,0} %add.149.1), metadata={op_type="aten__add" op_name="aten__add.1081/aten__add" source_file="/usr/local/lib/python3.10/site-packages/torch/_ops.py" source_line=756}
}

%fused_computation.107 (param_0.448: f32[64,1024], param_1.359: f32[], param_2.222: bf16[1024]) -> bf16[64,1024] {
  %param_0.448 = f32[64,1024]{1,0} parameter(0)
  %multiply.318 = f32[64,1024]{1,0} multiply(f32[64,1024]{1,0} %param_0.448, f32[64,1024]{1,0} %param_0.448), metadata={op_type="aten__pow" op_name="aten__pow" source_file="/usr/local/lib/python3.10/site-packages/torch/_ops.py" source_line=756}
  %constant_271 = f32[] constant(0), metadata={op_type="aten__mean" op_name="aten__mean" source_file="/usr/local/lib/python3.10/site-packages/torch/_ops.py" source_line=756}
  %reduce.31 = f32[64]{0} reduce(f32[64,1024]{1,0} %multiply.318, f32[] %constant_271), dimensions={1}, to_apply=%AddComputation.66, metadata={op_type="aten__mean" op_name="aten__mean" source_file="/usr/local/lib/python3.10/site-packages/torch/_ops.py" source_line=756}
  %constant_270 = f32[] constant(0.0009765625), metadata={op_type="aten__mean" op_name="aten__mean" source_file="/usr/local/lib/python3.10/site-packages/torch/_ops.py" source_line=756}
  %broadcast.359 = f32[64]{0} broadcast(f32[] %constant_270), dimensions={}, metadata={op_type="aten__mean" op_name="aten__mean" source_file="/usr/local/lib/python3.10/site-packages/torch/_ops.py" source_line=756}
  %multiply.316 = f32[64]{0} multiply(f32[64]{0} %reduce.31, f32[64]{0} %broadcast.359), metadata={op_type="aten__mean" op_name="aten__mean" source_file="/usr/local/lib/python3.10/site-packages/torch/_ops.py" source_line=756}
  %param_1.359 = f32[] parameter(1)
  %broadcast.358 = f32[64]{0} broadcast(f32[] %param_1.359), dimensions={}, metadata={op_type="aten__add" op_name="aten__add.1028/aten__add" source_file="/usr/local/lib/python3.10/site-packages/torch/_ops.py" source_line=756}
  %add.181 = f32[64]{0} add(f32[64]{0} %multiply.316, f32[64]{0} %broadcast.358), metadata={op_type="aten__add" op_name="aten__add.1082/aten__add" source_file="/usr/local/lib/python3.10/site-packages/torch/_ops.py" source_line=756}
  %rsqrt.67 = f32[64]{0} rsqrt(f32[64]{0} %add.181), metadata={op_type="aten__rsqrt" op_name="aten__rsqrt" source_file="/usr/local/lib/python3.10/site-packages/torch/_ops.py" source_line=756}
  %broadcast.357 = f32[64,1024]{1,0} broadcast(f32[64]{0} %rsqrt.67), dimensions={0}, metadata={op_type="aten__mul" op_name="aten__mul.1083/aten__mul" source_file="/usr/local/lib/python3.10/site-packages/torch/_ops.py" source_line=756}
  %multiply.314 = f32[64,1024]{1,0} multiply(f32[64,1024]{1,0} %param_0.448, f32[64,1024]{1,0} %broadcast.357), metadata={op_type="aten__mul" op_name="aten__mul.1083/aten__mul" source_file="/usr/local/lib/python3.10/site-packages/torch/_ops.py" source_line=756}
  %param_2.222 = bf16[1024]{0} parameter(2)
  %convert.568.1 = f32[1024]{0} convert(bf16[1024]{0} %param_2.222), metadata={op_type="xla__cast" op_name="xla__cast" source_file="/usr/local/lib/python3.10/site-packages/torch/_ops.py" source_line=756}
  %broadcast.259.1 = f32[64,1024]{1,0} broadcast(f32[1024]{0} %convert.568.1), dimensions={1}, metadata={op_type="aten__mul" op_name="aten__mul.1084/aten__mul" source_file="/usr/local/lib/python3.10/site-packages/torch/_ops.py" source_line=756}
  %multiply.261.1 = f32[64,1024]{1,0} multiply(f32[64,1024]{1,0} %multiply.314, f32[64,1024]{1,0} %broadcast.259.1), metadata={op_type="aten__mul" op_name="aten__mul.1084/aten__mul" source_file="/usr/local/lib/python3.10/site-packages/torch/_ops.py" source_line=756}
  ROOT %convert.569.1 = bf16[64,1024]{1,0} convert(f32[64,1024]{1,0} %multiply.261.1), metadata={op_type="xla__cast" op_name="xla__cast" source_file="/usr/local/lib/python3.10/site-packages/torch/_ops.py" source_line=756}
}

%fused_convert.6 (param_0.402: bf16[64,6144]) -> bf16[64,3072] {
  %param_0.402 = bf16[64,6144]{1,0} parameter(0)
  %slice.153.1 = bf16[64,3072]{1,0} slice(bf16[64,6144]{1,0} %param_0.402), slice={[0:64], [0:3072]}, metadata={op_type="xla__select" op_name="xla__select" source_file="/usr/local/lib/python3.10/site-packages/torch/_ops.py" source_line=756}
  %convert.570.6 = f32[64,3072]{1,0} convert(bf16[64,3072]{1,0} %slice.153.1)
  %constant_1_10 = bf16[] constant(1), metadata={op_type="xla__select" op_name="xla__select" source_file="/usr/local/lib/python3.10/site-packages/torch/_ops.py" source_line=756}
  %convert.673.8 = f32[] convert(bf16[] %constant_1_10)
  %broadcast.288.68 = f32[64,3072]{1,0} broadcast(f32[] %convert.673.8), dimensions={}, metadata={op_type="xla__select" op_name="xla__select" source_file="/usr/local/lib/python3.10/site-packages/torch/_ops.py" source_line=756}
  %negate.33.7 = f32[64,3072]{1,0} negate(f32[64,3072]{1,0} %convert.570.6)
  %convert.574.5 = bf16[64,3072]{1,0} convert(f32[64,3072]{1,0} %negate.33.7)
  %exponential.33.3 = bf16[64,3072]{1,0} exponential(bf16[64,3072]{1,0} %convert.574.5)
  %convert.575.1 = f32[64,3072]{1,0} convert(bf16[64,3072]{1,0} %exponential.33.3)
  %add.151.5 = f32[64,3072]{1,0} add(f32[64,3072]{1,0} %broadcast.288.68, f32[64,3072]{1,0} %convert.575.1)
  %divide.33.3 = f32[64,3072]{1,0} divide(f32[64,3072]{1,0} %broadcast.288.68, f32[64,3072]{1,0} %add.151.5), metadata={op_type="aten__silu" op_name="aten__silu" source_file="/usr/local/lib/python3.10/site-packages/torch/_ops.py" source_line=756}
  %multiply.262.3 = f32[64,3072]{1,0} multiply(f32[64,3072]{1,0} %convert.570.6, f32[64,3072]{1,0} %divide.33.3), metadata={op_type="aten__silu" op_name="aten__silu" source_file="/usr/local/lib/python3.10/site-packages/torch/_ops.py" source_line=756}
  %slice.154.1 = bf16[64,3072]{1,0} slice(bf16[64,6144]{1,0} %param_0.402), slice={[0:64], [3072:6144]}, metadata={op_type="xla__select" op_name="xla__select" source_file="/usr/local/lib/python3.10/site-packages/torch/_ops.py" source_line=756}
  %convert.576.1 = f32[64,3072]{1,0} convert(bf16[64,3072]{1,0} %slice.154.1), metadata={op_type="xla__cast" op_name="xla__cast" source_file="/usr/local/lib/python3.10/site-packages/torch/_ops.py" source_line=756}
  %multiply.263.1 = f32[64,3072]{1,0} multiply(f32[64,3072]{1,0} %multiply.262.3, f32[64,3072]{1,0} %convert.576.1), metadata={op_type="aten__mul" op_name="aten__mul.1085/aten__mul" source_file="/usr/local/lib/python3.10/site-packages/torch/_ops.py" source_line=756}
  ROOT %convert.577.1 = bf16[64,3072]{1,0} convert(f32[64,3072]{1,0} %multiply.263.1), metadata={op_type="xla__cast" op_name="xla__cast" source_file="/usr/local/lib/python3.10/site-packages/torch/_ops.py" source_line=756}
}

%fused_computation.106 (param_0.447: f32[], param_1.358: f32[64,1024], param_2.221: bf16[64,1024], param_3.198: bf16[64,10240], param_4.100: bf16[1024]) -> bf16[64,1024] {
  %param_3.198 = bf16[64,10240]{1,0} parameter(3)
  %convert.518.46 = f32[64,10240]{1,0} convert(bf16[64,10240]{1,0} %param_3.198), metadata={op_type="xla__cast" op_name="xla__cast" source_file="/usr/local/lib/python3.10/site-packages/torch/_ops.py" source_line=756}
  %slice.142.5 = f32[64,1024]{1,0} slice(f32[64,10240]{1,0} %convert.518.46), slice={[0:64], [5120:6144]}, metadata={op_type="aten__mm" op_name="aten__mm" source_file="/usr/local/lib/python3.10/site-packages/torch/_ops.py" source_line=756}
  %param_2.221 = bf16[64,1024]{1,0} parameter(2)
  %convert.579.3 = f32[64,1024]{1,0} convert(bf16[64,1024]{1,0} %param_2.221), metadata={op_type="xla__cast" op_name="xla__cast" source_file="/usr/local/lib/python3.10/site-packages/torch/_ops.py" source_line=756}
  %param_1.358 = f32[64,1024]{1,0} parameter(1)
  %add.152.3 = f32[64,1024]{1,0} add(f32[64,1024]{1,0} %convert.579.3, f32[64,1024]{1,0} %param_1.358), metadata={op_type="aten__add" op_name="aten__add.1086/aten__add" source_file="/usr/local/lib/python3.10/site-packages/torch/_ops.py" source_line=756}
  %add.153.3 = f32[64,1024]{1,0} add(f32[64,1024]{1,0} %slice.142.5, f32[64,1024]{1,0} %add.152.3), metadata={op_type="aten__add" op_name="aten__add.1099/aten__add" source_file="/usr/local/lib/python3.10/site-packages/torch/_ops.py" source_line=756}
  %multiply.325 = f32[64,1024]{1,0} multiply(f32[64,1024]{1,0} %add.153.3, f32[64,1024]{1,0} %add.153.3), metadata={op_type="aten__pow" op_name="aten__pow" source_file="/usr/local/lib/python3.10/site-packages/torch/_ops.py" source_line=756}
  %constant_278 = f32[] constant(0), metadata={op_type="aten__mean" op_name="aten__mean" source_file="/usr/local/lib/python3.10/site-packages/torch/_ops.py" source_line=756}
  %reduce.33 = f32[64]{0} reduce(f32[64,1024]{1,0} %multiply.325, f32[] %constant_278), dimensions={1}, to_apply=%AddComputation.66, metadata={op_type="aten__mean" op_name="aten__mean" source_file="/usr/local/lib/python3.10/site-packages/torch/_ops.py" source_line=756}
  %constant_275 = f32[] constant(0.0009765625), metadata={op_type="aten__mean" op_name="aten__mean" source_file="/usr/local/lib/python3.10/site-packages/torch/_ops.py" source_line=756}
  %broadcast.365 = f32[64]{0} broadcast(f32[] %constant_275), dimensions={}, metadata={op_type="aten__mean" op_name="aten__mean" source_file="/usr/local/lib/python3.10/site-packages/torch/_ops.py" source_line=756}
  %multiply.324 = f32[64]{0} multiply(f32[64]{0} %reduce.33, f32[64]{0} %broadcast.365), metadata={op_type="aten__mean" op_name="aten__mean" source_file="/usr/local/lib/python3.10/site-packages/torch/_ops.py" source_line=756}
  %param_0.447 = f32[] parameter(0)
  %broadcast.364 = f32[64]{0} broadcast(f32[] %param_0.447), dimensions={}, metadata={op_type="aten__add" op_name="aten__add.1028/aten__add" source_file="/usr/local/lib/python3.10/site-packages/torch/_ops.py" source_line=756}
  %add.183 = f32[64]{0} add(f32[64]{0} %multiply.324, f32[64]{0} %broadcast.364), metadata={op_type="aten__add" op_name="aten__add.1100/aten__add" source_file="/usr/local/lib/python3.10/site-packages/torch/_ops.py" source_line=756}
  %rsqrt.69 = f32[64]{0} rsqrt(f32[64]{0} %add.183), metadata={op_type="aten__rsqrt" op_name="aten__rsqrt" source_file="/usr/local/lib/python3.10/site-packages/torch/_ops.py" source_line=756}
  %broadcast.363 = f32[64,1024]{1,0} broadcast(f32[64]{0} %rsqrt.69), dimensions={0}, metadata={op_type="aten__mul" op_name="aten__mul.1101/aten__mul" source_file="/usr/local/lib/python3.10/site-packages/torch/_ops.py" source_line=756}
  %multiply.323 = f32[64,1024]{1,0} multiply(f32[64,1024]{1,0} %add.153.3, f32[64,1024]{1,0} %broadcast.363), metadata={op_type="aten__mul" op_name="aten__mul.1101/aten__mul" source_file="/usr/local/lib/python3.10/site-packages/torch/_ops.py" source_line=756}
  %param_4.100 = bf16[1024]{0} parameter(4)
  %convert.580.1 = f32[1024]{0} convert(bf16[1024]{0} %param_4.100), metadata={op_type="xla__cast" op_name="xla__cast" source_file="/usr/local/lib/python3.10/site-packages/torch/_ops.py" source_line=756}
  %broadcast.263.1 = f32[64,1024]{1,0} broadcast(f32[1024]{0} %convert.580.1), dimensions={1}, metadata={op_type="aten__mul" op_name="aten__mul.1102/aten__mul" source_file="/usr/local/lib/python3.10/site-packages/torch/_ops.py" source_line=756}
  %multiply.264.1 = f32[64,1024]{1,0} multiply(f32[64,1024]{1,0} %multiply.323, f32[64,1024]{1,0} %broadcast.263.1), metadata={op_type="aten__mul" op_name="aten__mul.1102/aten__mul" source_file="/usr/local/lib/python3.10/site-packages/torch/_ops.py" source_line=756}
  ROOT %convert.581.1 = bf16[64,1024]{1,0} convert(f32[64,1024]{1,0} %multiply.264.1), metadata={op_type="xla__cast" op_name="xla__cast" source_file="/usr/local/lib/python3.10/site-packages/torch/_ops.py" source_line=756}
}

%fused_convert.5 (param_0.404: bf16[64,6144]) -> bf16[64,3072] {
  %param_0.404 = bf16[64,6144]{1,0} parameter(0)
  %slice.155.1 = bf16[64,3072]{1,0} slice(bf16[64,6144]{1,0} %param_0.404), slice={[0:64], [0:3072]}, metadata={op_type="xla__select" op_name="xla__select" source_file="/usr/local/lib/python3.10/site-packages/torch/_ops.py" source_line=756}
  %convert.582.6 = f32[64,3072]{1,0} convert(bf16[64,3072]{1,0} %slice.155.1)
  %constant_1_1 = bf16[] constant(1), metadata={op_type="xla__select" op_name="xla__select" source_file="/usr/local/lib/python3.10/site-packages/torch/_ops.py" source_line=756}
  %convert.673.10 = f32[] convert(bf16[] %constant_1_1)
  %broadcast.288.64 = f32[64,3072]{1,0} broadcast(f32[] %convert.673.10), dimensions={}, metadata={op_type="xla__select" op_name="xla__select" source_file="/usr/local/lib/python3.10/site-packages/torch/_ops.py" source_line=756}
  %negate.34.7 = f32[64,3072]{1,0} negate(f32[64,3072]{1,0} %convert.582.6)
  %convert.587.5 = bf16[64,3072]{1,0} convert(f32[64,3072]{1,0} %negate.34.7)
  %exponential.34.3 = bf16[64,3072]{1,0} exponential(bf16[64,3072]{1,0} %convert.587.5)
  %convert.588.1 = f32[64,3072]{1,0} convert(bf16[64,3072]{1,0} %exponential.34.3)
  %add.154.5 = f32[64,3072]{1,0} add(f32[64,3072]{1,0} %broadcast.288.64, f32[64,3072]{1,0} %convert.588.1)
  %divide.34.3 = f32[64,3072]{1,0} divide(f32[64,3072]{1,0} %broadcast.288.64, f32[64,3072]{1,0} %add.154.5), metadata={op_type="aten__silu" op_name="aten__silu" source_file="/usr/local/lib/python3.10/site-packages/torch/_ops.py" source_line=756}
  %multiply.265.3 = f32[64,3072]{1,0} multiply(f32[64,3072]{1,0} %convert.582.6, f32[64,3072]{1,0} %divide.34.3), metadata={op_type="aten__silu" op_name="aten__silu" source_file="/usr/local/lib/python3.10/site-packages/torch/_ops.py" source_line=756}
  %slice.156.1 = bf16[64,3072]{1,0} slice(bf16[64,6144]{1,0} %param_0.404), slice={[0:64], [3072:6144]}, metadata={op_type="xla__select" op_name="xla__select" source_file="/usr/local/lib/python3.10/site-packages/torch/_ops.py" source_line=756}
  %convert.589.1 = f32[64,3072]{1,0} convert(bf16[64,3072]{1,0} %slice.156.1), metadata={op_type="xla__cast" op_name="xla__cast" source_file="/usr/local/lib/python3.10/site-packages/torch/_ops.py" source_line=756}
  %multiply.267.1 = f32[64,3072]{1,0} multiply(f32[64,3072]{1,0} %multiply.265.3, f32[64,3072]{1,0} %convert.589.1), metadata={op_type="aten__mul" op_name="aten__mul.1103/aten__mul" source_file="/usr/local/lib/python3.10/site-packages/torch/_ops.py" source_line=756}
  ROOT %convert.590.1 = bf16[64,3072]{1,0} convert(f32[64,3072]{1,0} %multiply.267.1), metadata={op_type="xla__cast" op_name="xla__cast" source_file="/usr/local/lib/python3.10/site-packages/torch/_ops.py" source_line=756}
}

%fused_computation.105 (param_0.472: f32[], param_1.377: bf16[1024], param_2.244: f32[64,1024], param_3.228: bf16[64,1024], param_4.126: bf16[64,10240], param_5.41: bf16[64,1024]) -> bf16[64,1024] {
  %param_4.126 = bf16[64,10240]{1,0} parameter(4)
  %convert.518.76 = f32[64,10240]{1,0} convert(bf16[64,10240]{1,0} %param_4.126), metadata={op_type="xla__cast" op_name="xla__cast" source_file="/usr/local/lib/python3.10/site-packages/torch/_ops.py" source_line=756}
  %slice.141.5 = f32[64,1024]{1,0} slice(f32[64,10240]{1,0} %convert.518.76), slice={[0:64], [4096:5120]}, metadata={op_type="aten__mm" op_name="aten__mm" source_file="/usr/local/lib/python3.10/site-packages/torch/_ops.py" source_line=756}
  %param_5.41 = bf16[64,1024]{1,0} parameter(5)
  %convert.591.3 = f32[64,1024]{1,0} convert(bf16[64,1024]{1,0} %param_5.41), metadata={op_type="xla__cast" op_name="xla__cast" source_file="/usr/local/lib/python3.10/site-packages/torch/_ops.py" source_line=756}
  %slice.142.9 = f32[64,1024]{1,0} slice(f32[64,10240]{1,0} %convert.518.76), slice={[0:64], [5120:6144]}, metadata={op_type="aten__mm" op_name="aten__mm" source_file="/usr/local/lib/python3.10/site-packages/torch/_ops.py" source_line=756}
  %param_3.228 = bf16[64,1024]{1,0} parameter(3)
  %convert.579.7 = f32[64,1024]{1,0} convert(bf16[64,1024]{1,0} %param_3.228), metadata={op_type="xla__cast" op_name="xla__cast" source_file="/usr/local/lib/python3.10/site-packages/torch/_ops.py" source_line=756}
  %param_2.244 = f32[64,1024]{1,0} parameter(2)
  %add.152.7 = f32[64,1024]{1,0} add(f32[64,1024]{1,0} %convert.579.7, f32[64,1024]{1,0} %param_2.244), metadata={op_type="aten__add" op_name="aten__add.1086/aten__add" source_file="/usr/local/lib/python3.10/site-packages/torch/_ops.py" source_line=756}
  %add.153.7 = f32[64,1024]{1,0} add(f32[64,1024]{1,0} %slice.142.9, f32[64,1024]{1,0} %add.152.7), metadata={op_type="aten__add" op_name="aten__add.1099/aten__add" source_file="/usr/local/lib/python3.10/site-packages/torch/_ops.py" source_line=756}
  %add.155.3 = f32[64,1024]{1,0} add(f32[64,1024]{1,0} %convert.591.3, f32[64,1024]{1,0} %add.153.7), metadata={op_type="aten__add" op_name="aten__add.1104/aten__add" source_file="/usr/local/lib/python3.10/site-packages/torch/_ops.py" source_line=756}
  %add.157.3 = f32[64,1024]{1,0} add(f32[64,1024]{1,0} %slice.141.5, f32[64,1024]{1,0} %add.155.3), metadata={op_type="aten__add" op_name="aten__add.1117/aten__add" source_file="/usr/local/lib/python3.10/site-packages/torch/_ops.py" source_line=756}
  %multiply.331 = f32[64,1024]{1,0} multiply(f32[64,1024]{1,0} %add.157.3, f32[64,1024]{1,0} %add.157.3), metadata={op_type="aten__pow" op_name="aten__pow" source_file="/usr/local/lib/python3.10/site-packages/torch/_ops.py" source_line=756}
  %constant_285 = f32[] constant(0), metadata={op_type="aten__mean" op_name="aten__mean" source_file="/usr/local/lib/python3.10/site-packages/torch/_ops.py" source_line=756}
  %reduce.35 = f32[64]{0} reduce(f32[64,1024]{1,0} %multiply.331, f32[] %constant_285), dimensions={1}, to_apply=%AddComputation.66, metadata={op_type="aten__mean" op_name="aten__mean" source_file="/usr/local/lib/python3.10/site-packages/torch/_ops.py" source_line=756}
  %constant_284 = f32[] constant(0.0009765625), metadata={op_type="aten__mean" op_name="aten__mean" source_file="/usr/local/lib/python3.10/site-packages/torch/_ops.py" source_line=756}
  %broadcast.373 = f32[64]{0} broadcast(f32[] %constant_284), dimensions={}, metadata={op_type="aten__mean" op_name="aten__mean" source_file="/usr/local/lib/python3.10/site-packages/torch/_ops.py" source_line=756}
  %multiply.330 = f32[64]{0} multiply(f32[64]{0} %reduce.35, f32[64]{0} %broadcast.373), metadata={op_type="aten__mean" op_name="aten__mean" source_file="/usr/local/lib/python3.10/site-packages/torch/_ops.py" source_line=756}
  %param_0.472 = f32[] parameter(0)
  %broadcast.372 = f32[64]{0} broadcast(f32[] %param_0.472), dimensions={}, metadata={op_type="aten__add" op_name="aten__add.1028/aten__add" source_file="/usr/local/lib/python3.10/site-packages/torch/_ops.py" source_line=756}
  %add.185 = f32[64]{0} add(f32[64]{0} %multiply.330, f32[64]{0} %broadcast.372), metadata={op_type="aten__add" op_name="aten__add.1118/aten__add" source_file="/usr/local/lib/python3.10/site-packages/torch/_ops.py" source_line=756}
  %rsqrt.71 = f32[64]{0} rsqrt(f32[64]{0} %add.185), metadata={op_type="aten__rsqrt" op_name="aten__rsqrt" source_file="/usr/local/lib/python3.10/site-packages/torch/_ops.py" source_line=756}
  %broadcast.370 = f32[64,1024]{1,0} broadcast(f32[64]{0} %rsqrt.71), dimensions={0}, metadata={op_type="aten__mul" op_name="aten__mul.1119/aten__mul" source_file="/usr/local/lib/python3.10/site-packages/torch/_ops.py" source_line=756}
  %multiply.329 = f32[64,1024]{1,0} multiply(f32[64,1024]{1,0} %add.157.3, f32[64,1024]{1,0} %broadcast.370), metadata={op_type="aten__mul" op_name="aten__mul.1119/aten__mul" source_file="/usr/local/lib/python3.10/site-packages/torch/_ops.py" source_line=756}
  %param_1.377 = bf16[1024]{0} parameter(1)
  %convert.592.1 = f32[1024]{0} convert(bf16[1024]{0} %param_1.377), metadata={op_type="xla__cast" op_name="xla__cast" source_file="/usr/local/lib/python3.10/site-packages/torch/_ops.py" source_line=756}
  %broadcast.267.1 = f32[64,1024]{1,0} broadcast(f32[1024]{0} %convert.592.1), dimensions={1}, metadata={op_type="aten__mul" op_name="aten__mul.1120/aten__mul" source_file="/usr/local/lib/python3.10/site-packages/torch/_ops.py" source_line=756}
  %multiply.268.1 = f32[64,1024]{1,0} multiply(f32[64,1024]{1,0} %multiply.329, f32[64,1024]{1,0} %broadcast.267.1), metadata={op_type="aten__mul" op_name="aten__mul.1120/aten__mul" source_file="/usr/local/lib/python3.10/site-packages/torch/_ops.py" source_line=756}
  ROOT %convert.595.1 = bf16[64,1024]{1,0} convert(f32[64,1024]{1,0} %multiply.268.1), metadata={op_type="xla__cast" op_name="xla__cast" source_file="/usr/local/lib/python3.10/site-packages/torch/_ops.py" source_line=756}
}

%fused_convert.4 (param_0.399: bf16[64,6144]) -> bf16[64,3072] {
  %param_0.399 = bf16[64,6144]{1,0} parameter(0)
  %slice.157.1 = bf16[64,3072]{1,0} slice(bf16[64,6144]{1,0} %param_0.399), slice={[0:64], [0:3072]}, metadata={op_type="xla__select" op_name="xla__select" source_file="/usr/local/lib/python3.10/site-packages/torch/_ops.py" source_line=756}
  %convert.596.6 = f32[64,3072]{1,0} convert(bf16[64,3072]{1,0} %slice.157.1)
  %constant_1_7 = bf16[] constant(1), metadata={op_type="xla__select" op_name="xla__select" source_file="/usr/local/lib/python3.10/site-packages/torch/_ops.py" source_line=756}
  %convert.673.5 = f32[] convert(bf16[] %constant_1_7)
  %broadcast.288.60 = f32[64,3072]{1,0} broadcast(f32[] %convert.673.5), dimensions={}, metadata={op_type="xla__select" op_name="xla__select" source_file="/usr/local/lib/python3.10/site-packages/torch/_ops.py" source_line=756}
  %negate.35.7 = f32[64,3072]{1,0} negate(f32[64,3072]{1,0} %convert.596.6)
  %convert.602.5 = bf16[64,3072]{1,0} convert(f32[64,3072]{1,0} %negate.35.7)
  %exponential.35.3 = bf16[64,3072]{1,0} exponential(bf16[64,3072]{1,0} %convert.602.5)
  %convert.603.1 = f32[64,3072]{1,0} convert(bf16[64,3072]{1,0} %exponential.35.3)
  %add.158.5 = f32[64,3072]{1,0} add(f32[64,3072]{1,0} %broadcast.288.60, f32[64,3072]{1,0} %convert.603.1)
  %divide.35.3 = f32[64,3072]{1,0} divide(f32[64,3072]{1,0} %broadcast.288.60, f32[64,3072]{1,0} %add.158.5), metadata={op_type="aten__silu" op_name="aten__silu" source_file="/usr/local/lib/python3.10/site-packages/torch/_ops.py" source_line=756}
  %multiply.269.3 = f32[64,3072]{1,0} multiply(f32[64,3072]{1,0} %convert.596.6, f32[64,3072]{1,0} %divide.35.3), metadata={op_type="aten__silu" op_name="aten__silu" source_file="/usr/local/lib/python3.10/site-packages/torch/_ops.py" source_line=756}
  %slice.158.1 = bf16[64,3072]{1,0} slice(bf16[64,6144]{1,0} %param_0.399), slice={[0:64], [3072:6144]}, metadata={op_type="xla__select" op_name="xla__select" source_file="/usr/local/lib/python3.10/site-packages/torch/_ops.py" source_line=756}
  %convert.605.1 = f32[64,3072]{1,0} convert(bf16[64,3072]{1,0} %slice.158.1), metadata={op_type="xla__cast" op_name="xla__cast" source_file="/usr/local/lib/python3.10/site-packages/torch/_ops.py" source_line=756}
  %multiply.270.1 = f32[64,3072]{1,0} multiply(f32[64,3072]{1,0} %multiply.269.3, f32[64,3072]{1,0} %convert.605.1), metadata={op_type="aten__mul" op_name="aten__mul.1121/aten__mul" source_file="/usr/local/lib/python3.10/site-packages/torch/_ops.py" source_line=756}
  ROOT %convert.607.1 = bf16[64,3072]{1,0} convert(f32[64,3072]{1,0} %multiply.270.1), metadata={op_type="xla__cast" op_name="xla__cast" source_file="/usr/local/lib/python3.10/site-packages/torch/_ops.py" source_line=756}
}

%fused_computation.104 (param_0.445: f32[], param_1.380: bf16[64,1024], param_2.248: bf16[64,10240], param_3.233: bf16[1024], param_4.132: f32[64,1024], param_5.50: bf16[64,1024], param_6.38: bf16[64,1024]) -> bf16[64,1024] {
  %param_2.248 = bf16[64,10240]{1,0} parameter(2)
  %convert.518.42 = f32[64,10240]{1,0} convert(bf16[64,10240]{1,0} %param_2.248), metadata={op_type="xla__cast" op_name="xla__cast" source_file="/usr/local/lib/python3.10/site-packages/torch/_ops.py" source_line=756}
  %slice.140.5 = f32[64,1024]{1,0} slice(f32[64,10240]{1,0} %convert.518.42), slice={[0:64], [3072:4096]}, metadata={op_type="aten__mm" op_name="aten__mm" source_file="/usr/local/lib/python3.10/site-packages/torch/_ops.py" source_line=756}
  %param_1.380 = bf16[64,1024]{1,0} parameter(1)
  %convert.609.3 = f32[64,1024]{1,0} convert(bf16[64,1024]{1,0} %param_1.380), metadata={op_type="xla__cast" op_name="xla__cast" source_file="/usr/local/lib/python3.10/site-packages/torch/_ops.py" source_line=756}
  %slice.141.9 = f32[64,1024]{1,0} slice(f32[64,10240]{1,0} %convert.518.42), slice={[0:64], [4096:5120]}, metadata={op_type="aten__mm" op_name="aten__mm" source_file="/usr/local/lib/python3.10/site-packages/torch/_ops.py" source_line=756}
  %param_6.38 = bf16[64,1024]{1,0} parameter(6)
  %convert.591.7 = f32[64,1024]{1,0} convert(bf16[64,1024]{1,0} %param_6.38), metadata={op_type="xla__cast" op_name="xla__cast" source_file="/usr/local/lib/python3.10/site-packages/torch/_ops.py" source_line=756}
  %slice.142.13 = f32[64,1024]{1,0} slice(f32[64,10240]{1,0} %convert.518.42), slice={[0:64], [5120:6144]}, metadata={op_type="aten__mm" op_name="aten__mm" source_file="/usr/local/lib/python3.10/site-packages/torch/_ops.py" source_line=756}
  %param_5.50 = bf16[64,1024]{1,0} parameter(5)
  %convert.579.11 = f32[64,1024]{1,0} convert(bf16[64,1024]{1,0} %param_5.50), metadata={op_type="xla__cast" op_name="xla__cast" source_file="/usr/local/lib/python3.10/site-packages/torch/_ops.py" source_line=756}
  %param_4.132 = f32[64,1024]{1,0} parameter(4)
  %add.152.11 = f32[64,1024]{1,0} add(f32[64,1024]{1,0} %convert.579.11, f32[64,1024]{1,0} %param_4.132), metadata={op_type="aten__add" op_name="aten__add.1086/aten__add" source_file="/usr/local/lib/python3.10/site-packages/torch/_ops.py" source_line=756}
  %add.153.11 = f32[64,1024]{1,0} add(f32[64,1024]{1,0} %slice.142.13, f32[64,1024]{1,0} %add.152.11), metadata={op_type="aten__add" op_name="aten__add.1099/aten__add" source_file="/usr/local/lib/python3.10/site-packages/torch/_ops.py" source_line=756}
  %add.155.7 = f32[64,1024]{1,0} add(f32[64,1024]{1,0} %convert.591.7, f32[64,1024]{1,0} %add.153.11), metadata={op_type="aten__add" op_name="aten__add.1104/aten__add" source_file="/usr/local/lib/python3.10/site-packages/torch/_ops.py" source_line=756}
  %add.157.7 = f32[64,1024]{1,0} add(f32[64,1024]{1,0} %slice.141.9, f32[64,1024]{1,0} %add.155.7), metadata={op_type="aten__add" op_name="aten__add.1117/aten__add" source_file="/usr/local/lib/python3.10/site-packages/torch/_ops.py" source_line=756}
  %add.159.3 = f32[64,1024]{1,0} add(f32[64,1024]{1,0} %convert.609.3, f32[64,1024]{1,0} %add.157.7), metadata={op_type="aten__add" op_name="aten__add.1122/aten__add" source_file="/usr/local/lib/python3.10/site-packages/torch/_ops.py" source_line=756}
  %add.160.3 = f32[64,1024]{1,0} add(f32[64,1024]{1,0} %slice.140.5, f32[64,1024]{1,0} %add.159.3), metadata={op_type="aten__add" op_name="aten__add.1135/aten__add" source_file="/usr/local/lib/python3.10/site-packages/torch/_ops.py" source_line=756}
  %multiply.337 = f32[64,1024]{1,0} multiply(f32[64,1024]{1,0} %add.160.3, f32[64,1024]{1,0} %add.160.3), metadata={op_type="aten__pow" op_name="aten__pow" source_file="/usr/local/lib/python3.10/site-packages/torch/_ops.py" source_line=756}
  %constant_293 = f32[] constant(0), metadata={op_type="aten__mean" op_name="aten__mean" source_file="/usr/local/lib/python3.10/site-packages/torch/_ops.py" source_line=756}
  %reduce.37 = f32[64]{0} reduce(f32[64,1024]{1,0} %multiply.337, f32[] %constant_293), dimensions={1}, to_apply=%AddComputation.66, metadata={op_type="aten__mean" op_name="aten__mean" source_file="/usr/local/lib/python3.10/site-packages/torch/_ops.py" source_line=756}
  %constant_292 = f32[] constant(0.0009765625), metadata={op_type="aten__mean" op_name="aten__mean" source_file="/usr/local/lib/python3.10/site-packages/torch/_ops.py" source_line=756}
  %broadcast.381 = f32[64]{0} broadcast(f32[] %constant_292), dimensions={}, metadata={op_type="aten__mean" op_name="aten__mean" source_file="/usr/local/lib/python3.10/site-packages/torch/_ops.py" source_line=756}
  %multiply.336 = f32[64]{0} multiply(f32[64]{0} %reduce.37, f32[64]{0} %broadcast.381), metadata={op_type="aten__mean" op_name="aten__mean" source_file="/usr/local/lib/python3.10/site-packages/torch/_ops.py" source_line=756}
  %param_0.445 = f32[] parameter(0)
  %broadcast.380 = f32[64]{0} broadcast(f32[] %param_0.445), dimensions={}, metadata={op_type="aten__add" op_name="aten__add.1028/aten__add" source_file="/usr/local/lib/python3.10/site-packages/torch/_ops.py" source_line=756}
  %add.187 = f32[64]{0} add(f32[64]{0} %multiply.336, f32[64]{0} %broadcast.380), metadata={op_type="aten__add" op_name="aten__add.1136/aten__add" source_file="/usr/local/lib/python3.10/site-packages/torch/_ops.py" source_line=756}
  %rsqrt.73 = f32[64]{0} rsqrt(f32[64]{0} %add.187), metadata={op_type="aten__rsqrt" op_name="aten__rsqrt" source_file="/usr/local/lib/python3.10/site-packages/torch/_ops.py" source_line=756}
  %broadcast.378 = f32[64,1024]{1,0} broadcast(f32[64]{0} %rsqrt.73), dimensions={0}, metadata={op_type="aten__mul" op_name="aten__mul.1137/aten__mul" source_file="/usr/local/lib/python3.10/site-packages/torch/_ops.py" source_line=756}
  %multiply.335 = f32[64,1024]{1,0} multiply(f32[64,1024]{1,0} %add.160.3, f32[64,1024]{1,0} %broadcast.378), metadata={op_type="aten__mul" op_name="aten__mul.1137/aten__mul" source_file="/usr/local/lib/python3.10/site-packages/torch/_ops.py" source_line=756}
  %param_3.233 = bf16[1024]{0} parameter(3)
  %convert.610.1 = f32[1024]{0} convert(bf16[1024]{0} %param_3.233), metadata={op_type="xla__cast" op_name="xla__cast" source_file="/usr/local/lib/python3.10/site-packages/torch/_ops.py" source_line=756}
  %broadcast.270.1 = f32[64,1024]{1,0} broadcast(f32[1024]{0} %convert.610.1), dimensions={1}, metadata={op_type="aten__mul" op_name="aten__mul.1138/aten__mul" source_file="/usr/local/lib/python3.10/site-packages/torch/_ops.py" source_line=756}
  %multiply.271.1 = f32[64,1024]{1,0} multiply(f32[64,1024]{1,0} %multiply.335, f32[64,1024]{1,0} %broadcast.270.1), metadata={op_type="aten__mul" op_name="aten__mul.1138/aten__mul" source_file="/usr/local/lib/python3.10/site-packages/torch/_ops.py" source_line=756}
  ROOT %convert.611.1 = bf16[64,1024]{1,0} convert(f32[64,1024]{1,0} %multiply.271.1), metadata={op_type="xla__cast" op_name="xla__cast" source_file="/usr/local/lib/python3.10/site-packages/torch/_ops.py" source_line=756}
}

%fused_convert.3 (param_0.403: bf16[64,6144]) -> bf16[64,3072] {
  %param_0.403 = bf16[64,6144]{1,0} parameter(0)
  %slice.159.1 = bf16[64,3072]{1,0} slice(bf16[64,6144]{1,0} %param_0.403), slice={[0:64], [0:3072]}, metadata={op_type="xla__select" op_name="xla__select" source_file="/usr/local/lib/python3.10/site-packages/torch/_ops.py" source_line=756}
  %convert.614.6 = f32[64,3072]{1,0} convert(bf16[64,3072]{1,0} %slice.159.1)
  %constant_1_11 = bf16[] constant(1), metadata={op_type="xla__select" op_name="xla__select" source_file="/usr/local/lib/python3.10/site-packages/torch/_ops.py" source_line=756}
  %convert.673.9 = f32[] convert(bf16[] %constant_1_11)
  %broadcast.288.56 = f32[64,3072]{1,0} broadcast(f32[] %convert.673.9), dimensions={}, metadata={op_type="xla__select" op_name="xla__select" source_file="/usr/local/lib/python3.10/site-packages/torch/_ops.py" source_line=756}
  %negate.36.7 = f32[64,3072]{1,0} negate(f32[64,3072]{1,0} %convert.614.6)
  %convert.618.5 = bf16[64,3072]{1,0} convert(f32[64,3072]{1,0} %negate.36.7)
  %exponential.36.3 = bf16[64,3072]{1,0} exponential(bf16[64,3072]{1,0} %convert.618.5)
  %convert.619.1 = f32[64,3072]{1,0} convert(bf16[64,3072]{1,0} %exponential.36.3)
  %add.161.5 = f32[64,3072]{1,0} add(f32[64,3072]{1,0} %broadcast.288.56, f32[64,3072]{1,0} %convert.619.1)
  %divide.36.3 = f32[64,3072]{1,0} divide(f32[64,3072]{1,0} %broadcast.288.56, f32[64,3072]{1,0} %add.161.5), metadata={op_type="aten__silu" op_name="aten__silu" source_file="/usr/local/lib/python3.10/site-packages/torch/_ops.py" source_line=756}
  %multiply.272.3 = f32[64,3072]{1,0} multiply(f32[64,3072]{1,0} %convert.614.6, f32[64,3072]{1,0} %divide.36.3), metadata={op_type="aten__silu" op_name="aten__silu" source_file="/usr/local/lib/python3.10/site-packages/torch/_ops.py" source_line=756}
  %slice.160.1 = bf16[64,3072]{1,0} slice(bf16[64,6144]{1,0} %param_0.403), slice={[0:64], [3072:6144]}, metadata={op_type="xla__select" op_name="xla__select" source_file="/usr/local/lib/python3.10/site-packages/torch/_ops.py" source_line=756}
  %convert.620.1 = f32[64,3072]{1,0} convert(bf16[64,3072]{1,0} %slice.160.1), metadata={op_type="xla__cast" op_name="xla__cast" source_file="/usr/local/lib/python3.10/site-packages/torch/_ops.py" source_line=756}
  %multiply.273.1 = f32[64,3072]{1,0} multiply(f32[64,3072]{1,0} %multiply.272.3, f32[64,3072]{1,0} %convert.620.1), metadata={op_type="aten__mul" op_name="aten__mul.1139/aten__mul" source_file="/usr/local/lib/python3.10/site-packages/torch/_ops.py" source_line=756}
  ROOT %convert.621.1 = bf16[64,3072]{1,0} convert(f32[64,3072]{1,0} %multiply.273.1), metadata={op_type="xla__cast" op_name="xla__cast" source_file="/usr/local/lib/python3.10/site-packages/torch/_ops.py" source_line=756}
}

%fused_add.1 (param_0.352: bf16[64,10240], param_1.329: bf16[64,1024], param_2.246: bf16[64,1024], param_3.231: f32[64,1024], param_4.130: bf16[64,1024], param_5.46: bf16[64,1024]) -> f32[64,1024] {
  %param_0.352 = bf16[64,10240]{1,0} parameter(0)
  %convert.518.26 = f32[64,10240]{1,0} convert(bf16[64,10240]{1,0} %param_0.352), metadata={op_type="xla__cast" op_name="xla__cast" source_file="/usr/local/lib/python3.10/site-packages/torch/_ops.py" source_line=756}
  %slice.139.3 = f32[64,1024]{1,0} slice(f32[64,10240]{1,0} %convert.518.26), slice={[0:64], [2048:3072]}, metadata={op_type="aten__mm" op_name="aten__mm" source_file="/usr/local/lib/python3.10/site-packages/torch/_ops.py" source_line=756}
  %param_1.329 = bf16[64,1024]{1,0} parameter(1)
  %convert.622.1 = f32[64,1024]{1,0} convert(bf16[64,1024]{1,0} %param_1.329), metadata={op_type="xla__cast" op_name="xla__cast" source_file="/usr/local/lib/python3.10/site-packages/torch/_ops.py" source_line=756}
  %slice.140.7 = f32[64,1024]{1,0} slice(f32[64,10240]{1,0} %convert.518.26), slice={[0:64], [3072:4096]}, metadata={op_type="aten__mm" op_name="aten__mm" source_file="/usr/local/lib/python3.10/site-packages/torch/_ops.py" source_line=756}
  %param_2.246 = bf16[64,1024]{1,0} parameter(2)
  %convert.609.5 = f32[64,1024]{1,0} convert(bf16[64,1024]{1,0} %param_2.246), metadata={op_type="xla__cast" op_name="xla__cast" source_file="/usr/local/lib/python3.10/site-packages/torch/_ops.py" source_line=756}
  %slice.141.7 = f32[64,1024]{1,0} slice(f32[64,10240]{1,0} %convert.518.26), slice={[0:64], [4096:5120]}, metadata={op_type="aten__mm" op_name="aten__mm" source_file="/usr/local/lib/python3.10/site-packages/torch/_ops.py" source_line=756}
  %param_5.46 = bf16[64,1024]{1,0} parameter(5)
  %convert.591.5 = f32[64,1024]{1,0} convert(bf16[64,1024]{1,0} %param_5.46), metadata={op_type="xla__cast" op_name="xla__cast" source_file="/usr/local/lib/python3.10/site-packages/torch/_ops.py" source_line=756}
  %slice.142.11 = f32[64,1024]{1,0} slice(f32[64,10240]{1,0} %convert.518.26), slice={[0:64], [5120:6144]}, metadata={op_type="aten__mm" op_name="aten__mm" source_file="/usr/local/lib/python3.10/site-packages/torch/_ops.py" source_line=756}
  %param_4.130 = bf16[64,1024]{1,0} parameter(4)
  %convert.579.9 = f32[64,1024]{1,0} convert(bf16[64,1024]{1,0} %param_4.130), metadata={op_type="xla__cast" op_name="xla__cast" source_file="/usr/local/lib/python3.10/site-packages/torch/_ops.py" source_line=756}
  %param_3.231 = f32[64,1024]{1,0} parameter(3)
  %add.152.9 = f32[64,1024]{1,0} add(f32[64,1024]{1,0} %convert.579.9, f32[64,1024]{1,0} %param_3.231), metadata={op_type="aten__add" op_name="aten__add.1086/aten__add" source_file="/usr/local/lib/python3.10/site-packages/torch/_ops.py" source_line=756}
  %add.153.9 = f32[64,1024]{1,0} add(f32[64,1024]{1,0} %slice.142.11, f32[64,1024]{1,0} %add.152.9), metadata={op_type="aten__add" op_name="aten__add.1099/aten__add" source_file="/usr/local/lib/python3.10/site-packages/torch/_ops.py" source_line=756}
  %add.155.5 = f32[64,1024]{1,0} add(f32[64,1024]{1,0} %convert.591.5, f32[64,1024]{1,0} %add.153.9), metadata={op_type="aten__add" op_name="aten__add.1104/aten__add" source_file="/usr/local/lib/python3.10/site-packages/torch/_ops.py" source_line=756}
  %add.157.5 = f32[64,1024]{1,0} add(f32[64,1024]{1,0} %slice.141.7, f32[64,1024]{1,0} %add.155.5), metadata={op_type="aten__add" op_name="aten__add.1117/aten__add" source_file="/usr/local/lib/python3.10/site-packages/torch/_ops.py" source_line=756}
  %add.159.5 = f32[64,1024]{1,0} add(f32[64,1024]{1,0} %convert.609.5, f32[64,1024]{1,0} %add.157.5), metadata={op_type="aten__add" op_name="aten__add.1122/aten__add" source_file="/usr/local/lib/python3.10/site-packages/torch/_ops.py" source_line=756}
  %add.160.5 = f32[64,1024]{1,0} add(f32[64,1024]{1,0} %slice.140.7, f32[64,1024]{1,0} %add.159.5), metadata={op_type="aten__add" op_name="aten__add.1135/aten__add" source_file="/usr/local/lib/python3.10/site-packages/torch/_ops.py" source_line=756}
  %add.162.1 = f32[64,1024]{1,0} add(f32[64,1024]{1,0} %convert.622.1, f32[64,1024]{1,0} %add.160.5), metadata={op_type="aten__add" op_name="aten__add.1140/aten__add" source_file="/usr/local/lib/python3.10/site-packages/torch/_ops.py" source_line=756}
  ROOT %add.163.1 = f32[64,1024]{1,0} add(f32[64,1024]{1,0} %slice.139.3, f32[64,1024]{1,0} %add.162.1), metadata={op_type="aten__add" op_name="aten__add.1153/aten__add" source_file="/usr/local/lib/python3.10/site-packages/torch/_ops.py" source_line=756}
}

%fused_computation.103 (param_0.444: f32[64,1024], param_1.355: f32[], param_2.218: bf16[1024]) -> bf16[64,1024] {
  %param_0.444 = f32[64,1024]{1,0} parameter(0)
  %multiply.344 = f32[64,1024]{1,0} multiply(f32[64,1024]{1,0} %param_0.444, f32[64,1024]{1,0} %param_0.444), metadata={op_type="aten__pow" op_name="aten__pow" source_file="/usr/local/lib/python3.10/site-packages/torch/_ops.py" source_line=756}
  %constant_298 = f32[] constant(0), metadata={op_type="aten__mean" op_name="aten__mean" source_file="/usr/local/lib/python3.10/site-packages/torch/_ops.py" source_line=756}
  %reduce.39 = f32[64]{0} reduce(f32[64,1024]{1,0} %multiply.344, f32[] %constant_298), dimensions={1}, to_apply=%AddComputation.66, metadata={op_type="aten__mean" op_name="aten__mean" source_file="/usr/local/lib/python3.10/site-packages/torch/_ops.py" source_line=756}
  %constant_297 = f32[] constant(0.0009765625), metadata={op_type="aten__mean" op_name="aten__mean" source_file="/usr/local/lib/python3.10/site-packages/torch/_ops.py" source_line=756}
  %broadcast.387 = f32[64]{0} broadcast(f32[] %constant_297), dimensions={}, metadata={op_type="aten__mean" op_name="aten__mean" source_file="/usr/local/lib/python3.10/site-packages/torch/_ops.py" source_line=756}
  %multiply.343 = f32[64]{0} multiply(f32[64]{0} %reduce.39, f32[64]{0} %broadcast.387), metadata={op_type="aten__mean" op_name="aten__mean" source_file="/usr/local/lib/python3.10/site-packages/torch/_ops.py" source_line=756}
  %param_1.355 = f32[] parameter(1)
  %broadcast.386 = f32[64]{0} broadcast(f32[] %param_1.355), dimensions={}, metadata={op_type="aten__add" op_name="aten__add.1028/aten__add" source_file="/usr/local/lib/python3.10/site-packages/torch/_ops.py" source_line=756}
  %add.189 = f32[64]{0} add(f32[64]{0} %multiply.343, f32[64]{0} %broadcast.386), metadata={op_type="aten__add" op_name="aten__add.1154/aten__add" source_file="/usr/local/lib/python3.10/site-packages/torch/_ops.py" source_line=756}
  %rsqrt.75 = f32[64]{0} rsqrt(f32[64]{0} %add.189), metadata={op_type="aten__rsqrt" op_name="aten__rsqrt" source_file="/usr/local/lib/python3.10/site-packages/torch/_ops.py" source_line=756}
  %broadcast.385 = f32[64,1024]{1,0} broadcast(f32[64]{0} %rsqrt.75), dimensions={0}, metadata={op_type="aten__mul" op_name="aten__mul.1155/aten__mul" source_file="/usr/local/lib/python3.10/site-packages/torch/_ops.py" source_line=756}
  %multiply.342 = f32[64,1024]{1,0} multiply(f32[64,1024]{1,0} %param_0.444, f32[64,1024]{1,0} %broadcast.385), metadata={op_type="aten__mul" op_name="aten__mul.1155/aten__mul" source_file="/usr/local/lib/python3.10/site-packages/torch/_ops.py" source_line=756}
  %param_2.218 = bf16[1024]{0} parameter(2)
  %convert.623.1 = f32[1024]{0} convert(bf16[1024]{0} %param_2.218), metadata={op_type="xla__cast" op_name="xla__cast" source_file="/usr/local/lib/python3.10/site-packages/torch/_ops.py" source_line=756}
  %broadcast.273.1 = f32[64,1024]{1,0} broadcast(f32[1024]{0} %convert.623.1), dimensions={1}, metadata={op_type="aten__mul" op_name="aten__mul.1156/aten__mul" source_file="/usr/local/lib/python3.10/site-packages/torch/_ops.py" source_line=756}
  %multiply.274.1 = f32[64,1024]{1,0} multiply(f32[64,1024]{1,0} %multiply.342, f32[64,1024]{1,0} %broadcast.273.1), metadata={op_type="aten__mul" op_name="aten__mul.1156/aten__mul" source_file="/usr/local/lib/python3.10/site-packages/torch/_ops.py" source_line=756}
  ROOT %convert.625.1 = bf16[64,1024]{1,0} convert(f32[64,1024]{1,0} %multiply.274.1), metadata={op_type="xla__cast" op_name="xla__cast" source_file="/usr/local/lib/python3.10/site-packages/torch/_ops.py" source_line=756}
}

%fused_convert.2 (param_0.401: bf16[64,6144]) -> bf16[64,3072] {
  %param_0.401 = bf16[64,6144]{1,0} parameter(0)
  %slice.161.1 = bf16[64,3072]{1,0} slice(bf16[64,6144]{1,0} %param_0.401), slice={[0:64], [0:3072]}, metadata={op_type="xla__select" op_name="xla__select" source_file="/usr/local/lib/python3.10/site-packages/torch/_ops.py" source_line=756}
  %convert.626.6 = f32[64,3072]{1,0} convert(bf16[64,3072]{1,0} %slice.161.1)
  %constant_1_9 = bf16[] constant(1), metadata={op_type="xla__select" op_name="xla__select" source_file="/usr/local/lib/python3.10/site-packages/torch/_ops.py" source_line=756}
  %convert.673.7 = f32[] convert(bf16[] %constant_1_9)
  %broadcast.288.52 = f32[64,3072]{1,0} broadcast(f32[] %convert.673.7), dimensions={}, metadata={op_type="xla__select" op_name="xla__select" source_file="/usr/local/lib/python3.10/site-packages/torch/_ops.py" source_line=756}
  %negate.37.7 = f32[64,3072]{1,0} negate(f32[64,3072]{1,0} %convert.626.6)
  %convert.632.5 = bf16[64,3072]{1,0} convert(f32[64,3072]{1,0} %negate.37.7)
  %exponential.37.3 = bf16[64,3072]{1,0} exponential(bf16[64,3072]{1,0} %convert.632.5)
  %convert.633.1 = f32[64,3072]{1,0} convert(bf16[64,3072]{1,0} %exponential.37.3)
  %add.164.5 = f32[64,3072]{1,0} add(f32[64,3072]{1,0} %broadcast.288.52, f32[64,3072]{1,0} %convert.633.1)
  %divide.37.3 = f32[64,3072]{1,0} divide(f32[64,3072]{1,0} %broadcast.288.52, f32[64,3072]{1,0} %add.164.5), metadata={op_type="aten__silu" op_name="aten__silu" source_file="/usr/local/lib/python3.10/site-packages/torch/_ops.py" source_line=756}
  %multiply.275.3 = f32[64,3072]{1,0} multiply(f32[64,3072]{1,0} %convert.626.6, f32[64,3072]{1,0} %divide.37.3), metadata={op_type="aten__silu" op_name="aten__silu" source_file="/usr/local/lib/python3.10/site-packages/torch/_ops.py" source_line=756}
  %slice.162.1 = bf16[64,3072]{1,0} slice(bf16[64,6144]{1,0} %param_0.401), slice={[0:64], [3072:6144]}, metadata={op_type="xla__select" op_name="xla__select" source_file="/usr/local/lib/python3.10/site-packages/torch/_ops.py" source_line=756}
  %convert.634.1 = f32[64,3072]{1,0} convert(bf16[64,3072]{1,0} %slice.162.1), metadata={op_type="xla__cast" op_name="xla__cast" source_file="/usr/local/lib/python3.10/site-packages/torch/_ops.py" source_line=756}
  %multiply.276.1 = f32[64,3072]{1,0} multiply(f32[64,3072]{1,0} %multiply.275.3, f32[64,3072]{1,0} %convert.634.1), metadata={op_type="aten__mul" op_name="aten__mul.1157/aten__mul" source_file="/usr/local/lib/python3.10/site-packages/torch/_ops.py" source_line=756}
  ROOT %convert.636.1 = bf16[64,3072]{1,0} convert(f32[64,3072]{1,0} %multiply.276.1), metadata={op_type="xla__cast" op_name="xla__cast" source_file="/usr/local/lib/python3.10/site-packages/torch/_ops.py" source_line=756}
}

%fused_computation.102 (param_0.443: f32[], param_1.354: f32[64,1024], param_2.217: bf16[64,1024], param_3.196: bf16[64,10240], param_4.98: bf16[1024]) -> bf16[64,1024] {
  %param_3.196 = bf16[64,10240]{1,0} parameter(3)
  %convert.518.38 = f32[64,10240]{1,0} convert(bf16[64,10240]{1,0} %param_3.196), metadata={op_type="xla__cast" op_name="xla__cast" source_file="/usr/local/lib/python3.10/site-packages/torch/_ops.py" source_line=756}
  %slice.138.5 = f32[64,1024]{1,0} slice(f32[64,10240]{1,0} %convert.518.38), slice={[0:64], [1024:2048]}, metadata={op_type="aten__mm" op_name="aten__mm" source_file="/usr/local/lib/python3.10/site-packages/torch/_ops.py" source_line=756}
  %param_2.217 = bf16[64,1024]{1,0} parameter(2)
  %convert.637.3 = f32[64,1024]{1,0} convert(bf16[64,1024]{1,0} %param_2.217), metadata={op_type="xla__cast" op_name="xla__cast" source_file="/usr/local/lib/python3.10/site-packages/torch/_ops.py" source_line=756}
  %param_1.354 = f32[64,1024]{1,0} parameter(1)
  %add.165.3 = f32[64,1024]{1,0} add(f32[64,1024]{1,0} %convert.637.3, f32[64,1024]{1,0} %param_1.354), metadata={op_type="aten__add" op_name="aten__add.1158/aten__add" source_file="/usr/local/lib/python3.10/site-packages/torch/_ops.py" source_line=756}
  %add.166.3 = f32[64,1024]{1,0} add(f32[64,1024]{1,0} %slice.138.5, f32[64,1024]{1,0} %add.165.3), metadata={op_type="aten__add" op_name="aten__add.1171/aten__add" source_file="/usr/local/lib/python3.10/site-packages/torch/_ops.py" source_line=756}
  %multiply.350 = f32[64,1024]{1,0} multiply(f32[64,1024]{1,0} %add.166.3, f32[64,1024]{1,0} %add.166.3), metadata={op_type="aten__pow" op_name="aten__pow" source_file="/usr/local/lib/python3.10/site-packages/torch/_ops.py" source_line=756}
  %constant_303 = f32[] constant(0), metadata={op_type="aten__mean" op_name="aten__mean" source_file="/usr/local/lib/python3.10/site-packages/torch/_ops.py" source_line=756}
  %reduce.41 = f32[64]{0} reduce(f32[64,1024]{1,0} %multiply.350, f32[] %constant_303), dimensions={1}, to_apply=%AddComputation.66, metadata={op_type="aten__mean" op_name="aten__mean" source_file="/usr/local/lib/python3.10/site-packages/torch/_ops.py" source_line=756}
  %constant_302 = f32[] constant(0.0009765625), metadata={op_type="aten__mean" op_name="aten__mean" source_file="/usr/local/lib/python3.10/site-packages/torch/_ops.py" source_line=756}
  %broadcast.394 = f32[64]{0} broadcast(f32[] %constant_302), dimensions={}, metadata={op_type="aten__mean" op_name="aten__mean" source_file="/usr/local/lib/python3.10/site-packages/torch/_ops.py" source_line=756}
  %multiply.349 = f32[64]{0} multiply(f32[64]{0} %reduce.41, f32[64]{0} %broadcast.394), metadata={op_type="aten__mean" op_name="aten__mean" source_file="/usr/local/lib/python3.10/site-packages/torch/_ops.py" source_line=756}
  %param_0.443 = f32[] parameter(0)
  %broadcast.392 = f32[64]{0} broadcast(f32[] %param_0.443), dimensions={}, metadata={op_type="aten__add" op_name="aten__add.1028/aten__add" source_file="/usr/local/lib/python3.10/site-packages/torch/_ops.py" source_line=756}
  %add.191 = f32[64]{0} add(f32[64]{0} %multiply.349, f32[64]{0} %broadcast.392), metadata={op_type="aten__add" op_name="aten__add.1172/aten__add" source_file="/usr/local/lib/python3.10/site-packages/torch/_ops.py" source_line=756}
  %rsqrt.77 = f32[64]{0} rsqrt(f32[64]{0} %add.191), metadata={op_type="aten__rsqrt" op_name="aten__rsqrt" source_file="/usr/local/lib/python3.10/site-packages/torch/_ops.py" source_line=756}
  %broadcast.391 = f32[64,1024]{1,0} broadcast(f32[64]{0} %rsqrt.77), dimensions={0}, metadata={op_type="aten__mul" op_name="aten__mul.1173/aten__mul" source_file="/usr/local/lib/python3.10/site-packages/torch/_ops.py" source_line=756}
  %multiply.348 = f32[64,1024]{1,0} multiply(f32[64,1024]{1,0} %add.166.3, f32[64,1024]{1,0} %broadcast.391), metadata={op_type="aten__mul" op_name="aten__mul.1173/aten__mul" source_file="/usr/local/lib/python3.10/site-packages/torch/_ops.py" source_line=756}
  %param_4.98 = bf16[1024]{0} parameter(4)
  %convert.638.1 = f32[1024]{0} convert(bf16[1024]{0} %param_4.98), metadata={op_type="xla__cast" op_name="xla__cast" source_file="/usr/local/lib/python3.10/site-packages/torch/_ops.py" source_line=756}
  %broadcast.276.1 = f32[64,1024]{1,0} broadcast(f32[1024]{0} %convert.638.1), dimensions={1}, metadata={op_type="aten__mul" op_name="aten__mul.1174/aten__mul" source_file="/usr/local/lib/python3.10/site-packages/torch/_ops.py" source_line=756}
  %multiply.277.1 = f32[64,1024]{1,0} multiply(f32[64,1024]{1,0} %multiply.348, f32[64,1024]{1,0} %broadcast.276.1), metadata={op_type="aten__mul" op_name="aten__mul.1174/aten__mul" source_file="/usr/local/lib/python3.10/site-packages/torch/_ops.py" source_line=756}
  ROOT %convert.639.1 = bf16[64,1024]{1,0} convert(f32[64,1024]{1,0} %multiply.277.1), metadata={op_type="xla__cast" op_name="xla__cast" source_file="/usr/local/lib/python3.10/site-packages/torch/_ops.py" source_line=756}
}

%fused_convert.1 (param_0.397: bf16[64,6144]) -> bf16[64,3072] {
  %param_0.397 = bf16[64,6144]{1,0} parameter(0)
  %slice.163.1 = bf16[64,3072]{1,0} slice(bf16[64,6144]{1,0} %param_0.397), slice={[0:64], [0:3072]}, metadata={op_type="xla__select" op_name="xla__select" source_file="/usr/local/lib/python3.10/site-packages/torch/_ops.py" source_line=756}
  %convert.640.6 = f32[64,3072]{1,0} convert(bf16[64,3072]{1,0} %slice.163.1)
  %constant_1_5 = bf16[] constant(1), metadata={op_type="xla__select" op_name="xla__select" source_file="/usr/local/lib/python3.10/site-packages/torch/_ops.py" source_line=756}
  %convert.673.3 = f32[] convert(bf16[] %constant_1_5)
  %broadcast.288.48 = f32[64,3072]{1,0} broadcast(f32[] %convert.673.3), dimensions={}, metadata={op_type="xla__select" op_name="xla__select" source_file="/usr/local/lib/python3.10/site-packages/torch/_ops.py" source_line=756}
  %negate.38.7 = f32[64,3072]{1,0} negate(f32[64,3072]{1,0} %convert.640.6)
  %convert.644.5 = bf16[64,3072]{1,0} convert(f32[64,3072]{1,0} %negate.38.7)
  %exponential.38.3 = bf16[64,3072]{1,0} exponential(bf16[64,3072]{1,0} %convert.644.5)
  %convert.645.1 = f32[64,3072]{1,0} convert(bf16[64,3072]{1,0} %exponential.38.3)
  %add.167.5 = f32[64,3072]{1,0} add(f32[64,3072]{1,0} %broadcast.288.48, f32[64,3072]{1,0} %convert.645.1)
  %divide.38.3 = f32[64,3072]{1,0} divide(f32[64,3072]{1,0} %broadcast.288.48, f32[64,3072]{1,0} %add.167.5), metadata={op_type="aten__silu" op_name="aten__silu" source_file="/usr/local/lib/python3.10/site-packages/torch/_ops.py" source_line=756}
  %multiply.278.3 = f32[64,3072]{1,0} multiply(f32[64,3072]{1,0} %convert.640.6, f32[64,3072]{1,0} %divide.38.3), metadata={op_type="aten__silu" op_name="aten__silu" source_file="/usr/local/lib/python3.10/site-packages/torch/_ops.py" source_line=756}
  %slice.164.1 = bf16[64,3072]{1,0} slice(bf16[64,6144]{1,0} %param_0.397), slice={[0:64], [3072:6144]}, metadata={op_type="xla__select" op_name="xla__select" source_file="/usr/local/lib/python3.10/site-packages/torch/_ops.py" source_line=756}
  %convert.646.1 = f32[64,3072]{1,0} convert(bf16[64,3072]{1,0} %slice.164.1), metadata={op_type="xla__cast" op_name="xla__cast" source_file="/usr/local/lib/python3.10/site-packages/torch/_ops.py" source_line=756}
  %multiply.279.1 = f32[64,3072]{1,0} multiply(f32[64,3072]{1,0} %multiply.278.3, f32[64,3072]{1,0} %convert.646.1), metadata={op_type="aten__mul" op_name="aten__mul.1175/aten__mul" source_file="/usr/local/lib/python3.10/site-packages/torch/_ops.py" source_line=756}
  ROOT %convert.647.1 = bf16[64,3072]{1,0} convert(f32[64,3072]{1,0} %multiply.279.1), metadata={op_type="xla__cast" op_name="xla__cast" source_file="/usr/local/lib/python3.10/site-packages/torch/_ops.py" source_line=756}
}

%fused_computation.101 (param_0.464: f32[], param_1.367: bf16[1024], param_2.231: f32[64,1024], param_3.211: bf16[64,1024], param_4.106: bf16[64,10240], param_5.14: bf16[64,1024]) -> bf16[64,1024] {
  %param_4.106 = bf16[64,10240]{1,0} parameter(4)
  %convert.518.56 = f32[64,10240]{1,0} convert(bf16[64,10240]{1,0} %param_4.106), metadata={op_type="xla__cast" op_name="xla__cast" source_file="/usr/local/lib/python3.10/site-packages/torch/_ops.py" source_line=756}
  %slice.137.5 = f32[64,1024]{1,0} slice(f32[64,10240]{1,0} %convert.518.56), slice={[0:64], [0:1024]}, metadata={op_type="aten__mm" op_name="aten__mm" source_file="/usr/local/lib/python3.10/site-packages/torch/_ops.py" source_line=756}
  %param_5.14 = bf16[64,1024]{1,0} parameter(5)
  %convert.648.3 = f32[64,1024]{1,0} convert(bf16[64,1024]{1,0} %param_5.14), metadata={op_type="xla__cast" op_name="xla__cast" source_file="/usr/local/lib/python3.10/site-packages/torch/_ops.py" source_line=756}
  %slice.138.9 = f32[64,1024]{1,0} slice(f32[64,10240]{1,0} %convert.518.56), slice={[0:64], [1024:2048]}, metadata={op_type="aten__mm" op_name="aten__mm" source_file="/usr/local/lib/python3.10/site-packages/torch/_ops.py" source_line=756}
  %param_3.211 = bf16[64,1024]{1,0} parameter(3)
  %convert.637.7 = f32[64,1024]{1,0} convert(bf16[64,1024]{1,0} %param_3.211), metadata={op_type="xla__cast" op_name="xla__cast" source_file="/usr/local/lib/python3.10/site-packages/torch/_ops.py" source_line=756}
  %param_2.231 = f32[64,1024]{1,0} parameter(2)
  %add.165.7 = f32[64,1024]{1,0} add(f32[64,1024]{1,0} %convert.637.7, f32[64,1024]{1,0} %param_2.231), metadata={op_type="aten__add" op_name="aten__add.1158/aten__add" source_file="/usr/local/lib/python3.10/site-packages/torch/_ops.py" source_line=756}
  %add.166.7 = f32[64,1024]{1,0} add(f32[64,1024]{1,0} %slice.138.9, f32[64,1024]{1,0} %add.165.7), metadata={op_type="aten__add" op_name="aten__add.1171/aten__add" source_file="/usr/local/lib/python3.10/site-packages/torch/_ops.py" source_line=756}
  %add.168.3 = f32[64,1024]{1,0} add(f32[64,1024]{1,0} %convert.648.3, f32[64,1024]{1,0} %add.166.7), metadata={op_type="aten__add" op_name="aten__add.1176/aten__add" source_file="/usr/local/lib/python3.10/site-packages/torch/_ops.py" source_line=756}
  %add.169.3 = f32[64,1024]{1,0} add(f32[64,1024]{1,0} %slice.137.5, f32[64,1024]{1,0} %add.168.3), metadata={op_type="aten__add" op_name="aten__add.1189/aten__add" source_file="/usr/local/lib/python3.10/site-packages/torch/_ops.py" source_line=756}
  %multiply.356 = f32[64,1024]{1,0} multiply(f32[64,1024]{1,0} %add.169.3, f32[64,1024]{1,0} %add.169.3), metadata={op_type="aten__pow" op_name="aten__pow" source_file="/usr/local/lib/python3.10/site-packages/torch/_ops.py" source_line=756}
  %constant_308 = f32[] constant(0), metadata={op_type="aten__mean" op_name="aten__mean" source_file="/usr/local/lib/python3.10/site-packages/torch/_ops.py" source_line=756}
  %reduce.43 = f32[64]{0} reduce(f32[64,1024]{1,0} %multiply.356, f32[] %constant_308), dimensions={1}, to_apply=%AddComputation.66, metadata={op_type="aten__mean" op_name="aten__mean" source_file="/usr/local/lib/python3.10/site-packages/torch/_ops.py" source_line=756}
  %constant_307 = f32[] constant(0.0009765625), metadata={op_type="aten__mean" op_name="aten__mean" source_file="/usr/local/lib/python3.10/site-packages/torch/_ops.py" source_line=756}
  %broadcast.400 = f32[64]{0} broadcast(f32[] %constant_307), dimensions={}, metadata={op_type="aten__mean" op_name="aten__mean" source_file="/usr/local/lib/python3.10/site-packages/torch/_ops.py" source_line=756}
  %multiply.355 = f32[64]{0} multiply(f32[64]{0} %reduce.43, f32[64]{0} %broadcast.400), metadata={op_type="aten__mean" op_name="aten__mean" source_file="/usr/local/lib/python3.10/site-packages/torch/_ops.py" source_line=756}
  %param_0.464 = f32[] parameter(0)
  %broadcast.399 = f32[64]{0} broadcast(f32[] %param_0.464), dimensions={}, metadata={op_type="aten__add" op_name="aten__add.1028/aten__add" source_file="/usr/local/lib/python3.10/site-packages/torch/_ops.py" source_line=756}
  %add.193 = f32[64]{0} add(f32[64]{0} %multiply.355, f32[64]{0} %broadcast.399), metadata={op_type="aten__add" op_name="aten__add.1190/aten__add" source_file="/usr/local/lib/python3.10/site-packages/torch/_ops.py" source_line=756}
  %rsqrt.79 = f32[64]{0} rsqrt(f32[64]{0} %add.193), metadata={op_type="aten__rsqrt" op_name="aten__rsqrt" source_file="/usr/local/lib/python3.10/site-packages/torch/_ops.py" source_line=756}
  %broadcast.398 = f32[64,1024]{1,0} broadcast(f32[64]{0} %rsqrt.79), dimensions={0}, metadata={op_type="aten__mul" op_name="aten__mul.1191/aten__mul" source_file="/usr/local/lib/python3.10/site-packages/torch/_ops.py" source_line=756}
  %multiply.354 = f32[64,1024]{1,0} multiply(f32[64,1024]{1,0} %add.169.3, f32[64,1024]{1,0} %broadcast.398), metadata={op_type="aten__mul" op_name="aten__mul.1191/aten__mul" source_file="/usr/local/lib/python3.10/site-packages/torch/_ops.py" source_line=756}
  %param_1.367 = bf16[1024]{0} parameter(1)
  %convert.649.1 = f32[1024]{0} convert(bf16[1024]{0} %param_1.367), metadata={op_type="xla__cast" op_name="xla__cast" source_file="/usr/local/lib/python3.10/site-packages/torch/_ops.py" source_line=756}
  %broadcast.280.1 = f32[64,1024]{1,0} broadcast(f32[1024]{0} %convert.649.1), dimensions={1}, metadata={op_type="aten__mul" op_name="aten__mul.1192/aten__mul" source_file="/usr/local/lib/python3.10/site-packages/torch/_ops.py" source_line=756}
  %multiply.280.1 = f32[64,1024]{1,0} multiply(f32[64,1024]{1,0} %multiply.354, f32[64,1024]{1,0} %broadcast.280.1), metadata={op_type="aten__mul" op_name="aten__mul.1192/aten__mul" source_file="/usr/local/lib/python3.10/site-packages/torch/_ops.py" source_line=756}
  ROOT %convert.651.1 = bf16[64,1024]{1,0} convert(f32[64,1024]{1,0} %multiply.280.1), metadata={op_type="xla__cast" op_name="xla__cast" source_file="/usr/local/lib/python3.10/site-packages/torch/_ops.py" source_line=756}
}

%fused_convert (param_0.395: bf16[64,6144]) -> bf16[64,3072] {
  %param_0.395 = bf16[64,6144]{1,0} parameter(0)
  %slice.165.1 = bf16[64,3072]{1,0} slice(bf16[64,6144]{1,0} %param_0.395), slice={[0:64], [0:3072]}, metadata={op_type="xla__select" op_name="xla__select" source_file="/usr/local/lib/python3.10/site-packages/torch/_ops.py" source_line=756}
  %convert.652.6 = f32[64,3072]{1,0} convert(bf16[64,3072]{1,0} %slice.165.1)
  %constant_1_3 = bf16[] constant(1), metadata={op_type="xla__select" op_name="xla__select" source_file="/usr/local/lib/python3.10/site-packages/torch/_ops.py" source_line=756}
  %convert.673.1 = f32[] convert(bf16[] %constant_1_3)
  %broadcast.288.44 = f32[64,3072]{1,0} broadcast(f32[] %convert.673.1), dimensions={}, metadata={op_type="xla__select" op_name="xla__select" source_file="/usr/local/lib/python3.10/site-packages/torch/_ops.py" source_line=756}
  %negate.39.7 = f32[64,3072]{1,0} negate(f32[64,3072]{1,0} %convert.652.6)
  %convert.656.5 = bf16[64,3072]{1,0} convert(f32[64,3072]{1,0} %negate.39.7)
  %exponential.39.3 = bf16[64,3072]{1,0} exponential(bf16[64,3072]{1,0} %convert.656.5)
  %convert.658.1 = f32[64,3072]{1,0} convert(bf16[64,3072]{1,0} %exponential.39.3)
  %add.170.5 = f32[64,3072]{1,0} add(f32[64,3072]{1,0} %broadcast.288.44, f32[64,3072]{1,0} %convert.658.1)
  %divide.39.3 = f32[64,3072]{1,0} divide(f32[64,3072]{1,0} %broadcast.288.44, f32[64,3072]{1,0} %add.170.5), metadata={op_type="aten__silu" op_name="aten__silu" source_file="/usr/local/lib/python3.10/site-packages/torch/_ops.py" source_line=756}
  %multiply.281.3 = f32[64,3072]{1,0} multiply(f32[64,3072]{1,0} %convert.652.6, f32[64,3072]{1,0} %divide.39.3), metadata={op_type="aten__silu" op_name="aten__silu" source_file="/usr/local/lib/python3.10/site-packages/torch/_ops.py" source_line=756}
  %slice.166.1 = bf16[64,3072]{1,0} slice(bf16[64,6144]{1,0} %param_0.395), slice={[0:64], [3072:6144]}, metadata={op_type="xla__select" op_name="xla__select" source_file="/usr/local/lib/python3.10/site-packages/torch/_ops.py" source_line=756}
  %convert.659.1 = f32[64,3072]{1,0} convert(bf16[64,3072]{1,0} %slice.166.1), metadata={op_type="xla__cast" op_name="xla__cast" source_file="/usr/local/lib/python3.10/site-packages/torch/_ops.py" source_line=756}
  %multiply.282.1 = f32[64,3072]{1,0} multiply(f32[64,3072]{1,0} %multiply.281.3, f32[64,3072]{1,0} %convert.659.1), metadata={op_type="aten__mul" op_name="aten__mul.1193/aten__mul" source_file="/usr/local/lib/python3.10/site-packages/torch/_ops.py" source_line=756}
  ROOT %convert.660.1 = bf16[64,3072]{1,0} convert(f32[64,3072]{1,0} %multiply.282.1), metadata={op_type="xla__cast" op_name="xla__cast" source_file="/usr/local/lib/python3.10/site-packages/torch/_ops.py" source_line=756}
}

%fused_computation.99 (param_0.441: f32[], param_1.369: bf16[64,1024], param_2.233: bf16[1024], param_3.214: f32[64,1024], param_4.110: bf16[64,1024], param_5.19: bf16[64,10240], param_6.12: bf16[64,1024]) -> bf16[64,1024] {
  %param_1.369 = bf16[64,1024]{1,0} parameter(1)
  %convert.661.5 = f32[64,1024]{1,0} convert(bf16[64,1024]{1,0} %param_1.369), metadata={op_type="xla__cast" op_name="xla__cast" source_file="/usr/local/lib/python3.10/site-packages/torch/_ops.py" source_line=756}
  %param_5.19 = bf16[64,10240]{1,0} parameter(5)
  %convert.518.60 = f32[64,10240]{1,0} convert(bf16[64,10240]{1,0} %param_5.19), metadata={op_type="xla__cast" op_name="xla__cast" source_file="/usr/local/lib/python3.10/site-packages/torch/_ops.py" source_line=756}
  %slice.137.7 = f32[64,1024]{1,0} slice(f32[64,10240]{1,0} %convert.518.60), slice={[0:64], [0:1024]}, metadata={op_type="aten__mm" op_name="aten__mm" source_file="/usr/local/lib/python3.10/site-packages/torch/_ops.py" source_line=756}
  %param_6.12 = bf16[64,1024]{1,0} parameter(6)
  %convert.648.5 = f32[64,1024]{1,0} convert(bf16[64,1024]{1,0} %param_6.12), metadata={op_type="xla__cast" op_name="xla__cast" source_file="/usr/local/lib/python3.10/site-packages/torch/_ops.py" source_line=756}
  %slice.138.11 = f32[64,1024]{1,0} slice(f32[64,10240]{1,0} %convert.518.60), slice={[0:64], [1024:2048]}, metadata={op_type="aten__mm" op_name="aten__mm" source_file="/usr/local/lib/python3.10/site-packages/torch/_ops.py" source_line=756}
  %param_4.110 = bf16[64,1024]{1,0} parameter(4)
  %convert.637.9 = f32[64,1024]{1,0} convert(bf16[64,1024]{1,0} %param_4.110), metadata={op_type="xla__cast" op_name="xla__cast" source_file="/usr/local/lib/python3.10/site-packages/torch/_ops.py" source_line=756}
  %param_3.214 = f32[64,1024]{1,0} parameter(3)
  %add.165.9 = f32[64,1024]{1,0} add(f32[64,1024]{1,0} %convert.637.9, f32[64,1024]{1,0} %param_3.214), metadata={op_type="aten__add" op_name="aten__add.1158/aten__add" source_file="/usr/local/lib/python3.10/site-packages/torch/_ops.py" source_line=756}
  %add.166.9 = f32[64,1024]{1,0} add(f32[64,1024]{1,0} %slice.138.11, f32[64,1024]{1,0} %add.165.9), metadata={op_type="aten__add" op_name="aten__add.1171/aten__add" source_file="/usr/local/lib/python3.10/site-packages/torch/_ops.py" source_line=756}
  %add.168.5 = f32[64,1024]{1,0} add(f32[64,1024]{1,0} %convert.648.5, f32[64,1024]{1,0} %add.166.9), metadata={op_type="aten__add" op_name="aten__add.1176/aten__add" source_file="/usr/local/lib/python3.10/site-packages/torch/_ops.py" source_line=756}
  %add.169.5 = f32[64,1024]{1,0} add(f32[64,1024]{1,0} %slice.137.7, f32[64,1024]{1,0} %add.168.5), metadata={op_type="aten__add" op_name="aten__add.1189/aten__add" source_file="/usr/local/lib/python3.10/site-packages/torch/_ops.py" source_line=756}
  %add.171.5 = f32[64,1024]{1,0} add(f32[64,1024]{1,0} %convert.661.5, f32[64,1024]{1,0} %add.169.5), metadata={op_type="aten__add" op_name="aten__add.1194/aten__add" source_file="/usr/local/lib/python3.10/site-packages/torch/_ops.py" source_line=756}
  %multiply.362 = f32[64,1024]{1,0} multiply(f32[64,1024]{1,0} %add.171.5, f32[64,1024]{1,0} %add.171.5), metadata={op_type="aten__pow" op_name="aten__pow" source_file="/usr/local/lib/python3.10/site-packages/torch/_ops.py" source_line=756}
  %constant_313 = f32[] constant(0), metadata={op_type="aten__mean" op_name="aten__mean" source_file="/usr/local/lib/python3.10/site-packages/torch/_ops.py" source_line=756}
  %reduce.45 = f32[64]{0} reduce(f32[64,1024]{1,0} %multiply.362, f32[] %constant_313), dimensions={1}, to_apply=%AddComputation.66, metadata={op_type="aten__mean" op_name="aten__mean" source_file="/usr/local/lib/python3.10/site-packages/torch/_ops.py" source_line=756}
  %constant_312 = f32[] constant(0.0009765625), metadata={op_type="aten__mean" op_name="aten__mean" source_file="/usr/local/lib/python3.10/site-packages/torch/_ops.py" source_line=756}
  %broadcast.408 = f32[64]{0} broadcast(f32[] %constant_312), dimensions={}, metadata={op_type="aten__mean" op_name="aten__mean" source_file="/usr/local/lib/python3.10/site-packages/torch/_ops.py" source_line=756}
  %multiply.361 = f32[64]{0} multiply(f32[64]{0} %reduce.45, f32[64]{0} %broadcast.408), metadata={op_type="aten__mean" op_name="aten__mean" source_file="/usr/local/lib/python3.10/site-packages/torch/_ops.py" source_line=756}
  %param_0.441 = f32[] parameter(0)
  %broadcast.407 = f32[64]{0} broadcast(f32[] %param_0.441), dimensions={}, metadata={op_type="aten__add" op_name="aten__add.1028/aten__add" source_file="/usr/local/lib/python3.10/site-packages/torch/_ops.py" source_line=756}
  %add.196 = f32[64]{0} add(f32[64]{0} %multiply.361, f32[64]{0} %broadcast.407), metadata={op_type="aten__add" op_name="aten__add.1195/aten__add" source_file="/usr/local/lib/python3.10/site-packages/torch/_ops.py" source_line=756}
  %rsqrt.81 = f32[64]{0} rsqrt(f32[64]{0} %add.196), metadata={op_type="aten__rsqrt" op_name="aten__rsqrt" source_file="/usr/local/lib/python3.10/site-packages/torch/_ops.py" source_line=756}
  %broadcast.406 = f32[64,1024]{1,0} broadcast(f32[64]{0} %rsqrt.81), dimensions={0}, metadata={op_type="aten__mul" op_name="aten__mul.1196/aten__mul" source_file="/usr/local/lib/python3.10/site-packages/torch/_ops.py" source_line=756}
  %multiply.360 = f32[64,1024]{1,0} multiply(f32[64,1024]{1,0} %add.171.5, f32[64,1024]{1,0} %broadcast.406), metadata={op_type="aten__mul" op_name="aten__mul.1196/aten__mul" source_file="/usr/local/lib/python3.10/site-packages/torch/_ops.py" source_line=756}
  %param_2.233 = bf16[1024]{0} parameter(2)
  %convert.662.1 = f32[1024]{0} convert(bf16[1024]{0} %param_2.233), metadata={op_type="xla__cast" op_name="xla__cast" source_file="/usr/local/lib/python3.10/site-packages/torch/_ops.py" source_line=756}
  %broadcast.283.1 = f32[64,1024]{1,0} broadcast(f32[1024]{0} %convert.662.1), dimensions={1}, metadata={op_type="aten__mul" op_name="aten__mul.1197/aten__mul" source_file="/usr/local/lib/python3.10/site-packages/torch/_ops.py" source_line=756}
  %multiply.283.1 = f32[64,1024]{1,0} multiply(f32[64,1024]{1,0} %multiply.360, f32[64,1024]{1,0} %broadcast.283.1), metadata={op_type="aten__mul" op_name="aten__mul.1197/aten__mul" source_file="/usr/local/lib/python3.10/site-packages/torch/_ops.py" source_line=756}
  ROOT %convert.663.1 = bf16[64,1024]{1,0} convert(f32[64,1024]{1,0} %multiply.283.1), metadata={op_type="xla__cast" op_name="xla__cast" source_file="/usr/local/lib/python3.10/site-packages/torch/_ops.py" source_line=756}
}

%wrapped_slice_computation (param_0.476: bf16[64,4096]) -> bf16[64,1024] {
  %param_0.476 = bf16[64,4096]{1,0} parameter(0)
  ROOT %slice.174.1 = bf16[64,1024]{1,0} slice(bf16[64,4096]{1,0} %param_0.476), slice={[0:64], [3072:4096]}, metadata={op_type="aten__split" op_name="aten__split" source_file="/usr/local/lib/python3.10/site-packages/torch/_ops.py" source_line=756}
}

%triton_softmax_computation.12 (param_0.303: f32[], param_1.305: bf16[64,4096]) -> f32[64,8,128] {
  %param_1.305 = bf16[64,4096]{1,0} parameter(1)
  %slice.168.1 = bf16[64,1024]{1,0} slice(bf16[64,4096]{1,0} %param_1.305), slice={[0:64], [2048:3072]}, metadata={op_type="aten__split" op_name="aten__split" source_file="/usr/local/lib/python3.10/site-packages/torch/_ops.py" source_line=756}
  %bitcast.2201.3 = bf16[64,8,128]{2,1,0} bitcast(bf16[64,1024]{1,0} %slice.168.1)
  %convert.664.3 = f32[64,8,128]{2,1,0} convert(bf16[64,8,128]{2,1,0} %bitcast.2201.3), metadata={op_type="xla__cast" op_name="xla__cast" source_file="/usr/local/lib/python3.10/site-packages/torch/_ops.py" source_line=756}
  %multiply.209 = f32[64,8,128]{2,1,0} multiply(f32[64,8,128]{2,1,0} %convert.664.3, f32[64,8,128]{2,1,0} %convert.664.3), metadata={op_type="aten__pow" op_name="aten__pow" source_file="/usr/local/lib/python3.10/site-packages/torch/_ops.py" source_line=756}
  %constant_141 = f32[] constant(0), metadata={op_type="aten__mean" op_name="aten__mean" source_file="/usr/local/lib/python3.10/site-packages/torch/_ops.py" source_line=756}
  %reduce.12 = f32[64,8]{1,0} reduce(f32[64,8,128]{2,1,0} %multiply.209, f32[] %constant_141), dimensions={2}, to_apply=%AddComputation.66, metadata={op_type="aten__mean" op_name="aten__mean" source_file="/usr/local/lib/python3.10/site-packages/torch/_ops.py" source_line=756}
  %constant_142 = f32[] constant(0.0078125), metadata={op_type="aten__mean" op_name="aten__mean" source_file="/usr/local/lib/python3.10/site-packages/torch/_ops.py" source_line=756}
  %broadcast.208 = f32[64,8]{1,0} broadcast(f32[] %constant_142), dimensions={}, metadata={op_type="aten__mean" op_name="aten__mean" source_file="/usr/local/lib/python3.10/site-packages/torch/_ops.py" source_line=756}
  %multiply.210 = f32[64,8]{1,0} multiply(f32[64,8]{1,0} %reduce.12, f32[64,8]{1,0} %broadcast.208), metadata={op_type="aten__mean" op_name="aten__mean" source_file="/usr/local/lib/python3.10/site-packages/torch/_ops.py" source_line=756}
  %param_0.303 = f32[] parameter(0)
  %broadcast.209 = f32[64,8]{1,0} broadcast(f32[] %param_0.303), dimensions={}, metadata={op_type="aten__add" op_name="aten__add.1198/aten__add" source_file="/usr/local/lib/python3.10/site-packages/torch/_ops.py" source_line=756}
  %add.127 = f32[64,8]{1,0} add(f32[64,8]{1,0} %multiply.210, f32[64,8]{1,0} %broadcast.209), metadata={op_type="aten__add" op_name="aten__add.1198/aten__add" source_file="/usr/local/lib/python3.10/site-packages/torch/_ops.py" source_line=756}
  %rsqrt.48 = f32[64,8]{1,0} rsqrt(f32[64,8]{1,0} %add.127), metadata={op_type="aten__rsqrt" op_name="aten__rsqrt" source_file="/usr/local/lib/python3.10/site-packages/torch/_ops.py" source_line=756}
  %broadcast.210 = f32[64,8,128]{2,1,0} broadcast(f32[64,8]{1,0} %rsqrt.48), dimensions={0,1}, metadata={op_type="aten__mul" op_name="aten__mul.1199/aten__mul" source_file="/usr/local/lib/python3.10/site-packages/torch/_ops.py" source_line=756}
  ROOT %multiply.211 = f32[64,8,128]{2,1,0} multiply(f32[64,8,128]{2,1,0} %convert.664.3, f32[64,8,128]{2,1,0} %broadcast.210), metadata={op_type="aten__mul" op_name="aten__mul.1199/aten__mul" source_file="/usr/local/lib/python3.10/site-packages/torch/_ops.py" source_line=756}
}

%fused_concatenate (param_0.462: f32[64,8,128], param_1.363: bf16[128], param_2.241: bf16[40960,128], param_3.223: s32[64]) -> bf16[64,8,128] {
  %param_0.462 = f32[64,8,128]{2,1,0} parameter(0)
  %param_1.363 = bf16[128]{0} parameter(1)
  %convert.667.1 = f32[128]{0} convert(bf16[128]{0} %param_1.363), metadata={op_type="xla__cast" op_name="xla__cast" source_file="/usr/local/lib/python3.10/site-packages/torch/_ops.py" source_line=756}
  %broadcast.284.18 = f32[64,8,128]{2,1,0} broadcast(f32[128]{0} %convert.667.1), dimensions={2}, metadata={op_type="aten__mul" op_name="aten__mul.1200/aten__mul" source_file="/usr/local/lib/python3.10/site-packages/torch/_ops.py" source_line=756}
  %multiply.284.18 = f32[64,8,128]{2,1,0} multiply(f32[64,8,128]{2,1,0} %param_0.462, f32[64,8,128]{2,1,0} %broadcast.284.18), metadata={op_type="aten__mul" op_name="aten__mul.1200/aten__mul" source_file="/usr/local/lib/python3.10/site-packages/torch/_ops.py" source_line=756}
  %slice.170.9 = f32[64,8,64]{2,1,0} slice(f32[64,8,128]{2,1,0} %multiply.284.18), slice={[0:64], [0:8], [0:64]}, metadata={op_type="aten__split" op_name="aten__split" source_file="/usr/local/lib/python3.10/site-packages/torch/_ops.py" source_line=756}
  %param_2.241 = bf16[40960,128]{1,0} parameter(2)
  %param_3.223 = s32[64]{0} parameter(3)
  %bitcast.2217.3 = s32[64,1]{1,0} bitcast(s32[64]{0} %param_3.223)
  %gather.1.3 = bf16[64,1,128]{2,0,1} gather(bf16[40960,128]{1,0} %param_2.241, s32[64,1]{1,0} %bitcast.2217.3), offset_dims={1,2}, collapsed_slice_dims={}, start_index_map={0}, index_vector_dim=1, slice_sizes={1,128}, metadata={op_type="aten__index_select" op_name="aten__index_select" source_file="/usr/local/lib/python3.10/site-packages/torch/_ops.py" source_line=756}
  %bitcast.2220.7 = bf16[64,128]{1,0} bitcast(bf16[64,1,128]{2,0,1} %gather.1.3)
  %convert.668.7 = f32[64,128]{1,0} convert(bf16[64,128]{1,0} %bitcast.2220.7), metadata={op_type="xla__cast" op_name="xla__cast" source_file="/usr/local/lib/python3.10/site-packages/torch/_ops.py" source_line=756}
  %slice.171.3 = f32[64,64]{1,0} slice(f32[64,128]{1,0} %convert.668.7), slice={[0:64], [0:64]}, metadata={op_type="aten__split" op_name="aten__split" source_file="/usr/local/lib/python3.10/site-packages/torch/_ops.py" source_line=756}
  %broadcast.285.14 = f32[64,8,64]{2,1,0} broadcast(f32[64,64]{1,0} %slice.171.3), dimensions={0,2}, metadata={op_type="aten__mul" op_name="aten__mul.1201/aten__mul" source_file="/usr/local/lib/python3.10/site-packages/torch/_ops.py" source_line=756}
  %multiply.285.7 = f32[64,8,64]{2,1,0} multiply(f32[64,8,64]{2,1,0} %slice.170.9, f32[64,8,64]{2,1,0} %broadcast.285.14), metadata={op_type="aten__mul" op_name="aten__mul.1201/aten__mul" source_file="/usr/local/lib/python3.10/site-packages/torch/_ops.py" source_line=756}
  %slice.172.9 = f32[64,8,64]{2,1,0} slice(f32[64,8,128]{2,1,0} %multiply.284.18), slice={[0:64], [0:8], [64:128]}, metadata={op_type="aten__split" op_name="aten__split" source_file="/usr/local/lib/python3.10/site-packages/torch/_ops.py" source_line=756}
  %slice.173.3 = f32[64,64]{1,0} slice(f32[64,128]{1,0} %convert.668.7), slice={[0:64], [64:128]}, metadata={op_type="aten__split" op_name="aten__split" source_file="/usr/local/lib/python3.10/site-packages/torch/_ops.py" source_line=756}
  %broadcast.286.10 = f32[64,8,64]{2,1,0} broadcast(f32[64,64]{1,0} %slice.173.3), dimensions={0,2}, metadata={op_type="aten__mul" op_name="aten__mul.1202/aten__mul" source_file="/usr/local/lib/python3.10/site-packages/torch/_ops.py" source_line=756}
  %multiply.286.5 = f32[64,8,64]{2,1,0} multiply(f32[64,8,64]{2,1,0} %slice.172.9, f32[64,8,64]{2,1,0} %broadcast.286.10), metadata={op_type="aten__mul" op_name="aten__mul.1202/aten__mul" source_file="/usr/local/lib/python3.10/site-packages/torch/_ops.py" source_line=756}
  %subtract.2.5 = f32[64,8,64]{2,1,0} subtract(f32[64,8,64]{2,1,0} %multiply.285.7, f32[64,8,64]{2,1,0} %multiply.286.5), metadata={op_type="aten__sub" op_name="aten__sub.1203/aten__sub" source_file="/usr/local/lib/python3.10/site-packages/torch/_ops.py" source_line=756}
  %convert.670.3 = bf16[64,8,64]{2,1,0} convert(f32[64,8,64]{2,1,0} %subtract.2.5)
  %multiply.287.7 = f32[64,8,64]{2,1,0} multiply(f32[64,8,64]{2,1,0} %slice.172.9, f32[64,8,64]{2,1,0} %broadcast.285.14), metadata={op_type="aten__mul" op_name="aten__mul.1204/aten__mul" source_file="/usr/local/lib/python3.10/site-packages/torch/_ops.py" source_line=756}
  %multiply.288.5 = f32[64,8,64]{2,1,0} multiply(f32[64,8,64]{2,1,0} %slice.170.9, f32[64,8,64]{2,1,0} %broadcast.286.10), metadata={op_type="aten__mul" op_name="aten__mul.1205/aten__mul" source_file="/usr/local/lib/python3.10/site-packages/torch/_ops.py" source_line=756}
  %add.172.5 = f32[64,8,64]{2,1,0} add(f32[64,8,64]{2,1,0} %multiply.287.7, f32[64,8,64]{2,1,0} %multiply.288.5), metadata={op_type="aten__add" op_name="aten__add.1206/aten__add" source_file="/usr/local/lib/python3.10/site-packages/torch/_ops.py" source_line=756}
  %convert.671.3 = bf16[64,8,64]{2,1,0} convert(f32[64,8,64]{2,1,0} %add.172.5)
  ROOT %concatenate.24.1 = bf16[64,8,128]{2,1,0} concatenate(bf16[64,8,64]{2,1,0} %convert.670.3, bf16[64,8,64]{2,1,0} %convert.671.3), dimensions={2}, metadata={op_type="aten__cat" op_name="aten__cat" source_file="/usr/local/lib/python3.10/site-packages/torch/_ops.py" source_line=756}
}

%fused_slice (param_0.1: bf16[2,4233,16,8,128]) -> bf16[69353472] {
  %param_0.1 = bf16[2,4233,16,8,128]{4,3,2,1,0} parameter(0)
  %bitcast.2261.1 = bf16[138706944]{0} bitcast(bf16[2,4233,16,8,128]{4,3,2,1,0} %param_0.1)
  ROOT %slice.176.1 = bf16[69353472]{0} slice(bf16[138706944]{0} %bitcast.2261.1), slice={[69353472:138706944]}, metadata={op_type="aten__as_strided" op_name="aten__as_strided" source_file="/usr/local/lib/python3.10/site-packages/torch/_higher_order_ops/auto_functionalize.py" source_line=54}
}

%wrapped_slice_computation.1 (param_0.477: bf16[2,4233,16,8,128]) -> bf16[1,4233,16,8,128] {
  %param_0.477 = bf16[2,4233,16,8,128]{4,3,2,1,0} parameter(0)
  ROOT %slice.175.1 = bf16[1,4233,16,8,128]{4,3,2,1,0} slice(bf16[2,4233,16,8,128]{4,3,2,1,0} %param_0.477), slice={[0:1], [0:4233], [0:16], [0:8], [0:128]}, metadata={op_type="aten__as_strided" op_name="aten__as_strided" source_file="/usr/local/lib/python3.10/site-packages/torch/_higher_order_ops/auto_functionalize.py" source_line=54}
}

%command_buffer (p: bf16[151936,1024], p.1: s32[64], p.2: bf16[1024,2048], p.3: bf16[1024,2048], p.4: bf16[1024,2048], p.5: bf16[1024,2048], p.6: bf16[1024,2048], p.7: bf16[1024,2048], p.8: bf16[1024,2048], p.9: bf16[1024,2048], p.10: bf16[1024,2048], p.11: bf16[1024,2048], p.12: f32[], p.13: bf16[1024], p.14: bf16[6144,1024], p.15: bf16[1024,3072], p.16: bf16[1024], p.17: bf16[6144,1024], p.18: bf16[1024,3072], p.19: bf16[1024], p.20: bf16[6144,1024], p.21: bf16[1024,3072], p.22: bf16[1024], p.23: bf16[6144,1024], p.24: bf16[1024,3072], p.25: bf16[1024], p.26: bf16[6144,1024], p.27: bf16[1024,3072], p.28: bf16[1024], p.29: bf16[6144,1024], p.30: bf16[1024,3072], p.31: bf16[1024], p.32: bf16[6144,1024], p.33: bf16[1024,3072], p.34: bf16[1024], p.35: bf16[6144,1024], p.36: bf16[1024,3072], p.37: bf16[1024], p.38: bf16[6144,1024], p.39: bf16[1024,3072], p.40: bf16[1024], p.41: bf16[6144,1024], p.42: bf16[1024,3072], p.43: bf16[1024], p.44: bf16[4096,1024], p.45: bf16[128], p.46: bf16[40960,128], p.47: s32[64], p.48: bf16[2,4233,16,8,128]) -> (bf16[64,8,128], bf16[64,8,128], bf16[4233,16,8,128], bf16[1,4233,16,8,128]) {
  %p = bf16[151936,1024]{1,0} parameter(0)
  %p.1 = s32[64]{0} parameter(1)
  %p.2 = bf16[1024,2048]{1,0} parameter(2)
  %p.3 = bf16[1024,2048]{1,0} parameter(3)
  %p.4 = bf16[1024,2048]{1,0} parameter(4)
  %p.5 = bf16[1024,2048]{1,0} parameter(5)
  %p.6 = bf16[1024,2048]{1,0} parameter(6)
  %p.7 = bf16[1024,2048]{1,0} parameter(7)
  %p.8 = bf16[1024,2048]{1,0} parameter(8)
  %p.9 = bf16[1024,2048]{1,0} parameter(9)
  %p.10 = bf16[1024,2048]{1,0} parameter(10)
  %p.11 = bf16[1024,2048]{1,0} parameter(11)
  %p.12 = f32[] parameter(12)
  %p.13 = bf16[1024]{0} parameter(13)
  %p.14 = bf16[6144,1024]{1,0} parameter(14)
  %p.15 = bf16[1024,3072]{1,0} parameter(15)
  %p.16 = bf16[1024]{0} parameter(16)
  %p.17 = bf16[6144,1024]{1,0} parameter(17)
  %p.18 = bf16[1024,3072]{1,0} parameter(18)
  %p.19 = bf16[1024]{0} parameter(19)
  %p.20 = bf16[6144,1024]{1,0} parameter(20)
  %p.21 = bf16[1024,3072]{1,0} parameter(21)
  %p.22 = bf16[1024]{0} parameter(22)
  %p.23 = bf16[6144,1024]{1,0} parameter(23)
  %p.24 = bf16[1024,3072]{1,0} parameter(24)
  %p.25 = bf16[1024]{0} parameter(25)
  %p.26 = bf16[6144,1024]{1,0} parameter(26)
  %p.27 = bf16[1024,3072]{1,0} parameter(27)
  %p.28 = bf16[1024]{0} parameter(28)
  %p.29 = bf16[6144,1024]{1,0} parameter(29)
  %p.30 = bf16[1024,3072]{1,0} parameter(30)
  %p.31 = bf16[1024]{0} parameter(31)
  %p.32 = bf16[6144,1024]{1,0} parameter(32)
  %p.33 = bf16[1024,3072]{1,0} parameter(33)
  %p.34 = bf16[1024]{0} parameter(34)
  %p.35 = bf16[6144,1024]{1,0} parameter(35)
  %p.36 = bf16[1024,3072]{1,0} parameter(36)
  %p.37 = bf16[1024]{0} parameter(37)
  %p.38 = bf16[6144,1024]{1,0} parameter(38)
  %p.39 = bf16[1024,3072]{1,0} parameter(39)
  %p.40 = bf16[1024]{0} parameter(40)
  %p.41 = bf16[6144,1024]{1,0} parameter(41)
  %p.42 = bf16[1024,3072]{1,0} parameter(42)
  %p.43 = bf16[1024]{0} parameter(43)
  %p.44 = bf16[4096,1024]{1,0} parameter(44)
  %p.45 = bf16[128]{0} parameter(45)
  %p.46 = bf16[40960,128]{1,0} parameter(46)
  %p.47 = s32[64]{0} parameter(47)
  %p.48 = bf16[2,4233,16,8,128]{4,3,2,1,0} parameter(48)
  %loop_gather_fusion = bf16[64,1,1024]{2,0,1} fusion(bf16[151936,1024]{1,0} %p, s32[64]{0} %p.1), kind=kLoop, calls=%fused_gather, metadata={op_type="aten__index_select" op_name="aten__index_select" source_file="/usr/local/lib/python3.10/site-packages/torch/_ops.py" source_line=756}
  %wrapped_concatenate = bf16[10240,2048]{1,0} fusion(bf16[1024,2048]{1,0} %p.2, bf16[1024,2048]{1,0} %p.3, bf16[1024,2048]{1,0} %p.4, bf16[1024,2048]{1,0} %p.5, bf16[1024,2048]{1,0} %p.6, /*index=5*/bf16[1024,2048]{1,0} %p.7, bf16[1024,2048]{1,0} %p.8, bf16[1024,2048]{1,0} %p.9, bf16[1024,2048]{1,0} %p.10, bf16[1024,2048]{1,0} %p.11), kind=kLoop, calls=%wrapped_concatenate_computation, metadata={op_type="xla__device_data" op_name="xla__device_data" source_file="/usr/local/lib/python3.10/site-packages/torch_xla/_dynamo/dynamo_bridge.py" source_line=355}
  %gemm_fusion_dot.39.0 = bf16[64,10240]{1,0} fusion(bf16[10240,2048]{1,0} %wrapped_concatenate), kind=kCustom, calls=%gemm_fusion_dot.39_computation, metadata={op_type="aten__mm" op_name="aten__mm" source_file="/usr/local/lib/python3.10/site-packages/torch/_ops.py" source_line=756}, backend_config={"operation_queue_id":"0","wait_on_operation_queues":[],"fusion_backend_config":{"kind":"__triton_gemm","triton_gemm_config":{"block_m":"64","block_n":"128","block_k":"128","split_k":"1","num_stages":"3","num_warps":"8","num_ctas":"1"}},"force_earliest_schedule":false}
  %fusion.135 = bf16[64,1024]{1,0} fusion(f32[] %p.12, bf16[64,1,1024]{2,0,1} %loop_gather_fusion, bf16[64,10240]{1,0} %gemm_fusion_dot.39.0, bf16[1024]{0} %p.13), kind=kCustom, calls=%fused_computation.110, metadata={op_type="xla__cast" op_name="xla__cast" source_file="/usr/local/lib/python3.10/site-packages/torch/_ops.py" source_line=756}, backend_config={"operation_queue_id":"0","wait_on_operation_queues":[],"fusion_backend_config":{"kind":"__triton","block_level_fusion_config":{"output_tiles":[{"sizes":["1","1024"]}],"num_warps":"2"}},"force_earliest_schedule":false}
  %custom-call.21.0 = (bf16[64,6144]{1,0}, s8[4194304]{0}) custom-call(bf16[64,1024]{1,0} %fusion.135, bf16[6144,1024]{1,0} %p.14), custom_call_target="__cublas$gemm", metadata={op_type="aten__mm" op_name="aten__mm" source_file="/usr/local/lib/python3.10/site-packages/torch/_ops.py" source_line=756}, backend_config={"operation_queue_id":"0","wait_on_operation_queues":[],"gemm_backend_config":{"alpha_real":1,"alpha_imag":0,"beta":0,"dot_dimension_numbers":{"lhs_contracting_dimensions":["1"],"rhs_contracting_dimensions":["1"],"lhs_batch_dimensions":[],"rhs_batch_dimensions":[]},"precision_config":{"operand_precision":["DEFAULT","DEFAULT"],"algorithm":"ALG_UNSET"},"epilogue":"DEFAULT","damax_output":false,"lhs_stride":"65536","rhs_stride":"6291456","grad_x":false,"grad_y":false},"force_earliest_schedule":false}
  %get-tuple-element.21 = bf16[64,6144]{1,0} get-tuple-element((bf16[64,6144]{1,0}, s8[4194304]{0}) %custom-call.21.0), index=0, metadata={op_type="aten__mm" op_name="aten__mm" source_file="/usr/local/lib/python3.10/site-packages/torch/_ops.py" source_line=756}
  %loop_convert_fusion.9 = bf16[64,3072]{1,0} fusion(bf16[64,6144]{1,0} %get-tuple-element.21), kind=kLoop, calls=%fused_convert.9, metadata={op_type="xla__cast" op_name="xla__cast" source_file="/usr/local/lib/python3.10/site-packages/torch/_ops.py" source_line=756 deduplicated_name="loop_convert_fusion"}
  %custom-call.22.0 = (bf16[64,1024]{1,0}, s8[4194304]{0}) custom-call(bf16[64,3072]{1,0} %loop_convert_fusion.9, bf16[1024,3072]{1,0} %p.15), custom_call_target="__cublas$gemm", metadata={op_type="aten__mm" op_name="aten__mm" source_file="/usr/local/lib/python3.10/site-packages/torch/_ops.py" source_line=756}, backend_config={"operation_queue_id":"0","wait_on_operation_queues":[],"gemm_backend_config":{"alpha_real":1,"alpha_imag":0,"beta":0,"dot_dimension_numbers":{"lhs_contracting_dimensions":["1"],"rhs_contracting_dimensions":["1"],"lhs_batch_dimensions":[],"rhs_batch_dimensions":[]},"precision_config":{"operand_precision":["DEFAULT","DEFAULT"],"algorithm":"ALG_UNSET"},"epilogue":"DEFAULT","damax_output":false,"lhs_stride":"196608","rhs_stride":"3145728","grad_x":false,"grad_y":false},"force_earliest_schedule":false}
  %get-tuple-element.1.0 = bf16[64,1024]{1,0} get-tuple-element((bf16[64,1024]{1,0}, s8[4194304]{0}) %custom-call.22.0), index=0, metadata={op_type="aten__mm" op_name="aten__mm" source_file="/usr/local/lib/python3.10/site-packages/torch/_ops.py" source_line=756}
  %fusion.134 = bf16[64,1024]{1,0} fusion(f32[] %p.12, bf16[1024]{0} %p.16, bf16[64,1,1024]{2,0,1} %loop_gather_fusion, bf16[64,10240]{1,0} %gemm_fusion_dot.39.0, bf16[64,1024]{1,0} %get-tuple-element.1.0), kind=kCustom, calls=%fused_computation.109, metadata={op_type="xla__cast" op_name="xla__cast" source_file="/usr/local/lib/python3.10/site-packages/torch/_ops.py" source_line=756}, backend_config={"operation_queue_id":"0","wait_on_operation_queues":[],"fusion_backend_config":{"kind":"__triton","block_level_fusion_config":{"output_tiles":[{"sizes":["1","1024"]}],"num_warps":"2"}},"force_earliest_schedule":false}
  %custom-call.23.0 = (bf16[64,6144]{1,0}, s8[4194304]{0}) custom-call(bf16[64,1024]{1,0} %fusion.134, bf16[6144,1024]{1,0} %p.17), custom_call_target="__cublas$gemm", metadata={op_type="aten__mm" op_name="aten__mm" source_file="/usr/local/lib/python3.10/site-packages/torch/_ops.py" source_line=756}, backend_config={"operation_queue_id":"0","wait_on_operation_queues":[],"gemm_backend_config":{"alpha_real":1,"alpha_imag":0,"beta":0,"dot_dimension_numbers":{"lhs_contracting_dimensions":["1"],"rhs_contracting_dimensions":["1"],"lhs_batch_dimensions":[],"rhs_batch_dimensions":[]},"precision_config":{"operand_precision":["DEFAULT","DEFAULT"],"algorithm":"ALG_UNSET"},"epilogue":"DEFAULT","damax_output":false,"lhs_stride":"65536","rhs_stride":"6291456","grad_x":false,"grad_y":false},"force_earliest_schedule":false}
  %get-tuple-element.2.0 = bf16[64,6144]{1,0} get-tuple-element((bf16[64,6144]{1,0}, s8[4194304]{0}) %custom-call.23.0), index=0, metadata={op_type="aten__mm" op_name="aten__mm" source_file="/usr/local/lib/python3.10/site-packages/torch/_ops.py" source_line=756}
  %loop_convert_fusion.8 = bf16[64,3072]{1,0} fusion(bf16[64,6144]{1,0} %get-tuple-element.2.0), kind=kLoop, calls=%fused_convert.8, metadata={op_type="xla__cast" op_name="xla__cast" source_file="/usr/local/lib/python3.10/site-packages/torch/_ops.py" source_line=756 deduplicated_name="loop_convert_fusion"}
  %custom-call.24.0 = (bf16[64,1024]{1,0}, s8[4194304]{0}) custom-call(bf16[64,3072]{1,0} %loop_convert_fusion.8, bf16[1024,3072]{1,0} %p.18), custom_call_target="__cublas$gemm", metadata={op_type="aten__mm" op_name="aten__mm" source_file="/usr/local/lib/python3.10/site-packages/torch/_ops.py" source_line=756}, backend_config={"operation_queue_id":"0","wait_on_operation_queues":[],"gemm_backend_config":{"alpha_real":1,"alpha_imag":0,"beta":0,"dot_dimension_numbers":{"lhs_contracting_dimensions":["1"],"rhs_contracting_dimensions":["1"],"lhs_batch_dimensions":[],"rhs_batch_dimensions":[]},"precision_config":{"operand_precision":["DEFAULT","DEFAULT"],"algorithm":"ALG_UNSET"},"epilogue":"DEFAULT","damax_output":false,"lhs_stride":"196608","rhs_stride":"3145728","grad_x":false,"grad_y":false},"force_earliest_schedule":false}
  %get-tuple-element.3.0 = bf16[64,1024]{1,0} get-tuple-element((bf16[64,1024]{1,0}, s8[4194304]{0}) %custom-call.24.0), index=0, metadata={op_type="aten__mm" op_name="aten__mm" source_file="/usr/local/lib/python3.10/site-packages/torch/_ops.py" source_line=756}
  %fusion.133 = bf16[64,1024]{1,0} fusion(f32[] %p.12, bf16[64,1024]{1,0} %get-tuple-element.3.0, bf16[64,10240]{1,0} %gemm_fusion_dot.39.0, bf16[1024]{0} %p.19, bf16[64,1,1024]{2,0,1} %loop_gather_fusion, /*index=5*/bf16[64,1024]{1,0} %get-tuple-element.1.0), kind=kCustom, calls=%fused_computation.108, metadata={op_type="xla__cast" op_name="xla__cast" source_file="/usr/local/lib/python3.10/site-packages/torch/_ops.py" source_line=756}, backend_config={"operation_queue_id":"0","wait_on_operation_queues":[],"fusion_backend_config":{"kind":"__triton","block_level_fusion_config":{"output_tiles":[{"sizes":["1","1024"]}],"num_warps":"2"}},"force_earliest_schedule":false}
  %custom-call.25.0 = (bf16[64,6144]{1,0}, s8[4194304]{0}) custom-call(bf16[64,1024]{1,0} %fusion.133, bf16[6144,1024]{1,0} %p.20), custom_call_target="__cublas$gemm", metadata={op_type="aten__mm" op_name="aten__mm" source_file="/usr/local/lib/python3.10/site-packages/torch/_ops.py" source_line=756}, backend_config={"operation_queue_id":"0","wait_on_operation_queues":[],"gemm_backend_config":{"alpha_real":1,"alpha_imag":0,"beta":0,"dot_dimension_numbers":{"lhs_contracting_dimensions":["1"],"rhs_contracting_dimensions":["1"],"lhs_batch_dimensions":[],"rhs_batch_dimensions":[]},"precision_config":{"operand_precision":["DEFAULT","DEFAULT"],"algorithm":"ALG_UNSET"},"epilogue":"DEFAULT","damax_output":false,"lhs_stride":"65536","rhs_stride":"6291456","grad_x":false,"grad_y":false},"force_earliest_schedule":false}
  %get-tuple-element.4.0 = bf16[64,6144]{1,0} get-tuple-element((bf16[64,6144]{1,0}, s8[4194304]{0}) %custom-call.25.0), index=0, metadata={op_type="aten__mm" op_name="aten__mm" source_file="/usr/local/lib/python3.10/site-packages/torch/_ops.py" source_line=756}
  %loop_convert_fusion.7 = bf16[64,3072]{1,0} fusion(bf16[64,6144]{1,0} %get-tuple-element.4.0), kind=kLoop, calls=%fused_convert.7, metadata={op_type="xla__cast" op_name="xla__cast" source_file="/usr/local/lib/python3.10/site-packages/torch/_ops.py" source_line=756 deduplicated_name="loop_convert_fusion"}
  %custom-call.26.0 = (bf16[64,1024]{1,0}, s8[4194304]{0}) custom-call(bf16[64,3072]{1,0} %loop_convert_fusion.7, bf16[1024,3072]{1,0} %p.21), custom_call_target="__cublas$gemm", metadata={op_type="aten__mm" op_name="aten__mm" source_file="/usr/local/lib/python3.10/site-packages/torch/_ops.py" source_line=756}, backend_config={"operation_queue_id":"0","wait_on_operation_queues":[],"gemm_backend_config":{"alpha_real":1,"alpha_imag":0,"beta":0,"dot_dimension_numbers":{"lhs_contracting_dimensions":["1"],"rhs_contracting_dimensions":["1"],"lhs_batch_dimensions":[],"rhs_batch_dimensions":[]},"precision_config":{"operand_precision":["DEFAULT","DEFAULT"],"algorithm":"ALG_UNSET"},"epilogue":"DEFAULT","damax_output":false,"lhs_stride":"196608","rhs_stride":"3145728","grad_x":false,"grad_y":false},"force_earliest_schedule":false}
  %get-tuple-element.5.0 = bf16[64,1024]{1,0} get-tuple-element((bf16[64,1024]{1,0}, s8[4194304]{0}) %custom-call.26.0), index=0, metadata={op_type="aten__mm" op_name="aten__mm" source_file="/usr/local/lib/python3.10/site-packages/torch/_ops.py" source_line=756}
  %loop_add_fusion = f32[64,1024]{1,0} fusion(bf16[64,10240]{1,0} %gemm_fusion_dot.39.0, bf16[64,1024]{1,0} %get-tuple-element.5.0, bf16[64,1024]{1,0} %get-tuple-element.3.0, bf16[64,1,1024]{2,0,1} %loop_gather_fusion, bf16[64,1024]{1,0} %get-tuple-element.1.0), kind=kLoop, calls=%fused_add, metadata={op_type="aten__add" op_name="aten__add.1081/aten__add" source_file="/usr/local/lib/python3.10/site-packages/torch/_ops.py" source_line=756}
  %fusion.132 = bf16[64,1024]{1,0} fusion(f32[64,1024]{1,0} %loop_add_fusion, f32[] %p.12, bf16[1024]{0} %p.22), kind=kCustom, calls=%fused_computation.107, metadata={op_type="xla__cast" op_name="xla__cast" source_file="/usr/local/lib/python3.10/site-packages/torch/_ops.py" source_line=756 deduplicated_name="fusion.128"}, backend_config={"operation_queue_id":"0","wait_on_operation_queues":[],"fusion_backend_config":{"kind":"__triton","block_level_fusion_config":{"output_tiles":[{"sizes":["1","1024"]}],"num_warps":"2"}},"force_earliest_schedule":false}
  %custom-call.27.0 = (bf16[64,6144]{1,0}, s8[4194304]{0}) custom-call(bf16[64,1024]{1,0} %fusion.132, bf16[6144,1024]{1,0} %p.23), custom_call_target="__cublas$gemm", metadata={op_type="aten__mm" op_name="aten__mm" source_file="/usr/local/lib/python3.10/site-packages/torch/_ops.py" source_line=756}, backend_config={"operation_queue_id":"0","wait_on_operation_queues":[],"gemm_backend_config":{"alpha_real":1,"alpha_imag":0,"beta":0,"dot_dimension_numbers":{"lhs_contracting_dimensions":["1"],"rhs_contracting_dimensions":["1"],"lhs_batch_dimensions":[],"rhs_batch_dimensions":[]},"precision_config":{"operand_precision":["DEFAULT","DEFAULT"],"algorithm":"ALG_UNSET"},"epilogue":"DEFAULT","damax_output":false,"lhs_stride":"65536","rhs_stride":"6291456","grad_x":false,"grad_y":false},"force_earliest_schedule":false}
  %get-tuple-element.6.0 = bf16[64,6144]{1,0} get-tuple-element((bf16[64,6144]{1,0}, s8[4194304]{0}) %custom-call.27.0), index=0, metadata={op_type="aten__mm" op_name="aten__mm" source_file="/usr/local/lib/python3.10/site-packages/torch/_ops.py" source_line=756}
  %loop_convert_fusion.6 = bf16[64,3072]{1,0} fusion(bf16[64,6144]{1,0} %get-tuple-element.6.0), kind=kLoop, calls=%fused_convert.6, metadata={op_type="xla__cast" op_name="xla__cast" source_file="/usr/local/lib/python3.10/site-packages/torch/_ops.py" source_line=756 deduplicated_name="loop_convert_fusion"}
  %custom-call.28.0 = (bf16[64,1024]{1,0}, s8[4194304]{0}) custom-call(bf16[64,3072]{1,0} %loop_convert_fusion.6, bf16[1024,3072]{1,0} %p.24), custom_call_target="__cublas$gemm", metadata={op_type="aten__mm" op_name="aten__mm" source_file="/usr/local/lib/python3.10/site-packages/torch/_ops.py" source_line=756}, backend_config={"operation_queue_id":"0","wait_on_operation_queues":[],"gemm_backend_config":{"alpha_real":1,"alpha_imag":0,"beta":0,"dot_dimension_numbers":{"lhs_contracting_dimensions":["1"],"rhs_contracting_dimensions":["1"],"lhs_batch_dimensions":[],"rhs_batch_dimensions":[]},"precision_config":{"operand_precision":["DEFAULT","DEFAULT"],"algorithm":"ALG_UNSET"},"epilogue":"DEFAULT","damax_output":false,"lhs_stride":"196608","rhs_stride":"3145728","grad_x":false,"grad_y":false},"force_earliest_schedule":false}
  %get-tuple-element.7.0 = bf16[64,1024]{1,0} get-tuple-element((bf16[64,1024]{1,0}, s8[4194304]{0}) %custom-call.28.0), index=0, metadata={op_type="aten__mm" op_name="aten__mm" source_file="/usr/local/lib/python3.10/site-packages/torch/_ops.py" source_line=756}
  %fusion.131 = bf16[64,1024]{1,0} fusion(f32[] %p.12, f32[64,1024]{1,0} %loop_add_fusion, bf16[64,1024]{1,0} %get-tuple-element.7.0, bf16[64,10240]{1,0} %gemm_fusion_dot.39.0, bf16[1024]{0} %p.25), kind=kCustom, calls=%fused_computation.106, metadata={op_type="xla__cast" op_name="xla__cast" source_file="/usr/local/lib/python3.10/site-packages/torch/_ops.py" source_line=756}, backend_config={"operation_queue_id":"0","wait_on_operation_queues":[],"fusion_backend_config":{"kind":"__triton","block_level_fusion_config":{"output_tiles":[{"sizes":["1","1024"]}],"num_warps":"2"}},"force_earliest_schedule":false}
  %custom-call.29.0 = (bf16[64,6144]{1,0}, s8[4194304]{0}) custom-call(bf16[64,1024]{1,0} %fusion.131, bf16[6144,1024]{1,0} %p.26), custom_call_target="__cublas$gemm", metadata={op_type="aten__mm" op_name="aten__mm" source_file="/usr/local/lib/python3.10/site-packages/torch/_ops.py" source_line=756}, backend_config={"operation_queue_id":"0","wait_on_operation_queues":[],"gemm_backend_config":{"alpha_real":1,"alpha_imag":0,"beta":0,"dot_dimension_numbers":{"lhs_contracting_dimensions":["1"],"rhs_contracting_dimensions":["1"],"lhs_batch_dimensions":[],"rhs_batch_dimensions":[]},"precision_config":{"operand_precision":["DEFAULT","DEFAULT"],"algorithm":"ALG_UNSET"},"epilogue":"DEFAULT","damax_output":false,"lhs_stride":"65536","rhs_stride":"6291456","grad_x":false,"grad_y":false},"force_earliest_schedule":false}
  %get-tuple-element.8.0 = bf16[64,6144]{1,0} get-tuple-element((bf16[64,6144]{1,0}, s8[4194304]{0}) %custom-call.29.0), index=0, metadata={op_type="aten__mm" op_name="aten__mm" source_file="/usr/local/lib/python3.10/site-packages/torch/_ops.py" source_line=756}
  %loop_convert_fusion.5 = bf16[64,3072]{1,0} fusion(bf16[64,6144]{1,0} %get-tuple-element.8.0), kind=kLoop, calls=%fused_convert.5, metadata={op_type="xla__cast" op_name="xla__cast" source_file="/usr/local/lib/python3.10/site-packages/torch/_ops.py" source_line=756 deduplicated_name="loop_convert_fusion"}
  %custom-call.30.0 = (bf16[64,1024]{1,0}, s8[4194304]{0}) custom-call(bf16[64,3072]{1,0} %loop_convert_fusion.5, bf16[1024,3072]{1,0} %p.27), custom_call_target="__cublas$gemm", metadata={op_type="aten__mm" op_name="aten__mm" source_file="/usr/local/lib/python3.10/site-packages/torch/_ops.py" source_line=756}, backend_config={"operation_queue_id":"0","wait_on_operation_queues":[],"gemm_backend_config":{"alpha_real":1,"alpha_imag":0,"beta":0,"dot_dimension_numbers":{"lhs_contracting_dimensions":["1"],"rhs_contracting_dimensions":["1"],"lhs_batch_dimensions":[],"rhs_batch_dimensions":[]},"precision_config":{"operand_precision":["DEFAULT","DEFAULT"],"algorithm":"ALG_UNSET"},"epilogue":"DEFAULT","damax_output":false,"lhs_stride":"196608","rhs_stride":"3145728","grad_x":false,"grad_y":false},"force_earliest_schedule":false}
  %get-tuple-element.9.0 = bf16[64,1024]{1,0} get-tuple-element((bf16[64,1024]{1,0}, s8[4194304]{0}) %custom-call.30.0), index=0, metadata={op_type="aten__mm" op_name="aten__mm" source_file="/usr/local/lib/python3.10/site-packages/torch/_ops.py" source_line=756}
  %fusion.130 = bf16[64,1024]{1,0} fusion(f32[] %p.12, bf16[1024]{0} %p.28, f32[64,1024]{1,0} %loop_add_fusion, bf16[64,1024]{1,0} %get-tuple-element.7.0, bf16[64,10240]{1,0} %gemm_fusion_dot.39.0, /*index=5*/bf16[64,1024]{1,0} %get-tuple-element.9.0), kind=kCustom, calls=%fused_computation.105, metadata={op_type="xla__cast" op_name="xla__cast" source_file="/usr/local/lib/python3.10/site-packages/torch/_ops.py" source_line=756}, backend_config={"operation_queue_id":"0","wait_on_operation_queues":[],"fusion_backend_config":{"kind":"__triton","block_level_fusion_config":{"output_tiles":[{"sizes":["1","1024"]}],"num_warps":"2"}},"force_earliest_schedule":false}
  %custom-call.31.0 = (bf16[64,6144]{1,0}, s8[4194304]{0}) custom-call(bf16[64,1024]{1,0} %fusion.130, bf16[6144,1024]{1,0} %p.29), custom_call_target="__cublas$gemm", metadata={op_type="aten__mm" op_name="aten__mm" source_file="/usr/local/lib/python3.10/site-packages/torch/_ops.py" source_line=756}, backend_config={"operation_queue_id":"0","wait_on_operation_queues":[],"gemm_backend_config":{"alpha_real":1,"alpha_imag":0,"beta":0,"dot_dimension_numbers":{"lhs_contracting_dimensions":["1"],"rhs_contracting_dimensions":["1"],"lhs_batch_dimensions":[],"rhs_batch_dimensions":[]},"precision_config":{"operand_precision":["DEFAULT","DEFAULT"],"algorithm":"ALG_UNSET"},"epilogue":"DEFAULT","damax_output":false,"lhs_stride":"65536","rhs_stride":"6291456","grad_x":false,"grad_y":false},"force_earliest_schedule":false}
  %get-tuple-element.10.0 = bf16[64,6144]{1,0} get-tuple-element((bf16[64,6144]{1,0}, s8[4194304]{0}) %custom-call.31.0), index=0, metadata={op_type="aten__mm" op_name="aten__mm" source_file="/usr/local/lib/python3.10/site-packages/torch/_ops.py" source_line=756}
  %loop_convert_fusion.4 = bf16[64,3072]{1,0} fusion(bf16[64,6144]{1,0} %get-tuple-element.10.0), kind=kLoop, calls=%fused_convert.4, metadata={op_type="xla__cast" op_name="xla__cast" source_file="/usr/local/lib/python3.10/site-packages/torch/_ops.py" source_line=756 deduplicated_name="loop_convert_fusion"}
  %custom-call.32.0 = (bf16[64,1024]{1,0}, s8[4194304]{0}) custom-call(bf16[64,3072]{1,0} %loop_convert_fusion.4, bf16[1024,3072]{1,0} %p.30), custom_call_target="__cublas$gemm", metadata={op_type="aten__mm" op_name="aten__mm" source_file="/usr/local/lib/python3.10/site-packages/torch/_ops.py" source_line=756}, backend_config={"operation_queue_id":"0","wait_on_operation_queues":[],"gemm_backend_config":{"alpha_real":1,"alpha_imag":0,"beta":0,"dot_dimension_numbers":{"lhs_contracting_dimensions":["1"],"rhs_contracting_dimensions":["1"],"lhs_batch_dimensions":[],"rhs_batch_dimensions":[]},"precision_config":{"operand_precision":["DEFAULT","DEFAULT"],"algorithm":"ALG_UNSET"},"epilogue":"DEFAULT","damax_output":false,"lhs_stride":"196608","rhs_stride":"3145728","grad_x":false,"grad_y":false},"force_earliest_schedule":false}
  %get-tuple-element.11.0 = bf16[64,1024]{1,0} get-tuple-element((bf16[64,1024]{1,0}, s8[4194304]{0}) %custom-call.32.0), index=0, metadata={op_type="aten__mm" op_name="aten__mm" source_file="/usr/local/lib/python3.10/site-packages/torch/_ops.py" source_line=756}
  %fusion.129 = bf16[64,1024]{1,0} fusion(f32[] %p.12, bf16[64,1024]{1,0} %get-tuple-element.11.0, bf16[64,10240]{1,0} %gemm_fusion_dot.39.0, bf16[1024]{0} %p.31, f32[64,1024]{1,0} %loop_add_fusion, /*index=5*/bf16[64,1024]{1,0} %get-tuple-element.7.0, bf16[64,1024]{1,0} %get-tuple-element.9.0), kind=kCustom, calls=%fused_computation.104, metadata={op_type="xla__cast" op_name="xla__cast" source_file="/usr/local/lib/python3.10/site-packages/torch/_ops.py" source_line=756}, backend_config={"operation_queue_id":"0","wait_on_operation_queues":[],"fusion_backend_config":{"kind":"__triton","block_level_fusion_config":{"output_tiles":[{"sizes":["1","1024"]}],"num_warps":"2"}},"force_earliest_schedule":false}
  %custom-call.33.0 = (bf16[64,6144]{1,0}, s8[4194304]{0}) custom-call(bf16[64,1024]{1,0} %fusion.129, bf16[6144,1024]{1,0} %p.32), custom_call_target="__cublas$gemm", metadata={op_type="aten__mm" op_name="aten__mm" source_file="/usr/local/lib/python3.10/site-packages/torch/_ops.py" source_line=756}, backend_config={"operation_queue_id":"0","wait_on_operation_queues":[],"gemm_backend_config":{"alpha_real":1,"alpha_imag":0,"beta":0,"dot_dimension_numbers":{"lhs_contracting_dimensions":["1"],"rhs_contracting_dimensions":["1"],"lhs_batch_dimensions":[],"rhs_batch_dimensions":[]},"precision_config":{"operand_precision":["DEFAULT","DEFAULT"],"algorithm":"ALG_UNSET"},"epilogue":"DEFAULT","damax_output":false,"lhs_stride":"65536","rhs_stride":"6291456","grad_x":false,"grad_y":false},"force_earliest_schedule":false}
  %get-tuple-element.12.0 = bf16[64,6144]{1,0} get-tuple-element((bf16[64,6144]{1,0}, s8[4194304]{0}) %custom-call.33.0), index=0, metadata={op_type="aten__mm" op_name="aten__mm" source_file="/usr/local/lib/python3.10/site-packages/torch/_ops.py" source_line=756}
  %loop_convert_fusion.3 = bf16[64,3072]{1,0} fusion(bf16[64,6144]{1,0} %get-tuple-element.12.0), kind=kLoop, calls=%fused_convert.3, metadata={op_type="xla__cast" op_name="xla__cast" source_file="/usr/local/lib/python3.10/site-packages/torch/_ops.py" source_line=756 deduplicated_name="loop_convert_fusion"}
  %custom-call.34.0 = (bf16[64,1024]{1,0}, s8[4194304]{0}) custom-call(bf16[64,3072]{1,0} %loop_convert_fusion.3, bf16[1024,3072]{1,0} %p.33), custom_call_target="__cublas$gemm", metadata={op_type="aten__mm" op_name="aten__mm" source_file="/usr/local/lib/python3.10/site-packages/torch/_ops.py" source_line=756}, backend_config={"operation_queue_id":"0","wait_on_operation_queues":[],"gemm_backend_config":{"alpha_real":1,"alpha_imag":0,"beta":0,"dot_dimension_numbers":{"lhs_contracting_dimensions":["1"],"rhs_contracting_dimensions":["1"],"lhs_batch_dimensions":[],"rhs_batch_dimensions":[]},"precision_config":{"operand_precision":["DEFAULT","DEFAULT"],"algorithm":"ALG_UNSET"},"epilogue":"DEFAULT","damax_output":false,"lhs_stride":"196608","rhs_stride":"3145728","grad_x":false,"grad_y":false},"force_earliest_schedule":false}
  %get-tuple-element.13.0 = bf16[64,1024]{1,0} get-tuple-element((bf16[64,1024]{1,0}, s8[4194304]{0}) %custom-call.34.0), index=0, metadata={op_type="aten__mm" op_name="aten__mm" source_file="/usr/local/lib/python3.10/site-packages/torch/_ops.py" source_line=756}
  %loop_add_fusion.1 = f32[64,1024]{1,0} fusion(bf16[64,10240]{1,0} %gemm_fusion_dot.39.0, bf16[64,1024]{1,0} %get-tuple-element.13.0, bf16[64,1024]{1,0} %get-tuple-element.11.0, f32[64,1024]{1,0} %loop_add_fusion, bf16[64,1024]{1,0} %get-tuple-element.7.0, /*index=5*/bf16[64,1024]{1,0} %get-tuple-element.9.0), kind=kLoop, calls=%fused_add.1, metadata={op_type="aten__add" op_name="aten__add.1153/aten__add" source_file="/usr/local/lib/python3.10/site-packages/torch/_ops.py" source_line=756}
  %fusion.128 = bf16[64,1024]{1,0} fusion(f32[64,1024]{1,0} %loop_add_fusion.1, f32[] %p.12, bf16[1024]{0} %p.34), kind=kCustom, calls=%fused_computation.103, metadata={op_type="xla__cast" op_name="xla__cast" source_file="/usr/local/lib/python3.10/site-packages/torch/_ops.py" source_line=756 deduplicated_name="fusion.128"}, backend_config={"operation_queue_id":"0","wait_on_operation_queues":[],"fusion_backend_config":{"kind":"__triton","block_level_fusion_config":{"output_tiles":[{"sizes":["1","1024"]}],"num_warps":"2"}},"force_earliest_schedule":false}
  %custom-call.35.0 = (bf16[64,6144]{1,0}, s8[4194304]{0}) custom-call(bf16[64,1024]{1,0} %fusion.128, bf16[6144,1024]{1,0} %p.35), custom_call_target="__cublas$gemm", metadata={op_type="aten__mm" op_name="aten__mm" source_file="/usr/local/lib/python3.10/site-packages/torch/_ops.py" source_line=756}, backend_config={"operation_queue_id":"0","wait_on_operation_queues":[],"gemm_backend_config":{"alpha_real":1,"alpha_imag":0,"beta":0,"dot_dimension_numbers":{"lhs_contracting_dimensions":["1"],"rhs_contracting_dimensions":["1"],"lhs_batch_dimensions":[],"rhs_batch_dimensions":[]},"precision_config":{"operand_precision":["DEFAULT","DEFAULT"],"algorithm":"ALG_UNSET"},"epilogue":"DEFAULT","damax_output":false,"lhs_stride":"65536","rhs_stride":"6291456","grad_x":false,"grad_y":false},"force_earliest_schedule":false}
  %get-tuple-element.14.0 = bf16[64,6144]{1,0} get-tuple-element((bf16[64,6144]{1,0}, s8[4194304]{0}) %custom-call.35.0), index=0, metadata={op_type="aten__mm" op_name="aten__mm" source_file="/usr/local/lib/python3.10/site-packages/torch/_ops.py" source_line=756}
  %loop_convert_fusion.2 = bf16[64,3072]{1,0} fusion(bf16[64,6144]{1,0} %get-tuple-element.14.0), kind=kLoop, calls=%fused_convert.2, metadata={op_type="xla__cast" op_name="xla__cast" source_file="/usr/local/lib/python3.10/site-packages/torch/_ops.py" source_line=756 deduplicated_name="loop_convert_fusion"}
  %custom-call.36.0 = (bf16[64,1024]{1,0}, s8[4194304]{0}) custom-call(bf16[64,3072]{1,0} %loop_convert_fusion.2, bf16[1024,3072]{1,0} %p.36), custom_call_target="__cublas$gemm", metadata={op_type="aten__mm" op_name="aten__mm" source_file="/usr/local/lib/python3.10/site-packages/torch/_ops.py" source_line=756}, backend_config={"operation_queue_id":"0","wait_on_operation_queues":[],"gemm_backend_config":{"alpha_real":1,"alpha_imag":0,"beta":0,"dot_dimension_numbers":{"lhs_contracting_dimensions":["1"],"rhs_contracting_dimensions":["1"],"lhs_batch_dimensions":[],"rhs_batch_dimensions":[]},"precision_config":{"operand_precision":["DEFAULT","DEFAULT"],"algorithm":"ALG_UNSET"},"epilogue":"DEFAULT","damax_output":false,"lhs_stride":"196608","rhs_stride":"3145728","grad_x":false,"grad_y":false},"force_earliest_schedule":false}
  %get-tuple-element.15.0 = bf16[64,1024]{1,0} get-tuple-element((bf16[64,1024]{1,0}, s8[4194304]{0}) %custom-call.36.0), index=0, metadata={op_type="aten__mm" op_name="aten__mm" source_file="/usr/local/lib/python3.10/site-packages/torch/_ops.py" source_line=756}
  %fusion.127 = bf16[64,1024]{1,0} fusion(f32[] %p.12, f32[64,1024]{1,0} %loop_add_fusion.1, bf16[64,1024]{1,0} %get-tuple-element.15.0, bf16[64,10240]{1,0} %gemm_fusion_dot.39.0, bf16[1024]{0} %p.37), kind=kCustom, calls=%fused_computation.102, metadata={op_type="xla__cast" op_name="xla__cast" source_file="/usr/local/lib/python3.10/site-packages/torch/_ops.py" source_line=756}, backend_config={"operation_queue_id":"0","wait_on_operation_queues":[],"fusion_backend_config":{"kind":"__triton","block_level_fusion_config":{"output_tiles":[{"sizes":["1","1024"]}],"num_warps":"2"}},"force_earliest_schedule":false}
  %custom-call.37.0 = (bf16[64,6144]{1,0}, s8[4194304]{0}) custom-call(bf16[64,1024]{1,0} %fusion.127, bf16[6144,1024]{1,0} %p.38), custom_call_target="__cublas$gemm", metadata={op_type="aten__mm" op_name="aten__mm" source_file="/usr/local/lib/python3.10/site-packages/torch/_ops.py" source_line=756}, backend_config={"operation_queue_id":"0","wait_on_operation_queues":[],"gemm_backend_config":{"alpha_real":1,"alpha_imag":0,"beta":0,"dot_dimension_numbers":{"lhs_contracting_dimensions":["1"],"rhs_contracting_dimensions":["1"],"lhs_batch_dimensions":[],"rhs_batch_dimensions":[]},"precision_config":{"operand_precision":["DEFAULT","DEFAULT"],"algorithm":"ALG_UNSET"},"epilogue":"DEFAULT","damax_output":false,"lhs_stride":"65536","rhs_stride":"6291456","grad_x":false,"grad_y":false},"force_earliest_schedule":false}
  %get-tuple-element.16.0 = bf16[64,6144]{1,0} get-tuple-element((bf16[64,6144]{1,0}, s8[4194304]{0}) %custom-call.37.0), index=0, metadata={op_type="aten__mm" op_name="aten__mm" source_file="/usr/local/lib/python3.10/site-packages/torch/_ops.py" source_line=756}
  %loop_convert_fusion.1 = bf16[64,3072]{1,0} fusion(bf16[64,6144]{1,0} %get-tuple-element.16.0), kind=kLoop, calls=%fused_convert.1, metadata={op_type="xla__cast" op_name="xla__cast" source_file="/usr/local/lib/python3.10/site-packages/torch/_ops.py" source_line=756 deduplicated_name="loop_convert_fusion"}
  %custom-call.38.0 = (bf16[64,1024]{1,0}, s8[4194304]{0}) custom-call(bf16[64,3072]{1,0} %loop_convert_fusion.1, bf16[1024,3072]{1,0} %p.39), custom_call_target="__cublas$gemm", metadata={op_type="aten__mm" op_name="aten__mm" source_file="/usr/local/lib/python3.10/site-packages/torch/_ops.py" source_line=756}, backend_config={"operation_queue_id":"0","wait_on_operation_queues":[],"gemm_backend_config":{"alpha_real":1,"alpha_imag":0,"beta":0,"dot_dimension_numbers":{"lhs_contracting_dimensions":["1"],"rhs_contracting_dimensions":["1"],"lhs_batch_dimensions":[],"rhs_batch_dimensions":[]},"precision_config":{"operand_precision":["DEFAULT","DEFAULT"],"algorithm":"ALG_UNSET"},"epilogue":"DEFAULT","damax_output":false,"lhs_stride":"196608","rhs_stride":"3145728","grad_x":false,"grad_y":false},"force_earliest_schedule":false}
  %get-tuple-element.17.0 = bf16[64,1024]{1,0} get-tuple-element((bf16[64,1024]{1,0}, s8[4194304]{0}) %custom-call.38.0), index=0, metadata={op_type="aten__mm" op_name="aten__mm" source_file="/usr/local/lib/python3.10/site-packages/torch/_ops.py" source_line=756}
  %fusion.126 = bf16[64,1024]{1,0} fusion(f32[] %p.12, bf16[1024]{0} %p.40, f32[64,1024]{1,0} %loop_add_fusion.1, bf16[64,1024]{1,0} %get-tuple-element.15.0, bf16[64,10240]{1,0} %gemm_fusion_dot.39.0, /*index=5*/bf16[64,1024]{1,0} %get-tuple-element.17.0), kind=kCustom, calls=%fused_computation.101, metadata={op_type="xla__cast" op_name="xla__cast" source_file="/usr/local/lib/python3.10/site-packages/torch/_ops.py" source_line=756}, backend_config={"operation_queue_id":"0","wait_on_operation_queues":[],"fusion_backend_config":{"kind":"__triton","block_level_fusion_config":{"output_tiles":[{"sizes":["1","1024"]}],"num_warps":"2"}},"force_earliest_schedule":false}
  %custom-call.39.0 = (bf16[64,6144]{1,0}, s8[4194304]{0}) custom-call(bf16[64,1024]{1,0} %fusion.126, bf16[6144,1024]{1,0} %p.41), custom_call_target="__cublas$gemm", metadata={op_type="aten__mm" op_name="aten__mm" source_file="/usr/local/lib/python3.10/site-packages/torch/_ops.py" source_line=756}, backend_config={"operation_queue_id":"0","wait_on_operation_queues":[],"gemm_backend_config":{"alpha_real":1,"alpha_imag":0,"beta":0,"dot_dimension_numbers":{"lhs_contracting_dimensions":["1"],"rhs_contracting_dimensions":["1"],"lhs_batch_dimensions":[],"rhs_batch_dimensions":[]},"precision_config":{"operand_precision":["DEFAULT","DEFAULT"],"algorithm":"ALG_UNSET"},"epilogue":"DEFAULT","damax_output":false,"lhs_stride":"65536","rhs_stride":"6291456","grad_x":false,"grad_y":false},"force_earliest_schedule":false}
  %get-tuple-element.18.0 = bf16[64,6144]{1,0} get-tuple-element((bf16[64,6144]{1,0}, s8[4194304]{0}) %custom-call.39.0), index=0, metadata={op_type="aten__mm" op_name="aten__mm" source_file="/usr/local/lib/python3.10/site-packages/torch/_ops.py" source_line=756}
  %loop_convert_fusion = bf16[64,3072]{1,0} fusion(bf16[64,6144]{1,0} %get-tuple-element.18.0), kind=kLoop, calls=%fused_convert, metadata={op_type="xla__cast" op_name="xla__cast" source_file="/usr/local/lib/python3.10/site-packages/torch/_ops.py" source_line=756 deduplicated_name="loop_convert_fusion"}
  %custom-call.40.0 = (bf16[64,1024]{1,0}, s8[4194304]{0}) custom-call(bf16[64,3072]{1,0} %loop_convert_fusion, bf16[1024,3072]{1,0} %p.42), custom_call_target="__cublas$gemm", metadata={op_type="aten__mm" op_name="aten__mm" source_file="/usr/local/lib/python3.10/site-packages/torch/_ops.py" source_line=756}, backend_config={"operation_queue_id":"0","wait_on_operation_queues":[],"gemm_backend_config":{"alpha_real":1,"alpha_imag":0,"beta":0,"dot_dimension_numbers":{"lhs_contracting_dimensions":["1"],"rhs_contracting_dimensions":["1"],"lhs_batch_dimensions":[],"rhs_batch_dimensions":[]},"precision_config":{"operand_precision":["DEFAULT","DEFAULT"],"algorithm":"ALG_UNSET"},"epilogue":"DEFAULT","damax_output":false,"lhs_stride":"196608","rhs_stride":"3145728","grad_x":false,"grad_y":false},"force_earliest_schedule":false}
  %get-tuple-element.19.0 = bf16[64,1024]{1,0} get-tuple-element((bf16[64,1024]{1,0}, s8[4194304]{0}) %custom-call.40.0), index=0, metadata={op_type="aten__mm" op_name="aten__mm" source_file="/usr/local/lib/python3.10/site-packages/torch/_ops.py" source_line=756}
  %fusion.124 = bf16[64,1024]{1,0} fusion(f32[] %p.12, bf16[64,1024]{1,0} %get-tuple-element.19.0, bf16[1024]{0} %p.43, f32[64,1024]{1,0} %loop_add_fusion.1, bf16[64,1024]{1,0} %get-tuple-element.15.0, /*index=5*/bf16[64,10240]{1,0} %gemm_fusion_dot.39.0, bf16[64,1024]{1,0} %get-tuple-element.17.0), kind=kCustom, calls=%fused_computation.99, metadata={op_type="xla__cast" op_name="xla__cast" source_file="/usr/local/lib/python3.10/site-packages/torch/_ops.py" source_line=756}, backend_config={"operation_queue_id":"0","wait_on_operation_queues":[],"fusion_backend_config":{"kind":"__triton","block_level_fusion_config":{"output_tiles":[{"sizes":["1","1024"]}],"num_warps":"2"}},"force_earliest_schedule":false}
  %custom-call.41.0 = (bf16[64,4096]{1,0}, s8[4194304]{0}) custom-call(bf16[64,1024]{1,0} %fusion.124, bf16[4096,1024]{1,0} %p.44), custom_call_target="__cublas$gemm", metadata={op_type="aten__mm" op_name="aten__mm" source_file="/usr/local/lib/python3.10/site-packages/torch/_ops.py" source_line=756}, backend_config={"operation_queue_id":"0","wait_on_operation_queues":[],"gemm_backend_config":{"alpha_real":1,"alpha_imag":0,"beta":0,"dot_dimension_numbers":{"lhs_contracting_dimensions":["1"],"rhs_contracting_dimensions":["1"],"lhs_batch_dimensions":[],"rhs_batch_dimensions":[]},"precision_config":{"operand_precision":["DEFAULT","DEFAULT"],"algorithm":"ALG_UNSET"},"epilogue":"DEFAULT","damax_output":false,"lhs_stride":"65536","rhs_stride":"4194304","grad_x":false,"grad_y":false},"force_earliest_schedule":false}
  %get-tuple-element.20.0 = bf16[64,4096]{1,0} get-tuple-element((bf16[64,4096]{1,0}, s8[4194304]{0}) %custom-call.41.0), index=0, metadata={op_type="aten__mm" op_name="aten__mm" source_file="/usr/local/lib/python3.10/site-packages/torch/_ops.py" source_line=756}
  %wrapped_slice = bf16[64,1024]{1,0} fusion(bf16[64,4096]{1,0} %get-tuple-element.20.0), kind=kLoop, calls=%wrapped_slice_computation, metadata={op_type="aten__split" op_name="aten__split" source_file="/usr/local/lib/python3.10/site-packages/torch/_ops.py" source_line=756}
  %triton_softmax.12.0 = f32[64,8,128]{2,1,0} fusion(f32[] %p.12, bf16[64,4096]{1,0} %get-tuple-element.20.0), kind=kCustom, calls=%triton_softmax_computation.12, metadata={op_type="aten__mul" op_name="aten__mul.1199/aten__mul" source_file="/usr/local/lib/python3.10/site-packages/torch/_ops.py" source_line=756}, backend_config={"operation_queue_id":"0","wait_on_operation_queues":[],"fusion_backend_config":{"kind":"__triton","block_level_fusion_config":{"output_tiles":[{"sizes":["1","4","128"]}],"num_warps":"2"}},"force_earliest_schedule":false}
  %input_concatenate_fusion = bf16[64,8,128]{2,1,0} fusion(f32[64,8,128]{2,1,0} %triton_softmax.12.0, bf16[128]{0} %p.45, bf16[40960,128]{1,0} %p.46, s32[64]{0} %p.47), kind=kInput, calls=%fused_concatenate, metadata={op_type="aten__cat" op_name="aten__cat" source_file="/usr/local/lib/python3.10/site-packages/torch/_ops.py" source_line=756}
  %bitcast.2253.0 = bf16[64,8,128]{2,1,0} bitcast(bf16[64,1024]{1,0} %wrapped_slice)
  %loop_slice_fusion = bf16[69353472]{0} fusion(bf16[2,4233,16,8,128]{4,3,2,1,0} %p.48), kind=kLoop, calls=%fused_slice, metadata={op_type="aten__as_strided" op_name="aten__as_strided" source_file="/usr/local/lib/python3.10/site-packages/torch/_higher_order_ops/auto_functionalize.py" source_line=54}
  %bitcast.2265.0 = bf16[4233,16,8,128]{3,2,1,0} bitcast(bf16[69353472]{0} %loop_slice_fusion)
  %wrapped_slice.1 = bf16[1,4233,16,8,128]{4,3,2,1,0} fusion(bf16[2,4233,16,8,128]{4,3,2,1,0} %p.48), kind=kLoop, calls=%wrapped_slice_computation.1, metadata={op_type="aten__as_strided" op_name="aten__as_strided" source_file="/usr/local/lib/python3.10/site-packages/torch/_higher_order_ops/auto_functionalize.py" source_line=54}
  ROOT %tuple = (bf16[64,8,128]{2,1,0}, bf16[64,8,128]{2,1,0}, bf16[4233,16,8,128]{3,2,1,0}, bf16[1,4233,16,8,128]{4,3,2,1,0}) tuple(bf16[64,8,128]{2,1,0} %input_concatenate_fusion, bf16[64,8,128]{2,1,0} %bitcast.2253.0, bf16[4233,16,8,128]{3,2,1,0} %bitcast.2265.0, bf16[1,4233,16,8,128]{4,3,2,1,0} %wrapped_slice.1)
}

ENTRY %SyncTensorsGraph.885 (p0.1.0: bf16[128], p1.4.0: f32[], p2.6.0: bf16[4096,1024], p3.8.0: bf16[1024], p4.32.0: s32[64], p5.34.0: bf16[151936,1024], p6.38.0: bf16[1024,2048], p7.54.0: bf16[1024,3072], p8.56.0: bf16[6144,1024], p9.58.0: bf16[1024], p10.110.0: bf16[1024,2048], p11.126.0: bf16[1024,3072], p12.128.0: bf16[6144,1024], p13.130.0: bf16[1024], p14.182.0: bf16[1024,2048], p15.198.0: bf16[1024,3072], p16.200.0: bf16[6144,1024], p17.202.0: bf16[1024], p18.254.0: bf16[1024,2048], p19.270.0: bf16[1024,3072], p20.272.0: bf16[6144,1024], p21.274.0: bf16[1024], p22.326.0: bf16[1024,2048], p23.342.0: bf16[1024,3072], p24.344.0: bf16[6144,1024], p25.346.0: bf16[1024], p26.398.0: bf16[1024,2048], p27.414.0: bf16[1024,3072], p28.416.0: bf16[6144,1024], p29.418.0: bf16[1024], p30.470.0: bf16[1024,2048], p31.486.0: bf16[1024,3072], p32.488.0: bf16[6144,1024], p33.490.0: bf16[1024], p34.542.0: bf16[1024,2048], p35.558.0: bf16[1024,3072], p36.560.0: bf16[6144,1024], p37.562.0: bf16[1024], p38.614.0: bf16[1024,2048], p39.630.0: bf16[1024,3072], p40.632.0: bf16[6144,1024], p41.634.0: bf16[1024], p42.686.0: bf16[1024,2048], p43.702.0: bf16[1024,3072], p44.704.0: bf16[6144,1024], p45.706.0: bf16[1024], p46.830.0: s32[64], p47.831.0: bf16[40960,128], p48.875.0: bf16[2,4233,16,8,128]) -> (bf16[64,8,128], bf16[64,8,128], bf16[4233,16,8,128], bf16[4233,16,8,128]) {
  %p1.4.0 = f32[] parameter(1), metadata={op_type="xla__device_data" op_name="xla__device_data" source_file="/usr/local/lib/python3.10/site-packages/torch/_ops.py" source_line=756}
  %p48.875.0 = bf16[2,4233,16,8,128]{4,3,2,1,0} parameter(48), metadata={op_type="xla__device_data" op_name="xla__device_data" source_file="/usr/local/lib/python3.10/site-packages/torch_xla/_dynamo/dynamo_bridge.py" source_line=355}
  %p47.831.0 = bf16[40960,128]{1,0} parameter(47), metadata={op_type="xla__device_data" op_name="xla__device_data" source_file="/usr/local/lib/python3.10/site-packages/torch_xla/_dynamo/dynamo_bridge.py" source_line=355}
  %p46.830.0 = s32[64]{0} parameter(46), metadata={op_type="xla__device_data" op_name="xla__device_data" source_file="/usr/local/lib/python3.10/site-packages/torch_xla/_dynamo/dynamo_bridge.py" source_line=355}
  %p45.706.0 = bf16[1024]{0} parameter(45), metadata={op_type="xla__device_data" op_name="xla__device_data" source_file="/usr/local/lib/python3.10/site-packages/torch_xla/_dynamo/dynamo_bridge.py" source_line=355}
  %p44.704.0 = bf16[6144,1024]{1,0} parameter(44), metadata={op_type="xla__device_data" op_name="xla__device_data" source_file="/usr/local/lib/python3.10/site-packages/torch_xla/_dynamo/dynamo_bridge.py" source_line=355}
  %p43.702.0 = bf16[1024,3072]{1,0} parameter(43), metadata={op_type="xla__device_data" op_name="xla__device_data" source_file="/usr/local/lib/python3.10/site-packages/torch_xla/_dynamo/dynamo_bridge.py" source_line=355}
  %p42.686.0 = bf16[1024,2048]{1,0} parameter(42), metadata={op_type="xla__device_data" op_name="xla__device_data" source_file="/usr/local/lib/python3.10/site-packages/torch_xla/_dynamo/dynamo_bridge.py" source_line=355}
  %p41.634.0 = bf16[1024]{0} parameter(41), metadata={op_type="xla__device_data" op_name="xla__device_data" source_file="/usr/local/lib/python3.10/site-packages/torch_xla/_dynamo/dynamo_bridge.py" source_line=355}
  %p40.632.0 = bf16[6144,1024]{1,0} parameter(40), metadata={op_type="xla__device_data" op_name="xla__device_data" source_file="/usr/local/lib/python3.10/site-packages/torch_xla/_dynamo/dynamo_bridge.py" source_line=355}
  %p39.630.0 = bf16[1024,3072]{1,0} parameter(39), metadata={op_type="xla__device_data" op_name="xla__device_data" source_file="/usr/local/lib/python3.10/site-packages/torch_xla/_dynamo/dynamo_bridge.py" source_line=355}
  %p38.614.0 = bf16[1024,2048]{1,0} parameter(38), metadata={op_type="xla__device_data" op_name="xla__device_data" source_file="/usr/local/lib/python3.10/site-packages/torch_xla/_dynamo/dynamo_bridge.py" source_line=355}
  %p37.562.0 = bf16[1024]{0} parameter(37), metadata={op_type="xla__device_data" op_name="xla__device_data" source_file="/usr/local/lib/python3.10/site-packages/torch_xla/_dynamo/dynamo_bridge.py" source_line=355}
  %p36.560.0 = bf16[6144,1024]{1,0} parameter(36), metadata={op_type="xla__device_data" op_name="xla__device_data" source_file="/usr/local/lib/python3.10/site-packages/torch_xla/_dynamo/dynamo_bridge.py" source_line=355}
  %p35.558.0 = bf16[1024,3072]{1,0} parameter(35), metadata={op_type="xla__device_data" op_name="xla__device_data" source_file="/usr/local/lib/python3.10/site-packages/torch_xla/_dynamo/dynamo_bridge.py" source_line=355}
  %p34.542.0 = bf16[1024,2048]{1,0} parameter(34), metadata={op_type="xla__device_data" op_name="xla__device_data" source_file="/usr/local/lib/python3.10/site-packages/torch_xla/_dynamo/dynamo_bridge.py" source_line=355}
  %p33.490.0 = bf16[1024]{0} parameter(33), metadata={op_type="xla__device_data" op_name="xla__device_data" source_file="/usr/local/lib/python3.10/site-packages/torch_xla/_dynamo/dynamo_bridge.py" source_line=355}
  %p32.488.0 = bf16[6144,1024]{1,0} parameter(32), metadata={op_type="xla__device_data" op_name="xla__device_data" source_file="/usr/local/lib/python3.10/site-packages/torch_xla/_dynamo/dynamo_bridge.py" source_line=355}
  %p31.486.0 = bf16[1024,3072]{1,0} parameter(31), metadata={op_type="xla__device_data" op_name="xla__device_data" source_file="/usr/local/lib/python3.10/site-packages/torch_xla/_dynamo/dynamo_bridge.py" source_line=355}
  %p30.470.0 = bf16[1024,2048]{1,0} parameter(30), metadata={op_type="xla__device_data" op_name="xla__device_data" source_file="/usr/local/lib/python3.10/site-packages/torch_xla/_dynamo/dynamo_bridge.py" source_line=355}
  %p29.418.0 = bf16[1024]{0} parameter(29), metadata={op_type="xla__device_data" op_name="xla__device_data" source_file="/usr/local/lib/python3.10/site-packages/torch_xla/_dynamo/dynamo_bridge.py" source_line=355}
  %p28.416.0 = bf16[6144,1024]{1,0} parameter(28), metadata={op_type="xla__device_data" op_name="xla__device_data" source_file="/usr/local/lib/python3.10/site-packages/torch_xla/_dynamo/dynamo_bridge.py" source_line=355}
  %p27.414.0 = bf16[1024,3072]{1,0} parameter(27), metadata={op_type="xla__device_data" op_name="xla__device_data" source_file="/usr/local/lib/python3.10/site-packages/torch_xla/_dynamo/dynamo_bridge.py" source_line=355}
  %p26.398.0 = bf16[1024,2048]{1,0} parameter(26), metadata={op_type="xla__device_data" op_name="xla__device_data" source_file="/usr/local/lib/python3.10/site-packages/torch_xla/_dynamo/dynamo_bridge.py" source_line=355}
  %p25.346.0 = bf16[1024]{0} parameter(25), metadata={op_type="xla__device_data" op_name="xla__device_data" source_file="/usr/local/lib/python3.10/site-packages/torch_xla/_dynamo/dynamo_bridge.py" source_line=355}
  %p24.344.0 = bf16[6144,1024]{1,0} parameter(24), metadata={op_type="xla__device_data" op_name="xla__device_data" source_file="/usr/local/lib/python3.10/site-packages/torch_xla/_dynamo/dynamo_bridge.py" source_line=355}
  %p23.342.0 = bf16[1024,3072]{1,0} parameter(23), metadata={op_type="xla__device_data" op_name="xla__device_data" source_file="/usr/local/lib/python3.10/site-packages/torch_xla/_dynamo/dynamo_bridge.py" source_line=355}
  %p22.326.0 = bf16[1024,2048]{1,0} parameter(22), metadata={op_type="xla__device_data" op_name="xla__device_data" source_file="/usr/local/lib/python3.10/site-packages/torch_xla/_dynamo/dynamo_bridge.py" source_line=355}
  %p21.274.0 = bf16[1024]{0} parameter(21), metadata={op_type="xla__device_data" op_name="xla__device_data" source_file="/usr/local/lib/python3.10/site-packages/torch_xla/_dynamo/dynamo_bridge.py" source_line=355}
  %p20.272.0 = bf16[6144,1024]{1,0} parameter(20), metadata={op_type="xla__device_data" op_name="xla__device_data" source_file="/usr/local/lib/python3.10/site-packages/torch_xla/_dynamo/dynamo_bridge.py" source_line=355}
  %p19.270.0 = bf16[1024,3072]{1,0} parameter(19), metadata={op_type="xla__device_data" op_name="xla__device_data" source_file="/usr/local/lib/python3.10/site-packages/torch_xla/_dynamo/dynamo_bridge.py" source_line=355}
  %p18.254.0 = bf16[1024,2048]{1,0} parameter(18), metadata={op_type="xla__device_data" op_name="xla__device_data" source_file="/usr/local/lib/python3.10/site-packages/torch_xla/_dynamo/dynamo_bridge.py" source_line=355}
  %p17.202.0 = bf16[1024]{0} parameter(17), metadata={op_type="xla__device_data" op_name="xla__device_data" source_file="/usr/local/lib/python3.10/site-packages/torch_xla/_dynamo/dynamo_bridge.py" source_line=355}
  %p16.200.0 = bf16[6144,1024]{1,0} parameter(16), metadata={op_type="xla__device_data" op_name="xla__device_data" source_file="/usr/local/lib/python3.10/site-packages/torch_xla/_dynamo/dynamo_bridge.py" source_line=355}
  %p15.198.0 = bf16[1024,3072]{1,0} parameter(15), metadata={op_type="xla__device_data" op_name="xla__device_data" source_file="/usr/local/lib/python3.10/site-packages/torch_xla/_dynamo/dynamo_bridge.py" source_line=355}
  %p14.182.0 = bf16[1024,2048]{1,0} parameter(14), metadata={op_type="xla__device_data" op_name="xla__device_data" source_file="/usr/local/lib/python3.10/site-packages/torch_xla/_dynamo/dynamo_bridge.py" source_line=355}
  %p13.130.0 = bf16[1024]{0} parameter(13), metadata={op_type="xla__device_data" op_name="xla__device_data" source_file="/usr/local/lib/python3.10/site-packages/torch_xla/_dynamo/dynamo_bridge.py" source_line=355}
  %p12.128.0 = bf16[6144,1024]{1,0} parameter(12), metadata={op_type="xla__device_data" op_name="xla__device_data" source_file="/usr/local/lib/python3.10/site-packages/torch_xla/_dynamo/dynamo_bridge.py" source_line=355}
  %p11.126.0 = bf16[1024,3072]{1,0} parameter(11), metadata={op_type="xla__device_data" op_name="xla__device_data" source_file="/usr/local/lib/python3.10/site-packages/torch_xla/_dynamo/dynamo_bridge.py" source_line=355}
  %p10.110.0 = bf16[1024,2048]{1,0} parameter(10), metadata={op_type="xla__device_data" op_name="xla__device_data" source_file="/usr/local/lib/python3.10/site-packages/torch_xla/_dynamo/dynamo_bridge.py" source_line=355}
  %p9.58.0 = bf16[1024]{0} parameter(9), metadata={op_type="xla__device_data" op_name="xla__device_data" source_file="/usr/local/lib/python3.10/site-packages/torch_xla/_dynamo/dynamo_bridge.py" source_line=355}
  %p8.56.0 = bf16[6144,1024]{1,0} parameter(8), metadata={op_type="xla__device_data" op_name="xla__device_data" source_file="/usr/local/lib/python3.10/site-packages/torch_xla/_dynamo/dynamo_bridge.py" source_line=355}
  %p7.54.0 = bf16[1024,3072]{1,0} parameter(7), metadata={op_type="xla__device_data" op_name="xla__device_data" source_file="/usr/local/lib/python3.10/site-packages/torch_xla/_dynamo/dynamo_bridge.py" source_line=355}
  %p6.38.0 = bf16[1024,2048]{1,0} parameter(6), metadata={op_type="xla__device_data" op_name="xla__device_data" source_file="/usr/local/lib/python3.10/site-packages/torch_xla/_dynamo/dynamo_bridge.py" source_line=355}
  %p5.34.0 = bf16[151936,1024]{1,0} parameter(5), metadata={op_type="xla__device_data" op_name="xla__device_data" source_file="/usr/local/lib/python3.10/site-packages/torch_xla/_dynamo/dynamo_bridge.py" source_line=355}
  %p4.32.0 = s32[64]{0} parameter(4), metadata={op_type="xla__device_data" op_name="xla__device_data" source_file="/usr/local/lib/python3.10/site-packages/torch_xla/_dynamo/dynamo_bridge.py" source_line=355}
  %p3.8.0 = bf16[1024]{0} parameter(3), metadata={op_type="xla__device_data" op_name="xla__device_data" source_file="/usr/local/lib/python3.10/site-packages/torch_xla/_dynamo/dynamo_bridge.py" source_line=355}
  %p2.6.0 = bf16[4096,1024]{1,0} parameter(2), metadata={op_type="xla__device_data" op_name="xla__device_data" source_file="/usr/local/lib/python3.10/site-packages/torch_xla/_dynamo/dynamo_bridge.py" source_line=355}
  %p0.1.0 = bf16[128]{0} parameter(0), metadata={op_type="xla__device_data" op_name="xla__device_data" source_file="/usr/local/lib/python3.10/site-packages/torch_xla/_dynamo/dynamo_bridge.py" source_line=355}
  %call = (bf16[64,8,128]{2,1,0}, bf16[64,8,128]{2,1,0}, bf16[4233,16,8,128]{3,2,1,0}, bf16[1,4233,16,8,128]{4,3,2,1,0}) call(bf16[151936,1024]{1,0} %p5.34.0, s32[64]{0} %p4.32.0, bf16[1024,2048]{1,0} %p42.686.0, bf16[1024,2048]{1,0} %p38.614.0, bf16[1024,2048]{1,0} %p34.542.0, /*index=5*/bf16[1024,2048]{1,0} %p30.470.0, bf16[1024,2048]{1,0} %p26.398.0, bf16[1024,2048]{1,0} %p22.326.0, bf16[1024,2048]{1,0} %p18.254.0, bf16[1024,2048]{1,0} %p14.182.0, /*index=10*/bf16[1024,2048]{1,0} %p10.110.0, bf16[1024,2048]{1,0} %p6.38.0, f32[] %p1.4.0, bf16[1024]{0} %p9.58.0, bf16[6144,1024]{1,0} %p8.56.0, /*index=15*/bf16[1024,3072]{1,0} %p7.54.0, bf16[1024]{0} %p13.130.0, bf16[6144,1024]{1,0} %p12.128.0, bf16[1024,3072]{1,0} %p11.126.0, bf16[1024]{0} %p17.202.0, /*index=20*/bf16[6144,1024]{1,0} %p16.200.0, bf16[1024,3072]{1,0} %p15.198.0, bf16[1024]{0} %p21.274.0, bf16[6144,1024]{1,0} %p20.272.0, bf16[1024,3072]{1,0} %p19.270.0, /*index=25*/bf16[1024]{0} %p25.346.0, bf16[6144,1024]{1,0} %p24.344.0, bf16[1024,3072]{1,0} %p23.342.0, bf16[1024]{0} %p29.418.0, bf16[6144,1024]{1,0} %p28.416.0, /*index=30*/bf16[1024,3072]{1,0} %p27.414.0, bf16[1024]{0} %p33.490.0, bf16[6144,1024]{1,0} %p32.488.0, bf16[1024,3072]{1,0} %p31.486.0, bf16[1024]{0} %p37.562.0, /*index=35*/bf16[6144,1024]{1,0} %p36.560.0, bf16[1024,3072]{1,0} %p35.558.0, bf16[1024]{0} %p41.634.0, bf16[6144,1024]{1,0} %p40.632.0, bf16[1024,3072]{1,0} %p39.630.0, /*index=40*/bf16[1024]{0} %p45.706.0, bf16[6144,1024]{1,0} %p44.704.0, bf16[1024,3072]{1,0} %p43.702.0, bf16[1024]{0} %p3.8.0, bf16[4096,1024]{1,0} %p2.6.0, /*index=45*/bf16[128]{0} %p0.1.0, bf16[40960,128]{1,0} %p47.831.0, s32[64]{0} %p46.830.0, bf16[2,4233,16,8,128]{4,3,2,1,0} %p48.875.0), to_apply=%command_buffer
  %get-tuple-element.23 = bf16[64,8,128]{2,1,0} get-tuple-element((bf16[64,8,128]{2,1,0}, bf16[64,8,128]{2,1,0}, bf16[4233,16,8,128]{3,2,1,0}, bf16[1,4233,16,8,128]{4,3,2,1,0}) %call), index=0
  %get-tuple-element.24 = bf16[64,8,128]{2,1,0} get-tuple-element((bf16[64,8,128]{2,1,0}, bf16[64,8,128]{2,1,0}, bf16[4233,16,8,128]{3,2,1,0}, bf16[1,4233,16,8,128]{4,3,2,1,0}) %call), index=1
  %get-tuple-element.25 = bf16[4233,16,8,128]{3,2,1,0} get-tuple-element((bf16[64,8,128]{2,1,0}, bf16[64,8,128]{2,1,0}, bf16[4233,16,8,128]{3,2,1,0}, bf16[1,4233,16,8,128]{4,3,2,1,0}) %call), index=2
  %get-tuple-element.26 = bf16[1,4233,16,8,128]{4,3,2,1,0} get-tuple-element((bf16[64,8,128]{2,1,0}, bf16[64,8,128]{2,1,0}, bf16[4233,16,8,128]{3,2,1,0}, bf16[1,4233,16,8,128]{4,3,2,1,0}) %call), index=3
  %bitcast.2258.0 = bf16[4233,16,8,128]{3,2,1,0} bitcast(bf16[1,4233,16,8,128]{4,3,2,1,0} %get-tuple-element.26)
  ROOT %tuple.884.0 = (bf16[64,8,128]{2,1,0}, bf16[64,8,128]{2,1,0}, bf16[4233,16,8,128]{3,2,1,0}, bf16[4233,16,8,128]{3,2,1,0}) tuple(bf16[64,8,128]{2,1,0} %get-tuple-element.23, bf16[64,8,128]{2,1,0} %get-tuple-element.24, bf16[4233,16,8,128]{3,2,1,0} %bitcast.2258.0, bf16[4233,16,8,128]{3,2,1,0} %get-tuple-element.25)
}

