HloModule SyncTensorsGraph.1995, entry_computation_layout={(bf16[128]{0}, f32[], bf16[4096,1024]{1,0}, bf16[1024]{0}, s32[16]{0}, /*index=5*/bf16[151936,1024]{1,0}, bf16[1024,2048]{1,0}, bf16[1024,3072]{1,0}, bf16[6144,1024]{1,0}, bf16[1024]{0}, /*index=10*/bf16[1024,2048]{1,0}, bf16[1024,3072]{1,0}, bf16[6144,1024]{1,0}, bf16[1024]{0}, bf16[1024,2048]{1,0}, /*index=15*/bf16[1024,3072]{1,0}, bf16[6144,1024]{1,0}, bf16[1024]{0}, bf16[1024,2048]{1,0}, bf16[1024,3072]{1,0}, /*index=20*/bf16[6144,1024]{1,0}, bf16[1024]{0}, bf16[1024,2048]{1,0}, bf16[1024,3072]{1,0}, bf16[6144,1024]{1,0}, /*index=25*/bf16[1024]{0}, bf16[1024,2048]{1,0}, bf16[1024,3072]{1,0}, bf16[6144,1024]{1,0}, bf16[1024]{0}, /*index=30*/bf16[1024,2048]{1,0}, bf16[1024,3072]{1,0}, bf16[6144,1024]{1,0}, bf16[1024]{0}, bf16[1024,2048]{1,0}, /*index=35*/bf16[1024,3072]{1,0}, bf16[6144,1024]{1,0}, bf16[1024]{0}, bf16[1024,2048]{1,0}, bf16[1024,3072]{1,0}, /*index=40*/bf16[6144,1024]{1,0}, bf16[1024]{0}, bf16[1024,2048]{1,0}, bf16[1024,3072]{1,0}, bf16[6144,1024]{1,0}, /*index=45*/bf16[1024]{0}, bf16[1024,2048]{1,0}, bf16[1024,3072]{1,0}, bf16[6144,1024]{1,0}, bf16[1024]{0}, /*index=50*/bf16[1024,2048]{1,0}, bf16[1024,3072]{1,0}, bf16[6144,1024]{1,0}, bf16[1024]{0}, bf16[1024,2048]{1,0}, /*index=55*/bf16[1024,3072]{1,0}, bf16[6144,1024]{1,0}, bf16[1024]{0}, bf16[1024,2048]{1,0}, bf16[1024,3072]{1,0}, /*index=60*/bf16[6144,1024]{1,0}, bf16[1024]{0}, bf16[1024,2048]{1,0}, bf16[1024,3072]{1,0}, bf16[6144,1024]{1,0}, /*index=65*/bf16[1024]{0}, bf16[1024,2048]{1,0}, bf16[1024,3072]{1,0}, bf16[6144,1024]{1,0}, bf16[1024]{0}, /*index=70*/bf16[1024,2048]{1,0}, bf16[1024,3072]{1,0}, bf16[6144,1024]{1,0}, bf16[1024]{0}, bf16[1024,2048]{1,0}, /*index=75*/bf16[1024,3072]{1,0}, bf16[6144,1024]{1,0}, bf16[1024]{0}, bf16[1024,2048]{1,0}, bf16[1024,3072]{1,0}, /*index=80*/bf16[6144,1024]{1,0}, bf16[1024]{0}, bf16[1024,2048]{1,0}, bf16[1024,3072]{1,0}, bf16[6144,1024]{1,0}, /*index=85*/bf16[1024]{0}, bf16[1024,2048]{1,0}, bf16[1024,3072]{1,0}, bf16[6144,1024]{1,0}, bf16[1024]{0}, /*index=90*/bf16[1024,2048]{1,0}, bf16[1024,3072]{1,0}, bf16[6144,1024]{1,0}, bf16[1024]{0}, bf16[1024,2048]{1,0}, /*index=95*/bf16[1024,3072]{1,0}, bf16[6144,1024]{1,0}, bf16[1024]{0}, bf16[1024,2048]{1,0}, bf16[1024,3072]{1,0}, /*index=100*/bf16[6144,1024]{1,0}, bf16[1024]{0}, bf16[1024,2048]{1,0}, bf16[1024,3072]{1,0}, bf16[6144,1024]{1,0}, /*index=105*/bf16[1024]{0}, s32[16]{0}, bf16[40960,128]{1,0}, bf16[2,4233,16,8,128]{4,3,2,1,0})->(bf16[16,8,128]{2,1,0}, bf16[16,8,128]{2,1,0}, bf16[4233,16,8,128]{3,2,1,0}, bf16[4233,16,8,128]{3,2,1,0})}

%AddComputation.96 (x.97: f32[], y.98: f32[]) -> f32[] {
  %x.97 = f32[] parameter(0)
  %y.98 = f32[] parameter(1)
  ROOT %add.99 = f32[] add(f32[] %x.97, f32[] %y.98)
}

%AddComputation.168 (x.169: f32[], y.170: f32[]) -> f32[] {
  %x.169 = f32[] parameter(0)
  %y.170 = f32[] parameter(1)
  ROOT %add.171 = f32[] add(f32[] %x.169, f32[] %y.170)
}

%AddComputation.240 (x.241: f32[], y.242: f32[]) -> f32[] {
  %x.241 = f32[] parameter(0)
  %y.242 = f32[] parameter(1)
  ROOT %add.243 = f32[] add(f32[] %x.241, f32[] %y.242)
}

%AddComputation.312 (x.313: f32[], y.314: f32[]) -> f32[] {
  %x.313 = f32[] parameter(0)
  %y.314 = f32[] parameter(1)
  ROOT %add.315 = f32[] add(f32[] %x.313, f32[] %y.314)
}

%AddComputation.384 (x.385: f32[], y.386: f32[]) -> f32[] {
  %x.385 = f32[] parameter(0)
  %y.386 = f32[] parameter(1)
  ROOT %add.387 = f32[] add(f32[] %x.385, f32[] %y.386)
}

%AddComputation.456 (x.457: f32[], y.458: f32[]) -> f32[] {
  %x.457 = f32[] parameter(0)
  %y.458 = f32[] parameter(1)
  ROOT %add.459 = f32[] add(f32[] %x.457, f32[] %y.458)
}

%AddComputation.528 (x.529: f32[], y.530: f32[]) -> f32[] {
  %x.529 = f32[] parameter(0)
  %y.530 = f32[] parameter(1)
  ROOT %add.531 = f32[] add(f32[] %x.529, f32[] %y.530)
}

%AddComputation.600 (x.601: f32[], y.602: f32[]) -> f32[] {
  %x.601 = f32[] parameter(0)
  %y.602 = f32[] parameter(1)
  ROOT %add.603 = f32[] add(f32[] %x.601, f32[] %y.602)
}

%AddComputation.672 (x.673: f32[], y.674: f32[]) -> f32[] {
  %x.673 = f32[] parameter(0)
  %y.674 = f32[] parameter(1)
  ROOT %add.675 = f32[] add(f32[] %x.673, f32[] %y.674)
}

%AddComputation.744 (x.745: f32[], y.746: f32[]) -> f32[] {
  %x.745 = f32[] parameter(0)
  %y.746 = f32[] parameter(1)
  ROOT %add.747 = f32[] add(f32[] %x.745, f32[] %y.746)
}

%AddComputation.816 (x.817: f32[], y.818: f32[]) -> f32[] {
  %x.817 = f32[] parameter(0)
  %y.818 = f32[] parameter(1)
  ROOT %add.819 = f32[] add(f32[] %x.817, f32[] %y.818)
}

%AddComputation.888 (x.889: f32[], y.890: f32[]) -> f32[] {
  %x.889 = f32[] parameter(0)
  %y.890 = f32[] parameter(1)
  ROOT %add.891 = f32[] add(f32[] %x.889, f32[] %y.890)
}

%AddComputation.960 (x.961: f32[], y.962: f32[]) -> f32[] {
  %x.961 = f32[] parameter(0)
  %y.962 = f32[] parameter(1)
  ROOT %add.963 = f32[] add(f32[] %x.961, f32[] %y.962)
}

%AddComputation.1032 (x.1033: f32[], y.1034: f32[]) -> f32[] {
  %x.1033 = f32[] parameter(0)
  %y.1034 = f32[] parameter(1)
  ROOT %add.1035 = f32[] add(f32[] %x.1033, f32[] %y.1034)
}

%AddComputation.1104 (x.1105: f32[], y.1106: f32[]) -> f32[] {
  %x.1105 = f32[] parameter(0)
  %y.1106 = f32[] parameter(1)
  ROOT %add.1107 = f32[] add(f32[] %x.1105, f32[] %y.1106)
}

%AddComputation.1176 (x.1177: f32[], y.1178: f32[]) -> f32[] {
  %x.1177 = f32[] parameter(0)
  %y.1178 = f32[] parameter(1)
  ROOT %add.1179 = f32[] add(f32[] %x.1177, f32[] %y.1178)
}

%AddComputation.1248 (x.1249: f32[], y.1250: f32[]) -> f32[] {
  %x.1249 = f32[] parameter(0)
  %y.1250 = f32[] parameter(1)
  ROOT %add.1251 = f32[] add(f32[] %x.1249, f32[] %y.1250)
}

%AddComputation.1320 (x.1321: f32[], y.1322: f32[]) -> f32[] {
  %x.1321 = f32[] parameter(0)
  %y.1322 = f32[] parameter(1)
  ROOT %add.1323 = f32[] add(f32[] %x.1321, f32[] %y.1322)
}

%AddComputation.1392 (x.1393: f32[], y.1394: f32[]) -> f32[] {
  %x.1393 = f32[] parameter(0)
  %y.1394 = f32[] parameter(1)
  ROOT %add.1395 = f32[] add(f32[] %x.1393, f32[] %y.1394)
}

%AddComputation.1464 (x.1465: f32[], y.1466: f32[]) -> f32[] {
  %x.1465 = f32[] parameter(0)
  %y.1466 = f32[] parameter(1)
  ROOT %add.1467 = f32[] add(f32[] %x.1465, f32[] %y.1466)
}

%AddComputation.1536 (x.1537: f32[], y.1538: f32[]) -> f32[] {
  %x.1537 = f32[] parameter(0)
  %y.1538 = f32[] parameter(1)
  ROOT %add.1539 = f32[] add(f32[] %x.1537, f32[] %y.1538)
}

%AddComputation.1608 (x.1609: f32[], y.1610: f32[]) -> f32[] {
  %x.1609 = f32[] parameter(0)
  %y.1610 = f32[] parameter(1)
  ROOT %add.1611 = f32[] add(f32[] %x.1609, f32[] %y.1610)
}

%AddComputation.1680 (x.1681: f32[], y.1682: f32[]) -> f32[] {
  %x.1681 = f32[] parameter(0)
  %y.1682 = f32[] parameter(1)
  ROOT %add.1683 = f32[] add(f32[] %x.1681, f32[] %y.1682)
}

%AddComputation.1752 (x.1753: f32[], y.1754: f32[]) -> f32[] {
  %x.1753 = f32[] parameter(0)
  %y.1754 = f32[] parameter(1)
  ROOT %add.1755 = f32[] add(f32[] %x.1753, f32[] %y.1754)
}

%AddComputation.1824 (x.1825: f32[], y.1826: f32[]) -> f32[] {
  %x.1825 = f32[] parameter(0)
  %y.1826 = f32[] parameter(1)
  ROOT %add.1827 = f32[] add(f32[] %x.1825, f32[] %y.1826)
}

%AddComputation.1870 (x.1871: f32[], y.1872: f32[]) -> f32[] {
  %x.1871 = f32[] parameter(0)
  %y.1872 = f32[] parameter(1)
  ROOT %add.1873 = f32[] add(f32[] %x.1871, f32[] %y.1872)
}

%AddComputation.1908 (x.1909: f32[], y.1910: f32[]) -> f32[] {
  %x.1909 = f32[] parameter(0)
  %y.1910 = f32[] parameter(1)
  ROOT %add.1911 = f32[] add(f32[] %x.1909, f32[] %y.1910)
}

ENTRY %SyncTensorsGraph.1995 (p0.1: bf16[128], p1.4: f32[], p2.6: bf16[4096,1024], p3.8: bf16[1024], p4.62: s32[16], p5.64: bf16[151936,1024], p6.68: bf16[1024,2048], p7.84: bf16[1024,3072], p8.86: bf16[6144,1024], p9.88: bf16[1024], p10.140: bf16[1024,2048], p11.156: bf16[1024,3072], p12.158: bf16[6144,1024], p13.160: bf16[1024], p14.212: bf16[1024,2048], p15.228: bf16[1024,3072], p16.230: bf16[6144,1024], p17.232: bf16[1024], p18.284: bf16[1024,2048], p19.300: bf16[1024,3072], p20.302: bf16[6144,1024], p21.304: bf16[1024], p22.356: bf16[1024,2048], p23.372: bf16[1024,3072], p24.374: bf16[6144,1024], p25.376: bf16[1024], p26.428: bf16[1024,2048], p27.444: bf16[1024,3072], p28.446: bf16[6144,1024], p29.448: bf16[1024], p30.500: bf16[1024,2048], p31.516: bf16[1024,3072], p32.518: bf16[6144,1024], p33.520: bf16[1024], p34.572: bf16[1024,2048], p35.588: bf16[1024,3072], p36.590: bf16[6144,1024], p37.592: bf16[1024], p38.644: bf16[1024,2048], p39.660: bf16[1024,3072], p40.662: bf16[6144,1024], p41.664: bf16[1024], p42.716: bf16[1024,2048], p43.732: bf16[1024,3072], p44.734: bf16[6144,1024], p45.736: bf16[1024], p46.788: bf16[1024,2048], p47.804: bf16[1024,3072], p48.806: bf16[6144,1024], p49.808: bf16[1024], p50.860: bf16[1024,2048], p51.876: bf16[1024,3072], p52.878: bf16[6144,1024], p53.880: bf16[1024], p54.932: bf16[1024,2048], p55.948: bf16[1024,3072], p56.950: bf16[6144,1024], p57.952: bf16[1024], p58.1004: bf16[1024,2048], p59.1020: bf16[1024,3072], p60.1022: bf16[6144,1024], p61.1024: bf16[1024], p62.1076: bf16[1024,2048], p63.1092: bf16[1024,3072], p64.1094: bf16[6144,1024], p65.1096: bf16[1024], p66.1148: bf16[1024,2048], p67.1164: bf16[1024,3072], p68.1166: bf16[6144,1024], p69.1168: bf16[1024], p70.1220: bf16[1024,2048], p71.1236: bf16[1024,3072], p72.1238: bf16[6144,1024], p73.1240: bf16[1024], p74.1292: bf16[1024,2048], p75.1308: bf16[1024,3072], p76.1310: bf16[6144,1024], p77.1312: bf16[1024], p78.1364: bf16[1024,2048], p79.1380: bf16[1024,3072], p80.1382: bf16[6144,1024], p81.1384: bf16[1024], p82.1436: bf16[1024,2048], p83.1452: bf16[1024,3072], p84.1454: bf16[6144,1024], p85.1456: bf16[1024], p86.1508: bf16[1024,2048], p87.1524: bf16[1024,3072], p88.1526: bf16[6144,1024], p89.1528: bf16[1024], p90.1580: bf16[1024,2048], p91.1596: bf16[1024,3072], p92.1598: bf16[6144,1024], p93.1600: bf16[1024], p94.1652: bf16[1024,2048], p95.1668: bf16[1024,3072], p96.1670: bf16[6144,1024], p97.1672: bf16[1024], p98.1724: bf16[1024,2048], p99.1740: bf16[1024,3072], p100.1742: bf16[6144,1024], p101.1744: bf16[1024], p102.1796: bf16[1024,2048], p103.1812: bf16[1024,3072], p104.1814: bf16[6144,1024], p105.1816: bf16[1024], p106.1940: s32[16], p107.1941: bf16[40960,128], p108.1985: bf16[2,4233,16,8,128]) -> (bf16[16,8,128], bf16[16,8,128], bf16[4233,16,8,128], bf16[4233,16,8,128]) {
  %constant.1798 = bf16[] constant(0), metadata={op_type="prim__Constant" op_name="prim__Constant" source_file="/usr/local/lib/python3.10/site-packages/torch/_ops.py" source_line=756}
  %reshape.1799 = bf16[1,1]{1,0} reshape(bf16[] %constant.1798), metadata={op_type="aten__expand" op_name="aten__expand" source_file="/usr/local/lib/python3.10/site-packages/torch/_ops.py" source_line=756}
  %broadcast.1800 = bf16[1,1]{1,0} broadcast(bf16[1,1]{1,0} %reshape.1799), dimensions={0,1}, metadata={op_type="aten__expand" op_name="aten__expand" source_file="/usr/local/lib/python3.10/site-packages/torch/_ops.py" source_line=756}
  %reshape.1801 = bf16[] reshape(bf16[1,1]{1,0} %broadcast.1800), metadata={op_type="aten__expand" op_name="aten__expand" source_file="/usr/local/lib/python3.10/site-packages/torch/_ops.py" source_line=756}
  %broadcast.1802 = bf16[16,2048]{1,0} broadcast(bf16[] %reshape.1801), dimensions={}, metadata={op_type="aten__expand" op_name="aten__expand" source_file="/usr/local/lib/python3.10/site-packages/torch/_ops.py" source_line=756}
  %reshape.1803 = bf16[16,16,128]{2,1,0} reshape(bf16[16,2048]{1,0} %broadcast.1802), metadata={op_type="aten__view" op_name="aten__view" source_file="/usr/local/lib/python3.10/site-packages/torch/_ops.py" source_line=756}
  %reshape.1804 = bf16[16,2048]{1,0} reshape(bf16[16,16,128]{2,1,0} %reshape.1803), metadata={op_type="aten__view" op_name="aten__view" source_file="/usr/local/lib/python3.10/site-packages/torch/_ops.py" source_line=756}
  %p102.1796 = bf16[1024,2048]{1,0} parameter(102), metadata={op_type="xla__device_data" op_name="xla__device_data" source_file="/usr/local/lib/python3.10/site-packages/torch_xla/_dynamo/dynamo_bridge.py" source_line=355}
  %transpose.1797 = bf16[2048,1024]{0,1} transpose(bf16[1024,2048]{1,0} %p102.1796), dimensions={1,0}, metadata={op_type="aten__permute" op_name="aten__permute" source_file="/usr/local/lib/python3.10/site-packages/torch/_ops.py" source_line=756}
  %dot.1805 = bf16[16,1024]{1,0} dot(bf16[16,2048]{1,0} %reshape.1804, bf16[2048,1024]{0,1} %transpose.1797), lhs_contracting_dims={1}, rhs_contracting_dims={0}, metadata={op_type="aten__mm" op_name="aten__mm" source_file="/usr/local/lib/python3.10/site-packages/torch/_ops.py" source_line=756}
  %convert.1806 = f32[16,1024]{1,0} convert(bf16[16,1024]{1,0} %dot.1805), metadata={op_type="xla__cast" op_name="xla__cast" source_file="/usr/local/lib/python3.10/site-packages/torch/_ops.py" source_line=756}
  %constant.1726 = bf16[] constant(0), metadata={op_type="prim__Constant" op_name="prim__Constant" source_file="/usr/local/lib/python3.10/site-packages/torch/_ops.py" source_line=756}
  %reshape.1727 = bf16[1,1]{1,0} reshape(bf16[] %constant.1726), metadata={op_type="aten__expand" op_name="aten__expand" source_file="/usr/local/lib/python3.10/site-packages/torch/_ops.py" source_line=756}
  %broadcast.1728 = bf16[1,1]{1,0} broadcast(bf16[1,1]{1,0} %reshape.1727), dimensions={0,1}, metadata={op_type="aten__expand" op_name="aten__expand" source_file="/usr/local/lib/python3.10/site-packages/torch/_ops.py" source_line=756}
  %reshape.1729 = bf16[] reshape(bf16[1,1]{1,0} %broadcast.1728), metadata={op_type="aten__expand" op_name="aten__expand" source_file="/usr/local/lib/python3.10/site-packages/torch/_ops.py" source_line=756}
  %broadcast.1730 = bf16[16,2048]{1,0} broadcast(bf16[] %reshape.1729), dimensions={}, metadata={op_type="aten__expand" op_name="aten__expand" source_file="/usr/local/lib/python3.10/site-packages/torch/_ops.py" source_line=756}
  %reshape.1731 = bf16[16,16,128]{2,1,0} reshape(bf16[16,2048]{1,0} %broadcast.1730), metadata={op_type="aten__view" op_name="aten__view" source_file="/usr/local/lib/python3.10/site-packages/torch/_ops.py" source_line=756}
  %reshape.1732 = bf16[16,2048]{1,0} reshape(bf16[16,16,128]{2,1,0} %reshape.1731), metadata={op_type="aten__view" op_name="aten__view" source_file="/usr/local/lib/python3.10/site-packages/torch/_ops.py" source_line=756}
  %p98.1724 = bf16[1024,2048]{1,0} parameter(98), metadata={op_type="xla__device_data" op_name="xla__device_data" source_file="/usr/local/lib/python3.10/site-packages/torch_xla/_dynamo/dynamo_bridge.py" source_line=355}
  %transpose.1725 = bf16[2048,1024]{0,1} transpose(bf16[1024,2048]{1,0} %p98.1724), dimensions={1,0}, metadata={op_type="aten__permute" op_name="aten__permute" source_file="/usr/local/lib/python3.10/site-packages/torch/_ops.py" source_line=756}
  %dot.1733 = bf16[16,1024]{1,0} dot(bf16[16,2048]{1,0} %reshape.1732, bf16[2048,1024]{0,1} %transpose.1725), lhs_contracting_dims={1}, rhs_contracting_dims={0}, metadata={op_type="aten__mm" op_name="aten__mm" source_file="/usr/local/lib/python3.10/site-packages/torch/_ops.py" source_line=756}
  %convert.1734 = f32[16,1024]{1,0} convert(bf16[16,1024]{1,0} %dot.1733), metadata={op_type="xla__cast" op_name="xla__cast" source_file="/usr/local/lib/python3.10/site-packages/torch/_ops.py" source_line=756}
  %constant.1654 = bf16[] constant(0), metadata={op_type="prim__Constant" op_name="prim__Constant" source_file="/usr/local/lib/python3.10/site-packages/torch/_ops.py" source_line=756}
  %reshape.1655 = bf16[1,1]{1,0} reshape(bf16[] %constant.1654), metadata={op_type="aten__expand" op_name="aten__expand" source_file="/usr/local/lib/python3.10/site-packages/torch/_ops.py" source_line=756}
  %broadcast.1656 = bf16[1,1]{1,0} broadcast(bf16[1,1]{1,0} %reshape.1655), dimensions={0,1}, metadata={op_type="aten__expand" op_name="aten__expand" source_file="/usr/local/lib/python3.10/site-packages/torch/_ops.py" source_line=756}
  %reshape.1657 = bf16[] reshape(bf16[1,1]{1,0} %broadcast.1656), metadata={op_type="aten__expand" op_name="aten__expand" source_file="/usr/local/lib/python3.10/site-packages/torch/_ops.py" source_line=756}
  %broadcast.1658 = bf16[16,2048]{1,0} broadcast(bf16[] %reshape.1657), dimensions={}, metadata={op_type="aten__expand" op_name="aten__expand" source_file="/usr/local/lib/python3.10/site-packages/torch/_ops.py" source_line=756}
  %reshape.1659 = bf16[16,16,128]{2,1,0} reshape(bf16[16,2048]{1,0} %broadcast.1658), metadata={op_type="aten__view" op_name="aten__view" source_file="/usr/local/lib/python3.10/site-packages/torch/_ops.py" source_line=756}
  %reshape.1660 = bf16[16,2048]{1,0} reshape(bf16[16,16,128]{2,1,0} %reshape.1659), metadata={op_type="aten__view" op_name="aten__view" source_file="/usr/local/lib/python3.10/site-packages/torch/_ops.py" source_line=756}
  %p94.1652 = bf16[1024,2048]{1,0} parameter(94), metadata={op_type="xla__device_data" op_name="xla__device_data" source_file="/usr/local/lib/python3.10/site-packages/torch_xla/_dynamo/dynamo_bridge.py" source_line=355}
  %transpose.1653 = bf16[2048,1024]{0,1} transpose(bf16[1024,2048]{1,0} %p94.1652), dimensions={1,0}, metadata={op_type="aten__permute" op_name="aten__permute" source_file="/usr/local/lib/python3.10/site-packages/torch/_ops.py" source_line=756}
  %dot.1661 = bf16[16,1024]{1,0} dot(bf16[16,2048]{1,0} %reshape.1660, bf16[2048,1024]{0,1} %transpose.1653), lhs_contracting_dims={1}, rhs_contracting_dims={0}, metadata={op_type="aten__mm" op_name="aten__mm" source_file="/usr/local/lib/python3.10/site-packages/torch/_ops.py" source_line=756}
  %convert.1662 = f32[16,1024]{1,0} convert(bf16[16,1024]{1,0} %dot.1661), metadata={op_type="xla__cast" op_name="xla__cast" source_file="/usr/local/lib/python3.10/site-packages/torch/_ops.py" source_line=756}
  %constant.1582 = bf16[] constant(0), metadata={op_type="prim__Constant" op_name="prim__Constant" source_file="/usr/local/lib/python3.10/site-packages/torch/_ops.py" source_line=756}
  %reshape.1583 = bf16[1,1]{1,0} reshape(bf16[] %constant.1582), metadata={op_type="aten__expand" op_name="aten__expand" source_file="/usr/local/lib/python3.10/site-packages/torch/_ops.py" source_line=756}
  %broadcast.1584 = bf16[1,1]{1,0} broadcast(bf16[1,1]{1,0} %reshape.1583), dimensions={0,1}, metadata={op_type="aten__expand" op_name="aten__expand" source_file="/usr/local/lib/python3.10/site-packages/torch/_ops.py" source_line=756}
  %reshape.1585 = bf16[] reshape(bf16[1,1]{1,0} %broadcast.1584), metadata={op_type="aten__expand" op_name="aten__expand" source_file="/usr/local/lib/python3.10/site-packages/torch/_ops.py" source_line=756}
  %broadcast.1586 = bf16[16,2048]{1,0} broadcast(bf16[] %reshape.1585), dimensions={}, metadata={op_type="aten__expand" op_name="aten__expand" source_file="/usr/local/lib/python3.10/site-packages/torch/_ops.py" source_line=756}
  %reshape.1587 = bf16[16,16,128]{2,1,0} reshape(bf16[16,2048]{1,0} %broadcast.1586), metadata={op_type="aten__view" op_name="aten__view" source_file="/usr/local/lib/python3.10/site-packages/torch/_ops.py" source_line=756}
  %reshape.1588 = bf16[16,2048]{1,0} reshape(bf16[16,16,128]{2,1,0} %reshape.1587), metadata={op_type="aten__view" op_name="aten__view" source_file="/usr/local/lib/python3.10/site-packages/torch/_ops.py" source_line=756}
  %p90.1580 = bf16[1024,2048]{1,0} parameter(90), metadata={op_type="xla__device_data" op_name="xla__device_data" source_file="/usr/local/lib/python3.10/site-packages/torch_xla/_dynamo/dynamo_bridge.py" source_line=355}
  %transpose.1581 = bf16[2048,1024]{0,1} transpose(bf16[1024,2048]{1,0} %p90.1580), dimensions={1,0}, metadata={op_type="aten__permute" op_name="aten__permute" source_file="/usr/local/lib/python3.10/site-packages/torch/_ops.py" source_line=756}
  %dot.1589 = bf16[16,1024]{1,0} dot(bf16[16,2048]{1,0} %reshape.1588, bf16[2048,1024]{0,1} %transpose.1581), lhs_contracting_dims={1}, rhs_contracting_dims={0}, metadata={op_type="aten__mm" op_name="aten__mm" source_file="/usr/local/lib/python3.10/site-packages/torch/_ops.py" source_line=756}
  %convert.1590 = f32[16,1024]{1,0} convert(bf16[16,1024]{1,0} %dot.1589), metadata={op_type="xla__cast" op_name="xla__cast" source_file="/usr/local/lib/python3.10/site-packages/torch/_ops.py" source_line=756}
  %constant.1510 = bf16[] constant(0), metadata={op_type="prim__Constant" op_name="prim__Constant" source_file="/usr/local/lib/python3.10/site-packages/torch/_ops.py" source_line=756}
  %reshape.1511 = bf16[1,1]{1,0} reshape(bf16[] %constant.1510), metadata={op_type="aten__expand" op_name="aten__expand" source_file="/usr/local/lib/python3.10/site-packages/torch/_ops.py" source_line=756}
  %broadcast.1512 = bf16[1,1]{1,0} broadcast(bf16[1,1]{1,0} %reshape.1511), dimensions={0,1}, metadata={op_type="aten__expand" op_name="aten__expand" source_file="/usr/local/lib/python3.10/site-packages/torch/_ops.py" source_line=756}
  %reshape.1513 = bf16[] reshape(bf16[1,1]{1,0} %broadcast.1512), metadata={op_type="aten__expand" op_name="aten__expand" source_file="/usr/local/lib/python3.10/site-packages/torch/_ops.py" source_line=756}
  %broadcast.1514 = bf16[16,2048]{1,0} broadcast(bf16[] %reshape.1513), dimensions={}, metadata={op_type="aten__expand" op_name="aten__expand" source_file="/usr/local/lib/python3.10/site-packages/torch/_ops.py" source_line=756}
  %reshape.1515 = bf16[16,16,128]{2,1,0} reshape(bf16[16,2048]{1,0} %broadcast.1514), metadata={op_type="aten__view" op_name="aten__view" source_file="/usr/local/lib/python3.10/site-packages/torch/_ops.py" source_line=756}
  %reshape.1516 = bf16[16,2048]{1,0} reshape(bf16[16,16,128]{2,1,0} %reshape.1515), metadata={op_type="aten__view" op_name="aten__view" source_file="/usr/local/lib/python3.10/site-packages/torch/_ops.py" source_line=756}
  %p86.1508 = bf16[1024,2048]{1,0} parameter(86), metadata={op_type="xla__device_data" op_name="xla__device_data" source_file="/usr/local/lib/python3.10/site-packages/torch_xla/_dynamo/dynamo_bridge.py" source_line=355}
  %transpose.1509 = bf16[2048,1024]{0,1} transpose(bf16[1024,2048]{1,0} %p86.1508), dimensions={1,0}, metadata={op_type="aten__permute" op_name="aten__permute" source_file="/usr/local/lib/python3.10/site-packages/torch/_ops.py" source_line=756}
  %dot.1517 = bf16[16,1024]{1,0} dot(bf16[16,2048]{1,0} %reshape.1516, bf16[2048,1024]{0,1} %transpose.1509), lhs_contracting_dims={1}, rhs_contracting_dims={0}, metadata={op_type="aten__mm" op_name="aten__mm" source_file="/usr/local/lib/python3.10/site-packages/torch/_ops.py" source_line=756}
  %convert.1518 = f32[16,1024]{1,0} convert(bf16[16,1024]{1,0} %dot.1517), metadata={op_type="xla__cast" op_name="xla__cast" source_file="/usr/local/lib/python3.10/site-packages/torch/_ops.py" source_line=756}
  %constant.1438 = bf16[] constant(0), metadata={op_type="prim__Constant" op_name="prim__Constant" source_file="/usr/local/lib/python3.10/site-packages/torch/_ops.py" source_line=756}
  %reshape.1439 = bf16[1,1]{1,0} reshape(bf16[] %constant.1438), metadata={op_type="aten__expand" op_name="aten__expand" source_file="/usr/local/lib/python3.10/site-packages/torch/_ops.py" source_line=756}
  %broadcast.1440 = bf16[1,1]{1,0} broadcast(bf16[1,1]{1,0} %reshape.1439), dimensions={0,1}, metadata={op_type="aten__expand" op_name="aten__expand" source_file="/usr/local/lib/python3.10/site-packages/torch/_ops.py" source_line=756}
  %reshape.1441 = bf16[] reshape(bf16[1,1]{1,0} %broadcast.1440), metadata={op_type="aten__expand" op_name="aten__expand" source_file="/usr/local/lib/python3.10/site-packages/torch/_ops.py" source_line=756}
  %broadcast.1442 = bf16[16,2048]{1,0} broadcast(bf16[] %reshape.1441), dimensions={}, metadata={op_type="aten__expand" op_name="aten__expand" source_file="/usr/local/lib/python3.10/site-packages/torch/_ops.py" source_line=756}
  %reshape.1443 = bf16[16,16,128]{2,1,0} reshape(bf16[16,2048]{1,0} %broadcast.1442), metadata={op_type="aten__view" op_name="aten__view" source_file="/usr/local/lib/python3.10/site-packages/torch/_ops.py" source_line=756}
  %reshape.1444 = bf16[16,2048]{1,0} reshape(bf16[16,16,128]{2,1,0} %reshape.1443), metadata={op_type="aten__view" op_name="aten__view" source_file="/usr/local/lib/python3.10/site-packages/torch/_ops.py" source_line=756}
  %p82.1436 = bf16[1024,2048]{1,0} parameter(82), metadata={op_type="xla__device_data" op_name="xla__device_data" source_file="/usr/local/lib/python3.10/site-packages/torch_xla/_dynamo/dynamo_bridge.py" source_line=355}
  %transpose.1437 = bf16[2048,1024]{0,1} transpose(bf16[1024,2048]{1,0} %p82.1436), dimensions={1,0}, metadata={op_type="aten__permute" op_name="aten__permute" source_file="/usr/local/lib/python3.10/site-packages/torch/_ops.py" source_line=756}
  %dot.1445 = bf16[16,1024]{1,0} dot(bf16[16,2048]{1,0} %reshape.1444, bf16[2048,1024]{0,1} %transpose.1437), lhs_contracting_dims={1}, rhs_contracting_dims={0}, metadata={op_type="aten__mm" op_name="aten__mm" source_file="/usr/local/lib/python3.10/site-packages/torch/_ops.py" source_line=756}
  %convert.1446 = f32[16,1024]{1,0} convert(bf16[16,1024]{1,0} %dot.1445), metadata={op_type="xla__cast" op_name="xla__cast" source_file="/usr/local/lib/python3.10/site-packages/torch/_ops.py" source_line=756}
  %constant.1366 = bf16[] constant(0), metadata={op_type="prim__Constant" op_name="prim__Constant" source_file="/usr/local/lib/python3.10/site-packages/torch/_ops.py" source_line=756}
  %reshape.1367 = bf16[1,1]{1,0} reshape(bf16[] %constant.1366), metadata={op_type="aten__expand" op_name="aten__expand" source_file="/usr/local/lib/python3.10/site-packages/torch/_ops.py" source_line=756}
  %broadcast.1368 = bf16[1,1]{1,0} broadcast(bf16[1,1]{1,0} %reshape.1367), dimensions={0,1}, metadata={op_type="aten__expand" op_name="aten__expand" source_file="/usr/local/lib/python3.10/site-packages/torch/_ops.py" source_line=756}
  %reshape.1369 = bf16[] reshape(bf16[1,1]{1,0} %broadcast.1368), metadata={op_type="aten__expand" op_name="aten__expand" source_file="/usr/local/lib/python3.10/site-packages/torch/_ops.py" source_line=756}
  %broadcast.1370 = bf16[16,2048]{1,0} broadcast(bf16[] %reshape.1369), dimensions={}, metadata={op_type="aten__expand" op_name="aten__expand" source_file="/usr/local/lib/python3.10/site-packages/torch/_ops.py" source_line=756}
  %reshape.1371 = bf16[16,16,128]{2,1,0} reshape(bf16[16,2048]{1,0} %broadcast.1370), metadata={op_type="aten__view" op_name="aten__view" source_file="/usr/local/lib/python3.10/site-packages/torch/_ops.py" source_line=756}
  %reshape.1372 = bf16[16,2048]{1,0} reshape(bf16[16,16,128]{2,1,0} %reshape.1371), metadata={op_type="aten__view" op_name="aten__view" source_file="/usr/local/lib/python3.10/site-packages/torch/_ops.py" source_line=756}
  %p78.1364 = bf16[1024,2048]{1,0} parameter(78), metadata={op_type="xla__device_data" op_name="xla__device_data" source_file="/usr/local/lib/python3.10/site-packages/torch_xla/_dynamo/dynamo_bridge.py" source_line=355}
  %transpose.1365 = bf16[2048,1024]{0,1} transpose(bf16[1024,2048]{1,0} %p78.1364), dimensions={1,0}, metadata={op_type="aten__permute" op_name="aten__permute" source_file="/usr/local/lib/python3.10/site-packages/torch/_ops.py" source_line=756}
  %dot.1373 = bf16[16,1024]{1,0} dot(bf16[16,2048]{1,0} %reshape.1372, bf16[2048,1024]{0,1} %transpose.1365), lhs_contracting_dims={1}, rhs_contracting_dims={0}, metadata={op_type="aten__mm" op_name="aten__mm" source_file="/usr/local/lib/python3.10/site-packages/torch/_ops.py" source_line=756}
  %convert.1374 = f32[16,1024]{1,0} convert(bf16[16,1024]{1,0} %dot.1373), metadata={op_type="xla__cast" op_name="xla__cast" source_file="/usr/local/lib/python3.10/site-packages/torch/_ops.py" source_line=756}
  %constant.1294 = bf16[] constant(0), metadata={op_type="prim__Constant" op_name="prim__Constant" source_file="/usr/local/lib/python3.10/site-packages/torch/_ops.py" source_line=756}
  %reshape.1295 = bf16[1,1]{1,0} reshape(bf16[] %constant.1294), metadata={op_type="aten__expand" op_name="aten__expand" source_file="/usr/local/lib/python3.10/site-packages/torch/_ops.py" source_line=756}
  %broadcast.1296 = bf16[1,1]{1,0} broadcast(bf16[1,1]{1,0} %reshape.1295), dimensions={0,1}, metadata={op_type="aten__expand" op_name="aten__expand" source_file="/usr/local/lib/python3.10/site-packages/torch/_ops.py" source_line=756}
  %reshape.1297 = bf16[] reshape(bf16[1,1]{1,0} %broadcast.1296), metadata={op_type="aten__expand" op_name="aten__expand" source_file="/usr/local/lib/python3.10/site-packages/torch/_ops.py" source_line=756}
  %broadcast.1298 = bf16[16,2048]{1,0} broadcast(bf16[] %reshape.1297), dimensions={}, metadata={op_type="aten__expand" op_name="aten__expand" source_file="/usr/local/lib/python3.10/site-packages/torch/_ops.py" source_line=756}
  %reshape.1299 = bf16[16,16,128]{2,1,0} reshape(bf16[16,2048]{1,0} %broadcast.1298), metadata={op_type="aten__view" op_name="aten__view" source_file="/usr/local/lib/python3.10/site-packages/torch/_ops.py" source_line=756}
  %reshape.1300 = bf16[16,2048]{1,0} reshape(bf16[16,16,128]{2,1,0} %reshape.1299), metadata={op_type="aten__view" op_name="aten__view" source_file="/usr/local/lib/python3.10/site-packages/torch/_ops.py" source_line=756}
  %p74.1292 = bf16[1024,2048]{1,0} parameter(74), metadata={op_type="xla__device_data" op_name="xla__device_data" source_file="/usr/local/lib/python3.10/site-packages/torch_xla/_dynamo/dynamo_bridge.py" source_line=355}
  %transpose.1293 = bf16[2048,1024]{0,1} transpose(bf16[1024,2048]{1,0} %p74.1292), dimensions={1,0}, metadata={op_type="aten__permute" op_name="aten__permute" source_file="/usr/local/lib/python3.10/site-packages/torch/_ops.py" source_line=756}
  %dot.1301 = bf16[16,1024]{1,0} dot(bf16[16,2048]{1,0} %reshape.1300, bf16[2048,1024]{0,1} %transpose.1293), lhs_contracting_dims={1}, rhs_contracting_dims={0}, metadata={op_type="aten__mm" op_name="aten__mm" source_file="/usr/local/lib/python3.10/site-packages/torch/_ops.py" source_line=756}
  %convert.1302 = f32[16,1024]{1,0} convert(bf16[16,1024]{1,0} %dot.1301), metadata={op_type="xla__cast" op_name="xla__cast" source_file="/usr/local/lib/python3.10/site-packages/torch/_ops.py" source_line=756}
  %constant.1222 = bf16[] constant(0), metadata={op_type="prim__Constant" op_name="prim__Constant" source_file="/usr/local/lib/python3.10/site-packages/torch/_ops.py" source_line=756}
  %reshape.1223 = bf16[1,1]{1,0} reshape(bf16[] %constant.1222), metadata={op_type="aten__expand" op_name="aten__expand" source_file="/usr/local/lib/python3.10/site-packages/torch/_ops.py" source_line=756}
  %broadcast.1224 = bf16[1,1]{1,0} broadcast(bf16[1,1]{1,0} %reshape.1223), dimensions={0,1}, metadata={op_type="aten__expand" op_name="aten__expand" source_file="/usr/local/lib/python3.10/site-packages/torch/_ops.py" source_line=756}
  %reshape.1225 = bf16[] reshape(bf16[1,1]{1,0} %broadcast.1224), metadata={op_type="aten__expand" op_name="aten__expand" source_file="/usr/local/lib/python3.10/site-packages/torch/_ops.py" source_line=756}
  %broadcast.1226 = bf16[16,2048]{1,0} broadcast(bf16[] %reshape.1225), dimensions={}, metadata={op_type="aten__expand" op_name="aten__expand" source_file="/usr/local/lib/python3.10/site-packages/torch/_ops.py" source_line=756}
  %reshape.1227 = bf16[16,16,128]{2,1,0} reshape(bf16[16,2048]{1,0} %broadcast.1226), metadata={op_type="aten__view" op_name="aten__view" source_file="/usr/local/lib/python3.10/site-packages/torch/_ops.py" source_line=756}
  %reshape.1228 = bf16[16,2048]{1,0} reshape(bf16[16,16,128]{2,1,0} %reshape.1227), metadata={op_type="aten__view" op_name="aten__view" source_file="/usr/local/lib/python3.10/site-packages/torch/_ops.py" source_line=756}
  %p70.1220 = bf16[1024,2048]{1,0} parameter(70), metadata={op_type="xla__device_data" op_name="xla__device_data" source_file="/usr/local/lib/python3.10/site-packages/torch_xla/_dynamo/dynamo_bridge.py" source_line=355}
  %transpose.1221 = bf16[2048,1024]{0,1} transpose(bf16[1024,2048]{1,0} %p70.1220), dimensions={1,0}, metadata={op_type="aten__permute" op_name="aten__permute" source_file="/usr/local/lib/python3.10/site-packages/torch/_ops.py" source_line=756}
  %dot.1229 = bf16[16,1024]{1,0} dot(bf16[16,2048]{1,0} %reshape.1228, bf16[2048,1024]{0,1} %transpose.1221), lhs_contracting_dims={1}, rhs_contracting_dims={0}, metadata={op_type="aten__mm" op_name="aten__mm" source_file="/usr/local/lib/python3.10/site-packages/torch/_ops.py" source_line=756}
  %convert.1230 = f32[16,1024]{1,0} convert(bf16[16,1024]{1,0} %dot.1229), metadata={op_type="xla__cast" op_name="xla__cast" source_file="/usr/local/lib/python3.10/site-packages/torch/_ops.py" source_line=756}
  %constant.1150 = bf16[] constant(0), metadata={op_type="prim__Constant" op_name="prim__Constant" source_file="/usr/local/lib/python3.10/site-packages/torch/_ops.py" source_line=756}
  %reshape.1151 = bf16[1,1]{1,0} reshape(bf16[] %constant.1150), metadata={op_type="aten__expand" op_name="aten__expand" source_file="/usr/local/lib/python3.10/site-packages/torch/_ops.py" source_line=756}
  %broadcast.1152 = bf16[1,1]{1,0} broadcast(bf16[1,1]{1,0} %reshape.1151), dimensions={0,1}, metadata={op_type="aten__expand" op_name="aten__expand" source_file="/usr/local/lib/python3.10/site-packages/torch/_ops.py" source_line=756}
  %reshape.1153 = bf16[] reshape(bf16[1,1]{1,0} %broadcast.1152), metadata={op_type="aten__expand" op_name="aten__expand" source_file="/usr/local/lib/python3.10/site-packages/torch/_ops.py" source_line=756}
  %broadcast.1154 = bf16[16,2048]{1,0} broadcast(bf16[] %reshape.1153), dimensions={}, metadata={op_type="aten__expand" op_name="aten__expand" source_file="/usr/local/lib/python3.10/site-packages/torch/_ops.py" source_line=756}
  %reshape.1155 = bf16[16,16,128]{2,1,0} reshape(bf16[16,2048]{1,0} %broadcast.1154), metadata={op_type="aten__view" op_name="aten__view" source_file="/usr/local/lib/python3.10/site-packages/torch/_ops.py" source_line=756}
  %reshape.1156 = bf16[16,2048]{1,0} reshape(bf16[16,16,128]{2,1,0} %reshape.1155), metadata={op_type="aten__view" op_name="aten__view" source_file="/usr/local/lib/python3.10/site-packages/torch/_ops.py" source_line=756}
  %p66.1148 = bf16[1024,2048]{1,0} parameter(66), metadata={op_type="xla__device_data" op_name="xla__device_data" source_file="/usr/local/lib/python3.10/site-packages/torch_xla/_dynamo/dynamo_bridge.py" source_line=355}
  %transpose.1149 = bf16[2048,1024]{0,1} transpose(bf16[1024,2048]{1,0} %p66.1148), dimensions={1,0}, metadata={op_type="aten__permute" op_name="aten__permute" source_file="/usr/local/lib/python3.10/site-packages/torch/_ops.py" source_line=756}
  %dot.1157 = bf16[16,1024]{1,0} dot(bf16[16,2048]{1,0} %reshape.1156, bf16[2048,1024]{0,1} %transpose.1149), lhs_contracting_dims={1}, rhs_contracting_dims={0}, metadata={op_type="aten__mm" op_name="aten__mm" source_file="/usr/local/lib/python3.10/site-packages/torch/_ops.py" source_line=756}
  %convert.1158 = f32[16,1024]{1,0} convert(bf16[16,1024]{1,0} %dot.1157), metadata={op_type="xla__cast" op_name="xla__cast" source_file="/usr/local/lib/python3.10/site-packages/torch/_ops.py" source_line=756}
  %constant.1078 = bf16[] constant(0), metadata={op_type="prim__Constant" op_name="prim__Constant" source_file="/usr/local/lib/python3.10/site-packages/torch/_ops.py" source_line=756}
  %reshape.1079 = bf16[1,1]{1,0} reshape(bf16[] %constant.1078), metadata={op_type="aten__expand" op_name="aten__expand" source_file="/usr/local/lib/python3.10/site-packages/torch/_ops.py" source_line=756}
  %broadcast.1080 = bf16[1,1]{1,0} broadcast(bf16[1,1]{1,0} %reshape.1079), dimensions={0,1}, metadata={op_type="aten__expand" op_name="aten__expand" source_file="/usr/local/lib/python3.10/site-packages/torch/_ops.py" source_line=756}
  %reshape.1081 = bf16[] reshape(bf16[1,1]{1,0} %broadcast.1080), metadata={op_type="aten__expand" op_name="aten__expand" source_file="/usr/local/lib/python3.10/site-packages/torch/_ops.py" source_line=756}
  %broadcast.1082 = bf16[16,2048]{1,0} broadcast(bf16[] %reshape.1081), dimensions={}, metadata={op_type="aten__expand" op_name="aten__expand" source_file="/usr/local/lib/python3.10/site-packages/torch/_ops.py" source_line=756}
  %reshape.1083 = bf16[16,16,128]{2,1,0} reshape(bf16[16,2048]{1,0} %broadcast.1082), metadata={op_type="aten__view" op_name="aten__view" source_file="/usr/local/lib/python3.10/site-packages/torch/_ops.py" source_line=756}
  %reshape.1084 = bf16[16,2048]{1,0} reshape(bf16[16,16,128]{2,1,0} %reshape.1083), metadata={op_type="aten__view" op_name="aten__view" source_file="/usr/local/lib/python3.10/site-packages/torch/_ops.py" source_line=756}
  %p62.1076 = bf16[1024,2048]{1,0} parameter(62), metadata={op_type="xla__device_data" op_name="xla__device_data" source_file="/usr/local/lib/python3.10/site-packages/torch_xla/_dynamo/dynamo_bridge.py" source_line=355}
  %transpose.1077 = bf16[2048,1024]{0,1} transpose(bf16[1024,2048]{1,0} %p62.1076), dimensions={1,0}, metadata={op_type="aten__permute" op_name="aten__permute" source_file="/usr/local/lib/python3.10/site-packages/torch/_ops.py" source_line=756}
  %dot.1085 = bf16[16,1024]{1,0} dot(bf16[16,2048]{1,0} %reshape.1084, bf16[2048,1024]{0,1} %transpose.1077), lhs_contracting_dims={1}, rhs_contracting_dims={0}, metadata={op_type="aten__mm" op_name="aten__mm" source_file="/usr/local/lib/python3.10/site-packages/torch/_ops.py" source_line=756}
  %convert.1086 = f32[16,1024]{1,0} convert(bf16[16,1024]{1,0} %dot.1085), metadata={op_type="xla__cast" op_name="xla__cast" source_file="/usr/local/lib/python3.10/site-packages/torch/_ops.py" source_line=756}
  %constant.1006 = bf16[] constant(0), metadata={op_type="prim__Constant" op_name="prim__Constant" source_file="/usr/local/lib/python3.10/site-packages/torch/_ops.py" source_line=756}
  %reshape.1007 = bf16[1,1]{1,0} reshape(bf16[] %constant.1006), metadata={op_type="aten__expand" op_name="aten__expand" source_file="/usr/local/lib/python3.10/site-packages/torch/_ops.py" source_line=756}
  %broadcast.1008 = bf16[1,1]{1,0} broadcast(bf16[1,1]{1,0} %reshape.1007), dimensions={0,1}, metadata={op_type="aten__expand" op_name="aten__expand" source_file="/usr/local/lib/python3.10/site-packages/torch/_ops.py" source_line=756}
  %reshape.1009 = bf16[] reshape(bf16[1,1]{1,0} %broadcast.1008), metadata={op_type="aten__expand" op_name="aten__expand" source_file="/usr/local/lib/python3.10/site-packages/torch/_ops.py" source_line=756}
  %broadcast.1010 = bf16[16,2048]{1,0} broadcast(bf16[] %reshape.1009), dimensions={}, metadata={op_type="aten__expand" op_name="aten__expand" source_file="/usr/local/lib/python3.10/site-packages/torch/_ops.py" source_line=756}
  %reshape.1011 = bf16[16,16,128]{2,1,0} reshape(bf16[16,2048]{1,0} %broadcast.1010), metadata={op_type="aten__view" op_name="aten__view" source_file="/usr/local/lib/python3.10/site-packages/torch/_ops.py" source_line=756}
  %reshape.1012 = bf16[16,2048]{1,0} reshape(bf16[16,16,128]{2,1,0} %reshape.1011), metadata={op_type="aten__view" op_name="aten__view" source_file="/usr/local/lib/python3.10/site-packages/torch/_ops.py" source_line=756}
  %p58.1004 = bf16[1024,2048]{1,0} parameter(58), metadata={op_type="xla__device_data" op_name="xla__device_data" source_file="/usr/local/lib/python3.10/site-packages/torch_xla/_dynamo/dynamo_bridge.py" source_line=355}
  %transpose.1005 = bf16[2048,1024]{0,1} transpose(bf16[1024,2048]{1,0} %p58.1004), dimensions={1,0}, metadata={op_type="aten__permute" op_name="aten__permute" source_file="/usr/local/lib/python3.10/site-packages/torch/_ops.py" source_line=756}
  %dot.1013 = bf16[16,1024]{1,0} dot(bf16[16,2048]{1,0} %reshape.1012, bf16[2048,1024]{0,1} %transpose.1005), lhs_contracting_dims={1}, rhs_contracting_dims={0}, metadata={op_type="aten__mm" op_name="aten__mm" source_file="/usr/local/lib/python3.10/site-packages/torch/_ops.py" source_line=756}
  %convert.1014 = f32[16,1024]{1,0} convert(bf16[16,1024]{1,0} %dot.1013), metadata={op_type="xla__cast" op_name="xla__cast" source_file="/usr/local/lib/python3.10/site-packages/torch/_ops.py" source_line=756}
  %constant.934 = bf16[] constant(0), metadata={op_type="prim__Constant" op_name="prim__Constant" source_file="/usr/local/lib/python3.10/site-packages/torch/_ops.py" source_line=756}
  %reshape.935 = bf16[1,1]{1,0} reshape(bf16[] %constant.934), metadata={op_type="aten__expand" op_name="aten__expand" source_file="/usr/local/lib/python3.10/site-packages/torch/_ops.py" source_line=756}
  %broadcast.936 = bf16[1,1]{1,0} broadcast(bf16[1,1]{1,0} %reshape.935), dimensions={0,1}, metadata={op_type="aten__expand" op_name="aten__expand" source_file="/usr/local/lib/python3.10/site-packages/torch/_ops.py" source_line=756}
  %reshape.937 = bf16[] reshape(bf16[1,1]{1,0} %broadcast.936), metadata={op_type="aten__expand" op_name="aten__expand" source_file="/usr/local/lib/python3.10/site-packages/torch/_ops.py" source_line=756}
  %broadcast.938 = bf16[16,2048]{1,0} broadcast(bf16[] %reshape.937), dimensions={}, metadata={op_type="aten__expand" op_name="aten__expand" source_file="/usr/local/lib/python3.10/site-packages/torch/_ops.py" source_line=756}
  %reshape.939 = bf16[16,16,128]{2,1,0} reshape(bf16[16,2048]{1,0} %broadcast.938), metadata={op_type="aten__view" op_name="aten__view" source_file="/usr/local/lib/python3.10/site-packages/torch/_ops.py" source_line=756}
  %reshape.940 = bf16[16,2048]{1,0} reshape(bf16[16,16,128]{2,1,0} %reshape.939), metadata={op_type="aten__view" op_name="aten__view" source_file="/usr/local/lib/python3.10/site-packages/torch/_ops.py" source_line=756}
  %p54.932 = bf16[1024,2048]{1,0} parameter(54), metadata={op_type="xla__device_data" op_name="xla__device_data" source_file="/usr/local/lib/python3.10/site-packages/torch_xla/_dynamo/dynamo_bridge.py" source_line=355}
  %transpose.933 = bf16[2048,1024]{0,1} transpose(bf16[1024,2048]{1,0} %p54.932), dimensions={1,0}, metadata={op_type="aten__permute" op_name="aten__permute" source_file="/usr/local/lib/python3.10/site-packages/torch/_ops.py" source_line=756}
  %dot.941 = bf16[16,1024]{1,0} dot(bf16[16,2048]{1,0} %reshape.940, bf16[2048,1024]{0,1} %transpose.933), lhs_contracting_dims={1}, rhs_contracting_dims={0}, metadata={op_type="aten__mm" op_name="aten__mm" source_file="/usr/local/lib/python3.10/site-packages/torch/_ops.py" source_line=756}
  %convert.942 = f32[16,1024]{1,0} convert(bf16[16,1024]{1,0} %dot.941), metadata={op_type="xla__cast" op_name="xla__cast" source_file="/usr/local/lib/python3.10/site-packages/torch/_ops.py" source_line=756}
  %constant.862 = bf16[] constant(0), metadata={op_type="prim__Constant" op_name="prim__Constant" source_file="/usr/local/lib/python3.10/site-packages/torch/_ops.py" source_line=756}
  %reshape.863 = bf16[1,1]{1,0} reshape(bf16[] %constant.862), metadata={op_type="aten__expand" op_name="aten__expand" source_file="/usr/local/lib/python3.10/site-packages/torch/_ops.py" source_line=756}
  %broadcast.864 = bf16[1,1]{1,0} broadcast(bf16[1,1]{1,0} %reshape.863), dimensions={0,1}, metadata={op_type="aten__expand" op_name="aten__expand" source_file="/usr/local/lib/python3.10/site-packages/torch/_ops.py" source_line=756}
  %reshape.865 = bf16[] reshape(bf16[1,1]{1,0} %broadcast.864), metadata={op_type="aten__expand" op_name="aten__expand" source_file="/usr/local/lib/python3.10/site-packages/torch/_ops.py" source_line=756}
  %broadcast.866 = bf16[16,2048]{1,0} broadcast(bf16[] %reshape.865), dimensions={}, metadata={op_type="aten__expand" op_name="aten__expand" source_file="/usr/local/lib/python3.10/site-packages/torch/_ops.py" source_line=756}
  %reshape.867 = bf16[16,16,128]{2,1,0} reshape(bf16[16,2048]{1,0} %broadcast.866), metadata={op_type="aten__view" op_name="aten__view" source_file="/usr/local/lib/python3.10/site-packages/torch/_ops.py" source_line=756}
  %reshape.868 = bf16[16,2048]{1,0} reshape(bf16[16,16,128]{2,1,0} %reshape.867), metadata={op_type="aten__view" op_name="aten__view" source_file="/usr/local/lib/python3.10/site-packages/torch/_ops.py" source_line=756}
  %p50.860 = bf16[1024,2048]{1,0} parameter(50), metadata={op_type="xla__device_data" op_name="xla__device_data" source_file="/usr/local/lib/python3.10/site-packages/torch_xla/_dynamo/dynamo_bridge.py" source_line=355}
  %transpose.861 = bf16[2048,1024]{0,1} transpose(bf16[1024,2048]{1,0} %p50.860), dimensions={1,0}, metadata={op_type="aten__permute" op_name="aten__permute" source_file="/usr/local/lib/python3.10/site-packages/torch/_ops.py" source_line=756}
  %dot.869 = bf16[16,1024]{1,0} dot(bf16[16,2048]{1,0} %reshape.868, bf16[2048,1024]{0,1} %transpose.861), lhs_contracting_dims={1}, rhs_contracting_dims={0}, metadata={op_type="aten__mm" op_name="aten__mm" source_file="/usr/local/lib/python3.10/site-packages/torch/_ops.py" source_line=756}
  %convert.870 = f32[16,1024]{1,0} convert(bf16[16,1024]{1,0} %dot.869), metadata={op_type="xla__cast" op_name="xla__cast" source_file="/usr/local/lib/python3.10/site-packages/torch/_ops.py" source_line=756}
  %constant.790 = bf16[] constant(0), metadata={op_type="prim__Constant" op_name="prim__Constant" source_file="/usr/local/lib/python3.10/site-packages/torch/_ops.py" source_line=756}
  %reshape.791 = bf16[1,1]{1,0} reshape(bf16[] %constant.790), metadata={op_type="aten__expand" op_name="aten__expand" source_file="/usr/local/lib/python3.10/site-packages/torch/_ops.py" source_line=756}
  %broadcast.792 = bf16[1,1]{1,0} broadcast(bf16[1,1]{1,0} %reshape.791), dimensions={0,1}, metadata={op_type="aten__expand" op_name="aten__expand" source_file="/usr/local/lib/python3.10/site-packages/torch/_ops.py" source_line=756}
  %reshape.793 = bf16[] reshape(bf16[1,1]{1,0} %broadcast.792), metadata={op_type="aten__expand" op_name="aten__expand" source_file="/usr/local/lib/python3.10/site-packages/torch/_ops.py" source_line=756}
  %broadcast.794 = bf16[16,2048]{1,0} broadcast(bf16[] %reshape.793), dimensions={}, metadata={op_type="aten__expand" op_name="aten__expand" source_file="/usr/local/lib/python3.10/site-packages/torch/_ops.py" source_line=756}
  %reshape.795 = bf16[16,16,128]{2,1,0} reshape(bf16[16,2048]{1,0} %broadcast.794), metadata={op_type="aten__view" op_name="aten__view" source_file="/usr/local/lib/python3.10/site-packages/torch/_ops.py" source_line=756}
  %reshape.796 = bf16[16,2048]{1,0} reshape(bf16[16,16,128]{2,1,0} %reshape.795), metadata={op_type="aten__view" op_name="aten__view" source_file="/usr/local/lib/python3.10/site-packages/torch/_ops.py" source_line=756}
  %p46.788 = bf16[1024,2048]{1,0} parameter(46), metadata={op_type="xla__device_data" op_name="xla__device_data" source_file="/usr/local/lib/python3.10/site-packages/torch_xla/_dynamo/dynamo_bridge.py" source_line=355}
  %transpose.789 = bf16[2048,1024]{0,1} transpose(bf16[1024,2048]{1,0} %p46.788), dimensions={1,0}, metadata={op_type="aten__permute" op_name="aten__permute" source_file="/usr/local/lib/python3.10/site-packages/torch/_ops.py" source_line=756}
  %dot.797 = bf16[16,1024]{1,0} dot(bf16[16,2048]{1,0} %reshape.796, bf16[2048,1024]{0,1} %transpose.789), lhs_contracting_dims={1}, rhs_contracting_dims={0}, metadata={op_type="aten__mm" op_name="aten__mm" source_file="/usr/local/lib/python3.10/site-packages/torch/_ops.py" source_line=756}
  %convert.798 = f32[16,1024]{1,0} convert(bf16[16,1024]{1,0} %dot.797), metadata={op_type="xla__cast" op_name="xla__cast" source_file="/usr/local/lib/python3.10/site-packages/torch/_ops.py" source_line=756}
  %constant.718 = bf16[] constant(0), metadata={op_type="prim__Constant" op_name="prim__Constant" source_file="/usr/local/lib/python3.10/site-packages/torch/_ops.py" source_line=756}
  %reshape.719 = bf16[1,1]{1,0} reshape(bf16[] %constant.718), metadata={op_type="aten__expand" op_name="aten__expand" source_file="/usr/local/lib/python3.10/site-packages/torch/_ops.py" source_line=756}
  %broadcast.720 = bf16[1,1]{1,0} broadcast(bf16[1,1]{1,0} %reshape.719), dimensions={0,1}, metadata={op_type="aten__expand" op_name="aten__expand" source_file="/usr/local/lib/python3.10/site-packages/torch/_ops.py" source_line=756}
  %reshape.721 = bf16[] reshape(bf16[1,1]{1,0} %broadcast.720), metadata={op_type="aten__expand" op_name="aten__expand" source_file="/usr/local/lib/python3.10/site-packages/torch/_ops.py" source_line=756}
  %broadcast.722 = bf16[16,2048]{1,0} broadcast(bf16[] %reshape.721), dimensions={}, metadata={op_type="aten__expand" op_name="aten__expand" source_file="/usr/local/lib/python3.10/site-packages/torch/_ops.py" source_line=756}
  %reshape.723 = bf16[16,16,128]{2,1,0} reshape(bf16[16,2048]{1,0} %broadcast.722), metadata={op_type="aten__view" op_name="aten__view" source_file="/usr/local/lib/python3.10/site-packages/torch/_ops.py" source_line=756}
  %reshape.724 = bf16[16,2048]{1,0} reshape(bf16[16,16,128]{2,1,0} %reshape.723), metadata={op_type="aten__view" op_name="aten__view" source_file="/usr/local/lib/python3.10/site-packages/torch/_ops.py" source_line=756}
  %p42.716 = bf16[1024,2048]{1,0} parameter(42), metadata={op_type="xla__device_data" op_name="xla__device_data" source_file="/usr/local/lib/python3.10/site-packages/torch_xla/_dynamo/dynamo_bridge.py" source_line=355}
  %transpose.717 = bf16[2048,1024]{0,1} transpose(bf16[1024,2048]{1,0} %p42.716), dimensions={1,0}, metadata={op_type="aten__permute" op_name="aten__permute" source_file="/usr/local/lib/python3.10/site-packages/torch/_ops.py" source_line=756}
  %dot.725 = bf16[16,1024]{1,0} dot(bf16[16,2048]{1,0} %reshape.724, bf16[2048,1024]{0,1} %transpose.717), lhs_contracting_dims={1}, rhs_contracting_dims={0}, metadata={op_type="aten__mm" op_name="aten__mm" source_file="/usr/local/lib/python3.10/site-packages/torch/_ops.py" source_line=756}
  %convert.726 = f32[16,1024]{1,0} convert(bf16[16,1024]{1,0} %dot.725), metadata={op_type="xla__cast" op_name="xla__cast" source_file="/usr/local/lib/python3.10/site-packages/torch/_ops.py" source_line=756}
  %constant.646 = bf16[] constant(0), metadata={op_type="prim__Constant" op_name="prim__Constant" source_file="/usr/local/lib/python3.10/site-packages/torch/_ops.py" source_line=756}
  %reshape.647 = bf16[1,1]{1,0} reshape(bf16[] %constant.646), metadata={op_type="aten__expand" op_name="aten__expand" source_file="/usr/local/lib/python3.10/site-packages/torch/_ops.py" source_line=756}
  %broadcast.648 = bf16[1,1]{1,0} broadcast(bf16[1,1]{1,0} %reshape.647), dimensions={0,1}, metadata={op_type="aten__expand" op_name="aten__expand" source_file="/usr/local/lib/python3.10/site-packages/torch/_ops.py" source_line=756}
  %reshape.649 = bf16[] reshape(bf16[1,1]{1,0} %broadcast.648), metadata={op_type="aten__expand" op_name="aten__expand" source_file="/usr/local/lib/python3.10/site-packages/torch/_ops.py" source_line=756}
  %broadcast.650 = bf16[16,2048]{1,0} broadcast(bf16[] %reshape.649), dimensions={}, metadata={op_type="aten__expand" op_name="aten__expand" source_file="/usr/local/lib/python3.10/site-packages/torch/_ops.py" source_line=756}
  %reshape.651 = bf16[16,16,128]{2,1,0} reshape(bf16[16,2048]{1,0} %broadcast.650), metadata={op_type="aten__view" op_name="aten__view" source_file="/usr/local/lib/python3.10/site-packages/torch/_ops.py" source_line=756}
  %reshape.652 = bf16[16,2048]{1,0} reshape(bf16[16,16,128]{2,1,0} %reshape.651), metadata={op_type="aten__view" op_name="aten__view" source_file="/usr/local/lib/python3.10/site-packages/torch/_ops.py" source_line=756}
  %p38.644 = bf16[1024,2048]{1,0} parameter(38), metadata={op_type="xla__device_data" op_name="xla__device_data" source_file="/usr/local/lib/python3.10/site-packages/torch_xla/_dynamo/dynamo_bridge.py" source_line=355}
  %transpose.645 = bf16[2048,1024]{0,1} transpose(bf16[1024,2048]{1,0} %p38.644), dimensions={1,0}, metadata={op_type="aten__permute" op_name="aten__permute" source_file="/usr/local/lib/python3.10/site-packages/torch/_ops.py" source_line=756}
  %dot.653 = bf16[16,1024]{1,0} dot(bf16[16,2048]{1,0} %reshape.652, bf16[2048,1024]{0,1} %transpose.645), lhs_contracting_dims={1}, rhs_contracting_dims={0}, metadata={op_type="aten__mm" op_name="aten__mm" source_file="/usr/local/lib/python3.10/site-packages/torch/_ops.py" source_line=756}
  %convert.654 = f32[16,1024]{1,0} convert(bf16[16,1024]{1,0} %dot.653), metadata={op_type="xla__cast" op_name="xla__cast" source_file="/usr/local/lib/python3.10/site-packages/torch/_ops.py" source_line=756}
  %constant.574 = bf16[] constant(0), metadata={op_type="prim__Constant" op_name="prim__Constant" source_file="/usr/local/lib/python3.10/site-packages/torch/_ops.py" source_line=756}
  %reshape.575 = bf16[1,1]{1,0} reshape(bf16[] %constant.574), metadata={op_type="aten__expand" op_name="aten__expand" source_file="/usr/local/lib/python3.10/site-packages/torch/_ops.py" source_line=756}
  %broadcast.576 = bf16[1,1]{1,0} broadcast(bf16[1,1]{1,0} %reshape.575), dimensions={0,1}, metadata={op_type="aten__expand" op_name="aten__expand" source_file="/usr/local/lib/python3.10/site-packages/torch/_ops.py" source_line=756}
  %reshape.577 = bf16[] reshape(bf16[1,1]{1,0} %broadcast.576), metadata={op_type="aten__expand" op_name="aten__expand" source_file="/usr/local/lib/python3.10/site-packages/torch/_ops.py" source_line=756}
  %broadcast.578 = bf16[16,2048]{1,0} broadcast(bf16[] %reshape.577), dimensions={}, metadata={op_type="aten__expand" op_name="aten__expand" source_file="/usr/local/lib/python3.10/site-packages/torch/_ops.py" source_line=756}
  %reshape.579 = bf16[16,16,128]{2,1,0} reshape(bf16[16,2048]{1,0} %broadcast.578), metadata={op_type="aten__view" op_name="aten__view" source_file="/usr/local/lib/python3.10/site-packages/torch/_ops.py" source_line=756}
  %reshape.580 = bf16[16,2048]{1,0} reshape(bf16[16,16,128]{2,1,0} %reshape.579), metadata={op_type="aten__view" op_name="aten__view" source_file="/usr/local/lib/python3.10/site-packages/torch/_ops.py" source_line=756}
  %p34.572 = bf16[1024,2048]{1,0} parameter(34), metadata={op_type="xla__device_data" op_name="xla__device_data" source_file="/usr/local/lib/python3.10/site-packages/torch_xla/_dynamo/dynamo_bridge.py" source_line=355}
  %transpose.573 = bf16[2048,1024]{0,1} transpose(bf16[1024,2048]{1,0} %p34.572), dimensions={1,0}, metadata={op_type="aten__permute" op_name="aten__permute" source_file="/usr/local/lib/python3.10/site-packages/torch/_ops.py" source_line=756}
  %dot.581 = bf16[16,1024]{1,0} dot(bf16[16,2048]{1,0} %reshape.580, bf16[2048,1024]{0,1} %transpose.573), lhs_contracting_dims={1}, rhs_contracting_dims={0}, metadata={op_type="aten__mm" op_name="aten__mm" source_file="/usr/local/lib/python3.10/site-packages/torch/_ops.py" source_line=756}
  %convert.582 = f32[16,1024]{1,0} convert(bf16[16,1024]{1,0} %dot.581), metadata={op_type="xla__cast" op_name="xla__cast" source_file="/usr/local/lib/python3.10/site-packages/torch/_ops.py" source_line=756}
  %constant.502 = bf16[] constant(0), metadata={op_type="prim__Constant" op_name="prim__Constant" source_file="/usr/local/lib/python3.10/site-packages/torch/_ops.py" source_line=756}
  %reshape.503 = bf16[1,1]{1,0} reshape(bf16[] %constant.502), metadata={op_type="aten__expand" op_name="aten__expand" source_file="/usr/local/lib/python3.10/site-packages/torch/_ops.py" source_line=756}
  %broadcast.504 = bf16[1,1]{1,0} broadcast(bf16[1,1]{1,0} %reshape.503), dimensions={0,1}, metadata={op_type="aten__expand" op_name="aten__expand" source_file="/usr/local/lib/python3.10/site-packages/torch/_ops.py" source_line=756}
  %reshape.505 = bf16[] reshape(bf16[1,1]{1,0} %broadcast.504), metadata={op_type="aten__expand" op_name="aten__expand" source_file="/usr/local/lib/python3.10/site-packages/torch/_ops.py" source_line=756}
  %broadcast.506 = bf16[16,2048]{1,0} broadcast(bf16[] %reshape.505), dimensions={}, metadata={op_type="aten__expand" op_name="aten__expand" source_file="/usr/local/lib/python3.10/site-packages/torch/_ops.py" source_line=756}
  %reshape.507 = bf16[16,16,128]{2,1,0} reshape(bf16[16,2048]{1,0} %broadcast.506), metadata={op_type="aten__view" op_name="aten__view" source_file="/usr/local/lib/python3.10/site-packages/torch/_ops.py" source_line=756}
  %reshape.508 = bf16[16,2048]{1,0} reshape(bf16[16,16,128]{2,1,0} %reshape.507), metadata={op_type="aten__view" op_name="aten__view" source_file="/usr/local/lib/python3.10/site-packages/torch/_ops.py" source_line=756}
  %p30.500 = bf16[1024,2048]{1,0} parameter(30), metadata={op_type="xla__device_data" op_name="xla__device_data" source_file="/usr/local/lib/python3.10/site-packages/torch_xla/_dynamo/dynamo_bridge.py" source_line=355}
  %transpose.501 = bf16[2048,1024]{0,1} transpose(bf16[1024,2048]{1,0} %p30.500), dimensions={1,0}, metadata={op_type="aten__permute" op_name="aten__permute" source_file="/usr/local/lib/python3.10/site-packages/torch/_ops.py" source_line=756}
  %dot.509 = bf16[16,1024]{1,0} dot(bf16[16,2048]{1,0} %reshape.508, bf16[2048,1024]{0,1} %transpose.501), lhs_contracting_dims={1}, rhs_contracting_dims={0}, metadata={op_type="aten__mm" op_name="aten__mm" source_file="/usr/local/lib/python3.10/site-packages/torch/_ops.py" source_line=756}
  %convert.510 = f32[16,1024]{1,0} convert(bf16[16,1024]{1,0} %dot.509), metadata={op_type="xla__cast" op_name="xla__cast" source_file="/usr/local/lib/python3.10/site-packages/torch/_ops.py" source_line=756}
  %constant.430 = bf16[] constant(0), metadata={op_type="prim__Constant" op_name="prim__Constant" source_file="/usr/local/lib/python3.10/site-packages/torch/_ops.py" source_line=756}
  %reshape.431 = bf16[1,1]{1,0} reshape(bf16[] %constant.430), metadata={op_type="aten__expand" op_name="aten__expand" source_file="/usr/local/lib/python3.10/site-packages/torch/_ops.py" source_line=756}
  %broadcast.432 = bf16[1,1]{1,0} broadcast(bf16[1,1]{1,0} %reshape.431), dimensions={0,1}, metadata={op_type="aten__expand" op_name="aten__expand" source_file="/usr/local/lib/python3.10/site-packages/torch/_ops.py" source_line=756}
  %reshape.433 = bf16[] reshape(bf16[1,1]{1,0} %broadcast.432), metadata={op_type="aten__expand" op_name="aten__expand" source_file="/usr/local/lib/python3.10/site-packages/torch/_ops.py" source_line=756}
  %broadcast.434 = bf16[16,2048]{1,0} broadcast(bf16[] %reshape.433), dimensions={}, metadata={op_type="aten__expand" op_name="aten__expand" source_file="/usr/local/lib/python3.10/site-packages/torch/_ops.py" source_line=756}
  %reshape.435 = bf16[16,16,128]{2,1,0} reshape(bf16[16,2048]{1,0} %broadcast.434), metadata={op_type="aten__view" op_name="aten__view" source_file="/usr/local/lib/python3.10/site-packages/torch/_ops.py" source_line=756}
  %reshape.436 = bf16[16,2048]{1,0} reshape(bf16[16,16,128]{2,1,0} %reshape.435), metadata={op_type="aten__view" op_name="aten__view" source_file="/usr/local/lib/python3.10/site-packages/torch/_ops.py" source_line=756}
  %p26.428 = bf16[1024,2048]{1,0} parameter(26), metadata={op_type="xla__device_data" op_name="xla__device_data" source_file="/usr/local/lib/python3.10/site-packages/torch_xla/_dynamo/dynamo_bridge.py" source_line=355}
  %transpose.429 = bf16[2048,1024]{0,1} transpose(bf16[1024,2048]{1,0} %p26.428), dimensions={1,0}, metadata={op_type="aten__permute" op_name="aten__permute" source_file="/usr/local/lib/python3.10/site-packages/torch/_ops.py" source_line=756}
  %dot.437 = bf16[16,1024]{1,0} dot(bf16[16,2048]{1,0} %reshape.436, bf16[2048,1024]{0,1} %transpose.429), lhs_contracting_dims={1}, rhs_contracting_dims={0}, metadata={op_type="aten__mm" op_name="aten__mm" source_file="/usr/local/lib/python3.10/site-packages/torch/_ops.py" source_line=756}
  %convert.438 = f32[16,1024]{1,0} convert(bf16[16,1024]{1,0} %dot.437), metadata={op_type="xla__cast" op_name="xla__cast" source_file="/usr/local/lib/python3.10/site-packages/torch/_ops.py" source_line=756}
  %constant.358 = bf16[] constant(0), metadata={op_type="prim__Constant" op_name="prim__Constant" source_file="/usr/local/lib/python3.10/site-packages/torch/_ops.py" source_line=756}
  %reshape.359 = bf16[1,1]{1,0} reshape(bf16[] %constant.358), metadata={op_type="aten__expand" op_name="aten__expand" source_file="/usr/local/lib/python3.10/site-packages/torch/_ops.py" source_line=756}
  %broadcast.360 = bf16[1,1]{1,0} broadcast(bf16[1,1]{1,0} %reshape.359), dimensions={0,1}, metadata={op_type="aten__expand" op_name="aten__expand" source_file="/usr/local/lib/python3.10/site-packages/torch/_ops.py" source_line=756}
  %reshape.361 = bf16[] reshape(bf16[1,1]{1,0} %broadcast.360), metadata={op_type="aten__expand" op_name="aten__expand" source_file="/usr/local/lib/python3.10/site-packages/torch/_ops.py" source_line=756}
  %broadcast.362 = bf16[16,2048]{1,0} broadcast(bf16[] %reshape.361), dimensions={}, metadata={op_type="aten__expand" op_name="aten__expand" source_file="/usr/local/lib/python3.10/site-packages/torch/_ops.py" source_line=756}
  %reshape.363 = bf16[16,16,128]{2,1,0} reshape(bf16[16,2048]{1,0} %broadcast.362), metadata={op_type="aten__view" op_name="aten__view" source_file="/usr/local/lib/python3.10/site-packages/torch/_ops.py" source_line=756}
  %reshape.364 = bf16[16,2048]{1,0} reshape(bf16[16,16,128]{2,1,0} %reshape.363), metadata={op_type="aten__view" op_name="aten__view" source_file="/usr/local/lib/python3.10/site-packages/torch/_ops.py" source_line=756}
  %p22.356 = bf16[1024,2048]{1,0} parameter(22), metadata={op_type="xla__device_data" op_name="xla__device_data" source_file="/usr/local/lib/python3.10/site-packages/torch_xla/_dynamo/dynamo_bridge.py" source_line=355}
  %transpose.357 = bf16[2048,1024]{0,1} transpose(bf16[1024,2048]{1,0} %p22.356), dimensions={1,0}, metadata={op_type="aten__permute" op_name="aten__permute" source_file="/usr/local/lib/python3.10/site-packages/torch/_ops.py" source_line=756}
  %dot.365 = bf16[16,1024]{1,0} dot(bf16[16,2048]{1,0} %reshape.364, bf16[2048,1024]{0,1} %transpose.357), lhs_contracting_dims={1}, rhs_contracting_dims={0}, metadata={op_type="aten__mm" op_name="aten__mm" source_file="/usr/local/lib/python3.10/site-packages/torch/_ops.py" source_line=756}
  %convert.366 = f32[16,1024]{1,0} convert(bf16[16,1024]{1,0} %dot.365), metadata={op_type="xla__cast" op_name="xla__cast" source_file="/usr/local/lib/python3.10/site-packages/torch/_ops.py" source_line=756}
  %constant.286 = bf16[] constant(0), metadata={op_type="prim__Constant" op_name="prim__Constant" source_file="/usr/local/lib/python3.10/site-packages/torch/_ops.py" source_line=756}
  %reshape.287 = bf16[1,1]{1,0} reshape(bf16[] %constant.286), metadata={op_type="aten__expand" op_name="aten__expand" source_file="/usr/local/lib/python3.10/site-packages/torch/_ops.py" source_line=756}
  %broadcast.288 = bf16[1,1]{1,0} broadcast(bf16[1,1]{1,0} %reshape.287), dimensions={0,1}, metadata={op_type="aten__expand" op_name="aten__expand" source_file="/usr/local/lib/python3.10/site-packages/torch/_ops.py" source_line=756}
  %reshape.289 = bf16[] reshape(bf16[1,1]{1,0} %broadcast.288), metadata={op_type="aten__expand" op_name="aten__expand" source_file="/usr/local/lib/python3.10/site-packages/torch/_ops.py" source_line=756}
  %broadcast.290 = bf16[16,2048]{1,0} broadcast(bf16[] %reshape.289), dimensions={}, metadata={op_type="aten__expand" op_name="aten__expand" source_file="/usr/local/lib/python3.10/site-packages/torch/_ops.py" source_line=756}
  %reshape.291 = bf16[16,16,128]{2,1,0} reshape(bf16[16,2048]{1,0} %broadcast.290), metadata={op_type="aten__view" op_name="aten__view" source_file="/usr/local/lib/python3.10/site-packages/torch/_ops.py" source_line=756}
  %reshape.292 = bf16[16,2048]{1,0} reshape(bf16[16,16,128]{2,1,0} %reshape.291), metadata={op_type="aten__view" op_name="aten__view" source_file="/usr/local/lib/python3.10/site-packages/torch/_ops.py" source_line=756}
  %p18.284 = bf16[1024,2048]{1,0} parameter(18), metadata={op_type="xla__device_data" op_name="xla__device_data" source_file="/usr/local/lib/python3.10/site-packages/torch_xla/_dynamo/dynamo_bridge.py" source_line=355}
  %transpose.285 = bf16[2048,1024]{0,1} transpose(bf16[1024,2048]{1,0} %p18.284), dimensions={1,0}, metadata={op_type="aten__permute" op_name="aten__permute" source_file="/usr/local/lib/python3.10/site-packages/torch/_ops.py" source_line=756}
  %dot.293 = bf16[16,1024]{1,0} dot(bf16[16,2048]{1,0} %reshape.292, bf16[2048,1024]{0,1} %transpose.285), lhs_contracting_dims={1}, rhs_contracting_dims={0}, metadata={op_type="aten__mm" op_name="aten__mm" source_file="/usr/local/lib/python3.10/site-packages/torch/_ops.py" source_line=756}
  %convert.294 = f32[16,1024]{1,0} convert(bf16[16,1024]{1,0} %dot.293), metadata={op_type="xla__cast" op_name="xla__cast" source_file="/usr/local/lib/python3.10/site-packages/torch/_ops.py" source_line=756}
  %constant.214 = bf16[] constant(0), metadata={op_type="prim__Constant" op_name="prim__Constant" source_file="/usr/local/lib/python3.10/site-packages/torch/_ops.py" source_line=756}
  %reshape.215 = bf16[1,1]{1,0} reshape(bf16[] %constant.214), metadata={op_type="aten__expand" op_name="aten__expand" source_file="/usr/local/lib/python3.10/site-packages/torch/_ops.py" source_line=756}
  %broadcast.216 = bf16[1,1]{1,0} broadcast(bf16[1,1]{1,0} %reshape.215), dimensions={0,1}, metadata={op_type="aten__expand" op_name="aten__expand" source_file="/usr/local/lib/python3.10/site-packages/torch/_ops.py" source_line=756}
  %reshape.217 = bf16[] reshape(bf16[1,1]{1,0} %broadcast.216), metadata={op_type="aten__expand" op_name="aten__expand" source_file="/usr/local/lib/python3.10/site-packages/torch/_ops.py" source_line=756}
  %broadcast.218 = bf16[16,2048]{1,0} broadcast(bf16[] %reshape.217), dimensions={}, metadata={op_type="aten__expand" op_name="aten__expand" source_file="/usr/local/lib/python3.10/site-packages/torch/_ops.py" source_line=756}
  %reshape.219 = bf16[16,16,128]{2,1,0} reshape(bf16[16,2048]{1,0} %broadcast.218), metadata={op_type="aten__view" op_name="aten__view" source_file="/usr/local/lib/python3.10/site-packages/torch/_ops.py" source_line=756}
  %reshape.220 = bf16[16,2048]{1,0} reshape(bf16[16,16,128]{2,1,0} %reshape.219), metadata={op_type="aten__view" op_name="aten__view" source_file="/usr/local/lib/python3.10/site-packages/torch/_ops.py" source_line=756}
  %p14.212 = bf16[1024,2048]{1,0} parameter(14), metadata={op_type="xla__device_data" op_name="xla__device_data" source_file="/usr/local/lib/python3.10/site-packages/torch_xla/_dynamo/dynamo_bridge.py" source_line=355}
  %transpose.213 = bf16[2048,1024]{0,1} transpose(bf16[1024,2048]{1,0} %p14.212), dimensions={1,0}, metadata={op_type="aten__permute" op_name="aten__permute" source_file="/usr/local/lib/python3.10/site-packages/torch/_ops.py" source_line=756}
  %dot.221 = bf16[16,1024]{1,0} dot(bf16[16,2048]{1,0} %reshape.220, bf16[2048,1024]{0,1} %transpose.213), lhs_contracting_dims={1}, rhs_contracting_dims={0}, metadata={op_type="aten__mm" op_name="aten__mm" source_file="/usr/local/lib/python3.10/site-packages/torch/_ops.py" source_line=756}
  %convert.222 = f32[16,1024]{1,0} convert(bf16[16,1024]{1,0} %dot.221), metadata={op_type="xla__cast" op_name="xla__cast" source_file="/usr/local/lib/python3.10/site-packages/torch/_ops.py" source_line=756}
  %constant.142 = bf16[] constant(0), metadata={op_type="prim__Constant" op_name="prim__Constant" source_file="/usr/local/lib/python3.10/site-packages/torch/_ops.py" source_line=756}
  %reshape.143 = bf16[1,1]{1,0} reshape(bf16[] %constant.142), metadata={op_type="aten__expand" op_name="aten__expand" source_file="/usr/local/lib/python3.10/site-packages/torch/_ops.py" source_line=756}
  %broadcast.144 = bf16[1,1]{1,0} broadcast(bf16[1,1]{1,0} %reshape.143), dimensions={0,1}, metadata={op_type="aten__expand" op_name="aten__expand" source_file="/usr/local/lib/python3.10/site-packages/torch/_ops.py" source_line=756}
  %reshape.145 = bf16[] reshape(bf16[1,1]{1,0} %broadcast.144), metadata={op_type="aten__expand" op_name="aten__expand" source_file="/usr/local/lib/python3.10/site-packages/torch/_ops.py" source_line=756}
  %broadcast.146 = bf16[16,2048]{1,0} broadcast(bf16[] %reshape.145), dimensions={}, metadata={op_type="aten__expand" op_name="aten__expand" source_file="/usr/local/lib/python3.10/site-packages/torch/_ops.py" source_line=756}
  %reshape.147 = bf16[16,16,128]{2,1,0} reshape(bf16[16,2048]{1,0} %broadcast.146), metadata={op_type="aten__view" op_name="aten__view" source_file="/usr/local/lib/python3.10/site-packages/torch/_ops.py" source_line=756}
  %reshape.148 = bf16[16,2048]{1,0} reshape(bf16[16,16,128]{2,1,0} %reshape.147), metadata={op_type="aten__view" op_name="aten__view" source_file="/usr/local/lib/python3.10/site-packages/torch/_ops.py" source_line=756}
  %p10.140 = bf16[1024,2048]{1,0} parameter(10), metadata={op_type="xla__device_data" op_name="xla__device_data" source_file="/usr/local/lib/python3.10/site-packages/torch_xla/_dynamo/dynamo_bridge.py" source_line=355}
  %transpose.141 = bf16[2048,1024]{0,1} transpose(bf16[1024,2048]{1,0} %p10.140), dimensions={1,0}, metadata={op_type="aten__permute" op_name="aten__permute" source_file="/usr/local/lib/python3.10/site-packages/torch/_ops.py" source_line=756}
  %dot.149 = bf16[16,1024]{1,0} dot(bf16[16,2048]{1,0} %reshape.148, bf16[2048,1024]{0,1} %transpose.141), lhs_contracting_dims={1}, rhs_contracting_dims={0}, metadata={op_type="aten__mm" op_name="aten__mm" source_file="/usr/local/lib/python3.10/site-packages/torch/_ops.py" source_line=756}
  %convert.150 = f32[16,1024]{1,0} convert(bf16[16,1024]{1,0} %dot.149), metadata={op_type="xla__cast" op_name="xla__cast" source_file="/usr/local/lib/python3.10/site-packages/torch/_ops.py" source_line=756}
  %constant.70 = bf16[] constant(0), metadata={op_type="prim__Constant" op_name="prim__Constant" source_file="/usr/local/lib/python3.10/site-packages/torch/_ops.py" source_line=756}
  %reshape.71 = bf16[1,1]{1,0} reshape(bf16[] %constant.70), metadata={op_type="aten__expand" op_name="aten__expand" source_file="/usr/local/lib/python3.10/site-packages/torch/_ops.py" source_line=756}
  %broadcast.72 = bf16[1,1]{1,0} broadcast(bf16[1,1]{1,0} %reshape.71), dimensions={0,1}, metadata={op_type="aten__expand" op_name="aten__expand" source_file="/usr/local/lib/python3.10/site-packages/torch/_ops.py" source_line=756}
  %reshape.73 = bf16[] reshape(bf16[1,1]{1,0} %broadcast.72), metadata={op_type="aten__expand" op_name="aten__expand" source_file="/usr/local/lib/python3.10/site-packages/torch/_ops.py" source_line=756}
  %broadcast.74 = bf16[16,2048]{1,0} broadcast(bf16[] %reshape.73), dimensions={}, metadata={op_type="aten__expand" op_name="aten__expand" source_file="/usr/local/lib/python3.10/site-packages/torch/_ops.py" source_line=756}
  %reshape.75 = bf16[16,16,128]{2,1,0} reshape(bf16[16,2048]{1,0} %broadcast.74), metadata={op_type="aten__view" op_name="aten__view" source_file="/usr/local/lib/python3.10/site-packages/torch/_ops.py" source_line=756}
  %reshape.76 = bf16[16,2048]{1,0} reshape(bf16[16,16,128]{2,1,0} %reshape.75), metadata={op_type="aten__view" op_name="aten__view" source_file="/usr/local/lib/python3.10/site-packages/torch/_ops.py" source_line=756}
  %p6.68 = bf16[1024,2048]{1,0} parameter(6), metadata={op_type="xla__device_data" op_name="xla__device_data" source_file="/usr/local/lib/python3.10/site-packages/torch_xla/_dynamo/dynamo_bridge.py" source_line=355}
  %transpose.69 = bf16[2048,1024]{0,1} transpose(bf16[1024,2048]{1,0} %p6.68), dimensions={1,0}, metadata={op_type="aten__permute" op_name="aten__permute" source_file="/usr/local/lib/python3.10/site-packages/torch/_ops.py" source_line=756}
  %dot.77 = bf16[16,1024]{1,0} dot(bf16[16,2048]{1,0} %reshape.76, bf16[2048,1024]{0,1} %transpose.69), lhs_contracting_dims={1}, rhs_contracting_dims={0}, metadata={op_type="aten__mm" op_name="aten__mm" source_file="/usr/local/lib/python3.10/site-packages/torch/_ops.py" source_line=756}
  %convert.78 = f32[16,1024]{1,0} convert(bf16[16,1024]{1,0} %dot.77), metadata={op_type="xla__cast" op_name="xla__cast" source_file="/usr/local/lib/python3.10/site-packages/torch/_ops.py" source_line=756}
  %p5.64 = bf16[151936,1024]{1,0} parameter(5), metadata={op_type="xla__device_data" op_name="xla__device_data" source_file="/usr/local/lib/python3.10/site-packages/torch_xla/_dynamo/dynamo_bridge.py" source_line=355}
  %p4.62 = s32[16]{0} parameter(4), metadata={op_type="xla__device_data" op_name="xla__device_data" source_file="/usr/local/lib/python3.10/site-packages/torch_xla/_dynamo/dynamo_bridge.py" source_line=355}
  %convert.63 = s64[16]{0} convert(s32[16]{0} %p4.62), metadata={op_type="xla__cast" op_name="xla__cast" source_file="/usr/local/lib/python3.10/site-packages/torch/_ops.py" source_line=756}
  %convert.65 = u32[16]{0} convert(s64[16]{0} %convert.63), metadata={op_type="aten__index_select" op_name="aten__index_select" source_file="/usr/local/lib/python3.10/site-packages/torch/_ops.py" source_line=756}
  %gather.66 = bf16[16,1024]{1,0} gather(bf16[151936,1024]{1,0} %p5.64, u32[16]{0} %convert.65), offset_dims={1}, collapsed_slice_dims={0}, start_index_map={0}, index_vector_dim=1, slice_sizes={1,1024}, metadata={op_type="aten__index_select" op_name="aten__index_select" source_file="/usr/local/lib/python3.10/site-packages/torch/_ops.py" source_line=756}
  %convert.67 = f32[16,1024]{1,0} convert(bf16[16,1024]{1,0} %gather.66), metadata={op_type="xla__cast" op_name="xla__cast" source_file="/usr/local/lib/python3.10/site-packages/torch/_ops.py" source_line=756}
  %constant.61 = f32[] constant(1), metadata={op_type="prim__Constant" op_name="prim__Constant" source_file="/usr/local/lib/python3.10/site-packages/torch/_ops.py" source_line=756}
  %broadcast.79 = f32[16,1024]{1,0} broadcast(f32[] %constant.61), dimensions={}, metadata={op_type="aten__add" op_name="aten__add.13/aten__add" source_file="/usr/local/lib/python3.10/site-packages/torch/_ops.py" source_line=756}
  %multiply.80 = f32[16,1024]{1,0} multiply(f32[16,1024]{1,0} %convert.67, f32[16,1024]{1,0} %broadcast.79), metadata={op_type="aten__add" op_name="aten__add.13/aten__add" source_file="/usr/local/lib/python3.10/site-packages/torch/_ops.py" source_line=756}
  %add.81 = f32[16,1024]{1,0} add(f32[16,1024]{1,0} %convert.78, f32[16,1024]{1,0} %multiply.80), metadata={op_type="aten__add" op_name="aten__add.13/aten__add" source_file="/usr/local/lib/python3.10/site-packages/torch/_ops.py" source_line=756}
  %constant.91 = f32[] constant(2), metadata={op_type="prim__Constant" op_name="prim__Constant" source_file="/usr/local/lib/python3.10/site-packages/torch/_ops.py" source_line=756}
  %broadcast.92 = f32[16,1024]{1,0} broadcast(f32[] %constant.91), dimensions={}, metadata={op_type="aten__pow" op_name="aten__pow" source_file="/usr/local/lib/python3.10/site-packages/torch/_ops.py" source_line=756}
  %power.93 = f32[16,1024]{1,0} power(f32[16,1024]{1,0} %add.81, f32[16,1024]{1,0} %broadcast.92), metadata={op_type="aten__pow" op_name="aten__pow" source_file="/usr/local/lib/python3.10/site-packages/torch/_ops.py" source_line=756}
  %constant.94 = f32[] constant(0), metadata={op_type="aten__mean" op_name="aten__mean" source_file="/usr/local/lib/python3.10/site-packages/torch/_ops.py" source_line=756}
  %reduce.100 = f32[16]{0} reduce(f32[16,1024]{1,0} %power.93, f32[] %constant.94), dimensions={1}, to_apply=%AddComputation.96, metadata={op_type="aten__mean" op_name="aten__mean" source_file="/usr/local/lib/python3.10/site-packages/torch/_ops.py" source_line=756}
  %constant.95 = s32[] constant(1024), metadata={op_type="aten__mean" op_name="aten__mean" source_file="/usr/local/lib/python3.10/site-packages/torch/_ops.py" source_line=756}
  %constant.101 = s32[] constant(0), metadata={op_type="aten__mean" op_name="aten__mean" source_file="/usr/local/lib/python3.10/site-packages/torch/_ops.py" source_line=756}
  %compare.106 = pred[] compare(s32[] %constant.95, s32[] %constant.101), direction=NE, metadata={op_type="aten__mean" op_name="aten__mean" source_file="/usr/local/lib/python3.10/site-packages/torch/_ops.py" source_line=756}
  %constant.102 = f32[] constant(1), metadata={op_type="aten__mean" op_name="aten__mean" source_file="/usr/local/lib/python3.10/site-packages/torch/_ops.py" source_line=756}
  %convert.104 = f32[] convert(s32[] %constant.95), metadata={op_type="aten__mean" op_name="aten__mean" source_file="/usr/local/lib/python3.10/site-packages/torch/_ops.py" source_line=756}
  %divide.105 = f32[] divide(f32[] %constant.102, f32[] %convert.104), metadata={op_type="aten__mean" op_name="aten__mean" source_file="/usr/local/lib/python3.10/site-packages/torch/_ops.py" source_line=756}
  %constant.103 = f32[] constant(nan), metadata={op_type="aten__mean" op_name="aten__mean" source_file="/usr/local/lib/python3.10/site-packages/torch/_ops.py" source_line=756}
  %select.107 = f32[] select(pred[] %compare.106, f32[] %divide.105, f32[] %constant.103), metadata={op_type="aten__mean" op_name="aten__mean" source_file="/usr/local/lib/python3.10/site-packages/torch/_ops.py" source_line=756}
  %broadcast.108 = f32[16]{0} broadcast(f32[] %select.107), dimensions={}, metadata={op_type="aten__mean" op_name="aten__mean" source_file="/usr/local/lib/python3.10/site-packages/torch/_ops.py" source_line=756}
  %multiply.109 = f32[16]{0} multiply(f32[16]{0} %reduce.100, f32[16]{0} %broadcast.108), metadata={op_type="aten__mean" op_name="aten__mean" source_file="/usr/local/lib/python3.10/site-packages/torch/_ops.py" source_line=756}
  %reshape.110 = f32[16,1]{1,0} reshape(f32[16]{0} %multiply.109), metadata={op_type="aten__mean" op_name="aten__mean" source_file="/usr/local/lib/python3.10/site-packages/torch/_ops.py" source_line=756}
  %convert.111 = f32[16,1]{1,0} convert(f32[16,1]{1,0} %reshape.110), metadata={op_type="aten__mean" op_name="aten__mean" source_file="/usr/local/lib/python3.10/site-packages/torch/_ops.py" source_line=756}
  %p1.4 = f32[] parameter(1), metadata={op_type="xla__device_data" op_name="xla__device_data" source_file="/usr/local/lib/python3.10/site-packages/torch/_ops.py" source_line=756}
  %constant.90 = f32[] constant(1), metadata={op_type="prim__Constant" op_name="prim__Constant" source_file="/usr/local/lib/python3.10/site-packages/torch/_ops.py" source_line=756}
  %multiply.112 = f32[] multiply(f32[] %p1.4, f32[] %constant.90), metadata={op_type="aten__add" op_name="aten__add.14/aten__add" source_file="/usr/local/lib/python3.10/site-packages/torch/_ops.py" source_line=756}
  %broadcast.113 = f32[16,1]{1,0} broadcast(f32[] %multiply.112), dimensions={}, metadata={op_type="aten__add" op_name="aten__add.14/aten__add" source_file="/usr/local/lib/python3.10/site-packages/torch/_ops.py" source_line=756}
  %add.114 = f32[16,1]{1,0} add(f32[16,1]{1,0} %convert.111, f32[16,1]{1,0} %broadcast.113), metadata={op_type="aten__add" op_name="aten__add.14/aten__add" source_file="/usr/local/lib/python3.10/site-packages/torch/_ops.py" source_line=756}
  %rsqrt.115 = f32[16,1]{1,0} rsqrt(f32[16,1]{1,0} %add.114), metadata={op_type="aten__rsqrt" op_name="aten__rsqrt" source_file="/usr/local/lib/python3.10/site-packages/torch/_ops.py" source_line=756}
  %reshape.116 = f32[16]{0} reshape(f32[16,1]{1,0} %rsqrt.115), metadata={op_type="aten__mul" op_name="aten__mul.15/aten__mul" source_file="/usr/local/lib/python3.10/site-packages/torch/_ops.py" source_line=756}
  %broadcast.117 = f32[16,1024]{1,0} broadcast(f32[16]{0} %reshape.116), dimensions={0}, metadata={op_type="aten__mul" op_name="aten__mul.15/aten__mul" source_file="/usr/local/lib/python3.10/site-packages/torch/_ops.py" source_line=756}
  %multiply.118 = f32[16,1024]{1,0} multiply(f32[16,1024]{1,0} %add.81, f32[16,1024]{1,0} %broadcast.117), metadata={op_type="aten__mul" op_name="aten__mul.15/aten__mul" source_file="/usr/local/lib/python3.10/site-packages/torch/_ops.py" source_line=756}
  %convert.119 = bf16[16,1024]{1,0} convert(f32[16,1024]{1,0} %multiply.118), metadata={op_type="xla__cast" op_name="xla__cast" source_file="/usr/local/lib/python3.10/site-packages/torch/_ops.py" source_line=756}
  %convert.120 = f32[16,1024]{1,0} convert(bf16[16,1024]{1,0} %convert.119), metadata={op_type="xla__cast" op_name="xla__cast" source_file="/usr/local/lib/python3.10/site-packages/torch/_ops.py" source_line=756}
  %p9.88 = bf16[1024]{0} parameter(9), metadata={op_type="xla__device_data" op_name="xla__device_data" source_file="/usr/local/lib/python3.10/site-packages/torch_xla/_dynamo/dynamo_bridge.py" source_line=355}
  %convert.89 = f32[1024]{0} convert(bf16[1024]{0} %p9.88), metadata={op_type="xla__cast" op_name="xla__cast" source_file="/usr/local/lib/python3.10/site-packages/torch/_ops.py" source_line=756}
  %broadcast.121 = f32[16,1024]{1,0} broadcast(f32[1024]{0} %convert.89), dimensions={1}, metadata={op_type="aten__mul" op_name="aten__mul.16/aten__mul" source_file="/usr/local/lib/python3.10/site-packages/torch/_ops.py" source_line=756}
  %multiply.122 = f32[16,1024]{1,0} multiply(f32[16,1024]{1,0} %convert.120, f32[16,1024]{1,0} %broadcast.121), metadata={op_type="aten__mul" op_name="aten__mul.16/aten__mul" source_file="/usr/local/lib/python3.10/site-packages/torch/_ops.py" source_line=756}
  %convert.123 = bf16[16,1024]{1,0} convert(f32[16,1024]{1,0} %multiply.122), metadata={op_type="xla__cast" op_name="xla__cast" source_file="/usr/local/lib/python3.10/site-packages/torch/_ops.py" source_line=756}
  %p8.86 = bf16[6144,1024]{1,0} parameter(8), metadata={op_type="xla__device_data" op_name="xla__device_data" source_file="/usr/local/lib/python3.10/site-packages/torch_xla/_dynamo/dynamo_bridge.py" source_line=355}
  %transpose.87 = bf16[1024,6144]{0,1} transpose(bf16[6144,1024]{1,0} %p8.86), dimensions={1,0}, metadata={op_type="aten__permute" op_name="aten__permute" source_file="/usr/local/lib/python3.10/site-packages/torch/_ops.py" source_line=756}
  %dot.124 = bf16[16,6144]{1,0} dot(bf16[16,1024]{1,0} %convert.123, bf16[1024,6144]{0,1} %transpose.87), lhs_contracting_dims={1}, rhs_contracting_dims={0}, metadata={op_type="aten__mm" op_name="aten__mm" source_file="/usr/local/lib/python3.10/site-packages/torch/_ops.py" source_line=756}
  %slice.127 = bf16[16,3072]{1,0} slice(bf16[16,6144]{1,0} %dot.124), slice={[0:16], [0:3072]}, metadata={op_type="xla__select" op_name="xla__select" source_file="/usr/local/lib/python3.10/site-packages/torch/_ops.py" source_line=756}
  %logistic.128 = bf16[16,3072]{1,0} logistic(bf16[16,3072]{1,0} %slice.127), metadata={op_type="aten__silu" op_name="aten__silu" source_file="/usr/local/lib/python3.10/site-packages/torch/_ops.py" source_line=756}
  %multiply.129 = bf16[16,3072]{1,0} multiply(bf16[16,3072]{1,0} %slice.127, bf16[16,3072]{1,0} %logistic.128), metadata={op_type="aten__silu" op_name="aten__silu" source_file="/usr/local/lib/python3.10/site-packages/torch/_ops.py" source_line=756}
  %convert.130 = f32[16,3072]{1,0} convert(bf16[16,3072]{1,0} %multiply.129), metadata={op_type="xla__cast" op_name="xla__cast" source_file="/usr/local/lib/python3.10/site-packages/torch/_ops.py" source_line=756}
  %slice.125 = bf16[16,3072]{1,0} slice(bf16[16,6144]{1,0} %dot.124), slice={[0:16], [3072:6144]}, metadata={op_type="xla__select" op_name="xla__select" source_file="/usr/local/lib/python3.10/site-packages/torch/_ops.py" source_line=756}
  %convert.126 = f32[16,3072]{1,0} convert(bf16[16,3072]{1,0} %slice.125), metadata={op_type="xla__cast" op_name="xla__cast" source_file="/usr/local/lib/python3.10/site-packages/torch/_ops.py" source_line=756}
  %multiply.131 = f32[16,3072]{1,0} multiply(f32[16,3072]{1,0} %convert.130, f32[16,3072]{1,0} %convert.126), metadata={op_type="aten__mul" op_name="aten__mul.17/aten__mul" source_file="/usr/local/lib/python3.10/site-packages/torch/_ops.py" source_line=756}
  %convert.132 = bf16[16,3072]{1,0} convert(f32[16,3072]{1,0} %multiply.131), metadata={op_type="xla__cast" op_name="xla__cast" source_file="/usr/local/lib/python3.10/site-packages/torch/_ops.py" source_line=756}
  %p7.84 = bf16[1024,3072]{1,0} parameter(7), metadata={op_type="xla__device_data" op_name="xla__device_data" source_file="/usr/local/lib/python3.10/site-packages/torch_xla/_dynamo/dynamo_bridge.py" source_line=355}
  %transpose.85 = bf16[3072,1024]{0,1} transpose(bf16[1024,3072]{1,0} %p7.84), dimensions={1,0}, metadata={op_type="aten__permute" op_name="aten__permute" source_file="/usr/local/lib/python3.10/site-packages/torch/_ops.py" source_line=756}
  %dot.133 = bf16[16,1024]{1,0} dot(bf16[16,3072]{1,0} %convert.132, bf16[3072,1024]{0,1} %transpose.85), lhs_contracting_dims={1}, rhs_contracting_dims={0}, metadata={op_type="aten__mm" op_name="aten__mm" source_file="/usr/local/lib/python3.10/site-packages/torch/_ops.py" source_line=756}
  %convert.134 = f32[16,1024]{1,0} convert(bf16[16,1024]{1,0} %dot.133), metadata={op_type="xla__cast" op_name="xla__cast" source_file="/usr/local/lib/python3.10/site-packages/torch/_ops.py" source_line=756}
  %convert.82 = bf16[16,1024]{1,0} convert(f32[16,1024]{1,0} %add.81), metadata={op_type="xla__cast" op_name="xla__cast" source_file="/usr/local/lib/python3.10/site-packages/torch/_ops.py" source_line=756}
  %convert.83 = f32[16,1024]{1,0} convert(bf16[16,1024]{1,0} %convert.82), metadata={op_type="xla__cast" op_name="xla__cast" source_file="/usr/local/lib/python3.10/site-packages/torch/_ops.py" source_line=756}
  %constant.60 = f32[] constant(1), metadata={op_type="prim__Constant" op_name="prim__Constant" source_file="/usr/local/lib/python3.10/site-packages/torch/_ops.py" source_line=756}
  %broadcast.135 = f32[16,1024]{1,0} broadcast(f32[] %constant.60), dimensions={}, metadata={op_type="aten__add" op_name="aten__add.18/aten__add" source_file="/usr/local/lib/python3.10/site-packages/torch/_ops.py" source_line=756}
  %multiply.136 = f32[16,1024]{1,0} multiply(f32[16,1024]{1,0} %convert.83, f32[16,1024]{1,0} %broadcast.135), metadata={op_type="aten__add" op_name="aten__add.18/aten__add" source_file="/usr/local/lib/python3.10/site-packages/torch/_ops.py" source_line=756}
  %add.137 = f32[16,1024]{1,0} add(f32[16,1024]{1,0} %convert.134, f32[16,1024]{1,0} %multiply.136), metadata={op_type="aten__add" op_name="aten__add.18/aten__add" source_file="/usr/local/lib/python3.10/site-packages/torch/_ops.py" source_line=756}
  %convert.138 = bf16[16,1024]{1,0} convert(f32[16,1024]{1,0} %add.137), metadata={op_type="xla__cast" op_name="xla__cast" source_file="/usr/local/lib/python3.10/site-packages/torch/_ops.py" source_line=756}
  %convert.139 = f32[16,1024]{1,0} convert(bf16[16,1024]{1,0} %convert.138), metadata={op_type="xla__cast" op_name="xla__cast" source_file="/usr/local/lib/python3.10/site-packages/torch/_ops.py" source_line=756}
  %constant.59 = f32[] constant(1), metadata={op_type="prim__Constant" op_name="prim__Constant" source_file="/usr/local/lib/python3.10/site-packages/torch/_ops.py" source_line=756}
  %broadcast.151 = f32[16,1024]{1,0} broadcast(f32[] %constant.59), dimensions={}, metadata={op_type="aten__add" op_name="aten__add.31/aten__add" source_file="/usr/local/lib/python3.10/site-packages/torch/_ops.py" source_line=756}
  %multiply.152 = f32[16,1024]{1,0} multiply(f32[16,1024]{1,0} %convert.139, f32[16,1024]{1,0} %broadcast.151), metadata={op_type="aten__add" op_name="aten__add.31/aten__add" source_file="/usr/local/lib/python3.10/site-packages/torch/_ops.py" source_line=756}
  %add.153 = f32[16,1024]{1,0} add(f32[16,1024]{1,0} %convert.150, f32[16,1024]{1,0} %multiply.152), metadata={op_type="aten__add" op_name="aten__add.31/aten__add" source_file="/usr/local/lib/python3.10/site-packages/torch/_ops.py" source_line=756}
  %constant.163 = f32[] constant(2), metadata={op_type="prim__Constant" op_name="prim__Constant" source_file="/usr/local/lib/python3.10/site-packages/torch/_ops.py" source_line=756}
  %broadcast.164 = f32[16,1024]{1,0} broadcast(f32[] %constant.163), dimensions={}, metadata={op_type="aten__pow" op_name="aten__pow" source_file="/usr/local/lib/python3.10/site-packages/torch/_ops.py" source_line=756}
  %power.165 = f32[16,1024]{1,0} power(f32[16,1024]{1,0} %add.153, f32[16,1024]{1,0} %broadcast.164), metadata={op_type="aten__pow" op_name="aten__pow" source_file="/usr/local/lib/python3.10/site-packages/torch/_ops.py" source_line=756}
  %constant.166 = f32[] constant(0), metadata={op_type="aten__mean" op_name="aten__mean" source_file="/usr/local/lib/python3.10/site-packages/torch/_ops.py" source_line=756}
  %reduce.172 = f32[16]{0} reduce(f32[16,1024]{1,0} %power.165, f32[] %constant.166), dimensions={1}, to_apply=%AddComputation.168, metadata={op_type="aten__mean" op_name="aten__mean" source_file="/usr/local/lib/python3.10/site-packages/torch/_ops.py" source_line=756}
  %constant.167 = s32[] constant(1024), metadata={op_type="aten__mean" op_name="aten__mean" source_file="/usr/local/lib/python3.10/site-packages/torch/_ops.py" source_line=756}
  %constant.173 = s32[] constant(0), metadata={op_type="aten__mean" op_name="aten__mean" source_file="/usr/local/lib/python3.10/site-packages/torch/_ops.py" source_line=756}
  %compare.178 = pred[] compare(s32[] %constant.167, s32[] %constant.173), direction=NE, metadata={op_type="aten__mean" op_name="aten__mean" source_file="/usr/local/lib/python3.10/site-packages/torch/_ops.py" source_line=756}
  %constant.174 = f32[] constant(1), metadata={op_type="aten__mean" op_name="aten__mean" source_file="/usr/local/lib/python3.10/site-packages/torch/_ops.py" source_line=756}
  %convert.176 = f32[] convert(s32[] %constant.167), metadata={op_type="aten__mean" op_name="aten__mean" source_file="/usr/local/lib/python3.10/site-packages/torch/_ops.py" source_line=756}
  %divide.177 = f32[] divide(f32[] %constant.174, f32[] %convert.176), metadata={op_type="aten__mean" op_name="aten__mean" source_file="/usr/local/lib/python3.10/site-packages/torch/_ops.py" source_line=756}
  %constant.175 = f32[] constant(nan), metadata={op_type="aten__mean" op_name="aten__mean" source_file="/usr/local/lib/python3.10/site-packages/torch/_ops.py" source_line=756}
  %select.179 = f32[] select(pred[] %compare.178, f32[] %divide.177, f32[] %constant.175), metadata={op_type="aten__mean" op_name="aten__mean" source_file="/usr/local/lib/python3.10/site-packages/torch/_ops.py" source_line=756}
  %broadcast.180 = f32[16]{0} broadcast(f32[] %select.179), dimensions={}, metadata={op_type="aten__mean" op_name="aten__mean" source_file="/usr/local/lib/python3.10/site-packages/torch/_ops.py" source_line=756}
  %multiply.181 = f32[16]{0} multiply(f32[16]{0} %reduce.172, f32[16]{0} %broadcast.180), metadata={op_type="aten__mean" op_name="aten__mean" source_file="/usr/local/lib/python3.10/site-packages/torch/_ops.py" source_line=756}
  %reshape.182 = f32[16,1]{1,0} reshape(f32[16]{0} %multiply.181), metadata={op_type="aten__mean" op_name="aten__mean" source_file="/usr/local/lib/python3.10/site-packages/torch/_ops.py" source_line=756}
  %convert.183 = f32[16,1]{1,0} convert(f32[16,1]{1,0} %reshape.182), metadata={op_type="aten__mean" op_name="aten__mean" source_file="/usr/local/lib/python3.10/site-packages/torch/_ops.py" source_line=756}
  %constant.162 = f32[] constant(1), metadata={op_type="prim__Constant" op_name="prim__Constant" source_file="/usr/local/lib/python3.10/site-packages/torch/_ops.py" source_line=756}
  %multiply.184 = f32[] multiply(f32[] %p1.4, f32[] %constant.162), metadata={op_type="aten__add" op_name="aten__add.32/aten__add" source_file="/usr/local/lib/python3.10/site-packages/torch/_ops.py" source_line=756}
  %broadcast.185 = f32[16,1]{1,0} broadcast(f32[] %multiply.184), dimensions={}, metadata={op_type="aten__add" op_name="aten__add.32/aten__add" source_file="/usr/local/lib/python3.10/site-packages/torch/_ops.py" source_line=756}
  %add.186 = f32[16,1]{1,0} add(f32[16,1]{1,0} %convert.183, f32[16,1]{1,0} %broadcast.185), metadata={op_type="aten__add" op_name="aten__add.32/aten__add" source_file="/usr/local/lib/python3.10/site-packages/torch/_ops.py" source_line=756}
  %rsqrt.187 = f32[16,1]{1,0} rsqrt(f32[16,1]{1,0} %add.186), metadata={op_type="aten__rsqrt" op_name="aten__rsqrt" source_file="/usr/local/lib/python3.10/site-packages/torch/_ops.py" source_line=756}
  %reshape.188 = f32[16]{0} reshape(f32[16,1]{1,0} %rsqrt.187), metadata={op_type="aten__mul" op_name="aten__mul.33/aten__mul" source_file="/usr/local/lib/python3.10/site-packages/torch/_ops.py" source_line=756}
  %broadcast.189 = f32[16,1024]{1,0} broadcast(f32[16]{0} %reshape.188), dimensions={0}, metadata={op_type="aten__mul" op_name="aten__mul.33/aten__mul" source_file="/usr/local/lib/python3.10/site-packages/torch/_ops.py" source_line=756}
  %multiply.190 = f32[16,1024]{1,0} multiply(f32[16,1024]{1,0} %add.153, f32[16,1024]{1,0} %broadcast.189), metadata={op_type="aten__mul" op_name="aten__mul.33/aten__mul" source_file="/usr/local/lib/python3.10/site-packages/torch/_ops.py" source_line=756}
  %convert.191 = bf16[16,1024]{1,0} convert(f32[16,1024]{1,0} %multiply.190), metadata={op_type="xla__cast" op_name="xla__cast" source_file="/usr/local/lib/python3.10/site-packages/torch/_ops.py" source_line=756}
  %convert.192 = f32[16,1024]{1,0} convert(bf16[16,1024]{1,0} %convert.191), metadata={op_type="xla__cast" op_name="xla__cast" source_file="/usr/local/lib/python3.10/site-packages/torch/_ops.py" source_line=756}
  %p13.160 = bf16[1024]{0} parameter(13), metadata={op_type="xla__device_data" op_name="xla__device_data" source_file="/usr/local/lib/python3.10/site-packages/torch_xla/_dynamo/dynamo_bridge.py" source_line=355}
  %convert.161 = f32[1024]{0} convert(bf16[1024]{0} %p13.160), metadata={op_type="xla__cast" op_name="xla__cast" source_file="/usr/local/lib/python3.10/site-packages/torch/_ops.py" source_line=756}
  %broadcast.193 = f32[16,1024]{1,0} broadcast(f32[1024]{0} %convert.161), dimensions={1}, metadata={op_type="aten__mul" op_name="aten__mul.34/aten__mul" source_file="/usr/local/lib/python3.10/site-packages/torch/_ops.py" source_line=756}
  %multiply.194 = f32[16,1024]{1,0} multiply(f32[16,1024]{1,0} %convert.192, f32[16,1024]{1,0} %broadcast.193), metadata={op_type="aten__mul" op_name="aten__mul.34/aten__mul" source_file="/usr/local/lib/python3.10/site-packages/torch/_ops.py" source_line=756}
  %convert.195 = bf16[16,1024]{1,0} convert(f32[16,1024]{1,0} %multiply.194), metadata={op_type="xla__cast" op_name="xla__cast" source_file="/usr/local/lib/python3.10/site-packages/torch/_ops.py" source_line=756}
  %p12.158 = bf16[6144,1024]{1,0} parameter(12), metadata={op_type="xla__device_data" op_name="xla__device_data" source_file="/usr/local/lib/python3.10/site-packages/torch_xla/_dynamo/dynamo_bridge.py" source_line=355}
  %transpose.159 = bf16[1024,6144]{0,1} transpose(bf16[6144,1024]{1,0} %p12.158), dimensions={1,0}, metadata={op_type="aten__permute" op_name="aten__permute" source_file="/usr/local/lib/python3.10/site-packages/torch/_ops.py" source_line=756}
  %dot.196 = bf16[16,6144]{1,0} dot(bf16[16,1024]{1,0} %convert.195, bf16[1024,6144]{0,1} %transpose.159), lhs_contracting_dims={1}, rhs_contracting_dims={0}, metadata={op_type="aten__mm" op_name="aten__mm" source_file="/usr/local/lib/python3.10/site-packages/torch/_ops.py" source_line=756}
  %slice.199 = bf16[16,3072]{1,0} slice(bf16[16,6144]{1,0} %dot.196), slice={[0:16], [0:3072]}, metadata={op_type="xla__select" op_name="xla__select" source_file="/usr/local/lib/python3.10/site-packages/torch/_ops.py" source_line=756}
  %logistic.200 = bf16[16,3072]{1,0} logistic(bf16[16,3072]{1,0} %slice.199), metadata={op_type="aten__silu" op_name="aten__silu" source_file="/usr/local/lib/python3.10/site-packages/torch/_ops.py" source_line=756}
  %multiply.201 = bf16[16,3072]{1,0} multiply(bf16[16,3072]{1,0} %slice.199, bf16[16,3072]{1,0} %logistic.200), metadata={op_type="aten__silu" op_name="aten__silu" source_file="/usr/local/lib/python3.10/site-packages/torch/_ops.py" source_line=756}
  %convert.202 = f32[16,3072]{1,0} convert(bf16[16,3072]{1,0} %multiply.201), metadata={op_type="xla__cast" op_name="xla__cast" source_file="/usr/local/lib/python3.10/site-packages/torch/_ops.py" source_line=756}
  %slice.197 = bf16[16,3072]{1,0} slice(bf16[16,6144]{1,0} %dot.196), slice={[0:16], [3072:6144]}, metadata={op_type="xla__select" op_name="xla__select" source_file="/usr/local/lib/python3.10/site-packages/torch/_ops.py" source_line=756}
  %convert.198 = f32[16,3072]{1,0} convert(bf16[16,3072]{1,0} %slice.197), metadata={op_type="xla__cast" op_name="xla__cast" source_file="/usr/local/lib/python3.10/site-packages/torch/_ops.py" source_line=756}
  %multiply.203 = f32[16,3072]{1,0} multiply(f32[16,3072]{1,0} %convert.202, f32[16,3072]{1,0} %convert.198), metadata={op_type="aten__mul" op_name="aten__mul.35/aten__mul" source_file="/usr/local/lib/python3.10/site-packages/torch/_ops.py" source_line=756}
  %convert.204 = bf16[16,3072]{1,0} convert(f32[16,3072]{1,0} %multiply.203), metadata={op_type="xla__cast" op_name="xla__cast" source_file="/usr/local/lib/python3.10/site-packages/torch/_ops.py" source_line=756}
  %p11.156 = bf16[1024,3072]{1,0} parameter(11), metadata={op_type="xla__device_data" op_name="xla__device_data" source_file="/usr/local/lib/python3.10/site-packages/torch_xla/_dynamo/dynamo_bridge.py" source_line=355}
  %transpose.157 = bf16[3072,1024]{0,1} transpose(bf16[1024,3072]{1,0} %p11.156), dimensions={1,0}, metadata={op_type="aten__permute" op_name="aten__permute" source_file="/usr/local/lib/python3.10/site-packages/torch/_ops.py" source_line=756}
  %dot.205 = bf16[16,1024]{1,0} dot(bf16[16,3072]{1,0} %convert.204, bf16[3072,1024]{0,1} %transpose.157), lhs_contracting_dims={1}, rhs_contracting_dims={0}, metadata={op_type="aten__mm" op_name="aten__mm" source_file="/usr/local/lib/python3.10/site-packages/torch/_ops.py" source_line=756}
  %convert.206 = f32[16,1024]{1,0} convert(bf16[16,1024]{1,0} %dot.205), metadata={op_type="xla__cast" op_name="xla__cast" source_file="/usr/local/lib/python3.10/site-packages/torch/_ops.py" source_line=756}
  %convert.154 = bf16[16,1024]{1,0} convert(f32[16,1024]{1,0} %add.153), metadata={op_type="xla__cast" op_name="xla__cast" source_file="/usr/local/lib/python3.10/site-packages/torch/_ops.py" source_line=756}
  %convert.155 = f32[16,1024]{1,0} convert(bf16[16,1024]{1,0} %convert.154), metadata={op_type="xla__cast" op_name="xla__cast" source_file="/usr/local/lib/python3.10/site-packages/torch/_ops.py" source_line=756}
  %constant.58 = f32[] constant(1), metadata={op_type="prim__Constant" op_name="prim__Constant" source_file="/usr/local/lib/python3.10/site-packages/torch/_ops.py" source_line=756}
  %broadcast.207 = f32[16,1024]{1,0} broadcast(f32[] %constant.58), dimensions={}, metadata={op_type="aten__add" op_name="aten__add.36/aten__add" source_file="/usr/local/lib/python3.10/site-packages/torch/_ops.py" source_line=756}
  %multiply.208 = f32[16,1024]{1,0} multiply(f32[16,1024]{1,0} %convert.155, f32[16,1024]{1,0} %broadcast.207), metadata={op_type="aten__add" op_name="aten__add.36/aten__add" source_file="/usr/local/lib/python3.10/site-packages/torch/_ops.py" source_line=756}
  %add.209 = f32[16,1024]{1,0} add(f32[16,1024]{1,0} %convert.206, f32[16,1024]{1,0} %multiply.208), metadata={op_type="aten__add" op_name="aten__add.36/aten__add" source_file="/usr/local/lib/python3.10/site-packages/torch/_ops.py" source_line=756}
  %convert.210 = bf16[16,1024]{1,0} convert(f32[16,1024]{1,0} %add.209), metadata={op_type="xla__cast" op_name="xla__cast" source_file="/usr/local/lib/python3.10/site-packages/torch/_ops.py" source_line=756}
  %convert.211 = f32[16,1024]{1,0} convert(bf16[16,1024]{1,0} %convert.210), metadata={op_type="xla__cast" op_name="xla__cast" source_file="/usr/local/lib/python3.10/site-packages/torch/_ops.py" source_line=756}
  %constant.57 = f32[] constant(1), metadata={op_type="prim__Constant" op_name="prim__Constant" source_file="/usr/local/lib/python3.10/site-packages/torch/_ops.py" source_line=756}
  %broadcast.223 = f32[16,1024]{1,0} broadcast(f32[] %constant.57), dimensions={}, metadata={op_type="aten__add" op_name="aten__add.49/aten__add" source_file="/usr/local/lib/python3.10/site-packages/torch/_ops.py" source_line=756}
  %multiply.224 = f32[16,1024]{1,0} multiply(f32[16,1024]{1,0} %convert.211, f32[16,1024]{1,0} %broadcast.223), metadata={op_type="aten__add" op_name="aten__add.49/aten__add" source_file="/usr/local/lib/python3.10/site-packages/torch/_ops.py" source_line=756}
  %add.225 = f32[16,1024]{1,0} add(f32[16,1024]{1,0} %convert.222, f32[16,1024]{1,0} %multiply.224), metadata={op_type="aten__add" op_name="aten__add.49/aten__add" source_file="/usr/local/lib/python3.10/site-packages/torch/_ops.py" source_line=756}
  %constant.235 = f32[] constant(2), metadata={op_type="prim__Constant" op_name="prim__Constant" source_file="/usr/local/lib/python3.10/site-packages/torch/_ops.py" source_line=756}
  %broadcast.236 = f32[16,1024]{1,0} broadcast(f32[] %constant.235), dimensions={}, metadata={op_type="aten__pow" op_name="aten__pow" source_file="/usr/local/lib/python3.10/site-packages/torch/_ops.py" source_line=756}
  %power.237 = f32[16,1024]{1,0} power(f32[16,1024]{1,0} %add.225, f32[16,1024]{1,0} %broadcast.236), metadata={op_type="aten__pow" op_name="aten__pow" source_file="/usr/local/lib/python3.10/site-packages/torch/_ops.py" source_line=756}
  %constant.238 = f32[] constant(0), metadata={op_type="aten__mean" op_name="aten__mean" source_file="/usr/local/lib/python3.10/site-packages/torch/_ops.py" source_line=756}
  %reduce.244 = f32[16]{0} reduce(f32[16,1024]{1,0} %power.237, f32[] %constant.238), dimensions={1}, to_apply=%AddComputation.240, metadata={op_type="aten__mean" op_name="aten__mean" source_file="/usr/local/lib/python3.10/site-packages/torch/_ops.py" source_line=756}
  %constant.239 = s32[] constant(1024), metadata={op_type="aten__mean" op_name="aten__mean" source_file="/usr/local/lib/python3.10/site-packages/torch/_ops.py" source_line=756}
  %constant.245 = s32[] constant(0), metadata={op_type="aten__mean" op_name="aten__mean" source_file="/usr/local/lib/python3.10/site-packages/torch/_ops.py" source_line=756}
  %compare.250 = pred[] compare(s32[] %constant.239, s32[] %constant.245), direction=NE, metadata={op_type="aten__mean" op_name="aten__mean" source_file="/usr/local/lib/python3.10/site-packages/torch/_ops.py" source_line=756}
  %constant.246 = f32[] constant(1), metadata={op_type="aten__mean" op_name="aten__mean" source_file="/usr/local/lib/python3.10/site-packages/torch/_ops.py" source_line=756}
  %convert.248 = f32[] convert(s32[] %constant.239), metadata={op_type="aten__mean" op_name="aten__mean" source_file="/usr/local/lib/python3.10/site-packages/torch/_ops.py" source_line=756}
  %divide.249 = f32[] divide(f32[] %constant.246, f32[] %convert.248), metadata={op_type="aten__mean" op_name="aten__mean" source_file="/usr/local/lib/python3.10/site-packages/torch/_ops.py" source_line=756}
  %constant.247 = f32[] constant(nan), metadata={op_type="aten__mean" op_name="aten__mean" source_file="/usr/local/lib/python3.10/site-packages/torch/_ops.py" source_line=756}
  %select.251 = f32[] select(pred[] %compare.250, f32[] %divide.249, f32[] %constant.247), metadata={op_type="aten__mean" op_name="aten__mean" source_file="/usr/local/lib/python3.10/site-packages/torch/_ops.py" source_line=756}
  %broadcast.252 = f32[16]{0} broadcast(f32[] %select.251), dimensions={}, metadata={op_type="aten__mean" op_name="aten__mean" source_file="/usr/local/lib/python3.10/site-packages/torch/_ops.py" source_line=756}
  %multiply.253 = f32[16]{0} multiply(f32[16]{0} %reduce.244, f32[16]{0} %broadcast.252), metadata={op_type="aten__mean" op_name="aten__mean" source_file="/usr/local/lib/python3.10/site-packages/torch/_ops.py" source_line=756}
  %reshape.254 = f32[16,1]{1,0} reshape(f32[16]{0} %multiply.253), metadata={op_type="aten__mean" op_name="aten__mean" source_file="/usr/local/lib/python3.10/site-packages/torch/_ops.py" source_line=756}
  %convert.255 = f32[16,1]{1,0} convert(f32[16,1]{1,0} %reshape.254), metadata={op_type="aten__mean" op_name="aten__mean" source_file="/usr/local/lib/python3.10/site-packages/torch/_ops.py" source_line=756}
  %constant.234 = f32[] constant(1), metadata={op_type="prim__Constant" op_name="prim__Constant" source_file="/usr/local/lib/python3.10/site-packages/torch/_ops.py" source_line=756}
  %multiply.256 = f32[] multiply(f32[] %p1.4, f32[] %constant.234), metadata={op_type="aten__add" op_name="aten__add.50/aten__add" source_file="/usr/local/lib/python3.10/site-packages/torch/_ops.py" source_line=756}
  %broadcast.257 = f32[16,1]{1,0} broadcast(f32[] %multiply.256), dimensions={}, metadata={op_type="aten__add" op_name="aten__add.50/aten__add" source_file="/usr/local/lib/python3.10/site-packages/torch/_ops.py" source_line=756}
  %add.258 = f32[16,1]{1,0} add(f32[16,1]{1,0} %convert.255, f32[16,1]{1,0} %broadcast.257), metadata={op_type="aten__add" op_name="aten__add.50/aten__add" source_file="/usr/local/lib/python3.10/site-packages/torch/_ops.py" source_line=756}
  %rsqrt.259 = f32[16,1]{1,0} rsqrt(f32[16,1]{1,0} %add.258), metadata={op_type="aten__rsqrt" op_name="aten__rsqrt" source_file="/usr/local/lib/python3.10/site-packages/torch/_ops.py" source_line=756}
  %reshape.260 = f32[16]{0} reshape(f32[16,1]{1,0} %rsqrt.259), metadata={op_type="aten__mul" op_name="aten__mul.51/aten__mul" source_file="/usr/local/lib/python3.10/site-packages/torch/_ops.py" source_line=756}
  %broadcast.261 = f32[16,1024]{1,0} broadcast(f32[16]{0} %reshape.260), dimensions={0}, metadata={op_type="aten__mul" op_name="aten__mul.51/aten__mul" source_file="/usr/local/lib/python3.10/site-packages/torch/_ops.py" source_line=756}
  %multiply.262 = f32[16,1024]{1,0} multiply(f32[16,1024]{1,0} %add.225, f32[16,1024]{1,0} %broadcast.261), metadata={op_type="aten__mul" op_name="aten__mul.51/aten__mul" source_file="/usr/local/lib/python3.10/site-packages/torch/_ops.py" source_line=756}
  %convert.263 = bf16[16,1024]{1,0} convert(f32[16,1024]{1,0} %multiply.262), metadata={op_type="xla__cast" op_name="xla__cast" source_file="/usr/local/lib/python3.10/site-packages/torch/_ops.py" source_line=756}
  %convert.264 = f32[16,1024]{1,0} convert(bf16[16,1024]{1,0} %convert.263), metadata={op_type="xla__cast" op_name="xla__cast" source_file="/usr/local/lib/python3.10/site-packages/torch/_ops.py" source_line=756}
  %p17.232 = bf16[1024]{0} parameter(17), metadata={op_type="xla__device_data" op_name="xla__device_data" source_file="/usr/local/lib/python3.10/site-packages/torch_xla/_dynamo/dynamo_bridge.py" source_line=355}
  %convert.233 = f32[1024]{0} convert(bf16[1024]{0} %p17.232), metadata={op_type="xla__cast" op_name="xla__cast" source_file="/usr/local/lib/python3.10/site-packages/torch/_ops.py" source_line=756}
  %broadcast.265 = f32[16,1024]{1,0} broadcast(f32[1024]{0} %convert.233), dimensions={1}, metadata={op_type="aten__mul" op_name="aten__mul.52/aten__mul" source_file="/usr/local/lib/python3.10/site-packages/torch/_ops.py" source_line=756}
  %multiply.266 = f32[16,1024]{1,0} multiply(f32[16,1024]{1,0} %convert.264, f32[16,1024]{1,0} %broadcast.265), metadata={op_type="aten__mul" op_name="aten__mul.52/aten__mul" source_file="/usr/local/lib/python3.10/site-packages/torch/_ops.py" source_line=756}
  %convert.267 = bf16[16,1024]{1,0} convert(f32[16,1024]{1,0} %multiply.266), metadata={op_type="xla__cast" op_name="xla__cast" source_file="/usr/local/lib/python3.10/site-packages/torch/_ops.py" source_line=756}
  %p16.230 = bf16[6144,1024]{1,0} parameter(16), metadata={op_type="xla__device_data" op_name="xla__device_data" source_file="/usr/local/lib/python3.10/site-packages/torch_xla/_dynamo/dynamo_bridge.py" source_line=355}
  %transpose.231 = bf16[1024,6144]{0,1} transpose(bf16[6144,1024]{1,0} %p16.230), dimensions={1,0}, metadata={op_type="aten__permute" op_name="aten__permute" source_file="/usr/local/lib/python3.10/site-packages/torch/_ops.py" source_line=756}
  %dot.268 = bf16[16,6144]{1,0} dot(bf16[16,1024]{1,0} %convert.267, bf16[1024,6144]{0,1} %transpose.231), lhs_contracting_dims={1}, rhs_contracting_dims={0}, metadata={op_type="aten__mm" op_name="aten__mm" source_file="/usr/local/lib/python3.10/site-packages/torch/_ops.py" source_line=756}
  %slice.271 = bf16[16,3072]{1,0} slice(bf16[16,6144]{1,0} %dot.268), slice={[0:16], [0:3072]}, metadata={op_type="xla__select" op_name="xla__select" source_file="/usr/local/lib/python3.10/site-packages/torch/_ops.py" source_line=756}
  %logistic.272 = bf16[16,3072]{1,0} logistic(bf16[16,3072]{1,0} %slice.271), metadata={op_type="aten__silu" op_name="aten__silu" source_file="/usr/local/lib/python3.10/site-packages/torch/_ops.py" source_line=756}
  %multiply.273 = bf16[16,3072]{1,0} multiply(bf16[16,3072]{1,0} %slice.271, bf16[16,3072]{1,0} %logistic.272), metadata={op_type="aten__silu" op_name="aten__silu" source_file="/usr/local/lib/python3.10/site-packages/torch/_ops.py" source_line=756}
  %convert.274 = f32[16,3072]{1,0} convert(bf16[16,3072]{1,0} %multiply.273), metadata={op_type="xla__cast" op_name="xla__cast" source_file="/usr/local/lib/python3.10/site-packages/torch/_ops.py" source_line=756}
  %slice.269 = bf16[16,3072]{1,0} slice(bf16[16,6144]{1,0} %dot.268), slice={[0:16], [3072:6144]}, metadata={op_type="xla__select" op_name="xla__select" source_file="/usr/local/lib/python3.10/site-packages/torch/_ops.py" source_line=756}
  %convert.270 = f32[16,3072]{1,0} convert(bf16[16,3072]{1,0} %slice.269), metadata={op_type="xla__cast" op_name="xla__cast" source_file="/usr/local/lib/python3.10/site-packages/torch/_ops.py" source_line=756}
  %multiply.275 = f32[16,3072]{1,0} multiply(f32[16,3072]{1,0} %convert.274, f32[16,3072]{1,0} %convert.270), metadata={op_type="aten__mul" op_name="aten__mul.53/aten__mul" source_file="/usr/local/lib/python3.10/site-packages/torch/_ops.py" source_line=756}
  %convert.276 = bf16[16,3072]{1,0} convert(f32[16,3072]{1,0} %multiply.275), metadata={op_type="xla__cast" op_name="xla__cast" source_file="/usr/local/lib/python3.10/site-packages/torch/_ops.py" source_line=756}
  %p15.228 = bf16[1024,3072]{1,0} parameter(15), metadata={op_type="xla__device_data" op_name="xla__device_data" source_file="/usr/local/lib/python3.10/site-packages/torch_xla/_dynamo/dynamo_bridge.py" source_line=355}
  %transpose.229 = bf16[3072,1024]{0,1} transpose(bf16[1024,3072]{1,0} %p15.228), dimensions={1,0}, metadata={op_type="aten__permute" op_name="aten__permute" source_file="/usr/local/lib/python3.10/site-packages/torch/_ops.py" source_line=756}
  %dot.277 = bf16[16,1024]{1,0} dot(bf16[16,3072]{1,0} %convert.276, bf16[3072,1024]{0,1} %transpose.229), lhs_contracting_dims={1}, rhs_contracting_dims={0}, metadata={op_type="aten__mm" op_name="aten__mm" source_file="/usr/local/lib/python3.10/site-packages/torch/_ops.py" source_line=756}
  %convert.278 = f32[16,1024]{1,0} convert(bf16[16,1024]{1,0} %dot.277), metadata={op_type="xla__cast" op_name="xla__cast" source_file="/usr/local/lib/python3.10/site-packages/torch/_ops.py" source_line=756}
  %convert.226 = bf16[16,1024]{1,0} convert(f32[16,1024]{1,0} %add.225), metadata={op_type="xla__cast" op_name="xla__cast" source_file="/usr/local/lib/python3.10/site-packages/torch/_ops.py" source_line=756}
  %convert.227 = f32[16,1024]{1,0} convert(bf16[16,1024]{1,0} %convert.226), metadata={op_type="xla__cast" op_name="xla__cast" source_file="/usr/local/lib/python3.10/site-packages/torch/_ops.py" source_line=756}
  %constant.56 = f32[] constant(1), metadata={op_type="prim__Constant" op_name="prim__Constant" source_file="/usr/local/lib/python3.10/site-packages/torch/_ops.py" source_line=756}
  %broadcast.279 = f32[16,1024]{1,0} broadcast(f32[] %constant.56), dimensions={}, metadata={op_type="aten__add" op_name="aten__add.54/aten__add" source_file="/usr/local/lib/python3.10/site-packages/torch/_ops.py" source_line=756}
  %multiply.280 = f32[16,1024]{1,0} multiply(f32[16,1024]{1,0} %convert.227, f32[16,1024]{1,0} %broadcast.279), metadata={op_type="aten__add" op_name="aten__add.54/aten__add" source_file="/usr/local/lib/python3.10/site-packages/torch/_ops.py" source_line=756}
  %add.281 = f32[16,1024]{1,0} add(f32[16,1024]{1,0} %convert.278, f32[16,1024]{1,0} %multiply.280), metadata={op_type="aten__add" op_name="aten__add.54/aten__add" source_file="/usr/local/lib/python3.10/site-packages/torch/_ops.py" source_line=756}
  %convert.282 = bf16[16,1024]{1,0} convert(f32[16,1024]{1,0} %add.281), metadata={op_type="xla__cast" op_name="xla__cast" source_file="/usr/local/lib/python3.10/site-packages/torch/_ops.py" source_line=756}
  %convert.283 = f32[16,1024]{1,0} convert(bf16[16,1024]{1,0} %convert.282), metadata={op_type="xla__cast" op_name="xla__cast" source_file="/usr/local/lib/python3.10/site-packages/torch/_ops.py" source_line=756}
  %constant.55 = f32[] constant(1), metadata={op_type="prim__Constant" op_name="prim__Constant" source_file="/usr/local/lib/python3.10/site-packages/torch/_ops.py" source_line=756}
  %broadcast.295 = f32[16,1024]{1,0} broadcast(f32[] %constant.55), dimensions={}, metadata={op_type="aten__add" op_name="aten__add.67/aten__add" source_file="/usr/local/lib/python3.10/site-packages/torch/_ops.py" source_line=756}
  %multiply.296 = f32[16,1024]{1,0} multiply(f32[16,1024]{1,0} %convert.283, f32[16,1024]{1,0} %broadcast.295), metadata={op_type="aten__add" op_name="aten__add.67/aten__add" source_file="/usr/local/lib/python3.10/site-packages/torch/_ops.py" source_line=756}
  %add.297 = f32[16,1024]{1,0} add(f32[16,1024]{1,0} %convert.294, f32[16,1024]{1,0} %multiply.296), metadata={op_type="aten__add" op_name="aten__add.67/aten__add" source_file="/usr/local/lib/python3.10/site-packages/torch/_ops.py" source_line=756}
  %constant.307 = f32[] constant(2), metadata={op_type="prim__Constant" op_name="prim__Constant" source_file="/usr/local/lib/python3.10/site-packages/torch/_ops.py" source_line=756}
  %broadcast.308 = f32[16,1024]{1,0} broadcast(f32[] %constant.307), dimensions={}, metadata={op_type="aten__pow" op_name="aten__pow" source_file="/usr/local/lib/python3.10/site-packages/torch/_ops.py" source_line=756}
  %power.309 = f32[16,1024]{1,0} power(f32[16,1024]{1,0} %add.297, f32[16,1024]{1,0} %broadcast.308), metadata={op_type="aten__pow" op_name="aten__pow" source_file="/usr/local/lib/python3.10/site-packages/torch/_ops.py" source_line=756}
  %constant.310 = f32[] constant(0), metadata={op_type="aten__mean" op_name="aten__mean" source_file="/usr/local/lib/python3.10/site-packages/torch/_ops.py" source_line=756}
  %reduce.316 = f32[16]{0} reduce(f32[16,1024]{1,0} %power.309, f32[] %constant.310), dimensions={1}, to_apply=%AddComputation.312, metadata={op_type="aten__mean" op_name="aten__mean" source_file="/usr/local/lib/python3.10/site-packages/torch/_ops.py" source_line=756}
  %constant.311 = s32[] constant(1024), metadata={op_type="aten__mean" op_name="aten__mean" source_file="/usr/local/lib/python3.10/site-packages/torch/_ops.py" source_line=756}
  %constant.317 = s32[] constant(0), metadata={op_type="aten__mean" op_name="aten__mean" source_file="/usr/local/lib/python3.10/site-packages/torch/_ops.py" source_line=756}
  %compare.322 = pred[] compare(s32[] %constant.311, s32[] %constant.317), direction=NE, metadata={op_type="aten__mean" op_name="aten__mean" source_file="/usr/local/lib/python3.10/site-packages/torch/_ops.py" source_line=756}
  %constant.318 = f32[] constant(1), metadata={op_type="aten__mean" op_name="aten__mean" source_file="/usr/local/lib/python3.10/site-packages/torch/_ops.py" source_line=756}
  %convert.320 = f32[] convert(s32[] %constant.311), metadata={op_type="aten__mean" op_name="aten__mean" source_file="/usr/local/lib/python3.10/site-packages/torch/_ops.py" source_line=756}
  %divide.321 = f32[] divide(f32[] %constant.318, f32[] %convert.320), metadata={op_type="aten__mean" op_name="aten__mean" source_file="/usr/local/lib/python3.10/site-packages/torch/_ops.py" source_line=756}
  %constant.319 = f32[] constant(nan), metadata={op_type="aten__mean" op_name="aten__mean" source_file="/usr/local/lib/python3.10/site-packages/torch/_ops.py" source_line=756}
  %select.323 = f32[] select(pred[] %compare.322, f32[] %divide.321, f32[] %constant.319), metadata={op_type="aten__mean" op_name="aten__mean" source_file="/usr/local/lib/python3.10/site-packages/torch/_ops.py" source_line=756}
  %broadcast.324 = f32[16]{0} broadcast(f32[] %select.323), dimensions={}, metadata={op_type="aten__mean" op_name="aten__mean" source_file="/usr/local/lib/python3.10/site-packages/torch/_ops.py" source_line=756}
  %multiply.325 = f32[16]{0} multiply(f32[16]{0} %reduce.316, f32[16]{0} %broadcast.324), metadata={op_type="aten__mean" op_name="aten__mean" source_file="/usr/local/lib/python3.10/site-packages/torch/_ops.py" source_line=756}
  %reshape.326 = f32[16,1]{1,0} reshape(f32[16]{0} %multiply.325), metadata={op_type="aten__mean" op_name="aten__mean" source_file="/usr/local/lib/python3.10/site-packages/torch/_ops.py" source_line=756}
  %convert.327 = f32[16,1]{1,0} convert(f32[16,1]{1,0} %reshape.326), metadata={op_type="aten__mean" op_name="aten__mean" source_file="/usr/local/lib/python3.10/site-packages/torch/_ops.py" source_line=756}
  %constant.306 = f32[] constant(1), metadata={op_type="prim__Constant" op_name="prim__Constant" source_file="/usr/local/lib/python3.10/site-packages/torch/_ops.py" source_line=756}
  %multiply.328 = f32[] multiply(f32[] %p1.4, f32[] %constant.306), metadata={op_type="aten__add" op_name="aten__add.68/aten__add" source_file="/usr/local/lib/python3.10/site-packages/torch/_ops.py" source_line=756}
  %broadcast.329 = f32[16,1]{1,0} broadcast(f32[] %multiply.328), dimensions={}, metadata={op_type="aten__add" op_name="aten__add.68/aten__add" source_file="/usr/local/lib/python3.10/site-packages/torch/_ops.py" source_line=756}
  %add.330 = f32[16,1]{1,0} add(f32[16,1]{1,0} %convert.327, f32[16,1]{1,0} %broadcast.329), metadata={op_type="aten__add" op_name="aten__add.68/aten__add" source_file="/usr/local/lib/python3.10/site-packages/torch/_ops.py" source_line=756}
  %rsqrt.331 = f32[16,1]{1,0} rsqrt(f32[16,1]{1,0} %add.330), metadata={op_type="aten__rsqrt" op_name="aten__rsqrt" source_file="/usr/local/lib/python3.10/site-packages/torch/_ops.py" source_line=756}
  %reshape.332 = f32[16]{0} reshape(f32[16,1]{1,0} %rsqrt.331), metadata={op_type="aten__mul" op_name="aten__mul.69/aten__mul" source_file="/usr/local/lib/python3.10/site-packages/torch/_ops.py" source_line=756}
  %broadcast.333 = f32[16,1024]{1,0} broadcast(f32[16]{0} %reshape.332), dimensions={0}, metadata={op_type="aten__mul" op_name="aten__mul.69/aten__mul" source_file="/usr/local/lib/python3.10/site-packages/torch/_ops.py" source_line=756}
  %multiply.334 = f32[16,1024]{1,0} multiply(f32[16,1024]{1,0} %add.297, f32[16,1024]{1,0} %broadcast.333), metadata={op_type="aten__mul" op_name="aten__mul.69/aten__mul" source_file="/usr/local/lib/python3.10/site-packages/torch/_ops.py" source_line=756}
  %convert.335 = bf16[16,1024]{1,0} convert(f32[16,1024]{1,0} %multiply.334), metadata={op_type="xla__cast" op_name="xla__cast" source_file="/usr/local/lib/python3.10/site-packages/torch/_ops.py" source_line=756}
  %convert.336 = f32[16,1024]{1,0} convert(bf16[16,1024]{1,0} %convert.335), metadata={op_type="xla__cast" op_name="xla__cast" source_file="/usr/local/lib/python3.10/site-packages/torch/_ops.py" source_line=756}
  %p21.304 = bf16[1024]{0} parameter(21), metadata={op_type="xla__device_data" op_name="xla__device_data" source_file="/usr/local/lib/python3.10/site-packages/torch_xla/_dynamo/dynamo_bridge.py" source_line=355}
  %convert.305 = f32[1024]{0} convert(bf16[1024]{0} %p21.304), metadata={op_type="xla__cast" op_name="xla__cast" source_file="/usr/local/lib/python3.10/site-packages/torch/_ops.py" source_line=756}
  %broadcast.337 = f32[16,1024]{1,0} broadcast(f32[1024]{0} %convert.305), dimensions={1}, metadata={op_type="aten__mul" op_name="aten__mul.70/aten__mul" source_file="/usr/local/lib/python3.10/site-packages/torch/_ops.py" source_line=756}
  %multiply.338 = f32[16,1024]{1,0} multiply(f32[16,1024]{1,0} %convert.336, f32[16,1024]{1,0} %broadcast.337), metadata={op_type="aten__mul" op_name="aten__mul.70/aten__mul" source_file="/usr/local/lib/python3.10/site-packages/torch/_ops.py" source_line=756}
  %convert.339 = bf16[16,1024]{1,0} convert(f32[16,1024]{1,0} %multiply.338), metadata={op_type="xla__cast" op_name="xla__cast" source_file="/usr/local/lib/python3.10/site-packages/torch/_ops.py" source_line=756}
  %p20.302 = bf16[6144,1024]{1,0} parameter(20), metadata={op_type="xla__device_data" op_name="xla__device_data" source_file="/usr/local/lib/python3.10/site-packages/torch_xla/_dynamo/dynamo_bridge.py" source_line=355}
  %transpose.303 = bf16[1024,6144]{0,1} transpose(bf16[6144,1024]{1,0} %p20.302), dimensions={1,0}, metadata={op_type="aten__permute" op_name="aten__permute" source_file="/usr/local/lib/python3.10/site-packages/torch/_ops.py" source_line=756}
  %dot.340 = bf16[16,6144]{1,0} dot(bf16[16,1024]{1,0} %convert.339, bf16[1024,6144]{0,1} %transpose.303), lhs_contracting_dims={1}, rhs_contracting_dims={0}, metadata={op_type="aten__mm" op_name="aten__mm" source_file="/usr/local/lib/python3.10/site-packages/torch/_ops.py" source_line=756}
  %slice.343 = bf16[16,3072]{1,0} slice(bf16[16,6144]{1,0} %dot.340), slice={[0:16], [0:3072]}, metadata={op_type="xla__select" op_name="xla__select" source_file="/usr/local/lib/python3.10/site-packages/torch/_ops.py" source_line=756}
  %logistic.344 = bf16[16,3072]{1,0} logistic(bf16[16,3072]{1,0} %slice.343), metadata={op_type="aten__silu" op_name="aten__silu" source_file="/usr/local/lib/python3.10/site-packages/torch/_ops.py" source_line=756}
  %multiply.345 = bf16[16,3072]{1,0} multiply(bf16[16,3072]{1,0} %slice.343, bf16[16,3072]{1,0} %logistic.344), metadata={op_type="aten__silu" op_name="aten__silu" source_file="/usr/local/lib/python3.10/site-packages/torch/_ops.py" source_line=756}
  %convert.346 = f32[16,3072]{1,0} convert(bf16[16,3072]{1,0} %multiply.345), metadata={op_type="xla__cast" op_name="xla__cast" source_file="/usr/local/lib/python3.10/site-packages/torch/_ops.py" source_line=756}
  %slice.341 = bf16[16,3072]{1,0} slice(bf16[16,6144]{1,0} %dot.340), slice={[0:16], [3072:6144]}, metadata={op_type="xla__select" op_name="xla__select" source_file="/usr/local/lib/python3.10/site-packages/torch/_ops.py" source_line=756}
  %convert.342 = f32[16,3072]{1,0} convert(bf16[16,3072]{1,0} %slice.341), metadata={op_type="xla__cast" op_name="xla__cast" source_file="/usr/local/lib/python3.10/site-packages/torch/_ops.py" source_line=756}
  %multiply.347 = f32[16,3072]{1,0} multiply(f32[16,3072]{1,0} %convert.346, f32[16,3072]{1,0} %convert.342), metadata={op_type="aten__mul" op_name="aten__mul.71/aten__mul" source_file="/usr/local/lib/python3.10/site-packages/torch/_ops.py" source_line=756}
  %convert.348 = bf16[16,3072]{1,0} convert(f32[16,3072]{1,0} %multiply.347), metadata={op_type="xla__cast" op_name="xla__cast" source_file="/usr/local/lib/python3.10/site-packages/torch/_ops.py" source_line=756}
  %p19.300 = bf16[1024,3072]{1,0} parameter(19), metadata={op_type="xla__device_data" op_name="xla__device_data" source_file="/usr/local/lib/python3.10/site-packages/torch_xla/_dynamo/dynamo_bridge.py" source_line=355}
  %transpose.301 = bf16[3072,1024]{0,1} transpose(bf16[1024,3072]{1,0} %p19.300), dimensions={1,0}, metadata={op_type="aten__permute" op_name="aten__permute" source_file="/usr/local/lib/python3.10/site-packages/torch/_ops.py" source_line=756}
  %dot.349 = bf16[16,1024]{1,0} dot(bf16[16,3072]{1,0} %convert.348, bf16[3072,1024]{0,1} %transpose.301), lhs_contracting_dims={1}, rhs_contracting_dims={0}, metadata={op_type="aten__mm" op_name="aten__mm" source_file="/usr/local/lib/python3.10/site-packages/torch/_ops.py" source_line=756}
  %convert.350 = f32[16,1024]{1,0} convert(bf16[16,1024]{1,0} %dot.349), metadata={op_type="xla__cast" op_name="xla__cast" source_file="/usr/local/lib/python3.10/site-packages/torch/_ops.py" source_line=756}
  %convert.298 = bf16[16,1024]{1,0} convert(f32[16,1024]{1,0} %add.297), metadata={op_type="xla__cast" op_name="xla__cast" source_file="/usr/local/lib/python3.10/site-packages/torch/_ops.py" source_line=756}
  %convert.299 = f32[16,1024]{1,0} convert(bf16[16,1024]{1,0} %convert.298), metadata={op_type="xla__cast" op_name="xla__cast" source_file="/usr/local/lib/python3.10/site-packages/torch/_ops.py" source_line=756}
  %constant.54 = f32[] constant(1), metadata={op_type="prim__Constant" op_name="prim__Constant" source_file="/usr/local/lib/python3.10/site-packages/torch/_ops.py" source_line=756}
  %broadcast.351 = f32[16,1024]{1,0} broadcast(f32[] %constant.54), dimensions={}, metadata={op_type="aten__add" op_name="aten__add.72/aten__add" source_file="/usr/local/lib/python3.10/site-packages/torch/_ops.py" source_line=756}
  %multiply.352 = f32[16,1024]{1,0} multiply(f32[16,1024]{1,0} %convert.299, f32[16,1024]{1,0} %broadcast.351), metadata={op_type="aten__add" op_name="aten__add.72/aten__add" source_file="/usr/local/lib/python3.10/site-packages/torch/_ops.py" source_line=756}
  %add.353 = f32[16,1024]{1,0} add(f32[16,1024]{1,0} %convert.350, f32[16,1024]{1,0} %multiply.352), metadata={op_type="aten__add" op_name="aten__add.72/aten__add" source_file="/usr/local/lib/python3.10/site-packages/torch/_ops.py" source_line=756}
  %convert.354 = bf16[16,1024]{1,0} convert(f32[16,1024]{1,0} %add.353), metadata={op_type="xla__cast" op_name="xla__cast" source_file="/usr/local/lib/python3.10/site-packages/torch/_ops.py" source_line=756}
  %convert.355 = f32[16,1024]{1,0} convert(bf16[16,1024]{1,0} %convert.354), metadata={op_type="xla__cast" op_name="xla__cast" source_file="/usr/local/lib/python3.10/site-packages/torch/_ops.py" source_line=756}
  %constant.53 = f32[] constant(1), metadata={op_type="prim__Constant" op_name="prim__Constant" source_file="/usr/local/lib/python3.10/site-packages/torch/_ops.py" source_line=756}
  %broadcast.367 = f32[16,1024]{1,0} broadcast(f32[] %constant.53), dimensions={}, metadata={op_type="aten__add" op_name="aten__add.85/aten__add" source_file="/usr/local/lib/python3.10/site-packages/torch/_ops.py" source_line=756}
  %multiply.368 = f32[16,1024]{1,0} multiply(f32[16,1024]{1,0} %convert.355, f32[16,1024]{1,0} %broadcast.367), metadata={op_type="aten__add" op_name="aten__add.85/aten__add" source_file="/usr/local/lib/python3.10/site-packages/torch/_ops.py" source_line=756}
  %add.369 = f32[16,1024]{1,0} add(f32[16,1024]{1,0} %convert.366, f32[16,1024]{1,0} %multiply.368), metadata={op_type="aten__add" op_name="aten__add.85/aten__add" source_file="/usr/local/lib/python3.10/site-packages/torch/_ops.py" source_line=756}
  %constant.379 = f32[] constant(2), metadata={op_type="prim__Constant" op_name="prim__Constant" source_file="/usr/local/lib/python3.10/site-packages/torch/_ops.py" source_line=756}
  %broadcast.380 = f32[16,1024]{1,0} broadcast(f32[] %constant.379), dimensions={}, metadata={op_type="aten__pow" op_name="aten__pow" source_file="/usr/local/lib/python3.10/site-packages/torch/_ops.py" source_line=756}
  %power.381 = f32[16,1024]{1,0} power(f32[16,1024]{1,0} %add.369, f32[16,1024]{1,0} %broadcast.380), metadata={op_type="aten__pow" op_name="aten__pow" source_file="/usr/local/lib/python3.10/site-packages/torch/_ops.py" source_line=756}
  %constant.382 = f32[] constant(0), metadata={op_type="aten__mean" op_name="aten__mean" source_file="/usr/local/lib/python3.10/site-packages/torch/_ops.py" source_line=756}
  %reduce.388 = f32[16]{0} reduce(f32[16,1024]{1,0} %power.381, f32[] %constant.382), dimensions={1}, to_apply=%AddComputation.384, metadata={op_type="aten__mean" op_name="aten__mean" source_file="/usr/local/lib/python3.10/site-packages/torch/_ops.py" source_line=756}
  %constant.383 = s32[] constant(1024), metadata={op_type="aten__mean" op_name="aten__mean" source_file="/usr/local/lib/python3.10/site-packages/torch/_ops.py" source_line=756}
  %constant.389 = s32[] constant(0), metadata={op_type="aten__mean" op_name="aten__mean" source_file="/usr/local/lib/python3.10/site-packages/torch/_ops.py" source_line=756}
  %compare.394 = pred[] compare(s32[] %constant.383, s32[] %constant.389), direction=NE, metadata={op_type="aten__mean" op_name="aten__mean" source_file="/usr/local/lib/python3.10/site-packages/torch/_ops.py" source_line=756}
  %constant.390 = f32[] constant(1), metadata={op_type="aten__mean" op_name="aten__mean" source_file="/usr/local/lib/python3.10/site-packages/torch/_ops.py" source_line=756}
  %convert.392 = f32[] convert(s32[] %constant.383), metadata={op_type="aten__mean" op_name="aten__mean" source_file="/usr/local/lib/python3.10/site-packages/torch/_ops.py" source_line=756}
  %divide.393 = f32[] divide(f32[] %constant.390, f32[] %convert.392), metadata={op_type="aten__mean" op_name="aten__mean" source_file="/usr/local/lib/python3.10/site-packages/torch/_ops.py" source_line=756}
  %constant.391 = f32[] constant(nan), metadata={op_type="aten__mean" op_name="aten__mean" source_file="/usr/local/lib/python3.10/site-packages/torch/_ops.py" source_line=756}
  %select.395 = f32[] select(pred[] %compare.394, f32[] %divide.393, f32[] %constant.391), metadata={op_type="aten__mean" op_name="aten__mean" source_file="/usr/local/lib/python3.10/site-packages/torch/_ops.py" source_line=756}
  %broadcast.396 = f32[16]{0} broadcast(f32[] %select.395), dimensions={}, metadata={op_type="aten__mean" op_name="aten__mean" source_file="/usr/local/lib/python3.10/site-packages/torch/_ops.py" source_line=756}
  %multiply.397 = f32[16]{0} multiply(f32[16]{0} %reduce.388, f32[16]{0} %broadcast.396), metadata={op_type="aten__mean" op_name="aten__mean" source_file="/usr/local/lib/python3.10/site-packages/torch/_ops.py" source_line=756}
  %reshape.398 = f32[16,1]{1,0} reshape(f32[16]{0} %multiply.397), metadata={op_type="aten__mean" op_name="aten__mean" source_file="/usr/local/lib/python3.10/site-packages/torch/_ops.py" source_line=756}
  %convert.399 = f32[16,1]{1,0} convert(f32[16,1]{1,0} %reshape.398), metadata={op_type="aten__mean" op_name="aten__mean" source_file="/usr/local/lib/python3.10/site-packages/torch/_ops.py" source_line=756}
  %constant.378 = f32[] constant(1), metadata={op_type="prim__Constant" op_name="prim__Constant" source_file="/usr/local/lib/python3.10/site-packages/torch/_ops.py" source_line=756}
  %multiply.400 = f32[] multiply(f32[] %p1.4, f32[] %constant.378), metadata={op_type="aten__add" op_name="aten__add.86/aten__add" source_file="/usr/local/lib/python3.10/site-packages/torch/_ops.py" source_line=756}
  %broadcast.401 = f32[16,1]{1,0} broadcast(f32[] %multiply.400), dimensions={}, metadata={op_type="aten__add" op_name="aten__add.86/aten__add" source_file="/usr/local/lib/python3.10/site-packages/torch/_ops.py" source_line=756}
  %add.402 = f32[16,1]{1,0} add(f32[16,1]{1,0} %convert.399, f32[16,1]{1,0} %broadcast.401), metadata={op_type="aten__add" op_name="aten__add.86/aten__add" source_file="/usr/local/lib/python3.10/site-packages/torch/_ops.py" source_line=756}
  %rsqrt.403 = f32[16,1]{1,0} rsqrt(f32[16,1]{1,0} %add.402), metadata={op_type="aten__rsqrt" op_name="aten__rsqrt" source_file="/usr/local/lib/python3.10/site-packages/torch/_ops.py" source_line=756}
  %reshape.404 = f32[16]{0} reshape(f32[16,1]{1,0} %rsqrt.403), metadata={op_type="aten__mul" op_name="aten__mul.87/aten__mul" source_file="/usr/local/lib/python3.10/site-packages/torch/_ops.py" source_line=756}
  %broadcast.405 = f32[16,1024]{1,0} broadcast(f32[16]{0} %reshape.404), dimensions={0}, metadata={op_type="aten__mul" op_name="aten__mul.87/aten__mul" source_file="/usr/local/lib/python3.10/site-packages/torch/_ops.py" source_line=756}
  %multiply.406 = f32[16,1024]{1,0} multiply(f32[16,1024]{1,0} %add.369, f32[16,1024]{1,0} %broadcast.405), metadata={op_type="aten__mul" op_name="aten__mul.87/aten__mul" source_file="/usr/local/lib/python3.10/site-packages/torch/_ops.py" source_line=756}
  %convert.407 = bf16[16,1024]{1,0} convert(f32[16,1024]{1,0} %multiply.406), metadata={op_type="xla__cast" op_name="xla__cast" source_file="/usr/local/lib/python3.10/site-packages/torch/_ops.py" source_line=756}
  %convert.408 = f32[16,1024]{1,0} convert(bf16[16,1024]{1,0} %convert.407), metadata={op_type="xla__cast" op_name="xla__cast" source_file="/usr/local/lib/python3.10/site-packages/torch/_ops.py" source_line=756}
  %p25.376 = bf16[1024]{0} parameter(25), metadata={op_type="xla__device_data" op_name="xla__device_data" source_file="/usr/local/lib/python3.10/site-packages/torch_xla/_dynamo/dynamo_bridge.py" source_line=355}
  %convert.377 = f32[1024]{0} convert(bf16[1024]{0} %p25.376), metadata={op_type="xla__cast" op_name="xla__cast" source_file="/usr/local/lib/python3.10/site-packages/torch/_ops.py" source_line=756}
  %broadcast.409 = f32[16,1024]{1,0} broadcast(f32[1024]{0} %convert.377), dimensions={1}, metadata={op_type="aten__mul" op_name="aten__mul.88/aten__mul" source_file="/usr/local/lib/python3.10/site-packages/torch/_ops.py" source_line=756}
  %multiply.410 = f32[16,1024]{1,0} multiply(f32[16,1024]{1,0} %convert.408, f32[16,1024]{1,0} %broadcast.409), metadata={op_type="aten__mul" op_name="aten__mul.88/aten__mul" source_file="/usr/local/lib/python3.10/site-packages/torch/_ops.py" source_line=756}
  %convert.411 = bf16[16,1024]{1,0} convert(f32[16,1024]{1,0} %multiply.410), metadata={op_type="xla__cast" op_name="xla__cast" source_file="/usr/local/lib/python3.10/site-packages/torch/_ops.py" source_line=756}
  %p24.374 = bf16[6144,1024]{1,0} parameter(24), metadata={op_type="xla__device_data" op_name="xla__device_data" source_file="/usr/local/lib/python3.10/site-packages/torch_xla/_dynamo/dynamo_bridge.py" source_line=355}
  %transpose.375 = bf16[1024,6144]{0,1} transpose(bf16[6144,1024]{1,0} %p24.374), dimensions={1,0}, metadata={op_type="aten__permute" op_name="aten__permute" source_file="/usr/local/lib/python3.10/site-packages/torch/_ops.py" source_line=756}
  %dot.412 = bf16[16,6144]{1,0} dot(bf16[16,1024]{1,0} %convert.411, bf16[1024,6144]{0,1} %transpose.375), lhs_contracting_dims={1}, rhs_contracting_dims={0}, metadata={op_type="aten__mm" op_name="aten__mm" source_file="/usr/local/lib/python3.10/site-packages/torch/_ops.py" source_line=756}
  %slice.415 = bf16[16,3072]{1,0} slice(bf16[16,6144]{1,0} %dot.412), slice={[0:16], [0:3072]}, metadata={op_type="xla__select" op_name="xla__select" source_file="/usr/local/lib/python3.10/site-packages/torch/_ops.py" source_line=756}
  %logistic.416 = bf16[16,3072]{1,0} logistic(bf16[16,3072]{1,0} %slice.415), metadata={op_type="aten__silu" op_name="aten__silu" source_file="/usr/local/lib/python3.10/site-packages/torch/_ops.py" source_line=756}
  %multiply.417 = bf16[16,3072]{1,0} multiply(bf16[16,3072]{1,0} %slice.415, bf16[16,3072]{1,0} %logistic.416), metadata={op_type="aten__silu" op_name="aten__silu" source_file="/usr/local/lib/python3.10/site-packages/torch/_ops.py" source_line=756}
  %convert.418 = f32[16,3072]{1,0} convert(bf16[16,3072]{1,0} %multiply.417), metadata={op_type="xla__cast" op_name="xla__cast" source_file="/usr/local/lib/python3.10/site-packages/torch/_ops.py" source_line=756}
  %slice.413 = bf16[16,3072]{1,0} slice(bf16[16,6144]{1,0} %dot.412), slice={[0:16], [3072:6144]}, metadata={op_type="xla__select" op_name="xla__select" source_file="/usr/local/lib/python3.10/site-packages/torch/_ops.py" source_line=756}
  %convert.414 = f32[16,3072]{1,0} convert(bf16[16,3072]{1,0} %slice.413), metadata={op_type="xla__cast" op_name="xla__cast" source_file="/usr/local/lib/python3.10/site-packages/torch/_ops.py" source_line=756}
  %multiply.419 = f32[16,3072]{1,0} multiply(f32[16,3072]{1,0} %convert.418, f32[16,3072]{1,0} %convert.414), metadata={op_type="aten__mul" op_name="aten__mul.89/aten__mul" source_file="/usr/local/lib/python3.10/site-packages/torch/_ops.py" source_line=756}
  %convert.420 = bf16[16,3072]{1,0} convert(f32[16,3072]{1,0} %multiply.419), metadata={op_type="xla__cast" op_name="xla__cast" source_file="/usr/local/lib/python3.10/site-packages/torch/_ops.py" source_line=756}
  %p23.372 = bf16[1024,3072]{1,0} parameter(23), metadata={op_type="xla__device_data" op_name="xla__device_data" source_file="/usr/local/lib/python3.10/site-packages/torch_xla/_dynamo/dynamo_bridge.py" source_line=355}
  %transpose.373 = bf16[3072,1024]{0,1} transpose(bf16[1024,3072]{1,0} %p23.372), dimensions={1,0}, metadata={op_type="aten__permute" op_name="aten__permute" source_file="/usr/local/lib/python3.10/site-packages/torch/_ops.py" source_line=756}
  %dot.421 = bf16[16,1024]{1,0} dot(bf16[16,3072]{1,0} %convert.420, bf16[3072,1024]{0,1} %transpose.373), lhs_contracting_dims={1}, rhs_contracting_dims={0}, metadata={op_type="aten__mm" op_name="aten__mm" source_file="/usr/local/lib/python3.10/site-packages/torch/_ops.py" source_line=756}
  %convert.422 = f32[16,1024]{1,0} convert(bf16[16,1024]{1,0} %dot.421), metadata={op_type="xla__cast" op_name="xla__cast" source_file="/usr/local/lib/python3.10/site-packages/torch/_ops.py" source_line=756}
  %convert.370 = bf16[16,1024]{1,0} convert(f32[16,1024]{1,0} %add.369), metadata={op_type="xla__cast" op_name="xla__cast" source_file="/usr/local/lib/python3.10/site-packages/torch/_ops.py" source_line=756}
  %convert.371 = f32[16,1024]{1,0} convert(bf16[16,1024]{1,0} %convert.370), metadata={op_type="xla__cast" op_name="xla__cast" source_file="/usr/local/lib/python3.10/site-packages/torch/_ops.py" source_line=756}
  %constant.52 = f32[] constant(1), metadata={op_type="prim__Constant" op_name="prim__Constant" source_file="/usr/local/lib/python3.10/site-packages/torch/_ops.py" source_line=756}
  %broadcast.423 = f32[16,1024]{1,0} broadcast(f32[] %constant.52), dimensions={}, metadata={op_type="aten__add" op_name="aten__add.90/aten__add" source_file="/usr/local/lib/python3.10/site-packages/torch/_ops.py" source_line=756}
  %multiply.424 = f32[16,1024]{1,0} multiply(f32[16,1024]{1,0} %convert.371, f32[16,1024]{1,0} %broadcast.423), metadata={op_type="aten__add" op_name="aten__add.90/aten__add" source_file="/usr/local/lib/python3.10/site-packages/torch/_ops.py" source_line=756}
  %add.425 = f32[16,1024]{1,0} add(f32[16,1024]{1,0} %convert.422, f32[16,1024]{1,0} %multiply.424), metadata={op_type="aten__add" op_name="aten__add.90/aten__add" source_file="/usr/local/lib/python3.10/site-packages/torch/_ops.py" source_line=756}
  %convert.426 = bf16[16,1024]{1,0} convert(f32[16,1024]{1,0} %add.425), metadata={op_type="xla__cast" op_name="xla__cast" source_file="/usr/local/lib/python3.10/site-packages/torch/_ops.py" source_line=756}
  %convert.427 = f32[16,1024]{1,0} convert(bf16[16,1024]{1,0} %convert.426), metadata={op_type="xla__cast" op_name="xla__cast" source_file="/usr/local/lib/python3.10/site-packages/torch/_ops.py" source_line=756}
  %constant.51 = f32[] constant(1), metadata={op_type="prim__Constant" op_name="prim__Constant" source_file="/usr/local/lib/python3.10/site-packages/torch/_ops.py" source_line=756}
  %broadcast.439 = f32[16,1024]{1,0} broadcast(f32[] %constant.51), dimensions={}, metadata={op_type="aten__add" op_name="aten__add.103/aten__add" source_file="/usr/local/lib/python3.10/site-packages/torch/_ops.py" source_line=756}
  %multiply.440 = f32[16,1024]{1,0} multiply(f32[16,1024]{1,0} %convert.427, f32[16,1024]{1,0} %broadcast.439), metadata={op_type="aten__add" op_name="aten__add.103/aten__add" source_file="/usr/local/lib/python3.10/site-packages/torch/_ops.py" source_line=756}
  %add.441 = f32[16,1024]{1,0} add(f32[16,1024]{1,0} %convert.438, f32[16,1024]{1,0} %multiply.440), metadata={op_type="aten__add" op_name="aten__add.103/aten__add" source_file="/usr/local/lib/python3.10/site-packages/torch/_ops.py" source_line=756}
  %constant.451 = f32[] constant(2), metadata={op_type="prim__Constant" op_name="prim__Constant" source_file="/usr/local/lib/python3.10/site-packages/torch/_ops.py" source_line=756}
  %broadcast.452 = f32[16,1024]{1,0} broadcast(f32[] %constant.451), dimensions={}, metadata={op_type="aten__pow" op_name="aten__pow" source_file="/usr/local/lib/python3.10/site-packages/torch/_ops.py" source_line=756}
  %power.453 = f32[16,1024]{1,0} power(f32[16,1024]{1,0} %add.441, f32[16,1024]{1,0} %broadcast.452), metadata={op_type="aten__pow" op_name="aten__pow" source_file="/usr/local/lib/python3.10/site-packages/torch/_ops.py" source_line=756}
  %constant.454 = f32[] constant(0), metadata={op_type="aten__mean" op_name="aten__mean" source_file="/usr/local/lib/python3.10/site-packages/torch/_ops.py" source_line=756}
  %reduce.460 = f32[16]{0} reduce(f32[16,1024]{1,0} %power.453, f32[] %constant.454), dimensions={1}, to_apply=%AddComputation.456, metadata={op_type="aten__mean" op_name="aten__mean" source_file="/usr/local/lib/python3.10/site-packages/torch/_ops.py" source_line=756}
  %constant.455 = s32[] constant(1024), metadata={op_type="aten__mean" op_name="aten__mean" source_file="/usr/local/lib/python3.10/site-packages/torch/_ops.py" source_line=756}
  %constant.461 = s32[] constant(0), metadata={op_type="aten__mean" op_name="aten__mean" source_file="/usr/local/lib/python3.10/site-packages/torch/_ops.py" source_line=756}
  %compare.466 = pred[] compare(s32[] %constant.455, s32[] %constant.461), direction=NE, metadata={op_type="aten__mean" op_name="aten__mean" source_file="/usr/local/lib/python3.10/site-packages/torch/_ops.py" source_line=756}
  %constant.462 = f32[] constant(1), metadata={op_type="aten__mean" op_name="aten__mean" source_file="/usr/local/lib/python3.10/site-packages/torch/_ops.py" source_line=756}
  %convert.464 = f32[] convert(s32[] %constant.455), metadata={op_type="aten__mean" op_name="aten__mean" source_file="/usr/local/lib/python3.10/site-packages/torch/_ops.py" source_line=756}
  %divide.465 = f32[] divide(f32[] %constant.462, f32[] %convert.464), metadata={op_type="aten__mean" op_name="aten__mean" source_file="/usr/local/lib/python3.10/site-packages/torch/_ops.py" source_line=756}
  %constant.463 = f32[] constant(nan), metadata={op_type="aten__mean" op_name="aten__mean" source_file="/usr/local/lib/python3.10/site-packages/torch/_ops.py" source_line=756}
  %select.467 = f32[] select(pred[] %compare.466, f32[] %divide.465, f32[] %constant.463), metadata={op_type="aten__mean" op_name="aten__mean" source_file="/usr/local/lib/python3.10/site-packages/torch/_ops.py" source_line=756}
  %broadcast.468 = f32[16]{0} broadcast(f32[] %select.467), dimensions={}, metadata={op_type="aten__mean" op_name="aten__mean" source_file="/usr/local/lib/python3.10/site-packages/torch/_ops.py" source_line=756}
  %multiply.469 = f32[16]{0} multiply(f32[16]{0} %reduce.460, f32[16]{0} %broadcast.468), metadata={op_type="aten__mean" op_name="aten__mean" source_file="/usr/local/lib/python3.10/site-packages/torch/_ops.py" source_line=756}
  %reshape.470 = f32[16,1]{1,0} reshape(f32[16]{0} %multiply.469), metadata={op_type="aten__mean" op_name="aten__mean" source_file="/usr/local/lib/python3.10/site-packages/torch/_ops.py" source_line=756}
  %convert.471 = f32[16,1]{1,0} convert(f32[16,1]{1,0} %reshape.470), metadata={op_type="aten__mean" op_name="aten__mean" source_file="/usr/local/lib/python3.10/site-packages/torch/_ops.py" source_line=756}
  %constant.450 = f32[] constant(1), metadata={op_type="prim__Constant" op_name="prim__Constant" source_file="/usr/local/lib/python3.10/site-packages/torch/_ops.py" source_line=756}
  %multiply.472 = f32[] multiply(f32[] %p1.4, f32[] %constant.450), metadata={op_type="aten__add" op_name="aten__add.104/aten__add" source_file="/usr/local/lib/python3.10/site-packages/torch/_ops.py" source_line=756}
  %broadcast.473 = f32[16,1]{1,0} broadcast(f32[] %multiply.472), dimensions={}, metadata={op_type="aten__add" op_name="aten__add.104/aten__add" source_file="/usr/local/lib/python3.10/site-packages/torch/_ops.py" source_line=756}
  %add.474 = f32[16,1]{1,0} add(f32[16,1]{1,0} %convert.471, f32[16,1]{1,0} %broadcast.473), metadata={op_type="aten__add" op_name="aten__add.104/aten__add" source_file="/usr/local/lib/python3.10/site-packages/torch/_ops.py" source_line=756}
  %rsqrt.475 = f32[16,1]{1,0} rsqrt(f32[16,1]{1,0} %add.474), metadata={op_type="aten__rsqrt" op_name="aten__rsqrt" source_file="/usr/local/lib/python3.10/site-packages/torch/_ops.py" source_line=756}
  %reshape.476 = f32[16]{0} reshape(f32[16,1]{1,0} %rsqrt.475), metadata={op_type="aten__mul" op_name="aten__mul.105/aten__mul" source_file="/usr/local/lib/python3.10/site-packages/torch/_ops.py" source_line=756}
  %broadcast.477 = f32[16,1024]{1,0} broadcast(f32[16]{0} %reshape.476), dimensions={0}, metadata={op_type="aten__mul" op_name="aten__mul.105/aten__mul" source_file="/usr/local/lib/python3.10/site-packages/torch/_ops.py" source_line=756}
  %multiply.478 = f32[16,1024]{1,0} multiply(f32[16,1024]{1,0} %add.441, f32[16,1024]{1,0} %broadcast.477), metadata={op_type="aten__mul" op_name="aten__mul.105/aten__mul" source_file="/usr/local/lib/python3.10/site-packages/torch/_ops.py" source_line=756}
  %convert.479 = bf16[16,1024]{1,0} convert(f32[16,1024]{1,0} %multiply.478), metadata={op_type="xla__cast" op_name="xla__cast" source_file="/usr/local/lib/python3.10/site-packages/torch/_ops.py" source_line=756}
  %convert.480 = f32[16,1024]{1,0} convert(bf16[16,1024]{1,0} %convert.479), metadata={op_type="xla__cast" op_name="xla__cast" source_file="/usr/local/lib/python3.10/site-packages/torch/_ops.py" source_line=756}
  %p29.448 = bf16[1024]{0} parameter(29), metadata={op_type="xla__device_data" op_name="xla__device_data" source_file="/usr/local/lib/python3.10/site-packages/torch_xla/_dynamo/dynamo_bridge.py" source_line=355}
  %convert.449 = f32[1024]{0} convert(bf16[1024]{0} %p29.448), metadata={op_type="xla__cast" op_name="xla__cast" source_file="/usr/local/lib/python3.10/site-packages/torch/_ops.py" source_line=756}
  %broadcast.481 = f32[16,1024]{1,0} broadcast(f32[1024]{0} %convert.449), dimensions={1}, metadata={op_type="aten__mul" op_name="aten__mul.106/aten__mul" source_file="/usr/local/lib/python3.10/site-packages/torch/_ops.py" source_line=756}
  %multiply.482 = f32[16,1024]{1,0} multiply(f32[16,1024]{1,0} %convert.480, f32[16,1024]{1,0} %broadcast.481), metadata={op_type="aten__mul" op_name="aten__mul.106/aten__mul" source_file="/usr/local/lib/python3.10/site-packages/torch/_ops.py" source_line=756}
  %convert.483 = bf16[16,1024]{1,0} convert(f32[16,1024]{1,0} %multiply.482), metadata={op_type="xla__cast" op_name="xla__cast" source_file="/usr/local/lib/python3.10/site-packages/torch/_ops.py" source_line=756}
  %p28.446 = bf16[6144,1024]{1,0} parameter(28), metadata={op_type="xla__device_data" op_name="xla__device_data" source_file="/usr/local/lib/python3.10/site-packages/torch_xla/_dynamo/dynamo_bridge.py" source_line=355}
  %transpose.447 = bf16[1024,6144]{0,1} transpose(bf16[6144,1024]{1,0} %p28.446), dimensions={1,0}, metadata={op_type="aten__permute" op_name="aten__permute" source_file="/usr/local/lib/python3.10/site-packages/torch/_ops.py" source_line=756}
  %dot.484 = bf16[16,6144]{1,0} dot(bf16[16,1024]{1,0} %convert.483, bf16[1024,6144]{0,1} %transpose.447), lhs_contracting_dims={1}, rhs_contracting_dims={0}, metadata={op_type="aten__mm" op_name="aten__mm" source_file="/usr/local/lib/python3.10/site-packages/torch/_ops.py" source_line=756}
  %slice.487 = bf16[16,3072]{1,0} slice(bf16[16,6144]{1,0} %dot.484), slice={[0:16], [0:3072]}, metadata={op_type="xla__select" op_name="xla__select" source_file="/usr/local/lib/python3.10/site-packages/torch/_ops.py" source_line=756}
  %logistic.488 = bf16[16,3072]{1,0} logistic(bf16[16,3072]{1,0} %slice.487), metadata={op_type="aten__silu" op_name="aten__silu" source_file="/usr/local/lib/python3.10/site-packages/torch/_ops.py" source_line=756}
  %multiply.489 = bf16[16,3072]{1,0} multiply(bf16[16,3072]{1,0} %slice.487, bf16[16,3072]{1,0} %logistic.488), metadata={op_type="aten__silu" op_name="aten__silu" source_file="/usr/local/lib/python3.10/site-packages/torch/_ops.py" source_line=756}
  %convert.490 = f32[16,3072]{1,0} convert(bf16[16,3072]{1,0} %multiply.489), metadata={op_type="xla__cast" op_name="xla__cast" source_file="/usr/local/lib/python3.10/site-packages/torch/_ops.py" source_line=756}
  %slice.485 = bf16[16,3072]{1,0} slice(bf16[16,6144]{1,0} %dot.484), slice={[0:16], [3072:6144]}, metadata={op_type="xla__select" op_name="xla__select" source_file="/usr/local/lib/python3.10/site-packages/torch/_ops.py" source_line=756}
  %convert.486 = f32[16,3072]{1,0} convert(bf16[16,3072]{1,0} %slice.485), metadata={op_type="xla__cast" op_name="xla__cast" source_file="/usr/local/lib/python3.10/site-packages/torch/_ops.py" source_line=756}
  %multiply.491 = f32[16,3072]{1,0} multiply(f32[16,3072]{1,0} %convert.490, f32[16,3072]{1,0} %convert.486), metadata={op_type="aten__mul" op_name="aten__mul.107/aten__mul" source_file="/usr/local/lib/python3.10/site-packages/torch/_ops.py" source_line=756}
  %convert.492 = bf16[16,3072]{1,0} convert(f32[16,3072]{1,0} %multiply.491), metadata={op_type="xla__cast" op_name="xla__cast" source_file="/usr/local/lib/python3.10/site-packages/torch/_ops.py" source_line=756}
  %p27.444 = bf16[1024,3072]{1,0} parameter(27), metadata={op_type="xla__device_data" op_name="xla__device_data" source_file="/usr/local/lib/python3.10/site-packages/torch_xla/_dynamo/dynamo_bridge.py" source_line=355}
  %transpose.445 = bf16[3072,1024]{0,1} transpose(bf16[1024,3072]{1,0} %p27.444), dimensions={1,0}, metadata={op_type="aten__permute" op_name="aten__permute" source_file="/usr/local/lib/python3.10/site-packages/torch/_ops.py" source_line=756}
  %dot.493 = bf16[16,1024]{1,0} dot(bf16[16,3072]{1,0} %convert.492, bf16[3072,1024]{0,1} %transpose.445), lhs_contracting_dims={1}, rhs_contracting_dims={0}, metadata={op_type="aten__mm" op_name="aten__mm" source_file="/usr/local/lib/python3.10/site-packages/torch/_ops.py" source_line=756}
  %convert.494 = f32[16,1024]{1,0} convert(bf16[16,1024]{1,0} %dot.493), metadata={op_type="xla__cast" op_name="xla__cast" source_file="/usr/local/lib/python3.10/site-packages/torch/_ops.py" source_line=756}
…
  %multiply.1774 = f32[16,1024]{1,0} multiply(f32[16,1024]{1,0} %add.1737, f32[16,1024]{1,0} %broadcast.1773), metadata={op_type="aten__mul" op_name="aten__mul.429/aten__mul" source_file="/usr/local/lib/python3.10/site-packages/torch/_ops.py" source_line=756}
  %convert.1775 = bf16[16,1024]{1,0} convert(f32[16,1024]{1,0} %multiply.1774), metadata={op_type="xla__cast" op_name="xla__cast" source_file="/usr/local/lib/python3.10/site-packages/torch/_ops.py" source_line=756}
  %convert.1776 = f32[16,1024]{1,0} convert(bf16[16,1024]{1,0} %convert.1775), metadata={op_type="xla__cast" op_name="xla__cast" source_file="/usr/local/lib/python3.10/site-packages/torch/_ops.py" source_line=756}
  %p101.1744 = bf16[1024]{0} parameter(101), metadata={op_type="xla__device_data" op_name="xla__device_data" source_file="/usr/local/lib/python3.10/site-packages/torch_xla/_dynamo/dynamo_bridge.py" source_line=355}
  %convert.1745 = f32[1024]{0} convert(bf16[1024]{0} %p101.1744), metadata={op_type="xla__cast" op_name="xla__cast" source_file="/usr/local/lib/python3.10/site-packages/torch/_ops.py" source_line=756}
  %broadcast.1777 = f32[16,1024]{1,0} broadcast(f32[1024]{0} %convert.1745), dimensions={1}, metadata={op_type="aten__mul" op_name="aten__mul.430/aten__mul" source_file="/usr/local/lib/python3.10/site-packages/torch/_ops.py" source_line=756}
  %multiply.1778 = f32[16,1024]{1,0} multiply(f32[16,1024]{1,0} %convert.1776, f32[16,1024]{1,0} %broadcast.1777), metadata={op_type="aten__mul" op_name="aten__mul.430/aten__mul" source_file="/usr/local/lib/python3.10/site-packages/torch/_ops.py" source_line=756}
  %convert.1779 = bf16[16,1024]{1,0} convert(f32[16,1024]{1,0} %multiply.1778), metadata={op_type="xla__cast" op_name="xla__cast" source_file="/usr/local/lib/python3.10/site-packages/torch/_ops.py" source_line=756}
  %p100.1742 = bf16[6144,1024]{1,0} parameter(100), metadata={op_type="xla__device_data" op_name="xla__device_data" source_file="/usr/local/lib/python3.10/site-packages/torch_xla/_dynamo/dynamo_bridge.py" source_line=355}
  %transpose.1743 = bf16[1024,6144]{0,1} transpose(bf16[6144,1024]{1,0} %p100.1742), dimensions={1,0}, metadata={op_type="aten__permute" op_name="aten__permute" source_file="/usr/local/lib/python3.10/site-packages/torch/_ops.py" source_line=756}
  %dot.1780 = bf16[16,6144]{1,0} dot(bf16[16,1024]{1,0} %convert.1779, bf16[1024,6144]{0,1} %transpose.1743), lhs_contracting_dims={1}, rhs_contracting_dims={0}, metadata={op_type="aten__mm" op_name="aten__mm" source_file="/usr/local/lib/python3.10/site-packages/torch/_ops.py" source_line=756}
  %slice.1783 = bf16[16,3072]{1,0} slice(bf16[16,6144]{1,0} %dot.1780), slice={[0:16], [0:3072]}, metadata={op_type="xla__select" op_name="xla__select" source_file="/usr/local/lib/python3.10/site-packages/torch/_ops.py" source_line=756}
  %logistic.1784 = bf16[16,3072]{1,0} logistic(bf16[16,3072]{1,0} %slice.1783), metadata={op_type="aten__silu" op_name="aten__silu" source_file="/usr/local/lib/python3.10/site-packages/torch/_ops.py" source_line=756}
  %multiply.1785 = bf16[16,3072]{1,0} multiply(bf16[16,3072]{1,0} %slice.1783, bf16[16,3072]{1,0} %logistic.1784), metadata={op_type="aten__silu" op_name="aten__silu" source_file="/usr/local/lib/python3.10/site-packages/torch/_ops.py" source_line=756}
  %convert.1786 = f32[16,3072]{1,0} convert(bf16[16,3072]{1,0} %multiply.1785), metadata={op_type="xla__cast" op_name="xla__cast" source_file="/usr/local/lib/python3.10/site-packages/torch/_ops.py" source_line=756}
  %slice.1781 = bf16[16,3072]{1,0} slice(bf16[16,6144]{1,0} %dot.1780), slice={[0:16], [3072:6144]}, metadata={op_type="xla__select" op_name="xla__select" source_file="/usr/local/lib/python3.10/site-packages/torch/_ops.py" source_line=756}
  %convert.1782 = f32[16,3072]{1,0} convert(bf16[16,3072]{1,0} %slice.1781), metadata={op_type="xla__cast" op_name="xla__cast" source_file="/usr/local/lib/python3.10/site-packages/torch/_ops.py" source_line=756}
  %multiply.1787 = f32[16,3072]{1,0} multiply(f32[16,3072]{1,0} %convert.1786, f32[16,3072]{1,0} %convert.1782), metadata={op_type="aten__mul" op_name="aten__mul.431/aten__mul" source_file="/usr/local/lib/python3.10/site-packages/torch/_ops.py" source_line=756}
  %convert.1788 = bf16[16,3072]{1,0} convert(f32[16,3072]{1,0} %multiply.1787), metadata={op_type="xla__cast" op_name="xla__cast" source_file="/usr/local/lib/python3.10/site-packages/torch/_ops.py" source_line=756}
  %p99.1740 = bf16[1024,3072]{1,0} parameter(99), metadata={op_type="xla__device_data" op_name="xla__device_data" source_file="/usr/local/lib/python3.10/site-packages/torch_xla/_dynamo/dynamo_bridge.py" source_line=355}
  %transpose.1741 = bf16[3072,1024]{0,1} transpose(bf16[1024,3072]{1,0} %p99.1740), dimensions={1,0}, metadata={op_type="aten__permute" op_name="aten__permute" source_file="/usr/local/lib/python3.10/site-packages/torch/_ops.py" source_line=756}
  %dot.1789 = bf16[16,1024]{1,0} dot(bf16[16,3072]{1,0} %convert.1788, bf16[3072,1024]{0,1} %transpose.1741), lhs_contracting_dims={1}, rhs_contracting_dims={0}, metadata={op_type="aten__mm" op_name="aten__mm" source_file="/usr/local/lib/python3.10/site-packages/torch/_ops.py" source_line=756}
  %convert.1790 = f32[16,1024]{1,0} convert(bf16[16,1024]{1,0} %dot.1789), metadata={op_type="xla__cast" op_name="xla__cast" source_file="/usr/local/lib/python3.10/site-packages/torch/_ops.py" source_line=756}
  %convert.1738 = bf16[16,1024]{1,0} convert(f32[16,1024]{1,0} %add.1737), metadata={op_type="xla__cast" op_name="xla__cast" source_file="/usr/local/lib/python3.10/site-packages/torch/_ops.py" source_line=756}
  %convert.1739 = f32[16,1024]{1,0} convert(bf16[16,1024]{1,0} %convert.1738), metadata={op_type="xla__cast" op_name="xla__cast" source_file="/usr/local/lib/python3.10/site-packages/torch/_ops.py" source_line=756}
  %constant.14 = f32[] constant(1), metadata={op_type="prim__Constant" op_name="prim__Constant" source_file="/usr/local/lib/python3.10/site-packages/torch/_ops.py" source_line=756}
  %broadcast.1791 = f32[16,1024]{1,0} broadcast(f32[] %constant.14), dimensions={}, metadata={op_type="aten__add" op_name="aten__add.432/aten__add" source_file="/usr/local/lib/python3.10/site-packages/torch/_ops.py" source_line=756}
  %multiply.1792 = f32[16,1024]{1,0} multiply(f32[16,1024]{1,0} %convert.1739, f32[16,1024]{1,0} %broadcast.1791), metadata={op_type="aten__add" op_name="aten__add.432/aten__add" source_file="/usr/local/lib/python3.10/site-packages/torch/_ops.py" source_line=756}
  %add.1793 = f32[16,1024]{1,0} add(f32[16,1024]{1,0} %convert.1790, f32[16,1024]{1,0} %multiply.1792), metadata={op_type="aten__add" op_name="aten__add.432/aten__add" source_file="/usr/local/lib/python3.10/site-packages/torch/_ops.py" source_line=756}
  %convert.1794 = bf16[16,1024]{1,0} convert(f32[16,1024]{1,0} %add.1793), metadata={op_type="xla__cast" op_name="xla__cast" source_file="/usr/local/lib/python3.10/site-packages/torch/_ops.py" source_line=756}
  %convert.1795 = f32[16,1024]{1,0} convert(bf16[16,1024]{1,0} %convert.1794), metadata={op_type="xla__cast" op_name="xla__cast" source_file="/usr/local/lib/python3.10/site-packages/torch/_ops.py" source_line=756}
  %constant.13 = f32[] constant(1), metadata={op_type="prim__Constant" op_name="prim__Constant" source_file="/usr/local/lib/python3.10/site-packages/torch/_ops.py" source_line=756}
  %broadcast.1807 = f32[16,1024]{1,0} broadcast(f32[] %constant.13), dimensions={}, metadata={op_type="aten__add" op_name="aten__add.445/aten__add" source_file="/usr/local/lib/python3.10/site-packages/torch/_ops.py" source_line=756}
  %multiply.1808 = f32[16,1024]{1,0} multiply(f32[16,1024]{1,0} %convert.1795, f32[16,1024]{1,0} %broadcast.1807), metadata={op_type="aten__add" op_name="aten__add.445/aten__add" source_file="/usr/local/lib/python3.10/site-packages/torch/_ops.py" source_line=756}
  %add.1809 = f32[16,1024]{1,0} add(f32[16,1024]{1,0} %convert.1806, f32[16,1024]{1,0} %multiply.1808), metadata={op_type="aten__add" op_name="aten__add.445/aten__add" source_file="/usr/local/lib/python3.10/site-packages/torch/_ops.py" source_line=756}
  %constant.1819 = f32[] constant(2), metadata={op_type="prim__Constant" op_name="prim__Constant" source_file="/usr/local/lib/python3.10/site-packages/torch/_ops.py" source_line=756}
  %broadcast.1820 = f32[16,1024]{1,0} broadcast(f32[] %constant.1819), dimensions={}, metadata={op_type="aten__pow" op_name="aten__pow" source_file="/usr/local/lib/python3.10/site-packages/torch/_ops.py" source_line=756}
  %power.1821 = f32[16,1024]{1,0} power(f32[16,1024]{1,0} %add.1809, f32[16,1024]{1,0} %broadcast.1820), metadata={op_type="aten__pow" op_name="aten__pow" source_file="/usr/local/lib/python3.10/site-packages/torch/_ops.py" source_line=756}
  %constant.1822 = f32[] constant(0), metadata={op_type="aten__mean" op_name="aten__mean" source_file="/usr/local/lib/python3.10/site-packages/torch/_ops.py" source_line=756}
  %reduce.1828 = f32[16]{0} reduce(f32[16,1024]{1,0} %power.1821, f32[] %constant.1822), dimensions={1}, to_apply=%AddComputation.1824, metadata={op_type="aten__mean" op_name="aten__mean" source_file="/usr/local/lib/python3.10/site-packages/torch/_ops.py" source_line=756}
  %constant.1823 = s32[] constant(1024), metadata={op_type="aten__mean" op_name="aten__mean" source_file="/usr/local/lib/python3.10/site-packages/torch/_ops.py" source_line=756}
  %constant.1829 = s32[] constant(0), metadata={op_type="aten__mean" op_name="aten__mean" source_file="/usr/local/lib/python3.10/site-packages/torch/_ops.py" source_line=756}
  %compare.1834 = pred[] compare(s32[] %constant.1823, s32[] %constant.1829), direction=NE, metadata={op_type="aten__mean" op_name="aten__mean" source_file="/usr/local/lib/python3.10/site-packages/torch/_ops.py" source_line=756}
  %constant.1830 = f32[] constant(1), metadata={op_type="aten__mean" op_name="aten__mean" source_file="/usr/local/lib/python3.10/site-packages/torch/_ops.py" source_line=756}
  %convert.1832 = f32[] convert(s32[] %constant.1823), metadata={op_type="aten__mean" op_name="aten__mean" source_file="/usr/local/lib/python3.10/site-packages/torch/_ops.py" source_line=756}
  %divide.1833 = f32[] divide(f32[] %constant.1830, f32[] %convert.1832), metadata={op_type="aten__mean" op_name="aten__mean" source_file="/usr/local/lib/python3.10/site-packages/torch/_ops.py" source_line=756}
  %constant.1831 = f32[] constant(nan), metadata={op_type="aten__mean" op_name="aten__mean" source_file="/usr/local/lib/python3.10/site-packages/torch/_ops.py" source_line=756}
  %select.1835 = f32[] select(pred[] %compare.1834, f32[] %divide.1833, f32[] %constant.1831), metadata={op_type="aten__mean" op_name="aten__mean" source_file="/usr/local/lib/python3.10/site-packages/torch/_ops.py" source_line=756}
  %broadcast.1836 = f32[16]{0} broadcast(f32[] %select.1835), dimensions={}, metadata={op_type="aten__mean" op_name="aten__mean" source_file="/usr/local/lib/python3.10/site-packages/torch/_ops.py" source_line=756}
  %multiply.1837 = f32[16]{0} multiply(f32[16]{0} %reduce.1828, f32[16]{0} %broadcast.1836), metadata={op_type="aten__mean" op_name="aten__mean" source_file="/usr/local/lib/python3.10/site-packages/torch/_ops.py" source_line=756}
  %reshape.1838 = f32[16,1]{1,0} reshape(f32[16]{0} %multiply.1837), metadata={op_type="aten__mean" op_name="aten__mean" source_file="/usr/local/lib/python3.10/site-packages/torch/_ops.py" source_line=756}
  %convert.1839 = f32[16,1]{1,0} convert(f32[16,1]{1,0} %reshape.1838), metadata={op_type="aten__mean" op_name="aten__mean" source_file="/usr/local/lib/python3.10/site-packages/torch/_ops.py" source_line=756}
  %constant.1818 = f32[] constant(1), metadata={op_type="prim__Constant" op_name="prim__Constant" source_file="/usr/local/lib/python3.10/site-packages/torch/_ops.py" source_line=756}
  %multiply.1840 = f32[] multiply(f32[] %p1.4, f32[] %constant.1818), metadata={op_type="aten__add" op_name="aten__add.446/aten__add" source_file="/usr/local/lib/python3.10/site-packages/torch/_ops.py" source_line=756}
  %broadcast.1841 = f32[16,1]{1,0} broadcast(f32[] %multiply.1840), dimensions={}, metadata={op_type="aten__add" op_name="aten__add.446/aten__add" source_file="/usr/local/lib/python3.10/site-packages/torch/_ops.py" source_line=756}
  %add.1842 = f32[16,1]{1,0} add(f32[16,1]{1,0} %convert.1839, f32[16,1]{1,0} %broadcast.1841), metadata={op_type="aten__add" op_name="aten__add.446/aten__add" source_file="/usr/local/lib/python3.10/site-packages/torch/_ops.py" source_line=756}
  %rsqrt.1843 = f32[16,1]{1,0} rsqrt(f32[16,1]{1,0} %add.1842), metadata={op_type="aten__rsqrt" op_name="aten__rsqrt" source_file="/usr/local/lib/python3.10/site-packages/torch/_ops.py" source_line=756}
  %reshape.1844 = f32[16]{0} reshape(f32[16,1]{1,0} %rsqrt.1843), metadata={op_type="aten__mul" op_name="aten__mul.447/aten__mul" source_file="/usr/local/lib/python3.10/site-packages/torch/_ops.py" source_line=756}
  %broadcast.1845 = f32[16,1024]{1,0} broadcast(f32[16]{0} %reshape.1844), dimensions={0}, metadata={op_type="aten__mul" op_name="aten__mul.447/aten__mul" source_file="/usr/local/lib/python3.10/site-packages/torch/_ops.py" source_line=756}
  %multiply.1846 = f32[16,1024]{1,0} multiply(f32[16,1024]{1,0} %add.1809, f32[16,1024]{1,0} %broadcast.1845), metadata={op_type="aten__mul" op_name="aten__mul.447/aten__mul" source_file="/usr/local/lib/python3.10/site-packages/torch/_ops.py" source_line=756}
  %convert.1847 = bf16[16,1024]{1,0} convert(f32[16,1024]{1,0} %multiply.1846), metadata={op_type="xla__cast" op_name="xla__cast" source_file="/usr/local/lib/python3.10/site-packages/torch/_ops.py" source_line=756}
  %convert.1848 = f32[16,1024]{1,0} convert(bf16[16,1024]{1,0} %convert.1847), metadata={op_type="xla__cast" op_name="xla__cast" source_file="/usr/local/lib/python3.10/site-packages/torch/_ops.py" source_line=756}
  %p105.1816 = bf16[1024]{0} parameter(105), metadata={op_type="xla__device_data" op_name="xla__device_data" source_file="/usr/local/lib/python3.10/site-packages/torch_xla/_dynamo/dynamo_bridge.py" source_line=355}
  %convert.1817 = f32[1024]{0} convert(bf16[1024]{0} %p105.1816), metadata={op_type="xla__cast" op_name="xla__cast" source_file="/usr/local/lib/python3.10/site-packages/torch/_ops.py" source_line=756}
  %broadcast.1849 = f32[16,1024]{1,0} broadcast(f32[1024]{0} %convert.1817), dimensions={1}, metadata={op_type="aten__mul" op_name="aten__mul.448/aten__mul" source_file="/usr/local/lib/python3.10/site-packages/torch/_ops.py" source_line=756}
  %multiply.1850 = f32[16,1024]{1,0} multiply(f32[16,1024]{1,0} %convert.1848, f32[16,1024]{1,0} %broadcast.1849), metadata={op_type="aten__mul" op_name="aten__mul.448/aten__mul" source_file="/usr/local/lib/python3.10/site-packages/torch/_ops.py" source_line=756}
  %convert.1851 = bf16[16,1024]{1,0} convert(f32[16,1024]{1,0} %multiply.1850), metadata={op_type="xla__cast" op_name="xla__cast" source_file="/usr/local/lib/python3.10/site-packages/torch/_ops.py" source_line=756}
  %p104.1814 = bf16[6144,1024]{1,0} parameter(104), metadata={op_type="xla__device_data" op_name="xla__device_data" source_file="/usr/local/lib/python3.10/site-packages/torch_xla/_dynamo/dynamo_bridge.py" source_line=355}
  %transpose.1815 = bf16[1024,6144]{0,1} transpose(bf16[6144,1024]{1,0} %p104.1814), dimensions={1,0}, metadata={op_type="aten__permute" op_name="aten__permute" source_file="/usr/local/lib/python3.10/site-packages/torch/_ops.py" source_line=756}
  %dot.1852 = bf16[16,6144]{1,0} dot(bf16[16,1024]{1,0} %convert.1851, bf16[1024,6144]{0,1} %transpose.1815), lhs_contracting_dims={1}, rhs_contracting_dims={0}, metadata={op_type="aten__mm" op_name="aten__mm" source_file="/usr/local/lib/python3.10/site-packages/torch/_ops.py" source_line=756}
  %slice.1855 = bf16[16,3072]{1,0} slice(bf16[16,6144]{1,0} %dot.1852), slice={[0:16], [0:3072]}, metadata={op_type="xla__select" op_name="xla__select" source_file="/usr/local/lib/python3.10/site-packages/torch/_ops.py" source_line=756}
  %logistic.1856 = bf16[16,3072]{1,0} logistic(bf16[16,3072]{1,0} %slice.1855), metadata={op_type="aten__silu" op_name="aten__silu" source_file="/usr/local/lib/python3.10/site-packages/torch/_ops.py" source_line=756}
  %multiply.1857 = bf16[16,3072]{1,0} multiply(bf16[16,3072]{1,0} %slice.1855, bf16[16,3072]{1,0} %logistic.1856), metadata={op_type="aten__silu" op_name="aten__silu" source_file="/usr/local/lib/python3.10/site-packages/torch/_ops.py" source_line=756}
  %convert.1858 = f32[16,3072]{1,0} convert(bf16[16,3072]{1,0} %multiply.1857), metadata={op_type="xla__cast" op_name="xla__cast" source_file="/usr/local/lib/python3.10/site-packages/torch/_ops.py" source_line=756}
  %slice.1853 = bf16[16,3072]{1,0} slice(bf16[16,6144]{1,0} %dot.1852), slice={[0:16], [3072:6144]}, metadata={op_type="xla__select" op_name="xla__select" source_file="/usr/local/lib/python3.10/site-packages/torch/_ops.py" source_line=756}
  %convert.1854 = f32[16,3072]{1,0} convert(bf16[16,3072]{1,0} %slice.1853), metadata={op_type="xla__cast" op_name="xla__cast" source_file="/usr/local/lib/python3.10/site-packages/torch/_ops.py" source_line=756}
  %multiply.1859 = f32[16,3072]{1,0} multiply(f32[16,3072]{1,0} %convert.1858, f32[16,3072]{1,0} %convert.1854), metadata={op_type="aten__mul" op_name="aten__mul.449/aten__mul" source_file="/usr/local/lib/python3.10/site-packages/torch/_ops.py" source_line=756}
  %convert.1860 = bf16[16,3072]{1,0} convert(f32[16,3072]{1,0} %multiply.1859), metadata={op_type="xla__cast" op_name="xla__cast" source_file="/usr/local/lib/python3.10/site-packages/torch/_ops.py" source_line=756}
  %p103.1812 = bf16[1024,3072]{1,0} parameter(103), metadata={op_type="xla__device_data" op_name="xla__device_data" source_file="/usr/local/lib/python3.10/site-packages/torch_xla/_dynamo/dynamo_bridge.py" source_line=355}
  %transpose.1813 = bf16[3072,1024]{0,1} transpose(bf16[1024,3072]{1,0} %p103.1812), dimensions={1,0}, metadata={op_type="aten__permute" op_name="aten__permute" source_file="/usr/local/lib/python3.10/site-packages/torch/_ops.py" source_line=756}
  %dot.1861 = bf16[16,1024]{1,0} dot(bf16[16,3072]{1,0} %convert.1860, bf16[3072,1024]{0,1} %transpose.1813), lhs_contracting_dims={1}, rhs_contracting_dims={0}, metadata={op_type="aten__mm" op_name="aten__mm" source_file="/usr/local/lib/python3.10/site-packages/torch/_ops.py" source_line=756}
  %convert.1862 = f32[16,1024]{1,0} convert(bf16[16,1024]{1,0} %dot.1861), metadata={op_type="xla__cast" op_name="xla__cast" source_file="/usr/local/lib/python3.10/site-packages/torch/_ops.py" source_line=756}
  %convert.1810 = bf16[16,1024]{1,0} convert(f32[16,1024]{1,0} %add.1809), metadata={op_type="xla__cast" op_name="xla__cast" source_file="/usr/local/lib/python3.10/site-packages/torch/_ops.py" source_line=756}
  %convert.1811 = f32[16,1024]{1,0} convert(bf16[16,1024]{1,0} %convert.1810), metadata={op_type="xla__cast" op_name="xla__cast" source_file="/usr/local/lib/python3.10/site-packages/torch/_ops.py" source_line=756}
  %constant.12 = f32[] constant(1), metadata={op_type="prim__Constant" op_name="prim__Constant" source_file="/usr/local/lib/python3.10/site-packages/torch/_ops.py" source_line=756}
  %broadcast.1863 = f32[16,1024]{1,0} broadcast(f32[] %constant.12), dimensions={}, metadata={op_type="aten__add" op_name="aten__add.450/aten__add" source_file="/usr/local/lib/python3.10/site-packages/torch/_ops.py" source_line=756}
  %multiply.1864 = f32[16,1024]{1,0} multiply(f32[16,1024]{1,0} %convert.1811, f32[16,1024]{1,0} %broadcast.1863), metadata={op_type="aten__add" op_name="aten__add.450/aten__add" source_file="/usr/local/lib/python3.10/site-packages/torch/_ops.py" source_line=756}
  %add.1865 = f32[16,1024]{1,0} add(f32[16,1024]{1,0} %convert.1862, f32[16,1024]{1,0} %multiply.1864), metadata={op_type="aten__add" op_name="aten__add.450/aten__add" source_file="/usr/local/lib/python3.10/site-packages/torch/_ops.py" source_line=756}
  %constant.11 = f32[] constant(2), metadata={op_type="prim__Constant" op_name="prim__Constant" source_file="/usr/local/lib/python3.10/site-packages/torch/_ops.py" source_line=756}
  %broadcast.1866 = f32[16,1024]{1,0} broadcast(f32[] %constant.11), dimensions={}, metadata={op_type="aten__pow" op_name="aten__pow" source_file="/usr/local/lib/python3.10/site-packages/torch/_ops.py" source_line=756}
  %power.1867 = f32[16,1024]{1,0} power(f32[16,1024]{1,0} %add.1865, f32[16,1024]{1,0} %broadcast.1866), metadata={op_type="aten__pow" op_name="aten__pow" source_file="/usr/local/lib/python3.10/site-packages/torch/_ops.py" source_line=756}
  %constant.1868 = f32[] constant(0), metadata={op_type="aten__mean" op_name="aten__mean" source_file="/usr/local/lib/python3.10/site-packages/torch/_ops.py" source_line=756}
  %reduce.1874 = f32[16]{0} reduce(f32[16,1024]{1,0} %power.1867, f32[] %constant.1868), dimensions={1}, to_apply=%AddComputation.1870, metadata={op_type="aten__mean" op_name="aten__mean" source_file="/usr/local/lib/python3.10/site-packages/torch/_ops.py" source_line=756}
  %constant.1869 = s32[] constant(1024), metadata={op_type="aten__mean" op_name="aten__mean" source_file="/usr/local/lib/python3.10/site-packages/torch/_ops.py" source_line=756}
  %constant.1875 = s32[] constant(0), metadata={op_type="aten__mean" op_name="aten__mean" source_file="/usr/local/lib/python3.10/site-packages/torch/_ops.py" source_line=756}
  %compare.1880 = pred[] compare(s32[] %constant.1869, s32[] %constant.1875), direction=NE, metadata={op_type="aten__mean" op_name="aten__mean" source_file="/usr/local/lib/python3.10/site-packages/torch/_ops.py" source_line=756}
  %constant.1876 = f32[] constant(1), metadata={op_type="aten__mean" op_name="aten__mean" source_file="/usr/local/lib/python3.10/site-packages/torch/_ops.py" source_line=756}
  %convert.1878 = f32[] convert(s32[] %constant.1869), metadata={op_type="aten__mean" op_name="aten__mean" source_file="/usr/local/lib/python3.10/site-packages/torch/_ops.py" source_line=756}
  %divide.1879 = f32[] divide(f32[] %constant.1876, f32[] %convert.1878), metadata={op_type="aten__mean" op_name="aten__mean" source_file="/usr/local/lib/python3.10/site-packages/torch/_ops.py" source_line=756}
  %constant.1877 = f32[] constant(nan), metadata={op_type="aten__mean" op_name="aten__mean" source_file="/usr/local/lib/python3.10/site-packages/torch/_ops.py" source_line=756}
  %select.1881 = f32[] select(pred[] %compare.1880, f32[] %divide.1879, f32[] %constant.1877), metadata={op_type="aten__mean" op_name="aten__mean" source_file="/usr/local/lib/python3.10/site-packages/torch/_ops.py" source_line=756}
  %broadcast.1882 = f32[16]{0} broadcast(f32[] %select.1881), dimensions={}, metadata={op_type="aten__mean" op_name="aten__mean" source_file="/usr/local/lib/python3.10/site-packages/torch/_ops.py" source_line=756}
  %multiply.1883 = f32[16]{0} multiply(f32[16]{0} %reduce.1874, f32[16]{0} %broadcast.1882), metadata={op_type="aten__mean" op_name="aten__mean" source_file="/usr/local/lib/python3.10/site-packages/torch/_ops.py" source_line=756}
  %reshape.1884 = f32[16,1]{1,0} reshape(f32[16]{0} %multiply.1883), metadata={op_type="aten__mean" op_name="aten__mean" source_file="/usr/local/lib/python3.10/site-packages/torch/_ops.py" source_line=756}
  %convert.1885 = f32[16,1]{1,0} convert(f32[16,1]{1,0} %reshape.1884), metadata={op_type="aten__mean" op_name="aten__mean" source_file="/usr/local/lib/python3.10/site-packages/torch/_ops.py" source_line=756}
  %constant.10 = f32[] constant(1), metadata={op_type="prim__Constant" op_name="prim__Constant" source_file="/usr/local/lib/python3.10/site-packages/torch/_ops.py" source_line=756}
  %multiply.1886 = f32[] multiply(f32[] %p1.4, f32[] %constant.10), metadata={op_type="aten__add" op_name="aten__add.451/aten__add" source_file="/usr/local/lib/python3.10/site-packages/torch/_ops.py" source_line=756}
  %broadcast.1887 = f32[16,1]{1,0} broadcast(f32[] %multiply.1886), dimensions={}, metadata={op_type="aten__add" op_name="aten__add.451/aten__add" source_file="/usr/local/lib/python3.10/site-packages/torch/_ops.py" source_line=756}
  %add.1888 = f32[16,1]{1,0} add(f32[16,1]{1,0} %convert.1885, f32[16,1]{1,0} %broadcast.1887), metadata={op_type="aten__add" op_name="aten__add.451/aten__add" source_file="/usr/local/lib/python3.10/site-packages/torch/_ops.py" source_line=756}
  %rsqrt.1889 = f32[16,1]{1,0} rsqrt(f32[16,1]{1,0} %add.1888), metadata={op_type="aten__rsqrt" op_name="aten__rsqrt" source_file="/usr/local/lib/python3.10/site-packages/torch/_ops.py" source_line=756}
  %reshape.1890 = f32[16]{0} reshape(f32[16,1]{1,0} %rsqrt.1889), metadata={op_type="aten__mul" op_name="aten__mul.452/aten__mul" source_file="/usr/local/lib/python3.10/site-packages/torch/_ops.py" source_line=756}
  %broadcast.1891 = f32[16,1024]{1,0} broadcast(f32[16]{0} %reshape.1890), dimensions={0}, metadata={op_type="aten__mul" op_name="aten__mul.452/aten__mul" source_file="/usr/local/lib/python3.10/site-packages/torch/_ops.py" source_line=756}
  %multiply.1892 = f32[16,1024]{1,0} multiply(f32[16,1024]{1,0} %add.1865, f32[16,1024]{1,0} %broadcast.1891), metadata={op_type="aten__mul" op_name="aten__mul.452/aten__mul" source_file="/usr/local/lib/python3.10/site-packages/torch/_ops.py" source_line=756}
  %convert.1893 = bf16[16,1024]{1,0} convert(f32[16,1024]{1,0} %multiply.1892), metadata={op_type="xla__cast" op_name="xla__cast" source_file="/usr/local/lib/python3.10/site-packages/torch/_ops.py" source_line=756}
  %convert.1894 = f32[16,1024]{1,0} convert(bf16[16,1024]{1,0} %convert.1893), metadata={op_type="xla__cast" op_name="xla__cast" source_file="/usr/local/lib/python3.10/site-packages/torch/_ops.py" source_line=756}
  %p3.8 = bf16[1024]{0} parameter(3), metadata={op_type="xla__device_data" op_name="xla__device_data" source_file="/usr/local/lib/python3.10/site-packages/torch_xla/_dynamo/dynamo_bridge.py" source_line=355}
  %convert.9 = f32[1024]{0} convert(bf16[1024]{0} %p3.8), metadata={op_type="xla__cast" op_name="xla__cast" source_file="/usr/local/lib/python3.10/site-packages/torch/_ops.py" source_line=756}
  %broadcast.1895 = f32[16,1024]{1,0} broadcast(f32[1024]{0} %convert.9), dimensions={1}, metadata={op_type="aten__mul" op_name="aten__mul.453/aten__mul" source_file="/usr/local/lib/python3.10/site-packages/torch/_ops.py" source_line=756}
  %multiply.1896 = f32[16,1024]{1,0} multiply(f32[16,1024]{1,0} %convert.1894, f32[16,1024]{1,0} %broadcast.1895), metadata={op_type="aten__mul" op_name="aten__mul.453/aten__mul" source_file="/usr/local/lib/python3.10/site-packages/torch/_ops.py" source_line=756}
  %convert.1897 = bf16[16,1024]{1,0} convert(f32[16,1024]{1,0} %multiply.1896), metadata={op_type="xla__cast" op_name="xla__cast" source_file="/usr/local/lib/python3.10/site-packages/torch/_ops.py" source_line=756}
  %p2.6 = bf16[4096,1024]{1,0} parameter(2), metadata={op_type="xla__device_data" op_name="xla__device_data" source_file="/usr/local/lib/python3.10/site-packages/torch_xla/_dynamo/dynamo_bridge.py" source_line=355}
  %transpose.7 = bf16[1024,4096]{0,1} transpose(bf16[4096,1024]{1,0} %p2.6), dimensions={1,0}, metadata={op_type="aten__permute" op_name="aten__permute" source_file="/usr/local/lib/python3.10/site-packages/torch/_ops.py" source_line=756}
  %dot.1898 = bf16[16,4096]{1,0} dot(bf16[16,1024]{1,0} %convert.1897, bf16[1024,4096]{0,1} %transpose.7), lhs_contracting_dims={1}, rhs_contracting_dims={0}, metadata={op_type="aten__mm" op_name="aten__mm" source_file="/usr/local/lib/python3.10/site-packages/torch/_ops.py" source_line=756}
  %slice.1899 = bf16[16,2048]{1,0} slice(bf16[16,4096]{1,0} %dot.1898), slice={[0:16], [0:2048]}, metadata={op_type="aten__split" op_name="aten__split" source_file="/usr/local/lib/python3.10/site-packages/torch/_ops.py" source_line=756}
  %slice.1900 = bf16[16,1024]{1,0} slice(bf16[16,4096]{1,0} %dot.1898), slice={[0:16], [2048:3072]}, metadata={op_type="aten__split" op_name="aten__split" source_file="/usr/local/lib/python3.10/site-packages/torch/_ops.py" source_line=756}
  %reshape.1902 = bf16[16,8,128]{2,1,0} reshape(bf16[16,1024]{1,0} %slice.1900), metadata={op_type="aten__view" op_name="aten__view" source_file="/usr/local/lib/python3.10/site-packages/torch/_ops.py" source_line=756}
  %convert.1903 = f32[16,8,128]{2,1,0} convert(bf16[16,8,128]{2,1,0} %reshape.1902), metadata={op_type="xla__cast" op_name="xla__cast" source_file="/usr/local/lib/python3.10/site-packages/torch/_ops.py" source_line=756}
  %constant.5 = f32[] constant(2), metadata={op_type="prim__Constant" op_name="prim__Constant" source_file="/usr/local/lib/python3.10/site-packages/torch/_ops.py" source_line=756}
  %broadcast.1904 = f32[16,8,128]{2,1,0} broadcast(f32[] %constant.5), dimensions={}, metadata={op_type="aten__pow" op_name="aten__pow" source_file="/usr/local/lib/python3.10/site-packages/torch/_ops.py" source_line=756}
  %power.1905 = f32[16,8,128]{2,1,0} power(f32[16,8,128]{2,1,0} %convert.1903, f32[16,8,128]{2,1,0} %broadcast.1904), metadata={op_type="aten__pow" op_name="aten__pow" source_file="/usr/local/lib/python3.10/site-packages/torch/_ops.py" source_line=756}
  %constant.1906 = f32[] constant(0), metadata={op_type="aten__mean" op_name="aten__mean" source_file="/usr/local/lib/python3.10/site-packages/torch/_ops.py" source_line=756}
  %reduce.1912 = f32[16,8]{1,0} reduce(f32[16,8,128]{2,1,0} %power.1905, f32[] %constant.1906), dimensions={2}, to_apply=%AddComputation.1908, metadata={op_type="aten__mean" op_name="aten__mean" source_file="/usr/local/lib/python3.10/site-packages/torch/_ops.py" source_line=756}
  %constant.1907 = s32[] constant(128), metadata={op_type="aten__mean" op_name="aten__mean" source_file="/usr/local/lib/python3.10/site-packages/torch/_ops.py" source_line=756}
  %constant.1913 = s32[] constant(0), metadata={op_type="aten__mean" op_name="aten__mean" source_file="/usr/local/lib/python3.10/site-packages/torch/_ops.py" source_line=756}
  %compare.1918 = pred[] compare(s32[] %constant.1907, s32[] %constant.1913), direction=NE, metadata={op_type="aten__mean" op_name="aten__mean" source_file="/usr/local/lib/python3.10/site-packages/torch/_ops.py" source_line=756}
  %constant.1914 = f32[] constant(1), metadata={op_type="aten__mean" op_name="aten__mean" source_file="/usr/local/lib/python3.10/site-packages/torch/_ops.py" source_line=756}
  %convert.1916 = f32[] convert(s32[] %constant.1907), metadata={op_type="aten__mean" op_name="aten__mean" source_file="/usr/local/lib/python3.10/site-packages/torch/_ops.py" source_line=756}
  %divide.1917 = f32[] divide(f32[] %constant.1914, f32[] %convert.1916), metadata={op_type="aten__mean" op_name="aten__mean" source_file="/usr/local/lib/python3.10/site-packages/torch/_ops.py" source_line=756}
  %constant.1915 = f32[] constant(nan), metadata={op_type="aten__mean" op_name="aten__mean" source_file="/usr/local/lib/python3.10/site-packages/torch/_ops.py" source_line=756}
  %select.1919 = f32[] select(pred[] %compare.1918, f32[] %divide.1917, f32[] %constant.1915), metadata={op_type="aten__mean" op_name="aten__mean" source_file="/usr/local/lib/python3.10/site-packages/torch/_ops.py" source_line=756}
  %broadcast.1920 = f32[16,8]{1,0} broadcast(f32[] %select.1919), dimensions={}, metadata={op_type="aten__mean" op_name="aten__mean" source_file="/usr/local/lib/python3.10/site-packages/torch/_ops.py" source_line=756}
  %multiply.1921 = f32[16,8]{1,0} multiply(f32[16,8]{1,0} %reduce.1912, f32[16,8]{1,0} %broadcast.1920), metadata={op_type="aten__mean" op_name="aten__mean" source_file="/usr/local/lib/python3.10/site-packages/torch/_ops.py" source_line=756}
  %reshape.1922 = f32[16,8,1]{2,1,0} reshape(f32[16,8]{1,0} %multiply.1921), metadata={op_type="aten__mean" op_name="aten__mean" source_file="/usr/local/lib/python3.10/site-packages/torch/_ops.py" source_line=756}
  %convert.1923 = f32[16,8,1]{2,1,0} convert(f32[16,8,1]{2,1,0} %reshape.1922), metadata={op_type="aten__mean" op_name="aten__mean" source_file="/usr/local/lib/python3.10/site-packages/torch/_ops.py" source_line=756}
  %constant.3 = f32[] constant(1), metadata={op_type="prim__Constant" op_name="prim__Constant" source_file="/usr/local/lib/python3.10/site-packages/torch/_ops.py" source_line=756}
  %multiply.1924 = f32[] multiply(f32[] %p1.4, f32[] %constant.3), metadata={op_type="aten__add" op_name="aten__add.454/aten__add" source_file="/usr/local/lib/python3.10/site-packages/torch/_ops.py" source_line=756}
  %broadcast.1925 = f32[16,8,1]{2,1,0} broadcast(f32[] %multiply.1924), dimensions={}, metadata={op_type="aten__add" op_name="aten__add.454/aten__add" source_file="/usr/local/lib/python3.10/site-packages/torch/_ops.py" source_line=756}
  %add.1926 = f32[16,8,1]{2,1,0} add(f32[16,8,1]{2,1,0} %convert.1923, f32[16,8,1]{2,1,0} %broadcast.1925), metadata={op_type="aten__add" op_name="aten__add.454/aten__add" source_file="/usr/local/lib/python3.10/site-packages/torch/_ops.py" source_line=756}
  %rsqrt.1927 = f32[16,8,1]{2,1,0} rsqrt(f32[16,8,1]{2,1,0} %add.1926), metadata={op_type="aten__rsqrt" op_name="aten__rsqrt" source_file="/usr/local/lib/python3.10/site-packages/torch/_ops.py" source_line=756}
  %reshape.1928 = f32[16,8]{1,0} reshape(f32[16,8,1]{2,1,0} %rsqrt.1927), metadata={op_type="aten__mul" op_name="aten__mul.455/aten__mul" source_file="/usr/local/lib/python3.10/site-packages/torch/_ops.py" source_line=756}
  %broadcast.1929 = f32[16,8,128]{2,1,0} broadcast(f32[16,8]{1,0} %reshape.1928), dimensions={0,1}, metadata={op_type="aten__mul" op_name="aten__mul.455/aten__mul" source_file="/usr/local/lib/python3.10/site-packages/torch/_ops.py" source_line=756}
  %multiply.1930 = f32[16,8,128]{2,1,0} multiply(f32[16,8,128]{2,1,0} %convert.1903, f32[16,8,128]{2,1,0} %broadcast.1929), metadata={op_type="aten__mul" op_name="aten__mul.455/aten__mul" source_file="/usr/local/lib/python3.10/site-packages/torch/_ops.py" source_line=756}
  %convert.1931 = bf16[16,8,128]{2,1,0} convert(f32[16,8,128]{2,1,0} %multiply.1930), metadata={op_type="xla__cast" op_name="xla__cast" source_file="/usr/local/lib/python3.10/site-packages/torch/_ops.py" source_line=756}
  %convert.1932 = f32[16,8,128]{2,1,0} convert(bf16[16,8,128]{2,1,0} %convert.1931), metadata={op_type="xla__cast" op_name="xla__cast" source_file="/usr/local/lib/python3.10/site-packages/torch/_ops.py" source_line=756}
  %p0.1 = bf16[128]{0} parameter(0), metadata={op_type="xla__device_data" op_name="xla__device_data" source_file="/usr/local/lib/python3.10/site-packages/torch_xla/_dynamo/dynamo_bridge.py" source_line=355}
  %convert.2 = f32[128]{0} convert(bf16[128]{0} %p0.1), metadata={op_type="xla__cast" op_name="xla__cast" source_file="/usr/local/lib/python3.10/site-packages/torch/_ops.py" source_line=756}
  %broadcast.1933 = f32[16,8,128]{2,1,0} broadcast(f32[128]{0} %convert.2), dimensions={2}, metadata={op_type="aten__mul" op_name="aten__mul.456/aten__mul" source_file="/usr/local/lib/python3.10/site-packages/torch/_ops.py" source_line=756}
  %multiply.1934 = f32[16,8,128]{2,1,0} multiply(f32[16,8,128]{2,1,0} %convert.1932, f32[16,8,128]{2,1,0} %broadcast.1933), metadata={op_type="aten__mul" op_name="aten__mul.456/aten__mul" source_file="/usr/local/lib/python3.10/site-packages/torch/_ops.py" source_line=756}
  %convert.1935 = bf16[16,8,128]{2,1,0} convert(f32[16,8,128]{2,1,0} %multiply.1934), metadata={op_type="xla__cast" op_name="xla__cast" source_file="/usr/local/lib/python3.10/site-packages/torch/_ops.py" source_line=756}
  %reshape.1936 = bf16[16,1024]{1,0} reshape(bf16[16,8,128]{2,1,0} %convert.1935), metadata={op_type="aten__view" op_name="aten__view" source_file="/usr/local/lib/python3.10/site-packages/torch/_ops.py" source_line=756}
  %reshape.1937 = bf16[16,8,128]{2,1,0} reshape(bf16[16,1024]{1,0} %reshape.1936), metadata={op_type="aten__view" op_name="aten__view" source_file="/usr/local/lib/python3.10/site-packages/torch/_ops.py" source_line=756}
  %slice.1947 = bf16[16,8,64]{2,1,0} slice(bf16[16,8,128]{2,1,0} %reshape.1937), slice={[0:16], [0:8], [0:64]}, metadata={op_type="aten__split" op_name="aten__split" source_file="/usr/local/lib/python3.10/site-packages/torch/_ops.py" source_line=756}
  %convert.1972 = f32[16,8,64]{2,1,0} convert(bf16[16,8,64]{2,1,0} %slice.1947), metadata={op_type="xla__cast" op_name="xla__cast" source_file="/usr/local/lib/python3.10/site-packages/torch/_ops.py" source_line=756}
  %p107.1941 = bf16[40960,128]{1,0} parameter(107), metadata={op_type="xla__device_data" op_name="xla__device_data" source_file="/usr/local/lib/python3.10/site-packages/torch_xla/_dynamo/dynamo_bridge.py" source_line=355}
  %p106.1940 = s32[16]{0} parameter(106), metadata={op_type="xla__device_data" op_name="xla__device_data" source_file="/usr/local/lib/python3.10/site-packages/torch_xla/_dynamo/dynamo_bridge.py" source_line=355}
  %gather.1942 = bf16[16,128]{1,0} gather(bf16[40960,128]{1,0} %p107.1941, s32[16]{0} %p106.1940), offset_dims={1}, collapsed_slice_dims={0}, start_index_map={0}, index_vector_dim=1, slice_sizes={1,128}, metadata={op_type="aten__index_select" op_name="aten__index_select" source_file="/usr/local/lib/python3.10/site-packages/torch/_ops.py" source_line=756}
  %slice.1943 = bf16[16,64]{1,0} slice(bf16[16,128]{1,0} %gather.1942), slice={[0:16], [0:64]}, metadata={op_type="aten__split" op_name="aten__split" source_file="/usr/local/lib/python3.10/site-packages/torch/_ops.py" source_line=756}
  %reshape.1954 = bf16[16,1,64]{2,1,0} reshape(bf16[16,64]{1,0} %slice.1943), metadata={op_type="aten__view" op_name="aten__view" source_file="/usr/local/lib/python3.10/site-packages/torch/_ops.py" source_line=756}
  %convert.1971 = f32[16,1,64]{2,1,0} convert(bf16[16,1,64]{2,1,0} %reshape.1954), metadata={op_type="xla__cast" op_name="xla__cast" source_file="/usr/local/lib/python3.10/site-packages/torch/_ops.py" source_line=756}
  %reshape.1973 = f32[16,64]{1,0} reshape(f32[16,1,64]{2,1,0} %convert.1971), metadata={op_type="aten__mul" op_name="aten__mul.457/aten__mul" source_file="/usr/local/lib/python3.10/site-packages/torch/_ops.py" source_line=756}
  %broadcast.1974 = f32[16,8,64]{2,1,0} broadcast(f32[16,64]{1,0} %reshape.1973), dimensions={0,2}, metadata={op_type="aten__mul" op_name="aten__mul.457/aten__mul" source_file="/usr/local/lib/python3.10/site-packages/torch/_ops.py" source_line=756}
  %multiply.1975 = f32[16,8,64]{2,1,0} multiply(f32[16,8,64]{2,1,0} %convert.1972, f32[16,8,64]{2,1,0} %broadcast.1974), metadata={op_type="aten__mul" op_name="aten__mul.457/aten__mul" source_file="/usr/local/lib/python3.10/site-packages/torch/_ops.py" source_line=756}
  %convert.1976 = bf16[16,8,64]{2,1,0} convert(f32[16,8,64]{2,1,0} %multiply.1975), metadata={op_type="xla__cast" op_name="xla__cast" source_file="/usr/local/lib/python3.10/site-packages/torch/_ops.py" source_line=756}
  %slice.1948 = bf16[16,8,64]{2,1,0} slice(bf16[16,8,128]{2,1,0} %reshape.1937), slice={[0:16], [0:8], [64:128]}, metadata={op_type="aten__split" op_name="aten__split" source_file="/usr/local/lib/python3.10/site-packages/torch/_ops.py" source_line=756}
  %convert.1966 = f32[16,8,64]{2,1,0} convert(bf16[16,8,64]{2,1,0} %slice.1948), metadata={op_type="xla__cast" op_name="xla__cast" source_file="/usr/local/lib/python3.10/site-packages/torch/_ops.py" source_line=756}
  %slice.1944 = bf16[16,64]{1,0} slice(bf16[16,128]{1,0} %gather.1942), slice={[0:16], [64:128]}, metadata={op_type="aten__split" op_name="aten__split" source_file="/usr/local/lib/python3.10/site-packages/torch/_ops.py" source_line=756}
  %reshape.1945 = bf16[16,1,64]{2,1,0} reshape(bf16[16,64]{1,0} %slice.1944), metadata={op_type="aten__view" op_name="aten__view" source_file="/usr/local/lib/python3.10/site-packages/torch/_ops.py" source_line=756}
  %convert.1965 = f32[16,1,64]{2,1,0} convert(bf16[16,1,64]{2,1,0} %reshape.1945), metadata={op_type="xla__cast" op_name="xla__cast" source_file="/usr/local/lib/python3.10/site-packages/torch/_ops.py" source_line=756}
  %reshape.1967 = f32[16,64]{1,0} reshape(f32[16,1,64]{2,1,0} %convert.1965), metadata={op_type="aten__mul" op_name="aten__mul.458/aten__mul" source_file="/usr/local/lib/python3.10/site-packages/torch/_ops.py" source_line=756}
  %broadcast.1968 = f32[16,8,64]{2,1,0} broadcast(f32[16,64]{1,0} %reshape.1967), dimensions={0,2}, metadata={op_type="aten__mul" op_name="aten__mul.458/aten__mul" source_file="/usr/local/lib/python3.10/site-packages/torch/_ops.py" source_line=756}
  %multiply.1969 = f32[16,8,64]{2,1,0} multiply(f32[16,8,64]{2,1,0} %convert.1966, f32[16,8,64]{2,1,0} %broadcast.1968), metadata={op_type="aten__mul" op_name="aten__mul.458/aten__mul" source_file="/usr/local/lib/python3.10/site-packages/torch/_ops.py" source_line=756}
  %convert.1970 = bf16[16,8,64]{2,1,0} convert(f32[16,8,64]{2,1,0} %multiply.1969), metadata={op_type="xla__cast" op_name="xla__cast" source_file="/usr/local/lib/python3.10/site-packages/torch/_ops.py" source_line=756}
  %constant.1964 = bf16[] constant(1), metadata={op_type="prim__Constant" op_name="prim__Constant" source_file="/usr/local/lib/python3.10/site-packages/torch/_ops.py" source_line=756}
  %broadcast.1977 = bf16[16,8,64]{2,1,0} broadcast(bf16[] %constant.1964), dimensions={}, metadata={op_type="aten__sub" op_name="aten__sub.459/aten__sub" source_file="/usr/local/lib/python3.10/site-packages/torch/_ops.py" source_line=756}
  %multiply.1978 = bf16[16,8,64]{2,1,0} multiply(bf16[16,8,64]{2,1,0} %convert.1970, bf16[16,8,64]{2,1,0} %broadcast.1977), metadata={op_type="aten__sub" op_name="aten__sub.459/aten__sub" source_file="/usr/local/lib/python3.10/site-packages/torch/_ops.py" source_line=756}
  %subtract.1979 = bf16[16,8,64]{2,1,0} subtract(bf16[16,8,64]{2,1,0} %convert.1976, bf16[16,8,64]{2,1,0} %multiply.1978), metadata={op_type="aten__sub" op_name="aten__sub.459/aten__sub" source_file="/usr/local/lib/python3.10/site-packages/torch/_ops.py" source_line=756}
  %convert.1956 = f32[16,8,64]{2,1,0} convert(bf16[16,8,64]{2,1,0} %slice.1948), metadata={op_type="xla__cast" op_name="xla__cast" source_file="/usr/local/lib/python3.10/site-packages/torch/_ops.py" source_line=756}
  %convert.1955 = f32[16,1,64]{2,1,0} convert(bf16[16,1,64]{2,1,0} %reshape.1954), metadata={op_type="xla__cast" op_name="xla__cast" source_file="/usr/local/lib/python3.10/site-packages/torch/_ops.py" source_line=756}
  %reshape.1957 = f32[16,64]{1,0} reshape(f32[16,1,64]{2,1,0} %convert.1955), metadata={op_type="aten__mul" op_name="aten__mul.460/aten__mul" source_file="/usr/local/lib/python3.10/site-packages/torch/_ops.py" source_line=756}
  %broadcast.1958 = f32[16,8,64]{2,1,0} broadcast(f32[16,64]{1,0} %reshape.1957), dimensions={0,2}, metadata={op_type="aten__mul" op_name="aten__mul.460/aten__mul" source_file="/usr/local/lib/python3.10/site-packages/torch/_ops.py" source_line=756}
  %multiply.1959 = f32[16,8,64]{2,1,0} multiply(f32[16,8,64]{2,1,0} %convert.1956, f32[16,8,64]{2,1,0} %broadcast.1958), metadata={op_type="aten__mul" op_name="aten__mul.460/aten__mul" source_file="/usr/local/lib/python3.10/site-packages/torch/_ops.py" source_line=756}
  %convert.1960 = bf16[16,8,64]{2,1,0} convert(f32[16,8,64]{2,1,0} %multiply.1959), metadata={op_type="xla__cast" op_name="xla__cast" source_file="/usr/local/lib/python3.10/site-packages/torch/_ops.py" source_line=756}
  %convert.1949 = f32[16,8,64]{2,1,0} convert(bf16[16,8,64]{2,1,0} %slice.1947), metadata={op_type="xla__cast" op_name="xla__cast" source_file="/usr/local/lib/python3.10/site-packages/torch/_ops.py" source_line=756}
  %convert.1946 = f32[16,1,64]{2,1,0} convert(bf16[16,1,64]{2,1,0} %reshape.1945), metadata={op_type="xla__cast" op_name="xla__cast" source_file="/usr/local/lib/python3.10/site-packages/torch/_ops.py" source_line=756}
  %reshape.1950 = f32[16,64]{1,0} reshape(f32[16,1,64]{2,1,0} %convert.1946), metadata={op_type="aten__mul" op_name="aten__mul.461/aten__mul" source_file="/usr/local/lib/python3.10/site-packages/torch/_ops.py" source_line=756}
  %broadcast.1951 = f32[16,8,64]{2,1,0} broadcast(f32[16,64]{1,0} %reshape.1950), dimensions={0,2}, metadata={op_type="aten__mul" op_name="aten__mul.461/aten__mul" source_file="/usr/local/lib/python3.10/site-packages/torch/_ops.py" source_line=756}
  %multiply.1952 = f32[16,8,64]{2,1,0} multiply(f32[16,8,64]{2,1,0} %convert.1949, f32[16,8,64]{2,1,0} %broadcast.1951), metadata={op_type="aten__mul" op_name="aten__mul.461/aten__mul" source_file="/usr/local/lib/python3.10/site-packages/torch/_ops.py" source_line=756}
  %convert.1953 = bf16[16,8,64]{2,1,0} convert(f32[16,8,64]{2,1,0} %multiply.1952), metadata={op_type="xla__cast" op_name="xla__cast" source_file="/usr/local/lib/python3.10/site-packages/torch/_ops.py" source_line=756}
  %constant.1939 = bf16[] constant(1), metadata={op_type="prim__Constant" op_name="prim__Constant" source_file="/usr/local/lib/python3.10/site-packages/torch/_ops.py" source_line=756}
  %broadcast.1961 = bf16[16,8,64]{2,1,0} broadcast(bf16[] %constant.1939), dimensions={}, metadata={op_type="aten__add" op_name="aten__add.462/aten__add" source_file="/usr/local/lib/python3.10/site-packages/torch/_ops.py" source_line=756}
  %multiply.1962 = bf16[16,8,64]{2,1,0} multiply(bf16[16,8,64]{2,1,0} %convert.1953, bf16[16,8,64]{2,1,0} %broadcast.1961), metadata={op_type="aten__add" op_name="aten__add.462/aten__add" source_file="/usr/local/lib/python3.10/site-packages/torch/_ops.py" source_line=756}
  %add.1963 = bf16[16,8,64]{2,1,0} add(bf16[16,8,64]{2,1,0} %convert.1960, bf16[16,8,64]{2,1,0} %multiply.1962), metadata={op_type="aten__add" op_name="aten__add.462/aten__add" source_file="/usr/local/lib/python3.10/site-packages/torch/_ops.py" source_line=756}
  %concatenate.1980 = bf16[16,8,128]{2,1,0} concatenate(bf16[16,8,64]{2,1,0} %subtract.1979, bf16[16,8,64]{2,1,0} %add.1963), dimensions={2}, metadata={op_type="aten__cat" op_name="aten__cat" source_file="/usr/local/lib/python3.10/site-packages/torch/_ops.py" source_line=756}
  %slice.1938 = bf16[16,8,0]{2,1,0} slice(bf16[16,8,128]{2,1,0} %reshape.1937), slice={[0:16], [0:8], [128:128]}, metadata={op_type="xla__select" op_name="xla__select" source_file="/usr/local/lib/python3.10/site-packages/torch/_ops.py" source_line=756}
  %concatenate.1981 = bf16[16,8,128]{2,1,0} concatenate(bf16[16,8,128]{2,1,0} %concatenate.1980, bf16[16,8,0]{2,1,0} %slice.1938), dimensions={2}, metadata={op_type="aten__cat" op_name="aten__cat" source_file="/usr/local/lib/python3.10/site-packages/torch/_ops.py" source_line=756}
  %reshape.1982 = bf16[16,1024]{1,0} reshape(bf16[16,8,128]{2,1,0} %concatenate.1981), metadata={op_type="aten__view" op_name="aten__view" source_file="/usr/local/lib/python3.10/site-packages/torch/_ops.py" source_line=756}
  %reshape.1983 = bf16[16,8,128]{2,1,0} reshape(bf16[16,1024]{1,0} %reshape.1982), metadata={op_type="aten__view" op_name="aten__view" source_file="/usr/local/lib/python3.10/site-packages/torch/_ops.py" source_line=756}
  %slice.1901 = bf16[16,1024]{1,0} slice(bf16[16,4096]{1,0} %dot.1898), slice={[0:16], [3072:4096]}, metadata={op_type="aten__split" op_name="aten__split" source_file="/usr/local/lib/python3.10/site-packages/torch/_ops.py" source_line=756}
  %reshape.1984 = bf16[16,8,128]{2,1,0} reshape(bf16[16,1024]{1,0} %slice.1901), metadata={op_type="aten__view" op_name="aten__view" source_file="/usr/local/lib/python3.10/site-packages/torch/_ops.py" source_line=756}
  %p108.1985 = bf16[2,4233,16,8,128]{4,3,2,1,0} parameter(108), metadata={op_type="xla__device_data" op_name="xla__device_data" source_file="/usr/local/lib/python3.10/site-packages/torch_xla/_dynamo/dynamo_bridge.py" source_line=355}
  %reshape.1986 = bf16[138706944]{0} reshape(bf16[2,4233,16,8,128]{4,3,2,1,0} %p108.1985), metadata={op_type="aten__as_strided" op_name="aten__as_strided" source_file="/usr/local/lib/python3.10/site-packages/torch/_prims_common/__init__.py" source_line=1991}
  %reshape.1987 = bf16[2,4233,16,8,128]{4,3,2,1,0} reshape(bf16[138706944]{0} %reshape.1986), metadata={op_type="aten__as_strided" op_name="aten__as_strided" source_file="/usr/local/lib/python3.10/site-packages/torch/_prims_common/__init__.py" source_line=1992}
  %reshape.1988 = bf16[138706944]{0} reshape(bf16[2,4233,16,8,128]{4,3,2,1,0} %reshape.1987), metadata={op_type="aten__as_strided" op_name="aten__as_strided" source_file="/usr/local/lib/python3.10/site-packages/torch/_higher_order_ops/auto_functionalize.py" source_line=54}
  %slice.1989 = bf16[69353472]{0} slice(bf16[138706944]{0} %reshape.1988), slice={[0:69353472]}, metadata={op_type="aten__as_strided" op_name="aten__as_strided" source_file="/usr/local/lib/python3.10/site-packages/torch/_higher_order_ops/auto_functionalize.py" source_line=54}
  %reshape.1990 = bf16[4233,16,8,128]{3,2,1,0} reshape(bf16[69353472]{0} %slice.1989), metadata={op_type="aten__as_strided" op_name="aten__as_strided" source_file="/usr/local/lib/python3.10/site-packages/torch/_higher_order_ops/auto_functionalize.py" source_line=54}
  %reshape.1991 = bf16[138706944]{0} reshape(bf16[2,4233,16,8,128]{4,3,2,1,0} %reshape.1987), metadata={op_type="aten__as_strided" op_name="aten__as_strided" source_file="/usr/local/lib/python3.10/site-packages/torch/_higher_order_ops/auto_functionalize.py" source_line=54}
  %slice.1992 = bf16[69353472]{0} slice(bf16[138706944]{0} %reshape.1991), slice={[69353472:138706944]}, metadata={op_type="aten__as_strided" op_name="aten__as_strided" source_file="/usr/local/lib/python3.10/site-packages/torch/_higher_order_ops/auto_functionalize.py" source_line=54}
  %reshape.1993 = bf16[4233,16,8,128]{3,2,1,0} reshape(bf16[69353472]{0} %slice.1992), metadata={op_type="aten__as_strided" op_name="aten__as_strided" source_file="/usr/local/lib/python3.10/site-packages/torch/_higher_order_ops/auto_functionalize.py" source_line=54}
  ROOT %tuple.1994 = (bf16[16,8,128]{2,1,0}, bf16[16,8,128]{2,1,0}, bf16[4233,16,8,128]{3,2,1,0}, bf16[4233,16,8,128]{3,2,1,0}) tuple(bf16[16,8,128]{2,1,0} %reshape.1983, bf16[16,8,128]{2,1,0} %reshape.1984, bf16[4233,16,8,128]{3,2,1,0} %reshape.1990, bf16[4233,16,8,128]{3,2,1,0} %reshape.1993)
}

