HloModule SyncTensorsGraph.737, entry_computation_layout={(bf16[128]{0}, f32[], bf16[4096,1024]{1,0}, bf16[1024]{0}, s32[128]{0}, /*index=5*/bf16[151936,1024]{1,0}, bf16[1024,2048]{1,0}, bf16[1024,3072]{1,0}, bf16[6144,1024]{1,0}, bf16[1024]{0}, /*index=10*/bf16[1024,2048]{1,0}, bf16[1024,3072]{1,0}, bf16[6144,1024]{1,0}, bf16[1024]{0}, bf16[1024,2048]{1,0}, /*index=15*/bf16[1024,3072]{1,0}, bf16[6144,1024]{1,0}, bf16[1024]{0}, bf16[1024,2048]{1,0}, bf16[1024,3072]{1,0}, /*index=20*/bf16[6144,1024]{1,0}, bf16[1024]{0}, bf16[1024,2048]{1,0}, bf16[1024,3072]{1,0}, bf16[6144,1024]{1,0}, /*index=25*/bf16[1024]{0}, bf16[1024,2048]{1,0}, bf16[1024,3072]{1,0}, bf16[6144,1024]{1,0}, bf16[1024]{0}, /*index=30*/bf16[1024,2048]{1,0}, bf16[1024,3072]{1,0}, bf16[6144,1024]{1,0}, bf16[1024]{0}, bf16[1024,2048]{1,0}, /*index=35*/bf16[1024,3072]{1,0}, bf16[6144,1024]{1,0}, bf16[1024]{0}, s32[128]{0}, bf16[40960,128]{1,0}, /*index=40*/bf16[2,4233,16,8,128]{4,3,2,1,0})->(bf16[128,8,128]{2,1,0}, bf16[128,8,128]{2,1,0}, bf16[4233,16,8,128]{3,2,1,0}, bf16[4233,16,8,128]{3,2,1,0})}

%AddComputation.62 (x.63: f32[], y.64: f32[]) -> f32[] {
  %x.63 = f32[] parameter(0)
  %y.64 = f32[] parameter(1)
  ROOT %add.65 = f32[] add(f32[] %x.63, f32[] %y.64)
}

%AddComputation.134 (x.135: f32[], y.136: f32[]) -> f32[] {
  %x.135 = f32[] parameter(0)
  %y.136 = f32[] parameter(1)
  ROOT %add.137 = f32[] add(f32[] %x.135, f32[] %y.136)
}

%AddComputation.206 (x.207: f32[], y.208: f32[]) -> f32[] {
  %x.207 = f32[] parameter(0)
  %y.208 = f32[] parameter(1)
  ROOT %add.209 = f32[] add(f32[] %x.207, f32[] %y.208)
}

%AddComputation.278 (x.279: f32[], y.280: f32[]) -> f32[] {
  %x.279 = f32[] parameter(0)
  %y.280 = f32[] parameter(1)
  ROOT %add.281 = f32[] add(f32[] %x.279, f32[] %y.280)
}

%AddComputation.350 (x.351: f32[], y.352: f32[]) -> f32[] {
  %x.351 = f32[] parameter(0)
  %y.352 = f32[] parameter(1)
  ROOT %add.353 = f32[] add(f32[] %x.351, f32[] %y.352)
}

%AddComputation.422 (x.423: f32[], y.424: f32[]) -> f32[] {
  %x.423 = f32[] parameter(0)
  %y.424 = f32[] parameter(1)
  ROOT %add.425 = f32[] add(f32[] %x.423, f32[] %y.424)
}

%AddComputation.494 (x.495: f32[], y.496: f32[]) -> f32[] {
  %x.495 = f32[] parameter(0)
  %y.496 = f32[] parameter(1)
  ROOT %add.497 = f32[] add(f32[] %x.495, f32[] %y.496)
}

%AddComputation.566 (x.567: f32[], y.568: f32[]) -> f32[] {
  %x.567 = f32[] parameter(0)
  %y.568 = f32[] parameter(1)
  ROOT %add.569 = f32[] add(f32[] %x.567, f32[] %y.568)
}

%AddComputation.612 (x.613: f32[], y.614: f32[]) -> f32[] {
  %x.613 = f32[] parameter(0)
  %y.614 = f32[] parameter(1)
  ROOT %add.615 = f32[] add(f32[] %x.613, f32[] %y.614)
}

%AddComputation.650 (x.651: f32[], y.652: f32[]) -> f32[] {
  %x.651 = f32[] parameter(0)
  %y.652 = f32[] parameter(1)
  ROOT %add.653 = f32[] add(f32[] %x.651, f32[] %y.652)
}

ENTRY %SyncTensorsGraph.737 (p0.1: bf16[128], p1.4: f32[], p2.6: bf16[4096,1024], p3.8: bf16[1024], p4.28: s32[128], p5.30: bf16[151936,1024], p6.34: bf16[1024,2048], p7.50: bf16[1024,3072], p8.52: bf16[6144,1024], p9.54: bf16[1024], p10.106: bf16[1024,2048], p11.122: bf16[1024,3072], p12.124: bf16[6144,1024], p13.126: bf16[1024], p14.178: bf16[1024,2048], p15.194: bf16[1024,3072], p16.196: bf16[6144,1024], p17.198: bf16[1024], p18.250: bf16[1024,2048], p19.266: bf16[1024,3072], p20.268: bf16[6144,1024], p21.270: bf16[1024], p22.322: bf16[1024,2048], p23.338: bf16[1024,3072], p24.340: bf16[6144,1024], p25.342: bf16[1024], p26.394: bf16[1024,2048], p27.410: bf16[1024,3072], p28.412: bf16[6144,1024], p29.414: bf16[1024], p30.466: bf16[1024,2048], p31.482: bf16[1024,3072], p32.484: bf16[6144,1024], p33.486: bf16[1024], p34.538: bf16[1024,2048], p35.554: bf16[1024,3072], p36.556: bf16[6144,1024], p37.558: bf16[1024], p38.682: s32[128], p39.683: bf16[40960,128], p40.727: bf16[2,4233,16,8,128]) -> (bf16[128,8,128], bf16[128,8,128], bf16[4233,16,8,128], bf16[4233,16,8,128]) {
  %constant.540 = bf16[] constant(0), metadata={op_type="prim__Constant" op_name="prim__Constant" source_file="/usr/local/lib/python3.10/site-packages/torch/_ops.py" source_line=756}
  %reshape.541 = bf16[1,1]{1,0} reshape(bf16[] %constant.540), metadata={op_type="aten__expand" op_name="aten__expand" source_file="/usr/local/lib/python3.10/site-packages/torch/_ops.py" source_line=756}
  %broadcast.542 = bf16[1,1]{1,0} broadcast(bf16[1,1]{1,0} %reshape.541), dimensions={0,1}, metadata={op_type="aten__expand" op_name="aten__expand" source_file="/usr/local/lib/python3.10/site-packages/torch/_ops.py" source_line=756}
  %reshape.543 = bf16[] reshape(bf16[1,1]{1,0} %broadcast.542), metadata={op_type="aten__expand" op_name="aten__expand" source_file="/usr/local/lib/python3.10/site-packages/torch/_ops.py" source_line=756}
  %broadcast.544 = bf16[128,2048]{1,0} broadcast(bf16[] %reshape.543), dimensions={}, metadata={op_type="aten__expand" op_name="aten__expand" source_file="/usr/local/lib/python3.10/site-packages/torch/_ops.py" source_line=756}
  %reshape.545 = bf16[128,16,128]{2,1,0} reshape(bf16[128,2048]{1,0} %broadcast.544), metadata={op_type="aten__view" op_name="aten__view" source_file="/usr/local/lib/python3.10/site-packages/torch/_ops.py" source_line=756}
  %reshape.546 = bf16[128,2048]{1,0} reshape(bf16[128,16,128]{2,1,0} %reshape.545), metadata={op_type="aten__view" op_name="aten__view" source_file="/usr/local/lib/python3.10/site-packages/torch/_ops.py" source_line=756}
  %p34.538 = bf16[1024,2048]{1,0} parameter(34), metadata={op_type="xla__device_data" op_name="xla__device_data" source_file="/usr/local/lib/python3.10/site-packages/torch_xla/_dynamo/dynamo_bridge.py" source_line=355}
  %transpose.539 = bf16[2048,1024]{0,1} transpose(bf16[1024,2048]{1,0} %p34.538), dimensions={1,0}, metadata={op_type="aten__permute" op_name="aten__permute" source_file="/usr/local/lib/python3.10/site-packages/torch/_ops.py" source_line=756}
  %dot.547 = bf16[128,1024]{1,0} dot(bf16[128,2048]{1,0} %reshape.546, bf16[2048,1024]{0,1} %transpose.539), lhs_contracting_dims={1}, rhs_contracting_dims={0}, metadata={op_type="aten__mm" op_name="aten__mm" source_file="/usr/local/lib/python3.10/site-packages/torch/_ops.py" source_line=756}
  %convert.548 = f32[128,1024]{1,0} convert(bf16[128,1024]{1,0} %dot.547), metadata={op_type="xla__cast" op_name="xla__cast" source_file="/usr/local/lib/python3.10/site-packages/torch/_ops.py" source_line=756}
  %constant.468 = bf16[] constant(0), metadata={op_type="prim__Constant" op_name="prim__Constant" source_file="/usr/local/lib/python3.10/site-packages/torch/_ops.py" source_line=756}
  %reshape.469 = bf16[1,1]{1,0} reshape(bf16[] %constant.468), metadata={op_type="aten__expand" op_name="aten__expand" source_file="/usr/local/lib/python3.10/site-packages/torch/_ops.py" source_line=756}
  %broadcast.470 = bf16[1,1]{1,0} broadcast(bf16[1,1]{1,0} %reshape.469), dimensions={0,1}, metadata={op_type="aten__expand" op_name="aten__expand" source_file="/usr/local/lib/python3.10/site-packages/torch/_ops.py" source_line=756}
  %reshape.471 = bf16[] reshape(bf16[1,1]{1,0} %broadcast.470), metadata={op_type="aten__expand" op_name="aten__expand" source_file="/usr/local/lib/python3.10/site-packages/torch/_ops.py" source_line=756}
  %broadcast.472 = bf16[128,2048]{1,0} broadcast(bf16[] %reshape.471), dimensions={}, metadata={op_type="aten__expand" op_name="aten__expand" source_file="/usr/local/lib/python3.10/site-packages/torch/_ops.py" source_line=756}
  %reshape.473 = bf16[128,16,128]{2,1,0} reshape(bf16[128,2048]{1,0} %broadcast.472), metadata={op_type="aten__view" op_name="aten__view" source_file="/usr/local/lib/python3.10/site-packages/torch/_ops.py" source_line=756}
  %reshape.474 = bf16[128,2048]{1,0} reshape(bf16[128,16,128]{2,1,0} %reshape.473), metadata={op_type="aten__view" op_name="aten__view" source_file="/usr/local/lib/python3.10/site-packages/torch/_ops.py" source_line=756}
  %p30.466 = bf16[1024,2048]{1,0} parameter(30), metadata={op_type="xla__device_data" op_name="xla__device_data" source_file="/usr/local/lib/python3.10/site-packages/torch_xla/_dynamo/dynamo_bridge.py" source_line=355}
  %transpose.467 = bf16[2048,1024]{0,1} transpose(bf16[1024,2048]{1,0} %p30.466), dimensions={1,0}, metadata={op_type="aten__permute" op_name="aten__permute" source_file="/usr/local/lib/python3.10/site-packages/torch/_ops.py" source_line=756}
  %dot.475 = bf16[128,1024]{1,0} dot(bf16[128,2048]{1,0} %reshape.474, bf16[2048,1024]{0,1} %transpose.467), lhs_contracting_dims={1}, rhs_contracting_dims={0}, metadata={op_type="aten__mm" op_name="aten__mm" source_file="/usr/local/lib/python3.10/site-packages/torch/_ops.py" source_line=756}
  %convert.476 = f32[128,1024]{1,0} convert(bf16[128,1024]{1,0} %dot.475), metadata={op_type="xla__cast" op_name="xla__cast" source_file="/usr/local/lib/python3.10/site-packages/torch/_ops.py" source_line=756}
  %constant.396 = bf16[] constant(0), metadata={op_type="prim__Constant" op_name="prim__Constant" source_file="/usr/local/lib/python3.10/site-packages/torch/_ops.py" source_line=756}
  %reshape.397 = bf16[1,1]{1,0} reshape(bf16[] %constant.396), metadata={op_type="aten__expand" op_name="aten__expand" source_file="/usr/local/lib/python3.10/site-packages/torch/_ops.py" source_line=756}
  %broadcast.398 = bf16[1,1]{1,0} broadcast(bf16[1,1]{1,0} %reshape.397), dimensions={0,1}, metadata={op_type="aten__expand" op_name="aten__expand" source_file="/usr/local/lib/python3.10/site-packages/torch/_ops.py" source_line=756}
  %reshape.399 = bf16[] reshape(bf16[1,1]{1,0} %broadcast.398), metadata={op_type="aten__expand" op_name="aten__expand" source_file="/usr/local/lib/python3.10/site-packages/torch/_ops.py" source_line=756}
  %broadcast.400 = bf16[128,2048]{1,0} broadcast(bf16[] %reshape.399), dimensions={}, metadata={op_type="aten__expand" op_name="aten__expand" source_file="/usr/local/lib/python3.10/site-packages/torch/_ops.py" source_line=756}
  %reshape.401 = bf16[128,16,128]{2,1,0} reshape(bf16[128,2048]{1,0} %broadcast.400), metadata={op_type="aten__view" op_name="aten__view" source_file="/usr/local/lib/python3.10/site-packages/torch/_ops.py" source_line=756}
  %reshape.402 = bf16[128,2048]{1,0} reshape(bf16[128,16,128]{2,1,0} %reshape.401), metadata={op_type="aten__view" op_name="aten__view" source_file="/usr/local/lib/python3.10/site-packages/torch/_ops.py" source_line=756}
  %p26.394 = bf16[1024,2048]{1,0} parameter(26), metadata={op_type="xla__device_data" op_name="xla__device_data" source_file="/usr/local/lib/python3.10/site-packages/torch_xla/_dynamo/dynamo_bridge.py" source_line=355}
  %transpose.395 = bf16[2048,1024]{0,1} transpose(bf16[1024,2048]{1,0} %p26.394), dimensions={1,0}, metadata={op_type="aten__permute" op_name="aten__permute" source_file="/usr/local/lib/python3.10/site-packages/torch/_ops.py" source_line=756}
  %dot.403 = bf16[128,1024]{1,0} dot(bf16[128,2048]{1,0} %reshape.402, bf16[2048,1024]{0,1} %transpose.395), lhs_contracting_dims={1}, rhs_contracting_dims={0}, metadata={op_type="aten__mm" op_name="aten__mm" source_file="/usr/local/lib/python3.10/site-packages/torch/_ops.py" source_line=756}
  %convert.404 = f32[128,1024]{1,0} convert(bf16[128,1024]{1,0} %dot.403), metadata={op_type="xla__cast" op_name="xla__cast" source_file="/usr/local/lib/python3.10/site-packages/torch/_ops.py" source_line=756}
  %constant.324 = bf16[] constant(0), metadata={op_type="prim__Constant" op_name="prim__Constant" source_file="/usr/local/lib/python3.10/site-packages/torch/_ops.py" source_line=756}
  %reshape.325 = bf16[1,1]{1,0} reshape(bf16[] %constant.324), metadata={op_type="aten__expand" op_name="aten__expand" source_file="/usr/local/lib/python3.10/site-packages/torch/_ops.py" source_line=756}
  %broadcast.326 = bf16[1,1]{1,0} broadcast(bf16[1,1]{1,0} %reshape.325), dimensions={0,1}, metadata={op_type="aten__expand" op_name="aten__expand" source_file="/usr/local/lib/python3.10/site-packages/torch/_ops.py" source_line=756}
  %reshape.327 = bf16[] reshape(bf16[1,1]{1,0} %broadcast.326), metadata={op_type="aten__expand" op_name="aten__expand" source_file="/usr/local/lib/python3.10/site-packages/torch/_ops.py" source_line=756}
  %broadcast.328 = bf16[128,2048]{1,0} broadcast(bf16[] %reshape.327), dimensions={}, metadata={op_type="aten__expand" op_name="aten__expand" source_file="/usr/local/lib/python3.10/site-packages/torch/_ops.py" source_line=756}
  %reshape.329 = bf16[128,16,128]{2,1,0} reshape(bf16[128,2048]{1,0} %broadcast.328), metadata={op_type="aten__view" op_name="aten__view" source_file="/usr/local/lib/python3.10/site-packages/torch/_ops.py" source_line=756}
  %reshape.330 = bf16[128,2048]{1,0} reshape(bf16[128,16,128]{2,1,0} %reshape.329), metadata={op_type="aten__view" op_name="aten__view" source_file="/usr/local/lib/python3.10/site-packages/torch/_ops.py" source_line=756}
  %p22.322 = bf16[1024,2048]{1,0} parameter(22), metadata={op_type="xla__device_data" op_name="xla__device_data" source_file="/usr/local/lib/python3.10/site-packages/torch_xla/_dynamo/dynamo_bridge.py" source_line=355}
  %transpose.323 = bf16[2048,1024]{0,1} transpose(bf16[1024,2048]{1,0} %p22.322), dimensions={1,0}, metadata={op_type="aten__permute" op_name="aten__permute" source_file="/usr/local/lib/python3.10/site-packages/torch/_ops.py" source_line=756}
  %dot.331 = bf16[128,1024]{1,0} dot(bf16[128,2048]{1,0} %reshape.330, bf16[2048,1024]{0,1} %transpose.323), lhs_contracting_dims={1}, rhs_contracting_dims={0}, metadata={op_type="aten__mm" op_name="aten__mm" source_file="/usr/local/lib/python3.10/site-packages/torch/_ops.py" source_line=756}
  %convert.332 = f32[128,1024]{1,0} convert(bf16[128,1024]{1,0} %dot.331), metadata={op_type="xla__cast" op_name="xla__cast" source_file="/usr/local/lib/python3.10/site-packages/torch/_ops.py" source_line=756}
  %constant.252 = bf16[] constant(0), metadata={op_type="prim__Constant" op_name="prim__Constant" source_file="/usr/local/lib/python3.10/site-packages/torch/_ops.py" source_line=756}
  %reshape.253 = bf16[1,1]{1,0} reshape(bf16[] %constant.252), metadata={op_type="aten__expand" op_name="aten__expand" source_file="/usr/local/lib/python3.10/site-packages/torch/_ops.py" source_line=756}
  %broadcast.254 = bf16[1,1]{1,0} broadcast(bf16[1,1]{1,0} %reshape.253), dimensions={0,1}, metadata={op_type="aten__expand" op_name="aten__expand" source_file="/usr/local/lib/python3.10/site-packages/torch/_ops.py" source_line=756}
  %reshape.255 = bf16[] reshape(bf16[1,1]{1,0} %broadcast.254), metadata={op_type="aten__expand" op_name="aten__expand" source_file="/usr/local/lib/python3.10/site-packages/torch/_ops.py" source_line=756}
  %broadcast.256 = bf16[128,2048]{1,0} broadcast(bf16[] %reshape.255), dimensions={}, metadata={op_type="aten__expand" op_name="aten__expand" source_file="/usr/local/lib/python3.10/site-packages/torch/_ops.py" source_line=756}
  %reshape.257 = bf16[128,16,128]{2,1,0} reshape(bf16[128,2048]{1,0} %broadcast.256), metadata={op_type="aten__view" op_name="aten__view" source_file="/usr/local/lib/python3.10/site-packages/torch/_ops.py" source_line=756}
  %reshape.258 = bf16[128,2048]{1,0} reshape(bf16[128,16,128]{2,1,0} %reshape.257), metadata={op_type="aten__view" op_name="aten__view" source_file="/usr/local/lib/python3.10/site-packages/torch/_ops.py" source_line=756}
  %p18.250 = bf16[1024,2048]{1,0} parameter(18), metadata={op_type="xla__device_data" op_name="xla__device_data" source_file="/usr/local/lib/python3.10/site-packages/torch_xla/_dynamo/dynamo_bridge.py" source_line=355}
  %transpose.251 = bf16[2048,1024]{0,1} transpose(bf16[1024,2048]{1,0} %p18.250), dimensions={1,0}, metadata={op_type="aten__permute" op_name="aten__permute" source_file="/usr/local/lib/python3.10/site-packages/torch/_ops.py" source_line=756}
  %dot.259 = bf16[128,1024]{1,0} dot(bf16[128,2048]{1,0} %reshape.258, bf16[2048,1024]{0,1} %transpose.251), lhs_contracting_dims={1}, rhs_contracting_dims={0}, metadata={op_type="aten__mm" op_name="aten__mm" source_file="/usr/local/lib/python3.10/site-packages/torch/_ops.py" source_line=756}
  %convert.260 = f32[128,1024]{1,0} convert(bf16[128,1024]{1,0} %dot.259), metadata={op_type="xla__cast" op_name="xla__cast" source_file="/usr/local/lib/python3.10/site-packages/torch/_ops.py" source_line=756}
  %constant.180 = bf16[] constant(0), metadata={op_type="prim__Constant" op_name="prim__Constant" source_file="/usr/local/lib/python3.10/site-packages/torch/_ops.py" source_line=756}
  %reshape.181 = bf16[1,1]{1,0} reshape(bf16[] %constant.180), metadata={op_type="aten__expand" op_name="aten__expand" source_file="/usr/local/lib/python3.10/site-packages/torch/_ops.py" source_line=756}
  %broadcast.182 = bf16[1,1]{1,0} broadcast(bf16[1,1]{1,0} %reshape.181), dimensions={0,1}, metadata={op_type="aten__expand" op_name="aten__expand" source_file="/usr/local/lib/python3.10/site-packages/torch/_ops.py" source_line=756}
  %reshape.183 = bf16[] reshape(bf16[1,1]{1,0} %broadcast.182), metadata={op_type="aten__expand" op_name="aten__expand" source_file="/usr/local/lib/python3.10/site-packages/torch/_ops.py" source_line=756}
  %broadcast.184 = bf16[128,2048]{1,0} broadcast(bf16[] %reshape.183), dimensions={}, metadata={op_type="aten__expand" op_name="aten__expand" source_file="/usr/local/lib/python3.10/site-packages/torch/_ops.py" source_line=756}
  %reshape.185 = bf16[128,16,128]{2,1,0} reshape(bf16[128,2048]{1,0} %broadcast.184), metadata={op_type="aten__view" op_name="aten__view" source_file="/usr/local/lib/python3.10/site-packages/torch/_ops.py" source_line=756}
  %reshape.186 = bf16[128,2048]{1,0} reshape(bf16[128,16,128]{2,1,0} %reshape.185), metadata={op_type="aten__view" op_name="aten__view" source_file="/usr/local/lib/python3.10/site-packages/torch/_ops.py" source_line=756}
  %p14.178 = bf16[1024,2048]{1,0} parameter(14), metadata={op_type="xla__device_data" op_name="xla__device_data" source_file="/usr/local/lib/python3.10/site-packages/torch_xla/_dynamo/dynamo_bridge.py" source_line=355}
  %transpose.179 = bf16[2048,1024]{0,1} transpose(bf16[1024,2048]{1,0} %p14.178), dimensions={1,0}, metadata={op_type="aten__permute" op_name="aten__permute" source_file="/usr/local/lib/python3.10/site-packages/torch/_ops.py" source_line=756}
  %dot.187 = bf16[128,1024]{1,0} dot(bf16[128,2048]{1,0} %reshape.186, bf16[2048,1024]{0,1} %transpose.179), lhs_contracting_dims={1}, rhs_contracting_dims={0}, metadata={op_type="aten__mm" op_name="aten__mm" source_file="/usr/local/lib/python3.10/site-packages/torch/_ops.py" source_line=756}
  %convert.188 = f32[128,1024]{1,0} convert(bf16[128,1024]{1,0} %dot.187), metadata={op_type="xla__cast" op_name="xla__cast" source_file="/usr/local/lib/python3.10/site-packages/torch/_ops.py" source_line=756}
  %constant.108 = bf16[] constant(0), metadata={op_type="prim__Constant" op_name="prim__Constant" source_file="/usr/local/lib/python3.10/site-packages/torch/_ops.py" source_line=756}
  %reshape.109 = bf16[1,1]{1,0} reshape(bf16[] %constant.108), metadata={op_type="aten__expand" op_name="aten__expand" source_file="/usr/local/lib/python3.10/site-packages/torch/_ops.py" source_line=756}
  %broadcast.110 = bf16[1,1]{1,0} broadcast(bf16[1,1]{1,0} %reshape.109), dimensions={0,1}, metadata={op_type="aten__expand" op_name="aten__expand" source_file="/usr/local/lib/python3.10/site-packages/torch/_ops.py" source_line=756}
  %reshape.111 = bf16[] reshape(bf16[1,1]{1,0} %broadcast.110), metadata={op_type="aten__expand" op_name="aten__expand" source_file="/usr/local/lib/python3.10/site-packages/torch/_ops.py" source_line=756}
  %broadcast.112 = bf16[128,2048]{1,0} broadcast(bf16[] %reshape.111), dimensions={}, metadata={op_type="aten__expand" op_name="aten__expand" source_file="/usr/local/lib/python3.10/site-packages/torch/_ops.py" source_line=756}
  %reshape.113 = bf16[128,16,128]{2,1,0} reshape(bf16[128,2048]{1,0} %broadcast.112), metadata={op_type="aten__view" op_name="aten__view" source_file="/usr/local/lib/python3.10/site-packages/torch/_ops.py" source_line=756}
  %reshape.114 = bf16[128,2048]{1,0} reshape(bf16[128,16,128]{2,1,0} %reshape.113), metadata={op_type="aten__view" op_name="aten__view" source_file="/usr/local/lib/python3.10/site-packages/torch/_ops.py" source_line=756}
  %p10.106 = bf16[1024,2048]{1,0} parameter(10), metadata={op_type="xla__device_data" op_name="xla__device_data" source_file="/usr/local/lib/python3.10/site-packages/torch_xla/_dynamo/dynamo_bridge.py" source_line=355}
  %transpose.107 = bf16[2048,1024]{0,1} transpose(bf16[1024,2048]{1,0} %p10.106), dimensions={1,0}, metadata={op_type="aten__permute" op_name="aten__permute" source_file="/usr/local/lib/python3.10/site-packages/torch/_ops.py" source_line=756}
  %dot.115 = bf16[128,1024]{1,0} dot(bf16[128,2048]{1,0} %reshape.114, bf16[2048,1024]{0,1} %transpose.107), lhs_contracting_dims={1}, rhs_contracting_dims={0}, metadata={op_type="aten__mm" op_name="aten__mm" source_file="/usr/local/lib/python3.10/site-packages/torch/_ops.py" source_line=756}
  %convert.116 = f32[128,1024]{1,0} convert(bf16[128,1024]{1,0} %dot.115), metadata={op_type="xla__cast" op_name="xla__cast" source_file="/usr/local/lib/python3.10/site-packages/torch/_ops.py" source_line=756}
  %constant.36 = bf16[] constant(0), metadata={op_type="prim__Constant" op_name="prim__Constant" source_file="/usr/local/lib/python3.10/site-packages/torch/_ops.py" source_line=756}
  %reshape.37 = bf16[1,1]{1,0} reshape(bf16[] %constant.36), metadata={op_type="aten__expand" op_name="aten__expand" source_file="/usr/local/lib/python3.10/site-packages/torch/_ops.py" source_line=756}
  %broadcast.38 = bf16[1,1]{1,0} broadcast(bf16[1,1]{1,0} %reshape.37), dimensions={0,1}, metadata={op_type="aten__expand" op_name="aten__expand" source_file="/usr/local/lib/python3.10/site-packages/torch/_ops.py" source_line=756}
  %reshape.39 = bf16[] reshape(bf16[1,1]{1,0} %broadcast.38), metadata={op_type="aten__expand" op_name="aten__expand" source_file="/usr/local/lib/python3.10/site-packages/torch/_ops.py" source_line=756}
  %broadcast.40 = bf16[128,2048]{1,0} broadcast(bf16[] %reshape.39), dimensions={}, metadata={op_type="aten__expand" op_name="aten__expand" source_file="/usr/local/lib/python3.10/site-packages/torch/_ops.py" source_line=756}
  %reshape.41 = bf16[128,16,128]{2,1,0} reshape(bf16[128,2048]{1,0} %broadcast.40), metadata={op_type="aten__view" op_name="aten__view" source_file="/usr/local/lib/python3.10/site-packages/torch/_ops.py" source_line=756}
  %reshape.42 = bf16[128,2048]{1,0} reshape(bf16[128,16,128]{2,1,0} %reshape.41), metadata={op_type="aten__view" op_name="aten__view" source_file="/usr/local/lib/python3.10/site-packages/torch/_ops.py" source_line=756}
  %p6.34 = bf16[1024,2048]{1,0} parameter(6), metadata={op_type="xla__device_data" op_name="xla__device_data" source_file="/usr/local/lib/python3.10/site-packages/torch_xla/_dynamo/dynamo_bridge.py" source_line=355}
  %transpose.35 = bf16[2048,1024]{0,1} transpose(bf16[1024,2048]{1,0} %p6.34), dimensions={1,0}, metadata={op_type="aten__permute" op_name="aten__permute" source_file="/usr/local/lib/python3.10/site-packages/torch/_ops.py" source_line=756}
  %dot.43 = bf16[128,1024]{1,0} dot(bf16[128,2048]{1,0} %reshape.42, bf16[2048,1024]{0,1} %transpose.35), lhs_contracting_dims={1}, rhs_contracting_dims={0}, metadata={op_type="aten__mm" op_name="aten__mm" source_file="/usr/local/lib/python3.10/site-packages/torch/_ops.py" source_line=756}
  %convert.44 = f32[128,1024]{1,0} convert(bf16[128,1024]{1,0} %dot.43), metadata={op_type="xla__cast" op_name="xla__cast" source_file="/usr/local/lib/python3.10/site-packages/torch/_ops.py" source_line=756}
  %p5.30 = bf16[151936,1024]{1,0} parameter(5), metadata={op_type="xla__device_data" op_name="xla__device_data" source_file="/usr/local/lib/python3.10/site-packages/torch_xla/_dynamo/dynamo_bridge.py" source_line=355}
  %p4.28 = s32[128]{0} parameter(4), metadata={op_type="xla__device_data" op_name="xla__device_data" source_file="/usr/local/lib/python3.10/site-packages/torch_xla/_dynamo/dynamo_bridge.py" source_line=355}
  %convert.29 = s64[128]{0} convert(s32[128]{0} %p4.28), metadata={op_type="xla__cast" op_name="xla__cast" source_file="/usr/local/lib/python3.10/site-packages/torch/_ops.py" source_line=756}
  %convert.31 = u32[128]{0} convert(s64[128]{0} %convert.29), metadata={op_type="aten__index_select" op_name="aten__index_select" source_file="/usr/local/lib/python3.10/site-packages/torch/_ops.py" source_line=756}
  %gather.32 = bf16[128,1024]{1,0} gather(bf16[151936,1024]{1,0} %p5.30, u32[128]{0} %convert.31), offset_dims={1}, collapsed_slice_dims={0}, start_index_map={0}, index_vector_dim=1, slice_sizes={1,1024}, metadata={op_type="aten__index_select" op_name="aten__index_select" source_file="/usr/local/lib/python3.10/site-packages/torch/_ops.py" source_line=756}
  %convert.33 = f32[128,1024]{1,0} convert(bf16[128,1024]{1,0} %gather.32), metadata={op_type="xla__cast" op_name="xla__cast" source_file="/usr/local/lib/python3.10/site-packages/torch/_ops.py" source_line=756}
  %constant.27 = f32[] constant(1), metadata={op_type="prim__Constant" op_name="prim__Constant" source_file="/usr/local/lib/python3.10/site-packages/torch/_ops.py" source_line=756}
  %broadcast.45 = f32[128,1024]{1,0} broadcast(f32[] %constant.27), dimensions={}, metadata={op_type="aten__add" op_name="aten__add.1534/aten__add" source_file="/usr/local/lib/python3.10/site-packages/torch/_ops.py" source_line=756}
  %multiply.46 = f32[128,1024]{1,0} multiply(f32[128,1024]{1,0} %convert.33, f32[128,1024]{1,0} %broadcast.45), metadata={op_type="aten__add" op_name="aten__add.1534/aten__add" source_file="/usr/local/lib/python3.10/site-packages/torch/_ops.py" source_line=756}
  %add.47 = f32[128,1024]{1,0} add(f32[128,1024]{1,0} %convert.44, f32[128,1024]{1,0} %multiply.46), metadata={op_type="aten__add" op_name="aten__add.1534/aten__add" source_file="/usr/local/lib/python3.10/site-packages/torch/_ops.py" source_line=756}
  %constant.57 = f32[] constant(2), metadata={op_type="prim__Constant" op_name="prim__Constant" source_file="/usr/local/lib/python3.10/site-packages/torch/_ops.py" source_line=756}
  %broadcast.58 = f32[128,1024]{1,0} broadcast(f32[] %constant.57), dimensions={}, metadata={op_type="aten__pow" op_name="aten__pow" source_file="/usr/local/lib/python3.10/site-packages/torch/_ops.py" source_line=756}
  %power.59 = f32[128,1024]{1,0} power(f32[128,1024]{1,0} %add.47, f32[128,1024]{1,0} %broadcast.58), metadata={op_type="aten__pow" op_name="aten__pow" source_file="/usr/local/lib/python3.10/site-packages/torch/_ops.py" source_line=756}
  %constant.60 = f32[] constant(0), metadata={op_type="aten__mean" op_name="aten__mean" source_file="/usr/local/lib/python3.10/site-packages/torch/_ops.py" source_line=756}
  %reduce.66 = f32[128]{0} reduce(f32[128,1024]{1,0} %power.59, f32[] %constant.60), dimensions={1}, to_apply=%AddComputation.62, metadata={op_type="aten__mean" op_name="aten__mean" source_file="/usr/local/lib/python3.10/site-packages/torch/_ops.py" source_line=756}
  %constant.61 = s32[] constant(1024), metadata={op_type="aten__mean" op_name="aten__mean" source_file="/usr/local/lib/python3.10/site-packages/torch/_ops.py" source_line=756}
  %constant.67 = s32[] constant(0), metadata={op_type="aten__mean" op_name="aten__mean" source_file="/usr/local/lib/python3.10/site-packages/torch/_ops.py" source_line=756}
  %compare.72 = pred[] compare(s32[] %constant.61, s32[] %constant.67), direction=NE, metadata={op_type="aten__mean" op_name="aten__mean" source_file="/usr/local/lib/python3.10/site-packages/torch/_ops.py" source_line=756}
  %constant.68 = f32[] constant(1), metadata={op_type="aten__mean" op_name="aten__mean" source_file="/usr/local/lib/python3.10/site-packages/torch/_ops.py" source_line=756}
  %convert.70 = f32[] convert(s32[] %constant.61), metadata={op_type="aten__mean" op_name="aten__mean" source_file="/usr/local/lib/python3.10/site-packages/torch/_ops.py" source_line=756}
  %divide.71 = f32[] divide(f32[] %constant.68, f32[] %convert.70), metadata={op_type="aten__mean" op_name="aten__mean" source_file="/usr/local/lib/python3.10/site-packages/torch/_ops.py" source_line=756}
  %constant.69 = f32[] constant(nan), metadata={op_type="aten__mean" op_name="aten__mean" source_file="/usr/local/lib/python3.10/site-packages/torch/_ops.py" source_line=756}
  %select.73 = f32[] select(pred[] %compare.72, f32[] %divide.71, f32[] %constant.69), metadata={op_type="aten__mean" op_name="aten__mean" source_file="/usr/local/lib/python3.10/site-packages/torch/_ops.py" source_line=756}
  %broadcast.74 = f32[128]{0} broadcast(f32[] %select.73), dimensions={}, metadata={op_type="aten__mean" op_name="aten__mean" source_file="/usr/local/lib/python3.10/site-packages/torch/_ops.py" source_line=756}
  %multiply.75 = f32[128]{0} multiply(f32[128]{0} %reduce.66, f32[128]{0} %broadcast.74), metadata={op_type="aten__mean" op_name="aten__mean" source_file="/usr/local/lib/python3.10/site-packages/torch/_ops.py" source_line=756}
  %reshape.76 = f32[128,1]{1,0} reshape(f32[128]{0} %multiply.75), metadata={op_type="aten__mean" op_name="aten__mean" source_file="/usr/local/lib/python3.10/site-packages/torch/_ops.py" source_line=756}
  %convert.77 = f32[128,1]{1,0} convert(f32[128,1]{1,0} %reshape.76), metadata={op_type="aten__mean" op_name="aten__mean" source_file="/usr/local/lib/python3.10/site-packages/torch/_ops.py" source_line=756}
  %p1.4 = f32[] parameter(1), metadata={op_type="xla__device_data" op_name="xla__device_data" source_file="/usr/local/lib/python3.10/site-packages/torch/_ops.py" source_line=756}
  %constant.56 = f32[] constant(1), metadata={op_type="prim__Constant" op_name="prim__Constant" source_file="/usr/local/lib/python3.10/site-packages/torch/_ops.py" source_line=756}
  %multiply.78 = f32[] multiply(f32[] %p1.4, f32[] %constant.56), metadata={op_type="aten__add" op_name="aten__add.1535/aten__add" source_file="/usr/local/lib/python3.10/site-packages/torch/_ops.py" source_line=756}
  %broadcast.79 = f32[128,1]{1,0} broadcast(f32[] %multiply.78), dimensions={}, metadata={op_type="aten__add" op_name="aten__add.1535/aten__add" source_file="/usr/local/lib/python3.10/site-packages/torch/_ops.py" source_line=756}
  %add.80 = f32[128,1]{1,0} add(f32[128,1]{1,0} %convert.77, f32[128,1]{1,0} %broadcast.79), metadata={op_type="aten__add" op_name="aten__add.1535/aten__add" source_file="/usr/local/lib/python3.10/site-packages/torch/_ops.py" source_line=756}
  %rsqrt.81 = f32[128,1]{1,0} rsqrt(f32[128,1]{1,0} %add.80), metadata={op_type="aten__rsqrt" op_name="aten__rsqrt" source_file="/usr/local/lib/python3.10/site-packages/torch/_ops.py" source_line=756}
  %reshape.82 = f32[128]{0} reshape(f32[128,1]{1,0} %rsqrt.81), metadata={op_type="aten__mul" op_name="aten__mul.1536/aten__mul" source_file="/usr/local/lib/python3.10/site-packages/torch/_ops.py" source_line=756}
  %broadcast.83 = f32[128,1024]{1,0} broadcast(f32[128]{0} %reshape.82), dimensions={0}, metadata={op_type="aten__mul" op_name="aten__mul.1536/aten__mul" source_file="/usr/local/lib/python3.10/site-packages/torch/_ops.py" source_line=756}
  %multiply.84 = f32[128,1024]{1,0} multiply(f32[128,1024]{1,0} %add.47, f32[128,1024]{1,0} %broadcast.83), metadata={op_type="aten__mul" op_name="aten__mul.1536/aten__mul" source_file="/usr/local/lib/python3.10/site-packages/torch/_ops.py" source_line=756}
  %convert.85 = bf16[128,1024]{1,0} convert(f32[128,1024]{1,0} %multiply.84), metadata={op_type="xla__cast" op_name="xla__cast" source_file="/usr/local/lib/python3.10/site-packages/torch/_ops.py" source_line=756}
  %convert.86 = f32[128,1024]{1,0} convert(bf16[128,1024]{1,0} %convert.85), metadata={op_type="xla__cast" op_name="xla__cast" source_file="/usr/local/lib/python3.10/site-packages/torch/_ops.py" source_line=756}
  %p9.54 = bf16[1024]{0} parameter(9), metadata={op_type="xla__device_data" op_name="xla__device_data" source_file="/usr/local/lib/python3.10/site-packages/torch_xla/_dynamo/dynamo_bridge.py" source_line=355}
  %convert.55 = f32[1024]{0} convert(bf16[1024]{0} %p9.54), metadata={op_type="xla__cast" op_name="xla__cast" source_file="/usr/local/lib/python3.10/site-packages/torch/_ops.py" source_line=756}
  %broadcast.87 = f32[128,1024]{1,0} broadcast(f32[1024]{0} %convert.55), dimensions={1}, metadata={op_type="aten__mul" op_name="aten__mul.1537/aten__mul" source_file="/usr/local/lib/python3.10/site-packages/torch/_ops.py" source_line=756}
  %multiply.88 = f32[128,1024]{1,0} multiply(f32[128,1024]{1,0} %convert.86, f32[128,1024]{1,0} %broadcast.87), metadata={op_type="aten__mul" op_name="aten__mul.1537/aten__mul" source_file="/usr/local/lib/python3.10/site-packages/torch/_ops.py" source_line=756}
  %convert.89 = bf16[128,1024]{1,0} convert(f32[128,1024]{1,0} %multiply.88), metadata={op_type="xla__cast" op_name="xla__cast" source_file="/usr/local/lib/python3.10/site-packages/torch/_ops.py" source_line=756}
  %p8.52 = bf16[6144,1024]{1,0} parameter(8), metadata={op_type="xla__device_data" op_name="xla__device_data" source_file="/usr/local/lib/python3.10/site-packages/torch_xla/_dynamo/dynamo_bridge.py" source_line=355}
  %transpose.53 = bf16[1024,6144]{0,1} transpose(bf16[6144,1024]{1,0} %p8.52), dimensions={1,0}, metadata={op_type="aten__permute" op_name="aten__permute" source_file="/usr/local/lib/python3.10/site-packages/torch/_ops.py" source_line=756}
  %dot.90 = bf16[128,6144]{1,0} dot(bf16[128,1024]{1,0} %convert.89, bf16[1024,6144]{0,1} %transpose.53), lhs_contracting_dims={1}, rhs_contracting_dims={0}, metadata={op_type="aten__mm" op_name="aten__mm" source_file="/usr/local/lib/python3.10/site-packages/torch/_ops.py" source_line=756}
  %slice.93 = bf16[128,3072]{1,0} slice(bf16[128,6144]{1,0} %dot.90), slice={[0:128], [0:3072]}, metadata={op_type="xla__select" op_name="xla__select" source_file="/usr/local/lib/python3.10/site-packages/torch/_ops.py" source_line=756}
  %logistic.94 = bf16[128,3072]{1,0} logistic(bf16[128,3072]{1,0} %slice.93), metadata={op_type="aten__silu" op_name="aten__silu" source_file="/usr/local/lib/python3.10/site-packages/torch/_ops.py" source_line=756}
  %multiply.95 = bf16[128,3072]{1,0} multiply(bf16[128,3072]{1,0} %slice.93, bf16[128,3072]{1,0} %logistic.94), metadata={op_type="aten__silu" op_name="aten__silu" source_file="/usr/local/lib/python3.10/site-packages/torch/_ops.py" source_line=756}
  %convert.96 = f32[128,3072]{1,0} convert(bf16[128,3072]{1,0} %multiply.95), metadata={op_type="xla__cast" op_name="xla__cast" source_file="/usr/local/lib/python3.10/site-packages/torch/_ops.py" source_line=756}
  %slice.91 = bf16[128,3072]{1,0} slice(bf16[128,6144]{1,0} %dot.90), slice={[0:128], [3072:6144]}, metadata={op_type="xla__select" op_name="xla__select" source_file="/usr/local/lib/python3.10/site-packages/torch/_ops.py" source_line=756}
  %convert.92 = f32[128,3072]{1,0} convert(bf16[128,3072]{1,0} %slice.91), metadata={op_type="xla__cast" op_name="xla__cast" source_file="/usr/local/lib/python3.10/site-packages/torch/_ops.py" source_line=756}
  %multiply.97 = f32[128,3072]{1,0} multiply(f32[128,3072]{1,0} %convert.96, f32[128,3072]{1,0} %convert.92), metadata={op_type="aten__mul" op_name="aten__mul.1538/aten__mul" source_file="/usr/local/lib/python3.10/site-packages/torch/_ops.py" source_line=756}
  %convert.98 = bf16[128,3072]{1,0} convert(f32[128,3072]{1,0} %multiply.97), metadata={op_type="xla__cast" op_name="xla__cast" source_file="/usr/local/lib/python3.10/site-packages/torch/_ops.py" source_line=756}
  %p7.50 = bf16[1024,3072]{1,0} parameter(7), metadata={op_type="xla__device_data" op_name="xla__device_data" source_file="/usr/local/lib/python3.10/site-packages/torch_xla/_dynamo/dynamo_bridge.py" source_line=355}
  %transpose.51 = bf16[3072,1024]{0,1} transpose(bf16[1024,3072]{1,0} %p7.50), dimensions={1,0}, metadata={op_type="aten__permute" op_name="aten__permute" source_file="/usr/local/lib/python3.10/site-packages/torch/_ops.py" source_line=756}
  %dot.99 = bf16[128,1024]{1,0} dot(bf16[128,3072]{1,0} %convert.98, bf16[3072,1024]{0,1} %transpose.51), lhs_contracting_dims={1}, rhs_contracting_dims={0}, metadata={op_type="aten__mm" op_name="aten__mm" source_file="/usr/local/lib/python3.10/site-packages/torch/_ops.py" source_line=756}
  %convert.100 = f32[128,1024]{1,0} convert(bf16[128,1024]{1,0} %dot.99), metadata={op_type="xla__cast" op_name="xla__cast" source_file="/usr/local/lib/python3.10/site-packages/torch/_ops.py" source_line=756}
  %convert.48 = bf16[128,1024]{1,0} convert(f32[128,1024]{1,0} %add.47), metadata={op_type="xla__cast" op_name="xla__cast" source_file="/usr/local/lib/python3.10/site-packages/torch/_ops.py" source_line=756}
  %convert.49 = f32[128,1024]{1,0} convert(bf16[128,1024]{1,0} %convert.48), metadata={op_type="xla__cast" op_name="xla__cast" source_file="/usr/local/lib/python3.10/site-packages/torch/_ops.py" source_line=756}
  %constant.26 = f32[] constant(1), metadata={op_type="prim__Constant" op_name="prim__Constant" source_file="/usr/local/lib/python3.10/site-packages/torch/_ops.py" source_line=756}
  %broadcast.101 = f32[128,1024]{1,0} broadcast(f32[] %constant.26), dimensions={}, metadata={op_type="aten__add" op_name="aten__add.1539/aten__add" source_file="/usr/local/lib/python3.10/site-packages/torch/_ops.py" source_line=756}
  %multiply.102 = f32[128,1024]{1,0} multiply(f32[128,1024]{1,0} %convert.49, f32[128,1024]{1,0} %broadcast.101), metadata={op_type="aten__add" op_name="aten__add.1539/aten__add" source_file="/usr/local/lib/python3.10/site-packages/torch/_ops.py" source_line=756}
  %add.103 = f32[128,1024]{1,0} add(f32[128,1024]{1,0} %convert.100, f32[128,1024]{1,0} %multiply.102), metadata={op_type="aten__add" op_name="aten__add.1539/aten__add" source_file="/usr/local/lib/python3.10/site-packages/torch/_ops.py" source_line=756}
  %convert.104 = bf16[128,1024]{1,0} convert(f32[128,1024]{1,0} %add.103), metadata={op_type="xla__cast" op_name="xla__cast" source_file="/usr/local/lib/python3.10/site-packages/torch/_ops.py" source_line=756}
  %convert.105 = f32[128,1024]{1,0} convert(bf16[128,1024]{1,0} %convert.104), metadata={op_type="xla__cast" op_name="xla__cast" source_file="/usr/local/lib/python3.10/site-packages/torch/_ops.py" source_line=756}
  %constant.25 = f32[] constant(1), metadata={op_type="prim__Constant" op_name="prim__Constant" source_file="/usr/local/lib/python3.10/site-packages/torch/_ops.py" source_line=756}
  %broadcast.117 = f32[128,1024]{1,0} broadcast(f32[] %constant.25), dimensions={}, metadata={op_type="aten__add" op_name="aten__add.1552/aten__add" source_file="/usr/local/lib/python3.10/site-packages/torch/_ops.py" source_line=756}
  %multiply.118 = f32[128,1024]{1,0} multiply(f32[128,1024]{1,0} %convert.105, f32[128,1024]{1,0} %broadcast.117), metadata={op_type="aten__add" op_name="aten__add.1552/aten__add" source_file="/usr/local/lib/python3.10/site-packages/torch/_ops.py" source_line=756}
  %add.119 = f32[128,1024]{1,0} add(f32[128,1024]{1,0} %convert.116, f32[128,1024]{1,0} %multiply.118), metadata={op_type="aten__add" op_name="aten__add.1552/aten__add" source_file="/usr/local/lib/python3.10/site-packages/torch/_ops.py" source_line=756}
  %constant.129 = f32[] constant(2), metadata={op_type="prim__Constant" op_name="prim__Constant" source_file="/usr/local/lib/python3.10/site-packages/torch/_ops.py" source_line=756}
  %broadcast.130 = f32[128,1024]{1,0} broadcast(f32[] %constant.129), dimensions={}, metadata={op_type="aten__pow" op_name="aten__pow" source_file="/usr/local/lib/python3.10/site-packages/torch/_ops.py" source_line=756}
  %power.131 = f32[128,1024]{1,0} power(f32[128,1024]{1,0} %add.119, f32[128,1024]{1,0} %broadcast.130), metadata={op_type="aten__pow" op_name="aten__pow" source_file="/usr/local/lib/python3.10/site-packages/torch/_ops.py" source_line=756}
  %constant.132 = f32[] constant(0), metadata={op_type="aten__mean" op_name="aten__mean" source_file="/usr/local/lib/python3.10/site-packages/torch/_ops.py" source_line=756}
  %reduce.138 = f32[128]{0} reduce(f32[128,1024]{1,0} %power.131, f32[] %constant.132), dimensions={1}, to_apply=%AddComputation.134, metadata={op_type="aten__mean" op_name="aten__mean" source_file="/usr/local/lib/python3.10/site-packages/torch/_ops.py" source_line=756}
  %constant.133 = s32[] constant(1024), metadata={op_type="aten__mean" op_name="aten__mean" source_file="/usr/local/lib/python3.10/site-packages/torch/_ops.py" source_line=756}
  %constant.139 = s32[] constant(0), metadata={op_type="aten__mean" op_name="aten__mean" source_file="/usr/local/lib/python3.10/site-packages/torch/_ops.py" source_line=756}
  %compare.144 = pred[] compare(s32[] %constant.133, s32[] %constant.139), direction=NE, metadata={op_type="aten__mean" op_name="aten__mean" source_file="/usr/local/lib/python3.10/site-packages/torch/_ops.py" source_line=756}
  %constant.140 = f32[] constant(1), metadata={op_type="aten__mean" op_name="aten__mean" source_file="/usr/local/lib/python3.10/site-packages/torch/_ops.py" source_line=756}
  %convert.142 = f32[] convert(s32[] %constant.133), metadata={op_type="aten__mean" op_name="aten__mean" source_file="/usr/local/lib/python3.10/site-packages/torch/_ops.py" source_line=756}
  %divide.143 = f32[] divide(f32[] %constant.140, f32[] %convert.142), metadata={op_type="aten__mean" op_name="aten__mean" source_file="/usr/local/lib/python3.10/site-packages/torch/_ops.py" source_line=756}
  %constant.141 = f32[] constant(nan), metadata={op_type="aten__mean" op_name="aten__mean" source_file="/usr/local/lib/python3.10/site-packages/torch/_ops.py" source_line=756}
  %select.145 = f32[] select(pred[] %compare.144, f32[] %divide.143, f32[] %constant.141), metadata={op_type="aten__mean" op_name="aten__mean" source_file="/usr/local/lib/python3.10/site-packages/torch/_ops.py" source_line=756}
  %broadcast.146 = f32[128]{0} broadcast(f32[] %select.145), dimensions={}, metadata={op_type="aten__mean" op_name="aten__mean" source_file="/usr/local/lib/python3.10/site-packages/torch/_ops.py" source_line=756}
  %multiply.147 = f32[128]{0} multiply(f32[128]{0} %reduce.138, f32[128]{0} %broadcast.146), metadata={op_type="aten__mean" op_name="aten__mean" source_file="/usr/local/lib/python3.10/site-packages/torch/_ops.py" source_line=756}
  %reshape.148 = f32[128,1]{1,0} reshape(f32[128]{0} %multiply.147), metadata={op_type="aten__mean" op_name="aten__mean" source_file="/usr/local/lib/python3.10/site-packages/torch/_ops.py" source_line=756}
  %convert.149 = f32[128,1]{1,0} convert(f32[128,1]{1,0} %reshape.148), metadata={op_type="aten__mean" op_name="aten__mean" source_file="/usr/local/lib/python3.10/site-packages/torch/_ops.py" source_line=756}
  %constant.128 = f32[] constant(1), metadata={op_type="prim__Constant" op_name="prim__Constant" source_file="/usr/local/lib/python3.10/site-packages/torch/_ops.py" source_line=756}
  %multiply.150 = f32[] multiply(f32[] %p1.4, f32[] %constant.128), metadata={op_type="aten__add" op_name="aten__add.1553/aten__add" source_file="/usr/local/lib/python3.10/site-packages/torch/_ops.py" source_line=756}
  %broadcast.151 = f32[128,1]{1,0} broadcast(f32[] %multiply.150), dimensions={}, metadata={op_type="aten__add" op_name="aten__add.1553/aten__add" source_file="/usr/local/lib/python3.10/site-packages/torch/_ops.py" source_line=756}
  %add.152 = f32[128,1]{1,0} add(f32[128,1]{1,0} %convert.149, f32[128,1]{1,0} %broadcast.151), metadata={op_type="aten__add" op_name="aten__add.1553/aten__add" source_file="/usr/local/lib/python3.10/site-packages/torch/_ops.py" source_line=756}
  %rsqrt.153 = f32[128,1]{1,0} rsqrt(f32[128,1]{1,0} %add.152), metadata={op_type="aten__rsqrt" op_name="aten__rsqrt" source_file="/usr/local/lib/python3.10/site-packages/torch/_ops.py" source_line=756}
  %reshape.154 = f32[128]{0} reshape(f32[128,1]{1,0} %rsqrt.153), metadata={op_type="aten__mul" op_name="aten__mul.1554/aten__mul" source_file="/usr/local/lib/python3.10/site-packages/torch/_ops.py" source_line=756}
  %broadcast.155 = f32[128,1024]{1,0} broadcast(f32[128]{0} %reshape.154), dimensions={0}, metadata={op_type="aten__mul" op_name="aten__mul.1554/aten__mul" source_file="/usr/local/lib/python3.10/site-packages/torch/_ops.py" source_line=756}
  %multiply.156 = f32[128,1024]{1,0} multiply(f32[128,1024]{1,0} %add.119, f32[128,1024]{1,0} %broadcast.155), metadata={op_type="aten__mul" op_name="aten__mul.1554/aten__mul" source_file="/usr/local/lib/python3.10/site-packages/torch/_ops.py" source_line=756}
  %convert.157 = bf16[128,1024]{1,0} convert(f32[128,1024]{1,0} %multiply.156), metadata={op_type="xla__cast" op_name="xla__cast" source_file="/usr/local/lib/python3.10/site-packages/torch/_ops.py" source_line=756}
  %convert.158 = f32[128,1024]{1,0} convert(bf16[128,1024]{1,0} %convert.157), metadata={op_type="xla__cast" op_name="xla__cast" source_file="/usr/local/lib/python3.10/site-packages/torch/_ops.py" source_line=756}
  %p13.126 = bf16[1024]{0} parameter(13), metadata={op_type="xla__device_data" op_name="xla__device_data" source_file="/usr/local/lib/python3.10/site-packages/torch_xla/_dynamo/dynamo_bridge.py" source_line=355}
  %convert.127 = f32[1024]{0} convert(bf16[1024]{0} %p13.126), metadata={op_type="xla__cast" op_name="xla__cast" source_file="/usr/local/lib/python3.10/site-packages/torch/_ops.py" source_line=756}
  %broadcast.159 = f32[128,1024]{1,0} broadcast(f32[1024]{0} %convert.127), dimensions={1}, metadata={op_type="aten__mul" op_name="aten__mul.1555/aten__mul" source_file="/usr/local/lib/python3.10/site-packages/torch/_ops.py" source_line=756}
  %multiply.160 = f32[128,1024]{1,0} multiply(f32[128,1024]{1,0} %convert.158, f32[128,1024]{1,0} %broadcast.159), metadata={op_type="aten__mul" op_name="aten__mul.1555/aten__mul" source_file="/usr/local/lib/python3.10/site-packages/torch/_ops.py" source_line=756}
  %convert.161 = bf16[128,1024]{1,0} convert(f32[128,1024]{1,0} %multiply.160), metadata={op_type="xla__cast" op_name="xla__cast" source_file="/usr/local/lib/python3.10/site-packages/torch/_ops.py" source_line=756}
  %p12.124 = bf16[6144,1024]{1,0} parameter(12), metadata={op_type="xla__device_data" op_name="xla__device_data" source_file="/usr/local/lib/python3.10/site-packages/torch_xla/_dynamo/dynamo_bridge.py" source_line=355}
  %transpose.125 = bf16[1024,6144]{0,1} transpose(bf16[6144,1024]{1,0} %p12.124), dimensions={1,0}, metadata={op_type="aten__permute" op_name="aten__permute" source_file="/usr/local/lib/python3.10/site-packages/torch/_ops.py" source_line=756}
  %dot.162 = bf16[128,6144]{1,0} dot(bf16[128,1024]{1,0} %convert.161, bf16[1024,6144]{0,1} %transpose.125), lhs_contracting_dims={1}, rhs_contracting_dims={0}, metadata={op_type="aten__mm" op_name="aten__mm" source_file="/usr/local/lib/python3.10/site-packages/torch/_ops.py" source_line=756}
  %slice.165 = bf16[128,3072]{1,0} slice(bf16[128,6144]{1,0} %dot.162), slice={[0:128], [0:3072]}, metadata={op_type="xla__select" op_name="xla__select" source_file="/usr/local/lib/python3.10/site-packages/torch/_ops.py" source_line=756}
  %logistic.166 = bf16[128,3072]{1,0} logistic(bf16[128,3072]{1,0} %slice.165), metadata={op_type="aten__silu" op_name="aten__silu" source_file="/usr/local/lib/python3.10/site-packages/torch/_ops.py" source_line=756}
  %multiply.167 = bf16[128,3072]{1,0} multiply(bf16[128,3072]{1,0} %slice.165, bf16[128,3072]{1,0} %logistic.166), metadata={op_type="aten__silu" op_name="aten__silu" source_file="/usr/local/lib/python3.10/site-packages/torch/_ops.py" source_line=756}
  %convert.168 = f32[128,3072]{1,0} convert(bf16[128,3072]{1,0} %multiply.167), metadata={op_type="xla__cast" op_name="xla__cast" source_file="/usr/local/lib/python3.10/site-packages/torch/_ops.py" source_line=756}
  %slice.163 = bf16[128,3072]{1,0} slice(bf16[128,6144]{1,0} %dot.162), slice={[0:128], [3072:6144]}, metadata={op_type="xla__select" op_name="xla__select" source_file="/usr/local/lib/python3.10/site-packages/torch/_ops.py" source_line=756}
  %convert.164 = f32[128,3072]{1,0} convert(bf16[128,3072]{1,0} %slice.163), metadata={op_type="xla__cast" op_name="xla__cast" source_file="/usr/local/lib/python3.10/site-packages/torch/_ops.py" source_line=756}
  %multiply.169 = f32[128,3072]{1,0} multiply(f32[128,3072]{1,0} %convert.168, f32[128,3072]{1,0} %convert.164), metadata={op_type="aten__mul" op_name="aten__mul.1556/aten__mul" source_file="/usr/local/lib/python3.10/site-packages/torch/_ops.py" source_line=756}
  %convert.170 = bf16[128,3072]{1,0} convert(f32[128,3072]{1,0} %multiply.169), metadata={op_type="xla__cast" op_name="xla__cast" source_file="/usr/local/lib/python3.10/site-packages/torch/_ops.py" source_line=756}
  %p11.122 = bf16[1024,3072]{1,0} parameter(11), metadata={op_type="xla__device_data" op_name="xla__device_data" source_file="/usr/local/lib/python3.10/site-packages/torch_xla/_dynamo/dynamo_bridge.py" source_line=355}
  %transpose.123 = bf16[3072,1024]{0,1} transpose(bf16[1024,3072]{1,0} %p11.122), dimensions={1,0}, metadata={op_type="aten__permute" op_name="aten__permute" source_file="/usr/local/lib/python3.10/site-packages/torch/_ops.py" source_line=756}
  %dot.171 = bf16[128,1024]{1,0} dot(bf16[128,3072]{1,0} %convert.170, bf16[3072,1024]{0,1} %transpose.123), lhs_contracting_dims={1}, rhs_contracting_dims={0}, metadata={op_type="aten__mm" op_name="aten__mm" source_file="/usr/local/lib/python3.10/site-packages/torch/_ops.py" source_line=756}
  %convert.172 = f32[128,1024]{1,0} convert(bf16[128,1024]{1,0} %dot.171), metadata={op_type="xla__cast" op_name="xla__cast" source_file="/usr/local/lib/python3.10/site-packages/torch/_ops.py" source_line=756}
  %convert.120 = bf16[128,1024]{1,0} convert(f32[128,1024]{1,0} %add.119), metadata={op_type="xla__cast" op_name="xla__cast" source_file="/usr/local/lib/python3.10/site-packages/torch/_ops.py" source_line=756}
  %convert.121 = f32[128,1024]{1,0} convert(bf16[128,1024]{1,0} %convert.120), metadata={op_type="xla__cast" op_name="xla__cast" source_file="/usr/local/lib/python3.10/site-packages/torch/_ops.py" source_line=756}
  %constant.24 = f32[] constant(1), metadata={op_type="prim__Constant" op_name="prim__Constant" source_file="/usr/local/lib/python3.10/site-packages/torch/_ops.py" source_line=756}
  %broadcast.173 = f32[128,1024]{1,0} broadcast(f32[] %constant.24), dimensions={}, metadata={op_type="aten__add" op_name="aten__add.1557/aten__add" source_file="/usr/local/lib/python3.10/site-packages/torch/_ops.py" source_line=756}
  %multiply.174 = f32[128,1024]{1,0} multiply(f32[128,1024]{1,0} %convert.121, f32[128,1024]{1,0} %broadcast.173), metadata={op_type="aten__add" op_name="aten__add.1557/aten__add" source_file="/usr/local/lib/python3.10/site-packages/torch/_ops.py" source_line=756}
  %add.175 = f32[128,1024]{1,0} add(f32[128,1024]{1,0} %convert.172, f32[128,1024]{1,0} %multiply.174), metadata={op_type="aten__add" op_name="aten__add.1557/aten__add" source_file="/usr/local/lib/python3.10/site-packages/torch/_ops.py" source_line=756}
  %convert.176 = bf16[128,1024]{1,0} convert(f32[128,1024]{1,0} %add.175), metadata={op_type="xla__cast" op_name="xla__cast" source_file="/usr/local/lib/python3.10/site-packages/torch/_ops.py" source_line=756}
  %convert.177 = f32[128,1024]{1,0} convert(bf16[128,1024]{1,0} %convert.176), metadata={op_type="xla__cast" op_name="xla__cast" source_file="/usr/local/lib/python3.10/site-packages/torch/_ops.py" source_line=756}
  %constant.23 = f32[] constant(1), metadata={op_type="prim__Constant" op_name="prim__Constant" source_file="/usr/local/lib/python3.10/site-packages/torch/_ops.py" source_line=756}
  %broadcast.189 = f32[128,1024]{1,0} broadcast(f32[] %constant.23), dimensions={}, metadata={op_type="aten__add" op_name="aten__add.1570/aten__add" source_file="/usr/local/lib/python3.10/site-packages/torch/_ops.py" source_line=756}
  %multiply.190 = f32[128,1024]{1,0} multiply(f32[128,1024]{1,0} %convert.177, f32[128,1024]{1,0} %broadcast.189), metadata={op_type="aten__add" op_name="aten__add.1570/aten__add" source_file="/usr/local/lib/python3.10/site-packages/torch/_ops.py" source_line=756}
  %add.191 = f32[128,1024]{1,0} add(f32[128,1024]{1,0} %convert.188, f32[128,1024]{1,0} %multiply.190), metadata={op_type="aten__add" op_name="aten__add.1570/aten__add" source_file="/usr/local/lib/python3.10/site-packages/torch/_ops.py" source_line=756}
  %constant.201 = f32[] constant(2), metadata={op_type="prim__Constant" op_name="prim__Constant" source_file="/usr/local/lib/python3.10/site-packages/torch/_ops.py" source_line=756}
  %broadcast.202 = f32[128,1024]{1,0} broadcast(f32[] %constant.201), dimensions={}, metadata={op_type="aten__pow" op_name="aten__pow" source_file="/usr/local/lib/python3.10/site-packages/torch/_ops.py" source_line=756}
  %power.203 = f32[128,1024]{1,0} power(f32[128,1024]{1,0} %add.191, f32[128,1024]{1,0} %broadcast.202), metadata={op_type="aten__pow" op_name="aten__pow" source_file="/usr/local/lib/python3.10/site-packages/torch/_ops.py" source_line=756}
  %constant.204 = f32[] constant(0), metadata={op_type="aten__mean" op_name="aten__mean" source_file="/usr/local/lib/python3.10/site-packages/torch/_ops.py" source_line=756}
  %reduce.210 = f32[128]{0} reduce(f32[128,1024]{1,0} %power.203, f32[] %constant.204), dimensions={1}, to_apply=%AddComputation.206, metadata={op_type="aten__mean" op_name="aten__mean" source_file="/usr/local/lib/python3.10/site-packages/torch/_ops.py" source_line=756}
  %constant.205 = s32[] constant(1024), metadata={op_type="aten__mean" op_name="aten__mean" source_file="/usr/local/lib/python3.10/site-packages/torch/_ops.py" source_line=756}
  %constant.211 = s32[] constant(0), metadata={op_type="aten__mean" op_name="aten__mean" source_file="/usr/local/lib/python3.10/site-packages/torch/_ops.py" source_line=756}
  %compare.216 = pred[] compare(s32[] %constant.205, s32[] %constant.211), direction=NE, metadata={op_type="aten__mean" op_name="aten__mean" source_file="/usr/local/lib/python3.10/site-packages/torch/_ops.py" source_line=756}
  %constant.212 = f32[] constant(1), metadata={op_type="aten__mean" op_name="aten__mean" source_file="/usr/local/lib/python3.10/site-packages/torch/_ops.py" source_line=756}
  %convert.214 = f32[] convert(s32[] %constant.205), metadata={op_type="aten__mean" op_name="aten__mean" source_file="/usr/local/lib/python3.10/site-packages/torch/_ops.py" source_line=756}
  %divide.215 = f32[] divide(f32[] %constant.212, f32[] %convert.214), metadata={op_type="aten__mean" op_name="aten__mean" source_file="/usr/local/lib/python3.10/site-packages/torch/_ops.py" source_line=756}
  %constant.213 = f32[] constant(nan), metadata={op_type="aten__mean" op_name="aten__mean" source_file="/usr/local/lib/python3.10/site-packages/torch/_ops.py" source_line=756}
  %select.217 = f32[] select(pred[] %compare.216, f32[] %divide.215, f32[] %constant.213), metadata={op_type="aten__mean" op_name="aten__mean" source_file="/usr/local/lib/python3.10/site-packages/torch/_ops.py" source_line=756}
  %broadcast.218 = f32[128]{0} broadcast(f32[] %select.217), dimensions={}, metadata={op_type="aten__mean" op_name="aten__mean" source_file="/usr/local/lib/python3.10/site-packages/torch/_ops.py" source_line=756}
  %multiply.219 = f32[128]{0} multiply(f32[128]{0} %reduce.210, f32[128]{0} %broadcast.218), metadata={op_type="aten__mean" op_name="aten__mean" source_file="/usr/local/lib/python3.10/site-packages/torch/_ops.py" source_line=756}
  %reshape.220 = f32[128,1]{1,0} reshape(f32[128]{0} %multiply.219), metadata={op_type="aten__mean" op_name="aten__mean" source_file="/usr/local/lib/python3.10/site-packages/torch/_ops.py" source_line=756}
  %convert.221 = f32[128,1]{1,0} convert(f32[128,1]{1,0} %reshape.220), metadata={op_type="aten__mean" op_name="aten__mean" source_file="/usr/local/lib/python3.10/site-packages/torch/_ops.py" source_line=756}
  %constant.200 = f32[] constant(1), metadata={op_type="prim__Constant" op_name="prim__Constant" source_file="/usr/local/lib/python3.10/site-packages/torch/_ops.py" source_line=756}
  %multiply.222 = f32[] multiply(f32[] %p1.4, f32[] %constant.200), metadata={op_type="aten__add" op_name="aten__add.1571/aten__add" source_file="/usr/local/lib/python3.10/site-packages/torch/_ops.py" source_line=756}
  %broadcast.223 = f32[128,1]{1,0} broadcast(f32[] %multiply.222), dimensions={}, metadata={op_type="aten__add" op_name="aten__add.1571/aten__add" source_file="/usr/local/lib/python3.10/site-packages/torch/_ops.py" source_line=756}
  %add.224 = f32[128,1]{1,0} add(f32[128,1]{1,0} %convert.221, f32[128,1]{1,0} %broadcast.223), metadata={op_type="aten__add" op_name="aten__add.1571/aten__add" source_file="/usr/local/lib/python3.10/site-packages/torch/_ops.py" source_line=756}
  %rsqrt.225 = f32[128,1]{1,0} rsqrt(f32[128,1]{1,0} %add.224), metadata={op_type="aten__rsqrt" op_name="aten__rsqrt" source_file="/usr/local/lib/python3.10/site-packages/torch/_ops.py" source_line=756}
  %reshape.226 = f32[128]{0} reshape(f32[128,1]{1,0} %rsqrt.225), metadata={op_type="aten__mul" op_name="aten__mul.1572/aten__mul" source_file="/usr/local/lib/python3.10/site-packages/torch/_ops.py" source_line=756}
  %broadcast.227 = f32[128,1024]{1,0} broadcast(f32[128]{0} %reshape.226), dimensions={0}, metadata={op_type="aten__mul" op_name="aten__mul.1572/aten__mul" source_file="/usr/local/lib/python3.10/site-packages/torch/_ops.py" source_line=756}
  %multiply.228 = f32[128,1024]{1,0} multiply(f32[128,1024]{1,0} %add.191, f32[128,1024]{1,0} %broadcast.227), metadata={op_type="aten__mul" op_name="aten__mul.1572/aten__mul" source_file="/usr/local/lib/python3.10/site-packages/torch/_ops.py" source_line=756}
  %convert.229 = bf16[128,1024]{1,0} convert(f32[128,1024]{1,0} %multiply.228), metadata={op_type="xla__cast" op_name="xla__cast" source_file="/usr/local/lib/python3.10/site-packages/torch/_ops.py" source_line=756}
  %convert.230 = f32[128,1024]{1,0} convert(bf16[128,1024]{1,0} %convert.229), metadata={op_type="xla__cast" op_name="xla__cast" source_file="/usr/local/lib/python3.10/site-packages/torch/_ops.py" source_line=756}
  %p17.198 = bf16[1024]{0} parameter(17), metadata={op_type="xla__device_data" op_name="xla__device_data" source_file="/usr/local/lib/python3.10/site-packages/torch_xla/_dynamo/dynamo_bridge.py" source_line=355}
  %convert.199 = f32[1024]{0} convert(bf16[1024]{0} %p17.198), metadata={op_type="xla__cast" op_name="xla__cast" source_file="/usr/local/lib/python3.10/site-packages/torch/_ops.py" source_line=756}
  %broadcast.231 = f32[128,1024]{1,0} broadcast(f32[1024]{0} %convert.199), dimensions={1}, metadata={op_type="aten__mul" op_name="aten__mul.1573/aten__mul" source_file="/usr/local/lib/python3.10/site-packages/torch/_ops.py" source_line=756}
  %multiply.232 = f32[128,1024]{1,0} multiply(f32[128,1024]{1,0} %convert.230, f32[128,1024]{1,0} %broadcast.231), metadata={op_type="aten__mul" op_name="aten__mul.1573/aten__mul" source_file="/usr/local/lib/python3.10/site-packages/torch/_ops.py" source_line=756}
  %convert.233 = bf16[128,1024]{1,0} convert(f32[128,1024]{1,0} %multiply.232), metadata={op_type="xla__cast" op_name="xla__cast" source_file="/usr/local/lib/python3.10/site-packages/torch/_ops.py" source_line=756}
  %p16.196 = bf16[6144,1024]{1,0} parameter(16), metadata={op_type="xla__device_data" op_name="xla__device_data" source_file="/usr/local/lib/python3.10/site-packages/torch_xla/_dynamo/dynamo_bridge.py" source_line=355}
  %transpose.197 = bf16[1024,6144]{0,1} transpose(bf16[6144,1024]{1,0} %p16.196), dimensions={1,0}, metadata={op_type="aten__permute" op_name="aten__permute" source_file="/usr/local/lib/python3.10/site-packages/torch/_ops.py" source_line=756}
  %dot.234 = bf16[128,6144]{1,0} dot(bf16[128,1024]{1,0} %convert.233, bf16[1024,6144]{0,1} %transpose.197), lhs_contracting_dims={1}, rhs_contracting_dims={0}, metadata={op_type="aten__mm" op_name="aten__mm" source_file="/usr/local/lib/python3.10/site-packages/torch/_ops.py" source_line=756}
  %slice.237 = bf16[128,3072]{1,0} slice(bf16[128,6144]{1,0} %dot.234), slice={[0:128], [0:3072]}, metadata={op_type="xla__select" op_name="xla__select" source_file="/usr/local/lib/python3.10/site-packages/torch/_ops.py" source_line=756}
  %logistic.238 = bf16[128,3072]{1,0} logistic(bf16[128,3072]{1,0} %slice.237), metadata={op_type="aten__silu" op_name="aten__silu" source_file="/usr/local/lib/python3.10/site-packages/torch/_ops.py" source_line=756}
  %multiply.239 = bf16[128,3072]{1,0} multiply(bf16[128,3072]{1,0} %slice.237, bf16[128,3072]{1,0} %logistic.238), metadata={op_type="aten__silu" op_name="aten__silu" source_file="/usr/local/lib/python3.10/site-packages/torch/_ops.py" source_line=756}
  %convert.240 = f32[128,3072]{1,0} convert(bf16[128,3072]{1,0} %multiply.239), metadata={op_type="xla__cast" op_name="xla__cast" source_file="/usr/local/lib/python3.10/site-packages/torch/_ops.py" source_line=756}
  %slice.235 = bf16[128,3072]{1,0} slice(bf16[128,6144]{1,0} %dot.234), slice={[0:128], [3072:6144]}, metadata={op_type="xla__select" op_name="xla__select" source_file="/usr/local/lib/python3.10/site-packages/torch/_ops.py" source_line=756}
  %convert.236 = f32[128,3072]{1,0} convert(bf16[128,3072]{1,0} %slice.235), metadata={op_type="xla__cast" op_name="xla__cast" source_file="/usr/local/lib/python3.10/site-packages/torch/_ops.py" source_line=756}
  %multiply.241 = f32[128,3072]{1,0} multiply(f32[128,3072]{1,0} %convert.240, f32[128,3072]{1,0} %convert.236), metadata={op_type="aten__mul" op_name="aten__mul.1574/aten__mul" source_file="/usr/local/lib/python3.10/site-packages/torch/_ops.py" source_line=756}
  %convert.242 = bf16[128,3072]{1,0} convert(f32[128,3072]{1,0} %multiply.241), metadata={op_type="xla__cast" op_name="xla__cast" source_file="/usr/local/lib/python3.10/site-packages/torch/_ops.py" source_line=756}
  %p15.194 = bf16[1024,3072]{1,0} parameter(15), metadata={op_type="xla__device_data" op_name="xla__device_data" source_file="/usr/local/lib/python3.10/site-packages/torch_xla/_dynamo/dynamo_bridge.py" source_line=355}
  %transpose.195 = bf16[3072,1024]{0,1} transpose(bf16[1024,3072]{1,0} %p15.194), dimensions={1,0}, metadata={op_type="aten__permute" op_name="aten__permute" source_file="/usr/local/lib/python3.10/site-packages/torch/_ops.py" source_line=756}
  %dot.243 = bf16[128,1024]{1,0} dot(bf16[128,3072]{1,0} %convert.242, bf16[3072,1024]{0,1} %transpose.195), lhs_contracting_dims={1}, rhs_contracting_dims={0}, metadata={op_type="aten__mm" op_name="aten__mm" source_file="/usr/local/lib/python3.10/site-packages/torch/_ops.py" source_line=756}
  %convert.244 = f32[128,1024]{1,0} convert(bf16[128,1024]{1,0} %dot.243), metadata={op_type="xla__cast" op_name="xla__cast" source_file="/usr/local/lib/python3.10/site-packages/torch/_ops.py" source_line=756}
  %convert.192 = bf16[128,1024]{1,0} convert(f32[128,1024]{1,0} %add.191), metadata={op_type="xla__cast" op_name="xla__cast" source_file="/usr/local/lib/python3.10/site-packages/torch/_ops.py" source_line=756}
  %convert.193 = f32[128,1024]{1,0} convert(bf16[128,1024]{1,0} %convert.192), metadata={op_type="xla__cast" op_name="xla__cast" source_file="/usr/local/lib/python3.10/site-packages/torch/_ops.py" source_line=756}
  %constant.22 = f32[] constant(1), metadata={op_type="prim__Constant" op_name="prim__Constant" source_file="/usr/local/lib/python3.10/site-packages/torch/_ops.py" source_line=756}
  %broadcast.245 = f32[128,1024]{1,0} broadcast(f32[] %constant.22), dimensions={}, metadata={op_type="aten__add" op_name="aten__add.1575/aten__add" source_file="/usr/local/lib/python3.10/site-packages/torch/_ops.py" source_line=756}
  %multiply.246 = f32[128,1024]{1,0} multiply(f32[128,1024]{1,0} %convert.193, f32[128,1024]{1,0} %broadcast.245), metadata={op_type="aten__add" op_name="aten__add.1575/aten__add" source_file="/usr/local/lib/python3.10/site-packages/torch/_ops.py" source_line=756}
  %add.247 = f32[128,1024]{1,0} add(f32[128,1024]{1,0} %convert.244, f32[128,1024]{1,0} %multiply.246), metadata={op_type="aten__add" op_name="aten__add.1575/aten__add" source_file="/usr/local/lib/python3.10/site-packages/torch/_ops.py" source_line=756}
  %convert.248 = bf16[128,1024]{1,0} convert(f32[128,1024]{1,0} %add.247), metadata={op_type="xla__cast" op_name="xla__cast" source_file="/usr/local/lib/python3.10/site-packages/torch/_ops.py" source_line=756}
  %convert.249 = f32[128,1024]{1,0} convert(bf16[128,1024]{1,0} %convert.248), metadata={op_type="xla__cast" op_name="xla__cast" source_file="/usr/local/lib/python3.10/site-packages/torch/_ops.py" source_line=756}
  %constant.21 = f32[] constant(1), metadata={op_type="prim__Constant" op_name="prim__Constant" source_file="/usr/local/lib/python3.10/site-packages/torch/_ops.py" source_line=756}
  %broadcast.261 = f32[128,1024]{1,0} broadcast(f32[] %constant.21), dimensions={}, metadata={op_type="aten__add" op_name="aten__add.1588/aten__add" source_file="/usr/local/lib/python3.10/site-packages/torch/_ops.py" source_line=756}
  %multiply.262 = f32[128,1024]{1,0} multiply(f32[128,1024]{1,0} %convert.249, f32[128,1024]{1,0} %broadcast.261), metadata={op_type="aten__add" op_name="aten__add.1588/aten__add" source_file="/usr/local/lib/python3.10/site-packages/torch/_ops.py" source_line=756}
  %add.263 = f32[128,1024]{1,0} add(f32[128,1024]{1,0} %convert.260, f32[128,1024]{1,0} %multiply.262), metadata={op_type="aten__add" op_name="aten__add.1588/aten__add" source_file="/usr/local/lib/python3.10/site-packages/torch/_ops.py" source_line=756}
  %constant.273 = f32[] constant(2), metadata={op_type="prim__Constant" op_name="prim__Constant" source_file="/usr/local/lib/python3.10/site-packages/torch/_ops.py" source_line=756}
  %broadcast.274 = f32[128,1024]{1,0} broadcast(f32[] %constant.273), dimensions={}, metadata={op_type="aten__pow" op_name="aten__pow" source_file="/usr/local/lib/python3.10/site-packages/torch/_ops.py" source_line=756}
  %power.275 = f32[128,1024]{1,0} power(f32[128,1024]{1,0} %add.263, f32[128,1024]{1,0} %broadcast.274), metadata={op_type="aten__pow" op_name="aten__pow" source_file="/usr/local/lib/python3.10/site-packages/torch/_ops.py" source_line=756}
  %constant.276 = f32[] constant(0), metadata={op_type="aten__mean" op_name="aten__mean" source_file="/usr/local/lib/python3.10/site-packages/torch/_ops.py" source_line=756}
  %reduce.282 = f32[128]{0} reduce(f32[128,1024]{1,0} %power.275, f32[] %constant.276), dimensions={1}, to_apply=%AddComputation.278, metadata={op_type="aten__mean" op_name="aten__mean" source_file="/usr/local/lib/python3.10/site-packages/torch/_ops.py" source_line=756}
  %constant.277 = s32[] constant(1024), metadata={op_type="aten__mean" op_name="aten__mean" source_file="/usr/local/lib/python3.10/site-packages/torch/_ops.py" source_line=756}
  %constant.283 = s32[] constant(0), metadata={op_type="aten__mean" op_name="aten__mean" source_file="/usr/local/lib/python3.10/site-packages/torch/_ops.py" source_line=756}
  %compare.288 = pred[] compare(s32[] %constant.277, s32[] %constant.283), direction=NE, metadata={op_type="aten__mean" op_name="aten__mean" source_file="/usr/local/lib/python3.10/site-packages/torch/_ops.py" source_line=756}
  %constant.284 = f32[] constant(1), metadata={op_type="aten__mean" op_name="aten__mean" source_file="/usr/local/lib/python3.10/site-packages/torch/_ops.py" source_line=756}
  %convert.286 = f32[] convert(s32[] %constant.277), metadata={op_type="aten__mean" op_name="aten__mean" source_file="/usr/local/lib/python3.10/site-packages/torch/_ops.py" source_line=756}
  %divide.287 = f32[] divide(f32[] %constant.284, f32[] %convert.286), metadata={op_type="aten__mean" op_name="aten__mean" source_file="/usr/local/lib/python3.10/site-packages/torch/_ops.py" source_line=756}
  %constant.285 = f32[] constant(nan), metadata={op_type="aten__mean" op_name="aten__mean" source_file="/usr/local/lib/python3.10/site-packages/torch/_ops.py" source_line=756}
  %select.289 = f32[] select(pred[] %compare.288, f32[] %divide.287, f32[] %constant.285), metadata={op_type="aten__mean" op_name="aten__mean" source_file="/usr/local/lib/python3.10/site-packages/torch/_ops.py" source_line=756}
  %broadcast.290 = f32[128]{0} broadcast(f32[] %select.289), dimensions={}, metadata={op_type="aten__mean" op_name="aten__mean" source_file="/usr/local/lib/python3.10/site-packages/torch/_ops.py" source_line=756}
  %multiply.291 = f32[128]{0} multiply(f32[128]{0} %reduce.282, f32[128]{0} %broadcast.290), metadata={op_type="aten__mean" op_name="aten__mean" source_file="/usr/local/lib/python3.10/site-packages/torch/_ops.py" source_line=756}
  %reshape.292 = f32[128,1]{1,0} reshape(f32[128]{0} %multiply.291), metadata={op_type="aten__mean" op_name="aten__mean" source_file="/usr/local/lib/python3.10/site-packages/torch/_ops.py" source_line=756}
  %convert.293 = f32[128,1]{1,0} convert(f32[128,1]{1,0} %reshape.292), metadata={op_type="aten__mean" op_name="aten__mean" source_file="/usr/local/lib/python3.10/site-packages/torch/_ops.py" source_line=756}
  %constant.272 = f32[] constant(1), metadata={op_type="prim__Constant" op_name="prim__Constant" source_file="/usr/local/lib/python3.10/site-packages/torch/_ops.py" source_line=756}
  %multiply.294 = f32[] multiply(f32[] %p1.4, f32[] %constant.272), metadata={op_type="aten__add" op_name="aten__add.1589/aten__add" source_file="/usr/local/lib/python3.10/site-packages/torch/_ops.py" source_line=756}
  %broadcast.295 = f32[128,1]{1,0} broadcast(f32[] %multiply.294), dimensions={}, metadata={op_type="aten__add" op_name="aten__add.1589/aten__add" source_file="/usr/local/lib/python3.10/site-packages/torch/_ops.py" source_line=756}
  %add.296 = f32[128,1]{1,0} add(f32[128,1]{1,0} %convert.293, f32[128,1]{1,0} %broadcast.295), metadata={op_type="aten__add" op_name="aten__add.1589/aten__add" source_file="/usr/local/lib/python3.10/site-packages/torch/_ops.py" source_line=756}
  %rsqrt.297 = f32[128,1]{1,0} rsqrt(f32[128,1]{1,0} %add.296), metadata={op_type="aten__rsqrt" op_name="aten__rsqrt" source_file="/usr/local/lib/python3.10/site-packages/torch/_ops.py" source_line=756}
  %reshape.298 = f32[128]{0} reshape(f32[128,1]{1,0} %rsqrt.297), metadata={op_type="aten__mul" op_name="aten__mul.1590/aten__mul" source_file="/usr/local/lib/python3.10/site-packages/torch/_ops.py" source_line=756}
  %broadcast.299 = f32[128,1024]{1,0} broadcast(f32[128]{0} %reshape.298), dimensions={0}, metadata={op_type="aten__mul" op_name="aten__mul.1590/aten__mul" source_file="/usr/local/lib/python3.10/site-packages/torch/_ops.py" source_line=756}
  %multiply.300 = f32[128,1024]{1,0} multiply(f32[128,1024]{1,0} %add.263, f32[128,1024]{1,0} %broadcast.299), metadata={op_type="aten__mul" op_name="aten__mul.1590/aten__mul" source_file="/usr/local/lib/python3.10/site-packages/torch/_ops.py" source_line=756}
  %convert.301 = bf16[128,1024]{1,0} convert(f32[128,1024]{1,0} %multiply.300), metadata={op_type="xla__cast" op_name="xla__cast" source_file="/usr/local/lib/python3.10/site-packages/torch/_ops.py" source_line=756}
  %convert.302 = f32[128,1024]{1,0} convert(bf16[128,1024]{1,0} %convert.301), metadata={op_type="xla__cast" op_name="xla__cast" source_file="/usr/local/lib/python3.10/site-packages/torch/_ops.py" source_line=756}
  %p21.270 = bf16[1024]{0} parameter(21), metadata={op_type="xla__device_data" op_name="xla__device_data" source_file="/usr/local/lib/python3.10/site-packages/torch_xla/_dynamo/dynamo_bridge.py" source_line=355}
  %convert.271 = f32[1024]{0} convert(bf16[1024]{0} %p21.270), metadata={op_type="xla__cast" op_name="xla__cast" source_file="/usr/local/lib/python3.10/site-packages/torch/_ops.py" source_line=756}
  %broadcast.303 = f32[128,1024]{1,0} broadcast(f32[1024]{0} %convert.271), dimensions={1}, metadata={op_type="aten__mul" op_name="aten__mul.1591/aten__mul" source_file="/usr/local/lib/python3.10/site-packages/torch/_ops.py" source_line=756}
  %multiply.304 = f32[128,1024]{1,0} multiply(f32[128,1024]{1,0} %convert.302, f32[128,1024]{1,0} %broadcast.303), metadata={op_type="aten__mul" op_name="aten__mul.1591/aten__mul" source_file="/usr/local/lib/python3.10/site-packages/torch/_ops.py" source_line=756}
  %convert.305 = bf16[128,1024]{1,0} convert(f32[128,1024]{1,0} %multiply.304), metadata={op_type="xla__cast" op_name="xla__cast" source_file="/usr/local/lib/python3.10/site-packages/torch/_ops.py" source_line=756}
  %p20.268 = bf16[6144,1024]{1,0} parameter(20), metadata={op_type="xla__device_data" op_name="xla__device_data" source_file="/usr/local/lib/python3.10/site-packages/torch_xla/_dynamo/dynamo_bridge.py" source_line=355}
  %transpose.269 = bf16[1024,6144]{0,1} transpose(bf16[6144,1024]{1,0} %p20.268), dimensions={1,0}, metadata={op_type="aten__permute" op_name="aten__permute" source_file="/usr/local/lib/python3.10/site-packages/torch/_ops.py" source_line=756}
  %dot.306 = bf16[128,6144]{1,0} dot(bf16[128,1024]{1,0} %convert.305, bf16[1024,6144]{0,1} %transpose.269), lhs_contracting_dims={1}, rhs_contracting_dims={0}, metadata={op_type="aten__mm" op_name="aten__mm" source_file="/usr/local/lib/python3.10/site-packages/torch/_ops.py" source_line=756}
  %slice.309 = bf16[128,3072]{1,0} slice(bf16[128,6144]{1,0} %dot.306), slice={[0:128], [0:3072]}, metadata={op_type="xla__select" op_name="xla__select" source_file="/usr/local/lib/python3.10/site-packages/torch/_ops.py" source_line=756}
  %logistic.310 = bf16[128,3072]{1,0} logistic(bf16[128,3072]{1,0} %slice.309), metadata={op_type="aten__silu" op_name="aten__silu" source_file="/usr/local/lib/python3.10/site-packages/torch/_ops.py" source_line=756}
  %multiply.311 = bf16[128,3072]{1,0} multiply(bf16[128,3072]{1,0} %slice.309, bf16[128,3072]{1,0} %logistic.310), metadata={op_type="aten__silu" op_name="aten__silu" source_file="/usr/local/lib/python3.10/site-packages/torch/_ops.py" source_line=756}
  %convert.312 = f32[128,3072]{1,0} convert(bf16[128,3072]{1,0} %multiply.311), metadata={op_type="xla__cast" op_name="xla__cast" source_file="/usr/local/lib/python3.10/site-packages/torch/_ops.py" source_line=756}
  %slice.307 = bf16[128,3072]{1,0} slice(bf16[128,6144]{1,0} %dot.306), slice={[0:128], [3072:6144]}, metadata={op_type="xla__select" op_name="xla__select" source_file="/usr/local/lib/python3.10/site-packages/torch/_ops.py" source_line=756}
  %convert.308 = f32[128,3072]{1,0} convert(bf16[128,3072]{1,0} %slice.307), metadata={op_type="xla__cast" op_name="xla__cast" source_file="/usr/local/lib/python3.10/site-packages/torch/_ops.py" source_line=756}
  %multiply.313 = f32[128,3072]{1,0} multiply(f32[128,3072]{1,0} %convert.312, f32[128,3072]{1,0} %convert.308), metadata={op_type="aten__mul" op_name="aten__mul.1592/aten__mul" source_file="/usr/local/lib/python3.10/site-packages/torch/_ops.py" source_line=756}
  %convert.314 = bf16[128,3072]{1,0} convert(f32[128,3072]{1,0} %multiply.313), metadata={op_type="xla__cast" op_name="xla__cast" source_file="/usr/local/lib/python3.10/site-packages/torch/_ops.py" source_line=756}
  %p19.266 = bf16[1024,3072]{1,0} parameter(19), metadata={op_type="xla__device_data" op_name="xla__device_data" source_file="/usr/local/lib/python3.10/site-packages/torch_xla/_dynamo/dynamo_bridge.py" source_line=355}
  %transpose.267 = bf16[3072,1024]{0,1} transpose(bf16[1024,3072]{1,0} %p19.266), dimensions={1,0}, metadata={op_type="aten__permute" op_name="aten__permute" source_file="/usr/local/lib/python3.10/site-packages/torch/_ops.py" source_line=756}
  %dot.315 = bf16[128,1024]{1,0} dot(bf16[128,3072]{1,0} %convert.314, bf16[3072,1024]{0,1} %transpose.267), lhs_contracting_dims={1}, rhs_contracting_dims={0}, metadata={op_type="aten__mm" op_name="aten__mm" source_file="/usr/local/lib/python3.10/site-packages/torch/_ops.py" source_line=756}
  %convert.316 = f32[128,1024]{1,0} convert(bf16[128,1024]{1,0} %dot.315), metadata={op_type="xla__cast" op_name="xla__cast" source_file="/usr/local/lib/python3.10/site-packages/torch/_ops.py" source_line=756}
  %convert.264 = bf16[128,1024]{1,0} convert(f32[128,1024]{1,0} %add.263), metadata={op_type="xla__cast" op_name="xla__cast" source_file="/usr/local/lib/python3.10/site-packages/torch/_ops.py" source_line=756}
  %convert.265 = f32[128,1024]{1,0} convert(bf16[128,1024]{1,0} %convert.264), metadata={op_type="xla__cast" op_name="xla__cast" source_file="/usr/local/lib/python3.10/site-packages/torch/_ops.py" source_line=756}
  %constant.20 = f32[] constant(1), metadata={op_type="prim__Constant" op_name="prim__Constant" source_file="/usr/local/lib/python3.10/site-packages/torch/_ops.py" source_line=756}
  %broadcast.317 = f32[128,1024]{1,0} broadcast(f32[] %constant.20), dimensions={}, metadata={op_type="aten__add" op_name="aten__add.1593/aten__add" source_file="/usr/local/lib/python3.10/site-packages/torch/_ops.py" source_line=756}
  %multiply.318 = f32[128,1024]{1,0} multiply(f32[128,1024]{1,0} %convert.265, f32[128,1024]{1,0} %broadcast.317), metadata={op_type="aten__add" op_name="aten__add.1593/aten__add" source_file="/usr/local/lib/python3.10/site-packages/torch/_ops.py" source_line=756}
  %add.319 = f32[128,1024]{1,0} add(f32[128,1024]{1,0} %convert.316, f32[128,1024]{1,0} %multiply.318), metadata={op_type="aten__add" op_name="aten__add.1593/aten__add" source_file="/usr/local/lib/python3.10/site-packages/torch/_ops.py" source_line=756}
  %convert.320 = bf16[128,1024]{1,0} convert(f32[128,1024]{1,0} %add.319), metadata={op_type="xla__cast" op_name="xla__cast" source_file="/usr/local/lib/python3.10/site-packages/torch/_ops.py" source_line=756}
  %convert.321 = f32[128,1024]{1,0} convert(bf16[128,1024]{1,0} %convert.320), metadata={op_type="xla__cast" op_name="xla__cast" source_file="/usr/local/lib/python3.10/site-packages/torch/_ops.py" source_line=756}
  %constant.19 = f32[] constant(1), metadata={op_type="prim__Constant" op_name="prim__Constant" source_file="/usr/local/lib/python3.10/site-packages/torch/_ops.py" source_line=756}
  %broadcast.333 = f32[128,1024]{1,0} broadcast(f32[] %constant.19), dimensions={}, metadata={op_type="aten__add" op_name="aten__add.1606/aten__add" source_file="/usr/local/lib/python3.10/site-packages/torch/_ops.py" source_line=756}
  %multiply.334 = f32[128,1024]{1,0} multiply(f32[128,1024]{1,0} %convert.321, f32[128,1024]{1,0} %broadcast.333), metadata={op_type="aten__add" op_name="aten__add.1606/aten__add" source_file="/usr/local/lib/python3.10/site-packages/torch/_ops.py" source_line=756}
  %add.335 = f32[128,1024]{1,0} add(f32[128,1024]{1,0} %convert.332, f32[128,1024]{1,0} %multiply.334), metadata={op_type="aten__add" op_name="aten__add.1606/aten__add" source_file="/usr/local/lib/python3.10/site-packages/torch/_ops.py" source_line=756}
  %constant.345 = f32[] constant(2), metadata={op_type="prim__Constant" op_name="prim__Constant" source_file="/usr/local/lib/python3.10/site-packages/torch/_ops.py" source_line=756}
  %broadcast.346 = f32[128,1024]{1,0} broadcast(f32[] %constant.345), dimensions={}, metadata={op_type="aten__pow" op_name="aten__pow" source_file="/usr/local/lib/python3.10/site-packages/torch/_ops.py" source_line=756}
  %power.347 = f32[128,1024]{1,0} power(f32[128,1024]{1,0} %add.335, f32[128,1024]{1,0} %broadcast.346), metadata={op_type="aten__pow" op_name="aten__pow" source_file="/usr/local/lib/python3.10/site-packages/torch/_ops.py" source_line=756}
  %constant.348 = f32[] constant(0), metadata={op_type="aten__mean" op_name="aten__mean" source_file="/usr/local/lib/python3.10/site-packages/torch/_ops.py" source_line=756}
  %reduce.354 = f32[128]{0} reduce(f32[128,1024]{1,0} %power.347, f32[] %constant.348), dimensions={1}, to_apply=%AddComputation.350, metadata={op_type="aten__mean" op_name="aten__mean" source_file="/usr/local/lib/python3.10/site-packages/torch/_ops.py" source_line=756}
  %constant.349 = s32[] constant(1024), metadata={op_type="aten__mean" op_name="aten__mean" source_file="/usr/local/lib/python3.10/site-packages/torch/_ops.py" source_line=756}
  %constant.355 = s32[] constant(0), metadata={op_type="aten__mean" op_name="aten__mean" source_file="/usr/local/lib/python3.10/site-packages/torch/_ops.py" source_line=756}
  %compare.360 = pred[] compare(s32[] %constant.349, s32[] %constant.355), direction=NE, metadata={op_type="aten__mean" op_name="aten__mean" source_file="/usr/local/lib/python3.10/site-packages/torch/_ops.py" source_line=756}
  %constant.356 = f32[] constant(1), metadata={op_type="aten__mean" op_name="aten__mean" source_file="/usr/local/lib/python3.10/site-packages/torch/_ops.py" source_line=756}
  %convert.358 = f32[] convert(s32[] %constant.349), metadata={op_type="aten__mean" op_name="aten__mean" source_file="/usr/local/lib/python3.10/site-packages/torch/_ops.py" source_line=756}
  %divide.359 = f32[] divide(f32[] %constant.356, f32[] %convert.358), metadata={op_type="aten__mean" op_name="aten__mean" source_file="/usr/local/lib/python3.10/site-packages/torch/_ops.py" source_line=756}
  %constant.357 = f32[] constant(nan), metadata={op_type="aten__mean" op_name="aten__mean" source_file="/usr/local/lib/python3.10/site-packages/torch/_ops.py" source_line=756}
  %select.361 = f32[] select(pred[] %compare.360, f32[] %divide.359, f32[] %constant.357), metadata={op_type="aten__mean" op_name="aten__mean" source_file="/usr/local/lib/python3.10/site-packages/torch/_ops.py" source_line=756}
  %broadcast.362 = f32[128]{0} broadcast(f32[] %select.361), dimensions={}, metadata={op_type="aten__mean" op_name="aten__mean" source_file="/usr/local/lib/python3.10/site-packages/torch/_ops.py" source_line=756}
  %multiply.363 = f32[128]{0} multiply(f32[128]{0} %reduce.354, f32[128]{0} %broadcast.362), metadata={op_type="aten__mean" op_name="aten__mean" source_file="/usr/local/lib/python3.10/site-packages/torch/_ops.py" source_line=756}
  %reshape.364 = f32[128,1]{1,0} reshape(f32[128]{0} %multiply.363), metadata={op_type="aten__mean" op_name="aten__mean" source_file="/usr/local/lib/python3.10/site-packages/torch/_ops.py" source_line=756}
  %convert.365 = f32[128,1]{1,0} convert(f32[128,1]{1,0} %reshape.364), metadata={op_type="aten__mean" op_name="aten__mean" source_file="/usr/local/lib/python3.10/site-packages/torch/_ops.py" source_line=756}
  %constant.344 = f32[] constant(1), metadata={op_type="prim__Constant" op_name="prim__Constant" source_file="/usr/local/lib/python3.10/site-packages/torch/_ops.py" source_line=756}
  %multiply.366 = f32[] multiply(f32[] %p1.4, f32[] %constant.344), metadata={op_type="aten__add" op_name="aten__add.1607/aten__add" source_file="/usr/local/lib/python3.10/site-packages/torch/_ops.py" source_line=756}
  %broadcast.367 = f32[128,1]{1,0} broadcast(f32[] %multiply.366), dimensions={}, metadata={op_type="aten__add" op_name="aten__add.1607/aten__add" source_file="/usr/local/lib/python3.10/site-packages/torch/_ops.py" source_line=756}
  %add.368 = f32[128,1]{1,0} add(f32[128,1]{1,0} %convert.365, f32[128,1]{1,0} %broadcast.367), metadata={op_type="aten__add" op_name="aten__add.1607/aten__add" source_file="/usr/local/lib/python3.10/site-packages/torch/_ops.py" source_line=756}
  %rsqrt.369 = f32[128,1]{1,0} rsqrt(f32[128,1]{1,0} %add.368), metadata={op_type="aten__rsqrt" op_name="aten__rsqrt" source_file="/usr/local/lib/python3.10/site-packages/torch/_ops.py" source_line=756}
  %reshape.370 = f32[128]{0} reshape(f32[128,1]{1,0} %rsqrt.369), metadata={op_type="aten__mul" op_name="aten__mul.1608/aten__mul" source_file="/usr/local/lib/python3.10/site-packages/torch/_ops.py" source_line=756}
  %broadcast.371 = f32[128,1024]{1,0} broadcast(f32[128]{0} %reshape.370), dimensions={0}, metadata={op_type="aten__mul" op_name="aten__mul.1608/aten__mul" source_file="/usr/local/lib/python3.10/site-packages/torch/_ops.py" source_line=756}
  %multiply.372 = f32[128,1024]{1,0} multiply(f32[128,1024]{1,0} %add.335, f32[128,1024]{1,0} %broadcast.371), metadata={op_type="aten__mul" op_name="aten__mul.1608/aten__mul" source_file="/usr/local/lib/python3.10/site-packages/torch/_ops.py" source_line=756}
  %convert.373 = bf16[128,1024]{1,0} convert(f32[128,1024]{1,0} %multiply.372), metadata={op_type="xla__cast" op_name="xla__cast" source_file="/usr/local/lib/python3.10/site-packages/torch/_ops.py" source_line=756}
  %convert.374 = f32[128,1024]{1,0} convert(bf16[128,1024]{1,0} %convert.373), metadata={op_type="xla__cast" op_name="xla__cast" source_file="/usr/local/lib/python3.10/site-packages/torch/_ops.py" source_line=756}
  %p25.342 = bf16[1024]{0} parameter(25), metadata={op_type="xla__device_data" op_name="xla__device_data" source_file="/usr/local/lib/python3.10/site-packages/torch_xla/_dynamo/dynamo_bridge.py" source_line=355}
  %convert.343 = f32[1024]{0} convert(bf16[1024]{0} %p25.342), metadata={op_type="xla__cast" op_name="xla__cast" source_file="/usr/local/lib/python3.10/site-packages/torch/_ops.py" source_line=756}
  %broadcast.375 = f32[128,1024]{1,0} broadcast(f32[1024]{0} %convert.343), dimensions={1}, metadata={op_type="aten__mul" op_name="aten__mul.1609/aten__mul" source_file="/usr/local/lib/python3.10/site-packages/torch/_ops.py" source_line=756}
  %multiply.376 = f32[128,1024]{1,0} multiply(f32[128,1024]{1,0} %convert.374, f32[128,1024]{1,0} %broadcast.375), metadata={op_type="aten__mul" op_name="aten__mul.1609/aten__mul" source_file="/usr/local/lib/python3.10/site-packages/torch/_ops.py" source_line=756}
  %convert.377 = bf16[128,1024]{1,0} convert(f32[128,1024]{1,0} %multiply.376), metadata={op_type="xla__cast" op_name="xla__cast" source_file="/usr/local/lib/python3.10/site-packages/torch/_ops.py" source_line=756}
  %p24.340 = bf16[6144,1024]{1,0} parameter(24), metadata={op_type="xla__device_data" op_name="xla__device_data" source_file="/usr/local/lib/python3.10/site-packages/torch_xla/_dynamo/dynamo_bridge.py" source_line=355}
  %transpose.341 = bf16[1024,6144]{0,1} transpose(bf16[6144,1024]{1,0} %p24.340), dimensions={1,0}, metadata={op_type="aten__permute" op_name="aten__permute" source_file="/usr/local/lib/python3.10/site-packages/torch/_ops.py" source_line=756}
  %dot.378 = bf16[128,6144]{1,0} dot(bf16[128,1024]{1,0} %convert.377, bf16[1024,6144]{0,1} %transpose.341), lhs_contracting_dims={1}, rhs_contracting_dims={0}, metadata={op_type="aten__mm" op_name="aten__mm" source_file="/usr/local/lib/python3.10/site-packages/torch/_ops.py" source_line=756}
  %slice.381 = bf16[128,3072]{1,0} slice(bf16[128,6144]{1,0} %dot.378), slice={[0:128], [0:3072]}, metadata={op_type="xla__select" op_name="xla__select" source_file="/usr/local/lib/python3.10/site-packages/torch/_ops.py" source_line=756}
  %logistic.382 = bf16[128,3072]{1,0} logistic(bf16[128,3072]{1,0} %slice.381), metadata={op_type="aten__silu" op_name="aten__silu" source_file="/usr/local/lib/python3.10/site-packages/torch/_ops.py" source_line=756}
  %multiply.383 = bf16[128,3072]{1,0} multiply(bf16[128,3072]{1,0} %slice.381, bf16[128,3072]{1,0} %logistic.382), metadata={op_type="aten__silu" op_name="aten__silu" source_file="/usr/local/lib/python3.10/site-packages/torch/_ops.py" source_line=756}
  %convert.384 = f32[128,3072]{1,0} convert(bf16[128,3072]{1,0} %multiply.383), metadata={op_type="xla__cast" op_name="xla__cast" source_file="/usr/local/lib/python3.10/site-packages/torch/_ops.py" source_line=756}
  %slice.379 = bf16[128,3072]{1,0} slice(bf16[128,6144]{1,0} %dot.378), slice={[0:128], [3072:6144]}, metadata={op_type="xla__select" op_name="xla__select" source_file="/usr/local/lib/python3.10/site-packages/torch/_ops.py" source_line=756}
  %convert.380 = f32[128,3072]{1,0} convert(bf16[128,3072]{1,0} %slice.379), metadata={op_type="xla__cast" op_name="xla__cast" source_file="/usr/local/lib/python3.10/site-packages/torch/_ops.py" source_line=756}
  %multiply.385 = f32[128,3072]{1,0} multiply(f32[128,3072]{1,0} %convert.384, f32[128,3072]{1,0} %convert.380), metadata={op_type="aten__mul" op_name="aten__mul.1610/aten__mul" source_file="/usr/local/lib/python3.10/site-packages/torch/_ops.py" source_line=756}
  %convert.386 = bf16[128,3072]{1,0} convert(f32[128,3072]{1,0} %multiply.385), metadata={op_type="xla__cast" op_name="xla__cast" source_file="/usr/local/lib/python3.10/site-packages/torch/_ops.py" source_line=756}
  %p23.338 = bf16[1024,3072]{1,0} parameter(23), metadata={op_type="xla__device_data" op_name="xla__device_data" source_file="/usr/local/lib/python3.10/site-packages/torch_xla/_dynamo/dynamo_bridge.py" source_line=355}
  %transpose.339 = bf16[3072,1024]{0,1} transpose(bf16[1024,3072]{1,0} %p23.338), dimensions={1,0}, metadata={op_type="aten__permute" op_name="aten__permute" source_file="/usr/local/lib/python3.10/site-packages/torch/_ops.py" source_line=756}
  %dot.387 = bf16[128,1024]{1,0} dot(bf16[128,3072]{1,0} %convert.386, bf16[3072,1024]{0,1} %transpose.339), lhs_contracting_dims={1}, rhs_contracting_dims={0}, metadata={op_type="aten__mm" op_name="aten__mm" source_file="/usr/local/lib/python3.10/site-packages/torch/_ops.py" source_line=756}
  %convert.388 = f32[128,1024]{1,0} convert(bf16[128,1024]{1,0} %dot.387), metadata={op_type="xla__cast" op_name="xla__cast" source_file="/usr/local/lib/python3.10/site-packages/torch/_ops.py" source_line=756}
  %convert.336 = bf16[128,1024]{1,0} convert(f32[128,1024]{1,0} %add.335), metadata={op_type="xla__cast" op_name="xla__cast" source_file="/usr/local/lib/python3.10/site-packages/torch/_ops.py" source_line=756}
  %convert.337 = f32[128,1024]{1,0} convert(bf16[128,1024]{1,0} %convert.336), metadata={op_type="xla__cast" op_name="xla__cast" source_file="/usr/local/lib/python3.10/site-packages/torch/_ops.py" source_line=756}
  %constant.18 = f32[] constant(1), metadata={op_type="prim__Constant" op_name="prim__Constant" source_file="/usr/local/lib/python3.10/site-packages/torch/_ops.py" source_line=756}
  %broadcast.389 = f32[128,1024]{1,0} broadcast(f32[] %constant.18), dimensions={}, metadata={op_type="aten__add" op_name="aten__add.1611/aten__add" source_file="/usr/local/lib/python3.10/site-packages/torch/_ops.py" source_line=756}
  %multiply.390 = f32[128,1024]{1,0} multiply(f32[128,1024]{1,0} %convert.337, f32[128,1024]{1,0} %broadcast.389), metadata={op_type="aten__add" op_name="aten__add.1611/aten__add" source_file="/usr/local/lib/python3.10/site-packages/torch/_ops.py" source_line=756}
  %add.391 = f32[128,1024]{1,0} add(f32[128,1024]{1,0} %convert.388, f32[128,1024]{1,0} %multiply.390), metadata={op_type="aten__add" op_name="aten__add.1611/aten__add" source_file="/usr/local/lib/python3.10/site-packages/torch/_ops.py" source_line=756}
  %convert.392 = bf16[128,1024]{1,0} convert(f32[128,1024]{1,0} %add.391), metadata={op_type="xla__cast" op_name="xla__cast" source_file="/usr/local/lib/python3.10/site-packages/torch/_ops.py" source_line=756}
  %convert.393 = f32[128,1024]{1,0} convert(bf16[128,1024]{1,0} %convert.392), metadata={op_type="xla__cast" op_name="xla__cast" source_file="/usr/local/lib/python3.10/site-packages/torch/_ops.py" source_line=756}
  %constant.17 = f32[] constant(1), metadata={op_type="prim__Constant" op_name="prim__Constant" source_file="/usr/local/lib/python3.10/site-packages/torch/_ops.py" source_line=756}
  %broadcast.405 = f32[128,1024]{1,0} broadcast(f32[] %constant.17), dimensions={}, metadata={op_type="aten__add" op_name="aten__add.1624/aten__add" source_file="/usr/local/lib/python3.10/site-packages/torch/_ops.py" source_line=756}
  %multiply.406 = f32[128,1024]{1,0} multiply(f32[128,1024]{1,0} %convert.393, f32[128,1024]{1,0} %broadcast.405), metadata={op_type="aten__add" op_name="aten__add.1624/aten__add" source_file="/usr/local/lib/python3.10/site-packages/torch/_ops.py" source_line=756}
  %add.407 = f32[128,1024]{1,0} add(f32[128,1024]{1,0} %convert.404, f32[128,1024]{1,0} %multiply.406), metadata={op_type="aten__add" op_name="aten__add.1624/aten__add" source_file="/usr/local/lib/python3.10/site-packages/torch/_ops.py" source_line=756}
  %constant.417 = f32[] constant(2), metadata={op_type="prim__Constant" op_name="prim__Constant" source_file="/usr/local/lib/python3.10/site-packages/torch/_ops.py" source_line=756}
  %broadcast.418 = f32[128,1024]{1,0} broadcast(f32[] %constant.417), dimensions={}, metadata={op_type="aten__pow" op_name="aten__pow" source_file="/usr/local/lib/python3.10/site-packages/torch/_ops.py" source_line=756}
  %power.419 = f32[128,1024]{1,0} power(f32[128,1024]{1,0} %add.407, f32[128,1024]{1,0} %broadcast.418), metadata={op_type="aten__pow" op_name="aten__pow" source_file="/usr/local/lib/python3.10/site-packages/torch/_ops.py" source_line=756}
  %constant.420 = f32[] constant(0), metadata={op_type="aten__mean" op_name="aten__mean" source_file="/usr/local/lib/python3.10/site-packages/torch/_ops.py" source_line=756}
  %reduce.426 = f32[128]{0} reduce(f32[128,1024]{1,0} %power.419, f32[] %constant.420), dimensions={1}, to_apply=%AddComputation.422, metadata={op_type="aten__mean" op_name="aten__mean" source_file="/usr/local/lib/python3.10/site-packages/torch/_ops.py" source_line=756}
  %constant.421 = s32[] constant(1024), metadata={op_type="aten__mean" op_name="aten__mean" source_file="/usr/local/lib/python3.10/site-packages/torch/_ops.py" source_line=756}
  %constant.427 = s32[] constant(0), metadata={op_type="aten__mean" op_name="aten__mean" source_file="/usr/local/lib/python3.10/site-packages/torch/_ops.py" source_line=756}
  %compare.432 = pred[] compare(s32[] %constant.421, s32[] %constant.427), direction=NE, metadata={op_type="aten__mean" op_name="aten__mean" source_file="/usr/local/lib/python3.10/site-packages/torch/_ops.py" source_line=756}
  %constant.428 = f32[] constant(1), metadata={op_type="aten__mean" op_name="aten__mean" source_file="/usr/local/lib/python3.10/site-packages/torch/_ops.py" source_line=756}
  %convert.430 = f32[] convert(s32[] %constant.421), metadata={op_type="aten__mean" op_name="aten__mean" source_file="/usr/local/lib/python3.10/site-packages/torch/_ops.py" source_line=756}
  %divide.431 = f32[] divide(f32[] %constant.428, f32[] %convert.430), metadata={op_type="aten__mean" op_name="aten__mean" source_file="/usr/local/lib/python3.10/site-packages/torch/_ops.py" source_line=756}
  %constant.429 = f32[] constant(nan), metadata={op_type="aten__mean" op_name="aten__mean" source_file="/usr/local/lib/python3.10/site-packages/torch/_ops.py" source_line=756}
  %select.433 = f32[] select(pred[] %compare.432, f32[] %divide.431, f32[] %constant.429), metadata={op_type="aten__mean" op_name="aten__mean" source_file="/usr/local/lib/python3.10/site-packages/torch/_ops.py" source_line=756}
  %broadcast.434 = f32[128]{0} broadcast(f32[] %select.433), dimensions={}, metadata={op_type="aten__mean" op_name="aten__mean" source_file="/usr/local/lib/python3.10/site-packages/torch/_ops.py" source_line=756}
  %multiply.435 = f32[128]{0} multiply(f32[128]{0} %reduce.426, f32[128]{0} %broadcast.434), metadata={op_type="aten__mean" op_name="aten__mean" source_file="/usr/local/lib/python3.10/site-packages/torch/_ops.py" source_line=756}
  %reshape.436 = f32[128,1]{1,0} reshape(f32[128]{0} %multiply.435), metadata={op_type="aten__mean" op_name="aten__mean" source_file="/usr/local/lib/python3.10/site-packages/torch/_ops.py" source_line=756}
  %convert.437 = f32[128,1]{1,0} convert(f32[128,1]{1,0} %reshape.436), metadata={op_type="aten__mean" op_name="aten__mean" source_file="/usr/local/lib/python3.10/site-packages/torch/_ops.py" source_line=756}
  %constant.416 = f32[] constant(1), metadata={op_type="prim__Constant" op_name="prim__Constant" source_file="/usr/local/lib/python3.10/site-packages/torch/_ops.py" source_line=756}
  %multiply.438 = f32[] multiply(f32[] %p1.4, f32[] %constant.416), metadata={op_type="aten__add" op_name="aten__add.1625/aten__add" source_file="/usr/local/lib/python3.10/site-packages/torch/_ops.py" source_line=756}
  %broadcast.439 = f32[128,1]{1,0} broadcast(f32[] %multiply.438), dimensions={}, metadata={op_type="aten__add" op_name="aten__add.1625/aten__add" source_file="/usr/local/lib/python3.10/site-packages/torch/_ops.py" source_line=756}
  %add.440 = f32[128,1]{1,0} add(f32[128,1]{1,0} %convert.437, f32[128,1]{1,0} %broadcast.439), metadata={op_type="aten__add" op_name="aten__add.1625/aten__add" source_file="/usr/local/lib/python3.10/site-packages/torch/_ops.py" source_line=756}
  %rsqrt.441 = f32[128,1]{1,0} rsqrt(f32[128,1]{1,0} %add.440), metadata={op_type="aten__rsqrt" op_name="aten__rsqrt" source_file="/usr/local/lib/python3.10/site-packages/torch/_ops.py" source_line=756}
  %reshape.442 = f32[128]{0} reshape(f32[128,1]{1,0} %rsqrt.441), metadata={op_type="aten__mul" op_name="aten__mul.1626/aten__mul" source_file="/usr/local/lib/python3.10/site-packages/torch/_ops.py" source_line=756}
  %broadcast.443 = f32[128,1024]{1,0} broadcast(f32[128]{0} %reshape.442), dimensions={0}, metadata={op_type="aten__mul" op_name="aten__mul.1626/aten__mul" source_file="/usr/local/lib/python3.10/site-packages/torch/_ops.py" source_line=756}
  %multiply.444 = f32[128,1024]{1,0} multiply(f32[128,1024]{1,0} %add.407, f32[128,1024]{1,0} %broadcast.443), metadata={op_type="aten__mul" op_name="aten__mul.1626/aten__mul" source_file="/usr/local/lib/python3.10/site-packages/torch/_ops.py" source_line=756}
  %convert.445 = bf16[128,1024]{1,0} convert(f32[128,1024]{1,0} %multiply.444), metadata={op_type="xla__cast" op_name="xla__cast" source_file="/usr/local/lib/python3.10/site-packages/torch/_ops.py" source_line=756}
  %convert.446 = f32[128,1024]{1,0} convert(bf16[128,1024]{1,0} %convert.445), metadata={op_type="xla__cast" op_name="xla__cast" source_file="/usr/local/lib/python3.10/site-packages/torch/_ops.py" source_line=756}
  %p29.414 = bf16[1024]{0} parameter(29), metadata={op_type="xla__device_data" op_name="xla__device_data" source_file="/usr/local/lib/python3.10/site-packages/torch_xla/_dynamo/dynamo_bridge.py" source_line=355}
  %convert.415 = f32[1024]{0} convert(bf16[1024]{0} %p29.414), metadata={op_type="xla__cast" op_name="xla__cast" source_file="/usr/local/lib/python3.10/site-packages/torch/_ops.py" source_line=756}
  %broadcast.447 = f32[128,1024]{1,0} broadcast(f32[1024]{0} %convert.415), dimensions={1}, metadata={op_type="aten__mul" op_name="aten__mul.1627/aten__mul" source_file="/usr/local/lib/python3.10/site-packages/torch/_ops.py" source_line=756}
  %multiply.448 = f32[128,1024]{1,0} multiply(f32[128,1024]{1,0} %convert.446, f32[128,1024]{1,0} %broadcast.447), metadata={op_type="aten__mul" op_name="aten__mul.1627/aten__mul" source_file="/usr/local/lib/python3.10/site-packages/torch/_ops.py" source_line=756}
  %convert.449 = bf16[128,1024]{1,0} convert(f32[128,1024]{1,0} %multiply.448), metadata={op_type="xla__cast" op_name="xla__cast" source_file="/usr/local/lib/python3.10/site-packages/torch/_ops.py" source_line=756}
  %p28.412 = bf16[6144,1024]{1,0} parameter(28), metadata={op_type="xla__device_data" op_name="xla__device_data" source_file="/usr/local/lib/python3.10/site-packages/torch_xla/_dynamo/dynamo_bridge.py" source_line=355}
  %transpose.413 = bf16[1024,6144]{0,1} transpose(bf16[6144,1024]{1,0} %p28.412), dimensions={1,0}, metadata={op_type="aten__permute" op_name="aten__permute" source_file="/usr/local/lib/python3.10/site-packages/torch/_ops.py" source_line=756}
  %dot.450 = bf16[128,6144]{1,0} dot(bf16[128,1024]{1,0} %convert.449, bf16[1024,6144]{0,1} %transpose.413), lhs_contracting_dims={1}, rhs_contracting_dims={0}, metadata={op_type="aten__mm" op_name="aten__mm" source_file="/usr/local/lib/python3.10/site-packages/torch/_ops.py" source_line=756}
  %slice.453 = bf16[128,3072]{1,0} slice(bf16[128,6144]{1,0} %dot.450), slice={[0:128], [0:3072]}, metadata={op_type="xla__select" op_name="xla__select" source_file="/usr/local/lib/python3.10/site-packages/torch/_ops.py" source_line=756}
  %logistic.454 = bf16[128,3072]{1,0} logistic(bf16[128,3072]{1,0} %slice.453), metadata={op_type="aten__silu" op_name="aten__silu" source_file="/usr/local/lib/python3.10/site-packages/torch/_ops.py" source_line=756}
  %multiply.455 = bf16[128,3072]{1,0} multiply(bf16[128,3072]{1,0} %slice.453, bf16[128,3072]{1,0} %logistic.454), metadata={op_type="aten__silu" op_name="aten__silu" source_file="/usr/local/lib/python3.10/site-packages/torch/_ops.py" source_line=756}
  %convert.456 = f32[128,3072]{1,0} convert(bf16[128,3072]{1,0} %multiply.455), metadata={op_type="xla__cast" op_name="xla__cast" source_file="/usr/local/lib/python3.10/site-packages/torch/_ops.py" source_line=756}
  %slice.451 = bf16[128,3072]{1,0} slice(bf16[128,6144]{1,0} %dot.450), slice={[0:128], [3072:6144]}, metadata={op_type="xla__select" op_name="xla__select" source_file="/usr/local/lib/python3.10/site-packages/torch/_ops.py" source_line=756}
  %convert.452 = f32[128,3072]{1,0} convert(bf16[128,3072]{1,0} %slice.451), metadata={op_type="xla__cast" op_name="xla__cast" source_file="/usr/local/lib/python3.10/site-packages/torch/_ops.py" source_line=756}
  %multiply.457 = f32[128,3072]{1,0} multiply(f32[128,3072]{1,0} %convert.456, f32[128,3072]{1,0} %convert.452), metadata={op_type="aten__mul" op_name="aten__mul.1628/aten__mul" source_file="/usr/local/lib/python3.10/site-packages/torch/_ops.py" source_line=756}
  %convert.458 = bf16[128,3072]{1,0} convert(f32[128,3072]{1,0} %multiply.457), metadata={op_type="xla__cast" op_name="xla__cast" source_file="/usr/local/lib/python3.10/site-packages/torch/_ops.py" source_line=756}
  %p27.410 = bf16[1024,3072]{1,0} parameter(27), metadata={op_type="xla__device_data" op_name="xla__device_data" source_file="/usr/local/lib/python3.10/site-packages/torch_xla/_dynamo/dynamo_bridge.py" source_line=355}
  %transpose.411 = bf16[3072,1024]{0,1} transpose(bf16[1024,3072]{1,0} %p27.410), dimensions={1,0}, metadata={op_type="aten__permute" op_name="aten__permute" source_file="/usr/local/lib/python3.10/site-packages/torch/_ops.py" source_line=756}
  %dot.459 = bf16[128,1024]{1,0} dot(bf16[128,3072]{1,0} %convert.458, bf16[3072,1024]{0,1} %transpose.411), lhs_contracting_dims={1}, rhs_contracting_dims={0}, metadata={op_type="aten__mm" op_name="aten__mm" source_file="/usr/local/lib/python3.10/site-packages/torch/_ops.py" source_line=756}
  %convert.460 = f32[128,1024]{1,0} convert(bf16[128,1024]{1,0} %dot.459), metadata={op_type="xla__cast" op_name="xla__cast" source_file="/usr/local/lib/python3.10/site-packages/torch/_ops.py" source_line=756}
  %convert.408 = bf16[128,1024]{1,0} convert(f32[128,1024]{1,0} %add.407), metadata={op_type="xla__cast" op_name="xla__cast" source_file="/usr/local/lib/python3.10/site-packages/torch/_ops.py" source_line=756}
  %convert.409 = f32[128,1024]{1,0} convert(bf16[128,1024]{1,0} %convert.408), metadata={op_type="xla__cast" op_name="xla__cast" source_file="/usr/local/lib/python3.10/site-packages/torch/_ops.py" source_line=756}
  %constant.16 = f32[] constant(1), metadata={op_type="prim__Constant" op_name="prim__Constant" source_file="/usr/local/lib/python3.10/site-packages/torch/_ops.py" source_line=756}
  %broadcast.461 = f32[128,1024]{1,0} broadcast(f32[] %constant.16), dimensions={}, metadata={op_type="aten__add" op_name="aten__add.1629/aten__add" source_file="/usr/local/lib/python3.10/site-packages/torch/_ops.py" source_line=756}
  %multiply.462 = f32[128,1024]{1,0} multiply(f32[128,1024]{1,0} %convert.409, f32[128,1024]{1,0} %broadcast.461), metadata={op_type="aten__add" op_name="aten__add.1629/aten__add" source_file="/usr/local/lib/python3.10/site-packages/torch/_ops.py" source_line=756}
  %add.463 = f32[128,1024]{1,0} add(f32[128,1024]{1,0} %convert.460, f32[128,1024]{1,0} %multiply.462), metadata={op_type="aten__add" op_name="aten__add.1629/aten__add" source_file="/usr/local/lib/python3.10/site-packages/torch/_ops.py" source_line=756}
  %convert.464 = bf16[128,1024]{1,0} convert(f32[128,1024]{1,0} %add.463), metadata={op_type="xla__cast" op_name="xla__cast" source_file="/usr/local/lib/python3.10/site-packages/torch/_ops.py" source_line=756}
  %convert.465 = f32[128,1024]{1,0} convert(bf16[128,1024]{1,0} %convert.464), metadata={op_type="xla__cast" op_name="xla__cast" source_file="/usr/local/lib/python3.10/site-packages/torch/_ops.py" source_line=756}
  %constant.15 = f32[] constant(1), metadata={op_type="prim__Constant" op_name="prim__Constant" source_file="/usr/local/lib/python3.10/site-packages/torch/_ops.py" source_line=756}
  %broadcast.477 = f32[128,1024]{1,0} broadcast(f32[] %constant.15), dimensions={}, metadata={op_type="aten__add" op_name="aten__add.1642/aten__add" source_file="/usr/local/lib/python3.10/site-packages/torch/_ops.py" source_line=756}
  %multiply.478 = f32[128,1024]{1,0} multiply(f32[128,1024]{1,0} %convert.465, f32[128,1024]{1,0} %broadcast.477), metadata={op_type="aten__add" op_name="aten__add.1642/aten__add" source_file="/usr/local/lib/python3.10/site-packages/torch/_ops.py" source_line=756}
  %add.479 = f32[128,1024]{1,0} add(f32[128,1024]{1,0} %convert.476, f32[128,1024]{1,0} %multiply.478), metadata={op_type="aten__add" op_name="aten__add.1642/aten__add" source_file="/usr/local/lib/python3.10/site-packages/torch/_ops.py" source_line=756}
  %constant.489 = f32[] constant(2), metadata={op_type="prim__Constant" op_name="prim__Constant" source_file="/usr/local/lib/python3.10/site-packages/torch/_ops.py" source_line=756}
  %broadcast.490 = f32[128,1024]{1,0} broadcast(f32[] %constant.489), dimensions={}, metadata={op_type="aten__pow" op_name="aten__pow" source_file="/usr/local/lib/python3.10/site-packages/torch/_ops.py" source_line=756}
  %power.491 = f32[128,1024]{1,0} power(f32[128,1024]{1,0} %add.479, f32[128,1024]{1,0} %broadcast.490), metadata={op_type="aten__pow" op_name="aten__pow" source_file="/usr/local/lib/python3.10/site-packages/torch/_ops.py" source_line=756}
  %constant.492 = f32[] constant(0), metadata={op_type="aten__mean" op_name="aten__mean" source_file="/usr/local/lib/python3.10/site-packages/torch/_ops.py" source_line=756}
  %reduce.498 = f32[128]{0} reduce(f32[128,1024]{1,0} %power.491, f32[] %constant.492), dimensions={1}, to_apply=%AddComputation.494, metadata={op_type="aten__mean" op_name="aten__mean" source_file="/usr/local/lib/python3.10/site-packages/torch/_ops.py" source_line=756}
  %constant.493 = s32[] constant(1024), metadata={op_type="aten__mean" op_name="aten__mean" source_file="/usr/local/lib/python3.10/site-packages/torch/_ops.py" source_line=756}
  %constant.499 = s32[] constant(0), metadata={op_type="aten__mean" op_name="aten__mean" source_file="/usr/local/lib/python3.10/site-packages/torch/_ops.py" source_line=756}
  %compare.504 = pred[] compare(s32[] %constant.493, s32[] %constant.499), direction=NE, metadata={op_type="aten__mean" op_name="aten__mean" source_file="/usr/local/lib/python3.10/site-packages/torch/_ops.py" source_line=756}
  %constant.500 = f32[] constant(1), metadata={op_type="aten__mean" op_name="aten__mean" source_file="/usr/local/lib/python3.10/site-packages/torch/_ops.py" source_line=756}
  %convert.502 = f32[] convert(s32[] %constant.493), metadata={op_type="aten__mean" op_name="aten__mean" source_file="/usr/local/lib/python3.10/site-packages/torch/_ops.py" source_line=756}
  %divide.503 = f32[] divide(f32[] %constant.500, f32[] %convert.502), metadata={op_type="aten__mean" op_name="aten__mean" source_file="/usr/local/lib/python3.10/site-packages/torch/_ops.py" source_line=756}
  %constant.501 = f32[] constant(nan), metadata={op_type="aten__mean" op_name="aten__mean" source_file="/usr/local/lib/python3.10/site-packages/torch/_ops.py" source_line=756}
  %select.505 = f32[] select(pred[] %compare.504, f32[] %divide.503, f32[] %constant.501), metadata={op_type="aten__mean" op_name="aten__mean" source_file="/usr/local/lib/python3.10/site-packages/torch/_ops.py" source_line=756}
  %broadcast.506 = f32[128]{0} broadcast(f32[] %select.505), dimensions={}, metadata={op_type="aten__mean" op_name="aten__mean" source_file="/usr/local/lib/python3.10/site-packages/torch/_ops.py" source_line=756}
  %multiply.507 = f32[128]{0} multiply(f32[128]{0} %reduce.498, f32[128]{0} %broadcast.506), metadata={op_type="aten__mean" op_name="aten__mean" source_file="/usr/local/lib/python3.10/site-packages/torch/_ops.py" source_line=756}
  %reshape.508 = f32[128,1]{1,0} reshape(f32[128]{0} %multiply.507), metadata={op_type="aten__mean" op_name="aten__mean" source_file="/usr/local/lib/python3.10/site-packages/torch/_ops.py" source_line=756}
  %convert.509 = f32[128,1]{1,0} convert(f32[128,1]{1,0} %reshape.508), metadata={op_type="aten__mean" op_name="aten__mean" source_file="/usr/local/lib/python3.10/site-packages/torch/_ops.py" source_line=756}
  %constant.488 = f32[] constant(1), metadata={op_type="prim__Constant" op_name="prim__Constant" source_file="/usr/local/lib/python3.10/site-packages/torch/_ops.py" source_line=756}
  %multiply.510 = f32[] multiply(f32[] %p1.4, f32[] %constant.488), metadata={op_type="aten__add" op_name="aten__add.1643/aten__add" source_file="/usr/local/lib/python3.10/site-packages/torch/_ops.py" source_line=756}
  %broadcast.511 = f32[128,1]{1,0} broadcast(f32[] %multiply.510), dimensions={}, metadata={op_type="aten__add" op_name="aten__add.1643/aten__add" source_file="/usr/local/lib/python3.10/site-packages/torch/_ops.py" source_line=756}
  %add.512 = f32[128,1]{1,0} add(f32[128,1]{1,0} %convert.509, f32[128,1]{1,0} %broadcast.511), metadata={op_type="aten__add" op_name="aten__add.1643/aten__add" source_file="/usr/local/lib/python3.10/site-packages/torch/_ops.py" source_line=756}
  %rsqrt.513 = f32[128,1]{1,0} rsqrt(f32[128,1]{1,0} %add.512), metadata={op_type="aten__rsqrt" op_name="aten__rsqrt" source_file="/usr/local/lib/python3.10/site-packages/torch/_ops.py" source_line=756}
  %reshape.514 = f32[128]{0} reshape(f32[128,1]{1,0} %rsqrt.513), metadata={op_type="aten__mul" op_name="aten__mul.1644/aten__mul" source_file="/usr/local/lib/python3.10/site-packages/torch/_ops.py" source_line=756}
  %broadcast.515 = f32[128,1024]{1,0} broadcast(f32[128]{0} %reshape.514), dimensions={0}, metadata={op_type="aten__mul" op_name="aten__mul.1644/aten__mul" source_file="/usr/local/lib/python3.10/site-packages/torch/_ops.py" source_line=756}
  %multiply.516 = f32[128,1024]{1,0} multiply(f32[128,1024]{1,0} %add.479, f32[128,1024]{1,0} %broadcast.515), metadata={op_type="aten__mul" op_name="aten__mul.1644/aten__mul" source_file="/usr/local/lib/python3.10/site-packages/torch/_ops.py" source_line=756}
  %convert.517 = bf16[128,1024]{1,0} convert(f32[128,1024]{1,0} %multiply.516), metadata={op_type="xla__cast" op_name="xla__cast" source_file="/usr/local/lib/python3.10/site-packages/torch/_ops.py" source_line=756}
  %convert.518 = f32[128,1024]{1,0} convert(bf16[128,1024]{1,0} %convert.517), metadata={op_type="xla__cast" op_name="xla__cast" source_file="/usr/local/lib/python3.10/site-packages/torch/_ops.py" source_line=756}
  %p33.486 = bf16[1024]{0} parameter(33), metadata={op_type="xla__device_data" op_name="xla__device_data" source_file="/usr/local/lib/python3.10/site-packages/torch_xla/_dynamo/dynamo_bridge.py" source_line=355}
  %convert.487 = f32[1024]{0} convert(bf16[1024]{0} %p33.486), metadata={op_type="xla__cast" op_name="xla__cast" source_file="/usr/local/lib/python3.10/site-packages/torch/_ops.py" source_line=756}
  %broadcast.519 = f32[128,1024]{1,0} broadcast(f32[1024]{0} %convert.487), dimensions={1}, metadata={op_type="aten__mul" op_name="aten__mul.1645/aten__mul" source_file="/usr/local/lib/python3.10/site-packages/torch/_ops.py" source_line=756}
  %multiply.520 = f32[128,1024]{1,0} multiply(f32[128,1024]{1,0} %convert.518, f32[128,1024]{1,0} %broadcast.519), metadata={op_type="aten__mul" op_name="aten__mul.1645/aten__mul" source_file="/usr/local/lib/python3.10/site-packages/torch/_ops.py" source_line=756}
  %convert.521 = bf16[128,1024]{1,0} convert(f32[128,1024]{1,0} %multiply.520), metadata={op_type="xla__cast" op_name="xla__cast" source_file="/usr/local/lib/python3.10/site-packages/torch/_ops.py" source_line=756}
  %p32.484 = bf16[6144,1024]{1,0} parameter(32), metadata={op_type="xla__device_data" op_name="xla__device_data" source_file="/usr/local/lib/python3.10/site-packages/torch_xla/_dynamo/dynamo_bridge.py" source_line=355}
  %transpose.485 = bf16[1024,6144]{0,1} transpose(bf16[6144,1024]{1,0} %p32.484), dimensions={1,0}, metadata={op_type="aten__permute" op_name="aten__permute" source_file="/usr/local/lib/python3.10/site-packages/torch/_ops.py" source_line=756}
  %dot.522 = bf16[128,6144]{1,0} dot(bf16[128,1024]{1,0} %convert.521, bf16[1024,6144]{0,1} %transpose.485), lhs_contracting_dims={1}, rhs_contracting_dims={0}, metadata={op_type="aten__mm" op_name="aten__mm" source_file="/usr/local/lib/python3.10/site-packages/torch/_ops.py" source_line=756}
  %slice.525 = bf16[128,3072]{1,0} slice(bf16[128,6144]{1,0} %dot.522), slice={[0:128], [0:3072]}, metadata={op_type="xla__select" op_name="xla__select" source_file="/usr/local/lib/python3.10/site-packages/torch/_ops.py" source_line=756}
  %logistic.526 = bf16[128,3072]{1,0} logistic(bf16[128,3072]{1,0} %slice.525), metadata={op_type="aten__silu" op_name="aten__silu" source_file="/usr/local/lib/python3.10/site-packages/torch/_ops.py" source_line=756}
  %multiply.527 = bf16[128,3072]{1,0} multiply(bf16[128,3072]{1,0} %slice.525, bf16[128,3072]{1,0} %logistic.526), metadata={op_type="aten__silu" op_name="aten__silu" source_file="/usr/local/lib/python3.10/site-packages/torch/_ops.py" source_line=756}
  %convert.528 = f32[128,3072]{1,0} convert(bf16[128,3072]{1,0} %multiply.527), metadata={op_type="xla__cast" op_name="xla__cast" source_file="/usr/local/lib/python3.10/site-packages/torch/_ops.py" source_line=756}
  %slice.523 = bf16[128,3072]{1,0} slice(bf16[128,6144]{1,0} %dot.522), slice={[0:128], [3072:6144]}, metadata={op_type="xla__select" op_name="xla__select" source_file="/usr/local/lib/python3.10/site-packages/torch/_ops.py" source_line=756}
  %convert.524 = f32[128,3072]{1,0} convert(bf16[128,3072]{1,0} %slice.523), metadata={op_type="xla__cast" op_name="xla__cast" source_file="/usr/local/lib/python3.10/site-packages/torch/_ops.py" source_line=756}
  %multiply.529 = f32[128,3072]{1,0} multiply(f32[128,3072]{1,0} %convert.528, f32[128,3072]{1,0} %convert.524), metadata={op_type="aten__mul" op_name="aten__mul.1646/aten__mul" source_file="/usr/local/lib/python3.10/site-packages/torch/_ops.py" source_line=756}
  %convert.530 = bf16[128,3072]{1,0} convert(f32[128,3072]{1,0} %multiply.529), metadata={op_type="xla__cast" op_name="xla__cast" source_file="/usr/local/lib/python3.10/site-packages/torch/_ops.py" source_line=756}
  %p31.482 = bf16[1024,3072]{1,0} parameter(31), metadata={op_type="xla__device_data" op_name="xla__device_data" source_file="/usr/local/lib/python3.10/site-packages/torch_xla/_dynamo/dynamo_bridge.py" source_line=355}
  %transpose.483 = bf16[3072,1024]{0,1} transpose(bf16[1024,3072]{1,0} %p31.482), dimensions={1,0}, metadata={op_type="aten__permute" op_name="aten__permute" source_file="/usr/local/lib/python3.10/site-packages/torch/_ops.py" source_line=756}
  %dot.531 = bf16[128,1024]{1,0} dot(bf16[128,3072]{1,0} %convert.530, bf16[3072,1024]{0,1} %transpose.483), lhs_contracting_dims={1}, rhs_contracting_dims={0}, metadata={op_type="aten__mm" op_name="aten__mm" source_file="/usr/local/lib/python3.10/site-packages/torch/_ops.py" source_line=756}
  %convert.532 = f32[128,1024]{1,0} convert(bf16[128,1024]{1,0} %dot.531), metadata={op_type="xla__cast" op_name="xla__cast" source_file="/usr/local/lib/python3.10/site-packages/torch/_ops.py" source_line=756}
  %convert.480 = bf16[128,1024]{1,0} convert(f32[128,1024]{1,0} %add.479), metadata={op_type="xla__cast" op_name="xla__cast" source_file="/usr/local/lib/python3.10/site-packages/torch/_ops.py" source_line=756}
  %convert.481 = f32[128,1024]{1,0} convert(bf16[128,1024]{1,0} %convert.480), metadata={op_type="xla__cast" op_name="xla__cast" source_file="/usr/local/lib/python3.10/site-packages/torch/_ops.py" source_line=756}
  %constant.14 = f32[] constant(1), metadata={op_type="prim__Constant" op_name="prim__Constant" source_file="/usr/local/lib/python3.10/site-packages/torch/_ops.py" source_line=756}
  %broadcast.533 = f32[128,1024]{1,0} broadcast(f32[] %constant.14), dimensions={}, metadata={op_type="aten__add" op_name="aten__add.1647/aten__add" source_file="/usr/local/lib/python3.10/site-packages/torch/_ops.py" source_line=756}
  %multiply.534 = f32[128,1024]{1,0} multiply(f32[128,1024]{1,0} %convert.481, f32[128,1024]{1,0} %broadcast.533), metadata={op_type="aten__add" op_name="aten__add.1647/aten__add" source_file="/usr/local/lib/python3.10/site-packages/torch/_ops.py" source_line=756}
  %add.535 = f32[128,1024]{1,0} add(f32[128,1024]{1,0} %convert.532, f32[128,1024]{1,0} %multiply.534), metadata={op_type="aten__add" op_name="aten__add.1647/aten__add" source_file="/usr/local/lib/python3.10/site-packages/torch/_ops.py" source_line=756}
  %convert.536 = bf16[128,1024]{1,0} convert(f32[128,1024]{1,0} %add.535), metadata={op_type="xla__cast" op_name="xla__cast" source_file="/usr/local/lib/python3.10/site-packages/torch/_ops.py" source_line=756}
  %convert.537 = f32[128,1024]{1,0} convert(bf16[128,1024]{1,0} %convert.536), metadata={op_type="xla__cast" op_name="xla__cast" source_file="/usr/local/lib/python3.10/site-packages/torch/_ops.py" source_line=756}
  %constant.13 = f32[] constant(1), metadata={op_type="prim__Constant" op_name="prim__Constant" source_file="/usr/local/lib/python3.10/site-packages/torch/_ops.py" source_line=756}
  %broadcast.549 = f32[128,1024]{1,0} broadcast(f32[] %constant.13), dimensions={}, metadata={op_type="aten__add" op_name="aten__add.1660/aten__add" source_file="/usr/local/lib/python3.10/site-packages/torch/_ops.py" source_line=756}
  %multiply.550 = f32[128,1024]{1,0} multiply(f32[128,1024]{1,0} %convert.537, f32[128,1024]{1,0} %broadcast.549), metadata={op_type="aten__add" op_name="aten__add.1660/aten__add" source_file="/usr/local/lib/python3.10/site-packages/torch/_ops.py" source_line=756}
  %add.551 = f32[128,1024]{1,0} add(f32[128,1024]{1,0} %convert.548, f32[128,1024]{1,0} %multiply.550), metadata={op_type="aten__add" op_name="aten__add.1660/aten__add" source_file="/usr/local/lib/python3.10/site-packages/torch/_ops.py" source_line=756}
  %constant.561 = f32[] constant(2), metadata={op_type="prim__Constant" op_name="prim__Constant" source_file="/usr/local/lib/python3.10/site-packages/torch/_ops.py" source_line=756}
  %broadcast.562 = f32[128,1024]{1,0} broadcast(f32[] %constant.561), dimensions={}, metadata={op_type="aten__pow" op_name="aten__pow" source_file="/usr/local/lib/python3.10/site-packages/torch/_ops.py" source_line=756}
  %power.563 = f32[128,1024]{1,0} power(f32[128,1024]{1,0} %add.551, f32[128,1024]{1,0} %broadcast.562), metadata={op_type="aten__pow" op_name="aten__pow" source_file="/usr/local/lib/python3.10/site-packages/torch/_ops.py" source_line=756}
  %constant.564 = f32[] constant(0), metadata={op_type="aten__mean" op_name="aten__mean" source_file="/usr/local/lib/python3.10/site-packages/torch/_ops.py" source_line=756}
  %reduce.570 = f32[128]{0} reduce(f32[128,1024]{1,0} %power.563, f32[] %constant.564), dimensions={1}, to_apply=%AddComputation.566, metadata={op_type="aten__mean" op_name="aten__mean" source_file="/usr/local/lib/python3.10/site-packages/torch/_ops.py" source_line=756}
  %constant.565 = s32[] constant(1024), metadata={op_type="aten__mean" op_name="aten__mean" source_file="/usr/local/lib/python3.10/site-packages/torch/_ops.py" source_line=756}
  %constant.571 = s32[] constant(0), metadata={op_type="aten__mean" op_name="aten__mean" source_file="/usr/local/lib/python3.10/site-packages/torch/_ops.py" source_line=756}
  %compare.576 = pred[] compare(s32[] %constant.565, s32[] %constant.571), direction=NE, metadata={op_type="aten__mean" op_name="aten__mean" source_file="/usr/local/lib/python3.10/site-packages/torch/_ops.py" source_line=756}
  %constant.572 = f32[] constant(1), metadata={op_type="aten__mean" op_name="aten__mean" source_file="/usr/local/lib/python3.10/site-packages/torch/_ops.py" source_line=756}
  %convert.574 = f32[] convert(s32[] %constant.565), metadata={op_type="aten__mean" op_name="aten__mean" source_file="/usr/local/lib/python3.10/site-packages/torch/_ops.py" source_line=756}
  %divide.575 = f32[] divide(f32[] %constant.572, f32[] %convert.574), metadata={op_type="aten__mean" op_name="aten__mean" source_file="/usr/local/lib/python3.10/site-packages/torch/_ops.py" source_line=756}
  %constant.573 = f32[] constant(nan), metadata={op_type="aten__mean" op_name="aten__mean" source_file="/usr/local/lib/python3.10/site-packages/torch/_ops.py" source_line=756}
  %select.577 = f32[] select(pred[] %compare.576, f32[] %divide.575, f32[] %constant.573), metadata={op_type="aten__mean" op_name="aten__mean" source_file="/usr/local/lib/python3.10/site-packages/torch/_ops.py" source_line=756}
  %broadcast.578 = f32[128]{0} broadcast(f32[] %select.577), dimensions={}, metadata={op_type="aten__mean" op_name="aten__mean" source_file="/usr/local/lib/python3.10/site-packages/torch/_ops.py" source_line=756}
  %multiply.579 = f32[128]{0} multiply(f32[128]{0} %reduce.570, f32[128]{0} %broadcast.578), metadata={op_type="aten__mean" op_name="aten__mean" source_file="/usr/local/lib/python3.10/site-packages/torch/_ops.py" source_line=756}
  %reshape.580 = f32[128,1]{1,0} reshape(f32[128]{0} %multiply.579), metadata={op_type="aten__mean" op_name="aten__mean" source_file="/usr/local/lib/python3.10/site-packages/torch/_ops.py" source_line=756}
  %convert.581 = f32[128,1]{1,0} convert(f32[128,1]{1,0} %reshape.580), metadata={op_type="aten__mean" op_name="aten__mean" source_file="/usr/local/lib/python3.10/site-packages/torch/_ops.py" source_line=756}
  %constant.560 = f32[] constant(1), metadata={op_type="prim__Constant" op_name="prim__Constant" source_file="/usr/local/lib/python3.10/site-packages/torch/_ops.py" source_line=756}
  %multiply.582 = f32[] multiply(f32[] %p1.4, f32[] %constant.560), metadata={op_type="aten__add" op_name="aten__add.1661/aten__add" source_file="/usr/local/lib/python3.10/site-packages/torch/_ops.py" source_line=756}
  %broadcast.583 = f32[128,1]{1,0} broadcast(f32[] %multiply.582), dimensions={}, metadata={op_type="aten__add" op_name="aten__add.1661/aten__add" source_file="/usr/local/lib/python3.10/site-packages/torch/_ops.py" source_line=756}
  %add.584 = f32[128,1]{1,0} add(f32[128,1]{1,0} %convert.581, f32[128,1]{1,0} %broadcast.583), metadata={op_type="aten__add" op_name="aten__add.1661/aten__add" source_file="/usr/local/lib/python3.10/site-packages/torch/_ops.py" source_line=756}
  %rsqrt.585 = f32[128,1]{1,0} rsqrt(f32[128,1]{1,0} %add.584), metadata={op_type="aten__rsqrt" op_name="aten__rsqrt" source_file="/usr/local/lib/python3.10/site-packages/torch/_ops.py" source_line=756}
  %reshape.586 = f32[128]{0} reshape(f32[128,1]{1,0} %rsqrt.585), metadata={op_type="aten__mul" op_name="aten__mul.1662/aten__mul" source_file="/usr/local/lib/python3.10/site-packages/torch/_ops.py" source_line=756}
  %broadcast.587 = f32[128,1024]{1,0} broadcast(f32[128]{0} %reshape.586), dimensions={0}, metadata={op_type="aten__mul" op_name="aten__mul.1662/aten__mul" source_file="/usr/local/lib/python3.10/site-packages/torch/_ops.py" source_line=756}
  %multiply.588 = f32[128,1024]{1,0} multiply(f32[128,1024]{1,0} %add.551, f32[128,1024]{1,0} %broadcast.587), metadata={op_type="aten__mul" op_name="aten__mul.1662/aten__mul" source_file="/usr/local/lib/python3.10/site-packages/torch/_ops.py" source_line=756}
  %convert.589 = bf16[128,1024]{1,0} convert(f32[128,1024]{1,0} %multiply.588), metadata={op_type="xla__cast" op_name="xla__cast" source_file="/usr/local/lib/python3.10/site-packages/torch/_ops.py" source_line=756}
  %convert.590 = f32[128,1024]{1,0} convert(bf16[128,1024]{1,0} %convert.589), metadata={op_type="xla__cast" op_name="xla__cast" source_file="/usr/local/lib/python3.10/site-packages/torch/_ops.py" source_line=756}
  %p37.558 = bf16[1024]{0} parameter(37), metadata={op_type="xla__device_data" op_name="xla__device_data" source_file="/usr/local/lib/python3.10/site-packages/torch_xla/_dynamo/dynamo_bridge.py" source_line=355}
  %convert.559 = f32[1024]{0} convert(bf16[1024]{0} %p37.558), metadata={op_type="xla__cast" op_name="xla__cast" source_file="/usr/local/lib/python3.10/site-packages/torch/_ops.py" source_line=756}
  %broadcast.591 = f32[128,1024]{1,0} broadcast(f32[1024]{0} %convert.559), dimensions={1}, metadata={op_type="aten__mul" op_name="aten__mul.1663/aten__mul" source_file="/usr/local/lib/python3.10/site-packages/torch/_ops.py" source_line=756}
  %multiply.592 = f32[128,1024]{1,0} multiply(f32[128,1024]{1,0} %convert.590, f32[128,1024]{1,0} %broadcast.591), metadata={op_type="aten__mul" op_name="aten__mul.1663/aten__mul" source_file="/usr/local/lib/python3.10/site-packages/torch/_ops.py" source_line=756}
  %convert.593 = bf16[128,1024]{1,0} convert(f32[128,1024]{1,0} %multiply.592), metadata={op_type="xla__cast" op_name="xla__cast" source_file="/usr/local/lib/python3.10/site-packages/torch/_ops.py" source_line=756}
  %p36.556 = bf16[6144,1024]{1,0} parameter(36), metadata={op_type="xla__device_data" op_name="xla__device_data" source_file="/usr/local/lib/python3.10/site-packages/torch_xla/_dynamo/dynamo_bridge.py" source_line=355}
  %transpose.557 = bf16[1024,6144]{0,1} transpose(bf16[6144,1024]{1,0} %p36.556), dimensions={1,0}, metadata={op_type="aten__permute" op_name="aten__permute" source_file="/usr/local/lib/python3.10/site-packages/torch/_ops.py" source_line=756}
  %dot.594 = bf16[128,6144]{1,0} dot(bf16[128,1024]{1,0} %convert.593, bf16[1024,6144]{0,1} %transpose.557), lhs_contracting_dims={1}, rhs_contracting_dims={0}, metadata={op_type="aten__mm" op_name="aten__mm" source_file="/usr/local/lib/python3.10/site-packages/torch/_ops.py" source_line=756}
  %slice.597 = bf16[128,3072]{1,0} slice(bf16[128,6144]{1,0} %dot.594), slice={[0:128], [0:3072]}, metadata={op_type="xla__select" op_name="xla__select" source_file="/usr/local/lib/python3.10/site-packages/torch/_ops.py" source_line=756}
  %logistic.598 = bf16[128,3072]{1,0} logistic(bf16[128,3072]{1,0} %slice.597), metadata={op_type="aten__silu" op_name="aten__silu" source_file="/usr/local/lib/python3.10/site-packages/torch/_ops.py" source_line=756}
  %multiply.599 = bf16[128,3072]{1,0} multiply(bf16[128,3072]{1,0} %slice.597, bf16[128,3072]{1,0} %logistic.598), metadata={op_type="aten__silu" op_name="aten__silu" source_file="/usr/local/lib/python3.10/site-packages/torch/_ops.py" source_line=756}
  %convert.600 = f32[128,3072]{1,0} convert(bf16[128,3072]{1,0} %multiply.599), metadata={op_type="xla__cast" op_name="xla__cast" source_file="/usr/local/lib/python3.10/site-packages/torch/_ops.py" source_line=756}
  %slice.595 = bf16[128,3072]{1,0} slice(bf16[128,6144]{1,0} %dot.594), slice={[0:128], [3072:6144]}, metadata={op_type="xla__select" op_name="xla__select" source_file="/usr/local/lib/python3.10/site-packages/torch/_ops.py" source_line=756}
  %convert.596 = f32[128,3072]{1,0} convert(bf16[128,3072]{1,0} %slice.595), metadata={op_type="xla__cast" op_name="xla__cast" source_file="/usr/local/lib/python3.10/site-packages/torch/_ops.py" source_line=756}
  %multiply.601 = f32[128,3072]{1,0} multiply(f32[128,3072]{1,0} %convert.600, f32[128,3072]{1,0} %convert.596), metadata={op_type="aten__mul" op_name="aten__mul.1664/aten__mul" source_file="/usr/local/lib/python3.10/site-packages/torch/_ops.py" source_line=756}
  %convert.602 = bf16[128,3072]{1,0} convert(f32[128,3072]{1,0} %multiply.601), metadata={op_type="xla__cast" op_name="xla__cast" source_file="/usr/local/lib/python3.10/site-packages/torch/_ops.py" source_line=756}
  %p35.554 = bf16[1024,3072]{1,0} parameter(35), metadata={op_type="xla__device_data" op_name="xla__device_data" source_file="/usr/local/lib/python3.10/site-packages/torch_xla/_dynamo/dynamo_bridge.py" source_line=355}
  %transpose.555 = bf16[3072,1024]{0,1} transpose(bf16[1024,3072]{1,0} %p35.554), dimensions={1,0}, metadata={op_type="aten__permute" op_name="aten__permute" source_file="/usr/local/lib/python3.10/site-packages/torch/_ops.py" source_line=756}
  %dot.603 = bf16[128,1024]{1,0} dot(bf16[128,3072]{1,0} %convert.602, bf16[3072,1024]{0,1} %transpose.555), lhs_contracting_dims={1}, rhs_contracting_dims={0}, metadata={op_type="aten__mm" op_name="aten__mm" source_file="/usr/local/lib/python3.10/site-packages/torch/_ops.py" source_line=756}
  %convert.604 = f32[128,1024]{1,0} convert(bf16[128,1024]{1,0} %dot.603), metadata={op_type="xla__cast" op_name="xla__cast" source_file="/usr/local/lib/python3.10/site-packages/torch/_ops.py" source_line=756}
  %convert.552 = bf16[128,1024]{1,0} convert(f32[128,1024]{1,0} %add.551), metadata={op_type="xla__cast" op_name="xla__cast" source_file="/usr/local/lib/python3.10/site-packages/torch/_ops.py" source_line=756}
  %convert.553 = f32[128,1024]{1,0} convert(bf16[128,1024]{1,0} %convert.552), metadata={op_type="xla__cast" op_name="xla__cast" source_file="/usr/local/lib/python3.10/site-packages/torch/_ops.py" source_line=756}
  %constant.12 = f32[] constant(1), metadata={op_type="prim__Constant" op_name="prim__Constant" source_file="/usr/local/lib/python3.10/site-packages/torch/_ops.py" source_line=756}
  %broadcast.605 = f32[128,1024]{1,0} broadcast(f32[] %constant.12), dimensions={}, metadata={op_type="aten__add" op_name="aten__add.1665/aten__add" source_file="/usr/local/lib/python3.10/site-packages/torch/_ops.py" source_line=756}
  %multiply.606 = f32[128,1024]{1,0} multiply(f32[128,1024]{1,0} %convert.553, f32[128,1024]{1,0} %broadcast.605), metadata={op_type="aten__add" op_name="aten__add.1665/aten__add" source_file="/usr/local/lib/python3.10/site-packages/torch/_ops.py" source_line=756}
  %add.607 = f32[128,1024]{1,0} add(f32[128,1024]{1,0} %convert.604, f32[128,1024]{1,0} %multiply.606), metadata={op_type="aten__add" op_name="aten__add.1665/aten__add" source_file="/usr/local/lib/python3.10/site-packages/torch/_ops.py" source_line=756}
  %constant.11 = f32[] constant(2), metadata={op_type="prim__Constant" op_name="prim__Constant" source_file="/usr/local/lib/python3.10/site-packages/torch/_ops.py" source_line=756}
  %broadcast.608 = f32[128,1024]{1,0} broadcast(f32[] %constant.11), dimensions={}, metadata={op_type="aten__pow" op_name="aten__pow" source_file="/usr/local/lib/python3.10/site-packages/torch/_ops.py" source_line=756}
  %power.609 = f32[128,1024]{1,0} power(f32[128,1024]{1,0} %add.607, f32[128,1024]{1,0} %broadcast.608), metadata={op_type="aten__pow" op_name="aten__pow" source_file="/usr/local/lib/python3.10/site-packages/torch/_ops.py" source_line=756}
  %constant.610 = f32[] constant(0), metadata={op_type="aten__mean" op_name="aten__mean" source_file="/usr/local/lib/python3.10/site-packages/torch/_ops.py" source_line=756}
  %reduce.616 = f32[128]{0} reduce(f32[128,1024]{1,0} %power.609, f32[] %constant.610), dimensions={1}, to_apply=%AddComputation.612, metadata={op_type="aten__mean" op_name="aten__mean" source_file="/usr/local/lib/python3.10/site-packages/torch/_ops.py" source_line=756}
  %constant.611 = s32[] constant(1024), metadata={op_type="aten__mean" op_name="aten__mean" source_file="/usr/local/lib/python3.10/site-packages/torch/_ops.py" source_line=756}
  %constant.617 = s32[] constant(0), metadata={op_type="aten__mean" op_name="aten__mean" source_file="/usr/local/lib/python3.10/site-packages/torch/_ops.py" source_line=756}
  %compare.622 = pred[] compare(s32[] %constant.611, s32[] %constant.617), direction=NE, metadata={op_type="aten__mean" op_name="aten__mean" source_file="/usr/local/lib/python3.10/site-packages/torch/_ops.py" source_line=756}
  %constant.618 = f32[] constant(1), metadata={op_type="aten__mean" op_name="aten__mean" source_file="/usr/local/lib/python3.10/site-packages/torch/_ops.py" source_line=756}
  %convert.620 = f32[] convert(s32[] %constant.611), metadata={op_type="aten__mean" op_name="aten__mean" source_file="/usr/local/lib/python3.10/site-packages/torch/_ops.py" source_line=756}
  %divide.621 = f32[] divide(f32[] %constant.618, f32[] %convert.620), metadata={op_type="aten__mean" op_name="aten__mean" source_file="/usr/local/lib/python3.10/site-packages/torch/_ops.py" source_line=756}
  %constant.619 = f32[] constant(nan), metadata={op_type="aten__mean" op_name="aten__mean" source_file="/usr/local/lib/python3.10/site-packages/torch/_ops.py" source_line=756}
  %select.623 = f32[] select(pred[] %compare.622, f32[] %divide.621, f32[] %constant.619), metadata={op_type="aten__mean" op_name="aten__mean" source_file="/usr/local/lib/python3.10/site-packages/torch/_ops.py" source_line=756}
  %broadcast.624 = f32[128]{0} broadcast(f32[] %select.623), dimensions={}, metadata={op_type="aten__mean" op_name="aten__mean" source_file="/usr/local/lib/python3.10/site-packages/torch/_ops.py" source_line=756}
  %multiply.625 = f32[128]{0} multiply(f32[128]{0} %reduce.616, f32[128]{0} %broadcast.624), metadata={op_type="aten__mean" op_name="aten__mean" source_file="/usr/local/lib/python3.10/site-packages/torch/_ops.py" source_line=756}
  %reshape.626 = f32[128,1]{1,0} reshape(f32[128]{0} %multiply.625), metadata={op_type="aten__mean" op_name="aten__mean" source_file="/usr/local/lib/python3.10/site-packages/torch/_ops.py" source_line=756}
  %convert.627 = f32[128,1]{1,0} convert(f32[128,1]{1,0} %reshape.626), metadata={op_type="aten__mean" op_name="aten__mean" source_file="/usr/local/lib/python3.10/site-packages/torch/_ops.py" source_line=756}
  %constant.10 = f32[] constant(1), metadata={op_type="prim__Constant" op_name="prim__Constant" source_file="/usr/local/lib/python3.10/site-packages/torch/_ops.py" source_line=756}
  %multiply.628 = f32[] multiply(f32[] %p1.4, f32[] %constant.10), metadata={op_type="aten__add" op_name="aten__add.1666/aten__add" source_file="/usr/local/lib/python3.10/site-packages/torch/_ops.py" source_line=756}
  %broadcast.629 = f32[128,1]{1,0} broadcast(f32[] %multiply.628), dimensions={}, metadata={op_type="aten__add" op_name="aten__add.1666/aten__add" source_file="/usr/local/lib/python3.10/site-packages/torch/_ops.py" source_line=756}
  %add.630 = f32[128,1]{1,0} add(f32[128,1]{1,0} %convert.627, f32[128,1]{1,0} %broadcast.629), metadata={op_type="aten__add" op_name="aten__add.1666/aten__add" source_file="/usr/local/lib/python3.10/site-packages/torch/_ops.py" source_line=756}
  %rsqrt.631 = f32[128,1]{1,0} rsqrt(f32[128,1]{1,0} %add.630), metadata={op_type="aten__rsqrt" op_name="aten__rsqrt" source_file="/usr/local/lib/python3.10/site-packages/torch/_ops.py" source_line=756}
  %reshape.632 = f32[128]{0} reshape(f32[128,1]{1,0} %rsqrt.631), metadata={op_type="aten__mul" op_name="aten__mul.1667/aten__mul" source_file="/usr/local/lib/python3.10/site-packages/torch/_ops.py" source_line=756}
  %broadcast.633 = f32[128,1024]{1,0} broadcast(f32[128]{0} %reshape.632), dimensions={0}, metadata={op_type="aten__mul" op_name="aten__mul.1667/aten__mul" source_file="/usr/local/lib/python3.10/site-packages/torch/_ops.py" source_line=756}
  %multiply.634 = f32[128,1024]{1,0} multiply(f32[128,1024]{1,0} %add.607, f32[128,1024]{1,0} %broadcast.633), metadata={op_type="aten__mul" op_name="aten__mul.1667/aten__mul" source_file="/usr/local/lib/python3.10/site-packages/torch/_ops.py" source_line=756}
  %convert.635 = bf16[128,1024]{1,0} convert(f32[128,1024]{1,0} %multiply.634), metadata={op_type="xla__cast" op_name="xla__cast" source_file="/usr/local/lib/python3.10/site-packages/torch/_ops.py" source_line=756}
  %convert.636 = f32[128,1024]{1,0} convert(bf16[128,1024]{1,0} %convert.635), metadata={op_type="xla__cast" op_name="xla__cast" source_file="/usr/local/lib/python3.10/site-packages/torch/_ops.py" source_line=756}
  %p3.8 = bf16[1024]{0} parameter(3), metadata={op_type="xla__device_data" op_name="xla__device_data" source_file="/usr/local/lib/python3.10/site-packages/torch_xla/_dynamo/dynamo_bridge.py" source_line=355}
  %convert.9 = f32[1024]{0} convert(bf16[1024]{0} %p3.8), metadata={op_type="xla__cast" op_name="xla__cast" source_file="/usr/local/lib/python3.10/site-packages/torch/_ops.py" source_line=756}
  %broadcast.637 = f32[128,1024]{1,0} broadcast(f32[1024]{0} %convert.9), dimensions={1}, metadata={op_type="aten__mul" op_name="aten__mul.1668/aten__mul" source_file="/usr/local/lib/python3.10/site-packages/torch/_ops.py" source_line=756}
  %multiply.638 = f32[128,1024]{1,0} multiply(f32[128,1024]{1,0} %convert.636, f32[128,1024]{1,0} %broadcast.637), metadata={op_type="aten__mul" op_name="aten__mul.1668/aten__mul" source_file="/usr/local/lib/python3.10/site-packages/torch/_ops.py" source_line=756}
  %convert.639 = bf16[128,1024]{1,0} convert(f32[128,1024]{1,0} %multiply.638), metadata={op_type="xla__cast" op_name="xla__cast" source_file="/usr/local/lib/python3.10/site-packages/torch/_ops.py" source_line=756}
  %p2.6 = bf16[4096,1024]{1,0} parameter(2), metadata={op_type="xla__device_data" op_name="xla__device_data" source_file="/usr/local/lib/python3.10/site-packages/torch_xla/_dynamo/dynamo_bridge.py" source_line=355}
  %transpose.7 = bf16[1024,4096]{0,1} transpose(bf16[4096,1024]{1,0} %p2.6), dimensions={1,0}, metadata={op_type="aten__permute" op_name="aten__permute" source_file="/usr/local/lib/python3.10/site-packages/torch/_ops.py" source_line=756}
  %dot.640 = bf16[128,4096]{1,0} dot(bf16[128,1024]{1,0} %convert.639, bf16[1024,4096]{0,1} %transpose.7), lhs_contracting_dims={1}, rhs_contracting_dims={0}, metadata={op_type="aten__mm" op_name="aten__mm" source_file="/usr/local/lib/python3.10/site-packages/torch/_ops.py" source_line=756}
  %slice.641 = bf16[128,2048]{1,0} slice(bf16[128,4096]{1,0} %dot.640), slice={[0:128], [0:2048]}, metadata={op_type="aten__split" op_name="aten__split" source_file="/usr/local/lib/python3.10/site-packages/torch/_ops.py" source_line=756}
  %slice.642 = bf16[128,1024]{1,0} slice(bf16[128,4096]{1,0} %dot.640), slice={[0:128], [2048:3072]}, metadata={op_type="aten__split" op_name="aten__split" source_file="/usr/local/lib/python3.10/site-packages/torch/_ops.py" source_line=756}
  %reshape.644 = bf16[128,8,128]{2,1,0} reshape(bf16[128,1024]{1,0} %slice.642), metadata={op_type="aten__view" op_name="aten__view" source_file="/usr/local/lib/python3.10/site-packages/torch/_ops.py" source_line=756}
  %convert.645 = f32[128,8,128]{2,1,0} convert(bf16[128,8,128]{2,1,0} %reshape.644), metadata={op_type="xla__cast" op_name="xla__cast" source_file="/usr/local/lib/python3.10/site-packages/torch/_ops.py" source_line=756}
  %constant.5 = f32[] constant(2), metadata={op_type="prim__Constant" op_name="prim__Constant" source_file="/usr/local/lib/python3.10/site-packages/torch/_ops.py" source_line=756}
  %broadcast.646 = f32[128,8,128]{2,1,0} broadcast(f32[] %constant.5), dimensions={}, metadata={op_type="aten__pow" op_name="aten__pow" source_file="/usr/local/lib/python3.10/site-packages/torch/_ops.py" source_line=756}
  %power.647 = f32[128,8,128]{2,1,0} power(f32[128,8,128]{2,1,0} %convert.645, f32[128,8,128]{2,1,0} %broadcast.646), metadata={op_type="aten__pow" op_name="aten__pow" source_file="/usr/local/lib/python3.10/site-packages/torch/_ops.py" source_line=756}
  %constant.648 = f32[] constant(0), metadata={op_type="aten__mean" op_name="aten__mean" source_file="/usr/local/lib/python3.10/site-packages/torch/_ops.py" source_line=756}
  %reduce.654 = f32[128,8]{1,0} reduce(f32[128,8,128]{2,1,0} %power.647, f32[] %constant.648), dimensions={2}, to_apply=%AddComputation.650, metadata={op_type="aten__mean" op_name="aten__mean" source_file="/usr/local/lib/python3.10/site-packages/torch/_ops.py" source_line=756}
  %constant.649 = s32[] constant(128), metadata={op_type="aten__mean" op_name="aten__mean" source_file="/usr/local/lib/python3.10/site-packages/torch/_ops.py" source_line=756}
  %constant.655 = s32[] constant(0), metadata={op_type="aten__mean" op_name="aten__mean" source_file="/usr/local/lib/python3.10/site-packages/torch/_ops.py" source_line=756}
  %compare.660 = pred[] compare(s32[] %constant.649, s32[] %constant.655), direction=NE, metadata={op_type="aten__mean" op_name="aten__mean" source_file="/usr/local/lib/python3.10/site-packages/torch/_ops.py" source_line=756}
  %constant.656 = f32[] constant(1), metadata={op_type="aten__mean" op_name="aten__mean" source_file="/usr/local/lib/python3.10/site-packages/torch/_ops.py" source_line=756}
  %convert.658 = f32[] convert(s32[] %constant.649), metadata={op_type="aten__mean" op_name="aten__mean" source_file="/usr/local/lib/python3.10/site-packages/torch/_ops.py" source_line=756}
  %divide.659 = f32[] divide(f32[] %constant.656, f32[] %convert.658), metadata={op_type="aten__mean" op_name="aten__mean" source_file="/usr/local/lib/python3.10/site-packages/torch/_ops.py" source_line=756}
  %constant.657 = f32[] constant(nan), metadata={op_type="aten__mean" op_name="aten__mean" source_file="/usr/local/lib/python3.10/site-packages/torch/_ops.py" source_line=756}
  %select.661 = f32[] select(pred[] %compare.660, f32[] %divide.659, f32[] %constant.657), metadata={op_type="aten__mean" op_name="aten__mean" source_file="/usr/local/lib/python3.10/site-packages/torch/_ops.py" source_line=756}
  %broadcast.662 = f32[128,8]{1,0} broadcast(f32[] %select.661), dimensions={}, metadata={op_type="aten__mean" op_name="aten__mean" source_file="/usr/local/lib/python3.10/site-packages/torch/_ops.py" source_line=756}
  %multiply.663 = f32[128,8]{1,0} multiply(f32[128,8]{1,0} %reduce.654, f32[128,8]{1,0} %broadcast.662), metadata={op_type="aten__mean" op_name="aten__mean" source_file="/usr/local/lib/python3.10/site-packages/torch/_ops.py" source_line=756}
  %reshape.664 = f32[128,8,1]{2,1,0} reshape(f32[128,8]{1,0} %multiply.663), metadata={op_type="aten__mean" op_name="aten__mean" source_file="/usr/local/lib/python3.10/site-packages/torch/_ops.py" source_line=756}
  %convert.665 = f32[128,8,1]{2,1,0} convert(f32[128,8,1]{2,1,0} %reshape.664), metadata={op_type="aten__mean" op_name="aten__mean" source_file="/usr/local/lib/python3.10/site-packages/torch/_ops.py" source_line=756}
  %constant.3 = f32[] constant(1), metadata={op_type="prim__Constant" op_name="prim__Constant" source_file="/usr/local/lib/python3.10/site-packages/torch/_ops.py" source_line=756}
  %multiply.666 = f32[] multiply(f32[] %p1.4, f32[] %constant.3), metadata={op_type="aten__add" op_name="aten__add.1669/aten__add" source_file="/usr/local/lib/python3.10/site-packages/torch/_ops.py" source_line=756}
  %broadcast.667 = f32[128,8,1]{2,1,0} broadcast(f32[] %multiply.666), dimensions={}, metadata={op_type="aten__add" op_name="aten__add.1669/aten__add" source_file="/usr/local/lib/python3.10/site-packages/torch/_ops.py" source_line=756}
  %add.668 = f32[128,8,1]{2,1,0} add(f32[128,8,1]{2,1,0} %convert.665, f32[128,8,1]{2,1,0} %broadcast.667), metadata={op_type="aten__add" op_name="aten__add.1669/aten__add" source_file="/usr/local/lib/python3.10/site-packages/torch/_ops.py" source_line=756}
  %rsqrt.669 = f32[128,8,1]{2,1,0} rsqrt(f32[128,8,1]{2,1,0} %add.668), metadata={op_type="aten__rsqrt" op_name="aten__rsqrt" source_file="/usr/local/lib/python3.10/site-packages/torch/_ops.py" source_line=756}
  %reshape.670 = f32[128,8]{1,0} reshape(f32[128,8,1]{2,1,0} %rsqrt.669), metadata={op_type="aten__mul" op_name="aten__mul.1670/aten__mul" source_file="/usr/local/lib/python3.10/site-packages/torch/_ops.py" source_line=756}
  %broadcast.671 = f32[128,8,128]{2,1,0} broadcast(f32[128,8]{1,0} %reshape.670), dimensions={0,1}, metadata={op_type="aten__mul" op_name="aten__mul.1670/aten__mul" source_file="/usr/local/lib/python3.10/site-packages/torch/_ops.py" source_line=756}
  %multiply.672 = f32[128,8,128]{2,1,0} multiply(f32[128,8,128]{2,1,0} %convert.645, f32[128,8,128]{2,1,0} %broadcast.671), metadata={op_type="aten__mul" op_name="aten__mul.1670/aten__mul" source_file="/usr/local/lib/python3.10/site-packages/torch/_ops.py" source_line=756}
  %convert.673 = bf16[128,8,128]{2,1,0} convert(f32[128,8,128]{2,1,0} %multiply.672), metadata={op_type="xla__cast" op_name="xla__cast" source_file="/usr/local/lib/python3.10/site-packages/torch/_ops.py" source_line=756}
  %convert.674 = f32[128,8,128]{2,1,0} convert(bf16[128,8,128]{2,1,0} %convert.673), metadata={op_type="xla__cast" op_name="xla__cast" source_file="/usr/local/lib/python3.10/site-packages/torch/_ops.py" source_line=756}
  %p0.1 = bf16[128]{0} parameter(0), metadata={op_type="xla__device_data" op_name="xla__device_data" source_file="/usr/local/lib/python3.10/site-packages/torch_xla/_dynamo/dynamo_bridge.py" source_line=355}
  %convert.2 = f32[128]{0} convert(bf16[128]{0} %p0.1), metadata={op_type="xla__cast" op_name="xla__cast" source_file="/usr/local/lib/python3.10/site-packages/torch/_ops.py" source_line=756}
  %broadcast.675 = f32[128,8,128]{2,1,0} broadcast(f32[128]{0} %convert.2), dimensions={2}, metadata={op_type="aten__mul" op_name="aten__mul.1671/aten__mul" source_file="/usr/local/lib/python3.10/site-packages/torch/_ops.py" source_line=756}
  %multiply.676 = f32[128,8,128]{2,1,0} multiply(f32[128,8,128]{2,1,0} %convert.674, f32[128,8,128]{2,1,0} %broadcast.675), metadata={op_type="aten__mul" op_name="aten__mul.1671/aten__mul" source_file="/usr/local/lib/python3.10/site-packages/torch/_ops.py" source_line=756}
  %convert.677 = bf16[128,8,128]{2,1,0} convert(f32[128,8,128]{2,1,0} %multiply.676), metadata={op_type="xla__cast" op_name="xla__cast" source_file="/usr/local/lib/python3.10/site-packages/torch/_ops.py" source_line=756}
  %reshape.678 = bf16[128,1024]{1,0} reshape(bf16[128,8,128]{2,1,0} %convert.677), metadata={op_type="aten__view" op_name="aten__view" source_file="/usr/local/lib/python3.10/site-packages/torch/_ops.py" source_line=756}
  %reshape.679 = bf16[128,8,128]{2,1,0} reshape(bf16[128,1024]{1,0} %reshape.678), metadata={op_type="aten__view" op_name="aten__view" source_file="/usr/local/lib/python3.10/site-packages/torch/_ops.py" source_line=756}
  %slice.689 = bf16[128,8,64]{2,1,0} slice(bf16[128,8,128]{2,1,0} %reshape.679), slice={[0:128], [0:8], [0:64]}, metadata={op_type="aten__split" op_name="aten__split" source_file="/usr/local/lib/python3.10/site-packages/torch/_ops.py" source_line=756}
  %convert.714 = f32[128,8,64]{2,1,0} convert(bf16[128,8,64]{2,1,0} %slice.689), metadata={op_type="xla__cast" op_name="xla__cast" source_file="/usr/local/lib/python3.10/site-packages/torch/_ops.py" source_line=756}
  %p39.683 = bf16[40960,128]{1,0} parameter(39), metadata={op_type="xla__device_data" op_name="xla__device_data" source_file="/usr/local/lib/python3.10/site-packages/torch_xla/_dynamo/dynamo_bridge.py" source_line=355}
  %p38.682 = s32[128]{0} parameter(38), metadata={op_type="xla__device_data" op_name="xla__device_data" source_file="/usr/local/lib/python3.10/site-packages/torch_xla/_dynamo/dynamo_bridge.py" source_line=355}
  %gather.684 = bf16[128,128]{1,0} gather(bf16[40960,128]{1,0} %p39.683, s32[128]{0} %p38.682), offset_dims={1}, collapsed_slice_dims={0}, start_index_map={0}, index_vector_dim=1, slice_sizes={1,128}, metadata={op_type="aten__index_select" op_name="aten__index_select" source_file="/usr/local/lib/python3.10/site-packages/torch/_ops.py" source_line=756}
  %slice.685 = bf16[128,64]{1,0} slice(bf16[128,128]{1,0} %gather.684), slice={[0:128], [0:64]}, metadata={op_type="aten__split" op_name="aten__split" source_file="/usr/local/lib/python3.10/site-packages/torch/_ops.py" source_line=756}
  %reshape.696 = bf16[128,1,64]{2,1,0} reshape(bf16[128,64]{1,0} %slice.685), metadata={op_type="aten__view" op_name="aten__view" source_file="/usr/local/lib/python3.10/site-packages/torch/_ops.py" source_line=756}
  %convert.713 = f32[128,1,64]{2,1,0} convert(bf16[128,1,64]{2,1,0} %reshape.696), metadata={op_type="xla__cast" op_name="xla__cast" source_file="/usr/local/lib/python3.10/site-packages/torch/_ops.py" source_line=756}
  %reshape.715 = f32[128,64]{1,0} reshape(f32[128,1,64]{2,1,0} %convert.713), metadata={op_type="aten__mul" op_name="aten__mul.1672/aten__mul" source_file="/usr/local/lib/python3.10/site-packages/torch/_ops.py" source_line=756}
  %broadcast.716 = f32[128,8,64]{2,1,0} broadcast(f32[128,64]{1,0} %reshape.715), dimensions={0,2}, metadata={op_type="aten__mul" op_name="aten__mul.1672/aten__mul" source_file="/usr/local/lib/python3.10/site-packages/torch/_ops.py" source_line=756}
  %multiply.717 = f32[128,8,64]{2,1,0} multiply(f32[128,8,64]{2,1,0} %convert.714, f32[128,8,64]{2,1,0} %broadcast.716), metadata={op_type="aten__mul" op_name="aten__mul.1672/aten__mul" source_file="/usr/local/lib/python3.10/site-packages/torch/_ops.py" source_line=756}
  %convert.718 = bf16[128,8,64]{2,1,0} convert(f32[128,8,64]{2,1,0} %multiply.717), metadata={op_type="xla__cast" op_name="xla__cast" source_file="/usr/local/lib/python3.10/site-packages/torch/_ops.py" source_line=756}
  %slice.690 = bf16[128,8,64]{2,1,0} slice(bf16[128,8,128]{2,1,0} %reshape.679), slice={[0:128], [0:8], [64:128]}, metadata={op_type="aten__split" op_name="aten__split" source_file="/usr/local/lib/python3.10/site-packages/torch/_ops.py" source_line=756}
  %convert.708 = f32[128,8,64]{2,1,0} convert(bf16[128,8,64]{2,1,0} %slice.690), metadata={op_type="xla__cast" op_name="xla__cast" source_file="/usr/local/lib/python3.10/site-packages/torch/_ops.py" source_line=756}
  %slice.686 = bf16[128,64]{1,0} slice(bf16[128,128]{1,0} %gather.684), slice={[0:128], [64:128]}, metadata={op_type="aten__split" op_name="aten__split" source_file="/usr/local/lib/python3.10/site-packages/torch/_ops.py" source_line=756}
  %reshape.687 = bf16[128,1,64]{2,1,0} reshape(bf16[128,64]{1,0} %slice.686), metadata={op_type="aten__view" op_name="aten__view" source_file="/usr/local/lib/python3.10/site-packages/torch/_ops.py" source_line=756}
  %convert.707 = f32[128,1,64]{2,1,0} convert(bf16[128,1,64]{2,1,0} %reshape.687), metadata={op_type="xla__cast" op_name="xla__cast" source_file="/usr/local/lib/python3.10/site-packages/torch/_ops.py" source_line=756}
  %reshape.709 = f32[128,64]{1,0} reshape(f32[128,1,64]{2,1,0} %convert.707), metadata={op_type="aten__mul" op_name="aten__mul.1673/aten__mul" source_file="/usr/local/lib/python3.10/site-packages/torch/_ops.py" source_line=756}
  %broadcast.710 = f32[128,8,64]{2,1,0} broadcast(f32[128,64]{1,0} %reshape.709), dimensions={0,2}, metadata={op_type="aten__mul" op_name="aten__mul.1673/aten__mul" source_file="/usr/local/lib/python3.10/site-packages/torch/_ops.py" source_line=756}
  %multiply.711 = f32[128,8,64]{2,1,0} multiply(f32[128,8,64]{2,1,0} %convert.708, f32[128,8,64]{2,1,0} %broadcast.710), metadata={op_type="aten__mul" op_name="aten__mul.1673/aten__mul" source_file="/usr/local/lib/python3.10/site-packages/torch/_ops.py" source_line=756}
  %convert.712 = bf16[128,8,64]{2,1,0} convert(f32[128,8,64]{2,1,0} %multiply.711), metadata={op_type="xla__cast" op_name="xla__cast" source_file="/usr/local/lib/python3.10/site-packages/torch/_ops.py" source_line=756}
  %constant.706 = bf16[] constant(1), metadata={op_type="prim__Constant" op_name="prim__Constant" source_file="/usr/local/lib/python3.10/site-packages/torch/_ops.py" source_line=756}
  %broadcast.719 = bf16[128,8,64]{2,1,0} broadcast(bf16[] %constant.706), dimensions={}, metadata={op_type="aten__sub" op_name="aten__sub.1674/aten__sub" source_file="/usr/local/lib/python3.10/site-packages/torch/_ops.py" source_line=756}
  %multiply.720 = bf16[128,8,64]{2,1,0} multiply(bf16[128,8,64]{2,1,0} %convert.712, bf16[128,8,64]{2,1,0} %broadcast.719), metadata={op_type="aten__sub" op_name="aten__sub.1674/aten__sub" source_file="/usr/local/lib/python3.10/site-packages/torch/_ops.py" source_line=756}
  %subtract.721 = bf16[128,8,64]{2,1,0} subtract(bf16[128,8,64]{2,1,0} %convert.718, bf16[128,8,64]{2,1,0} %multiply.720), metadata={op_type="aten__sub" op_name="aten__sub.1674/aten__sub" source_file="/usr/local/lib/python3.10/site-packages/torch/_ops.py" source_line=756}
  %convert.698 = f32[128,8,64]{2,1,0} convert(bf16[128,8,64]{2,1,0} %slice.690), metadata={op_type="xla__cast" op_name="xla__cast" source_file="/usr/local/lib/python3.10/site-packages/torch/_ops.py" source_line=756}
  %convert.697 = f32[128,1,64]{2,1,0} convert(bf16[128,1,64]{2,1,0} %reshape.696), metadata={op_type="xla__cast" op_name="xla__cast" source_file="/usr/local/lib/python3.10/site-packages/torch/_ops.py" source_line=756}
  %reshape.699 = f32[128,64]{1,0} reshape(f32[128,1,64]{2,1,0} %convert.697), metadata={op_type="aten__mul" op_name="aten__mul.1675/aten__mul" source_file="/usr/local/lib/python3.10/site-packages/torch/_ops.py" source_line=756}
  %broadcast.700 = f32[128,8,64]{2,1,0} broadcast(f32[128,64]{1,0} %reshape.699), dimensions={0,2}, metadata={op_type="aten__mul" op_name="aten__mul.1675/aten__mul" source_file="/usr/local/lib/python3.10/site-packages/torch/_ops.py" source_line=756}
  %multiply.701 = f32[128,8,64]{2,1,0} multiply(f32[128,8,64]{2,1,0} %convert.698, f32[128,8,64]{2,1,0} %broadcast.700), metadata={op_type="aten__mul" op_name="aten__mul.1675/aten__mul" source_file="/usr/local/lib/python3.10/site-packages/torch/_ops.py" source_line=756}
  %convert.702 = bf16[128,8,64]{2,1,0} convert(f32[128,8,64]{2,1,0} %multiply.701), metadata={op_type="xla__cast" op_name="xla__cast" source_file="/usr/local/lib/python3.10/site-packages/torch/_ops.py" source_line=756}
  %convert.691 = f32[128,8,64]{2,1,0} convert(bf16[128,8,64]{2,1,0} %slice.689), metadata={op_type="xla__cast" op_name="xla__cast" source_file="/usr/local/lib/python3.10/site-packages/torch/_ops.py" source_line=756}
  %convert.688 = f32[128,1,64]{2,1,0} convert(bf16[128,1,64]{2,1,0} %reshape.687), metadata={op_type="xla__cast" op_name="xla__cast" source_file="/usr/local/lib/python3.10/site-packages/torch/_ops.py" source_line=756}
  %reshape.692 = f32[128,64]{1,0} reshape(f32[128,1,64]{2,1,0} %convert.688), metadata={op_type="aten__mul" op_name="aten__mul.1676/aten__mul" source_file="/usr/local/lib/python3.10/site-packages/torch/_ops.py" source_line=756}
  %broadcast.693 = f32[128,8,64]{2,1,0} broadcast(f32[128,64]{1,0} %reshape.692), dimensions={0,2}, metadata={op_type="aten__mul" op_name="aten__mul.1676/aten__mul" source_file="/usr/local/lib/python3.10/site-packages/torch/_ops.py" source_line=756}
  %multiply.694 = f32[128,8,64]{2,1,0} multiply(f32[128,8,64]{2,1,0} %convert.691, f32[128,8,64]{2,1,0} %broadcast.693), metadata={op_type="aten__mul" op_name="aten__mul.1676/aten__mul" source_file="/usr/local/lib/python3.10/site-packages/torch/_ops.py" source_line=756}
  %convert.695 = bf16[128,8,64]{2,1,0} convert(f32[128,8,64]{2,1,0} %multiply.694), metadata={op_type="xla__cast" op_name="xla__cast" source_file="/usr/local/lib/python3.10/site-packages/torch/_ops.py" source_line=756}
  %constant.681 = bf16[] constant(1), metadata={op_type="prim__Constant" op_name="prim__Constant" source_file="/usr/local/lib/python3.10/site-packages/torch/_ops.py" source_line=756}
  %broadcast.703 = bf16[128,8,64]{2,1,0} broadcast(bf16[] %constant.681), dimensions={}, metadata={op_type="aten__add" op_name="aten__add.1677/aten__add" source_file="/usr/local/lib/python3.10/site-packages/torch/_ops.py" source_line=756}
  %multiply.704 = bf16[128,8,64]{2,1,0} multiply(bf16[128,8,64]{2,1,0} %convert.695, bf16[128,8,64]{2,1,0} %broadcast.703), metadata={op_type="aten__add" op_name="aten__add.1677/aten__add" source_file="/usr/local/lib/python3.10/site-packages/torch/_ops.py" source_line=756}
  %add.705 = bf16[128,8,64]{2,1,0} add(bf16[128,8,64]{2,1,0} %convert.702, bf16[128,8,64]{2,1,0} %multiply.704), metadata={op_type="aten__add" op_name="aten__add.1677/aten__add" source_file="/usr/local/lib/python3.10/site-packages/torch/_ops.py" source_line=756}
  %concatenate.722 = bf16[128,8,128]{2,1,0} concatenate(bf16[128,8,64]{2,1,0} %subtract.721, bf16[128,8,64]{2,1,0} %add.705), dimensions={2}, metadata={op_type="aten__cat" op_name="aten__cat" source_file="/usr/local/lib/python3.10/site-packages/torch/_ops.py" source_line=756}
  %slice.680 = bf16[128,8,0]{2,1,0} slice(bf16[128,8,128]{2,1,0} %reshape.679), slice={[0:128], [0:8], [128:128]}, metadata={op_type="xla__select" op_name="xla__select" source_file="/usr/local/lib/python3.10/site-packages/torch/_ops.py" source_line=756}
  %concatenate.723 = bf16[128,8,128]{2,1,0} concatenate(bf16[128,8,128]{2,1,0} %concatenate.722, bf16[128,8,0]{2,1,0} %slice.680), dimensions={2}, metadata={op_type="aten__cat" op_name="aten__cat" source_file="/usr/local/lib/python3.10/site-packages/torch/_ops.py" source_line=756}
  %reshape.724 = bf16[128,1024]{1,0} reshape(bf16[128,8,128]{2,1,0} %concatenate.723), metadata={op_type="aten__view" op_name="aten__view" source_file="/usr/local/lib/python3.10/site-packages/torch/_ops.py" source_line=756}
  %reshape.725 = bf16[128,8,128]{2,1,0} reshape(bf16[128,1024]{1,0} %reshape.724), metadata={op_type="aten__view" op_name="aten__view" source_file="/usr/local/lib/python3.10/site-packages/torch/_ops.py" source_line=756}
  %slice.643 = bf16[128,1024]{1,0} slice(bf16[128,4096]{1,0} %dot.640), slice={[0:128], [3072:4096]}, metadata={op_type="aten__split" op_name="aten__split" source_file="/usr/local/lib/python3.10/site-packages/torch/_ops.py" source_line=756}
  %reshape.726 = bf16[128,8,128]{2,1,0} reshape(bf16[128,1024]{1,0} %slice.643), metadata={op_type="aten__view" op_name="aten__view" source_file="/usr/local/lib/python3.10/site-packages/torch/_ops.py" source_line=756}
  %p40.727 = bf16[2,4233,16,8,128]{4,3,2,1,0} parameter(40), metadata={op_type="xla__device_data" op_name="xla__device_data" source_file="/usr/local/lib/python3.10/site-packages/torch_xla/_dynamo/dynamo_bridge.py" source_line=355}
  %reshape.728 = bf16[138706944]{0} reshape(bf16[2,4233,16,8,128]{4,3,2,1,0} %p40.727), metadata={op_type="aten__as_strided" op_name="aten__as_strided" source_file="/usr/local/lib/python3.10/site-packages/torch/_prims_common/__init__.py" source_line=1991}
  %reshape.729 = bf16[2,4233,16,8,128]{4,3,2,1,0} reshape(bf16[138706944]{0} %reshape.728), metadata={op_type="aten__as_strided" op_name="aten__as_strided" source_file="/usr/local/lib/python3.10/site-packages/torch/_prims_common/__init__.py" source_line=1992}
  %reshape.730 = bf16[138706944]{0} reshape(bf16[2,4233,16,8,128]{4,3,2,1,0} %reshape.729), metadata={op_type="aten__as_strided" op_name="aten__as_strided" source_file="/usr/local/lib/python3.10/site-packages/torch/_higher_order_ops/auto_functionalize.py" source_line=54}
  %slice.731 = bf16[69353472]{0} slice(bf16[138706944]{0} %reshape.730), slice={[0:69353472]}, metadata={op_type="aten__as_strided" op_name="aten__as_strided" source_file="/usr/local/lib/python3.10/site-packages/torch/_higher_order_ops/auto_functionalize.py" source_line=54}
  %reshape.732 = bf16[4233,16,8,128]{3,2,1,0} reshape(bf16[69353472]{0} %slice.731), metadata={op_type="aten__as_strided" op_name="aten__as_strided" source_file="/usr/local/lib/python3.10/site-packages/torch/_higher_order_ops/auto_functionalize.py" source_line=54}
  %reshape.733 = bf16[138706944]{0} reshape(bf16[2,4233,16,8,128]{4,3,2,1,0} %reshape.729), metadata={op_type="aten__as_strided" op_name="aten__as_strided" source_file="/usr/local/lib/python3.10/site-packages/torch/_higher_order_ops/auto_functionalize.py" source_line=54}
  %slice.734 = bf16[69353472]{0} slice(bf16[138706944]{0} %reshape.733), slice={[69353472:138706944]}, metadata={op_type="aten__as_strided" op_name="aten__as_strided" source_file="/usr/local/lib/python3.10/site-packages/torch/_higher_order_ops/auto_functionalize.py" source_line=54}
  %reshape.735 = bf16[4233,16,8,128]{3,2,1,0} reshape(bf16[69353472]{0} %slice.734), metadata={op_type="aten__as_strided" op_name="aten__as_strided" source_file="/usr/local/lib/python3.10/site-packages/torch/_higher_order_ops/auto_functionalize.py" source_line=54}
  ROOT %tuple.736 = (bf16[128,8,128]{2,1,0}, bf16[128,8,128]{2,1,0}, bf16[4233,16,8,128]{3,2,1,0}, bf16[4233,16,8,128]{3,2,1,0}) tuple(bf16[128,8,128]{2,1,0} %reshape.725, bf16[128,8,128]{2,1,0} %reshape.726, bf16[4233,16,8,128]{3,2,1,0} %reshape.732, bf16[4233,16,8,128]{3,2,1,0} %reshape.735)
}

