HloModule SyncTensorsGraph.589, entry_computation_layout={(bf16[128]{0}, f32[], bf16[4096,1024]{1,0}, bf16[1024]{0}, s32[128]{0}, /*index=5*/bf16[151936,1024]{1,0}, bf16[1024,2048]{1,0}, bf16[1024,3072]{1,0}, bf16[6144,1024]{1,0}, bf16[1024]{0}, /*index=10*/bf16[1024,2048]{1,0}, bf16[1024,3072]{1,0}, bf16[6144,1024]{1,0}, bf16[1024]{0}, bf16[1024,2048]{1,0}, /*index=15*/bf16[1024,3072]{1,0}, bf16[6144,1024]{1,0}, bf16[1024]{0}, bf16[1024,2048]{1,0}, bf16[1024,3072]{1,0}, /*index=20*/bf16[6144,1024]{1,0}, bf16[1024]{0}, bf16[1024,2048]{1,0}, bf16[1024,3072]{1,0}, bf16[6144,1024]{1,0}, /*index=25*/bf16[1024]{0}, bf16[1024,2048]{1,0}, bf16[1024,3072]{1,0}, bf16[6144,1024]{1,0}, bf16[1024]{0}, /*index=30*/s32[128]{0}, bf16[40960,128]{1,0}, bf16[2,4233,16,8,128]{4,3,2,1,0})->(bf16[128,8,128]{2,1,0}, bf16[128,8,128]{2,1,0}, bf16[4233,16,8,128]{3,2,1,0}, bf16[4233,16,8,128]{3,2,1,0})}

%AddComputation.58 (x.59: f32[], y.60: f32[]) -> f32[] {
  %x.59 = f32[] parameter(0)
  %y.60 = f32[] parameter(1)
  ROOT %add.61 = f32[] add(f32[] %x.59, f32[] %y.60)
}

%AddComputation.130 (x.131: f32[], y.132: f32[]) -> f32[] {
  %x.131 = f32[] parameter(0)
  %y.132 = f32[] parameter(1)
  ROOT %add.133 = f32[] add(f32[] %x.131, f32[] %y.132)
}

%AddComputation.202 (x.203: f32[], y.204: f32[]) -> f32[] {
  %x.203 = f32[] parameter(0)
  %y.204 = f32[] parameter(1)
  ROOT %add.205 = f32[] add(f32[] %x.203, f32[] %y.204)
}

%AddComputation.274 (x.275: f32[], y.276: f32[]) -> f32[] {
  %x.275 = f32[] parameter(0)
  %y.276 = f32[] parameter(1)
  ROOT %add.277 = f32[] add(f32[] %x.275, f32[] %y.276)
}

%AddComputation.346 (x.347: f32[], y.348: f32[]) -> f32[] {
  %x.347 = f32[] parameter(0)
  %y.348 = f32[] parameter(1)
  ROOT %add.349 = f32[] add(f32[] %x.347, f32[] %y.348)
}

%AddComputation.418 (x.419: f32[], y.420: f32[]) -> f32[] {
  %x.419 = f32[] parameter(0)
  %y.420 = f32[] parameter(1)
  ROOT %add.421 = f32[] add(f32[] %x.419, f32[] %y.420)
}

%AddComputation.464 (x.465: f32[], y.466: f32[]) -> f32[] {
  %x.465 = f32[] parameter(0)
  %y.466 = f32[] parameter(1)
  ROOT %add.467 = f32[] add(f32[] %x.465, f32[] %y.466)
}

%AddComputation.502 (x.503: f32[], y.504: f32[]) -> f32[] {
  %x.503 = f32[] parameter(0)
  %y.504 = f32[] parameter(1)
  ROOT %add.505 = f32[] add(f32[] %x.503, f32[] %y.504)
}

ENTRY %SyncTensorsGraph.589 (p0.1: bf16[128], p1.4: f32[], p2.6: bf16[4096,1024], p3.8: bf16[1024], p4.24: s32[128], p5.26: bf16[151936,1024], p6.30: bf16[1024,2048], p7.46: bf16[1024,3072], p8.48: bf16[6144,1024], p9.50: bf16[1024], p10.102: bf16[1024,2048], p11.118: bf16[1024,3072], p12.120: bf16[6144,1024], p13.122: bf16[1024], p14.174: bf16[1024,2048], p15.190: bf16[1024,3072], p16.192: bf16[6144,1024], p17.194: bf16[1024], p18.246: bf16[1024,2048], p19.262: bf16[1024,3072], p20.264: bf16[6144,1024], p21.266: bf16[1024], p22.318: bf16[1024,2048], p23.334: bf16[1024,3072], p24.336: bf16[6144,1024], p25.338: bf16[1024], p26.390: bf16[1024,2048], p27.406: bf16[1024,3072], p28.408: bf16[6144,1024], p29.410: bf16[1024], p30.534: s32[128], p31.535: bf16[40960,128], p32.579: bf16[2,4233,16,8,128]) -> (bf16[128,8,128], bf16[128,8,128], bf16[4233,16,8,128], bf16[4233,16,8,128]) {
  %constant.392 = bf16[] constant(0), metadata={op_type="prim__Constant" op_name="prim__Constant" source_file="/usr/local/lib/python3.10/site-packages/torch/_ops.py" source_line=756}
  %reshape.393 = bf16[1,1]{1,0} reshape(bf16[] %constant.392), metadata={op_type="aten__expand" op_name="aten__expand" source_file="/usr/local/lib/python3.10/site-packages/torch/_ops.py" source_line=756}
  %broadcast.394 = bf16[1,1]{1,0} broadcast(bf16[1,1]{1,0} %reshape.393), dimensions={0,1}, metadata={op_type="aten__expand" op_name="aten__expand" source_file="/usr/local/lib/python3.10/site-packages/torch/_ops.py" source_line=756}
  %reshape.395 = bf16[] reshape(bf16[1,1]{1,0} %broadcast.394), metadata={op_type="aten__expand" op_name="aten__expand" source_file="/usr/local/lib/python3.10/site-packages/torch/_ops.py" source_line=756}
  %broadcast.396 = bf16[128,2048]{1,0} broadcast(bf16[] %reshape.395), dimensions={}, metadata={op_type="aten__expand" op_name="aten__expand" source_file="/usr/local/lib/python3.10/site-packages/torch/_ops.py" source_line=756}
  %reshape.397 = bf16[128,16,128]{2,1,0} reshape(bf16[128,2048]{1,0} %broadcast.396), metadata={op_type="aten__view" op_name="aten__view" source_file="/usr/local/lib/python3.10/site-packages/torch/_ops.py" source_line=756}
  %reshape.398 = bf16[128,2048]{1,0} reshape(bf16[128,16,128]{2,1,0} %reshape.397), metadata={op_type="aten__view" op_name="aten__view" source_file="/usr/local/lib/python3.10/site-packages/torch/_ops.py" source_line=756}
  %p26.390 = bf16[1024,2048]{1,0} parameter(26), metadata={op_type="xla__device_data" op_name="xla__device_data" source_file="/usr/local/lib/python3.10/site-packages/torch_xla/_dynamo/dynamo_bridge.py" source_line=355}
  %transpose.391 = bf16[2048,1024]{0,1} transpose(bf16[1024,2048]{1,0} %p26.390), dimensions={1,0}, metadata={op_type="aten__permute" op_name="aten__permute" source_file="/usr/local/lib/python3.10/site-packages/torch/_ops.py" source_line=756}
  %dot.399 = bf16[128,1024]{1,0} dot(bf16[128,2048]{1,0} %reshape.398, bf16[2048,1024]{0,1} %transpose.391), lhs_contracting_dims={1}, rhs_contracting_dims={0}, metadata={op_type="aten__mm" op_name="aten__mm" source_file="/usr/local/lib/python3.10/site-packages/torch/_ops.py" source_line=756}
  %convert.400 = f32[128,1024]{1,0} convert(bf16[128,1024]{1,0} %dot.399), metadata={op_type="xla__cast" op_name="xla__cast" source_file="/usr/local/lib/python3.10/site-packages/torch/_ops.py" source_line=756}
  %constant.320 = bf16[] constant(0), metadata={op_type="prim__Constant" op_name="prim__Constant" source_file="/usr/local/lib/python3.10/site-packages/torch/_ops.py" source_line=756}
  %reshape.321 = bf16[1,1]{1,0} reshape(bf16[] %constant.320), metadata={op_type="aten__expand" op_name="aten__expand" source_file="/usr/local/lib/python3.10/site-packages/torch/_ops.py" source_line=756}
  %broadcast.322 = bf16[1,1]{1,0} broadcast(bf16[1,1]{1,0} %reshape.321), dimensions={0,1}, metadata={op_type="aten__expand" op_name="aten__expand" source_file="/usr/local/lib/python3.10/site-packages/torch/_ops.py" source_line=756}
  %reshape.323 = bf16[] reshape(bf16[1,1]{1,0} %broadcast.322), metadata={op_type="aten__expand" op_name="aten__expand" source_file="/usr/local/lib/python3.10/site-packages/torch/_ops.py" source_line=756}
  %broadcast.324 = bf16[128,2048]{1,0} broadcast(bf16[] %reshape.323), dimensions={}, metadata={op_type="aten__expand" op_name="aten__expand" source_file="/usr/local/lib/python3.10/site-packages/torch/_ops.py" source_line=756}
  %reshape.325 = bf16[128,16,128]{2,1,0} reshape(bf16[128,2048]{1,0} %broadcast.324), metadata={op_type="aten__view" op_name="aten__view" source_file="/usr/local/lib/python3.10/site-packages/torch/_ops.py" source_line=756}
  %reshape.326 = bf16[128,2048]{1,0} reshape(bf16[128,16,128]{2,1,0} %reshape.325), metadata={op_type="aten__view" op_name="aten__view" source_file="/usr/local/lib/python3.10/site-packages/torch/_ops.py" source_line=756}
  %p22.318 = bf16[1024,2048]{1,0} parameter(22), metadata={op_type="xla__device_data" op_name="xla__device_data" source_file="/usr/local/lib/python3.10/site-packages/torch_xla/_dynamo/dynamo_bridge.py" source_line=355}
  %transpose.319 = bf16[2048,1024]{0,1} transpose(bf16[1024,2048]{1,0} %p22.318), dimensions={1,0}, metadata={op_type="aten__permute" op_name="aten__permute" source_file="/usr/local/lib/python3.10/site-packages/torch/_ops.py" source_line=756}
  %dot.327 = bf16[128,1024]{1,0} dot(bf16[128,2048]{1,0} %reshape.326, bf16[2048,1024]{0,1} %transpose.319), lhs_contracting_dims={1}, rhs_contracting_dims={0}, metadata={op_type="aten__mm" op_name="aten__mm" source_file="/usr/local/lib/python3.10/site-packages/torch/_ops.py" source_line=756}
  %convert.328 = f32[128,1024]{1,0} convert(bf16[128,1024]{1,0} %dot.327), metadata={op_type="xla__cast" op_name="xla__cast" source_file="/usr/local/lib/python3.10/site-packages/torch/_ops.py" source_line=756}
  %constant.248 = bf16[] constant(0), metadata={op_type="prim__Constant" op_name="prim__Constant" source_file="/usr/local/lib/python3.10/site-packages/torch/_ops.py" source_line=756}
  %reshape.249 = bf16[1,1]{1,0} reshape(bf16[] %constant.248), metadata={op_type="aten__expand" op_name="aten__expand" source_file="/usr/local/lib/python3.10/site-packages/torch/_ops.py" source_line=756}
  %broadcast.250 = bf16[1,1]{1,0} broadcast(bf16[1,1]{1,0} %reshape.249), dimensions={0,1}, metadata={op_type="aten__expand" op_name="aten__expand" source_file="/usr/local/lib/python3.10/site-packages/torch/_ops.py" source_line=756}
  %reshape.251 = bf16[] reshape(bf16[1,1]{1,0} %broadcast.250), metadata={op_type="aten__expand" op_name="aten__expand" source_file="/usr/local/lib/python3.10/site-packages/torch/_ops.py" source_line=756}
  %broadcast.252 = bf16[128,2048]{1,0} broadcast(bf16[] %reshape.251), dimensions={}, metadata={op_type="aten__expand" op_name="aten__expand" source_file="/usr/local/lib/python3.10/site-packages/torch/_ops.py" source_line=756}
  %reshape.253 = bf16[128,16,128]{2,1,0} reshape(bf16[128,2048]{1,0} %broadcast.252), metadata={op_type="aten__view" op_name="aten__view" source_file="/usr/local/lib/python3.10/site-packages/torch/_ops.py" source_line=756}
  %reshape.254 = bf16[128,2048]{1,0} reshape(bf16[128,16,128]{2,1,0} %reshape.253), metadata={op_type="aten__view" op_name="aten__view" source_file="/usr/local/lib/python3.10/site-packages/torch/_ops.py" source_line=756}
  %p18.246 = bf16[1024,2048]{1,0} parameter(18), metadata={op_type="xla__device_data" op_name="xla__device_data" source_file="/usr/local/lib/python3.10/site-packages/torch_xla/_dynamo/dynamo_bridge.py" source_line=355}
  %transpose.247 = bf16[2048,1024]{0,1} transpose(bf16[1024,2048]{1,0} %p18.246), dimensions={1,0}, metadata={op_type="aten__permute" op_name="aten__permute" source_file="/usr/local/lib/python3.10/site-packages/torch/_ops.py" source_line=756}
  %dot.255 = bf16[128,1024]{1,0} dot(bf16[128,2048]{1,0} %reshape.254, bf16[2048,1024]{0,1} %transpose.247), lhs_contracting_dims={1}, rhs_contracting_dims={0}, metadata={op_type="aten__mm" op_name="aten__mm" source_file="/usr/local/lib/python3.10/site-packages/torch/_ops.py" source_line=756}
  %convert.256 = f32[128,1024]{1,0} convert(bf16[128,1024]{1,0} %dot.255), metadata={op_type="xla__cast" op_name="xla__cast" source_file="/usr/local/lib/python3.10/site-packages/torch/_ops.py" source_line=756}
  %constant.176 = bf16[] constant(0), metadata={op_type="prim__Constant" op_name="prim__Constant" source_file="/usr/local/lib/python3.10/site-packages/torch/_ops.py" source_line=756}
  %reshape.177 = bf16[1,1]{1,0} reshape(bf16[] %constant.176), metadata={op_type="aten__expand" op_name="aten__expand" source_file="/usr/local/lib/python3.10/site-packages/torch/_ops.py" source_line=756}
  %broadcast.178 = bf16[1,1]{1,0} broadcast(bf16[1,1]{1,0} %reshape.177), dimensions={0,1}, metadata={op_type="aten__expand" op_name="aten__expand" source_file="/usr/local/lib/python3.10/site-packages/torch/_ops.py" source_line=756}
  %reshape.179 = bf16[] reshape(bf16[1,1]{1,0} %broadcast.178), metadata={op_type="aten__expand" op_name="aten__expand" source_file="/usr/local/lib/python3.10/site-packages/torch/_ops.py" source_line=756}
  %broadcast.180 = bf16[128,2048]{1,0} broadcast(bf16[] %reshape.179), dimensions={}, metadata={op_type="aten__expand" op_name="aten__expand" source_file="/usr/local/lib/python3.10/site-packages/torch/_ops.py" source_line=756}
  %reshape.181 = bf16[128,16,128]{2,1,0} reshape(bf16[128,2048]{1,0} %broadcast.180), metadata={op_type="aten__view" op_name="aten__view" source_file="/usr/local/lib/python3.10/site-packages/torch/_ops.py" source_line=756}
  %reshape.182 = bf16[128,2048]{1,0} reshape(bf16[128,16,128]{2,1,0} %reshape.181), metadata={op_type="aten__view" op_name="aten__view" source_file="/usr/local/lib/python3.10/site-packages/torch/_ops.py" source_line=756}
  %p14.174 = bf16[1024,2048]{1,0} parameter(14), metadata={op_type="xla__device_data" op_name="xla__device_data" source_file="/usr/local/lib/python3.10/site-packages/torch_xla/_dynamo/dynamo_bridge.py" source_line=355}
  %transpose.175 = bf16[2048,1024]{0,1} transpose(bf16[1024,2048]{1,0} %p14.174), dimensions={1,0}, metadata={op_type="aten__permute" op_name="aten__permute" source_file="/usr/local/lib/python3.10/site-packages/torch/_ops.py" source_line=756}
  %dot.183 = bf16[128,1024]{1,0} dot(bf16[128,2048]{1,0} %reshape.182, bf16[2048,1024]{0,1} %transpose.175), lhs_contracting_dims={1}, rhs_contracting_dims={0}, metadata={op_type="aten__mm" op_name="aten__mm" source_file="/usr/local/lib/python3.10/site-packages/torch/_ops.py" source_line=756}
  %convert.184 = f32[128,1024]{1,0} convert(bf16[128,1024]{1,0} %dot.183), metadata={op_type="xla__cast" op_name="xla__cast" source_file="/usr/local/lib/python3.10/site-packages/torch/_ops.py" source_line=756}
  %constant.104 = bf16[] constant(0), metadata={op_type="prim__Constant" op_name="prim__Constant" source_file="/usr/local/lib/python3.10/site-packages/torch/_ops.py" source_line=756}
  %reshape.105 = bf16[1,1]{1,0} reshape(bf16[] %constant.104), metadata={op_type="aten__expand" op_name="aten__expand" source_file="/usr/local/lib/python3.10/site-packages/torch/_ops.py" source_line=756}
  %broadcast.106 = bf16[1,1]{1,0} broadcast(bf16[1,1]{1,0} %reshape.105), dimensions={0,1}, metadata={op_type="aten__expand" op_name="aten__expand" source_file="/usr/local/lib/python3.10/site-packages/torch/_ops.py" source_line=756}
  %reshape.107 = bf16[] reshape(bf16[1,1]{1,0} %broadcast.106), metadata={op_type="aten__expand" op_name="aten__expand" source_file="/usr/local/lib/python3.10/site-packages/torch/_ops.py" source_line=756}
  %broadcast.108 = bf16[128,2048]{1,0} broadcast(bf16[] %reshape.107), dimensions={}, metadata={op_type="aten__expand" op_name="aten__expand" source_file="/usr/local/lib/python3.10/site-packages/torch/_ops.py" source_line=756}
  %reshape.109 = bf16[128,16,128]{2,1,0} reshape(bf16[128,2048]{1,0} %broadcast.108), metadata={op_type="aten__view" op_name="aten__view" source_file="/usr/local/lib/python3.10/site-packages/torch/_ops.py" source_line=756}
  %reshape.110 = bf16[128,2048]{1,0} reshape(bf16[128,16,128]{2,1,0} %reshape.109), metadata={op_type="aten__view" op_name="aten__view" source_file="/usr/local/lib/python3.10/site-packages/torch/_ops.py" source_line=756}
  %p10.102 = bf16[1024,2048]{1,0} parameter(10), metadata={op_type="xla__device_data" op_name="xla__device_data" source_file="/usr/local/lib/python3.10/site-packages/torch_xla/_dynamo/dynamo_bridge.py" source_line=355}
  %transpose.103 = bf16[2048,1024]{0,1} transpose(bf16[1024,2048]{1,0} %p10.102), dimensions={1,0}, metadata={op_type="aten__permute" op_name="aten__permute" source_file="/usr/local/lib/python3.10/site-packages/torch/_ops.py" source_line=756}
  %dot.111 = bf16[128,1024]{1,0} dot(bf16[128,2048]{1,0} %reshape.110, bf16[2048,1024]{0,1} %transpose.103), lhs_contracting_dims={1}, rhs_contracting_dims={0}, metadata={op_type="aten__mm" op_name="aten__mm" source_file="/usr/local/lib/python3.10/site-packages/torch/_ops.py" source_line=756}
  %convert.112 = f32[128,1024]{1,0} convert(bf16[128,1024]{1,0} %dot.111), metadata={op_type="xla__cast" op_name="xla__cast" source_file="/usr/local/lib/python3.10/site-packages/torch/_ops.py" source_line=756}
  %constant.32 = bf16[] constant(0), metadata={op_type="prim__Constant" op_name="prim__Constant" source_file="/usr/local/lib/python3.10/site-packages/torch/_ops.py" source_line=756}
  %reshape.33 = bf16[1,1]{1,0} reshape(bf16[] %constant.32), metadata={op_type="aten__expand" op_name="aten__expand" source_file="/usr/local/lib/python3.10/site-packages/torch/_ops.py" source_line=756}
  %broadcast.34 = bf16[1,1]{1,0} broadcast(bf16[1,1]{1,0} %reshape.33), dimensions={0,1}, metadata={op_type="aten__expand" op_name="aten__expand" source_file="/usr/local/lib/python3.10/site-packages/torch/_ops.py" source_line=756}
  %reshape.35 = bf16[] reshape(bf16[1,1]{1,0} %broadcast.34), metadata={op_type="aten__expand" op_name="aten__expand" source_file="/usr/local/lib/python3.10/site-packages/torch/_ops.py" source_line=756}
  %broadcast.36 = bf16[128,2048]{1,0} broadcast(bf16[] %reshape.35), dimensions={}, metadata={op_type="aten__expand" op_name="aten__expand" source_file="/usr/local/lib/python3.10/site-packages/torch/_ops.py" source_line=756}
  %reshape.37 = bf16[128,16,128]{2,1,0} reshape(bf16[128,2048]{1,0} %broadcast.36), metadata={op_type="aten__view" op_name="aten__view" source_file="/usr/local/lib/python3.10/site-packages/torch/_ops.py" source_line=756}
  %reshape.38 = bf16[128,2048]{1,0} reshape(bf16[128,16,128]{2,1,0} %reshape.37), metadata={op_type="aten__view" op_name="aten__view" source_file="/usr/local/lib/python3.10/site-packages/torch/_ops.py" source_line=756}
  %p6.30 = bf16[1024,2048]{1,0} parameter(6), metadata={op_type="xla__device_data" op_name="xla__device_data" source_file="/usr/local/lib/python3.10/site-packages/torch_xla/_dynamo/dynamo_bridge.py" source_line=355}
  %transpose.31 = bf16[2048,1024]{0,1} transpose(bf16[1024,2048]{1,0} %p6.30), dimensions={1,0}, metadata={op_type="aten__permute" op_name="aten__permute" source_file="/usr/local/lib/python3.10/site-packages/torch/_ops.py" source_line=756}
  %dot.39 = bf16[128,1024]{1,0} dot(bf16[128,2048]{1,0} %reshape.38, bf16[2048,1024]{0,1} %transpose.31), lhs_contracting_dims={1}, rhs_contracting_dims={0}, metadata={op_type="aten__mm" op_name="aten__mm" source_file="/usr/local/lib/python3.10/site-packages/torch/_ops.py" source_line=756}
  %convert.40 = f32[128,1024]{1,0} convert(bf16[128,1024]{1,0} %dot.39), metadata={op_type="xla__cast" op_name="xla__cast" source_file="/usr/local/lib/python3.10/site-packages/torch/_ops.py" source_line=756}
  %p5.26 = bf16[151936,1024]{1,0} parameter(5), metadata={op_type="xla__device_data" op_name="xla__device_data" source_file="/usr/local/lib/python3.10/site-packages/torch_xla/_dynamo/dynamo_bridge.py" source_line=355}
  %p4.24 = s32[128]{0} parameter(4), metadata={op_type="xla__device_data" op_name="xla__device_data" source_file="/usr/local/lib/python3.10/site-packages/torch_xla/_dynamo/dynamo_bridge.py" source_line=355}
  %convert.25 = s64[128]{0} convert(s32[128]{0} %p4.24), metadata={op_type="xla__cast" op_name="xla__cast" source_file="/usr/local/lib/python3.10/site-packages/torch/_ops.py" source_line=756}
  %convert.27 = u32[128]{0} convert(s64[128]{0} %convert.25), metadata={op_type="aten__index_select" op_name="aten__index_select" source_file="/usr/local/lib/python3.10/site-packages/torch/_ops.py" source_line=756}
  %gather.28 = bf16[128,1024]{1,0} gather(bf16[151936,1024]{1,0} %p5.26, u32[128]{0} %convert.27), offset_dims={1}, collapsed_slice_dims={0}, start_index_map={0}, index_vector_dim=1, slice_sizes={1,1024}, metadata={op_type="aten__index_select" op_name="aten__index_select" source_file="/usr/local/lib/python3.10/site-packages/torch/_ops.py" source_line=756}
  %convert.29 = f32[128,1024]{1,0} convert(bf16[128,1024]{1,0} %gather.28), metadata={op_type="xla__cast" op_name="xla__cast" source_file="/usr/local/lib/python3.10/site-packages/torch/_ops.py" source_line=756}
  %constant.23 = f32[] constant(1), metadata={op_type="prim__Constant" op_name="prim__Constant" source_file="/usr/local/lib/python3.10/site-packages/torch/_ops.py" source_line=756}
  %broadcast.41 = f32[128,1024]{1,0} broadcast(f32[] %constant.23), dimensions={}, metadata={op_type="aten__add" op_name="aten__add.1534/aten__add" source_file="/usr/local/lib/python3.10/site-packages/torch/_ops.py" source_line=756}
  %multiply.42 = f32[128,1024]{1,0} multiply(f32[128,1024]{1,0} %convert.29, f32[128,1024]{1,0} %broadcast.41), metadata={op_type="aten__add" op_name="aten__add.1534/aten__add" source_file="/usr/local/lib/python3.10/site-packages/torch/_ops.py" source_line=756}
  %add.43 = f32[128,1024]{1,0} add(f32[128,1024]{1,0} %convert.40, f32[128,1024]{1,0} %multiply.42), metadata={op_type="aten__add" op_name="aten__add.1534/aten__add" source_file="/usr/local/lib/python3.10/site-packages/torch/_ops.py" source_line=756}
  %constant.53 = f32[] constant(2), metadata={op_type="prim__Constant" op_name="prim__Constant" source_file="/usr/local/lib/python3.10/site-packages/torch/_ops.py" source_line=756}
  %broadcast.54 = f32[128,1024]{1,0} broadcast(f32[] %constant.53), dimensions={}, metadata={op_type="aten__pow" op_name="aten__pow" source_file="/usr/local/lib/python3.10/site-packages/torch/_ops.py" source_line=756}
  %power.55 = f32[128,1024]{1,0} power(f32[128,1024]{1,0} %add.43, f32[128,1024]{1,0} %broadcast.54), metadata={op_type="aten__pow" op_name="aten__pow" source_file="/usr/local/lib/python3.10/site-packages/torch/_ops.py" source_line=756}
  %constant.56 = f32[] constant(0), metadata={op_type="aten__mean" op_name="aten__mean" source_file="/usr/local/lib/python3.10/site-packages/torch/_ops.py" source_line=756}
  %reduce.62 = f32[128]{0} reduce(f32[128,1024]{1,0} %power.55, f32[] %constant.56), dimensions={1}, to_apply=%AddComputation.58, metadata={op_type="aten__mean" op_name="aten__mean" source_file="/usr/local/lib/python3.10/site-packages/torch/_ops.py" source_line=756}
  %constant.57 = s32[] constant(1024), metadata={op_type="aten__mean" op_name="aten__mean" source_file="/usr/local/lib/python3.10/site-packages/torch/_ops.py" source_line=756}
  %constant.63 = s32[] constant(0), metadata={op_type="aten__mean" op_name="aten__mean" source_file="/usr/local/lib/python3.10/site-packages/torch/_ops.py" source_line=756}
  %compare.68 = pred[] compare(s32[] %constant.57, s32[] %constant.63), direction=NE, metadata={op_type="aten__mean" op_name="aten__mean" source_file="/usr/local/lib/python3.10/site-packages/torch/_ops.py" source_line=756}
  %constant.64 = f32[] constant(1), metadata={op_type="aten__mean" op_name="aten__mean" source_file="/usr/local/lib/python3.10/site-packages/torch/_ops.py" source_line=756}
  %convert.66 = f32[] convert(s32[] %constant.57), metadata={op_type="aten__mean" op_name="aten__mean" source_file="/usr/local/lib/python3.10/site-packages/torch/_ops.py" source_line=756}
  %divide.67 = f32[] divide(f32[] %constant.64, f32[] %convert.66), metadata={op_type="aten__mean" op_name="aten__mean" source_file="/usr/local/lib/python3.10/site-packages/torch/_ops.py" source_line=756}
  %constant.65 = f32[] constant(nan), metadata={op_type="aten__mean" op_name="aten__mean" source_file="/usr/local/lib/python3.10/site-packages/torch/_ops.py" source_line=756}
  %select.69 = f32[] select(pred[] %compare.68, f32[] %divide.67, f32[] %constant.65), metadata={op_type="aten__mean" op_name="aten__mean" source_file="/usr/local/lib/python3.10/site-packages/torch/_ops.py" source_line=756}
  %broadcast.70 = f32[128]{0} broadcast(f32[] %select.69), dimensions={}, metadata={op_type="aten__mean" op_name="aten__mean" source_file="/usr/local/lib/python3.10/site-packages/torch/_ops.py" source_line=756}
  %multiply.71 = f32[128]{0} multiply(f32[128]{0} %reduce.62, f32[128]{0} %broadcast.70), metadata={op_type="aten__mean" op_name="aten__mean" source_file="/usr/local/lib/python3.10/site-packages/torch/_ops.py" source_line=756}
  %reshape.72 = f32[128,1]{1,0} reshape(f32[128]{0} %multiply.71), metadata={op_type="aten__mean" op_name="aten__mean" source_file="/usr/local/lib/python3.10/site-packages/torch/_ops.py" source_line=756}
  %convert.73 = f32[128,1]{1,0} convert(f32[128,1]{1,0} %reshape.72), metadata={op_type="aten__mean" op_name="aten__mean" source_file="/usr/local/lib/python3.10/site-packages/torch/_ops.py" source_line=756}
  %p1.4 = f32[] parameter(1), metadata={op_type="xla__device_data" op_name="xla__device_data" source_file="/usr/local/lib/python3.10/site-packages/torch/_ops.py" source_line=756}
  %constant.52 = f32[] constant(1), metadata={op_type="prim__Constant" op_name="prim__Constant" source_file="/usr/local/lib/python3.10/site-packages/torch/_ops.py" source_line=756}
  %multiply.74 = f32[] multiply(f32[] %p1.4, f32[] %constant.52), metadata={op_type="aten__add" op_name="aten__add.1535/aten__add" source_file="/usr/local/lib/python3.10/site-packages/torch/_ops.py" source_line=756}
  %broadcast.75 = f32[128,1]{1,0} broadcast(f32[] %multiply.74), dimensions={}, metadata={op_type="aten__add" op_name="aten__add.1535/aten__add" source_file="/usr/local/lib/python3.10/site-packages/torch/_ops.py" source_line=756}
  %add.76 = f32[128,1]{1,0} add(f32[128,1]{1,0} %convert.73, f32[128,1]{1,0} %broadcast.75), metadata={op_type="aten__add" op_name="aten__add.1535/aten__add" source_file="/usr/local/lib/python3.10/site-packages/torch/_ops.py" source_line=756}
  %rsqrt.77 = f32[128,1]{1,0} rsqrt(f32[128,1]{1,0} %add.76), metadata={op_type="aten__rsqrt" op_name="aten__rsqrt" source_file="/usr/local/lib/python3.10/site-packages/torch/_ops.py" source_line=756}
  %reshape.78 = f32[128]{0} reshape(f32[128,1]{1,0} %rsqrt.77), metadata={op_type="aten__mul" op_name="aten__mul.1536/aten__mul" source_file="/usr/local/lib/python3.10/site-packages/torch/_ops.py" source_line=756}
  %broadcast.79 = f32[128,1024]{1,0} broadcast(f32[128]{0} %reshape.78), dimensions={0}, metadata={op_type="aten__mul" op_name="aten__mul.1536/aten__mul" source_file="/usr/local/lib/python3.10/site-packages/torch/_ops.py" source_line=756}
  %multiply.80 = f32[128,1024]{1,0} multiply(f32[128,1024]{1,0} %add.43, f32[128,1024]{1,0} %broadcast.79), metadata={op_type="aten__mul" op_name="aten__mul.1536/aten__mul" source_file="/usr/local/lib/python3.10/site-packages/torch/_ops.py" source_line=756}
  %convert.81 = bf16[128,1024]{1,0} convert(f32[128,1024]{1,0} %multiply.80), metadata={op_type="xla__cast" op_name="xla__cast" source_file="/usr/local/lib/python3.10/site-packages/torch/_ops.py" source_line=756}
  %convert.82 = f32[128,1024]{1,0} convert(bf16[128,1024]{1,0} %convert.81), metadata={op_type="xla__cast" op_name="xla__cast" source_file="/usr/local/lib/python3.10/site-packages/torch/_ops.py" source_line=756}
  %p9.50 = bf16[1024]{0} parameter(9), metadata={op_type="xla__device_data" op_name="xla__device_data" source_file="/usr/local/lib/python3.10/site-packages/torch_xla/_dynamo/dynamo_bridge.py" source_line=355}
  %convert.51 = f32[1024]{0} convert(bf16[1024]{0} %p9.50), metadata={op_type="xla__cast" op_name="xla__cast" source_file="/usr/local/lib/python3.10/site-packages/torch/_ops.py" source_line=756}
  %broadcast.83 = f32[128,1024]{1,0} broadcast(f32[1024]{0} %convert.51), dimensions={1}, metadata={op_type="aten__mul" op_name="aten__mul.1537/aten__mul" source_file="/usr/local/lib/python3.10/site-packages/torch/_ops.py" source_line=756}
  %multiply.84 = f32[128,1024]{1,0} multiply(f32[128,1024]{1,0} %convert.82, f32[128,1024]{1,0} %broadcast.83), metadata={op_type="aten__mul" op_name="aten__mul.1537/aten__mul" source_file="/usr/local/lib/python3.10/site-packages/torch/_ops.py" source_line=756}
  %convert.85 = bf16[128,1024]{1,0} convert(f32[128,1024]{1,0} %multiply.84), metadata={op_type="xla__cast" op_name="xla__cast" source_file="/usr/local/lib/python3.10/site-packages/torch/_ops.py" source_line=756}
  %p8.48 = bf16[6144,1024]{1,0} parameter(8), metadata={op_type="xla__device_data" op_name="xla__device_data" source_file="/usr/local/lib/python3.10/site-packages/torch_xla/_dynamo/dynamo_bridge.py" source_line=355}
  %transpose.49 = bf16[1024,6144]{0,1} transpose(bf16[6144,1024]{1,0} %p8.48), dimensions={1,0}, metadata={op_type="aten__permute" op_name="aten__permute" source_file="/usr/local/lib/python3.10/site-packages/torch/_ops.py" source_line=756}
  %dot.86 = bf16[128,6144]{1,0} dot(bf16[128,1024]{1,0} %convert.85, bf16[1024,6144]{0,1} %transpose.49), lhs_contracting_dims={1}, rhs_contracting_dims={0}, metadata={op_type="aten__mm" op_name="aten__mm" source_file="/usr/local/lib/python3.10/site-packages/torch/_ops.py" source_line=756}
  %slice.89 = bf16[128,3072]{1,0} slice(bf16[128,6144]{1,0} %dot.86), slice={[0:128], [0:3072]}, metadata={op_type="xla__select" op_name="xla__select" source_file="/usr/local/lib/python3.10/site-packages/torch/_ops.py" source_line=756}
  %logistic.90 = bf16[128,3072]{1,0} logistic(bf16[128,3072]{1,0} %slice.89), metadata={op_type="aten__silu" op_name="aten__silu" source_file="/usr/local/lib/python3.10/site-packages/torch/_ops.py" source_line=756}
  %multiply.91 = bf16[128,3072]{1,0} multiply(bf16[128,3072]{1,0} %slice.89, bf16[128,3072]{1,0} %logistic.90), metadata={op_type="aten__silu" op_name="aten__silu" source_file="/usr/local/lib/python3.10/site-packages/torch/_ops.py" source_line=756}
  %convert.92 = f32[128,3072]{1,0} convert(bf16[128,3072]{1,0} %multiply.91), metadata={op_type="xla__cast" op_name="xla__cast" source_file="/usr/local/lib/python3.10/site-packages/torch/_ops.py" source_line=756}
  %slice.87 = bf16[128,3072]{1,0} slice(bf16[128,6144]{1,0} %dot.86), slice={[0:128], [3072:6144]}, metadata={op_type="xla__select" op_name="xla__select" source_file="/usr/local/lib/python3.10/site-packages/torch/_ops.py" source_line=756}
  %convert.88 = f32[128,3072]{1,0} convert(bf16[128,3072]{1,0} %slice.87), metadata={op_type="xla__cast" op_name="xla__cast" source_file="/usr/local/lib/python3.10/site-packages/torch/_ops.py" source_line=756}
  %multiply.93 = f32[128,3072]{1,0} multiply(f32[128,3072]{1,0} %convert.92, f32[128,3072]{1,0} %convert.88), metadata={op_type="aten__mul" op_name="aten__mul.1538/aten__mul" source_file="/usr/local/lib/python3.10/site-packages/torch/_ops.py" source_line=756}
  %convert.94 = bf16[128,3072]{1,0} convert(f32[128,3072]{1,0} %multiply.93), metadata={op_type="xla__cast" op_name="xla__cast" source_file="/usr/local/lib/python3.10/site-packages/torch/_ops.py" source_line=756}
  %p7.46 = bf16[1024,3072]{1,0} parameter(7), metadata={op_type="xla__device_data" op_name="xla__device_data" source_file="/usr/local/lib/python3.10/site-packages/torch_xla/_dynamo/dynamo_bridge.py" source_line=355}
  %transpose.47 = bf16[3072,1024]{0,1} transpose(bf16[1024,3072]{1,0} %p7.46), dimensions={1,0}, metadata={op_type="aten__permute" op_name="aten__permute" source_file="/usr/local/lib/python3.10/site-packages/torch/_ops.py" source_line=756}
  %dot.95 = bf16[128,1024]{1,0} dot(bf16[128,3072]{1,0} %convert.94, bf16[3072,1024]{0,1} %transpose.47), lhs_contracting_dims={1}, rhs_contracting_dims={0}, metadata={op_type="aten__mm" op_name="aten__mm" source_file="/usr/local/lib/python3.10/site-packages/torch/_ops.py" source_line=756}
  %convert.96 = f32[128,1024]{1,0} convert(bf16[128,1024]{1,0} %dot.95), metadata={op_type="xla__cast" op_name="xla__cast" source_file="/usr/local/lib/python3.10/site-packages/torch/_ops.py" source_line=756}
  %convert.44 = bf16[128,1024]{1,0} convert(f32[128,1024]{1,0} %add.43), metadata={op_type="xla__cast" op_name="xla__cast" source_file="/usr/local/lib/python3.10/site-packages/torch/_ops.py" source_line=756}
  %convert.45 = f32[128,1024]{1,0} convert(bf16[128,1024]{1,0} %convert.44), metadata={op_type="xla__cast" op_name="xla__cast" source_file="/usr/local/lib/python3.10/site-packages/torch/_ops.py" source_line=756}
  %constant.22 = f32[] constant(1), metadata={op_type="prim__Constant" op_name="prim__Constant" source_file="/usr/local/lib/python3.10/site-packages/torch/_ops.py" source_line=756}
  %broadcast.97 = f32[128,1024]{1,0} broadcast(f32[] %constant.22), dimensions={}, metadata={op_type="aten__add" op_name="aten__add.1539/aten__add" source_file="/usr/local/lib/python3.10/site-packages/torch/_ops.py" source_line=756}
  %multiply.98 = f32[128,1024]{1,0} multiply(f32[128,1024]{1,0} %convert.45, f32[128,1024]{1,0} %broadcast.97), metadata={op_type="aten__add" op_name="aten__add.1539/aten__add" source_file="/usr/local/lib/python3.10/site-packages/torch/_ops.py" source_line=756}
  %add.99 = f32[128,1024]{1,0} add(f32[128,1024]{1,0} %convert.96, f32[128,1024]{1,0} %multiply.98), metadata={op_type="aten__add" op_name="aten__add.1539/aten__add" source_file="/usr/local/lib/python3.10/site-packages/torch/_ops.py" source_line=756}
  %convert.100 = bf16[128,1024]{1,0} convert(f32[128,1024]{1,0} %add.99), metadata={op_type="xla__cast" op_name="xla__cast" source_file="/usr/local/lib/python3.10/site-packages/torch/_ops.py" source_line=756}
  %convert.101 = f32[128,1024]{1,0} convert(bf16[128,1024]{1,0} %convert.100), metadata={op_type="xla__cast" op_name="xla__cast" source_file="/usr/local/lib/python3.10/site-packages/torch/_ops.py" source_line=756}
  %constant.21 = f32[] constant(1), metadata={op_type="prim__Constant" op_name="prim__Constant" source_file="/usr/local/lib/python3.10/site-packages/torch/_ops.py" source_line=756}
  %broadcast.113 = f32[128,1024]{1,0} broadcast(f32[] %constant.21), dimensions={}, metadata={op_type="aten__add" op_name="aten__add.1552/aten__add" source_file="/usr/local/lib/python3.10/site-packages/torch/_ops.py" source_line=756}
  %multiply.114 = f32[128,1024]{1,0} multiply(f32[128,1024]{1,0} %convert.101, f32[128,1024]{1,0} %broadcast.113), metadata={op_type="aten__add" op_name="aten__add.1552/aten__add" source_file="/usr/local/lib/python3.10/site-packages/torch/_ops.py" source_line=756}
  %add.115 = f32[128,1024]{1,0} add(f32[128,1024]{1,0} %convert.112, f32[128,1024]{1,0} %multiply.114), metadata={op_type="aten__add" op_name="aten__add.1552/aten__add" source_file="/usr/local/lib/python3.10/site-packages/torch/_ops.py" source_line=756}
  %constant.125 = f32[] constant(2), metadata={op_type="prim__Constant" op_name="prim__Constant" source_file="/usr/local/lib/python3.10/site-packages/torch/_ops.py" source_line=756}
  %broadcast.126 = f32[128,1024]{1,0} broadcast(f32[] %constant.125), dimensions={}, metadata={op_type="aten__pow" op_name="aten__pow" source_file="/usr/local/lib/python3.10/site-packages/torch/_ops.py" source_line=756}
  %power.127 = f32[128,1024]{1,0} power(f32[128,1024]{1,0} %add.115, f32[128,1024]{1,0} %broadcast.126), metadata={op_type="aten__pow" op_name="aten__pow" source_file="/usr/local/lib/python3.10/site-packages/torch/_ops.py" source_line=756}
  %constant.128 = f32[] constant(0), metadata={op_type="aten__mean" op_name="aten__mean" source_file="/usr/local/lib/python3.10/site-packages/torch/_ops.py" source_line=756}
  %reduce.134 = f32[128]{0} reduce(f32[128,1024]{1,0} %power.127, f32[] %constant.128), dimensions={1}, to_apply=%AddComputation.130, metadata={op_type="aten__mean" op_name="aten__mean" source_file="/usr/local/lib/python3.10/site-packages/torch/_ops.py" source_line=756}
  %constant.129 = s32[] constant(1024), metadata={op_type="aten__mean" op_name="aten__mean" source_file="/usr/local/lib/python3.10/site-packages/torch/_ops.py" source_line=756}
  %constant.135 = s32[] constant(0), metadata={op_type="aten__mean" op_name="aten__mean" source_file="/usr/local/lib/python3.10/site-packages/torch/_ops.py" source_line=756}
  %compare.140 = pred[] compare(s32[] %constant.129, s32[] %constant.135), direction=NE, metadata={op_type="aten__mean" op_name="aten__mean" source_file="/usr/local/lib/python3.10/site-packages/torch/_ops.py" source_line=756}
  %constant.136 = f32[] constant(1), metadata={op_type="aten__mean" op_name="aten__mean" source_file="/usr/local/lib/python3.10/site-packages/torch/_ops.py" source_line=756}
  %convert.138 = f32[] convert(s32[] %constant.129), metadata={op_type="aten__mean" op_name="aten__mean" source_file="/usr/local/lib/python3.10/site-packages/torch/_ops.py" source_line=756}
  %divide.139 = f32[] divide(f32[] %constant.136, f32[] %convert.138), metadata={op_type="aten__mean" op_name="aten__mean" source_file="/usr/local/lib/python3.10/site-packages/torch/_ops.py" source_line=756}
  %constant.137 = f32[] constant(nan), metadata={op_type="aten__mean" op_name="aten__mean" source_file="/usr/local/lib/python3.10/site-packages/torch/_ops.py" source_line=756}
  %select.141 = f32[] select(pred[] %compare.140, f32[] %divide.139, f32[] %constant.137), metadata={op_type="aten__mean" op_name="aten__mean" source_file="/usr/local/lib/python3.10/site-packages/torch/_ops.py" source_line=756}
  %broadcast.142 = f32[128]{0} broadcast(f32[] %select.141), dimensions={}, metadata={op_type="aten__mean" op_name="aten__mean" source_file="/usr/local/lib/python3.10/site-packages/torch/_ops.py" source_line=756}
  %multiply.143 = f32[128]{0} multiply(f32[128]{0} %reduce.134, f32[128]{0} %broadcast.142), metadata={op_type="aten__mean" op_name="aten__mean" source_file="/usr/local/lib/python3.10/site-packages/torch/_ops.py" source_line=756}
  %reshape.144 = f32[128,1]{1,0} reshape(f32[128]{0} %multiply.143), metadata={op_type="aten__mean" op_name="aten__mean" source_file="/usr/local/lib/python3.10/site-packages/torch/_ops.py" source_line=756}
  %convert.145 = f32[128,1]{1,0} convert(f32[128,1]{1,0} %reshape.144), metadata={op_type="aten__mean" op_name="aten__mean" source_file="/usr/local/lib/python3.10/site-packages/torch/_ops.py" source_line=756}
  %constant.124 = f32[] constant(1), metadata={op_type="prim__Constant" op_name="prim__Constant" source_file="/usr/local/lib/python3.10/site-packages/torch/_ops.py" source_line=756}
  %multiply.146 = f32[] multiply(f32[] %p1.4, f32[] %constant.124), metadata={op_type="aten__add" op_name="aten__add.1553/aten__add" source_file="/usr/local/lib/python3.10/site-packages/torch/_ops.py" source_line=756}
  %broadcast.147 = f32[128,1]{1,0} broadcast(f32[] %multiply.146), dimensions={}, metadata={op_type="aten__add" op_name="aten__add.1553/aten__add" source_file="/usr/local/lib/python3.10/site-packages/torch/_ops.py" source_line=756}
  %add.148 = f32[128,1]{1,0} add(f32[128,1]{1,0} %convert.145, f32[128,1]{1,0} %broadcast.147), metadata={op_type="aten__add" op_name="aten__add.1553/aten__add" source_file="/usr/local/lib/python3.10/site-packages/torch/_ops.py" source_line=756}
  %rsqrt.149 = f32[128,1]{1,0} rsqrt(f32[128,1]{1,0} %add.148), metadata={op_type="aten__rsqrt" op_name="aten__rsqrt" source_file="/usr/local/lib/python3.10/site-packages/torch/_ops.py" source_line=756}
  %reshape.150 = f32[128]{0} reshape(f32[128,1]{1,0} %rsqrt.149), metadata={op_type="aten__mul" op_name="aten__mul.1554/aten__mul" source_file="/usr/local/lib/python3.10/site-packages/torch/_ops.py" source_line=756}
  %broadcast.151 = f32[128,1024]{1,0} broadcast(f32[128]{0} %reshape.150), dimensions={0}, metadata={op_type="aten__mul" op_name="aten__mul.1554/aten__mul" source_file="/usr/local/lib/python3.10/site-packages/torch/_ops.py" source_line=756}
  %multiply.152 = f32[128,1024]{1,0} multiply(f32[128,1024]{1,0} %add.115, f32[128,1024]{1,0} %broadcast.151), metadata={op_type="aten__mul" op_name="aten__mul.1554/aten__mul" source_file="/usr/local/lib/python3.10/site-packages/torch/_ops.py" source_line=756}
  %convert.153 = bf16[128,1024]{1,0} convert(f32[128,1024]{1,0} %multiply.152), metadata={op_type="xla__cast" op_name="xla__cast" source_file="/usr/local/lib/python3.10/site-packages/torch/_ops.py" source_line=756}
  %convert.154 = f32[128,1024]{1,0} convert(bf16[128,1024]{1,0} %convert.153), metadata={op_type="xla__cast" op_name="xla__cast" source_file="/usr/local/lib/python3.10/site-packages/torch/_ops.py" source_line=756}
  %p13.122 = bf16[1024]{0} parameter(13), metadata={op_type="xla__device_data" op_name="xla__device_data" source_file="/usr/local/lib/python3.10/site-packages/torch_xla/_dynamo/dynamo_bridge.py" source_line=355}
  %convert.123 = f32[1024]{0} convert(bf16[1024]{0} %p13.122), metadata={op_type="xla__cast" op_name="xla__cast" source_file="/usr/local/lib/python3.10/site-packages/torch/_ops.py" source_line=756}
  %broadcast.155 = f32[128,1024]{1,0} broadcast(f32[1024]{0} %convert.123), dimensions={1}, metadata={op_type="aten__mul" op_name="aten__mul.1555/aten__mul" source_file="/usr/local/lib/python3.10/site-packages/torch/_ops.py" source_line=756}
  %multiply.156 = f32[128,1024]{1,0} multiply(f32[128,1024]{1,0} %convert.154, f32[128,1024]{1,0} %broadcast.155), metadata={op_type="aten__mul" op_name="aten__mul.1555/aten__mul" source_file="/usr/local/lib/python3.10/site-packages/torch/_ops.py" source_line=756}
  %convert.157 = bf16[128,1024]{1,0} convert(f32[128,1024]{1,0} %multiply.156), metadata={op_type="xla__cast" op_name="xla__cast" source_file="/usr/local/lib/python3.10/site-packages/torch/_ops.py" source_line=756}
  %p12.120 = bf16[6144,1024]{1,0} parameter(12), metadata={op_type="xla__device_data" op_name="xla__device_data" source_file="/usr/local/lib/python3.10/site-packages/torch_xla/_dynamo/dynamo_bridge.py" source_line=355}
  %transpose.121 = bf16[1024,6144]{0,1} transpose(bf16[6144,1024]{1,0} %p12.120), dimensions={1,0}, metadata={op_type="aten__permute" op_name="aten__permute" source_file="/usr/local/lib/python3.10/site-packages/torch/_ops.py" source_line=756}
  %dot.158 = bf16[128,6144]{1,0} dot(bf16[128,1024]{1,0} %convert.157, bf16[1024,6144]{0,1} %transpose.121), lhs_contracting_dims={1}, rhs_contracting_dims={0}, metadata={op_type="aten__mm" op_name="aten__mm" source_file="/usr/local/lib/python3.10/site-packages/torch/_ops.py" source_line=756}
  %slice.161 = bf16[128,3072]{1,0} slice(bf16[128,6144]{1,0} %dot.158), slice={[0:128], [0:3072]}, metadata={op_type="xla__select" op_name="xla__select" source_file="/usr/local/lib/python3.10/site-packages/torch/_ops.py" source_line=756}
  %logistic.162 = bf16[128,3072]{1,0} logistic(bf16[128,3072]{1,0} %slice.161), metadata={op_type="aten__silu" op_name="aten__silu" source_file="/usr/local/lib/python3.10/site-packages/torch/_ops.py" source_line=756}
  %multiply.163 = bf16[128,3072]{1,0} multiply(bf16[128,3072]{1,0} %slice.161, bf16[128,3072]{1,0} %logistic.162), metadata={op_type="aten__silu" op_name="aten__silu" source_file="/usr/local/lib/python3.10/site-packages/torch/_ops.py" source_line=756}
  %convert.164 = f32[128,3072]{1,0} convert(bf16[128,3072]{1,0} %multiply.163), metadata={op_type="xla__cast" op_name="xla__cast" source_file="/usr/local/lib/python3.10/site-packages/torch/_ops.py" source_line=756}
  %slice.159 = bf16[128,3072]{1,0} slice(bf16[128,6144]{1,0} %dot.158), slice={[0:128], [3072:6144]}, metadata={op_type="xla__select" op_name="xla__select" source_file="/usr/local/lib/python3.10/site-packages/torch/_ops.py" source_line=756}
  %convert.160 = f32[128,3072]{1,0} convert(bf16[128,3072]{1,0} %slice.159), metadata={op_type="xla__cast" op_name="xla__cast" source_file="/usr/local/lib/python3.10/site-packages/torch/_ops.py" source_line=756}
  %multiply.165 = f32[128,3072]{1,0} multiply(f32[128,3072]{1,0} %convert.164, f32[128,3072]{1,0} %convert.160), metadata={op_type="aten__mul" op_name="aten__mul.1556/aten__mul" source_file="/usr/local/lib/python3.10/site-packages/torch/_ops.py" source_line=756}
  %convert.166 = bf16[128,3072]{1,0} convert(f32[128,3072]{1,0} %multiply.165), metadata={op_type="xla__cast" op_name="xla__cast" source_file="/usr/local/lib/python3.10/site-packages/torch/_ops.py" source_line=756}
  %p11.118 = bf16[1024,3072]{1,0} parameter(11), metadata={op_type="xla__device_data" op_name="xla__device_data" source_file="/usr/local/lib/python3.10/site-packages/torch_xla/_dynamo/dynamo_bridge.py" source_line=355}
  %transpose.119 = bf16[3072,1024]{0,1} transpose(bf16[1024,3072]{1,0} %p11.118), dimensions={1,0}, metadata={op_type="aten__permute" op_name="aten__permute" source_file="/usr/local/lib/python3.10/site-packages/torch/_ops.py" source_line=756}
  %dot.167 = bf16[128,1024]{1,0} dot(bf16[128,3072]{1,0} %convert.166, bf16[3072,1024]{0,1} %transpose.119), lhs_contracting_dims={1}, rhs_contracting_dims={0}, metadata={op_type="aten__mm" op_name="aten__mm" source_file="/usr/local/lib/python3.10/site-packages/torch/_ops.py" source_line=756}
  %convert.168 = f32[128,1024]{1,0} convert(bf16[128,1024]{1,0} %dot.167), metadata={op_type="xla__cast" op_name="xla__cast" source_file="/usr/local/lib/python3.10/site-packages/torch/_ops.py" source_line=756}
  %convert.116 = bf16[128,1024]{1,0} convert(f32[128,1024]{1,0} %add.115), metadata={op_type="xla__cast" op_name="xla__cast" source_file="/usr/local/lib/python3.10/site-packages/torch/_ops.py" source_line=756}
  %convert.117 = f32[128,1024]{1,0} convert(bf16[128,1024]{1,0} %convert.116), metadata={op_type="xla__cast" op_name="xla__cast" source_file="/usr/local/lib/python3.10/site-packages/torch/_ops.py" source_line=756}
  %constant.20 = f32[] constant(1), metadata={op_type="prim__Constant" op_name="prim__Constant" source_file="/usr/local/lib/python3.10/site-packages/torch/_ops.py" source_line=756}
  %broadcast.169 = f32[128,1024]{1,0} broadcast(f32[] %constant.20), dimensions={}, metadata={op_type="aten__add" op_name="aten__add.1557/aten__add" source_file="/usr/local/lib/python3.10/site-packages/torch/_ops.py" source_line=756}
  %multiply.170 = f32[128,1024]{1,0} multiply(f32[128,1024]{1,0} %convert.117, f32[128,1024]{1,0} %broadcast.169), metadata={op_type="aten__add" op_name="aten__add.1557/aten__add" source_file="/usr/local/lib/python3.10/site-packages/torch/_ops.py" source_line=756}
  %add.171 = f32[128,1024]{1,0} add(f32[128,1024]{1,0} %convert.168, f32[128,1024]{1,0} %multiply.170), metadata={op_type="aten__add" op_name="aten__add.1557/aten__add" source_file="/usr/local/lib/python3.10/site-packages/torch/_ops.py" source_line=756}
  %convert.172 = bf16[128,1024]{1,0} convert(f32[128,1024]{1,0} %add.171), metadata={op_type="xla__cast" op_name="xla__cast" source_file="/usr/local/lib/python3.10/site-packages/torch/_ops.py" source_line=756}
  %convert.173 = f32[128,1024]{1,0} convert(bf16[128,1024]{1,0} %convert.172), metadata={op_type="xla__cast" op_name="xla__cast" source_file="/usr/local/lib/python3.10/site-packages/torch/_ops.py" source_line=756}
  %constant.19 = f32[] constant(1), metadata={op_type="prim__Constant" op_name="prim__Constant" source_file="/usr/local/lib/python3.10/site-packages/torch/_ops.py" source_line=756}
  %broadcast.185 = f32[128,1024]{1,0} broadcast(f32[] %constant.19), dimensions={}, metadata={op_type="aten__add" op_name="aten__add.1570/aten__add" source_file="/usr/local/lib/python3.10/site-packages/torch/_ops.py" source_line=756}
  %multiply.186 = f32[128,1024]{1,0} multiply(f32[128,1024]{1,0} %convert.173, f32[128,1024]{1,0} %broadcast.185), metadata={op_type="aten__add" op_name="aten__add.1570/aten__add" source_file="/usr/local/lib/python3.10/site-packages/torch/_ops.py" source_line=756}
  %add.187 = f32[128,1024]{1,0} add(f32[128,1024]{1,0} %convert.184, f32[128,1024]{1,0} %multiply.186), metadata={op_type="aten__add" op_name="aten__add.1570/aten__add" source_file="/usr/local/lib/python3.10/site-packages/torch/_ops.py" source_line=756}
  %constant.197 = f32[] constant(2), metadata={op_type="prim__Constant" op_name="prim__Constant" source_file="/usr/local/lib/python3.10/site-packages/torch/_ops.py" source_line=756}
  %broadcast.198 = f32[128,1024]{1,0} broadcast(f32[] %constant.197), dimensions={}, metadata={op_type="aten__pow" op_name="aten__pow" source_file="/usr/local/lib/python3.10/site-packages/torch/_ops.py" source_line=756}
  %power.199 = f32[128,1024]{1,0} power(f32[128,1024]{1,0} %add.187, f32[128,1024]{1,0} %broadcast.198), metadata={op_type="aten__pow" op_name="aten__pow" source_file="/usr/local/lib/python3.10/site-packages/torch/_ops.py" source_line=756}
  %constant.200 = f32[] constant(0), metadata={op_type="aten__mean" op_name="aten__mean" source_file="/usr/local/lib/python3.10/site-packages/torch/_ops.py" source_line=756}
  %reduce.206 = f32[128]{0} reduce(f32[128,1024]{1,0} %power.199, f32[] %constant.200), dimensions={1}, to_apply=%AddComputation.202, metadata={op_type="aten__mean" op_name="aten__mean" source_file="/usr/local/lib/python3.10/site-packages/torch/_ops.py" source_line=756}
  %constant.201 = s32[] constant(1024), metadata={op_type="aten__mean" op_name="aten__mean" source_file="/usr/local/lib/python3.10/site-packages/torch/_ops.py" source_line=756}
  %constant.207 = s32[] constant(0), metadata={op_type="aten__mean" op_name="aten__mean" source_file="/usr/local/lib/python3.10/site-packages/torch/_ops.py" source_line=756}
  %compare.212 = pred[] compare(s32[] %constant.201, s32[] %constant.207), direction=NE, metadata={op_type="aten__mean" op_name="aten__mean" source_file="/usr/local/lib/python3.10/site-packages/torch/_ops.py" source_line=756}
  %constant.208 = f32[] constant(1), metadata={op_type="aten__mean" op_name="aten__mean" source_file="/usr/local/lib/python3.10/site-packages/torch/_ops.py" source_line=756}
  %convert.210 = f32[] convert(s32[] %constant.201), metadata={op_type="aten__mean" op_name="aten__mean" source_file="/usr/local/lib/python3.10/site-packages/torch/_ops.py" source_line=756}
  %divide.211 = f32[] divide(f32[] %constant.208, f32[] %convert.210), metadata={op_type="aten__mean" op_name="aten__mean" source_file="/usr/local/lib/python3.10/site-packages/torch/_ops.py" source_line=756}
  %constant.209 = f32[] constant(nan), metadata={op_type="aten__mean" op_name="aten__mean" source_file="/usr/local/lib/python3.10/site-packages/torch/_ops.py" source_line=756}
  %select.213 = f32[] select(pred[] %compare.212, f32[] %divide.211, f32[] %constant.209), metadata={op_type="aten__mean" op_name="aten__mean" source_file="/usr/local/lib/python3.10/site-packages/torch/_ops.py" source_line=756}
  %broadcast.214 = f32[128]{0} broadcast(f32[] %select.213), dimensions={}, metadata={op_type="aten__mean" op_name="aten__mean" source_file="/usr/local/lib/python3.10/site-packages/torch/_ops.py" source_line=756}
  %multiply.215 = f32[128]{0} multiply(f32[128]{0} %reduce.206, f32[128]{0} %broadcast.214), metadata={op_type="aten__mean" op_name="aten__mean" source_file="/usr/local/lib/python3.10/site-packages/torch/_ops.py" source_line=756}
  %reshape.216 = f32[128,1]{1,0} reshape(f32[128]{0} %multiply.215), metadata={op_type="aten__mean" op_name="aten__mean" source_file="/usr/local/lib/python3.10/site-packages/torch/_ops.py" source_line=756}
  %convert.217 = f32[128,1]{1,0} convert(f32[128,1]{1,0} %reshape.216), metadata={op_type="aten__mean" op_name="aten__mean" source_file="/usr/local/lib/python3.10/site-packages/torch/_ops.py" source_line=756}
  %constant.196 = f32[] constant(1), metadata={op_type="prim__Constant" op_name="prim__Constant" source_file="/usr/local/lib/python3.10/site-packages/torch/_ops.py" source_line=756}
  %multiply.218 = f32[] multiply(f32[] %p1.4, f32[] %constant.196), metadata={op_type="aten__add" op_name="aten__add.1571/aten__add" source_file="/usr/local/lib/python3.10/site-packages/torch/_ops.py" source_line=756}
  %broadcast.219 = f32[128,1]{1,0} broadcast(f32[] %multiply.218), dimensions={}, metadata={op_type="aten__add" op_name="aten__add.1571/aten__add" source_file="/usr/local/lib/python3.10/site-packages/torch/_ops.py" source_line=756}
  %add.220 = f32[128,1]{1,0} add(f32[128,1]{1,0} %convert.217, f32[128,1]{1,0} %broadcast.219), metadata={op_type="aten__add" op_name="aten__add.1571/aten__add" source_file="/usr/local/lib/python3.10/site-packages/torch/_ops.py" source_line=756}
  %rsqrt.221 = f32[128,1]{1,0} rsqrt(f32[128,1]{1,0} %add.220), metadata={op_type="aten__rsqrt" op_name="aten__rsqrt" source_file="/usr/local/lib/python3.10/site-packages/torch/_ops.py" source_line=756}
  %reshape.222 = f32[128]{0} reshape(f32[128,1]{1,0} %rsqrt.221), metadata={op_type="aten__mul" op_name="aten__mul.1572/aten__mul" source_file="/usr/local/lib/python3.10/site-packages/torch/_ops.py" source_line=756}
  %broadcast.223 = f32[128,1024]{1,0} broadcast(f32[128]{0} %reshape.222), dimensions={0}, metadata={op_type="aten__mul" op_name="aten__mul.1572/aten__mul" source_file="/usr/local/lib/python3.10/site-packages/torch/_ops.py" source_line=756}
  %multiply.224 = f32[128,1024]{1,0} multiply(f32[128,1024]{1,0} %add.187, f32[128,1024]{1,0} %broadcast.223), metadata={op_type="aten__mul" op_name="aten__mul.1572/aten__mul" source_file="/usr/local/lib/python3.10/site-packages/torch/_ops.py" source_line=756}
  %convert.225 = bf16[128,1024]{1,0} convert(f32[128,1024]{1,0} %multiply.224), metadata={op_type="xla__cast" op_name="xla__cast" source_file="/usr/local/lib/python3.10/site-packages/torch/_ops.py" source_line=756}
  %convert.226 = f32[128,1024]{1,0} convert(bf16[128,1024]{1,0} %convert.225), metadata={op_type="xla__cast" op_name="xla__cast" source_file="/usr/local/lib/python3.10/site-packages/torch/_ops.py" source_line=756}
  %p17.194 = bf16[1024]{0} parameter(17), metadata={op_type="xla__device_data" op_name="xla__device_data" source_file="/usr/local/lib/python3.10/site-packages/torch_xla/_dynamo/dynamo_bridge.py" source_line=355}
  %convert.195 = f32[1024]{0} convert(bf16[1024]{0} %p17.194), metadata={op_type="xla__cast" op_name="xla__cast" source_file="/usr/local/lib/python3.10/site-packages/torch/_ops.py" source_line=756}
  %broadcast.227 = f32[128,1024]{1,0} broadcast(f32[1024]{0} %convert.195), dimensions={1}, metadata={op_type="aten__mul" op_name="aten__mul.1573/aten__mul" source_file="/usr/local/lib/python3.10/site-packages/torch/_ops.py" source_line=756}
  %multiply.228 = f32[128,1024]{1,0} multiply(f32[128,1024]{1,0} %convert.226, f32[128,1024]{1,0} %broadcast.227), metadata={op_type="aten__mul" op_name="aten__mul.1573/aten__mul" source_file="/usr/local/lib/python3.10/site-packages/torch/_ops.py" source_line=756}
  %convert.229 = bf16[128,1024]{1,0} convert(f32[128,1024]{1,0} %multiply.228), metadata={op_type="xla__cast" op_name="xla__cast" source_file="/usr/local/lib/python3.10/site-packages/torch/_ops.py" source_line=756}
  %p16.192 = bf16[6144,1024]{1,0} parameter(16), metadata={op_type="xla__device_data" op_name="xla__device_data" source_file="/usr/local/lib/python3.10/site-packages/torch_xla/_dynamo/dynamo_bridge.py" source_line=355}
  %transpose.193 = bf16[1024,6144]{0,1} transpose(bf16[6144,1024]{1,0} %p16.192), dimensions={1,0}, metadata={op_type="aten__permute" op_name="aten__permute" source_file="/usr/local/lib/python3.10/site-packages/torch/_ops.py" source_line=756}
  %dot.230 = bf16[128,6144]{1,0} dot(bf16[128,1024]{1,0} %convert.229, bf16[1024,6144]{0,1} %transpose.193), lhs_contracting_dims={1}, rhs_contracting_dims={0}, metadata={op_type="aten__mm" op_name="aten__mm" source_file="/usr/local/lib/python3.10/site-packages/torch/_ops.py" source_line=756}
  %slice.233 = bf16[128,3072]{1,0} slice(bf16[128,6144]{1,0} %dot.230), slice={[0:128], [0:3072]}, metadata={op_type="xla__select" op_name="xla__select" source_file="/usr/local/lib/python3.10/site-packages/torch/_ops.py" source_line=756}
  %logistic.234 = bf16[128,3072]{1,0} logistic(bf16[128,3072]{1,0} %slice.233), metadata={op_type="aten__silu" op_name="aten__silu" source_file="/usr/local/lib/python3.10/site-packages/torch/_ops.py" source_line=756}
  %multiply.235 = bf16[128,3072]{1,0} multiply(bf16[128,3072]{1,0} %slice.233, bf16[128,3072]{1,0} %logistic.234), metadata={op_type="aten__silu" op_name="aten__silu" source_file="/usr/local/lib/python3.10/site-packages/torch/_ops.py" source_line=756}
  %convert.236 = f32[128,3072]{1,0} convert(bf16[128,3072]{1,0} %multiply.235), metadata={op_type="xla__cast" op_name="xla__cast" source_file="/usr/local/lib/python3.10/site-packages/torch/_ops.py" source_line=756}
  %slice.231 = bf16[128,3072]{1,0} slice(bf16[128,6144]{1,0} %dot.230), slice={[0:128], [3072:6144]}, metadata={op_type="xla__select" op_name="xla__select" source_file="/usr/local/lib/python3.10/site-packages/torch/_ops.py" source_line=756}
  %convert.232 = f32[128,3072]{1,0} convert(bf16[128,3072]{1,0} %slice.231), metadata={op_type="xla__cast" op_name="xla__cast" source_file="/usr/local/lib/python3.10/site-packages/torch/_ops.py" source_line=756}
  %multiply.237 = f32[128,3072]{1,0} multiply(f32[128,3072]{1,0} %convert.236, f32[128,3072]{1,0} %convert.232), metadata={op_type="aten__mul" op_name="aten__mul.1574/aten__mul" source_file="/usr/local/lib/python3.10/site-packages/torch/_ops.py" source_line=756}
  %convert.238 = bf16[128,3072]{1,0} convert(f32[128,3072]{1,0} %multiply.237), metadata={op_type="xla__cast" op_name="xla__cast" source_file="/usr/local/lib/python3.10/site-packages/torch/_ops.py" source_line=756}
  %p15.190 = bf16[1024,3072]{1,0} parameter(15), metadata={op_type="xla__device_data" op_name="xla__device_data" source_file="/usr/local/lib/python3.10/site-packages/torch_xla/_dynamo/dynamo_bridge.py" source_line=355}
  %transpose.191 = bf16[3072,1024]{0,1} transpose(bf16[1024,3072]{1,0} %p15.190), dimensions={1,0}, metadata={op_type="aten__permute" op_name="aten__permute" source_file="/usr/local/lib/python3.10/site-packages/torch/_ops.py" source_line=756}
  %dot.239 = bf16[128,1024]{1,0} dot(bf16[128,3072]{1,0} %convert.238, bf16[3072,1024]{0,1} %transpose.191), lhs_contracting_dims={1}, rhs_contracting_dims={0}, metadata={op_type="aten__mm" op_name="aten__mm" source_file="/usr/local/lib/python3.10/site-packages/torch/_ops.py" source_line=756}
  %convert.240 = f32[128,1024]{1,0} convert(bf16[128,1024]{1,0} %dot.239), metadata={op_type="xla__cast" op_name="xla__cast" source_file="/usr/local/lib/python3.10/site-packages/torch/_ops.py" source_line=756}
  %convert.188 = bf16[128,1024]{1,0} convert(f32[128,1024]{1,0} %add.187), metadata={op_type="xla__cast" op_name="xla__cast" source_file="/usr/local/lib/python3.10/site-packages/torch/_ops.py" source_line=756}
  %convert.189 = f32[128,1024]{1,0} convert(bf16[128,1024]{1,0} %convert.188), metadata={op_type="xla__cast" op_name="xla__cast" source_file="/usr/local/lib/python3.10/site-packages/torch/_ops.py" source_line=756}
  %constant.18 = f32[] constant(1), metadata={op_type="prim__Constant" op_name="prim__Constant" source_file="/usr/local/lib/python3.10/site-packages/torch/_ops.py" source_line=756}
  %broadcast.241 = f32[128,1024]{1,0} broadcast(f32[] %constant.18), dimensions={}, metadata={op_type="aten__add" op_name="aten__add.1575/aten__add" source_file="/usr/local/lib/python3.10/site-packages/torch/_ops.py" source_line=756}
  %multiply.242 = f32[128,1024]{1,0} multiply(f32[128,1024]{1,0} %convert.189, f32[128,1024]{1,0} %broadcast.241), metadata={op_type="aten__add" op_name="aten__add.1575/aten__add" source_file="/usr/local/lib/python3.10/site-packages/torch/_ops.py" source_line=756}
  %add.243 = f32[128,1024]{1,0} add(f32[128,1024]{1,0} %convert.240, f32[128,1024]{1,0} %multiply.242), metadata={op_type="aten__add" op_name="aten__add.1575/aten__add" source_file="/usr/local/lib/python3.10/site-packages/torch/_ops.py" source_line=756}
  %convert.244 = bf16[128,1024]{1,0} convert(f32[128,1024]{1,0} %add.243), metadata={op_type="xla__cast" op_name="xla__cast" source_file="/usr/local/lib/python3.10/site-packages/torch/_ops.py" source_line=756}
  %convert.245 = f32[128,1024]{1,0} convert(bf16[128,1024]{1,0} %convert.244), metadata={op_type="xla__cast" op_name="xla__cast" source_file="/usr/local/lib/python3.10/site-packages/torch/_ops.py" source_line=756}
  %constant.17 = f32[] constant(1), metadata={op_type="prim__Constant" op_name="prim__Constant" source_file="/usr/local/lib/python3.10/site-packages/torch/_ops.py" source_line=756}
  %broadcast.257 = f32[128,1024]{1,0} broadcast(f32[] %constant.17), dimensions={}, metadata={op_type="aten__add" op_name="aten__add.1588/aten__add" source_file="/usr/local/lib/python3.10/site-packages/torch/_ops.py" source_line=756}
  %multiply.258 = f32[128,1024]{1,0} multiply(f32[128,1024]{1,0} %convert.245, f32[128,1024]{1,0} %broadcast.257), metadata={op_type="aten__add" op_name="aten__add.1588/aten__add" source_file="/usr/local/lib/python3.10/site-packages/torch/_ops.py" source_line=756}
  %add.259 = f32[128,1024]{1,0} add(f32[128,1024]{1,0} %convert.256, f32[128,1024]{1,0} %multiply.258), metadata={op_type="aten__add" op_name="aten__add.1588/aten__add" source_file="/usr/local/lib/python3.10/site-packages/torch/_ops.py" source_line=756}
  %constant.269 = f32[] constant(2), metadata={op_type="prim__Constant" op_name="prim__Constant" source_file="/usr/local/lib/python3.10/site-packages/torch/_ops.py" source_line=756}
  %broadcast.270 = f32[128,1024]{1,0} broadcast(f32[] %constant.269), dimensions={}, metadata={op_type="aten__pow" op_name="aten__pow" source_file="/usr/local/lib/python3.10/site-packages/torch/_ops.py" source_line=756}
  %power.271 = f32[128,1024]{1,0} power(f32[128,1024]{1,0} %add.259, f32[128,1024]{1,0} %broadcast.270), metadata={op_type="aten__pow" op_name="aten__pow" source_file="/usr/local/lib/python3.10/site-packages/torch/_ops.py" source_line=756}
  %constant.272 = f32[] constant(0), metadata={op_type="aten__mean" op_name="aten__mean" source_file="/usr/local/lib/python3.10/site-packages/torch/_ops.py" source_line=756}
  %reduce.278 = f32[128]{0} reduce(f32[128,1024]{1,0} %power.271, f32[] %constant.272), dimensions={1}, to_apply=%AddComputation.274, metadata={op_type="aten__mean" op_name="aten__mean" source_file="/usr/local/lib/python3.10/site-packages/torch/_ops.py" source_line=756}
  %constant.273 = s32[] constant(1024), metadata={op_type="aten__mean" op_name="aten__mean" source_file="/usr/local/lib/python3.10/site-packages/torch/_ops.py" source_line=756}
  %constant.279 = s32[] constant(0), metadata={op_type="aten__mean" op_name="aten__mean" source_file="/usr/local/lib/python3.10/site-packages/torch/_ops.py" source_line=756}
  %compare.284 = pred[] compare(s32[] %constant.273, s32[] %constant.279), direction=NE, metadata={op_type="aten__mean" op_name="aten__mean" source_file="/usr/local/lib/python3.10/site-packages/torch/_ops.py" source_line=756}
  %constant.280 = f32[] constant(1), metadata={op_type="aten__mean" op_name="aten__mean" source_file="/usr/local/lib/python3.10/site-packages/torch/_ops.py" source_line=756}
  %convert.282 = f32[] convert(s32[] %constant.273), metadata={op_type="aten__mean" op_name="aten__mean" source_file="/usr/local/lib/python3.10/site-packages/torch/_ops.py" source_line=756}
  %divide.283 = f32[] divide(f32[] %constant.280, f32[] %convert.282), metadata={op_type="aten__mean" op_name="aten__mean" source_file="/usr/local/lib/python3.10/site-packages/torch/_ops.py" source_line=756}
  %constant.281 = f32[] constant(nan), metadata={op_type="aten__mean" op_name="aten__mean" source_file="/usr/local/lib/python3.10/site-packages/torch/_ops.py" source_line=756}
  %select.285 = f32[] select(pred[] %compare.284, f32[] %divide.283, f32[] %constant.281), metadata={op_type="aten__mean" op_name="aten__mean" source_file="/usr/local/lib/python3.10/site-packages/torch/_ops.py" source_line=756}
  %broadcast.286 = f32[128]{0} broadcast(f32[] %select.285), dimensions={}, metadata={op_type="aten__mean" op_name="aten__mean" source_file="/usr/local/lib/python3.10/site-packages/torch/_ops.py" source_line=756}
  %multiply.287 = f32[128]{0} multiply(f32[128]{0} %reduce.278, f32[128]{0} %broadcast.286), metadata={op_type="aten__mean" op_name="aten__mean" source_file="/usr/local/lib/python3.10/site-packages/torch/_ops.py" source_line=756}
  %reshape.288 = f32[128,1]{1,0} reshape(f32[128]{0} %multiply.287), metadata={op_type="aten__mean" op_name="aten__mean" source_file="/usr/local/lib/python3.10/site-packages/torch/_ops.py" source_line=756}
  %convert.289 = f32[128,1]{1,0} convert(f32[128,1]{1,0} %reshape.288), metadata={op_type="aten__mean" op_name="aten__mean" source_file="/usr/local/lib/python3.10/site-packages/torch/_ops.py" source_line=756}
  %constant.268 = f32[] constant(1), metadata={op_type="prim__Constant" op_name="prim__Constant" source_file="/usr/local/lib/python3.10/site-packages/torch/_ops.py" source_line=756}
  %multiply.290 = f32[] multiply(f32[] %p1.4, f32[] %constant.268), metadata={op_type="aten__add" op_name="aten__add.1589/aten__add" source_file="/usr/local/lib/python3.10/site-packages/torch/_ops.py" source_line=756}
  %broadcast.291 = f32[128,1]{1,0} broadcast(f32[] %multiply.290), dimensions={}, metadata={op_type="aten__add" op_name="aten__add.1589/aten__add" source_file="/usr/local/lib/python3.10/site-packages/torch/_ops.py" source_line=756}
  %add.292 = f32[128,1]{1,0} add(f32[128,1]{1,0} %convert.289, f32[128,1]{1,0} %broadcast.291), metadata={op_type="aten__add" op_name="aten__add.1589/aten__add" source_file="/usr/local/lib/python3.10/site-packages/torch/_ops.py" source_line=756}
  %rsqrt.293 = f32[128,1]{1,0} rsqrt(f32[128,1]{1,0} %add.292), metadata={op_type="aten__rsqrt" op_name="aten__rsqrt" source_file="/usr/local/lib/python3.10/site-packages/torch/_ops.py" source_line=756}
  %reshape.294 = f32[128]{0} reshape(f32[128,1]{1,0} %rsqrt.293), metadata={op_type="aten__mul" op_name="aten__mul.1590/aten__mul" source_file="/usr/local/lib/python3.10/site-packages/torch/_ops.py" source_line=756}
  %broadcast.295 = f32[128,1024]{1,0} broadcast(f32[128]{0} %reshape.294), dimensions={0}, metadata={op_type="aten__mul" op_name="aten__mul.1590/aten__mul" source_file="/usr/local/lib/python3.10/site-packages/torch/_ops.py" source_line=756}
  %multiply.296 = f32[128,1024]{1,0} multiply(f32[128,1024]{1,0} %add.259, f32[128,1024]{1,0} %broadcast.295), metadata={op_type="aten__mul" op_name="aten__mul.1590/aten__mul" source_file="/usr/local/lib/python3.10/site-packages/torch/_ops.py" source_line=756}
  %convert.297 = bf16[128,1024]{1,0} convert(f32[128,1024]{1,0} %multiply.296), metadata={op_type="xla__cast" op_name="xla__cast" source_file="/usr/local/lib/python3.10/site-packages/torch/_ops.py" source_line=756}
  %convert.298 = f32[128,1024]{1,0} convert(bf16[128,1024]{1,0} %convert.297), metadata={op_type="xla__cast" op_name="xla__cast" source_file="/usr/local/lib/python3.10/site-packages/torch/_ops.py" source_line=756}
  %p21.266 = bf16[1024]{0} parameter(21), metadata={op_type="xla__device_data" op_name="xla__device_data" source_file="/usr/local/lib/python3.10/site-packages/torch_xla/_dynamo/dynamo_bridge.py" source_line=355}
  %convert.267 = f32[1024]{0} convert(bf16[1024]{0} %p21.266), metadata={op_type="xla__cast" op_name="xla__cast" source_file="/usr/local/lib/python3.10/site-packages/torch/_ops.py" source_line=756}
  %broadcast.299 = f32[128,1024]{1,0} broadcast(f32[1024]{0} %convert.267), dimensions={1}, metadata={op_type="aten__mul" op_name="aten__mul.1591/aten__mul" source_file="/usr/local/lib/python3.10/site-packages/torch/_ops.py" source_line=756}
  %multiply.300 = f32[128,1024]{1,0} multiply(f32[128,1024]{1,0} %convert.298, f32[128,1024]{1,0} %broadcast.299), metadata={op_type="aten__mul" op_name="aten__mul.1591/aten__mul" source_file="/usr/local/lib/python3.10/site-packages/torch/_ops.py" source_line=756}
  %convert.301 = bf16[128,1024]{1,0} convert(f32[128,1024]{1,0} %multiply.300), metadata={op_type="xla__cast" op_name="xla__cast" source_file="/usr/local/lib/python3.10/site-packages/torch/_ops.py" source_line=756}
  %p20.264 = bf16[6144,1024]{1,0} parameter(20), metadata={op_type="xla__device_data" op_name="xla__device_data" source_file="/usr/local/lib/python3.10/site-packages/torch_xla/_dynamo/dynamo_bridge.py" source_line=355}
  %transpose.265 = bf16[1024,6144]{0,1} transpose(bf16[6144,1024]{1,0} %p20.264), dimensions={1,0}, metadata={op_type="aten__permute" op_name="aten__permute" source_file="/usr/local/lib/python3.10/site-packages/torch/_ops.py" source_line=756}
  %dot.302 = bf16[128,6144]{1,0} dot(bf16[128,1024]{1,0} %convert.301, bf16[1024,6144]{0,1} %transpose.265), lhs_contracting_dims={1}, rhs_contracting_dims={0}, metadata={op_type="aten__mm" op_name="aten__mm" source_file="/usr/local/lib/python3.10/site-packages/torch/_ops.py" source_line=756}
  %slice.305 = bf16[128,3072]{1,0} slice(bf16[128,6144]{1,0} %dot.302), slice={[0:128], [0:3072]}, metadata={op_type="xla__select" op_name="xla__select" source_file="/usr/local/lib/python3.10/site-packages/torch/_ops.py" source_line=756}
  %logistic.306 = bf16[128,3072]{1,0} logistic(bf16[128,3072]{1,0} %slice.305), metadata={op_type="aten__silu" op_name="aten__silu" source_file="/usr/local/lib/python3.10/site-packages/torch/_ops.py" source_line=756}
  %multiply.307 = bf16[128,3072]{1,0} multiply(bf16[128,3072]{1,0} %slice.305, bf16[128,3072]{1,0} %logistic.306), metadata={op_type="aten__silu" op_name="aten__silu" source_file="/usr/local/lib/python3.10/site-packages/torch/_ops.py" source_line=756}
  %convert.308 = f32[128,3072]{1,0} convert(bf16[128,3072]{1,0} %multiply.307), metadata={op_type="xla__cast" op_name="xla__cast" source_file="/usr/local/lib/python3.10/site-packages/torch/_ops.py" source_line=756}
  %slice.303 = bf16[128,3072]{1,0} slice(bf16[128,6144]{1,0} %dot.302), slice={[0:128], [3072:6144]}, metadata={op_type="xla__select" op_name="xla__select" source_file="/usr/local/lib/python3.10/site-packages/torch/_ops.py" source_line=756}
  %convert.304 = f32[128,3072]{1,0} convert(bf16[128,3072]{1,0} %slice.303), metadata={op_type="xla__cast" op_name="xla__cast" source_file="/usr/local/lib/python3.10/site-packages/torch/_ops.py" source_line=756}
  %multiply.309 = f32[128,3072]{1,0} multiply(f32[128,3072]{1,0} %convert.308, f32[128,3072]{1,0} %convert.304), metadata={op_type="aten__mul" op_name="aten__mul.1592/aten__mul" source_file="/usr/local/lib/python3.10/site-packages/torch/_ops.py" source_line=756}
  %convert.310 = bf16[128,3072]{1,0} convert(f32[128,3072]{1,0} %multiply.309), metadata={op_type="xla__cast" op_name="xla__cast" source_file="/usr/local/lib/python3.10/site-packages/torch/_ops.py" source_line=756}
  %p19.262 = bf16[1024,3072]{1,0} parameter(19), metadata={op_type="xla__device_data" op_name="xla__device_data" source_file="/usr/local/lib/python3.10/site-packages/torch_xla/_dynamo/dynamo_bridge.py" source_line=355}
  %transpose.263 = bf16[3072,1024]{0,1} transpose(bf16[1024,3072]{1,0} %p19.262), dimensions={1,0}, metadata={op_type="aten__permute" op_name="aten__permute" source_file="/usr/local/lib/python3.10/site-packages/torch/_ops.py" source_line=756}
  %dot.311 = bf16[128,1024]{1,0} dot(bf16[128,3072]{1,0} %convert.310, bf16[3072,1024]{0,1} %transpose.263), lhs_contracting_dims={1}, rhs_contracting_dims={0}, metadata={op_type="aten__mm" op_name="aten__mm" source_file="/usr/local/lib/python3.10/site-packages/torch/_ops.py" source_line=756}
  %convert.312 = f32[128,1024]{1,0} convert(bf16[128,1024]{1,0} %dot.311), metadata={op_type="xla__cast" op_name="xla__cast" source_file="/usr/local/lib/python3.10/site-packages/torch/_ops.py" source_line=756}
  %convert.260 = bf16[128,1024]{1,0} convert(f32[128,1024]{1,0} %add.259), metadata={op_type="xla__cast" op_name="xla__cast" source_file="/usr/local/lib/python3.10/site-packages/torch/_ops.py" source_line=756}
  %convert.261 = f32[128,1024]{1,0} convert(bf16[128,1024]{1,0} %convert.260), metadata={op_type="xla__cast" op_name="xla__cast" source_file="/usr/local/lib/python3.10/site-packages/torch/_ops.py" source_line=756}
  %constant.16 = f32[] constant(1), metadata={op_type="prim__Constant" op_name="prim__Constant" source_file="/usr/local/lib/python3.10/site-packages/torch/_ops.py" source_line=756}
  %broadcast.313 = f32[128,1024]{1,0} broadcast(f32[] %constant.16), dimensions={}, metadata={op_type="aten__add" op_name="aten__add.1593/aten__add" source_file="/usr/local/lib/python3.10/site-packages/torch/_ops.py" source_line=756}
  %multiply.314 = f32[128,1024]{1,0} multiply(f32[128,1024]{1,0} %convert.261, f32[128,1024]{1,0} %broadcast.313), metadata={op_type="aten__add" op_name="aten__add.1593/aten__add" source_file="/usr/local/lib/python3.10/site-packages/torch/_ops.py" source_line=756}
  %add.315 = f32[128,1024]{1,0} add(f32[128,1024]{1,0} %convert.312, f32[128,1024]{1,0} %multiply.314), metadata={op_type="aten__add" op_name="aten__add.1593/aten__add" source_file="/usr/local/lib/python3.10/site-packages/torch/_ops.py" source_line=756}
  %convert.316 = bf16[128,1024]{1,0} convert(f32[128,1024]{1,0} %add.315), metadata={op_type="xla__cast" op_name="xla__cast" source_file="/usr/local/lib/python3.10/site-packages/torch/_ops.py" source_line=756}
  %convert.317 = f32[128,1024]{1,0} convert(bf16[128,1024]{1,0} %convert.316), metadata={op_type="xla__cast" op_name="xla__cast" source_file="/usr/local/lib/python3.10/site-packages/torch/_ops.py" source_line=756}
  %constant.15 = f32[] constant(1), metadata={op_type="prim__Constant" op_name="prim__Constant" source_file="/usr/local/lib/python3.10/site-packages/torch/_ops.py" source_line=756}
  %broadcast.329 = f32[128,1024]{1,0} broadcast(f32[] %constant.15), dimensions={}, metadata={op_type="aten__add" op_name="aten__add.1606/aten__add" source_file="/usr/local/lib/python3.10/site-packages/torch/_ops.py" source_line=756}
  %multiply.330 = f32[128,1024]{1,0} multiply(f32[128,1024]{1,0} %convert.317, f32[128,1024]{1,0} %broadcast.329), metadata={op_type="aten__add" op_name="aten__add.1606/aten__add" source_file="/usr/local/lib/python3.10/site-packages/torch/_ops.py" source_line=756}
  %add.331 = f32[128,1024]{1,0} add(f32[128,1024]{1,0} %convert.328, f32[128,1024]{1,0} %multiply.330), metadata={op_type="aten__add" op_name="aten__add.1606/aten__add" source_file="/usr/local/lib/python3.10/site-packages/torch/_ops.py" source_line=756}
  %constant.341 = f32[] constant(2), metadata={op_type="prim__Constant" op_name="prim__Constant" source_file="/usr/local/lib/python3.10/site-packages/torch/_ops.py" source_line=756}
  %broadcast.342 = f32[128,1024]{1,0} broadcast(f32[] %constant.341), dimensions={}, metadata={op_type="aten__pow" op_name="aten__pow" source_file="/usr/local/lib/python3.10/site-packages/torch/_ops.py" source_line=756}
  %power.343 = f32[128,1024]{1,0} power(f32[128,1024]{1,0} %add.331, f32[128,1024]{1,0} %broadcast.342), metadata={op_type="aten__pow" op_name="aten__pow" source_file="/usr/local/lib/python3.10/site-packages/torch/_ops.py" source_line=756}
  %constant.344 = f32[] constant(0), metadata={op_type="aten__mean" op_name="aten__mean" source_file="/usr/local/lib/python3.10/site-packages/torch/_ops.py" source_line=756}
  %reduce.350 = f32[128]{0} reduce(f32[128,1024]{1,0} %power.343, f32[] %constant.344), dimensions={1}, to_apply=%AddComputation.346, metadata={op_type="aten__mean" op_name="aten__mean" source_file="/usr/local/lib/python3.10/site-packages/torch/_ops.py" source_line=756}
  %constant.345 = s32[] constant(1024), metadata={op_type="aten__mean" op_name="aten__mean" source_file="/usr/local/lib/python3.10/site-packages/torch/_ops.py" source_line=756}
  %constant.351 = s32[] constant(0), metadata={op_type="aten__mean" op_name="aten__mean" source_file="/usr/local/lib/python3.10/site-packages/torch/_ops.py" source_line=756}
  %compare.356 = pred[] compare(s32[] %constant.345, s32[] %constant.351), direction=NE, metadata={op_type="aten__mean" op_name="aten__mean" source_file="/usr/local/lib/python3.10/site-packages/torch/_ops.py" source_line=756}
  %constant.352 = f32[] constant(1), metadata={op_type="aten__mean" op_name="aten__mean" source_file="/usr/local/lib/python3.10/site-packages/torch/_ops.py" source_line=756}
  %convert.354 = f32[] convert(s32[] %constant.345), metadata={op_type="aten__mean" op_name="aten__mean" source_file="/usr/local/lib/python3.10/site-packages/torch/_ops.py" source_line=756}
  %divide.355 = f32[] divide(f32[] %constant.352, f32[] %convert.354), metadata={op_type="aten__mean" op_name="aten__mean" source_file="/usr/local/lib/python3.10/site-packages/torch/_ops.py" source_line=756}
  %constant.353 = f32[] constant(nan), metadata={op_type="aten__mean" op_name="aten__mean" source_file="/usr/local/lib/python3.10/site-packages/torch/_ops.py" source_line=756}
  %select.357 = f32[] select(pred[] %compare.356, f32[] %divide.355, f32[] %constant.353), metadata={op_type="aten__mean" op_name="aten__mean" source_file="/usr/local/lib/python3.10/site-packages/torch/_ops.py" source_line=756}
  %broadcast.358 = f32[128]{0} broadcast(f32[] %select.357), dimensions={}, metadata={op_type="aten__mean" op_name="aten__mean" source_file="/usr/local/lib/python3.10/site-packages/torch/_ops.py" source_line=756}
  %multiply.359 = f32[128]{0} multiply(f32[128]{0} %reduce.350, f32[128]{0} %broadcast.358), metadata={op_type="aten__mean" op_name="aten__mean" source_file="/usr/local/lib/python3.10/site-packages/torch/_ops.py" source_line=756}
  %reshape.360 = f32[128,1]{1,0} reshape(f32[128]{0} %multiply.359), metadata={op_type="aten__mean" op_name="aten__mean" source_file="/usr/local/lib/python3.10/site-packages/torch/_ops.py" source_line=756}
  %convert.361 = f32[128,1]{1,0} convert(f32[128,1]{1,0} %reshape.360), metadata={op_type="aten__mean" op_name="aten__mean" source_file="/usr/local/lib/python3.10/site-packages/torch/_ops.py" source_line=756}
  %constant.340 = f32[] constant(1), metadata={op_type="prim__Constant" op_name="prim__Constant" source_file="/usr/local/lib/python3.10/site-packages/torch/_ops.py" source_line=756}
  %multiply.362 = f32[] multiply(f32[] %p1.4, f32[] %constant.340), metadata={op_type="aten__add" op_name="aten__add.1607/aten__add" source_file="/usr/local/lib/python3.10/site-packages/torch/_ops.py" source_line=756}
  %broadcast.363 = f32[128,1]{1,0} broadcast(f32[] %multiply.362), dimensions={}, metadata={op_type="aten__add" op_name="aten__add.1607/aten__add" source_file="/usr/local/lib/python3.10/site-packages/torch/_ops.py" source_line=756}
  %add.364 = f32[128,1]{1,0} add(f32[128,1]{1,0} %convert.361, f32[128,1]{1,0} %broadcast.363), metadata={op_type="aten__add" op_name="aten__add.1607/aten__add" source_file="/usr/local/lib/python3.10/site-packages/torch/_ops.py" source_line=756}
  %rsqrt.365 = f32[128,1]{1,0} rsqrt(f32[128,1]{1,0} %add.364), metadata={op_type="aten__rsqrt" op_name="aten__rsqrt" source_file="/usr/local/lib/python3.10/site-packages/torch/_ops.py" source_line=756}
  %reshape.366 = f32[128]{0} reshape(f32[128,1]{1,0} %rsqrt.365), metadata={op_type="aten__mul" op_name="aten__mul.1608/aten__mul" source_file="/usr/local/lib/python3.10/site-packages/torch/_ops.py" source_line=756}
  %broadcast.367 = f32[128,1024]{1,0} broadcast(f32[128]{0} %reshape.366), dimensions={0}, metadata={op_type="aten__mul" op_name="aten__mul.1608/aten__mul" source_file="/usr/local/lib/python3.10/site-packages/torch/_ops.py" source_line=756}
  %multiply.368 = f32[128,1024]{1,0} multiply(f32[128,1024]{1,0} %add.331, f32[128,1024]{1,0} %broadcast.367), metadata={op_type="aten__mul" op_name="aten__mul.1608/aten__mul" source_file="/usr/local/lib/python3.10/site-packages/torch/_ops.py" source_line=756}
  %convert.369 = bf16[128,1024]{1,0} convert(f32[128,1024]{1,0} %multiply.368), metadata={op_type="xla__cast" op_name="xla__cast" source_file="/usr/local/lib/python3.10/site-packages/torch/_ops.py" source_line=756}
  %convert.370 = f32[128,1024]{1,0} convert(bf16[128,1024]{1,0} %convert.369), metadata={op_type="xla__cast" op_name="xla__cast" source_file="/usr/local/lib/python3.10/site-packages/torch/_ops.py" source_line=756}
  %p25.338 = bf16[1024]{0} parameter(25), metadata={op_type="xla__device_data" op_name="xla__device_data" source_file="/usr/local/lib/python3.10/site-packages/torch_xla/_dynamo/dynamo_bridge.py" source_line=355}
  %convert.339 = f32[1024]{0} convert(bf16[1024]{0} %p25.338), metadata={op_type="xla__cast" op_name="xla__cast" source_file="/usr/local/lib/python3.10/site-packages/torch/_ops.py" source_line=756}
  %broadcast.371 = f32[128,1024]{1,0} broadcast(f32[1024]{0} %convert.339), dimensions={1}, metadata={op_type="aten__mul" op_name="aten__mul.1609/aten__mul" source_file="/usr/local/lib/python3.10/site-packages/torch/_ops.py" source_line=756}
  %multiply.372 = f32[128,1024]{1,0} multiply(f32[128,1024]{1,0} %convert.370, f32[128,1024]{1,0} %broadcast.371), metadata={op_type="aten__mul" op_name="aten__mul.1609/aten__mul" source_file="/usr/local/lib/python3.10/site-packages/torch/_ops.py" source_line=756}
  %convert.373 = bf16[128,1024]{1,0} convert(f32[128,1024]{1,0} %multiply.372), metadata={op_type="xla__cast" op_name="xla__cast" source_file="/usr/local/lib/python3.10/site-packages/torch/_ops.py" source_line=756}
  %p24.336 = bf16[6144,1024]{1,0} parameter(24), metadata={op_type="xla__device_data" op_name="xla__device_data" source_file="/usr/local/lib/python3.10/site-packages/torch_xla/_dynamo/dynamo_bridge.py" source_line=355}
  %transpose.337 = bf16[1024,6144]{0,1} transpose(bf16[6144,1024]{1,0} %p24.336), dimensions={1,0}, metadata={op_type="aten__permute" op_name="aten__permute" source_file="/usr/local/lib/python3.10/site-packages/torch/_ops.py" source_line=756}
  %dot.374 = bf16[128,6144]{1,0} dot(bf16[128,1024]{1,0} %convert.373, bf16[1024,6144]{0,1} %transpose.337), lhs_contracting_dims={1}, rhs_contracting_dims={0}, metadata={op_type="aten__mm" op_name="aten__mm" source_file="/usr/local/lib/python3.10/site-packages/torch/_ops.py" source_line=756}
  %slice.377 = bf16[128,3072]{1,0} slice(bf16[128,6144]{1,0} %dot.374), slice={[0:128], [0:3072]}, metadata={op_type="xla__select" op_name="xla__select" source_file="/usr/local/lib/python3.10/site-packages/torch/_ops.py" source_line=756}
  %logistic.378 = bf16[128,3072]{1,0} logistic(bf16[128,3072]{1,0} %slice.377), metadata={op_type="aten__silu" op_name="aten__silu" source_file="/usr/local/lib/python3.10/site-packages/torch/_ops.py" source_line=756}
  %multiply.379 = bf16[128,3072]{1,0} multiply(bf16[128,3072]{1,0} %slice.377, bf16[128,3072]{1,0} %logistic.378), metadata={op_type="aten__silu" op_name="aten__silu" source_file="/usr/local/lib/python3.10/site-packages/torch/_ops.py" source_line=756}
  %convert.380 = f32[128,3072]{1,0} convert(bf16[128,3072]{1,0} %multiply.379), metadata={op_type="xla__cast" op_name="xla__cast" source_file="/usr/local/lib/python3.10/site-packages/torch/_ops.py" source_line=756}
  %slice.375 = bf16[128,3072]{1,0} slice(bf16[128,6144]{1,0} %dot.374), slice={[0:128], [3072:6144]}, metadata={op_type="xla__select" op_name="xla__select" source_file="/usr/local/lib/python3.10/site-packages/torch/_ops.py" source_line=756}
  %convert.376 = f32[128,3072]{1,0} convert(bf16[128,3072]{1,0} %slice.375), metadata={op_type="xla__cast" op_name="xla__cast" source_file="/usr/local/lib/python3.10/site-packages/torch/_ops.py" source_line=756}
  %multiply.381 = f32[128,3072]{1,0} multiply(f32[128,3072]{1,0} %convert.380, f32[128,3072]{1,0} %convert.376), metadata={op_type="aten__mul" op_name="aten__mul.1610/aten__mul" source_file="/usr/local/lib/python3.10/site-packages/torch/_ops.py" source_line=756}
  %convert.382 = bf16[128,3072]{1,0} convert(f32[128,3072]{1,0} %multiply.381), metadata={op_type="xla__cast" op_name="xla__cast" source_file="/usr/local/lib/python3.10/site-packages/torch/_ops.py" source_line=756}
  %p23.334 = bf16[1024,3072]{1,0} parameter(23), metadata={op_type="xla__device_data" op_name="xla__device_data" source_file="/usr/local/lib/python3.10/site-packages/torch_xla/_dynamo/dynamo_bridge.py" source_line=355}
  %transpose.335 = bf16[3072,1024]{0,1} transpose(bf16[1024,3072]{1,0} %p23.334), dimensions={1,0}, metadata={op_type="aten__permute" op_name="aten__permute" source_file="/usr/local/lib/python3.10/site-packages/torch/_ops.py" source_line=756}
  %dot.383 = bf16[128,1024]{1,0} dot(bf16[128,3072]{1,0} %convert.382, bf16[3072,1024]{0,1} %transpose.335), lhs_contracting_dims={1}, rhs_contracting_dims={0}, metadata={op_type="aten__mm" op_name="aten__mm" source_file="/usr/local/lib/python3.10/site-packages/torch/_ops.py" source_line=756}
  %convert.384 = f32[128,1024]{1,0} convert(bf16[128,1024]{1,0} %dot.383), metadata={op_type="xla__cast" op_name="xla__cast" source_file="/usr/local/lib/python3.10/site-packages/torch/_ops.py" source_line=756}
  %convert.332 = bf16[128,1024]{1,0} convert(f32[128,1024]{1,0} %add.331), metadata={op_type="xla__cast" op_name="xla__cast" source_file="/usr/local/lib/python3.10/site-packages/torch/_ops.py" source_line=756}
  %convert.333 = f32[128,1024]{1,0} convert(bf16[128,1024]{1,0} %convert.332), metadata={op_type="xla__cast" op_name="xla__cast" source_file="/usr/local/lib/python3.10/site-packages/torch/_ops.py" source_line=756}
  %constant.14 = f32[] constant(1), metadata={op_type="prim__Constant" op_name="prim__Constant" source_file="/usr/local/lib/python3.10/site-packages/torch/_ops.py" source_line=756}
  %broadcast.385 = f32[128,1024]{1,0} broadcast(f32[] %constant.14), dimensions={}, metadata={op_type="aten__add" op_name="aten__add.1611/aten__add" source_file="/usr/local/lib/python3.10/site-packages/torch/_ops.py" source_line=756}
  %multiply.386 = f32[128,1024]{1,0} multiply(f32[128,1024]{1,0} %convert.333, f32[128,1024]{1,0} %broadcast.385), metadata={op_type="aten__add" op_name="aten__add.1611/aten__add" source_file="/usr/local/lib/python3.10/site-packages/torch/_ops.py" source_line=756}
  %add.387 = f32[128,1024]{1,0} add(f32[128,1024]{1,0} %convert.384, f32[128,1024]{1,0} %multiply.386), metadata={op_type="aten__add" op_name="aten__add.1611/aten__add" source_file="/usr/local/lib/python3.10/site-packages/torch/_ops.py" source_line=756}
  %convert.388 = bf16[128,1024]{1,0} convert(f32[128,1024]{1,0} %add.387), metadata={op_type="xla__cast" op_name="xla__cast" source_file="/usr/local/lib/python3.10/site-packages/torch/_ops.py" source_line=756}
  %convert.389 = f32[128,1024]{1,0} convert(bf16[128,1024]{1,0} %convert.388), metadata={op_type="xla__cast" op_name="xla__cast" source_file="/usr/local/lib/python3.10/site-packages/torch/_ops.py" source_line=756}
  %constant.13 = f32[] constant(1), metadata={op_type="prim__Constant" op_name="prim__Constant" source_file="/usr/local/lib/python3.10/site-packages/torch/_ops.py" source_line=756}
  %broadcast.401 = f32[128,1024]{1,0} broadcast(f32[] %constant.13), dimensions={}, metadata={op_type="aten__add" op_name="aten__add.1624/aten__add" source_file="/usr/local/lib/python3.10/site-packages/torch/_ops.py" source_line=756}
  %multiply.402 = f32[128,1024]{1,0} multiply(f32[128,1024]{1,0} %convert.389, f32[128,1024]{1,0} %broadcast.401), metadata={op_type="aten__add" op_name="aten__add.1624/aten__add" source_file="/usr/local/lib/python3.10/site-packages/torch/_ops.py" source_line=756}
  %add.403 = f32[128,1024]{1,0} add(f32[128,1024]{1,0} %convert.400, f32[128,1024]{1,0} %multiply.402), metadata={op_type="aten__add" op_name="aten__add.1624/aten__add" source_file="/usr/local/lib/python3.10/site-packages/torch/_ops.py" source_line=756}
  %constant.413 = f32[] constant(2), metadata={op_type="prim__Constant" op_name="prim__Constant" source_file="/usr/local/lib/python3.10/site-packages/torch/_ops.py" source_line=756}
  %broadcast.414 = f32[128,1024]{1,0} broadcast(f32[] %constant.413), dimensions={}, metadata={op_type="aten__pow" op_name="aten__pow" source_file="/usr/local/lib/python3.10/site-packages/torch/_ops.py" source_line=756}
  %power.415 = f32[128,1024]{1,0} power(f32[128,1024]{1,0} %add.403, f32[128,1024]{1,0} %broadcast.414), metadata={op_type="aten__pow" op_name="aten__pow" source_file="/usr/local/lib/python3.10/site-packages/torch/_ops.py" source_line=756}
  %constant.416 = f32[] constant(0), metadata={op_type="aten__mean" op_name="aten__mean" source_file="/usr/local/lib/python3.10/site-packages/torch/_ops.py" source_line=756}
  %reduce.422 = f32[128]{0} reduce(f32[128,1024]{1,0} %power.415, f32[] %constant.416), dimensions={1}, to_apply=%AddComputation.418, metadata={op_type="aten__mean" op_name="aten__mean" source_file="/usr/local/lib/python3.10/site-packages/torch/_ops.py" source_line=756}
  %constant.417 = s32[] constant(1024), metadata={op_type="aten__mean" op_name="aten__mean" source_file="/usr/local/lib/python3.10/site-packages/torch/_ops.py" source_line=756}
  %constant.423 = s32[] constant(0), metadata={op_type="aten__mean" op_name="aten__mean" source_file="/usr/local/lib/python3.10/site-packages/torch/_ops.py" source_line=756}
  %compare.428 = pred[] compare(s32[] %constant.417, s32[] %constant.423), direction=NE, metadata={op_type="aten__mean" op_name="aten__mean" source_file="/usr/local/lib/python3.10/site-packages/torch/_ops.py" source_line=756}
  %constant.424 = f32[] constant(1), metadata={op_type="aten__mean" op_name="aten__mean" source_file="/usr/local/lib/python3.10/site-packages/torch/_ops.py" source_line=756}
  %convert.426 = f32[] convert(s32[] %constant.417), metadata={op_type="aten__mean" op_name="aten__mean" source_file="/usr/local/lib/python3.10/site-packages/torch/_ops.py" source_line=756}
  %divide.427 = f32[] divide(f32[] %constant.424, f32[] %convert.426), metadata={op_type="aten__mean" op_name="aten__mean" source_file="/usr/local/lib/python3.10/site-packages/torch/_ops.py" source_line=756}
  %constant.425 = f32[] constant(nan), metadata={op_type="aten__mean" op_name="aten__mean" source_file="/usr/local/lib/python3.10/site-packages/torch/_ops.py" source_line=756}
  %select.429 = f32[] select(pred[] %compare.428, f32[] %divide.427, f32[] %constant.425), metadata={op_type="aten__mean" op_name="aten__mean" source_file="/usr/local/lib/python3.10/site-packages/torch/_ops.py" source_line=756}
  %broadcast.430 = f32[128]{0} broadcast(f32[] %select.429), dimensions={}, metadata={op_type="aten__mean" op_name="aten__mean" source_file="/usr/local/lib/python3.10/site-packages/torch/_ops.py" source_line=756}
  %multiply.431 = f32[128]{0} multiply(f32[128]{0} %reduce.422, f32[128]{0} %broadcast.430), metadata={op_type="aten__mean" op_name="aten__mean" source_file="/usr/local/lib/python3.10/site-packages/torch/_ops.py" source_line=756}
  %reshape.432 = f32[128,1]{1,0} reshape(f32[128]{0} %multiply.431), metadata={op_type="aten__mean" op_name="aten__mean" source_file="/usr/local/lib/python3.10/site-packages/torch/_ops.py" source_line=756}
  %convert.433 = f32[128,1]{1,0} convert(f32[128,1]{1,0} %reshape.432), metadata={op_type="aten__mean" op_name="aten__mean" source_file="/usr/local/lib/python3.10/site-packages/torch/_ops.py" source_line=756}
  %constant.412 = f32[] constant(1), metadata={op_type="prim__Constant" op_name="prim__Constant" source_file="/usr/local/lib/python3.10/site-packages/torch/_ops.py" source_line=756}
  %multiply.434 = f32[] multiply(f32[] %p1.4, f32[] %constant.412), metadata={op_type="aten__add" op_name="aten__add.1625/aten__add" source_file="/usr/local/lib/python3.10/site-packages/torch/_ops.py" source_line=756}
  %broadcast.435 = f32[128,1]{1,0} broadcast(f32[] %multiply.434), dimensions={}, metadata={op_type="aten__add" op_name="aten__add.1625/aten__add" source_file="/usr/local/lib/python3.10/site-packages/torch/_ops.py" source_line=756}
  %add.436 = f32[128,1]{1,0} add(f32[128,1]{1,0} %convert.433, f32[128,1]{1,0} %broadcast.435), metadata={op_type="aten__add" op_name="aten__add.1625/aten__add" source_file="/usr/local/lib/python3.10/site-packages/torch/_ops.py" source_line=756}
  %rsqrt.437 = f32[128,1]{1,0} rsqrt(f32[128,1]{1,0} %add.436), metadata={op_type="aten__rsqrt" op_name="aten__rsqrt" source_file="/usr/local/lib/python3.10/site-packages/torch/_ops.py" source_line=756}
  %reshape.438 = f32[128]{0} reshape(f32[128,1]{1,0} %rsqrt.437), metadata={op_type="aten__mul" op_name="aten__mul.1626/aten__mul" source_file="/usr/local/lib/python3.10/site-packages/torch/_ops.py" source_line=756}
  %broadcast.439 = f32[128,1024]{1,0} broadcast(f32[128]{0} %reshape.438), dimensions={0}, metadata={op_type="aten__mul" op_name="aten__mul.1626/aten__mul" source_file="/usr/local/lib/python3.10/site-packages/torch/_ops.py" source_line=756}
  %multiply.440 = f32[128,1024]{1,0} multiply(f32[128,1024]{1,0} %add.403, f32[128,1024]{1,0} %broadcast.439), metadata={op_type="aten__mul" op_name="aten__mul.1626/aten__mul" source_file="/usr/local/lib/python3.10/site-packages/torch/_ops.py" source_line=756}
  %convert.441 = bf16[128,1024]{1,0} convert(f32[128,1024]{1,0} %multiply.440), metadata={op_type="xla__cast" op_name="xla__cast" source_file="/usr/local/lib/python3.10/site-packages/torch/_ops.py" source_line=756}
  %convert.442 = f32[128,1024]{1,0} convert(bf16[128,1024]{1,0} %convert.441), metadata={op_type="xla__cast" op_name="xla__cast" source_file="/usr/local/lib/python3.10/site-packages/torch/_ops.py" source_line=756}
  %p29.410 = bf16[1024]{0} parameter(29), metadata={op_type="xla__device_data" op_name="xla__device_data" source_file="/usr/local/lib/python3.10/site-packages/torch_xla/_dynamo/dynamo_bridge.py" source_line=355}
  %convert.411 = f32[1024]{0} convert(bf16[1024]{0} %p29.410), metadata={op_type="xla__cast" op_name="xla__cast" source_file="/usr/local/lib/python3.10/site-packages/torch/_ops.py" source_line=756}
  %broadcast.443 = f32[128,1024]{1,0} broadcast(f32[1024]{0} %convert.411), dimensions={1}, metadata={op_type="aten__mul" op_name="aten__mul.1627/aten__mul" source_file="/usr/local/lib/python3.10/site-packages/torch/_ops.py" source_line=756}
  %multiply.444 = f32[128,1024]{1,0} multiply(f32[128,1024]{1,0} %convert.442, f32[128,1024]{1,0} %broadcast.443), metadata={op_type="aten__mul" op_name="aten__mul.1627/aten__mul" source_file="/usr/local/lib/python3.10/site-packages/torch/_ops.py" source_line=756}
  %convert.445 = bf16[128,1024]{1,0} convert(f32[128,1024]{1,0} %multiply.444), metadata={op_type="xla__cast" op_name="xla__cast" source_file="/usr/local/lib/python3.10/site-packages/torch/_ops.py" source_line=756}
  %p28.408 = bf16[6144,1024]{1,0} parameter(28), metadata={op_type="xla__device_data" op_name="xla__device_data" source_file="/usr/local/lib/python3.10/site-packages/torch_xla/_dynamo/dynamo_bridge.py" source_line=355}
  %transpose.409 = bf16[1024,6144]{0,1} transpose(bf16[6144,1024]{1,0} %p28.408), dimensions={1,0}, metadata={op_type="aten__permute" op_name="aten__permute" source_file="/usr/local/lib/python3.10/site-packages/torch/_ops.py" source_line=756}
  %dot.446 = bf16[128,6144]{1,0} dot(bf16[128,1024]{1,0} %convert.445, bf16[1024,6144]{0,1} %transpose.409), lhs_contracting_dims={1}, rhs_contracting_dims={0}, metadata={op_type="aten__mm" op_name="aten__mm" source_file="/usr/local/lib/python3.10/site-packages/torch/_ops.py" source_line=756}
  %slice.449 = bf16[128,3072]{1,0} slice(bf16[128,6144]{1,0} %dot.446), slice={[0:128], [0:3072]}, metadata={op_type="xla__select" op_name="xla__select" source_file="/usr/local/lib/python3.10/site-packages/torch/_ops.py" source_line=756}
  %logistic.450 = bf16[128,3072]{1,0} logistic(bf16[128,3072]{1,0} %slice.449), metadata={op_type="aten__silu" op_name="aten__silu" source_file="/usr/local/lib/python3.10/site-packages/torch/_ops.py" source_line=756}
  %multiply.451 = bf16[128,3072]{1,0} multiply(bf16[128,3072]{1,0} %slice.449, bf16[128,3072]{1,0} %logistic.450), metadata={op_type="aten__silu" op_name="aten__silu" source_file="/usr/local/lib/python3.10/site-packages/torch/_ops.py" source_line=756}
  %convert.452 = f32[128,3072]{1,0} convert(bf16[128,3072]{1,0} %multiply.451), metadata={op_type="xla__cast" op_name="xla__cast" source_file="/usr/local/lib/python3.10/site-packages/torch/_ops.py" source_line=756}
  %slice.447 = bf16[128,3072]{1,0} slice(bf16[128,6144]{1,0} %dot.446), slice={[0:128], [3072:6144]}, metadata={op_type="xla__select" op_name="xla__select" source_file="/usr/local/lib/python3.10/site-packages/torch/_ops.py" source_line=756}
  %convert.448 = f32[128,3072]{1,0} convert(bf16[128,3072]{1,0} %slice.447), metadata={op_type="xla__cast" op_name="xla__cast" source_file="/usr/local/lib/python3.10/site-packages/torch/_ops.py" source_line=756}
  %multiply.453 = f32[128,3072]{1,0} multiply(f32[128,3072]{1,0} %convert.452, f32[128,3072]{1,0} %convert.448), metadata={op_type="aten__mul" op_name="aten__mul.1628/aten__mul" source_file="/usr/local/lib/python3.10/site-packages/torch/_ops.py" source_line=756}
  %convert.454 = bf16[128,3072]{1,0} convert(f32[128,3072]{1,0} %multiply.453), metadata={op_type="xla__cast" op_name="xla__cast" source_file="/usr/local/lib/python3.10/site-packages/torch/_ops.py" source_line=756}
  %p27.406 = bf16[1024,3072]{1,0} parameter(27), metadata={op_type="xla__device_data" op_name="xla__device_data" source_file="/usr/local/lib/python3.10/site-packages/torch_xla/_dynamo/dynamo_bridge.py" source_line=355}
  %transpose.407 = bf16[3072,1024]{0,1} transpose(bf16[1024,3072]{1,0} %p27.406), dimensions={1,0}, metadata={op_type="aten__permute" op_name="aten__permute" source_file="/usr/local/lib/python3.10/site-packages/torch/_ops.py" source_line=756}
  %dot.455 = bf16[128,1024]{1,0} dot(bf16[128,3072]{1,0} %convert.454, bf16[3072,1024]{0,1} %transpose.407), lhs_contracting_dims={1}, rhs_contracting_dims={0}, metadata={op_type="aten__mm" op_name="aten__mm" source_file="/usr/local/lib/python3.10/site-packages/torch/_ops.py" source_line=756}
  %convert.456 = f32[128,1024]{1,0} convert(bf16[128,1024]{1,0} %dot.455), metadata={op_type="xla__cast" op_name="xla__cast" source_file="/usr/local/lib/python3.10/site-packages/torch/_ops.py" source_line=756}
  %convert.404 = bf16[128,1024]{1,0} convert(f32[128,1024]{1,0} %add.403), metadata={op_type="xla__cast" op_name="xla__cast" source_file="/usr/local/lib/python3.10/site-packages/torch/_ops.py" source_line=756}
  %convert.405 = f32[128,1024]{1,0} convert(bf16[128,1024]{1,0} %convert.404), metadata={op_type="xla__cast" op_name="xla__cast" source_file="/usr/local/lib/python3.10/site-packages/torch/_ops.py" source_line=756}
  %constant.12 = f32[] constant(1), metadata={op_type="prim__Constant" op_name="prim__Constant" source_file="/usr/local/lib/python3.10/site-packages/torch/_ops.py" source_line=756}
  %broadcast.457 = f32[128,1024]{1,0} broadcast(f32[] %constant.12), dimensions={}, metadata={op_type="aten__add" op_name="aten__add.1629/aten__add" source_file="/usr/local/lib/python3.10/site-packages/torch/_ops.py" source_line=756}
  %multiply.458 = f32[128,1024]{1,0} multiply(f32[128,1024]{1,0} %convert.405, f32[128,1024]{1,0} %broadcast.457), metadata={op_type="aten__add" op_name="aten__add.1629/aten__add" source_file="/usr/local/lib/python3.10/site-packages/torch/_ops.py" source_line=756}
  %add.459 = f32[128,1024]{1,0} add(f32[128,1024]{1,0} %convert.456, f32[128,1024]{1,0} %multiply.458), metadata={op_type="aten__add" op_name="aten__add.1629/aten__add" source_file="/usr/local/lib/python3.10/site-packages/torch/_ops.py" source_line=756}
  %constant.11 = f32[] constant(2), metadata={op_type="prim__Constant" op_name="prim__Constant" source_file="/usr/local/lib/python3.10/site-packages/torch/_ops.py" source_line=756}
  %broadcast.460 = f32[128,1024]{1,0} broadcast(f32[] %constant.11), dimensions={}, metadata={op_type="aten__pow" op_name="aten__pow" source_file="/usr/local/lib/python3.10/site-packages/torch/_ops.py" source_line=756}
  %power.461 = f32[128,1024]{1,0} power(f32[128,1024]{1,0} %add.459, f32[128,1024]{1,0} %broadcast.460), metadata={op_type="aten__pow" op_name="aten__pow" source_file="/usr/local/lib/python3.10/site-packages/torch/_ops.py" source_line=756}
  %constant.462 = f32[] constant(0), metadata={op_type="aten__mean" op_name="aten__mean" source_file="/usr/local/lib/python3.10/site-packages/torch/_ops.py" source_line=756}
  %reduce.468 = f32[128]{0} reduce(f32[128,1024]{1,0} %power.461, f32[] %constant.462), dimensions={1}, to_apply=%AddComputation.464, metadata={op_type="aten__mean" op_name="aten__mean" source_file="/usr/local/lib/python3.10/site-packages/torch/_ops.py" source_line=756}
  %constant.463 = s32[] constant(1024), metadata={op_type="aten__mean" op_name="aten__mean" source_file="/usr/local/lib/python3.10/site-packages/torch/_ops.py" source_line=756}
  %constant.469 = s32[] constant(0), metadata={op_type="aten__mean" op_name="aten__mean" source_file="/usr/local/lib/python3.10/site-packages/torch/_ops.py" source_line=756}
  %compare.474 = pred[] compare(s32[] %constant.463, s32[] %constant.469), direction=NE, metadata={op_type="aten__mean" op_name="aten__mean" source_file="/usr/local/lib/python3.10/site-packages/torch/_ops.py" source_line=756}
  %constant.470 = f32[] constant(1), metadata={op_type="aten__mean" op_name="aten__mean" source_file="/usr/local/lib/python3.10/site-packages/torch/_ops.py" source_line=756}
  %convert.472 = f32[] convert(s32[] %constant.463), metadata={op_type="aten__mean" op_name="aten__mean" source_file="/usr/local/lib/python3.10/site-packages/torch/_ops.py" source_line=756}
  %divide.473 = f32[] divide(f32[] %constant.470, f32[] %convert.472), metadata={op_type="aten__mean" op_name="aten__mean" source_file="/usr/local/lib/python3.10/site-packages/torch/_ops.py" source_line=756}
  %constant.471 = f32[] constant(nan), metadata={op_type="aten__mean" op_name="aten__mean" source_file="/usr/local/lib/python3.10/site-packages/torch/_ops.py" source_line=756}
  %select.475 = f32[] select(pred[] %compare.474, f32[] %divide.473, f32[] %constant.471), metadata={op_type="aten__mean" op_name="aten__mean" source_file="/usr/local/lib/python3.10/site-packages/torch/_ops.py" source_line=756}
  %broadcast.476 = f32[128]{0} broadcast(f32[] %select.475), dimensions={}, metadata={op_type="aten__mean" op_name="aten__mean" source_file="/usr/local/lib/python3.10/site-packages/torch/_ops.py" source_line=756}
  %multiply.477 = f32[128]{0} multiply(f32[128]{0} %reduce.468, f32[128]{0} %broadcast.476), metadata={op_type="aten__mean" op_name="aten__mean" source_file="/usr/local/lib/python3.10/site-packages/torch/_ops.py" source_line=756}
  %reshape.478 = f32[128,1]{1,0} reshape(f32[128]{0} %multiply.477), metadata={op_type="aten__mean" op_name="aten__mean" source_file="/usr/local/lib/python3.10/site-packages/torch/_ops.py" source_line=756}
  %convert.479 = f32[128,1]{1,0} convert(f32[128,1]{1,0} %reshape.478), metadata={op_type="aten__mean" op_name="aten__mean" source_file="/usr/local/lib/python3.10/site-packages/torch/_ops.py" source_line=756}
  %constant.10 = f32[] constant(1), metadata={op_type="prim__Constant" op_name="prim__Constant" source_file="/usr/local/lib/python3.10/site-packages/torch/_ops.py" source_line=756}
  %multiply.480 = f32[] multiply(f32[] %p1.4, f32[] %constant.10), metadata={op_type="aten__add" op_name="aten__add.1630/aten__add" source_file="/usr/local/lib/python3.10/site-packages/torch/_ops.py" source_line=756}
  %broadcast.481 = f32[128,1]{1,0} broadcast(f32[] %multiply.480), dimensions={}, metadata={op_type="aten__add" op_name="aten__add.1630/aten__add" source_file="/usr/local/lib/python3.10/site-packages/torch/_ops.py" source_line=756}
  %add.482 = f32[128,1]{1,0} add(f32[128,1]{1,0} %convert.479, f32[128,1]{1,0} %broadcast.481), metadata={op_type="aten__add" op_name="aten__add.1630/aten__add" source_file="/usr/local/lib/python3.10/site-packages/torch/_ops.py" source_line=756}
  %rsqrt.483 = f32[128,1]{1,0} rsqrt(f32[128,1]{1,0} %add.482), metadata={op_type="aten__rsqrt" op_name="aten__rsqrt" source_file="/usr/local/lib/python3.10/site-packages/torch/_ops.py" source_line=756}
  %reshape.484 = f32[128]{0} reshape(f32[128,1]{1,0} %rsqrt.483), metadata={op_type="aten__mul" op_name="aten__mul.1631/aten__mul" source_file="/usr/local/lib/python3.10/site-packages/torch/_ops.py" source_line=756}
  %broadcast.485 = f32[128,1024]{1,0} broadcast(f32[128]{0} %reshape.484), dimensions={0}, metadata={op_type="aten__mul" op_name="aten__mul.1631/aten__mul" source_file="/usr/local/lib/python3.10/site-packages/torch/_ops.py" source_line=756}
  %multiply.486 = f32[128,1024]{1,0} multiply(f32[128,1024]{1,0} %add.459, f32[128,1024]{1,0} %broadcast.485), metadata={op_type="aten__mul" op_name="aten__mul.1631/aten__mul" source_file="/usr/local/lib/python3.10/site-packages/torch/_ops.py" source_line=756}
  %convert.487 = bf16[128,1024]{1,0} convert(f32[128,1024]{1,0} %multiply.486), metadata={op_type="xla__cast" op_name="xla__cast" source_file="/usr/local/lib/python3.10/site-packages/torch/_ops.py" source_line=756}
  %convert.488 = f32[128,1024]{1,0} convert(bf16[128,1024]{1,0} %convert.487), metadata={op_type="xla__cast" op_name="xla__cast" source_file="/usr/local/lib/python3.10/site-packages/torch/_ops.py" source_line=756}
  %p3.8 = bf16[1024]{0} parameter(3), metadata={op_type="xla__device_data" op_name="xla__device_data" source_file="/usr/local/lib/python3.10/site-packages/torch_xla/_dynamo/dynamo_bridge.py" source_line=355}
  %convert.9 = f32[1024]{0} convert(bf16[1024]{0} %p3.8), metadata={op_type="xla__cast" op_name="xla__cast" source_file="/usr/local/lib/python3.10/site-packages/torch/_ops.py" source_line=756}
  %broadcast.489 = f32[128,1024]{1,0} broadcast(f32[1024]{0} %convert.9), dimensions={1}, metadata={op_type="aten__mul" op_name="aten__mul.1632/aten__mul" source_file="/usr/local/lib/python3.10/site-packages/torch/_ops.py" source_line=756}
  %multiply.490 = f32[128,1024]{1,0} multiply(f32[128,1024]{1,0} %convert.488, f32[128,1024]{1,0} %broadcast.489), metadata={op_type="aten__mul" op_name="aten__mul.1632/aten__mul" source_file="/usr/local/lib/python3.10/site-packages/torch/_ops.py" source_line=756}
  %convert.491 = bf16[128,1024]{1,0} convert(f32[128,1024]{1,0} %multiply.490), metadata={op_type="xla__cast" op_name="xla__cast" source_file="/usr/local/lib/python3.10/site-packages/torch/_ops.py" source_line=756}
  %p2.6 = bf16[4096,1024]{1,0} parameter(2), metadata={op_type="xla__device_data" op_name="xla__device_data" source_file="/usr/local/lib/python3.10/site-packages/torch_xla/_dynamo/dynamo_bridge.py" source_line=355}
  %transpose.7 = bf16[1024,4096]{0,1} transpose(bf16[4096,1024]{1,0} %p2.6), dimensions={1,0}, metadata={op_type="aten__permute" op_name="aten__permute" source_file="/usr/local/lib/python3.10/site-packages/torch/_ops.py" source_line=756}
  %dot.492 = bf16[128,4096]{1,0} dot(bf16[128,1024]{1,0} %convert.491, bf16[1024,4096]{0,1} %transpose.7), lhs_contracting_dims={1}, rhs_contracting_dims={0}, metadata={op_type="aten__mm" op_name="aten__mm" source_file="/usr/local/lib/python3.10/site-packages/torch/_ops.py" source_line=756}
  %slice.493 = bf16[128,2048]{1,0} slice(bf16[128,4096]{1,0} %dot.492), slice={[0:128], [0:2048]}, metadata={op_type="aten__split" op_name="aten__split" source_file="/usr/local/lib/python3.10/site-packages/torch/_ops.py" source_line=756}
  %slice.494 = bf16[128,1024]{1,0} slice(bf16[128,4096]{1,0} %dot.492), slice={[0:128], [2048:3072]}, metadata={op_type="aten__split" op_name="aten__split" source_file="/usr/local/lib/python3.10/site-packages/torch/_ops.py" source_line=756}
  %reshape.496 = bf16[128,8,128]{2,1,0} reshape(bf16[128,1024]{1,0} %slice.494), metadata={op_type="aten__view" op_name="aten__view" source_file="/usr/local/lib/python3.10/site-packages/torch/_ops.py" source_line=756}
  %convert.497 = f32[128,8,128]{2,1,0} convert(bf16[128,8,128]{2,1,0} %reshape.496), metadata={op_type="xla__cast" op_name="xla__cast" source_file="/usr/local/lib/python3.10/site-packages/torch/_ops.py" source_line=756}
  %constant.5 = f32[] constant(2), metadata={op_type="prim__Constant" op_name="prim__Constant" source_file="/usr/local/lib/python3.10/site-packages/torch/_ops.py" source_line=756}
  %broadcast.498 = f32[128,8,128]{2,1,0} broadcast(f32[] %constant.5), dimensions={}, metadata={op_type="aten__pow" op_name="aten__pow" source_file="/usr/local/lib/python3.10/site-packages/torch/_ops.py" source_line=756}
  %power.499 = f32[128,8,128]{2,1,0} power(f32[128,8,128]{2,1,0} %convert.497, f32[128,8,128]{2,1,0} %broadcast.498), metadata={op_type="aten__pow" op_name="aten__pow" source_file="/usr/local/lib/python3.10/site-packages/torch/_ops.py" source_line=756}
  %constant.500 = f32[] constant(0), metadata={op_type="aten__mean" op_name="aten__mean" source_file="/usr/local/lib/python3.10/site-packages/torch/_ops.py" source_line=756}
  %reduce.506 = f32[128,8]{1,0} reduce(f32[128,8,128]{2,1,0} %power.499, f32[] %constant.500), dimensions={2}, to_apply=%AddComputation.502, metadata={op_type="aten__mean" op_name="aten__mean" source_file="/usr/local/lib/python3.10/site-packages/torch/_ops.py" source_line=756}
  %constant.501 = s32[] constant(128), metadata={op_type="aten__mean" op_name="aten__mean" source_file="/usr/local/lib/python3.10/site-packages/torch/_ops.py" source_line=756}
  %constant.507 = s32[] constant(0), metadata={op_type="aten__mean" op_name="aten__mean" source_file="/usr/local/lib/python3.10/site-packages/torch/_ops.py" source_line=756}
  %compare.512 = pred[] compare(s32[] %constant.501, s32[] %constant.507), direction=NE, metadata={op_type="aten__mean" op_name="aten__mean" source_file="/usr/local/lib/python3.10/site-packages/torch/_ops.py" source_line=756}
  %constant.508 = f32[] constant(1), metadata={op_type="aten__mean" op_name="aten__mean" source_file="/usr/local/lib/python3.10/site-packages/torch/_ops.py" source_line=756}
  %convert.510 = f32[] convert(s32[] %constant.501), metadata={op_type="aten__mean" op_name="aten__mean" source_file="/usr/local/lib/python3.10/site-packages/torch/_ops.py" source_line=756}
  %divide.511 = f32[] divide(f32[] %constant.508, f32[] %convert.510), metadata={op_type="aten__mean" op_name="aten__mean" source_file="/usr/local/lib/python3.10/site-packages/torch/_ops.py" source_line=756}
  %constant.509 = f32[] constant(nan), metadata={op_type="aten__mean" op_name="aten__mean" source_file="/usr/local/lib/python3.10/site-packages/torch/_ops.py" source_line=756}
  %select.513 = f32[] select(pred[] %compare.512, f32[] %divide.511, f32[] %constant.509), metadata={op_type="aten__mean" op_name="aten__mean" source_file="/usr/local/lib/python3.10/site-packages/torch/_ops.py" source_line=756}
  %broadcast.514 = f32[128,8]{1,0} broadcast(f32[] %select.513), dimensions={}, metadata={op_type="aten__mean" op_name="aten__mean" source_file="/usr/local/lib/python3.10/site-packages/torch/_ops.py" source_line=756}
  %multiply.515 = f32[128,8]{1,0} multiply(f32[128,8]{1,0} %reduce.506, f32[128,8]{1,0} %broadcast.514), metadata={op_type="aten__mean" op_name="aten__mean" source_file="/usr/local/lib/python3.10/site-packages/torch/_ops.py" source_line=756}
  %reshape.516 = f32[128,8,1]{2,1,0} reshape(f32[128,8]{1,0} %multiply.515), metadata={op_type="aten__mean" op_name="aten__mean" source_file="/usr/local/lib/python3.10/site-packages/torch/_ops.py" source_line=756}
  %convert.517 = f32[128,8,1]{2,1,0} convert(f32[128,8,1]{2,1,0} %reshape.516), metadata={op_type="aten__mean" op_name="aten__mean" source_file="/usr/local/lib/python3.10/site-packages/torch/_ops.py" source_line=756}
  %constant.3 = f32[] constant(1), metadata={op_type="prim__Constant" op_name="prim__Constant" source_file="/usr/local/lib/python3.10/site-packages/torch/_ops.py" source_line=756}
  %multiply.518 = f32[] multiply(f32[] %p1.4, f32[] %constant.3), metadata={op_type="aten__add" op_name="aten__add.1633/aten__add" source_file="/usr/local/lib/python3.10/site-packages/torch/_ops.py" source_line=756}
  %broadcast.519 = f32[128,8,1]{2,1,0} broadcast(f32[] %multiply.518), dimensions={}, metadata={op_type="aten__add" op_name="aten__add.1633/aten__add" source_file="/usr/local/lib/python3.10/site-packages/torch/_ops.py" source_line=756}
  %add.520 = f32[128,8,1]{2,1,0} add(f32[128,8,1]{2,1,0} %convert.517, f32[128,8,1]{2,1,0} %broadcast.519), metadata={op_type="aten__add" op_name="aten__add.1633/aten__add" source_file="/usr/local/lib/python3.10/site-packages/torch/_ops.py" source_line=756}
  %rsqrt.521 = f32[128,8,1]{2,1,0} rsqrt(f32[128,8,1]{2,1,0} %add.520), metadata={op_type="aten__rsqrt" op_name="aten__rsqrt" source_file="/usr/local/lib/python3.10/site-packages/torch/_ops.py" source_line=756}
  %reshape.522 = f32[128,8]{1,0} reshape(f32[128,8,1]{2,1,0} %rsqrt.521), metadata={op_type="aten__mul" op_name="aten__mul.1634/aten__mul" source_file="/usr/local/lib/python3.10/site-packages/torch/_ops.py" source_line=756}
  %broadcast.523 = f32[128,8,128]{2,1,0} broadcast(f32[128,8]{1,0} %reshape.522), dimensions={0,1}, metadata={op_type="aten__mul" op_name="aten__mul.1634/aten__mul" source_file="/usr/local/lib/python3.10/site-packages/torch/_ops.py" source_line=756}
  %multiply.524 = f32[128,8,128]{2,1,0} multiply(f32[128,8,128]{2,1,0} %convert.497, f32[128,8,128]{2,1,0} %broadcast.523), metadata={op_type="aten__mul" op_name="aten__mul.1634/aten__mul" source_file="/usr/local/lib/python3.10/site-packages/torch/_ops.py" source_line=756}
  %convert.525 = bf16[128,8,128]{2,1,0} convert(f32[128,8,128]{2,1,0} %multiply.524), metadata={op_type="xla__cast" op_name="xla__cast" source_file="/usr/local/lib/python3.10/site-packages/torch/_ops.py" source_line=756}
  %convert.526 = f32[128,8,128]{2,1,0} convert(bf16[128,8,128]{2,1,0} %convert.525), metadata={op_type="xla__cast" op_name="xla__cast" source_file="/usr/local/lib/python3.10/site-packages/torch/_ops.py" source_line=756}
  %p0.1 = bf16[128]{0} parameter(0), metadata={op_type="xla__device_data" op_name="xla__device_data" source_file="/usr/local/lib/python3.10/site-packages/torch_xla/_dynamo/dynamo_bridge.py" source_line=355}
  %convert.2 = f32[128]{0} convert(bf16[128]{0} %p0.1), metadata={op_type="xla__cast" op_name="xla__cast" source_file="/usr/local/lib/python3.10/site-packages/torch/_ops.py" source_line=756}
  %broadcast.527 = f32[128,8,128]{2,1,0} broadcast(f32[128]{0} %convert.2), dimensions={2}, metadata={op_type="aten__mul" op_name="aten__mul.1635/aten__mul" source_file="/usr/local/lib/python3.10/site-packages/torch/_ops.py" source_line=756}
  %multiply.528 = f32[128,8,128]{2,1,0} multiply(f32[128,8,128]{2,1,0} %convert.526, f32[128,8,128]{2,1,0} %broadcast.527), metadata={op_type="aten__mul" op_name="aten__mul.1635/aten__mul" source_file="/usr/local/lib/python3.10/site-packages/torch/_ops.py" source_line=756}
  %convert.529 = bf16[128,8,128]{2,1,0} convert(f32[128,8,128]{2,1,0} %multiply.528), metadata={op_type="xla__cast" op_name="xla__cast" source_file="/usr/local/lib/python3.10/site-packages/torch/_ops.py" source_line=756}
  %reshape.530 = bf16[128,1024]{1,0} reshape(bf16[128,8,128]{2,1,0} %convert.529), metadata={op_type="aten__view" op_name="aten__view" source_file="/usr/local/lib/python3.10/site-packages/torch/_ops.py" source_line=756}
  %reshape.531 = bf16[128,8,128]{2,1,0} reshape(bf16[128,1024]{1,0} %reshape.530), metadata={op_type="aten__view" op_name="aten__view" source_file="/usr/local/lib/python3.10/site-packages/torch/_ops.py" source_line=756}
  %slice.541 = bf16[128,8,64]{2,1,0} slice(bf16[128,8,128]{2,1,0} %reshape.531), slice={[0:128], [0:8], [0:64]}, metadata={op_type="aten__split" op_name="aten__split" source_file="/usr/local/lib/python3.10/site-packages/torch/_ops.py" source_line=756}
  %convert.566 = f32[128,8,64]{2,1,0} convert(bf16[128,8,64]{2,1,0} %slice.541), metadata={op_type="xla__cast" op_name="xla__cast" source_file="/usr/local/lib/python3.10/site-packages/torch/_ops.py" source_line=756}
  %p31.535 = bf16[40960,128]{1,0} parameter(31), metadata={op_type="xla__device_data" op_name="xla__device_data" source_file="/usr/local/lib/python3.10/site-packages/torch_xla/_dynamo/dynamo_bridge.py" source_line=355}
  %p30.534 = s32[128]{0} parameter(30), metadata={op_type="xla__device_data" op_name="xla__device_data" source_file="/usr/local/lib/python3.10/site-packages/torch_xla/_dynamo/dynamo_bridge.py" source_line=355}
  %gather.536 = bf16[128,128]{1,0} gather(bf16[40960,128]{1,0} %p31.535, s32[128]{0} %p30.534), offset_dims={1}, collapsed_slice_dims={0}, start_index_map={0}, index_vector_dim=1, slice_sizes={1,128}, metadata={op_type="aten__index_select" op_name="aten__index_select" source_file="/usr/local/lib/python3.10/site-packages/torch/_ops.py" source_line=756}
  %slice.537 = bf16[128,64]{1,0} slice(bf16[128,128]{1,0} %gather.536), slice={[0:128], [0:64]}, metadata={op_type="aten__split" op_name="aten__split" source_file="/usr/local/lib/python3.10/site-packages/torch/_ops.py" source_line=756}
  %reshape.548 = bf16[128,1,64]{2,1,0} reshape(bf16[128,64]{1,0} %slice.537), metadata={op_type="aten__view" op_name="aten__view" source_file="/usr/local/lib/python3.10/site-packages/torch/_ops.py" source_line=756}
  %convert.565 = f32[128,1,64]{2,1,0} convert(bf16[128,1,64]{2,1,0} %reshape.548), metadata={op_type="xla__cast" op_name="xla__cast" source_file="/usr/local/lib/python3.10/site-packages/torch/_ops.py" source_line=756}
  %reshape.567 = f32[128,64]{1,0} reshape(f32[128,1,64]{2,1,0} %convert.565), metadata={op_type="aten__mul" op_name="aten__mul.1636/aten__mul" source_file="/usr/local/lib/python3.10/site-packages/torch/_ops.py" source_line=756}
  %broadcast.568 = f32[128,8,64]{2,1,0} broadcast(f32[128,64]{1,0} %reshape.567), dimensions={0,2}, metadata={op_type="aten__mul" op_name="aten__mul.1636/aten__mul" source_file="/usr/local/lib/python3.10/site-packages/torch/_ops.py" source_line=756}
  %multiply.569 = f32[128,8,64]{2,1,0} multiply(f32[128,8,64]{2,1,0} %convert.566, f32[128,8,64]{2,1,0} %broadcast.568), metadata={op_type="aten__mul" op_name="aten__mul.1636/aten__mul" source_file="/usr/local/lib/python3.10/site-packages/torch/_ops.py" source_line=756}
  %convert.570 = bf16[128,8,64]{2,1,0} convert(f32[128,8,64]{2,1,0} %multiply.569), metadata={op_type="xla__cast" op_name="xla__cast" source_file="/usr/local/lib/python3.10/site-packages/torch/_ops.py" source_line=756}
  %slice.542 = bf16[128,8,64]{2,1,0} slice(bf16[128,8,128]{2,1,0} %reshape.531), slice={[0:128], [0:8], [64:128]}, metadata={op_type="aten__split" op_name="aten__split" source_file="/usr/local/lib/python3.10/site-packages/torch/_ops.py" source_line=756}
  %convert.560 = f32[128,8,64]{2,1,0} convert(bf16[128,8,64]{2,1,0} %slice.542), metadata={op_type="xla__cast" op_name="xla__cast" source_file="/usr/local/lib/python3.10/site-packages/torch/_ops.py" source_line=756}
  %slice.538 = bf16[128,64]{1,0} slice(bf16[128,128]{1,0} %gather.536), slice={[0:128], [64:128]}, metadata={op_type="aten__split" op_name="aten__split" source_file="/usr/local/lib/python3.10/site-packages/torch/_ops.py" source_line=756}
  %reshape.539 = bf16[128,1,64]{2,1,0} reshape(bf16[128,64]{1,0} %slice.538), metadata={op_type="aten__view" op_name="aten__view" source_file="/usr/local/lib/python3.10/site-packages/torch/_ops.py" source_line=756}
  %convert.559 = f32[128,1,64]{2,1,0} convert(bf16[128,1,64]{2,1,0} %reshape.539), metadata={op_type="xla__cast" op_name="xla__cast" source_file="/usr/local/lib/python3.10/site-packages/torch/_ops.py" source_line=756}
  %reshape.561 = f32[128,64]{1,0} reshape(f32[128,1,64]{2,1,0} %convert.559), metadata={op_type="aten__mul" op_name="aten__mul.1637/aten__mul" source_file="/usr/local/lib/python3.10/site-packages/torch/_ops.py" source_line=756}
  %broadcast.562 = f32[128,8,64]{2,1,0} broadcast(f32[128,64]{1,0} %reshape.561), dimensions={0,2}, metadata={op_type="aten__mul" op_name="aten__mul.1637/aten__mul" source_file="/usr/local/lib/python3.10/site-packages/torch/_ops.py" source_line=756}
  %multiply.563 = f32[128,8,64]{2,1,0} multiply(f32[128,8,64]{2,1,0} %convert.560, f32[128,8,64]{2,1,0} %broadcast.562), metadata={op_type="aten__mul" op_name="aten__mul.1637/aten__mul" source_file="/usr/local/lib/python3.10/site-packages/torch/_ops.py" source_line=756}
  %convert.564 = bf16[128,8,64]{2,1,0} convert(f32[128,8,64]{2,1,0} %multiply.563), metadata={op_type="xla__cast" op_name="xla__cast" source_file="/usr/local/lib/python3.10/site-packages/torch/_ops.py" source_line=756}
  %constant.558 = bf16[] constant(1), metadata={op_type="prim__Constant" op_name="prim__Constant" source_file="/usr/local/lib/python3.10/site-packages/torch/_ops.py" source_line=756}
  %broadcast.571 = bf16[128,8,64]{2,1,0} broadcast(bf16[] %constant.558), dimensions={}, metadata={op_type="aten__sub" op_name="aten__sub.1638/aten__sub" source_file="/usr/local/lib/python3.10/site-packages/torch/_ops.py" source_line=756}
  %multiply.572 = bf16[128,8,64]{2,1,0} multiply(bf16[128,8,64]{2,1,0} %convert.564, bf16[128,8,64]{2,1,0} %broadcast.571), metadata={op_type="aten__sub" op_name="aten__sub.1638/aten__sub" source_file="/usr/local/lib/python3.10/site-packages/torch/_ops.py" source_line=756}
  %subtract.573 = bf16[128,8,64]{2,1,0} subtract(bf16[128,8,64]{2,1,0} %convert.570, bf16[128,8,64]{2,1,0} %multiply.572), metadata={op_type="aten__sub" op_name="aten__sub.1638/aten__sub" source_file="/usr/local/lib/python3.10/site-packages/torch/_ops.py" source_line=756}
  %convert.550 = f32[128,8,64]{2,1,0} convert(bf16[128,8,64]{2,1,0} %slice.542), metadata={op_type="xla__cast" op_name="xla__cast" source_file="/usr/local/lib/python3.10/site-packages/torch/_ops.py" source_line=756}
  %convert.549 = f32[128,1,64]{2,1,0} convert(bf16[128,1,64]{2,1,0} %reshape.548), metadata={op_type="xla__cast" op_name="xla__cast" source_file="/usr/local/lib/python3.10/site-packages/torch/_ops.py" source_line=756}
  %reshape.551 = f32[128,64]{1,0} reshape(f32[128,1,64]{2,1,0} %convert.549), metadata={op_type="aten__mul" op_name="aten__mul.1639/aten__mul" source_file="/usr/local/lib/python3.10/site-packages/torch/_ops.py" source_line=756}
  %broadcast.552 = f32[128,8,64]{2,1,0} broadcast(f32[128,64]{1,0} %reshape.551), dimensions={0,2}, metadata={op_type="aten__mul" op_name="aten__mul.1639/aten__mul" source_file="/usr/local/lib/python3.10/site-packages/torch/_ops.py" source_line=756}
  %multiply.553 = f32[128,8,64]{2,1,0} multiply(f32[128,8,64]{2,1,0} %convert.550, f32[128,8,64]{2,1,0} %broadcast.552), metadata={op_type="aten__mul" op_name="aten__mul.1639/aten__mul" source_file="/usr/local/lib/python3.10/site-packages/torch/_ops.py" source_line=756}
  %convert.554 = bf16[128,8,64]{2,1,0} convert(f32[128,8,64]{2,1,0} %multiply.553), metadata={op_type="xla__cast" op_name="xla__cast" source_file="/usr/local/lib/python3.10/site-packages/torch/_ops.py" source_line=756}
  %convert.543 = f32[128,8,64]{2,1,0} convert(bf16[128,8,64]{2,1,0} %slice.541), metadata={op_type="xla__cast" op_name="xla__cast" source_file="/usr/local/lib/python3.10/site-packages/torch/_ops.py" source_line=756}
  %convert.540 = f32[128,1,64]{2,1,0} convert(bf16[128,1,64]{2,1,0} %reshape.539), metadata={op_type="xla__cast" op_name="xla__cast" source_file="/usr/local/lib/python3.10/site-packages/torch/_ops.py" source_line=756}
  %reshape.544 = f32[128,64]{1,0} reshape(f32[128,1,64]{2,1,0} %convert.540), metadata={op_type="aten__mul" op_name="aten__mul.1640/aten__mul" source_file="/usr/local/lib/python3.10/site-packages/torch/_ops.py" source_line=756}
  %broadcast.545 = f32[128,8,64]{2,1,0} broadcast(f32[128,64]{1,0} %reshape.544), dimensions={0,2}, metadata={op_type="aten__mul" op_name="aten__mul.1640/aten__mul" source_file="/usr/local/lib/python3.10/site-packages/torch/_ops.py" source_line=756}
  %multiply.546 = f32[128,8,64]{2,1,0} multiply(f32[128,8,64]{2,1,0} %convert.543, f32[128,8,64]{2,1,0} %broadcast.545), metadata={op_type="aten__mul" op_name="aten__mul.1640/aten__mul" source_file="/usr/local/lib/python3.10/site-packages/torch/_ops.py" source_line=756}
  %convert.547 = bf16[128,8,64]{2,1,0} convert(f32[128,8,64]{2,1,0} %multiply.546), metadata={op_type="xla__cast" op_name="xla__cast" source_file="/usr/local/lib/python3.10/site-packages/torch/_ops.py" source_line=756}
  %constant.533 = bf16[] constant(1), metadata={op_type="prim__Constant" op_name="prim__Constant" source_file="/usr/local/lib/python3.10/site-packages/torch/_ops.py" source_line=756}
  %broadcast.555 = bf16[128,8,64]{2,1,0} broadcast(bf16[] %constant.533), dimensions={}, metadata={op_type="aten__add" op_name="aten__add.1641/aten__add" source_file="/usr/local/lib/python3.10/site-packages/torch/_ops.py" source_line=756}
  %multiply.556 = bf16[128,8,64]{2,1,0} multiply(bf16[128,8,64]{2,1,0} %convert.547, bf16[128,8,64]{2,1,0} %broadcast.555), metadata={op_type="aten__add" op_name="aten__add.1641/aten__add" source_file="/usr/local/lib/python3.10/site-packages/torch/_ops.py" source_line=756}
  %add.557 = bf16[128,8,64]{2,1,0} add(bf16[128,8,64]{2,1,0} %convert.554, bf16[128,8,64]{2,1,0} %multiply.556), metadata={op_type="aten__add" op_name="aten__add.1641/aten__add" source_file="/usr/local/lib/python3.10/site-packages/torch/_ops.py" source_line=756}
  %concatenate.574 = bf16[128,8,128]{2,1,0} concatenate(bf16[128,8,64]{2,1,0} %subtract.573, bf16[128,8,64]{2,1,0} %add.557), dimensions={2}, metadata={op_type="aten__cat" op_name="aten__cat" source_file="/usr/local/lib/python3.10/site-packages/torch/_ops.py" source_line=756}
  %slice.532 = bf16[128,8,0]{2,1,0} slice(bf16[128,8,128]{2,1,0} %reshape.531), slice={[0:128], [0:8], [128:128]}, metadata={op_type="xla__select" op_name="xla__select" source_file="/usr/local/lib/python3.10/site-packages/torch/_ops.py" source_line=756}
  %concatenate.575 = bf16[128,8,128]{2,1,0} concatenate(bf16[128,8,128]{2,1,0} %concatenate.574, bf16[128,8,0]{2,1,0} %slice.532), dimensions={2}, metadata={op_type="aten__cat" op_name="aten__cat" source_file="/usr/local/lib/python3.10/site-packages/torch/_ops.py" source_line=756}
  %reshape.576 = bf16[128,1024]{1,0} reshape(bf16[128,8,128]{2,1,0} %concatenate.575), metadata={op_type="aten__view" op_name="aten__view" source_file="/usr/local/lib/python3.10/site-packages/torch/_ops.py" source_line=756}
  %reshape.577 = bf16[128,8,128]{2,1,0} reshape(bf16[128,1024]{1,0} %reshape.576), metadata={op_type="aten__view" op_name="aten__view" source_file="/usr/local/lib/python3.10/site-packages/torch/_ops.py" source_line=756}
  %slice.495 = bf16[128,1024]{1,0} slice(bf16[128,4096]{1,0} %dot.492), slice={[0:128], [3072:4096]}, metadata={op_type="aten__split" op_name="aten__split" source_file="/usr/local/lib/python3.10/site-packages/torch/_ops.py" source_line=756}
  %reshape.578 = bf16[128,8,128]{2,1,0} reshape(bf16[128,1024]{1,0} %slice.495), metadata={op_type="aten__view" op_name="aten__view" source_file="/usr/local/lib/python3.10/site-packages/torch/_ops.py" source_line=756}
  %p32.579 = bf16[2,4233,16,8,128]{4,3,2,1,0} parameter(32), metadata={op_type="xla__device_data" op_name="xla__device_data" source_file="/usr/local/lib/python3.10/site-packages/torch_xla/_dynamo/dynamo_bridge.py" source_line=355}
  %reshape.580 = bf16[138706944]{0} reshape(bf16[2,4233,16,8,128]{4,3,2,1,0} %p32.579), metadata={op_type="aten__as_strided" op_name="aten__as_strided" source_file="/usr/local/lib/python3.10/site-packages/torch/_prims_common/__init__.py" source_line=1991}
  %reshape.581 = bf16[2,4233,16,8,128]{4,3,2,1,0} reshape(bf16[138706944]{0} %reshape.580), metadata={op_type="aten__as_strided" op_name="aten__as_strided" source_file="/usr/local/lib/python3.10/site-packages/torch/_prims_common/__init__.py" source_line=1992}
  %reshape.582 = bf16[138706944]{0} reshape(bf16[2,4233,16,8,128]{4,3,2,1,0} %reshape.581), metadata={op_type="aten__as_strided" op_name="aten__as_strided" source_file="/usr/local/lib/python3.10/site-packages/torch/_higher_order_ops/auto_functionalize.py" source_line=54}
  %slice.583 = bf16[69353472]{0} slice(bf16[138706944]{0} %reshape.582), slice={[0:69353472]}, metadata={op_type="aten__as_strided" op_name="aten__as_strided" source_file="/usr/local/lib/python3.10/site-packages/torch/_higher_order_ops/auto_functionalize.py" source_line=54}
  %reshape.584 = bf16[4233,16,8,128]{3,2,1,0} reshape(bf16[69353472]{0} %slice.583), metadata={op_type="aten__as_strided" op_name="aten__as_strided" source_file="/usr/local/lib/python3.10/site-packages/torch/_higher_order_ops/auto_functionalize.py" source_line=54}
  %reshape.585 = bf16[138706944]{0} reshape(bf16[2,4233,16,8,128]{4,3,2,1,0} %reshape.581), metadata={op_type="aten__as_strided" op_name="aten__as_strided" source_file="/usr/local/lib/python3.10/site-packages/torch/_higher_order_ops/auto_functionalize.py" source_line=54}
  %slice.586 = bf16[69353472]{0} slice(bf16[138706944]{0} %reshape.585), slice={[69353472:138706944]}, metadata={op_type="aten__as_strided" op_name="aten__as_strided" source_file="/usr/local/lib/python3.10/site-packages/torch/_higher_order_ops/auto_functionalize.py" source_line=54}
  %reshape.587 = bf16[4233,16,8,128]{3,2,1,0} reshape(bf16[69353472]{0} %slice.586), metadata={op_type="aten__as_strided" op_name="aten__as_strided" source_file="/usr/local/lib/python3.10/site-packages/torch/_higher_order_ops/auto_functionalize.py" source_line=54}
  ROOT %tuple.588 = (bf16[128,8,128]{2,1,0}, bf16[128,8,128]{2,1,0}, bf16[4233,16,8,128]{3,2,1,0}, bf16[4233,16,8,128]{3,2,1,0}) tuple(bf16[128,8,128]{2,1,0} %reshape.577, bf16[128,8,128]{2,1,0} %reshape.578, bf16[4233,16,8,128]{3,2,1,0} %reshape.584, bf16[4233,16,8,128]{3,2,1,0} %reshape.587)
}

