HloModule SyncTensorsGraph.441, entry_computation_layout={(bf16[128]{0}, f32[], bf16[4096,1024]{1,0}, bf16[1024]{0}, s32[16]{0}, /*index=5*/bf16[151936,1024]{1,0}, bf16[1024,2048]{1,0}, bf16[1024,3072]{1,0}, bf16[6144,1024]{1,0}, bf16[1024]{0}, /*index=10*/bf16[1024,2048]{1,0}, bf16[1024,3072]{1,0}, bf16[6144,1024]{1,0}, bf16[1024]{0}, bf16[1024,2048]{1,0}, /*index=15*/bf16[1024,3072]{1,0}, bf16[6144,1024]{1,0}, bf16[1024]{0}, bf16[1024,2048]{1,0}, bf16[1024,3072]{1,0}, /*index=20*/bf16[6144,1024]{1,0}, bf16[1024]{0}, s32[16]{0}, bf16[40960,128]{1,0}, bf16[2,4233,16,8,128]{4,3,2,1,0})->(bf16[16,8,128]{2,1,0}, bf16[16,8,128]{2,1,0}, bf16[4233,16,8,128]{3,2,1,0}, bf16[4233,16,8,128]{3,2,1,0})}

%AddComputation.54 (x.55: f32[], y.56: f32[]) -> f32[] {
  %x.55 = f32[] parameter(0)
  %y.56 = f32[] parameter(1)
  ROOT %add.57 = f32[] add(f32[] %x.55, f32[] %y.56)
}

%AddComputation.126 (x.127: f32[], y.128: f32[]) -> f32[] {
  %x.127 = f32[] parameter(0)
  %y.128 = f32[] parameter(1)
  ROOT %add.129 = f32[] add(f32[] %x.127, f32[] %y.128)
}

%AddComputation.198 (x.199: f32[], y.200: f32[]) -> f32[] {
  %x.199 = f32[] parameter(0)
  %y.200 = f32[] parameter(1)
  ROOT %add.201 = f32[] add(f32[] %x.199, f32[] %y.200)
}

%AddComputation.270 (x.271: f32[], y.272: f32[]) -> f32[] {
  %x.271 = f32[] parameter(0)
  %y.272 = f32[] parameter(1)
  ROOT %add.273 = f32[] add(f32[] %x.271, f32[] %y.272)
}

%AddComputation.316 (x.317: f32[], y.318: f32[]) -> f32[] {
  %x.317 = f32[] parameter(0)
  %y.318 = f32[] parameter(1)
  ROOT %add.319 = f32[] add(f32[] %x.317, f32[] %y.318)
}

%AddComputation.354 (x.355: f32[], y.356: f32[]) -> f32[] {
  %x.355 = f32[] parameter(0)
  %y.356 = f32[] parameter(1)
  ROOT %add.357 = f32[] add(f32[] %x.355, f32[] %y.356)
}

ENTRY %SyncTensorsGraph.441 (p0.1: bf16[128], p1.4: f32[], p2.6: bf16[4096,1024], p3.8: bf16[1024], p4.20: s32[16], p5.22: bf16[151936,1024], p6.26: bf16[1024,2048], p7.42: bf16[1024,3072], p8.44: bf16[6144,1024], p9.46: bf16[1024], p10.98: bf16[1024,2048], p11.114: bf16[1024,3072], p12.116: bf16[6144,1024], p13.118: bf16[1024], p14.170: bf16[1024,2048], p15.186: bf16[1024,3072], p16.188: bf16[6144,1024], p17.190: bf16[1024], p18.242: bf16[1024,2048], p19.258: bf16[1024,3072], p20.260: bf16[6144,1024], p21.262: bf16[1024], p22.386: s32[16], p23.387: bf16[40960,128], p24.431: bf16[2,4233,16,8,128]) -> (bf16[16,8,128], bf16[16,8,128], bf16[4233,16,8,128], bf16[4233,16,8,128]) {
  %constant.244 = bf16[] constant(0), metadata={op_type="prim__Constant" op_name="prim__Constant" source_file="/usr/local/lib/python3.10/site-packages/torch/_ops.py" source_line=756}
  %reshape.245 = bf16[1,1]{1,0} reshape(bf16[] %constant.244), metadata={op_type="aten__expand" op_name="aten__expand" source_file="/usr/local/lib/python3.10/site-packages/torch/_ops.py" source_line=756}
  %broadcast.246 = bf16[1,1]{1,0} broadcast(bf16[1,1]{1,0} %reshape.245), dimensions={0,1}, metadata={op_type="aten__expand" op_name="aten__expand" source_file="/usr/local/lib/python3.10/site-packages/torch/_ops.py" source_line=756}
  %reshape.247 = bf16[] reshape(bf16[1,1]{1,0} %broadcast.246), metadata={op_type="aten__expand" op_name="aten__expand" source_file="/usr/local/lib/python3.10/site-packages/torch/_ops.py" source_line=756}
  %broadcast.248 = bf16[16,2048]{1,0} broadcast(bf16[] %reshape.247), dimensions={}, metadata={op_type="aten__expand" op_name="aten__expand" source_file="/usr/local/lib/python3.10/site-packages/torch/_ops.py" source_line=756}
  %reshape.249 = bf16[16,16,128]{2,1,0} reshape(bf16[16,2048]{1,0} %broadcast.248), metadata={op_type="aten__view" op_name="aten__view" source_file="/usr/local/lib/python3.10/site-packages/torch/_ops.py" source_line=756}
  %reshape.250 = bf16[16,2048]{1,0} reshape(bf16[16,16,128]{2,1,0} %reshape.249), metadata={op_type="aten__view" op_name="aten__view" source_file="/usr/local/lib/python3.10/site-packages/torch/_ops.py" source_line=756}
  %p18.242 = bf16[1024,2048]{1,0} parameter(18), metadata={op_type="xla__device_data" op_name="xla__device_data" source_file="/usr/local/lib/python3.10/site-packages/torch_xla/_dynamo/dynamo_bridge.py" source_line=355}
  %transpose.243 = bf16[2048,1024]{0,1} transpose(bf16[1024,2048]{1,0} %p18.242), dimensions={1,0}, metadata={op_type="aten__permute" op_name="aten__permute" source_file="/usr/local/lib/python3.10/site-packages/torch/_ops.py" source_line=756}
  %dot.251 = bf16[16,1024]{1,0} dot(bf16[16,2048]{1,0} %reshape.250, bf16[2048,1024]{0,1} %transpose.243), lhs_contracting_dims={1}, rhs_contracting_dims={0}, metadata={op_type="aten__mm" op_name="aten__mm" source_file="/usr/local/lib/python3.10/site-packages/torch/_ops.py" source_line=756}
  %convert.252 = f32[16,1024]{1,0} convert(bf16[16,1024]{1,0} %dot.251), metadata={op_type="xla__cast" op_name="xla__cast" source_file="/usr/local/lib/python3.10/site-packages/torch/_ops.py" source_line=756}
  %constant.172 = bf16[] constant(0), metadata={op_type="prim__Constant" op_name="prim__Constant" source_file="/usr/local/lib/python3.10/site-packages/torch/_ops.py" source_line=756}
  %reshape.173 = bf16[1,1]{1,0} reshape(bf16[] %constant.172), metadata={op_type="aten__expand" op_name="aten__expand" source_file="/usr/local/lib/python3.10/site-packages/torch/_ops.py" source_line=756}
  %broadcast.174 = bf16[1,1]{1,0} broadcast(bf16[1,1]{1,0} %reshape.173), dimensions={0,1}, metadata={op_type="aten__expand" op_name="aten__expand" source_file="/usr/local/lib/python3.10/site-packages/torch/_ops.py" source_line=756}
  %reshape.175 = bf16[] reshape(bf16[1,1]{1,0} %broadcast.174), metadata={op_type="aten__expand" op_name="aten__expand" source_file="/usr/local/lib/python3.10/site-packages/torch/_ops.py" source_line=756}
  %broadcast.176 = bf16[16,2048]{1,0} broadcast(bf16[] %reshape.175), dimensions={}, metadata={op_type="aten__expand" op_name="aten__expand" source_file="/usr/local/lib/python3.10/site-packages/torch/_ops.py" source_line=756}
  %reshape.177 = bf16[16,16,128]{2,1,0} reshape(bf16[16,2048]{1,0} %broadcast.176), metadata={op_type="aten__view" op_name="aten__view" source_file="/usr/local/lib/python3.10/site-packages/torch/_ops.py" source_line=756}
  %reshape.178 = bf16[16,2048]{1,0} reshape(bf16[16,16,128]{2,1,0} %reshape.177), metadata={op_type="aten__view" op_name="aten__view" source_file="/usr/local/lib/python3.10/site-packages/torch/_ops.py" source_line=756}
  %p14.170 = bf16[1024,2048]{1,0} parameter(14), metadata={op_type="xla__device_data" op_name="xla__device_data" source_file="/usr/local/lib/python3.10/site-packages/torch_xla/_dynamo/dynamo_bridge.py" source_line=355}
  %transpose.171 = bf16[2048,1024]{0,1} transpose(bf16[1024,2048]{1,0} %p14.170), dimensions={1,0}, metadata={op_type="aten__permute" op_name="aten__permute" source_file="/usr/local/lib/python3.10/site-packages/torch/_ops.py" source_line=756}
  %dot.179 = bf16[16,1024]{1,0} dot(bf16[16,2048]{1,0} %reshape.178, bf16[2048,1024]{0,1} %transpose.171), lhs_contracting_dims={1}, rhs_contracting_dims={0}, metadata={op_type="aten__mm" op_name="aten__mm" source_file="/usr/local/lib/python3.10/site-packages/torch/_ops.py" source_line=756}
  %convert.180 = f32[16,1024]{1,0} convert(bf16[16,1024]{1,0} %dot.179), metadata={op_type="xla__cast" op_name="xla__cast" source_file="/usr/local/lib/python3.10/site-packages/torch/_ops.py" source_line=756}
  %constant.100 = bf16[] constant(0), metadata={op_type="prim__Constant" op_name="prim__Constant" source_file="/usr/local/lib/python3.10/site-packages/torch/_ops.py" source_line=756}
  %reshape.101 = bf16[1,1]{1,0} reshape(bf16[] %constant.100), metadata={op_type="aten__expand" op_name="aten__expand" source_file="/usr/local/lib/python3.10/site-packages/torch/_ops.py" source_line=756}
  %broadcast.102 = bf16[1,1]{1,0} broadcast(bf16[1,1]{1,0} %reshape.101), dimensions={0,1}, metadata={op_type="aten__expand" op_name="aten__expand" source_file="/usr/local/lib/python3.10/site-packages/torch/_ops.py" source_line=756}
  %reshape.103 = bf16[] reshape(bf16[1,1]{1,0} %broadcast.102), metadata={op_type="aten__expand" op_name="aten__expand" source_file="/usr/local/lib/python3.10/site-packages/torch/_ops.py" source_line=756}
  %broadcast.104 = bf16[16,2048]{1,0} broadcast(bf16[] %reshape.103), dimensions={}, metadata={op_type="aten__expand" op_name="aten__expand" source_file="/usr/local/lib/python3.10/site-packages/torch/_ops.py" source_line=756}
  %reshape.105 = bf16[16,16,128]{2,1,0} reshape(bf16[16,2048]{1,0} %broadcast.104), metadata={op_type="aten__view" op_name="aten__view" source_file="/usr/local/lib/python3.10/site-packages/torch/_ops.py" source_line=756}
  %reshape.106 = bf16[16,2048]{1,0} reshape(bf16[16,16,128]{2,1,0} %reshape.105), metadata={op_type="aten__view" op_name="aten__view" source_file="/usr/local/lib/python3.10/site-packages/torch/_ops.py" source_line=756}
  %p10.98 = bf16[1024,2048]{1,0} parameter(10), metadata={op_type="xla__device_data" op_name="xla__device_data" source_file="/usr/local/lib/python3.10/site-packages/torch_xla/_dynamo/dynamo_bridge.py" source_line=355}
  %transpose.99 = bf16[2048,1024]{0,1} transpose(bf16[1024,2048]{1,0} %p10.98), dimensions={1,0}, metadata={op_type="aten__permute" op_name="aten__permute" source_file="/usr/local/lib/python3.10/site-packages/torch/_ops.py" source_line=756}
  %dot.107 = bf16[16,1024]{1,0} dot(bf16[16,2048]{1,0} %reshape.106, bf16[2048,1024]{0,1} %transpose.99), lhs_contracting_dims={1}, rhs_contracting_dims={0}, metadata={op_type="aten__mm" op_name="aten__mm" source_file="/usr/local/lib/python3.10/site-packages/torch/_ops.py" source_line=756}
  %convert.108 = f32[16,1024]{1,0} convert(bf16[16,1024]{1,0} %dot.107), metadata={op_type="xla__cast" op_name="xla__cast" source_file="/usr/local/lib/python3.10/site-packages/torch/_ops.py" source_line=756}
  %constant.28 = bf16[] constant(0), metadata={op_type="prim__Constant" op_name="prim__Constant" source_file="/usr/local/lib/python3.10/site-packages/torch/_ops.py" source_line=756}
  %reshape.29 = bf16[1,1]{1,0} reshape(bf16[] %constant.28), metadata={op_type="aten__expand" op_name="aten__expand" source_file="/usr/local/lib/python3.10/site-packages/torch/_ops.py" source_line=756}
  %broadcast.30 = bf16[1,1]{1,0} broadcast(bf16[1,1]{1,0} %reshape.29), dimensions={0,1}, metadata={op_type="aten__expand" op_name="aten__expand" source_file="/usr/local/lib/python3.10/site-packages/torch/_ops.py" source_line=756}
  %reshape.31 = bf16[] reshape(bf16[1,1]{1,0} %broadcast.30), metadata={op_type="aten__expand" op_name="aten__expand" source_file="/usr/local/lib/python3.10/site-packages/torch/_ops.py" source_line=756}
  %broadcast.32 = bf16[16,2048]{1,0} broadcast(bf16[] %reshape.31), dimensions={}, metadata={op_type="aten__expand" op_name="aten__expand" source_file="/usr/local/lib/python3.10/site-packages/torch/_ops.py" source_line=756}
  %reshape.33 = bf16[16,16,128]{2,1,0} reshape(bf16[16,2048]{1,0} %broadcast.32), metadata={op_type="aten__view" op_name="aten__view" source_file="/usr/local/lib/python3.10/site-packages/torch/_ops.py" source_line=756}
  %reshape.34 = bf16[16,2048]{1,0} reshape(bf16[16,16,128]{2,1,0} %reshape.33), metadata={op_type="aten__view" op_name="aten__view" source_file="/usr/local/lib/python3.10/site-packages/torch/_ops.py" source_line=756}
  %p6.26 = bf16[1024,2048]{1,0} parameter(6), metadata={op_type="xla__device_data" op_name="xla__device_data" source_file="/usr/local/lib/python3.10/site-packages/torch_xla/_dynamo/dynamo_bridge.py" source_line=355}
  %transpose.27 = bf16[2048,1024]{0,1} transpose(bf16[1024,2048]{1,0} %p6.26), dimensions={1,0}, metadata={op_type="aten__permute" op_name="aten__permute" source_file="/usr/local/lib/python3.10/site-packages/torch/_ops.py" source_line=756}
  %dot.35 = bf16[16,1024]{1,0} dot(bf16[16,2048]{1,0} %reshape.34, bf16[2048,1024]{0,1} %transpose.27), lhs_contracting_dims={1}, rhs_contracting_dims={0}, metadata={op_type="aten__mm" op_name="aten__mm" source_file="/usr/local/lib/python3.10/site-packages/torch/_ops.py" source_line=756}
  %convert.36 = f32[16,1024]{1,0} convert(bf16[16,1024]{1,0} %dot.35), metadata={op_type="xla__cast" op_name="xla__cast" source_file="/usr/local/lib/python3.10/site-packages/torch/_ops.py" source_line=756}
  %p5.22 = bf16[151936,1024]{1,0} parameter(5), metadata={op_type="xla__device_data" op_name="xla__device_data" source_file="/usr/local/lib/python3.10/site-packages/torch_xla/_dynamo/dynamo_bridge.py" source_line=355}
  %p4.20 = s32[16]{0} parameter(4), metadata={op_type="xla__device_data" op_name="xla__device_data" source_file="/usr/local/lib/python3.10/site-packages/torch_xla/_dynamo/dynamo_bridge.py" source_line=355}
  %convert.21 = s64[16]{0} convert(s32[16]{0} %p4.20), metadata={op_type="xla__cast" op_name="xla__cast" source_file="/usr/local/lib/python3.10/site-packages/torch/_ops.py" source_line=756}
  %convert.23 = u32[16]{0} convert(s64[16]{0} %convert.21), metadata={op_type="aten__index_select" op_name="aten__index_select" source_file="/usr/local/lib/python3.10/site-packages/torch/_ops.py" source_line=756}
  %gather.24 = bf16[16,1024]{1,0} gather(bf16[151936,1024]{1,0} %p5.22, u32[16]{0} %convert.23), offset_dims={1}, collapsed_slice_dims={0}, start_index_map={0}, index_vector_dim=1, slice_sizes={1,1024}, metadata={op_type="aten__index_select" op_name="aten__index_select" source_file="/usr/local/lib/python3.10/site-packages/torch/_ops.py" source_line=756}
  %convert.25 = f32[16,1024]{1,0} convert(bf16[16,1024]{1,0} %gather.24), metadata={op_type="xla__cast" op_name="xla__cast" source_file="/usr/local/lib/python3.10/site-packages/torch/_ops.py" source_line=756}
  %constant.19 = f32[] constant(1), metadata={op_type="prim__Constant" op_name="prim__Constant" source_file="/usr/local/lib/python3.10/site-packages/torch/_ops.py" source_line=756}
  %broadcast.37 = f32[16,1024]{1,0} broadcast(f32[] %constant.19), dimensions={}, metadata={op_type="aten__add" op_name="aten__add.13/aten__add" source_file="/usr/local/lib/python3.10/site-packages/torch/_ops.py" source_line=756}
  %multiply.38 = f32[16,1024]{1,0} multiply(f32[16,1024]{1,0} %convert.25, f32[16,1024]{1,0} %broadcast.37), metadata={op_type="aten__add" op_name="aten__add.13/aten__add" source_file="/usr/local/lib/python3.10/site-packages/torch/_ops.py" source_line=756}
  %add.39 = f32[16,1024]{1,0} add(f32[16,1024]{1,0} %convert.36, f32[16,1024]{1,0} %multiply.38), metadata={op_type="aten__add" op_name="aten__add.13/aten__add" source_file="/usr/local/lib/python3.10/site-packages/torch/_ops.py" source_line=756}
  %constant.49 = f32[] constant(2), metadata={op_type="prim__Constant" op_name="prim__Constant" source_file="/usr/local/lib/python3.10/site-packages/torch/_ops.py" source_line=756}
  %broadcast.50 = f32[16,1024]{1,0} broadcast(f32[] %constant.49), dimensions={}, metadata={op_type="aten__pow" op_name="aten__pow" source_file="/usr/local/lib/python3.10/site-packages/torch/_ops.py" source_line=756}
  %power.51 = f32[16,1024]{1,0} power(f32[16,1024]{1,0} %add.39, f32[16,1024]{1,0} %broadcast.50), metadata={op_type="aten__pow" op_name="aten__pow" source_file="/usr/local/lib/python3.10/site-packages/torch/_ops.py" source_line=756}
  %constant.52 = f32[] constant(0), metadata={op_type="aten__mean" op_name="aten__mean" source_file="/usr/local/lib/python3.10/site-packages/torch/_ops.py" source_line=756}
  %reduce.58 = f32[16]{0} reduce(f32[16,1024]{1,0} %power.51, f32[] %constant.52), dimensions={1}, to_apply=%AddComputation.54, metadata={op_type="aten__mean" op_name="aten__mean" source_file="/usr/local/lib/python3.10/site-packages/torch/_ops.py" source_line=756}
  %constant.53 = s32[] constant(1024), metadata={op_type="aten__mean" op_name="aten__mean" source_file="/usr/local/lib/python3.10/site-packages/torch/_ops.py" source_line=756}
  %constant.59 = s32[] constant(0), metadata={op_type="aten__mean" op_name="aten__mean" source_file="/usr/local/lib/python3.10/site-packages/torch/_ops.py" source_line=756}
  %compare.64 = pred[] compare(s32[] %constant.53, s32[] %constant.59), direction=NE, metadata={op_type="aten__mean" op_name="aten__mean" source_file="/usr/local/lib/python3.10/site-packages/torch/_ops.py" source_line=756}
  %constant.60 = f32[] constant(1), metadata={op_type="aten__mean" op_name="aten__mean" source_file="/usr/local/lib/python3.10/site-packages/torch/_ops.py" source_line=756}
  %convert.62 = f32[] convert(s32[] %constant.53), metadata={op_type="aten__mean" op_name="aten__mean" source_file="/usr/local/lib/python3.10/site-packages/torch/_ops.py" source_line=756}
  %divide.63 = f32[] divide(f32[] %constant.60, f32[] %convert.62), metadata={op_type="aten__mean" op_name="aten__mean" source_file="/usr/local/lib/python3.10/site-packages/torch/_ops.py" source_line=756}
  %constant.61 = f32[] constant(nan), metadata={op_type="aten__mean" op_name="aten__mean" source_file="/usr/local/lib/python3.10/site-packages/torch/_ops.py" source_line=756}
  %select.65 = f32[] select(pred[] %compare.64, f32[] %divide.63, f32[] %constant.61), metadata={op_type="aten__mean" op_name="aten__mean" source_file="/usr/local/lib/python3.10/site-packages/torch/_ops.py" source_line=756}
  %broadcast.66 = f32[16]{0} broadcast(f32[] %select.65), dimensions={}, metadata={op_type="aten__mean" op_name="aten__mean" source_file="/usr/local/lib/python3.10/site-packages/torch/_ops.py" source_line=756}
  %multiply.67 = f32[16]{0} multiply(f32[16]{0} %reduce.58, f32[16]{0} %broadcast.66), metadata={op_type="aten__mean" op_name="aten__mean" source_file="/usr/local/lib/python3.10/site-packages/torch/_ops.py" source_line=756}
  %reshape.68 = f32[16,1]{1,0} reshape(f32[16]{0} %multiply.67), metadata={op_type="aten__mean" op_name="aten__mean" source_file="/usr/local/lib/python3.10/site-packages/torch/_ops.py" source_line=756}
  %convert.69 = f32[16,1]{1,0} convert(f32[16,1]{1,0} %reshape.68), metadata={op_type="aten__mean" op_name="aten__mean" source_file="/usr/local/lib/python3.10/site-packages/torch/_ops.py" source_line=756}
  %p1.4 = f32[] parameter(1), metadata={op_type="xla__device_data" op_name="xla__device_data" source_file="/usr/local/lib/python3.10/site-packages/torch/_ops.py" source_line=756}
  %constant.48 = f32[] constant(1), metadata={op_type="prim__Constant" op_name="prim__Constant" source_file="/usr/local/lib/python3.10/site-packages/torch/_ops.py" source_line=756}
  %multiply.70 = f32[] multiply(f32[] %p1.4, f32[] %constant.48), metadata={op_type="aten__add" op_name="aten__add.14/aten__add" source_file="/usr/local/lib/python3.10/site-packages/torch/_ops.py" source_line=756}
  %broadcast.71 = f32[16,1]{1,0} broadcast(f32[] %multiply.70), dimensions={}, metadata={op_type="aten__add" op_name="aten__add.14/aten__add" source_file="/usr/local/lib/python3.10/site-packages/torch/_ops.py" source_line=756}
  %add.72 = f32[16,1]{1,0} add(f32[16,1]{1,0} %convert.69, f32[16,1]{1,0} %broadcast.71), metadata={op_type="aten__add" op_name="aten__add.14/aten__add" source_file="/usr/local/lib/python3.10/site-packages/torch/_ops.py" source_line=756}
  %rsqrt.73 = f32[16,1]{1,0} rsqrt(f32[16,1]{1,0} %add.72), metadata={op_type="aten__rsqrt" op_name="aten__rsqrt" source_file="/usr/local/lib/python3.10/site-packages/torch/_ops.py" source_line=756}
  %reshape.74 = f32[16]{0} reshape(f32[16,1]{1,0} %rsqrt.73), metadata={op_type="aten__mul" op_name="aten__mul.15/aten__mul" source_file="/usr/local/lib/python3.10/site-packages/torch/_ops.py" source_line=756}
  %broadcast.75 = f32[16,1024]{1,0} broadcast(f32[16]{0} %reshape.74), dimensions={0}, metadata={op_type="aten__mul" op_name="aten__mul.15/aten__mul" source_file="/usr/local/lib/python3.10/site-packages/torch/_ops.py" source_line=756}
  %multiply.76 = f32[16,1024]{1,0} multiply(f32[16,1024]{1,0} %add.39, f32[16,1024]{1,0} %broadcast.75), metadata={op_type="aten__mul" op_name="aten__mul.15/aten__mul" source_file="/usr/local/lib/python3.10/site-packages/torch/_ops.py" source_line=756}
  %convert.77 = bf16[16,1024]{1,0} convert(f32[16,1024]{1,0} %multiply.76), metadata={op_type="xla__cast" op_name="xla__cast" source_file="/usr/local/lib/python3.10/site-packages/torch/_ops.py" source_line=756}
  %convert.78 = f32[16,1024]{1,0} convert(bf16[16,1024]{1,0} %convert.77), metadata={op_type="xla__cast" op_name="xla__cast" source_file="/usr/local/lib/python3.10/site-packages/torch/_ops.py" source_line=756}
  %p9.46 = bf16[1024]{0} parameter(9), metadata={op_type="xla__device_data" op_name="xla__device_data" source_file="/usr/local/lib/python3.10/site-packages/torch_xla/_dynamo/dynamo_bridge.py" source_line=355}
  %convert.47 = f32[1024]{0} convert(bf16[1024]{0} %p9.46), metadata={op_type="xla__cast" op_name="xla__cast" source_file="/usr/local/lib/python3.10/site-packages/torch/_ops.py" source_line=756}
  %broadcast.79 = f32[16,1024]{1,0} broadcast(f32[1024]{0} %convert.47), dimensions={1}, metadata={op_type="aten__mul" op_name="aten__mul.16/aten__mul" source_file="/usr/local/lib/python3.10/site-packages/torch/_ops.py" source_line=756}
  %multiply.80 = f32[16,1024]{1,0} multiply(f32[16,1024]{1,0} %convert.78, f32[16,1024]{1,0} %broadcast.79), metadata={op_type="aten__mul" op_name="aten__mul.16/aten__mul" source_file="/usr/local/lib/python3.10/site-packages/torch/_ops.py" source_line=756}
  %convert.81 = bf16[16,1024]{1,0} convert(f32[16,1024]{1,0} %multiply.80), metadata={op_type="xla__cast" op_name="xla__cast" source_file="/usr/local/lib/python3.10/site-packages/torch/_ops.py" source_line=756}
  %p8.44 = bf16[6144,1024]{1,0} parameter(8), metadata={op_type="xla__device_data" op_name="xla__device_data" source_file="/usr/local/lib/python3.10/site-packages/torch_xla/_dynamo/dynamo_bridge.py" source_line=355}
  %transpose.45 = bf16[1024,6144]{0,1} transpose(bf16[6144,1024]{1,0} %p8.44), dimensions={1,0}, metadata={op_type="aten__permute" op_name="aten__permute" source_file="/usr/local/lib/python3.10/site-packages/torch/_ops.py" source_line=756}
  %dot.82 = bf16[16,6144]{1,0} dot(bf16[16,1024]{1,0} %convert.81, bf16[1024,6144]{0,1} %transpose.45), lhs_contracting_dims={1}, rhs_contracting_dims={0}, metadata={op_type="aten__mm" op_name="aten__mm" source_file="/usr/local/lib/python3.10/site-packages/torch/_ops.py" source_line=756}
  %slice.85 = bf16[16,3072]{1,0} slice(bf16[16,6144]{1,0} %dot.82), slice={[0:16], [0:3072]}, metadata={op_type="xla__select" op_name="xla__select" source_file="/usr/local/lib/python3.10/site-packages/torch/_ops.py" source_line=756}
  %logistic.86 = bf16[16,3072]{1,0} logistic(bf16[16,3072]{1,0} %slice.85), metadata={op_type="aten__silu" op_name="aten__silu" source_file="/usr/local/lib/python3.10/site-packages/torch/_ops.py" source_line=756}
  %multiply.87 = bf16[16,3072]{1,0} multiply(bf16[16,3072]{1,0} %slice.85, bf16[16,3072]{1,0} %logistic.86), metadata={op_type="aten__silu" op_name="aten__silu" source_file="/usr/local/lib/python3.10/site-packages/torch/_ops.py" source_line=756}
  %convert.88 = f32[16,3072]{1,0} convert(bf16[16,3072]{1,0} %multiply.87), metadata={op_type="xla__cast" op_name="xla__cast" source_file="/usr/local/lib/python3.10/site-packages/torch/_ops.py" source_line=756}
  %slice.83 = bf16[16,3072]{1,0} slice(bf16[16,6144]{1,0} %dot.82), slice={[0:16], [3072:6144]}, metadata={op_type="xla__select" op_name="xla__select" source_file="/usr/local/lib/python3.10/site-packages/torch/_ops.py" source_line=756}
  %convert.84 = f32[16,3072]{1,0} convert(bf16[16,3072]{1,0} %slice.83), metadata={op_type="xla__cast" op_name="xla__cast" source_file="/usr/local/lib/python3.10/site-packages/torch/_ops.py" source_line=756}
  %multiply.89 = f32[16,3072]{1,0} multiply(f32[16,3072]{1,0} %convert.88, f32[16,3072]{1,0} %convert.84), metadata={op_type="aten__mul" op_name="aten__mul.17/aten__mul" source_file="/usr/local/lib/python3.10/site-packages/torch/_ops.py" source_line=756}
  %convert.90 = bf16[16,3072]{1,0} convert(f32[16,3072]{1,0} %multiply.89), metadata={op_type="xla__cast" op_name="xla__cast" source_file="/usr/local/lib/python3.10/site-packages/torch/_ops.py" source_line=756}
  %p7.42 = bf16[1024,3072]{1,0} parameter(7), metadata={op_type="xla__device_data" op_name="xla__device_data" source_file="/usr/local/lib/python3.10/site-packages/torch_xla/_dynamo/dynamo_bridge.py" source_line=355}
  %transpose.43 = bf16[3072,1024]{0,1} transpose(bf16[1024,3072]{1,0} %p7.42), dimensions={1,0}, metadata={op_type="aten__permute" op_name="aten__permute" source_file="/usr/local/lib/python3.10/site-packages/torch/_ops.py" source_line=756}
  %dot.91 = bf16[16,1024]{1,0} dot(bf16[16,3072]{1,0} %convert.90, bf16[3072,1024]{0,1} %transpose.43), lhs_contracting_dims={1}, rhs_contracting_dims={0}, metadata={op_type="aten__mm" op_name="aten__mm" source_file="/usr/local/lib/python3.10/site-packages/torch/_ops.py" source_line=756}
  %convert.92 = f32[16,1024]{1,0} convert(bf16[16,1024]{1,0} %dot.91), metadata={op_type="xla__cast" op_name="xla__cast" source_file="/usr/local/lib/python3.10/site-packages/torch/_ops.py" source_line=756}
  %convert.40 = bf16[16,1024]{1,0} convert(f32[16,1024]{1,0} %add.39), metadata={op_type="xla__cast" op_name="xla__cast" source_file="/usr/local/lib/python3.10/site-packages/torch/_ops.py" source_line=756}
  %convert.41 = f32[16,1024]{1,0} convert(bf16[16,1024]{1,0} %convert.40), metadata={op_type="xla__cast" op_name="xla__cast" source_file="/usr/local/lib/python3.10/site-packages/torch/_ops.py" source_line=756}
  %constant.18 = f32[] constant(1), metadata={op_type="prim__Constant" op_name="prim__Constant" source_file="/usr/local/lib/python3.10/site-packages/torch/_ops.py" source_line=756}
  %broadcast.93 = f32[16,1024]{1,0} broadcast(f32[] %constant.18), dimensions={}, metadata={op_type="aten__add" op_name="aten__add.18/aten__add" source_file="/usr/local/lib/python3.10/site-packages/torch/_ops.py" source_line=756}
  %multiply.94 = f32[16,1024]{1,0} multiply(f32[16,1024]{1,0} %convert.41, f32[16,1024]{1,0} %broadcast.93), metadata={op_type="aten__add" op_name="aten__add.18/aten__add" source_file="/usr/local/lib/python3.10/site-packages/torch/_ops.py" source_line=756}
  %add.95 = f32[16,1024]{1,0} add(f32[16,1024]{1,0} %convert.92, f32[16,1024]{1,0} %multiply.94), metadata={op_type="aten__add" op_name="aten__add.18/aten__add" source_file="/usr/local/lib/python3.10/site-packages/torch/_ops.py" source_line=756}
  %convert.96 = bf16[16,1024]{1,0} convert(f32[16,1024]{1,0} %add.95), metadata={op_type="xla__cast" op_name="xla__cast" source_file="/usr/local/lib/python3.10/site-packages/torch/_ops.py" source_line=756}
  %convert.97 = f32[16,1024]{1,0} convert(bf16[16,1024]{1,0} %convert.96), metadata={op_type="xla__cast" op_name="xla__cast" source_file="/usr/local/lib/python3.10/site-packages/torch/_ops.py" source_line=756}
  %constant.17 = f32[] constant(1), metadata={op_type="prim__Constant" op_name="prim__Constant" source_file="/usr/local/lib/python3.10/site-packages/torch/_ops.py" source_line=756}
  %broadcast.109 = f32[16,1024]{1,0} broadcast(f32[] %constant.17), dimensions={}, metadata={op_type="aten__add" op_name="aten__add.31/aten__add" source_file="/usr/local/lib/python3.10/site-packages/torch/_ops.py" source_line=756}
  %multiply.110 = f32[16,1024]{1,0} multiply(f32[16,1024]{1,0} %convert.97, f32[16,1024]{1,0} %broadcast.109), metadata={op_type="aten__add" op_name="aten__add.31/aten__add" source_file="/usr/local/lib/python3.10/site-packages/torch/_ops.py" source_line=756}
  %add.111 = f32[16,1024]{1,0} add(f32[16,1024]{1,0} %convert.108, f32[16,1024]{1,0} %multiply.110), metadata={op_type="aten__add" op_name="aten__add.31/aten__add" source_file="/usr/local/lib/python3.10/site-packages/torch/_ops.py" source_line=756}
  %constant.121 = f32[] constant(2), metadata={op_type="prim__Constant" op_name="prim__Constant" source_file="/usr/local/lib/python3.10/site-packages/torch/_ops.py" source_line=756}
  %broadcast.122 = f32[16,1024]{1,0} broadcast(f32[] %constant.121), dimensions={}, metadata={op_type="aten__pow" op_name="aten__pow" source_file="/usr/local/lib/python3.10/site-packages/torch/_ops.py" source_line=756}
  %power.123 = f32[16,1024]{1,0} power(f32[16,1024]{1,0} %add.111, f32[16,1024]{1,0} %broadcast.122), metadata={op_type="aten__pow" op_name="aten__pow" source_file="/usr/local/lib/python3.10/site-packages/torch/_ops.py" source_line=756}
  %constant.124 = f32[] constant(0), metadata={op_type="aten__mean" op_name="aten__mean" source_file="/usr/local/lib/python3.10/site-packages/torch/_ops.py" source_line=756}
  %reduce.130 = f32[16]{0} reduce(f32[16,1024]{1,0} %power.123, f32[] %constant.124), dimensions={1}, to_apply=%AddComputation.126, metadata={op_type="aten__mean" op_name="aten__mean" source_file="/usr/local/lib/python3.10/site-packages/torch/_ops.py" source_line=756}
  %constant.125 = s32[] constant(1024), metadata={op_type="aten__mean" op_name="aten__mean" source_file="/usr/local/lib/python3.10/site-packages/torch/_ops.py" source_line=756}
  %constant.131 = s32[] constant(0), metadata={op_type="aten__mean" op_name="aten__mean" source_file="/usr/local/lib/python3.10/site-packages/torch/_ops.py" source_line=756}
  %compare.136 = pred[] compare(s32[] %constant.125, s32[] %constant.131), direction=NE, metadata={op_type="aten__mean" op_name="aten__mean" source_file="/usr/local/lib/python3.10/site-packages/torch/_ops.py" source_line=756}
  %constant.132 = f32[] constant(1), metadata={op_type="aten__mean" op_name="aten__mean" source_file="/usr/local/lib/python3.10/site-packages/torch/_ops.py" source_line=756}
  %convert.134 = f32[] convert(s32[] %constant.125), metadata={op_type="aten__mean" op_name="aten__mean" source_file="/usr/local/lib/python3.10/site-packages/torch/_ops.py" source_line=756}
  %divide.135 = f32[] divide(f32[] %constant.132, f32[] %convert.134), metadata={op_type="aten__mean" op_name="aten__mean" source_file="/usr/local/lib/python3.10/site-packages/torch/_ops.py" source_line=756}
  %constant.133 = f32[] constant(nan), metadata={op_type="aten__mean" op_name="aten__mean" source_file="/usr/local/lib/python3.10/site-packages/torch/_ops.py" source_line=756}
  %select.137 = f32[] select(pred[] %compare.136, f32[] %divide.135, f32[] %constant.133), metadata={op_type="aten__mean" op_name="aten__mean" source_file="/usr/local/lib/python3.10/site-packages/torch/_ops.py" source_line=756}
  %broadcast.138 = f32[16]{0} broadcast(f32[] %select.137), dimensions={}, metadata={op_type="aten__mean" op_name="aten__mean" source_file="/usr/local/lib/python3.10/site-packages/torch/_ops.py" source_line=756}
  %multiply.139 = f32[16]{0} multiply(f32[16]{0} %reduce.130, f32[16]{0} %broadcast.138), metadata={op_type="aten__mean" op_name="aten__mean" source_file="/usr/local/lib/python3.10/site-packages/torch/_ops.py" source_line=756}
  %reshape.140 = f32[16,1]{1,0} reshape(f32[16]{0} %multiply.139), metadata={op_type="aten__mean" op_name="aten__mean" source_file="/usr/local/lib/python3.10/site-packages/torch/_ops.py" source_line=756}
  %convert.141 = f32[16,1]{1,0} convert(f32[16,1]{1,0} %reshape.140), metadata={op_type="aten__mean" op_name="aten__mean" source_file="/usr/local/lib/python3.10/site-packages/torch/_ops.py" source_line=756}
  %constant.120 = f32[] constant(1), metadata={op_type="prim__Constant" op_name="prim__Constant" source_file="/usr/local/lib/python3.10/site-packages/torch/_ops.py" source_line=756}
  %multiply.142 = f32[] multiply(f32[] %p1.4, f32[] %constant.120), metadata={op_type="aten__add" op_name="aten__add.32/aten__add" source_file="/usr/local/lib/python3.10/site-packages/torch/_ops.py" source_line=756}
  %broadcast.143 = f32[16,1]{1,0} broadcast(f32[] %multiply.142), dimensions={}, metadata={op_type="aten__add" op_name="aten__add.32/aten__add" source_file="/usr/local/lib/python3.10/site-packages/torch/_ops.py" source_line=756}
  %add.144 = f32[16,1]{1,0} add(f32[16,1]{1,0} %convert.141, f32[16,1]{1,0} %broadcast.143), metadata={op_type="aten__add" op_name="aten__add.32/aten__add" source_file="/usr/local/lib/python3.10/site-packages/torch/_ops.py" source_line=756}
  %rsqrt.145 = f32[16,1]{1,0} rsqrt(f32[16,1]{1,0} %add.144), metadata={op_type="aten__rsqrt" op_name="aten__rsqrt" source_file="/usr/local/lib/python3.10/site-packages/torch/_ops.py" source_line=756}
  %reshape.146 = f32[16]{0} reshape(f32[16,1]{1,0} %rsqrt.145), metadata={op_type="aten__mul" op_name="aten__mul.33/aten__mul" source_file="/usr/local/lib/python3.10/site-packages/torch/_ops.py" source_line=756}
  %broadcast.147 = f32[16,1024]{1,0} broadcast(f32[16]{0} %reshape.146), dimensions={0}, metadata={op_type="aten__mul" op_name="aten__mul.33/aten__mul" source_file="/usr/local/lib/python3.10/site-packages/torch/_ops.py" source_line=756}
  %multiply.148 = f32[16,1024]{1,0} multiply(f32[16,1024]{1,0} %add.111, f32[16,1024]{1,0} %broadcast.147), metadata={op_type="aten__mul" op_name="aten__mul.33/aten__mul" source_file="/usr/local/lib/python3.10/site-packages/torch/_ops.py" source_line=756}
  %convert.149 = bf16[16,1024]{1,0} convert(f32[16,1024]{1,0} %multiply.148), metadata={op_type="xla__cast" op_name="xla__cast" source_file="/usr/local/lib/python3.10/site-packages/torch/_ops.py" source_line=756}
  %convert.150 = f32[16,1024]{1,0} convert(bf16[16,1024]{1,0} %convert.149), metadata={op_type="xla__cast" op_name="xla__cast" source_file="/usr/local/lib/python3.10/site-packages/torch/_ops.py" source_line=756}
  %p13.118 = bf16[1024]{0} parameter(13), metadata={op_type="xla__device_data" op_name="xla__device_data" source_file="/usr/local/lib/python3.10/site-packages/torch_xla/_dynamo/dynamo_bridge.py" source_line=355}
  %convert.119 = f32[1024]{0} convert(bf16[1024]{0} %p13.118), metadata={op_type="xla__cast" op_name="xla__cast" source_file="/usr/local/lib/python3.10/site-packages/torch/_ops.py" source_line=756}
  %broadcast.151 = f32[16,1024]{1,0} broadcast(f32[1024]{0} %convert.119), dimensions={1}, metadata={op_type="aten__mul" op_name="aten__mul.34/aten__mul" source_file="/usr/local/lib/python3.10/site-packages/torch/_ops.py" source_line=756}
  %multiply.152 = f32[16,1024]{1,0} multiply(f32[16,1024]{1,0} %convert.150, f32[16,1024]{1,0} %broadcast.151), metadata={op_type="aten__mul" op_name="aten__mul.34/aten__mul" source_file="/usr/local/lib/python3.10/site-packages/torch/_ops.py" source_line=756}
  %convert.153 = bf16[16,1024]{1,0} convert(f32[16,1024]{1,0} %multiply.152), metadata={op_type="xla__cast" op_name="xla__cast" source_file="/usr/local/lib/python3.10/site-packages/torch/_ops.py" source_line=756}
  %p12.116 = bf16[6144,1024]{1,0} parameter(12), metadata={op_type="xla__device_data" op_name="xla__device_data" source_file="/usr/local/lib/python3.10/site-packages/torch_xla/_dynamo/dynamo_bridge.py" source_line=355}
  %transpose.117 = bf16[1024,6144]{0,1} transpose(bf16[6144,1024]{1,0} %p12.116), dimensions={1,0}, metadata={op_type="aten__permute" op_name="aten__permute" source_file="/usr/local/lib/python3.10/site-packages/torch/_ops.py" source_line=756}
  %dot.154 = bf16[16,6144]{1,0} dot(bf16[16,1024]{1,0} %convert.153, bf16[1024,6144]{0,1} %transpose.117), lhs_contracting_dims={1}, rhs_contracting_dims={0}, metadata={op_type="aten__mm" op_name="aten__mm" source_file="/usr/local/lib/python3.10/site-packages/torch/_ops.py" source_line=756}
  %slice.157 = bf16[16,3072]{1,0} slice(bf16[16,6144]{1,0} %dot.154), slice={[0:16], [0:3072]}, metadata={op_type="xla__select" op_name="xla__select" source_file="/usr/local/lib/python3.10/site-packages/torch/_ops.py" source_line=756}
  %logistic.158 = bf16[16,3072]{1,0} logistic(bf16[16,3072]{1,0} %slice.157), metadata={op_type="aten__silu" op_name="aten__silu" source_file="/usr/local/lib/python3.10/site-packages/torch/_ops.py" source_line=756}
  %multiply.159 = bf16[16,3072]{1,0} multiply(bf16[16,3072]{1,0} %slice.157, bf16[16,3072]{1,0} %logistic.158), metadata={op_type="aten__silu" op_name="aten__silu" source_file="/usr/local/lib/python3.10/site-packages/torch/_ops.py" source_line=756}
  %convert.160 = f32[16,3072]{1,0} convert(bf16[16,3072]{1,0} %multiply.159), metadata={op_type="xla__cast" op_name="xla__cast" source_file="/usr/local/lib/python3.10/site-packages/torch/_ops.py" source_line=756}
  %slice.155 = bf16[16,3072]{1,0} slice(bf16[16,6144]{1,0} %dot.154), slice={[0:16], [3072:6144]}, metadata={op_type="xla__select" op_name="xla__select" source_file="/usr/local/lib/python3.10/site-packages/torch/_ops.py" source_line=756}
  %convert.156 = f32[16,3072]{1,0} convert(bf16[16,3072]{1,0} %slice.155), metadata={op_type="xla__cast" op_name="xla__cast" source_file="/usr/local/lib/python3.10/site-packages/torch/_ops.py" source_line=756}
  %multiply.161 = f32[16,3072]{1,0} multiply(f32[16,3072]{1,0} %convert.160, f32[16,3072]{1,0} %convert.156), metadata={op_type="aten__mul" op_name="aten__mul.35/aten__mul" source_file="/usr/local/lib/python3.10/site-packages/torch/_ops.py" source_line=756}
  %convert.162 = bf16[16,3072]{1,0} convert(f32[16,3072]{1,0} %multiply.161), metadata={op_type="xla__cast" op_name="xla__cast" source_file="/usr/local/lib/python3.10/site-packages/torch/_ops.py" source_line=756}
  %p11.114 = bf16[1024,3072]{1,0} parameter(11), metadata={op_type="xla__device_data" op_name="xla__device_data" source_file="/usr/local/lib/python3.10/site-packages/torch_xla/_dynamo/dynamo_bridge.py" source_line=355}
  %transpose.115 = bf16[3072,1024]{0,1} transpose(bf16[1024,3072]{1,0} %p11.114), dimensions={1,0}, metadata={op_type="aten__permute" op_name="aten__permute" source_file="/usr/local/lib/python3.10/site-packages/torch/_ops.py" source_line=756}
  %dot.163 = bf16[16,1024]{1,0} dot(bf16[16,3072]{1,0} %convert.162, bf16[3072,1024]{0,1} %transpose.115), lhs_contracting_dims={1}, rhs_contracting_dims={0}, metadata={op_type="aten__mm" op_name="aten__mm" source_file="/usr/local/lib/python3.10/site-packages/torch/_ops.py" source_line=756}
  %convert.164 = f32[16,1024]{1,0} convert(bf16[16,1024]{1,0} %dot.163), metadata={op_type="xla__cast" op_name="xla__cast" source_file="/usr/local/lib/python3.10/site-packages/torch/_ops.py" source_line=756}
  %convert.112 = bf16[16,1024]{1,0} convert(f32[16,1024]{1,0} %add.111), metadata={op_type="xla__cast" op_name="xla__cast" source_file="/usr/local/lib/python3.10/site-packages/torch/_ops.py" source_line=756}
  %convert.113 = f32[16,1024]{1,0} convert(bf16[16,1024]{1,0} %convert.112), metadata={op_type="xla__cast" op_name="xla__cast" source_file="/usr/local/lib/python3.10/site-packages/torch/_ops.py" source_line=756}
  %constant.16 = f32[] constant(1), metadata={op_type="prim__Constant" op_name="prim__Constant" source_file="/usr/local/lib/python3.10/site-packages/torch/_ops.py" source_line=756}
  %broadcast.165 = f32[16,1024]{1,0} broadcast(f32[] %constant.16), dimensions={}, metadata={op_type="aten__add" op_name="aten__add.36/aten__add" source_file="/usr/local/lib/python3.10/site-packages/torch/_ops.py" source_line=756}
  %multiply.166 = f32[16,1024]{1,0} multiply(f32[16,1024]{1,0} %convert.113, f32[16,1024]{1,0} %broadcast.165), metadata={op_type="aten__add" op_name="aten__add.36/aten__add" source_file="/usr/local/lib/python3.10/site-packages/torch/_ops.py" source_line=756}
  %add.167 = f32[16,1024]{1,0} add(f32[16,1024]{1,0} %convert.164, f32[16,1024]{1,0} %multiply.166), metadata={op_type="aten__add" op_name="aten__add.36/aten__add" source_file="/usr/local/lib/python3.10/site-packages/torch/_ops.py" source_line=756}
  %convert.168 = bf16[16,1024]{1,0} convert(f32[16,1024]{1,0} %add.167), metadata={op_type="xla__cast" op_name="xla__cast" source_file="/usr/local/lib/python3.10/site-packages/torch/_ops.py" source_line=756}
  %convert.169 = f32[16,1024]{1,0} convert(bf16[16,1024]{1,0} %convert.168), metadata={op_type="xla__cast" op_name="xla__cast" source_file="/usr/local/lib/python3.10/site-packages/torch/_ops.py" source_line=756}
  %constant.15 = f32[] constant(1), metadata={op_type="prim__Constant" op_name="prim__Constant" source_file="/usr/local/lib/python3.10/site-packages/torch/_ops.py" source_line=756}
  %broadcast.181 = f32[16,1024]{1,0} broadcast(f32[] %constant.15), dimensions={}, metadata={op_type="aten__add" op_name="aten__add.49/aten__add" source_file="/usr/local/lib/python3.10/site-packages/torch/_ops.py" source_line=756}
  %multiply.182 = f32[16,1024]{1,0} multiply(f32[16,1024]{1,0} %convert.169, f32[16,1024]{1,0} %broadcast.181), metadata={op_type="aten__add" op_name="aten__add.49/aten__add" source_file="/usr/local/lib/python3.10/site-packages/torch/_ops.py" source_line=756}
  %add.183 = f32[16,1024]{1,0} add(f32[16,1024]{1,0} %convert.180, f32[16,1024]{1,0} %multiply.182), metadata={op_type="aten__add" op_name="aten__add.49/aten__add" source_file="/usr/local/lib/python3.10/site-packages/torch/_ops.py" source_line=756}
  %constant.193 = f32[] constant(2), metadata={op_type="prim__Constant" op_name="prim__Constant" source_file="/usr/local/lib/python3.10/site-packages/torch/_ops.py" source_line=756}
  %broadcast.194 = f32[16,1024]{1,0} broadcast(f32[] %constant.193), dimensions={}, metadata={op_type="aten__pow" op_name="aten__pow" source_file="/usr/local/lib/python3.10/site-packages/torch/_ops.py" source_line=756}
  %power.195 = f32[16,1024]{1,0} power(f32[16,1024]{1,0} %add.183, f32[16,1024]{1,0} %broadcast.194), metadata={op_type="aten__pow" op_name="aten__pow" source_file="/usr/local/lib/python3.10/site-packages/torch/_ops.py" source_line=756}
  %constant.196 = f32[] constant(0), metadata={op_type="aten__mean" op_name="aten__mean" source_file="/usr/local/lib/python3.10/site-packages/torch/_ops.py" source_line=756}
  %reduce.202 = f32[16]{0} reduce(f32[16,1024]{1,0} %power.195, f32[] %constant.196), dimensions={1}, to_apply=%AddComputation.198, metadata={op_type="aten__mean" op_name="aten__mean" source_file="/usr/local/lib/python3.10/site-packages/torch/_ops.py" source_line=756}
  %constant.197 = s32[] constant(1024), metadata={op_type="aten__mean" op_name="aten__mean" source_file="/usr/local/lib/python3.10/site-packages/torch/_ops.py" source_line=756}
  %constant.203 = s32[] constant(0), metadata={op_type="aten__mean" op_name="aten__mean" source_file="/usr/local/lib/python3.10/site-packages/torch/_ops.py" source_line=756}
  %compare.208 = pred[] compare(s32[] %constant.197, s32[] %constant.203), direction=NE, metadata={op_type="aten__mean" op_name="aten__mean" source_file="/usr/local/lib/python3.10/site-packages/torch/_ops.py" source_line=756}
  %constant.204 = f32[] constant(1), metadata={op_type="aten__mean" op_name="aten__mean" source_file="/usr/local/lib/python3.10/site-packages/torch/_ops.py" source_line=756}
  %convert.206 = f32[] convert(s32[] %constant.197), metadata={op_type="aten__mean" op_name="aten__mean" source_file="/usr/local/lib/python3.10/site-packages/torch/_ops.py" source_line=756}
  %divide.207 = f32[] divide(f32[] %constant.204, f32[] %convert.206), metadata={op_type="aten__mean" op_name="aten__mean" source_file="/usr/local/lib/python3.10/site-packages/torch/_ops.py" source_line=756}
  %constant.205 = f32[] constant(nan), metadata={op_type="aten__mean" op_name="aten__mean" source_file="/usr/local/lib/python3.10/site-packages/torch/_ops.py" source_line=756}
  %select.209 = f32[] select(pred[] %compare.208, f32[] %divide.207, f32[] %constant.205), metadata={op_type="aten__mean" op_name="aten__mean" source_file="/usr/local/lib/python3.10/site-packages/torch/_ops.py" source_line=756}
  %broadcast.210 = f32[16]{0} broadcast(f32[] %select.209), dimensions={}, metadata={op_type="aten__mean" op_name="aten__mean" source_file="/usr/local/lib/python3.10/site-packages/torch/_ops.py" source_line=756}
  %multiply.211 = f32[16]{0} multiply(f32[16]{0} %reduce.202, f32[16]{0} %broadcast.210), metadata={op_type="aten__mean" op_name="aten__mean" source_file="/usr/local/lib/python3.10/site-packages/torch/_ops.py" source_line=756}
  %reshape.212 = f32[16,1]{1,0} reshape(f32[16]{0} %multiply.211), metadata={op_type="aten__mean" op_name="aten__mean" source_file="/usr/local/lib/python3.10/site-packages/torch/_ops.py" source_line=756}
  %convert.213 = f32[16,1]{1,0} convert(f32[16,1]{1,0} %reshape.212), metadata={op_type="aten__mean" op_name="aten__mean" source_file="/usr/local/lib/python3.10/site-packages/torch/_ops.py" source_line=756}
  %constant.192 = f32[] constant(1), metadata={op_type="prim__Constant" op_name="prim__Constant" source_file="/usr/local/lib/python3.10/site-packages/torch/_ops.py" source_line=756}
  %multiply.214 = f32[] multiply(f32[] %p1.4, f32[] %constant.192), metadata={op_type="aten__add" op_name="aten__add.50/aten__add" source_file="/usr/local/lib/python3.10/site-packages/torch/_ops.py" source_line=756}
  %broadcast.215 = f32[16,1]{1,0} broadcast(f32[] %multiply.214), dimensions={}, metadata={op_type="aten__add" op_name="aten__add.50/aten__add" source_file="/usr/local/lib/python3.10/site-packages/torch/_ops.py" source_line=756}
  %add.216 = f32[16,1]{1,0} add(f32[16,1]{1,0} %convert.213, f32[16,1]{1,0} %broadcast.215), metadata={op_type="aten__add" op_name="aten__add.50/aten__add" source_file="/usr/local/lib/python3.10/site-packages/torch/_ops.py" source_line=756}
  %rsqrt.217 = f32[16,1]{1,0} rsqrt(f32[16,1]{1,0} %add.216), metadata={op_type="aten__rsqrt" op_name="aten__rsqrt" source_file="/usr/local/lib/python3.10/site-packages/torch/_ops.py" source_line=756}
  %reshape.218 = f32[16]{0} reshape(f32[16,1]{1,0} %rsqrt.217), metadata={op_type="aten__mul" op_name="aten__mul.51/aten__mul" source_file="/usr/local/lib/python3.10/site-packages/torch/_ops.py" source_line=756}
  %broadcast.219 = f32[16,1024]{1,0} broadcast(f32[16]{0} %reshape.218), dimensions={0}, metadata={op_type="aten__mul" op_name="aten__mul.51/aten__mul" source_file="/usr/local/lib/python3.10/site-packages/torch/_ops.py" source_line=756}
  %multiply.220 = f32[16,1024]{1,0} multiply(f32[16,1024]{1,0} %add.183, f32[16,1024]{1,0} %broadcast.219), metadata={op_type="aten__mul" op_name="aten__mul.51/aten__mul" source_file="/usr/local/lib/python3.10/site-packages/torch/_ops.py" source_line=756}
  %convert.221 = bf16[16,1024]{1,0} convert(f32[16,1024]{1,0} %multiply.220), metadata={op_type="xla__cast" op_name="xla__cast" source_file="/usr/local/lib/python3.10/site-packages/torch/_ops.py" source_line=756}
  %convert.222 = f32[16,1024]{1,0} convert(bf16[16,1024]{1,0} %convert.221), metadata={op_type="xla__cast" op_name="xla__cast" source_file="/usr/local/lib/python3.10/site-packages/torch/_ops.py" source_line=756}
  %p17.190 = bf16[1024]{0} parameter(17), metadata={op_type="xla__device_data" op_name="xla__device_data" source_file="/usr/local/lib/python3.10/site-packages/torch_xla/_dynamo/dynamo_bridge.py" source_line=355}
  %convert.191 = f32[1024]{0} convert(bf16[1024]{0} %p17.190), metadata={op_type="xla__cast" op_name="xla__cast" source_file="/usr/local/lib/python3.10/site-packages/torch/_ops.py" source_line=756}
  %broadcast.223 = f32[16,1024]{1,0} broadcast(f32[1024]{0} %convert.191), dimensions={1}, metadata={op_type="aten__mul" op_name="aten__mul.52/aten__mul" source_file="/usr/local/lib/python3.10/site-packages/torch/_ops.py" source_line=756}
  %multiply.224 = f32[16,1024]{1,0} multiply(f32[16,1024]{1,0} %convert.222, f32[16,1024]{1,0} %broadcast.223), metadata={op_type="aten__mul" op_name="aten__mul.52/aten__mul" source_file="/usr/local/lib/python3.10/site-packages/torch/_ops.py" source_line=756}
  %convert.225 = bf16[16,1024]{1,0} convert(f32[16,1024]{1,0} %multiply.224), metadata={op_type="xla__cast" op_name="xla__cast" source_file="/usr/local/lib/python3.10/site-packages/torch/_ops.py" source_line=756}
  %p16.188 = bf16[6144,1024]{1,0} parameter(16), metadata={op_type="xla__device_data" op_name="xla__device_data" source_file="/usr/local/lib/python3.10/site-packages/torch_xla/_dynamo/dynamo_bridge.py" source_line=355}
  %transpose.189 = bf16[1024,6144]{0,1} transpose(bf16[6144,1024]{1,0} %p16.188), dimensions={1,0}, metadata={op_type="aten__permute" op_name="aten__permute" source_file="/usr/local/lib/python3.10/site-packages/torch/_ops.py" source_line=756}
  %dot.226 = bf16[16,6144]{1,0} dot(bf16[16,1024]{1,0} %convert.225, bf16[1024,6144]{0,1} %transpose.189), lhs_contracting_dims={1}, rhs_contracting_dims={0}, metadata={op_type="aten__mm" op_name="aten__mm" source_file="/usr/local/lib/python3.10/site-packages/torch/_ops.py" source_line=756}
  %slice.229 = bf16[16,3072]{1,0} slice(bf16[16,6144]{1,0} %dot.226), slice={[0:16], [0:3072]}, metadata={op_type="xla__select" op_name="xla__select" source_file="/usr/local/lib/python3.10/site-packages/torch/_ops.py" source_line=756}
  %logistic.230 = bf16[16,3072]{1,0} logistic(bf16[16,3072]{1,0} %slice.229), metadata={op_type="aten__silu" op_name="aten__silu" source_file="/usr/local/lib/python3.10/site-packages/torch/_ops.py" source_line=756}
  %multiply.231 = bf16[16,3072]{1,0} multiply(bf16[16,3072]{1,0} %slice.229, bf16[16,3072]{1,0} %logistic.230), metadata={op_type="aten__silu" op_name="aten__silu" source_file="/usr/local/lib/python3.10/site-packages/torch/_ops.py" source_line=756}
  %convert.232 = f32[16,3072]{1,0} convert(bf16[16,3072]{1,0} %multiply.231), metadata={op_type="xla__cast" op_name="xla__cast" source_file="/usr/local/lib/python3.10/site-packages/torch/_ops.py" source_line=756}
  %slice.227 = bf16[16,3072]{1,0} slice(bf16[16,6144]{1,0} %dot.226), slice={[0:16], [3072:6144]}, metadata={op_type="xla__select" op_name="xla__select" source_file="/usr/local/lib/python3.10/site-packages/torch/_ops.py" source_line=756}
  %convert.228 = f32[16,3072]{1,0} convert(bf16[16,3072]{1,0} %slice.227), metadata={op_type="xla__cast" op_name="xla__cast" source_file="/usr/local/lib/python3.10/site-packages/torch/_ops.py" source_line=756}
  %multiply.233 = f32[16,3072]{1,0} multiply(f32[16,3072]{1,0} %convert.232, f32[16,3072]{1,0} %convert.228), metadata={op_type="aten__mul" op_name="aten__mul.53/aten__mul" source_file="/usr/local/lib/python3.10/site-packages/torch/_ops.py" source_line=756}
  %convert.234 = bf16[16,3072]{1,0} convert(f32[16,3072]{1,0} %multiply.233), metadata={op_type="xla__cast" op_name="xla__cast" source_file="/usr/local/lib/python3.10/site-packages/torch/_ops.py" source_line=756}
  %p15.186 = bf16[1024,3072]{1,0} parameter(15), metadata={op_type="xla__device_data" op_name="xla__device_data" source_file="/usr/local/lib/python3.10/site-packages/torch_xla/_dynamo/dynamo_bridge.py" source_line=355}
  %transpose.187 = bf16[3072,1024]{0,1} transpose(bf16[1024,3072]{1,0} %p15.186), dimensions={1,0}, metadata={op_type="aten__permute" op_name="aten__permute" source_file="/usr/local/lib/python3.10/site-packages/torch/_ops.py" source_line=756}
  %dot.235 = bf16[16,1024]{1,0} dot(bf16[16,3072]{1,0} %convert.234, bf16[3072,1024]{0,1} %transpose.187), lhs_contracting_dims={1}, rhs_contracting_dims={0}, metadata={op_type="aten__mm" op_name="aten__mm" source_file="/usr/local/lib/python3.10/site-packages/torch/_ops.py" source_line=756}
  %convert.236 = f32[16,1024]{1,0} convert(bf16[16,1024]{1,0} %dot.235), metadata={op_type="xla__cast" op_name="xla__cast" source_file="/usr/local/lib/python3.10/site-packages/torch/_ops.py" source_line=756}
  %convert.184 = bf16[16,1024]{1,0} convert(f32[16,1024]{1,0} %add.183), metadata={op_type="xla__cast" op_name="xla__cast" source_file="/usr/local/lib/python3.10/site-packages/torch/_ops.py" source_line=756}
  %convert.185 = f32[16,1024]{1,0} convert(bf16[16,1024]{1,0} %convert.184), metadata={op_type="xla__cast" op_name="xla__cast" source_file="/usr/local/lib/python3.10/site-packages/torch/_ops.py" source_line=756}
  %constant.14 = f32[] constant(1), metadata={op_type="prim__Constant" op_name="prim__Constant" source_file="/usr/local/lib/python3.10/site-packages/torch/_ops.py" source_line=756}
  %broadcast.237 = f32[16,1024]{1,0} broadcast(f32[] %constant.14), dimensions={}, metadata={op_type="aten__add" op_name="aten__add.54/aten__add" source_file="/usr/local/lib/python3.10/site-packages/torch/_ops.py" source_line=756}
  %multiply.238 = f32[16,1024]{1,0} multiply(f32[16,1024]{1,0} %convert.185, f32[16,1024]{1,0} %broadcast.237), metadata={op_type="aten__add" op_name="aten__add.54/aten__add" source_file="/usr/local/lib/python3.10/site-packages/torch/_ops.py" source_line=756}
  %add.239 = f32[16,1024]{1,0} add(f32[16,1024]{1,0} %convert.236, f32[16,1024]{1,0} %multiply.238), metadata={op_type="aten__add" op_name="aten__add.54/aten__add" source_file="/usr/local/lib/python3.10/site-packages/torch/_ops.py" source_line=756}
  %convert.240 = bf16[16,1024]{1,0} convert(f32[16,1024]{1,0} %add.239), metadata={op_type="xla__cast" op_name="xla__cast" source_file="/usr/local/lib/python3.10/site-packages/torch/_ops.py" source_line=756}
  %convert.241 = f32[16,1024]{1,0} convert(bf16[16,1024]{1,0} %convert.240), metadata={op_type="xla__cast" op_name="xla__cast" source_file="/usr/local/lib/python3.10/site-packages/torch/_ops.py" source_line=756}
  %constant.13 = f32[] constant(1), metadata={op_type="prim__Constant" op_name="prim__Constant" source_file="/usr/local/lib/python3.10/site-packages/torch/_ops.py" source_line=756}
  %broadcast.253 = f32[16,1024]{1,0} broadcast(f32[] %constant.13), dimensions={}, metadata={op_type="aten__add" op_name="aten__add.67/aten__add" source_file="/usr/local/lib/python3.10/site-packages/torch/_ops.py" source_line=756}
  %multiply.254 = f32[16,1024]{1,0} multiply(f32[16,1024]{1,0} %convert.241, f32[16,1024]{1,0} %broadcast.253), metadata={op_type="aten__add" op_name="aten__add.67/aten__add" source_file="/usr/local/lib/python3.10/site-packages/torch/_ops.py" source_line=756}
  %add.255 = f32[16,1024]{1,0} add(f32[16,1024]{1,0} %convert.252, f32[16,1024]{1,0} %multiply.254), metadata={op_type="aten__add" op_name="aten__add.67/aten__add" source_file="/usr/local/lib/python3.10/site-packages/torch/_ops.py" source_line=756}
  %constant.265 = f32[] constant(2), metadata={op_type="prim__Constant" op_name="prim__Constant" source_file="/usr/local/lib/python3.10/site-packages/torch/_ops.py" source_line=756}
  %broadcast.266 = f32[16,1024]{1,0} broadcast(f32[] %constant.265), dimensions={}, metadata={op_type="aten__pow" op_name="aten__pow" source_file="/usr/local/lib/python3.10/site-packages/torch/_ops.py" source_line=756}
  %power.267 = f32[16,1024]{1,0} power(f32[16,1024]{1,0} %add.255, f32[16,1024]{1,0} %broadcast.266), metadata={op_type="aten__pow" op_name="aten__pow" source_file="/usr/local/lib/python3.10/site-packages/torch/_ops.py" source_line=756}
  %constant.268 = f32[] constant(0), metadata={op_type="aten__mean" op_name="aten__mean" source_file="/usr/local/lib/python3.10/site-packages/torch/_ops.py" source_line=756}
  %reduce.274 = f32[16]{0} reduce(f32[16,1024]{1,0} %power.267, f32[] %constant.268), dimensions={1}, to_apply=%AddComputation.270, metadata={op_type="aten__mean" op_name="aten__mean" source_file="/usr/local/lib/python3.10/site-packages/torch/_ops.py" source_line=756}
  %constant.269 = s32[] constant(1024), metadata={op_type="aten__mean" op_name="aten__mean" source_file="/usr/local/lib/python3.10/site-packages/torch/_ops.py" source_line=756}
  %constant.275 = s32[] constant(0), metadata={op_type="aten__mean" op_name="aten__mean" source_file="/usr/local/lib/python3.10/site-packages/torch/_ops.py" source_line=756}
  %compare.280 = pred[] compare(s32[] %constant.269, s32[] %constant.275), direction=NE, metadata={op_type="aten__mean" op_name="aten__mean" source_file="/usr/local/lib/python3.10/site-packages/torch/_ops.py" source_line=756}
  %constant.276 = f32[] constant(1), metadata={op_type="aten__mean" op_name="aten__mean" source_file="/usr/local/lib/python3.10/site-packages/torch/_ops.py" source_line=756}
  %convert.278 = f32[] convert(s32[] %constant.269), metadata={op_type="aten__mean" op_name="aten__mean" source_file="/usr/local/lib/python3.10/site-packages/torch/_ops.py" source_line=756}
  %divide.279 = f32[] divide(f32[] %constant.276, f32[] %convert.278), metadata={op_type="aten__mean" op_name="aten__mean" source_file="/usr/local/lib/python3.10/site-packages/torch/_ops.py" source_line=756}
  %constant.277 = f32[] constant(nan), metadata={op_type="aten__mean" op_name="aten__mean" source_file="/usr/local/lib/python3.10/site-packages/torch/_ops.py" source_line=756}
  %select.281 = f32[] select(pred[] %compare.280, f32[] %divide.279, f32[] %constant.277), metadata={op_type="aten__mean" op_name="aten__mean" source_file="/usr/local/lib/python3.10/site-packages/torch/_ops.py" source_line=756}
  %broadcast.282 = f32[16]{0} broadcast(f32[] %select.281), dimensions={}, metadata={op_type="aten__mean" op_name="aten__mean" source_file="/usr/local/lib/python3.10/site-packages/torch/_ops.py" source_line=756}
  %multiply.283 = f32[16]{0} multiply(f32[16]{0} %reduce.274, f32[16]{0} %broadcast.282), metadata={op_type="aten__mean" op_name="aten__mean" source_file="/usr/local/lib/python3.10/site-packages/torch/_ops.py" source_line=756}
  %reshape.284 = f32[16,1]{1,0} reshape(f32[16]{0} %multiply.283), metadata={op_type="aten__mean" op_name="aten__mean" source_file="/usr/local/lib/python3.10/site-packages/torch/_ops.py" source_line=756}
  %convert.285 = f32[16,1]{1,0} convert(f32[16,1]{1,0} %reshape.284), metadata={op_type="aten__mean" op_name="aten__mean" source_file="/usr/local/lib/python3.10/site-packages/torch/_ops.py" source_line=756}
  %constant.264 = f32[] constant(1), metadata={op_type="prim__Constant" op_name="prim__Constant" source_file="/usr/local/lib/python3.10/site-packages/torch/_ops.py" source_line=756}
  %multiply.286 = f32[] multiply(f32[] %p1.4, f32[] %constant.264), metadata={op_type="aten__add" op_name="aten__add.68/aten__add" source_file="/usr/local/lib/python3.10/site-packages/torch/_ops.py" source_line=756}
  %broadcast.287 = f32[16,1]{1,0} broadcast(f32[] %multiply.286), dimensions={}, metadata={op_type="aten__add" op_name="aten__add.68/aten__add" source_file="/usr/local/lib/python3.10/site-packages/torch/_ops.py" source_line=756}
  %add.288 = f32[16,1]{1,0} add(f32[16,1]{1,0} %convert.285, f32[16,1]{1,0} %broadcast.287), metadata={op_type="aten__add" op_name="aten__add.68/aten__add" source_file="/usr/local/lib/python3.10/site-packages/torch/_ops.py" source_line=756}
  %rsqrt.289 = f32[16,1]{1,0} rsqrt(f32[16,1]{1,0} %add.288), metadata={op_type="aten__rsqrt" op_name="aten__rsqrt" source_file="/usr/local/lib/python3.10/site-packages/torch/_ops.py" source_line=756}
  %reshape.290 = f32[16]{0} reshape(f32[16,1]{1,0} %rsqrt.289), metadata={op_type="aten__mul" op_name="aten__mul.69/aten__mul" source_file="/usr/local/lib/python3.10/site-packages/torch/_ops.py" source_line=756}
  %broadcast.291 = f32[16,1024]{1,0} broadcast(f32[16]{0} %reshape.290), dimensions={0}, metadata={op_type="aten__mul" op_name="aten__mul.69/aten__mul" source_file="/usr/local/lib/python3.10/site-packages/torch/_ops.py" source_line=756}
  %multiply.292 = f32[16,1024]{1,0} multiply(f32[16,1024]{1,0} %add.255, f32[16,1024]{1,0} %broadcast.291), metadata={op_type="aten__mul" op_name="aten__mul.69/aten__mul" source_file="/usr/local/lib/python3.10/site-packages/torch/_ops.py" source_line=756}
  %convert.293 = bf16[16,1024]{1,0} convert(f32[16,1024]{1,0} %multiply.292), metadata={op_type="xla__cast" op_name="xla__cast" source_file="/usr/local/lib/python3.10/site-packages/torch/_ops.py" source_line=756}
  %convert.294 = f32[16,1024]{1,0} convert(bf16[16,1024]{1,0} %convert.293), metadata={op_type="xla__cast" op_name="xla__cast" source_file="/usr/local/lib/python3.10/site-packages/torch/_ops.py" source_line=756}
  %p21.262 = bf16[1024]{0} parameter(21), metadata={op_type="xla__device_data" op_name="xla__device_data" source_file="/usr/local/lib/python3.10/site-packages/torch_xla/_dynamo/dynamo_bridge.py" source_line=355}
  %convert.263 = f32[1024]{0} convert(bf16[1024]{0} %p21.262), metadata={op_type="xla__cast" op_name="xla__cast" source_file="/usr/local/lib/python3.10/site-packages/torch/_ops.py" source_line=756}
  %broadcast.295 = f32[16,1024]{1,0} broadcast(f32[1024]{0} %convert.263), dimensions={1}, metadata={op_type="aten__mul" op_name="aten__mul.70/aten__mul" source_file="/usr/local/lib/python3.10/site-packages/torch/_ops.py" source_line=756}
  %multiply.296 = f32[16,1024]{1,0} multiply(f32[16,1024]{1,0} %convert.294, f32[16,1024]{1,0} %broadcast.295), metadata={op_type="aten__mul" op_name="aten__mul.70/aten__mul" source_file="/usr/local/lib/python3.10/site-packages/torch/_ops.py" source_line=756}
  %convert.297 = bf16[16,1024]{1,0} convert(f32[16,1024]{1,0} %multiply.296), metadata={op_type="xla__cast" op_name="xla__cast" source_file="/usr/local/lib/python3.10/site-packages/torch/_ops.py" source_line=756}
  %p20.260 = bf16[6144,1024]{1,0} parameter(20), metadata={op_type="xla__device_data" op_name="xla__device_data" source_file="/usr/local/lib/python3.10/site-packages/torch_xla/_dynamo/dynamo_bridge.py" source_line=355}
  %transpose.261 = bf16[1024,6144]{0,1} transpose(bf16[6144,1024]{1,0} %p20.260), dimensions={1,0}, metadata={op_type="aten__permute" op_name="aten__permute" source_file="/usr/local/lib/python3.10/site-packages/torch/_ops.py" source_line=756}
  %dot.298 = bf16[16,6144]{1,0} dot(bf16[16,1024]{1,0} %convert.297, bf16[1024,6144]{0,1} %transpose.261), lhs_contracting_dims={1}, rhs_contracting_dims={0}, metadata={op_type="aten__mm" op_name="aten__mm" source_file="/usr/local/lib/python3.10/site-packages/torch/_ops.py" source_line=756}
  %slice.301 = bf16[16,3072]{1,0} slice(bf16[16,6144]{1,0} %dot.298), slice={[0:16], [0:3072]}, metadata={op_type="xla__select" op_name="xla__select" source_file="/usr/local/lib/python3.10/site-packages/torch/_ops.py" source_line=756}
  %logistic.302 = bf16[16,3072]{1,0} logistic(bf16[16,3072]{1,0} %slice.301), metadata={op_type="aten__silu" op_name="aten__silu" source_file="/usr/local/lib/python3.10/site-packages/torch/_ops.py" source_line=756}
  %multiply.303 = bf16[16,3072]{1,0} multiply(bf16[16,3072]{1,0} %slice.301, bf16[16,3072]{1,0} %logistic.302), metadata={op_type="aten__silu" op_name="aten__silu" source_file="/usr/local/lib/python3.10/site-packages/torch/_ops.py" source_line=756}
  %convert.304 = f32[16,3072]{1,0} convert(bf16[16,3072]{1,0} %multiply.303), metadata={op_type="xla__cast" op_name="xla__cast" source_file="/usr/local/lib/python3.10/site-packages/torch/_ops.py" source_line=756}
  %slice.299 = bf16[16,3072]{1,0} slice(bf16[16,6144]{1,0} %dot.298), slice={[0:16], [3072:6144]}, metadata={op_type="xla__select" op_name="xla__select" source_file="/usr/local/lib/python3.10/site-packages/torch/_ops.py" source_line=756}
  %convert.300 = f32[16,3072]{1,0} convert(bf16[16,3072]{1,0} %slice.299), metadata={op_type="xla__cast" op_name="xla__cast" source_file="/usr/local/lib/python3.10/site-packages/torch/_ops.py" source_line=756}
  %multiply.305 = f32[16,3072]{1,0} multiply(f32[16,3072]{1,0} %convert.304, f32[16,3072]{1,0} %convert.300), metadata={op_type="aten__mul" op_name="aten__mul.71/aten__mul" source_file="/usr/local/lib/python3.10/site-packages/torch/_ops.py" source_line=756}
  %convert.306 = bf16[16,3072]{1,0} convert(f32[16,3072]{1,0} %multiply.305), metadata={op_type="xla__cast" op_name="xla__cast" source_file="/usr/local/lib/python3.10/site-packages/torch/_ops.py" source_line=756}
  %p19.258 = bf16[1024,3072]{1,0} parameter(19), metadata={op_type="xla__device_data" op_name="xla__device_data" source_file="/usr/local/lib/python3.10/site-packages/torch_xla/_dynamo/dynamo_bridge.py" source_line=355}
  %transpose.259 = bf16[3072,1024]{0,1} transpose(bf16[1024,3072]{1,0} %p19.258), dimensions={1,0}, metadata={op_type="aten__permute" op_name="aten__permute" source_file="/usr/local/lib/python3.10/site-packages/torch/_ops.py" source_line=756}
  %dot.307 = bf16[16,1024]{1,0} dot(bf16[16,3072]{1,0} %convert.306, bf16[3072,1024]{0,1} %transpose.259), lhs_contracting_dims={1}, rhs_contracting_dims={0}, metadata={op_type="aten__mm" op_name="aten__mm" source_file="/usr/local/lib/python3.10/site-packages/torch/_ops.py" source_line=756}
  %convert.308 = f32[16,1024]{1,0} convert(bf16[16,1024]{1,0} %dot.307), metadata={op_type="xla__cast" op_name="xla__cast" source_file="/usr/local/lib/python3.10/site-packages/torch/_ops.py" source_line=756}
  %convert.256 = bf16[16,1024]{1,0} convert(f32[16,1024]{1,0} %add.255), metadata={op_type="xla__cast" op_name="xla__cast" source_file="/usr/local/lib/python3.10/site-packages/torch/_ops.py" source_line=756}
  %convert.257 = f32[16,1024]{1,0} convert(bf16[16,1024]{1,0} %convert.256), metadata={op_type="xla__cast" op_name="xla__cast" source_file="/usr/local/lib/python3.10/site-packages/torch/_ops.py" source_line=756}
  %constant.12 = f32[] constant(1), metadata={op_type="prim__Constant" op_name="prim__Constant" source_file="/usr/local/lib/python3.10/site-packages/torch/_ops.py" source_line=756}
  %broadcast.309 = f32[16,1024]{1,0} broadcast(f32[] %constant.12), dimensions={}, metadata={op_type="aten__add" op_name="aten__add.72/aten__add" source_file="/usr/local/lib/python3.10/site-packages/torch/_ops.py" source_line=756}
  %multiply.310 = f32[16,1024]{1,0} multiply(f32[16,1024]{1,0} %convert.257, f32[16,1024]{1,0} %broadcast.309), metadata={op_type="aten__add" op_name="aten__add.72/aten__add" source_file="/usr/local/lib/python3.10/site-packages/torch/_ops.py" source_line=756}
  %add.311 = f32[16,1024]{1,0} add(f32[16,1024]{1,0} %convert.308, f32[16,1024]{1,0} %multiply.310), metadata={op_type="aten__add" op_name="aten__add.72/aten__add" source_file="/usr/local/lib/python3.10/site-packages/torch/_ops.py" source_line=756}
  %constant.11 = f32[] constant(2), metadata={op_type="prim__Constant" op_name="prim__Constant" source_file="/usr/local/lib/python3.10/site-packages/torch/_ops.py" source_line=756}
  %broadcast.312 = f32[16,1024]{1,0} broadcast(f32[] %constant.11), dimensions={}, metadata={op_type="aten__pow" op_name="aten__pow" source_file="/usr/local/lib/python3.10/site-packages/torch/_ops.py" source_line=756}
  %power.313 = f32[16,1024]{1,0} power(f32[16,1024]{1,0} %add.311, f32[16,1024]{1,0} %broadcast.312), metadata={op_type="aten__pow" op_name="aten__pow" source_file="/usr/local/lib/python3.10/site-packages/torch/_ops.py" source_line=756}
  %constant.314 = f32[] constant(0), metadata={op_type="aten__mean" op_name="aten__mean" source_file="/usr/local/lib/python3.10/site-packages/torch/_ops.py" source_line=756}
  %reduce.320 = f32[16]{0} reduce(f32[16,1024]{1,0} %power.313, f32[] %constant.314), dimensions={1}, to_apply=%AddComputation.316, metadata={op_type="aten__mean" op_name="aten__mean" source_file="/usr/local/lib/python3.10/site-packages/torch/_ops.py" source_line=756}
  %constant.315 = s32[] constant(1024), metadata={op_type="aten__mean" op_name="aten__mean" source_file="/usr/local/lib/python3.10/site-packages/torch/_ops.py" source_line=756}
  %constant.321 = s32[] constant(0), metadata={op_type="aten__mean" op_name="aten__mean" source_file="/usr/local/lib/python3.10/site-packages/torch/_ops.py" source_line=756}
  %compare.326 = pred[] compare(s32[] %constant.315, s32[] %constant.321), direction=NE, metadata={op_type="aten__mean" op_name="aten__mean" source_file="/usr/local/lib/python3.10/site-packages/torch/_ops.py" source_line=756}
  %constant.322 = f32[] constant(1), metadata={op_type="aten__mean" op_name="aten__mean" source_file="/usr/local/lib/python3.10/site-packages/torch/_ops.py" source_line=756}
  %convert.324 = f32[] convert(s32[] %constant.315), metadata={op_type="aten__mean" op_name="aten__mean" source_file="/usr/local/lib/python3.10/site-packages/torch/_ops.py" source_line=756}
  %divide.325 = f32[] divide(f32[] %constant.322, f32[] %convert.324), metadata={op_type="aten__mean" op_name="aten__mean" source_file="/usr/local/lib/python3.10/site-packages/torch/_ops.py" source_line=756}
  %constant.323 = f32[] constant(nan), metadata={op_type="aten__mean" op_name="aten__mean" source_file="/usr/local/lib/python3.10/site-packages/torch/_ops.py" source_line=756}
  %select.327 = f32[] select(pred[] %compare.326, f32[] %divide.325, f32[] %constant.323), metadata={op_type="aten__mean" op_name="aten__mean" source_file="/usr/local/lib/python3.10/site-packages/torch/_ops.py" source_line=756}
  %broadcast.328 = f32[16]{0} broadcast(f32[] %select.327), dimensions={}, metadata={op_type="aten__mean" op_name="aten__mean" source_file="/usr/local/lib/python3.10/site-packages/torch/_ops.py" source_line=756}
  %multiply.329 = f32[16]{0} multiply(f32[16]{0} %reduce.320, f32[16]{0} %broadcast.328), metadata={op_type="aten__mean" op_name="aten__mean" source_file="/usr/local/lib/python3.10/site-packages/torch/_ops.py" source_line=756}
  %reshape.330 = f32[16,1]{1,0} reshape(f32[16]{0} %multiply.329), metadata={op_type="aten__mean" op_name="aten__mean" source_file="/usr/local/lib/python3.10/site-packages/torch/_ops.py" source_line=756}
  %convert.331 = f32[16,1]{1,0} convert(f32[16,1]{1,0} %reshape.330), metadata={op_type="aten__mean" op_name="aten__mean" source_file="/usr/local/lib/python3.10/site-packages/torch/_ops.py" source_line=756}
  %constant.10 = f32[] constant(1), metadata={op_type="prim__Constant" op_name="prim__Constant" source_file="/usr/local/lib/python3.10/site-packages/torch/_ops.py" source_line=756}
  %multiply.332 = f32[] multiply(f32[] %p1.4, f32[] %constant.10), metadata={op_type="aten__add" op_name="aten__add.73/aten__add" source_file="/usr/local/lib/python3.10/site-packages/torch/_ops.py" source_line=756}
  %broadcast.333 = f32[16,1]{1,0} broadcast(f32[] %multiply.332), dimensions={}, metadata={op_type="aten__add" op_name="aten__add.73/aten__add" source_file="/usr/local/lib/python3.10/site-packages/torch/_ops.py" source_line=756}
  %add.334 = f32[16,1]{1,0} add(f32[16,1]{1,0} %convert.331, f32[16,1]{1,0} %broadcast.333), metadata={op_type="aten__add" op_name="aten__add.73/aten__add" source_file="/usr/local/lib/python3.10/site-packages/torch/_ops.py" source_line=756}
  %rsqrt.335 = f32[16,1]{1,0} rsqrt(f32[16,1]{1,0} %add.334), metadata={op_type="aten__rsqrt" op_name="aten__rsqrt" source_file="/usr/local/lib/python3.10/site-packages/torch/_ops.py" source_line=756}
  %reshape.336 = f32[16]{0} reshape(f32[16,1]{1,0} %rsqrt.335), metadata={op_type="aten__mul" op_name="aten__mul.74/aten__mul" source_file="/usr/local/lib/python3.10/site-packages/torch/_ops.py" source_line=756}
  %broadcast.337 = f32[16,1024]{1,0} broadcast(f32[16]{0} %reshape.336), dimensions={0}, metadata={op_type="aten__mul" op_name="aten__mul.74/aten__mul" source_file="/usr/local/lib/python3.10/site-packages/torch/_ops.py" source_line=756}
  %multiply.338 = f32[16,1024]{1,0} multiply(f32[16,1024]{1,0} %add.311, f32[16,1024]{1,0} %broadcast.337), metadata={op_type="aten__mul" op_name="aten__mul.74/aten__mul" source_file="/usr/local/lib/python3.10/site-packages/torch/_ops.py" source_line=756}
  %convert.339 = bf16[16,1024]{1,0} convert(f32[16,1024]{1,0} %multiply.338), metadata={op_type="xla__cast" op_name="xla__cast" source_file="/usr/local/lib/python3.10/site-packages/torch/_ops.py" source_line=756}
  %convert.340 = f32[16,1024]{1,0} convert(bf16[16,1024]{1,0} %convert.339), metadata={op_type="xla__cast" op_name="xla__cast" source_file="/usr/local/lib/python3.10/site-packages/torch/_ops.py" source_line=756}
  %p3.8 = bf16[1024]{0} parameter(3), metadata={op_type="xla__device_data" op_name="xla__device_data" source_file="/usr/local/lib/python3.10/site-packages/torch_xla/_dynamo/dynamo_bridge.py" source_line=355}
  %convert.9 = f32[1024]{0} convert(bf16[1024]{0} %p3.8), metadata={op_type="xla__cast" op_name="xla__cast" source_file="/usr/local/lib/python3.10/site-packages/torch/_ops.py" source_line=756}
  %broadcast.341 = f32[16,1024]{1,0} broadcast(f32[1024]{0} %convert.9), dimensions={1}, metadata={op_type="aten__mul" op_name="aten__mul.75/aten__mul" source_file="/usr/local/lib/python3.10/site-packages/torch/_ops.py" source_line=756}
  %multiply.342 = f32[16,1024]{1,0} multiply(f32[16,1024]{1,0} %convert.340, f32[16,1024]{1,0} %broadcast.341), metadata={op_type="aten__mul" op_name="aten__mul.75/aten__mul" source_file="/usr/local/lib/python3.10/site-packages/torch/_ops.py" source_line=756}
  %convert.343 = bf16[16,1024]{1,0} convert(f32[16,1024]{1,0} %multiply.342), metadata={op_type="xla__cast" op_name="xla__cast" source_file="/usr/local/lib/python3.10/site-packages/torch/_ops.py" source_line=756}
  %p2.6 = bf16[4096,1024]{1,0} parameter(2), metadata={op_type="xla__device_data" op_name="xla__device_data" source_file="/usr/local/lib/python3.10/site-packages/torch_xla/_dynamo/dynamo_bridge.py" source_line=355}
  %transpose.7 = bf16[1024,4096]{0,1} transpose(bf16[4096,1024]{1,0} %p2.6), dimensions={1,0}, metadata={op_type="aten__permute" op_name="aten__permute" source_file="/usr/local/lib/python3.10/site-packages/torch/_ops.py" source_line=756}
  %dot.344 = bf16[16,4096]{1,0} dot(bf16[16,1024]{1,0} %convert.343, bf16[1024,4096]{0,1} %transpose.7), lhs_contracting_dims={1}, rhs_contracting_dims={0}, metadata={op_type="aten__mm" op_name="aten__mm" source_file="/usr/local/lib/python3.10/site-packages/torch/_ops.py" source_line=756}
  %slice.345 = bf16[16,2048]{1,0} slice(bf16[16,4096]{1,0} %dot.344), slice={[0:16], [0:2048]}, metadata={op_type="aten__split" op_name="aten__split" source_file="/usr/local/lib/python3.10/site-packages/torch/_ops.py" source_line=756}
  %slice.346 = bf16[16,1024]{1,0} slice(bf16[16,4096]{1,0} %dot.344), slice={[0:16], [2048:3072]}, metadata={op_type="aten__split" op_name="aten__split" source_file="/usr/local/lib/python3.10/site-packages/torch/_ops.py" source_line=756}
  %reshape.348 = bf16[16,8,128]{2,1,0} reshape(bf16[16,1024]{1,0} %slice.346), metadata={op_type="aten__view" op_name="aten__view" source_file="/usr/local/lib/python3.10/site-packages/torch/_ops.py" source_line=756}
  %convert.349 = f32[16,8,128]{2,1,0} convert(bf16[16,8,128]{2,1,0} %reshape.348), metadata={op_type="xla__cast" op_name="xla__cast" source_file="/usr/local/lib/python3.10/site-packages/torch/_ops.py" source_line=756}
  %constant.5 = f32[] constant(2), metadata={op_type="prim__Constant" op_name="prim__Constant" source_file="/usr/local/lib/python3.10/site-packages/torch/_ops.py" source_line=756}
  %broadcast.350 = f32[16,8,128]{2,1,0} broadcast(f32[] %constant.5), dimensions={}, metadata={op_type="aten__pow" op_name="aten__pow" source_file="/usr/local/lib/python3.10/site-packages/torch/_ops.py" source_line=756}
  %power.351 = f32[16,8,128]{2,1,0} power(f32[16,8,128]{2,1,0} %convert.349, f32[16,8,128]{2,1,0} %broadcast.350), metadata={op_type="aten__pow" op_name="aten__pow" source_file="/usr/local/lib/python3.10/site-packages/torch/_ops.py" source_line=756}
  %constant.352 = f32[] constant(0), metadata={op_type="aten__mean" op_name="aten__mean" source_file="/usr/local/lib/python3.10/site-packages/torch/_ops.py" source_line=756}
  %reduce.358 = f32[16,8]{1,0} reduce(f32[16,8,128]{2,1,0} %power.351, f32[] %constant.352), dimensions={2}, to_apply=%AddComputation.354, metadata={op_type="aten__mean" op_name="aten__mean" source_file="/usr/local/lib/python3.10/site-packages/torch/_ops.py" source_line=756}
  %constant.353 = s32[] constant(128), metadata={op_type="aten__mean" op_name="aten__mean" source_file="/usr/local/lib/python3.10/site-packages/torch/_ops.py" source_line=756}
  %constant.359 = s32[] constant(0), metadata={op_type="aten__mean" op_name="aten__mean" source_file="/usr/local/lib/python3.10/site-packages/torch/_ops.py" source_line=756}
  %compare.364 = pred[] compare(s32[] %constant.353, s32[] %constant.359), direction=NE, metadata={op_type="aten__mean" op_name="aten__mean" source_file="/usr/local/lib/python3.10/site-packages/torch/_ops.py" source_line=756}
  %constant.360 = f32[] constant(1), metadata={op_type="aten__mean" op_name="aten__mean" source_file="/usr/local/lib/python3.10/site-packages/torch/_ops.py" source_line=756}
  %convert.362 = f32[] convert(s32[] %constant.353), metadata={op_type="aten__mean" op_name="aten__mean" source_file="/usr/local/lib/python3.10/site-packages/torch/_ops.py" source_line=756}
  %divide.363 = f32[] divide(f32[] %constant.360, f32[] %convert.362), metadata={op_type="aten__mean" op_name="aten__mean" source_file="/usr/local/lib/python3.10/site-packages/torch/_ops.py" source_line=756}
  %constant.361 = f32[] constant(nan), metadata={op_type="aten__mean" op_name="aten__mean" source_file="/usr/local/lib/python3.10/site-packages/torch/_ops.py" source_line=756}
  %select.365 = f32[] select(pred[] %compare.364, f32[] %divide.363, f32[] %constant.361), metadata={op_type="aten__mean" op_name="aten__mean" source_file="/usr/local/lib/python3.10/site-packages/torch/_ops.py" source_line=756}
  %broadcast.366 = f32[16,8]{1,0} broadcast(f32[] %select.365), dimensions={}, metadata={op_type="aten__mean" op_name="aten__mean" source_file="/usr/local/lib/python3.10/site-packages/torch/_ops.py" source_line=756}
  %multiply.367 = f32[16,8]{1,0} multiply(f32[16,8]{1,0} %reduce.358, f32[16,8]{1,0} %broadcast.366), metadata={op_type="aten__mean" op_name="aten__mean" source_file="/usr/local/lib/python3.10/site-packages/torch/_ops.py" source_line=756}
  %reshape.368 = f32[16,8,1]{2,1,0} reshape(f32[16,8]{1,0} %multiply.367), metadata={op_type="aten__mean" op_name="aten__mean" source_file="/usr/local/lib/python3.10/site-packages/torch/_ops.py" source_line=756}
  %convert.369 = f32[16,8,1]{2,1,0} convert(f32[16,8,1]{2,1,0} %reshape.368), metadata={op_type="aten__mean" op_name="aten__mean" source_file="/usr/local/lib/python3.10/site-packages/torch/_ops.py" source_line=756}
  %constant.3 = f32[] constant(1), metadata={op_type="prim__Constant" op_name="prim__Constant" source_file="/usr/local/lib/python3.10/site-packages/torch/_ops.py" source_line=756}
  %multiply.370 = f32[] multiply(f32[] %p1.4, f32[] %constant.3), metadata={op_type="aten__add" op_name="aten__add.76/aten__add" source_file="/usr/local/lib/python3.10/site-packages/torch/_ops.py" source_line=756}
  %broadcast.371 = f32[16,8,1]{2,1,0} broadcast(f32[] %multiply.370), dimensions={}, metadata={op_type="aten__add" op_name="aten__add.76/aten__add" source_file="/usr/local/lib/python3.10/site-packages/torch/_ops.py" source_line=756}
  %add.372 = f32[16,8,1]{2,1,0} add(f32[16,8,1]{2,1,0} %convert.369, f32[16,8,1]{2,1,0} %broadcast.371), metadata={op_type="aten__add" op_name="aten__add.76/aten__add" source_file="/usr/local/lib/python3.10/site-packages/torch/_ops.py" source_line=756}
  %rsqrt.373 = f32[16,8,1]{2,1,0} rsqrt(f32[16,8,1]{2,1,0} %add.372), metadata={op_type="aten__rsqrt" op_name="aten__rsqrt" source_file="/usr/local/lib/python3.10/site-packages/torch/_ops.py" source_line=756}
  %reshape.374 = f32[16,8]{1,0} reshape(f32[16,8,1]{2,1,0} %rsqrt.373), metadata={op_type="aten__mul" op_name="aten__mul.77/aten__mul" source_file="/usr/local/lib/python3.10/site-packages/torch/_ops.py" source_line=756}
  %broadcast.375 = f32[16,8,128]{2,1,0} broadcast(f32[16,8]{1,0} %reshape.374), dimensions={0,1}, metadata={op_type="aten__mul" op_name="aten__mul.77/aten__mul" source_file="/usr/local/lib/python3.10/site-packages/torch/_ops.py" source_line=756}
  %multiply.376 = f32[16,8,128]{2,1,0} multiply(f32[16,8,128]{2,1,0} %convert.349, f32[16,8,128]{2,1,0} %broadcast.375), metadata={op_type="aten__mul" op_name="aten__mul.77/aten__mul" source_file="/usr/local/lib/python3.10/site-packages/torch/_ops.py" source_line=756}
  %convert.377 = bf16[16,8,128]{2,1,0} convert(f32[16,8,128]{2,1,0} %multiply.376), metadata={op_type="xla__cast" op_name="xla__cast" source_file="/usr/local/lib/python3.10/site-packages/torch/_ops.py" source_line=756}
  %convert.378 = f32[16,8,128]{2,1,0} convert(bf16[16,8,128]{2,1,0} %convert.377), metadata={op_type="xla__cast" op_name="xla__cast" source_file="/usr/local/lib/python3.10/site-packages/torch/_ops.py" source_line=756}
  %p0.1 = bf16[128]{0} parameter(0), metadata={op_type="xla__device_data" op_name="xla__device_data" source_file="/usr/local/lib/python3.10/site-packages/torch_xla/_dynamo/dynamo_bridge.py" source_line=355}
  %convert.2 = f32[128]{0} convert(bf16[128]{0} %p0.1), metadata={op_type="xla__cast" op_name="xla__cast" source_file="/usr/local/lib/python3.10/site-packages/torch/_ops.py" source_line=756}
  %broadcast.379 = f32[16,8,128]{2,1,0} broadcast(f32[128]{0} %convert.2), dimensions={2}, metadata={op_type="aten__mul" op_name="aten__mul.78/aten__mul" source_file="/usr/local/lib/python3.10/site-packages/torch/_ops.py" source_line=756}
  %multiply.380 = f32[16,8,128]{2,1,0} multiply(f32[16,8,128]{2,1,0} %convert.378, f32[16,8,128]{2,1,0} %broadcast.379), metadata={op_type="aten__mul" op_name="aten__mul.78/aten__mul" source_file="/usr/local/lib/python3.10/site-packages/torch/_ops.py" source_line=756}
  %convert.381 = bf16[16,8,128]{2,1,0} convert(f32[16,8,128]{2,1,0} %multiply.380), metadata={op_type="xla__cast" op_name="xla__cast" source_file="/usr/local/lib/python3.10/site-packages/torch/_ops.py" source_line=756}
  %reshape.382 = bf16[16,1024]{1,0} reshape(bf16[16,8,128]{2,1,0} %convert.381), metadata={op_type="aten__view" op_name="aten__view" source_file="/usr/local/lib/python3.10/site-packages/torch/_ops.py" source_line=756}
  %reshape.383 = bf16[16,8,128]{2,1,0} reshape(bf16[16,1024]{1,0} %reshape.382), metadata={op_type="aten__view" op_name="aten__view" source_file="/usr/local/lib/python3.10/site-packages/torch/_ops.py" source_line=756}
  %slice.393 = bf16[16,8,64]{2,1,0} slice(bf16[16,8,128]{2,1,0} %reshape.383), slice={[0:16], [0:8], [0:64]}, metadata={op_type="aten__split" op_name="aten__split" source_file="/usr/local/lib/python3.10/site-packages/torch/_ops.py" source_line=756}
  %convert.418 = f32[16,8,64]{2,1,0} convert(bf16[16,8,64]{2,1,0} %slice.393), metadata={op_type="xla__cast" op_name="xla__cast" source_file="/usr/local/lib/python3.10/site-packages/torch/_ops.py" source_line=756}
  %p23.387 = bf16[40960,128]{1,0} parameter(23), metadata={op_type="xla__device_data" op_name="xla__device_data" source_file="/usr/local/lib/python3.10/site-packages/torch_xla/_dynamo/dynamo_bridge.py" source_line=355}
  %p22.386 = s32[16]{0} parameter(22), metadata={op_type="xla__device_data" op_name="xla__device_data" source_file="/usr/local/lib/python3.10/site-packages/torch_xla/_dynamo/dynamo_bridge.py" source_line=355}
  %gather.388 = bf16[16,128]{1,0} gather(bf16[40960,128]{1,0} %p23.387, s32[16]{0} %p22.386), offset_dims={1}, collapsed_slice_dims={0}, start_index_map={0}, index_vector_dim=1, slice_sizes={1,128}, metadata={op_type="aten__index_select" op_name="aten__index_select" source_file="/usr/local/lib/python3.10/site-packages/torch/_ops.py" source_line=756}
  %slice.389 = bf16[16,64]{1,0} slice(bf16[16,128]{1,0} %gather.388), slice={[0:16], [0:64]}, metadata={op_type="aten__split" op_name="aten__split" source_file="/usr/local/lib/python3.10/site-packages/torch/_ops.py" source_line=756}
  %reshape.400 = bf16[16,1,64]{2,1,0} reshape(bf16[16,64]{1,0} %slice.389), metadata={op_type="aten__view" op_name="aten__view" source_file="/usr/local/lib/python3.10/site-packages/torch/_ops.py" source_line=756}
  %convert.417 = f32[16,1,64]{2,1,0} convert(bf16[16,1,64]{2,1,0} %reshape.400), metadata={op_type="xla__cast" op_name="xla__cast" source_file="/usr/local/lib/python3.10/site-packages/torch/_ops.py" source_line=756}
  %reshape.419 = f32[16,64]{1,0} reshape(f32[16,1,64]{2,1,0} %convert.417), metadata={op_type="aten__mul" op_name="aten__mul.79/aten__mul" source_file="/usr/local/lib/python3.10/site-packages/torch/_ops.py" source_line=756}
  %broadcast.420 = f32[16,8,64]{2,1,0} broadcast(f32[16,64]{1,0} %reshape.419), dimensions={0,2}, metadata={op_type="aten__mul" op_name="aten__mul.79/aten__mul" source_file="/usr/local/lib/python3.10/site-packages/torch/_ops.py" source_line=756}
  %multiply.421 = f32[16,8,64]{2,1,0} multiply(f32[16,8,64]{2,1,0} %convert.418, f32[16,8,64]{2,1,0} %broadcast.420), metadata={op_type="aten__mul" op_name="aten__mul.79/aten__mul" source_file="/usr/local/lib/python3.10/site-packages/torch/_ops.py" source_line=756}
  %convert.422 = bf16[16,8,64]{2,1,0} convert(f32[16,8,64]{2,1,0} %multiply.421), metadata={op_type="xla__cast" op_name="xla__cast" source_file="/usr/local/lib/python3.10/site-packages/torch/_ops.py" source_line=756}
  %slice.394 = bf16[16,8,64]{2,1,0} slice(bf16[16,8,128]{2,1,0} %reshape.383), slice={[0:16], [0:8], [64:128]}, metadata={op_type="aten__split" op_name="aten__split" source_file="/usr/local/lib/python3.10/site-packages/torch/_ops.py" source_line=756}
  %convert.412 = f32[16,8,64]{2,1,0} convert(bf16[16,8,64]{2,1,0} %slice.394), metadata={op_type="xla__cast" op_name="xla__cast" source_file="/usr/local/lib/python3.10/site-packages/torch/_ops.py" source_line=756}
  %slice.390 = bf16[16,64]{1,0} slice(bf16[16,128]{1,0} %gather.388), slice={[0:16], [64:128]}, metadata={op_type="aten__split" op_name="aten__split" source_file="/usr/local/lib/python3.10/site-packages/torch/_ops.py" source_line=756}
  %reshape.391 = bf16[16,1,64]{2,1,0} reshape(bf16[16,64]{1,0} %slice.390), metadata={op_type="aten__view" op_name="aten__view" source_file="/usr/local/lib/python3.10/site-packages/torch/_ops.py" source_line=756}
  %convert.411 = f32[16,1,64]{2,1,0} convert(bf16[16,1,64]{2,1,0} %reshape.391), metadata={op_type="xla__cast" op_name="xla__cast" source_file="/usr/local/lib/python3.10/site-packages/torch/_ops.py" source_line=756}
  %reshape.413 = f32[16,64]{1,0} reshape(f32[16,1,64]{2,1,0} %convert.411), metadata={op_type="aten__mul" op_name="aten__mul.80/aten__mul" source_file="/usr/local/lib/python3.10/site-packages/torch/_ops.py" source_line=756}
  %broadcast.414 = f32[16,8,64]{2,1,0} broadcast(f32[16,64]{1,0} %reshape.413), dimensions={0,2}, metadata={op_type="aten__mul" op_name="aten__mul.80/aten__mul" source_file="/usr/local/lib/python3.10/site-packages/torch/_ops.py" source_line=756}
  %multiply.415 = f32[16,8,64]{2,1,0} multiply(f32[16,8,64]{2,1,0} %convert.412, f32[16,8,64]{2,1,0} %broadcast.414), metadata={op_type="aten__mul" op_name="aten__mul.80/aten__mul" source_file="/usr/local/lib/python3.10/site-packages/torch/_ops.py" source_line=756}
  %convert.416 = bf16[16,8,64]{2,1,0} convert(f32[16,8,64]{2,1,0} %multiply.415), metadata={op_type="xla__cast" op_name="xla__cast" source_file="/usr/local/lib/python3.10/site-packages/torch/_ops.py" source_line=756}
  %constant.410 = bf16[] constant(1), metadata={op_type="prim__Constant" op_name="prim__Constant" source_file="/usr/local/lib/python3.10/site-packages/torch/_ops.py" source_line=756}
  %broadcast.423 = bf16[16,8,64]{2,1,0} broadcast(bf16[] %constant.410), dimensions={}, metadata={op_type="aten__sub" op_name="aten__sub.81/aten__sub" source_file="/usr/local/lib/python3.10/site-packages/torch/_ops.py" source_line=756}
  %multiply.424 = bf16[16,8,64]{2,1,0} multiply(bf16[16,8,64]{2,1,0} %convert.416, bf16[16,8,64]{2,1,0} %broadcast.423), metadata={op_type="aten__sub" op_name="aten__sub.81/aten__sub" source_file="/usr/local/lib/python3.10/site-packages/torch/_ops.py" source_line=756}
  %subtract.425 = bf16[16,8,64]{2,1,0} subtract(bf16[16,8,64]{2,1,0} %convert.422, bf16[16,8,64]{2,1,0} %multiply.424), metadata={op_type="aten__sub" op_name="aten__sub.81/aten__sub" source_file="/usr/local/lib/python3.10/site-packages/torch/_ops.py" source_line=756}
  %convert.402 = f32[16,8,64]{2,1,0} convert(bf16[16,8,64]{2,1,0} %slice.394), metadata={op_type="xla__cast" op_name="xla__cast" source_file="/usr/local/lib/python3.10/site-packages/torch/_ops.py" source_line=756}
  %convert.401 = f32[16,1,64]{2,1,0} convert(bf16[16,1,64]{2,1,0} %reshape.400), metadata={op_type="xla__cast" op_name="xla__cast" source_file="/usr/local/lib/python3.10/site-packages/torch/_ops.py" source_line=756}
  %reshape.403 = f32[16,64]{1,0} reshape(f32[16,1,64]{2,1,0} %convert.401), metadata={op_type="aten__mul" op_name="aten__mul.82/aten__mul" source_file="/usr/local/lib/python3.10/site-packages/torch/_ops.py" source_line=756}
  %broadcast.404 = f32[16,8,64]{2,1,0} broadcast(f32[16,64]{1,0} %reshape.403), dimensions={0,2}, metadata={op_type="aten__mul" op_name="aten__mul.82/aten__mul" source_file="/usr/local/lib/python3.10/site-packages/torch/_ops.py" source_line=756}
  %multiply.405 = f32[16,8,64]{2,1,0} multiply(f32[16,8,64]{2,1,0} %convert.402, f32[16,8,64]{2,1,0} %broadcast.404), metadata={op_type="aten__mul" op_name="aten__mul.82/aten__mul" source_file="/usr/local/lib/python3.10/site-packages/torch/_ops.py" source_line=756}
  %convert.406 = bf16[16,8,64]{2,1,0} convert(f32[16,8,64]{2,1,0} %multiply.405), metadata={op_type="xla__cast" op_name="xla__cast" source_file="/usr/local/lib/python3.10/site-packages/torch/_ops.py" source_line=756}
  %convert.395 = f32[16,8,64]{2,1,0} convert(bf16[16,8,64]{2,1,0} %slice.393), metadata={op_type="xla__cast" op_name="xla__cast" source_file="/usr/local/lib/python3.10/site-packages/torch/_ops.py" source_line=756}
  %convert.392 = f32[16,1,64]{2,1,0} convert(bf16[16,1,64]{2,1,0} %reshape.391), metadata={op_type="xla__cast" op_name="xla__cast" source_file="/usr/local/lib/python3.10/site-packages/torch/_ops.py" source_line=756}
  %reshape.396 = f32[16,64]{1,0} reshape(f32[16,1,64]{2,1,0} %convert.392), metadata={op_type="aten__mul" op_name="aten__mul.83/aten__mul" source_file="/usr/local/lib/python3.10/site-packages/torch/_ops.py" source_line=756}
  %broadcast.397 = f32[16,8,64]{2,1,0} broadcast(f32[16,64]{1,0} %reshape.396), dimensions={0,2}, metadata={op_type="aten__mul" op_name="aten__mul.83/aten__mul" source_file="/usr/local/lib/python3.10/site-packages/torch/_ops.py" source_line=756}
  %multiply.398 = f32[16,8,64]{2,1,0} multiply(f32[16,8,64]{2,1,0} %convert.395, f32[16,8,64]{2,1,0} %broadcast.397), metadata={op_type="aten__mul" op_name="aten__mul.83/aten__mul" source_file="/usr/local/lib/python3.10/site-packages/torch/_ops.py" source_line=756}
  %convert.399 = bf16[16,8,64]{2,1,0} convert(f32[16,8,64]{2,1,0} %multiply.398), metadata={op_type="xla__cast" op_name="xla__cast" source_file="/usr/local/lib/python3.10/site-packages/torch/_ops.py" source_line=756}
  %constant.385 = bf16[] constant(1), metadata={op_type="prim__Constant" op_name="prim__Constant" source_file="/usr/local/lib/python3.10/site-packages/torch/_ops.py" source_line=756}
  %broadcast.407 = bf16[16,8,64]{2,1,0} broadcast(bf16[] %constant.385), dimensions={}, metadata={op_type="aten__add" op_name="aten__add.84/aten__add" source_file="/usr/local/lib/python3.10/site-packages/torch/_ops.py" source_line=756}
  %multiply.408 = bf16[16,8,64]{2,1,0} multiply(bf16[16,8,64]{2,1,0} %convert.399, bf16[16,8,64]{2,1,0} %broadcast.407), metadata={op_type="aten__add" op_name="aten__add.84/aten__add" source_file="/usr/local/lib/python3.10/site-packages/torch/_ops.py" source_line=756}
  %add.409 = bf16[16,8,64]{2,1,0} add(bf16[16,8,64]{2,1,0} %convert.406, bf16[16,8,64]{2,1,0} %multiply.408), metadata={op_type="aten__add" op_name="aten__add.84/aten__add" source_file="/usr/local/lib/python3.10/site-packages/torch/_ops.py" source_line=756}
  %concatenate.426 = bf16[16,8,128]{2,1,0} concatenate(bf16[16,8,64]{2,1,0} %subtract.425, bf16[16,8,64]{2,1,0} %add.409), dimensions={2}, metadata={op_type="aten__cat" op_name="aten__cat" source_file="/usr/local/lib/python3.10/site-packages/torch/_ops.py" source_line=756}
  %slice.384 = bf16[16,8,0]{2,1,0} slice(bf16[16,8,128]{2,1,0} %reshape.383), slice={[0:16], [0:8], [128:128]}, metadata={op_type="xla__select" op_name="xla__select" source_file="/usr/local/lib/python3.10/site-packages/torch/_ops.py" source_line=756}
  %concatenate.427 = bf16[16,8,128]{2,1,0} concatenate(bf16[16,8,128]{2,1,0} %concatenate.426, bf16[16,8,0]{2,1,0} %slice.384), dimensions={2}, metadata={op_type="aten__cat" op_name="aten__cat" source_file="/usr/local/lib/python3.10/site-packages/torch/_ops.py" source_line=756}
  %reshape.428 = bf16[16,1024]{1,0} reshape(bf16[16,8,128]{2,1,0} %concatenate.427), metadata={op_type="aten__view" op_name="aten__view" source_file="/usr/local/lib/python3.10/site-packages/torch/_ops.py" source_line=756}
  %reshape.429 = bf16[16,8,128]{2,1,0} reshape(bf16[16,1024]{1,0} %reshape.428), metadata={op_type="aten__view" op_name="aten__view" source_file="/usr/local/lib/python3.10/site-packages/torch/_ops.py" source_line=756}
  %slice.347 = bf16[16,1024]{1,0} slice(bf16[16,4096]{1,0} %dot.344), slice={[0:16], [3072:4096]}, metadata={op_type="aten__split" op_name="aten__split" source_file="/usr/local/lib/python3.10/site-packages/torch/_ops.py" source_line=756}
  %reshape.430 = bf16[16,8,128]{2,1,0} reshape(bf16[16,1024]{1,0} %slice.347), metadata={op_type="aten__view" op_name="aten__view" source_file="/usr/local/lib/python3.10/site-packages/torch/_ops.py" source_line=756}
  %p24.431 = bf16[2,4233,16,8,128]{4,3,2,1,0} parameter(24), metadata={op_type="xla__device_data" op_name="xla__device_data" source_file="/usr/local/lib/python3.10/site-packages/torch_xla/_dynamo/dynamo_bridge.py" source_line=355}
  %reshape.432 = bf16[138706944]{0} reshape(bf16[2,4233,16,8,128]{4,3,2,1,0} %p24.431), metadata={op_type="aten__as_strided" op_name="aten__as_strided" source_file="/usr/local/lib/python3.10/site-packages/torch/_prims_common/__init__.py" source_line=1991}
  %reshape.433 = bf16[2,4233,16,8,128]{4,3,2,1,0} reshape(bf16[138706944]{0} %reshape.432), metadata={op_type="aten__as_strided" op_name="aten__as_strided" source_file="/usr/local/lib/python3.10/site-packages/torch/_prims_common/__init__.py" source_line=1992}
  %reshape.434 = bf16[138706944]{0} reshape(bf16[2,4233,16,8,128]{4,3,2,1,0} %reshape.433), metadata={op_type="aten__as_strided" op_name="aten__as_strided" source_file="/usr/local/lib/python3.10/site-packages/torch/_higher_order_ops/auto_functionalize.py" source_line=54}
  %slice.435 = bf16[69353472]{0} slice(bf16[138706944]{0} %reshape.434), slice={[0:69353472]}, metadata={op_type="aten__as_strided" op_name="aten__as_strided" source_file="/usr/local/lib/python3.10/site-packages/torch/_higher_order_ops/auto_functionalize.py" source_line=54}
  %reshape.436 = bf16[4233,16,8,128]{3,2,1,0} reshape(bf16[69353472]{0} %slice.435), metadata={op_type="aten__as_strided" op_name="aten__as_strided" source_file="/usr/local/lib/python3.10/site-packages/torch/_higher_order_ops/auto_functionalize.py" source_line=54}
  %reshape.437 = bf16[138706944]{0} reshape(bf16[2,4233,16,8,128]{4,3,2,1,0} %reshape.433), metadata={op_type="aten__as_strided" op_name="aten__as_strided" source_file="/usr/local/lib/python3.10/site-packages/torch/_higher_order_ops/auto_functionalize.py" source_line=54}
  %slice.438 = bf16[69353472]{0} slice(bf16[138706944]{0} %reshape.437), slice={[69353472:138706944]}, metadata={op_type="aten__as_strided" op_name="aten__as_strided" source_file="/usr/local/lib/python3.10/site-packages/torch/_higher_order_ops/auto_functionalize.py" source_line=54}
  %reshape.439 = bf16[4233,16,8,128]{3,2,1,0} reshape(bf16[69353472]{0} %slice.438), metadata={op_type="aten__as_strided" op_name="aten__as_strided" source_file="/usr/local/lib/python3.10/site-packages/torch/_higher_order_ops/auto_functionalize.py" source_line=54}
  ROOT %tuple.440 = (bf16[16,8,128]{2,1,0}, bf16[16,8,128]{2,1,0}, bf16[4233,16,8,128]{3,2,1,0}, bf16[4233,16,8,128]{3,2,1,0}) tuple(bf16[16,8,128]{2,1,0} %reshape.429, bf16[16,8,128]{2,1,0} %reshape.430, bf16[4233,16,8,128]{3,2,1,0} %reshape.436, bf16[4233,16,8,128]{3,2,1,0} %reshape.439)
}

