HloModule SyncTensorsGraph.1107, is_scheduled=true, entry_computation_layout={(bf16[128]{0}, f32[], bf16[4096,1024]{1,0}, bf16[1024]{0}, s32[64]{0}, /*index=5*/bf16[151936,1024]{1,0}, bf16[1024,2048]{1,0}, bf16[1024,3072]{1,0}, bf16[6144,1024]{1,0}, bf16[1024]{0}, /*index=10*/bf16[1024,2048]{1,0}, bf16[1024,3072]{1,0}, bf16[6144,1024]{1,0}, bf16[1024]{0}, bf16[1024,2048]{1,0}, /*index=15*/bf16[1024,3072]{1,0}, bf16[6144,1024]{1,0}, bf16[1024]{0}, bf16[1024,2048]{1,0}, bf16[1024,3072]{1,0}, /*index=20*/bf16[6144,1024]{1,0}, bf16[1024]{0}, bf16[1024,2048]{1,0}, bf16[1024,3072]{1,0}, bf16[6144,1024]{1,0}, /*index=25*/bf16[1024]{0}, bf16[1024,2048]{1,0}, bf16[1024,3072]{1,0}, bf16[6144,1024]{1,0}, bf16[1024]{0}, /*index=30*/bf16[1024,2048]{1,0}, bf16[1024,3072]{1,0}, bf16[6144,1024]{1,0}, bf16[1024]{0}, bf16[1024,2048]{1,0}, /*index=35*/bf16[1024,3072]{1,0}, bf16[6144,1024]{1,0}, bf16[1024]{0}, bf16[1024,2048]{1,0}, bf16[1024,3072]{1,0}, /*index=40*/bf16[6144,1024]{1,0}, bf16[1024]{0}, bf16[1024,2048]{1,0}, bf16[1024,3072]{1,0}, bf16[6144,1024]{1,0}, /*index=45*/bf16[1024]{0}, bf16[1024,2048]{1,0}, bf16[1024,3072]{1,0}, bf16[6144,1024]{1,0}, bf16[1024]{0}, /*index=50*/bf16[1024,2048]{1,0}, bf16[1024,3072]{1,0}, bf16[6144,1024]{1,0}, bf16[1024]{0}, bf16[1024,2048]{1,0}, /*index=55*/bf16[1024,3072]{1,0}, bf16[6144,1024]{1,0}, bf16[1024]{0}, s32[64]{0}, bf16[40960,128]{1,0}, /*index=60*/bf16[2,4233,16,8,128]{4,3,2,1,0})->(bf16[64,8,128]{2,1,0}, bf16[64,8,128]{2,1,0}, bf16[4233,16,8,128]{3,2,1,0}, bf16[4233,16,8,128]{3,2,1,0})}, frontend_attributes={fingerprint_before_lhs="95f27ad3f018d403730507c2b5152dfc"}

%fused_gather (param_0.9: bf16[151936,1024], param_1.457: s32[64]) -> bf16[64,1,1024] {
  %param_0.9 = bf16[151936,1024]{1,0} parameter(0)
  %param_1.457 = s32[64]{0} parameter(1)
  %convert.655.1 = s64[64]{0} convert(s32[64]{0} %param_1.457), metadata={op_type="xla__cast" op_name="xla__cast" source_file="/usr/local/lib/python3.10/site-packages/torch/_ops.py" source_line=756}
  %convert.657.1 = u32[64]{0} convert(s64[64]{0} %convert.655.1), metadata={op_type="aten__index_select" op_name="aten__index_select" source_file="/usr/local/lib/python3.10/site-packages/torch/_ops.py" source_line=756}
  %bitcast.2154.1 = u32[64,1]{1,0} bitcast(u32[64]{0} %convert.657.1)
  ROOT %gather.3 = bf16[64,1,1024]{2,0,1} gather(bf16[151936,1024]{1,0} %param_0.9, u32[64,1]{1,0} %bitcast.2154.1), offset_dims={1,2}, collapsed_slice_dims={}, start_index_map={0}, index_vector_dim=1, slice_sizes={1,1024}, metadata={op_type="aten__index_select" op_name="aten__index_select" source_file="/usr/local/lib/python3.10/site-packages/torch/_ops.py" source_line=756}
}

%wrapped_concatenate_computation (param_0.599: bf16[1024,2048], param_1.480: bf16[1024,2048], param_2.318: bf16[1024,2048], param_3.306: bf16[1024,2048], param_4.177: bf16[1024,2048], param_5.76: bf16[1024,2048], param_6.69: bf16[1024,2048], param_7.51: bf16[1024,2048], param_8.28: bf16[1024,2048], param_9.20: bf16[1024,2048], param_10.13: bf16[1024,2048], param_11.4: bf16[1024,2048], param_12: bf16[1024,2048]) -> bf16[13312,2048] {
  %param_0.599 = bf16[1024,2048]{1,0} parameter(0)
  %param_1.480 = bf16[1024,2048]{1,0} parameter(1)
  %param_2.318 = bf16[1024,2048]{1,0} parameter(2)
  %param_3.306 = bf16[1024,2048]{1,0} parameter(3)
  %param_4.177 = bf16[1024,2048]{1,0} parameter(4)
  %param_5.76 = bf16[1024,2048]{1,0} parameter(5)
  %param_6.69 = bf16[1024,2048]{1,0} parameter(6)
  %param_7.51 = bf16[1024,2048]{1,0} parameter(7)
  %param_8.28 = bf16[1024,2048]{1,0} parameter(8)
  %param_9.20 = bf16[1024,2048]{1,0} parameter(9)
  %param_10.13 = bf16[1024,2048]{1,0} parameter(10)
  %param_11.4 = bf16[1024,2048]{1,0} parameter(11)
  %param_12 = bf16[1024,2048]{1,0} parameter(12)
  ROOT %concatenate.29.1 = bf16[13312,2048]{1,0} concatenate(bf16[1024,2048]{1,0} %param_0.599, bf16[1024,2048]{1,0} %param_1.480, bf16[1024,2048]{1,0} %param_2.318, bf16[1024,2048]{1,0} %param_3.306, bf16[1024,2048]{1,0} %param_4.177, /*index=5*/bf16[1024,2048]{1,0} %param_5.76, bf16[1024,2048]{1,0} %param_6.69, bf16[1024,2048]{1,0} %param_7.51, bf16[1024,2048]{1,0} %param_8.28, bf16[1024,2048]{1,0} %param_9.20, /*index=10*/bf16[1024,2048]{1,0} %param_10.13, bf16[1024,2048]{1,0} %param_11.4, bf16[1024,2048]{1,0} %param_12), dimensions={0}, metadata={op_type="xla__device_data" op_name="xla__device_data" source_file="/usr/local/lib/python3.10/site-packages/torch_xla/_dynamo/dynamo_bridge.py" source_line=355}
}

%gemm_fusion_dot.51_computation (parameter_0: bf16[13312,2048]) -> bf16[64,13312] {
  %constant_141 = bf16[] constant(0), metadata={op_type="aten__expand" op_name="aten__expand" source_file="/usr/local/lib/python3.10/site-packages/torch/_ops.py" source_line=756}
  %broadcast.119 = bf16[64,2048]{1,0} broadcast(bf16[] %constant_141), dimensions={}, metadata={op_type="aten__expand" op_name="aten__expand" source_file="/usr/local/lib/python3.10/site-packages/torch/_ops.py" source_line=756}
  %parameter_0 = bf16[13312,2048]{1,0} parameter(0)
  ROOT %dot.52 = bf16[64,13312]{1,0} dot(bf16[64,2048]{1,0} %broadcast.119, bf16[13312,2048]{1,0} %parameter_0), lhs_contracting_dims={1}, rhs_contracting_dims={1}, metadata={op_type="aten__mm" op_name="aten__mm" source_file="/usr/local/lib/python3.10/site-packages/torch/_ops.py" source_line=756}
}

%AddComputation.72 (x.73: f32[], y.74: f32[]) -> f32[] {
  %y.74 = f32[] parameter(1)
  %x.73 = f32[] parameter(0)
  ROOT %add.177 = f32[] add(f32[] %x.73, f32[] %y.74)
}

%fused_computation.140 (param_0.569: f32[], param_1.454: bf16[64,1,1024], param_2.285: bf16[64,13312], param_3.257: bf16[1024]) -> bf16[64,1024] {
  %param_2.285 = bf16[64,13312]{1,0} parameter(2)
  %convert.654.45 = f32[64,13312]{1,0} convert(bf16[64,13312]{1,0} %param_2.285), metadata={op_type="xla__cast" op_name="xla__cast" source_file="/usr/local/lib/python3.10/site-packages/torch/_ops.py" source_line=756}
  %slice.187.9 = f32[64,1024]{1,0} slice(f32[64,13312]{1,0} %convert.654.45), slice={[0:64], [12288:13312]}, metadata={op_type="aten__mm" op_name="aten__mm" source_file="/usr/local/lib/python3.10/site-packages/torch/_ops.py" source_line=756}
  %param_1.454 = bf16[64,1,1024]{2,0,1} parameter(1)
  %bitcast.2157.9 = bf16[64,1024]{1,0} bitcast(bf16[64,1,1024]{2,0,1} %param_1.454)
  %convert.658.9 = f32[64,1024]{1,0} convert(bf16[64,1024]{1,0} %bitcast.2157.9), metadata={op_type="xla__cast" op_name="xla__cast" source_file="/usr/local/lib/python3.10/site-packages/torch/_ops.py" source_line=756}
  %add.178.7 = f32[64,1024]{1,0} add(f32[64,1024]{1,0} %slice.187.9, f32[64,1024]{1,0} %convert.658.9), metadata={op_type="aten__add" op_name="aten__add.1027/aten__add" source_file="/usr/local/lib/python3.10/site-packages/torch/_ops.py" source_line=756}
  %multiply.368 = f32[64,1024]{1,0} multiply(f32[64,1024]{1,0} %add.178.7, f32[64,1024]{1,0} %add.178.7), metadata={op_type="aten__pow" op_name="aten__pow" source_file="/usr/local/lib/python3.10/site-packages/torch/_ops.py" source_line=756}
  %constant_323 = f32[] constant(0), metadata={op_type="aten__mean" op_name="aten__mean" source_file="/usr/local/lib/python3.10/site-packages/torch/_ops.py" source_line=756}
  %reduce.31 = f32[64]{0} reduce(f32[64,1024]{1,0} %multiply.368, f32[] %constant_323), dimensions={1}, to_apply=%AddComputation.72, metadata={op_type="aten__mean" op_name="aten__mean" source_file="/usr/local/lib/python3.10/site-packages/torch/_ops.py" source_line=756}
  %constant_322 = f32[] constant(0.0009765625), metadata={op_type="aten__mean" op_name="aten__mean" source_file="/usr/local/lib/python3.10/site-packages/torch/_ops.py" source_line=756}
  %broadcast.424 = f32[64]{0} broadcast(f32[] %constant_322), dimensions={}, metadata={op_type="aten__mean" op_name="aten__mean" source_file="/usr/local/lib/python3.10/site-packages/torch/_ops.py" source_line=756}
  %multiply.367 = f32[64]{0} multiply(f32[64]{0} %reduce.31, f32[64]{0} %broadcast.424), metadata={op_type="aten__mean" op_name="aten__mean" source_file="/usr/local/lib/python3.10/site-packages/torch/_ops.py" source_line=756}
  %param_0.569 = f32[] parameter(0)
  %broadcast.423 = f32[64]{0} broadcast(f32[] %param_0.569), dimensions={}, metadata={op_type="aten__add" op_name="aten__add.1028/aten__add" source_file="/usr/local/lib/python3.10/site-packages/torch/_ops.py" source_line=756}
  %add.222 = f32[64]{0} add(f32[64]{0} %multiply.367, f32[64]{0} %broadcast.423), metadata={op_type="aten__add" op_name="aten__add.1028/aten__add" source_file="/usr/local/lib/python3.10/site-packages/torch/_ops.py" source_line=756}
  %rsqrt.76 = f32[64]{0} rsqrt(f32[64]{0} %add.222), metadata={op_type="aten__rsqrt" op_name="aten__rsqrt" source_file="/usr/local/lib/python3.10/site-packages/torch/_ops.py" source_line=756}
  %broadcast.422 = f32[64,1024]{1,0} broadcast(f32[64]{0} %rsqrt.76), dimensions={0}, metadata={op_type="aten__mul" op_name="aten__mul.1029/aten__mul" source_file="/usr/local/lib/python3.10/site-packages/torch/_ops.py" source_line=756}
  %multiply.366 = f32[64,1024]{1,0} multiply(f32[64,1024]{1,0} %add.178.7, f32[64,1024]{1,0} %broadcast.422), metadata={op_type="aten__mul" op_name="aten__mul.1029/aten__mul" source_file="/usr/local/lib/python3.10/site-packages/torch/_ops.py" source_line=756}
  %param_3.257 = bf16[1024]{0} parameter(3)
  %convert.659.1 = f32[1024]{0} convert(bf16[1024]{0} %param_3.257), metadata={op_type="xla__cast" op_name="xla__cast" source_file="/usr/local/lib/python3.10/site-packages/torch/_ops.py" source_line=756}
  %broadcast.310.1 = f32[64,1024]{1,0} broadcast(f32[1024]{0} %convert.659.1), dimensions={1}, metadata={op_type="aten__mul" op_name="aten__mul.1030/aten__mul" source_file="/usr/local/lib/python3.10/site-packages/torch/_ops.py" source_line=756}
  %multiply.313.1 = f32[64,1024]{1,0} multiply(f32[64,1024]{1,0} %multiply.366, f32[64,1024]{1,0} %broadcast.310.1), metadata={op_type="aten__mul" op_name="aten__mul.1030/aten__mul" source_file="/usr/local/lib/python3.10/site-packages/torch/_ops.py" source_line=756}
  ROOT %convert.660.1 = bf16[64,1024]{1,0} convert(f32[64,1024]{1,0} %multiply.313.1), metadata={op_type="xla__cast" op_name="xla__cast" source_file="/usr/local/lib/python3.10/site-packages/torch/_ops.py" source_line=756}
}

%fused_convert.12 (param_0.484: bf16[64,6144]) -> bf16[64,3072] {
  %param_0.484 = bf16[64,6144]{1,0} parameter(0)
  %slice.188.1 = bf16[64,3072]{1,0} slice(bf16[64,6144]{1,0} %param_0.484), slice={[0:64], [0:3072]}, metadata={op_type="xla__select" op_name="xla__select" source_file="/usr/local/lib/python3.10/site-packages/torch/_ops.py" source_line=756}
  %convert.661.6 = f32[64,3072]{1,0} convert(bf16[64,3072]{1,0} %slice.188.1)
  %constant_1_4 = bf16[] constant(1), metadata={op_type="xla__select" op_name="xla__select" source_file="/usr/local/lib/python3.10/site-packages/torch/_ops.py" source_line=756}
  %convert.852.2 = f32[] convert(bf16[] %constant_1_4)
  %broadcast.360.104 = f32[64,3072]{1,0} broadcast(f32[] %convert.852.2), dimensions={}, metadata={op_type="xla__select" op_name="xla__select" source_file="/usr/local/lib/python3.10/site-packages/torch/_ops.py" source_line=756}
  %negate.39.7 = f32[64,3072]{1,0} negate(f32[64,3072]{1,0} %convert.661.6)
  %convert.666.5 = bf16[64,3072]{1,0} convert(f32[64,3072]{1,0} %negate.39.7)
  %exponential.39.3 = bf16[64,3072]{1,0} exponential(bf16[64,3072]{1,0} %convert.666.5)
  %convert.667.1 = f32[64,3072]{1,0} convert(bf16[64,3072]{1,0} %exponential.39.3)
  %add.179.5 = f32[64,3072]{1,0} add(f32[64,3072]{1,0} %broadcast.360.104, f32[64,3072]{1,0} %convert.667.1)
  %divide.39.3 = f32[64,3072]{1,0} divide(f32[64,3072]{1,0} %broadcast.360.104, f32[64,3072]{1,0} %add.179.5), metadata={op_type="aten__silu" op_name="aten__silu" source_file="/usr/local/lib/python3.10/site-packages/torch/_ops.py" source_line=756}
  %multiply.315.3 = f32[64,3072]{1,0} multiply(f32[64,3072]{1,0} %convert.661.6, f32[64,3072]{1,0} %divide.39.3), metadata={op_type="aten__silu" op_name="aten__silu" source_file="/usr/local/lib/python3.10/site-packages/torch/_ops.py" source_line=756}
  %slice.189.1 = bf16[64,3072]{1,0} slice(bf16[64,6144]{1,0} %param_0.484), slice={[0:64], [3072:6144]}, metadata={op_type="xla__select" op_name="xla__select" source_file="/usr/local/lib/python3.10/site-packages/torch/_ops.py" source_line=756}
  %convert.668.1 = f32[64,3072]{1,0} convert(bf16[64,3072]{1,0} %slice.189.1), metadata={op_type="xla__cast" op_name="xla__cast" source_file="/usr/local/lib/python3.10/site-packages/torch/_ops.py" source_line=756}
  %multiply.316.1 = f32[64,3072]{1,0} multiply(f32[64,3072]{1,0} %multiply.315.3, f32[64,3072]{1,0} %convert.668.1), metadata={op_type="aten__mul" op_name="aten__mul.1031/aten__mul" source_file="/usr/local/lib/python3.10/site-packages/torch/_ops.py" source_line=756}
  ROOT %convert.669.1 = bf16[64,3072]{1,0} convert(f32[64,3072]{1,0} %multiply.316.1), metadata={op_type="xla__cast" op_name="xla__cast" source_file="/usr/local/lib/python3.10/site-packages/torch/_ops.py" source_line=756}
}

%fused_computation.139 (param_0.557: f32[], param_1.442: bf16[64,1,1024], param_2.273: bf16[64,13312], param_3.251: bf16[64,1024], param_4.130: bf16[1024]) -> bf16[64,1024] {
  %param_2.273 = bf16[64,13312]{1,0} parameter(2)
  %convert.654.69 = f32[64,13312]{1,0} convert(bf16[64,13312]{1,0} %param_2.273), metadata={op_type="xla__cast" op_name="xla__cast" source_file="/usr/local/lib/python3.10/site-packages/torch/_ops.py" source_line=756}
  %slice.186.5 = f32[64,1024]{1,0} slice(f32[64,13312]{1,0} %convert.654.69), slice={[0:64], [11264:12288]}, metadata={op_type="aten__mm" op_name="aten__mm" source_file="/usr/local/lib/python3.10/site-packages/torch/_ops.py" source_line=756}
  %param_3.251 = bf16[64,1024]{1,0} parameter(3)
  %convert.670.3 = f32[64,1024]{1,0} convert(bf16[64,1024]{1,0} %param_3.251), metadata={op_type="xla__cast" op_name="xla__cast" source_file="/usr/local/lib/python3.10/site-packages/torch/_ops.py" source_line=756}
  %slice.187.11 = f32[64,1024]{1,0} slice(f32[64,13312]{1,0} %convert.654.69), slice={[0:64], [12288:13312]}, metadata={op_type="aten__mm" op_name="aten__mm" source_file="/usr/local/lib/python3.10/site-packages/torch/_ops.py" source_line=756}
  %param_1.442 = bf16[64,1,1024]{2,0,1} parameter(1)
  %bitcast.2157.11 = bf16[64,1024]{1,0} bitcast(bf16[64,1,1024]{2,0,1} %param_1.442)
  %convert.658.11 = f32[64,1024]{1,0} convert(bf16[64,1024]{1,0} %bitcast.2157.11), metadata={op_type="xla__cast" op_name="xla__cast" source_file="/usr/local/lib/python3.10/site-packages/torch/_ops.py" source_line=756}
  %add.178.9 = f32[64,1024]{1,0} add(f32[64,1024]{1,0} %slice.187.11, f32[64,1024]{1,0} %convert.658.11), metadata={op_type="aten__add" op_name="aten__add.1027/aten__add" source_file="/usr/local/lib/python3.10/site-packages/torch/_ops.py" source_line=756}
  %add.180.3 = f32[64,1024]{1,0} add(f32[64,1024]{1,0} %convert.670.3, f32[64,1024]{1,0} %add.178.9), metadata={op_type="aten__add" op_name="aten__add.1032/aten__add" source_file="/usr/local/lib/python3.10/site-packages/torch/_ops.py" source_line=756}
  %add.181.3 = f32[64,1024]{1,0} add(f32[64,1024]{1,0} %slice.186.5, f32[64,1024]{1,0} %add.180.3), metadata={op_type="aten__add" op_name="aten__add.1045/aten__add" source_file="/usr/local/lib/python3.10/site-packages/torch/_ops.py" source_line=756}
  %multiply.375 = f32[64,1024]{1,0} multiply(f32[64,1024]{1,0} %add.181.3, f32[64,1024]{1,0} %add.181.3), metadata={op_type="aten__pow" op_name="aten__pow" source_file="/usr/local/lib/python3.10/site-packages/torch/_ops.py" source_line=756}
  %constant_328 = f32[] constant(0), metadata={op_type="aten__mean" op_name="aten__mean" source_file="/usr/local/lib/python3.10/site-packages/torch/_ops.py" source_line=756}
  %reduce.33 = f32[64]{0} reduce(f32[64,1024]{1,0} %multiply.375, f32[] %constant_328), dimensions={1}, to_apply=%AddComputation.72, metadata={op_type="aten__mean" op_name="aten__mean" source_file="/usr/local/lib/python3.10/site-packages/torch/_ops.py" source_line=756}
  %constant_327 = f32[] constant(0.0009765625), metadata={op_type="aten__mean" op_name="aten__mean" source_file="/usr/local/lib/python3.10/site-packages/torch/_ops.py" source_line=756}
  %broadcast.431 = f32[64]{0} broadcast(f32[] %constant_327), dimensions={}, metadata={op_type="aten__mean" op_name="aten__mean" source_file="/usr/local/lib/python3.10/site-packages/torch/_ops.py" source_line=756}
  %multiply.374 = f32[64]{0} multiply(f32[64]{0} %reduce.33, f32[64]{0} %broadcast.431), metadata={op_type="aten__mean" op_name="aten__mean" source_file="/usr/local/lib/python3.10/site-packages/torch/_ops.py" source_line=756}
  %param_0.557 = f32[] parameter(0)
  %broadcast.430 = f32[64]{0} broadcast(f32[] %param_0.557), dimensions={}, metadata={op_type="aten__add" op_name="aten__add.1028/aten__add" source_file="/usr/local/lib/python3.10/site-packages/torch/_ops.py" source_line=756}
  %add.224 = f32[64]{0} add(f32[64]{0} %multiply.374, f32[64]{0} %broadcast.430), metadata={op_type="aten__add" op_name="aten__add.1046/aten__add" source_file="/usr/local/lib/python3.10/site-packages/torch/_ops.py" source_line=756}
  %rsqrt.78 = f32[64]{0} rsqrt(f32[64]{0} %add.224), metadata={op_type="aten__rsqrt" op_name="aten__rsqrt" source_file="/usr/local/lib/python3.10/site-packages/torch/_ops.py" source_line=756}
  %broadcast.429 = f32[64,1024]{1,0} broadcast(f32[64]{0} %rsqrt.78), dimensions={0}, metadata={op_type="aten__mul" op_name="aten__mul.1047/aten__mul" source_file="/usr/local/lib/python3.10/site-packages/torch/_ops.py" source_line=756}
  %multiply.372 = f32[64,1024]{1,0} multiply(f32[64,1024]{1,0} %add.181.3, f32[64,1024]{1,0} %broadcast.429), metadata={op_type="aten__mul" op_name="aten__mul.1047/aten__mul" source_file="/usr/local/lib/python3.10/site-packages/torch/_ops.py" source_line=756}
  %param_4.130 = bf16[1024]{0} parameter(4)
  %convert.673.1 = f32[1024]{0} convert(bf16[1024]{0} %param_4.130), metadata={op_type="xla__cast" op_name="xla__cast" source_file="/usr/local/lib/python3.10/site-packages/torch/_ops.py" source_line=756}
  %broadcast.314.1 = f32[64,1024]{1,0} broadcast(f32[1024]{0} %convert.673.1), dimensions={1}, metadata={op_type="aten__mul" op_name="aten__mul.1048/aten__mul" source_file="/usr/local/lib/python3.10/site-packages/torch/_ops.py" source_line=756}
  %multiply.317.1 = f32[64,1024]{1,0} multiply(f32[64,1024]{1,0} %multiply.372, f32[64,1024]{1,0} %broadcast.314.1), metadata={op_type="aten__mul" op_name="aten__mul.1048/aten__mul" source_file="/usr/local/lib/python3.10/site-packages/torch/_ops.py" source_line=756}
  ROOT %convert.674.1 = bf16[64,1024]{1,0} convert(f32[64,1024]{1,0} %multiply.317.1), metadata={op_type="xla__cast" op_name="xla__cast" source_file="/usr/local/lib/python3.10/site-packages/torch/_ops.py" source_line=756}
}

%fused_convert.11 (param_0.486: bf16[64,6144]) -> bf16[64,3072] {
  %param_0.486 = bf16[64,6144]{1,0} parameter(0)
  %slice.190.1 = bf16[64,3072]{1,0} slice(bf16[64,6144]{1,0} %param_0.486), slice={[0:64], [0:3072]}, metadata={op_type="xla__select" op_name="xla__select" source_file="/usr/local/lib/python3.10/site-packages/torch/_ops.py" source_line=756}
  %convert.676.6 = f32[64,3072]{1,0} convert(bf16[64,3072]{1,0} %slice.190.1)
  %constant_1_6 = bf16[] constant(1), metadata={op_type="xla__select" op_name="xla__select" source_file="/usr/local/lib/python3.10/site-packages/torch/_ops.py" source_line=756}
  %convert.852.4 = f32[] convert(bf16[] %constant_1_6)
  %broadcast.360.100 = f32[64,3072]{1,0} broadcast(f32[] %convert.852.4), dimensions={}, metadata={op_type="xla__select" op_name="xla__select" source_file="/usr/local/lib/python3.10/site-packages/torch/_ops.py" source_line=756}
  %negate.40.7 = f32[64,3072]{1,0} negate(f32[64,3072]{1,0} %convert.676.6)
  %convert.681.5 = bf16[64,3072]{1,0} convert(f32[64,3072]{1,0} %negate.40.7)
  %exponential.40.3 = bf16[64,3072]{1,0} exponential(bf16[64,3072]{1,0} %convert.681.5)
  %convert.683.1 = f32[64,3072]{1,0} convert(bf16[64,3072]{1,0} %exponential.40.3)
  %add.182.5 = f32[64,3072]{1,0} add(f32[64,3072]{1,0} %broadcast.360.100, f32[64,3072]{1,0} %convert.683.1)
  %divide.40.3 = f32[64,3072]{1,0} divide(f32[64,3072]{1,0} %broadcast.360.100, f32[64,3072]{1,0} %add.182.5), metadata={op_type="aten__silu" op_name="aten__silu" source_file="/usr/local/lib/python3.10/site-packages/torch/_ops.py" source_line=756}
  %multiply.318.3 = f32[64,3072]{1,0} multiply(f32[64,3072]{1,0} %convert.676.6, f32[64,3072]{1,0} %divide.40.3), metadata={op_type="aten__silu" op_name="aten__silu" source_file="/usr/local/lib/python3.10/site-packages/torch/_ops.py" source_line=756}
  %slice.191.1 = bf16[64,3072]{1,0} slice(bf16[64,6144]{1,0} %param_0.486), slice={[0:64], [3072:6144]}, metadata={op_type="xla__select" op_name="xla__select" source_file="/usr/local/lib/python3.10/site-packages/torch/_ops.py" source_line=756}
  %convert.685.1 = f32[64,3072]{1,0} convert(bf16[64,3072]{1,0} %slice.191.1), metadata={op_type="xla__cast" op_name="xla__cast" source_file="/usr/local/lib/python3.10/site-packages/torch/_ops.py" source_line=756}
  %multiply.319.1 = f32[64,3072]{1,0} multiply(f32[64,3072]{1,0} %multiply.318.3, f32[64,3072]{1,0} %convert.685.1), metadata={op_type="aten__mul" op_name="aten__mul.1049/aten__mul" source_file="/usr/local/lib/python3.10/site-packages/torch/_ops.py" source_line=756}
  ROOT %convert.687.1 = bf16[64,3072]{1,0} convert(f32[64,3072]{1,0} %multiply.319.1), metadata={op_type="xla__cast" op_name="xla__cast" source_file="/usr/local/lib/python3.10/site-packages/torch/_ops.py" source_line=756}
}

%fused_computation.138 (param_0.594: f32[], param_1.474: bf16[1024], param_2.311: bf16[64,1,1024], param_3.298: bf16[64,13312], param_4.171: bf16[64,1024], param_5.66: bf16[64,1024]) -> bf16[64,1024] {
  %param_3.298 = bf16[64,13312]{1,0} parameter(3)
  %convert.654.111 = f32[64,13312]{1,0} convert(bf16[64,13312]{1,0} %param_3.298), metadata={op_type="xla__cast" op_name="xla__cast" source_file="/usr/local/lib/python3.10/site-packages/torch/_ops.py" source_line=756}
  %slice.185.5 = f32[64,1024]{1,0} slice(f32[64,13312]{1,0} %convert.654.111), slice={[0:64], [10240:11264]}, metadata={op_type="aten__mm" op_name="aten__mm" source_file="/usr/local/lib/python3.10/site-packages/torch/_ops.py" source_line=756}
  %param_5.66 = bf16[64,1024]{1,0} parameter(5)
  %convert.688.3 = f32[64,1024]{1,0} convert(bf16[64,1024]{1,0} %param_5.66), metadata={op_type="xla__cast" op_name="xla__cast" source_file="/usr/local/lib/python3.10/site-packages/torch/_ops.py" source_line=756}
  %slice.186.9 = f32[64,1024]{1,0} slice(f32[64,13312]{1,0} %convert.654.111), slice={[0:64], [11264:12288]}, metadata={op_type="aten__mm" op_name="aten__mm" source_file="/usr/local/lib/python3.10/site-packages/torch/_ops.py" source_line=756}
  %param_4.171 = bf16[64,1024]{1,0} parameter(4)
  %convert.670.7 = f32[64,1024]{1,0} convert(bf16[64,1024]{1,0} %param_4.171), metadata={op_type="xla__cast" op_name="xla__cast" source_file="/usr/local/lib/python3.10/site-packages/torch/_ops.py" source_line=756}
  %slice.187.15 = f32[64,1024]{1,0} slice(f32[64,13312]{1,0} %convert.654.111), slice={[0:64], [12288:13312]}, metadata={op_type="aten__mm" op_name="aten__mm" source_file="/usr/local/lib/python3.10/site-packages/torch/_ops.py" source_line=756}
  %param_2.311 = bf16[64,1,1024]{2,0,1} parameter(2)
  %bitcast.2157.15 = bf16[64,1024]{1,0} bitcast(bf16[64,1,1024]{2,0,1} %param_2.311)
  %convert.658.15 = f32[64,1024]{1,0} convert(bf16[64,1024]{1,0} %bitcast.2157.15), metadata={op_type="xla__cast" op_name="xla__cast" source_file="/usr/local/lib/python3.10/site-packages/torch/_ops.py" source_line=756}
  %add.178.13 = f32[64,1024]{1,0} add(f32[64,1024]{1,0} %slice.187.15, f32[64,1024]{1,0} %convert.658.15), metadata={op_type="aten__add" op_name="aten__add.1027/aten__add" source_file="/usr/local/lib/python3.10/site-packages/torch/_ops.py" source_line=756}
  %add.180.7 = f32[64,1024]{1,0} add(f32[64,1024]{1,0} %convert.670.7, f32[64,1024]{1,0} %add.178.13), metadata={op_type="aten__add" op_name="aten__add.1032/aten__add" source_file="/usr/local/lib/python3.10/site-packages/torch/_ops.py" source_line=756}
  %add.181.7 = f32[64,1024]{1,0} add(f32[64,1024]{1,0} %slice.186.9, f32[64,1024]{1,0} %add.180.7), metadata={op_type="aten__add" op_name="aten__add.1045/aten__add" source_file="/usr/local/lib/python3.10/site-packages/torch/_ops.py" source_line=756}
  %add.183.3 = f32[64,1024]{1,0} add(f32[64,1024]{1,0} %convert.688.3, f32[64,1024]{1,0} %add.181.7), metadata={op_type="aten__add" op_name="aten__add.1050/aten__add" source_file="/usr/local/lib/python3.10/site-packages/torch/_ops.py" source_line=756}
  %add.184.3 = f32[64,1024]{1,0} add(f32[64,1024]{1,0} %slice.185.5, f32[64,1024]{1,0} %add.183.3), metadata={op_type="aten__add" op_name="aten__add.1063/aten__add" source_file="/usr/local/lib/python3.10/site-packages/torch/_ops.py" source_line=756}
  %multiply.383 = f32[64,1024]{1,0} multiply(f32[64,1024]{1,0} %add.184.3, f32[64,1024]{1,0} %add.184.3), metadata={op_type="aten__pow" op_name="aten__pow" source_file="/usr/local/lib/python3.10/site-packages/torch/_ops.py" source_line=756}
  %constant_333 = f32[] constant(0), metadata={op_type="aten__mean" op_name="aten__mean" source_file="/usr/local/lib/python3.10/site-packages/torch/_ops.py" source_line=756}
  %reduce.35 = f32[64]{0} reduce(f32[64,1024]{1,0} %multiply.383, f32[] %constant_333), dimensions={1}, to_apply=%AddComputation.72, metadata={op_type="aten__mean" op_name="aten__mean" source_file="/usr/local/lib/python3.10/site-packages/torch/_ops.py" source_line=756}
  %constant_332 = f32[] constant(0.0009765625), metadata={op_type="aten__mean" op_name="aten__mean" source_file="/usr/local/lib/python3.10/site-packages/torch/_ops.py" source_line=756}
  %broadcast.437 = f32[64]{0} broadcast(f32[] %constant_332), dimensions={}, metadata={op_type="aten__mean" op_name="aten__mean" source_file="/usr/local/lib/python3.10/site-packages/torch/_ops.py" source_line=756}
  %multiply.381 = f32[64]{0} multiply(f32[64]{0} %reduce.35, f32[64]{0} %broadcast.437), metadata={op_type="aten__mean" op_name="aten__mean" source_file="/usr/local/lib/python3.10/site-packages/torch/_ops.py" source_line=756}
  %param_0.594 = f32[] parameter(0)
  %broadcast.436 = f32[64]{0} broadcast(f32[] %param_0.594), dimensions={}, metadata={op_type="aten__add" op_name="aten__add.1028/aten__add" source_file="/usr/local/lib/python3.10/site-packages/torch/_ops.py" source_line=756}
  %add.226 = f32[64]{0} add(f32[64]{0} %multiply.381, f32[64]{0} %broadcast.436), metadata={op_type="aten__add" op_name="aten__add.1064/aten__add" source_file="/usr/local/lib/python3.10/site-packages/torch/_ops.py" source_line=756}
  %rsqrt.80 = f32[64]{0} rsqrt(f32[64]{0} %add.226), metadata={op_type="aten__rsqrt" op_name="aten__rsqrt" source_file="/usr/local/lib/python3.10/site-packages/torch/_ops.py" source_line=756}
  %broadcast.435 = f32[64,1024]{1,0} broadcast(f32[64]{0} %rsqrt.80), dimensions={0}, metadata={op_type="aten__mul" op_name="aten__mul.1065/aten__mul" source_file="/usr/local/lib/python3.10/site-packages/torch/_ops.py" source_line=756}
  %multiply.380 = f32[64,1024]{1,0} multiply(f32[64,1024]{1,0} %add.184.3, f32[64,1024]{1,0} %broadcast.435), metadata={op_type="aten__mul" op_name="aten__mul.1065/aten__mul" source_file="/usr/local/lib/python3.10/site-packages/torch/_ops.py" source_line=756}
  %param_1.474 = bf16[1024]{0} parameter(1)
  %convert.689.1 = f32[1024]{0} convert(bf16[1024]{0} %param_1.474), metadata={op_type="xla__cast" op_name="xla__cast" source_file="/usr/local/lib/python3.10/site-packages/torch/_ops.py" source_line=756}
  %broadcast.317.1 = f32[64,1024]{1,0} broadcast(f32[1024]{0} %convert.689.1), dimensions={1}, metadata={op_type="aten__mul" op_name="aten__mul.1066/aten__mul" source_file="/usr/local/lib/python3.10/site-packages/torch/_ops.py" source_line=756}
  %multiply.320.1 = f32[64,1024]{1,0} multiply(f32[64,1024]{1,0} %multiply.380, f32[64,1024]{1,0} %broadcast.317.1), metadata={op_type="aten__mul" op_name="aten__mul.1066/aten__mul" source_file="/usr/local/lib/python3.10/site-packages/torch/_ops.py" source_line=756}
  ROOT %convert.692.1 = bf16[64,1024]{1,0} convert(f32[64,1024]{1,0} %multiply.320.1), metadata={op_type="xla__cast" op_name="xla__cast" source_file="/usr/local/lib/python3.10/site-packages/torch/_ops.py" source_line=756}
}

%fused_convert.10 (param_0.488: bf16[64,6144]) -> bf16[64,3072] {
  %param_0.488 = bf16[64,6144]{1,0} parameter(0)
  %slice.192.1 = bf16[64,3072]{1,0} slice(bf16[64,6144]{1,0} %param_0.488), slice={[0:64], [0:3072]}, metadata={op_type="xla__select" op_name="xla__select" source_file="/usr/local/lib/python3.10/site-packages/torch/_ops.py" source_line=756}
  %convert.693.6 = f32[64,3072]{1,0} convert(bf16[64,3072]{1,0} %slice.192.1)
  %constant_1_8 = bf16[] constant(1), metadata={op_type="xla__select" op_name="xla__select" source_file="/usr/local/lib/python3.10/site-packages/torch/_ops.py" source_line=756}
  %convert.852.6 = f32[] convert(bf16[] %constant_1_8)
  %broadcast.360.96 = f32[64,3072]{1,0} broadcast(f32[] %convert.852.6), dimensions={}, metadata={op_type="xla__select" op_name="xla__select" source_file="/usr/local/lib/python3.10/site-packages/torch/_ops.py" source_line=756}
  %negate.41.7 = f32[64,3072]{1,0} negate(f32[64,3072]{1,0} %convert.693.6)
  %convert.697.5 = bf16[64,3072]{1,0} convert(f32[64,3072]{1,0} %negate.41.7)
  %exponential.41.3 = bf16[64,3072]{1,0} exponential(bf16[64,3072]{1,0} %convert.697.5)
  %convert.698.1 = f32[64,3072]{1,0} convert(bf16[64,3072]{1,0} %exponential.41.3)
  %add.186.5 = f32[64,3072]{1,0} add(f32[64,3072]{1,0} %broadcast.360.96, f32[64,3072]{1,0} %convert.698.1)
  %divide.41.3 = f32[64,3072]{1,0} divide(f32[64,3072]{1,0} %broadcast.360.96, f32[64,3072]{1,0} %add.186.5), metadata={op_type="aten__silu" op_name="aten__silu" source_file="/usr/local/lib/python3.10/site-packages/torch/_ops.py" source_line=756}
  %multiply.322.3 = f32[64,3072]{1,0} multiply(f32[64,3072]{1,0} %convert.693.6, f32[64,3072]{1,0} %divide.41.3), metadata={op_type="aten__silu" op_name="aten__silu" source_file="/usr/local/lib/python3.10/site-packages/torch/_ops.py" source_line=756}
  %slice.193.1 = bf16[64,3072]{1,0} slice(bf16[64,6144]{1,0} %param_0.488), slice={[0:64], [3072:6144]}, metadata={op_type="xla__select" op_name="xla__select" source_file="/usr/local/lib/python3.10/site-packages/torch/_ops.py" source_line=756}
  %convert.699.1 = f32[64,3072]{1,0} convert(bf16[64,3072]{1,0} %slice.193.1), metadata={op_type="xla__cast" op_name="xla__cast" source_file="/usr/local/lib/python3.10/site-packages/torch/_ops.py" source_line=756}
  %multiply.324.1 = f32[64,3072]{1,0} multiply(f32[64,3072]{1,0} %multiply.322.3, f32[64,3072]{1,0} %convert.699.1), metadata={op_type="aten__mul" op_name="aten__mul.1067/aten__mul" source_file="/usr/local/lib/python3.10/site-packages/torch/_ops.py" source_line=756}
  ROOT %convert.700.1 = bf16[64,3072]{1,0} convert(f32[64,3072]{1,0} %multiply.324.1), metadata={op_type="xla__cast" op_name="xla__cast" source_file="/usr/local/lib/python3.10/site-packages/torch/_ops.py" source_line=756}
}

%fused_computation.137 (param_0.567: f32[], param_1.477: bf16[64,1024], param_2.314: bf16[64,13312], param_3.301: bf16[1024], param_4.174: bf16[64,1,1024], param_5.71: bf16[64,1024], param_6.60: bf16[64,1024]) -> bf16[64,1024] {
  %param_2.314 = bf16[64,13312]{1,0} parameter(2)
  %convert.654.63 = f32[64,13312]{1,0} convert(bf16[64,13312]{1,0} %param_2.314), metadata={op_type="xla__cast" op_name="xla__cast" source_file="/usr/local/lib/python3.10/site-packages/torch/_ops.py" source_line=756}
  %slice.184.5 = f32[64,1024]{1,0} slice(f32[64,13312]{1,0} %convert.654.63), slice={[0:64], [9216:10240]}, metadata={op_type="aten__mm" op_name="aten__mm" source_file="/usr/local/lib/python3.10/site-packages/torch/_ops.py" source_line=756}
  %param_1.477 = bf16[64,1024]{1,0} parameter(1)
  %convert.701.3 = f32[64,1024]{1,0} convert(bf16[64,1024]{1,0} %param_1.477), metadata={op_type="xla__cast" op_name="xla__cast" source_file="/usr/local/lib/python3.10/site-packages/torch/_ops.py" source_line=756}
  %slice.185.9 = f32[64,1024]{1,0} slice(f32[64,13312]{1,0} %convert.654.63), slice={[0:64], [10240:11264]}, metadata={op_type="aten__mm" op_name="aten__mm" source_file="/usr/local/lib/python3.10/site-packages/torch/_ops.py" source_line=756}
  %param_6.60 = bf16[64,1024]{1,0} parameter(6)
  %convert.688.7 = f32[64,1024]{1,0} convert(bf16[64,1024]{1,0} %param_6.60), metadata={op_type="xla__cast" op_name="xla__cast" source_file="/usr/local/lib/python3.10/site-packages/torch/_ops.py" source_line=756}
  %slice.186.13 = f32[64,1024]{1,0} slice(f32[64,13312]{1,0} %convert.654.63), slice={[0:64], [11264:12288]}, metadata={op_type="aten__mm" op_name="aten__mm" source_file="/usr/local/lib/python3.10/site-packages/torch/_ops.py" source_line=756}
  %param_5.71 = bf16[64,1024]{1,0} parameter(5)
  %convert.670.11 = f32[64,1024]{1,0} convert(bf16[64,1024]{1,0} %param_5.71), metadata={op_type="xla__cast" op_name="xla__cast" source_file="/usr/local/lib/python3.10/site-packages/torch/_ops.py" source_line=756}
  %slice.187.19 = f32[64,1024]{1,0} slice(f32[64,13312]{1,0} %convert.654.63), slice={[0:64], [12288:13312]}, metadata={op_type="aten__mm" op_name="aten__mm" source_file="/usr/local/lib/python3.10/site-packages/torch/_ops.py" source_line=756}
  %param_4.174 = bf16[64,1,1024]{2,0,1} parameter(4)
  %bitcast.2157.19 = bf16[64,1024]{1,0} bitcast(bf16[64,1,1024]{2,0,1} %param_4.174)
  %convert.658.19 = f32[64,1024]{1,0} convert(bf16[64,1024]{1,0} %bitcast.2157.19), metadata={op_type="xla__cast" op_name="xla__cast" source_file="/usr/local/lib/python3.10/site-packages/torch/_ops.py" source_line=756}
  %add.178.17 = f32[64,1024]{1,0} add(f32[64,1024]{1,0} %slice.187.19, f32[64,1024]{1,0} %convert.658.19), metadata={op_type="aten__add" op_name="aten__add.1027/aten__add" source_file="/usr/local/lib/python3.10/site-packages/torch/_ops.py" source_line=756}
  %add.180.11 = f32[64,1024]{1,0} add(f32[64,1024]{1,0} %convert.670.11, f32[64,1024]{1,0} %add.178.17), metadata={op_type="aten__add" op_name="aten__add.1032/aten__add" source_file="/usr/local/lib/python3.10/site-packages/torch/_ops.py" source_line=756}
  %add.181.11 = f32[64,1024]{1,0} add(f32[64,1024]{1,0} %slice.186.13, f32[64,1024]{1,0} %add.180.11), metadata={op_type="aten__add" op_name="aten__add.1045/aten__add" source_file="/usr/local/lib/python3.10/site-packages/torch/_ops.py" source_line=756}
  %add.183.7 = f32[64,1024]{1,0} add(f32[64,1024]{1,0} %convert.688.7, f32[64,1024]{1,0} %add.181.11), metadata={op_type="aten__add" op_name="aten__add.1050/aten__add" source_file="/usr/local/lib/python3.10/site-packages/torch/_ops.py" source_line=756}
  %add.184.7 = f32[64,1024]{1,0} add(f32[64,1024]{1,0} %slice.185.9, f32[64,1024]{1,0} %add.183.7), metadata={op_type="aten__add" op_name="aten__add.1063/aten__add" source_file="/usr/local/lib/python3.10/site-packages/torch/_ops.py" source_line=756}
  %add.187.3 = f32[64,1024]{1,0} add(f32[64,1024]{1,0} %convert.701.3, f32[64,1024]{1,0} %add.184.7), metadata={op_type="aten__add" op_name="aten__add.1068/aten__add" source_file="/usr/local/lib/python3.10/site-packages/torch/_ops.py" source_line=756}
  %add.188.3 = f32[64,1024]{1,0} add(f32[64,1024]{1,0} %slice.184.5, f32[64,1024]{1,0} %add.187.3), metadata={op_type="aten__add" op_name="aten__add.1081/aten__add" source_file="/usr/local/lib/python3.10/site-packages/torch/_ops.py" source_line=756}
  %multiply.390 = f32[64,1024]{1,0} multiply(f32[64,1024]{1,0} %add.188.3, f32[64,1024]{1,0} %add.188.3), metadata={op_type="aten__pow" op_name="aten__pow" source_file="/usr/local/lib/python3.10/site-packages/torch/_ops.py" source_line=756}
  %constant_339 = f32[] constant(0), metadata={op_type="aten__mean" op_name="aten__mean" source_file="/usr/local/lib/python3.10/site-packages/torch/_ops.py" source_line=756}
  %reduce.37 = f32[64]{0} reduce(f32[64,1024]{1,0} %multiply.390, f32[] %constant_339), dimensions={1}, to_apply=%AddComputation.72, metadata={op_type="aten__mean" op_name="aten__mean" source_file="/usr/local/lib/python3.10/site-packages/torch/_ops.py" source_line=756}
  %constant_338 = f32[] constant(0.0009765625), metadata={op_type="aten__mean" op_name="aten__mean" source_file="/usr/local/lib/python3.10/site-packages/torch/_ops.py" source_line=756}
  %broadcast.443 = f32[64]{0} broadcast(f32[] %constant_338), dimensions={}, metadata={op_type="aten__mean" op_name="aten__mean" source_file="/usr/local/lib/python3.10/site-packages/torch/_ops.py" source_line=756}
  %multiply.389 = f32[64]{0} multiply(f32[64]{0} %reduce.37, f32[64]{0} %broadcast.443), metadata={op_type="aten__mean" op_name="aten__mean" source_file="/usr/local/lib/python3.10/site-packages/torch/_ops.py" source_line=756}
  %param_0.567 = f32[] parameter(0)
  %broadcast.442 = f32[64]{0} broadcast(f32[] %param_0.567), dimensions={}, metadata={op_type="aten__add" op_name="aten__add.1028/aten__add" source_file="/usr/local/lib/python3.10/site-packages/torch/_ops.py" source_line=756}
  %add.228 = f32[64]{0} add(f32[64]{0} %multiply.389, f32[64]{0} %broadcast.442), metadata={op_type="aten__add" op_name="aten__add.1082/aten__add" source_file="/usr/local/lib/python3.10/site-packages/torch/_ops.py" source_line=756}
  %rsqrt.82 = f32[64]{0} rsqrt(f32[64]{0} %add.228), metadata={op_type="aten__rsqrt" op_name="aten__rsqrt" source_file="/usr/local/lib/python3.10/site-packages/torch/_ops.py" source_line=756}
  %broadcast.441 = f32[64,1024]{1,0} broadcast(f32[64]{0} %rsqrt.82), dimensions={0}, metadata={op_type="aten__mul" op_name="aten__mul.1083/aten__mul" source_file="/usr/local/lib/python3.10/site-packages/torch/_ops.py" source_line=756}
  %multiply.388 = f32[64,1024]{1,0} multiply(f32[64,1024]{1,0} %add.188.3, f32[64,1024]{1,0} %broadcast.441), metadata={op_type="aten__mul" op_name="aten__mul.1083/aten__mul" source_file="/usr/local/lib/python3.10/site-packages/torch/_ops.py" source_line=756}
  %param_3.301 = bf16[1024]{0} parameter(3)
  %convert.703.1 = f32[1024]{0} convert(bf16[1024]{0} %param_3.301), metadata={op_type="xla__cast" op_name="xla__cast" source_file="/usr/local/lib/python3.10/site-packages/torch/_ops.py" source_line=756}
  %broadcast.320.1 = f32[64,1024]{1,0} broadcast(f32[1024]{0} %convert.703.1), dimensions={1}, metadata={op_type="aten__mul" op_name="aten__mul.1084/aten__mul" source_file="/usr/local/lib/python3.10/site-packages/torch/_ops.py" source_line=756}
  %multiply.325.1 = f32[64,1024]{1,0} multiply(f32[64,1024]{1,0} %multiply.388, f32[64,1024]{1,0} %broadcast.320.1), metadata={op_type="aten__mul" op_name="aten__mul.1084/aten__mul" source_file="/usr/local/lib/python3.10/site-packages/torch/_ops.py" source_line=756}
  ROOT %convert.704.1 = bf16[64,1024]{1,0} convert(f32[64,1024]{1,0} %multiply.325.1), metadata={op_type="xla__cast" op_name="xla__cast" source_file="/usr/local/lib/python3.10/site-packages/torch/_ops.py" source_line=756}
}

%fused_convert.9 (param_0.490: bf16[64,6144]) -> bf16[64,3072] {
  %param_0.490 = bf16[64,6144]{1,0} parameter(0)
  %slice.194.1 = bf16[64,3072]{1,0} slice(bf16[64,6144]{1,0} %param_0.490), slice={[0:64], [0:3072]}, metadata={op_type="xla__select" op_name="xla__select" source_file="/usr/local/lib/python3.10/site-packages/torch/_ops.py" source_line=756}
  %convert.705.6 = f32[64,3072]{1,0} convert(bf16[64,3072]{1,0} %slice.194.1)
  %constant_1_10 = bf16[] constant(1), metadata={op_type="xla__select" op_name="xla__select" source_file="/usr/local/lib/python3.10/site-packages/torch/_ops.py" source_line=756}
  %convert.852.8 = f32[] convert(bf16[] %constant_1_10)
  %broadcast.360.92 = f32[64,3072]{1,0} broadcast(f32[] %convert.852.8), dimensions={}, metadata={op_type="xla__select" op_name="xla__select" source_file="/usr/local/lib/python3.10/site-packages/torch/_ops.py" source_line=756}
  %negate.42.7 = f32[64,3072]{1,0} negate(f32[64,3072]{1,0} %convert.705.6)
  %convert.711.5 = bf16[64,3072]{1,0} convert(f32[64,3072]{1,0} %negate.42.7)
  %exponential.42.3 = bf16[64,3072]{1,0} exponential(bf16[64,3072]{1,0} %convert.711.5)
  %convert.712.1 = f32[64,3072]{1,0} convert(bf16[64,3072]{1,0} %exponential.42.3)
  %add.189.5 = f32[64,3072]{1,0} add(f32[64,3072]{1,0} %broadcast.360.92, f32[64,3072]{1,0} %convert.712.1)
  %divide.42.3 = f32[64,3072]{1,0} divide(f32[64,3072]{1,0} %broadcast.360.92, f32[64,3072]{1,0} %add.189.5), metadata={op_type="aten__silu" op_name="aten__silu" source_file="/usr/local/lib/python3.10/site-packages/torch/_ops.py" source_line=756}
  %multiply.326.3 = f32[64,3072]{1,0} multiply(f32[64,3072]{1,0} %convert.705.6, f32[64,3072]{1,0} %divide.42.3), metadata={op_type="aten__silu" op_name="aten__silu" source_file="/usr/local/lib/python3.10/site-packages/torch/_ops.py" source_line=756}
  %slice.195.1 = bf16[64,3072]{1,0} slice(bf16[64,6144]{1,0} %param_0.490), slice={[0:64], [3072:6144]}, metadata={op_type="xla__select" op_name="xla__select" source_file="/usr/local/lib/python3.10/site-packages/torch/_ops.py" source_line=756}
  %convert.714.1 = f32[64,3072]{1,0} convert(bf16[64,3072]{1,0} %slice.195.1), metadata={op_type="xla__cast" op_name="xla__cast" source_file="/usr/local/lib/python3.10/site-packages/torch/_ops.py" source_line=756}
  %multiply.327.1 = f32[64,3072]{1,0} multiply(f32[64,3072]{1,0} %multiply.326.3, f32[64,3072]{1,0} %convert.714.1), metadata={op_type="aten__mul" op_name="aten__mul.1085/aten__mul" source_file="/usr/local/lib/python3.10/site-packages/torch/_ops.py" source_line=756}
  ROOT %convert.715.1 = bf16[64,3072]{1,0} convert(f32[64,3072]{1,0} %multiply.327.1), metadata={op_type="xla__cast" op_name="xla__cast" source_file="/usr/local/lib/python3.10/site-packages/torch/_ops.py" source_line=756}
}

%fused_computation.136 (param_0.590: f32[], param_1.469: bf16[1024], param_2.316: bf16[64,1024], param_3.303: bf16[64,13312], param_4.175: bf16[64,1024], param_5.73: bf16[64,1,1024], param_6.64: bf16[64,1024], param_7.45: bf16[64,1024]) -> bf16[64,1024] {
  %param_3.303 = bf16[64,13312]{1,0} parameter(3)
  %convert.654.97 = f32[64,13312]{1,0} convert(bf16[64,13312]{1,0} %param_3.303), metadata={op_type="xla__cast" op_name="xla__cast" source_file="/usr/local/lib/python3.10/site-packages/torch/_ops.py" source_line=756}
  %slice.183.5 = f32[64,1024]{1,0} slice(f32[64,13312]{1,0} %convert.654.97), slice={[0:64], [8192:9216]}, metadata={op_type="aten__mm" op_name="aten__mm" source_file="/usr/local/lib/python3.10/site-packages/torch/_ops.py" source_line=756}
  %param_4.175 = bf16[64,1024]{1,0} parameter(4)
  %convert.716.3 = f32[64,1024]{1,0} convert(bf16[64,1024]{1,0} %param_4.175), metadata={op_type="xla__cast" op_name="xla__cast" source_file="/usr/local/lib/python3.10/site-packages/torch/_ops.py" source_line=756}
  %slice.184.9 = f32[64,1024]{1,0} slice(f32[64,13312]{1,0} %convert.654.97), slice={[0:64], [9216:10240]}, metadata={op_type="aten__mm" op_name="aten__mm" source_file="/usr/local/lib/python3.10/site-packages/torch/_ops.py" source_line=756}
  %param_2.316 = bf16[64,1024]{1,0} parameter(2)
  %convert.701.7 = f32[64,1024]{1,0} convert(bf16[64,1024]{1,0} %param_2.316), metadata={op_type="xla__cast" op_name="xla__cast" source_file="/usr/local/lib/python3.10/site-packages/torch/_ops.py" source_line=756}
  %slice.185.11 = f32[64,1024]{1,0} slice(f32[64,13312]{1,0} %convert.654.97), slice={[0:64], [10240:11264]}, metadata={op_type="aten__mm" op_name="aten__mm" source_file="/usr/local/lib/python3.10/site-packages/torch/_ops.py" source_line=756}
  %param_7.45 = bf16[64,1024]{1,0} parameter(7)
  %convert.688.9 = f32[64,1024]{1,0} convert(bf16[64,1024]{1,0} %param_7.45), metadata={op_type="xla__cast" op_name="xla__cast" source_file="/usr/local/lib/python3.10/site-packages/torch/_ops.py" source_line=756}
  %slice.186.15 = f32[64,1024]{1,0} slice(f32[64,13312]{1,0} %convert.654.97), slice={[0:64], [11264:12288]}, metadata={op_type="aten__mm" op_name="aten__mm" source_file="/usr/local/lib/python3.10/site-packages/torch/_ops.py" source_line=756}
  %param_6.64 = bf16[64,1024]{1,0} parameter(6)
  %convert.670.13 = f32[64,1024]{1,0} convert(bf16[64,1024]{1,0} %param_6.64), metadata={op_type="xla__cast" op_name="xla__cast" source_file="/usr/local/lib/python3.10/site-packages/torch/_ops.py" source_line=756}
  %slice.187.21 = f32[64,1024]{1,0} slice(f32[64,13312]{1,0} %convert.654.97), slice={[0:64], [12288:13312]}, metadata={op_type="aten__mm" op_name="aten__mm" source_file="/usr/local/lib/python3.10/site-packages/torch/_ops.py" source_line=756}
  %param_5.73 = bf16[64,1,1024]{2,0,1} parameter(5)
  %bitcast.2157.21 = bf16[64,1024]{1,0} bitcast(bf16[64,1,1024]{2,0,1} %param_5.73)
  %convert.658.21 = f32[64,1024]{1,0} convert(bf16[64,1024]{1,0} %bitcast.2157.21), metadata={op_type="xla__cast" op_name="xla__cast" source_file="/usr/local/lib/python3.10/site-packages/torch/_ops.py" source_line=756}
  %add.178.19 = f32[64,1024]{1,0} add(f32[64,1024]{1,0} %slice.187.21, f32[64,1024]{1,0} %convert.658.21), metadata={op_type="aten__add" op_name="aten__add.1027/aten__add" source_file="/usr/local/lib/python3.10/site-packages/torch/_ops.py" source_line=756}
  %add.180.13 = f32[64,1024]{1,0} add(f32[64,1024]{1,0} %convert.670.13, f32[64,1024]{1,0} %add.178.19), metadata={op_type="aten__add" op_name="aten__add.1032/aten__add" source_file="/usr/local/lib/python3.10/site-packages/torch/_ops.py" source_line=756}
  %add.181.13 = f32[64,1024]{1,0} add(f32[64,1024]{1,0} %slice.186.15, f32[64,1024]{1,0} %add.180.13), metadata={op_type="aten__add" op_name="aten__add.1045/aten__add" source_file="/usr/local/lib/python3.10/site-packages/torch/_ops.py" source_line=756}
  %add.183.9 = f32[64,1024]{1,0} add(f32[64,1024]{1,0} %convert.688.9, f32[64,1024]{1,0} %add.181.13), metadata={op_type="aten__add" op_name="aten__add.1050/aten__add" source_file="/usr/local/lib/python3.10/site-packages/torch/_ops.py" source_line=756}
  %add.184.9 = f32[64,1024]{1,0} add(f32[64,1024]{1,0} %slice.185.11, f32[64,1024]{1,0} %add.183.9), metadata={op_type="aten__add" op_name="aten__add.1063/aten__add" source_file="/usr/local/lib/python3.10/site-packages/torch/_ops.py" source_line=756}
  %add.187.7 = f32[64,1024]{1,0} add(f32[64,1024]{1,0} %convert.701.7, f32[64,1024]{1,0} %add.184.9), metadata={op_type="aten__add" op_name="aten__add.1068/aten__add" source_file="/usr/local/lib/python3.10/site-packages/torch/_ops.py" source_line=756}
  %add.188.7 = f32[64,1024]{1,0} add(f32[64,1024]{1,0} %slice.184.9, f32[64,1024]{1,0} %add.187.7), metadata={op_type="aten__add" op_name="aten__add.1081/aten__add" source_file="/usr/local/lib/python3.10/site-packages/torch/_ops.py" source_line=756}
  %add.190.3 = f32[64,1024]{1,0} add(f32[64,1024]{1,0} %convert.716.3, f32[64,1024]{1,0} %add.188.7), metadata={op_type="aten__add" op_name="aten__add.1086/aten__add" source_file="/usr/local/lib/python3.10/site-packages/torch/_ops.py" source_line=756}
  %add.191.3 = f32[64,1024]{1,0} add(f32[64,1024]{1,0} %slice.183.5, f32[64,1024]{1,0} %add.190.3), metadata={op_type="aten__add" op_name="aten__add.1099/aten__add" source_file="/usr/local/lib/python3.10/site-packages/torch/_ops.py" source_line=756}
  %multiply.398 = f32[64,1024]{1,0} multiply(f32[64,1024]{1,0} %add.191.3, f32[64,1024]{1,0} %add.191.3), metadata={op_type="aten__pow" op_name="aten__pow" source_file="/usr/local/lib/python3.10/site-packages/torch/_ops.py" source_line=756}
  %constant_344 = f32[] constant(0), metadata={op_type="aten__mean" op_name="aten__mean" source_file="/usr/local/lib/python3.10/site-packages/torch/_ops.py" source_line=756}
  %reduce.39 = f32[64]{0} reduce(f32[64,1024]{1,0} %multiply.398, f32[] %constant_344), dimensions={1}, to_apply=%AddComputation.72, metadata={op_type="aten__mean" op_name="aten__mean" source_file="/usr/local/lib/python3.10/site-packages/torch/_ops.py" source_line=756}
  %constant_343 = f32[] constant(0.0009765625), metadata={op_type="aten__mean" op_name="aten__mean" source_file="/usr/local/lib/python3.10/site-packages/torch/_ops.py" source_line=756}
  %broadcast.451 = f32[64]{0} broadcast(f32[] %constant_343), dimensions={}, metadata={op_type="aten__mean" op_name="aten__mean" source_file="/usr/local/lib/python3.10/site-packages/torch/_ops.py" source_line=756}
  %multiply.397 = f32[64]{0} multiply(f32[64]{0} %reduce.39, f32[64]{0} %broadcast.451), metadata={op_type="aten__mean" op_name="aten__mean" source_file="/usr/local/lib/python3.10/site-packages/torch/_ops.py" source_line=756}
  %param_0.590 = f32[] parameter(0)
  %broadcast.450 = f32[64]{0} broadcast(f32[] %param_0.590), dimensions={}, metadata={op_type="aten__add" op_name="aten__add.1028/aten__add" source_file="/usr/local/lib/python3.10/site-packages/torch/_ops.py" source_line=756}
  %add.230 = f32[64]{0} add(f32[64]{0} %multiply.397, f32[64]{0} %broadcast.450), metadata={op_type="aten__add" op_name="aten__add.1100/aten__add" source_file="/usr/local/lib/python3.10/site-packages/torch/_ops.py" source_line=756}
  %rsqrt.84 = f32[64]{0} rsqrt(f32[64]{0} %add.230), metadata={op_type="aten__rsqrt" op_name="aten__rsqrt" source_file="/usr/local/lib/python3.10/site-packages/torch/_ops.py" source_line=756}
  %broadcast.448 = f32[64,1024]{1,0} broadcast(f32[64]{0} %rsqrt.84), dimensions={0}, metadata={op_type="aten__mul" op_name="aten__mul.1101/aten__mul" source_file="/usr/local/lib/python3.10/site-packages/torch/_ops.py" source_line=756}
  %multiply.396 = f32[64,1024]{1,0} multiply(f32[64,1024]{1,0} %add.191.3, f32[64,1024]{1,0} %broadcast.448), metadata={op_type="aten__mul" op_name="aten__mul.1101/aten__mul" source_file="/usr/local/lib/python3.10/site-packages/torch/_ops.py" source_line=756}
  %param_1.469 = bf16[1024]{0} parameter(1)
  %convert.717.1 = f32[1024]{0} convert(bf16[1024]{0} %param_1.469), metadata={op_type="xla__cast" op_name="xla__cast" source_file="/usr/local/lib/python3.10/site-packages/torch/_ops.py" source_line=756}
  %broadcast.323.1 = f32[64,1024]{1,0} broadcast(f32[1024]{0} %convert.717.1), dimensions={1}, metadata={op_type="aten__mul" op_name="aten__mul.1102/aten__mul" source_file="/usr/local/lib/python3.10/site-packages/torch/_ops.py" source_line=756}
  %multiply.329.1 = f32[64,1024]{1,0} multiply(f32[64,1024]{1,0} %multiply.396, f32[64,1024]{1,0} %broadcast.323.1), metadata={op_type="aten__mul" op_name="aten__mul.1102/aten__mul" source_file="/usr/local/lib/python3.10/site-packages/torch/_ops.py" source_line=756}
  ROOT %convert.718.1 = bf16[64,1024]{1,0} convert(f32[64,1024]{1,0} %multiply.329.1), metadata={op_type="xla__cast" op_name="xla__cast" source_file="/usr/local/lib/python3.10/site-packages/torch/_ops.py" source_line=756}
}

%fused_convert.8 (param_0.492: bf16[64,6144]) -> bf16[64,3072] {
  %param_0.492 = bf16[64,6144]{1,0} parameter(0)
  %slice.196.1 = bf16[64,3072]{1,0} slice(bf16[64,6144]{1,0} %param_0.492), slice={[0:64], [0:3072]}, metadata={op_type="xla__select" op_name="xla__select" source_file="/usr/local/lib/python3.10/site-packages/torch/_ops.py" source_line=756}
  %convert.719.6 = f32[64,3072]{1,0} convert(bf16[64,3072]{1,0} %slice.196.1)
  %constant_1_12 = bf16[] constant(1), metadata={op_type="xla__select" op_name="xla__select" source_file="/usr/local/lib/python3.10/site-packages/torch/_ops.py" source_line=756}
  %convert.852.10 = f32[] convert(bf16[] %constant_1_12)
  %broadcast.360.88 = f32[64,3072]{1,0} broadcast(f32[] %convert.852.10), dimensions={}, metadata={op_type="xla__select" op_name="xla__select" source_file="/usr/local/lib/python3.10/site-packages/torch/_ops.py" source_line=756}
  %negate.43.7 = f32[64,3072]{1,0} negate(f32[64,3072]{1,0} %convert.719.6)
  %convert.723.5 = bf16[64,3072]{1,0} convert(f32[64,3072]{1,0} %negate.43.7)
  %exponential.43.3 = bf16[64,3072]{1,0} exponential(bf16[64,3072]{1,0} %convert.723.5)
  %convert.724.1 = f32[64,3072]{1,0} convert(bf16[64,3072]{1,0} %exponential.43.3)
  %add.192.5 = f32[64,3072]{1,0} add(f32[64,3072]{1,0} %broadcast.360.88, f32[64,3072]{1,0} %convert.724.1)
  %divide.43.3 = f32[64,3072]{1,0} divide(f32[64,3072]{1,0} %broadcast.360.88, f32[64,3072]{1,0} %add.192.5), metadata={op_type="aten__silu" op_name="aten__silu" source_file="/usr/local/lib/python3.10/site-packages/torch/_ops.py" source_line=756}
  %multiply.330.3 = f32[64,3072]{1,0} multiply(f32[64,3072]{1,0} %convert.719.6, f32[64,3072]{1,0} %divide.43.3), metadata={op_type="aten__silu" op_name="aten__silu" source_file="/usr/local/lib/python3.10/site-packages/torch/_ops.py" source_line=756}
  %slice.197.1 = bf16[64,3072]{1,0} slice(bf16[64,6144]{1,0} %param_0.492), slice={[0:64], [3072:6144]}, metadata={op_type="xla__select" op_name="xla__select" source_file="/usr/local/lib/python3.10/site-packages/torch/_ops.py" source_line=756}
  %convert.725.1 = f32[64,3072]{1,0} convert(bf16[64,3072]{1,0} %slice.197.1), metadata={op_type="xla__cast" op_name="xla__cast" source_file="/usr/local/lib/python3.10/site-packages/torch/_ops.py" source_line=756}
  %multiply.331.1 = f32[64,3072]{1,0} multiply(f32[64,3072]{1,0} %multiply.330.3, f32[64,3072]{1,0} %convert.725.1), metadata={op_type="aten__mul" op_name="aten__mul.1103/aten__mul" source_file="/usr/local/lib/python3.10/site-packages/torch/_ops.py" source_line=756}
  ROOT %convert.726.1 = bf16[64,3072]{1,0} convert(f32[64,3072]{1,0} %multiply.331.1), metadata={op_type="xla__cast" op_name="xla__cast" source_file="/usr/local/lib/python3.10/site-packages/torch/_ops.py" source_line=756}
}

%fused_computation.135 (param_0.565: f32[], param_1.472: bf16[64,1024], param_2.308: bf16[64,13312], param_3.293: bf16[1024], param_4.172: bf16[64,1024], param_5.67: bf16[64,1024], param_6.55: bf16[64,1,1024], param_7.34: bf16[64,1024], param_8.10: bf16[64,1024]) -> bf16[64,1024] {
  %param_2.308 = bf16[64,13312]{1,0} parameter(2)
  %convert.654.59 = f32[64,13312]{1,0} convert(bf16[64,13312]{1,0} %param_2.308), metadata={op_type="xla__cast" op_name="xla__cast" source_file="/usr/local/lib/python3.10/site-packages/torch/_ops.py" source_line=756}
  %slice.182.5 = f32[64,1024]{1,0} slice(f32[64,13312]{1,0} %convert.654.59), slice={[0:64], [7168:8192]}, metadata={op_type="aten__mm" op_name="aten__mm" source_file="/usr/local/lib/python3.10/site-packages/torch/_ops.py" source_line=756}
  %param_1.472 = bf16[64,1024]{1,0} parameter(1)
  %convert.727.3 = f32[64,1024]{1,0} convert(bf16[64,1024]{1,0} %param_1.472), metadata={op_type="xla__cast" op_name="xla__cast" source_file="/usr/local/lib/python3.10/site-packages/torch/_ops.py" source_line=756}
  %slice.183.9 = f32[64,1024]{1,0} slice(f32[64,13312]{1,0} %convert.654.59), slice={[0:64], [8192:9216]}, metadata={op_type="aten__mm" op_name="aten__mm" source_file="/usr/local/lib/python3.10/site-packages/torch/_ops.py" source_line=756}
  %param_5.67 = bf16[64,1024]{1,0} parameter(5)
  %convert.716.7 = f32[64,1024]{1,0} convert(bf16[64,1024]{1,0} %param_5.67), metadata={op_type="xla__cast" op_name="xla__cast" source_file="/usr/local/lib/python3.10/site-packages/torch/_ops.py" source_line=756}
  %slice.184.13 = f32[64,1024]{1,0} slice(f32[64,13312]{1,0} %convert.654.59), slice={[0:64], [9216:10240]}, metadata={op_type="aten__mm" op_name="aten__mm" source_file="/usr/local/lib/python3.10/site-packages/torch/_ops.py" source_line=756}
  %param_4.172 = bf16[64,1024]{1,0} parameter(4)
  %convert.701.11 = f32[64,1024]{1,0} convert(bf16[64,1024]{1,0} %param_4.172), metadata={op_type="xla__cast" op_name="xla__cast" source_file="/usr/local/lib/python3.10/site-packages/torch/_ops.py" source_line=756}
  %slice.185.7 = f32[64,1024]{1,0} slice(f32[64,13312]{1,0} %convert.654.59), slice={[0:64], [10240:11264]}, metadata={op_type="aten__mm" op_name="aten__mm" source_file="/usr/local/lib/python3.10/site-packages/torch/_ops.py" source_line=756}
  %param_8.10 = bf16[64,1024]{1,0} parameter(8)
  %convert.688.5 = f32[64,1024]{1,0} convert(bf16[64,1024]{1,0} %param_8.10), metadata={op_type="xla__cast" op_name="xla__cast" source_file="/usr/local/lib/python3.10/site-packages/torch/_ops.py" source_line=756}
  %slice.186.11 = f32[64,1024]{1,0} slice(f32[64,13312]{1,0} %convert.654.59), slice={[0:64], [11264:12288]}, metadata={op_type="aten__mm" op_name="aten__mm" source_file="/usr/local/lib/python3.10/site-packages/torch/_ops.py" source_line=756}
  %param_7.34 = bf16[64,1024]{1,0} parameter(7)
  %convert.670.9 = f32[64,1024]{1,0} convert(bf16[64,1024]{1,0} %param_7.34), metadata={op_type="xla__cast" op_name="xla__cast" source_file="/usr/local/lib/python3.10/site-packages/torch/_ops.py" source_line=756}
  %slice.187.17 = f32[64,1024]{1,0} slice(f32[64,13312]{1,0} %convert.654.59), slice={[0:64], [12288:13312]}, metadata={op_type="aten__mm" op_name="aten__mm" source_file="/usr/local/lib/python3.10/site-packages/torch/_ops.py" source_line=756}
  %param_6.55 = bf16[64,1,1024]{2,0,1} parameter(6)
  %bitcast.2157.17 = bf16[64,1024]{1,0} bitcast(bf16[64,1,1024]{2,0,1} %param_6.55)
  %convert.658.17 = f32[64,1024]{1,0} convert(bf16[64,1024]{1,0} %bitcast.2157.17), metadata={op_type="xla__cast" op_name="xla__cast" source_file="/usr/local/lib/python3.10/site-packages/torch/_ops.py" source_line=756}
  %add.178.15 = f32[64,1024]{1,0} add(f32[64,1024]{1,0} %slice.187.17, f32[64,1024]{1,0} %convert.658.17), metadata={op_type="aten__add" op_name="aten__add.1027/aten__add" source_file="/usr/local/lib/python3.10/site-packages/torch/_ops.py" source_line=756}
  %add.180.9 = f32[64,1024]{1,0} add(f32[64,1024]{1,0} %convert.670.9, f32[64,1024]{1,0} %add.178.15), metadata={op_type="aten__add" op_name="aten__add.1032/aten__add" source_file="/usr/local/lib/python3.10/site-packages/torch/_ops.py" source_line=756}
  %add.181.9 = f32[64,1024]{1,0} add(f32[64,1024]{1,0} %slice.186.11, f32[64,1024]{1,0} %add.180.9), metadata={op_type="aten__add" op_name="aten__add.1045/aten__add" source_file="/usr/local/lib/python3.10/site-packages/torch/_ops.py" source_line=756}
  %add.183.5 = f32[64,1024]{1,0} add(f32[64,1024]{1,0} %convert.688.5, f32[64,1024]{1,0} %add.181.9), metadata={op_type="aten__add" op_name="aten__add.1050/aten__add" source_file="/usr/local/lib/python3.10/site-packages/torch/_ops.py" source_line=756}
  %add.184.5 = f32[64,1024]{1,0} add(f32[64,1024]{1,0} %slice.185.7, f32[64,1024]{1,0} %add.183.5), metadata={op_type="aten__add" op_name="aten__add.1063/aten__add" source_file="/usr/local/lib/python3.10/site-packages/torch/_ops.py" source_line=756}
  %add.187.11 = f32[64,1024]{1,0} add(f32[64,1024]{1,0} %convert.701.11, f32[64,1024]{1,0} %add.184.5), metadata={op_type="aten__add" op_name="aten__add.1068/aten__add" source_file="/usr/local/lib/python3.10/site-packages/torch/_ops.py" source_line=756}
  %add.188.11 = f32[64,1024]{1,0} add(f32[64,1024]{1,0} %slice.184.13, f32[64,1024]{1,0} %add.187.11), metadata={op_type="aten__add" op_name="aten__add.1081/aten__add" source_file="/usr/local/lib/python3.10/site-packages/torch/_ops.py" source_line=756}
  %add.190.7 = f32[64,1024]{1,0} add(f32[64,1024]{1,0} %convert.716.7, f32[64,1024]{1,0} %add.188.11), metadata={op_type="aten__add" op_name="aten__add.1086/aten__add" source_file="/usr/local/lib/python3.10/site-packages/torch/_ops.py" source_line=756}
  %add.191.7 = f32[64,1024]{1,0} add(f32[64,1024]{1,0} %slice.183.9, f32[64,1024]{1,0} %add.190.7), metadata={op_type="aten__add" op_name="aten__add.1099/aten__add" source_file="/usr/local/lib/python3.10/site-packages/torch/_ops.py" source_line=756}
  %add.193.3 = f32[64,1024]{1,0} add(f32[64,1024]{1,0} %convert.727.3, f32[64,1024]{1,0} %add.191.7), metadata={op_type="aten__add" op_name="aten__add.1104/aten__add" source_file="/usr/local/lib/python3.10/site-packages/torch/_ops.py" source_line=756}
  %add.194.3 = f32[64,1024]{1,0} add(f32[64,1024]{1,0} %slice.182.5, f32[64,1024]{1,0} %add.193.3), metadata={op_type="aten__add" op_name="aten__add.1117/aten__add" source_file="/usr/local/lib/python3.10/site-packages/torch/_ops.py" source_line=756}
  %multiply.405 = f32[64,1024]{1,0} multiply(f32[64,1024]{1,0} %add.194.3, f32[64,1024]{1,0} %add.194.3), metadata={op_type="aten__pow" op_name="aten__pow" source_file="/usr/local/lib/python3.10/site-packages/torch/_ops.py" source_line=756}
  %constant_349 = f32[] constant(0), metadata={op_type="aten__mean" op_name="aten__mean" source_file="/usr/local/lib/python3.10/site-packages/torch/_ops.py" source_line=756}
  %reduce.41 = f32[64]{0} reduce(f32[64,1024]{1,0} %multiply.405, f32[] %constant_349), dimensions={1}, to_apply=%AddComputation.72, metadata={op_type="aten__mean" op_name="aten__mean" source_file="/usr/local/lib/python3.10/site-packages/torch/_ops.py" source_line=756}
  %constant_348 = f32[] constant(0.0009765625), metadata={op_type="aten__mean" op_name="aten__mean" source_file="/usr/local/lib/python3.10/site-packages/torch/_ops.py" source_line=756}
  %broadcast.459 = f32[64]{0} broadcast(f32[] %constant_348), dimensions={}, metadata={op_type="aten__mean" op_name="aten__mean" source_file="/usr/local/lib/python3.10/site-packages/torch/_ops.py" source_line=756}
  %multiply.404 = f32[64]{0} multiply(f32[64]{0} %reduce.41, f32[64]{0} %broadcast.459), metadata={op_type="aten__mean" op_name="aten__mean" source_file="/usr/local/lib/python3.10/site-packages/torch/_ops.py" source_line=756}
  %param_0.565 = f32[] parameter(0)
  %broadcast.458 = f32[64]{0} broadcast(f32[] %param_0.565), dimensions={}, metadata={op_type="aten__add" op_name="aten__add.1028/aten__add" source_file="/usr/local/lib/python3.10/site-packages/torch/_ops.py" source_line=756}
  %add.232 = f32[64]{0} add(f32[64]{0} %multiply.404, f32[64]{0} %broadcast.458), metadata={op_type="aten__add" op_name="aten__add.1118/aten__add" source_file="/usr/local/lib/python3.10/site-packages/torch/_ops.py" source_line=756}
  %rsqrt.86 = f32[64]{0} rsqrt(f32[64]{0} %add.232), metadata={op_type="aten__rsqrt" op_name="aten__rsqrt" source_file="/usr/local/lib/python3.10/site-packages/torch/_ops.py" source_line=756}
  %broadcast.456 = f32[64,1024]{1,0} broadcast(f32[64]{0} %rsqrt.86), dimensions={0}, metadata={op_type="aten__mul" op_name="aten__mul.1119/aten__mul" source_file="/usr/local/lib/python3.10/site-packages/torch/_ops.py" source_line=756}
  %multiply.403 = f32[64,1024]{1,0} multiply(f32[64,1024]{1,0} %add.194.3, f32[64,1024]{1,0} %broadcast.456), metadata={op_type="aten__mul" op_name="aten__mul.1119/aten__mul" source_file="/usr/local/lib/python3.10/site-packages/torch/_ops.py" source_line=756}
  %param_3.293 = bf16[1024]{0} parameter(3)
  %convert.729.1 = f32[1024]{0} convert(bf16[1024]{0} %param_3.293), metadata={op_type="xla__cast" op_name="xla__cast" source_file="/usr/local/lib/python3.10/site-packages/torch/_ops.py" source_line=756}
  %broadcast.326.1 = f32[64,1024]{1,0} broadcast(f32[1024]{0} %convert.729.1), dimensions={1}, metadata={op_type="aten__mul" op_name="aten__mul.1120/aten__mul" source_file="/usr/local/lib/python3.10/site-packages/torch/_ops.py" source_line=756}
  %multiply.332.1 = f32[64,1024]{1,0} multiply(f32[64,1024]{1,0} %multiply.403, f32[64,1024]{1,0} %broadcast.326.1), metadata={op_type="aten__mul" op_name="aten__mul.1120/aten__mul" source_file="/usr/local/lib/python3.10/site-packages/torch/_ops.py" source_line=756}
  ROOT %convert.730.1 = bf16[64,1024]{1,0} convert(f32[64,1024]{1,0} %multiply.332.1), metadata={op_type="xla__cast" op_name="xla__cast" source_file="/usr/local/lib/python3.10/site-packages/torch/_ops.py" source_line=756}
}

%fused_convert.7 (param_0.494: bf16[64,6144]) -> bf16[64,3072] {
  %param_0.494 = bf16[64,6144]{1,0} parameter(0)
  %slice.198.1 = bf16[64,3072]{1,0} slice(bf16[64,6144]{1,0} %param_0.494), slice={[0:64], [0:3072]}, metadata={op_type="xla__select" op_name="xla__select" source_file="/usr/local/lib/python3.10/site-packages/torch/_ops.py" source_line=756}
  %convert.731.6 = f32[64,3072]{1,0} convert(bf16[64,3072]{1,0} %slice.198.1)
  %constant_1_14 = bf16[] constant(1), metadata={op_type="xla__select" op_name="xla__select" source_file="/usr/local/lib/python3.10/site-packages/torch/_ops.py" source_line=756}
  %convert.852.12 = f32[] convert(bf16[] %constant_1_14)
  %broadcast.360.84 = f32[64,3072]{1,0} broadcast(f32[] %convert.852.12), dimensions={}, metadata={op_type="xla__select" op_name="xla__select" source_file="/usr/local/lib/python3.10/site-packages/torch/_ops.py" source_line=756}
  %negate.44.7 = f32[64,3072]{1,0} negate(f32[64,3072]{1,0} %convert.731.6)
  %convert.736.5 = bf16[64,3072]{1,0} convert(f32[64,3072]{1,0} %negate.44.7)
  %exponential.44.3 = bf16[64,3072]{1,0} exponential(bf16[64,3072]{1,0} %convert.736.5)
  %convert.737.1 = f32[64,3072]{1,0} convert(bf16[64,3072]{1,0} %exponential.44.3)
  %add.195.5 = f32[64,3072]{1,0} add(f32[64,3072]{1,0} %broadcast.360.84, f32[64,3072]{1,0} %convert.737.1)
  %divide.44.3 = f32[64,3072]{1,0} divide(f32[64,3072]{1,0} %broadcast.360.84, f32[64,3072]{1,0} %add.195.5), metadata={op_type="aten__silu" op_name="aten__silu" source_file="/usr/local/lib/python3.10/site-packages/torch/_ops.py" source_line=756}
  %multiply.333.3 = f32[64,3072]{1,0} multiply(f32[64,3072]{1,0} %convert.731.6, f32[64,3072]{1,0} %divide.44.3), metadata={op_type="aten__silu" op_name="aten__silu" source_file="/usr/local/lib/python3.10/site-packages/torch/_ops.py" source_line=756}
  %slice.199.1 = bf16[64,3072]{1,0} slice(bf16[64,6144]{1,0} %param_0.494), slice={[0:64], [3072:6144]}, metadata={op_type="xla__select" op_name="xla__select" source_file="/usr/local/lib/python3.10/site-packages/torch/_ops.py" source_line=756}
  %convert.738.1 = f32[64,3072]{1,0} convert(bf16[64,3072]{1,0} %slice.199.1), metadata={op_type="xla__cast" op_name="xla__cast" source_file="/usr/local/lib/python3.10/site-packages/torch/_ops.py" source_line=756}
  %multiply.334.1 = f32[64,3072]{1,0} multiply(f32[64,3072]{1,0} %multiply.333.3, f32[64,3072]{1,0} %convert.738.1), metadata={op_type="aten__mul" op_name="aten__mul.1121/aten__mul" source_file="/usr/local/lib/python3.10/site-packages/torch/_ops.py" source_line=756}
  ROOT %convert.739.1 = bf16[64,3072]{1,0} convert(f32[64,3072]{1,0} %multiply.334.1), metadata={op_type="xla__cast" op_name="xla__cast" source_file="/usr/local/lib/python3.10/site-packages/torch/_ops.py" source_line=756}
}

%fused_add (param_0.460: bf16[64,13312], param_1.418: bf16[64,1024], param_2.306: bf16[64,1024], param_3.305: bf16[64,1024], param_4.176: bf16[64,1024], param_5.75: bf16[64,1,1024], param_6.68: bf16[64,1024], param_7.50: bf16[64,1024]) -> f32[64,1024] {
  %param_0.460 = bf16[64,13312]{1,0} parameter(0)
  %convert.654.27 = f32[64,13312]{1,0} convert(bf16[64,13312]{1,0} %param_0.460), metadata={op_type="xla__cast" op_name="xla__cast" source_file="/usr/local/lib/python3.10/site-packages/torch/_ops.py" source_line=756}
  %slice.181.3 = f32[64,1024]{1,0} slice(f32[64,13312]{1,0} %convert.654.27), slice={[0:64], [6144:7168]}, metadata={op_type="aten__mm" op_name="aten__mm" source_file="/usr/local/lib/python3.10/site-packages/torch/_ops.py" source_line=756}
  %param_1.418 = bf16[64,1024]{1,0} parameter(1)
  %convert.740.1 = f32[64,1024]{1,0} convert(bf16[64,1024]{1,0} %param_1.418), metadata={op_type="xla__cast" op_name="xla__cast" source_file="/usr/local/lib/python3.10/site-packages/torch/_ops.py" source_line=756}
  %slice.182.7 = f32[64,1024]{1,0} slice(f32[64,13312]{1,0} %convert.654.27), slice={[0:64], [7168:8192]}, metadata={op_type="aten__mm" op_name="aten__mm" source_file="/usr/local/lib/python3.10/site-packages/torch/_ops.py" source_line=756}
  %param_2.306 = bf16[64,1024]{1,0} parameter(2)
  %convert.727.5 = f32[64,1024]{1,0} convert(bf16[64,1024]{1,0} %param_2.306), metadata={op_type="xla__cast" op_name="xla__cast" source_file="/usr/local/lib/python3.10/site-packages/torch/_ops.py" source_line=756}
  %slice.183.7 = f32[64,1024]{1,0} slice(f32[64,13312]{1,0} %convert.654.27), slice={[0:64], [8192:9216]}, metadata={op_type="aten__mm" op_name="aten__mm" source_file="/usr/local/lib/python3.10/site-packages/torch/_ops.py" source_line=756}
  %param_4.176 = bf16[64,1024]{1,0} parameter(4)
  %convert.716.5 = f32[64,1024]{1,0} convert(bf16[64,1024]{1,0} %param_4.176), metadata={op_type="xla__cast" op_name="xla__cast" source_file="/usr/local/lib/python3.10/site-packages/torch/_ops.py" source_line=756}
  %slice.184.11 = f32[64,1024]{1,0} slice(f32[64,13312]{1,0} %convert.654.27), slice={[0:64], [9216:10240]}, metadata={op_type="aten__mm" op_name="aten__mm" source_file="/usr/local/lib/python3.10/site-packages/torch/_ops.py" source_line=756}
  %param_3.305 = bf16[64,1024]{1,0} parameter(3)
  %convert.701.9 = f32[64,1024]{1,0} convert(bf16[64,1024]{1,0} %param_3.305), metadata={op_type="xla__cast" op_name="xla__cast" source_file="/usr/local/lib/python3.10/site-packages/torch/_ops.py" source_line=756}
  %slice.185.13 = f32[64,1024]{1,0} slice(f32[64,13312]{1,0} %convert.654.27), slice={[0:64], [10240:11264]}, metadata={op_type="aten__mm" op_name="aten__mm" source_file="/usr/local/lib/python3.10/site-packages/torch/_ops.py" source_line=756}
  %param_7.50 = bf16[64,1024]{1,0} parameter(7)
  %convert.688.11 = f32[64,1024]{1,0} convert(bf16[64,1024]{1,0} %param_7.50), metadata={op_type="xla__cast" op_name="xla__cast" source_file="/usr/local/lib/python3.10/site-packages/torch/_ops.py" source_line=756}
  %slice.186.17 = f32[64,1024]{1,0} slice(f32[64,13312]{1,0} %convert.654.27), slice={[0:64], [11264:12288]}, metadata={op_type="aten__mm" op_name="aten__mm" source_file="/usr/local/lib/python3.10/site-packages/torch/_ops.py" source_line=756}
  %param_6.68 = bf16[64,1024]{1,0} parameter(6)
  %convert.670.15 = f32[64,1024]{1,0} convert(bf16[64,1024]{1,0} %param_6.68), metadata={op_type="xla__cast" op_name="xla__cast" source_file="/usr/local/lib/python3.10/site-packages/torch/_ops.py" source_line=756}
  %slice.187.23 = f32[64,1024]{1,0} slice(f32[64,13312]{1,0} %convert.654.27), slice={[0:64], [12288:13312]}, metadata={op_type="aten__mm" op_name="aten__mm" source_file="/usr/local/lib/python3.10/site-packages/torch/_ops.py" source_line=756}
  %param_5.75 = bf16[64,1,1024]{2,0,1} parameter(5)
  %bitcast.2157.23 = bf16[64,1024]{1,0} bitcast(bf16[64,1,1024]{2,0,1} %param_5.75)
  %convert.658.23 = f32[64,1024]{1,0} convert(bf16[64,1024]{1,0} %bitcast.2157.23), metadata={op_type="xla__cast" op_name="xla__cast" source_file="/usr/local/lib/python3.10/site-packages/torch/_ops.py" source_line=756}
  %add.178.21 = f32[64,1024]{1,0} add(f32[64,1024]{1,0} %slice.187.23, f32[64,1024]{1,0} %convert.658.23), metadata={op_type="aten__add" op_name="aten__add.1027/aten__add" source_file="/usr/local/lib/python3.10/site-packages/torch/_ops.py" source_line=756}
  %add.180.15 = f32[64,1024]{1,0} add(f32[64,1024]{1,0} %convert.670.15, f32[64,1024]{1,0} %add.178.21), metadata={op_type="aten__add" op_name="aten__add.1032/aten__add" source_file="/usr/local/lib/python3.10/site-packages/torch/_ops.py" source_line=756}
  %add.181.15 = f32[64,1024]{1,0} add(f32[64,1024]{1,0} %slice.186.17, f32[64,1024]{1,0} %add.180.15), metadata={op_type="aten__add" op_name="aten__add.1045/aten__add" source_file="/usr/local/lib/python3.10/site-packages/torch/_ops.py" source_line=756}
  %add.183.11 = f32[64,1024]{1,0} add(f32[64,1024]{1,0} %convert.688.11, f32[64,1024]{1,0} %add.181.15), metadata={op_type="aten__add" op_name="aten__add.1050/aten__add" source_file="/usr/local/lib/python3.10/site-packages/torch/_ops.py" source_line=756}
  %add.184.11 = f32[64,1024]{1,0} add(f32[64,1024]{1,0} %slice.185.13, f32[64,1024]{1,0} %add.183.11), metadata={op_type="aten__add" op_name="aten__add.1063/aten__add" source_file="/usr/local/lib/python3.10/site-packages/torch/_ops.py" source_line=756}
  %add.187.9 = f32[64,1024]{1,0} add(f32[64,1024]{1,0} %convert.701.9, f32[64,1024]{1,0} %add.184.11), metadata={op_type="aten__add" op_name="aten__add.1068/aten__add" source_file="/usr/local/lib/python3.10/site-packages/torch/_ops.py" source_line=756}
  %add.188.9 = f32[64,1024]{1,0} add(f32[64,1024]{1,0} %slice.184.11, f32[64,1024]{1,0} %add.187.9), metadata={op_type="aten__add" op_name="aten__add.1081/aten__add" source_file="/usr/local/lib/python3.10/site-packages/torch/_ops.py" source_line=756}
  %add.190.5 = f32[64,1024]{1,0} add(f32[64,1024]{1,0} %convert.716.5, f32[64,1024]{1,0} %add.188.9), metadata={op_type="aten__add" op_name="aten__add.1086/aten__add" source_file="/usr/local/lib/python3.10/site-packages/torch/_ops.py" source_line=756}
  %add.191.5 = f32[64,1024]{1,0} add(f32[64,1024]{1,0} %slice.183.7, f32[64,1024]{1,0} %add.190.5), metadata={op_type="aten__add" op_name="aten__add.1099/aten__add" source_file="/usr/local/lib/python3.10/site-packages/torch/_ops.py" source_line=756}
  %add.193.5 = f32[64,1024]{1,0} add(f32[64,1024]{1,0} %convert.727.5, f32[64,1024]{1,0} %add.191.5), metadata={op_type="aten__add" op_name="aten__add.1104/aten__add" source_file="/usr/local/lib/python3.10/site-packages/torch/_ops.py" source_line=756}
  %add.194.5 = f32[64,1024]{1,0} add(f32[64,1024]{1,0} %slice.182.7, f32[64,1024]{1,0} %add.193.5), metadata={op_type="aten__add" op_name="aten__add.1117/aten__add" source_file="/usr/local/lib/python3.10/site-packages/torch/_ops.py" source_line=756}
  %add.196.1 = f32[64,1024]{1,0} add(f32[64,1024]{1,0} %convert.740.1, f32[64,1024]{1,0} %add.194.5), metadata={op_type="aten__add" op_name="aten__add.1122/aten__add" source_file="/usr/local/lib/python3.10/site-packages/torch/_ops.py" source_line=756}
  ROOT %add.197.1 = f32[64,1024]{1,0} add(f32[64,1024]{1,0} %slice.181.3, f32[64,1024]{1,0} %add.196.1), metadata={op_type="aten__add" op_name="aten__add.1135/aten__add" source_file="/usr/local/lib/python3.10/site-packages/torch/_ops.py" source_line=756}
}

%fused_computation.134 (param_0.564: f32[64,1024], param_1.449: f32[], param_2.280: bf16[1024]) -> bf16[64,1024] {
  %param_0.564 = f32[64,1024]{1,0} parameter(0)
  %multiply.411 = f32[64,1024]{1,0} multiply(f32[64,1024]{1,0} %param_0.564, f32[64,1024]{1,0} %param_0.564), metadata={op_type="aten__pow" op_name="aten__pow" source_file="/usr/local/lib/python3.10/site-packages/torch/_ops.py" source_line=756}
  %constant_356 = f32[] constant(0), metadata={op_type="aten__mean" op_name="aten__mean" source_file="/usr/local/lib/python3.10/site-packages/torch/_ops.py" source_line=756}
  %reduce.43 = f32[64]{0} reduce(f32[64,1024]{1,0} %multiply.411, f32[] %constant_356), dimensions={1}, to_apply=%AddComputation.72, metadata={op_type="aten__mean" op_name="aten__mean" source_file="/usr/local/lib/python3.10/site-packages/torch/_ops.py" source_line=756}
  %constant_353 = f32[] constant(0.0009765625), metadata={op_type="aten__mean" op_name="aten__mean" source_file="/usr/local/lib/python3.10/site-packages/torch/_ops.py" source_line=756}
  %broadcast.465 = f32[64]{0} broadcast(f32[] %constant_353), dimensions={}, metadata={op_type="aten__mean" op_name="aten__mean" source_file="/usr/local/lib/python3.10/site-packages/torch/_ops.py" source_line=756}
  %multiply.410 = f32[64]{0} multiply(f32[64]{0} %reduce.43, f32[64]{0} %broadcast.465), metadata={op_type="aten__mean" op_name="aten__mean" source_file="/usr/local/lib/python3.10/site-packages/torch/_ops.py" source_line=756}
  %param_1.449 = f32[] parameter(1)
  %broadcast.464 = f32[64]{0} broadcast(f32[] %param_1.449), dimensions={}, metadata={op_type="aten__add" op_name="aten__add.1028/aten__add" source_file="/usr/local/lib/python3.10/site-packages/torch/_ops.py" source_line=756}
  %add.235 = f32[64]{0} add(f32[64]{0} %multiply.410, f32[64]{0} %broadcast.464), metadata={op_type="aten__add" op_name="aten__add.1136/aten__add" source_file="/usr/local/lib/python3.10/site-packages/torch/_ops.py" source_line=756}
  %rsqrt.88 = f32[64]{0} rsqrt(f32[64]{0} %add.235), metadata={op_type="aten__rsqrt" op_name="aten__rsqrt" source_file="/usr/local/lib/python3.10/site-packages/torch/_ops.py" source_line=756}
  %broadcast.463 = f32[64,1024]{1,0} broadcast(f32[64]{0} %rsqrt.88), dimensions={0}, metadata={op_type="aten__mul" op_name="aten__mul.1137/aten__mul" source_file="/usr/local/lib/python3.10/site-packages/torch/_ops.py" source_line=756}
  %multiply.409 = f32[64,1024]{1,0} multiply(f32[64,1024]{1,0} %param_0.564, f32[64,1024]{1,0} %broadcast.463), metadata={op_type="aten__mul" op_name="aten__mul.1137/aten__mul" source_file="/usr/local/lib/python3.10/site-packages/torch/_ops.py" source_line=756}
  %param_2.280 = bf16[1024]{0} parameter(2)
  %convert.741.1 = f32[1024]{0} convert(bf16[1024]{0} %param_2.280), metadata={op_type="xla__cast" op_name="xla__cast" source_file="/usr/local/lib/python3.10/site-packages/torch/_ops.py" source_line=756}
  %broadcast.330.1 = f32[64,1024]{1,0} broadcast(f32[1024]{0} %convert.741.1), dimensions={1}, metadata={op_type="aten__mul" op_name="aten__mul.1138/aten__mul" source_file="/usr/local/lib/python3.10/site-packages/torch/_ops.py" source_line=756}
  %multiply.335.1 = f32[64,1024]{1,0} multiply(f32[64,1024]{1,0} %multiply.409, f32[64,1024]{1,0} %broadcast.330.1), metadata={op_type="aten__mul" op_name="aten__mul.1138/aten__mul" source_file="/usr/local/lib/python3.10/site-packages/torch/_ops.py" source_line=756}
  ROOT %convert.742.1 = bf16[64,1024]{1,0} convert(f32[64,1024]{1,0} %multiply.335.1), metadata={op_type="xla__cast" op_name="xla__cast" source_file="/usr/local/lib/python3.10/site-packages/torch/_ops.py" source_line=756}
}

%fused_convert.6 (param_0.485: bf16[64,6144]) -> bf16[64,3072] {
  %param_0.485 = bf16[64,6144]{1,0} parameter(0)
  %slice.200.1 = bf16[64,3072]{1,0} slice(bf16[64,6144]{1,0} %param_0.485), slice={[0:64], [0:3072]}, metadata={op_type="xla__select" op_name="xla__select" source_file="/usr/local/lib/python3.10/site-packages/torch/_ops.py" source_line=756}
  %convert.745.6 = f32[64,3072]{1,0} convert(bf16[64,3072]{1,0} %slice.200.1)
  %constant_1_5 = bf16[] constant(1), metadata={op_type="xla__select" op_name="xla__select" source_file="/usr/local/lib/python3.10/site-packages/torch/_ops.py" source_line=756}
  %convert.852.3 = f32[] convert(bf16[] %constant_1_5)
  %broadcast.360.80 = f32[64,3072]{1,0} broadcast(f32[] %convert.852.3), dimensions={}, metadata={op_type="xla__select" op_name="xla__select" source_file="/usr/local/lib/python3.10/site-packages/torch/_ops.py" source_line=756}
  %negate.45.7 = f32[64,3072]{1,0} negate(f32[64,3072]{1,0} %convert.745.6)
  %convert.751.5 = bf16[64,3072]{1,0} convert(f32[64,3072]{1,0} %negate.45.7)
  %exponential.45.3 = bf16[64,3072]{1,0} exponential(bf16[64,3072]{1,0} %convert.751.5)
  %convert.752.1 = f32[64,3072]{1,0} convert(bf16[64,3072]{1,0} %exponential.45.3)
  %add.198.5 = f32[64,3072]{1,0} add(f32[64,3072]{1,0} %broadcast.360.80, f32[64,3072]{1,0} %convert.752.1)
  %divide.45.3 = f32[64,3072]{1,0} divide(f32[64,3072]{1,0} %broadcast.360.80, f32[64,3072]{1,0} %add.198.5), metadata={op_type="aten__silu" op_name="aten__silu" source_file="/usr/local/lib/python3.10/site-packages/torch/_ops.py" source_line=756}
  %multiply.336.3 = f32[64,3072]{1,0} multiply(f32[64,3072]{1,0} %convert.745.6, f32[64,3072]{1,0} %divide.45.3), metadata={op_type="aten__silu" op_name="aten__silu" source_file="/usr/local/lib/python3.10/site-packages/torch/_ops.py" source_line=756}
  %slice.201.1 = bf16[64,3072]{1,0} slice(bf16[64,6144]{1,0} %param_0.485), slice={[0:64], [3072:6144]}, metadata={op_type="xla__select" op_name="xla__select" source_file="/usr/local/lib/python3.10/site-packages/torch/_ops.py" source_line=756}
  %convert.753.1 = f32[64,3072]{1,0} convert(bf16[64,3072]{1,0} %slice.201.1), metadata={op_type="xla__cast" op_name="xla__cast" source_file="/usr/local/lib/python3.10/site-packages/torch/_ops.py" source_line=756}
  %multiply.337.1 = f32[64,3072]{1,0} multiply(f32[64,3072]{1,0} %multiply.336.3, f32[64,3072]{1,0} %convert.753.1), metadata={op_type="aten__mul" op_name="aten__mul.1139/aten__mul" source_file="/usr/local/lib/python3.10/site-packages/torch/_ops.py" source_line=756}
  ROOT %convert.755.1 = bf16[64,3072]{1,0} convert(f32[64,3072]{1,0} %multiply.337.1), metadata={op_type="xla__cast" op_name="xla__cast" source_file="/usr/local/lib/python3.10/site-packages/torch/_ops.py" source_line=756}
}

%fused_computation.133 (param_0.563: f32[], param_1.448: f32[64,1024], param_2.279: bf16[64,1024], param_3.254: bf16[64,13312], param_4.133: bf16[1024]) -> bf16[64,1024] {
  %param_3.254 = bf16[64,13312]{1,0} parameter(3)
  %convert.654.55 = f32[64,13312]{1,0} convert(bf16[64,13312]{1,0} %param_3.254), metadata={op_type="xla__cast" op_name="xla__cast" source_file="/usr/local/lib/python3.10/site-packages/torch/_ops.py" source_line=756}
  %slice.180.5 = f32[64,1024]{1,0} slice(f32[64,13312]{1,0} %convert.654.55), slice={[0:64], [5120:6144]}, metadata={op_type="aten__mm" op_name="aten__mm" source_file="/usr/local/lib/python3.10/site-packages/torch/_ops.py" source_line=756}
  %param_2.279 = bf16[64,1024]{1,0} parameter(2)
  %convert.757.3 = f32[64,1024]{1,0} convert(bf16[64,1024]{1,0} %param_2.279), metadata={op_type="xla__cast" op_name="xla__cast" source_file="/usr/local/lib/python3.10/site-packages/torch/_ops.py" source_line=756}
  %param_1.448 = f32[64,1024]{1,0} parameter(1)
  %add.199.3 = f32[64,1024]{1,0} add(f32[64,1024]{1,0} %convert.757.3, f32[64,1024]{1,0} %param_1.448), metadata={op_type="aten__add" op_name="aten__add.1140/aten__add" source_file="/usr/local/lib/python3.10/site-packages/torch/_ops.py" source_line=756}
  %add.200.3 = f32[64,1024]{1,0} add(f32[64,1024]{1,0} %slice.180.5, f32[64,1024]{1,0} %add.199.3), metadata={op_type="aten__add" op_name="aten__add.1153/aten__add" source_file="/usr/local/lib/python3.10/site-packages/torch/_ops.py" source_line=756}
  %multiply.418 = f32[64,1024]{1,0} multiply(f32[64,1024]{1,0} %add.200.3, f32[64,1024]{1,0} %add.200.3), metadata={op_type="aten__pow" op_name="aten__pow" source_file="/usr/local/lib/python3.10/site-packages/torch/_ops.py" source_line=756}
  %constant_363 = f32[] constant(0), metadata={op_type="aten__mean" op_name="aten__mean" source_file="/usr/local/lib/python3.10/site-packages/torch/_ops.py" source_line=756}
  %reduce.45 = f32[64]{0} reduce(f32[64,1024]{1,0} %multiply.418, f32[] %constant_363), dimensions={1}, to_apply=%AddComputation.72, metadata={op_type="aten__mean" op_name="aten__mean" source_file="/usr/local/lib/python3.10/site-packages/torch/_ops.py" source_line=756}
  %constant_362 = f32[] constant(0.0009765625), metadata={op_type="aten__mean" op_name="aten__mean" source_file="/usr/local/lib/python3.10/site-packages/torch/_ops.py" source_line=756}
  %broadcast.472 = f32[64]{0} broadcast(f32[] %constant_362), dimensions={}, metadata={op_type="aten__mean" op_name="aten__mean" source_file="/usr/local/lib/python3.10/site-packages/torch/_ops.py" source_line=756}
  %multiply.417 = f32[64]{0} multiply(f32[64]{0} %reduce.45, f32[64]{0} %broadcast.472), metadata={op_type="aten__mean" op_name="aten__mean" source_file="/usr/local/lib/python3.10/site-packages/torch/_ops.py" source_line=756}
  %param_0.563 = f32[] parameter(0)
  %broadcast.470 = f32[64]{0} broadcast(f32[] %param_0.563), dimensions={}, metadata={op_type="aten__add" op_name="aten__add.1028/aten__add" source_file="/usr/local/lib/python3.10/site-packages/torch/_ops.py" source_line=756}
  %add.237 = f32[64]{0} add(f32[64]{0} %multiply.417, f32[64]{0} %broadcast.470), metadata={op_type="aten__add" op_name="aten__add.1154/aten__add" source_file="/usr/local/lib/python3.10/site-packages/torch/_ops.py" source_line=756}
  %rsqrt.90 = f32[64]{0} rsqrt(f32[64]{0} %add.237), metadata={op_type="aten__rsqrt" op_name="aten__rsqrt" source_file="/usr/local/lib/python3.10/site-packages/torch/_ops.py" source_line=756}
  %broadcast.469 = f32[64,1024]{1,0} broadcast(f32[64]{0} %rsqrt.90), dimensions={0}, metadata={op_type="aten__mul" op_name="aten__mul.1155/aten__mul" source_file="/usr/local/lib/python3.10/site-packages/torch/_ops.py" source_line=756}
  %multiply.415 = f32[64,1024]{1,0} multiply(f32[64,1024]{1,0} %add.200.3, f32[64,1024]{1,0} %broadcast.469), metadata={op_type="aten__mul" op_name="aten__mul.1155/aten__mul" source_file="/usr/local/lib/python3.10/site-packages/torch/_ops.py" source_line=756}
  %param_4.133 = bf16[1024]{0} parameter(4)
  %convert.759.1 = f32[1024]{0} convert(bf16[1024]{0} %param_4.133), metadata={op_type="xla__cast" op_name="xla__cast" source_file="/usr/local/lib/python3.10/site-packages/torch/_ops.py" source_line=756}
  %broadcast.333.1 = f32[64,1024]{1,0} broadcast(f32[1024]{0} %convert.759.1), dimensions={1}, metadata={op_type="aten__mul" op_name="aten__mul.1156/aten__mul" source_file="/usr/local/lib/python3.10/site-packages/torch/_ops.py" source_line=756}
  %multiply.338.1 = f32[64,1024]{1,0} multiply(f32[64,1024]{1,0} %multiply.415, f32[64,1024]{1,0} %broadcast.333.1), metadata={op_type="aten__mul" op_name="aten__mul.1156/aten__mul" source_file="/usr/local/lib/python3.10/site-packages/torch/_ops.py" source_line=756}
  ROOT %convert.760.1 = bf16[64,1024]{1,0} convert(f32[64,1024]{1,0} %multiply.338.1), metadata={op_type="xla__cast" op_name="xla__cast" source_file="/usr/local/lib/python3.10/site-packages/torch/_ops.py" source_line=756}
}

%fused_convert.5 (param_0.489: bf16[64,6144]) -> bf16[64,3072] {
  %param_0.489 = bf16[64,6144]{1,0} parameter(0)
  %slice.202.1 = bf16[64,3072]{1,0} slice(bf16[64,6144]{1,0} %param_0.489), slice={[0:64], [0:3072]}, metadata={op_type="xla__select" op_name="xla__select" source_file="/usr/local/lib/python3.10/site-packages/torch/_ops.py" source_line=756}
  %convert.761.6 = f32[64,3072]{1,0} convert(bf16[64,3072]{1,0} %slice.202.1)
  %constant_1_9 = bf16[] constant(1), metadata={op_type="xla__select" op_name="xla__select" source_file="/usr/local/lib/python3.10/site-packages/torch/_ops.py" source_line=756}
  %convert.852.7 = f32[] convert(bf16[] %constant_1_9)
  %broadcast.360.76 = f32[64,3072]{1,0} broadcast(f32[] %convert.852.7), dimensions={}, metadata={op_type="xla__select" op_name="xla__select" source_file="/usr/local/lib/python3.10/site-packages/torch/_ops.py" source_line=756}
  %negate.46.7 = f32[64,3072]{1,0} negate(f32[64,3072]{1,0} %convert.761.6)
  %convert.767.5 = bf16[64,3072]{1,0} convert(f32[64,3072]{1,0} %negate.46.7)
  %exponential.46.3 = bf16[64,3072]{1,0} exponential(bf16[64,3072]{1,0} %convert.767.5)
  %convert.768.1 = f32[64,3072]{1,0} convert(bf16[64,3072]{1,0} %exponential.46.3)
  %add.202.5 = f32[64,3072]{1,0} add(f32[64,3072]{1,0} %broadcast.360.76, f32[64,3072]{1,0} %convert.768.1)
  %divide.46.3 = f32[64,3072]{1,0} divide(f32[64,3072]{1,0} %broadcast.360.76, f32[64,3072]{1,0} %add.202.5), metadata={op_type="aten__silu" op_name="aten__silu" source_file="/usr/local/lib/python3.10/site-packages/torch/_ops.py" source_line=756}
  %multiply.339.3 = f32[64,3072]{1,0} multiply(f32[64,3072]{1,0} %convert.761.6, f32[64,3072]{1,0} %divide.46.3), metadata={op_type="aten__silu" op_name="aten__silu" source_file="/usr/local/lib/python3.10/site-packages/torch/_ops.py" source_line=756}
  %slice.203.1 = bf16[64,3072]{1,0} slice(bf16[64,6144]{1,0} %param_0.489), slice={[0:64], [3072:6144]}, metadata={op_type="xla__select" op_name="xla__select" source_file="/usr/local/lib/python3.10/site-packages/torch/_ops.py" source_line=756}
  %convert.769.1 = f32[64,3072]{1,0} convert(bf16[64,3072]{1,0} %slice.203.1), metadata={op_type="xla__cast" op_name="xla__cast" source_file="/usr/local/lib/python3.10/site-packages/torch/_ops.py" source_line=756}
  %multiply.340.1 = f32[64,3072]{1,0} multiply(f32[64,3072]{1,0} %multiply.339.3, f32[64,3072]{1,0} %convert.769.1), metadata={op_type="aten__mul" op_name="aten__mul.1157/aten__mul" source_file="/usr/local/lib/python3.10/site-packages/torch/_ops.py" source_line=756}
  ROOT %convert.770.1 = bf16[64,3072]{1,0} convert(f32[64,3072]{1,0} %multiply.340.1), metadata={op_type="xla__cast" op_name="xla__cast" source_file="/usr/local/lib/python3.10/site-packages/torch/_ops.py" source_line=756}
}

%fused_computation.132 (param_0.586: f32[], param_1.464: bf16[1024], param_2.297: f32[64,1024], param_3.278: bf16[64,1024], param_4.149: bf16[64,13312], param_5.36: bf16[64,1024]) -> bf16[64,1024] {
  %param_4.149 = bf16[64,13312]{1,0} parameter(4)
  %convert.654.85 = f32[64,13312]{1,0} convert(bf16[64,13312]{1,0} %param_4.149), metadata={op_type="xla__cast" op_name="xla__cast" source_file="/usr/local/lib/python3.10/site-packages/torch/_ops.py" source_line=756}
  %slice.179.5 = f32[64,1024]{1,0} slice(f32[64,13312]{1,0} %convert.654.85), slice={[0:64], [4096:5120]}, metadata={op_type="aten__mm" op_name="aten__mm" source_file="/usr/local/lib/python3.10/site-packages/torch/_ops.py" source_line=756}
  %param_5.36 = bf16[64,1024]{1,0} parameter(5)
  %convert.771.3 = f32[64,1024]{1,0} convert(bf16[64,1024]{1,0} %param_5.36), metadata={op_type="xla__cast" op_name="xla__cast" source_file="/usr/local/lib/python3.10/site-packages/torch/_ops.py" source_line=756}
  %slice.180.9 = f32[64,1024]{1,0} slice(f32[64,13312]{1,0} %convert.654.85), slice={[0:64], [5120:6144]}, metadata={op_type="aten__mm" op_name="aten__mm" source_file="/usr/local/lib/python3.10/site-packages/torch/_ops.py" source_line=756}
  %param_3.278 = bf16[64,1024]{1,0} parameter(3)
  %convert.757.7 = f32[64,1024]{1,0} convert(bf16[64,1024]{1,0} %param_3.278), metadata={op_type="xla__cast" op_name="xla__cast" source_file="/usr/local/lib/python3.10/site-packages/torch/_ops.py" source_line=756}
  %param_2.297 = f32[64,1024]{1,0} parameter(2)
  %add.199.7 = f32[64,1024]{1,0} add(f32[64,1024]{1,0} %convert.757.7, f32[64,1024]{1,0} %param_2.297), metadata={op_type="aten__add" op_name="aten__add.1140/aten__add" source_file="/usr/local/lib/python3.10/site-packages/torch/_ops.py" source_line=756}
  %add.200.7 = f32[64,1024]{1,0} add(f32[64,1024]{1,0} %slice.180.9, f32[64,1024]{1,0} %add.199.7), metadata={op_type="aten__add" op_name="aten__add.1153/aten__add" source_file="/usr/local/lib/python3.10/site-packages/torch/_ops.py" source_line=756}
  %add.203.3 = f32[64,1024]{1,0} add(f32[64,1024]{1,0} %convert.771.3, f32[64,1024]{1,0} %add.200.7), metadata={op_type="aten__add" op_name="aten__add.1158/aten__add" source_file="/usr/local/lib/python3.10/site-packages/torch/_ops.py" source_line=756}
  %add.204.3 = f32[64,1024]{1,0} add(f32[64,1024]{1,0} %slice.179.5, f32[64,1024]{1,0} %add.203.3), metadata={op_type="aten__add" op_name="aten__add.1171/aten__add" source_file="/usr/local/lib/python3.10/site-packages/torch/_ops.py" source_line=756}
  %multiply.424 = f32[64,1024]{1,0} multiply(f32[64,1024]{1,0} %add.204.3, f32[64,1024]{1,0} %add.204.3), metadata={op_type="aten__pow" op_name="aten__pow" source_file="/usr/local/lib/python3.10/site-packages/torch/_ops.py" source_line=756}
  %constant_371 = f32[] constant(0), metadata={op_type="aten__mean" op_name="aten__mean" source_file="/usr/local/lib/python3.10/site-packages/torch/_ops.py" source_line=756}
  %reduce.47 = f32[64]{0} reduce(f32[64,1024]{1,0} %multiply.424, f32[] %constant_371), dimensions={1}, to_apply=%AddComputation.72, metadata={op_type="aten__mean" op_name="aten__mean" source_file="/usr/local/lib/python3.10/site-packages/torch/_ops.py" source_line=756}
  %constant_370 = f32[] constant(0.0009765625), metadata={op_type="aten__mean" op_name="aten__mean" source_file="/usr/local/lib/python3.10/site-packages/torch/_ops.py" source_line=756}
  %broadcast.478 = f32[64]{0} broadcast(f32[] %constant_370), dimensions={}, metadata={op_type="aten__mean" op_name="aten__mean" source_file="/usr/local/lib/python3.10/site-packages/torch/_ops.py" source_line=756}
  %multiply.423 = f32[64]{0} multiply(f32[64]{0} %reduce.47, f32[64]{0} %broadcast.478), metadata={op_type="aten__mean" op_name="aten__mean" source_file="/usr/local/lib/python3.10/site-packages/torch/_ops.py" source_line=756}
  %param_0.586 = f32[] parameter(0)
  %broadcast.477 = f32[64]{0} broadcast(f32[] %param_0.586), dimensions={}, metadata={op_type="aten__add" op_name="aten__add.1028/aten__add" source_file="/usr/local/lib/python3.10/site-packages/torch/_ops.py" source_line=756}
  %add.239 = f32[64]{0} add(f32[64]{0} %multiply.423, f32[64]{0} %broadcast.477), metadata={op_type="aten__add" op_name="aten__add.1172/aten__add" source_file="/usr/local/lib/python3.10/site-packages/torch/_ops.py" source_line=756}
  %rsqrt.93 = f32[64]{0} rsqrt(f32[64]{0} %add.239), metadata={op_type="aten__rsqrt" op_name="aten__rsqrt" source_file="/usr/local/lib/python3.10/site-packages/torch/_ops.py" source_line=756}
  %broadcast.476 = f32[64,1024]{1,0} broadcast(f32[64]{0} %rsqrt.93), dimensions={0}, metadata={op_type="aten__mul" op_name="aten__mul.1173/aten__mul" source_file="/usr/local/lib/python3.10/site-packages/torch/_ops.py" source_line=756}
  %multiply.422 = f32[64,1024]{1,0} multiply(f32[64,1024]{1,0} %add.204.3, f32[64,1024]{1,0} %broadcast.476), metadata={op_type="aten__mul" op_name="aten__mul.1173/aten__mul" source_file="/usr/local/lib/python3.10/site-packages/torch/_ops.py" source_line=756}
  %param_1.464 = bf16[1024]{0} parameter(1)
  %convert.772.1 = f32[1024]{0} convert(bf16[1024]{0} %param_1.464), metadata={op_type="xla__cast" op_name="xla__cast" source_file="/usr/local/lib/python3.10/site-packages/torch/_ops.py" source_line=756}
  %broadcast.337.1 = f32[64,1024]{1,0} broadcast(f32[1024]{0} %convert.772.1), dimensions={1}, metadata={op_type="aten__mul" op_name="aten__mul.1174/aten__mul" source_file="/usr/local/lib/python3.10/site-packages/torch/_ops.py" source_line=756}
  %multiply.341.1 = f32[64,1024]{1,0} multiply(f32[64,1024]{1,0} %multiply.422, f32[64,1024]{1,0} %broadcast.337.1), metadata={op_type="aten__mul" op_name="aten__mul.1174/aten__mul" source_file="/usr/local/lib/python3.10/site-packages/torch/_ops.py" source_line=756}
  ROOT %convert.773.1 = bf16[64,1024]{1,0} convert(f32[64,1024]{1,0} %multiply.341.1), metadata={op_type="xla__cast" op_name="xla__cast" source_file="/usr/local/lib/python3.10/site-packages/torch/_ops.py" source_line=756}
}

%fused_convert.4 (param_0.493: bf16[64,6144]) -> bf16[64,3072] {
  %param_0.493 = bf16[64,6144]{1,0} parameter(0)
  %slice.204.1 = bf16[64,3072]{1,0} slice(bf16[64,6144]{1,0} %param_0.493), slice={[0:64], [0:3072]}, metadata={op_type="xla__select" op_name="xla__select" source_file="/usr/local/lib/python3.10/site-packages/torch/_ops.py" source_line=756}
  %convert.775.6 = f32[64,3072]{1,0} convert(bf16[64,3072]{1,0} %slice.204.1)
  %constant_1_13 = bf16[] constant(1), metadata={op_type="xla__select" op_name="xla__select" source_file="/usr/local/lib/python3.10/site-packages/torch/_ops.py" source_line=756}
  %convert.852.11 = f32[] convert(bf16[] %constant_1_13)
  %broadcast.360.72 = f32[64,3072]{1,0} broadcast(f32[] %convert.852.11), dimensions={}, metadata={op_type="xla__select" op_name="xla__select" source_file="/usr/local/lib/python3.10/site-packages/torch/_ops.py" source_line=756}
  %negate.47.7 = f32[64,3072]{1,0} negate(f32[64,3072]{1,0} %convert.775.6)
  %convert.781.5 = bf16[64,3072]{1,0} convert(f32[64,3072]{1,0} %negate.47.7)
  %exponential.47.3 = bf16[64,3072]{1,0} exponential(bf16[64,3072]{1,0} %convert.781.5)
  %convert.782.1 = f32[64,3072]{1,0} convert(bf16[64,3072]{1,0} %exponential.47.3)
  %add.205.5 = f32[64,3072]{1,0} add(f32[64,3072]{1,0} %broadcast.360.72, f32[64,3072]{1,0} %convert.782.1)
  %divide.47.3 = f32[64,3072]{1,0} divide(f32[64,3072]{1,0} %broadcast.360.72, f32[64,3072]{1,0} %add.205.5), metadata={op_type="aten__silu" op_name="aten__silu" source_file="/usr/local/lib/python3.10/site-packages/torch/_ops.py" source_line=756}
  %multiply.342.3 = f32[64,3072]{1,0} multiply(f32[64,3072]{1,0} %convert.775.6, f32[64,3072]{1,0} %divide.47.3), metadata={op_type="aten__silu" op_name="aten__silu" source_file="/usr/local/lib/python3.10/site-packages/torch/_ops.py" source_line=756}
  %slice.205.1 = bf16[64,3072]{1,0} slice(bf16[64,6144]{1,0} %param_0.493), slice={[0:64], [3072:6144]}, metadata={op_type="xla__select" op_name="xla__select" source_file="/usr/local/lib/python3.10/site-packages/torch/_ops.py" source_line=756}
  %convert.783.1 = f32[64,3072]{1,0} convert(bf16[64,3072]{1,0} %slice.205.1), metadata={op_type="xla__cast" op_name="xla__cast" source_file="/usr/local/lib/python3.10/site-packages/torch/_ops.py" source_line=756}
  %multiply.343.1 = f32[64,3072]{1,0} multiply(f32[64,3072]{1,0} %multiply.342.3, f32[64,3072]{1,0} %convert.783.1), metadata={op_type="aten__mul" op_name="aten__mul.1175/aten__mul" source_file="/usr/local/lib/python3.10/site-packages/torch/_ops.py" source_line=756}
  ROOT %convert.784.1 = bf16[64,3072]{1,0} convert(f32[64,3072]{1,0} %multiply.343.1), metadata={op_type="xla__cast" op_name="xla__cast" source_file="/usr/local/lib/python3.10/site-packages/torch/_ops.py" source_line=756}
}

%fused_computation.131 (param_0.561: f32[], param_1.467: bf16[64,1024], param_2.301: bf16[64,13312], param_3.283: bf16[1024], param_4.155: f32[64,1024], param_5.45: bf16[64,1024], param_6.29: bf16[64,1024]) -> bf16[64,1024] {
  %param_2.301 = bf16[64,13312]{1,0} parameter(2)
  %convert.654.51 = f32[64,13312]{1,0} convert(bf16[64,13312]{1,0} %param_2.301), metadata={op_type="xla__cast" op_name="xla__cast" source_file="/usr/local/lib/python3.10/site-packages/torch/_ops.py" source_line=756}
  %slice.178.5 = f32[64,1024]{1,0} slice(f32[64,13312]{1,0} %convert.654.51), slice={[0:64], [3072:4096]}, metadata={op_type="aten__mm" op_name="aten__mm" source_file="/usr/local/lib/python3.10/site-packages/torch/_ops.py" source_line=756}
  %param_1.467 = bf16[64,1024]{1,0} parameter(1)
  %convert.786.3 = f32[64,1024]{1,0} convert(bf16[64,1024]{1,0} %param_1.467), metadata={op_type="xla__cast" op_name="xla__cast" source_file="/usr/local/lib/python3.10/site-packages/torch/_ops.py" source_line=756}
  %slice.179.9 = f32[64,1024]{1,0} slice(f32[64,13312]{1,0} %convert.654.51), slice={[0:64], [4096:5120]}, metadata={op_type="aten__mm" op_name="aten__mm" source_file="/usr/local/lib/python3.10/site-packages/torch/_ops.py" source_line=756}
  %param_6.29 = bf16[64,1024]{1,0} parameter(6)
  %convert.771.7 = f32[64,1024]{1,0} convert(bf16[64,1024]{1,0} %param_6.29), metadata={op_type="xla__cast" op_name="xla__cast" source_file="/usr/local/lib/python3.10/site-packages/torch/_ops.py" source_line=756}
  %slice.180.13 = f32[64,1024]{1,0} slice(f32[64,13312]{1,0} %convert.654.51), slice={[0:64], [5120:6144]}, metadata={op_type="aten__mm" op_name="aten__mm" source_file="/usr/local/lib/python3.10/site-packages/torch/_ops.py" source_line=756}
  %param_5.45 = bf16[64,1024]{1,0} parameter(5)
  %convert.757.11 = f32[64,1024]{1,0} convert(bf16[64,1024]{1,0} %param_5.45), metadata={op_type="xla__cast" op_name="xla__cast" source_file="/usr/local/lib/python3.10/site-packages/torch/_ops.py" source_line=756}
  %param_4.155 = f32[64,1024]{1,0} parameter(4)
  %add.199.11 = f32[64,1024]{1,0} add(f32[64,1024]{1,0} %convert.757.11, f32[64,1024]{1,0} %param_4.155), metadata={op_type="aten__add" op_name="aten__add.1140/aten__add" source_file="/usr/local/lib/python3.10/site-packages/torch/_ops.py" source_line=756}
  %add.200.11 = f32[64,1024]{1,0} add(f32[64,1024]{1,0} %slice.180.13, f32[64,1024]{1,0} %add.199.11), metadata={op_type="aten__add" op_name="aten__add.1153/aten__add" source_file="/usr/local/lib/python3.10/site-packages/torch/_ops.py" source_line=756}
  %add.203.7 = f32[64,1024]{1,0} add(f32[64,1024]{1,0} %convert.771.7, f32[64,1024]{1,0} %add.200.11), metadata={op_type="aten__add" op_name="aten__add.1158/aten__add" source_file="/usr/local/lib/python3.10/site-packages/torch/_ops.py" source_line=756}
  %add.204.7 = f32[64,1024]{1,0} add(f32[64,1024]{1,0} %slice.179.9, f32[64,1024]{1,0} %add.203.7), metadata={op_type="aten__add" op_name="aten__add.1171/aten__add" source_file="/usr/local/lib/python3.10/site-packages/torch/_ops.py" source_line=756}
  %add.206.3 = f32[64,1024]{1,0} add(f32[64,1024]{1,0} %convert.786.3, f32[64,1024]{1,0} %add.204.7), metadata={op_type="aten__add" op_name="aten__add.1176/aten__add" source_file="/usr/local/lib/python3.10/site-packages/torch/_ops.py" source_line=756}
  %add.207.3 = f32[64,1024]{1,0} add(f32[64,1024]{1,0} %slice.178.5, f32[64,1024]{1,0} %add.206.3), metadata={op_type="aten__add" op_name="aten__add.1189/aten__add" source_file="/usr/local/lib/python3.10/site-packages/torch/_ops.py" source_line=756}
  %multiply.430 = f32[64,1024]{1,0} multiply(f32[64,1024]{1,0} %add.207.3, f32[64,1024]{1,0} %add.207.3), metadata={op_type="aten__pow" op_name="aten__pow" source_file="/usr/local/lib/python3.10/site-packages/torch/_ops.py" source_line=756}
  %constant_376 = f32[] constant(0), metadata={op_type="aten__mean" op_name="aten__mean" source_file="/usr/local/lib/python3.10/site-packages/torch/_ops.py" source_line=756}
  %reduce.49 = f32[64]{0} reduce(f32[64,1024]{1,0} %multiply.430, f32[] %constant_376), dimensions={1}, to_apply=%AddComputation.72, metadata={op_type="aten__mean" op_name="aten__mean" source_file="/usr/local/lib/python3.10/site-packages/torch/_ops.py" source_line=756}
  %constant_375 = f32[] constant(0.0009765625), metadata={op_type="aten__mean" op_name="aten__mean" source_file="/usr/local/lib/python3.10/site-packages/torch/_ops.py" source_line=756}
  %broadcast.486 = f32[64]{0} broadcast(f32[] %constant_375), dimensions={}, metadata={op_type="aten__mean" op_name="aten__mean" source_file="/usr/local/lib/python3.10/site-packages/torch/_ops.py" source_line=756}
  %multiply.429 = f32[64]{0} multiply(f32[64]{0} %reduce.49, f32[64]{0} %broadcast.486), metadata={op_type="aten__mean" op_name="aten__mean" source_file="/usr/local/lib/python3.10/site-packages/torch/_ops.py" source_line=756}
  %param_0.561 = f32[] parameter(0)
  %broadcast.485 = f32[64]{0} broadcast(f32[] %param_0.561), dimensions={}, metadata={op_type="aten__add" op_name="aten__add.1028/aten__add" source_file="/usr/local/lib/python3.10/site-packages/torch/_ops.py" source_line=756}
  %add.241 = f32[64]{0} add(f32[64]{0} %multiply.429, f32[64]{0} %broadcast.485), metadata={op_type="aten__add" op_name="aten__add.1190/aten__add" source_file="/usr/local/lib/python3.10/site-packages/torch/_ops.py" source_line=756}
  %rsqrt.95 = f32[64]{0} rsqrt(f32[64]{0} %add.241), metadata={op_type="aten__rsqrt" op_name="aten__rsqrt" source_file="/usr/local/lib/python3.10/site-packages/torch/_ops.py" source_line=756}
  %broadcast.484 = f32[64,1024]{1,0} broadcast(f32[64]{0} %rsqrt.95), dimensions={0}, metadata={op_type="aten__mul" op_name="aten__mul.1191/aten__mul" source_file="/usr/local/lib/python3.10/site-packages/torch/_ops.py" source_line=756}
  %multiply.428 = f32[64,1024]{1,0} multiply(f32[64,1024]{1,0} %add.207.3, f32[64,1024]{1,0} %broadcast.484), metadata={op_type="aten__mul" op_name="aten__mul.1191/aten__mul" source_file="/usr/local/lib/python3.10/site-packages/torch/_ops.py" source_line=756}
  %param_3.283 = bf16[1024]{0} parameter(3)
  %convert.787.1 = f32[1024]{0} convert(bf16[1024]{0} %param_3.283), metadata={op_type="xla__cast" op_name="xla__cast" source_file="/usr/local/lib/python3.10/site-packages/torch/_ops.py" source_line=756}
  %broadcast.341.1 = f32[64,1024]{1,0} broadcast(f32[1024]{0} %convert.787.1), dimensions={1}, metadata={op_type="aten__mul" op_name="aten__mul.1192/aten__mul" source_file="/usr/local/lib/python3.10/site-packages/torch/_ops.py" source_line=756}
  %multiply.345.1 = f32[64,1024]{1,0} multiply(f32[64,1024]{1,0} %multiply.428, f32[64,1024]{1,0} %broadcast.341.1), metadata={op_type="aten__mul" op_name="aten__mul.1192/aten__mul" source_file="/usr/local/lib/python3.10/site-packages/torch/_ops.py" source_line=756}
  ROOT %convert.788.1 = bf16[64,1024]{1,0} convert(f32[64,1024]{1,0} %multiply.345.1), metadata={op_type="xla__cast" op_name="xla__cast" source_file="/usr/local/lib/python3.10/site-packages/torch/_ops.py" source_line=756}
}

%fused_convert.3 (param_0.487: bf16[64,6144]) -> bf16[64,3072] {
  %param_0.487 = bf16[64,6144]{1,0} parameter(0)
  %slice.206.1 = bf16[64,3072]{1,0} slice(bf16[64,6144]{1,0} %param_0.487), slice={[0:64], [0:3072]}, metadata={op_type="xla__select" op_name="xla__select" source_file="/usr/local/lib/python3.10/site-packages/torch/_ops.py" source_line=756}
  %convert.789.6 = f32[64,3072]{1,0} convert(bf16[64,3072]{1,0} %slice.206.1)
  %constant_1_7 = bf16[] constant(1), metadata={op_type="xla__select" op_name="xla__select" source_file="/usr/local/lib/python3.10/site-packages/torch/_ops.py" source_line=756}
  %convert.852.5 = f32[] convert(bf16[] %constant_1_7)
  %broadcast.360.68 = f32[64,3072]{1,0} broadcast(f32[] %convert.852.5), dimensions={}, metadata={op_type="xla__select" op_name="xla__select" source_file="/usr/local/lib/python3.10/site-packages/torch/_ops.py" source_line=756}
  %negate.48.7 = f32[64,3072]{1,0} negate(f32[64,3072]{1,0} %convert.789.6)
  %convert.793.5 = bf16[64,3072]{1,0} convert(f32[64,3072]{1,0} %negate.48.7)
  %exponential.48.3 = bf16[64,3072]{1,0} exponential(bf16[64,3072]{1,0} %convert.793.5)
  %convert.794.1 = f32[64,3072]{1,0} convert(bf16[64,3072]{1,0} %exponential.48.3)
  %add.208.5 = f32[64,3072]{1,0} add(f32[64,3072]{1,0} %broadcast.360.68, f32[64,3072]{1,0} %convert.794.1)
  %divide.48.3 = f32[64,3072]{1,0} divide(f32[64,3072]{1,0} %broadcast.360.68, f32[64,3072]{1,0} %add.208.5), metadata={op_type="aten__silu" op_name="aten__silu" source_file="/usr/local/lib/python3.10/site-packages/torch/_ops.py" source_line=756}
  %multiply.346.3 = f32[64,3072]{1,0} multiply(f32[64,3072]{1,0} %convert.789.6, f32[64,3072]{1,0} %divide.48.3), metadata={op_type="aten__silu" op_name="aten__silu" source_file="/usr/local/lib/python3.10/site-packages/torch/_ops.py" source_line=756}
  %slice.207.1 = bf16[64,3072]{1,0} slice(bf16[64,6144]{1,0} %param_0.487), slice={[0:64], [3072:6144]}, metadata={op_type="xla__select" op_name="xla__select" source_file="/usr/local/lib/python3.10/site-packages/torch/_ops.py" source_line=756}
  %convert.795.1 = f32[64,3072]{1,0} convert(bf16[64,3072]{1,0} %slice.207.1), metadata={op_type="xla__cast" op_name="xla__cast" source_file="/usr/local/lib/python3.10/site-packages/torch/_ops.py" source_line=756}
  %multiply.347.1 = f32[64,3072]{1,0} multiply(f32[64,3072]{1,0} %multiply.346.3, f32[64,3072]{1,0} %convert.795.1), metadata={op_type="aten__mul" op_name="aten__mul.1193/aten__mul" source_file="/usr/local/lib/python3.10/site-packages/torch/_ops.py" source_line=756}
  ROOT %convert.796.1 = bf16[64,3072]{1,0} convert(f32[64,3072]{1,0} %multiply.347.1), metadata={op_type="xla__cast" op_name="xla__cast" source_file="/usr/local/lib/python3.10/site-packages/torch/_ops.py" source_line=756}
}

%fused_add.1 (param_0.448: bf16[64,13312], param_1.410: bf16[64,1024], param_2.299: bf16[64,1024], param_3.281: f32[64,1024], param_4.153: bf16[64,1024], param_5.41: bf16[64,1024]) -> f32[64,1024] {
  %param_0.448 = bf16[64,13312]{1,0} parameter(0)
  %convert.654.35 = f32[64,13312]{1,0} convert(bf16[64,13312]{1,0} %param_0.448), metadata={op_type="xla__cast" op_name="xla__cast" source_file="/usr/local/lib/python3.10/site-packages/torch/_ops.py" source_line=756}
  %slice.177.3 = f32[64,1024]{1,0} slice(f32[64,13312]{1,0} %convert.654.35), slice={[0:64], [2048:3072]}, metadata={op_type="aten__mm" op_name="aten__mm" source_file="/usr/local/lib/python3.10/site-packages/torch/_ops.py" source_line=756}
  %param_1.410 = bf16[64,1024]{1,0} parameter(1)
  %convert.797.1 = f32[64,1024]{1,0} convert(bf16[64,1024]{1,0} %param_1.410), metadata={op_type="xla__cast" op_name="xla__cast" source_file="/usr/local/lib/python3.10/site-packages/torch/_ops.py" source_line=756}
  %slice.178.7 = f32[64,1024]{1,0} slice(f32[64,13312]{1,0} %convert.654.35), slice={[0:64], [3072:4096]}, metadata={op_type="aten__mm" op_name="aten__mm" source_file="/usr/local/lib/python3.10/site-packages/torch/_ops.py" source_line=756}
  %param_2.299 = bf16[64,1024]{1,0} parameter(2)
  %convert.786.5 = f32[64,1024]{1,0} convert(bf16[64,1024]{1,0} %param_2.299), metadata={op_type="xla__cast" op_name="xla__cast" source_file="/usr/local/lib/python3.10/site-packages/torch/_ops.py" source_line=756}
  %slice.179.7 = f32[64,1024]{1,0} slice(f32[64,13312]{1,0} %convert.654.35), slice={[0:64], [4096:5120]}, metadata={op_type="aten__mm" op_name="aten__mm" source_file="/usr/local/lib/python3.10/site-packages/torch/_ops.py" source_line=756}
  %param_5.41 = bf16[64,1024]{1,0} parameter(5)
  %convert.771.5 = f32[64,1024]{1,0} convert(bf16[64,1024]{1,0} %param_5.41), metadata={op_type="xla__cast" op_name="xla__cast" source_file="/usr/local/lib/python3.10/site-packages/torch/_ops.py" source_line=756}
  %slice.180.11 = f32[64,1024]{1,0} slice(f32[64,13312]{1,0} %convert.654.35), slice={[0:64], [5120:6144]}, metadata={op_type="aten__mm" op_name="aten__mm" source_file="/usr/local/lib/python3.10/site-packages/torch/_ops.py" source_line=756}
  %param_4.153 = bf16[64,1024]{1,0} parameter(4)
  %convert.757.9 = f32[64,1024]{1,0} convert(bf16[64,1024]{1,0} %param_4.153), metadata={op_type="xla__cast" op_name="xla__cast" source_file="/usr/local/lib/python3.10/site-packages/torch/_ops.py" source_line=756}
  %param_3.281 = f32[64,1024]{1,0} parameter(3)
  %add.199.9 = f32[64,1024]{1,0} add(f32[64,1024]{1,0} %convert.757.9, f32[64,1024]{1,0} %param_3.281), metadata={op_type="aten__add" op_name="aten__add.1140/aten__add" source_file="/usr/local/lib/python3.10/site-packages/torch/_ops.py" source_line=756}
  %add.200.9 = f32[64,1024]{1,0} add(f32[64,1024]{1,0} %slice.180.11, f32[64,1024]{1,0} %add.199.9), metadata={op_type="aten__add" op_name="aten__add.1153/aten__add" source_file="/usr/local/lib/python3.10/site-packages/torch/_ops.py" source_line=756}
  %add.203.5 = f32[64,1024]{1,0} add(f32[64,1024]{1,0} %convert.771.5, f32[64,1024]{1,0} %add.200.9), metadata={op_type="aten__add" op_name="aten__add.1158/aten__add" source_file="/usr/local/lib/python3.10/site-packages/torch/_ops.py" source_line=756}
  %add.204.5 = f32[64,1024]{1,0} add(f32[64,1024]{1,0} %slice.179.7, f32[64,1024]{1,0} %add.203.5), metadata={op_type="aten__add" op_name="aten__add.1171/aten__add" source_file="/usr/local/lib/python3.10/site-packages/torch/_ops.py" source_line=756}
  %add.206.5 = f32[64,1024]{1,0} add(f32[64,1024]{1,0} %convert.786.5, f32[64,1024]{1,0} %add.204.5), metadata={op_type="aten__add" op_name="aten__add.1176/aten__add" source_file="/usr/local/lib/python3.10/site-packages/torch/_ops.py" source_line=756}
  %add.207.5 = f32[64,1024]{1,0} add(f32[64,1024]{1,0} %slice.178.7, f32[64,1024]{1,0} %add.206.5), metadata={op_type="aten__add" op_name="aten__add.1189/aten__add" source_file="/usr/local/lib/python3.10/site-packages/torch/_ops.py" source_line=756}
  %add.209.1 = f32[64,1024]{1,0} add(f32[64,1024]{1,0} %convert.797.1, f32[64,1024]{1,0} %add.207.5), metadata={op_type="aten__add" op_name="aten__add.1194/aten__add" source_file="/usr/local/lib/python3.10/site-packages/torch/_ops.py" source_line=756}
  ROOT %add.210.1 = f32[64,1024]{1,0} add(f32[64,1024]{1,0} %slice.177.3, f32[64,1024]{1,0} %add.209.1), metadata={op_type="aten__add" op_name="aten__add.1207/aten__add" source_file="/usr/local/lib/python3.10/site-packages/torch/_ops.py" source_line=756}
}

%fused_computation.130 (param_0.560: f32[64,1024], param_1.445: f32[], param_2.276: bf16[1024]) -> bf16[64,1024] {
  %param_0.560 = f32[64,1024]{1,0} parameter(0)
  %multiply.436 = f32[64,1024]{1,0} multiply(f32[64,1024]{1,0} %param_0.560, f32[64,1024]{1,0} %param_0.560), metadata={op_type="aten__pow" op_name="aten__pow" source_file="/usr/local/lib/python3.10/site-packages/torch/_ops.py" source_line=756}
  %constant_381 = f32[] constant(0), metadata={op_type="aten__mean" op_name="aten__mean" source_file="/usr/local/lib/python3.10/site-packages/torch/_ops.py" source_line=756}
  %reduce.51 = f32[64]{0} reduce(f32[64,1024]{1,0} %multiply.436, f32[] %constant_381), dimensions={1}, to_apply=%AddComputation.72, metadata={op_type="aten__mean" op_name="aten__mean" source_file="/usr/local/lib/python3.10/site-packages/torch/_ops.py" source_line=756}
  %constant_380 = f32[] constant(0.0009765625), metadata={op_type="aten__mean" op_name="aten__mean" source_file="/usr/local/lib/python3.10/site-packages/torch/_ops.py" source_line=756}
  %broadcast.493 = f32[64]{0} broadcast(f32[] %constant_380), dimensions={}, metadata={op_type="aten__mean" op_name="aten__mean" source_file="/usr/local/lib/python3.10/site-packages/torch/_ops.py" source_line=756}
  %multiply.435 = f32[64]{0} multiply(f32[64]{0} %reduce.51, f32[64]{0} %broadcast.493), metadata={op_type="aten__mean" op_name="aten__mean" source_file="/usr/local/lib/python3.10/site-packages/torch/_ops.py" source_line=756}
  %param_1.445 = f32[] parameter(1)
  %broadcast.492 = f32[64]{0} broadcast(f32[] %param_1.445), dimensions={}, metadata={op_type="aten__add" op_name="aten__add.1028/aten__add" source_file="/usr/local/lib/python3.10/site-packages/torch/_ops.py" source_line=756}
  %add.243 = f32[64]{0} add(f32[64]{0} %multiply.435, f32[64]{0} %broadcast.492), metadata={op_type="aten__add" op_name="aten__add.1208/aten__add" source_file="/usr/local/lib/python3.10/site-packages/torch/_ops.py" source_line=756}
  %rsqrt.97 = f32[64]{0} rsqrt(f32[64]{0} %add.243), metadata={op_type="aten__rsqrt" op_name="aten__rsqrt" source_file="/usr/local/lib/python3.10/site-packages/torch/_ops.py" source_line=756}
  %broadcast.491 = f32[64,1024]{1,0} broadcast(f32[64]{0} %rsqrt.97), dimensions={0}, metadata={op_type="aten__mul" op_name="aten__mul.1209/aten__mul" source_file="/usr/local/lib/python3.10/site-packages/torch/_ops.py" source_line=756}
  %multiply.434 = f32[64,1024]{1,0} multiply(f32[64,1024]{1,0} %param_0.560, f32[64,1024]{1,0} %broadcast.491), metadata={op_type="aten__mul" op_name="aten__mul.1209/aten__mul" source_file="/usr/local/lib/python3.10/site-packages/torch/_ops.py" source_line=756}
  %param_2.276 = bf16[1024]{0} parameter(2)
  %convert.798.1 = f32[1024]{0} convert(bf16[1024]{0} %param_2.276), metadata={op_type="xla__cast" op_name="xla__cast" source_file="/usr/local/lib/python3.10/site-packages/torch/_ops.py" source_line=756}
  %broadcast.345.1 = f32[64,1024]{1,0} broadcast(f32[1024]{0} %convert.798.1), dimensions={1}, metadata={op_type="aten__mul" op_name="aten__mul.1210/aten__mul" source_file="/usr/local/lib/python3.10/site-packages/torch/_ops.py" source_line=756}
  %multiply.348.1 = f32[64,1024]{1,0} multiply(f32[64,1024]{1,0} %multiply.434, f32[64,1024]{1,0} %broadcast.345.1), metadata={op_type="aten__mul" op_name="aten__mul.1210/aten__mul" source_file="/usr/local/lib/python3.10/site-packages/torch/_ops.py" source_line=756}
  ROOT %convert.799.1 = bf16[64,1024]{1,0} convert(f32[64,1024]{1,0} %multiply.348.1), metadata={op_type="xla__cast" op_name="xla__cast" source_file="/usr/local/lib/python3.10/site-packages/torch/_ops.py" source_line=756}
}

%fused_convert.2 (param_0.495: bf16[64,6144]) -> bf16[64,3072] {
  %param_0.495 = bf16[64,6144]{1,0} parameter(0)
  %slice.208.1 = bf16[64,3072]{1,0} slice(bf16[64,6144]{1,0} %param_0.495), slice={[0:64], [0:3072]}, metadata={op_type="xla__select" op_name="xla__select" source_file="/usr/local/lib/python3.10/site-packages/torch/_ops.py" source_line=756}
  %convert.801.6 = f32[64,3072]{1,0} convert(bf16[64,3072]{1,0} %slice.208.1)
  %constant_1_1 = bf16[] constant(1), metadata={op_type="xla__select" op_name="xla__select" source_file="/usr/local/lib/python3.10/site-packages/torch/_ops.py" source_line=756}
  %convert.852.13 = f32[] convert(bf16[] %constant_1_1)
  %broadcast.360.64 = f32[64,3072]{1,0} broadcast(f32[] %convert.852.13), dimensions={}, metadata={op_type="xla__select" op_name="xla__select" source_file="/usr/local/lib/python3.10/site-packages/torch/_ops.py" source_line=756}
  %negate.49.7 = f32[64,3072]{1,0} negate(f32[64,3072]{1,0} %convert.801.6)
  %convert.805.5 = bf16[64,3072]{1,0} convert(f32[64,3072]{1,0} %negate.49.7)
  %exponential.49.3 = bf16[64,3072]{1,0} exponential(bf16[64,3072]{1,0} %convert.805.5)
  %convert.806.1 = f32[64,3072]{1,0} convert(bf16[64,3072]{1,0} %exponential.49.3)
  %add.211.5 = f32[64,3072]{1,0} add(f32[64,3072]{1,0} %broadcast.360.64, f32[64,3072]{1,0} %convert.806.1)
  %divide.49.3 = f32[64,3072]{1,0} divide(f32[64,3072]{1,0} %broadcast.360.64, f32[64,3072]{1,0} %add.211.5), metadata={op_type="aten__silu" op_name="aten__silu" source_file="/usr/local/lib/python3.10/site-packages/torch/_ops.py" source_line=756}
  %multiply.349.3 = f32[64,3072]{1,0} multiply(f32[64,3072]{1,0} %convert.801.6, f32[64,3072]{1,0} %divide.49.3), metadata={op_type="aten__silu" op_name="aten__silu" source_file="/usr/local/lib/python3.10/site-packages/torch/_ops.py" source_line=756}
  %slice.209.1 = bf16[64,3072]{1,0} slice(bf16[64,6144]{1,0} %param_0.495), slice={[0:64], [3072:6144]}, metadata={op_type="xla__select" op_name="xla__select" source_file="/usr/local/lib/python3.10/site-packages/torch/_ops.py" source_line=756}
  %convert.808.1 = f32[64,3072]{1,0} convert(bf16[64,3072]{1,0} %slice.209.1), metadata={op_type="xla__cast" op_name="xla__cast" source_file="/usr/local/lib/python3.10/site-packages/torch/_ops.py" source_line=756}
  %multiply.350.1 = f32[64,3072]{1,0} multiply(f32[64,3072]{1,0} %multiply.349.3, f32[64,3072]{1,0} %convert.808.1), metadata={op_type="aten__mul" op_name="aten__mul.1211/aten__mul" source_file="/usr/local/lib/python3.10/site-packages/torch/_ops.py" source_line=756}
  ROOT %convert.809.1 = bf16[64,3072]{1,0} convert(f32[64,3072]{1,0} %multiply.350.1), metadata={op_type="xla__cast" op_name="xla__cast" source_file="/usr/local/lib/python3.10/site-packages/torch/_ops.py" source_line=756}
}

%fused_computation.129 (param_0.559: f32[], param_1.444: f32[64,1024], param_2.275: bf16[64,1024], param_3.252: bf16[64,13312], param_4.131: bf16[1024]) -> bf16[64,1024] {
  %param_3.252 = bf16[64,13312]{1,0} parameter(3)
  %convert.654.47 = f32[64,13312]{1,0} convert(bf16[64,13312]{1,0} %param_3.252), metadata={op_type="xla__cast" op_name="xla__cast" source_file="/usr/local/lib/python3.10/site-packages/torch/_ops.py" source_line=756}
  %slice.176.5 = f32[64,1024]{1,0} slice(f32[64,13312]{1,0} %convert.654.47), slice={[0:64], [1024:2048]}, metadata={op_type="aten__mm" op_name="aten__mm" source_file="/usr/local/lib/python3.10/site-packages/torch/_ops.py" source_line=756}
  %param_2.275 = bf16[64,1024]{1,0} parameter(2)
  %convert.810.3 = f32[64,1024]{1,0} convert(bf16[64,1024]{1,0} %param_2.275), metadata={op_type="xla__cast" op_name="xla__cast" source_file="/usr/local/lib/python3.10/site-packages/torch/_ops.py" source_line=756}
  %param_1.444 = f32[64,1024]{1,0} parameter(1)
  %add.212.3 = f32[64,1024]{1,0} add(f32[64,1024]{1,0} %convert.810.3, f32[64,1024]{1,0} %param_1.444), metadata={op_type="aten__add" op_name="aten__add.1212/aten__add" source_file="/usr/local/lib/python3.10/site-packages/torch/_ops.py" source_line=756}
  %add.213.3 = f32[64,1024]{1,0} add(f32[64,1024]{1,0} %slice.176.5, f32[64,1024]{1,0} %add.212.3), metadata={op_type="aten__add" op_name="aten__add.1225/aten__add" source_file="/usr/local/lib/python3.10/site-packages/torch/_ops.py" source_line=756}
  %multiply.442 = f32[64,1024]{1,0} multiply(f32[64,1024]{1,0} %add.213.3, f32[64,1024]{1,0} %add.213.3), metadata={op_type="aten__pow" op_name="aten__pow" source_file="/usr/local/lib/python3.10/site-packages/torch/_ops.py" source_line=756}
  %constant_386 = f32[] constant(0), metadata={op_type="aten__mean" op_name="aten__mean" source_file="/usr/local/lib/python3.10/site-packages/torch/_ops.py" source_line=756}
  %reduce.53 = f32[64]{0} reduce(f32[64,1024]{1,0} %multiply.442, f32[] %constant_386), dimensions={1}, to_apply=%AddComputation.72, metadata={op_type="aten__mean" op_name="aten__mean" source_file="/usr/local/lib/python3.10/site-packages/torch/_ops.py" source_line=756}
  %constant_385 = f32[] constant(0.0009765625), metadata={op_type="aten__mean" op_name="aten__mean" source_file="/usr/local/lib/python3.10/site-packages/torch/_ops.py" source_line=756}
  %broadcast.499 = f32[64]{0} broadcast(f32[] %constant_385), dimensions={}, metadata={op_type="aten__mean" op_name="aten__mean" source_file="/usr/local/lib/python3.10/site-packages/torch/_ops.py" source_line=756}
  %multiply.441 = f32[64]{0} multiply(f32[64]{0} %reduce.53, f32[64]{0} %broadcast.499), metadata={op_type="aten__mean" op_name="aten__mean" source_file="/usr/local/lib/python3.10/site-packages/torch/_ops.py" source_line=756}
  %param_0.559 = f32[] parameter(0)
  %broadcast.498 = f32[64]{0} broadcast(f32[] %param_0.559), dimensions={}, metadata={op_type="aten__add" op_name="aten__add.1028/aten__add" source_file="/usr/local/lib/python3.10/site-packages/torch/_ops.py" source_line=756}
  %add.245 = f32[64]{0} add(f32[64]{0} %multiply.441, f32[64]{0} %broadcast.498), metadata={op_type="aten__add" op_name="aten__add.1226/aten__add" source_file="/usr/local/lib/python3.10/site-packages/torch/_ops.py" source_line=756}
  %rsqrt.99 = f32[64]{0} rsqrt(f32[64]{0} %add.245), metadata={op_type="aten__rsqrt" op_name="aten__rsqrt" source_file="/usr/local/lib/python3.10/site-packages/torch/_ops.py" source_line=756}
  %broadcast.497 = f32[64,1024]{1,0} broadcast(f32[64]{0} %rsqrt.99), dimensions={0}, metadata={op_type="aten__mul" op_name="aten__mul.1227/aten__mul" source_file="/usr/local/lib/python3.10/site-packages/torch/_ops.py" source_line=756}
  %multiply.440 = f32[64,1024]{1,0} multiply(f32[64,1024]{1,0} %add.213.3, f32[64,1024]{1,0} %broadcast.497), metadata={op_type="aten__mul" op_name="aten__mul.1227/aten__mul" source_file="/usr/local/lib/python3.10/site-packages/torch/_ops.py" source_line=756}
  %param_4.131 = bf16[1024]{0} parameter(4)
  %convert.811.1 = f32[1024]{0} convert(bf16[1024]{0} %param_4.131), metadata={op_type="xla__cast" op_name="xla__cast" source_file="/usr/local/lib/python3.10/site-packages/torch/_ops.py" source_line=756}
  %broadcast.348.1 = f32[64,1024]{1,0} broadcast(f32[1024]{0} %convert.811.1), dimensions={1}, metadata={op_type="aten__mul" op_name="aten__mul.1228/aten__mul" source_file="/usr/local/lib/python3.10/site-packages/torch/_ops.py" source_line=756}
  %multiply.351.1 = f32[64,1024]{1,0} multiply(f32[64,1024]{1,0} %multiply.440, f32[64,1024]{1,0} %broadcast.348.1), metadata={op_type="aten__mul" op_name="aten__mul.1228/aten__mul" source_file="/usr/local/lib/python3.10/site-packages/torch/_ops.py" source_line=756}
  ROOT %convert.812.1 = bf16[64,1024]{1,0} convert(f32[64,1024]{1,0} %multiply.351.1), metadata={op_type="xla__cast" op_name="xla__cast" source_file="/usr/local/lib/python3.10/site-packages/torch/_ops.py" source_line=756}
}

%fused_convert.1 (param_0.491: bf16[64,6144]) -> bf16[64,3072] {
  %param_0.491 = bf16[64,6144]{1,0} parameter(0)
  %slice.210.1 = bf16[64,3072]{1,0} slice(bf16[64,6144]{1,0} %param_0.491), slice={[0:64], [0:3072]}, metadata={op_type="xla__select" op_name="xla__select" source_file="/usr/local/lib/python3.10/site-packages/torch/_ops.py" source_line=756}
  %convert.813.6 = f32[64,3072]{1,0} convert(bf16[64,3072]{1,0} %slice.210.1)
  %constant_1_11 = bf16[] constant(1), metadata={op_type="xla__select" op_name="xla__select" source_file="/usr/local/lib/python3.10/site-packages/torch/_ops.py" source_line=756}
  %convert.852.9 = f32[] convert(bf16[] %constant_1_11)
  %broadcast.360.60 = f32[64,3072]{1,0} broadcast(f32[] %convert.852.9), dimensions={}, metadata={op_type="xla__select" op_name="xla__select" source_file="/usr/local/lib/python3.10/site-packages/torch/_ops.py" source_line=756}
  %negate.50.7 = f32[64,3072]{1,0} negate(f32[64,3072]{1,0} %convert.813.6)
  %convert.820.5 = bf16[64,3072]{1,0} convert(f32[64,3072]{1,0} %negate.50.7)
  %exponential.50.3 = bf16[64,3072]{1,0} exponential(bf16[64,3072]{1,0} %convert.820.5)
  %convert.821.1 = f32[64,3072]{1,0} convert(bf16[64,3072]{1,0} %exponential.50.3)
  %add.214.5 = f32[64,3072]{1,0} add(f32[64,3072]{1,0} %broadcast.360.60, f32[64,3072]{1,0} %convert.821.1)
  %divide.50.3 = f32[64,3072]{1,0} divide(f32[64,3072]{1,0} %broadcast.360.60, f32[64,3072]{1,0} %add.214.5), metadata={op_type="aten__silu" op_name="aten__silu" source_file="/usr/local/lib/python3.10/site-packages/torch/_ops.py" source_line=756}
  %multiply.352.3 = f32[64,3072]{1,0} multiply(f32[64,3072]{1,0} %convert.813.6, f32[64,3072]{1,0} %divide.50.3), metadata={op_type="aten__silu" op_name="aten__silu" source_file="/usr/local/lib/python3.10/site-packages/torch/_ops.py" source_line=756}
  %slice.211.1 = bf16[64,3072]{1,0} slice(bf16[64,6144]{1,0} %param_0.491), slice={[0:64], [3072:6144]}, metadata={op_type="xla__select" op_name="xla__select" source_file="/usr/local/lib/python3.10/site-packages/torch/_ops.py" source_line=756}
  %convert.823.1 = f32[64,3072]{1,0} convert(bf16[64,3072]{1,0} %slice.211.1), metadata={op_type="xla__cast" op_name="xla__cast" source_file="/usr/local/lib/python3.10/site-packages/torch/_ops.py" source_line=756}
  %multiply.353.1 = f32[64,3072]{1,0} multiply(f32[64,3072]{1,0} %multiply.352.3, f32[64,3072]{1,0} %convert.823.1), metadata={op_type="aten__mul" op_name="aten__mul.1229/aten__mul" source_file="/usr/local/lib/python3.10/site-packages/torch/_ops.py" source_line=756}
  ROOT %convert.824.1 = bf16[64,3072]{1,0} convert(f32[64,3072]{1,0} %multiply.353.1), metadata={op_type="xla__cast" op_name="xla__cast" source_file="/usr/local/lib/python3.10/site-packages/torch/_ops.py" source_line=756}
}

%fused_computation.128 (param_0.582: f32[], param_1.459: bf16[1024], param_2.291: f32[64,1024], param_3.268: bf16[64,1024], param_4.140: bf16[64,13312], param_5.25: bf16[64,1024]) -> bf16[64,1024] {
  %param_4.140 = bf16[64,13312]{1,0} parameter(4)
  %convert.654.77 = f32[64,13312]{1,0} convert(bf16[64,13312]{1,0} %param_4.140), metadata={op_type="xla__cast" op_name="xla__cast" source_file="/usr/local/lib/python3.10/site-packages/torch/_ops.py" source_line=756}
  %slice.174.5 = f32[64,1024]{1,0} slice(f32[64,13312]{1,0} %convert.654.77), slice={[0:64], [0:1024]}, metadata={op_type="aten__mm" op_name="aten__mm" source_file="/usr/local/lib/python3.10/site-packages/torch/_ops.py" source_line=756}
  %param_5.25 = bf16[64,1024]{1,0} parameter(5)
  %convert.825.3 = f32[64,1024]{1,0} convert(bf16[64,1024]{1,0} %param_5.25), metadata={op_type="xla__cast" op_name="xla__cast" source_file="/usr/local/lib/python3.10/site-packages/torch/_ops.py" source_line=756}
  %slice.176.9 = f32[64,1024]{1,0} slice(f32[64,13312]{1,0} %convert.654.77), slice={[0:64], [1024:2048]}, metadata={op_type="aten__mm" op_name="aten__mm" source_file="/usr/local/lib/python3.10/site-packages/torch/_ops.py" source_line=756}
  %param_3.268 = bf16[64,1024]{1,0} parameter(3)
  %convert.810.7 = f32[64,1024]{1,0} convert(bf16[64,1024]{1,0} %param_3.268), metadata={op_type="xla__cast" op_name="xla__cast" source_file="/usr/local/lib/python3.10/site-packages/torch/_ops.py" source_line=756}
  %param_2.291 = f32[64,1024]{1,0} parameter(2)
  %add.212.7 = f32[64,1024]{1,0} add(f32[64,1024]{1,0} %convert.810.7, f32[64,1024]{1,0} %param_2.291), metadata={op_type="aten__add" op_name="aten__add.1212/aten__add" source_file="/usr/local/lib/python3.10/site-packages/torch/_ops.py" source_line=756}
  %add.213.7 = f32[64,1024]{1,0} add(f32[64,1024]{1,0} %slice.176.9, f32[64,1024]{1,0} %add.212.7), metadata={op_type="aten__add" op_name="aten__add.1225/aten__add" source_file="/usr/local/lib/python3.10/site-packages/torch/_ops.py" source_line=756}
  %add.215.3 = f32[64,1024]{1,0} add(f32[64,1024]{1,0} %convert.825.3, f32[64,1024]{1,0} %add.213.7), metadata={op_type="aten__add" op_name="aten__add.1230/aten__add" source_file="/usr/local/lib/python3.10/site-packages/torch/_ops.py" source_line=756}
  %add.216.3 = f32[64,1024]{1,0} add(f32[64,1024]{1,0} %slice.174.5, f32[64,1024]{1,0} %add.215.3), metadata={op_type="aten__add" op_name="aten__add.1243/aten__add" source_file="/usr/local/lib/python3.10/site-packages/torch/_ops.py" source_line=756}
  %multiply.450 = f32[64,1024]{1,0} multiply(f32[64,1024]{1,0} %add.216.3, f32[64,1024]{1,0} %add.216.3), metadata={op_type="aten__pow" op_name="aten__pow" source_file="/usr/local/lib/python3.10/site-packages/torch/_ops.py" source_line=756}
  %constant_391 = f32[] constant(0), metadata={op_type="aten__mean" op_name="aten__mean" source_file="/usr/local/lib/python3.10/site-packages/torch/_ops.py" source_line=756}
  %reduce.55 = f32[64]{0} reduce(f32[64,1024]{1,0} %multiply.450, f32[] %constant_391), dimensions={1}, to_apply=%AddComputation.72, metadata={op_type="aten__mean" op_name="aten__mean" source_file="/usr/local/lib/python3.10/site-packages/torch/_ops.py" source_line=756}
  %constant_390 = f32[] constant(0.0009765625), metadata={op_type="aten__mean" op_name="aten__mean" source_file="/usr/local/lib/python3.10/site-packages/torch/_ops.py" source_line=756}
  %broadcast.506 = f32[64]{0} broadcast(f32[] %constant_390), dimensions={}, metadata={op_type="aten__mean" op_name="aten__mean" source_file="/usr/local/lib/python3.10/site-packages/torch/_ops.py" source_line=756}
  %multiply.449 = f32[64]{0} multiply(f32[64]{0} %reduce.55, f32[64]{0} %broadcast.506), metadata={op_type="aten__mean" op_name="aten__mean" source_file="/usr/local/lib/python3.10/site-packages/torch/_ops.py" source_line=756}
  %param_0.582 = f32[] parameter(0)
  %broadcast.505 = f32[64]{0} broadcast(f32[] %param_0.582), dimensions={}, metadata={op_type="aten__add" op_name="aten__add.1028/aten__add" source_file="/usr/local/lib/python3.10/site-packages/torch/_ops.py" source_line=756}
  %add.247 = f32[64]{0} add(f32[64]{0} %multiply.449, f32[64]{0} %broadcast.505), metadata={op_type="aten__add" op_name="aten__add.1244/aten__add" source_file="/usr/local/lib/python3.10/site-packages/torch/_ops.py" source_line=756}
  %rsqrt.101 = f32[64]{0} rsqrt(f32[64]{0} %add.247), metadata={op_type="aten__rsqrt" op_name="aten__rsqrt" source_file="/usr/local/lib/python3.10/site-packages/torch/_ops.py" source_line=756}
  %broadcast.504 = f32[64,1024]{1,0} broadcast(f32[64]{0} %rsqrt.101), dimensions={0}, metadata={op_type="aten__mul" op_name="aten__mul.1245/aten__mul" source_file="/usr/local/lib/python3.10/site-packages/torch/_ops.py" source_line=756}
  %multiply.447 = f32[64,1024]{1,0} multiply(f32[64,1024]{1,0} %add.216.3, f32[64,1024]{1,0} %broadcast.504), metadata={op_type="aten__mul" op_name="aten__mul.1245/aten__mul" source_file="/usr/local/lib/python3.10/site-packages/torch/_ops.py" source_line=756}
  %param_1.459 = bf16[1024]{0} parameter(1)
  %convert.827.1 = f32[1024]{0} convert(bf16[1024]{0} %param_1.459), metadata={op_type="xla__cast" op_name="xla__cast" source_file="/usr/local/lib/python3.10/site-packages/torch/_ops.py" source_line=756}
  %broadcast.351.1 = f32[64,1024]{1,0} broadcast(f32[1024]{0} %convert.827.1), dimensions={1}, metadata={op_type="aten__mul" op_name="aten__mul.1246/aten__mul" source_file="/usr/local/lib/python3.10/site-packages/torch/_ops.py" source_line=756}
  %multiply.354.1 = f32[64,1024]{1,0} multiply(f32[64,1024]{1,0} %multiply.447, f32[64,1024]{1,0} %broadcast.351.1), metadata={op_type="aten__mul" op_name="aten__mul.1246/aten__mul" source_file="/usr/local/lib/python3.10/site-packages/torch/_ops.py" source_line=756}
  ROOT %convert.829.1 = bf16[64,1024]{1,0} convert(f32[64,1024]{1,0} %multiply.354.1), metadata={op_type="xla__cast" op_name="xla__cast" source_file="/usr/local/lib/python3.10/site-packages/torch/_ops.py" source_line=756}
}

%fused_convert (param_0.483: bf16[64,6144]) -> bf16[64,3072] {
  %param_0.483 = bf16[64,6144]{1,0} parameter(0)
  %slice.212.1 = bf16[64,3072]{1,0} slice(bf16[64,6144]{1,0} %param_0.483), slice={[0:64], [0:3072]}, metadata={op_type="xla__select" op_name="xla__select" source_file="/usr/local/lib/python3.10/site-packages/torch/_ops.py" source_line=756}
  %convert.831.6 = f32[64,3072]{1,0} convert(bf16[64,3072]{1,0} %slice.212.1)
  %constant_1_3 = bf16[] constant(1), metadata={op_type="xla__select" op_name="xla__select" source_file="/usr/local/lib/python3.10/site-packages/torch/_ops.py" source_line=756}
  %convert.852.1 = f32[] convert(bf16[] %constant_1_3)
  %broadcast.360.56 = f32[64,3072]{1,0} broadcast(f32[] %convert.852.1), dimensions={}, metadata={op_type="xla__select" op_name="xla__select" source_file="/usr/local/lib/python3.10/site-packages/torch/_ops.py" source_line=756}
  %negate.51.7 = f32[64,3072]{1,0} negate(f32[64,3072]{1,0} %convert.831.6)
  %convert.837.5 = bf16[64,3072]{1,0} convert(f32[64,3072]{1,0} %negate.51.7)
  %exponential.51.3 = bf16[64,3072]{1,0} exponential(bf16[64,3072]{1,0} %convert.837.5)
  %convert.838.1 = f32[64,3072]{1,0} convert(bf16[64,3072]{1,0} %exponential.51.3)
  %add.217.5 = f32[64,3072]{1,0} add(f32[64,3072]{1,0} %broadcast.360.56, f32[64,3072]{1,0} %convert.838.1)
  %divide.51.3 = f32[64,3072]{1,0} divide(f32[64,3072]{1,0} %broadcast.360.56, f32[64,3072]{1,0} %add.217.5), metadata={op_type="aten__silu" op_name="aten__silu" source_file="/usr/local/lib/python3.10/site-packages/torch/_ops.py" source_line=756}
  %multiply.355.3 = f32[64,3072]{1,0} multiply(f32[64,3072]{1,0} %convert.831.6, f32[64,3072]{1,0} %divide.51.3), metadata={op_type="aten__silu" op_name="aten__silu" source_file="/usr/local/lib/python3.10/site-packages/torch/_ops.py" source_line=756}
  %slice.213.1 = bf16[64,3072]{1,0} slice(bf16[64,6144]{1,0} %param_0.483), slice={[0:64], [3072:6144]}, metadata={op_type="xla__select" op_name="xla__select" source_file="/usr/local/lib/python3.10/site-packages/torch/_ops.py" source_line=756}
  %convert.839.1 = f32[64,3072]{1,0} convert(bf16[64,3072]{1,0} %slice.213.1), metadata={op_type="xla__cast" op_name="xla__cast" source_file="/usr/local/lib/python3.10/site-packages/torch/_ops.py" source_line=756}
  %multiply.356.1 = f32[64,3072]{1,0} multiply(f32[64,3072]{1,0} %multiply.355.3, f32[64,3072]{1,0} %convert.839.1), metadata={op_type="aten__mul" op_name="aten__mul.1247/aten__mul" source_file="/usr/local/lib/python3.10/site-packages/torch/_ops.py" source_line=756}
  ROOT %convert.840.1 = bf16[64,3072]{1,0} convert(f32[64,3072]{1,0} %multiply.356.1), metadata={op_type="xla__cast" op_name="xla__cast" source_file="/usr/local/lib/python3.10/site-packages/torch/_ops.py" source_line=756}
}

%fused_computation.126 (param_0.556: f32[], param_1.461: bf16[64,1024], param_2.293: bf16[1024], param_3.271: f32[64,1024], param_4.144: bf16[64,1024], param_5.30: bf16[64,13312], param_6.12: bf16[64,1024]) -> bf16[64,1024] {
  %param_1.461 = bf16[64,1024]{1,0} parameter(1)
  %convert.841.5 = f32[64,1024]{1,0} convert(bf16[64,1024]{1,0} %param_1.461), metadata={op_type="xla__cast" op_name="xla__cast" source_file="/usr/local/lib/python3.10/site-packages/torch/_ops.py" source_line=756}
  %param_5.30 = bf16[64,13312]{1,0} parameter(5)
  %convert.654.81 = f32[64,13312]{1,0} convert(bf16[64,13312]{1,0} %param_5.30), metadata={op_type="xla__cast" op_name="xla__cast" source_file="/usr/local/lib/python3.10/site-packages/torch/_ops.py" source_line=756}
  %slice.174.7 = f32[64,1024]{1,0} slice(f32[64,13312]{1,0} %convert.654.81), slice={[0:64], [0:1024]}, metadata={op_type="aten__mm" op_name="aten__mm" source_file="/usr/local/lib/python3.10/site-packages/torch/_ops.py" source_line=756}
  %param_6.12 = bf16[64,1024]{1,0} parameter(6)
  %convert.825.5 = f32[64,1024]{1,0} convert(bf16[64,1024]{1,0} %param_6.12), metadata={op_type="xla__cast" op_name="xla__cast" source_file="/usr/local/lib/python3.10/site-packages/torch/_ops.py" source_line=756}
  %slice.176.11 = f32[64,1024]{1,0} slice(f32[64,13312]{1,0} %convert.654.81), slice={[0:64], [1024:2048]}, metadata={op_type="aten__mm" op_name="aten__mm" source_file="/usr/local/lib/python3.10/site-packages/torch/_ops.py" source_line=756}
  %param_4.144 = bf16[64,1024]{1,0} parameter(4)
  %convert.810.9 = f32[64,1024]{1,0} convert(bf16[64,1024]{1,0} %param_4.144), metadata={op_type="xla__cast" op_name="xla__cast" source_file="/usr/local/lib/python3.10/site-packages/torch/_ops.py" source_line=756}
  %param_3.271 = f32[64,1024]{1,0} parameter(3)
  %add.212.9 = f32[64,1024]{1,0} add(f32[64,1024]{1,0} %convert.810.9, f32[64,1024]{1,0} %param_3.271), metadata={op_type="aten__add" op_name="aten__add.1212/aten__add" source_file="/usr/local/lib/python3.10/site-packages/torch/_ops.py" source_line=756}
  %add.213.9 = f32[64,1024]{1,0} add(f32[64,1024]{1,0} %slice.176.11, f32[64,1024]{1,0} %add.212.9), metadata={op_type="aten__add" op_name="aten__add.1225/aten__add" source_file="/usr/local/lib/python3.10/site-packages/torch/_ops.py" source_line=756}
  %add.215.5 = f32[64,1024]{1,0} add(f32[64,1024]{1,0} %convert.825.5, f32[64,1024]{1,0} %add.213.9), metadata={op_type="aten__add" op_name="aten__add.1230/aten__add" source_file="/usr/local/lib/python3.10/site-packages/torch/_ops.py" source_line=756}
  %add.216.5 = f32[64,1024]{1,0} add(f32[64,1024]{1,0} %slice.174.7, f32[64,1024]{1,0} %add.215.5), metadata={op_type="aten__add" op_name="aten__add.1243/aten__add" source_file="/usr/local/lib/python3.10/site-packages/torch/_ops.py" source_line=756}
  %add.218.5 = f32[64,1024]{1,0} add(f32[64,1024]{1,0} %convert.841.5, f32[64,1024]{1,0} %add.216.5), metadata={op_type="aten__add" op_name="aten__add.1248/aten__add" source_file="/usr/local/lib/python3.10/site-packages/torch/_ops.py" source_line=756}
  %multiply.457 = f32[64,1024]{1,0} multiply(f32[64,1024]{1,0} %add.218.5, f32[64,1024]{1,0} %add.218.5), metadata={op_type="aten__pow" op_name="aten__pow" source_file="/usr/local/lib/python3.10/site-packages/torch/_ops.py" source_line=756}
  %constant_396 = f32[] constant(0), metadata={op_type="aten__mean" op_name="aten__mean" source_file="/usr/local/lib/python3.10/site-packages/torch/_ops.py" source_line=756}
  %reduce.57 = f32[64]{0} reduce(f32[64,1024]{1,0} %multiply.457, f32[] %constant_396), dimensions={1}, to_apply=%AddComputation.72, metadata={op_type="aten__mean" op_name="aten__mean" source_file="/usr/local/lib/python3.10/site-packages/torch/_ops.py" source_line=756}
  %constant_395 = f32[] constant(0.0009765625), metadata={op_type="aten__mean" op_name="aten__mean" source_file="/usr/local/lib/python3.10/site-packages/torch/_ops.py" source_line=756}
  %broadcast.512 = f32[64]{0} broadcast(f32[] %constant_395), dimensions={}, metadata={op_type="aten__mean" op_name="aten__mean" source_file="/usr/local/lib/python3.10/site-packages/torch/_ops.py" source_line=756}
  %multiply.456 = f32[64]{0} multiply(f32[64]{0} %reduce.57, f32[64]{0} %broadcast.512), metadata={op_type="aten__mean" op_name="aten__mean" source_file="/usr/local/lib/python3.10/site-packages/torch/_ops.py" source_line=756}
  %param_0.556 = f32[] parameter(0)
  %broadcast.511 = f32[64]{0} broadcast(f32[] %param_0.556), dimensions={}, metadata={op_type="aten__add" op_name="aten__add.1028/aten__add" source_file="/usr/local/lib/python3.10/site-packages/torch/_ops.py" source_line=756}
  %add.249 = f32[64]{0} add(f32[64]{0} %multiply.456, f32[64]{0} %broadcast.511), metadata={op_type="aten__add" op_name="aten__add.1249/aten__add" source_file="/usr/local/lib/python3.10/site-packages/torch/_ops.py" source_line=756}
  %rsqrt.103 = f32[64]{0} rsqrt(f32[64]{0} %add.249), metadata={op_type="aten__rsqrt" op_name="aten__rsqrt" source_file="/usr/local/lib/python3.10/site-packages/torch/_ops.py" source_line=756}
  %broadcast.510 = f32[64,1024]{1,0} broadcast(f32[64]{0} %rsqrt.103), dimensions={0}, metadata={op_type="aten__mul" op_name="aten__mul.1250/aten__mul" source_file="/usr/local/lib/python3.10/site-packages/torch/_ops.py" source_line=756}
  %multiply.455 = f32[64,1024]{1,0} multiply(f32[64,1024]{1,0} %add.218.5, f32[64,1024]{1,0} %broadcast.510), metadata={op_type="aten__mul" op_name="aten__mul.1250/aten__mul" source_file="/usr/local/lib/python3.10/site-packages/torch/_ops.py" source_line=756}
  %param_2.293 = bf16[1024]{0} parameter(2)
  %convert.842.1 = f32[1024]{0} convert(bf16[1024]{0} %param_2.293), metadata={op_type="xla__cast" op_name="xla__cast" source_file="/usr/local/lib/python3.10/site-packages/torch/_ops.py" source_line=756}
  %broadcast.354.1 = f32[64,1024]{1,0} broadcast(f32[1024]{0} %convert.842.1), dimensions={1}, metadata={op_type="aten__mul" op_name="aten__mul.1251/aten__mul" source_file="/usr/local/lib/python3.10/site-packages/torch/_ops.py" source_line=756}
  %multiply.357.1 = f32[64,1024]{1,0} multiply(f32[64,1024]{1,0} %multiply.455, f32[64,1024]{1,0} %broadcast.354.1), metadata={op_type="aten__mul" op_name="aten__mul.1251/aten__mul" source_file="/usr/local/lib/python3.10/site-packages/torch/_ops.py" source_line=756}
  ROOT %convert.843.1 = bf16[64,1024]{1,0} convert(f32[64,1024]{1,0} %multiply.357.1), metadata={op_type="xla__cast" op_name="xla__cast" source_file="/usr/local/lib/python3.10/site-packages/torch/_ops.py" source_line=756}
}

%wrapped_slice_computation (param_0.600: bf16[64,4096]) -> bf16[64,1024] {
  %param_0.600 = bf16[64,4096]{1,0} parameter(0)
  ROOT %slice.219.1 = bf16[64,1024]{1,0} slice(bf16[64,4096]{1,0} %param_0.600), slice={[0:64], [3072:4096]}, metadata={op_type="aten__split" op_name="aten__split" source_file="/usr/local/lib/python3.10/site-packages/torch/_ops.py" source_line=756}
}

%triton_softmax_computation.15 (param_0.390: f32[], param_1.386: bf16[64,4096]) -> f32[64,8,128] {
  %param_1.386 = bf16[64,4096]{1,0} parameter(1)
  %slice.214.1 = bf16[64,1024]{1,0} slice(bf16[64,4096]{1,0} %param_1.386), slice={[0:64], [2048:3072]}, metadata={op_type="aten__split" op_name="aten__split" source_file="/usr/local/lib/python3.10/site-packages/torch/_ops.py" source_line=756}
  %bitcast.2759.3 = bf16[64,8,128]{2,1,0} bitcast(bf16[64,1024]{1,0} %slice.214.1)
  %convert.844.3 = f32[64,8,128]{2,1,0} convert(bf16[64,8,128]{2,1,0} %bitcast.2759.3), metadata={op_type="xla__cast" op_name="xla__cast" source_file="/usr/local/lib/python3.10/site-packages/torch/_ops.py" source_line=756}
  %multiply.264 = f32[64,8,128]{2,1,0} multiply(f32[64,8,128]{2,1,0} %convert.844.3, f32[64,8,128]{2,1,0} %convert.844.3), metadata={op_type="aten__pow" op_name="aten__pow" source_file="/usr/local/lib/python3.10/site-packages/torch/_ops.py" source_line=756}
  %constant_177 = f32[] constant(0), metadata={op_type="aten__mean" op_name="aten__mean" source_file="/usr/local/lib/python3.10/site-packages/torch/_ops.py" source_line=756}
  %reduce.15 = f32[64,8]{1,0} reduce(f32[64,8,128]{2,1,0} %multiply.264, f32[] %constant_177), dimensions={2}, to_apply=%AddComputation.72, metadata={op_type="aten__mean" op_name="aten__mean" source_file="/usr/local/lib/python3.10/site-packages/torch/_ops.py" source_line=756}
  %constant_178 = f32[] constant(0.0078125), metadata={op_type="aten__mean" op_name="aten__mean" source_file="/usr/local/lib/python3.10/site-packages/torch/_ops.py" source_line=756}
  %broadcast.258 = f32[64,8]{1,0} broadcast(f32[] %constant_178), dimensions={}, metadata={op_type="aten__mean" op_name="aten__mean" source_file="/usr/local/lib/python3.10/site-packages/torch/_ops.py" source_line=756}
  %multiply.265 = f32[64,8]{1,0} multiply(f32[64,8]{1,0} %reduce.15, f32[64,8]{1,0} %broadcast.258), metadata={op_type="aten__mean" op_name="aten__mean" source_file="/usr/local/lib/python3.10/site-packages/torch/_ops.py" source_line=756}
  %param_0.390 = f32[] parameter(0)
  %broadcast.259 = f32[64,8]{1,0} broadcast(f32[] %param_0.390), dimensions={}, metadata={op_type="aten__add" op_name="aten__add.1252/aten__add" source_file="/usr/local/lib/python3.10/site-packages/torch/_ops.py" source_line=756}
  %add.161 = f32[64,8]{1,0} add(f32[64,8]{1,0} %multiply.265, f32[64,8]{1,0} %broadcast.259), metadata={op_type="aten__add" op_name="aten__add.1252/aten__add" source_file="/usr/local/lib/python3.10/site-packages/torch/_ops.py" source_line=756}
  %rsqrt.60 = f32[64,8]{1,0} rsqrt(f32[64,8]{1,0} %add.161), metadata={op_type="aten__rsqrt" op_name="aten__rsqrt" source_file="/usr/local/lib/python3.10/site-packages/torch/_ops.py" source_line=756}
  %broadcast.260 = f32[64,8,128]{2,1,0} broadcast(f32[64,8]{1,0} %rsqrt.60), dimensions={0,1}, metadata={op_type="aten__mul" op_name="aten__mul.1253/aten__mul" source_file="/usr/local/lib/python3.10/site-packages/torch/_ops.py" source_line=756}
  ROOT %multiply.266 = f32[64,8,128]{2,1,0} multiply(f32[64,8,128]{2,1,0} %convert.844.3, f32[64,8,128]{2,1,0} %broadcast.260), metadata={op_type="aten__mul" op_name="aten__mul.1253/aten__mul" source_file="/usr/local/lib/python3.10/site-packages/torch/_ops.py" source_line=756}
}

%fused_concatenate (param_0.580: f32[64,8,128], param_1.455: bf16[128], param_2.294: bf16[40960,128], param_3.273: s32[64]) -> bf16[64,8,128] {
  %param_0.580 = f32[64,8,128]{2,1,0} parameter(0)
  %param_1.455 = bf16[128]{0} parameter(1)
  %convert.845.1 = f32[128]{0} convert(bf16[128]{0} %param_1.455), metadata={op_type="xla__cast" op_name="xla__cast" source_file="/usr/local/lib/python3.10/site-packages/torch/_ops.py" source_line=756}
  %broadcast.355.18 = f32[64,8,128]{2,1,0} broadcast(f32[128]{0} %convert.845.1), dimensions={2}, metadata={op_type="aten__mul" op_name="aten__mul.1254/aten__mul" source_file="/usr/local/lib/python3.10/site-packages/torch/_ops.py" source_line=756}
  %multiply.358.18 = f32[64,8,128]{2,1,0} multiply(f32[64,8,128]{2,1,0} %param_0.580, f32[64,8,128]{2,1,0} %broadcast.355.18), metadata={op_type="aten__mul" op_name="aten__mul.1254/aten__mul" source_file="/usr/local/lib/python3.10/site-packages/torch/_ops.py" source_line=756}
  %slice.215.9 = f32[64,8,64]{2,1,0} slice(f32[64,8,128]{2,1,0} %multiply.358.18), slice={[0:64], [0:8], [0:64]}, metadata={op_type="aten__split" op_name="aten__split" source_file="/usr/local/lib/python3.10/site-packages/torch/_ops.py" source_line=756}
  %param_2.294 = bf16[40960,128]{1,0} parameter(2)
  %param_3.273 = s32[64]{0} parameter(3)
  %bitcast.2775.3 = s32[64,1]{1,0} bitcast(s32[64]{0} %param_3.273)
  %gather.1.3 = bf16[64,1,128]{2,0,1} gather(bf16[40960,128]{1,0} %param_2.294, s32[64,1]{1,0} %bitcast.2775.3), offset_dims={1,2}, collapsed_slice_dims={}, start_index_map={0}, index_vector_dim=1, slice_sizes={1,128}, metadata={op_type="aten__index_select" op_name="aten__index_select" source_file="/usr/local/lib/python3.10/site-packages/torch/_ops.py" source_line=756}
  %bitcast.2778.7 = bf16[64,128]{1,0} bitcast(bf16[64,1,128]{2,0,1} %gather.1.3)
  %convert.847.7 = f32[64,128]{1,0} convert(bf16[64,128]{1,0} %bitcast.2778.7), metadata={op_type="xla__cast" op_name="xla__cast" source_file="/usr/local/lib/python3.10/site-packages/torch/_ops.py" source_line=756}
  %slice.216.3 = f32[64,64]{1,0} slice(f32[64,128]{1,0} %convert.847.7), slice={[0:64], [0:64]}, metadata={op_type="aten__split" op_name="aten__split" source_file="/usr/local/lib/python3.10/site-packages/torch/_ops.py" source_line=756}
  %broadcast.357.14 = f32[64,8,64]{2,1,0} broadcast(f32[64,64]{1,0} %slice.216.3), dimensions={0,2}, metadata={op_type="aten__mul" op_name="aten__mul.1255/aten__mul" source_file="/usr/local/lib/python3.10/site-packages/torch/_ops.py" source_line=756}
  %multiply.359.7 = f32[64,8,64]{2,1,0} multiply(f32[64,8,64]{2,1,0} %slice.215.9, f32[64,8,64]{2,1,0} %broadcast.357.14), metadata={op_type="aten__mul" op_name="aten__mul.1255/aten__mul" source_file="/usr/local/lib/python3.10/site-packages/torch/_ops.py" source_line=756}
  %slice.217.9 = f32[64,8,64]{2,1,0} slice(f32[64,8,128]{2,1,0} %multiply.358.18), slice={[0:64], [0:8], [64:128]}, metadata={op_type="aten__split" op_name="aten__split" source_file="/usr/local/lib/python3.10/site-packages/torch/_ops.py" source_line=756}
  %slice.218.3 = f32[64,64]{1,0} slice(f32[64,128]{1,0} %convert.847.7), slice={[0:64], [64:128]}, metadata={op_type="aten__split" op_name="aten__split" source_file="/usr/local/lib/python3.10/site-packages/torch/_ops.py" source_line=756}
  %broadcast.358.10 = f32[64,8,64]{2,1,0} broadcast(f32[64,64]{1,0} %slice.218.3), dimensions={0,2}, metadata={op_type="aten__mul" op_name="aten__mul.1256/aten__mul" source_file="/usr/local/lib/python3.10/site-packages/torch/_ops.py" source_line=756}
  %multiply.360.5 = f32[64,8,64]{2,1,0} multiply(f32[64,8,64]{2,1,0} %slice.217.9, f32[64,8,64]{2,1,0} %broadcast.358.10), metadata={op_type="aten__mul" op_name="aten__mul.1256/aten__mul" source_file="/usr/local/lib/python3.10/site-packages/torch/_ops.py" source_line=756}
  %subtract.2.5 = f32[64,8,64]{2,1,0} subtract(f32[64,8,64]{2,1,0} %multiply.359.7, f32[64,8,64]{2,1,0} %multiply.360.5), metadata={op_type="aten__sub" op_name="aten__sub.1257/aten__sub" source_file="/usr/local/lib/python3.10/site-packages/torch/_ops.py" source_line=756}
  %convert.848.3 = bf16[64,8,64]{2,1,0} convert(f32[64,8,64]{2,1,0} %subtract.2.5)
  %multiply.361.7 = f32[64,8,64]{2,1,0} multiply(f32[64,8,64]{2,1,0} %slice.217.9, f32[64,8,64]{2,1,0} %broadcast.357.14), metadata={op_type="aten__mul" op_name="aten__mul.1258/aten__mul" source_file="/usr/local/lib/python3.10/site-packages/torch/_ops.py" source_line=756}
  %multiply.362.5 = f32[64,8,64]{2,1,0} multiply(f32[64,8,64]{2,1,0} %slice.215.9, f32[64,8,64]{2,1,0} %broadcast.358.10), metadata={op_type="aten__mul" op_name="aten__mul.1259/aten__mul" source_file="/usr/local/lib/python3.10/site-packages/torch/_ops.py" source_line=756}
  %add.220.5 = f32[64,8,64]{2,1,0} add(f32[64,8,64]{2,1,0} %multiply.361.7, f32[64,8,64]{2,1,0} %multiply.362.5), metadata={op_type="aten__add" op_name="aten__add.1260/aten__add" source_file="/usr/local/lib/python3.10/site-packages/torch/_ops.py" source_line=756}
  %convert.849.3 = bf16[64,8,64]{2,1,0} convert(f32[64,8,64]{2,1,0} %add.220.5)
  ROOT %concatenate.30.1 = bf16[64,8,128]{2,1,0} concatenate(bf16[64,8,64]{2,1,0} %convert.848.3, bf16[64,8,64]{2,1,0} %convert.849.3), dimensions={2}, metadata={op_type="aten__cat" op_name="aten__cat" source_file="/usr/local/lib/python3.10/site-packages/torch/_ops.py" source_line=756}
}

%fused_slice (param_0.1: bf16[2,4233,16,8,128]) -> bf16[69353472] {
  %param_0.1 = bf16[2,4233,16,8,128]{4,3,2,1,0} parameter(0)
  %bitcast.2819.1 = bf16[138706944]{0} bitcast(bf16[2,4233,16,8,128]{4,3,2,1,0} %param_0.1)
  ROOT %slice.221.1 = bf16[69353472]{0} slice(bf16[138706944]{0} %bitcast.2819.1), slice={[69353472:138706944]}, metadata={op_type="aten__as_strided" op_name="aten__as_strided" source_file="/usr/local/lib/python3.10/site-packages/torch/_higher_order_ops/auto_functionalize.py" source_line=54}
}

%wrapped_slice_computation.1 (param_0.601: bf16[2,4233,16,8,128]) -> bf16[1,4233,16,8,128] {
…
  %loop_convert_fusion.8 = bf16[64,3072]{1,0} fusion(bf16[64,6144]{1,0} %get-tuple-element.8.0), kind=kLoop, calls=%fused_convert.8, metadata={op_type="xla__cast" op_name="xla__cast" source_file="/usr/local/lib/python3.10/site-packages/torch/_ops.py" source_line=756 deduplicated_name="loop_convert_fusion"}
  %custom-call.36.0 = (bf16[64,1024]{1,0}, s8[4194304]{0}) custom-call(bf16[64,3072]{1,0} %loop_convert_fusion.8, bf16[1024,3072]{1,0} %p.30), custom_call_target="__cublas$gemm", metadata={op_type="aten__mm" op_name="aten__mm" source_file="/usr/local/lib/python3.10/site-packages/torch/_ops.py" source_line=756}, backend_config={"operation_queue_id":"0","wait_on_operation_queues":[],"gemm_backend_config":{"alpha_real":1,"alpha_imag":0,"beta":0,"dot_dimension_numbers":{"lhs_contracting_dimensions":["1"],"rhs_contracting_dimensions":["1"],"lhs_batch_dimensions":[],"rhs_batch_dimensions":[]},"precision_config":{"operand_precision":["DEFAULT","DEFAULT"],"algorithm":"ALG_UNSET"},"epilogue":"DEFAULT","damax_output":false,"lhs_stride":"196608","rhs_stride":"3145728","grad_x":false,"grad_y":false},"force_earliest_schedule":false}
  %get-tuple-element.9.0 = bf16[64,1024]{1,0} get-tuple-element((bf16[64,1024]{1,0}, s8[4194304]{0}) %custom-call.36.0), index=0, metadata={op_type="aten__mm" op_name="aten__mm" source_file="/usr/local/lib/python3.10/site-packages/torch/_ops.py" source_line=756}
  %fusion.166 = bf16[64,1024]{1,0} fusion(f32[] %p.15, bf16[64,1024]{1,0} %get-tuple-element.9.0, bf16[64,13312]{1,0} %gemm_fusion_dot.51.0, bf16[1024]{0} %p.31, bf16[64,1024]{1,0} %get-tuple-element.5.0, /*index=5*/bf16[64,1024]{1,0} %get-tuple-element.7.0, bf16[64,1,1024]{2,0,1} %loop_gather_fusion, bf16[64,1024]{1,0} %get-tuple-element.1.0, bf16[64,1024]{1,0} %get-tuple-element.3.0), kind=kCustom, calls=%fused_computation.135, metadata={op_type="xla__cast" op_name="xla__cast" source_file="/usr/local/lib/python3.10/site-packages/torch/_ops.py" source_line=756}, backend_config={"operation_queue_id":"0","wait_on_operation_queues":[],"fusion_backend_config":{"kind":"__triton","block_level_fusion_config":{"output_tiles":[{"sizes":["1","1024"]}],"num_warps":"2"}},"force_earliest_schedule":false}
  %custom-call.37.0 = (bf16[64,6144]{1,0}, s8[4194304]{0}) custom-call(bf16[64,1024]{1,0} %fusion.166, bf16[6144,1024]{1,0} %p.32), custom_call_target="__cublas$gemm", metadata={op_type="aten__mm" op_name="aten__mm" source_file="/usr/local/lib/python3.10/site-packages/torch/_ops.py" source_line=756}, backend_config={"operation_queue_id":"0","wait_on_operation_queues":[],"gemm_backend_config":{"alpha_real":1,"alpha_imag":0,"beta":0,"dot_dimension_numbers":{"lhs_contracting_dimensions":["1"],"rhs_contracting_dimensions":["1"],"lhs_batch_dimensions":[],"rhs_batch_dimensions":[]},"precision_config":{"operand_precision":["DEFAULT","DEFAULT"],"algorithm":"ALG_UNSET"},"epilogue":"DEFAULT","damax_output":false,"lhs_stride":"65536","rhs_stride":"6291456","grad_x":false,"grad_y":false},"force_earliest_schedule":false}
  %get-tuple-element.10.0 = bf16[64,6144]{1,0} get-tuple-element((bf16[64,6144]{1,0}, s8[4194304]{0}) %custom-call.37.0), index=0, metadata={op_type="aten__mm" op_name="aten__mm" source_file="/usr/local/lib/python3.10/site-packages/torch/_ops.py" source_line=756}
  %loop_convert_fusion.7 = bf16[64,3072]{1,0} fusion(bf16[64,6144]{1,0} %get-tuple-element.10.0), kind=kLoop, calls=%fused_convert.7, metadata={op_type="xla__cast" op_name="xla__cast" source_file="/usr/local/lib/python3.10/site-packages/torch/_ops.py" source_line=756 deduplicated_name="loop_convert_fusion"}
  %custom-call.38.0 = (bf16[64,1024]{1,0}, s8[4194304]{0}) custom-call(bf16[64,3072]{1,0} %loop_convert_fusion.7, bf16[1024,3072]{1,0} %p.33), custom_call_target="__cublas$gemm", metadata={op_type="aten__mm" op_name="aten__mm" source_file="/usr/local/lib/python3.10/site-packages/torch/_ops.py" source_line=756}, backend_config={"operation_queue_id":"0","wait_on_operation_queues":[],"gemm_backend_config":{"alpha_real":1,"alpha_imag":0,"beta":0,"dot_dimension_numbers":{"lhs_contracting_dimensions":["1"],"rhs_contracting_dimensions":["1"],"lhs_batch_dimensions":[],"rhs_batch_dimensions":[]},"precision_config":{"operand_precision":["DEFAULT","DEFAULT"],"algorithm":"ALG_UNSET"},"epilogue":"DEFAULT","damax_output":false,"lhs_stride":"196608","rhs_stride":"3145728","grad_x":false,"grad_y":false},"force_earliest_schedule":false}
  %get-tuple-element.11.0 = bf16[64,1024]{1,0} get-tuple-element((bf16[64,1024]{1,0}, s8[4194304]{0}) %custom-call.38.0), index=0, metadata={op_type="aten__mm" op_name="aten__mm" source_file="/usr/local/lib/python3.10/site-packages/torch/_ops.py" source_line=756}
  %loop_add_fusion = f32[64,1024]{1,0} fusion(bf16[64,13312]{1,0} %gemm_fusion_dot.51.0, bf16[64,1024]{1,0} %get-tuple-element.11.0, bf16[64,1024]{1,0} %get-tuple-element.9.0, bf16[64,1024]{1,0} %get-tuple-element.5.0, bf16[64,1024]{1,0} %get-tuple-element.7.0, /*index=5*/bf16[64,1,1024]{2,0,1} %loop_gather_fusion, bf16[64,1024]{1,0} %get-tuple-element.1.0, bf16[64,1024]{1,0} %get-tuple-element.3.0), kind=kLoop, calls=%fused_add, metadata={op_type="aten__add" op_name="aten__add.1135/aten__add" source_file="/usr/local/lib/python3.10/site-packages/torch/_ops.py" source_line=756}
  %fusion.165 = bf16[64,1024]{1,0} fusion(f32[64,1024]{1,0} %loop_add_fusion, f32[] %p.15, bf16[1024]{0} %p.34), kind=kCustom, calls=%fused_computation.134, metadata={op_type="xla__cast" op_name="xla__cast" source_file="/usr/local/lib/python3.10/site-packages/torch/_ops.py" source_line=756 deduplicated_name="fusion.161"}, backend_config={"operation_queue_id":"0","wait_on_operation_queues":[],"fusion_backend_config":{"kind":"__triton","block_level_fusion_config":{"output_tiles":[{"sizes":["1","1024"]}],"num_warps":"2"}},"force_earliest_schedule":false}
  %custom-call.39.0 = (bf16[64,6144]{1,0}, s8[4194304]{0}) custom-call(bf16[64,1024]{1,0} %fusion.165, bf16[6144,1024]{1,0} %p.35), custom_call_target="__cublas$gemm", metadata={op_type="aten__mm" op_name="aten__mm" source_file="/usr/local/lib/python3.10/site-packages/torch/_ops.py" source_line=756}, backend_config={"operation_queue_id":"0","wait_on_operation_queues":[],"gemm_backend_config":{"alpha_real":1,"alpha_imag":0,"beta":0,"dot_dimension_numbers":{"lhs_contracting_dimensions":["1"],"rhs_contracting_dimensions":["1"],"lhs_batch_dimensions":[],"rhs_batch_dimensions":[]},"precision_config":{"operand_precision":["DEFAULT","DEFAULT"],"algorithm":"ALG_UNSET"},"epilogue":"DEFAULT","damax_output":false,"lhs_stride":"65536","rhs_stride":"6291456","grad_x":false,"grad_y":false},"force_earliest_schedule":false}
  %get-tuple-element.12.0 = bf16[64,6144]{1,0} get-tuple-element((bf16[64,6144]{1,0}, s8[4194304]{0}) %custom-call.39.0), index=0, metadata={op_type="aten__mm" op_name="aten__mm" source_file="/usr/local/lib/python3.10/site-packages/torch/_ops.py" source_line=756}
  %loop_convert_fusion.6 = bf16[64,3072]{1,0} fusion(bf16[64,6144]{1,0} %get-tuple-element.12.0), kind=kLoop, calls=%fused_convert.6, metadata={op_type="xla__cast" op_name="xla__cast" source_file="/usr/local/lib/python3.10/site-packages/torch/_ops.py" source_line=756 deduplicated_name="loop_convert_fusion"}
  %custom-call.40.0 = (bf16[64,1024]{1,0}, s8[4194304]{0}) custom-call(bf16[64,3072]{1,0} %loop_convert_fusion.6, bf16[1024,3072]{1,0} %p.36), custom_call_target="__cublas$gemm", metadata={op_type="aten__mm" op_name="aten__mm" source_file="/usr/local/lib/python3.10/site-packages/torch/_ops.py" source_line=756}, backend_config={"operation_queue_id":"0","wait_on_operation_queues":[],"gemm_backend_config":{"alpha_real":1,"alpha_imag":0,"beta":0,"dot_dimension_numbers":{"lhs_contracting_dimensions":["1"],"rhs_contracting_dimensions":["1"],"lhs_batch_dimensions":[],"rhs_batch_dimensions":[]},"precision_config":{"operand_precision":["DEFAULT","DEFAULT"],"algorithm":"ALG_UNSET"},"epilogue":"DEFAULT","damax_output":false,"lhs_stride":"196608","rhs_stride":"3145728","grad_x":false,"grad_y":false},"force_earliest_schedule":false}
  %get-tuple-element.13.0 = bf16[64,1024]{1,0} get-tuple-element((bf16[64,1024]{1,0}, s8[4194304]{0}) %custom-call.40.0), index=0, metadata={op_type="aten__mm" op_name="aten__mm" source_file="/usr/local/lib/python3.10/site-packages/torch/_ops.py" source_line=756}
  %fusion.164 = bf16[64,1024]{1,0} fusion(f32[] %p.15, f32[64,1024]{1,0} %loop_add_fusion, bf16[64,1024]{1,0} %get-tuple-element.13.0, bf16[64,13312]{1,0} %gemm_fusion_dot.51.0, bf16[1024]{0} %p.37), kind=kCustom, calls=%fused_computation.133, metadata={op_type="xla__cast" op_name="xla__cast" source_file="/usr/local/lib/python3.10/site-packages/torch/_ops.py" source_line=756}, backend_config={"operation_queue_id":"0","wait_on_operation_queues":[],"fusion_backend_config":{"kind":"__triton","block_level_fusion_config":{"output_tiles":[{"sizes":["1","1024"]}],"num_warps":"2"}},"force_earliest_schedule":false}
  %custom-call.41.0 = (bf16[64,6144]{1,0}, s8[4194304]{0}) custom-call(bf16[64,1024]{1,0} %fusion.164, bf16[6144,1024]{1,0} %p.38), custom_call_target="__cublas$gemm", metadata={op_type="aten__mm" op_name="aten__mm" source_file="/usr/local/lib/python3.10/site-packages/torch/_ops.py" source_line=756}, backend_config={"operation_queue_id":"0","wait_on_operation_queues":[],"gemm_backend_config":{"alpha_real":1,"alpha_imag":0,"beta":0,"dot_dimension_numbers":{"lhs_contracting_dimensions":["1"],"rhs_contracting_dimensions":["1"],"lhs_batch_dimensions":[],"rhs_batch_dimensions":[]},"precision_config":{"operand_precision":["DEFAULT","DEFAULT"],"algorithm":"ALG_UNSET"},"epilogue":"DEFAULT","damax_output":false,"lhs_stride":"65536","rhs_stride":"6291456","grad_x":false,"grad_y":false},"force_earliest_schedule":false}
  %get-tuple-element.14.0 = bf16[64,6144]{1,0} get-tuple-element((bf16[64,6144]{1,0}, s8[4194304]{0}) %custom-call.41.0), index=0, metadata={op_type="aten__mm" op_name="aten__mm" source_file="/usr/local/lib/python3.10/site-packages/torch/_ops.py" source_line=756}
  %loop_convert_fusion.5 = bf16[64,3072]{1,0} fusion(bf16[64,6144]{1,0} %get-tuple-element.14.0), kind=kLoop, calls=%fused_convert.5, metadata={op_type="xla__cast" op_name="xla__cast" source_file="/usr/local/lib/python3.10/site-packages/torch/_ops.py" source_line=756 deduplicated_name="loop_convert_fusion"}
  %custom-call.42.0 = (bf16[64,1024]{1,0}, s8[4194304]{0}) custom-call(bf16[64,3072]{1,0} %loop_convert_fusion.5, bf16[1024,3072]{1,0} %p.39), custom_call_target="__cublas$gemm", metadata={op_type="aten__mm" op_name="aten__mm" source_file="/usr/local/lib/python3.10/site-packages/torch/_ops.py" source_line=756}, backend_config={"operation_queue_id":"0","wait_on_operation_queues":[],"gemm_backend_config":{"alpha_real":1,"alpha_imag":0,"beta":0,"dot_dimension_numbers":{"lhs_contracting_dimensions":["1"],"rhs_contracting_dimensions":["1"],"lhs_batch_dimensions":[],"rhs_batch_dimensions":[]},"precision_config":{"operand_precision":["DEFAULT","DEFAULT"],"algorithm":"ALG_UNSET"},"epilogue":"DEFAULT","damax_output":false,"lhs_stride":"196608","rhs_stride":"3145728","grad_x":false,"grad_y":false},"force_earliest_schedule":false}
  %get-tuple-element.15.0 = bf16[64,1024]{1,0} get-tuple-element((bf16[64,1024]{1,0}, s8[4194304]{0}) %custom-call.42.0), index=0, metadata={op_type="aten__mm" op_name="aten__mm" source_file="/usr/local/lib/python3.10/site-packages/torch/_ops.py" source_line=756}
  %fusion.163 = bf16[64,1024]{1,0} fusion(f32[] %p.15, bf16[1024]{0} %p.40, f32[64,1024]{1,0} %loop_add_fusion, bf16[64,1024]{1,0} %get-tuple-element.13.0, bf16[64,13312]{1,0} %gemm_fusion_dot.51.0, /*index=5*/bf16[64,1024]{1,0} %get-tuple-element.15.0), kind=kCustom, calls=%fused_computation.132, metadata={op_type="xla__cast" op_name="xla__cast" source_file="/usr/local/lib/python3.10/site-packages/torch/_ops.py" source_line=756}, backend_config={"operation_queue_id":"0","wait_on_operation_queues":[],"fusion_backend_config":{"kind":"__triton","block_level_fusion_config":{"output_tiles":[{"sizes":["1","1024"]}],"num_warps":"2"}},"force_earliest_schedule":false}
  %custom-call.43.0 = (bf16[64,6144]{1,0}, s8[4194304]{0}) custom-call(bf16[64,1024]{1,0} %fusion.163, bf16[6144,1024]{1,0} %p.41), custom_call_target="__cublas$gemm", metadata={op_type="aten__mm" op_name="aten__mm" source_file="/usr/local/lib/python3.10/site-packages/torch/_ops.py" source_line=756}, backend_config={"operation_queue_id":"0","wait_on_operation_queues":[],"gemm_backend_config":{"alpha_real":1,"alpha_imag":0,"beta":0,"dot_dimension_numbers":{"lhs_contracting_dimensions":["1"],"rhs_contracting_dimensions":["1"],"lhs_batch_dimensions":[],"rhs_batch_dimensions":[]},"precision_config":{"operand_precision":["DEFAULT","DEFAULT"],"algorithm":"ALG_UNSET"},"epilogue":"DEFAULT","damax_output":false,"lhs_stride":"65536","rhs_stride":"6291456","grad_x":false,"grad_y":false},"force_earliest_schedule":false}
  %get-tuple-element.16.0 = bf16[64,6144]{1,0} get-tuple-element((bf16[64,6144]{1,0}, s8[4194304]{0}) %custom-call.43.0), index=0, metadata={op_type="aten__mm" op_name="aten__mm" source_file="/usr/local/lib/python3.10/site-packages/torch/_ops.py" source_line=756}
  %loop_convert_fusion.4 = bf16[64,3072]{1,0} fusion(bf16[64,6144]{1,0} %get-tuple-element.16.0), kind=kLoop, calls=%fused_convert.4, metadata={op_type="xla__cast" op_name="xla__cast" source_file="/usr/local/lib/python3.10/site-packages/torch/_ops.py" source_line=756 deduplicated_name="loop_convert_fusion"}
  %custom-call.44.0 = (bf16[64,1024]{1,0}, s8[4194304]{0}) custom-call(bf16[64,3072]{1,0} %loop_convert_fusion.4, bf16[1024,3072]{1,0} %p.42), custom_call_target="__cublas$gemm", metadata={op_type="aten__mm" op_name="aten__mm" source_file="/usr/local/lib/python3.10/site-packages/torch/_ops.py" source_line=756}, backend_config={"operation_queue_id":"0","wait_on_operation_queues":[],"gemm_backend_config":{"alpha_real":1,"alpha_imag":0,"beta":0,"dot_dimension_numbers":{"lhs_contracting_dimensions":["1"],"rhs_contracting_dimensions":["1"],"lhs_batch_dimensions":[],"rhs_batch_dimensions":[]},"precision_config":{"operand_precision":["DEFAULT","DEFAULT"],"algorithm":"ALG_UNSET"},"epilogue":"DEFAULT","damax_output":false,"lhs_stride":"196608","rhs_stride":"3145728","grad_x":false,"grad_y":false},"force_earliest_schedule":false}
  %get-tuple-element.17.0 = bf16[64,1024]{1,0} get-tuple-element((bf16[64,1024]{1,0}, s8[4194304]{0}) %custom-call.44.0), index=0, metadata={op_type="aten__mm" op_name="aten__mm" source_file="/usr/local/lib/python3.10/site-packages/torch/_ops.py" source_line=756}
  %fusion.162 = bf16[64,1024]{1,0} fusion(f32[] %p.15, bf16[64,1024]{1,0} %get-tuple-element.17.0, bf16[64,13312]{1,0} %gemm_fusion_dot.51.0, bf16[1024]{0} %p.43, f32[64,1024]{1,0} %loop_add_fusion, /*index=5*/bf16[64,1024]{1,0} %get-tuple-element.13.0, bf16[64,1024]{1,0} %get-tuple-element.15.0), kind=kCustom, calls=%fused_computation.131, metadata={op_type="xla__cast" op_name="xla__cast" source_file="/usr/local/lib/python3.10/site-packages/torch/_ops.py" source_line=756}, backend_config={"operation_queue_id":"0","wait_on_operation_queues":[],"fusion_backend_config":{"kind":"__triton","block_level_fusion_config":{"output_tiles":[{"sizes":["1","1024"]}],"num_warps":"2"}},"force_earliest_schedule":false}
  %custom-call.45.0 = (bf16[64,6144]{1,0}, s8[4194304]{0}) custom-call(bf16[64,1024]{1,0} %fusion.162, bf16[6144,1024]{1,0} %p.44), custom_call_target="__cublas$gemm", metadata={op_type="aten__mm" op_name="aten__mm" source_file="/usr/local/lib/python3.10/site-packages/torch/_ops.py" source_line=756}, backend_config={"operation_queue_id":"0","wait_on_operation_queues":[],"gemm_backend_config":{"alpha_real":1,"alpha_imag":0,"beta":0,"dot_dimension_numbers":{"lhs_contracting_dimensions":["1"],"rhs_contracting_dimensions":["1"],"lhs_batch_dimensions":[],"rhs_batch_dimensions":[]},"precision_config":{"operand_precision":["DEFAULT","DEFAULT"],"algorithm":"ALG_UNSET"},"epilogue":"DEFAULT","damax_output":false,"lhs_stride":"65536","rhs_stride":"6291456","grad_x":false,"grad_y":false},"force_earliest_schedule":false}
  %get-tuple-element.18.0 = bf16[64,6144]{1,0} get-tuple-element((bf16[64,6144]{1,0}, s8[4194304]{0}) %custom-call.45.0), index=0, metadata={op_type="aten__mm" op_name="aten__mm" source_file="/usr/local/lib/python3.10/site-packages/torch/_ops.py" source_line=756}
  %loop_convert_fusion.3 = bf16[64,3072]{1,0} fusion(bf16[64,6144]{1,0} %get-tuple-element.18.0), kind=kLoop, calls=%fused_convert.3, metadata={op_type="xla__cast" op_name="xla__cast" source_file="/usr/local/lib/python3.10/site-packages/torch/_ops.py" source_line=756 deduplicated_name="loop_convert_fusion"}
  %custom-call.46.0 = (bf16[64,1024]{1,0}, s8[4194304]{0}) custom-call(bf16[64,3072]{1,0} %loop_convert_fusion.3, bf16[1024,3072]{1,0} %p.45), custom_call_target="__cublas$gemm", metadata={op_type="aten__mm" op_name="aten__mm" source_file="/usr/local/lib/python3.10/site-packages/torch/_ops.py" source_line=756}, backend_config={"operation_queue_id":"0","wait_on_operation_queues":[],"gemm_backend_config":{"alpha_real":1,"alpha_imag":0,"beta":0,"dot_dimension_numbers":{"lhs_contracting_dimensions":["1"],"rhs_contracting_dimensions":["1"],"lhs_batch_dimensions":[],"rhs_batch_dimensions":[]},"precision_config":{"operand_precision":["DEFAULT","DEFAULT"],"algorithm":"ALG_UNSET"},"epilogue":"DEFAULT","damax_output":false,"lhs_stride":"196608","rhs_stride":"3145728","grad_x":false,"grad_y":false},"force_earliest_schedule":false}
  %get-tuple-element.19.0 = bf16[64,1024]{1,0} get-tuple-element((bf16[64,1024]{1,0}, s8[4194304]{0}) %custom-call.46.0), index=0, metadata={op_type="aten__mm" op_name="aten__mm" source_file="/usr/local/lib/python3.10/site-packages/torch/_ops.py" source_line=756}
  %loop_add_fusion.1 = f32[64,1024]{1,0} fusion(bf16[64,13312]{1,0} %gemm_fusion_dot.51.0, bf16[64,1024]{1,0} %get-tuple-element.19.0, bf16[64,1024]{1,0} %get-tuple-element.17.0, f32[64,1024]{1,0} %loop_add_fusion, bf16[64,1024]{1,0} %get-tuple-element.13.0, /*index=5*/bf16[64,1024]{1,0} %get-tuple-element.15.0), kind=kLoop, calls=%fused_add.1, metadata={op_type="aten__add" op_name="aten__add.1207/aten__add" source_file="/usr/local/lib/python3.10/site-packages/torch/_ops.py" source_line=756}
  %fusion.161 = bf16[64,1024]{1,0} fusion(f32[64,1024]{1,0} %loop_add_fusion.1, f32[] %p.15, bf16[1024]{0} %p.46), kind=kCustom, calls=%fused_computation.130, metadata={op_type="xla__cast" op_name="xla__cast" source_file="/usr/local/lib/python3.10/site-packages/torch/_ops.py" source_line=756 deduplicated_name="fusion.161"}, backend_config={"operation_queue_id":"0","wait_on_operation_queues":[],"fusion_backend_config":{"kind":"__triton","block_level_fusion_config":{"output_tiles":[{"sizes":["1","1024"]}],"num_warps":"2"}},"force_earliest_schedule":false}
  %custom-call.47.0 = (bf16[64,6144]{1,0}, s8[4194304]{0}) custom-call(bf16[64,1024]{1,0} %fusion.161, bf16[6144,1024]{1,0} %p.47), custom_call_target="__cublas$gemm", metadata={op_type="aten__mm" op_name="aten__mm" source_file="/usr/local/lib/python3.10/site-packages/torch/_ops.py" source_line=756}, backend_config={"operation_queue_id":"0","wait_on_operation_queues":[],"gemm_backend_config":{"alpha_real":1,"alpha_imag":0,"beta":0,"dot_dimension_numbers":{"lhs_contracting_dimensions":["1"],"rhs_contracting_dimensions":["1"],"lhs_batch_dimensions":[],"rhs_batch_dimensions":[]},"precision_config":{"operand_precision":["DEFAULT","DEFAULT"],"algorithm":"ALG_UNSET"},"epilogue":"DEFAULT","damax_output":false,"lhs_stride":"65536","rhs_stride":"6291456","grad_x":false,"grad_y":false},"force_earliest_schedule":false}
  %get-tuple-element.20.0 = bf16[64,6144]{1,0} get-tuple-element((bf16[64,6144]{1,0}, s8[4194304]{0}) %custom-call.47.0), index=0, metadata={op_type="aten__mm" op_name="aten__mm" source_file="/usr/local/lib/python3.10/site-packages/torch/_ops.py" source_line=756}
  %loop_convert_fusion.2 = bf16[64,3072]{1,0} fusion(bf16[64,6144]{1,0} %get-tuple-element.20.0), kind=kLoop, calls=%fused_convert.2, metadata={op_type="xla__cast" op_name="xla__cast" source_file="/usr/local/lib/python3.10/site-packages/torch/_ops.py" source_line=756 deduplicated_name="loop_convert_fusion"}
  %custom-call.48.0 = (bf16[64,1024]{1,0}, s8[4194304]{0}) custom-call(bf16[64,3072]{1,0} %loop_convert_fusion.2, bf16[1024,3072]{1,0} %p.48), custom_call_target="__cublas$gemm", metadata={op_type="aten__mm" op_name="aten__mm" source_file="/usr/local/lib/python3.10/site-packages/torch/_ops.py" source_line=756}, backend_config={"operation_queue_id":"0","wait_on_operation_queues":[],"gemm_backend_config":{"alpha_real":1,"alpha_imag":0,"beta":0,"dot_dimension_numbers":{"lhs_contracting_dimensions":["1"],"rhs_contracting_dimensions":["1"],"lhs_batch_dimensions":[],"rhs_batch_dimensions":[]},"precision_config":{"operand_precision":["DEFAULT","DEFAULT"],"algorithm":"ALG_UNSET"},"epilogue":"DEFAULT","damax_output":false,"lhs_stride":"196608","rhs_stride":"3145728","grad_x":false,"grad_y":false},"force_earliest_schedule":false}
  %get-tuple-element.21.0 = bf16[64,1024]{1,0} get-tuple-element((bf16[64,1024]{1,0}, s8[4194304]{0}) %custom-call.48.0), index=0, metadata={op_type="aten__mm" op_name="aten__mm" source_file="/usr/local/lib/python3.10/site-packages/torch/_ops.py" source_line=756}
  %fusion.160 = bf16[64,1024]{1,0} fusion(f32[] %p.15, f32[64,1024]{1,0} %loop_add_fusion.1, bf16[64,1024]{1,0} %get-tuple-element.21.0, bf16[64,13312]{1,0} %gemm_fusion_dot.51.0, bf16[1024]{0} %p.49), kind=kCustom, calls=%fused_computation.129, metadata={op_type="xla__cast" op_name="xla__cast" source_file="/usr/local/lib/python3.10/site-packages/torch/_ops.py" source_line=756}, backend_config={"operation_queue_id":"0","wait_on_operation_queues":[],"fusion_backend_config":{"kind":"__triton","block_level_fusion_config":{"output_tiles":[{"sizes":["1","1024"]}],"num_warps":"2"}},"force_earliest_schedule":false}
  %custom-call.49.0 = (bf16[64,6144]{1,0}, s8[4194304]{0}) custom-call(bf16[64,1024]{1,0} %fusion.160, bf16[6144,1024]{1,0} %p.50), custom_call_target="__cublas$gemm", metadata={op_type="aten__mm" op_name="aten__mm" source_file="/usr/local/lib/python3.10/site-packages/torch/_ops.py" source_line=756}, backend_config={"operation_queue_id":"0","wait_on_operation_queues":[],"gemm_backend_config":{"alpha_real":1,"alpha_imag":0,"beta":0,"dot_dimension_numbers":{"lhs_contracting_dimensions":["1"],"rhs_contracting_dimensions":["1"],"lhs_batch_dimensions":[],"rhs_batch_dimensions":[]},"precision_config":{"operand_precision":["DEFAULT","DEFAULT"],"algorithm":"ALG_UNSET"},"epilogue":"DEFAULT","damax_output":false,"lhs_stride":"65536","rhs_stride":"6291456","grad_x":false,"grad_y":false},"force_earliest_schedule":false}
  %get-tuple-element.22.0 = bf16[64,6144]{1,0} get-tuple-element((bf16[64,6144]{1,0}, s8[4194304]{0}) %custom-call.49.0), index=0, metadata={op_type="aten__mm" op_name="aten__mm" source_file="/usr/local/lib/python3.10/site-packages/torch/_ops.py" source_line=756}
  %loop_convert_fusion.1 = bf16[64,3072]{1,0} fusion(bf16[64,6144]{1,0} %get-tuple-element.22.0), kind=kLoop, calls=%fused_convert.1, metadata={op_type="xla__cast" op_name="xla__cast" source_file="/usr/local/lib/python3.10/site-packages/torch/_ops.py" source_line=756 deduplicated_name="loop_convert_fusion"}
  %custom-call.50.0 = (bf16[64,1024]{1,0}, s8[4194304]{0}) custom-call(bf16[64,3072]{1,0} %loop_convert_fusion.1, bf16[1024,3072]{1,0} %p.51), custom_call_target="__cublas$gemm", metadata={op_type="aten__mm" op_name="aten__mm" source_file="/usr/local/lib/python3.10/site-packages/torch/_ops.py" source_line=756}, backend_config={"operation_queue_id":"0","wait_on_operation_queues":[],"gemm_backend_config":{"alpha_real":1,"alpha_imag":0,"beta":0,"dot_dimension_numbers":{"lhs_contracting_dimensions":["1"],"rhs_contracting_dimensions":["1"],"lhs_batch_dimensions":[],"rhs_batch_dimensions":[]},"precision_config":{"operand_precision":["DEFAULT","DEFAULT"],"algorithm":"ALG_UNSET"},"epilogue":"DEFAULT","damax_output":false,"lhs_stride":"196608","rhs_stride":"3145728","grad_x":false,"grad_y":false},"force_earliest_schedule":false}
  %get-tuple-element.23.0 = bf16[64,1024]{1,0} get-tuple-element((bf16[64,1024]{1,0}, s8[4194304]{0}) %custom-call.50.0), index=0, metadata={op_type="aten__mm" op_name="aten__mm" source_file="/usr/local/lib/python3.10/site-packages/torch/_ops.py" source_line=756}
  %fusion.159 = bf16[64,1024]{1,0} fusion(f32[] %p.15, bf16[1024]{0} %p.52, f32[64,1024]{1,0} %loop_add_fusion.1, bf16[64,1024]{1,0} %get-tuple-element.21.0, bf16[64,13312]{1,0} %gemm_fusion_dot.51.0, /*index=5*/bf16[64,1024]{1,0} %get-tuple-element.23.0), kind=kCustom, calls=%fused_computation.128, metadata={op_type="xla__cast" op_name="xla__cast" source_file="/usr/local/lib/python3.10/site-packages/torch/_ops.py" source_line=756}, backend_config={"operation_queue_id":"0","wait_on_operation_queues":[],"fusion_backend_config":{"kind":"__triton","block_level_fusion_config":{"output_tiles":[{"sizes":["1","1024"]}],"num_warps":"2"}},"force_earliest_schedule":false}
  %custom-call.51.0 = (bf16[64,6144]{1,0}, s8[4194304]{0}) custom-call(bf16[64,1024]{1,0} %fusion.159, bf16[6144,1024]{1,0} %p.53), custom_call_target="__cublas$gemm", metadata={op_type="aten__mm" op_name="aten__mm" source_file="/usr/local/lib/python3.10/site-packages/torch/_ops.py" source_line=756}, backend_config={"operation_queue_id":"0","wait_on_operation_queues":[],"gemm_backend_config":{"alpha_real":1,"alpha_imag":0,"beta":0,"dot_dimension_numbers":{"lhs_contracting_dimensions":["1"],"rhs_contracting_dimensions":["1"],"lhs_batch_dimensions":[],"rhs_batch_dimensions":[]},"precision_config":{"operand_precision":["DEFAULT","DEFAULT"],"algorithm":"ALG_UNSET"},"epilogue":"DEFAULT","damax_output":false,"lhs_stride":"65536","rhs_stride":"6291456","grad_x":false,"grad_y":false},"force_earliest_schedule":false}
  %get-tuple-element.24.0 = bf16[64,6144]{1,0} get-tuple-element((bf16[64,6144]{1,0}, s8[4194304]{0}) %custom-call.51.0), index=0, metadata={op_type="aten__mm" op_name="aten__mm" source_file="/usr/local/lib/python3.10/site-packages/torch/_ops.py" source_line=756}
  %loop_convert_fusion = bf16[64,3072]{1,0} fusion(bf16[64,6144]{1,0} %get-tuple-element.24.0), kind=kLoop, calls=%fused_convert, metadata={op_type="xla__cast" op_name="xla__cast" source_file="/usr/local/lib/python3.10/site-packages/torch/_ops.py" source_line=756 deduplicated_name="loop_convert_fusion"}
  %custom-call.52.0 = (bf16[64,1024]{1,0}, s8[4194304]{0}) custom-call(bf16[64,3072]{1,0} %loop_convert_fusion, bf16[1024,3072]{1,0} %p.54), custom_call_target="__cublas$gemm", metadata={op_type="aten__mm" op_name="aten__mm" source_file="/usr/local/lib/python3.10/site-packages/torch/_ops.py" source_line=756}, backend_config={"operation_queue_id":"0","wait_on_operation_queues":[],"gemm_backend_config":{"alpha_real":1,"alpha_imag":0,"beta":0,"dot_dimension_numbers":{"lhs_contracting_dimensions":["1"],"rhs_contracting_dimensions":["1"],"lhs_batch_dimensions":[],"rhs_batch_dimensions":[]},"precision_config":{"operand_precision":["DEFAULT","DEFAULT"],"algorithm":"ALG_UNSET"},"epilogue":"DEFAULT","damax_output":false,"lhs_stride":"196608","rhs_stride":"3145728","grad_x":false,"grad_y":false},"force_earliest_schedule":false}
  %get-tuple-element.25.0 = bf16[64,1024]{1,0} get-tuple-element((bf16[64,1024]{1,0}, s8[4194304]{0}) %custom-call.52.0), index=0, metadata={op_type="aten__mm" op_name="aten__mm" source_file="/usr/local/lib/python3.10/site-packages/torch/_ops.py" source_line=756}
  %fusion.157 = bf16[64,1024]{1,0} fusion(f32[] %p.15, bf16[64,1024]{1,0} %get-tuple-element.25.0, bf16[1024]{0} %p.55, f32[64,1024]{1,0} %loop_add_fusion.1, bf16[64,1024]{1,0} %get-tuple-element.21.0, /*index=5*/bf16[64,13312]{1,0} %gemm_fusion_dot.51.0, bf16[64,1024]{1,0} %get-tuple-element.23.0), kind=kCustom, calls=%fused_computation.126, metadata={op_type="xla__cast" op_name="xla__cast" source_file="/usr/local/lib/python3.10/site-packages/torch/_ops.py" source_line=756}, backend_config={"operation_queue_id":"0","wait_on_operation_queues":[],"fusion_backend_config":{"kind":"__triton","block_level_fusion_config":{"output_tiles":[{"sizes":["1","1024"]}],"num_warps":"2"}},"force_earliest_schedule":false}
  %custom-call.53.0 = (bf16[64,4096]{1,0}, s8[4194304]{0}) custom-call(bf16[64,1024]{1,0} %fusion.157, bf16[4096,1024]{1,0} %p.56), custom_call_target="__cublas$gemm", metadata={op_type="aten__mm" op_name="aten__mm" source_file="/usr/local/lib/python3.10/site-packages/torch/_ops.py" source_line=756}, backend_config={"operation_queue_id":"0","wait_on_operation_queues":[],"gemm_backend_config":{"alpha_real":1,"alpha_imag":0,"beta":0,"dot_dimension_numbers":{"lhs_contracting_dimensions":["1"],"rhs_contracting_dimensions":["1"],"lhs_batch_dimensions":[],"rhs_batch_dimensions":[]},"precision_config":{"operand_precision":["DEFAULT","DEFAULT"],"algorithm":"ALG_UNSET"},"epilogue":"DEFAULT","damax_output":false,"lhs_stride":"65536","rhs_stride":"4194304","grad_x":false,"grad_y":false},"force_earliest_schedule":false}
  %get-tuple-element.26.0 = bf16[64,4096]{1,0} get-tuple-element((bf16[64,4096]{1,0}, s8[4194304]{0}) %custom-call.53.0), index=0, metadata={op_type="aten__mm" op_name="aten__mm" source_file="/usr/local/lib/python3.10/site-packages/torch/_ops.py" source_line=756}
  %wrapped_slice = bf16[64,1024]{1,0} fusion(bf16[64,4096]{1,0} %get-tuple-element.26.0), kind=kLoop, calls=%wrapped_slice_computation, metadata={op_type="aten__split" op_name="aten__split" source_file="/usr/local/lib/python3.10/site-packages/torch/_ops.py" source_line=756}
  %triton_softmax.15.0 = f32[64,8,128]{2,1,0} fusion(f32[] %p.15, bf16[64,4096]{1,0} %get-tuple-element.26.0), kind=kCustom, calls=%triton_softmax_computation.15, metadata={op_type="aten__mul" op_name="aten__mul.1253/aten__mul" source_file="/usr/local/lib/python3.10/site-packages/torch/_ops.py" source_line=756}, backend_config={"operation_queue_id":"0","wait_on_operation_queues":[],"fusion_backend_config":{"kind":"__triton","block_level_fusion_config":{"output_tiles":[{"sizes":["1","4","128"]}],"num_warps":"2"}},"force_earliest_schedule":false}
  %input_concatenate_fusion = bf16[64,8,128]{2,1,0} fusion(f32[64,8,128]{2,1,0} %triton_softmax.15.0, bf16[128]{0} %p.57, bf16[40960,128]{1,0} %p.58, s32[64]{0} %p.59), kind=kInput, calls=%fused_concatenate, metadata={op_type="aten__cat" op_name="aten__cat" source_file="/usr/local/lib/python3.10/site-packages/torch/_ops.py" source_line=756}
  %bitcast.2811.0 = bf16[64,8,128]{2,1,0} bitcast(bf16[64,1024]{1,0} %wrapped_slice)
  %loop_slice_fusion = bf16[69353472]{0} fusion(bf16[2,4233,16,8,128]{4,3,2,1,0} %p.60), kind=kLoop, calls=%fused_slice, metadata={op_type="aten__as_strided" op_name="aten__as_strided" source_file="/usr/local/lib/python3.10/site-packages/torch/_higher_order_ops/auto_functionalize.py" source_line=54}
  %bitcast.2823.0 = bf16[4233,16,8,128]{3,2,1,0} bitcast(bf16[69353472]{0} %loop_slice_fusion)
  %wrapped_slice.1 = bf16[1,4233,16,8,128]{4,3,2,1,0} fusion(bf16[2,4233,16,8,128]{4,3,2,1,0} %p.60), kind=kLoop, calls=%wrapped_slice_computation.1, metadata={op_type="aten__as_strided" op_name="aten__as_strided" source_file="/usr/local/lib/python3.10/site-packages/torch/_higher_order_ops/auto_functionalize.py" source_line=54}
  ROOT %tuple = (bf16[64,8,128]{2,1,0}, bf16[64,8,128]{2,1,0}, bf16[4233,16,8,128]{3,2,1,0}, bf16[1,4233,16,8,128]{4,3,2,1,0}) tuple(bf16[64,8,128]{2,1,0} %input_concatenate_fusion, bf16[64,8,128]{2,1,0} %bitcast.2811.0, bf16[4233,16,8,128]{3,2,1,0} %bitcast.2823.0, bf16[1,4233,16,8,128]{4,3,2,1,0} %wrapped_slice.1)
}

ENTRY %SyncTensorsGraph.1107 (p0.1.0: bf16[128], p1.4.0: f32[], p2.6.0: bf16[4096,1024], p3.8.0: bf16[1024], p4.38.0: s32[64], p5.40.0: bf16[151936,1024], p6.44.0: bf16[1024,2048], p7.60.0: bf16[1024,3072], p8.62.0: bf16[6144,1024], p9.64.0: bf16[1024], p10.116.0: bf16[1024,2048], p11.132.0: bf16[1024,3072], p12.134.0: bf16[6144,1024], p13.136.0: bf16[1024], p14.188.0: bf16[1024,2048], p15.204.0: bf16[1024,3072], p16.206.0: bf16[6144,1024], p17.208.0: bf16[1024], p18.260.0: bf16[1024,2048], p19.276.0: bf16[1024,3072], p20.278.0: bf16[6144,1024], p21.280.0: bf16[1024], p22.332.0: bf16[1024,2048], p23.348.0: bf16[1024,3072], p24.350.0: bf16[6144,1024], p25.352.0: bf16[1024], p26.404.0: bf16[1024,2048], p27.420.0: bf16[1024,3072], p28.422.0: bf16[6144,1024], p29.424.0: bf16[1024], p30.476.0: bf16[1024,2048], p31.492.0: bf16[1024,3072], p32.494.0: bf16[6144,1024], p33.496.0: bf16[1024], p34.548.0: bf16[1024,2048], p35.564.0: bf16[1024,3072], p36.566.0: bf16[6144,1024], p37.568.0: bf16[1024], p38.620.0: bf16[1024,2048], p39.636.0: bf16[1024,3072], p40.638.0: bf16[6144,1024], p41.640.0: bf16[1024], p42.692.0: bf16[1024,2048], p43.708.0: bf16[1024,3072], p44.710.0: bf16[6144,1024], p45.712.0: bf16[1024], p46.764.0: bf16[1024,2048], p47.780.0: bf16[1024,3072], p48.782.0: bf16[6144,1024], p49.784.0: bf16[1024], p50.836.0: bf16[1024,2048], p51.852.0: bf16[1024,3072], p52.854.0: bf16[6144,1024], p53.856.0: bf16[1024], p54.908.0: bf16[1024,2048], p55.924.0: bf16[1024,3072], p56.926.0: bf16[6144,1024], p57.928.0: bf16[1024], p58.1052.0: s32[64], p59.1053.0: bf16[40960,128], p60.1097.0: bf16[2,4233,16,8,128]) -> (bf16[64,8,128], bf16[64,8,128], bf16[4233,16,8,128], bf16[4233,16,8,128]) {
  %p1.4.0 = f32[] parameter(1), metadata={op_type="xla__device_data" op_name="xla__device_data" source_file="/usr/local/lib/python3.10/site-packages/torch/_ops.py" source_line=756}
  %p60.1097.0 = bf16[2,4233,16,8,128]{4,3,2,1,0} parameter(60), metadata={op_type="xla__device_data" op_name="xla__device_data" source_file="/usr/local/lib/python3.10/site-packages/torch_xla/_dynamo/dynamo_bridge.py" source_line=355}
  %p59.1053.0 = bf16[40960,128]{1,0} parameter(59), metadata={op_type="xla__device_data" op_name="xla__device_data" source_file="/usr/local/lib/python3.10/site-packages/torch_xla/_dynamo/dynamo_bridge.py" source_line=355}
  %p58.1052.0 = s32[64]{0} parameter(58), metadata={op_type="xla__device_data" op_name="xla__device_data" source_file="/usr/local/lib/python3.10/site-packages/torch_xla/_dynamo/dynamo_bridge.py" source_line=355}
  %p57.928.0 = bf16[1024]{0} parameter(57), metadata={op_type="xla__device_data" op_name="xla__device_data" source_file="/usr/local/lib/python3.10/site-packages/torch_xla/_dynamo/dynamo_bridge.py" source_line=355}
  %p56.926.0 = bf16[6144,1024]{1,0} parameter(56), metadata={op_type="xla__device_data" op_name="xla__device_data" source_file="/usr/local/lib/python3.10/site-packages/torch_xla/_dynamo/dynamo_bridge.py" source_line=355}
  %p55.924.0 = bf16[1024,3072]{1,0} parameter(55), metadata={op_type="xla__device_data" op_name="xla__device_data" source_file="/usr/local/lib/python3.10/site-packages/torch_xla/_dynamo/dynamo_bridge.py" source_line=355}
  %p54.908.0 = bf16[1024,2048]{1,0} parameter(54), metadata={op_type="xla__device_data" op_name="xla__device_data" source_file="/usr/local/lib/python3.10/site-packages/torch_xla/_dynamo/dynamo_bridge.py" source_line=355}
  %p53.856.0 = bf16[1024]{0} parameter(53), metadata={op_type="xla__device_data" op_name="xla__device_data" source_file="/usr/local/lib/python3.10/site-packages/torch_xla/_dynamo/dynamo_bridge.py" source_line=355}
  %p52.854.0 = bf16[6144,1024]{1,0} parameter(52), metadata={op_type="xla__device_data" op_name="xla__device_data" source_file="/usr/local/lib/python3.10/site-packages/torch_xla/_dynamo/dynamo_bridge.py" source_line=355}
  %p51.852.0 = bf16[1024,3072]{1,0} parameter(51), metadata={op_type="xla__device_data" op_name="xla__device_data" source_file="/usr/local/lib/python3.10/site-packages/torch_xla/_dynamo/dynamo_bridge.py" source_line=355}
  %p50.836.0 = bf16[1024,2048]{1,0} parameter(50), metadata={op_type="xla__device_data" op_name="xla__device_data" source_file="/usr/local/lib/python3.10/site-packages/torch_xla/_dynamo/dynamo_bridge.py" source_line=355}
  %p49.784.0 = bf16[1024]{0} parameter(49), metadata={op_type="xla__device_data" op_name="xla__device_data" source_file="/usr/local/lib/python3.10/site-packages/torch_xla/_dynamo/dynamo_bridge.py" source_line=355}
  %p48.782.0 = bf16[6144,1024]{1,0} parameter(48), metadata={op_type="xla__device_data" op_name="xla__device_data" source_file="/usr/local/lib/python3.10/site-packages/torch_xla/_dynamo/dynamo_bridge.py" source_line=355}
  %p47.780.0 = bf16[1024,3072]{1,0} parameter(47), metadata={op_type="xla__device_data" op_name="xla__device_data" source_file="/usr/local/lib/python3.10/site-packages/torch_xla/_dynamo/dynamo_bridge.py" source_line=355}
  %p46.764.0 = bf16[1024,2048]{1,0} parameter(46), metadata={op_type="xla__device_data" op_name="xla__device_data" source_file="/usr/local/lib/python3.10/site-packages/torch_xla/_dynamo/dynamo_bridge.py" source_line=355}
  %p45.712.0 = bf16[1024]{0} parameter(45), metadata={op_type="xla__device_data" op_name="xla__device_data" source_file="/usr/local/lib/python3.10/site-packages/torch_xla/_dynamo/dynamo_bridge.py" source_line=355}
  %p44.710.0 = bf16[6144,1024]{1,0} parameter(44), metadata={op_type="xla__device_data" op_name="xla__device_data" source_file="/usr/local/lib/python3.10/site-packages/torch_xla/_dynamo/dynamo_bridge.py" source_line=355}
  %p43.708.0 = bf16[1024,3072]{1,0} parameter(43), metadata={op_type="xla__device_data" op_name="xla__device_data" source_file="/usr/local/lib/python3.10/site-packages/torch_xla/_dynamo/dynamo_bridge.py" source_line=355}
  %p42.692.0 = bf16[1024,2048]{1,0} parameter(42), metadata={op_type="xla__device_data" op_name="xla__device_data" source_file="/usr/local/lib/python3.10/site-packages/torch_xla/_dynamo/dynamo_bridge.py" source_line=355}
  %p41.640.0 = bf16[1024]{0} parameter(41), metadata={op_type="xla__device_data" op_name="xla__device_data" source_file="/usr/local/lib/python3.10/site-packages/torch_xla/_dynamo/dynamo_bridge.py" source_line=355}
  %p40.638.0 = bf16[6144,1024]{1,0} parameter(40), metadata={op_type="xla__device_data" op_name="xla__device_data" source_file="/usr/local/lib/python3.10/site-packages/torch_xla/_dynamo/dynamo_bridge.py" source_line=355}
  %p39.636.0 = bf16[1024,3072]{1,0} parameter(39), metadata={op_type="xla__device_data" op_name="xla__device_data" source_file="/usr/local/lib/python3.10/site-packages/torch_xla/_dynamo/dynamo_bridge.py" source_line=355}
  %p38.620.0 = bf16[1024,2048]{1,0} parameter(38), metadata={op_type="xla__device_data" op_name="xla__device_data" source_file="/usr/local/lib/python3.10/site-packages/torch_xla/_dynamo/dynamo_bridge.py" source_line=355}
  %p37.568.0 = bf16[1024]{0} parameter(37), metadata={op_type="xla__device_data" op_name="xla__device_data" source_file="/usr/local/lib/python3.10/site-packages/torch_xla/_dynamo/dynamo_bridge.py" source_line=355}
  %p36.566.0 = bf16[6144,1024]{1,0} parameter(36), metadata={op_type="xla__device_data" op_name="xla__device_data" source_file="/usr/local/lib/python3.10/site-packages/torch_xla/_dynamo/dynamo_bridge.py" source_line=355}
  %p35.564.0 = bf16[1024,3072]{1,0} parameter(35), metadata={op_type="xla__device_data" op_name="xla__device_data" source_file="/usr/local/lib/python3.10/site-packages/torch_xla/_dynamo/dynamo_bridge.py" source_line=355}
  %p34.548.0 = bf16[1024,2048]{1,0} parameter(34), metadata={op_type="xla__device_data" op_name="xla__device_data" source_file="/usr/local/lib/python3.10/site-packages/torch_xla/_dynamo/dynamo_bridge.py" source_line=355}
  %p33.496.0 = bf16[1024]{0} parameter(33), metadata={op_type="xla__device_data" op_name="xla__device_data" source_file="/usr/local/lib/python3.10/site-packages/torch_xla/_dynamo/dynamo_bridge.py" source_line=355}
  %p32.494.0 = bf16[6144,1024]{1,0} parameter(32), metadata={op_type="xla__device_data" op_name="xla__device_data" source_file="/usr/local/lib/python3.10/site-packages/torch_xla/_dynamo/dynamo_bridge.py" source_line=355}
  %p31.492.0 = bf16[1024,3072]{1,0} parameter(31), metadata={op_type="xla__device_data" op_name="xla__device_data" source_file="/usr/local/lib/python3.10/site-packages/torch_xla/_dynamo/dynamo_bridge.py" source_line=355}
  %p30.476.0 = bf16[1024,2048]{1,0} parameter(30), metadata={op_type="xla__device_data" op_name="xla__device_data" source_file="/usr/local/lib/python3.10/site-packages/torch_xla/_dynamo/dynamo_bridge.py" source_line=355}
  %p29.424.0 = bf16[1024]{0} parameter(29), metadata={op_type="xla__device_data" op_name="xla__device_data" source_file="/usr/local/lib/python3.10/site-packages/torch_xla/_dynamo/dynamo_bridge.py" source_line=355}
  %p28.422.0 = bf16[6144,1024]{1,0} parameter(28), metadata={op_type="xla__device_data" op_name="xla__device_data" source_file="/usr/local/lib/python3.10/site-packages/torch_xla/_dynamo/dynamo_bridge.py" source_line=355}
  %p27.420.0 = bf16[1024,3072]{1,0} parameter(27), metadata={op_type="xla__device_data" op_name="xla__device_data" source_file="/usr/local/lib/python3.10/site-packages/torch_xla/_dynamo/dynamo_bridge.py" source_line=355}
  %p26.404.0 = bf16[1024,2048]{1,0} parameter(26), metadata={op_type="xla__device_data" op_name="xla__device_data" source_file="/usr/local/lib/python3.10/site-packages/torch_xla/_dynamo/dynamo_bridge.py" source_line=355}
  %p25.352.0 = bf16[1024]{0} parameter(25), metadata={op_type="xla__device_data" op_name="xla__device_data" source_file="/usr/local/lib/python3.10/site-packages/torch_xla/_dynamo/dynamo_bridge.py" source_line=355}
  %p24.350.0 = bf16[6144,1024]{1,0} parameter(24), metadata={op_type="xla__device_data" op_name="xla__device_data" source_file="/usr/local/lib/python3.10/site-packages/torch_xla/_dynamo/dynamo_bridge.py" source_line=355}
  %p23.348.0 = bf16[1024,3072]{1,0} parameter(23), metadata={op_type="xla__device_data" op_name="xla__device_data" source_file="/usr/local/lib/python3.10/site-packages/torch_xla/_dynamo/dynamo_bridge.py" source_line=355}
  %p22.332.0 = bf16[1024,2048]{1,0} parameter(22), metadata={op_type="xla__device_data" op_name="xla__device_data" source_file="/usr/local/lib/python3.10/site-packages/torch_xla/_dynamo/dynamo_bridge.py" source_line=355}
  %p21.280.0 = bf16[1024]{0} parameter(21), metadata={op_type="xla__device_data" op_name="xla__device_data" source_file="/usr/local/lib/python3.10/site-packages/torch_xla/_dynamo/dynamo_bridge.py" source_line=355}
  %p20.278.0 = bf16[6144,1024]{1,0} parameter(20), metadata={op_type="xla__device_data" op_name="xla__device_data" source_file="/usr/local/lib/python3.10/site-packages/torch_xla/_dynamo/dynamo_bridge.py" source_line=355}
  %p19.276.0 = bf16[1024,3072]{1,0} parameter(19), metadata={op_type="xla__device_data" op_name="xla__device_data" source_file="/usr/local/lib/python3.10/site-packages/torch_xla/_dynamo/dynamo_bridge.py" source_line=355}
  %p18.260.0 = bf16[1024,2048]{1,0} parameter(18), metadata={op_type="xla__device_data" op_name="xla__device_data" source_file="/usr/local/lib/python3.10/site-packages/torch_xla/_dynamo/dynamo_bridge.py" source_line=355}
  %p17.208.0 = bf16[1024]{0} parameter(17), metadata={op_type="xla__device_data" op_name="xla__device_data" source_file="/usr/local/lib/python3.10/site-packages/torch_xla/_dynamo/dynamo_bridge.py" source_line=355}
  %p16.206.0 = bf16[6144,1024]{1,0} parameter(16), metadata={op_type="xla__device_data" op_name="xla__device_data" source_file="/usr/local/lib/python3.10/site-packages/torch_xla/_dynamo/dynamo_bridge.py" source_line=355}
  %p15.204.0 = bf16[1024,3072]{1,0} parameter(15), metadata={op_type="xla__device_data" op_name="xla__device_data" source_file="/usr/local/lib/python3.10/site-packages/torch_xla/_dynamo/dynamo_bridge.py" source_line=355}
  %p14.188.0 = bf16[1024,2048]{1,0} parameter(14), metadata={op_type="xla__device_data" op_name="xla__device_data" source_file="/usr/local/lib/python3.10/site-packages/torch_xla/_dynamo/dynamo_bridge.py" source_line=355}
  %p13.136.0 = bf16[1024]{0} parameter(13), metadata={op_type="xla__device_data" op_name="xla__device_data" source_file="/usr/local/lib/python3.10/site-packages/torch_xla/_dynamo/dynamo_bridge.py" source_line=355}
  %p12.134.0 = bf16[6144,1024]{1,0} parameter(12), metadata={op_type="xla__device_data" op_name="xla__device_data" source_file="/usr/local/lib/python3.10/site-packages/torch_xla/_dynamo/dynamo_bridge.py" source_line=355}
  %p11.132.0 = bf16[1024,3072]{1,0} parameter(11), metadata={op_type="xla__device_data" op_name="xla__device_data" source_file="/usr/local/lib/python3.10/site-packages/torch_xla/_dynamo/dynamo_bridge.py" source_line=355}
  %p10.116.0 = bf16[1024,2048]{1,0} parameter(10), metadata={op_type="xla__device_data" op_name="xla__device_data" source_file="/usr/local/lib/python3.10/site-packages/torch_xla/_dynamo/dynamo_bridge.py" source_line=355}
  %p9.64.0 = bf16[1024]{0} parameter(9), metadata={op_type="xla__device_data" op_name="xla__device_data" source_file="/usr/local/lib/python3.10/site-packages/torch_xla/_dynamo/dynamo_bridge.py" source_line=355}
  %p8.62.0 = bf16[6144,1024]{1,0} parameter(8), metadata={op_type="xla__device_data" op_name="xla__device_data" source_file="/usr/local/lib/python3.10/site-packages/torch_xla/_dynamo/dynamo_bridge.py" source_line=355}
  %p7.60.0 = bf16[1024,3072]{1,0} parameter(7), metadata={op_type="xla__device_data" op_name="xla__device_data" source_file="/usr/local/lib/python3.10/site-packages/torch_xla/_dynamo/dynamo_bridge.py" source_line=355}
  %p6.44.0 = bf16[1024,2048]{1,0} parameter(6), metadata={op_type="xla__device_data" op_name="xla__device_data" source_file="/usr/local/lib/python3.10/site-packages/torch_xla/_dynamo/dynamo_bridge.py" source_line=355}
  %p5.40.0 = bf16[151936,1024]{1,0} parameter(5), metadata={op_type="xla__device_data" op_name="xla__device_data" source_file="/usr/local/lib/python3.10/site-packages/torch_xla/_dynamo/dynamo_bridge.py" source_line=355}
  %p4.38.0 = s32[64]{0} parameter(4), metadata={op_type="xla__device_data" op_name="xla__device_data" source_file="/usr/local/lib/python3.10/site-packages/torch_xla/_dynamo/dynamo_bridge.py" source_line=355}
  %p3.8.0 = bf16[1024]{0} parameter(3), metadata={op_type="xla__device_data" op_name="xla__device_data" source_file="/usr/local/lib/python3.10/site-packages/torch_xla/_dynamo/dynamo_bridge.py" source_line=355}
  %p2.6.0 = bf16[4096,1024]{1,0} parameter(2), metadata={op_type="xla__device_data" op_name="xla__device_data" source_file="/usr/local/lib/python3.10/site-packages/torch_xla/_dynamo/dynamo_bridge.py" source_line=355}
  %p0.1.0 = bf16[128]{0} parameter(0), metadata={op_type="xla__device_data" op_name="xla__device_data" source_file="/usr/local/lib/python3.10/site-packages/torch_xla/_dynamo/dynamo_bridge.py" source_line=355}
  %call = (bf16[64,8,128]{2,1,0}, bf16[64,8,128]{2,1,0}, bf16[4233,16,8,128]{3,2,1,0}, bf16[1,4233,16,8,128]{4,3,2,1,0}) call(bf16[151936,1024]{1,0} %p5.40.0, s32[64]{0} %p4.38.0, bf16[1024,2048]{1,0} %p54.908.0, bf16[1024,2048]{1,0} %p50.836.0, bf16[1024,2048]{1,0} %p46.764.0, /*index=5*/bf16[1024,2048]{1,0} %p42.692.0, bf16[1024,2048]{1,0} %p38.620.0, bf16[1024,2048]{1,0} %p34.548.0, bf16[1024,2048]{1,0} %p30.476.0, bf16[1024,2048]{1,0} %p26.404.0, /*index=10*/bf16[1024,2048]{1,0} %p22.332.0, bf16[1024,2048]{1,0} %p18.260.0, bf16[1024,2048]{1,0} %p14.188.0, bf16[1024,2048]{1,0} %p10.116.0, bf16[1024,2048]{1,0} %p6.44.0, /*index=15*/f32[] %p1.4.0, bf16[1024]{0} %p9.64.0, bf16[6144,1024]{1,0} %p8.62.0, bf16[1024,3072]{1,0} %p7.60.0, bf16[1024]{0} %p13.136.0, /*index=20*/bf16[6144,1024]{1,0} %p12.134.0, bf16[1024,3072]{1,0} %p11.132.0, bf16[1024]{0} %p17.208.0, bf16[6144,1024]{1,0} %p16.206.0, bf16[1024,3072]{1,0} %p15.204.0, /*index=25*/bf16[1024]{0} %p21.280.0, bf16[6144,1024]{1,0} %p20.278.0, bf16[1024,3072]{1,0} %p19.276.0, bf16[1024]{0} %p25.352.0, bf16[6144,1024]{1,0} %p24.350.0, /*index=30*/bf16[1024,3072]{1,0} %p23.348.0, bf16[1024]{0} %p29.424.0, bf16[6144,1024]{1,0} %p28.422.0, bf16[1024,3072]{1,0} %p27.420.0, bf16[1024]{0} %p33.496.0, /*index=35*/bf16[6144,1024]{1,0} %p32.494.0, bf16[1024,3072]{1,0} %p31.492.0, bf16[1024]{0} %p37.568.0, bf16[6144,1024]{1,0} %p36.566.0, bf16[1024,3072]{1,0} %p35.564.0, /*index=40*/bf16[1024]{0} %p41.640.0, bf16[6144,1024]{1,0} %p40.638.0, bf16[1024,3072]{1,0} %p39.636.0, bf16[1024]{0} %p45.712.0, bf16[6144,1024]{1,0} %p44.710.0, /*index=45*/bf16[1024,3072]{1,0} %p43.708.0, bf16[1024]{0} %p49.784.0, bf16[6144,1024]{1,0} %p48.782.0, bf16[1024,3072]{1,0} %p47.780.0, bf16[1024]{0} %p53.856.0, /*index=50*/bf16[6144,1024]{1,0} %p52.854.0, bf16[1024,3072]{1,0} %p51.852.0, bf16[1024]{0} %p57.928.0, bf16[6144,1024]{1,0} %p56.926.0, bf16[1024,3072]{1,0} %p55.924.0, /*index=55*/bf16[1024]{0} %p3.8.0, bf16[4096,1024]{1,0} %p2.6.0, bf16[128]{0} %p0.1.0, bf16[40960,128]{1,0} %p59.1053.0, s32[64]{0} %p58.1052.0, /*index=60*/bf16[2,4233,16,8,128]{4,3,2,1,0} %p60.1097.0), to_apply=%command_buffer
  %get-tuple-element.29 = bf16[64,8,128]{2,1,0} get-tuple-element((bf16[64,8,128]{2,1,0}, bf16[64,8,128]{2,1,0}, bf16[4233,16,8,128]{3,2,1,0}, bf16[1,4233,16,8,128]{4,3,2,1,0}) %call), index=0
  %get-tuple-element.30 = bf16[64,8,128]{2,1,0} get-tuple-element((bf16[64,8,128]{2,1,0}, bf16[64,8,128]{2,1,0}, bf16[4233,16,8,128]{3,2,1,0}, bf16[1,4233,16,8,128]{4,3,2,1,0}) %call), index=1
  %get-tuple-element.31 = bf16[4233,16,8,128]{3,2,1,0} get-tuple-element((bf16[64,8,128]{2,1,0}, bf16[64,8,128]{2,1,0}, bf16[4233,16,8,128]{3,2,1,0}, bf16[1,4233,16,8,128]{4,3,2,1,0}) %call), index=2
  %get-tuple-element.32 = bf16[1,4233,16,8,128]{4,3,2,1,0} get-tuple-element((bf16[64,8,128]{2,1,0}, bf16[64,8,128]{2,1,0}, bf16[4233,16,8,128]{3,2,1,0}, bf16[1,4233,16,8,128]{4,3,2,1,0}) %call), index=3
  %bitcast.2816.0 = bf16[4233,16,8,128]{3,2,1,0} bitcast(bf16[1,4233,16,8,128]{4,3,2,1,0} %get-tuple-element.32)
  ROOT %tuple.1106.0 = (bf16[64,8,128]{2,1,0}, bf16[64,8,128]{2,1,0}, bf16[4233,16,8,128]{3,2,1,0}, bf16[4233,16,8,128]{3,2,1,0}) tuple(bf16[64,8,128]{2,1,0} %get-tuple-element.29, bf16[64,8,128]{2,1,0} %get-tuple-element.30, bf16[4233,16,8,128]{3,2,1,0} %bitcast.2816.0, bf16[4233,16,8,128]{3,2,1,0} %get-tuple-element.31)
}

