#indexing_map = #xla.indexing_map<"(tid_0) -> (tid_0 * 1024), domain: tid_0 in [0, 127]">
module {
  tt.func @fusion_22_impl(%arg0: !tt.ptr<f32> {tt.divisibility = 16 : i32}, %arg1: !tt.ptr<bf16> {tt.divisibility = 16 : i32}, %arg2: !tt.ptr<bf16> {tt.divisibility = 16 : i32}, %arg3: !tt.ptr<bf16> {tt.divisibility = 16 : i32}, %arg4: !tt.ptr<bf16> {tt.divisibility = 16 : i32}, %arg5: !tt.ptr<bf16> {tt.divisibility = 16 : i32}) {
    %cst = arith.constant dense<9.765625E-4> : tensor<1xf32>
    %c0_i64 = arith.constant 0 : i64
    %c0_i32 = arith.constant 0 : i32
    %c128_i64 = arith.constant 128 : i64
    %c1024_i64 = arith.constant 1024 : i64
    %c1_i64 = arith.constant 1 : i64
    %0 = tt.get_program_id x : i32
    %1 = arith.extsi %0 : i32 to i64
    %2 = arith.index_castui %1 : i64 to index
    %3 = arith.subi %c128_i64, %1 : i64
    %4 = xla.apply_indexing #indexing_map(%2)
    %5 = arith.index_castui %4 : index to i64
    %6 = tt.addptr %arg3, %5 : !tt.ptr<bf16>, i64
    %7 = tt.make_tensor_ptr %6, [%3, %c1024_i64], [%c1024_i64, %c1_i64], [%c0_i32, %c0_i32] {order = array<i32: 1, 0>} : <tensor<1x1024xbf16>>
    %8 = tt.load %7 : !tt.ptr<tensor<1x1024xbf16>>
    %9 = arith.extf %8 : tensor<1x1024xbf16> to tensor<1x1024xf32>
    %10 = tt.addptr %arg2, %5 : !tt.ptr<bf16>, i64
    %11 = tt.make_tensor_ptr %10, [%3, %c1024_i64], [%c1024_i64, %c1_i64], [%c0_i32, %c0_i32] {order = array<i32: 1, 0>} : <tensor<1x1024xbf16>>
    %12 = tt.load %11 : !tt.ptr<tensor<1x1024xbf16>>
    %13 = arith.extf %12 : tensor<1x1024xbf16> to tensor<1x1024xf32>
    %14 = tt.addptr %arg1, %5 : !tt.ptr<bf16>, i64
    %15 = tt.make_tensor_ptr %14, [%3, %c1_i64, %c1024_i64], [%c1024_i64, %c0_i64, %c1_i64], [%c0_i32, %c0_i32, %c0_i32] {order = array<i32: 2, 1, 0>} : <tensor<1x1x1024xbf16>>
    %16 = tt.load %15 : !tt.ptr<tensor<1x1x1024xbf16>>
    %17 = tt.trans %16 {order = array<i32: 1, 0, 2>} : tensor<1x1x1024xbf16> -> tensor<1x1x1024xbf16>
    %18 = tt.reshape %17 : tensor<1x1x1024xbf16> -> tensor<1x1024xbf16>
    %19 = arith.extf %18 : tensor<1x1024xbf16> to tensor<1x1024xf32>
    %20 = arith.addf %13, %19 : tensor<1x1024xf32>
    %21 = arith.addf %9, %20 : tensor<1x1024xf32>
    %22 = arith.mulf %21, %21 : tensor<1x1024xf32>
    %23 = "tt.reduce"(%22) <{axis = 1 : i32}> ({
    ^bb0(%arg6: f32, %arg7: f32):
      %40 = arith.addf %arg6, %arg7 : f32
      tt.reduce.return %40 : f32
    }) : (tensor<1x1024xf32>) -> tensor<1xf32>
    %24 = arith.mulf %23, %cst : tensor<1xf32>
    %25 = tt.load %arg0 : !tt.ptr<f32>
    %26 = tt.splat %25 : f32 -> tensor<1xf32>
    %27 = arith.addf %24, %26 : tensor<1xf32>
    %28 = tt.extern_elementwise %27 {libname = "libdevice", libpath = "/usr/local/cuda-12.6/nvvm/libdevice/libdevice.10.bc", pure = true, symbol = "__nv_rsqrtf"} : (tensor<1xf32>) -> tensor<1xf32>
    %29 = tt.expand_dims %28 {axis = 1 : i32} : tensor<1xf32> -> tensor<1x1xf32>
    %30 = tt.broadcast %29 : tensor<1x1xf32> -> tensor<1x1024xf32>
    %31 = arith.mulf %21, %30 : tensor<1x1024xf32>
    %32 = tt.make_tensor_ptr %arg4, [%c1024_i64], [%c1_i64], [%c0_i32] {order = array<i32: 0>} : <tensor<1024xbf16>>
    %33 = tt.load %32 : !tt.ptr<tensor<1024xbf16>>
    %34 = arith.extf %33 : tensor<1024xbf16> to tensor<1024xf32>
    %35 = tt.expand_dims %34 {axis = 0 : i32} : tensor<1024xf32> -> tensor<1x1024xf32>
    %36 = arith.mulf %31, %35 : tensor<1x1024xf32>
    %37 = arith.truncf %36 : tensor<1x1024xf32> to tensor<1x1024xbf16>
    %38 = tt.addptr %arg5, %5 : !tt.ptr<bf16>, i64
    %39 = tt.make_tensor_ptr %38, [%3, %c1024_i64], [%c1024_i64, %c1_i64], [%c0_i32, %c0_i32] {order = array<i32: 1, 0>} : <tensor<1x1024xbf16>>
    tt.store %39, %37 : !tt.ptr<tensor<1x1024xbf16>>
    tt.return
  }
}
