HloModule SyncTensorsGraph.1255, is_scheduled=true, entry_computation_layout={(bf16[128]{0}, f32[], bf16[4096,1024]{1,0}, bf16[1024]{0}, s32[32]{0}, /*index=5*/bf16[151936,1024]{1,0}, bf16[1024,2048]{1,0}, bf16[1024,3072]{1,0}, bf16[6144,1024]{1,0}, bf16[1024]{0}, /*index=10*/bf16[1024,2048]{1,0}, bf16[1024,3072]{1,0}, bf16[6144,1024]{1,0}, bf16[1024]{0}, bf16[1024,2048]{1,0}, /*index=15*/bf16[1024,3072]{1,0}, bf16[6144,1024]{1,0}, bf16[1024]{0}, bf16[1024,2048]{1,0}, bf16[1024,3072]{1,0}, /*index=20*/bf16[6144,1024]{1,0}, bf16[1024]{0}, bf16[1024,2048]{1,0}, bf16[1024,3072]{1,0}, bf16[6144,1024]{1,0}, /*index=25*/bf16[1024]{0}, bf16[1024,2048]{1,0}, bf16[1024,3072]{1,0}, bf16[6144,1024]{1,0}, bf16[1024]{0}, /*index=30*/bf16[1024,2048]{1,0}, bf16[1024,3072]{1,0}, bf16[6144,1024]{1,0}, bf16[1024]{0}, bf16[1024,2048]{1,0}, /*index=35*/bf16[1024,3072]{1,0}, bf16[6144,1024]{1,0}, bf16[1024]{0}, bf16[1024,2048]{1,0}, bf16[1024,3072]{1,0}, /*index=40*/bf16[6144,1024]{1,0}, bf16[1024]{0}, bf16[1024,2048]{1,0}, bf16[1024,3072]{1,0}, bf16[6144,1024]{1,0}, /*index=45*/bf16[1024]{0}, bf16[1024,2048]{1,0}, bf16[1024,3072]{1,0}, bf16[6144,1024]{1,0}, bf16[1024]{0}, /*index=50*/bf16[1024,2048]{1,0}, bf16[1024,3072]{1,0}, bf16[6144,1024]{1,0}, bf16[1024]{0}, bf16[1024,2048]{1,0}, /*index=55*/bf16[1024,3072]{1,0}, bf16[6144,1024]{1,0}, bf16[1024]{0}, bf16[1024,2048]{1,0}, bf16[1024,3072]{1,0}, /*index=60*/bf16[6144,1024]{1,0}, bf16[1024]{0}, bf16[1024,2048]{1,0}, bf16[1024,3072]{1,0}, bf16[6144,1024]{1,0}, /*index=65*/bf16[1024]{0}, s32[32]{0}, bf16[40960,128]{1,0}, bf16[2,4233,16,8,128]{4,3,2,1,0})->(bf16[32,8,128]{2,1,0}, bf16[32,8,128]{2,1,0}, bf16[4233,16,8,128]{3,2,1,0}, bf16[4233,16,8,128]{3,2,1,0})}, frontend_attributes={fingerprint_before_lhs="ef404aa21503720f0af68d43b47f8b58"}

%fused_gather (param_0.9: bf16[151936,1024], param_1.588: s32[32]) -> bf16[32,1,1024] {
  %param_0.9 = bf16[151936,1024]{1,0} parameter(0)
  %param_1.588 = s32[32]{0} parameter(1)
  %convert.744.1 = s64[32]{0} convert(s32[32]{0} %param_1.588), metadata={op_type="xla__cast" op_name="xla__cast" source_file="/usr/local/lib/python3.10/site-packages/torch/_ops.py" source_line=756}
  %convert.745.1 = u32[32]{0} convert(s64[32]{0} %convert.744.1), metadata={op_type="aten__index_select" op_name="aten__index_select" source_file="/usr/local/lib/python3.10/site-packages/torch/_ops.py" source_line=756}
  %bitcast.2437.1 = u32[32,1]{1,0} bitcast(u32[32]{0} %convert.745.1)
  ROOT %gather.3 = bf16[32,1,1024]{2,0,1} gather(bf16[151936,1024]{1,0} %param_0.9, u32[32,1]{1,0} %bitcast.2437.1), offset_dims={1,2}, collapsed_slice_dims={}, start_index_map={0}, index_vector_dim=1, slice_sizes={1,1024}, metadata={op_type="aten__index_select" op_name="aten__index_select" source_file="/usr/local/lib/python3.10/site-packages/torch/_ops.py" source_line=756}
}

%wrapped_concatenate_computation (param_0.741: bf16[1024,2048], param_1.611: bf16[1024,2048], param_2.396: bf16[1024,2048], param_3.324: bf16[1024,2048], param_4.165: bf16[1024,2048], param_5.68: bf16[1024,2048], param_6.64: bf16[1024,2048], param_7.42: bf16[1024,2048], param_8.15: bf16[1024,2048], param_9.4: bf16[1024,2048], param_10: bf16[1024,2048], param_11: bf16[1024,2048], param_12: bf16[1024,2048], param_13: bf16[1024,2048], param_14: bf16[1024,2048]) -> bf16[15360,2048] {
  %param_0.741 = bf16[1024,2048]{1,0} parameter(0)
  %param_1.611 = bf16[1024,2048]{1,0} parameter(1)
  %param_2.396 = bf16[1024,2048]{1,0} parameter(2)
  %param_3.324 = bf16[1024,2048]{1,0} parameter(3)
  %param_4.165 = bf16[1024,2048]{1,0} parameter(4)
  %param_5.68 = bf16[1024,2048]{1,0} parameter(5)
  %param_6.64 = bf16[1024,2048]{1,0} parameter(6)
  %param_7.42 = bf16[1024,2048]{1,0} parameter(7)
  %param_8.15 = bf16[1024,2048]{1,0} parameter(8)
  %param_9.4 = bf16[1024,2048]{1,0} parameter(9)
  %param_10 = bf16[1024,2048]{1,0} parameter(10)
  %param_11 = bf16[1024,2048]{1,0} parameter(11)
  %param_12 = bf16[1024,2048]{1,0} parameter(12)
  %param_13 = bf16[1024,2048]{1,0} parameter(13)
  %param_14 = bf16[1024,2048]{1,0} parameter(14)
  ROOT %concatenate.33.1 = bf16[15360,2048]{1,0} concatenate(bf16[1024,2048]{1,0} %param_0.741, bf16[1024,2048]{1,0} %param_1.611, bf16[1024,2048]{1,0} %param_2.396, bf16[1024,2048]{1,0} %param_3.324, bf16[1024,2048]{1,0} %param_4.165, /*index=5*/bf16[1024,2048]{1,0} %param_5.68, bf16[1024,2048]{1,0} %param_6.64, bf16[1024,2048]{1,0} %param_7.42, bf16[1024,2048]{1,0} %param_8.15, bf16[1024,2048]{1,0} %param_9.4, /*index=10*/bf16[1024,2048]{1,0} %param_10, bf16[1024,2048]{1,0} %param_11, bf16[1024,2048]{1,0} %param_12, bf16[1024,2048]{1,0} %param_13, bf16[1024,2048]{1,0} %param_14), dimensions={0}, metadata={op_type="xla__device_data" op_name="xla__device_data" source_file="/usr/local/lib/python3.10/site-packages/torch_xla/_dynamo/dynamo_bridge.py" source_line=355}
}

%gemm_fusion_dot.60_computation (parameter_0: bf16[15360,2048]) -> bf16[32,15360] {
  %parameter_0 = bf16[15360,2048]{1,0} parameter(0)
  %constant_164 = bf16[] constant(0), metadata={op_type="aten__expand" op_name="aten__expand" source_file="/usr/local/lib/python3.10/site-packages/torch/_ops.py" source_line=756}
  %broadcast.136 = bf16[32,2048]{1,0} broadcast(bf16[] %constant_164), dimensions={}, metadata={op_type="aten__expand" op_name="aten__expand" source_file="/usr/local/lib/python3.10/site-packages/torch/_ops.py" source_line=756}
  %dot.62 = bf16[15360,32]{0,1} dot(bf16[15360,2048]{1,0} %parameter_0, bf16[32,2048]{1,0} %broadcast.136), lhs_contracting_dims={1}, rhs_contracting_dims={1}, metadata={op_type="aten__mm" op_name="aten__mm" source_file="/usr/local/lib/python3.10/site-packages/torch/_ops.py" source_line=756}
  ROOT %bitcast.1179 = bf16[32,15360]{1,0} bitcast(bf16[15360,32]{0,1} %dot.62), metadata={op_type="aten__mm" op_name="aten__mm" source_file="/usr/local/lib/python3.10/site-packages/torch/_ops.py" source_line=756}
}

%AddComputation.76 (x.77: f32[], y.78: f32[]) -> f32[] {
  %y.78 = f32[] parameter(1)
  %x.77 = f32[] parameter(0)
  ROOT %add.202 = f32[] add(f32[] %x.77, f32[] %y.78)
}

%fused_computation.159 (param_0.721: f32[], param_1.586: bf16[32,1,1024], param_2.361: bf16[32,15360], param_3.277: bf16[1024]) -> bf16[32,1024] {
  %param_2.361 = bf16[32,15360]{1,0} parameter(2)
  %convert.743.51 = f32[32,15360]{1,0} convert(bf16[32,15360]{1,0} %param_2.361), metadata={op_type="xla__cast" op_name="xla__cast" source_file="/usr/local/lib/python3.10/site-packages/torch/_ops.py" source_line=756}
  %slice.213.9 = f32[32,1024]{1,0} slice(f32[32,15360]{1,0} %convert.743.51), slice={[0:32], [14336:15360]}, metadata={op_type="aten__mm" op_name="aten__mm" source_file="/usr/local/lib/python3.10/site-packages/torch/_ops.py" source_line=756}
  %param_1.586 = bf16[32,1,1024]{2,0,1} parameter(1)
  %bitcast.2440.9 = bf16[32,1024]{1,0} bitcast(bf16[32,1,1024]{2,0,1} %param_1.586)
  %convert.746.9 = f32[32,1024]{1,0} convert(bf16[32,1024]{1,0} %bitcast.2440.9), metadata={op_type="xla__cast" op_name="xla__cast" source_file="/usr/local/lib/python3.10/site-packages/torch/_ops.py" source_line=756}
  %add.203.7 = f32[32,1024]{1,0} add(f32[32,1024]{1,0} %slice.213.9, f32[32,1024]{1,0} %convert.746.9), metadata={op_type="aten__add" op_name="aten__add.520/aten__add" source_file="/usr/local/lib/python3.10/site-packages/torch/_ops.py" source_line=756}
  %multiply.518 = f32[32,1024]{1,0} multiply(f32[32,1024]{1,0} %add.203.7, f32[32,1024]{1,0} %add.203.7), metadata={op_type="aten__pow" op_name="aten__pow" source_file="/usr/local/lib/python3.10/site-packages/torch/_ops.py" source_line=756}
  %constant_492 = f32[] constant(0), metadata={op_type="aten__mean" op_name="aten__mean" source_file="/usr/local/lib/python3.10/site-packages/torch/_ops.py" source_line=756}
  %reduce.65 = f32[32]{0} reduce(f32[32,1024]{1,0} %multiply.518, f32[] %constant_492), dimensions={1}, to_apply=%AddComputation.76, metadata={op_type="aten__mean" op_name="aten__mean" source_file="/usr/local/lib/python3.10/site-packages/torch/_ops.py" source_line=756}
  %constant_491 = f32[] constant(0.0009765625), metadata={op_type="aten__mean" op_name="aten__mean" source_file="/usr/local/lib/python3.10/site-packages/torch/_ops.py" source_line=756}
  %broadcast.583 = f32[32]{0} broadcast(f32[] %constant_491), dimensions={}, metadata={op_type="aten__mean" op_name="aten__mean" source_file="/usr/local/lib/python3.10/site-packages/torch/_ops.py" source_line=756}
  %multiply.517 = f32[32]{0} multiply(f32[32]{0} %reduce.65, f32[32]{0} %broadcast.583), metadata={op_type="aten__mean" op_name="aten__mean" source_file="/usr/local/lib/python3.10/site-packages/torch/_ops.py" source_line=756}
  %param_0.721 = f32[] parameter(0)
  %broadcast.582 = f32[32]{0} broadcast(f32[] %param_0.721), dimensions={}, metadata={op_type="aten__add" op_name="aten__add.521/aten__add" source_file="/usr/local/lib/python3.10/site-packages/torch/_ops.py" source_line=756}
  %add.285 = f32[32]{0} add(f32[32]{0} %multiply.517, f32[32]{0} %broadcast.582), metadata={op_type="aten__add" op_name="aten__add.521/aten__add" source_file="/usr/local/lib/python3.10/site-packages/torch/_ops.py" source_line=756}
  %rsqrt.117 = f32[32]{0} rsqrt(f32[32]{0} %add.285), metadata={op_type="aten__rsqrt" op_name="aten__rsqrt" source_file="/usr/local/lib/python3.10/site-packages/torch/_ops.py" source_line=756}
  %broadcast.581 = f32[32,1024]{1,0} broadcast(f32[32]{0} %rsqrt.117), dimensions={0}, metadata={op_type="aten__mul" op_name="aten__mul.522/aten__mul" source_file="/usr/local/lib/python3.10/site-packages/torch/_ops.py" source_line=756}
  %multiply.516 = f32[32,1024]{1,0} multiply(f32[32,1024]{1,0} %add.203.7, f32[32,1024]{1,0} %broadcast.581), metadata={op_type="aten__mul" op_name="aten__mul.522/aten__mul" source_file="/usr/local/lib/python3.10/site-packages/torch/_ops.py" source_line=756}
  %param_3.277 = bf16[1024]{0} parameter(3)
  %convert.749.1 = f32[1024]{0} convert(bf16[1024]{0} %param_3.277), metadata={op_type="xla__cast" op_name="xla__cast" source_file="/usr/local/lib/python3.10/site-packages/torch/_ops.py" source_line=756}
  %broadcast.351.3 = f32[32,1024]{1,0} broadcast(f32[1024]{0} %convert.749.1), dimensions={1}, metadata={op_type="aten__mul" op_name="aten__mul.523/aten__mul" source_file="/usr/local/lib/python3.10/site-packages/torch/_ops.py" source_line=756}
  %multiply.356.3 = f32[32,1024]{1,0} multiply(f32[32,1024]{1,0} %multiply.516, f32[32,1024]{1,0} %broadcast.351.3), metadata={op_type="aten__mul" op_name="aten__mul.523/aten__mul" source_file="/usr/local/lib/python3.10/site-packages/torch/_ops.py" source_line=756}
  ROOT %convert.750.1 = bf16[32,1024]{1,0} convert(f32[32,1024]{1,0} %multiply.356.3), metadata={op_type="xla__cast" op_name="xla__cast" source_file="/usr/local/lib/python3.10/site-packages/torch/_ops.py" source_line=756}
}

%fused_convert (param_0.478: bf16[32,6144]) -> bf16[32,3072] {
  %param_0.478 = bf16[32,6144]{1,0} parameter(0)
  %slice.214.1 = bf16[32,3072]{1,0} slice(bf16[32,6144]{1,0} %param_0.478), slice={[0:32], [0:3072]}, metadata={op_type="xla__select" op_name="xla__select" source_file="/usr/local/lib/python3.10/site-packages/torch/_ops.py" source_line=756}
  %convert.752.8 = f32[32,3072]{1,0} convert(bf16[32,3072]{1,0} %slice.214.1)
  %constant_1_4 = bf16[] constant(1), metadata={op_type="xla__select" op_name="xla__select" source_file="/usr/local/lib/python3.10/site-packages/torch/_ops.py" source_line=756}
  %convert.966.2 = f32[] convert(bf16[] %constant_1_4)
  %broadcast.407.60 = f32[32,3072]{1,0} broadcast(f32[] %convert.966.2), dimensions={}, metadata={op_type="xla__select" op_name="xla__select" source_file="/usr/local/lib/python3.10/site-packages/torch/_ops.py" source_line=756}
  %negate.45.7 = f32[32,3072]{1,0} negate(f32[32,3072]{1,0} %convert.752.8)
  %convert.757.5 = bf16[32,3072]{1,0} convert(f32[32,3072]{1,0} %negate.45.7)
  %exponential.45.3 = bf16[32,3072]{1,0} exponential(bf16[32,3072]{1,0} %convert.757.5)
  %convert.759.1 = f32[32,3072]{1,0} convert(bf16[32,3072]{1,0} %exponential.45.3)
  %add.204.3 = f32[32,3072]{1,0} add(f32[32,3072]{1,0} %broadcast.407.60, f32[32,3072]{1,0} %convert.759.1)
  %divide.45.3 = f32[32,3072]{1,0} divide(f32[32,3072]{1,0} %broadcast.407.60, f32[32,3072]{1,0} %add.204.3), metadata={op_type="aten__silu" op_name="aten__silu" source_file="/usr/local/lib/python3.10/site-packages/torch/_ops.py" source_line=756}
  %multiply.357.5 = f32[32,3072]{1,0} multiply(f32[32,3072]{1,0} %convert.752.8, f32[32,3072]{1,0} %divide.45.3), metadata={op_type="aten__silu" op_name="aten__silu" source_file="/usr/local/lib/python3.10/site-packages/torch/_ops.py" source_line=756}
  %slice.215.1 = bf16[32,3072]{1,0} slice(bf16[32,6144]{1,0} %param_0.478), slice={[0:32], [3072:6144]}, metadata={op_type="xla__select" op_name="xla__select" source_file="/usr/local/lib/python3.10/site-packages/torch/_ops.py" source_line=756}
  %convert.761.1 = f32[32,3072]{1,0} convert(bf16[32,3072]{1,0} %slice.215.1), metadata={op_type="xla__cast" op_name="xla__cast" source_file="/usr/local/lib/python3.10/site-packages/torch/_ops.py" source_line=756}
  %multiply.358.3 = f32[32,3072]{1,0} multiply(f32[32,3072]{1,0} %multiply.357.5, f32[32,3072]{1,0} %convert.761.1), metadata={op_type="aten__mul" op_name="aten__mul.524/aten__mul" source_file="/usr/local/lib/python3.10/site-packages/torch/_ops.py" source_line=756}
  ROOT %convert.763.1 = bf16[32,3072]{1,0} convert(f32[32,3072]{1,0} %multiply.358.3), metadata={op_type="xla__cast" op_name="xla__cast" source_file="/usr/local/lib/python3.10/site-packages/torch/_ops.py" source_line=756}
}

%fused_computation.160 (param_0.723: f32[], param_1.590: bf16[1024], param_2.364: bf16[32,1,1024], param_3.281: bf16[32,15360], param_4.117: bf16[32,1024]) -> bf16[32,1024] {
  %param_3.281 = bf16[32,15360]{1,0} parameter(3)
  %convert.743.79 = f32[32,15360]{1,0} convert(bf16[32,15360]{1,0} %param_3.281), metadata={op_type="xla__cast" op_name="xla__cast" source_file="/usr/local/lib/python3.10/site-packages/torch/_ops.py" source_line=756}
  %slice.212.5 = f32[32,1024]{1,0} slice(f32[32,15360]{1,0} %convert.743.79), slice={[0:32], [13312:14336]}, metadata={op_type="aten__mm" op_name="aten__mm" source_file="/usr/local/lib/python3.10/site-packages/torch/_ops.py" source_line=756}
  %param_4.117 = bf16[32,1024]{1,0} parameter(4)
  %convert.764.3 = f32[32,1024]{1,0} convert(bf16[32,1024]{1,0} %param_4.117), metadata={op_type="xla__cast" op_name="xla__cast" source_file="/usr/local/lib/python3.10/site-packages/torch/_ops.py" source_line=756}
  %slice.213.11 = f32[32,1024]{1,0} slice(f32[32,15360]{1,0} %convert.743.79), slice={[0:32], [14336:15360]}, metadata={op_type="aten__mm" op_name="aten__mm" source_file="/usr/local/lib/python3.10/site-packages/torch/_ops.py" source_line=756}
  %param_2.364 = bf16[32,1,1024]{2,0,1} parameter(2)
  %bitcast.2440.11 = bf16[32,1024]{1,0} bitcast(bf16[32,1,1024]{2,0,1} %param_2.364)
  %convert.746.11 = f32[32,1024]{1,0} convert(bf16[32,1024]{1,0} %bitcast.2440.11), metadata={op_type="xla__cast" op_name="xla__cast" source_file="/usr/local/lib/python3.10/site-packages/torch/_ops.py" source_line=756}
  %add.203.9 = f32[32,1024]{1,0} add(f32[32,1024]{1,0} %slice.213.11, f32[32,1024]{1,0} %convert.746.11), metadata={op_type="aten__add" op_name="aten__add.520/aten__add" source_file="/usr/local/lib/python3.10/site-packages/torch/_ops.py" source_line=756}
  %add.206.3 = f32[32,1024]{1,0} add(f32[32,1024]{1,0} %convert.764.3, f32[32,1024]{1,0} %add.203.9), metadata={op_type="aten__add" op_name="aten__add.525/aten__add" source_file="/usr/local/lib/python3.10/site-packages/torch/_ops.py" source_line=756}
  %add.207.3 = f32[32,1024]{1,0} add(f32[32,1024]{1,0} %slice.212.5, f32[32,1024]{1,0} %add.206.3), metadata={op_type="aten__add" op_name="aten__add.538/aten__add" source_file="/usr/local/lib/python3.10/site-packages/torch/_ops.py" source_line=756}
  %multiply.426 = f32[32,1024]{1,0} multiply(f32[32,1024]{1,0} %add.207.3, f32[32,1024]{1,0} %add.207.3), metadata={op_type="aten__pow" op_name="aten__pow" source_file="/usr/local/lib/python3.10/site-packages/torch/_ops.py" source_line=756}
  %constant_414 = f32[] constant(0), metadata={op_type="aten__mean" op_name="aten__mean" source_file="/usr/local/lib/python3.10/site-packages/torch/_ops.py" source_line=756}
  %reduce.37 = f32[32]{0} reduce(f32[32,1024]{1,0} %multiply.426, f32[] %constant_414), dimensions={1}, to_apply=%AddComputation.76, metadata={op_type="aten__mean" op_name="aten__mean" source_file="/usr/local/lib/python3.10/site-packages/torch/_ops.py" source_line=756}
  %constant_413 = f32[] constant(0.0009765625), metadata={op_type="aten__mean" op_name="aten__mean" source_file="/usr/local/lib/python3.10/site-packages/torch/_ops.py" source_line=756}
  %broadcast.488 = f32[32]{0} broadcast(f32[] %constant_413), dimensions={}, metadata={op_type="aten__mean" op_name="aten__mean" source_file="/usr/local/lib/python3.10/site-packages/torch/_ops.py" source_line=756}
  %multiply.425 = f32[32]{0} multiply(f32[32]{0} %reduce.37, f32[32]{0} %broadcast.488), metadata={op_type="aten__mean" op_name="aten__mean" source_file="/usr/local/lib/python3.10/site-packages/torch/_ops.py" source_line=756}
  %param_0.723 = f32[] parameter(0)
  %broadcast.487 = f32[32]{0} broadcast(f32[] %param_0.723), dimensions={}, metadata={op_type="aten__add" op_name="aten__add.521/aten__add" source_file="/usr/local/lib/python3.10/site-packages/torch/_ops.py" source_line=756}
  %add.255 = f32[32]{0} add(f32[32]{0} %multiply.425, f32[32]{0} %broadcast.487), metadata={op_type="aten__add" op_name="aten__add.539/aten__add" source_file="/usr/local/lib/python3.10/site-packages/torch/_ops.py" source_line=756}
  %rsqrt.88 = f32[32]{0} rsqrt(f32[32]{0} %add.255), metadata={op_type="aten__rsqrt" op_name="aten__rsqrt" source_file="/usr/local/lib/python3.10/site-packages/torch/_ops.py" source_line=756}
  %broadcast.485 = f32[32,1024]{1,0} broadcast(f32[32]{0} %rsqrt.88), dimensions={0}, metadata={op_type="aten__mul" op_name="aten__mul.540/aten__mul" source_file="/usr/local/lib/python3.10/site-packages/torch/_ops.py" source_line=756}
  %multiply.424 = f32[32,1024]{1,0} multiply(f32[32,1024]{1,0} %add.207.3, f32[32,1024]{1,0} %broadcast.485), metadata={op_type="aten__mul" op_name="aten__mul.540/aten__mul" source_file="/usr/local/lib/python3.10/site-packages/torch/_ops.py" source_line=756}
  %param_1.590 = bf16[1024]{0} parameter(1)
  %convert.765.1 = f32[1024]{0} convert(bf16[1024]{0} %param_1.590), metadata={op_type="xla__cast" op_name="xla__cast" source_file="/usr/local/lib/python3.10/site-packages/torch/_ops.py" source_line=756}
  %broadcast.354.3 = f32[32,1024]{1,0} broadcast(f32[1024]{0} %convert.765.1), dimensions={1}, metadata={op_type="aten__mul" op_name="aten__mul.541/aten__mul" source_file="/usr/local/lib/python3.10/site-packages/torch/_ops.py" source_line=756}
  %multiply.359.3 = f32[32,1024]{1,0} multiply(f32[32,1024]{1,0} %multiply.424, f32[32,1024]{1,0} %broadcast.354.3), metadata={op_type="aten__mul" op_name="aten__mul.541/aten__mul" source_file="/usr/local/lib/python3.10/site-packages/torch/_ops.py" source_line=756}
  ROOT %convert.768.1 = bf16[32,1024]{1,0} convert(f32[32,1024]{1,0} %multiply.359.3), metadata={op_type="xla__cast" op_name="xla__cast" source_file="/usr/local/lib/python3.10/site-packages/torch/_ops.py" source_line=756}
}

%fused_convert.1 (param_0.480: bf16[32,6144]) -> bf16[32,3072] {
  %param_0.480 = bf16[32,6144]{1,0} parameter(0)
  %slice.216.1 = bf16[32,3072]{1,0} slice(bf16[32,6144]{1,0} %param_0.480), slice={[0:32], [0:3072]}, metadata={op_type="xla__select" op_name="xla__select" source_file="/usr/local/lib/python3.10/site-packages/torch/_ops.py" source_line=756}
  %convert.769.8 = f32[32,3072]{1,0} convert(bf16[32,3072]{1,0} %slice.216.1)
  %constant_1_6 = bf16[] constant(1), metadata={op_type="xla__select" op_name="xla__select" source_file="/usr/local/lib/python3.10/site-packages/torch/_ops.py" source_line=756}
  %convert.966.4 = f32[] convert(bf16[] %constant_1_6)
  %broadcast.407.58 = f32[32,3072]{1,0} broadcast(f32[] %convert.966.4), dimensions={}, metadata={op_type="xla__select" op_name="xla__select" source_file="/usr/local/lib/python3.10/site-packages/torch/_ops.py" source_line=756}
  %negate.46.7 = f32[32,3072]{1,0} negate(f32[32,3072]{1,0} %convert.769.8)
  %convert.773.5 = bf16[32,3072]{1,0} convert(f32[32,3072]{1,0} %negate.46.7)
  %exponential.46.3 = bf16[32,3072]{1,0} exponential(bf16[32,3072]{1,0} %convert.773.5)
  %convert.774.1 = f32[32,3072]{1,0} convert(bf16[32,3072]{1,0} %exponential.46.3)
  %add.208.3 = f32[32,3072]{1,0} add(f32[32,3072]{1,0} %broadcast.407.58, f32[32,3072]{1,0} %convert.774.1)
  %divide.46.3 = f32[32,3072]{1,0} divide(f32[32,3072]{1,0} %broadcast.407.58, f32[32,3072]{1,0} %add.208.3), metadata={op_type="aten__silu" op_name="aten__silu" source_file="/usr/local/lib/python3.10/site-packages/torch/_ops.py" source_line=756}
  %multiply.360.5 = f32[32,3072]{1,0} multiply(f32[32,3072]{1,0} %convert.769.8, f32[32,3072]{1,0} %divide.46.3), metadata={op_type="aten__silu" op_name="aten__silu" source_file="/usr/local/lib/python3.10/site-packages/torch/_ops.py" source_line=756}
  %slice.217.1 = bf16[32,3072]{1,0} slice(bf16[32,6144]{1,0} %param_0.480), slice={[0:32], [3072:6144]}, metadata={op_type="xla__select" op_name="xla__select" source_file="/usr/local/lib/python3.10/site-packages/torch/_ops.py" source_line=756}
  %convert.775.1 = f32[32,3072]{1,0} convert(bf16[32,3072]{1,0} %slice.217.1), metadata={op_type="xla__cast" op_name="xla__cast" source_file="/usr/local/lib/python3.10/site-packages/torch/_ops.py" source_line=756}
  %multiply.361.3 = f32[32,3072]{1,0} multiply(f32[32,3072]{1,0} %multiply.360.5, f32[32,3072]{1,0} %convert.775.1), metadata={op_type="aten__mul" op_name="aten__mul.542/aten__mul" source_file="/usr/local/lib/python3.10/site-packages/torch/_ops.py" source_line=756}
  ROOT %convert.776.1 = bf16[32,3072]{1,0} convert(f32[32,3072]{1,0} %multiply.361.3), metadata={op_type="xla__cast" op_name="xla__cast" source_file="/usr/local/lib/python3.10/site-packages/torch/_ops.py" source_line=756}
}

%fused_computation.161 (param_0.738: f32[], param_1.608: bf16[1024], param_2.391: bf16[32,1,1024], param_3.318: bf16[32,15360], param_4.158: bf16[32,1024], param_5.58: bf16[32,1024]) -> bf16[32,1024] {
  %param_3.318 = bf16[32,15360]{1,0} parameter(3)
  %convert.743.121 = f32[32,15360]{1,0} convert(bf16[32,15360]{1,0} %param_3.318), metadata={op_type="xla__cast" op_name="xla__cast" source_file="/usr/local/lib/python3.10/site-packages/torch/_ops.py" source_line=756}
  %slice.211.5 = f32[32,1024]{1,0} slice(f32[32,15360]{1,0} %convert.743.121), slice={[0:32], [12288:13312]}, metadata={op_type="aten__mm" op_name="aten__mm" source_file="/usr/local/lib/python3.10/site-packages/torch/_ops.py" source_line=756}
  %param_5.58 = bf16[32,1024]{1,0} parameter(5)
  %convert.777.3 = f32[32,1024]{1,0} convert(bf16[32,1024]{1,0} %param_5.58), metadata={op_type="xla__cast" op_name="xla__cast" source_file="/usr/local/lib/python3.10/site-packages/torch/_ops.py" source_line=756}
  %slice.212.9 = f32[32,1024]{1,0} slice(f32[32,15360]{1,0} %convert.743.121), slice={[0:32], [13312:14336]}, metadata={op_type="aten__mm" op_name="aten__mm" source_file="/usr/local/lib/python3.10/site-packages/torch/_ops.py" source_line=756}
  %param_4.158 = bf16[32,1024]{1,0} parameter(4)
  %convert.764.7 = f32[32,1024]{1,0} convert(bf16[32,1024]{1,0} %param_4.158), metadata={op_type="xla__cast" op_name="xla__cast" source_file="/usr/local/lib/python3.10/site-packages/torch/_ops.py" source_line=756}
  %slice.213.15 = f32[32,1024]{1,0} slice(f32[32,15360]{1,0} %convert.743.121), slice={[0:32], [14336:15360]}, metadata={op_type="aten__mm" op_name="aten__mm" source_file="/usr/local/lib/python3.10/site-packages/torch/_ops.py" source_line=756}
  %param_2.391 = bf16[32,1,1024]{2,0,1} parameter(2)
  %bitcast.2440.15 = bf16[32,1024]{1,0} bitcast(bf16[32,1,1024]{2,0,1} %param_2.391)
  %convert.746.15 = f32[32,1024]{1,0} convert(bf16[32,1024]{1,0} %bitcast.2440.15), metadata={op_type="xla__cast" op_name="xla__cast" source_file="/usr/local/lib/python3.10/site-packages/torch/_ops.py" source_line=756}
  %add.203.13 = f32[32,1024]{1,0} add(f32[32,1024]{1,0} %slice.213.15, f32[32,1024]{1,0} %convert.746.15), metadata={op_type="aten__add" op_name="aten__add.520/aten__add" source_file="/usr/local/lib/python3.10/site-packages/torch/_ops.py" source_line=756}
  %add.206.7 = f32[32,1024]{1,0} add(f32[32,1024]{1,0} %convert.764.7, f32[32,1024]{1,0} %add.203.13), metadata={op_type="aten__add" op_name="aten__add.525/aten__add" source_file="/usr/local/lib/python3.10/site-packages/torch/_ops.py" source_line=756}
  %add.207.7 = f32[32,1024]{1,0} add(f32[32,1024]{1,0} %slice.212.9, f32[32,1024]{1,0} %add.206.7), metadata={op_type="aten__add" op_name="aten__add.538/aten__add" source_file="/usr/local/lib/python3.10/site-packages/torch/_ops.py" source_line=756}
  %add.209.3 = f32[32,1024]{1,0} add(f32[32,1024]{1,0} %convert.777.3, f32[32,1024]{1,0} %add.207.7), metadata={op_type="aten__add" op_name="aten__add.543/aten__add" source_file="/usr/local/lib/python3.10/site-packages/torch/_ops.py" source_line=756}
  %add.210.3 = f32[32,1024]{1,0} add(f32[32,1024]{1,0} %slice.211.5, f32[32,1024]{1,0} %add.209.3), metadata={op_type="aten__add" op_name="aten__add.556/aten__add" source_file="/usr/local/lib/python3.10/site-packages/torch/_ops.py" source_line=756}
  %multiply.432 = f32[32,1024]{1,0} multiply(f32[32,1024]{1,0} %add.210.3, f32[32,1024]{1,0} %add.210.3), metadata={op_type="aten__pow" op_name="aten__pow" source_file="/usr/local/lib/python3.10/site-packages/torch/_ops.py" source_line=756}
  %constant_419 = f32[] constant(0), metadata={op_type="aten__mean" op_name="aten__mean" source_file="/usr/local/lib/python3.10/site-packages/torch/_ops.py" source_line=756}
  %reduce.39 = f32[32]{0} reduce(f32[32,1024]{1,0} %multiply.432, f32[] %constant_419), dimensions={1}, to_apply=%AddComputation.76, metadata={op_type="aten__mean" op_name="aten__mean" source_file="/usr/local/lib/python3.10/site-packages/torch/_ops.py" source_line=756}
  %constant_418 = f32[] constant(0.0009765625), metadata={op_type="aten__mean" op_name="aten__mean" source_file="/usr/local/lib/python3.10/site-packages/torch/_ops.py" source_line=756}
  %broadcast.495 = f32[32]{0} broadcast(f32[] %constant_418), dimensions={}, metadata={op_type="aten__mean" op_name="aten__mean" source_file="/usr/local/lib/python3.10/site-packages/torch/_ops.py" source_line=756}
  %multiply.431 = f32[32]{0} multiply(f32[32]{0} %reduce.39, f32[32]{0} %broadcast.495), metadata={op_type="aten__mean" op_name="aten__mean" source_file="/usr/local/lib/python3.10/site-packages/torch/_ops.py" source_line=756}
  %param_0.738 = f32[] parameter(0)
  %broadcast.494 = f32[32]{0} broadcast(f32[] %param_0.738), dimensions={}, metadata={op_type="aten__add" op_name="aten__add.521/aten__add" source_file="/usr/local/lib/python3.10/site-packages/torch/_ops.py" source_line=756}
  %add.257 = f32[32]{0} add(f32[32]{0} %multiply.431, f32[32]{0} %broadcast.494), metadata={op_type="aten__add" op_name="aten__add.557/aten__add" source_file="/usr/local/lib/python3.10/site-packages/torch/_ops.py" source_line=756}
  %rsqrt.90 = f32[32]{0} rsqrt(f32[32]{0} %add.257), metadata={op_type="aten__rsqrt" op_name="aten__rsqrt" source_file="/usr/local/lib/python3.10/site-packages/torch/_ops.py" source_line=756}
  %broadcast.493 = f32[32,1024]{1,0} broadcast(f32[32]{0} %rsqrt.90), dimensions={0}, metadata={op_type="aten__mul" op_name="aten__mul.558/aten__mul" source_file="/usr/local/lib/python3.10/site-packages/torch/_ops.py" source_line=756}
  %multiply.430 = f32[32,1024]{1,0} multiply(f32[32,1024]{1,0} %add.210.3, f32[32,1024]{1,0} %broadcast.493), metadata={op_type="aten__mul" op_name="aten__mul.558/aten__mul" source_file="/usr/local/lib/python3.10/site-packages/torch/_ops.py" source_line=756}
  %param_1.608 = bf16[1024]{0} parameter(1)
  %convert.779.1 = f32[1024]{0} convert(bf16[1024]{0} %param_1.608), metadata={op_type="xla__cast" op_name="xla__cast" source_file="/usr/local/lib/python3.10/site-packages/torch/_ops.py" source_line=756}
  %broadcast.357.3 = f32[32,1024]{1,0} broadcast(f32[1024]{0} %convert.779.1), dimensions={1}, metadata={op_type="aten__mul" op_name="aten__mul.559/aten__mul" source_file="/usr/local/lib/python3.10/site-packages/torch/_ops.py" source_line=756}
  %multiply.362.3 = f32[32,1024]{1,0} multiply(f32[32,1024]{1,0} %multiply.430, f32[32,1024]{1,0} %broadcast.357.3), metadata={op_type="aten__mul" op_name="aten__mul.559/aten__mul" source_file="/usr/local/lib/python3.10/site-packages/torch/_ops.py" source_line=756}
  ROOT %convert.780.1 = bf16[32,1024]{1,0} convert(f32[32,1024]{1,0} %multiply.362.3), metadata={op_type="xla__cast" op_name="xla__cast" source_file="/usr/local/lib/python3.10/site-packages/torch/_ops.py" source_line=756}
}

%fused_convert.2 (param_0.482: bf16[32,6144]) -> bf16[32,3072] {
  %param_0.482 = bf16[32,6144]{1,0} parameter(0)
  %slice.218.1 = bf16[32,3072]{1,0} slice(bf16[32,6144]{1,0} %param_0.482), slice={[0:32], [0:3072]}, metadata={op_type="xla__select" op_name="xla__select" source_file="/usr/local/lib/python3.10/site-packages/torch/_ops.py" source_line=756}
  %convert.781.8 = f32[32,3072]{1,0} convert(bf16[32,3072]{1,0} %slice.218.1)
  %constant_1_8 = bf16[] constant(1), metadata={op_type="xla__select" op_name="xla__select" source_file="/usr/local/lib/python3.10/site-packages/torch/_ops.py" source_line=756}
  %convert.966.6 = f32[] convert(bf16[] %constant_1_8)
  %broadcast.407.56 = f32[32,3072]{1,0} broadcast(f32[] %convert.966.6), dimensions={}, metadata={op_type="xla__select" op_name="xla__select" source_file="/usr/local/lib/python3.10/site-packages/torch/_ops.py" source_line=756}
  %negate.47.7 = f32[32,3072]{1,0} negate(f32[32,3072]{1,0} %convert.781.8)
  %convert.787.5 = bf16[32,3072]{1,0} convert(f32[32,3072]{1,0} %negate.47.7)
  %exponential.47.3 = bf16[32,3072]{1,0} exponential(bf16[32,3072]{1,0} %convert.787.5)
  %convert.788.1 = f32[32,3072]{1,0} convert(bf16[32,3072]{1,0} %exponential.47.3)
  %add.211.3 = f32[32,3072]{1,0} add(f32[32,3072]{1,0} %broadcast.407.56, f32[32,3072]{1,0} %convert.788.1)
  %divide.47.3 = f32[32,3072]{1,0} divide(f32[32,3072]{1,0} %broadcast.407.56, f32[32,3072]{1,0} %add.211.3), metadata={op_type="aten__silu" op_name="aten__silu" source_file="/usr/local/lib/python3.10/site-packages/torch/_ops.py" source_line=756}
  %multiply.363.5 = f32[32,3072]{1,0} multiply(f32[32,3072]{1,0} %convert.781.8, f32[32,3072]{1,0} %divide.47.3), metadata={op_type="aten__silu" op_name="aten__silu" source_file="/usr/local/lib/python3.10/site-packages/torch/_ops.py" source_line=756}
  %slice.219.1 = bf16[32,3072]{1,0} slice(bf16[32,6144]{1,0} %param_0.482), slice={[0:32], [3072:6144]}, metadata={op_type="xla__select" op_name="xla__select" source_file="/usr/local/lib/python3.10/site-packages/torch/_ops.py" source_line=756}
  %convert.790.1 = f32[32,3072]{1,0} convert(bf16[32,3072]{1,0} %slice.219.1), metadata={op_type="xla__cast" op_name="xla__cast" source_file="/usr/local/lib/python3.10/site-packages/torch/_ops.py" source_line=756}
  %multiply.364.3 = f32[32,3072]{1,0} multiply(f32[32,3072]{1,0} %multiply.363.5, f32[32,3072]{1,0} %convert.790.1), metadata={op_type="aten__mul" op_name="aten__mul.560/aten__mul" source_file="/usr/local/lib/python3.10/site-packages/torch/_ops.py" source_line=756}
  ROOT %convert.791.1 = bf16[32,3072]{1,0} convert(f32[32,3072]{1,0} %multiply.364.3), metadata={op_type="xla__cast" op_name="xla__cast" source_file="/usr/local/lib/python3.10/site-packages/torch/_ops.py" source_line=756}
}

%fused_computation.162 (param_0.702: f32[], param_1.574: bf16[1024], param_2.395: bf16[32,1024], param_3.323: bf16[32,15360], param_4.164: bf16[32,1,1024], param_5.67: bf16[32,1024], param_6.63: bf16[32,1024]) -> bf16[32,1024] {
  %param_3.323 = bf16[32,15360]{1,0} parameter(3)
  %convert.743.73 = f32[32,15360]{1,0} convert(bf16[32,15360]{1,0} %param_3.323), metadata={op_type="xla__cast" op_name="xla__cast" source_file="/usr/local/lib/python3.10/site-packages/torch/_ops.py" source_line=756}
  %slice.210.5 = f32[32,1024]{1,0} slice(f32[32,15360]{1,0} %convert.743.73), slice={[0:32], [11264:12288]}, metadata={op_type="aten__mm" op_name="aten__mm" source_file="/usr/local/lib/python3.10/site-packages/torch/_ops.py" source_line=756}
  %param_2.395 = bf16[32,1024]{1,0} parameter(2)
  %convert.792.3 = f32[32,1024]{1,0} convert(bf16[32,1024]{1,0} %param_2.395), metadata={op_type="xla__cast" op_name="xla__cast" source_file="/usr/local/lib/python3.10/site-packages/torch/_ops.py" source_line=756}
  %slice.211.9 = f32[32,1024]{1,0} slice(f32[32,15360]{1,0} %convert.743.73), slice={[0:32], [12288:13312]}, metadata={op_type="aten__mm" op_name="aten__mm" source_file="/usr/local/lib/python3.10/site-packages/torch/_ops.py" source_line=756}
  %param_6.63 = bf16[32,1024]{1,0} parameter(6)
  %convert.777.7 = f32[32,1024]{1,0} convert(bf16[32,1024]{1,0} %param_6.63), metadata={op_type="xla__cast" op_name="xla__cast" source_file="/usr/local/lib/python3.10/site-packages/torch/_ops.py" source_line=756}
  %slice.212.13 = f32[32,1024]{1,0} slice(f32[32,15360]{1,0} %convert.743.73), slice={[0:32], [13312:14336]}, metadata={op_type="aten__mm" op_name="aten__mm" source_file="/usr/local/lib/python3.10/site-packages/torch/_ops.py" source_line=756}
  %param_5.67 = bf16[32,1024]{1,0} parameter(5)
  %convert.764.11 = f32[32,1024]{1,0} convert(bf16[32,1024]{1,0} %param_5.67), metadata={op_type="xla__cast" op_name="xla__cast" source_file="/usr/local/lib/python3.10/site-packages/torch/_ops.py" source_line=756}
  %slice.213.19 = f32[32,1024]{1,0} slice(f32[32,15360]{1,0} %convert.743.73), slice={[0:32], [14336:15360]}, metadata={op_type="aten__mm" op_name="aten__mm" source_file="/usr/local/lib/python3.10/site-packages/torch/_ops.py" source_line=756}
  %param_4.164 = bf16[32,1,1024]{2,0,1} parameter(4)
  %bitcast.2440.19 = bf16[32,1024]{1,0} bitcast(bf16[32,1,1024]{2,0,1} %param_4.164)
  %convert.746.19 = f32[32,1024]{1,0} convert(bf16[32,1024]{1,0} %bitcast.2440.19), metadata={op_type="xla__cast" op_name="xla__cast" source_file="/usr/local/lib/python3.10/site-packages/torch/_ops.py" source_line=756}
  %add.203.17 = f32[32,1024]{1,0} add(f32[32,1024]{1,0} %slice.213.19, f32[32,1024]{1,0} %convert.746.19), metadata={op_type="aten__add" op_name="aten__add.520/aten__add" source_file="/usr/local/lib/python3.10/site-packages/torch/_ops.py" source_line=756}
  %add.206.11 = f32[32,1024]{1,0} add(f32[32,1024]{1,0} %convert.764.11, f32[32,1024]{1,0} %add.203.17), metadata={op_type="aten__add" op_name="aten__add.525/aten__add" source_file="/usr/local/lib/python3.10/site-packages/torch/_ops.py" source_line=756}
  %add.207.11 = f32[32,1024]{1,0} add(f32[32,1024]{1,0} %slice.212.13, f32[32,1024]{1,0} %add.206.11), metadata={op_type="aten__add" op_name="aten__add.538/aten__add" source_file="/usr/local/lib/python3.10/site-packages/torch/_ops.py" source_line=756}
  %add.209.7 = f32[32,1024]{1,0} add(f32[32,1024]{1,0} %convert.777.7, f32[32,1024]{1,0} %add.207.11), metadata={op_type="aten__add" op_name="aten__add.543/aten__add" source_file="/usr/local/lib/python3.10/site-packages/torch/_ops.py" source_line=756}
  %add.210.7 = f32[32,1024]{1,0} add(f32[32,1024]{1,0} %slice.211.9, f32[32,1024]{1,0} %add.209.7), metadata={op_type="aten__add" op_name="aten__add.556/aten__add" source_file="/usr/local/lib/python3.10/site-packages/torch/_ops.py" source_line=756}
  %add.212.3 = f32[32,1024]{1,0} add(f32[32,1024]{1,0} %convert.792.3, f32[32,1024]{1,0} %add.210.7), metadata={op_type="aten__add" op_name="aten__add.561/aten__add" source_file="/usr/local/lib/python3.10/site-packages/torch/_ops.py" source_line=756}
  %add.213.3 = f32[32,1024]{1,0} add(f32[32,1024]{1,0} %slice.210.5, f32[32,1024]{1,0} %add.212.3), metadata={op_type="aten__add" op_name="aten__add.574/aten__add" source_file="/usr/local/lib/python3.10/site-packages/torch/_ops.py" source_line=756}
  %multiply.438 = f32[32,1024]{1,0} multiply(f32[32,1024]{1,0} %add.213.3, f32[32,1024]{1,0} %add.213.3), metadata={op_type="aten__pow" op_name="aten__pow" source_file="/usr/local/lib/python3.10/site-packages/torch/_ops.py" source_line=756}
  %constant_424 = f32[] constant(0), metadata={op_type="aten__mean" op_name="aten__mean" source_file="/usr/local/lib/python3.10/site-packages/torch/_ops.py" source_line=756}
  %reduce.41 = f32[32]{0} reduce(f32[32,1024]{1,0} %multiply.438, f32[] %constant_424), dimensions={1}, to_apply=%AddComputation.76, metadata={op_type="aten__mean" op_name="aten__mean" source_file="/usr/local/lib/python3.10/site-packages/torch/_ops.py" source_line=756}
  %constant_423 = f32[] constant(0.0009765625), metadata={op_type="aten__mean" op_name="aten__mean" source_file="/usr/local/lib/python3.10/site-packages/torch/_ops.py" source_line=756}
  %broadcast.501 = f32[32]{0} broadcast(f32[] %constant_423), dimensions={}, metadata={op_type="aten__mean" op_name="aten__mean" source_file="/usr/local/lib/python3.10/site-packages/torch/_ops.py" source_line=756}
  %multiply.437 = f32[32]{0} multiply(f32[32]{0} %reduce.41, f32[32]{0} %broadcast.501), metadata={op_type="aten__mean" op_name="aten__mean" source_file="/usr/local/lib/python3.10/site-packages/torch/_ops.py" source_line=756}
  %param_0.702 = f32[] parameter(0)
  %broadcast.500 = f32[32]{0} broadcast(f32[] %param_0.702), dimensions={}, metadata={op_type="aten__add" op_name="aten__add.521/aten__add" source_file="/usr/local/lib/python3.10/site-packages/torch/_ops.py" source_line=756}
  %add.259 = f32[32]{0} add(f32[32]{0} %multiply.437, f32[32]{0} %broadcast.500), metadata={op_type="aten__add" op_name="aten__add.575/aten__add" source_file="/usr/local/lib/python3.10/site-packages/torch/_ops.py" source_line=756}
  %rsqrt.92 = f32[32]{0} rsqrt(f32[32]{0} %add.259), metadata={op_type="aten__rsqrt" op_name="aten__rsqrt" source_file="/usr/local/lib/python3.10/site-packages/torch/_ops.py" source_line=756}
  %broadcast.499 = f32[32,1024]{1,0} broadcast(f32[32]{0} %rsqrt.92), dimensions={0}, metadata={op_type="aten__mul" op_name="aten__mul.576/aten__mul" source_file="/usr/local/lib/python3.10/site-packages/torch/_ops.py" source_line=756}
  %multiply.436 = f32[32,1024]{1,0} multiply(f32[32,1024]{1,0} %add.213.3, f32[32,1024]{1,0} %broadcast.499), metadata={op_type="aten__mul" op_name="aten__mul.576/aten__mul" source_file="/usr/local/lib/python3.10/site-packages/torch/_ops.py" source_line=756}
  %param_1.574 = bf16[1024]{0} parameter(1)
  %convert.793.1 = f32[1024]{0} convert(bf16[1024]{0} %param_1.574), metadata={op_type="xla__cast" op_name="xla__cast" source_file="/usr/local/lib/python3.10/site-packages/torch/_ops.py" source_line=756}
  %broadcast.361.3 = f32[32,1024]{1,0} broadcast(f32[1024]{0} %convert.793.1), dimensions={1}, metadata={op_type="aten__mul" op_name="aten__mul.577/aten__mul" source_file="/usr/local/lib/python3.10/site-packages/torch/_ops.py" source_line=756}
  %multiply.365.3 = f32[32,1024]{1,0} multiply(f32[32,1024]{1,0} %multiply.436, f32[32,1024]{1,0} %broadcast.361.3), metadata={op_type="aten__mul" op_name="aten__mul.577/aten__mul" source_file="/usr/local/lib/python3.10/site-packages/torch/_ops.py" source_line=756}
  ROOT %convert.794.1 = bf16[32,1024]{1,0} convert(f32[32,1024]{1,0} %multiply.365.3), metadata={op_type="xla__cast" op_name="xla__cast" source_file="/usr/local/lib/python3.10/site-packages/torch/_ops.py" source_line=756}
}

%fused_convert.3 (param_0.484: bf16[32,6144]) -> bf16[32,3072] {
  %param_0.484 = bf16[32,6144]{1,0} parameter(0)
  %slice.220.1 = bf16[32,3072]{1,0} slice(bf16[32,6144]{1,0} %param_0.484), slice={[0:32], [0:3072]}, metadata={op_type="xla__select" op_name="xla__select" source_file="/usr/local/lib/python3.10/site-packages/torch/_ops.py" source_line=756}
  %convert.795.8 = f32[32,3072]{1,0} convert(bf16[32,3072]{1,0} %slice.220.1)
  %constant_1_10 = bf16[] constant(1), metadata={op_type="xla__select" op_name="xla__select" source_file="/usr/local/lib/python3.10/site-packages/torch/_ops.py" source_line=756}
  %convert.966.8 = f32[] convert(bf16[] %constant_1_10)
  %broadcast.407.54 = f32[32,3072]{1,0} broadcast(f32[] %convert.966.8), dimensions={}, metadata={op_type="xla__select" op_name="xla__select" source_file="/usr/local/lib/python3.10/site-packages/torch/_ops.py" source_line=756}
  %negate.48.7 = f32[32,3072]{1,0} negate(f32[32,3072]{1,0} %convert.795.8)
  %convert.799.5 = bf16[32,3072]{1,0} convert(f32[32,3072]{1,0} %negate.48.7)
  %exponential.48.3 = bf16[32,3072]{1,0} exponential(bf16[32,3072]{1,0} %convert.799.5)
  %convert.800.1 = f32[32,3072]{1,0} convert(bf16[32,3072]{1,0} %exponential.48.3)
  %add.214.3 = f32[32,3072]{1,0} add(f32[32,3072]{1,0} %broadcast.407.54, f32[32,3072]{1,0} %convert.800.1)
  %divide.48.3 = f32[32,3072]{1,0} divide(f32[32,3072]{1,0} %broadcast.407.54, f32[32,3072]{1,0} %add.214.3), metadata={op_type="aten__silu" op_name="aten__silu" source_file="/usr/local/lib/python3.10/site-packages/torch/_ops.py" source_line=756}
  %multiply.366.5 = f32[32,3072]{1,0} multiply(f32[32,3072]{1,0} %convert.795.8, f32[32,3072]{1,0} %divide.48.3), metadata={op_type="aten__silu" op_name="aten__silu" source_file="/usr/local/lib/python3.10/site-packages/torch/_ops.py" source_line=756}
  %slice.221.1 = bf16[32,3072]{1,0} slice(bf16[32,6144]{1,0} %param_0.484), slice={[0:32], [3072:6144]}, metadata={op_type="xla__select" op_name="xla__select" source_file="/usr/local/lib/python3.10/site-packages/torch/_ops.py" source_line=756}
  %convert.801.1 = f32[32,3072]{1,0} convert(bf16[32,3072]{1,0} %slice.221.1), metadata={op_type="xla__cast" op_name="xla__cast" source_file="/usr/local/lib/python3.10/site-packages/torch/_ops.py" source_line=756}
  %multiply.367.3 = f32[32,3072]{1,0} multiply(f32[32,3072]{1,0} %multiply.366.5, f32[32,3072]{1,0} %convert.801.1), metadata={op_type="aten__mul" op_name="aten__mul.578/aten__mul" source_file="/usr/local/lib/python3.10/site-packages/torch/_ops.py" source_line=756}
  ROOT %convert.802.1 = bf16[32,3072]{1,0} convert(f32[32,3072]{1,0} %multiply.367.3), metadata={op_type="xla__cast" op_name="xla__cast" source_file="/usr/local/lib/python3.10/site-packages/torch/_ops.py" source_line=756}
}

%fused_add (param_0.577: bf16[32,15360], param_1.576: bf16[32,1024], param_2.393: bf16[32,1024], param_3.321: bf16[32,1,1024], param_4.162: bf16[32,1024], param_5.63: bf16[32,1024]) -> f32[32,1024] {
  %param_0.577 = bf16[32,15360]{1,0} parameter(0)
  %convert.743.25 = f32[32,15360]{1,0} convert(bf16[32,15360]{1,0} %param_0.577), metadata={op_type="xla__cast" op_name="xla__cast" source_file="/usr/local/lib/python3.10/site-packages/torch/_ops.py" source_line=756}
  %slice.209.3 = f32[32,1024]{1,0} slice(f32[32,15360]{1,0} %convert.743.25), slice={[0:32], [10240:11264]}, metadata={op_type="aten__mm" op_name="aten__mm" source_file="/usr/local/lib/python3.10/site-packages/torch/_ops.py" source_line=756}
  %param_1.576 = bf16[32,1024]{1,0} parameter(1)
  %convert.803.1 = f32[32,1024]{1,0} convert(bf16[32,1024]{1,0} %param_1.576), metadata={op_type="xla__cast" op_name="xla__cast" source_file="/usr/local/lib/python3.10/site-packages/torch/_ops.py" source_line=756}
  %slice.210.7 = f32[32,1024]{1,0} slice(f32[32,15360]{1,0} %convert.743.25), slice={[0:32], [11264:12288]}, metadata={op_type="aten__mm" op_name="aten__mm" source_file="/usr/local/lib/python3.10/site-packages/torch/_ops.py" source_line=756}
  %param_2.393 = bf16[32,1024]{1,0} parameter(2)
  %convert.792.5 = f32[32,1024]{1,0} convert(bf16[32,1024]{1,0} %param_2.393), metadata={op_type="xla__cast" op_name="xla__cast" source_file="/usr/local/lib/python3.10/site-packages/torch/_ops.py" source_line=756}
  %slice.211.7 = f32[32,1024]{1,0} slice(f32[32,15360]{1,0} %convert.743.25), slice={[0:32], [12288:13312]}, metadata={op_type="aten__mm" op_name="aten__mm" source_file="/usr/local/lib/python3.10/site-packages/torch/_ops.py" source_line=756}
  %param_5.63 = bf16[32,1024]{1,0} parameter(5)
  %convert.777.5 = f32[32,1024]{1,0} convert(bf16[32,1024]{1,0} %param_5.63), metadata={op_type="xla__cast" op_name="xla__cast" source_file="/usr/local/lib/python3.10/site-packages/torch/_ops.py" source_line=756}
  %slice.212.11 = f32[32,1024]{1,0} slice(f32[32,15360]{1,0} %convert.743.25), slice={[0:32], [13312:14336]}, metadata={op_type="aten__mm" op_name="aten__mm" source_file="/usr/local/lib/python3.10/site-packages/torch/_ops.py" source_line=756}
  %param_4.162 = bf16[32,1024]{1,0} parameter(4)
  %convert.764.9 = f32[32,1024]{1,0} convert(bf16[32,1024]{1,0} %param_4.162), metadata={op_type="xla__cast" op_name="xla__cast" source_file="/usr/local/lib/python3.10/site-packages/torch/_ops.py" source_line=756}
  %slice.213.17 = f32[32,1024]{1,0} slice(f32[32,15360]{1,0} %convert.743.25), slice={[0:32], [14336:15360]}, metadata={op_type="aten__mm" op_name="aten__mm" source_file="/usr/local/lib/python3.10/site-packages/torch/_ops.py" source_line=756}
  %param_3.321 = bf16[32,1,1024]{2,0,1} parameter(3)
  %bitcast.2440.17 = bf16[32,1024]{1,0} bitcast(bf16[32,1,1024]{2,0,1} %param_3.321)
  %convert.746.17 = f32[32,1024]{1,0} convert(bf16[32,1024]{1,0} %bitcast.2440.17), metadata={op_type="xla__cast" op_name="xla__cast" source_file="/usr/local/lib/python3.10/site-packages/torch/_ops.py" source_line=756}
  %add.203.15 = f32[32,1024]{1,0} add(f32[32,1024]{1,0} %slice.213.17, f32[32,1024]{1,0} %convert.746.17), metadata={op_type="aten__add" op_name="aten__add.520/aten__add" source_file="/usr/local/lib/python3.10/site-packages/torch/_ops.py" source_line=756}
  %add.206.9 = f32[32,1024]{1,0} add(f32[32,1024]{1,0} %convert.764.9, f32[32,1024]{1,0} %add.203.15), metadata={op_type="aten__add" op_name="aten__add.525/aten__add" source_file="/usr/local/lib/python3.10/site-packages/torch/_ops.py" source_line=756}
  %add.207.9 = f32[32,1024]{1,0} add(f32[32,1024]{1,0} %slice.212.11, f32[32,1024]{1,0} %add.206.9), metadata={op_type="aten__add" op_name="aten__add.538/aten__add" source_file="/usr/local/lib/python3.10/site-packages/torch/_ops.py" source_line=756}
  %add.209.5 = f32[32,1024]{1,0} add(f32[32,1024]{1,0} %convert.777.5, f32[32,1024]{1,0} %add.207.9), metadata={op_type="aten__add" op_name="aten__add.543/aten__add" source_file="/usr/local/lib/python3.10/site-packages/torch/_ops.py" source_line=756}
  %add.210.5 = f32[32,1024]{1,0} add(f32[32,1024]{1,0} %slice.211.7, f32[32,1024]{1,0} %add.209.5), metadata={op_type="aten__add" op_name="aten__add.556/aten__add" source_file="/usr/local/lib/python3.10/site-packages/torch/_ops.py" source_line=756}
  %add.212.5 = f32[32,1024]{1,0} add(f32[32,1024]{1,0} %convert.792.5, f32[32,1024]{1,0} %add.210.5), metadata={op_type="aten__add" op_name="aten__add.561/aten__add" source_file="/usr/local/lib/python3.10/site-packages/torch/_ops.py" source_line=756}
  %add.213.5 = f32[32,1024]{1,0} add(f32[32,1024]{1,0} %slice.210.7, f32[32,1024]{1,0} %add.212.5), metadata={op_type="aten__add" op_name="aten__add.574/aten__add" source_file="/usr/local/lib/python3.10/site-packages/torch/_ops.py" source_line=756}
  %add.215.1 = f32[32,1024]{1,0} add(f32[32,1024]{1,0} %convert.803.1, f32[32,1024]{1,0} %add.213.5), metadata={op_type="aten__add" op_name="aten__add.579/aten__add" source_file="/usr/local/lib/python3.10/site-packages/torch/_ops.py" source_line=756}
  ROOT %add.216.1 = f32[32,1024]{1,0} add(f32[32,1024]{1,0} %slice.209.3, f32[32,1024]{1,0} %add.215.1), metadata={op_type="aten__add" op_name="aten__add.592/aten__add" source_file="/usr/local/lib/python3.10/site-packages/torch/_ops.py" source_line=756}
}

%fused_computation.163 (param_0.682: f32[32,1024], param_1.549: f32[], param_2.308: bf16[1024]) -> bf16[32,1024] {
  %param_0.682 = f32[32,1024]{1,0} parameter(0)
  %multiply.444 = f32[32,1024]{1,0} multiply(f32[32,1024]{1,0} %param_0.682, f32[32,1024]{1,0} %param_0.682), metadata={op_type="aten__pow" op_name="aten__pow" source_file="/usr/local/lib/python3.10/site-packages/torch/_ops.py" source_line=756}
  %constant_429 = f32[] constant(0), metadata={op_type="aten__mean" op_name="aten__mean" source_file="/usr/local/lib/python3.10/site-packages/torch/_ops.py" source_line=756}
  %reduce.43 = f32[32]{0} reduce(f32[32,1024]{1,0} %multiply.444, f32[] %constant_429), dimensions={1}, to_apply=%AddComputation.76, metadata={op_type="aten__mean" op_name="aten__mean" source_file="/usr/local/lib/python3.10/site-packages/torch/_ops.py" source_line=756}
  %constant_428 = f32[] constant(0.0009765625), metadata={op_type="aten__mean" op_name="aten__mean" source_file="/usr/local/lib/python3.10/site-packages/torch/_ops.py" source_line=756}
  %broadcast.508 = f32[32]{0} broadcast(f32[] %constant_428), dimensions={}, metadata={op_type="aten__mean" op_name="aten__mean" source_file="/usr/local/lib/python3.10/site-packages/torch/_ops.py" source_line=756}
  %multiply.443 = f32[32]{0} multiply(f32[32]{0} %reduce.43, f32[32]{0} %broadcast.508), metadata={op_type="aten__mean" op_name="aten__mean" source_file="/usr/local/lib/python3.10/site-packages/torch/_ops.py" source_line=756}
  %param_1.549 = f32[] parameter(1)
  %broadcast.507 = f32[32]{0} broadcast(f32[] %param_1.549), dimensions={}, metadata={op_type="aten__add" op_name="aten__add.521/aten__add" source_file="/usr/local/lib/python3.10/site-packages/torch/_ops.py" source_line=756}
  %add.262 = f32[32]{0} add(f32[32]{0} %multiply.443, f32[32]{0} %broadcast.507), metadata={op_type="aten__add" op_name="aten__add.593/aten__add" source_file="/usr/local/lib/python3.10/site-packages/torch/_ops.py" source_line=756}
  %rsqrt.94 = f32[32]{0} rsqrt(f32[32]{0} %add.262), metadata={op_type="aten__rsqrt" op_name="aten__rsqrt" source_file="/usr/local/lib/python3.10/site-packages/torch/_ops.py" source_line=756}
  %broadcast.506 = f32[32,1024]{1,0} broadcast(f32[32]{0} %rsqrt.94), dimensions={0}, metadata={op_type="aten__mul" op_name="aten__mul.594/aten__mul" source_file="/usr/local/lib/python3.10/site-packages/torch/_ops.py" source_line=756}
  %multiply.442 = f32[32,1024]{1,0} multiply(f32[32,1024]{1,0} %param_0.682, f32[32,1024]{1,0} %broadcast.506), metadata={op_type="aten__mul" op_name="aten__mul.594/aten__mul" source_file="/usr/local/lib/python3.10/site-packages/torch/_ops.py" source_line=756}
  %param_2.308 = bf16[1024]{0} parameter(2)
  %convert.805.1 = f32[1024]{0} convert(bf16[1024]{0} %param_2.308), metadata={op_type="xla__cast" op_name="xla__cast" source_file="/usr/local/lib/python3.10/site-packages/torch/_ops.py" source_line=756}
  %broadcast.364.3 = f32[32,1024]{1,0} broadcast(f32[1024]{0} %convert.805.1), dimensions={1}, metadata={op_type="aten__mul" op_name="aten__mul.595/aten__mul" source_file="/usr/local/lib/python3.10/site-packages/torch/_ops.py" source_line=756}
  %multiply.368.3 = f32[32,1024]{1,0} multiply(f32[32,1024]{1,0} %multiply.442, f32[32,1024]{1,0} %broadcast.364.3), metadata={op_type="aten__mul" op_name="aten__mul.595/aten__mul" source_file="/usr/local/lib/python3.10/site-packages/torch/_ops.py" source_line=756}
  ROOT %convert.806.1 = bf16[32,1024]{1,0} convert(f32[32,1024]{1,0} %multiply.368.3), metadata={op_type="xla__cast" op_name="xla__cast" source_file="/usr/local/lib/python3.10/site-packages/torch/_ops.py" source_line=756}
}

%fused_convert.4 (param_0.486: bf16[32,6144]) -> bf16[32,3072] {
  %param_0.486 = bf16[32,6144]{1,0} parameter(0)
  %slice.222.1 = bf16[32,3072]{1,0} slice(bf16[32,6144]{1,0} %param_0.486), slice={[0:32], [0:3072]}, metadata={op_type="xla__select" op_name="xla__select" source_file="/usr/local/lib/python3.10/site-packages/torch/_ops.py" source_line=756}
  %convert.807.8 = f32[32,3072]{1,0} convert(bf16[32,3072]{1,0} %slice.222.1)
  %constant_1_12 = bf16[] constant(1), metadata={op_type="xla__select" op_name="xla__select" source_file="/usr/local/lib/python3.10/site-packages/torch/_ops.py" source_line=756}
  %convert.966.10 = f32[] convert(bf16[] %constant_1_12)
  %broadcast.407.52 = f32[32,3072]{1,0} broadcast(f32[] %convert.966.10), dimensions={}, metadata={op_type="xla__select" op_name="xla__select" source_file="/usr/local/lib/python3.10/site-packages/torch/_ops.py" source_line=756}
  %negate.49.7 = f32[32,3072]{1,0} negate(f32[32,3072]{1,0} %convert.807.8)
  %convert.812.5 = bf16[32,3072]{1,0} convert(f32[32,3072]{1,0} %negate.49.7)
  %exponential.49.3 = bf16[32,3072]{1,0} exponential(bf16[32,3072]{1,0} %convert.812.5)
  %convert.813.1 = f32[32,3072]{1,0} convert(bf16[32,3072]{1,0} %exponential.49.3)
  %add.217.3 = f32[32,3072]{1,0} add(f32[32,3072]{1,0} %broadcast.407.52, f32[32,3072]{1,0} %convert.813.1)
  %divide.49.3 = f32[32,3072]{1,0} divide(f32[32,3072]{1,0} %broadcast.407.52, f32[32,3072]{1,0} %add.217.3), metadata={op_type="aten__silu" op_name="aten__silu" source_file="/usr/local/lib/python3.10/site-packages/torch/_ops.py" source_line=756}
  %multiply.369.5 = f32[32,3072]{1,0} multiply(f32[32,3072]{1,0} %convert.807.8, f32[32,3072]{1,0} %divide.49.3), metadata={op_type="aten__silu" op_name="aten__silu" source_file="/usr/local/lib/python3.10/site-packages/torch/_ops.py" source_line=756}
  %slice.223.1 = bf16[32,3072]{1,0} slice(bf16[32,6144]{1,0} %param_0.486), slice={[0:32], [3072:6144]}, metadata={op_type="xla__select" op_name="xla__select" source_file="/usr/local/lib/python3.10/site-packages/torch/_ops.py" source_line=756}
  %convert.814.1 = f32[32,3072]{1,0} convert(bf16[32,3072]{1,0} %slice.223.1), metadata={op_type="xla__cast" op_name="xla__cast" source_file="/usr/local/lib/python3.10/site-packages/torch/_ops.py" source_line=756}
  %multiply.370.3 = f32[32,3072]{1,0} multiply(f32[32,3072]{1,0} %multiply.369.5, f32[32,3072]{1,0} %convert.814.1), metadata={op_type="aten__mul" op_name="aten__mul.596/aten__mul" source_file="/usr/local/lib/python3.10/site-packages/torch/_ops.py" source_line=756}
  ROOT %convert.815.1 = bf16[32,3072]{1,0} convert(f32[32,3072]{1,0} %multiply.370.3), metadata={op_type="xla__cast" op_name="xla__cast" source_file="/usr/local/lib/python3.10/site-packages/torch/_ops.py" source_line=756}
}

%fused_computation.164 (param_0.699: f32[], param_1.570: bf16[1024], param_2.338: f32[32,1024], param_3.256: bf16[32,1024], param_4.97: bf16[32,15360]) -> bf16[32,1024] {
  %param_4.97 = bf16[32,15360]{1,0} parameter(4)
  %convert.743.69 = f32[32,15360]{1,0} convert(bf16[32,15360]{1,0} %param_4.97), metadata={op_type="xla__cast" op_name="xla__cast" source_file="/usr/local/lib/python3.10/site-packages/torch/_ops.py" source_line=756}
  %slice.208.5 = f32[32,1024]{1,0} slice(f32[32,15360]{1,0} %convert.743.69), slice={[0:32], [9216:10240]}, metadata={op_type="aten__mm" op_name="aten__mm" source_file="/usr/local/lib/python3.10/site-packages/torch/_ops.py" source_line=756}
  %param_3.256 = bf16[32,1024]{1,0} parameter(3)
  %convert.816.3 = f32[32,1024]{1,0} convert(bf16[32,1024]{1,0} %param_3.256), metadata={op_type="xla__cast" op_name="xla__cast" source_file="/usr/local/lib/python3.10/site-packages/torch/_ops.py" source_line=756}
  %param_2.338 = f32[32,1024]{1,0} parameter(2)
  %add.218.3 = f32[32,1024]{1,0} add(f32[32,1024]{1,0} %convert.816.3, f32[32,1024]{1,0} %param_2.338), metadata={op_type="aten__add" op_name="aten__add.597/aten__add" source_file="/usr/local/lib/python3.10/site-packages/torch/_ops.py" source_line=756}
  %add.219.3 = f32[32,1024]{1,0} add(f32[32,1024]{1,0} %slice.208.5, f32[32,1024]{1,0} %add.218.3), metadata={op_type="aten__add" op_name="aten__add.610/aten__add" source_file="/usr/local/lib/python3.10/site-packages/torch/_ops.py" source_line=756}
  %multiply.451 = f32[32,1024]{1,0} multiply(f32[32,1024]{1,0} %add.219.3, f32[32,1024]{1,0} %add.219.3), metadata={op_type="aten__pow" op_name="aten__pow" source_file="/usr/local/lib/python3.10/site-packages/torch/_ops.py" source_line=756}
  %constant_438 = f32[] constant(0), metadata={op_type="aten__mean" op_name="aten__mean" source_file="/usr/local/lib/python3.10/site-packages/torch/_ops.py" source_line=756}
  %reduce.45 = f32[32]{0} reduce(f32[32,1024]{1,0} %multiply.451, f32[] %constant_438), dimensions={1}, to_apply=%AddComputation.76, metadata={op_type="aten__mean" op_name="aten__mean" source_file="/usr/local/lib/python3.10/site-packages/torch/_ops.py" source_line=756}
  %constant_437 = f32[] constant(0.0009765625), metadata={op_type="aten__mean" op_name="aten__mean" source_file="/usr/local/lib/python3.10/site-packages/torch/_ops.py" source_line=756}
  %broadcast.514 = f32[32]{0} broadcast(f32[] %constant_437), dimensions={}, metadata={op_type="aten__mean" op_name="aten__mean" source_file="/usr/local/lib/python3.10/site-packages/torch/_ops.py" source_line=756}
  %multiply.450 = f32[32]{0} multiply(f32[32]{0} %reduce.45, f32[32]{0} %broadcast.514), metadata={op_type="aten__mean" op_name="aten__mean" source_file="/usr/local/lib/python3.10/site-packages/torch/_ops.py" source_line=756}
  %param_0.699 = f32[] parameter(0)
  %broadcast.513 = f32[32]{0} broadcast(f32[] %param_0.699), dimensions={}, metadata={op_type="aten__add" op_name="aten__add.521/aten__add" source_file="/usr/local/lib/python3.10/site-packages/torch/_ops.py" source_line=756}
  %add.264 = f32[32]{0} add(f32[32]{0} %multiply.450, f32[32]{0} %broadcast.513), metadata={op_type="aten__add" op_name="aten__add.611/aten__add" source_file="/usr/local/lib/python3.10/site-packages/torch/_ops.py" source_line=756}
  %rsqrt.97 = f32[32]{0} rsqrt(f32[32]{0} %add.264), metadata={op_type="aten__rsqrt" op_name="aten__rsqrt" source_file="/usr/local/lib/python3.10/site-packages/torch/_ops.py" source_line=756}
  %broadcast.512 = f32[32,1024]{1,0} broadcast(f32[32]{0} %rsqrt.97), dimensions={0}, metadata={op_type="aten__mul" op_name="aten__mul.612/aten__mul" source_file="/usr/local/lib/python3.10/site-packages/torch/_ops.py" source_line=756}
  %multiply.448 = f32[32,1024]{1,0} multiply(f32[32,1024]{1,0} %add.219.3, f32[32,1024]{1,0} %broadcast.512), metadata={op_type="aten__mul" op_name="aten__mul.612/aten__mul" source_file="/usr/local/lib/python3.10/site-packages/torch/_ops.py" source_line=756}
  %param_1.570 = bf16[1024]{0} parameter(1)
  %convert.817.1 = f32[1024]{0} convert(bf16[1024]{0} %param_1.570), metadata={op_type="xla__cast" op_name="xla__cast" source_file="/usr/local/lib/python3.10/site-packages/torch/_ops.py" source_line=756}
  %broadcast.367.3 = f32[32,1024]{1,0} broadcast(f32[1024]{0} %convert.817.1), dimensions={1}, metadata={op_type="aten__mul" op_name="aten__mul.613/aten__mul" source_file="/usr/local/lib/python3.10/site-packages/torch/_ops.py" source_line=756}
  %multiply.371.3 = f32[32,1024]{1,0} multiply(f32[32,1024]{1,0} %multiply.448, f32[32,1024]{1,0} %broadcast.367.3), metadata={op_type="aten__mul" op_name="aten__mul.613/aten__mul" source_file="/usr/local/lib/python3.10/site-packages/torch/_ops.py" source_line=756}
  ROOT %convert.818.1 = bf16[32,1024]{1,0} convert(f32[32,1024]{1,0} %multiply.371.3), metadata={op_type="xla__cast" op_name="xla__cast" source_file="/usr/local/lib/python3.10/site-packages/torch/_ops.py" source_line=756}
}

%fused_convert.5 (param_0.488: bf16[32,6144]) -> bf16[32,3072] {
  %param_0.488 = bf16[32,6144]{1,0} parameter(0)
  %slice.224.1 = bf16[32,3072]{1,0} slice(bf16[32,6144]{1,0} %param_0.488), slice={[0:32], [0:3072]}, metadata={op_type="xla__select" op_name="xla__select" source_file="/usr/local/lib/python3.10/site-packages/torch/_ops.py" source_line=756}
  %convert.821.8 = f32[32,3072]{1,0} convert(bf16[32,3072]{1,0} %slice.224.1)
  %constant_1_14 = bf16[] constant(1), metadata={op_type="xla__select" op_name="xla__select" source_file="/usr/local/lib/python3.10/site-packages/torch/_ops.py" source_line=756}
  %convert.966.12 = f32[] convert(bf16[] %constant_1_14)
  %broadcast.407.50 = f32[32,3072]{1,0} broadcast(f32[] %convert.966.12), dimensions={}, metadata={op_type="xla__select" op_name="xla__select" source_file="/usr/local/lib/python3.10/site-packages/torch/_ops.py" source_line=756}
  %negate.50.7 = f32[32,3072]{1,0} negate(f32[32,3072]{1,0} %convert.821.8)
  %convert.827.5 = bf16[32,3072]{1,0} convert(f32[32,3072]{1,0} %negate.50.7)
  %exponential.50.3 = bf16[32,3072]{1,0} exponential(bf16[32,3072]{1,0} %convert.827.5)
  %convert.828.1 = f32[32,3072]{1,0} convert(bf16[32,3072]{1,0} %exponential.50.3)
  %add.220.3 = f32[32,3072]{1,0} add(f32[32,3072]{1,0} %broadcast.407.50, f32[32,3072]{1,0} %convert.828.1)
  %divide.50.3 = f32[32,3072]{1,0} divide(f32[32,3072]{1,0} %broadcast.407.50, f32[32,3072]{1,0} %add.220.3), metadata={op_type="aten__silu" op_name="aten__silu" source_file="/usr/local/lib/python3.10/site-packages/torch/_ops.py" source_line=756}
  %multiply.372.5 = f32[32,3072]{1,0} multiply(f32[32,3072]{1,0} %convert.821.8, f32[32,3072]{1,0} %divide.50.3), metadata={op_type="aten__silu" op_name="aten__silu" source_file="/usr/local/lib/python3.10/site-packages/torch/_ops.py" source_line=756}
  %slice.225.1 = bf16[32,3072]{1,0} slice(bf16[32,6144]{1,0} %param_0.488), slice={[0:32], [3072:6144]}, metadata={op_type="xla__select" op_name="xla__select" source_file="/usr/local/lib/python3.10/site-packages/torch/_ops.py" source_line=756}
  %convert.829.1 = f32[32,3072]{1,0} convert(bf16[32,3072]{1,0} %slice.225.1), metadata={op_type="xla__cast" op_name="xla__cast" source_file="/usr/local/lib/python3.10/site-packages/torch/_ops.py" source_line=756}
  %multiply.373.3 = f32[32,3072]{1,0} multiply(f32[32,3072]{1,0} %multiply.372.5, f32[32,3072]{1,0} %convert.829.1), metadata={op_type="aten__mul" op_name="aten__mul.614/aten__mul" source_file="/usr/local/lib/python3.10/site-packages/torch/_ops.py" source_line=756}
  ROOT %convert.831.1 = bf16[32,3072]{1,0} convert(f32[32,3072]{1,0} %multiply.373.3), metadata={op_type="xla__cast" op_name="xla__cast" source_file="/usr/local/lib/python3.10/site-packages/torch/_ops.py" source_line=756}
}

%fused_computation.165 (param_0.734: f32[], param_1.604: bf16[1024], param_2.384: f32[32,1024], param_3.308: bf16[32,1024], param_4.147: bf16[32,15360], param_5.43: bf16[32,1024]) -> bf16[32,1024] {
  %param_4.147 = bf16[32,15360]{1,0} parameter(4)
  %convert.743.107 = f32[32,15360]{1,0} convert(bf16[32,15360]{1,0} %param_4.147), metadata={op_type="xla__cast" op_name="xla__cast" source_file="/usr/local/lib/python3.10/site-packages/torch/_ops.py" source_line=756}
  %slice.207.5 = f32[32,1024]{1,0} slice(f32[32,15360]{1,0} %convert.743.107), slice={[0:32], [8192:9216]}, metadata={op_type="aten__mm" op_name="aten__mm" source_file="/usr/local/lib/python3.10/site-packages/torch/_ops.py" source_line=756}
  %param_5.43 = bf16[32,1024]{1,0} parameter(5)
  %convert.833.3 = f32[32,1024]{1,0} convert(bf16[32,1024]{1,0} %param_5.43), metadata={op_type="xla__cast" op_name="xla__cast" source_file="/usr/local/lib/python3.10/site-packages/torch/_ops.py" source_line=756}
  %slice.208.9 = f32[32,1024]{1,0} slice(f32[32,15360]{1,0} %convert.743.107), slice={[0:32], [9216:10240]}, metadata={op_type="aten__mm" op_name="aten__mm" source_file="/usr/local/lib/python3.10/site-packages/torch/_ops.py" source_line=756}
  %param_3.308 = bf16[32,1024]{1,0} parameter(3)
  %convert.816.7 = f32[32,1024]{1,0} convert(bf16[32,1024]{1,0} %param_3.308), metadata={op_type="xla__cast" op_name="xla__cast" source_file="/usr/local/lib/python3.10/site-packages/torch/_ops.py" source_line=756}
  %param_2.384 = f32[32,1024]{1,0} parameter(2)
  %add.218.7 = f32[32,1024]{1,0} add(f32[32,1024]{1,0} %convert.816.7, f32[32,1024]{1,0} %param_2.384), metadata={op_type="aten__add" op_name="aten__add.597/aten__add" source_file="/usr/local/lib/python3.10/site-packages/torch/_ops.py" source_line=756}
  %add.219.7 = f32[32,1024]{1,0} add(f32[32,1024]{1,0} %slice.208.9, f32[32,1024]{1,0} %add.218.7), metadata={op_type="aten__add" op_name="aten__add.610/aten__add" source_file="/usr/local/lib/python3.10/site-packages/torch/_ops.py" source_line=756}
  %add.221.3 = f32[32,1024]{1,0} add(f32[32,1024]{1,0} %convert.833.3, f32[32,1024]{1,0} %add.219.7), metadata={op_type="aten__add" op_name="aten__add.615/aten__add" source_file="/usr/local/lib/python3.10/site-packages/torch/_ops.py" source_line=756}
  %add.222.3 = f32[32,1024]{1,0} add(f32[32,1024]{1,0} %slice.207.5, f32[32,1024]{1,0} %add.221.3), metadata={op_type="aten__add" op_name="aten__add.628/aten__add" source_file="/usr/local/lib/python3.10/site-packages/torch/_ops.py" source_line=756}
  %multiply.459 = f32[32,1024]{1,0} multiply(f32[32,1024]{1,0} %add.222.3, f32[32,1024]{1,0} %add.222.3), metadata={op_type="aten__pow" op_name="aten__pow" source_file="/usr/local/lib/python3.10/site-packages/torch/_ops.py" source_line=756}
  %constant_446 = f32[] constant(0), metadata={op_type="aten__mean" op_name="aten__mean" source_file="/usr/local/lib/python3.10/site-packages/torch/_ops.py" source_line=756}
  %reduce.47 = f32[32]{0} reduce(f32[32,1024]{1,0} %multiply.459, f32[] %constant_446), dimensions={1}, to_apply=%AddComputation.76, metadata={op_type="aten__mean" op_name="aten__mean" source_file="/usr/local/lib/python3.10/site-packages/torch/_ops.py" source_line=756}
  %constant_445 = f32[] constant(0.0009765625), metadata={op_type="aten__mean" op_name="aten__mean" source_file="/usr/local/lib/python3.10/site-packages/torch/_ops.py" source_line=756}
  %broadcast.521 = f32[32]{0} broadcast(f32[] %constant_445), dimensions={}, metadata={op_type="aten__mean" op_name="aten__mean" source_file="/usr/local/lib/python3.10/site-packages/torch/_ops.py" source_line=756}
  %multiply.457 = f32[32]{0} multiply(f32[32]{0} %reduce.47, f32[32]{0} %broadcast.521), metadata={op_type="aten__mean" op_name="aten__mean" source_file="/usr/local/lib/python3.10/site-packages/torch/_ops.py" source_line=756}
  %param_0.734 = f32[] parameter(0)
  %broadcast.519 = f32[32]{0} broadcast(f32[] %param_0.734), dimensions={}, metadata={op_type="aten__add" op_name="aten__add.521/aten__add" source_file="/usr/local/lib/python3.10/site-packages/torch/_ops.py" source_line=756}
  %add.266 = f32[32]{0} add(f32[32]{0} %multiply.457, f32[32]{0} %broadcast.519), metadata={op_type="aten__add" op_name="aten__add.629/aten__add" source_file="/usr/local/lib/python3.10/site-packages/torch/_ops.py" source_line=756}
  %rsqrt.99 = f32[32]{0} rsqrt(f32[32]{0} %add.266), metadata={op_type="aten__rsqrt" op_name="aten__rsqrt" source_file="/usr/local/lib/python3.10/site-packages/torch/_ops.py" source_line=756}
  %broadcast.518 = f32[32,1024]{1,0} broadcast(f32[32]{0} %rsqrt.99), dimensions={0}, metadata={op_type="aten__mul" op_name="aten__mul.630/aten__mul" source_file="/usr/local/lib/python3.10/site-packages/torch/_ops.py" source_line=756}
  %multiply.456 = f32[32,1024]{1,0} multiply(f32[32,1024]{1,0} %add.222.3, f32[32,1024]{1,0} %broadcast.518), metadata={op_type="aten__mul" op_name="aten__mul.630/aten__mul" source_file="/usr/local/lib/python3.10/site-packages/torch/_ops.py" source_line=756}
  %param_1.604 = bf16[1024]{0} parameter(1)
  %convert.835.1 = f32[1024]{0} convert(bf16[1024]{0} %param_1.604), metadata={op_type="xla__cast" op_name="xla__cast" source_file="/usr/local/lib/python3.10/site-packages/torch/_ops.py" source_line=756}
  %broadcast.370.3 = f32[32,1024]{1,0} broadcast(f32[1024]{0} %convert.835.1), dimensions={1}, metadata={op_type="aten__mul" op_name="aten__mul.631/aten__mul" source_file="/usr/local/lib/python3.10/site-packages/torch/_ops.py" source_line=756}
  %multiply.374.3 = f32[32,1024]{1,0} multiply(f32[32,1024]{1,0} %multiply.456, f32[32,1024]{1,0} %broadcast.370.3), metadata={op_type="aten__mul" op_name="aten__mul.631/aten__mul" source_file="/usr/local/lib/python3.10/site-packages/torch/_ops.py" source_line=756}
  ROOT %convert.836.1 = bf16[32,1024]{1,0} convert(f32[32,1024]{1,0} %multiply.374.3), metadata={op_type="xla__cast" op_name="xla__cast" source_file="/usr/local/lib/python3.10/site-packages/torch/_ops.py" source_line=756}
}

%fused_convert.6 (param_0.490: bf16[32,6144]) -> bf16[32,3072] {
  %param_0.490 = bf16[32,6144]{1,0} parameter(0)
  %slice.226.1 = bf16[32,3072]{1,0} slice(bf16[32,6144]{1,0} %param_0.490), slice={[0:32], [0:3072]}, metadata={op_type="xla__select" op_name="xla__select" source_file="/usr/local/lib/python3.10/site-packages/torch/_ops.py" source_line=756}
  %convert.837.8 = f32[32,3072]{1,0} convert(bf16[32,3072]{1,0} %slice.226.1)
  %constant_1_16 = bf16[] constant(1), metadata={op_type="xla__select" op_name="xla__select" source_file="/usr/local/lib/python3.10/site-packages/torch/_ops.py" source_line=756}
  %convert.966.14 = f32[] convert(bf16[] %constant_1_16)
  %broadcast.407.48 = f32[32,3072]{1,0} broadcast(f32[] %convert.966.14), dimensions={}, metadata={op_type="xla__select" op_name="xla__select" source_file="/usr/local/lib/python3.10/site-packages/torch/_ops.py" source_line=756}
  %negate.51.7 = f32[32,3072]{1,0} negate(f32[32,3072]{1,0} %convert.837.8)
  %convert.843.5 = bf16[32,3072]{1,0} convert(f32[32,3072]{1,0} %negate.51.7)
  %exponential.51.3 = bf16[32,3072]{1,0} exponential(bf16[32,3072]{1,0} %convert.843.5)
  %convert.844.1 = f32[32,3072]{1,0} convert(bf16[32,3072]{1,0} %exponential.51.3)
  %add.224.3 = f32[32,3072]{1,0} add(f32[32,3072]{1,0} %broadcast.407.48, f32[32,3072]{1,0} %convert.844.1)
  %divide.51.3 = f32[32,3072]{1,0} divide(f32[32,3072]{1,0} %broadcast.407.48, f32[32,3072]{1,0} %add.224.3), metadata={op_type="aten__silu" op_name="aten__silu" source_file="/usr/local/lib/python3.10/site-packages/torch/_ops.py" source_line=756}
  %multiply.375.5 = f32[32,3072]{1,0} multiply(f32[32,3072]{1,0} %convert.837.8, f32[32,3072]{1,0} %divide.51.3), metadata={op_type="aten__silu" op_name="aten__silu" source_file="/usr/local/lib/python3.10/site-packages/torch/_ops.py" source_line=756}
  %slice.227.1 = bf16[32,3072]{1,0} slice(bf16[32,6144]{1,0} %param_0.490), slice={[0:32], [3072:6144]}, metadata={op_type="xla__select" op_name="xla__select" source_file="/usr/local/lib/python3.10/site-packages/torch/_ops.py" source_line=756}
  %convert.845.1 = f32[32,3072]{1,0} convert(bf16[32,3072]{1,0} %slice.227.1), metadata={op_type="xla__cast" op_name="xla__cast" source_file="/usr/local/lib/python3.10/site-packages/torch/_ops.py" source_line=756}
  %multiply.376.3 = f32[32,3072]{1,0} multiply(f32[32,3072]{1,0} %multiply.375.5, f32[32,3072]{1,0} %convert.845.1), metadata={op_type="aten__mul" op_name="aten__mul.632/aten__mul" source_file="/usr/local/lib/python3.10/site-packages/torch/_ops.py" source_line=756}
  ROOT %convert.846.1 = bf16[32,3072]{1,0} convert(f32[32,3072]{1,0} %multiply.376.3), metadata={op_type="xla__cast" op_name="xla__cast" source_file="/usr/local/lib/python3.10/site-packages/torch/_ops.py" source_line=756}
}

%fused_computation.166 (param_0.696: f32[], param_1.566: bf16[1024], param_2.388: bf16[32,1024], param_3.313: bf16[32,15360], param_4.153: f32[32,1024], param_5.52: bf16[32,1024], param_6.45: bf16[32,1024]) -> bf16[32,1024] {
  %param_3.313 = bf16[32,15360]{1,0} parameter(3)
  %convert.743.65 = f32[32,15360]{1,0} convert(bf16[32,15360]{1,0} %param_3.313), metadata={op_type="xla__cast" op_name="xla__cast" source_file="/usr/local/lib/python3.10/site-packages/torch/_ops.py" source_line=756}
  %slice.206.5 = f32[32,1024]{1,0} slice(f32[32,15360]{1,0} %convert.743.65), slice={[0:32], [7168:8192]}, metadata={op_type="aten__mm" op_name="aten__mm" source_file="/usr/local/lib/python3.10/site-packages/torch/_ops.py" source_line=756}
  %param_2.388 = bf16[32,1024]{1,0} parameter(2)
  %convert.847.3 = f32[32,1024]{1,0} convert(bf16[32,1024]{1,0} %param_2.388), metadata={op_type="xla__cast" op_name="xla__cast" source_file="/usr/local/lib/python3.10/site-packages/torch/_ops.py" source_line=756}
  %slice.207.9 = f32[32,1024]{1,0} slice(f32[32,15360]{1,0} %convert.743.65), slice={[0:32], [8192:9216]}, metadata={op_type="aten__mm" op_name="aten__mm" source_file="/usr/local/lib/python3.10/site-packages/torch/_ops.py" source_line=756}
  %param_6.45 = bf16[32,1024]{1,0} parameter(6)
  %convert.833.7 = f32[32,1024]{1,0} convert(bf16[32,1024]{1,0} %param_6.45), metadata={op_type="xla__cast" op_name="xla__cast" source_file="/usr/local/lib/python3.10/site-packages/torch/_ops.py" source_line=756}
  %slice.208.13 = f32[32,1024]{1,0} slice(f32[32,15360]{1,0} %convert.743.65), slice={[0:32], [9216:10240]}, metadata={op_type="aten__mm" op_name="aten__mm" source_file="/usr/local/lib/python3.10/site-packages/torch/_ops.py" source_line=756}
  %param_5.52 = bf16[32,1024]{1,0} parameter(5)
  %convert.816.11 = f32[32,1024]{1,0} convert(bf16[32,1024]{1,0} %param_5.52), metadata={op_type="xla__cast" op_name="xla__cast" source_file="/usr/local/lib/python3.10/site-packages/torch/_ops.py" source_line=756}
  %param_4.153 = f32[32,1024]{1,0} parameter(4)
  %add.218.11 = f32[32,1024]{1,0} add(f32[32,1024]{1,0} %convert.816.11, f32[32,1024]{1,0} %param_4.153), metadata={op_type="aten__add" op_name="aten__add.597/aten__add" source_file="/usr/local/lib/python3.10/site-packages/torch/_ops.py" source_line=756}
  %add.219.11 = f32[32,1024]{1,0} add(f32[32,1024]{1,0} %slice.208.13, f32[32,1024]{1,0} %add.218.11), metadata={op_type="aten__add" op_name="aten__add.610/aten__add" source_file="/usr/local/lib/python3.10/site-packages/torch/_ops.py" source_line=756}
  %add.221.7 = f32[32,1024]{1,0} add(f32[32,1024]{1,0} %convert.833.7, f32[32,1024]{1,0} %add.219.11), metadata={op_type="aten__add" op_name="aten__add.615/aten__add" source_file="/usr/local/lib/python3.10/site-packages/torch/_ops.py" source_line=756}
  %add.222.7 = f32[32,1024]{1,0} add(f32[32,1024]{1,0} %slice.207.9, f32[32,1024]{1,0} %add.221.7), metadata={op_type="aten__add" op_name="aten__add.628/aten__add" source_file="/usr/local/lib/python3.10/site-packages/torch/_ops.py" source_line=756}
  %add.225.3 = f32[32,1024]{1,0} add(f32[32,1024]{1,0} %convert.847.3, f32[32,1024]{1,0} %add.222.7), metadata={op_type="aten__add" op_name="aten__add.633/aten__add" source_file="/usr/local/lib/python3.10/site-packages/torch/_ops.py" source_line=756}
  %add.226.3 = f32[32,1024]{1,0} add(f32[32,1024]{1,0} %slice.206.5, f32[32,1024]{1,0} %add.225.3), metadata={op_type="aten__add" op_name="aten__add.646/aten__add" source_file="/usr/local/lib/python3.10/site-packages/torch/_ops.py" source_line=756}
  %multiply.466 = f32[32,1024]{1,0} multiply(f32[32,1024]{1,0} %add.226.3, f32[32,1024]{1,0} %add.226.3), metadata={op_type="aten__pow" op_name="aten__pow" source_file="/usr/local/lib/python3.10/site-packages/torch/_ops.py" source_line=756}
  %constant_451 = f32[] constant(0), metadata={op_type="aten__mean" op_name="aten__mean" source_file="/usr/local/lib/python3.10/site-packages/torch/_ops.py" source_line=756}
  %reduce.49 = f32[32]{0} reduce(f32[32,1024]{1,0} %multiply.466, f32[] %constant_451), dimensions={1}, to_apply=%AddComputation.76, metadata={op_type="aten__mean" op_name="aten__mean" source_file="/usr/local/lib/python3.10/site-packages/torch/_ops.py" source_line=756}
  %constant_450 = f32[] constant(0.0009765625), metadata={op_type="aten__mean" op_name="aten__mean" source_file="/usr/local/lib/python3.10/site-packages/torch/_ops.py" source_line=756}
  %broadcast.528 = f32[32]{0} broadcast(f32[] %constant_450), dimensions={}, metadata={op_type="aten__mean" op_name="aten__mean" source_file="/usr/local/lib/python3.10/site-packages/torch/_ops.py" source_line=756}
  %multiply.465 = f32[32]{0} multiply(f32[32]{0} %reduce.49, f32[32]{0} %broadcast.528), metadata={op_type="aten__mean" op_name="aten__mean" source_file="/usr/local/lib/python3.10/site-packages/torch/_ops.py" source_line=756}
  %param_0.696 = f32[] parameter(0)
  %broadcast.527 = f32[32]{0} broadcast(f32[] %param_0.696), dimensions={}, metadata={op_type="aten__add" op_name="aten__add.521/aten__add" source_file="/usr/local/lib/python3.10/site-packages/torch/_ops.py" source_line=756}
  %add.268 = f32[32]{0} add(f32[32]{0} %multiply.465, f32[32]{0} %broadcast.527), metadata={op_type="aten__add" op_name="aten__add.647/aten__add" source_file="/usr/local/lib/python3.10/site-packages/torch/_ops.py" source_line=756}
  %rsqrt.101 = f32[32]{0} rsqrt(f32[32]{0} %add.268), metadata={op_type="aten__rsqrt" op_name="aten__rsqrt" source_file="/usr/local/lib/python3.10/site-packages/torch/_ops.py" source_line=756}
  %broadcast.526 = f32[32,1024]{1,0} broadcast(f32[32]{0} %rsqrt.101), dimensions={0}, metadata={op_type="aten__mul" op_name="aten__mul.648/aten__mul" source_file="/usr/local/lib/python3.10/site-packages/torch/_ops.py" source_line=756}
  %multiply.464 = f32[32,1024]{1,0} multiply(f32[32,1024]{1,0} %add.226.3, f32[32,1024]{1,0} %broadcast.526), metadata={op_type="aten__mul" op_name="aten__mul.648/aten__mul" source_file="/usr/local/lib/python3.10/site-packages/torch/_ops.py" source_line=756}
  %param_1.566 = bf16[1024]{0} parameter(1)
  %convert.848.1 = f32[1024]{0} convert(bf16[1024]{0} %param_1.566), metadata={op_type="xla__cast" op_name="xla__cast" source_file="/usr/local/lib/python3.10/site-packages/torch/_ops.py" source_line=756}
  %broadcast.373.3 = f32[32,1024]{1,0} broadcast(f32[1024]{0} %convert.848.1), dimensions={1}, metadata={op_type="aten__mul" op_name="aten__mul.649/aten__mul" source_file="/usr/local/lib/python3.10/site-packages/torch/_ops.py" source_line=756}
  %multiply.378.3 = f32[32,1024]{1,0} multiply(f32[32,1024]{1,0} %multiply.464, f32[32,1024]{1,0} %broadcast.373.3), metadata={op_type="aten__mul" op_name="aten__mul.649/aten__mul" source_file="/usr/local/lib/python3.10/site-packages/torch/_ops.py" source_line=756}
  ROOT %convert.849.1 = bf16[32,1024]{1,0} convert(f32[32,1024]{1,0} %multiply.378.3), metadata={op_type="xla__cast" op_name="xla__cast" source_file="/usr/local/lib/python3.10/site-packages/torch/_ops.py" source_line=756}
}

%fused_convert.7 (param_0.479: bf16[32,6144]) -> bf16[32,3072] {
  %param_0.479 = bf16[32,6144]{1,0} parameter(0)
  %slice.228.1 = bf16[32,3072]{1,0} slice(bf16[32,6144]{1,0} %param_0.479), slice={[0:32], [0:3072]}, metadata={op_type="xla__select" op_name="xla__select" source_file="/usr/local/lib/python3.10/site-packages/torch/_ops.py" source_line=756}
  %convert.851.8 = f32[32,3072]{1,0} convert(bf16[32,3072]{1,0} %slice.228.1)
  %constant_1_5 = bf16[] constant(1), metadata={op_type="xla__select" op_name="xla__select" source_file="/usr/local/lib/python3.10/site-packages/torch/_ops.py" source_line=756}
  %convert.966.3 = f32[] convert(bf16[] %constant_1_5)
  %broadcast.407.46 = f32[32,3072]{1,0} broadcast(f32[] %convert.966.3), dimensions={}, metadata={op_type="xla__select" op_name="xla__select" source_file="/usr/local/lib/python3.10/site-packages/torch/_ops.py" source_line=756}
  %negate.52.7 = f32[32,3072]{1,0} negate(f32[32,3072]{1,0} %convert.851.8)
  %convert.857.5 = bf16[32,3072]{1,0} convert(f32[32,3072]{1,0} %negate.52.7)
  %exponential.52.3 = bf16[32,3072]{1,0} exponential(bf16[32,3072]{1,0} %convert.857.5)
  %convert.858.1 = f32[32,3072]{1,0} convert(bf16[32,3072]{1,0} %exponential.52.3)
  %add.227.3 = f32[32,3072]{1,0} add(f32[32,3072]{1,0} %broadcast.407.46, f32[32,3072]{1,0} %convert.858.1)
  %divide.52.3 = f32[32,3072]{1,0} divide(f32[32,3072]{1,0} %broadcast.407.46, f32[32,3072]{1,0} %add.227.3), metadata={op_type="aten__silu" op_name="aten__silu" source_file="/usr/local/lib/python3.10/site-packages/torch/_ops.py" source_line=756}
  %multiply.379.5 = f32[32,3072]{1,0} multiply(f32[32,3072]{1,0} %convert.851.8, f32[32,3072]{1,0} %divide.52.3), metadata={op_type="aten__silu" op_name="aten__silu" source_file="/usr/local/lib/python3.10/site-packages/torch/_ops.py" source_line=756}
  %slice.229.1 = bf16[32,3072]{1,0} slice(bf16[32,6144]{1,0} %param_0.479), slice={[0:32], [3072:6144]}, metadata={op_type="xla__select" op_name="xla__select" source_file="/usr/local/lib/python3.10/site-packages/torch/_ops.py" source_line=756}
  %convert.859.1 = f32[32,3072]{1,0} convert(bf16[32,3072]{1,0} %slice.229.1), metadata={op_type="xla__cast" op_name="xla__cast" source_file="/usr/local/lib/python3.10/site-packages/torch/_ops.py" source_line=756}
  %multiply.381.3 = f32[32,3072]{1,0} multiply(f32[32,3072]{1,0} %multiply.379.5, f32[32,3072]{1,0} %convert.859.1), metadata={op_type="aten__mul" op_name="aten__mul.650/aten__mul" source_file="/usr/local/lib/python3.10/site-packages/torch/_ops.py" source_line=756}
  ROOT %convert.860.1 = bf16[32,3072]{1,0} convert(f32[32,3072]{1,0} %multiply.381.3), metadata={op_type="xla__cast" op_name="xla__cast" source_file="/usr/local/lib/python3.10/site-packages/torch/_ops.py" source_line=756}
}

%fused_add.1 (param_0.593: bf16[32,15360], param_1.568: bf16[32,1024], param_2.386: bf16[32,1024], param_3.311: f32[32,1024], param_4.151: bf16[32,1024], param_5.48: bf16[32,1024]) -> f32[32,1024] {
  %param_0.593 = bf16[32,15360]{1,0} parameter(0)
  %convert.743.33 = f32[32,15360]{1,0} convert(bf16[32,15360]{1,0} %param_0.593), metadata={op_type="xla__cast" op_name="xla__cast" source_file="/usr/local/lib/python3.10/site-packages/torch/_ops.py" source_line=756}
  %slice.205.3 = f32[32,1024]{1,0} slice(f32[32,15360]{1,0} %convert.743.33), slice={[0:32], [6144:7168]}, metadata={op_type="aten__mm" op_name="aten__mm" source_file="/usr/local/lib/python3.10/site-packages/torch/_ops.py" source_line=756}
  %param_1.568 = bf16[32,1024]{1,0} parameter(1)
  %convert.862.1 = f32[32,1024]{1,0} convert(bf16[32,1024]{1,0} %param_1.568), metadata={op_type="xla__cast" op_name="xla__cast" source_file="/usr/local/lib/python3.10/site-packages/torch/_ops.py" source_line=756}
  %slice.206.7 = f32[32,1024]{1,0} slice(f32[32,15360]{1,0} %convert.743.33), slice={[0:32], [7168:8192]}, metadata={op_type="aten__mm" op_name="aten__mm" source_file="/usr/local/lib/python3.10/site-packages/torch/_ops.py" source_line=756}
  %param_2.386 = bf16[32,1024]{1,0} parameter(2)
  %convert.847.5 = f32[32,1024]{1,0} convert(bf16[32,1024]{1,0} %param_2.386), metadata={op_type="xla__cast" op_name="xla__cast" source_file="/usr/local/lib/python3.10/site-packages/torch/_ops.py" source_line=756}
  %slice.207.7 = f32[32,1024]{1,0} slice(f32[32,15360]{1,0} %convert.743.33), slice={[0:32], [8192:9216]}, metadata={op_type="aten__mm" op_name="aten__mm" source_file="/usr/local/lib/python3.10/site-packages/torch/_ops.py" source_line=756}
  %param_5.48 = bf16[32,1024]{1,0} parameter(5)
  %convert.833.5 = f32[32,1024]{1,0} convert(bf16[32,1024]{1,0} %param_5.48), metadata={op_type="xla__cast" op_name="xla__cast" source_file="/usr/local/lib/python3.10/site-packages/torch/_ops.py" source_line=756}
  %slice.208.11 = f32[32,1024]{1,0} slice(f32[32,15360]{1,0} %convert.743.33), slice={[0:32], [9216:10240]}, metadata={op_type="aten__mm" op_name="aten__mm" source_file="/usr/local/lib/python3.10/site-packages/torch/_ops.py" source_line=756}
  %param_4.151 = bf16[32,1024]{1,0} parameter(4)
  %convert.816.9 = f32[32,1024]{1,0} convert(bf16[32,1024]{1,0} %param_4.151), metadata={op_type="xla__cast" op_name="xla__cast" source_file="/usr/local/lib/python3.10/site-packages/torch/_ops.py" source_line=756}
  %param_3.311 = f32[32,1024]{1,0} parameter(3)
  %add.218.9 = f32[32,1024]{1,0} add(f32[32,1024]{1,0} %convert.816.9, f32[32,1024]{1,0} %param_3.311), metadata={op_type="aten__add" op_name="aten__add.597/aten__add" source_file="/usr/local/lib/python3.10/site-packages/torch/_ops.py" source_line=756}
  %add.219.9 = f32[32,1024]{1,0} add(f32[32,1024]{1,0} %slice.208.11, f32[32,1024]{1,0} %add.218.9), metadata={op_type="aten__add" op_name="aten__add.610/aten__add" source_file="/usr/local/lib/python3.10/site-packages/torch/_ops.py" source_line=756}
  %add.221.5 = f32[32,1024]{1,0} add(f32[32,1024]{1,0} %convert.833.5, f32[32,1024]{1,0} %add.219.9), metadata={op_type="aten__add" op_name="aten__add.615/aten__add" source_file="/usr/local/lib/python3.10/site-packages/torch/_ops.py" source_line=756}
  %add.222.5 = f32[32,1024]{1,0} add(f32[32,1024]{1,0} %slice.207.7, f32[32,1024]{1,0} %add.221.5), metadata={op_type="aten__add" op_name="aten__add.628/aten__add" source_file="/usr/local/lib/python3.10/site-packages/torch/_ops.py" source_line=756}
  %add.225.5 = f32[32,1024]{1,0} add(f32[32,1024]{1,0} %convert.847.5, f32[32,1024]{1,0} %add.222.5), metadata={op_type="aten__add" op_name="aten__add.633/aten__add" source_file="/usr/local/lib/python3.10/site-packages/torch/_ops.py" source_line=756}
  %add.226.5 = f32[32,1024]{1,0} add(f32[32,1024]{1,0} %slice.206.7, f32[32,1024]{1,0} %add.225.5), metadata={op_type="aten__add" op_name="aten__add.646/aten__add" source_file="/usr/local/lib/python3.10/site-packages/torch/_ops.py" source_line=756}
  %add.228.1 = f32[32,1024]{1,0} add(f32[32,1024]{1,0} %convert.862.1, f32[32,1024]{1,0} %add.226.5), metadata={op_type="aten__add" op_name="aten__add.651/aten__add" source_file="/usr/local/lib/python3.10/site-packages/torch/_ops.py" source_line=756}
  ROOT %add.229.1 = f32[32,1024]{1,0} add(f32[32,1024]{1,0} %slice.205.3, f32[32,1024]{1,0} %add.228.1), metadata={op_type="aten__add" op_name="aten__add.664/aten__add" source_file="/usr/local/lib/python3.10/site-packages/torch/_ops.py" source_line=756}
}

%fused_computation.167 (param_0.678: f32[32,1024], param_1.545: f32[], param_2.304: bf16[1024]) -> bf16[32,1024] {
  %param_0.678 = f32[32,1024]{1,0} parameter(0)
  %multiply.474 = f32[32,1024]{1,0} multiply(f32[32,1024]{1,0} %param_0.678, f32[32,1024]{1,0} %param_0.678), metadata={op_type="aten__pow" op_name="aten__pow" source_file="/usr/local/lib/python3.10/site-packages/torch/_ops.py" source_line=756}
  %constant_456 = f32[] constant(0), metadata={op_type="aten__mean" op_name="aten__mean" source_file="/usr/local/lib/python3.10/site-packages/torch/_ops.py" source_line=756}
  %reduce.51 = f32[32]{0} reduce(f32[32,1024]{1,0} %multiply.474, f32[] %constant_456), dimensions={1}, to_apply=%AddComputation.76, metadata={op_type="aten__mean" op_name="aten__mean" source_file="/usr/local/lib/python3.10/site-packages/torch/_ops.py" source_line=756}
  %constant_455 = f32[] constant(0.0009765625), metadata={op_type="aten__mean" op_name="aten__mean" source_file="/usr/local/lib/python3.10/site-packages/torch/_ops.py" source_line=756}
  %broadcast.536 = f32[32]{0} broadcast(f32[] %constant_455), dimensions={}, metadata={op_type="aten__mean" op_name="aten__mean" source_file="/usr/local/lib/python3.10/site-packages/torch/_ops.py" source_line=756}
  %multiply.473 = f32[32]{0} multiply(f32[32]{0} %reduce.51, f32[32]{0} %broadcast.536), metadata={op_type="aten__mean" op_name="aten__mean" source_file="/usr/local/lib/python3.10/site-packages/torch/_ops.py" source_line=756}
  %param_1.545 = f32[] parameter(1)
  %broadcast.535 = f32[32]{0} broadcast(f32[] %param_1.545), dimensions={}, metadata={op_type="aten__add" op_name="aten__add.521/aten__add" source_file="/usr/local/lib/python3.10/site-packages/torch/_ops.py" source_line=756}
  %add.270 = f32[32]{0} add(f32[32]{0} %multiply.473, f32[32]{0} %broadcast.535), metadata={op_type="aten__add" op_name="aten__add.665/aten__add" source_file="/usr/local/lib/python3.10/site-packages/torch/_ops.py" source_line=756}
  %rsqrt.103 = f32[32]{0} rsqrt(f32[32]{0} %add.270), metadata={op_type="aten__rsqrt" op_name="aten__rsqrt" source_file="/usr/local/lib/python3.10/site-packages/torch/_ops.py" source_line=756}
  %broadcast.534 = f32[32,1024]{1,0} broadcast(f32[32]{0} %rsqrt.103), dimensions={0}, metadata={op_type="aten__mul" op_name="aten__mul.666/aten__mul" source_file="/usr/local/lib/python3.10/site-packages/torch/_ops.py" source_line=756}
  %multiply.472 = f32[32,1024]{1,0} multiply(f32[32,1024]{1,0} %param_0.678, f32[32,1024]{1,0} %broadcast.534), metadata={op_type="aten__mul" op_name="aten__mul.666/aten__mul" source_file="/usr/local/lib/python3.10/site-packages/torch/_ops.py" source_line=756}
  %param_2.304 = bf16[1024]{0} parameter(2)
  %convert.863.1 = f32[1024]{0} convert(bf16[1024]{0} %param_2.304), metadata={op_type="xla__cast" op_name="xla__cast" source_file="/usr/local/lib/python3.10/site-packages/torch/_ops.py" source_line=756}
  %broadcast.377.3 = f32[32,1024]{1,0} broadcast(f32[1024]{0} %convert.863.1), dimensions={1}, metadata={op_type="aten__mul" op_name="aten__mul.667/aten__mul" source_file="/usr/local/lib/python3.10/site-packages/torch/_ops.py" source_line=756}
  %multiply.382.3 = f32[32,1024]{1,0} multiply(f32[32,1024]{1,0} %multiply.472, f32[32,1024]{1,0} %broadcast.377.3), metadata={op_type="aten__mul" op_name="aten__mul.667/aten__mul" source_file="/usr/local/lib/python3.10/site-packages/torch/_ops.py" source_line=756}
  ROOT %convert.864.1 = bf16[32,1024]{1,0} convert(f32[32,1024]{1,0} %multiply.382.3), metadata={op_type="xla__cast" op_name="xla__cast" source_file="/usr/local/lib/python3.10/site-packages/torch/_ops.py" source_line=756}
}

%fused_convert.8 (param_0.483: bf16[32,6144]) -> bf16[32,3072] {
  %param_0.483 = bf16[32,6144]{1,0} parameter(0)
  %slice.230.1 = bf16[32,3072]{1,0} slice(bf16[32,6144]{1,0} %param_0.483), slice={[0:32], [0:3072]}, metadata={op_type="xla__select" op_name="xla__select" source_file="/usr/local/lib/python3.10/site-packages/torch/_ops.py" source_line=756}
  %convert.865.8 = f32[32,3072]{1,0} convert(bf16[32,3072]{1,0} %slice.230.1)
  %constant_1_9 = bf16[] constant(1), metadata={op_type="xla__select" op_name="xla__select" source_file="/usr/local/lib/python3.10/site-packages/torch/_ops.py" source_line=756}
  %convert.966.7 = f32[] convert(bf16[] %constant_1_9)
  %broadcast.407.44 = f32[32,3072]{1,0} broadcast(f32[] %convert.966.7), dimensions={}, metadata={op_type="xla__select" op_name="xla__select" source_file="/usr/local/lib/python3.10/site-packages/torch/_ops.py" source_line=756}
  %negate.53.7 = f32[32,3072]{1,0} negate(f32[32,3072]{1,0} %convert.865.8)
  %convert.869.5 = bf16[32,3072]{1,0} convert(f32[32,3072]{1,0} %negate.53.7)
  %exponential.53.3 = bf16[32,3072]{1,0} exponential(bf16[32,3072]{1,0} %convert.869.5)
  %convert.870.1 = f32[32,3072]{1,0} convert(bf16[32,3072]{1,0} %exponential.53.3)
  %add.230.3 = f32[32,3072]{1,0} add(f32[32,3072]{1,0} %broadcast.407.44, f32[32,3072]{1,0} %convert.870.1)
  %divide.53.3 = f32[32,3072]{1,0} divide(f32[32,3072]{1,0} %broadcast.407.44, f32[32,3072]{1,0} %add.230.3), metadata={op_type="aten__silu" op_name="aten__silu" source_file="/usr/local/lib/python3.10/site-packages/torch/_ops.py" source_line=756}
  %multiply.383.5 = f32[32,3072]{1,0} multiply(f32[32,3072]{1,0} %convert.865.8, f32[32,3072]{1,0} %divide.53.3), metadata={op_type="aten__silu" op_name="aten__silu" source_file="/usr/local/lib/python3.10/site-packages/torch/_ops.py" source_line=756}
  %slice.231.1 = bf16[32,3072]{1,0} slice(bf16[32,6144]{1,0} %param_0.483), slice={[0:32], [3072:6144]}, metadata={op_type="xla__select" op_name="xla__select" source_file="/usr/local/lib/python3.10/site-packages/torch/_ops.py" source_line=756}
  %convert.871.1 = f32[32,3072]{1,0} convert(bf16[32,3072]{1,0} %slice.231.1), metadata={op_type="xla__cast" op_name="xla__cast" source_file="/usr/local/lib/python3.10/site-packages/torch/_ops.py" source_line=756}
  %multiply.384.3 = f32[32,3072]{1,0} multiply(f32[32,3072]{1,0} %multiply.383.5, f32[32,3072]{1,0} %convert.871.1), metadata={op_type="aten__mul" op_name="aten__mul.668/aten__mul" source_file="/usr/local/lib/python3.10/site-packages/torch/_ops.py" source_line=756}
  ROOT %convert.872.1 = bf16[32,3072]{1,0} convert(f32[32,3072]{1,0} %multiply.384.3), metadata={op_type="xla__cast" op_name="xla__cast" source_file="/usr/local/lib/python3.10/site-packages/torch/_ops.py" source_line=756}
}

%fused_computation.168 (param_0.693: f32[], param_1.562: bf16[1024], param_2.326: f32[32,1024], param_3.240: bf16[32,1024], param_4.83: bf16[32,15360]) -> bf16[32,1024] {
  %param_4.83 = bf16[32,15360]{1,0} parameter(4)
  %convert.743.61 = f32[32,15360]{1,0} convert(bf16[32,15360]{1,0} %param_4.83), metadata={op_type="xla__cast" op_name="xla__cast" source_file="/usr/local/lib/python3.10/site-packages/torch/_ops.py" source_line=756}
  %slice.204.5 = f32[32,1024]{1,0} slice(f32[32,15360]{1,0} %convert.743.61), slice={[0:32], [5120:6144]}, metadata={op_type="aten__mm" op_name="aten__mm" source_file="/usr/local/lib/python3.10/site-packages/torch/_ops.py" source_line=756}
  %param_3.240 = bf16[32,1024]{1,0} parameter(3)
  %convert.873.3 = f32[32,1024]{1,0} convert(bf16[32,1024]{1,0} %param_3.240), metadata={op_type="xla__cast" op_name="xla__cast" source_file="/usr/local/lib/python3.10/site-packages/torch/_ops.py" source_line=756}
  %param_2.326 = f32[32,1024]{1,0} parameter(2)
  %add.231.3 = f32[32,1024]{1,0} add(f32[32,1024]{1,0} %convert.873.3, f32[32,1024]{1,0} %param_2.326), metadata={op_type="aten__add" op_name="aten__add.669/aten__add" source_file="/usr/local/lib/python3.10/site-packages/torch/_ops.py" source_line=756}
  %add.232.3 = f32[32,1024]{1,0} add(f32[32,1024]{1,0} %slice.204.5, f32[32,1024]{1,0} %add.231.3), metadata={op_type="aten__add" op_name="aten__add.682/aten__add" source_file="/usr/local/lib/python3.10/site-packages/torch/_ops.py" source_line=756}
  %multiply.481 = f32[32,1024]{1,0} multiply(f32[32,1024]{1,0} %add.232.3, f32[32,1024]{1,0} %add.232.3), metadata={op_type="aten__pow" op_name="aten__pow" source_file="/usr/local/lib/python3.10/site-packages/torch/_ops.py" source_line=756}
  %constant_461 = f32[] constant(0), metadata={op_type="aten__mean" op_name="aten__mean" source_file="/usr/local/lib/python3.10/site-packages/torch/_ops.py" source_line=756}
  %reduce.53 = f32[32]{0} reduce(f32[32,1024]{1,0} %multiply.481, f32[] %constant_461), dimensions={1}, to_apply=%AddComputation.76, metadata={op_type="aten__mean" op_name="aten__mean" source_file="/usr/local/lib/python3.10/site-packages/torch/_ops.py" source_line=756}
  %constant_460 = f32[] constant(0.0009765625), metadata={op_type="aten__mean" op_name="aten__mean" source_file="/usr/local/lib/python3.10/site-packages/torch/_ops.py" source_line=756}
  %broadcast.542 = f32[32]{0} broadcast(f32[] %constant_460), dimensions={}, metadata={op_type="aten__mean" op_name="aten__mean" source_file="/usr/local/lib/python3.10/site-packages/torch/_ops.py" source_line=756}
  %multiply.480 = f32[32]{0} multiply(f32[32]{0} %reduce.53, f32[32]{0} %broadcast.542), metadata={op_type="aten__mean" op_name="aten__mean" source_file="/usr/local/lib/python3.10/site-packages/torch/_ops.py" source_line=756}
  %param_0.693 = f32[] parameter(0)
  %broadcast.541 = f32[32]{0} broadcast(f32[] %param_0.693), dimensions={}, metadata={op_type="aten__add" op_name="aten__add.521/aten__add" source_file="/usr/local/lib/python3.10/site-packages/torch/_ops.py" source_line=756}
  %add.272 = f32[32]{0} add(f32[32]{0} %multiply.480, f32[32]{0} %broadcast.541), metadata={op_type="aten__add" op_name="aten__add.683/aten__add" source_file="/usr/local/lib/python3.10/site-packages/torch/_ops.py" source_line=756}
  %rsqrt.105 = f32[32]{0} rsqrt(f32[32]{0} %add.272), metadata={op_type="aten__rsqrt" op_name="aten__rsqrt" source_file="/usr/local/lib/python3.10/site-packages/torch/_ops.py" source_line=756}
  %broadcast.540 = f32[32,1024]{1,0} broadcast(f32[32]{0} %rsqrt.105), dimensions={0}, metadata={op_type="aten__mul" op_name="aten__mul.684/aten__mul" source_file="/usr/local/lib/python3.10/site-packages/torch/_ops.py" source_line=756}
  %multiply.479 = f32[32,1024]{1,0} multiply(f32[32,1024]{1,0} %add.232.3, f32[32,1024]{1,0} %broadcast.540), metadata={op_type="aten__mul" op_name="aten__mul.684/aten__mul" source_file="/usr/local/lib/python3.10/site-packages/torch/_ops.py" source_line=756}
  %param_1.562 = bf16[1024]{0} parameter(1)
  %convert.874.1 = f32[1024]{0} convert(bf16[1024]{0} %param_1.562), metadata={op_type="xla__cast" op_name="xla__cast" source_file="/usr/local/lib/python3.10/site-packages/torch/_ops.py" source_line=756}
  %broadcast.380.3 = f32[32,1024]{1,0} broadcast(f32[1024]{0} %convert.874.1), dimensions={1}, metadata={op_type="aten__mul" op_name="aten__mul.685/aten__mul" source_file="/usr/local/lib/python3.10/site-packages/torch/_ops.py" source_line=756}
  %multiply.385.3 = f32[32,1024]{1,0} multiply(f32[32,1024]{1,0} %multiply.479, f32[32,1024]{1,0} %broadcast.380.3), metadata={op_type="aten__mul" op_name="aten__mul.685/aten__mul" source_file="/usr/local/lib/python3.10/site-packages/torch/_ops.py" source_line=756}
  ROOT %convert.875.1 = bf16[32,1024]{1,0} convert(f32[32,1024]{1,0} %multiply.385.3), metadata={op_type="xla__cast" op_name="xla__cast" source_file="/usr/local/lib/python3.10/site-packages/torch/_ops.py" source_line=756}
}

%fused_convert.9 (param_0.487: bf16[32,6144]) -> bf16[32,3072] {
  %param_0.487 = bf16[32,6144]{1,0} parameter(0)
  %slice.232.1 = bf16[32,3072]{1,0} slice(bf16[32,6144]{1,0} %param_0.487), slice={[0:32], [0:3072]}, metadata={op_type="xla__select" op_name="xla__select" source_file="/usr/local/lib/python3.10/site-packages/torch/_ops.py" source_line=756}
  %convert.877.8 = f32[32,3072]{1,0} convert(bf16[32,3072]{1,0} %slice.232.1)
  %constant_1_13 = bf16[] constant(1), metadata={op_type="xla__select" op_name="xla__select" source_file="/usr/local/lib/python3.10/site-packages/torch/_ops.py" source_line=756}
  %convert.966.11 = f32[] convert(bf16[] %constant_1_13)
  %broadcast.407.42 = f32[32,3072]{1,0} broadcast(f32[] %convert.966.11), dimensions={}, metadata={op_type="xla__select" op_name="xla__select" source_file="/usr/local/lib/python3.10/site-packages/torch/_ops.py" source_line=756}
  %negate.54.7 = f32[32,3072]{1,0} negate(f32[32,3072]{1,0} %convert.877.8)
  %convert.881.5 = bf16[32,3072]{1,0} convert(f32[32,3072]{1,0} %negate.54.7)
  %exponential.54.3 = bf16[32,3072]{1,0} exponential(bf16[32,3072]{1,0} %convert.881.5)
  %convert.882.1 = f32[32,3072]{1,0} convert(bf16[32,3072]{1,0} %exponential.54.3)
  %add.233.3 = f32[32,3072]{1,0} add(f32[32,3072]{1,0} %broadcast.407.42, f32[32,3072]{1,0} %convert.882.1)
  %divide.54.3 = f32[32,3072]{1,0} divide(f32[32,3072]{1,0} %broadcast.407.42, f32[32,3072]{1,0} %add.233.3), metadata={op_type="aten__silu" op_name="aten__silu" source_file="/usr/local/lib/python3.10/site-packages/torch/_ops.py" source_line=756}
  %multiply.387.5 = f32[32,3072]{1,0} multiply(f32[32,3072]{1,0} %convert.877.8, f32[32,3072]{1,0} %divide.54.3), metadata={op_type="aten__silu" op_name="aten__silu" source_file="/usr/local/lib/python3.10/site-packages/torch/_ops.py" source_line=756}
  %slice.233.1 = bf16[32,3072]{1,0} slice(bf16[32,6144]{1,0} %param_0.487), slice={[0:32], [3072:6144]}, metadata={op_type="xla__select" op_name="xla__select" source_file="/usr/local/lib/python3.10/site-packages/torch/_ops.py" source_line=756}
  %convert.884.1 = f32[32,3072]{1,0} convert(bf16[32,3072]{1,0} %slice.233.1), metadata={op_type="xla__cast" op_name="xla__cast" source_file="/usr/local/lib/python3.10/site-packages/torch/_ops.py" source_line=756}
  %multiply.388.3 = f32[32,3072]{1,0} multiply(f32[32,3072]{1,0} %multiply.387.5, f32[32,3072]{1,0} %convert.884.1), metadata={op_type="aten__mul" op_name="aten__mul.686/aten__mul" source_file="/usr/local/lib/python3.10/site-packages/torch/_ops.py" source_line=756}
  ROOT %convert.885.1 = bf16[32,3072]{1,0} convert(f32[32,3072]{1,0} %multiply.388.3), metadata={op_type="xla__cast" op_name="xla__cast" source_file="/usr/local/lib/python3.10/site-packages/torch/_ops.py" source_line=756}
}

%fused_computation.169 (param_0.730: f32[], param_1.600: bf16[1024], param_2.377: f32[32,1024], param_3.298: bf16[32,1024], param_4.136: bf16[32,15360], param_5.28: bf16[32,1024]) -> bf16[32,1024] {
  %param_4.136 = bf16[32,15360]{1,0} parameter(4)
  %convert.743.95 = f32[32,15360]{1,0} convert(bf16[32,15360]{1,0} %param_4.136), metadata={op_type="xla__cast" op_name="xla__cast" source_file="/usr/local/lib/python3.10/site-packages/torch/_ops.py" source_line=756}
  %slice.203.5 = f32[32,1024]{1,0} slice(f32[32,15360]{1,0} %convert.743.95), slice={[0:32], [4096:5120]}, metadata={op_type="aten__mm" op_name="aten__mm" source_file="/usr/local/lib/python3.10/site-packages/torch/_ops.py" source_line=756}
  %param_5.28 = bf16[32,1024]{1,0} parameter(5)
  %convert.886.3 = f32[32,1024]{1,0} convert(bf16[32,1024]{1,0} %param_5.28), metadata={op_type="xla__cast" op_name="xla__cast" source_file="/usr/local/lib/python3.10/site-packages/torch/_ops.py" source_line=756}
  %slice.204.9 = f32[32,1024]{1,0} slice(f32[32,15360]{1,0} %convert.743.95), slice={[0:32], [5120:6144]}, metadata={op_type="aten__mm" op_name="aten__mm" source_file="/usr/local/lib/python3.10/site-packages/torch/_ops.py" source_line=756}
  %param_3.298 = bf16[32,1024]{1,0} parameter(3)
  %convert.873.7 = f32[32,1024]{1,0} convert(bf16[32,1024]{1,0} %param_3.298), metadata={op_type="xla__cast" op_name="xla__cast" source_file="/usr/local/lib/python3.10/site-packages/torch/_ops.py" source_line=756}
  %param_2.377 = f32[32,1024]{1,0} parameter(2)
  %add.231.7 = f32[32,1024]{1,0} add(f32[32,1024]{1,0} %convert.873.7, f32[32,1024]{1,0} %param_2.377), metadata={op_type="aten__add" op_name="aten__add.669/aten__add" source_file="/usr/local/lib/python3.10/site-packages/torch/_ops.py" source_line=756}
  %add.232.7 = f32[32,1024]{1,0} add(f32[32,1024]{1,0} %slice.204.9, f32[32,1024]{1,0} %add.231.7), metadata={op_type="aten__add" op_name="aten__add.682/aten__add" source_file="/usr/local/lib/python3.10/site-packages/torch/_ops.py" source_line=756}
  %add.234.3 = f32[32,1024]{1,0} add(f32[32,1024]{1,0} %convert.886.3, f32[32,1024]{1,0} %add.232.7), metadata={op_type="aten__add" op_name="aten__add.687/aten__add" source_file="/usr/local/lib/python3.10/site-packages/torch/_ops.py" source_line=756}
  %add.235.3 = f32[32,1024]{1,0} add(f32[32,1024]{1,0} %slice.203.5, f32[32,1024]{1,0} %add.234.3), metadata={op_type="aten__add" op_name="aten__add.700/aten__add" source_file="/usr/local/lib/python3.10/site-packages/torch/_ops.py" source_line=756}
  %multiply.487 = f32[32,1024]{1,0} multiply(f32[32,1024]{1,0} %add.235.3, f32[32,1024]{1,0} %add.235.3), metadata={op_type="aten__pow" op_name="aten__pow" source_file="/usr/local/lib/python3.10/site-packages/torch/_ops.py" source_line=756}
  %constant_466 = f32[] constant(0), metadata={op_type="aten__mean" op_name="aten__mean" source_file="/usr/local/lib/python3.10/site-packages/torch/_ops.py" source_line=756}
  %reduce.55 = f32[32]{0} reduce(f32[32,1024]{1,0} %multiply.487, f32[] %constant_466), dimensions={1}, to_apply=%AddComputation.76, metadata={op_type="aten__mean" op_name="aten__mean" source_file="/usr/local/lib/python3.10/site-packages/torch/_ops.py" source_line=756}
  %constant_465 = f32[] constant(0.0009765625), metadata={op_type="aten__mean" op_name="aten__mean" source_file="/usr/local/lib/python3.10/site-packages/torch/_ops.py" source_line=756}
  %broadcast.549 = f32[32]{0} broadcast(f32[] %constant_465), dimensions={}, metadata={op_type="aten__mean" op_name="aten__mean" source_file="/usr/local/lib/python3.10/site-packages/torch/_ops.py" source_line=756}
  %multiply.486 = f32[32]{0} multiply(f32[32]{0} %reduce.55, f32[32]{0} %broadcast.549), metadata={op_type="aten__mean" op_name="aten__mean" source_file="/usr/local/lib/python3.10/site-packages/torch/_ops.py" source_line=756}
  %param_0.730 = f32[] parameter(0)
  %broadcast.548 = f32[32]{0} broadcast(f32[] %param_0.730), dimensions={}, metadata={op_type="aten__add" op_name="aten__add.521/aten__add" source_file="/usr/local/lib/python3.10/site-packages/torch/_ops.py" source_line=756}
  %add.274 = f32[32]{0} add(f32[32]{0} %multiply.486, f32[32]{0} %broadcast.548), metadata={op_type="aten__add" op_name="aten__add.701/aten__add" source_file="/usr/local/lib/python3.10/site-packages/torch/_ops.py" source_line=756}
  %rsqrt.107 = f32[32]{0} rsqrt(f32[32]{0} %add.274), metadata={op_type="aten__rsqrt" op_name="aten__rsqrt" source_file="/usr/local/lib/python3.10/site-packages/torch/_ops.py" source_line=756}
  %broadcast.546 = f32[32,1024]{1,0} broadcast(f32[32]{0} %rsqrt.107), dimensions={0}, metadata={op_type="aten__mul" op_name="aten__mul.702/aten__mul" source_file="/usr/local/lib/python3.10/site-packages/torch/_ops.py" source_line=756}
  %multiply.485 = f32[32,1024]{1,0} multiply(f32[32,1024]{1,0} %add.235.3, f32[32,1024]{1,0} %broadcast.546), metadata={op_type="aten__mul" op_name="aten__mul.702/aten__mul" source_file="/usr/local/lib/python3.10/site-packages/torch/_ops.py" source_line=756}
  %param_1.600 = bf16[1024]{0} parameter(1)
  %convert.887.1 = f32[1024]{0} convert(bf16[1024]{0} %param_1.600), metadata={op_type="xla__cast" op_name="xla__cast" source_file="/usr/local/lib/python3.10/site-packages/torch/_ops.py" source_line=756}
  %broadcast.384.3 = f32[32,1024]{1,0} broadcast(f32[1024]{0} %convert.887.1), dimensions={1}, metadata={op_type="aten__mul" op_name="aten__mul.703/aten__mul" source_file="/usr/local/lib/python3.10/site-packages/torch/_ops.py" source_line=756}
  %multiply.389.3 = f32[32,1024]{1,0} multiply(f32[32,1024]{1,0} %multiply.485, f32[32,1024]{1,0} %broadcast.384.3), metadata={op_type="aten__mul" op_name="aten__mul.703/aten__mul" source_file="/usr/local/lib/python3.10/site-packages/torch/_ops.py" source_line=756}
  ROOT %convert.888.1 = bf16[32,1024]{1,0} convert(f32[32,1024]{1,0} %multiply.389.3), metadata={op_type="xla__cast" op_name="xla__cast" source_file="/usr/local/lib/python3.10/site-packages/torch/_ops.py" source_line=756}
}

%fused_convert.10 (param_0.491: bf16[32,6144]) -> bf16[32,3072] {
  %param_0.491 = bf16[32,6144]{1,0} parameter(0)
  %slice.234.1 = bf16[32,3072]{1,0} slice(bf16[32,6144]{1,0} %param_0.491), slice={[0:32], [0:3072]}, metadata={op_type="xla__select" op_name="xla__select" source_file="/usr/local/lib/python3.10/site-packages/torch/_ops.py" source_line=756}
  %convert.889.8 = f32[32,3072]{1,0} convert(bf16[32,3072]{1,0} %slice.234.1)
  %constant_1_1 = bf16[] constant(1), metadata={op_type="xla__select" op_name="xla__select" source_file="/usr/local/lib/python3.10/site-packages/torch/_ops.py" source_line=756}
  %convert.966.15 = f32[] convert(bf16[] %constant_1_1)
  %broadcast.407.40 = f32[32,3072]{1,0} broadcast(f32[] %convert.966.15), dimensions={}, metadata={op_type="xla__select" op_name="xla__select" source_file="/usr/local/lib/python3.10/site-packages/torch/_ops.py" source_line=756}
  %negate.55.7 = f32[32,3072]{1,0} negate(f32[32,3072]{1,0} %convert.889.8)
  %convert.896.5 = bf16[32,3072]{1,0} convert(f32[32,3072]{1,0} %negate.55.7)
  %exponential.55.3 = bf16[32,3072]{1,0} exponential(bf16[32,3072]{1,0} %convert.896.5)
  %convert.897.1 = f32[32,3072]{1,0} convert(bf16[32,3072]{1,0} %exponential.55.3)
  %add.236.3 = f32[32,3072]{1,0} add(f32[32,3072]{1,0} %broadcast.407.40, f32[32,3072]{1,0} %convert.897.1)
  %divide.55.3 = f32[32,3072]{1,0} divide(f32[32,3072]{1,0} %broadcast.407.40, f32[32,3072]{1,0} %add.236.3), metadata={op_type="aten__silu" op_name="aten__silu" source_file="/usr/local/lib/python3.10/site-packages/torch/_ops.py" source_line=756}
  %multiply.391.5 = f32[32,3072]{1,0} multiply(f32[32,3072]{1,0} %convert.889.8, f32[32,3072]{1,0} %divide.55.3), metadata={op_type="aten__silu" op_name="aten__silu" source_file="/usr/local/lib/python3.10/site-packages/torch/_ops.py" source_line=756}
  %slice.235.1 = bf16[32,3072]{1,0} slice(bf16[32,6144]{1,0} %param_0.491), slice={[0:32], [3072:6144]}, metadata={op_type="xla__select" op_name="xla__select" source_file="/usr/local/lib/python3.10/site-packages/torch/_ops.py" source_line=756}
  %convert.899.1 = f32[32,3072]{1,0} convert(bf16[32,3072]{1,0} %slice.235.1), metadata={op_type="xla__cast" op_name="xla__cast" source_file="/usr/local/lib/python3.10/site-packages/torch/_ops.py" source_line=756}
  %multiply.392.3 = f32[32,3072]{1,0} multiply(f32[32,3072]{1,0} %multiply.391.5, f32[32,3072]{1,0} %convert.899.1), metadata={op_type="aten__mul" op_name="aten__mul.704/aten__mul" source_file="/usr/local/lib/python3.10/site-packages/torch/_ops.py" source_line=756}
  ROOT %convert.900.1 = bf16[32,3072]{1,0} convert(f32[32,3072]{1,0} %multiply.392.3), metadata={op_type="xla__cast" op_name="xla__cast" source_file="/usr/local/lib/python3.10/site-packages/torch/_ops.py" source_line=756}
}

%fused_computation.170 (param_0.690: f32[], param_1.558: bf16[1024], param_2.381: bf16[32,1024], param_3.303: bf16[32,15360], param_4.142: f32[32,1024], param_5.37: bf16[32,1024], param_6.28: bf16[32,1024]) -> bf16[32,1024] {
  %param_3.303 = bf16[32,15360]{1,0} parameter(3)
  %convert.743.57 = f32[32,15360]{1,0} convert(bf16[32,15360]{1,0} %param_3.303), metadata={op_type="xla__cast" op_name="xla__cast" source_file="/usr/local/lib/python3.10/site-packages/torch/_ops.py" source_line=756}
  %slice.202.5 = f32[32,1024]{1,0} slice(f32[32,15360]{1,0} %convert.743.57), slice={[0:32], [3072:4096]}, metadata={op_type="aten__mm" op_name="aten__mm" source_file="/usr/local/lib/python3.10/site-packages/torch/_ops.py" source_line=756}
  %param_2.381 = bf16[32,1024]{1,0} parameter(2)
  %convert.901.3 = f32[32,1024]{1,0} convert(bf16[32,1024]{1,0} %param_2.381), metadata={op_type="xla__cast" op_name="xla__cast" source_file="/usr/local/lib/python3.10/site-packages/torch/_ops.py" source_line=756}
  %slice.203.9 = f32[32,1024]{1,0} slice(f32[32,15360]{1,0} %convert.743.57), slice={[0:32], [4096:5120]}, metadata={op_type="aten__mm" op_name="aten__mm" source_file="/usr/local/lib/python3.10/site-packages/torch/_ops.py" source_line=756}
  %param_6.28 = bf16[32,1024]{1,0} parameter(6)
  %convert.886.7 = f32[32,1024]{1,0} convert(bf16[32,1024]{1,0} %param_6.28), metadata={op_type="xla__cast" op_name="xla__cast" source_file="/usr/local/lib/python3.10/site-packages/torch/_ops.py" source_line=756}
  %slice.204.13 = f32[32,1024]{1,0} slice(f32[32,15360]{1,0} %convert.743.57), slice={[0:32], [5120:6144]}, metadata={op_type="aten__mm" op_name="aten__mm" source_file="/usr/local/lib/python3.10/site-packages/torch/_ops.py" source_line=756}
  %param_5.37 = bf16[32,1024]{1,0} parameter(5)
  %convert.873.11 = f32[32,1024]{1,0} convert(bf16[32,1024]{1,0} %param_5.37), metadata={op_type="xla__cast" op_name="xla__cast" source_file="/usr/local/lib/python3.10/site-packages/torch/_ops.py" source_line=756}
  %param_4.142 = f32[32,1024]{1,0} parameter(4)
  %add.231.11 = f32[32,1024]{1,0} add(f32[32,1024]{1,0} %convert.873.11, f32[32,1024]{1,0} %param_4.142), metadata={op_type="aten__add" op_name="aten__add.669/aten__add" source_file="/usr/local/lib/python3.10/site-packages/torch/_ops.py" source_line=756}
  %add.232.11 = f32[32,1024]{1,0} add(f32[32,1024]{1,0} %slice.204.13, f32[32,1024]{1,0} %add.231.11), metadata={op_type="aten__add" op_name="aten__add.682/aten__add" source_file="/usr/local/lib/python3.10/site-packages/torch/_ops.py" source_line=756}
  %add.234.7 = f32[32,1024]{1,0} add(f32[32,1024]{1,0} %convert.886.7, f32[32,1024]{1,0} %add.232.11), metadata={op_type="aten__add" op_name="aten__add.687/aten__add" source_file="/usr/local/lib/python3.10/site-packages/torch/_ops.py" source_line=756}
  %add.235.7 = f32[32,1024]{1,0} add(f32[32,1024]{1,0} %slice.203.9, f32[32,1024]{1,0} %add.234.7), metadata={op_type="aten__add" op_name="aten__add.700/aten__add" source_file="/usr/local/lib/python3.10/site-packages/torch/_ops.py" source_line=756}
  %add.237.3 = f32[32,1024]{1,0} add(f32[32,1024]{1,0} %convert.901.3, f32[32,1024]{1,0} %add.235.7), metadata={op_type="aten__add" op_name="aten__add.705/aten__add" source_file="/usr/local/lib/python3.10/site-packages/torch/_ops.py" source_line=756}
  %add.239.3 = f32[32,1024]{1,0} add(f32[32,1024]{1,0} %slice.202.5, f32[32,1024]{1,0} %add.237.3), metadata={op_type="aten__add" op_name="aten__add.718/aten__add" source_file="/usr/local/lib/python3.10/site-packages/torch/_ops.py" source_line=756}
  %multiply.494 = f32[32,1024]{1,0} multiply(f32[32,1024]{1,0} %add.239.3, f32[32,1024]{1,0} %add.239.3), metadata={op_type="aten__pow" op_name="aten__pow" source_file="/usr/local/lib/python3.10/site-packages/torch/_ops.py" source_line=756}
  %constant_471 = f32[] constant(0), metadata={op_type="aten__mean" op_name="aten__mean" source_file="/usr/local/lib/python3.10/site-packages/torch/_ops.py" source_line=756}
  %reduce.57 = f32[32]{0} reduce(f32[32,1024]{1,0} %multiply.494, f32[] %constant_471), dimensions={1}, to_apply=%AddComputation.76, metadata={op_type="aten__mean" op_name="aten__mean" source_file="/usr/local/lib/python3.10/site-packages/torch/_ops.py" source_line=756}
  %constant_470 = f32[] constant(0.0009765625), metadata={op_type="aten__mean" op_name="aten__mean" source_file="/usr/local/lib/python3.10/site-packages/torch/_ops.py" source_line=756}
  %broadcast.555 = f32[32]{0} broadcast(f32[] %constant_470), dimensions={}, metadata={op_type="aten__mean" op_name="aten__mean" source_file="/usr/local/lib/python3.10/site-packages/torch/_ops.py" source_line=756}
  %multiply.493 = f32[32]{0} multiply(f32[32]{0} %reduce.57, f32[32]{0} %broadcast.555), metadata={op_type="aten__mean" op_name="aten__mean" source_file="/usr/local/lib/python3.10/site-packages/torch/_ops.py" source_line=756}
  %param_0.690 = f32[] parameter(0)
  %broadcast.554 = f32[32]{0} broadcast(f32[] %param_0.690), dimensions={}, metadata={op_type="aten__add" op_name="aten__add.521/aten__add" source_file="/usr/local/lib/python3.10/site-packages/torch/_ops.py" source_line=756}
  %add.276 = f32[32]{0} add(f32[32]{0} %multiply.493, f32[32]{0} %broadcast.554), metadata={op_type="aten__add" op_name="aten__add.719/aten__add" source_file="/usr/local/lib/python3.10/site-packages/torch/_ops.py" source_line=756}
  %rsqrt.109 = f32[32]{0} rsqrt(f32[32]{0} %add.276), metadata={op_type="aten__rsqrt" op_name="aten__rsqrt" source_file="/usr/local/lib/python3.10/site-packages/torch/_ops.py" source_line=756}
  %broadcast.553 = f32[32,1024]{1,0} broadcast(f32[32]{0} %rsqrt.109), dimensions={0}, metadata={op_type="aten__mul" op_name="aten__mul.720/aten__mul" source_file="/usr/local/lib/python3.10/site-packages/torch/_ops.py" source_line=756}
  %multiply.491 = f32[32,1024]{1,0} multiply(f32[32,1024]{1,0} %add.239.3, f32[32,1024]{1,0} %broadcast.553), metadata={op_type="aten__mul" op_name="aten__mul.720/aten__mul" source_file="/usr/local/lib/python3.10/site-packages/torch/_ops.py" source_line=756}
  %param_1.558 = bf16[1024]{0} parameter(1)
  %convert.903.1 = f32[1024]{0} convert(bf16[1024]{0} %param_1.558), metadata={op_type="xla__cast" op_name="xla__cast" source_file="/usr/local/lib/python3.10/site-packages/torch/_ops.py" source_line=756}
  %broadcast.388.3 = f32[32,1024]{1,0} broadcast(f32[1024]{0} %convert.903.1), dimensions={1}, metadata={op_type="aten__mul" op_name="aten__mul.721/aten__mul" source_file="/usr/local/lib/python3.10/site-packages/torch/_ops.py" source_line=756}
  %multiply.393.3 = f32[32,1024]{1,0} multiply(f32[32,1024]{1,0} %multiply.491, f32[32,1024]{1,0} %broadcast.388.3), metadata={op_type="aten__mul" op_name="aten__mul.721/aten__mul" source_file="/usr/local/lib/python3.10/site-packages/torch/_ops.py" source_line=756}
  ROOT %convert.905.1 = bf16[32,1024]{1,0} convert(f32[32,1024]{1,0} %multiply.393.3), metadata={op_type="xla__cast" op_name="xla__cast" source_file="/usr/local/lib/python3.10/site-packages/torch/_ops.py" source_line=756}
}

%fused_convert.11 (param_0.485: bf16[32,6144]) -> bf16[32,3072] {
  %param_0.485 = bf16[32,6144]{1,0} parameter(0)
  %slice.236.1 = bf16[32,3072]{1,0} slice(bf16[32,6144]{1,0} %param_0.485), slice={[0:32], [0:3072]}, metadata={op_type="xla__select" op_name="xla__select" source_file="/usr/local/lib/python3.10/site-packages/torch/_ops.py" source_line=756}
  %convert.907.8 = f32[32,3072]{1,0} convert(bf16[32,3072]{1,0} %slice.236.1)
  %constant_1_11 = bf16[] constant(1), metadata={op_type="xla__select" op_name="xla__select" source_file="/usr/local/lib/python3.10/site-packages/torch/_ops.py" source_line=756}
  %convert.966.9 = f32[] convert(bf16[] %constant_1_11)
  %broadcast.407.38 = f32[32,3072]{1,0} broadcast(f32[] %convert.966.9), dimensions={}, metadata={op_type="xla__select" op_name="xla__select" source_file="/usr/local/lib/python3.10/site-packages/torch/_ops.py" source_line=756}
  %negate.56.7 = f32[32,3072]{1,0} negate(f32[32,3072]{1,0} %convert.907.8)
  %convert.913.5 = bf16[32,3072]{1,0} convert(f32[32,3072]{1,0} %negate.56.7)
  %exponential.56.3 = bf16[32,3072]{1,0} exponential(bf16[32,3072]{1,0} %convert.913.5)
  %convert.914.1 = f32[32,3072]{1,0} convert(bf16[32,3072]{1,0} %exponential.56.3)
  %add.240.3 = f32[32,3072]{1,0} add(f32[32,3072]{1,0} %broadcast.407.38, f32[32,3072]{1,0} %convert.914.1)
  %divide.56.3 = f32[32,3072]{1,0} divide(f32[32,3072]{1,0} %broadcast.407.38, f32[32,3072]{1,0} %add.240.3), metadata={op_type="aten__silu" op_name="aten__silu" source_file="/usr/local/lib/python3.10/site-packages/torch/_ops.py" source_line=756}
  %multiply.394.5 = f32[32,3072]{1,0} multiply(f32[32,3072]{1,0} %convert.907.8, f32[32,3072]{1,0} %divide.56.3), metadata={op_type="aten__silu" op_name="aten__silu" source_file="/usr/local/lib/python3.10/site-packages/torch/_ops.py" source_line=756}
  %slice.237.1 = bf16[32,3072]{1,0} slice(bf16[32,6144]{1,0} %param_0.485), slice={[0:32], [3072:6144]}, metadata={op_type="xla__select" op_name="xla__select" source_file="/usr/local/lib/python3.10/site-packages/torch/_ops.py" source_line=756}
  %convert.915.1 = f32[32,3072]{1,0} convert(bf16[32,3072]{1,0} %slice.237.1), metadata={op_type="xla__cast" op_name="xla__cast" source_file="/usr/local/lib/python3.10/site-packages/torch/_ops.py" source_line=756}
  %multiply.395.3 = f32[32,3072]{1,0} multiply(f32[32,3072]{1,0} %multiply.394.5, f32[32,3072]{1,0} %convert.915.1), metadata={op_type="aten__mul" op_name="aten__mul.722/aten__mul" source_file="/usr/local/lib/python3.10/site-packages/torch/_ops.py" source_line=756}
  ROOT %convert.916.1 = bf16[32,3072]{1,0} convert(f32[32,3072]{1,0} %multiply.395.3), metadata={op_type="xla__cast" op_name="xla__cast" source_file="/usr/local/lib/python3.10/site-packages/torch/_ops.py" source_line=756}
}

%fused_add.2 (param_0.609: bf16[32,15360], param_1.560: bf16[32,1024], param_2.379: bf16[32,1024], param_3.301: f32[32,1024], param_4.140: bf16[32,1024], param_5.33: bf16[32,1024]) -> f32[32,1024] {
  %param_0.609 = bf16[32,15360]{1,0} parameter(0)
  %convert.743.41 = f32[32,15360]{1,0} convert(bf16[32,15360]{1,0} %param_0.609), metadata={op_type="xla__cast" op_name="xla__cast" source_file="/usr/local/lib/python3.10/site-packages/torch/_ops.py" source_line=756}
  %slice.201.3 = f32[32,1024]{1,0} slice(f32[32,15360]{1,0} %convert.743.41), slice={[0:32], [2048:3072]}, metadata={op_type="aten__mm" op_name="aten__mm" source_file="/usr/local/lib/python3.10/site-packages/torch/_ops.py" source_line=756}
  %param_1.560 = bf16[32,1024]{1,0} parameter(1)
  %convert.917.1 = f32[32,1024]{1,0} convert(bf16[32,1024]{1,0} %param_1.560), metadata={op_type="xla__cast" op_name="xla__cast" source_file="/usr/local/lib/python3.10/site-packages/torch/_ops.py" source_line=756}
  %slice.202.7 = f32[32,1024]{1,0} slice(f32[32,15360]{1,0} %convert.743.41), slice={[0:32], [3072:4096]}, metadata={op_type="aten__mm" op_name="aten__mm" source_file="/usr/local/lib/python3.10/site-packages/torch/_ops.py" source_line=756}
  %param_2.379 = bf16[32,1024]{1,0} parameter(2)
  %convert.901.5 = f32[32,1024]{1,0} convert(bf16[32,1024]{1,0} %param_2.379), metadata={op_type="xla__cast" op_name="xla__cast" source_file="/usr/local/lib/python3.10/site-packages/torch/_ops.py" source_line=756}
  %slice.203.7 = f32[32,1024]{1,0} slice(f32[32,15360]{1,0} %convert.743.41), slice={[0:32], [4096:5120]}, metadata={op_type="aten__mm" op_name="aten__mm" source_file="/usr/local/lib/python3.10/site-packages/torch/_ops.py" source_line=756}
  %param_5.33 = bf16[32,1024]{1,0} parameter(5)
  %convert.886.5 = f32[32,1024]{1,0} convert(bf16[32,1024]{1,0} %param_5.33), metadata={op_type="xla__cast" op_name="xla__cast" source_file="/usr/local/lib/python3.10/site-packages/torch/_ops.py" source_line=756}
  %slice.204.11 = f32[32,1024]{1,0} slice(f32[32,15360]{1,0} %convert.743.41), slice={[0:32], [5120:6144]}, metadata={op_type="aten__mm" op_name="aten__mm" source_file="/usr/local/lib/python3.10/site-packages/torch/_ops.py" source_line=756}
  %param_4.140 = bf16[32,1024]{1,0} parameter(4)
  %convert.873.9 = f32[32,1024]{1,0} convert(bf16[32,1024]{1,0} %param_4.140), metadata={op_type="xla__cast" op_name="xla__cast" source_file="/usr/local/lib/python3.10/site-packages/torch/_ops.py" source_line=756}
  %param_3.301 = f32[32,1024]{1,0} parameter(3)
  %add.231.9 = f32[32,1024]{1,0} add(f32[32,1024]{1,0} %convert.873.9, f32[32,1024]{1,0} %param_3.301), metadata={op_type="aten__add" op_name="aten__add.669/aten__add" source_file="/usr/local/lib/python3.10/site-packages/torch/_ops.py" source_line=756}
  %add.232.9 = f32[32,1024]{1,0} add(f32[32,1024]{1,0} %slice.204.11, f32[32,1024]{1,0} %add.231.9), metadata={op_type="aten__add" op_name="aten__add.682/aten__add" source_file="/usr/local/lib/python3.10/site-packages/torch/_ops.py" source_line=756}
  %add.234.5 = f32[32,1024]{1,0} add(f32[32,1024]{1,0} %convert.886.5, f32[32,1024]{1,0} %add.232.9), metadata={op_type="aten__add" op_name="aten__add.687/aten__add" source_file="/usr/local/lib/python3.10/site-packages/torch/_ops.py" source_line=756}
  %add.235.5 = f32[32,1024]{1,0} add(f32[32,1024]{1,0} %slice.203.7, f32[32,1024]{1,0} %add.234.5), metadata={op_type="aten__add" op_name="aten__add.700/aten__add" source_file="/usr/local/lib/python3.10/site-packages/torch/_ops.py" source_line=756}
  %add.237.5 = f32[32,1024]{1,0} add(f32[32,1024]{1,0} %convert.901.5, f32[32,1024]{1,0} %add.235.5), metadata={op_type="aten__add" op_name="aten__add.705/aten__add" source_file="/usr/local/lib/python3.10/site-packages/torch/_ops.py" source_line=756}
  %add.239.5 = f32[32,1024]{1,0} add(f32[32,1024]{1,0} %slice.202.7, f32[32,1024]{1,0} %add.237.5), metadata={op_type="aten__add" op_name="aten__add.718/aten__add" source_file="/usr/local/lib/python3.10/site-packages/torch/_ops.py" source_line=756}
  %add.241.1 = f32[32,1024]{1,0} add(f32[32,1024]{1,0} %convert.917.1, f32[32,1024]{1,0} %add.239.5), metadata={op_type="aten__add" op_name="aten__add.723/aten__add" source_file="/usr/local/lib/python3.10/site-packages/torch/_ops.py" source_line=756}
  ROOT %add.242.1 = f32[32,1024]{1,0} add(f32[32,1024]{1,0} %slice.201.3, f32[32,1024]{1,0} %add.241.1), metadata={op_type="aten__add" op_name="aten__add.736/aten__add" source_file="/usr/local/lib/python3.10/site-packages/torch/_ops.py" source_line=756}
}

%fused_computation.171 (param_0.674: f32[32,1024], param_1.541: f32[], param_2.300: bf16[1024]) -> bf16[32,1024] {
  %param_0.674 = f32[32,1024]{1,0} parameter(0)
  %multiply.500 = f32[32,1024]{1,0} multiply(f32[32,1024]{1,0} %param_0.674, f32[32,1024]{1,0} %param_0.674), metadata={op_type="aten__pow" op_name="aten__pow" source_file="/usr/local/lib/python3.10/site-packages/torch/_ops.py" source_line=756}
  %constant_476 = f32[] constant(0), metadata={op_type="aten__mean" op_name="aten__mean" source_file="/usr/local/lib/python3.10/site-packages/torch/_ops.py" source_line=756}
  %reduce.59 = f32[32]{0} reduce(f32[32,1024]{1,0} %multiply.500, f32[] %constant_476), dimensions={1}, to_apply=%AddComputation.76, metadata={op_type="aten__mean" op_name="aten__mean" source_file="/usr/local/lib/python3.10/site-packages/torch/_ops.py" source_line=756}
  %constant_475 = f32[] constant(0.0009765625), metadata={op_type="aten__mean" op_name="aten__mean" source_file="/usr/local/lib/python3.10/site-packages/torch/_ops.py" source_line=756}
  %broadcast.564 = f32[32]{0} broadcast(f32[] %constant_475), dimensions={}, metadata={op_type="aten__mean" op_name="aten__mean" source_file="/usr/local/lib/python3.10/site-packages/torch/_ops.py" source_line=756}
  %multiply.499 = f32[32]{0} multiply(f32[32]{0} %reduce.59, f32[32]{0} %broadcast.564), metadata={op_type="aten__mean" op_name="aten__mean" source_file="/usr/local/lib/python3.10/site-packages/torch/_ops.py" source_line=756}
  %param_1.541 = f32[] parameter(1)
  %broadcast.562 = f32[32]{0} broadcast(f32[] %param_1.541), dimensions={}, metadata={op_type="aten__add" op_name="aten__add.521/aten__add" source_file="/usr/local/lib/python3.10/site-packages/torch/_ops.py" source_line=756}
  %add.279 = f32[32]{0} add(f32[32]{0} %multiply.499, f32[32]{0} %broadcast.562), metadata={op_type="aten__add" op_name="aten__add.737/aten__add" source_file="/usr/local/lib/python3.10/site-packages/torch/_ops.py" source_line=756}
  %rsqrt.111 = f32[32]{0} rsqrt(f32[32]{0} %add.279), metadata={op_type="aten__rsqrt" op_name="aten__rsqrt" source_file="/usr/local/lib/python3.10/site-packages/torch/_ops.py" source_line=756}
  %broadcast.561 = f32[32,1024]{1,0} broadcast(f32[32]{0} %rsqrt.111), dimensions={0}, metadata={op_type="aten__mul" op_name="aten__mul.738/aten__mul" source_file="/usr/local/lib/python3.10/site-packages/torch/_ops.py" source_line=756}
  %multiply.498 = f32[32,1024]{1,0} multiply(f32[32,1024]{1,0} %param_0.674, f32[32,1024]{1,0} %broadcast.561), metadata={op_type="aten__mul" op_name="aten__mul.738/aten__mul" source_file="/usr/local/lib/python3.10/site-packages/torch/_ops.py" source_line=756}
  %param_2.300 = bf16[1024]{0} parameter(2)
  %convert.918.1 = f32[1024]{0} convert(bf16[1024]{0} %param_2.300), metadata={op_type="xla__cast" op_name="xla__cast" source_file="/usr/local/lib/python3.10/site-packages/torch/_ops.py" source_line=756}
  %broadcast.392.3 = f32[32,1024]{1,0} broadcast(f32[1024]{0} %convert.918.1), dimensions={1}, metadata={op_type="aten__mul" op_name="aten__mul.739/aten__mul" source_file="/usr/local/lib/python3.10/site-packages/torch/_ops.py" source_line=756}
  %multiply.396.3 = f32[32,1024]{1,0} multiply(f32[32,1024]{1,0} %multiply.498, f32[32,1024]{1,0} %broadcast.392.3), metadata={op_type="aten__mul" op_name="aten__mul.739/aten__mul" source_file="/usr/local/lib/python3.10/site-packages/torch/_ops.py" source_line=756}
  ROOT %convert.919.1 = bf16[32,1024]{1,0} convert(f32[32,1024]{1,0} %multiply.396.3), metadata={op_type="xla__cast" op_name="xla__cast" source_file="/usr/local/lib/python3.10/site-packages/torch/_ops.py" source_line=756}
}

%fused_convert.12 (param_0.481: bf16[32,6144]) -> bf16[32,3072] {
  %param_0.481 = bf16[32,6144]{1,0} parameter(0)
  %slice.238.1 = bf16[32,3072]{1,0} slice(bf16[32,6144]{1,0} %param_0.481), slice={[0:32], [0:3072]}, metadata={op_type="xla__select" op_name="xla__select" source_file="/usr/local/lib/python3.10/site-packages/torch/_ops.py" source_line=756}
  %convert.920.8 = f32[32,3072]{1,0} convert(bf16[32,3072]{1,0} %slice.238.1)
  %constant_1_7 = bf16[] constant(1), metadata={op_type="xla__select" op_name="xla__select" source_file="/usr/local/lib/python3.10/site-packages/torch/_ops.py" source_line=756}
  %convert.966.5 = f32[] convert(bf16[] %constant_1_7)
  %broadcast.407.36 = f32[32,3072]{1,0} broadcast(f32[] %convert.966.5), dimensions={}, metadata={op_type="xla__select" op_name="xla__select" source_file="/usr/local/lib/python3.10/site-packages/torch/_ops.py" source_line=756}
  %negate.57.7 = f32[32,3072]{1,0} negate(f32[32,3072]{1,0} %convert.920.8)
  %convert.925.5 = bf16[32,3072]{1,0} convert(f32[32,3072]{1,0} %negate.57.7)
  %exponential.57.3 = bf16[32,3072]{1,0} exponential(bf16[32,3072]{1,0} %convert.925.5)
  %convert.928.1 = f32[32,3072]{1,0} convert(bf16[32,3072]{1,0} %exponential.57.3)
  %add.243.3 = f32[32,3072]{1,0} add(f32[32,3072]{1,0} %broadcast.407.36, f32[32,3072]{1,0} %convert.928.1)
  %divide.57.3 = f32[32,3072]{1,0} divide(f32[32,3072]{1,0} %broadcast.407.36, f32[32,3072]{1,0} %add.243.3), metadata={op_type="aten__silu" op_name="aten__silu" source_file="/usr/local/lib/python3.10/site-packages/torch/_ops.py" source_line=756}
  %multiply.398.5 = f32[32,3072]{1,0} multiply(f32[32,3072]{1,0} %convert.920.8, f32[32,3072]{1,0} %divide.57.3), metadata={op_type="aten__silu" op_name="aten__silu" source_file="/usr/local/lib/python3.10/site-packages/torch/_ops.py" source_line=756}
  %slice.239.1 = bf16[32,3072]{1,0} slice(bf16[32,6144]{1,0} %param_0.481), slice={[0:32], [3072:6144]}, metadata={op_type="xla__select" op_name="xla__select" source_file="/usr/local/lib/python3.10/site-packages/torch/_ops.py" source_line=756}
  %convert.929.1 = f32[32,3072]{1,0} convert(bf16[32,3072]{1,0} %slice.239.1), metadata={op_type="xla__cast" op_name="xla__cast" source_file="/usr/local/lib/python3.10/site-packages/torch/_ops.py" source_line=756}
  %multiply.400.3 = f32[32,3072]{1,0} multiply(f32[32,3072]{1,0} %multiply.398.5, f32[32,3072]{1,0} %convert.929.1), metadata={op_type="aten__mul" op_name="aten__mul.740/aten__mul" source_file="/usr/local/lib/python3.10/site-packages/torch/_ops.py" source_line=756}
  ROOT %convert.930.1 = bf16[32,3072]{1,0} convert(f32[32,3072]{1,0} %multiply.400.3), metadata={op_type="xla__cast" op_name="xla__cast" source_file="/usr/local/lib/python3.10/site-packages/torch/_ops.py" source_line=756}
}

%fused_computation.172 (param_0.687: f32[], param_1.554: bf16[1024], param_2.314: f32[32,1024], param_3.224: bf16[32,1024], param_4.69: bf16[32,15360]) -> bf16[32,1024] {
  %param_4.69 = bf16[32,15360]{1,0} parameter(4)
  %convert.743.53 = f32[32,15360]{1,0} convert(bf16[32,15360]{1,0} %param_4.69), metadata={op_type="xla__cast" op_name="xla__cast" source_file="/usr/local/lib/python3.10/site-packages/torch/_ops.py" source_line=756}
  %slice.200.5 = f32[32,1024]{1,0} slice(f32[32,15360]{1,0} %convert.743.53), slice={[0:32], [1024:2048]}, metadata={op_type="aten__mm" op_name="aten__mm" source_file="/usr/local/lib/python3.10/site-packages/torch/_ops.py" source_line=756}
  %param_3.224 = bf16[32,1024]{1,0} parameter(3)
  %convert.931.3 = f32[32,1024]{1,0} convert(bf16[32,1024]{1,0} %param_3.224), metadata={op_type="xla__cast" op_name="xla__cast" source_file="/usr/local/lib/python3.10/site-packages/torch/_ops.py" source_line=756}
  %param_2.314 = f32[32,1024]{1,0} parameter(2)
  %add.244.3 = f32[32,1024]{1,0} add(f32[32,1024]{1,0} %convert.931.3, f32[32,1024]{1,0} %param_2.314), metadata={op_type="aten__add" op_name="aten__add.741/aten__add" source_file="/usr/local/lib/python3.10/site-packages/torch/_ops.py" source_line=756}
  %add.245.3 = f32[32,1024]{1,0} add(f32[32,1024]{1,0} %slice.200.5, f32[32,1024]{1,0} %add.244.3), metadata={op_type="aten__add" op_name="aten__add.754/aten__add" source_file="/usr/local/lib/python3.10/site-packages/torch/_ops.py" source_line=756}
  %multiply.506 = f32[32,1024]{1,0} multiply(f32[32,1024]{1,0} %add.245.3, f32[32,1024]{1,0} %add.245.3), metadata={op_type="aten__pow" op_name="aten__pow" source_file="/usr/local/lib/python3.10/site-packages/torch/_ops.py" source_line=756}
  %constant_481 = f32[] constant(0), metadata={op_type="aten__mean" op_name="aten__mean" source_file="/usr/local/lib/python3.10/site-packages/torch/_ops.py" source_line=756}
  %reduce.61 = f32[32]{0} reduce(f32[32,1024]{1,0} %multiply.506, f32[] %constant_481), dimensions={1}, to_apply=%AddComputation.76, metadata={op_type="aten__mean" op_name="aten__mean" source_file="/usr/local/lib/python3.10/site-packages/torch/_ops.py" source_line=756}
  %constant_480 = f32[] constant(0.0009765625), metadata={op_type="aten__mean" op_name="aten__mean" source_file="/usr/local/lib/python3.10/site-packages/torch/_ops.py" source_line=756}
  %broadcast.570 = f32[32]{0} broadcast(f32[] %constant_480), dimensions={}, metadata={op_type="aten__mean" op_name="aten__mean" source_file="/usr/local/lib/python3.10/site-packages/torch/_ops.py" source_line=756}
  %multiply.505 = f32[32]{0} multiply(f32[32]{0} %reduce.61, f32[32]{0} %broadcast.570), metadata={op_type="aten__mean" op_name="aten__mean" source_file="/usr/local/lib/python3.10/site-packages/torch/_ops.py" source_line=756}
  %param_0.687 = f32[] parameter(0)
  %broadcast.569 = f32[32]{0} broadcast(f32[] %param_0.687), dimensions={}, metadata={op_type="aten__add" op_name="aten__add.521/aten__add" source_file="/usr/local/lib/python3.10/site-packages/torch/_ops.py" source_line=756}
  %add.281 = f32[32]{0} add(f32[32]{0} %multiply.505, f32[32]{0} %broadcast.569), metadata={op_type="aten__add" op_name="aten__add.755/aten__add" source_file="/usr/local/lib/python3.10/site-packages/torch/_ops.py" source_line=756}
  %rsqrt.113 = f32[32]{0} rsqrt(f32[32]{0} %add.281), metadata={op_type="aten__rsqrt" op_name="aten__rsqrt" source_file="/usr/local/lib/python3.10/site-packages/torch/_ops.py" source_line=756}
  %broadcast.568 = f32[32,1024]{1,0} broadcast(f32[32]{0} %rsqrt.113), dimensions={0}, metadata={op_type="aten__mul" op_name="aten__mul.756/aten__mul" source_file="/usr/local/lib/python3.10/site-packages/torch/_ops.py" source_line=756}
  %multiply.504 = f32[32,1024]{1,0} multiply(f32[32,1024]{1,0} %add.245.3, f32[32,1024]{1,0} %broadcast.568), metadata={op_type="aten__mul" op_name="aten__mul.756/aten__mul" source_file="/usr/local/lib/python3.10/site-packages/torch/_ops.py" source_line=756}
  %param_1.554 = bf16[1024]{0} parameter(1)
  %convert.932.1 = f32[1024]{0} convert(bf16[1024]{0} %param_1.554), metadata={op_type="xla__cast" op_name="xla__cast" source_file="/usr/local/lib/python3.10/site-packages/torch/_ops.py" source_line=756}
  %broadcast.395.3 = f32[32,1024]{1,0} broadcast(f32[1024]{0} %convert.932.1), dimensions={1}, metadata={op_type="aten__mul" op_name="aten__mul.757/aten__mul" source_file="/usr/local/lib/python3.10/site-packages/torch/_ops.py" source_line=756}
  %multiply.401.3 = f32[32,1024]{1,0} multiply(f32[32,1024]{1,0} %multiply.504, f32[32,1024]{1,0} %broadcast.395.3), metadata={op_type="aten__mul" op_name="aten__mul.757/aten__mul" source_file="/usr/local/lib/python3.10/site-packages/torch/_ops.py" source_line=756}
  ROOT %convert.934.1 = bf16[32,1024]{1,0} convert(f32[32,1024]{1,0} %multiply.401.3), metadata={op_type="xla__cast" op_name="xla__cast" source_file="/usr/local/lib/python3.10/site-packages/torch/_ops.py" source_line=756}
}

%fused_convert.13 (param_0.489: bf16[32,6144]) -> bf16[32,3072] {
  %param_0.489 = bf16[32,6144]{1,0} parameter(0)
  %slice.240.1 = bf16[32,3072]{1,0} slice(bf16[32,6144]{1,0} %param_0.489), slice={[0:32], [0:3072]}, metadata={op_type="xla__select" op_name="xla__select" source_file="/usr/local/lib/python3.10/site-packages/torch/_ops.py" source_line=756}
  %convert.935.8 = f32[32,3072]{1,0} convert(bf16[32,3072]{1,0} %slice.240.1)
  %constant_1_15 = bf16[] constant(1), metadata={op_type="xla__select" op_name="xla__select" source_file="/usr/local/lib/python3.10/site-packages/torch/_ops.py" source_line=756}
  %convert.966.13 = f32[] convert(bf16[] %constant_1_15)
  %broadcast.407.34 = f32[32,3072]{1,0} broadcast(f32[] %convert.966.13), dimensions={}, metadata={op_type="xla__select" op_name="xla__select" source_file="/usr/local/lib/python3.10/site-packages/torch/_ops.py" source_line=756}
  %negate.58.7 = f32[32,3072]{1,0} negate(f32[32,3072]{1,0} %convert.935.8)
  %convert.939.5 = bf16[32,3072]{1,0} convert(f32[32,3072]{1,0} %negate.58.7)
  %exponential.58.3 = bf16[32,3072]{1,0} exponential(bf16[32,3072]{1,0} %convert.939.5)
  %convert.940.1 = f32[32,3072]{1,0} convert(bf16[32,3072]{1,0} %exponential.58.3)
  %add.246.3 = f32[32,3072]{1,0} add(f32[32,3072]{1,0} %broadcast.407.34, f32[32,3072]{1,0} %convert.940.1)
  %divide.58.3 = f32[32,3072]{1,0} divide(f32[32,3072]{1,0} %broadcast.407.34, f32[32,3072]{1,0} %add.246.3), metadata={op_type="aten__silu" op_name="aten__silu" source_file="/usr/local/lib/python3.10/site-packages/torch/_ops.py" source_line=756}
  %multiply.402.5 = f32[32,3072]{1,0} multiply(f32[32,3072]{1,0} %convert.935.8, f32[32,3072]{1,0} %divide.58.3), metadata={op_type="aten__silu" op_name="aten__silu" source_file="/usr/local/lib/python3.10/site-packages/torch/_ops.py" source_line=756}
  %slice.241.1 = bf16[32,3072]{1,0} slice(bf16[32,6144]{1,0} %param_0.489), slice={[0:32], [3072:6144]}, metadata={op_type="xla__select" op_name="xla__select" source_file="/usr/local/lib/python3.10/site-packages/torch/_ops.py" source_line=756}
  %convert.941.1 = f32[32,3072]{1,0} convert(bf16[32,3072]{1,0} %slice.241.1), metadata={op_type="xla__cast" op_name="xla__cast" source_file="/usr/local/lib/python3.10/site-packages/torch/_ops.py" source_line=756}
  %multiply.403.3 = f32[32,3072]{1,0} multiply(f32[32,3072]{1,0} %multiply.402.5, f32[32,3072]{1,0} %convert.941.1), metadata={op_type="aten__mul" op_name="aten__mul.758/aten__mul" source_file="/usr/local/lib/python3.10/site-packages/torch/_ops.py" source_line=756}
  ROOT %convert.942.1 = bf16[32,3072]{1,0} convert(f32[32,3072]{1,0} %multiply.403.3), metadata={op_type="xla__cast" op_name="xla__cast" source_file="/usr/local/lib/python3.10/site-packages/torch/_ops.py" source_line=756}
}

%fused_computation.173 (param_0.727: f32[], param_1.596: bf16[1024], param_2.372: f32[32,1024], param_3.290: bf16[32,1024], param_4.127: bf16[32,15360], param_5.17: bf16[32,1024]) -> bf16[32,1024] {
  %param_4.127 = bf16[32,15360]{1,0} parameter(4)
  %convert.743.87 = f32[32,15360]{1,0} convert(bf16[32,15360]{1,0} %param_4.127), metadata={op_type="xla__cast" op_name="xla__cast" source_file="/usr/local/lib/python3.10/site-packages/torch/_ops.py" source_line=756}
  %slice.199.5 = f32[32,1024]{1,0} slice(f32[32,15360]{1,0} %convert.743.87), slice={[0:32], [0:1024]}, metadata={op_type="aten__mm" op_name="aten__mm" source_file="/usr/local/lib/python3.10/site-packages/torch/_ops.py" source_line=756}
  %param_5.17 = bf16[32,1024]{1,0} parameter(5)
  %convert.943.3 = f32[32,1024]{1,0} convert(bf16[32,1024]{1,0} %param_5.17), metadata={op_type="xla__cast" op_name="xla__cast" source_file="/usr/local/lib/python3.10/site-packages/torch/_ops.py" source_line=756}
  %slice.200.9 = f32[32,1024]{1,0} slice(f32[32,15360]{1,0} %convert.743.87), slice={[0:32], [1024:2048]}, metadata={op_type="aten__mm" op_name="aten__mm" source_file="/usr/local/lib/python3.10/site-packages/torch/_ops.py" source_line=756}
  %param_3.290 = bf16[32,1024]{1,0} parameter(3)
  %convert.931.7 = f32[32,1024]{1,0} convert(bf16[32,1024]{1,0} %param_3.290), metadata={op_type="xla__cast" op_name="xla__cast" source_file="/usr/local/lib/python3.10/site-packages/torch/_ops.py" source_line=756}
  %param_2.372 = f32[32,1024]{1,0} parameter(2)
  %add.244.7 = f32[32,1024]{1,0} add(f32[32,1024]{1,0} %convert.931.7, f32[32,1024]{1,0} %param_2.372), metadata={op_type="aten__add" op_name="aten__add.741/aten__add" source_file="/usr/local/lib/python3.10/site-packages/torch/_ops.py" source_line=756}
  %add.245.7 = f32[32,1024]{1,0} add(f32[32,1024]{1,0} %slice.200.9, f32[32,1024]{1,0} %add.244.7), metadata={op_type="aten__add" op_name="aten__add.754/aten__add" source_file="/usr/local/lib/python3.10/site-packages/torch/_ops.py" source_line=756}
  %add.247.3 = f32[32,1024]{1,0} add(f32[32,1024]{1,0} %convert.943.3, f32[32,1024]{1,0} %add.245.7), metadata={op_type="aten__add" op_name="aten__add.759/aten__add" source_file="/usr/local/lib/python3.10/site-packages/torch/_ops.py" source_line=756}
  %add.248.3 = f32[32,1024]{1,0} add(f32[32,1024]{1,0} %slice.199.5, f32[32,1024]{1,0} %add.247.3), metadata={op_type="aten__add" op_name="aten__add.772/aten__add" source_file="/usr/local/lib/python3.10/site-packages/torch/_ops.py" source_line=756}
  %multiply.512 = f32[32,1024]{1,0} multiply(f32[32,1024]{1,0} %add.248.3, f32[32,1024]{1,0} %add.248.3), metadata={op_type="aten__pow" op_name="aten__pow" source_file="/usr/local/lib/python3.10/site-packages/torch/_ops.py" source_line=756}
  %constant_487 = f32[] constant(0), metadata={op_type="aten__mean" op_name="aten__mean" source_file="/usr/local/lib/python3.10/site-packages/torch/_ops.py" source_line=756}
  %reduce.63 = f32[32]{0} reduce(f32[32,1024]{1,0} %multiply.512, f32[] %constant_487), dimensions={1}, to_apply=%AddComputation.76, metadata={op_type="aten__mean" op_name="aten__mean" source_file="/usr/local/lib/python3.10/site-packages/torch/_ops.py" source_line=756}
  %constant_486 = f32[] constant(0.0009765625), metadata={op_type="aten__mean" op_name="aten__mean" source_file="/usr/local/lib/python3.10/site-packages/torch/_ops.py" source_line=756}
  %broadcast.577 = f32[32]{0} broadcast(f32[] %constant_486), dimensions={}, metadata={op_type="aten__mean" op_name="aten__mean" source_file="/usr/local/lib/python3.10/site-packages/torch/_ops.py" source_line=756}
  %multiply.511 = f32[32]{0} multiply(f32[32]{0} %reduce.63, f32[32]{0} %broadcast.577), metadata={op_type="aten__mean" op_name="aten__mean" source_file="/usr/local/lib/python3.10/site-packages/torch/_ops.py" source_line=756}
  %param_0.727 = f32[] parameter(0)
  %broadcast.575 = f32[32]{0} broadcast(f32[] %param_0.727), dimensions={}, metadata={op_type="aten__add" op_name="aten__add.521/aten__add" source_file="/usr/local/lib/python3.10/site-packages/torch/_ops.py" source_line=756}
  %add.283 = f32[32]{0} add(f32[32]{0} %multiply.511, f32[32]{0} %broadcast.575), metadata={op_type="aten__add" op_name="aten__add.773/aten__add" source_file="/usr/local/lib/python3.10/site-packages/torch/_ops.py" source_line=756}
  %rsqrt.115 = f32[32]{0} rsqrt(f32[32]{0} %add.283), metadata={op_type="aten__rsqrt" op_name="aten__rsqrt" source_file="/usr/local/lib/python3.10/site-packages/torch/_ops.py" source_line=756}
  %broadcast.574 = f32[32,1024]{1,0} broadcast(f32[32]{0} %rsqrt.115), dimensions={0}, metadata={op_type="aten__mul" op_name="aten__mul.774/aten__mul" source_file="/usr/local/lib/python3.10/site-packages/torch/_ops.py" source_line=756}
  %multiply.510 = f32[32,1024]{1,0} multiply(f32[32,1024]{1,0} %add.248.3, f32[32,1024]{1,0} %broadcast.574), metadata={op_type="aten__mul" op_name="aten__mul.774/aten__mul" source_file="/usr/local/lib/python3.10/site-packages/torch/_ops.py" source_line=756}
  %param_1.596 = bf16[1024]{0} parameter(1)
  %convert.944.1 = f32[1024]{0} convert(bf16[1024]{0} %param_1.596), metadata={op_type="xla__cast" op_name="xla__cast" source_file="/usr/local/lib/python3.10/site-packages/torch/_ops.py" source_line=756}
  %broadcast.398.3 = f32[32,1024]{1,0} broadcast(f32[1024]{0} %convert.944.1), dimensions={1}, metadata={op_type="aten__mul" op_name="aten__mul.775/aten__mul" source_file="/usr/local/lib/python3.10/site-packages/torch/_ops.py" source_line=756}
  %multiply.405.3 = f32[32,1024]{1,0} multiply(f32[32,1024]{1,0} %multiply.510, f32[32,1024]{1,0} %broadcast.398.3), metadata={op_type="aten__mul" op_name="aten__mul.775/aten__mul" source_file="/usr/local/lib/python3.10/site-packages/torch/_ops.py" source_line=756}
  ROOT %convert.945.1 = bf16[32,1024]{1,0} convert(f32[32,1024]{1,0} %multiply.405.3), metadata={op_type="xla__cast" op_name="xla__cast" source_file="/usr/local/lib/python3.10/site-packages/torch/_ops.py" source_line=756}
}

%fused_convert.14 (param_0.477: bf16[32,6144]) -> bf16[32,3072] {
  %param_0.477 = bf16[32,6144]{1,0} parameter(0)
  %slice.242.1 = bf16[32,3072]{1,0} slice(bf16[32,6144]{1,0} %param_0.477), slice={[0:32], [0:3072]}, metadata={op_type="xla__select" op_name="xla__select" source_file="/usr/local/lib/python3.10/site-packages/torch/_ops.py" source_line=756}
  %convert.946.8 = f32[32,3072]{1,0} convert(bf16[32,3072]{1,0} %slice.242.1)
  %constant_1_3 = bf16[] constant(1), metadata={op_type="xla__select" op_name="xla__select" source_file="/usr/local/lib/python3.10/site-packages/torch/_ops.py" source_line=756}
  %convert.966.1 = f32[] convert(bf16[] %constant_1_3)
  %broadcast.407.32 = f32[32,3072]{1,0} broadcast(f32[] %convert.966.1), dimensions={}, metadata={op_type="xla__select" op_name="xla__select" source_file="/usr/local/lib/python3.10/site-packages/torch/_ops.py" source_line=756}
  %negate.59.7 = f32[32,3072]{1,0} negate(f32[32,3072]{1,0} %convert.946.8)
  %convert.951.5 = bf16[32,3072]{1,0} convert(f32[32,3072]{1,0} %negate.59.7)
  %exponential.59.3 = bf16[32,3072]{1,0} exponential(bf16[32,3072]{1,0} %convert.951.5)
  %convert.952.1 = f32[32,3072]{1,0} convert(bf16[32,3072]{1,0} %exponential.59.3)
  %add.249.3 = f32[32,3072]{1,0} add(f32[32,3072]{1,0} %broadcast.407.32, f32[32,3072]{1,0} %convert.952.1)
  %divide.59.3 = f32[32,3072]{1,0} divide(f32[32,3072]{1,0} %broadcast.407.32, f32[32,3072]{1,0} %add.249.3), metadata={op_type="aten__silu" op_name="aten__silu" source_file="/usr/local/lib/python3.10/site-packages/torch/_ops.py" source_line=756}
  %multiply.406.5 = f32[32,3072]{1,0} multiply(f32[32,3072]{1,0} %convert.946.8, f32[32,3072]{1,0} %divide.59.3), metadata={op_type="aten__silu" op_name="aten__silu" source_file="/usr/local/lib/python3.10/site-packages/torch/_ops.py" source_line=756}
  %slice.243.1 = bf16[32,3072]{1,0} slice(bf16[32,6144]{1,0} %param_0.477), slice={[0:32], [3072:6144]}, metadata={op_type="xla__select" op_name="xla__select" source_file="/usr/local/lib/python3.10/site-packages/torch/_ops.py" source_line=756}
  %convert.953.1 = f32[32,3072]{1,0} convert(bf16[32,3072]{1,0} %slice.243.1), metadata={op_type="xla__cast" op_name="xla__cast" source_file="/usr/local/lib/python3.10/site-packages/torch/_ops.py" source_line=756}
  %multiply.407.3 = f32[32,3072]{1,0} multiply(f32[32,3072]{1,0} %multiply.406.5, f32[32,3072]{1,0} %convert.953.1), metadata={op_type="aten__mul" op_name="aten__mul.776/aten__mul" source_file="/usr/local/lib/python3.10/site-packages/torch/_ops.py" source_line=756}
  ROOT %convert.954.1 = bf16[32,3072]{1,0} convert(f32[32,3072]{1,0} %multiply.407.3), metadata={op_type="xla__cast" op_name="xla__cast" source_file="/usr/local/lib/python3.10/site-packages/torch/_ops.py" source_line=756}
}

%fused_computation.174 (param_0.671: f32[], param_1.598: bf16[32,1024], param_2.374: bf16[1024], param_3.293: f32[32,1024], param_4.131: bf16[32,1024], param_5.22: bf16[32,15360], param_6.11: bf16[32,1024]) -> bf16[32,1024] {
  %param_1.598 = bf16[32,1024]{1,0} parameter(1)
  %convert.956.5 = f32[32,1024]{1,0} convert(bf16[32,1024]{1,0} %param_1.598), metadata={op_type="xla__cast" op_name="xla__cast" source_file="/usr/local/lib/python3.10/site-packages/torch/_ops.py" source_line=756}
  %param_5.22 = bf16[32,15360]{1,0} parameter(5)
  %convert.743.91 = f32[32,15360]{1,0} convert(bf16[32,15360]{1,0} %param_5.22), metadata={op_type="xla__cast" op_name="xla__cast" source_file="/usr/local/lib/python3.10/site-packages/torch/_ops.py" source_line=756}
  %slice.199.7 = f32[32,1024]{1,0} slice(f32[32,15360]{1,0} %convert.743.91), slice={[0:32], [0:1024]}, metadata={op_type="aten__mm" op_name="aten__mm" source_file="/usr/local/lib/python3.10/site-packages/torch/_ops.py" source_line=756}
  %param_6.11 = bf16[32,1024]{1,0} parameter(6)
  %convert.943.5 = f32[32,1024]{1,0} convert(bf16[32,1024]{1,0} %param_6.11), metadata={op_type="xla__cast" op_name="xla__cast" source_file="/usr/local/lib/python3.10/site-packages/torch/_ops.py" source_line=756}
  %slice.200.11 = f32[32,1024]{1,0} slice(f32[32,15360]{1,0} %convert.743.91), slice={[0:32], [1024:2048]}, metadata={op_type="aten__mm" op_name="aten__mm" source_file="/usr/local/lib/python3.10/site-packages/torch/_ops.py" source_line=756}
  %param_4.131 = bf16[32,1024]{1,0} parameter(4)
  %convert.931.9 = f32[32,1024]{1,0} convert(bf16[32,1024]{1,0} %param_4.131), metadata={op_type="xla__cast" op_name="xla__cast" source_file="/usr/local/lib/python3.10/site-packages/torch/_ops.py" source_line=756}
  %param_3.293 = f32[32,1024]{1,0} parameter(3)
  %add.244.9 = f32[32,1024]{1,0} add(f32[32,1024]{1,0} %convert.931.9, f32[32,1024]{1,0} %param_3.293), metadata={op_type="aten__add" op_name="aten__add.741/aten__add" source_file="/usr/local/lib/python3.10/site-packages/torch/_ops.py" source_line=756}
  %add.245.9 = f32[32,1024]{1,0} add(f32[32,1024]{1,0} %slice.200.11, f32[32,1024]{1,0} %add.244.9), metadata={op_type="aten__add" op_name="aten__add.754/aten__add" source_file="/usr/local/lib/python3.10/site-packages/torch/_ops.py" source_line=756}
  %add.247.5 = f32[32,1024]{1,0} add(f32[32,1024]{1,0} %convert.943.5, f32[32,1024]{1,0} %add.245.9), metadata={op_type="aten__add" op_name="aten__add.759/aten__add" source_file="/usr/local/lib/python3.10/site-packages/torch/_ops.py" source_line=756}
  %add.248.5 = f32[32,1024]{1,0} add(f32[32,1024]{1,0} %slice.199.7, f32[32,1024]{1,0} %add.247.5), metadata={op_type="aten__add" op_name="aten__add.772/aten__add" source_file="/usr/local/lib/python3.10/site-packages/torch/_ops.py" source_line=756}
  %add.250.5 = f32[32,1024]{1,0} add(f32[32,1024]{1,0} %convert.956.5, f32[32,1024]{1,0} %add.248.5), metadata={op_type="aten__add" op_name="aten__add.777/aten__add" source_file="/usr/local/lib/python3.10/site-packages/torch/_ops.py" source_line=756}
  %multiply.526 = f32[32,1024]{1,0} multiply(f32[32,1024]{1,0} %add.250.5, f32[32,1024]{1,0} %add.250.5), metadata={op_type="aten__pow" op_name="aten__pow" source_file="/usr/local/lib/python3.10/site-packages/torch/_ops.py" source_line=756}
  %constant_497 = f32[] constant(0), metadata={op_type="aten__mean" op_name="aten__mean" source_file="/usr/local/lib/python3.10/site-packages/torch/_ops.py" source_line=756}
  %reduce.67 = f32[32]{0} reduce(f32[32,1024]{1,0} %multiply.526, f32[] %constant_497), dimensions={1}, to_apply=%AddComputation.76, metadata={op_type="aten__mean" op_name="aten__mean" source_file="/usr/local/lib/python3.10/site-packages/torch/_ops.py" source_line=756}
  %constant_496 = f32[] constant(0.0009765625), metadata={op_type="aten__mean" op_name="aten__mean" source_file="/usr/local/lib/python3.10/site-packages/torch/_ops.py" source_line=756}
  %broadcast.589 = f32[32]{0} broadcast(f32[] %constant_496), dimensions={}, metadata={op_type="aten__mean" op_name="aten__mean" source_file="/usr/local/lib/python3.10/site-packages/torch/_ops.py" source_line=756}
  %multiply.525 = f32[32]{0} multiply(f32[32]{0} %reduce.67, f32[32]{0} %broadcast.589), metadata={op_type="aten__mean" op_name="aten__mean" source_file="/usr/local/lib/python3.10/site-packages/torch/_ops.py" source_line=756}
  %param_0.671 = f32[] parameter(0)
  %broadcast.588 = f32[32]{0} broadcast(f32[] %param_0.671), dimensions={}, metadata={op_type="aten__add" op_name="aten__add.521/aten__add" source_file="/usr/local/lib/python3.10/site-packages/torch/_ops.py" source_line=756}
  %add.287 = f32[32]{0} add(f32[32]{0} %multiply.525, f32[32]{0} %broadcast.588), metadata={op_type="aten__add" op_name="aten__add.778/aten__add" source_file="/usr/local/lib/python3.10/site-packages/torch/_ops.py" source_line=756}
…
  %custom-call.45.0 = (bf16[32,6144]{1,0}, s8[4194304]{0}) custom-call(bf16[32,1024]{1,0} %fusion.201, bf16[6144,1024]{1,0} %p.40), custom_call_target="__cublas$gemm", metadata={op_type="aten__mm" op_name="aten__mm" source_file="/usr/local/lib/python3.10/site-packages/torch/_ops.py" source_line=756}, backend_config={"operation_queue_id":"0","wait_on_operation_queues":[],"gemm_backend_config":{"alpha_real":1,"alpha_imag":0,"beta":0,"dot_dimension_numbers":{"lhs_contracting_dimensions":["1"],"rhs_contracting_dimensions":["1"],"lhs_batch_dimensions":[],"rhs_batch_dimensions":[]},"precision_config":{"operand_precision":["DEFAULT","DEFAULT"],"algorithm":"ALG_UNSET"},"epilogue":"DEFAULT","damax_output":false,"lhs_stride":"32768","rhs_stride":"6291456","grad_x":false,"grad_y":false},"force_earliest_schedule":false}
  %get-tuple-element.14.0 = bf16[32,6144]{1,0} get-tuple-element((bf16[32,6144]{1,0}, s8[4194304]{0}) %custom-call.45.0), index=0, metadata={op_type="aten__mm" op_name="aten__mm" source_file="/usr/local/lib/python3.10/site-packages/torch/_ops.py" source_line=756}
  %loop_convert_fusion.7 = bf16[32,3072]{1,0} fusion(bf16[32,6144]{1,0} %get-tuple-element.14.0), kind=kLoop, calls=%fused_convert.7, metadata={op_type="xla__cast" op_name="xla__cast" source_file="/usr/local/lib/python3.10/site-packages/torch/_ops.py" source_line=756 deduplicated_name="loop_convert_fusion"}
  %custom-call.46.0 = (bf16[32,1024]{1,0}, s8[4194304]{0}) custom-call(bf16[32,3072]{1,0} %loop_convert_fusion.7, bf16[1024,3072]{1,0} %p.41), custom_call_target="__cublas$gemm", metadata={op_type="aten__mm" op_name="aten__mm" source_file="/usr/local/lib/python3.10/site-packages/torch/_ops.py" source_line=756}, backend_config={"operation_queue_id":"0","wait_on_operation_queues":[],"gemm_backend_config":{"alpha_real":1,"alpha_imag":0,"beta":0,"dot_dimension_numbers":{"lhs_contracting_dimensions":["1"],"rhs_contracting_dimensions":["1"],"lhs_batch_dimensions":[],"rhs_batch_dimensions":[]},"precision_config":{"operand_precision":["DEFAULT","DEFAULT"],"algorithm":"ALG_UNSET"},"epilogue":"DEFAULT","damax_output":false,"lhs_stride":"98304","rhs_stride":"3145728","grad_x":false,"grad_y":false},"force_earliest_schedule":false}
  %get-tuple-element.15.0 = bf16[32,1024]{1,0} get-tuple-element((bf16[32,1024]{1,0}, s8[4194304]{0}) %custom-call.46.0), index=0, metadata={op_type="aten__mm" op_name="aten__mm" source_file="/usr/local/lib/python3.10/site-packages/torch/_ops.py" source_line=756}
  %loop_add_fusion.1 = f32[32,1024]{1,0} fusion(bf16[32,15360]{1,0} %gemm_fusion_dot.60.0, bf16[32,1024]{1,0} %get-tuple-element.15.0, bf16[32,1024]{1,0} %get-tuple-element.13.0, f32[32,1024]{1,0} %loop_add_fusion, bf16[32,1024]{1,0} %get-tuple-element.9.0, /*index=5*/bf16[32,1024]{1,0} %get-tuple-element.11.0), kind=kLoop, calls=%fused_add.1, metadata={op_type="aten__add" op_name="aten__add.664/aten__add" source_file="/usr/local/lib/python3.10/site-packages/torch/_ops.py" source_line=756}
  %fusion.202 = bf16[32,1024]{1,0} fusion(f32[32,1024]{1,0} %loop_add_fusion.1, f32[] %p.17, bf16[1024]{0} %p.42), kind=kCustom, calls=%fused_computation.167, metadata={op_type="xla__cast" op_name="xla__cast" source_file="/usr/local/lib/python3.10/site-packages/torch/_ops.py" source_line=756 deduplicated_name="fusion.198"}, backend_config={"operation_queue_id":"0","wait_on_operation_queues":[],"fusion_backend_config":{"kind":"__triton","block_level_fusion_config":{"output_tiles":[{"sizes":["1","1024"]}],"num_warps":"2"}},"force_earliest_schedule":false}
  %custom-call.47.0 = (bf16[32,6144]{1,0}, s8[4194304]{0}) custom-call(bf16[32,1024]{1,0} %fusion.202, bf16[6144,1024]{1,0} %p.43), custom_call_target="__cublas$gemm", metadata={op_type="aten__mm" op_name="aten__mm" source_file="/usr/local/lib/python3.10/site-packages/torch/_ops.py" source_line=756}, backend_config={"operation_queue_id":"0","wait_on_operation_queues":[],"gemm_backend_config":{"alpha_real":1,"alpha_imag":0,"beta":0,"dot_dimension_numbers":{"lhs_contracting_dimensions":["1"],"rhs_contracting_dimensions":["1"],"lhs_batch_dimensions":[],"rhs_batch_dimensions":[]},"precision_config":{"operand_precision":["DEFAULT","DEFAULT"],"algorithm":"ALG_UNSET"},"epilogue":"DEFAULT","damax_output":false,"lhs_stride":"32768","rhs_stride":"6291456","grad_x":false,"grad_y":false},"force_earliest_schedule":false}
  %get-tuple-element.16.0 = bf16[32,6144]{1,0} get-tuple-element((bf16[32,6144]{1,0}, s8[4194304]{0}) %custom-call.47.0), index=0, metadata={op_type="aten__mm" op_name="aten__mm" source_file="/usr/local/lib/python3.10/site-packages/torch/_ops.py" source_line=756}
  %loop_convert_fusion.8 = bf16[32,3072]{1,0} fusion(bf16[32,6144]{1,0} %get-tuple-element.16.0), kind=kLoop, calls=%fused_convert.8, metadata={op_type="xla__cast" op_name="xla__cast" source_file="/usr/local/lib/python3.10/site-packages/torch/_ops.py" source_line=756 deduplicated_name="loop_convert_fusion"}
  %custom-call.48.0 = (bf16[32,1024]{1,0}, s8[4194304]{0}) custom-call(bf16[32,3072]{1,0} %loop_convert_fusion.8, bf16[1024,3072]{1,0} %p.44), custom_call_target="__cublas$gemm", metadata={op_type="aten__mm" op_name="aten__mm" source_file="/usr/local/lib/python3.10/site-packages/torch/_ops.py" source_line=756}, backend_config={"operation_queue_id":"0","wait_on_operation_queues":[],"gemm_backend_config":{"alpha_real":1,"alpha_imag":0,"beta":0,"dot_dimension_numbers":{"lhs_contracting_dimensions":["1"],"rhs_contracting_dimensions":["1"],"lhs_batch_dimensions":[],"rhs_batch_dimensions":[]},"precision_config":{"operand_precision":["DEFAULT","DEFAULT"],"algorithm":"ALG_UNSET"},"epilogue":"DEFAULT","damax_output":false,"lhs_stride":"98304","rhs_stride":"3145728","grad_x":false,"grad_y":false},"force_earliest_schedule":false}
  %get-tuple-element.17.0 = bf16[32,1024]{1,0} get-tuple-element((bf16[32,1024]{1,0}, s8[4194304]{0}) %custom-call.48.0), index=0, metadata={op_type="aten__mm" op_name="aten__mm" source_file="/usr/local/lib/python3.10/site-packages/torch/_ops.py" source_line=756}
  %fusion.203 = bf16[32,1024]{1,0} fusion(f32[] %p.17, bf16[1024]{0} %p.45, f32[32,1024]{1,0} %loop_add_fusion.1, bf16[32,1024]{1,0} %get-tuple-element.17.0, bf16[32,15360]{1,0} %gemm_fusion_dot.60.0), kind=kCustom, calls=%fused_computation.168, metadata={op_type="xla__cast" op_name="xla__cast" source_file="/usr/local/lib/python3.10/site-packages/torch/_ops.py" source_line=756}, backend_config={"operation_queue_id":"0","wait_on_operation_queues":[],"fusion_backend_config":{"kind":"__triton","block_level_fusion_config":{"output_tiles":[{"sizes":["1","1024"]}],"num_warps":"2"}},"force_earliest_schedule":false}
  %custom-call.49.0 = (bf16[32,6144]{1,0}, s8[4194304]{0}) custom-call(bf16[32,1024]{1,0} %fusion.203, bf16[6144,1024]{1,0} %p.46), custom_call_target="__cublas$gemm", metadata={op_type="aten__mm" op_name="aten__mm" source_file="/usr/local/lib/python3.10/site-packages/torch/_ops.py" source_line=756}, backend_config={"operation_queue_id":"0","wait_on_operation_queues":[],"gemm_backend_config":{"alpha_real":1,"alpha_imag":0,"beta":0,"dot_dimension_numbers":{"lhs_contracting_dimensions":["1"],"rhs_contracting_dimensions":["1"],"lhs_batch_dimensions":[],"rhs_batch_dimensions":[]},"precision_config":{"operand_precision":["DEFAULT","DEFAULT"],"algorithm":"ALG_UNSET"},"epilogue":"DEFAULT","damax_output":false,"lhs_stride":"32768","rhs_stride":"6291456","grad_x":false,"grad_y":false},"force_earliest_schedule":false}
  %get-tuple-element.18.0 = bf16[32,6144]{1,0} get-tuple-element((bf16[32,6144]{1,0}, s8[4194304]{0}) %custom-call.49.0), index=0, metadata={op_type="aten__mm" op_name="aten__mm" source_file="/usr/local/lib/python3.10/site-packages/torch/_ops.py" source_line=756}
  %loop_convert_fusion.9 = bf16[32,3072]{1,0} fusion(bf16[32,6144]{1,0} %get-tuple-element.18.0), kind=kLoop, calls=%fused_convert.9, metadata={op_type="xla__cast" op_name="xla__cast" source_file="/usr/local/lib/python3.10/site-packages/torch/_ops.py" source_line=756 deduplicated_name="loop_convert_fusion"}
  %custom-call.50.0 = (bf16[32,1024]{1,0}, s8[4194304]{0}) custom-call(bf16[32,3072]{1,0} %loop_convert_fusion.9, bf16[1024,3072]{1,0} %p.47), custom_call_target="__cublas$gemm", metadata={op_type="aten__mm" op_name="aten__mm" source_file="/usr/local/lib/python3.10/site-packages/torch/_ops.py" source_line=756}, backend_config={"operation_queue_id":"0","wait_on_operation_queues":[],"gemm_backend_config":{"alpha_real":1,"alpha_imag":0,"beta":0,"dot_dimension_numbers":{"lhs_contracting_dimensions":["1"],"rhs_contracting_dimensions":["1"],"lhs_batch_dimensions":[],"rhs_batch_dimensions":[]},"precision_config":{"operand_precision":["DEFAULT","DEFAULT"],"algorithm":"ALG_UNSET"},"epilogue":"DEFAULT","damax_output":false,"lhs_stride":"98304","rhs_stride":"3145728","grad_x":false,"grad_y":false},"force_earliest_schedule":false}
  %get-tuple-element.19.0 = bf16[32,1024]{1,0} get-tuple-element((bf16[32,1024]{1,0}, s8[4194304]{0}) %custom-call.50.0), index=0, metadata={op_type="aten__mm" op_name="aten__mm" source_file="/usr/local/lib/python3.10/site-packages/torch/_ops.py" source_line=756}
  %fusion.204 = bf16[32,1024]{1,0} fusion(f32[] %p.17, bf16[1024]{0} %p.48, f32[32,1024]{1,0} %loop_add_fusion.1, bf16[32,1024]{1,0} %get-tuple-element.17.0, bf16[32,15360]{1,0} %gemm_fusion_dot.60.0, /*index=5*/bf16[32,1024]{1,0} %get-tuple-element.19.0), kind=kCustom, calls=%fused_computation.169, metadata={op_type="xla__cast" op_name="xla__cast" source_file="/usr/local/lib/python3.10/site-packages/torch/_ops.py" source_line=756}, backend_config={"operation_queue_id":"0","wait_on_operation_queues":[],"fusion_backend_config":{"kind":"__triton","block_level_fusion_config":{"output_tiles":[{"sizes":["1","1024"]}],"num_warps":"2"}},"force_earliest_schedule":false}
  %custom-call.51.0 = (bf16[32,6144]{1,0}, s8[4194304]{0}) custom-call(bf16[32,1024]{1,0} %fusion.204, bf16[6144,1024]{1,0} %p.49), custom_call_target="__cublas$gemm", metadata={op_type="aten__mm" op_name="aten__mm" source_file="/usr/local/lib/python3.10/site-packages/torch/_ops.py" source_line=756}, backend_config={"operation_queue_id":"0","wait_on_operation_queues":[],"gemm_backend_config":{"alpha_real":1,"alpha_imag":0,"beta":0,"dot_dimension_numbers":{"lhs_contracting_dimensions":["1"],"rhs_contracting_dimensions":["1"],"lhs_batch_dimensions":[],"rhs_batch_dimensions":[]},"precision_config":{"operand_precision":["DEFAULT","DEFAULT"],"algorithm":"ALG_UNSET"},"epilogue":"DEFAULT","damax_output":false,"lhs_stride":"32768","rhs_stride":"6291456","grad_x":false,"grad_y":false},"force_earliest_schedule":false}
  %get-tuple-element.20.0 = bf16[32,6144]{1,0} get-tuple-element((bf16[32,6144]{1,0}, s8[4194304]{0}) %custom-call.51.0), index=0, metadata={op_type="aten__mm" op_name="aten__mm" source_file="/usr/local/lib/python3.10/site-packages/torch/_ops.py" source_line=756}
  %loop_convert_fusion.10 = bf16[32,3072]{1,0} fusion(bf16[32,6144]{1,0} %get-tuple-element.20.0), kind=kLoop, calls=%fused_convert.10, metadata={op_type="xla__cast" op_name="xla__cast" source_file="/usr/local/lib/python3.10/site-packages/torch/_ops.py" source_line=756 deduplicated_name="loop_convert_fusion"}
  %custom-call.52.0 = (bf16[32,1024]{1,0}, s8[4194304]{0}) custom-call(bf16[32,3072]{1,0} %loop_convert_fusion.10, bf16[1024,3072]{1,0} %p.50), custom_call_target="__cublas$gemm", metadata={op_type="aten__mm" op_name="aten__mm" source_file="/usr/local/lib/python3.10/site-packages/torch/_ops.py" source_line=756}, backend_config={"operation_queue_id":"0","wait_on_operation_queues":[],"gemm_backend_config":{"alpha_real":1,"alpha_imag":0,"beta":0,"dot_dimension_numbers":{"lhs_contracting_dimensions":["1"],"rhs_contracting_dimensions":["1"],"lhs_batch_dimensions":[],"rhs_batch_dimensions":[]},"precision_config":{"operand_precision":["DEFAULT","DEFAULT"],"algorithm":"ALG_UNSET"},"epilogue":"DEFAULT","damax_output":false,"lhs_stride":"98304","rhs_stride":"3145728","grad_x":false,"grad_y":false},"force_earliest_schedule":false}
  %get-tuple-element.21.0 = bf16[32,1024]{1,0} get-tuple-element((bf16[32,1024]{1,0}, s8[4194304]{0}) %custom-call.52.0), index=0, metadata={op_type="aten__mm" op_name="aten__mm" source_file="/usr/local/lib/python3.10/site-packages/torch/_ops.py" source_line=756}
  %fusion.205 = bf16[32,1024]{1,0} fusion(f32[] %p.17, bf16[1024]{0} %p.51, bf16[32,1024]{1,0} %get-tuple-element.21.0, bf16[32,15360]{1,0} %gemm_fusion_dot.60.0, f32[32,1024]{1,0} %loop_add_fusion.1, /*index=5*/bf16[32,1024]{1,0} %get-tuple-element.17.0, bf16[32,1024]{1,0} %get-tuple-element.19.0), kind=kCustom, calls=%fused_computation.170, metadata={op_type="xla__cast" op_name="xla__cast" source_file="/usr/local/lib/python3.10/site-packages/torch/_ops.py" source_line=756}, backend_config={"operation_queue_id":"0","wait_on_operation_queues":[],"fusion_backend_config":{"kind":"__triton","block_level_fusion_config":{"output_tiles":[{"sizes":["1","1024"]}],"num_warps":"2"}},"force_earliest_schedule":false}
  %custom-call.53.0 = (bf16[32,6144]{1,0}, s8[4194304]{0}) custom-call(bf16[32,1024]{1,0} %fusion.205, bf16[6144,1024]{1,0} %p.52), custom_call_target="__cublas$gemm", metadata={op_type="aten__mm" op_name="aten__mm" source_file="/usr/local/lib/python3.10/site-packages/torch/_ops.py" source_line=756}, backend_config={"operation_queue_id":"0","wait_on_operation_queues":[],"gemm_backend_config":{"alpha_real":1,"alpha_imag":0,"beta":0,"dot_dimension_numbers":{"lhs_contracting_dimensions":["1"],"rhs_contracting_dimensions":["1"],"lhs_batch_dimensions":[],"rhs_batch_dimensions":[]},"precision_config":{"operand_precision":["DEFAULT","DEFAULT"],"algorithm":"ALG_UNSET"},"epilogue":"DEFAULT","damax_output":false,"lhs_stride":"32768","rhs_stride":"6291456","grad_x":false,"grad_y":false},"force_earliest_schedule":false}
  %get-tuple-element.22.0 = bf16[32,6144]{1,0} get-tuple-element((bf16[32,6144]{1,0}, s8[4194304]{0}) %custom-call.53.0), index=0, metadata={op_type="aten__mm" op_name="aten__mm" source_file="/usr/local/lib/python3.10/site-packages/torch/_ops.py" source_line=756}
  %loop_convert_fusion.11 = bf16[32,3072]{1,0} fusion(bf16[32,6144]{1,0} %get-tuple-element.22.0), kind=kLoop, calls=%fused_convert.11, metadata={op_type="xla__cast" op_name="xla__cast" source_file="/usr/local/lib/python3.10/site-packages/torch/_ops.py" source_line=756 deduplicated_name="loop_convert_fusion"}
  %custom-call.54.0 = (bf16[32,1024]{1,0}, s8[4194304]{0}) custom-call(bf16[32,3072]{1,0} %loop_convert_fusion.11, bf16[1024,3072]{1,0} %p.53), custom_call_target="__cublas$gemm", metadata={op_type="aten__mm" op_name="aten__mm" source_file="/usr/local/lib/python3.10/site-packages/torch/_ops.py" source_line=756}, backend_config={"operation_queue_id":"0","wait_on_operation_queues":[],"gemm_backend_config":{"alpha_real":1,"alpha_imag":0,"beta":0,"dot_dimension_numbers":{"lhs_contracting_dimensions":["1"],"rhs_contracting_dimensions":["1"],"lhs_batch_dimensions":[],"rhs_batch_dimensions":[]},"precision_config":{"operand_precision":["DEFAULT","DEFAULT"],"algorithm":"ALG_UNSET"},"epilogue":"DEFAULT","damax_output":false,"lhs_stride":"98304","rhs_stride":"3145728","grad_x":false,"grad_y":false},"force_earliest_schedule":false}
  %get-tuple-element.23.0 = bf16[32,1024]{1,0} get-tuple-element((bf16[32,1024]{1,0}, s8[4194304]{0}) %custom-call.54.0), index=0, metadata={op_type="aten__mm" op_name="aten__mm" source_file="/usr/local/lib/python3.10/site-packages/torch/_ops.py" source_line=756}
  %loop_add_fusion.2 = f32[32,1024]{1,0} fusion(bf16[32,15360]{1,0} %gemm_fusion_dot.60.0, bf16[32,1024]{1,0} %get-tuple-element.23.0, bf16[32,1024]{1,0} %get-tuple-element.21.0, f32[32,1024]{1,0} %loop_add_fusion.1, bf16[32,1024]{1,0} %get-tuple-element.17.0, /*index=5*/bf16[32,1024]{1,0} %get-tuple-element.19.0), kind=kLoop, calls=%fused_add.2, metadata={op_type="aten__add" op_name="aten__add.736/aten__add" source_file="/usr/local/lib/python3.10/site-packages/torch/_ops.py" source_line=756}
  %fusion.206 = bf16[32,1024]{1,0} fusion(f32[32,1024]{1,0} %loop_add_fusion.2, f32[] %p.17, bf16[1024]{0} %p.54), kind=kCustom, calls=%fused_computation.171, metadata={op_type="xla__cast" op_name="xla__cast" source_file="/usr/local/lib/python3.10/site-packages/torch/_ops.py" source_line=756 deduplicated_name="fusion.198"}, backend_config={"operation_queue_id":"0","wait_on_operation_queues":[],"fusion_backend_config":{"kind":"__triton","block_level_fusion_config":{"output_tiles":[{"sizes":["1","1024"]}],"num_warps":"2"}},"force_earliest_schedule":false}
  %custom-call.55.0 = (bf16[32,6144]{1,0}, s8[4194304]{0}) custom-call(bf16[32,1024]{1,0} %fusion.206, bf16[6144,1024]{1,0} %p.55), custom_call_target="__cublas$gemm", metadata={op_type="aten__mm" op_name="aten__mm" source_file="/usr/local/lib/python3.10/site-packages/torch/_ops.py" source_line=756}, backend_config={"operation_queue_id":"0","wait_on_operation_queues":[],"gemm_backend_config":{"alpha_real":1,"alpha_imag":0,"beta":0,"dot_dimension_numbers":{"lhs_contracting_dimensions":["1"],"rhs_contracting_dimensions":["1"],"lhs_batch_dimensions":[],"rhs_batch_dimensions":[]},"precision_config":{"operand_precision":["DEFAULT","DEFAULT"],"algorithm":"ALG_UNSET"},"epilogue":"DEFAULT","damax_output":false,"lhs_stride":"32768","rhs_stride":"6291456","grad_x":false,"grad_y":false},"force_earliest_schedule":false}
  %get-tuple-element.24.0 = bf16[32,6144]{1,0} get-tuple-element((bf16[32,6144]{1,0}, s8[4194304]{0}) %custom-call.55.0), index=0, metadata={op_type="aten__mm" op_name="aten__mm" source_file="/usr/local/lib/python3.10/site-packages/torch/_ops.py" source_line=756}
  %loop_convert_fusion.12 = bf16[32,3072]{1,0} fusion(bf16[32,6144]{1,0} %get-tuple-element.24.0), kind=kLoop, calls=%fused_convert.12, metadata={op_type="xla__cast" op_name="xla__cast" source_file="/usr/local/lib/python3.10/site-packages/torch/_ops.py" source_line=756 deduplicated_name="loop_convert_fusion"}
  %custom-call.56.0 = (bf16[32,1024]{1,0}, s8[4194304]{0}) custom-call(bf16[32,3072]{1,0} %loop_convert_fusion.12, bf16[1024,3072]{1,0} %p.56), custom_call_target="__cublas$gemm", metadata={op_type="aten__mm" op_name="aten__mm" source_file="/usr/local/lib/python3.10/site-packages/torch/_ops.py" source_line=756}, backend_config={"operation_queue_id":"0","wait_on_operation_queues":[],"gemm_backend_config":{"alpha_real":1,"alpha_imag":0,"beta":0,"dot_dimension_numbers":{"lhs_contracting_dimensions":["1"],"rhs_contracting_dimensions":["1"],"lhs_batch_dimensions":[],"rhs_batch_dimensions":[]},"precision_config":{"operand_precision":["DEFAULT","DEFAULT"],"algorithm":"ALG_UNSET"},"epilogue":"DEFAULT","damax_output":false,"lhs_stride":"98304","rhs_stride":"3145728","grad_x":false,"grad_y":false},"force_earliest_schedule":false}
  %get-tuple-element.25.0 = bf16[32,1024]{1,0} get-tuple-element((bf16[32,1024]{1,0}, s8[4194304]{0}) %custom-call.56.0), index=0, metadata={op_type="aten__mm" op_name="aten__mm" source_file="/usr/local/lib/python3.10/site-packages/torch/_ops.py" source_line=756}
  %fusion.207 = bf16[32,1024]{1,0} fusion(f32[] %p.17, bf16[1024]{0} %p.57, f32[32,1024]{1,0} %loop_add_fusion.2, bf16[32,1024]{1,0} %get-tuple-element.25.0, bf16[32,15360]{1,0} %gemm_fusion_dot.60.0), kind=kCustom, calls=%fused_computation.172, metadata={op_type="xla__cast" op_name="xla__cast" source_file="/usr/local/lib/python3.10/site-packages/torch/_ops.py" source_line=756}, backend_config={"operation_queue_id":"0","wait_on_operation_queues":[],"fusion_backend_config":{"kind":"__triton","block_level_fusion_config":{"output_tiles":[{"sizes":["1","1024"]}],"num_warps":"2"}},"force_earliest_schedule":false}
  %custom-call.57.0 = (bf16[32,6144]{1,0}, s8[4194304]{0}) custom-call(bf16[32,1024]{1,0} %fusion.207, bf16[6144,1024]{1,0} %p.58), custom_call_target="__cublas$gemm", metadata={op_type="aten__mm" op_name="aten__mm" source_file="/usr/local/lib/python3.10/site-packages/torch/_ops.py" source_line=756}, backend_config={"operation_queue_id":"0","wait_on_operation_queues":[],"gemm_backend_config":{"alpha_real":1,"alpha_imag":0,"beta":0,"dot_dimension_numbers":{"lhs_contracting_dimensions":["1"],"rhs_contracting_dimensions":["1"],"lhs_batch_dimensions":[],"rhs_batch_dimensions":[]},"precision_config":{"operand_precision":["DEFAULT","DEFAULT"],"algorithm":"ALG_UNSET"},"epilogue":"DEFAULT","damax_output":false,"lhs_stride":"32768","rhs_stride":"6291456","grad_x":false,"grad_y":false},"force_earliest_schedule":false}
  %get-tuple-element.26.0 = bf16[32,6144]{1,0} get-tuple-element((bf16[32,6144]{1,0}, s8[4194304]{0}) %custom-call.57.0), index=0, metadata={op_type="aten__mm" op_name="aten__mm" source_file="/usr/local/lib/python3.10/site-packages/torch/_ops.py" source_line=756}
  %loop_convert_fusion.13 = bf16[32,3072]{1,0} fusion(bf16[32,6144]{1,0} %get-tuple-element.26.0), kind=kLoop, calls=%fused_convert.13, metadata={op_type="xla__cast" op_name="xla__cast" source_file="/usr/local/lib/python3.10/site-packages/torch/_ops.py" source_line=756 deduplicated_name="loop_convert_fusion"}
  %custom-call.58.0 = (bf16[32,1024]{1,0}, s8[4194304]{0}) custom-call(bf16[32,3072]{1,0} %loop_convert_fusion.13, bf16[1024,3072]{1,0} %p.59), custom_call_target="__cublas$gemm", metadata={op_type="aten__mm" op_name="aten__mm" source_file="/usr/local/lib/python3.10/site-packages/torch/_ops.py" source_line=756}, backend_config={"operation_queue_id":"0","wait_on_operation_queues":[],"gemm_backend_config":{"alpha_real":1,"alpha_imag":0,"beta":0,"dot_dimension_numbers":{"lhs_contracting_dimensions":["1"],"rhs_contracting_dimensions":["1"],"lhs_batch_dimensions":[],"rhs_batch_dimensions":[]},"precision_config":{"operand_precision":["DEFAULT","DEFAULT"],"algorithm":"ALG_UNSET"},"epilogue":"DEFAULT","damax_output":false,"lhs_stride":"98304","rhs_stride":"3145728","grad_x":false,"grad_y":false},"force_earliest_schedule":false}
  %get-tuple-element.27.0 = bf16[32,1024]{1,0} get-tuple-element((bf16[32,1024]{1,0}, s8[4194304]{0}) %custom-call.58.0), index=0, metadata={op_type="aten__mm" op_name="aten__mm" source_file="/usr/local/lib/python3.10/site-packages/torch/_ops.py" source_line=756}
  %fusion.208 = bf16[32,1024]{1,0} fusion(f32[] %p.17, bf16[1024]{0} %p.60, f32[32,1024]{1,0} %loop_add_fusion.2, bf16[32,1024]{1,0} %get-tuple-element.25.0, bf16[32,15360]{1,0} %gemm_fusion_dot.60.0, /*index=5*/bf16[32,1024]{1,0} %get-tuple-element.27.0), kind=kCustom, calls=%fused_computation.173, metadata={op_type="xla__cast" op_name="xla__cast" source_file="/usr/local/lib/python3.10/site-packages/torch/_ops.py" source_line=756}, backend_config={"operation_queue_id":"0","wait_on_operation_queues":[],"fusion_backend_config":{"kind":"__triton","block_level_fusion_config":{"output_tiles":[{"sizes":["1","1024"]}],"num_warps":"2"}},"force_earliest_schedule":false}
  %custom-call.59.0 = (bf16[32,6144]{1,0}, s8[4194304]{0}) custom-call(bf16[32,1024]{1,0} %fusion.208, bf16[6144,1024]{1,0} %p.61), custom_call_target="__cublas$gemm", metadata={op_type="aten__mm" op_name="aten__mm" source_file="/usr/local/lib/python3.10/site-packages/torch/_ops.py" source_line=756}, backend_config={"operation_queue_id":"0","wait_on_operation_queues":[],"gemm_backend_config":{"alpha_real":1,"alpha_imag":0,"beta":0,"dot_dimension_numbers":{"lhs_contracting_dimensions":["1"],"rhs_contracting_dimensions":["1"],"lhs_batch_dimensions":[],"rhs_batch_dimensions":[]},"precision_config":{"operand_precision":["DEFAULT","DEFAULT"],"algorithm":"ALG_UNSET"},"epilogue":"DEFAULT","damax_output":false,"lhs_stride":"32768","rhs_stride":"6291456","grad_x":false,"grad_y":false},"force_earliest_schedule":false}
  %get-tuple-element.28.0 = bf16[32,6144]{1,0} get-tuple-element((bf16[32,6144]{1,0}, s8[4194304]{0}) %custom-call.59.0), index=0, metadata={op_type="aten__mm" op_name="aten__mm" source_file="/usr/local/lib/python3.10/site-packages/torch/_ops.py" source_line=756}
  %loop_convert_fusion.14 = bf16[32,3072]{1,0} fusion(bf16[32,6144]{1,0} %get-tuple-element.28.0), kind=kLoop, calls=%fused_convert.14, metadata={op_type="xla__cast" op_name="xla__cast" source_file="/usr/local/lib/python3.10/site-packages/torch/_ops.py" source_line=756 deduplicated_name="loop_convert_fusion"}
  %custom-call.60.0 = (bf16[32,1024]{1,0}, s8[4194304]{0}) custom-call(bf16[32,3072]{1,0} %loop_convert_fusion.14, bf16[1024,3072]{1,0} %p.62), custom_call_target="__cublas$gemm", metadata={op_type="aten__mm" op_name="aten__mm" source_file="/usr/local/lib/python3.10/site-packages/torch/_ops.py" source_line=756}, backend_config={"operation_queue_id":"0","wait_on_operation_queues":[],"gemm_backend_config":{"alpha_real":1,"alpha_imag":0,"beta":0,"dot_dimension_numbers":{"lhs_contracting_dimensions":["1"],"rhs_contracting_dimensions":["1"],"lhs_batch_dimensions":[],"rhs_batch_dimensions":[]},"precision_config":{"operand_precision":["DEFAULT","DEFAULT"],"algorithm":"ALG_UNSET"},"epilogue":"DEFAULT","damax_output":false,"lhs_stride":"98304","rhs_stride":"3145728","grad_x":false,"grad_y":false},"force_earliest_schedule":false}
  %get-tuple-element.29.0 = bf16[32,1024]{1,0} get-tuple-element((bf16[32,1024]{1,0}, s8[4194304]{0}) %custom-call.60.0), index=0, metadata={op_type="aten__mm" op_name="aten__mm" source_file="/usr/local/lib/python3.10/site-packages/torch/_ops.py" source_line=756}
  %fusion.209 = bf16[32,1024]{1,0} fusion(f32[] %p.17, bf16[32,1024]{1,0} %get-tuple-element.29.0, bf16[1024]{0} %p.63, f32[32,1024]{1,0} %loop_add_fusion.2, bf16[32,1024]{1,0} %get-tuple-element.25.0, /*index=5*/bf16[32,15360]{1,0} %gemm_fusion_dot.60.0, bf16[32,1024]{1,0} %get-tuple-element.27.0), kind=kCustom, calls=%fused_computation.174, metadata={op_type="xla__cast" op_name="xla__cast" source_file="/usr/local/lib/python3.10/site-packages/torch/_ops.py" source_line=756}, backend_config={"operation_queue_id":"0","wait_on_operation_queues":[],"fusion_backend_config":{"kind":"__triton","block_level_fusion_config":{"output_tiles":[{"sizes":["1","1024"]}],"num_warps":"2"}},"force_earliest_schedule":false}
  %custom-call.61.0 = (bf16[32,4096]{1,0}, s8[4194304]{0}) custom-call(bf16[32,1024]{1,0} %fusion.209, bf16[4096,1024]{1,0} %p.64), custom_call_target="__cublas$gemm", metadata={op_type="aten__mm" op_name="aten__mm" source_file="/usr/local/lib/python3.10/site-packages/torch/_ops.py" source_line=756}, backend_config={"operation_queue_id":"0","wait_on_operation_queues":[],"gemm_backend_config":{"alpha_real":1,"alpha_imag":0,"beta":0,"dot_dimension_numbers":{"lhs_contracting_dimensions":["1"],"rhs_contracting_dimensions":["1"],"lhs_batch_dimensions":[],"rhs_batch_dimensions":[]},"precision_config":{"operand_precision":["DEFAULT","DEFAULT"],"algorithm":"ALG_UNSET"},"epilogue":"DEFAULT","damax_output":false,"lhs_stride":"32768","rhs_stride":"4194304","grad_x":false,"grad_y":false},"force_earliest_schedule":false}
  %get-tuple-element.30.0 = bf16[32,4096]{1,0} get-tuple-element((bf16[32,4096]{1,0}, s8[4194304]{0}) %custom-call.61.0), index=0, metadata={op_type="aten__mm" op_name="aten__mm" source_file="/usr/local/lib/python3.10/site-packages/torch/_ops.py" source_line=756}
  %wrapped_slice = bf16[32,1024]{1,0} fusion(bf16[32,4096]{1,0} %get-tuple-element.30.0), kind=kLoop, calls=%wrapped_slice_computation, metadata={op_type="aten__split" op_name="aten__split" source_file="/usr/local/lib/python3.10/site-packages/torch/_ops.py" source_line=756}
  %fusion.177 = f32[32,8,128]{2,1,0} fusion(f32[] %p.17, bf16[32,4096]{1,0} %get-tuple-element.30.0, bf16[128]{0} %p.65), kind=kCustom, calls=%fused_computation.142, metadata={op_type="aten__mul" op_name="aten__mul.783/aten__mul" source_file="/usr/local/lib/python3.10/site-packages/torch/_ops.py" source_line=756}, backend_config={"operation_queue_id":"0","wait_on_operation_queues":[],"fusion_backend_config":{"kind":"__triton","block_level_fusion_config":{"output_tiles":[{"sizes":["1","4","128"]}],"num_warps":"2"}},"force_earliest_schedule":false}
  %input_concatenate_fusion = bf16[32,8,128]{2,1,0} fusion(f32[32,8,128]{2,1,0} %fusion.177, bf16[40960,128]{1,0} %p.66, s32[32]{0} %p.67), kind=kInput, calls=%fused_concatenate, metadata={op_type="aten__cat" op_name="aten__cat" source_file="/usr/local/lib/python3.10/site-packages/torch/_ops.py" source_line=756}
  %bitcast.3184.0 = bf16[32,8,128]{2,1,0} bitcast(bf16[32,1024]{1,0} %wrapped_slice)
  %loop_slice_fusion = bf16[69353472]{0} fusion(bf16[2,4233,16,8,128]{4,3,2,1,0} %p.68), kind=kLoop, calls=%fused_slice, metadata={op_type="aten__as_strided" op_name="aten__as_strided" source_file="/usr/local/lib/python3.10/site-packages/torch/_higher_order_ops/auto_functionalize.py" source_line=54}
  %bitcast.3196.0 = bf16[4233,16,8,128]{3,2,1,0} bitcast(bf16[69353472]{0} %loop_slice_fusion)
  %wrapped_slice.1 = bf16[1,4233,16,8,128]{4,3,2,1,0} fusion(bf16[2,4233,16,8,128]{4,3,2,1,0} %p.68), kind=kLoop, calls=%wrapped_slice_computation.1, metadata={op_type="aten__as_strided" op_name="aten__as_strided" source_file="/usr/local/lib/python3.10/site-packages/torch/_higher_order_ops/auto_functionalize.py" source_line=54}
  ROOT %tuple = (bf16[32,8,128]{2,1,0}, bf16[32,8,128]{2,1,0}, bf16[4233,16,8,128]{3,2,1,0}, bf16[1,4233,16,8,128]{4,3,2,1,0}) tuple(bf16[32,8,128]{2,1,0} %input_concatenate_fusion, bf16[32,8,128]{2,1,0} %bitcast.3184.0, bf16[4233,16,8,128]{3,2,1,0} %bitcast.3196.0, bf16[1,4233,16,8,128]{4,3,2,1,0} %wrapped_slice.1)
}

ENTRY %SyncTensorsGraph.1255 (p0.1.0: bf16[128], p1.4.0: f32[], p2.6.0: bf16[4096,1024], p3.8.0: bf16[1024], p4.42.0: s32[32], p5.44.0: bf16[151936,1024], p6.48.0: bf16[1024,2048], p7.64.0: bf16[1024,3072], p8.66.0: bf16[6144,1024], p9.68.0: bf16[1024], p10.120.0: bf16[1024,2048], p11.136.0: bf16[1024,3072], p12.138.0: bf16[6144,1024], p13.140.0: bf16[1024], p14.192.0: bf16[1024,2048], p15.208.0: bf16[1024,3072], p16.210.0: bf16[6144,1024], p17.212.0: bf16[1024], p18.264.0: bf16[1024,2048], p19.280.0: bf16[1024,3072], p20.282.0: bf16[6144,1024], p21.284.0: bf16[1024], p22.336.0: bf16[1024,2048], p23.352.0: bf16[1024,3072], p24.354.0: bf16[6144,1024], p25.356.0: bf16[1024], p26.408.0: bf16[1024,2048], p27.424.0: bf16[1024,3072], p28.426.0: bf16[6144,1024], p29.428.0: bf16[1024], p30.480.0: bf16[1024,2048], p31.496.0: bf16[1024,3072], p32.498.0: bf16[6144,1024], p33.500.0: bf16[1024], p34.552.0: bf16[1024,2048], p35.568.0: bf16[1024,3072], p36.570.0: bf16[6144,1024], p37.572.0: bf16[1024], p38.624.0: bf16[1024,2048], p39.640.0: bf16[1024,3072], p40.642.0: bf16[6144,1024], p41.644.0: bf16[1024], p42.696.0: bf16[1024,2048], p43.712.0: bf16[1024,3072], p44.714.0: bf16[6144,1024], p45.716.0: bf16[1024], p46.768.0: bf16[1024,2048], p47.784.0: bf16[1024,3072], p48.786.0: bf16[6144,1024], p49.788.0: bf16[1024], p50.840.0: bf16[1024,2048], p51.856.0: bf16[1024,3072], p52.858.0: bf16[6144,1024], p53.860.0: bf16[1024], p54.912.0: bf16[1024,2048], p55.928.0: bf16[1024,3072], p56.930.0: bf16[6144,1024], p57.932.0: bf16[1024], p58.984.0: bf16[1024,2048], p59.1000.0: bf16[1024,3072], p60.1002.0: bf16[6144,1024], p61.1004.0: bf16[1024], p62.1056.0: bf16[1024,2048], p63.1072.0: bf16[1024,3072], p64.1074.0: bf16[6144,1024], p65.1076.0: bf16[1024], p66.1200.0: s32[32], p67.1201.0: bf16[40960,128], p68.1245.0: bf16[2,4233,16,8,128]) -> (bf16[32,8,128], bf16[32,8,128], bf16[4233,16,8,128], bf16[4233,16,8,128]) {
  %p1.4.0 = f32[] parameter(1), metadata={op_type="xla__device_data" op_name="xla__device_data" source_file="/usr/local/lib/python3.10/site-packages/torch/_ops.py" source_line=756}
  %p68.1245.0 = bf16[2,4233,16,8,128]{4,3,2,1,0} parameter(68), metadata={op_type="xla__device_data" op_name="xla__device_data" source_file="/usr/local/lib/python3.10/site-packages/torch_xla/_dynamo/dynamo_bridge.py" source_line=355}
  %p67.1201.0 = bf16[40960,128]{1,0} parameter(67), metadata={op_type="xla__device_data" op_name="xla__device_data" source_file="/usr/local/lib/python3.10/site-packages/torch_xla/_dynamo/dynamo_bridge.py" source_line=355}
  %p66.1200.0 = s32[32]{0} parameter(66), metadata={op_type="xla__device_data" op_name="xla__device_data" source_file="/usr/local/lib/python3.10/site-packages/torch_xla/_dynamo/dynamo_bridge.py" source_line=355}
  %p65.1076.0 = bf16[1024]{0} parameter(65), metadata={op_type="xla__device_data" op_name="xla__device_data" source_file="/usr/local/lib/python3.10/site-packages/torch_xla/_dynamo/dynamo_bridge.py" source_line=355}
  %p64.1074.0 = bf16[6144,1024]{1,0} parameter(64), metadata={op_type="xla__device_data" op_name="xla__device_data" source_file="/usr/local/lib/python3.10/site-packages/torch_xla/_dynamo/dynamo_bridge.py" source_line=355}
  %p63.1072.0 = bf16[1024,3072]{1,0} parameter(63), metadata={op_type="xla__device_data" op_name="xla__device_data" source_file="/usr/local/lib/python3.10/site-packages/torch_xla/_dynamo/dynamo_bridge.py" source_line=355}
  %p62.1056.0 = bf16[1024,2048]{1,0} parameter(62), metadata={op_type="xla__device_data" op_name="xla__device_data" source_file="/usr/local/lib/python3.10/site-packages/torch_xla/_dynamo/dynamo_bridge.py" source_line=355}
  %p61.1004.0 = bf16[1024]{0} parameter(61), metadata={op_type="xla__device_data" op_name="xla__device_data" source_file="/usr/local/lib/python3.10/site-packages/torch_xla/_dynamo/dynamo_bridge.py" source_line=355}
  %p60.1002.0 = bf16[6144,1024]{1,0} parameter(60), metadata={op_type="xla__device_data" op_name="xla__device_data" source_file="/usr/local/lib/python3.10/site-packages/torch_xla/_dynamo/dynamo_bridge.py" source_line=355}
  %p59.1000.0 = bf16[1024,3072]{1,0} parameter(59), metadata={op_type="xla__device_data" op_name="xla__device_data" source_file="/usr/local/lib/python3.10/site-packages/torch_xla/_dynamo/dynamo_bridge.py" source_line=355}
  %p58.984.0 = bf16[1024,2048]{1,0} parameter(58), metadata={op_type="xla__device_data" op_name="xla__device_data" source_file="/usr/local/lib/python3.10/site-packages/torch_xla/_dynamo/dynamo_bridge.py" source_line=355}
  %p57.932.0 = bf16[1024]{0} parameter(57), metadata={op_type="xla__device_data" op_name="xla__device_data" source_file="/usr/local/lib/python3.10/site-packages/torch_xla/_dynamo/dynamo_bridge.py" source_line=355}
  %p56.930.0 = bf16[6144,1024]{1,0} parameter(56), metadata={op_type="xla__device_data" op_name="xla__device_data" source_file="/usr/local/lib/python3.10/site-packages/torch_xla/_dynamo/dynamo_bridge.py" source_line=355}
  %p55.928.0 = bf16[1024,3072]{1,0} parameter(55), metadata={op_type="xla__device_data" op_name="xla__device_data" source_file="/usr/local/lib/python3.10/site-packages/torch_xla/_dynamo/dynamo_bridge.py" source_line=355}
  %p54.912.0 = bf16[1024,2048]{1,0} parameter(54), metadata={op_type="xla__device_data" op_name="xla__device_data" source_file="/usr/local/lib/python3.10/site-packages/torch_xla/_dynamo/dynamo_bridge.py" source_line=355}
  %p53.860.0 = bf16[1024]{0} parameter(53), metadata={op_type="xla__device_data" op_name="xla__device_data" source_file="/usr/local/lib/python3.10/site-packages/torch_xla/_dynamo/dynamo_bridge.py" source_line=355}
  %p52.858.0 = bf16[6144,1024]{1,0} parameter(52), metadata={op_type="xla__device_data" op_name="xla__device_data" source_file="/usr/local/lib/python3.10/site-packages/torch_xla/_dynamo/dynamo_bridge.py" source_line=355}
  %p51.856.0 = bf16[1024,3072]{1,0} parameter(51), metadata={op_type="xla__device_data" op_name="xla__device_data" source_file="/usr/local/lib/python3.10/site-packages/torch_xla/_dynamo/dynamo_bridge.py" source_line=355}
  %p50.840.0 = bf16[1024,2048]{1,0} parameter(50), metadata={op_type="xla__device_data" op_name="xla__device_data" source_file="/usr/local/lib/python3.10/site-packages/torch_xla/_dynamo/dynamo_bridge.py" source_line=355}
  %p49.788.0 = bf16[1024]{0} parameter(49), metadata={op_type="xla__device_data" op_name="xla__device_data" source_file="/usr/local/lib/python3.10/site-packages/torch_xla/_dynamo/dynamo_bridge.py" source_line=355}
  %p48.786.0 = bf16[6144,1024]{1,0} parameter(48), metadata={op_type="xla__device_data" op_name="xla__device_data" source_file="/usr/local/lib/python3.10/site-packages/torch_xla/_dynamo/dynamo_bridge.py" source_line=355}
  %p47.784.0 = bf16[1024,3072]{1,0} parameter(47), metadata={op_type="xla__device_data" op_name="xla__device_data" source_file="/usr/local/lib/python3.10/site-packages/torch_xla/_dynamo/dynamo_bridge.py" source_line=355}
  %p46.768.0 = bf16[1024,2048]{1,0} parameter(46), metadata={op_type="xla__device_data" op_name="xla__device_data" source_file="/usr/local/lib/python3.10/site-packages/torch_xla/_dynamo/dynamo_bridge.py" source_line=355}
  %p45.716.0 = bf16[1024]{0} parameter(45), metadata={op_type="xla__device_data" op_name="xla__device_data" source_file="/usr/local/lib/python3.10/site-packages/torch_xla/_dynamo/dynamo_bridge.py" source_line=355}
  %p44.714.0 = bf16[6144,1024]{1,0} parameter(44), metadata={op_type="xla__device_data" op_name="xla__device_data" source_file="/usr/local/lib/python3.10/site-packages/torch_xla/_dynamo/dynamo_bridge.py" source_line=355}
  %p43.712.0 = bf16[1024,3072]{1,0} parameter(43), metadata={op_type="xla__device_data" op_name="xla__device_data" source_file="/usr/local/lib/python3.10/site-packages/torch_xla/_dynamo/dynamo_bridge.py" source_line=355}
  %p42.696.0 = bf16[1024,2048]{1,0} parameter(42), metadata={op_type="xla__device_data" op_name="xla__device_data" source_file="/usr/local/lib/python3.10/site-packages/torch_xla/_dynamo/dynamo_bridge.py" source_line=355}
  %p41.644.0 = bf16[1024]{0} parameter(41), metadata={op_type="xla__device_data" op_name="xla__device_data" source_file="/usr/local/lib/python3.10/site-packages/torch_xla/_dynamo/dynamo_bridge.py" source_line=355}
  %p40.642.0 = bf16[6144,1024]{1,0} parameter(40), metadata={op_type="xla__device_data" op_name="xla__device_data" source_file="/usr/local/lib/python3.10/site-packages/torch_xla/_dynamo/dynamo_bridge.py" source_line=355}
  %p39.640.0 = bf16[1024,3072]{1,0} parameter(39), metadata={op_type="xla__device_data" op_name="xla__device_data" source_file="/usr/local/lib/python3.10/site-packages/torch_xla/_dynamo/dynamo_bridge.py" source_line=355}
  %p38.624.0 = bf16[1024,2048]{1,0} parameter(38), metadata={op_type="xla__device_data" op_name="xla__device_data" source_file="/usr/local/lib/python3.10/site-packages/torch_xla/_dynamo/dynamo_bridge.py" source_line=355}
  %p37.572.0 = bf16[1024]{0} parameter(37), metadata={op_type="xla__device_data" op_name="xla__device_data" source_file="/usr/local/lib/python3.10/site-packages/torch_xla/_dynamo/dynamo_bridge.py" source_line=355}
  %p36.570.0 = bf16[6144,1024]{1,0} parameter(36), metadata={op_type="xla__device_data" op_name="xla__device_data" source_file="/usr/local/lib/python3.10/site-packages/torch_xla/_dynamo/dynamo_bridge.py" source_line=355}
  %p35.568.0 = bf16[1024,3072]{1,0} parameter(35), metadata={op_type="xla__device_data" op_name="xla__device_data" source_file="/usr/local/lib/python3.10/site-packages/torch_xla/_dynamo/dynamo_bridge.py" source_line=355}
  %p34.552.0 = bf16[1024,2048]{1,0} parameter(34), metadata={op_type="xla__device_data" op_name="xla__device_data" source_file="/usr/local/lib/python3.10/site-packages/torch_xla/_dynamo/dynamo_bridge.py" source_line=355}
  %p33.500.0 = bf16[1024]{0} parameter(33), metadata={op_type="xla__device_data" op_name="xla__device_data" source_file="/usr/local/lib/python3.10/site-packages/torch_xla/_dynamo/dynamo_bridge.py" source_line=355}
  %p32.498.0 = bf16[6144,1024]{1,0} parameter(32), metadata={op_type="xla__device_data" op_name="xla__device_data" source_file="/usr/local/lib/python3.10/site-packages/torch_xla/_dynamo/dynamo_bridge.py" source_line=355}
  %p31.496.0 = bf16[1024,3072]{1,0} parameter(31), metadata={op_type="xla__device_data" op_name="xla__device_data" source_file="/usr/local/lib/python3.10/site-packages/torch_xla/_dynamo/dynamo_bridge.py" source_line=355}
  %p30.480.0 = bf16[1024,2048]{1,0} parameter(30), metadata={op_type="xla__device_data" op_name="xla__device_data" source_file="/usr/local/lib/python3.10/site-packages/torch_xla/_dynamo/dynamo_bridge.py" source_line=355}
  %p29.428.0 = bf16[1024]{0} parameter(29), metadata={op_type="xla__device_data" op_name="xla__device_data" source_file="/usr/local/lib/python3.10/site-packages/torch_xla/_dynamo/dynamo_bridge.py" source_line=355}
  %p28.426.0 = bf16[6144,1024]{1,0} parameter(28), metadata={op_type="xla__device_data" op_name="xla__device_data" source_file="/usr/local/lib/python3.10/site-packages/torch_xla/_dynamo/dynamo_bridge.py" source_line=355}
  %p27.424.0 = bf16[1024,3072]{1,0} parameter(27), metadata={op_type="xla__device_data" op_name="xla__device_data" source_file="/usr/local/lib/python3.10/site-packages/torch_xla/_dynamo/dynamo_bridge.py" source_line=355}
  %p26.408.0 = bf16[1024,2048]{1,0} parameter(26), metadata={op_type="xla__device_data" op_name="xla__device_data" source_file="/usr/local/lib/python3.10/site-packages/torch_xla/_dynamo/dynamo_bridge.py" source_line=355}
  %p25.356.0 = bf16[1024]{0} parameter(25), metadata={op_type="xla__device_data" op_name="xla__device_data" source_file="/usr/local/lib/python3.10/site-packages/torch_xla/_dynamo/dynamo_bridge.py" source_line=355}
  %p24.354.0 = bf16[6144,1024]{1,0} parameter(24), metadata={op_type="xla__device_data" op_name="xla__device_data" source_file="/usr/local/lib/python3.10/site-packages/torch_xla/_dynamo/dynamo_bridge.py" source_line=355}
  %p23.352.0 = bf16[1024,3072]{1,0} parameter(23), metadata={op_type="xla__device_data" op_name="xla__device_data" source_file="/usr/local/lib/python3.10/site-packages/torch_xla/_dynamo/dynamo_bridge.py" source_line=355}
  %p22.336.0 = bf16[1024,2048]{1,0} parameter(22), metadata={op_type="xla__device_data" op_name="xla__device_data" source_file="/usr/local/lib/python3.10/site-packages/torch_xla/_dynamo/dynamo_bridge.py" source_line=355}
  %p21.284.0 = bf16[1024]{0} parameter(21), metadata={op_type="xla__device_data" op_name="xla__device_data" source_file="/usr/local/lib/python3.10/site-packages/torch_xla/_dynamo/dynamo_bridge.py" source_line=355}
  %p20.282.0 = bf16[6144,1024]{1,0} parameter(20), metadata={op_type="xla__device_data" op_name="xla__device_data" source_file="/usr/local/lib/python3.10/site-packages/torch_xla/_dynamo/dynamo_bridge.py" source_line=355}
  %p19.280.0 = bf16[1024,3072]{1,0} parameter(19), metadata={op_type="xla__device_data" op_name="xla__device_data" source_file="/usr/local/lib/python3.10/site-packages/torch_xla/_dynamo/dynamo_bridge.py" source_line=355}
  %p18.264.0 = bf16[1024,2048]{1,0} parameter(18), metadata={op_type="xla__device_data" op_name="xla__device_data" source_file="/usr/local/lib/python3.10/site-packages/torch_xla/_dynamo/dynamo_bridge.py" source_line=355}
  %p17.212.0 = bf16[1024]{0} parameter(17), metadata={op_type="xla__device_data" op_name="xla__device_data" source_file="/usr/local/lib/python3.10/site-packages/torch_xla/_dynamo/dynamo_bridge.py" source_line=355}
  %p16.210.0 = bf16[6144,1024]{1,0} parameter(16), metadata={op_type="xla__device_data" op_name="xla__device_data" source_file="/usr/local/lib/python3.10/site-packages/torch_xla/_dynamo/dynamo_bridge.py" source_line=355}
  %p15.208.0 = bf16[1024,3072]{1,0} parameter(15), metadata={op_type="xla__device_data" op_name="xla__device_data" source_file="/usr/local/lib/python3.10/site-packages/torch_xla/_dynamo/dynamo_bridge.py" source_line=355}
  %p14.192.0 = bf16[1024,2048]{1,0} parameter(14), metadata={op_type="xla__device_data" op_name="xla__device_data" source_file="/usr/local/lib/python3.10/site-packages/torch_xla/_dynamo/dynamo_bridge.py" source_line=355}
  %p13.140.0 = bf16[1024]{0} parameter(13), metadata={op_type="xla__device_data" op_name="xla__device_data" source_file="/usr/local/lib/python3.10/site-packages/torch_xla/_dynamo/dynamo_bridge.py" source_line=355}
  %p12.138.0 = bf16[6144,1024]{1,0} parameter(12), metadata={op_type="xla__device_data" op_name="xla__device_data" source_file="/usr/local/lib/python3.10/site-packages/torch_xla/_dynamo/dynamo_bridge.py" source_line=355}
  %p11.136.0 = bf16[1024,3072]{1,0} parameter(11), metadata={op_type="xla__device_data" op_name="xla__device_data" source_file="/usr/local/lib/python3.10/site-packages/torch_xla/_dynamo/dynamo_bridge.py" source_line=355}
  %p10.120.0 = bf16[1024,2048]{1,0} parameter(10), metadata={op_type="xla__device_data" op_name="xla__device_data" source_file="/usr/local/lib/python3.10/site-packages/torch_xla/_dynamo/dynamo_bridge.py" source_line=355}
  %p9.68.0 = bf16[1024]{0} parameter(9), metadata={op_type="xla__device_data" op_name="xla__device_data" source_file="/usr/local/lib/python3.10/site-packages/torch_xla/_dynamo/dynamo_bridge.py" source_line=355}
  %p8.66.0 = bf16[6144,1024]{1,0} parameter(8), metadata={op_type="xla__device_data" op_name="xla__device_data" source_file="/usr/local/lib/python3.10/site-packages/torch_xla/_dynamo/dynamo_bridge.py" source_line=355}
  %p7.64.0 = bf16[1024,3072]{1,0} parameter(7), metadata={op_type="xla__device_data" op_name="xla__device_data" source_file="/usr/local/lib/python3.10/site-packages/torch_xla/_dynamo/dynamo_bridge.py" source_line=355}
  %p6.48.0 = bf16[1024,2048]{1,0} parameter(6), metadata={op_type="xla__device_data" op_name="xla__device_data" source_file="/usr/local/lib/python3.10/site-packages/torch_xla/_dynamo/dynamo_bridge.py" source_line=355}
  %p5.44.0 = bf16[151936,1024]{1,0} parameter(5), metadata={op_type="xla__device_data" op_name="xla__device_data" source_file="/usr/local/lib/python3.10/site-packages/torch_xla/_dynamo/dynamo_bridge.py" source_line=355}
  %p4.42.0 = s32[32]{0} parameter(4), metadata={op_type="xla__device_data" op_name="xla__device_data" source_file="/usr/local/lib/python3.10/site-packages/torch_xla/_dynamo/dynamo_bridge.py" source_line=355}
  %p3.8.0 = bf16[1024]{0} parameter(3), metadata={op_type="xla__device_data" op_name="xla__device_data" source_file="/usr/local/lib/python3.10/site-packages/torch_xla/_dynamo/dynamo_bridge.py" source_line=355}
  %p2.6.0 = bf16[4096,1024]{1,0} parameter(2), metadata={op_type="xla__device_data" op_name="xla__device_data" source_file="/usr/local/lib/python3.10/site-packages/torch_xla/_dynamo/dynamo_bridge.py" source_line=355}
  %p0.1.0 = bf16[128]{0} parameter(0), metadata={op_type="xla__device_data" op_name="xla__device_data" source_file="/usr/local/lib/python3.10/site-packages/torch_xla/_dynamo/dynamo_bridge.py" source_line=355}
  %call = (bf16[32,8,128]{2,1,0}, bf16[32,8,128]{2,1,0}, bf16[4233,16,8,128]{3,2,1,0}, bf16[1,4233,16,8,128]{4,3,2,1,0}) call(bf16[151936,1024]{1,0} %p5.44.0, s32[32]{0} %p4.42.0, bf16[1024,2048]{1,0} %p62.1056.0, bf16[1024,2048]{1,0} %p58.984.0, bf16[1024,2048]{1,0} %p54.912.0, /*index=5*/bf16[1024,2048]{1,0} %p50.840.0, bf16[1024,2048]{1,0} %p46.768.0, bf16[1024,2048]{1,0} %p42.696.0, bf16[1024,2048]{1,0} %p38.624.0, bf16[1024,2048]{1,0} %p34.552.0, /*index=10*/bf16[1024,2048]{1,0} %p30.480.0, bf16[1024,2048]{1,0} %p26.408.0, bf16[1024,2048]{1,0} %p22.336.0, bf16[1024,2048]{1,0} %p18.264.0, bf16[1024,2048]{1,0} %p14.192.0, /*index=15*/bf16[1024,2048]{1,0} %p10.120.0, bf16[1024,2048]{1,0} %p6.48.0, f32[] %p1.4.0, bf16[1024]{0} %p9.68.0, bf16[6144,1024]{1,0} %p8.66.0, /*index=20*/bf16[1024,3072]{1,0} %p7.64.0, bf16[1024]{0} %p13.140.0, bf16[6144,1024]{1,0} %p12.138.0, bf16[1024,3072]{1,0} %p11.136.0, bf16[1024]{0} %p17.212.0, /*index=25*/bf16[6144,1024]{1,0} %p16.210.0, bf16[1024,3072]{1,0} %p15.208.0, bf16[1024]{0} %p21.284.0, bf16[6144,1024]{1,0} %p20.282.0, bf16[1024,3072]{1,0} %p19.280.0, /*index=30*/bf16[1024]{0} %p25.356.0, bf16[6144,1024]{1,0} %p24.354.0, bf16[1024,3072]{1,0} %p23.352.0, bf16[1024]{0} %p29.428.0, bf16[6144,1024]{1,0} %p28.426.0, /*index=35*/bf16[1024,3072]{1,0} %p27.424.0, bf16[1024]{0} %p33.500.0, bf16[6144,1024]{1,0} %p32.498.0, bf16[1024,3072]{1,0} %p31.496.0, bf16[1024]{0} %p37.572.0, /*index=40*/bf16[6144,1024]{1,0} %p36.570.0, bf16[1024,3072]{1,0} %p35.568.0, bf16[1024]{0} %p41.644.0, bf16[6144,1024]{1,0} %p40.642.0, bf16[1024,3072]{1,0} %p39.640.0, /*index=45*/bf16[1024]{0} %p45.716.0, bf16[6144,1024]{1,0} %p44.714.0, bf16[1024,3072]{1,0} %p43.712.0, bf16[1024]{0} %p49.788.0, bf16[6144,1024]{1,0} %p48.786.0, /*index=50*/bf16[1024,3072]{1,0} %p47.784.0, bf16[1024]{0} %p53.860.0, bf16[6144,1024]{1,0} %p52.858.0, bf16[1024,3072]{1,0} %p51.856.0, bf16[1024]{0} %p57.932.0, /*index=55*/bf16[6144,1024]{1,0} %p56.930.0, bf16[1024,3072]{1,0} %p55.928.0, bf16[1024]{0} %p61.1004.0, bf16[6144,1024]{1,0} %p60.1002.0, bf16[1024,3072]{1,0} %p59.1000.0, /*index=60*/bf16[1024]{0} %p65.1076.0, bf16[6144,1024]{1,0} %p64.1074.0, bf16[1024,3072]{1,0} %p63.1072.0, bf16[1024]{0} %p3.8.0, bf16[4096,1024]{1,0} %p2.6.0, /*index=65*/bf16[128]{0} %p0.1.0, bf16[40960,128]{1,0} %p67.1201.0, s32[32]{0} %p66.1200.0, bf16[2,4233,16,8,128]{4,3,2,1,0} %p68.1245.0), to_apply=%command_buffer
  %get-tuple-element.33 = bf16[32,8,128]{2,1,0} get-tuple-element((bf16[32,8,128]{2,1,0}, bf16[32,8,128]{2,1,0}, bf16[4233,16,8,128]{3,2,1,0}, bf16[1,4233,16,8,128]{4,3,2,1,0}) %call), index=0
  %get-tuple-element.34 = bf16[32,8,128]{2,1,0} get-tuple-element((bf16[32,8,128]{2,1,0}, bf16[32,8,128]{2,1,0}, bf16[4233,16,8,128]{3,2,1,0}, bf16[1,4233,16,8,128]{4,3,2,1,0}) %call), index=1
  %get-tuple-element.35 = bf16[4233,16,8,128]{3,2,1,0} get-tuple-element((bf16[32,8,128]{2,1,0}, bf16[32,8,128]{2,1,0}, bf16[4233,16,8,128]{3,2,1,0}, bf16[1,4233,16,8,128]{4,3,2,1,0}) %call), index=2
  %get-tuple-element.36 = bf16[1,4233,16,8,128]{4,3,2,1,0} get-tuple-element((bf16[32,8,128]{2,1,0}, bf16[32,8,128]{2,1,0}, bf16[4233,16,8,128]{3,2,1,0}, bf16[1,4233,16,8,128]{4,3,2,1,0}) %call), index=3
  %bitcast.3189.0 = bf16[4233,16,8,128]{3,2,1,0} bitcast(bf16[1,4233,16,8,128]{4,3,2,1,0} %get-tuple-element.36)
  ROOT %tuple.1254.0 = (bf16[32,8,128]{2,1,0}, bf16[32,8,128]{2,1,0}, bf16[4233,16,8,128]{3,2,1,0}, bf16[4233,16,8,128]{3,2,1,0}) tuple(bf16[32,8,128]{2,1,0} %get-tuple-element.33, bf16[32,8,128]{2,1,0} %get-tuple-element.34, bf16[4233,16,8,128]{3,2,1,0} %bitcast.3189.0, bf16[4233,16,8,128]{3,2,1,0} %get-tuple-element.35)
}

