#indexing_map = #xla.indexing_map<"(tid_0) -> (tid_0 * 1024), domain: tid_0 in [0, 31]">
#indexing_map1 = #xla.indexing_map<"(tid_0) -> (tid_0 * 8192), domain: tid_0 in [0, 31]">
#indexing_map2 = #xla.indexing_map<"(tid_0) -> (tid_0 * 8192 + 1024), domain: tid_0 in [0, 31]">
#indexing_map3 = #xla.indexing_map<"(tid_0) -> (tid_0 * 8192 + 2048), domain: tid_0 in [0, 31]">
#indexing_map4 = #xla.indexing_map<"(tid_0) -> (tid_0 * 8192 + 3072), domain: tid_0 in [0, 31]">
module {
  tt.func @fusion_118_impl(%arg0: !tt.ptr<f32> {tt.divisibility = 16 : i32}, %arg1: !tt.ptr<bf16> {tt.divisibility = 16 : i32}, %arg2: !tt.ptr<bf16> {tt.divisibility = 16 : i32}, %arg3: !tt.ptr<bf16> {tt.divisibility = 16 : i32}, %arg4: !tt.ptr<bf16> {tt.divisibility = 16 : i32}, %arg5: !tt.ptr<bf16> {tt.divisibility = 16 : i32}, %arg6: !tt.ptr<f32> {tt.divisibility = 16 : i32}, %arg7: !tt.ptr<bf16> {tt.divisibility = 16 : i32}, %arg8: !tt.ptr<bf16> {tt.divisibility = 16 : i32}, %arg9: !tt.ptr<bf16> {tt.divisibility = 16 : i32}) {
    %cst = arith.constant dense<9.765625E-4> : tensor<1xf32>
    %c5120_i64 = arith.constant 5120 : i64
    %c6144_i64 = arith.constant 6144 : i64
    %c7168_i64 = arith.constant 7168 : i64
    %c8192_i64 = arith.constant 8192 : i64
    %c0_i32 = arith.constant 0 : i32
    %c32_i64 = arith.constant 32 : i64
    %c1024_i64 = arith.constant 1024 : i64
    %c1_i64 = arith.constant 1 : i64
    %0 = tt.get_program_id x : i32
    %1 = arith.extsi %0 : i32 to i64
    %2 = arith.index_castui %1 : i64 to index
    %3 = arith.subi %c32_i64, %1 : i64
    %4 = xla.apply_indexing #indexing_map(%2)
    %5 = arith.index_castui %4 : index to i64
    %6 = tt.addptr %arg1, %5 : !tt.ptr<bf16>, i64
    %7 = tt.make_tensor_ptr %6, [%3, %c1024_i64], [%c1024_i64, %c1_i64], [%c0_i32, %c0_i32] {order = array<i32: 1, 0>} : <tensor<1x1024xbf16>>
    %8 = tt.load %7 : !tt.ptr<tensor<1x1024xbf16>>
    %9 = arith.extf %8 : tensor<1x1024xbf16> to tensor<1x1024xf32>
    %10 = xla.apply_indexing #indexing_map1(%2)
    %11 = arith.index_castui %10 : index to i64
    %12 = tt.addptr %arg4, %11 : !tt.ptr<bf16>, i64
    %13 = tt.make_tensor_ptr %12, [%3, %c8192_i64], [%c8192_i64, %c1_i64], [%c0_i32, %c0_i32] {order = array<i32: 1, 0>} : <tensor<1x1024xbf16>>
    %14 = tt.load %13 : !tt.ptr<tensor<1x1024xbf16>>
    %15 = arith.extf %14 : tensor<1x1024xbf16> to tensor<1x1024xf32>
    %16 = tt.addptr %arg5, %5 : !tt.ptr<bf16>, i64
    %17 = tt.make_tensor_ptr %16, [%3, %c1024_i64], [%c1024_i64, %c1_i64], [%c0_i32, %c0_i32] {order = array<i32: 1, 0>} : <tensor<1x1024xbf16>>
    %18 = tt.load %17 : !tt.ptr<tensor<1x1024xbf16>>
    %19 = arith.extf %18 : tensor<1x1024xbf16> to tensor<1x1024xf32>
    %20 = xla.apply_indexing #indexing_map2(%2)
    %21 = arith.index_castui %20 : index to i64
    %22 = tt.addptr %arg4, %21 : !tt.ptr<bf16>, i64
    %23 = tt.make_tensor_ptr %22, [%3, %c7168_i64], [%c8192_i64, %c1_i64], [%c0_i32, %c0_i32] {order = array<i32: 1, 0>} : <tensor<1x1024xbf16>>
    %24 = tt.load %23 : !tt.ptr<tensor<1x1024xbf16>>
    %25 = arith.extf %24 : tensor<1x1024xbf16> to tensor<1x1024xf32>
    %26 = tt.addptr %arg3, %5 : !tt.ptr<bf16>, i64
    %27 = tt.make_tensor_ptr %26, [%3, %c1024_i64], [%c1024_i64, %c1_i64], [%c0_i32, %c0_i32] {order = array<i32: 1, 0>} : <tensor<1x1024xbf16>>
    %28 = tt.load %27 : !tt.ptr<tensor<1x1024xbf16>>
    %29 = arith.extf %28 : tensor<1x1024xbf16> to tensor<1x1024xf32>
    %30 = xla.apply_indexing #indexing_map3(%2)
    %31 = arith.index_castui %30 : index to i64
    %32 = tt.addptr %arg4, %31 : !tt.ptr<bf16>, i64
    %33 = tt.make_tensor_ptr %32, [%3, %c6144_i64], [%c8192_i64, %c1_i64], [%c0_i32, %c0_i32] {order = array<i32: 1, 0>} : <tensor<1x1024xbf16>>
    %34 = tt.load %33 : !tt.ptr<tensor<1x1024xbf16>>
    %35 = arith.extf %34 : tensor<1x1024xbf16> to tensor<1x1024xf32>
    %36 = tt.addptr %arg8, %5 : !tt.ptr<bf16>, i64
    %37 = tt.make_tensor_ptr %36, [%3, %c1024_i64], [%c1024_i64, %c1_i64], [%c0_i32, %c0_i32] {order = array<i32: 1, 0>} : <tensor<1x1024xbf16>>
    %38 = tt.load %37 : !tt.ptr<tensor<1x1024xbf16>>
    %39 = arith.extf %38 : tensor<1x1024xbf16> to tensor<1x1024xf32>
    %40 = xla.apply_indexing #indexing_map4(%2)
    %41 = arith.index_castui %40 : index to i64
    %42 = tt.addptr %arg4, %41 : !tt.ptr<bf16>, i64
    %43 = tt.make_tensor_ptr %42, [%3, %c5120_i64], [%c8192_i64, %c1_i64], [%c0_i32, %c0_i32] {order = array<i32: 1, 0>} : <tensor<1x1024xbf16>>
    %44 = tt.load %43 : !tt.ptr<tensor<1x1024xbf16>>
    %45 = arith.extf %44 : tensor<1x1024xbf16> to tensor<1x1024xf32>
    %46 = tt.addptr %arg7, %5 : !tt.ptr<bf16>, i64
    %47 = tt.make_tensor_ptr %46, [%3, %c1024_i64], [%c1024_i64, %c1_i64], [%c0_i32, %c0_i32] {order = array<i32: 1, 0>} : <tensor<1x1024xbf16>>
    %48 = tt.load %47 : !tt.ptr<tensor<1x1024xbf16>>
    %49 = arith.extf %48 : tensor<1x1024xbf16> to tensor<1x1024xf32>
    %50 = tt.addptr %arg6, %5 : !tt.ptr<f32>, i64
    %51 = tt.make_tensor_ptr %50, [%3, %c1024_i64], [%c1024_i64, %c1_i64], [%c0_i32, %c0_i32] {order = array<i32: 1, 0>} : <tensor<1x1024xf32>>
    %52 = tt.load %51 : !tt.ptr<tensor<1x1024xf32>>
    %53 = arith.addf %49, %52 : tensor<1x1024xf32>
    %54 = arith.addf %45, %53 : tensor<1x1024xf32>
    %55 = arith.addf %39, %54 : tensor<1x1024xf32>
    %56 = arith.addf %35, %55 : tensor<1x1024xf32>
    %57 = arith.addf %29, %56 : tensor<1x1024xf32>
    %58 = arith.addf %25, %57 : tensor<1x1024xf32>
    %59 = arith.addf %19, %58 : tensor<1x1024xf32>
    %60 = arith.addf %15, %59 : tensor<1x1024xf32>
    %61 = arith.addf %9, %60 : tensor<1x1024xf32>
    %62 = arith.mulf %61, %61 : tensor<1x1024xf32>
    %63 = "tt.reduce"(%62) <{axis = 1 : i32}> ({
    ^bb0(%arg10: f32, %arg11: f32):
      %80 = arith.addf %arg10, %arg11 : f32
      tt.reduce.return %80 : f32
    }) : (tensor<1x1024xf32>) -> tensor<1xf32>
    %64 = arith.mulf %63, %cst : tensor<1xf32>
    %65 = tt.load %arg0 : !tt.ptr<f32>
    %66 = tt.splat %65 : f32 -> tensor<1xf32>
    %67 = arith.addf %64, %66 : tensor<1xf32>
    %68 = tt.extern_elementwise %67 {libname = "libdevice", libpath = "/usr/local/cuda-12.6/nvvm/libdevice/libdevice.10.bc", pure = true, symbol = "__nv_rsqrtf"} : (tensor<1xf32>) -> tensor<1xf32>
    %69 = tt.expand_dims %68 {axis = 1 : i32} : tensor<1xf32> -> tensor<1x1xf32>
    %70 = tt.broadcast %69 : tensor<1x1xf32> -> tensor<1x1024xf32>
    %71 = arith.mulf %61, %70 : tensor<1x1024xf32>
    %72 = tt.make_tensor_ptr %arg2, [%c1024_i64], [%c1_i64], [%c0_i32] {order = array<i32: 0>} : <tensor<1024xbf16>>
    %73 = tt.load %72 : !tt.ptr<tensor<1024xbf16>>
    %74 = arith.extf %73 : tensor<1024xbf16> to tensor<1024xf32>
    %75 = tt.expand_dims %74 {axis = 0 : i32} : tensor<1024xf32> -> tensor<1x1024xf32>
    %76 = arith.mulf %71, %75 : tensor<1x1024xf32>
    %77 = arith.truncf %76 : tensor<1x1024xf32> to tensor<1x1024xbf16>
    %78 = tt.addptr %arg9, %5 : !tt.ptr<bf16>, i64
    %79 = tt.make_tensor_ptr %78, [%3, %c1024_i64], [%c1024_i64, %c1_i64], [%c0_i32, %c0_i32] {order = array<i32: 1, 0>} : <tensor<1x1024xbf16>>
    tt.store %79, %77 : !tt.ptr<tensor<1x1024xbf16>>
    tt.return
  }
}
