HloModule SyncTensorsGraph.2143, entry_computation_layout={(bf16[128]{0}, f32[], bf16[4096,1024]{1,0}, bf16[1024]{0}, s32[64]{0}, /*index=5*/bf16[151936,1024]{1,0}, bf16[1024,2048]{1,0}, bf16[1024,3072]{1,0}, bf16[6144,1024]{1,0}, bf16[1024]{0}, /*index=10*/bf16[1024,2048]{1,0}, bf16[1024,3072]{1,0}, bf16[6144,1024]{1,0}, bf16[1024]{0}, bf16[1024,2048]{1,0}, /*index=15*/bf16[1024,3072]{1,0}, bf16[6144,1024]{1,0}, bf16[1024]{0}, bf16[1024,2048]{1,0}, bf16[1024,3072]{1,0}, /*index=20*/bf16[6144,1024]{1,0}, bf16[1024]{0}, bf16[1024,2048]{1,0}, bf16[1024,3072]{1,0}, bf16[6144,1024]{1,0}, /*index=25*/bf16[1024]{0}, bf16[1024,2048]{1,0}, bf16[1024,3072]{1,0}, bf16[6144,1024]{1,0}, bf16[1024]{0}, /*index=30*/bf16[1024,2048]{1,0}, bf16[1024,3072]{1,0}, bf16[6144,1024]{1,0}, bf16[1024]{0}, bf16[1024,2048]{1,0}, /*index=35*/bf16[1024,3072]{1,0}, bf16[6144,1024]{1,0}, bf16[1024]{0}, bf16[1024,2048]{1,0}, bf16[1024,3072]{1,0}, /*index=40*/bf16[6144,1024]{1,0}, bf16[1024]{0}, bf16[1024,2048]{1,0}, bf16[1024,3072]{1,0}, bf16[6144,1024]{1,0}, /*index=45*/bf16[1024]{0}, bf16[1024,2048]{1,0}, bf16[1024,3072]{1,0}, bf16[6144,1024]{1,0}, bf16[1024]{0}, /*index=50*/bf16[1024,2048]{1,0}, bf16[1024,3072]{1,0}, bf16[6144,1024]{1,0}, bf16[1024]{0}, bf16[1024,2048]{1,0}, /*index=55*/bf16[1024,3072]{1,0}, bf16[6144,1024]{1,0}, bf16[1024]{0}, bf16[1024,2048]{1,0}, bf16[1024,3072]{1,0}, /*index=60*/bf16[6144,1024]{1,0}, bf16[1024]{0}, bf16[1024,2048]{1,0}, bf16[1024,3072]{1,0}, bf16[6144,1024]{1,0}, /*index=65*/bf16[1024]{0}, bf16[1024,2048]{1,0}, bf16[1024,3072]{1,0}, bf16[6144,1024]{1,0}, bf16[1024]{0}, /*index=70*/bf16[1024,2048]{1,0}, bf16[1024,3072]{1,0}, bf16[6144,1024]{1,0}, bf16[1024]{0}, bf16[1024,2048]{1,0}, /*index=75*/bf16[1024,3072]{1,0}, bf16[6144,1024]{1,0}, bf16[1024]{0}, bf16[1024,2048]{1,0}, bf16[1024,3072]{1,0}, /*index=80*/bf16[6144,1024]{1,0}, bf16[1024]{0}, bf16[1024,2048]{1,0}, bf16[1024,3072]{1,0}, bf16[6144,1024]{1,0}, /*index=85*/bf16[1024]{0}, bf16[1024,2048]{1,0}, bf16[1024,3072]{1,0}, bf16[6144,1024]{1,0}, bf16[1024]{0}, /*index=90*/bf16[1024,2048]{1,0}, bf16[1024,3072]{1,0}, bf16[6144,1024]{1,0}, bf16[1024]{0}, bf16[1024,2048]{1,0}, /*index=95*/bf16[1024,3072]{1,0}, bf16[6144,1024]{1,0}, bf16[1024]{0}, bf16[1024,2048]{1,0}, bf16[1024,3072]{1,0}, /*index=100*/bf16[6144,1024]{1,0}, bf16[1024]{0}, bf16[1024,2048]{1,0}, bf16[1024,3072]{1,0}, bf16[6144,1024]{1,0}, /*index=105*/bf16[1024]{0}, bf16[1024,2048]{1,0}, bf16[1024,3072]{1,0}, bf16[6144,1024]{1,0}, bf16[1024]{0}, /*index=110*/bf16[1024,2048]{1,0}, bf16[1024,3072]{1,0}, bf16[6144,1024]{1,0}, bf16[1024]{0}, s32[64]{0}, /*index=115*/bf16[40960,128]{1,0}, bf16[2,4233,16,8,128]{4,3,2,1,0})->(bf16[64,8,128]{2,1,0}, bf16[64,8,128]{2,1,0}, bf16[4233,16,8,128]{3,2,1,0}, bf16[4233,16,8,128]{3,2,1,0})}

%AddComputation.100 (x.101: f32[], y.102: f32[]) -> f32[] {
  %x.101 = f32[] parameter(0)
  %y.102 = f32[] parameter(1)
  ROOT %add.103 = f32[] add(f32[] %x.101, f32[] %y.102)
}

%AddComputation.172 (x.173: f32[], y.174: f32[]) -> f32[] {
  %x.173 = f32[] parameter(0)
  %y.174 = f32[] parameter(1)
  ROOT %add.175 = f32[] add(f32[] %x.173, f32[] %y.174)
}

%AddComputation.244 (x.245: f32[], y.246: f32[]) -> f32[] {
  %x.245 = f32[] parameter(0)
  %y.246 = f32[] parameter(1)
  ROOT %add.247 = f32[] add(f32[] %x.245, f32[] %y.246)
}

%AddComputation.316 (x.317: f32[], y.318: f32[]) -> f32[] {
  %x.317 = f32[] parameter(0)
  %y.318 = f32[] parameter(1)
  ROOT %add.319 = f32[] add(f32[] %x.317, f32[] %y.318)
}

%AddComputation.388 (x.389: f32[], y.390: f32[]) -> f32[] {
  %x.389 = f32[] parameter(0)
  %y.390 = f32[] parameter(1)
  ROOT %add.391 = f32[] add(f32[] %x.389, f32[] %y.390)
}

%AddComputation.460 (x.461: f32[], y.462: f32[]) -> f32[] {
  %x.461 = f32[] parameter(0)
  %y.462 = f32[] parameter(1)
  ROOT %add.463 = f32[] add(f32[] %x.461, f32[] %y.462)
}

%AddComputation.532 (x.533: f32[], y.534: f32[]) -> f32[] {
  %x.533 = f32[] parameter(0)
  %y.534 = f32[] parameter(1)
  ROOT %add.535 = f32[] add(f32[] %x.533, f32[] %y.534)
}

%AddComputation.604 (x.605: f32[], y.606: f32[]) -> f32[] {
  %x.605 = f32[] parameter(0)
  %y.606 = f32[] parameter(1)
  ROOT %add.607 = f32[] add(f32[] %x.605, f32[] %y.606)
}

%AddComputation.676 (x.677: f32[], y.678: f32[]) -> f32[] {
  %x.677 = f32[] parameter(0)
  %y.678 = f32[] parameter(1)
  ROOT %add.679 = f32[] add(f32[] %x.677, f32[] %y.678)
}

%AddComputation.748 (x.749: f32[], y.750: f32[]) -> f32[] {
  %x.749 = f32[] parameter(0)
  %y.750 = f32[] parameter(1)
  ROOT %add.751 = f32[] add(f32[] %x.749, f32[] %y.750)
}

%AddComputation.820 (x.821: f32[], y.822: f32[]) -> f32[] {
  %x.821 = f32[] parameter(0)
  %y.822 = f32[] parameter(1)
  ROOT %add.823 = f32[] add(f32[] %x.821, f32[] %y.822)
}

%AddComputation.892 (x.893: f32[], y.894: f32[]) -> f32[] {
  %x.893 = f32[] parameter(0)
  %y.894 = f32[] parameter(1)
  ROOT %add.895 = f32[] add(f32[] %x.893, f32[] %y.894)
}

%AddComputation.964 (x.965: f32[], y.966: f32[]) -> f32[] {
  %x.965 = f32[] parameter(0)
  %y.966 = f32[] parameter(1)
  ROOT %add.967 = f32[] add(f32[] %x.965, f32[] %y.966)
}

%AddComputation.1036 (x.1037: f32[], y.1038: f32[]) -> f32[] {
  %x.1037 = f32[] parameter(0)
  %y.1038 = f32[] parameter(1)
  ROOT %add.1039 = f32[] add(f32[] %x.1037, f32[] %y.1038)
}

%AddComputation.1108 (x.1109: f32[], y.1110: f32[]) -> f32[] {
  %x.1109 = f32[] parameter(0)
  %y.1110 = f32[] parameter(1)
  ROOT %add.1111 = f32[] add(f32[] %x.1109, f32[] %y.1110)
}

%AddComputation.1180 (x.1181: f32[], y.1182: f32[]) -> f32[] {
  %x.1181 = f32[] parameter(0)
  %y.1182 = f32[] parameter(1)
  ROOT %add.1183 = f32[] add(f32[] %x.1181, f32[] %y.1182)
}

%AddComputation.1252 (x.1253: f32[], y.1254: f32[]) -> f32[] {
  %x.1253 = f32[] parameter(0)
  %y.1254 = f32[] parameter(1)
  ROOT %add.1255 = f32[] add(f32[] %x.1253, f32[] %y.1254)
}

%AddComputation.1324 (x.1325: f32[], y.1326: f32[]) -> f32[] {
  %x.1325 = f32[] parameter(0)
  %y.1326 = f32[] parameter(1)
  ROOT %add.1327 = f32[] add(f32[] %x.1325, f32[] %y.1326)
}

%AddComputation.1396 (x.1397: f32[], y.1398: f32[]) -> f32[] {
  %x.1397 = f32[] parameter(0)
  %y.1398 = f32[] parameter(1)
  ROOT %add.1399 = f32[] add(f32[] %x.1397, f32[] %y.1398)
}

%AddComputation.1468 (x.1469: f32[], y.1470: f32[]) -> f32[] {
  %x.1469 = f32[] parameter(0)
  %y.1470 = f32[] parameter(1)
  ROOT %add.1471 = f32[] add(f32[] %x.1469, f32[] %y.1470)
}

%AddComputation.1540 (x.1541: f32[], y.1542: f32[]) -> f32[] {
  %x.1541 = f32[] parameter(0)
  %y.1542 = f32[] parameter(1)
  ROOT %add.1543 = f32[] add(f32[] %x.1541, f32[] %y.1542)
}

%AddComputation.1612 (x.1613: f32[], y.1614: f32[]) -> f32[] {
  %x.1613 = f32[] parameter(0)
  %y.1614 = f32[] parameter(1)
  ROOT %add.1615 = f32[] add(f32[] %x.1613, f32[] %y.1614)
}

%AddComputation.1684 (x.1685: f32[], y.1686: f32[]) -> f32[] {
  %x.1685 = f32[] parameter(0)
  %y.1686 = f32[] parameter(1)
  ROOT %add.1687 = f32[] add(f32[] %x.1685, f32[] %y.1686)
}

%AddComputation.1756 (x.1757: f32[], y.1758: f32[]) -> f32[] {
  %x.1757 = f32[] parameter(0)
  %y.1758 = f32[] parameter(1)
  ROOT %add.1759 = f32[] add(f32[] %x.1757, f32[] %y.1758)
}

%AddComputation.1828 (x.1829: f32[], y.1830: f32[]) -> f32[] {
  %x.1829 = f32[] parameter(0)
  %y.1830 = f32[] parameter(1)
  ROOT %add.1831 = f32[] add(f32[] %x.1829, f32[] %y.1830)
}

%AddComputation.1900 (x.1901: f32[], y.1902: f32[]) -> f32[] {
  %x.1901 = f32[] parameter(0)
  %y.1902 = f32[] parameter(1)
  ROOT %add.1903 = f32[] add(f32[] %x.1901, f32[] %y.1902)
}

%AddComputation.1972 (x.1973: f32[], y.1974: f32[]) -> f32[] {
  %x.1973 = f32[] parameter(0)
  %y.1974 = f32[] parameter(1)
  ROOT %add.1975 = f32[] add(f32[] %x.1973, f32[] %y.1974)
}

%AddComputation.2018 (x.2019: f32[], y.2020: f32[]) -> f32[] {
  %x.2019 = f32[] parameter(0)
  %y.2020 = f32[] parameter(1)
  ROOT %add.2021 = f32[] add(f32[] %x.2019, f32[] %y.2020)
}

%AddComputation.2056 (x.2057: f32[], y.2058: f32[]) -> f32[] {
  %x.2057 = f32[] parameter(0)
  %y.2058 = f32[] parameter(1)
  ROOT %add.2059 = f32[] add(f32[] %x.2057, f32[] %y.2058)
}

ENTRY %SyncTensorsGraph.2143 (p0.1: bf16[128], p1.4: f32[], p2.6: bf16[4096,1024], p3.8: bf16[1024], p4.66: s32[64], p5.68: bf16[151936,1024], p6.72: bf16[1024,2048], p7.88: bf16[1024,3072], p8.90: bf16[6144,1024], p9.92: bf16[1024], p10.144: bf16[1024,2048], p11.160: bf16[1024,3072], p12.162: bf16[6144,1024], p13.164: bf16[1024], p14.216: bf16[1024,2048], p15.232: bf16[1024,3072], p16.234: bf16[6144,1024], p17.236: bf16[1024], p18.288: bf16[1024,2048], p19.304: bf16[1024,3072], p20.306: bf16[6144,1024], p21.308: bf16[1024], p22.360: bf16[1024,2048], p23.376: bf16[1024,3072], p24.378: bf16[6144,1024], p25.380: bf16[1024], p26.432: bf16[1024,2048], p27.448: bf16[1024,3072], p28.450: bf16[6144,1024], p29.452: bf16[1024], p30.504: bf16[1024,2048], p31.520: bf16[1024,3072], p32.522: bf16[6144,1024], p33.524: bf16[1024], p34.576: bf16[1024,2048], p35.592: bf16[1024,3072], p36.594: bf16[6144,1024], p37.596: bf16[1024], p38.648: bf16[1024,2048], p39.664: bf16[1024,3072], p40.666: bf16[6144,1024], p41.668: bf16[1024], p42.720: bf16[1024,2048], p43.736: bf16[1024,3072], p44.738: bf16[6144,1024], p45.740: bf16[1024], p46.792: bf16[1024,2048], p47.808: bf16[1024,3072], p48.810: bf16[6144,1024], p49.812: bf16[1024], p50.864: bf16[1024,2048], p51.880: bf16[1024,3072], p52.882: bf16[6144,1024], p53.884: bf16[1024], p54.936: bf16[1024,2048], p55.952: bf16[1024,3072], p56.954: bf16[6144,1024], p57.956: bf16[1024], p58.1008: bf16[1024,2048], p59.1024: bf16[1024,3072], p60.1026: bf16[6144,1024], p61.1028: bf16[1024], p62.1080: bf16[1024,2048], p63.1096: bf16[1024,3072], p64.1098: bf16[6144,1024], p65.1100: bf16[1024], p66.1152: bf16[1024,2048], p67.1168: bf16[1024,3072], p68.1170: bf16[6144,1024], p69.1172: bf16[1024], p70.1224: bf16[1024,2048], p71.1240: bf16[1024,3072], p72.1242: bf16[6144,1024], p73.1244: bf16[1024], p74.1296: bf16[1024,2048], p75.1312: bf16[1024,3072], p76.1314: bf16[6144,1024], p77.1316: bf16[1024], p78.1368: bf16[1024,2048], p79.1384: bf16[1024,3072], p80.1386: bf16[6144,1024], p81.1388: bf16[1024], p82.1440: bf16[1024,2048], p83.1456: bf16[1024,3072], p84.1458: bf16[6144,1024], p85.1460: bf16[1024], p86.1512: bf16[1024,2048], p87.1528: bf16[1024,3072], p88.1530: bf16[6144,1024], p89.1532: bf16[1024], p90.1584: bf16[1024,2048], p91.1600: bf16[1024,3072], p92.1602: bf16[6144,1024], p93.1604: bf16[1024], p94.1656: bf16[1024,2048], p95.1672: bf16[1024,3072], p96.1674: bf16[6144,1024], p97.1676: bf16[1024], p98.1728: bf16[1024,2048], p99.1744: bf16[1024,3072], p100.1746: bf16[6144,1024], p101.1748: bf16[1024], p102.1800: bf16[1024,2048], p103.1816: bf16[1024,3072], p104.1818: bf16[6144,1024], p105.1820: bf16[1024], p106.1872: bf16[1024,2048], p107.1888: bf16[1024,3072], p108.1890: bf16[6144,1024], p109.1892: bf16[1024], p110.1944: bf16[1024,2048], p111.1960: bf16[1024,3072], p112.1962: bf16[6144,1024], p113.1964: bf16[1024], p114.2088: s32[64], p115.2089: bf16[40960,128], p116.2133: bf16[2,4233,16,8,128]) -> (bf16[64,8,128], bf16[64,8,128], bf16[4233,16,8,128], bf16[4233,16,8,128]) {
  %constant.1946 = bf16[] constant(0), metadata={op_type="prim__Constant" op_name="prim__Constant" source_file="/usr/local/lib/python3.10/site-packages/torch/_ops.py" source_line=756}
  %reshape.1947 = bf16[1,1]{1,0} reshape(bf16[] %constant.1946), metadata={op_type="aten__expand" op_name="aten__expand" source_file="/usr/local/lib/python3.10/site-packages/torch/_ops.py" source_line=756}
  %broadcast.1948 = bf16[1,1]{1,0} broadcast(bf16[1,1]{1,0} %reshape.1947), dimensions={0,1}, metadata={op_type="aten__expand" op_name="aten__expand" source_file="/usr/local/lib/python3.10/site-packages/torch/_ops.py" source_line=756}
  %reshape.1949 = bf16[] reshape(bf16[1,1]{1,0} %broadcast.1948), metadata={op_type="aten__expand" op_name="aten__expand" source_file="/usr/local/lib/python3.10/site-packages/torch/_ops.py" source_line=756}
  %broadcast.1950 = bf16[64,2048]{1,0} broadcast(bf16[] %reshape.1949), dimensions={}, metadata={op_type="aten__expand" op_name="aten__expand" source_file="/usr/local/lib/python3.10/site-packages/torch/_ops.py" source_line=756}
  %reshape.1951 = bf16[64,16,128]{2,1,0} reshape(bf16[64,2048]{1,0} %broadcast.1950), metadata={op_type="aten__view" op_name="aten__view" source_file="/usr/local/lib/python3.10/site-packages/torch/_ops.py" source_line=756}
  %reshape.1952 = bf16[64,2048]{1,0} reshape(bf16[64,16,128]{2,1,0} %reshape.1951), metadata={op_type="aten__view" op_name="aten__view" source_file="/usr/local/lib/python3.10/site-packages/torch/_ops.py" source_line=756}
  %p110.1944 = bf16[1024,2048]{1,0} parameter(110), metadata={op_type="xla__device_data" op_name="xla__device_data" source_file="/usr/local/lib/python3.10/site-packages/torch_xla/_dynamo/dynamo_bridge.py" source_line=355}
  %transpose.1945 = bf16[2048,1024]{0,1} transpose(bf16[1024,2048]{1,0} %p110.1944), dimensions={1,0}, metadata={op_type="aten__permute" op_name="aten__permute" source_file="/usr/local/lib/python3.10/site-packages/torch/_ops.py" source_line=756}
  %dot.1953 = bf16[64,1024]{1,0} dot(bf16[64,2048]{1,0} %reshape.1952, bf16[2048,1024]{0,1} %transpose.1945), lhs_contracting_dims={1}, rhs_contracting_dims={0}, metadata={op_type="aten__mm" op_name="aten__mm" source_file="/usr/local/lib/python3.10/site-packages/torch/_ops.py" source_line=756}
  %convert.1954 = f32[64,1024]{1,0} convert(bf16[64,1024]{1,0} %dot.1953), metadata={op_type="xla__cast" op_name="xla__cast" source_file="/usr/local/lib/python3.10/site-packages/torch/_ops.py" source_line=756}
  %constant.1874 = bf16[] constant(0), metadata={op_type="prim__Constant" op_name="prim__Constant" source_file="/usr/local/lib/python3.10/site-packages/torch/_ops.py" source_line=756}
  %reshape.1875 = bf16[1,1]{1,0} reshape(bf16[] %constant.1874), metadata={op_type="aten__expand" op_name="aten__expand" source_file="/usr/local/lib/python3.10/site-packages/torch/_ops.py" source_line=756}
  %broadcast.1876 = bf16[1,1]{1,0} broadcast(bf16[1,1]{1,0} %reshape.1875), dimensions={0,1}, metadata={op_type="aten__expand" op_name="aten__expand" source_file="/usr/local/lib/python3.10/site-packages/torch/_ops.py" source_line=756}
  %reshape.1877 = bf16[] reshape(bf16[1,1]{1,0} %broadcast.1876), metadata={op_type="aten__expand" op_name="aten__expand" source_file="/usr/local/lib/python3.10/site-packages/torch/_ops.py" source_line=756}
  %broadcast.1878 = bf16[64,2048]{1,0} broadcast(bf16[] %reshape.1877), dimensions={}, metadata={op_type="aten__expand" op_name="aten__expand" source_file="/usr/local/lib/python3.10/site-packages/torch/_ops.py" source_line=756}
  %reshape.1879 = bf16[64,16,128]{2,1,0} reshape(bf16[64,2048]{1,0} %broadcast.1878), metadata={op_type="aten__view" op_name="aten__view" source_file="/usr/local/lib/python3.10/site-packages/torch/_ops.py" source_line=756}
  %reshape.1880 = bf16[64,2048]{1,0} reshape(bf16[64,16,128]{2,1,0} %reshape.1879), metadata={op_type="aten__view" op_name="aten__view" source_file="/usr/local/lib/python3.10/site-packages/torch/_ops.py" source_line=756}
  %p106.1872 = bf16[1024,2048]{1,0} parameter(106), metadata={op_type="xla__device_data" op_name="xla__device_data" source_file="/usr/local/lib/python3.10/site-packages/torch_xla/_dynamo/dynamo_bridge.py" source_line=355}
  %transpose.1873 = bf16[2048,1024]{0,1} transpose(bf16[1024,2048]{1,0} %p106.1872), dimensions={1,0}, metadata={op_type="aten__permute" op_name="aten__permute" source_file="/usr/local/lib/python3.10/site-packages/torch/_ops.py" source_line=756}
  %dot.1881 = bf16[64,1024]{1,0} dot(bf16[64,2048]{1,0} %reshape.1880, bf16[2048,1024]{0,1} %transpose.1873), lhs_contracting_dims={1}, rhs_contracting_dims={0}, metadata={op_type="aten__mm" op_name="aten__mm" source_file="/usr/local/lib/python3.10/site-packages/torch/_ops.py" source_line=756}
  %convert.1882 = f32[64,1024]{1,0} convert(bf16[64,1024]{1,0} %dot.1881), metadata={op_type="xla__cast" op_name="xla__cast" source_file="/usr/local/lib/python3.10/site-packages/torch/_ops.py" source_line=756}
  %constant.1802 = bf16[] constant(0), metadata={op_type="prim__Constant" op_name="prim__Constant" source_file="/usr/local/lib/python3.10/site-packages/torch/_ops.py" source_line=756}
  %reshape.1803 = bf16[1,1]{1,0} reshape(bf16[] %constant.1802), metadata={op_type="aten__expand" op_name="aten__expand" source_file="/usr/local/lib/python3.10/site-packages/torch/_ops.py" source_line=756}
  %broadcast.1804 = bf16[1,1]{1,0} broadcast(bf16[1,1]{1,0} %reshape.1803), dimensions={0,1}, metadata={op_type="aten__expand" op_name="aten__expand" source_file="/usr/local/lib/python3.10/site-packages/torch/_ops.py" source_line=756}
  %reshape.1805 = bf16[] reshape(bf16[1,1]{1,0} %broadcast.1804), metadata={op_type="aten__expand" op_name="aten__expand" source_file="/usr/local/lib/python3.10/site-packages/torch/_ops.py" source_line=756}
  %broadcast.1806 = bf16[64,2048]{1,0} broadcast(bf16[] %reshape.1805), dimensions={}, metadata={op_type="aten__expand" op_name="aten__expand" source_file="/usr/local/lib/python3.10/site-packages/torch/_ops.py" source_line=756}
  %reshape.1807 = bf16[64,16,128]{2,1,0} reshape(bf16[64,2048]{1,0} %broadcast.1806), metadata={op_type="aten__view" op_name="aten__view" source_file="/usr/local/lib/python3.10/site-packages/torch/_ops.py" source_line=756}
  %reshape.1808 = bf16[64,2048]{1,0} reshape(bf16[64,16,128]{2,1,0} %reshape.1807), metadata={op_type="aten__view" op_name="aten__view" source_file="/usr/local/lib/python3.10/site-packages/torch/_ops.py" source_line=756}
  %p102.1800 = bf16[1024,2048]{1,0} parameter(102), metadata={op_type="xla__device_data" op_name="xla__device_data" source_file="/usr/local/lib/python3.10/site-packages/torch_xla/_dynamo/dynamo_bridge.py" source_line=355}
  %transpose.1801 = bf16[2048,1024]{0,1} transpose(bf16[1024,2048]{1,0} %p102.1800), dimensions={1,0}, metadata={op_type="aten__permute" op_name="aten__permute" source_file="/usr/local/lib/python3.10/site-packages/torch/_ops.py" source_line=756}
  %dot.1809 = bf16[64,1024]{1,0} dot(bf16[64,2048]{1,0} %reshape.1808, bf16[2048,1024]{0,1} %transpose.1801), lhs_contracting_dims={1}, rhs_contracting_dims={0}, metadata={op_type="aten__mm" op_name="aten__mm" source_file="/usr/local/lib/python3.10/site-packages/torch/_ops.py" source_line=756}
  %convert.1810 = f32[64,1024]{1,0} convert(bf16[64,1024]{1,0} %dot.1809), metadata={op_type="xla__cast" op_name="xla__cast" source_file="/usr/local/lib/python3.10/site-packages/torch/_ops.py" source_line=756}
  %constant.1730 = bf16[] constant(0), metadata={op_type="prim__Constant" op_name="prim__Constant" source_file="/usr/local/lib/python3.10/site-packages/torch/_ops.py" source_line=756}
  %reshape.1731 = bf16[1,1]{1,0} reshape(bf16[] %constant.1730), metadata={op_type="aten__expand" op_name="aten__expand" source_file="/usr/local/lib/python3.10/site-packages/torch/_ops.py" source_line=756}
  %broadcast.1732 = bf16[1,1]{1,0} broadcast(bf16[1,1]{1,0} %reshape.1731), dimensions={0,1}, metadata={op_type="aten__expand" op_name="aten__expand" source_file="/usr/local/lib/python3.10/site-packages/torch/_ops.py" source_line=756}
  %reshape.1733 = bf16[] reshape(bf16[1,1]{1,0} %broadcast.1732), metadata={op_type="aten__expand" op_name="aten__expand" source_file="/usr/local/lib/python3.10/site-packages/torch/_ops.py" source_line=756}
  %broadcast.1734 = bf16[64,2048]{1,0} broadcast(bf16[] %reshape.1733), dimensions={}, metadata={op_type="aten__expand" op_name="aten__expand" source_file="/usr/local/lib/python3.10/site-packages/torch/_ops.py" source_line=756}
  %reshape.1735 = bf16[64,16,128]{2,1,0} reshape(bf16[64,2048]{1,0} %broadcast.1734), metadata={op_type="aten__view" op_name="aten__view" source_file="/usr/local/lib/python3.10/site-packages/torch/_ops.py" source_line=756}
  %reshape.1736 = bf16[64,2048]{1,0} reshape(bf16[64,16,128]{2,1,0} %reshape.1735), metadata={op_type="aten__view" op_name="aten__view" source_file="/usr/local/lib/python3.10/site-packages/torch/_ops.py" source_line=756}
  %p98.1728 = bf16[1024,2048]{1,0} parameter(98), metadata={op_type="xla__device_data" op_name="xla__device_data" source_file="/usr/local/lib/python3.10/site-packages/torch_xla/_dynamo/dynamo_bridge.py" source_line=355}
  %transpose.1729 = bf16[2048,1024]{0,1} transpose(bf16[1024,2048]{1,0} %p98.1728), dimensions={1,0}, metadata={op_type="aten__permute" op_name="aten__permute" source_file="/usr/local/lib/python3.10/site-packages/torch/_ops.py" source_line=756}
  %dot.1737 = bf16[64,1024]{1,0} dot(bf16[64,2048]{1,0} %reshape.1736, bf16[2048,1024]{0,1} %transpose.1729), lhs_contracting_dims={1}, rhs_contracting_dims={0}, metadata={op_type="aten__mm" op_name="aten__mm" source_file="/usr/local/lib/python3.10/site-packages/torch/_ops.py" source_line=756}
  %convert.1738 = f32[64,1024]{1,0} convert(bf16[64,1024]{1,0} %dot.1737), metadata={op_type="xla__cast" op_name="xla__cast" source_file="/usr/local/lib/python3.10/site-packages/torch/_ops.py" source_line=756}
  %constant.1658 = bf16[] constant(0), metadata={op_type="prim__Constant" op_name="prim__Constant" source_file="/usr/local/lib/python3.10/site-packages/torch/_ops.py" source_line=756}
  %reshape.1659 = bf16[1,1]{1,0} reshape(bf16[] %constant.1658), metadata={op_type="aten__expand" op_name="aten__expand" source_file="/usr/local/lib/python3.10/site-packages/torch/_ops.py" source_line=756}
  %broadcast.1660 = bf16[1,1]{1,0} broadcast(bf16[1,1]{1,0} %reshape.1659), dimensions={0,1}, metadata={op_type="aten__expand" op_name="aten__expand" source_file="/usr/local/lib/python3.10/site-packages/torch/_ops.py" source_line=756}
  %reshape.1661 = bf16[] reshape(bf16[1,1]{1,0} %broadcast.1660), metadata={op_type="aten__expand" op_name="aten__expand" source_file="/usr/local/lib/python3.10/site-packages/torch/_ops.py" source_line=756}
  %broadcast.1662 = bf16[64,2048]{1,0} broadcast(bf16[] %reshape.1661), dimensions={}, metadata={op_type="aten__expand" op_name="aten__expand" source_file="/usr/local/lib/python3.10/site-packages/torch/_ops.py" source_line=756}
  %reshape.1663 = bf16[64,16,128]{2,1,0} reshape(bf16[64,2048]{1,0} %broadcast.1662), metadata={op_type="aten__view" op_name="aten__view" source_file="/usr/local/lib/python3.10/site-packages/torch/_ops.py" source_line=756}
  %reshape.1664 = bf16[64,2048]{1,0} reshape(bf16[64,16,128]{2,1,0} %reshape.1663), metadata={op_type="aten__view" op_name="aten__view" source_file="/usr/local/lib/python3.10/site-packages/torch/_ops.py" source_line=756}
  %p94.1656 = bf16[1024,2048]{1,0} parameter(94), metadata={op_type="xla__device_data" op_name="xla__device_data" source_file="/usr/local/lib/python3.10/site-packages/torch_xla/_dynamo/dynamo_bridge.py" source_line=355}
  %transpose.1657 = bf16[2048,1024]{0,1} transpose(bf16[1024,2048]{1,0} %p94.1656), dimensions={1,0}, metadata={op_type="aten__permute" op_name="aten__permute" source_file="/usr/local/lib/python3.10/site-packages/torch/_ops.py" source_line=756}
  %dot.1665 = bf16[64,1024]{1,0} dot(bf16[64,2048]{1,0} %reshape.1664, bf16[2048,1024]{0,1} %transpose.1657), lhs_contracting_dims={1}, rhs_contracting_dims={0}, metadata={op_type="aten__mm" op_name="aten__mm" source_file="/usr/local/lib/python3.10/site-packages/torch/_ops.py" source_line=756}
  %convert.1666 = f32[64,1024]{1,0} convert(bf16[64,1024]{1,0} %dot.1665), metadata={op_type="xla__cast" op_name="xla__cast" source_file="/usr/local/lib/python3.10/site-packages/torch/_ops.py" source_line=756}
  %constant.1586 = bf16[] constant(0), metadata={op_type="prim__Constant" op_name="prim__Constant" source_file="/usr/local/lib/python3.10/site-packages/torch/_ops.py" source_line=756}
  %reshape.1587 = bf16[1,1]{1,0} reshape(bf16[] %constant.1586), metadata={op_type="aten__expand" op_name="aten__expand" source_file="/usr/local/lib/python3.10/site-packages/torch/_ops.py" source_line=756}
  %broadcast.1588 = bf16[1,1]{1,0} broadcast(bf16[1,1]{1,0} %reshape.1587), dimensions={0,1}, metadata={op_type="aten__expand" op_name="aten__expand" source_file="/usr/local/lib/python3.10/site-packages/torch/_ops.py" source_line=756}
  %reshape.1589 = bf16[] reshape(bf16[1,1]{1,0} %broadcast.1588), metadata={op_type="aten__expand" op_name="aten__expand" source_file="/usr/local/lib/python3.10/site-packages/torch/_ops.py" source_line=756}
  %broadcast.1590 = bf16[64,2048]{1,0} broadcast(bf16[] %reshape.1589), dimensions={}, metadata={op_type="aten__expand" op_name="aten__expand" source_file="/usr/local/lib/python3.10/site-packages/torch/_ops.py" source_line=756}
  %reshape.1591 = bf16[64,16,128]{2,1,0} reshape(bf16[64,2048]{1,0} %broadcast.1590), metadata={op_type="aten__view" op_name="aten__view" source_file="/usr/local/lib/python3.10/site-packages/torch/_ops.py" source_line=756}
  %reshape.1592 = bf16[64,2048]{1,0} reshape(bf16[64,16,128]{2,1,0} %reshape.1591), metadata={op_type="aten__view" op_name="aten__view" source_file="/usr/local/lib/python3.10/site-packages/torch/_ops.py" source_line=756}
  %p90.1584 = bf16[1024,2048]{1,0} parameter(90), metadata={op_type="xla__device_data" op_name="xla__device_data" source_file="/usr/local/lib/python3.10/site-packages/torch_xla/_dynamo/dynamo_bridge.py" source_line=355}
  %transpose.1585 = bf16[2048,1024]{0,1} transpose(bf16[1024,2048]{1,0} %p90.1584), dimensions={1,0}, metadata={op_type="aten__permute" op_name="aten__permute" source_file="/usr/local/lib/python3.10/site-packages/torch/_ops.py" source_line=756}
  %dot.1593 = bf16[64,1024]{1,0} dot(bf16[64,2048]{1,0} %reshape.1592, bf16[2048,1024]{0,1} %transpose.1585), lhs_contracting_dims={1}, rhs_contracting_dims={0}, metadata={op_type="aten__mm" op_name="aten__mm" source_file="/usr/local/lib/python3.10/site-packages/torch/_ops.py" source_line=756}
  %convert.1594 = f32[64,1024]{1,0} convert(bf16[64,1024]{1,0} %dot.1593), metadata={op_type="xla__cast" op_name="xla__cast" source_file="/usr/local/lib/python3.10/site-packages/torch/_ops.py" source_line=756}
  %constant.1514 = bf16[] constant(0), metadata={op_type="prim__Constant" op_name="prim__Constant" source_file="/usr/local/lib/python3.10/site-packages/torch/_ops.py" source_line=756}
  %reshape.1515 = bf16[1,1]{1,0} reshape(bf16[] %constant.1514), metadata={op_type="aten__expand" op_name="aten__expand" source_file="/usr/local/lib/python3.10/site-packages/torch/_ops.py" source_line=756}
  %broadcast.1516 = bf16[1,1]{1,0} broadcast(bf16[1,1]{1,0} %reshape.1515), dimensions={0,1}, metadata={op_type="aten__expand" op_name="aten__expand" source_file="/usr/local/lib/python3.10/site-packages/torch/_ops.py" source_line=756}
  %reshape.1517 = bf16[] reshape(bf16[1,1]{1,0} %broadcast.1516), metadata={op_type="aten__expand" op_name="aten__expand" source_file="/usr/local/lib/python3.10/site-packages/torch/_ops.py" source_line=756}
  %broadcast.1518 = bf16[64,2048]{1,0} broadcast(bf16[] %reshape.1517), dimensions={}, metadata={op_type="aten__expand" op_name="aten__expand" source_file="/usr/local/lib/python3.10/site-packages/torch/_ops.py" source_line=756}
  %reshape.1519 = bf16[64,16,128]{2,1,0} reshape(bf16[64,2048]{1,0} %broadcast.1518), metadata={op_type="aten__view" op_name="aten__view" source_file="/usr/local/lib/python3.10/site-packages/torch/_ops.py" source_line=756}
  %reshape.1520 = bf16[64,2048]{1,0} reshape(bf16[64,16,128]{2,1,0} %reshape.1519), metadata={op_type="aten__view" op_name="aten__view" source_file="/usr/local/lib/python3.10/site-packages/torch/_ops.py" source_line=756}
  %p86.1512 = bf16[1024,2048]{1,0} parameter(86), metadata={op_type="xla__device_data" op_name="xla__device_data" source_file="/usr/local/lib/python3.10/site-packages/torch_xla/_dynamo/dynamo_bridge.py" source_line=355}
  %transpose.1513 = bf16[2048,1024]{0,1} transpose(bf16[1024,2048]{1,0} %p86.1512), dimensions={1,0}, metadata={op_type="aten__permute" op_name="aten__permute" source_file="/usr/local/lib/python3.10/site-packages/torch/_ops.py" source_line=756}
  %dot.1521 = bf16[64,1024]{1,0} dot(bf16[64,2048]{1,0} %reshape.1520, bf16[2048,1024]{0,1} %transpose.1513), lhs_contracting_dims={1}, rhs_contracting_dims={0}, metadata={op_type="aten__mm" op_name="aten__mm" source_file="/usr/local/lib/python3.10/site-packages/torch/_ops.py" source_line=756}
  %convert.1522 = f32[64,1024]{1,0} convert(bf16[64,1024]{1,0} %dot.1521), metadata={op_type="xla__cast" op_name="xla__cast" source_file="/usr/local/lib/python3.10/site-packages/torch/_ops.py" source_line=756}
  %constant.1442 = bf16[] constant(0), metadata={op_type="prim__Constant" op_name="prim__Constant" source_file="/usr/local/lib/python3.10/site-packages/torch/_ops.py" source_line=756}
  %reshape.1443 = bf16[1,1]{1,0} reshape(bf16[] %constant.1442), metadata={op_type="aten__expand" op_name="aten__expand" source_file="/usr/local/lib/python3.10/site-packages/torch/_ops.py" source_line=756}
  %broadcast.1444 = bf16[1,1]{1,0} broadcast(bf16[1,1]{1,0} %reshape.1443), dimensions={0,1}, metadata={op_type="aten__expand" op_name="aten__expand" source_file="/usr/local/lib/python3.10/site-packages/torch/_ops.py" source_line=756}
  %reshape.1445 = bf16[] reshape(bf16[1,1]{1,0} %broadcast.1444), metadata={op_type="aten__expand" op_name="aten__expand" source_file="/usr/local/lib/python3.10/site-packages/torch/_ops.py" source_line=756}
  %broadcast.1446 = bf16[64,2048]{1,0} broadcast(bf16[] %reshape.1445), dimensions={}, metadata={op_type="aten__expand" op_name="aten__expand" source_file="/usr/local/lib/python3.10/site-packages/torch/_ops.py" source_line=756}
  %reshape.1447 = bf16[64,16,128]{2,1,0} reshape(bf16[64,2048]{1,0} %broadcast.1446), metadata={op_type="aten__view" op_name="aten__view" source_file="/usr/local/lib/python3.10/site-packages/torch/_ops.py" source_line=756}
  %reshape.1448 = bf16[64,2048]{1,0} reshape(bf16[64,16,128]{2,1,0} %reshape.1447), metadata={op_type="aten__view" op_name="aten__view" source_file="/usr/local/lib/python3.10/site-packages/torch/_ops.py" source_line=756}
  %p82.1440 = bf16[1024,2048]{1,0} parameter(82), metadata={op_type="xla__device_data" op_name="xla__device_data" source_file="/usr/local/lib/python3.10/site-packages/torch_xla/_dynamo/dynamo_bridge.py" source_line=355}
  %transpose.1441 = bf16[2048,1024]{0,1} transpose(bf16[1024,2048]{1,0} %p82.1440), dimensions={1,0}, metadata={op_type="aten__permute" op_name="aten__permute" source_file="/usr/local/lib/python3.10/site-packages/torch/_ops.py" source_line=756}
  %dot.1449 = bf16[64,1024]{1,0} dot(bf16[64,2048]{1,0} %reshape.1448, bf16[2048,1024]{0,1} %transpose.1441), lhs_contracting_dims={1}, rhs_contracting_dims={0}, metadata={op_type="aten__mm" op_name="aten__mm" source_file="/usr/local/lib/python3.10/site-packages/torch/_ops.py" source_line=756}
  %convert.1450 = f32[64,1024]{1,0} convert(bf16[64,1024]{1,0} %dot.1449), metadata={op_type="xla__cast" op_name="xla__cast" source_file="/usr/local/lib/python3.10/site-packages/torch/_ops.py" source_line=756}
  %constant.1370 = bf16[] constant(0), metadata={op_type="prim__Constant" op_name="prim__Constant" source_file="/usr/local/lib/python3.10/site-packages/torch/_ops.py" source_line=756}
  %reshape.1371 = bf16[1,1]{1,0} reshape(bf16[] %constant.1370), metadata={op_type="aten__expand" op_name="aten__expand" source_file="/usr/local/lib/python3.10/site-packages/torch/_ops.py" source_line=756}
  %broadcast.1372 = bf16[1,1]{1,0} broadcast(bf16[1,1]{1,0} %reshape.1371), dimensions={0,1}, metadata={op_type="aten__expand" op_name="aten__expand" source_file="/usr/local/lib/python3.10/site-packages/torch/_ops.py" source_line=756}
  %reshape.1373 = bf16[] reshape(bf16[1,1]{1,0} %broadcast.1372), metadata={op_type="aten__expand" op_name="aten__expand" source_file="/usr/local/lib/python3.10/site-packages/torch/_ops.py" source_line=756}
  %broadcast.1374 = bf16[64,2048]{1,0} broadcast(bf16[] %reshape.1373), dimensions={}, metadata={op_type="aten__expand" op_name="aten__expand" source_file="/usr/local/lib/python3.10/site-packages/torch/_ops.py" source_line=756}
  %reshape.1375 = bf16[64,16,128]{2,1,0} reshape(bf16[64,2048]{1,0} %broadcast.1374), metadata={op_type="aten__view" op_name="aten__view" source_file="/usr/local/lib/python3.10/site-packages/torch/_ops.py" source_line=756}
  %reshape.1376 = bf16[64,2048]{1,0} reshape(bf16[64,16,128]{2,1,0} %reshape.1375), metadata={op_type="aten__view" op_name="aten__view" source_file="/usr/local/lib/python3.10/site-packages/torch/_ops.py" source_line=756}
  %p78.1368 = bf16[1024,2048]{1,0} parameter(78), metadata={op_type="xla__device_data" op_name="xla__device_data" source_file="/usr/local/lib/python3.10/site-packages/torch_xla/_dynamo/dynamo_bridge.py" source_line=355}
  %transpose.1369 = bf16[2048,1024]{0,1} transpose(bf16[1024,2048]{1,0} %p78.1368), dimensions={1,0}, metadata={op_type="aten__permute" op_name="aten__permute" source_file="/usr/local/lib/python3.10/site-packages/torch/_ops.py" source_line=756}
  %dot.1377 = bf16[64,1024]{1,0} dot(bf16[64,2048]{1,0} %reshape.1376, bf16[2048,1024]{0,1} %transpose.1369), lhs_contracting_dims={1}, rhs_contracting_dims={0}, metadata={op_type="aten__mm" op_name="aten__mm" source_file="/usr/local/lib/python3.10/site-packages/torch/_ops.py" source_line=756}
  %convert.1378 = f32[64,1024]{1,0} convert(bf16[64,1024]{1,0} %dot.1377), metadata={op_type="xla__cast" op_name="xla__cast" source_file="/usr/local/lib/python3.10/site-packages/torch/_ops.py" source_line=756}
  %constant.1298 = bf16[] constant(0), metadata={op_type="prim__Constant" op_name="prim__Constant" source_file="/usr/local/lib/python3.10/site-packages/torch/_ops.py" source_line=756}
  %reshape.1299 = bf16[1,1]{1,0} reshape(bf16[] %constant.1298), metadata={op_type="aten__expand" op_name="aten__expand" source_file="/usr/local/lib/python3.10/site-packages/torch/_ops.py" source_line=756}
  %broadcast.1300 = bf16[1,1]{1,0} broadcast(bf16[1,1]{1,0} %reshape.1299), dimensions={0,1}, metadata={op_type="aten__expand" op_name="aten__expand" source_file="/usr/local/lib/python3.10/site-packages/torch/_ops.py" source_line=756}
  %reshape.1301 = bf16[] reshape(bf16[1,1]{1,0} %broadcast.1300), metadata={op_type="aten__expand" op_name="aten__expand" source_file="/usr/local/lib/python3.10/site-packages/torch/_ops.py" source_line=756}
  %broadcast.1302 = bf16[64,2048]{1,0} broadcast(bf16[] %reshape.1301), dimensions={}, metadata={op_type="aten__expand" op_name="aten__expand" source_file="/usr/local/lib/python3.10/site-packages/torch/_ops.py" source_line=756}
  %reshape.1303 = bf16[64,16,128]{2,1,0} reshape(bf16[64,2048]{1,0} %broadcast.1302), metadata={op_type="aten__view" op_name="aten__view" source_file="/usr/local/lib/python3.10/site-packages/torch/_ops.py" source_line=756}
  %reshape.1304 = bf16[64,2048]{1,0} reshape(bf16[64,16,128]{2,1,0} %reshape.1303), metadata={op_type="aten__view" op_name="aten__view" source_file="/usr/local/lib/python3.10/site-packages/torch/_ops.py" source_line=756}
  %p74.1296 = bf16[1024,2048]{1,0} parameter(74), metadata={op_type="xla__device_data" op_name="xla__device_data" source_file="/usr/local/lib/python3.10/site-packages/torch_xla/_dynamo/dynamo_bridge.py" source_line=355}
  %transpose.1297 = bf16[2048,1024]{0,1} transpose(bf16[1024,2048]{1,0} %p74.1296), dimensions={1,0}, metadata={op_type="aten__permute" op_name="aten__permute" source_file="/usr/local/lib/python3.10/site-packages/torch/_ops.py" source_line=756}
  %dot.1305 = bf16[64,1024]{1,0} dot(bf16[64,2048]{1,0} %reshape.1304, bf16[2048,1024]{0,1} %transpose.1297), lhs_contracting_dims={1}, rhs_contracting_dims={0}, metadata={op_type="aten__mm" op_name="aten__mm" source_file="/usr/local/lib/python3.10/site-packages/torch/_ops.py" source_line=756}
  %convert.1306 = f32[64,1024]{1,0} convert(bf16[64,1024]{1,0} %dot.1305), metadata={op_type="xla__cast" op_name="xla__cast" source_file="/usr/local/lib/python3.10/site-packages/torch/_ops.py" source_line=756}
  %constant.1226 = bf16[] constant(0), metadata={op_type="prim__Constant" op_name="prim__Constant" source_file="/usr/local/lib/python3.10/site-packages/torch/_ops.py" source_line=756}
  %reshape.1227 = bf16[1,1]{1,0} reshape(bf16[] %constant.1226), metadata={op_type="aten__expand" op_name="aten__expand" source_file="/usr/local/lib/python3.10/site-packages/torch/_ops.py" source_line=756}
  %broadcast.1228 = bf16[1,1]{1,0} broadcast(bf16[1,1]{1,0} %reshape.1227), dimensions={0,1}, metadata={op_type="aten__expand" op_name="aten__expand" source_file="/usr/local/lib/python3.10/site-packages/torch/_ops.py" source_line=756}
  %reshape.1229 = bf16[] reshape(bf16[1,1]{1,0} %broadcast.1228), metadata={op_type="aten__expand" op_name="aten__expand" source_file="/usr/local/lib/python3.10/site-packages/torch/_ops.py" source_line=756}
  %broadcast.1230 = bf16[64,2048]{1,0} broadcast(bf16[] %reshape.1229), dimensions={}, metadata={op_type="aten__expand" op_name="aten__expand" source_file="/usr/local/lib/python3.10/site-packages/torch/_ops.py" source_line=756}
  %reshape.1231 = bf16[64,16,128]{2,1,0} reshape(bf16[64,2048]{1,0} %broadcast.1230), metadata={op_type="aten__view" op_name="aten__view" source_file="/usr/local/lib/python3.10/site-packages/torch/_ops.py" source_line=756}
  %reshape.1232 = bf16[64,2048]{1,0} reshape(bf16[64,16,128]{2,1,0} %reshape.1231), metadata={op_type="aten__view" op_name="aten__view" source_file="/usr/local/lib/python3.10/site-packages/torch/_ops.py" source_line=756}
  %p70.1224 = bf16[1024,2048]{1,0} parameter(70), metadata={op_type="xla__device_data" op_name="xla__device_data" source_file="/usr/local/lib/python3.10/site-packages/torch_xla/_dynamo/dynamo_bridge.py" source_line=355}
  %transpose.1225 = bf16[2048,1024]{0,1} transpose(bf16[1024,2048]{1,0} %p70.1224), dimensions={1,0}, metadata={op_type="aten__permute" op_name="aten__permute" source_file="/usr/local/lib/python3.10/site-packages/torch/_ops.py" source_line=756}
  %dot.1233 = bf16[64,1024]{1,0} dot(bf16[64,2048]{1,0} %reshape.1232, bf16[2048,1024]{0,1} %transpose.1225), lhs_contracting_dims={1}, rhs_contracting_dims={0}, metadata={op_type="aten__mm" op_name="aten__mm" source_file="/usr/local/lib/python3.10/site-packages/torch/_ops.py" source_line=756}
  %convert.1234 = f32[64,1024]{1,0} convert(bf16[64,1024]{1,0} %dot.1233), metadata={op_type="xla__cast" op_name="xla__cast" source_file="/usr/local/lib/python3.10/site-packages/torch/_ops.py" source_line=756}
  %constant.1154 = bf16[] constant(0), metadata={op_type="prim__Constant" op_name="prim__Constant" source_file="/usr/local/lib/python3.10/site-packages/torch/_ops.py" source_line=756}
  %reshape.1155 = bf16[1,1]{1,0} reshape(bf16[] %constant.1154), metadata={op_type="aten__expand" op_name="aten__expand" source_file="/usr/local/lib/python3.10/site-packages/torch/_ops.py" source_line=756}
  %broadcast.1156 = bf16[1,1]{1,0} broadcast(bf16[1,1]{1,0} %reshape.1155), dimensions={0,1}, metadata={op_type="aten__expand" op_name="aten__expand" source_file="/usr/local/lib/python3.10/site-packages/torch/_ops.py" source_line=756}
  %reshape.1157 = bf16[] reshape(bf16[1,1]{1,0} %broadcast.1156), metadata={op_type="aten__expand" op_name="aten__expand" source_file="/usr/local/lib/python3.10/site-packages/torch/_ops.py" source_line=756}
  %broadcast.1158 = bf16[64,2048]{1,0} broadcast(bf16[] %reshape.1157), dimensions={}, metadata={op_type="aten__expand" op_name="aten__expand" source_file="/usr/local/lib/python3.10/site-packages/torch/_ops.py" source_line=756}
  %reshape.1159 = bf16[64,16,128]{2,1,0} reshape(bf16[64,2048]{1,0} %broadcast.1158), metadata={op_type="aten__view" op_name="aten__view" source_file="/usr/local/lib/python3.10/site-packages/torch/_ops.py" source_line=756}
  %reshape.1160 = bf16[64,2048]{1,0} reshape(bf16[64,16,128]{2,1,0} %reshape.1159), metadata={op_type="aten__view" op_name="aten__view" source_file="/usr/local/lib/python3.10/site-packages/torch/_ops.py" source_line=756}
  %p66.1152 = bf16[1024,2048]{1,0} parameter(66), metadata={op_type="xla__device_data" op_name="xla__device_data" source_file="/usr/local/lib/python3.10/site-packages/torch_xla/_dynamo/dynamo_bridge.py" source_line=355}
  %transpose.1153 = bf16[2048,1024]{0,1} transpose(bf16[1024,2048]{1,0} %p66.1152), dimensions={1,0}, metadata={op_type="aten__permute" op_name="aten__permute" source_file="/usr/local/lib/python3.10/site-packages/torch/_ops.py" source_line=756}
  %dot.1161 = bf16[64,1024]{1,0} dot(bf16[64,2048]{1,0} %reshape.1160, bf16[2048,1024]{0,1} %transpose.1153), lhs_contracting_dims={1}, rhs_contracting_dims={0}, metadata={op_type="aten__mm" op_name="aten__mm" source_file="/usr/local/lib/python3.10/site-packages/torch/_ops.py" source_line=756}
  %convert.1162 = f32[64,1024]{1,0} convert(bf16[64,1024]{1,0} %dot.1161), metadata={op_type="xla__cast" op_name="xla__cast" source_file="/usr/local/lib/python3.10/site-packages/torch/_ops.py" source_line=756}
  %constant.1082 = bf16[] constant(0), metadata={op_type="prim__Constant" op_name="prim__Constant" source_file="/usr/local/lib/python3.10/site-packages/torch/_ops.py" source_line=756}
  %reshape.1083 = bf16[1,1]{1,0} reshape(bf16[] %constant.1082), metadata={op_type="aten__expand" op_name="aten__expand" source_file="/usr/local/lib/python3.10/site-packages/torch/_ops.py" source_line=756}
  %broadcast.1084 = bf16[1,1]{1,0} broadcast(bf16[1,1]{1,0} %reshape.1083), dimensions={0,1}, metadata={op_type="aten__expand" op_name="aten__expand" source_file="/usr/local/lib/python3.10/site-packages/torch/_ops.py" source_line=756}
  %reshape.1085 = bf16[] reshape(bf16[1,1]{1,0} %broadcast.1084), metadata={op_type="aten__expand" op_name="aten__expand" source_file="/usr/local/lib/python3.10/site-packages/torch/_ops.py" source_line=756}
  %broadcast.1086 = bf16[64,2048]{1,0} broadcast(bf16[] %reshape.1085), dimensions={}, metadata={op_type="aten__expand" op_name="aten__expand" source_file="/usr/local/lib/python3.10/site-packages/torch/_ops.py" source_line=756}
  %reshape.1087 = bf16[64,16,128]{2,1,0} reshape(bf16[64,2048]{1,0} %broadcast.1086), metadata={op_type="aten__view" op_name="aten__view" source_file="/usr/local/lib/python3.10/site-packages/torch/_ops.py" source_line=756}
  %reshape.1088 = bf16[64,2048]{1,0} reshape(bf16[64,16,128]{2,1,0} %reshape.1087), metadata={op_type="aten__view" op_name="aten__view" source_file="/usr/local/lib/python3.10/site-packages/torch/_ops.py" source_line=756}
  %p62.1080 = bf16[1024,2048]{1,0} parameter(62), metadata={op_type="xla__device_data" op_name="xla__device_data" source_file="/usr/local/lib/python3.10/site-packages/torch_xla/_dynamo/dynamo_bridge.py" source_line=355}
  %transpose.1081 = bf16[2048,1024]{0,1} transpose(bf16[1024,2048]{1,0} %p62.1080), dimensions={1,0}, metadata={op_type="aten__permute" op_name="aten__permute" source_file="/usr/local/lib/python3.10/site-packages/torch/_ops.py" source_line=756}
  %dot.1089 = bf16[64,1024]{1,0} dot(bf16[64,2048]{1,0} %reshape.1088, bf16[2048,1024]{0,1} %transpose.1081), lhs_contracting_dims={1}, rhs_contracting_dims={0}, metadata={op_type="aten__mm" op_name="aten__mm" source_file="/usr/local/lib/python3.10/site-packages/torch/_ops.py" source_line=756}
  %convert.1090 = f32[64,1024]{1,0} convert(bf16[64,1024]{1,0} %dot.1089), metadata={op_type="xla__cast" op_name="xla__cast" source_file="/usr/local/lib/python3.10/site-packages/torch/_ops.py" source_line=756}
  %constant.1010 = bf16[] constant(0), metadata={op_type="prim__Constant" op_name="prim__Constant" source_file="/usr/local/lib/python3.10/site-packages/torch/_ops.py" source_line=756}
  %reshape.1011 = bf16[1,1]{1,0} reshape(bf16[] %constant.1010), metadata={op_type="aten__expand" op_name="aten__expand" source_file="/usr/local/lib/python3.10/site-packages/torch/_ops.py" source_line=756}
  %broadcast.1012 = bf16[1,1]{1,0} broadcast(bf16[1,1]{1,0} %reshape.1011), dimensions={0,1}, metadata={op_type="aten__expand" op_name="aten__expand" source_file="/usr/local/lib/python3.10/site-packages/torch/_ops.py" source_line=756}
  %reshape.1013 = bf16[] reshape(bf16[1,1]{1,0} %broadcast.1012), metadata={op_type="aten__expand" op_name="aten__expand" source_file="/usr/local/lib/python3.10/site-packages/torch/_ops.py" source_line=756}
  %broadcast.1014 = bf16[64,2048]{1,0} broadcast(bf16[] %reshape.1013), dimensions={}, metadata={op_type="aten__expand" op_name="aten__expand" source_file="/usr/local/lib/python3.10/site-packages/torch/_ops.py" source_line=756}
  %reshape.1015 = bf16[64,16,128]{2,1,0} reshape(bf16[64,2048]{1,0} %broadcast.1014), metadata={op_type="aten__view" op_name="aten__view" source_file="/usr/local/lib/python3.10/site-packages/torch/_ops.py" source_line=756}
  %reshape.1016 = bf16[64,2048]{1,0} reshape(bf16[64,16,128]{2,1,0} %reshape.1015), metadata={op_type="aten__view" op_name="aten__view" source_file="/usr/local/lib/python3.10/site-packages/torch/_ops.py" source_line=756}
  %p58.1008 = bf16[1024,2048]{1,0} parameter(58), metadata={op_type="xla__device_data" op_name="xla__device_data" source_file="/usr/local/lib/python3.10/site-packages/torch_xla/_dynamo/dynamo_bridge.py" source_line=355}
  %transpose.1009 = bf16[2048,1024]{0,1} transpose(bf16[1024,2048]{1,0} %p58.1008), dimensions={1,0}, metadata={op_type="aten__permute" op_name="aten__permute" source_file="/usr/local/lib/python3.10/site-packages/torch/_ops.py" source_line=756}
  %dot.1017 = bf16[64,1024]{1,0} dot(bf16[64,2048]{1,0} %reshape.1016, bf16[2048,1024]{0,1} %transpose.1009), lhs_contracting_dims={1}, rhs_contracting_dims={0}, metadata={op_type="aten__mm" op_name="aten__mm" source_file="/usr/local/lib/python3.10/site-packages/torch/_ops.py" source_line=756}
  %convert.1018 = f32[64,1024]{1,0} convert(bf16[64,1024]{1,0} %dot.1017), metadata={op_type="xla__cast" op_name="xla__cast" source_file="/usr/local/lib/python3.10/site-packages/torch/_ops.py" source_line=756}
  %constant.938 = bf16[] constant(0), metadata={op_type="prim__Constant" op_name="prim__Constant" source_file="/usr/local/lib/python3.10/site-packages/torch/_ops.py" source_line=756}
  %reshape.939 = bf16[1,1]{1,0} reshape(bf16[] %constant.938), metadata={op_type="aten__expand" op_name="aten__expand" source_file="/usr/local/lib/python3.10/site-packages/torch/_ops.py" source_line=756}
  %broadcast.940 = bf16[1,1]{1,0} broadcast(bf16[1,1]{1,0} %reshape.939), dimensions={0,1}, metadata={op_type="aten__expand" op_name="aten__expand" source_file="/usr/local/lib/python3.10/site-packages/torch/_ops.py" source_line=756}
  %reshape.941 = bf16[] reshape(bf16[1,1]{1,0} %broadcast.940), metadata={op_type="aten__expand" op_name="aten__expand" source_file="/usr/local/lib/python3.10/site-packages/torch/_ops.py" source_line=756}
  %broadcast.942 = bf16[64,2048]{1,0} broadcast(bf16[] %reshape.941), dimensions={}, metadata={op_type="aten__expand" op_name="aten__expand" source_file="/usr/local/lib/python3.10/site-packages/torch/_ops.py" source_line=756}
  %reshape.943 = bf16[64,16,128]{2,1,0} reshape(bf16[64,2048]{1,0} %broadcast.942), metadata={op_type="aten__view" op_name="aten__view" source_file="/usr/local/lib/python3.10/site-packages/torch/_ops.py" source_line=756}
  %reshape.944 = bf16[64,2048]{1,0} reshape(bf16[64,16,128]{2,1,0} %reshape.943), metadata={op_type="aten__view" op_name="aten__view" source_file="/usr/local/lib/python3.10/site-packages/torch/_ops.py" source_line=756}
  %p54.936 = bf16[1024,2048]{1,0} parameter(54), metadata={op_type="xla__device_data" op_name="xla__device_data" source_file="/usr/local/lib/python3.10/site-packages/torch_xla/_dynamo/dynamo_bridge.py" source_line=355}
  %transpose.937 = bf16[2048,1024]{0,1} transpose(bf16[1024,2048]{1,0} %p54.936), dimensions={1,0}, metadata={op_type="aten__permute" op_name="aten__permute" source_file="/usr/local/lib/python3.10/site-packages/torch/_ops.py" source_line=756}
  %dot.945 = bf16[64,1024]{1,0} dot(bf16[64,2048]{1,0} %reshape.944, bf16[2048,1024]{0,1} %transpose.937), lhs_contracting_dims={1}, rhs_contracting_dims={0}, metadata={op_type="aten__mm" op_name="aten__mm" source_file="/usr/local/lib/python3.10/site-packages/torch/_ops.py" source_line=756}
  %convert.946 = f32[64,1024]{1,0} convert(bf16[64,1024]{1,0} %dot.945), metadata={op_type="xla__cast" op_name="xla__cast" source_file="/usr/local/lib/python3.10/site-packages/torch/_ops.py" source_line=756}
  %constant.866 = bf16[] constant(0), metadata={op_type="prim__Constant" op_name="prim__Constant" source_file="/usr/local/lib/python3.10/site-packages/torch/_ops.py" source_line=756}
  %reshape.867 = bf16[1,1]{1,0} reshape(bf16[] %constant.866), metadata={op_type="aten__expand" op_name="aten__expand" source_file="/usr/local/lib/python3.10/site-packages/torch/_ops.py" source_line=756}
  %broadcast.868 = bf16[1,1]{1,0} broadcast(bf16[1,1]{1,0} %reshape.867), dimensions={0,1}, metadata={op_type="aten__expand" op_name="aten__expand" source_file="/usr/local/lib/python3.10/site-packages/torch/_ops.py" source_line=756}
  %reshape.869 = bf16[] reshape(bf16[1,1]{1,0} %broadcast.868), metadata={op_type="aten__expand" op_name="aten__expand" source_file="/usr/local/lib/python3.10/site-packages/torch/_ops.py" source_line=756}
  %broadcast.870 = bf16[64,2048]{1,0} broadcast(bf16[] %reshape.869), dimensions={}, metadata={op_type="aten__expand" op_name="aten__expand" source_file="/usr/local/lib/python3.10/site-packages/torch/_ops.py" source_line=756}
  %reshape.871 = bf16[64,16,128]{2,1,0} reshape(bf16[64,2048]{1,0} %broadcast.870), metadata={op_type="aten__view" op_name="aten__view" source_file="/usr/local/lib/python3.10/site-packages/torch/_ops.py" source_line=756}
  %reshape.872 = bf16[64,2048]{1,0} reshape(bf16[64,16,128]{2,1,0} %reshape.871), metadata={op_type="aten__view" op_name="aten__view" source_file="/usr/local/lib/python3.10/site-packages/torch/_ops.py" source_line=756}
  %p50.864 = bf16[1024,2048]{1,0} parameter(50), metadata={op_type="xla__device_data" op_name="xla__device_data" source_file="/usr/local/lib/python3.10/site-packages/torch_xla/_dynamo/dynamo_bridge.py" source_line=355}
  %transpose.865 = bf16[2048,1024]{0,1} transpose(bf16[1024,2048]{1,0} %p50.864), dimensions={1,0}, metadata={op_type="aten__permute" op_name="aten__permute" source_file="/usr/local/lib/python3.10/site-packages/torch/_ops.py" source_line=756}
  %dot.873 = bf16[64,1024]{1,0} dot(bf16[64,2048]{1,0} %reshape.872, bf16[2048,1024]{0,1} %transpose.865), lhs_contracting_dims={1}, rhs_contracting_dims={0}, metadata={op_type="aten__mm" op_name="aten__mm" source_file="/usr/local/lib/python3.10/site-packages/torch/_ops.py" source_line=756}
  %convert.874 = f32[64,1024]{1,0} convert(bf16[64,1024]{1,0} %dot.873), metadata={op_type="xla__cast" op_name="xla__cast" source_file="/usr/local/lib/python3.10/site-packages/torch/_ops.py" source_line=756}
  %constant.794 = bf16[] constant(0), metadata={op_type="prim__Constant" op_name="prim__Constant" source_file="/usr/local/lib/python3.10/site-packages/torch/_ops.py" source_line=756}
  %reshape.795 = bf16[1,1]{1,0} reshape(bf16[] %constant.794), metadata={op_type="aten__expand" op_name="aten__expand" source_file="/usr/local/lib/python3.10/site-packages/torch/_ops.py" source_line=756}
  %broadcast.796 = bf16[1,1]{1,0} broadcast(bf16[1,1]{1,0} %reshape.795), dimensions={0,1}, metadata={op_type="aten__expand" op_name="aten__expand" source_file="/usr/local/lib/python3.10/site-packages/torch/_ops.py" source_line=756}
  %reshape.797 = bf16[] reshape(bf16[1,1]{1,0} %broadcast.796), metadata={op_type="aten__expand" op_name="aten__expand" source_file="/usr/local/lib/python3.10/site-packages/torch/_ops.py" source_line=756}
  %broadcast.798 = bf16[64,2048]{1,0} broadcast(bf16[] %reshape.797), dimensions={}, metadata={op_type="aten__expand" op_name="aten__expand" source_file="/usr/local/lib/python3.10/site-packages/torch/_ops.py" source_line=756}
  %reshape.799 = bf16[64,16,128]{2,1,0} reshape(bf16[64,2048]{1,0} %broadcast.798), metadata={op_type="aten__view" op_name="aten__view" source_file="/usr/local/lib/python3.10/site-packages/torch/_ops.py" source_line=756}
  %reshape.800 = bf16[64,2048]{1,0} reshape(bf16[64,16,128]{2,1,0} %reshape.799), metadata={op_type="aten__view" op_name="aten__view" source_file="/usr/local/lib/python3.10/site-packages/torch/_ops.py" source_line=756}
  %p46.792 = bf16[1024,2048]{1,0} parameter(46), metadata={op_type="xla__device_data" op_name="xla__device_data" source_file="/usr/local/lib/python3.10/site-packages/torch_xla/_dynamo/dynamo_bridge.py" source_line=355}
  %transpose.793 = bf16[2048,1024]{0,1} transpose(bf16[1024,2048]{1,0} %p46.792), dimensions={1,0}, metadata={op_type="aten__permute" op_name="aten__permute" source_file="/usr/local/lib/python3.10/site-packages/torch/_ops.py" source_line=756}
  %dot.801 = bf16[64,1024]{1,0} dot(bf16[64,2048]{1,0} %reshape.800, bf16[2048,1024]{0,1} %transpose.793), lhs_contracting_dims={1}, rhs_contracting_dims={0}, metadata={op_type="aten__mm" op_name="aten__mm" source_file="/usr/local/lib/python3.10/site-packages/torch/_ops.py" source_line=756}
  %convert.802 = f32[64,1024]{1,0} convert(bf16[64,1024]{1,0} %dot.801), metadata={op_type="xla__cast" op_name="xla__cast" source_file="/usr/local/lib/python3.10/site-packages/torch/_ops.py" source_line=756}
  %constant.722 = bf16[] constant(0), metadata={op_type="prim__Constant" op_name="prim__Constant" source_file="/usr/local/lib/python3.10/site-packages/torch/_ops.py" source_line=756}
  %reshape.723 = bf16[1,1]{1,0} reshape(bf16[] %constant.722), metadata={op_type="aten__expand" op_name="aten__expand" source_file="/usr/local/lib/python3.10/site-packages/torch/_ops.py" source_line=756}
  %broadcast.724 = bf16[1,1]{1,0} broadcast(bf16[1,1]{1,0} %reshape.723), dimensions={0,1}, metadata={op_type="aten__expand" op_name="aten__expand" source_file="/usr/local/lib/python3.10/site-packages/torch/_ops.py" source_line=756}
  %reshape.725 = bf16[] reshape(bf16[1,1]{1,0} %broadcast.724), metadata={op_type="aten__expand" op_name="aten__expand" source_file="/usr/local/lib/python3.10/site-packages/torch/_ops.py" source_line=756}
  %broadcast.726 = bf16[64,2048]{1,0} broadcast(bf16[] %reshape.725), dimensions={}, metadata={op_type="aten__expand" op_name="aten__expand" source_file="/usr/local/lib/python3.10/site-packages/torch/_ops.py" source_line=756}
  %reshape.727 = bf16[64,16,128]{2,1,0} reshape(bf16[64,2048]{1,0} %broadcast.726), metadata={op_type="aten__view" op_name="aten__view" source_file="/usr/local/lib/python3.10/site-packages/torch/_ops.py" source_line=756}
  %reshape.728 = bf16[64,2048]{1,0} reshape(bf16[64,16,128]{2,1,0} %reshape.727), metadata={op_type="aten__view" op_name="aten__view" source_file="/usr/local/lib/python3.10/site-packages/torch/_ops.py" source_line=756}
  %p42.720 = bf16[1024,2048]{1,0} parameter(42), metadata={op_type="xla__device_data" op_name="xla__device_data" source_file="/usr/local/lib/python3.10/site-packages/torch_xla/_dynamo/dynamo_bridge.py" source_line=355}
  %transpose.721 = bf16[2048,1024]{0,1} transpose(bf16[1024,2048]{1,0} %p42.720), dimensions={1,0}, metadata={op_type="aten__permute" op_name="aten__permute" source_file="/usr/local/lib/python3.10/site-packages/torch/_ops.py" source_line=756}
  %dot.729 = bf16[64,1024]{1,0} dot(bf16[64,2048]{1,0} %reshape.728, bf16[2048,1024]{0,1} %transpose.721), lhs_contracting_dims={1}, rhs_contracting_dims={0}, metadata={op_type="aten__mm" op_name="aten__mm" source_file="/usr/local/lib/python3.10/site-packages/torch/_ops.py" source_line=756}
  %convert.730 = f32[64,1024]{1,0} convert(bf16[64,1024]{1,0} %dot.729), metadata={op_type="xla__cast" op_name="xla__cast" source_file="/usr/local/lib/python3.10/site-packages/torch/_ops.py" source_line=756}
  %constant.650 = bf16[] constant(0), metadata={op_type="prim__Constant" op_name="prim__Constant" source_file="/usr/local/lib/python3.10/site-packages/torch/_ops.py" source_line=756}
  %reshape.651 = bf16[1,1]{1,0} reshape(bf16[] %constant.650), metadata={op_type="aten__expand" op_name="aten__expand" source_file="/usr/local/lib/python3.10/site-packages/torch/_ops.py" source_line=756}
  %broadcast.652 = bf16[1,1]{1,0} broadcast(bf16[1,1]{1,0} %reshape.651), dimensions={0,1}, metadata={op_type="aten__expand" op_name="aten__expand" source_file="/usr/local/lib/python3.10/site-packages/torch/_ops.py" source_line=756}
  %reshape.653 = bf16[] reshape(bf16[1,1]{1,0} %broadcast.652), metadata={op_type="aten__expand" op_name="aten__expand" source_file="/usr/local/lib/python3.10/site-packages/torch/_ops.py" source_line=756}
  %broadcast.654 = bf16[64,2048]{1,0} broadcast(bf16[] %reshape.653), dimensions={}, metadata={op_type="aten__expand" op_name="aten__expand" source_file="/usr/local/lib/python3.10/site-packages/torch/_ops.py" source_line=756}
  %reshape.655 = bf16[64,16,128]{2,1,0} reshape(bf16[64,2048]{1,0} %broadcast.654), metadata={op_type="aten__view" op_name="aten__view" source_file="/usr/local/lib/python3.10/site-packages/torch/_ops.py" source_line=756}
  %reshape.656 = bf16[64,2048]{1,0} reshape(bf16[64,16,128]{2,1,0} %reshape.655), metadata={op_type="aten__view" op_name="aten__view" source_file="/usr/local/lib/python3.10/site-packages/torch/_ops.py" source_line=756}
  %p38.648 = bf16[1024,2048]{1,0} parameter(38), metadata={op_type="xla__device_data" op_name="xla__device_data" source_file="/usr/local/lib/python3.10/site-packages/torch_xla/_dynamo/dynamo_bridge.py" source_line=355}
  %transpose.649 = bf16[2048,1024]{0,1} transpose(bf16[1024,2048]{1,0} %p38.648), dimensions={1,0}, metadata={op_type="aten__permute" op_name="aten__permute" source_file="/usr/local/lib/python3.10/site-packages/torch/_ops.py" source_line=756}
  %dot.657 = bf16[64,1024]{1,0} dot(bf16[64,2048]{1,0} %reshape.656, bf16[2048,1024]{0,1} %transpose.649), lhs_contracting_dims={1}, rhs_contracting_dims={0}, metadata={op_type="aten__mm" op_name="aten__mm" source_file="/usr/local/lib/python3.10/site-packages/torch/_ops.py" source_line=756}
  %convert.658 = f32[64,1024]{1,0} convert(bf16[64,1024]{1,0} %dot.657), metadata={op_type="xla__cast" op_name="xla__cast" source_file="/usr/local/lib/python3.10/site-packages/torch/_ops.py" source_line=756}
  %constant.578 = bf16[] constant(0), metadata={op_type="prim__Constant" op_name="prim__Constant" source_file="/usr/local/lib/python3.10/site-packages/torch/_ops.py" source_line=756}
  %reshape.579 = bf16[1,1]{1,0} reshape(bf16[] %constant.578), metadata={op_type="aten__expand" op_name="aten__expand" source_file="/usr/local/lib/python3.10/site-packages/torch/_ops.py" source_line=756}
  %broadcast.580 = bf16[1,1]{1,0} broadcast(bf16[1,1]{1,0} %reshape.579), dimensions={0,1}, metadata={op_type="aten__expand" op_name="aten__expand" source_file="/usr/local/lib/python3.10/site-packages/torch/_ops.py" source_line=756}
  %reshape.581 = bf16[] reshape(bf16[1,1]{1,0} %broadcast.580), metadata={op_type="aten__expand" op_name="aten__expand" source_file="/usr/local/lib/python3.10/site-packages/torch/_ops.py" source_line=756}
  %broadcast.582 = bf16[64,2048]{1,0} broadcast(bf16[] %reshape.581), dimensions={}, metadata={op_type="aten__expand" op_name="aten__expand" source_file="/usr/local/lib/python3.10/site-packages/torch/_ops.py" source_line=756}
  %reshape.583 = bf16[64,16,128]{2,1,0} reshape(bf16[64,2048]{1,0} %broadcast.582), metadata={op_type="aten__view" op_name="aten__view" source_file="/usr/local/lib/python3.10/site-packages/torch/_ops.py" source_line=756}
  %reshape.584 = bf16[64,2048]{1,0} reshape(bf16[64,16,128]{2,1,0} %reshape.583), metadata={op_type="aten__view" op_name="aten__view" source_file="/usr/local/lib/python3.10/site-packages/torch/_ops.py" source_line=756}
  %p34.576 = bf16[1024,2048]{1,0} parameter(34), metadata={op_type="xla__device_data" op_name="xla__device_data" source_file="/usr/local/lib/python3.10/site-packages/torch_xla/_dynamo/dynamo_bridge.py" source_line=355}
  %transpose.577 = bf16[2048,1024]{0,1} transpose(bf16[1024,2048]{1,0} %p34.576), dimensions={1,0}, metadata={op_type="aten__permute" op_name="aten__permute" source_file="/usr/local/lib/python3.10/site-packages/torch/_ops.py" source_line=756}
  %dot.585 = bf16[64,1024]{1,0} dot(bf16[64,2048]{1,0} %reshape.584, bf16[2048,1024]{0,1} %transpose.577), lhs_contracting_dims={1}, rhs_contracting_dims={0}, metadata={op_type="aten__mm" op_name="aten__mm" source_file="/usr/local/lib/python3.10/site-packages/torch/_ops.py" source_line=756}
  %convert.586 = f32[64,1024]{1,0} convert(bf16[64,1024]{1,0} %dot.585), metadata={op_type="xla__cast" op_name="xla__cast" source_file="/usr/local/lib/python3.10/site-packages/torch/_ops.py" source_line=756}
  %constant.506 = bf16[] constant(0), metadata={op_type="prim__Constant" op_name="prim__Constant" source_file="/usr/local/lib/python3.10/site-packages/torch/_ops.py" source_line=756}
  %reshape.507 = bf16[1,1]{1,0} reshape(bf16[] %constant.506), metadata={op_type="aten__expand" op_name="aten__expand" source_file="/usr/local/lib/python3.10/site-packages/torch/_ops.py" source_line=756}
  %broadcast.508 = bf16[1,1]{1,0} broadcast(bf16[1,1]{1,0} %reshape.507), dimensions={0,1}, metadata={op_type="aten__expand" op_name="aten__expand" source_file="/usr/local/lib/python3.10/site-packages/torch/_ops.py" source_line=756}
  %reshape.509 = bf16[] reshape(bf16[1,1]{1,0} %broadcast.508), metadata={op_type="aten__expand" op_name="aten__expand" source_file="/usr/local/lib/python3.10/site-packages/torch/_ops.py" source_line=756}
  %broadcast.510 = bf16[64,2048]{1,0} broadcast(bf16[] %reshape.509), dimensions={}, metadata={op_type="aten__expand" op_name="aten__expand" source_file="/usr/local/lib/python3.10/site-packages/torch/_ops.py" source_line=756}
  %reshape.511 = bf16[64,16,128]{2,1,0} reshape(bf16[64,2048]{1,0} %broadcast.510), metadata={op_type="aten__view" op_name="aten__view" source_file="/usr/local/lib/python3.10/site-packages/torch/_ops.py" source_line=756}
  %reshape.512 = bf16[64,2048]{1,0} reshape(bf16[64,16,128]{2,1,0} %reshape.511), metadata={op_type="aten__view" op_name="aten__view" source_file="/usr/local/lib/python3.10/site-packages/torch/_ops.py" source_line=756}
  %p30.504 = bf16[1024,2048]{1,0} parameter(30), metadata={op_type="xla__device_data" op_name="xla__device_data" source_file="/usr/local/lib/python3.10/site-packages/torch_xla/_dynamo/dynamo_bridge.py" source_line=355}
  %transpose.505 = bf16[2048,1024]{0,1} transpose(bf16[1024,2048]{1,0} %p30.504), dimensions={1,0}, metadata={op_type="aten__permute" op_name="aten__permute" source_file="/usr/local/lib/python3.10/site-packages/torch/_ops.py" source_line=756}
  %dot.513 = bf16[64,1024]{1,0} dot(bf16[64,2048]{1,0} %reshape.512, bf16[2048,1024]{0,1} %transpose.505), lhs_contracting_dims={1}, rhs_contracting_dims={0}, metadata={op_type="aten__mm" op_name="aten__mm" source_file="/usr/local/lib/python3.10/site-packages/torch/_ops.py" source_line=756}
  %convert.514 = f32[64,1024]{1,0} convert(bf16[64,1024]{1,0} %dot.513), metadata={op_type="xla__cast" op_name="xla__cast" source_file="/usr/local/lib/python3.10/site-packages/torch/_ops.py" source_line=756}
  %constant.434 = bf16[] constant(0), metadata={op_type="prim__Constant" op_name="prim__Constant" source_file="/usr/local/lib/python3.10/site-packages/torch/_ops.py" source_line=756}
  %reshape.435 = bf16[1,1]{1,0} reshape(bf16[] %constant.434), metadata={op_type="aten__expand" op_name="aten__expand" source_file="/usr/local/lib/python3.10/site-packages/torch/_ops.py" source_line=756}
  %broadcast.436 = bf16[1,1]{1,0} broadcast(bf16[1,1]{1,0} %reshape.435), dimensions={0,1}, metadata={op_type="aten__expand" op_name="aten__expand" source_file="/usr/local/lib/python3.10/site-packages/torch/_ops.py" source_line=756}
  %reshape.437 = bf16[] reshape(bf16[1,1]{1,0} %broadcast.436), metadata={op_type="aten__expand" op_name="aten__expand" source_file="/usr/local/lib/python3.10/site-packages/torch/_ops.py" source_line=756}
  %broadcast.438 = bf16[64,2048]{1,0} broadcast(bf16[] %reshape.437), dimensions={}, metadata={op_type="aten__expand" op_name="aten__expand" source_file="/usr/local/lib/python3.10/site-packages/torch/_ops.py" source_line=756}
  %reshape.439 = bf16[64,16,128]{2,1,0} reshape(bf16[64,2048]{1,0} %broadcast.438), metadata={op_type="aten__view" op_name="aten__view" source_file="/usr/local/lib/python3.10/site-packages/torch/_ops.py" source_line=756}
  %reshape.440 = bf16[64,2048]{1,0} reshape(bf16[64,16,128]{2,1,0} %reshape.439), metadata={op_type="aten__view" op_name="aten__view" source_file="/usr/local/lib/python3.10/site-packages/torch/_ops.py" source_line=756}
  %p26.432 = bf16[1024,2048]{1,0} parameter(26), metadata={op_type="xla__device_data" op_name="xla__device_data" source_file="/usr/local/lib/python3.10/site-packages/torch_xla/_dynamo/dynamo_bridge.py" source_line=355}
  %transpose.433 = bf16[2048,1024]{0,1} transpose(bf16[1024,2048]{1,0} %p26.432), dimensions={1,0}, metadata={op_type="aten__permute" op_name="aten__permute" source_file="/usr/local/lib/python3.10/site-packages/torch/_ops.py" source_line=756}
  %dot.441 = bf16[64,1024]{1,0} dot(bf16[64,2048]{1,0} %reshape.440, bf16[2048,1024]{0,1} %transpose.433), lhs_contracting_dims={1}, rhs_contracting_dims={0}, metadata={op_type="aten__mm" op_name="aten__mm" source_file="/usr/local/lib/python3.10/site-packages/torch/_ops.py" source_line=756}
  %convert.442 = f32[64,1024]{1,0} convert(bf16[64,1024]{1,0} %dot.441), metadata={op_type="xla__cast" op_name="xla__cast" source_file="/usr/local/lib/python3.10/site-packages/torch/_ops.py" source_line=756}
  %constant.362 = bf16[] constant(0), metadata={op_type="prim__Constant" op_name="prim__Constant" source_file="/usr/local/lib/python3.10/site-packages/torch/_ops.py" source_line=756}
  %reshape.363 = bf16[1,1]{1,0} reshape(bf16[] %constant.362), metadata={op_type="aten__expand" op_name="aten__expand" source_file="/usr/local/lib/python3.10/site-packages/torch/_ops.py" source_line=756}
  %broadcast.364 = bf16[1,1]{1,0} broadcast(bf16[1,1]{1,0} %reshape.363), dimensions={0,1}, metadata={op_type="aten__expand" op_name="aten__expand" source_file="/usr/local/lib/python3.10/site-packages/torch/_ops.py" source_line=756}
  %reshape.365 = bf16[] reshape(bf16[1,1]{1,0} %broadcast.364), metadata={op_type="aten__expand" op_name="aten__expand" source_file="/usr/local/lib/python3.10/site-packages/torch/_ops.py" source_line=756}
  %broadcast.366 = bf16[64,2048]{1,0} broadcast(bf16[] %reshape.365), dimensions={}, metadata={op_type="aten__expand" op_name="aten__expand" source_file="/usr/local/lib/python3.10/site-packages/torch/_ops.py" source_line=756}
  %reshape.367 = bf16[64,16,128]{2,1,0} reshape(bf16[64,2048]{1,0} %broadcast.366), metadata={op_type="aten__view" op_name="aten__view" source_file="/usr/local/lib/python3.10/site-packages/torch/_ops.py" source_line=756}
  %reshape.368 = bf16[64,2048]{1,0} reshape(bf16[64,16,128]{2,1,0} %reshape.367), metadata={op_type="aten__view" op_name="aten__view" source_file="/usr/local/lib/python3.10/site-packages/torch/_ops.py" source_line=756}
  %p22.360 = bf16[1024,2048]{1,0} parameter(22), metadata={op_type="xla__device_data" op_name="xla__device_data" source_file="/usr/local/lib/python3.10/site-packages/torch_xla/_dynamo/dynamo_bridge.py" source_line=355}
  %transpose.361 = bf16[2048,1024]{0,1} transpose(bf16[1024,2048]{1,0} %p22.360), dimensions={1,0}, metadata={op_type="aten__permute" op_name="aten__permute" source_file="/usr/local/lib/python3.10/site-packages/torch/_ops.py" source_line=756}
  %dot.369 = bf16[64,1024]{1,0} dot(bf16[64,2048]{1,0} %reshape.368, bf16[2048,1024]{0,1} %transpose.361), lhs_contracting_dims={1}, rhs_contracting_dims={0}, metadata={op_type="aten__mm" op_name="aten__mm" source_file="/usr/local/lib/python3.10/site-packages/torch/_ops.py" source_line=756}
  %convert.370 = f32[64,1024]{1,0} convert(bf16[64,1024]{1,0} %dot.369), metadata={op_type="xla__cast" op_name="xla__cast" source_file="/usr/local/lib/python3.10/site-packages/torch/_ops.py" source_line=756}
  %constant.290 = bf16[] constant(0), metadata={op_type="prim__Constant" op_name="prim__Constant" source_file="/usr/local/lib/python3.10/site-packages/torch/_ops.py" source_line=756}
  %reshape.291 = bf16[1,1]{1,0} reshape(bf16[] %constant.290), metadata={op_type="aten__expand" op_name="aten__expand" source_file="/usr/local/lib/python3.10/site-packages/torch/_ops.py" source_line=756}
  %broadcast.292 = bf16[1,1]{1,0} broadcast(bf16[1,1]{1,0} %reshape.291), dimensions={0,1}, metadata={op_type="aten__expand" op_name="aten__expand" source_file="/usr/local/lib/python3.10/site-packages/torch/_ops.py" source_line=756}
  %reshape.293 = bf16[] reshape(bf16[1,1]{1,0} %broadcast.292), metadata={op_type="aten__expand" op_name="aten__expand" source_file="/usr/local/lib/python3.10/site-packages/torch/_ops.py" source_line=756}
  %broadcast.294 = bf16[64,2048]{1,0} broadcast(bf16[] %reshape.293), dimensions={}, metadata={op_type="aten__expand" op_name="aten__expand" source_file="/usr/local/lib/python3.10/site-packages/torch/_ops.py" source_line=756}
  %reshape.295 = bf16[64,16,128]{2,1,0} reshape(bf16[64,2048]{1,0} %broadcast.294), metadata={op_type="aten__view" op_name="aten__view" source_file="/usr/local/lib/python3.10/site-packages/torch/_ops.py" source_line=756}
  %reshape.296 = bf16[64,2048]{1,0} reshape(bf16[64,16,128]{2,1,0} %reshape.295), metadata={op_type="aten__view" op_name="aten__view" source_file="/usr/local/lib/python3.10/site-packages/torch/_ops.py" source_line=756}
  %p18.288 = bf16[1024,2048]{1,0} parameter(18), metadata={op_type="xla__device_data" op_name="xla__device_data" source_file="/usr/local/lib/python3.10/site-packages/torch_xla/_dynamo/dynamo_bridge.py" source_line=355}
  %transpose.289 = bf16[2048,1024]{0,1} transpose(bf16[1024,2048]{1,0} %p18.288), dimensions={1,0}, metadata={op_type="aten__permute" op_name="aten__permute" source_file="/usr/local/lib/python3.10/site-packages/torch/_ops.py" source_line=756}
  %dot.297 = bf16[64,1024]{1,0} dot(bf16[64,2048]{1,0} %reshape.296, bf16[2048,1024]{0,1} %transpose.289), lhs_contracting_dims={1}, rhs_contracting_dims={0}, metadata={op_type="aten__mm" op_name="aten__mm" source_file="/usr/local/lib/python3.10/site-packages/torch/_ops.py" source_line=756}
  %convert.298 = f32[64,1024]{1,0} convert(bf16[64,1024]{1,0} %dot.297), metadata={op_type="xla__cast" op_name="xla__cast" source_file="/usr/local/lib/python3.10/site-packages/torch/_ops.py" source_line=756}
  %constant.218 = bf16[] constant(0), metadata={op_type="prim__Constant" op_name="prim__Constant" source_file="/usr/local/lib/python3.10/site-packages/torch/_ops.py" source_line=756}
  %reshape.219 = bf16[1,1]{1,0} reshape(bf16[] %constant.218), metadata={op_type="aten__expand" op_name="aten__expand" source_file="/usr/local/lib/python3.10/site-packages/torch/_ops.py" source_line=756}
  %broadcast.220 = bf16[1,1]{1,0} broadcast(bf16[1,1]{1,0} %reshape.219), dimensions={0,1}, metadata={op_type="aten__expand" op_name="aten__expand" source_file="/usr/local/lib/python3.10/site-packages/torch/_ops.py" source_line=756}
  %reshape.221 = bf16[] reshape(bf16[1,1]{1,0} %broadcast.220), metadata={op_type="aten__expand" op_name="aten__expand" source_file="/usr/local/lib/python3.10/site-packages/torch/_ops.py" source_line=756}
  %broadcast.222 = bf16[64,2048]{1,0} broadcast(bf16[] %reshape.221), dimensions={}, metadata={op_type="aten__expand" op_name="aten__expand" source_file="/usr/local/lib/python3.10/site-packages/torch/_ops.py" source_line=756}
  %reshape.223 = bf16[64,16,128]{2,1,0} reshape(bf16[64,2048]{1,0} %broadcast.222), metadata={op_type="aten__view" op_name="aten__view" source_file="/usr/local/lib/python3.10/site-packages/torch/_ops.py" source_line=756}
  %reshape.224 = bf16[64,2048]{1,0} reshape(bf16[64,16,128]{2,1,0} %reshape.223), metadata={op_type="aten__view" op_name="aten__view" source_file="/usr/local/lib/python3.10/site-packages/torch/_ops.py" source_line=756}
  %p14.216 = bf16[1024,2048]{1,0} parameter(14), metadata={op_type="xla__device_data" op_name="xla__device_data" source_file="/usr/local/lib/python3.10/site-packages/torch_xla/_dynamo/dynamo_bridge.py" source_line=355}
  %transpose.217 = bf16[2048,1024]{0,1} transpose(bf16[1024,2048]{1,0} %p14.216), dimensions={1,0}, metadata={op_type="aten__permute" op_name="aten__permute" source_file="/usr/local/lib/python3.10/site-packages/torch/_ops.py" source_line=756}
  %dot.225 = bf16[64,1024]{1,0} dot(bf16[64,2048]{1,0} %reshape.224, bf16[2048,1024]{0,1} %transpose.217), lhs_contracting_dims={1}, rhs_contracting_dims={0}, metadata={op_type="aten__mm" op_name="aten__mm" source_file="/usr/local/lib/python3.10/site-packages/torch/_ops.py" source_line=756}
  %convert.226 = f32[64,1024]{1,0} convert(bf16[64,1024]{1,0} %dot.225), metadata={op_type="xla__cast" op_name="xla__cast" source_file="/usr/local/lib/python3.10/site-packages/torch/_ops.py" source_line=756}
  %constant.146 = bf16[] constant(0), metadata={op_type="prim__Constant" op_name="prim__Constant" source_file="/usr/local/lib/python3.10/site-packages/torch/_ops.py" source_line=756}
  %reshape.147 = bf16[1,1]{1,0} reshape(bf16[] %constant.146), metadata={op_type="aten__expand" op_name="aten__expand" source_file="/usr/local/lib/python3.10/site-packages/torch/_ops.py" source_line=756}
  %broadcast.148 = bf16[1,1]{1,0} broadcast(bf16[1,1]{1,0} %reshape.147), dimensions={0,1}, metadata={op_type="aten__expand" op_name="aten__expand" source_file="/usr/local/lib/python3.10/site-packages/torch/_ops.py" source_line=756}
  %reshape.149 = bf16[] reshape(bf16[1,1]{1,0} %broadcast.148), metadata={op_type="aten__expand" op_name="aten__expand" source_file="/usr/local/lib/python3.10/site-packages/torch/_ops.py" source_line=756}
  %broadcast.150 = bf16[64,2048]{1,0} broadcast(bf16[] %reshape.149), dimensions={}, metadata={op_type="aten__expand" op_name="aten__expand" source_file="/usr/local/lib/python3.10/site-packages/torch/_ops.py" source_line=756}
  %reshape.151 = bf16[64,16,128]{2,1,0} reshape(bf16[64,2048]{1,0} %broadcast.150), metadata={op_type="aten__view" op_name="aten__view" source_file="/usr/local/lib/python3.10/site-packages/torch/_ops.py" source_line=756}
  %reshape.152 = bf16[64,2048]{1,0} reshape(bf16[64,16,128]{2,1,0} %reshape.151), metadata={op_type="aten__view" op_name="aten__view" source_file="/usr/local/lib/python3.10/site-packages/torch/_ops.py" source_line=756}
  %p10.144 = bf16[1024,2048]{1,0} parameter(10), metadata={op_type="xla__device_data" op_name="xla__device_data" source_file="/usr/local/lib/python3.10/site-packages/torch_xla/_dynamo/dynamo_bridge.py" source_line=355}
  %transpose.145 = bf16[2048,1024]{0,1} transpose(bf16[1024,2048]{1,0} %p10.144), dimensions={1,0}, metadata={op_type="aten__permute" op_name="aten__permute" source_file="/usr/local/lib/python3.10/site-packages/torch/_ops.py" source_line=756}
  %dot.153 = bf16[64,1024]{1,0} dot(bf16[64,2048]{1,0} %reshape.152, bf16[2048,1024]{0,1} %transpose.145), lhs_contracting_dims={1}, rhs_contracting_dims={0}, metadata={op_type="aten__mm" op_name="aten__mm" source_file="/usr/local/lib/python3.10/site-packages/torch/_ops.py" source_line=756}
  %convert.154 = f32[64,1024]{1,0} convert(bf16[64,1024]{1,0} %dot.153), metadata={op_type="xla__cast" op_name="xla__cast" source_file="/usr/local/lib/python3.10/site-packages/torch/_ops.py" source_line=756}
  %constant.74 = bf16[] constant(0), metadata={op_type="prim__Constant" op_name="prim__Constant" source_file="/usr/local/lib/python3.10/site-packages/torch/_ops.py" source_line=756}
  %reshape.75 = bf16[1,1]{1,0} reshape(bf16[] %constant.74), metadata={op_type="aten__expand" op_name="aten__expand" source_file="/usr/local/lib/python3.10/site-packages/torch/_ops.py" source_line=756}
  %broadcast.76 = bf16[1,1]{1,0} broadcast(bf16[1,1]{1,0} %reshape.75), dimensions={0,1}, metadata={op_type="aten__expand" op_name="aten__expand" source_file="/usr/local/lib/python3.10/site-packages/torch/_ops.py" source_line=756}
  %reshape.77 = bf16[] reshape(bf16[1,1]{1,0} %broadcast.76), metadata={op_type="aten__expand" op_name="aten__expand" source_file="/usr/local/lib/python3.10/site-packages/torch/_ops.py" source_line=756}
  %broadcast.78 = bf16[64,2048]{1,0} broadcast(bf16[] %reshape.77), dimensions={}, metadata={op_type="aten__expand" op_name="aten__expand" source_file="/usr/local/lib/python3.10/site-packages/torch/_ops.py" source_line=756}
  %reshape.79 = bf16[64,16,128]{2,1,0} reshape(bf16[64,2048]{1,0} %broadcast.78), metadata={op_type="aten__view" op_name="aten__view" source_file="/usr/local/lib/python3.10/site-packages/torch/_ops.py" source_line=756}
  %reshape.80 = bf16[64,2048]{1,0} reshape(bf16[64,16,128]{2,1,0} %reshape.79), metadata={op_type="aten__view" op_name="aten__view" source_file="/usr/local/lib/python3.10/site-packages/torch/_ops.py" source_line=756}
  %p6.72 = bf16[1024,2048]{1,0} parameter(6), metadata={op_type="xla__device_data" op_name="xla__device_data" source_file="/usr/local/lib/python3.10/site-packages/torch_xla/_dynamo/dynamo_bridge.py" source_line=355}
  %transpose.73 = bf16[2048,1024]{0,1} transpose(bf16[1024,2048]{1,0} %p6.72), dimensions={1,0}, metadata={op_type="aten__permute" op_name="aten__permute" source_file="/usr/local/lib/python3.10/site-packages/torch/_ops.py" source_line=756}
  %dot.81 = bf16[64,1024]{1,0} dot(bf16[64,2048]{1,0} %reshape.80, bf16[2048,1024]{0,1} %transpose.73), lhs_contracting_dims={1}, rhs_contracting_dims={0}, metadata={op_type="aten__mm" op_name="aten__mm" source_file="/usr/local/lib/python3.10/site-packages/torch/_ops.py" source_line=756}
  %convert.82 = f32[64,1024]{1,0} convert(bf16[64,1024]{1,0} %dot.81), metadata={op_type="xla__cast" op_name="xla__cast" source_file="/usr/local/lib/python3.10/site-packages/torch/_ops.py" source_line=756}
  %p5.68 = bf16[151936,1024]{1,0} parameter(5), metadata={op_type="xla__device_data" op_name="xla__device_data" source_file="/usr/local/lib/python3.10/site-packages/torch_xla/_dynamo/dynamo_bridge.py" source_line=355}
  %p4.66 = s32[64]{0} parameter(4), metadata={op_type="xla__device_data" op_name="xla__device_data" source_file="/usr/local/lib/python3.10/site-packages/torch_xla/_dynamo/dynamo_bridge.py" source_line=355}
  %convert.67 = s64[64]{0} convert(s32[64]{0} %p4.66), metadata={op_type="xla__cast" op_name="xla__cast" source_file="/usr/local/lib/python3.10/site-packages/torch/_ops.py" source_line=756}
  %convert.69 = u32[64]{0} convert(s64[64]{0} %convert.67), metadata={op_type="aten__index_select" op_name="aten__index_select" source_file="/usr/local/lib/python3.10/site-packages/torch/_ops.py" source_line=756}
  %gather.70 = bf16[64,1024]{1,0} gather(bf16[151936,1024]{1,0} %p5.68, u32[64]{0} %convert.69), offset_dims={1}, collapsed_slice_dims={0}, start_index_map={0}, index_vector_dim=1, slice_sizes={1,1024}, metadata={op_type="aten__index_select" op_name="aten__index_select" source_file="/usr/local/lib/python3.10/site-packages/torch/_ops.py" source_line=756}
  %convert.71 = f32[64,1024]{1,0} convert(bf16[64,1024]{1,0} %gather.70), metadata={op_type="xla__cast" op_name="xla__cast" source_file="/usr/local/lib/python3.10/site-packages/torch/_ops.py" source_line=756}
  %constant.65 = f32[] constant(1), metadata={op_type="prim__Constant" op_name="prim__Constant" source_file="/usr/local/lib/python3.10/site-packages/torch/_ops.py" source_line=756}
  %broadcast.83 = f32[64,1024]{1,0} broadcast(f32[] %constant.65), dimensions={}, metadata={op_type="aten__add" op_name="aten__add.1027/aten__add" source_file="/usr/local/lib/python3.10/site-packages/torch/_ops.py" source_line=756}
  %multiply.84 = f32[64,1024]{1,0} multiply(f32[64,1024]{1,0} %convert.71, f32[64,1024]{1,0} %broadcast.83), metadata={op_type="aten__add" op_name="aten__add.1027/aten__add" source_file="/usr/local/lib/python3.10/site-packages/torch/_ops.py" source_line=756}
  %add.85 = f32[64,1024]{1,0} add(f32[64,1024]{1,0} %convert.82, f32[64,1024]{1,0} %multiply.84), metadata={op_type="aten__add" op_name="aten__add.1027/aten__add" source_file="/usr/local/lib/python3.10/site-packages/torch/_ops.py" source_line=756}
  %constant.95 = f32[] constant(2), metadata={op_type="prim__Constant" op_name="prim__Constant" source_file="/usr/local/lib/python3.10/site-packages/torch/_ops.py" source_line=756}
  %broadcast.96 = f32[64,1024]{1,0} broadcast(f32[] %constant.95), dimensions={}, metadata={op_type="aten__pow" op_name="aten__pow" source_file="/usr/local/lib/python3.10/site-packages/torch/_ops.py" source_line=756}
  %power.97 = f32[64,1024]{1,0} power(f32[64,1024]{1,0} %add.85, f32[64,1024]{1,0} %broadcast.96), metadata={op_type="aten__pow" op_name="aten__pow" source_file="/usr/local/lib/python3.10/site-packages/torch/_ops.py" source_line=756}
  %constant.98 = f32[] constant(0), metadata={op_type="aten__mean" op_name="aten__mean" source_file="/usr/local/lib/python3.10/site-packages/torch/_ops.py" source_line=756}
  %reduce.104 = f32[64]{0} reduce(f32[64,1024]{1,0} %power.97, f32[] %constant.98), dimensions={1}, to_apply=%AddComputation.100, metadata={op_type="aten__mean" op_name="aten__mean" source_file="/usr/local/lib/python3.10/site-packages/torch/_ops.py" source_line=756}
  %constant.99 = s32[] constant(1024), metadata={op_type="aten__mean" op_name="aten__mean" source_file="/usr/local/lib/python3.10/site-packages/torch/_ops.py" source_line=756}
  %constant.105 = s32[] constant(0), metadata={op_type="aten__mean" op_name="aten__mean" source_file="/usr/local/lib/python3.10/site-packages/torch/_ops.py" source_line=756}
  %compare.110 = pred[] compare(s32[] %constant.99, s32[] %constant.105), direction=NE, metadata={op_type="aten__mean" op_name="aten__mean" source_file="/usr/local/lib/python3.10/site-packages/torch/_ops.py" source_line=756}
  %constant.106 = f32[] constant(1), metadata={op_type="aten__mean" op_name="aten__mean" source_file="/usr/local/lib/python3.10/site-packages/torch/_ops.py" source_line=756}
  %convert.108 = f32[] convert(s32[] %constant.99), metadata={op_type="aten__mean" op_name="aten__mean" source_file="/usr/local/lib/python3.10/site-packages/torch/_ops.py" source_line=756}
  %divide.109 = f32[] divide(f32[] %constant.106, f32[] %convert.108), metadata={op_type="aten__mean" op_name="aten__mean" source_file="/usr/local/lib/python3.10/site-packages/torch/_ops.py" source_line=756}
  %constant.107 = f32[] constant(nan), metadata={op_type="aten__mean" op_name="aten__mean" source_file="/usr/local/lib/python3.10/site-packages/torch/_ops.py" source_line=756}
  %select.111 = f32[] select(pred[] %compare.110, f32[] %divide.109, f32[] %constant.107), metadata={op_type="aten__mean" op_name="aten__mean" source_file="/usr/local/lib/python3.10/site-packages/torch/_ops.py" source_line=756}
  %broadcast.112 = f32[64]{0} broadcast(f32[] %select.111), dimensions={}, metadata={op_type="aten__mean" op_name="aten__mean" source_file="/usr/local/lib/python3.10/site-packages/torch/_ops.py" source_line=756}
  %multiply.113 = f32[64]{0} multiply(f32[64]{0} %reduce.104, f32[64]{0} %broadcast.112), metadata={op_type="aten__mean" op_name="aten__mean" source_file="/usr/local/lib/python3.10/site-packages/torch/_ops.py" source_line=756}
  %reshape.114 = f32[64,1]{1,0} reshape(f32[64]{0} %multiply.113), metadata={op_type="aten__mean" op_name="aten__mean" source_file="/usr/local/lib/python3.10/site-packages/torch/_ops.py" source_line=756}
  %convert.115 = f32[64,1]{1,0} convert(f32[64,1]{1,0} %reshape.114), metadata={op_type="aten__mean" op_name="aten__mean" source_file="/usr/local/lib/python3.10/site-packages/torch/_ops.py" source_line=756}
  %p1.4 = f32[] parameter(1), metadata={op_type="xla__device_data" op_name="xla__device_data" source_file="/usr/local/lib/python3.10/site-packages/torch/_ops.py" source_line=756}
  %constant.94 = f32[] constant(1), metadata={op_type="prim__Constant" op_name="prim__Constant" source_file="/usr/local/lib/python3.10/site-packages/torch/_ops.py" source_line=756}
  %multiply.116 = f32[] multiply(f32[] %p1.4, f32[] %constant.94), metadata={op_type="aten__add" op_name="aten__add.1028/aten__add" source_file="/usr/local/lib/python3.10/site-packages/torch/_ops.py" source_line=756}
  %broadcast.117 = f32[64,1]{1,0} broadcast(f32[] %multiply.116), dimensions={}, metadata={op_type="aten__add" op_name="aten__add.1028/aten__add" source_file="/usr/local/lib/python3.10/site-packages/torch/_ops.py" source_line=756}
  %add.118 = f32[64,1]{1,0} add(f32[64,1]{1,0} %convert.115, f32[64,1]{1,0} %broadcast.117), metadata={op_type="aten__add" op_name="aten__add.1028/aten__add" source_file="/usr/local/lib/python3.10/site-packages/torch/_ops.py" source_line=756}
  %rsqrt.119 = f32[64,1]{1,0} rsqrt(f32[64,1]{1,0} %add.118), metadata={op_type="aten__rsqrt" op_name="aten__rsqrt" source_file="/usr/local/lib/python3.10/site-packages/torch/_ops.py" source_line=756}
  %reshape.120 = f32[64]{0} reshape(f32[64,1]{1,0} %rsqrt.119), metadata={op_type="aten__mul" op_name="aten__mul.1029/aten__mul" source_file="/usr/local/lib/python3.10/site-packages/torch/_ops.py" source_line=756}
  %broadcast.121 = f32[64,1024]{1,0} broadcast(f32[64]{0} %reshape.120), dimensions={0}, metadata={op_type="aten__mul" op_name="aten__mul.1029/aten__mul" source_file="/usr/local/lib/python3.10/site-packages/torch/_ops.py" source_line=756}
  %multiply.122 = f32[64,1024]{1,0} multiply(f32[64,1024]{1,0} %add.85, f32[64,1024]{1,0} %broadcast.121), metadata={op_type="aten__mul" op_name="aten__mul.1029/aten__mul" source_file="/usr/local/lib/python3.10/site-packages/torch/_ops.py" source_line=756}
  %convert.123 = bf16[64,1024]{1,0} convert(f32[64,1024]{1,0} %multiply.122), metadata={op_type="xla__cast" op_name="xla__cast" source_file="/usr/local/lib/python3.10/site-packages/torch/_ops.py" source_line=756}
  %convert.124 = f32[64,1024]{1,0} convert(bf16[64,1024]{1,0} %convert.123), metadata={op_type="xla__cast" op_name="xla__cast" source_file="/usr/local/lib/python3.10/site-packages/torch/_ops.py" source_line=756}
  %p9.92 = bf16[1024]{0} parameter(9), metadata={op_type="xla__device_data" op_name="xla__device_data" source_file="/usr/local/lib/python3.10/site-packages/torch_xla/_dynamo/dynamo_bridge.py" source_line=355}
  %convert.93 = f32[1024]{0} convert(bf16[1024]{0} %p9.92), metadata={op_type="xla__cast" op_name="xla__cast" source_file="/usr/local/lib/python3.10/site-packages/torch/_ops.py" source_line=756}
  %broadcast.125 = f32[64,1024]{1,0} broadcast(f32[1024]{0} %convert.93), dimensions={1}, metadata={op_type="aten__mul" op_name="aten__mul.1030/aten__mul" source_file="/usr/local/lib/python3.10/site-packages/torch/_ops.py" source_line=756}
  %multiply.126 = f32[64,1024]{1,0} multiply(f32[64,1024]{1,0} %convert.124, f32[64,1024]{1,0} %broadcast.125), metadata={op_type="aten__mul" op_name="aten__mul.1030/aten__mul" source_file="/usr/local/lib/python3.10/site-packages/torch/_ops.py" source_line=756}
  %convert.127 = bf16[64,1024]{1,0} convert(f32[64,1024]{1,0} %multiply.126), metadata={op_type="xla__cast" op_name="xla__cast" source_file="/usr/local/lib/python3.10/site-packages/torch/_ops.py" source_line=756}
  %p8.90 = bf16[6144,1024]{1,0} parameter(8), metadata={op_type="xla__device_data" op_name="xla__device_data" source_file="/usr/local/lib/python3.10/site-packages/torch_xla/_dynamo/dynamo_bridge.py" source_line=355}
  %transpose.91 = bf16[1024,6144]{0,1} transpose(bf16[6144,1024]{1,0} %p8.90), dimensions={1,0}, metadata={op_type="aten__permute" op_name="aten__permute" source_file="/usr/local/lib/python3.10/site-packages/torch/_ops.py" source_line=756}
  %dot.128 = bf16[64,6144]{1,0} dot(bf16[64,1024]{1,0} %convert.127, bf16[1024,6144]{0,1} %transpose.91), lhs_contracting_dims={1}, rhs_contracting_dims={0}, metadata={op_type="aten__mm" op_name="aten__mm" source_file="/usr/local/lib/python3.10/site-packages/torch/_ops.py" source_line=756}
  %slice.131 = bf16[64,3072]{1,0} slice(bf16[64,6144]{1,0} %dot.128), slice={[0:64], [0:3072]}, metadata={op_type="xla__select" op_name="xla__select" source_file="/usr/local/lib/python3.10/site-packages/torch/_ops.py" source_line=756}
  %logistic.132 = bf16[64,3072]{1,0} logistic(bf16[64,3072]{1,0} %slice.131), metadata={op_type="aten__silu" op_name="aten__silu" source_file="/usr/local/lib/python3.10/site-packages/torch/_ops.py" source_line=756}
  %multiply.133 = bf16[64,3072]{1,0} multiply(bf16[64,3072]{1,0} %slice.131, bf16[64,3072]{1,0} %logistic.132), metadata={op_type="aten__silu" op_name="aten__silu" source_file="/usr/local/lib/python3.10/site-packages/torch/_ops.py" source_line=756}
  %convert.134 = f32[64,3072]{1,0} convert(bf16[64,3072]{1,0} %multiply.133), metadata={op_type="xla__cast" op_name="xla__cast" source_file="/usr/local/lib/python3.10/site-packages/torch/_ops.py" source_line=756}
  %slice.129 = bf16[64,3072]{1,0} slice(bf16[64,6144]{1,0} %dot.128), slice={[0:64], [3072:6144]}, metadata={op_type="xla__select" op_name="xla__select" source_file="/usr/local/lib/python3.10/site-packages/torch/_ops.py" source_line=756}
  %convert.130 = f32[64,3072]{1,0} convert(bf16[64,3072]{1,0} %slice.129), metadata={op_type="xla__cast" op_name="xla__cast" source_file="/usr/local/lib/python3.10/site-packages/torch/_ops.py" source_line=756}
  %multiply.135 = f32[64,3072]{1,0} multiply(f32[64,3072]{1,0} %convert.134, f32[64,3072]{1,0} %convert.130), metadata={op_type="aten__mul" op_name="aten__mul.1031/aten__mul" source_file="/usr/local/lib/python3.10/site-packages/torch/_ops.py" source_line=756}
  %convert.136 = bf16[64,3072]{1,0} convert(f32[64,3072]{1,0} %multiply.135), metadata={op_type="xla__cast" op_name="xla__cast" source_file="/usr/local/lib/python3.10/site-packages/torch/_ops.py" source_line=756}
  %p7.88 = bf16[1024,3072]{1,0} parameter(7), metadata={op_type="xla__device_data" op_name="xla__device_data" source_file="/usr/local/lib/python3.10/site-packages/torch_xla/_dynamo/dynamo_bridge.py" source_line=355}
  %transpose.89 = bf16[3072,1024]{0,1} transpose(bf16[1024,3072]{1,0} %p7.88), dimensions={1,0}, metadata={op_type="aten__permute" op_name="aten__permute" source_file="/usr/local/lib/python3.10/site-packages/torch/_ops.py" source_line=756}
  %dot.137 = bf16[64,1024]{1,0} dot(bf16[64,3072]{1,0} %convert.136, bf16[3072,1024]{0,1} %transpose.89), lhs_contracting_dims={1}, rhs_contracting_dims={0}, metadata={op_type="aten__mm" op_name="aten__mm" source_file="/usr/local/lib/python3.10/site-packages/torch/_ops.py" source_line=756}
  %convert.138 = f32[64,1024]{1,0} convert(bf16[64,1024]{1,0} %dot.137), metadata={op_type="xla__cast" op_name="xla__cast" source_file="/usr/local/lib/python3.10/site-packages/torch/_ops.py" source_line=756}
  %convert.86 = bf16[64,1024]{1,0} convert(f32[64,1024]{1,0} %add.85), metadata={op_type="xla__cast" op_name="xla__cast" source_file="/usr/local/lib/python3.10/site-packages/torch/_ops.py" source_line=756}
  %convert.87 = f32[64,1024]{1,0} convert(bf16[64,1024]{1,0} %convert.86), metadata={op_type="xla__cast" op_name="xla__cast" source_file="/usr/local/lib/python3.10/site-packages/torch/_ops.py" source_line=756}
  %constant.64 = f32[] constant(1), metadata={op_type="prim__Constant" op_name="prim__Constant" source_file="/usr/local/lib/python3.10/site-packages/torch/_ops.py" source_line=756}
  %broadcast.139 = f32[64,1024]{1,0} broadcast(f32[] %constant.64), dimensions={}, metadata={op_type="aten__add" op_name="aten__add.1032/aten__add" source_file="/usr/local/lib/python3.10/site-packages/torch/_ops.py" source_line=756}
  %multiply.140 = f32[64,1024]{1,0} multiply(f32[64,1024]{1,0} %convert.87, f32[64,1024]{1,0} %broadcast.139), metadata={op_type="aten__add" op_name="aten__add.1032/aten__add" source_file="/usr/local/lib/python3.10/site-packages/torch/_ops.py" source_line=756}
  %add.141 = f32[64,1024]{1,0} add(f32[64,1024]{1,0} %convert.138, f32[64,1024]{1,0} %multiply.140), metadata={op_type="aten__add" op_name="aten__add.1032/aten__add" source_file="/usr/local/lib/python3.10/site-packages/torch/_ops.py" source_line=756}
  %convert.142 = bf16[64,1024]{1,0} convert(f32[64,1024]{1,0} %add.141), metadata={op_type="xla__cast" op_name="xla__cast" source_file="/usr/local/lib/python3.10/site-packages/torch/_ops.py" source_line=756}
  %convert.143 = f32[64,1024]{1,0} convert(bf16[64,1024]{1,0} %convert.142), metadata={op_type="xla__cast" op_name="xla__cast" source_file="/usr/local/lib/python3.10/site-packages/torch/_ops.py" source_line=756}
  %constant.63 = f32[] constant(1), metadata={op_type="prim__Constant" op_name="prim__Constant" source_file="/usr/local/lib/python3.10/site-packages/torch/_ops.py" source_line=756}
  %broadcast.155 = f32[64,1024]{1,0} broadcast(f32[] %constant.63), dimensions={}, metadata={op_type="aten__add" op_name="aten__add.1045/aten__add" source_file="/usr/local/lib/python3.10/site-packages/torch/_ops.py" source_line=756}
  %multiply.156 = f32[64,1024]{1,0} multiply(f32[64,1024]{1,0} %convert.143, f32[64,1024]{1,0} %broadcast.155), metadata={op_type="aten__add" op_name="aten__add.1045/aten__add" source_file="/usr/local/lib/python3.10/site-packages/torch/_ops.py" source_line=756}
  %add.157 = f32[64,1024]{1,0} add(f32[64,1024]{1,0} %convert.154, f32[64,1024]{1,0} %multiply.156), metadata={op_type="aten__add" op_name="aten__add.1045/aten__add" source_file="/usr/local/lib/python3.10/site-packages/torch/_ops.py" source_line=756}
  %constant.167 = f32[] constant(2), metadata={op_type="prim__Constant" op_name="prim__Constant" source_file="/usr/local/lib/python3.10/site-packages/torch/_ops.py" source_line=756}
  %broadcast.168 = f32[64,1024]{1,0} broadcast(f32[] %constant.167), dimensions={}, metadata={op_type="aten__pow" op_name="aten__pow" source_file="/usr/local/lib/python3.10/site-packages/torch/_ops.py" source_line=756}
  %power.169 = f32[64,1024]{1,0} power(f32[64,1024]{1,0} %add.157, f32[64,1024]{1,0} %broadcast.168), metadata={op_type="aten__pow" op_name="aten__pow" source_file="/usr/local/lib/python3.10/site-packages/torch/_ops.py" source_line=756}
  %constant.170 = f32[] constant(0), metadata={op_type="aten__mean" op_name="aten__mean" source_file="/usr/local/lib/python3.10/site-packages/torch/_ops.py" source_line=756}
  %reduce.176 = f32[64]{0} reduce(f32[64,1024]{1,0} %power.169, f32[] %constant.170), dimensions={1}, to_apply=%AddComputation.172, metadata={op_type="aten__mean" op_name="aten__mean" source_file="/usr/local/lib/python3.10/site-packages/torch/_ops.py" source_line=756}
  %constant.171 = s32[] constant(1024), metadata={op_type="aten__mean" op_name="aten__mean" source_file="/usr/local/lib/python3.10/site-packages/torch/_ops.py" source_line=756}
  %constant.177 = s32[] constant(0), metadata={op_type="aten__mean" op_name="aten__mean" source_file="/usr/local/lib/python3.10/site-packages/torch/_ops.py" source_line=756}
  %compare.182 = pred[] compare(s32[] %constant.171, s32[] %constant.177), direction=NE, metadata={op_type="aten__mean" op_name="aten__mean" source_file="/usr/local/lib/python3.10/site-packages/torch/_ops.py" source_line=756}
  %constant.178 = f32[] constant(1), metadata={op_type="aten__mean" op_name="aten__mean" source_file="/usr/local/lib/python3.10/site-packages/torch/_ops.py" source_line=756}
  %convert.180 = f32[] convert(s32[] %constant.171), metadata={op_type="aten__mean" op_name="aten__mean" source_file="/usr/local/lib/python3.10/site-packages/torch/_ops.py" source_line=756}
  %divide.181 = f32[] divide(f32[] %constant.178, f32[] %convert.180), metadata={op_type="aten__mean" op_name="aten__mean" source_file="/usr/local/lib/python3.10/site-packages/torch/_ops.py" source_line=756}
  %constant.179 = f32[] constant(nan), metadata={op_type="aten__mean" op_name="aten__mean" source_file="/usr/local/lib/python3.10/site-packages/torch/_ops.py" source_line=756}
  %select.183 = f32[] select(pred[] %compare.182, f32[] %divide.181, f32[] %constant.179), metadata={op_type="aten__mean" op_name="aten__mean" source_file="/usr/local/lib/python3.10/site-packages/torch/_ops.py" source_line=756}
  %broadcast.184 = f32[64]{0} broadcast(f32[] %select.183), dimensions={}, metadata={op_type="aten__mean" op_name="aten__mean" source_file="/usr/local/lib/python3.10/site-packages/torch/_ops.py" source_line=756}
  %multiply.185 = f32[64]{0} multiply(f32[64]{0} %reduce.176, f32[64]{0} %broadcast.184), metadata={op_type="aten__mean" op_name="aten__mean" source_file="/usr/local/lib/python3.10/site-packages/torch/_ops.py" source_line=756}
  %reshape.186 = f32[64,1]{1,0} reshape(f32[64]{0} %multiply.185), metadata={op_type="aten__mean" op_name="aten__mean" source_file="/usr/local/lib/python3.10/site-packages/torch/_ops.py" source_line=756}
  %convert.187 = f32[64,1]{1,0} convert(f32[64,1]{1,0} %reshape.186), metadata={op_type="aten__mean" op_name="aten__mean" source_file="/usr/local/lib/python3.10/site-packages/torch/_ops.py" source_line=756}
  %constant.166 = f32[] constant(1), metadata={op_type="prim__Constant" op_name="prim__Constant" source_file="/usr/local/lib/python3.10/site-packages/torch/_ops.py" source_line=756}
  %multiply.188 = f32[] multiply(f32[] %p1.4, f32[] %constant.166), metadata={op_type="aten__add" op_name="aten__add.1046/aten__add" source_file="/usr/local/lib/python3.10/site-packages/torch/_ops.py" source_line=756}
  %broadcast.189 = f32[64,1]{1,0} broadcast(f32[] %multiply.188), dimensions={}, metadata={op_type="aten__add" op_name="aten__add.1046/aten__add" source_file="/usr/local/lib/python3.10/site-packages/torch/_ops.py" source_line=756}
  %add.190 = f32[64,1]{1,0} add(f32[64,1]{1,0} %convert.187, f32[64,1]{1,0} %broadcast.189), metadata={op_type="aten__add" op_name="aten__add.1046/aten__add" source_file="/usr/local/lib/python3.10/site-packages/torch/_ops.py" source_line=756}
  %rsqrt.191 = f32[64,1]{1,0} rsqrt(f32[64,1]{1,0} %add.190), metadata={op_type="aten__rsqrt" op_name="aten__rsqrt" source_file="/usr/local/lib/python3.10/site-packages/torch/_ops.py" source_line=756}
  %reshape.192 = f32[64]{0} reshape(f32[64,1]{1,0} %rsqrt.191), metadata={op_type="aten__mul" op_name="aten__mul.1047/aten__mul" source_file="/usr/local/lib/python3.10/site-packages/torch/_ops.py" source_line=756}
  %broadcast.193 = f32[64,1024]{1,0} broadcast(f32[64]{0} %reshape.192), dimensions={0}, metadata={op_type="aten__mul" op_name="aten__mul.1047/aten__mul" source_file="/usr/local/lib/python3.10/site-packages/torch/_ops.py" source_line=756}
  %multiply.194 = f32[64,1024]{1,0} multiply(f32[64,1024]{1,0} %add.157, f32[64,1024]{1,0} %broadcast.193), metadata={op_type="aten__mul" op_name="aten__mul.1047/aten__mul" source_file="/usr/local/lib/python3.10/site-packages/torch/_ops.py" source_line=756}
  %convert.195 = bf16[64,1024]{1,0} convert(f32[64,1024]{1,0} %multiply.194), metadata={op_type="xla__cast" op_name="xla__cast" source_file="/usr/local/lib/python3.10/site-packages/torch/_ops.py" source_line=756}
  %convert.196 = f32[64,1024]{1,0} convert(bf16[64,1024]{1,0} %convert.195), metadata={op_type="xla__cast" op_name="xla__cast" source_file="/usr/local/lib/python3.10/site-packages/torch/_ops.py" source_line=756}
  %p13.164 = bf16[1024]{0} parameter(13), metadata={op_type="xla__device_data" op_name="xla__device_data" source_file="/usr/local/lib/python3.10/site-packages/torch_xla/_dynamo/dynamo_bridge.py" source_line=355}
  %convert.165 = f32[1024]{0} convert(bf16[1024]{0} %p13.164), metadata={op_type="xla__cast" op_name="xla__cast" source_file="/usr/local/lib/python3.10/site-packages/torch/_ops.py" source_line=756}
  %broadcast.197 = f32[64,1024]{1,0} broadcast(f32[1024]{0} %convert.165), dimensions={1}, metadata={op_type="aten__mul" op_name="aten__mul.1048/aten__mul" source_file="/usr/local/lib/python3.10/site-packages/torch/_ops.py" source_line=756}
  %multiply.198 = f32[64,1024]{1,0} multiply(f32[64,1024]{1,0} %convert.196, f32[64,1024]{1,0} %broadcast.197), metadata={op_type="aten__mul" op_name="aten__mul.1048/aten__mul" source_file="/usr/local/lib/python3.10/site-packages/torch/_ops.py" source_line=756}
  %convert.199 = bf16[64,1024]{1,0} convert(f32[64,1024]{1,0} %multiply.198), metadata={op_type="xla__cast" op_name="xla__cast" source_file="/usr/local/lib/python3.10/site-packages/torch/_ops.py" source_line=756}
  %p12.162 = bf16[6144,1024]{1,0} parameter(12), metadata={op_type="xla__device_data" op_name="xla__device_data" source_file="/usr/local/lib/python3.10/site-packages/torch_xla/_dynamo/dynamo_bridge.py" source_line=355}
  %transpose.163 = bf16[1024,6144]{0,1} transpose(bf16[6144,1024]{1,0} %p12.162), dimensions={1,0}, metadata={op_type="aten__permute" op_name="aten__permute" source_file="/usr/local/lib/python3.10/site-packages/torch/_ops.py" source_line=756}
  %dot.200 = bf16[64,6144]{1,0} dot(bf16[64,1024]{1,0} %convert.199, bf16[1024,6144]{0,1} %transpose.163), lhs_contracting_dims={1}, rhs_contracting_dims={0}, metadata={op_type="aten__mm" op_name="aten__mm" source_file="/usr/local/lib/python3.10/site-packages/torch/_ops.py" source_line=756}
  %slice.203 = bf16[64,3072]{1,0} slice(bf16[64,6144]{1,0} %dot.200), slice={[0:64], [0:3072]}, metadata={op_type="xla__select" op_name="xla__select" source_file="/usr/local/lib/python3.10/site-packages/torch/_ops.py" source_line=756}
  %logistic.204 = bf16[64,3072]{1,0} logistic(bf16[64,3072]{1,0} %slice.203), metadata={op_type="aten__silu" op_name="aten__silu" source_file="/usr/local/lib/python3.10/site-packages/torch/_ops.py" source_line=756}
  %multiply.205 = bf16[64,3072]{1,0} multiply(bf16[64,3072]{1,0} %slice.203, bf16[64,3072]{1,0} %logistic.204), metadata={op_type="aten__silu" op_name="aten__silu" source_file="/usr/local/lib/python3.10/site-packages/torch/_ops.py" source_line=756}
  %convert.206 = f32[64,3072]{1,0} convert(bf16[64,3072]{1,0} %multiply.205), metadata={op_type="xla__cast" op_name="xla__cast" source_file="/usr/local/lib/python3.10/site-packages/torch/_ops.py" source_line=756}
  %slice.201 = bf16[64,3072]{1,0} slice(bf16[64,6144]{1,0} %dot.200), slice={[0:64], [3072:6144]}, metadata={op_type="xla__select" op_name="xla__select" source_file="/usr/local/lib/python3.10/site-packages/torch/_ops.py" source_line=756}
  %convert.202 = f32[64,3072]{1,0} convert(bf16[64,3072]{1,0} %slice.201), metadata={op_type="xla__cast" op_name="xla__cast" source_file="/usr/local/lib/python3.10/site-packages/torch/_ops.py" source_line=756}
  %multiply.207 = f32[64,3072]{1,0} multiply(f32[64,3072]{1,0} %convert.206, f32[64,3072]{1,0} %convert.202), metadata={op_type="aten__mul" op_name="aten__mul.1049/aten__mul" source_file="/usr/local/lib/python3.10/site-packages/torch/_ops.py" source_line=756}
  %convert.208 = bf16[64,3072]{1,0} convert(f32[64,3072]{1,0} %multiply.207), metadata={op_type="xla__cast" op_name="xla__cast" source_file="/usr/local/lib/python3.10/site-packages/torch/_ops.py" source_line=756}
  %p11.160 = bf16[1024,3072]{1,0} parameter(11), metadata={op_type="xla__device_data" op_name="xla__device_data" source_file="/usr/local/lib/python3.10/site-packages/torch_xla/_dynamo/dynamo_bridge.py" source_line=355}
  %transpose.161 = bf16[3072,1024]{0,1} transpose(bf16[1024,3072]{1,0} %p11.160), dimensions={1,0}, metadata={op_type="aten__permute" op_name="aten__permute" source_file="/usr/local/lib/python3.10/site-packages/torch/_ops.py" source_line=756}
  %dot.209 = bf16[64,1024]{1,0} dot(bf16[64,3072]{1,0} %convert.208, bf16[3072,1024]{0,1} %transpose.161), lhs_contracting_dims={1}, rhs_contracting_dims={0}, metadata={op_type="aten__mm" op_name="aten__mm" source_file="/usr/local/lib/python3.10/site-packages/torch/_ops.py" source_line=756}
  %convert.210 = f32[64,1024]{1,0} convert(bf16[64,1024]{1,0} %dot.209), metadata={op_type="xla__cast" op_name="xla__cast" source_file="/usr/local/lib/python3.10/site-packages/torch/_ops.py" source_line=756}
  %convert.158 = bf16[64,1024]{1,0} convert(f32[64,1024]{1,0} %add.157), metadata={op_type="xla__cast" op_name="xla__cast" source_file="/usr/local/lib/python3.10/site-packages/torch/_ops.py" source_line=756}
  %convert.159 = f32[64,1024]{1,0} convert(bf16[64,1024]{1,0} %convert.158), metadata={op_type="xla__cast" op_name="xla__cast" source_file="/usr/local/lib/python3.10/site-packages/torch/_ops.py" source_line=756}
  %constant.62 = f32[] constant(1), metadata={op_type="prim__Constant" op_name="prim__Constant" source_file="/usr/local/lib/python3.10/site-packages/torch/_ops.py" source_line=756}
  %broadcast.211 = f32[64,1024]{1,0} broadcast(f32[] %constant.62), dimensions={}, metadata={op_type="aten__add" op_name="aten__add.1050/aten__add" source_file="/usr/local/lib/python3.10/site-packages/torch/_ops.py" source_line=756}
  %multiply.212 = f32[64,1024]{1,0} multiply(f32[64,1024]{1,0} %convert.159, f32[64,1024]{1,0} %broadcast.211), metadata={op_type="aten__add" op_name="aten__add.1050/aten__add" source_file="/usr/local/lib/python3.10/site-packages/torch/_ops.py" source_line=756}
  %add.213 = f32[64,1024]{1,0} add(f32[64,1024]{1,0} %convert.210, f32[64,1024]{1,0} %multiply.212), metadata={op_type="aten__add" op_name="aten__add.1050/aten__add" source_file="/usr/local/lib/python3.10/site-packages/torch/_ops.py" source_line=756}
  %convert.214 = bf16[64,1024]{1,0} convert(f32[64,1024]{1,0} %add.213), metadata={op_type="xla__cast" op_name="xla__cast" source_file="/usr/local/lib/python3.10/site-packages/torch/_ops.py" source_line=756}
  %convert.215 = f32[64,1024]{1,0} convert(bf16[64,1024]{1,0} %convert.214), metadata={op_type="xla__cast" op_name="xla__cast" source_file="/usr/local/lib/python3.10/site-packages/torch/_ops.py" source_line=756}
  %constant.61 = f32[] constant(1), metadata={op_type="prim__Constant" op_name="prim__Constant" source_file="/usr/local/lib/python3.10/site-packages/torch/_ops.py" source_line=756}
  %broadcast.227 = f32[64,1024]{1,0} broadcast(f32[] %constant.61), dimensions={}, metadata={op_type="aten__add" op_name="aten__add.1063/aten__add" source_file="/usr/local/lib/python3.10/site-packages/torch/_ops.py" source_line=756}
  %multiply.228 = f32[64,1024]{1,0} multiply(f32[64,1024]{1,0} %convert.215, f32[64,1024]{1,0} %broadcast.227), metadata={op_type="aten__add" op_name="aten__add.1063/aten__add" source_file="/usr/local/lib/python3.10/site-packages/torch/_ops.py" source_line=756}
  %add.229 = f32[64,1024]{1,0} add(f32[64,1024]{1,0} %convert.226, f32[64,1024]{1,0} %multiply.228), metadata={op_type="aten__add" op_name="aten__add.1063/aten__add" source_file="/usr/local/lib/python3.10/site-packages/torch/_ops.py" source_line=756}
  %constant.239 = f32[] constant(2), metadata={op_type="prim__Constant" op_name="prim__Constant" source_file="/usr/local/lib/python3.10/site-packages/torch/_ops.py" source_line=756}
  %broadcast.240 = f32[64,1024]{1,0} broadcast(f32[] %constant.239), dimensions={}, metadata={op_type="aten__pow" op_name="aten__pow" source_file="/usr/local/lib/python3.10/site-packages/torch/_ops.py" source_line=756}
  %power.241 = f32[64,1024]{1,0} power(f32[64,1024]{1,0} %add.229, f32[64,1024]{1,0} %broadcast.240), metadata={op_type="aten__pow" op_name="aten__pow" source_file="/usr/local/lib/python3.10/site-packages/torch/_ops.py" source_line=756}
  %constant.242 = f32[] constant(0), metadata={op_type="aten__mean" op_name="aten__mean" source_file="/usr/local/lib/python3.10/site-packages/torch/_ops.py" source_line=756}
  %reduce.248 = f32[64]{0} reduce(f32[64,1024]{1,0} %power.241, f32[] %constant.242), dimensions={1}, to_apply=%AddComputation.244, metadata={op_type="aten__mean" op_name="aten__mean" source_file="/usr/local/lib/python3.10/site-packages/torch/_ops.py" source_line=756}
  %constant.243 = s32[] constant(1024), metadata={op_type="aten__mean" op_name="aten__mean" source_file="/usr/local/lib/python3.10/site-packages/torch/_ops.py" source_line=756}
  %constant.249 = s32[] constant(0), metadata={op_type="aten__mean" op_name="aten__mean" source_file="/usr/local/lib/python3.10/site-packages/torch/_ops.py" source_line=756}
  %compare.254 = pred[] compare(s32[] %constant.243, s32[] %constant.249), direction=NE, metadata={op_type="aten__mean" op_name="aten__mean" source_file="/usr/local/lib/python3.10/site-packages/torch/_ops.py" source_line=756}
  %constant.250 = f32[] constant(1), metadata={op_type="aten__mean" op_name="aten__mean" source_file="/usr/local/lib/python3.10/site-packages/torch/_ops.py" source_line=756}
  %convert.252 = f32[] convert(s32[] %constant.243), metadata={op_type="aten__mean" op_name="aten__mean" source_file="/usr/local/lib/python3.10/site-packages/torch/_ops.py" source_line=756}
  %divide.253 = f32[] divide(f32[] %constant.250, f32[] %convert.252), metadata={op_type="aten__mean" op_name="aten__mean" source_file="/usr/local/lib/python3.10/site-packages/torch/_ops.py" source_line=756}
  %constant.251 = f32[] constant(nan), metadata={op_type="aten__mean" op_name="aten__mean" source_file="/usr/local/lib/python3.10/site-packages/torch/_ops.py" source_line=756}
  %select.255 = f32[] select(pred[] %compare.254, f32[] %divide.253, f32[] %constant.251), metadata={op_type="aten__mean" op_name="aten__mean" source_file="/usr/local/lib/python3.10/site-packages/torch/_ops.py" source_line=756}
  %broadcast.256 = f32[64]{0} broadcast(f32[] %select.255), dimensions={}, metadata={op_type="aten__mean" op_name="aten__mean" source_file="/usr/local/lib/python3.10/site-packages/torch/_ops.py" source_line=756}
  %multiply.257 = f32[64]{0} multiply(f32[64]{0} %reduce.248, f32[64]{0} %broadcast.256), metadata={op_type="aten__mean" op_name="aten__mean" source_file="/usr/local/lib/python3.10/site-packages/torch/_ops.py" source_line=756}
  %reshape.258 = f32[64,1]{1,0} reshape(f32[64]{0} %multiply.257), metadata={op_type="aten__mean" op_name="aten__mean" source_file="/usr/local/lib/python3.10/site-packages/torch/_ops.py" source_line=756}
  %convert.259 = f32[64,1]{1,0} convert(f32[64,1]{1,0} %reshape.258), metadata={op_type="aten__mean" op_name="aten__mean" source_file="/usr/local/lib/python3.10/site-packages/torch/_ops.py" source_line=756}
  %constant.238 = f32[] constant(1), metadata={op_type="prim__Constant" op_name="prim__Constant" source_file="/usr/local/lib/python3.10/site-packages/torch/_ops.py" source_line=756}
  %multiply.260 = f32[] multiply(f32[] %p1.4, f32[] %constant.238), metadata={op_type="aten__add" op_name="aten__add.1064/aten__add" source_file="/usr/local/lib/python3.10/site-packages/torch/_ops.py" source_line=756}
  %broadcast.261 = f32[64,1]{1,0} broadcast(f32[] %multiply.260), dimensions={}, metadata={op_type="aten__add" op_name="aten__add.1064/aten__add" source_file="/usr/local/lib/python3.10/site-packages/torch/_ops.py" source_line=756}
  %add.262 = f32[64,1]{1,0} add(f32[64,1]{1,0} %convert.259, f32[64,1]{1,0} %broadcast.261), metadata={op_type="aten__add" op_name="aten__add.1064/aten__add" source_file="/usr/local/lib/python3.10/site-packages/torch/_ops.py" source_line=756}
  %rsqrt.263 = f32[64,1]{1,0} rsqrt(f32[64,1]{1,0} %add.262), metadata={op_type="aten__rsqrt" op_name="aten__rsqrt" source_file="/usr/local/lib/python3.10/site-packages/torch/_ops.py" source_line=756}
  %reshape.264 = f32[64]{0} reshape(f32[64,1]{1,0} %rsqrt.263), metadata={op_type="aten__mul" op_name="aten__mul.1065/aten__mul" source_file="/usr/local/lib/python3.10/site-packages/torch/_ops.py" source_line=756}
  %broadcast.265 = f32[64,1024]{1,0} broadcast(f32[64]{0} %reshape.264), dimensions={0}, metadata={op_type="aten__mul" op_name="aten__mul.1065/aten__mul" source_file="/usr/local/lib/python3.10/site-packages/torch/_ops.py" source_line=756}
  %multiply.266 = f32[64,1024]{1,0} multiply(f32[64,1024]{1,0} %add.229, f32[64,1024]{1,0} %broadcast.265), metadata={op_type="aten__mul" op_name="aten__mul.1065/aten__mul" source_file="/usr/local/lib/python3.10/site-packages/torch/_ops.py" source_line=756}
  %convert.267 = bf16[64,1024]{1,0} convert(f32[64,1024]{1,0} %multiply.266), metadata={op_type="xla__cast" op_name="xla__cast" source_file="/usr/local/lib/python3.10/site-packages/torch/_ops.py" source_line=756}
  %convert.268 = f32[64,1024]{1,0} convert(bf16[64,1024]{1,0} %convert.267), metadata={op_type="xla__cast" op_name="xla__cast" source_file="/usr/local/lib/python3.10/site-packages/torch/_ops.py" source_line=756}
  %p17.236 = bf16[1024]{0} parameter(17), metadata={op_type="xla__device_data" op_name="xla__device_data" source_file="/usr/local/lib/python3.10/site-packages/torch_xla/_dynamo/dynamo_bridge.py" source_line=355}
  %convert.237 = f32[1024]{0} convert(bf16[1024]{0} %p17.236), metadata={op_type="xla__cast" op_name="xla__cast" source_file="/usr/local/lib/python3.10/site-packages/torch/_ops.py" source_line=756}
  %broadcast.269 = f32[64,1024]{1,0} broadcast(f32[1024]{0} %convert.237), dimensions={1}, metadata={op_type="aten__mul" op_name="aten__mul.1066/aten__mul" source_file="/usr/local/lib/python3.10/site-packages/torch/_ops.py" source_line=756}
  %multiply.270 = f32[64,1024]{1,0} multiply(f32[64,1024]{1,0} %convert.268, f32[64,1024]{1,0} %broadcast.269), metadata={op_type="aten__mul" op_name="aten__mul.1066/aten__mul" source_file="/usr/local/lib/python3.10/site-packages/torch/_ops.py" source_line=756}
  %convert.271 = bf16[64,1024]{1,0} convert(f32[64,1024]{1,0} %multiply.270), metadata={op_type="xla__cast" op_name="xla__cast" source_file="/usr/local/lib/python3.10/site-packages/torch/_ops.py" source_line=756}
  %p16.234 = bf16[6144,1024]{1,0} parameter(16), metadata={op_type="xla__device_data" op_name="xla__device_data" source_file="/usr/local/lib/python3.10/site-packages/torch_xla/_dynamo/dynamo_bridge.py" source_line=355}
  %transpose.235 = bf16[1024,6144]{0,1} transpose(bf16[6144,1024]{1,0} %p16.234), dimensions={1,0}, metadata={op_type="aten__permute" op_name="aten__permute" source_file="/usr/local/lib/python3.10/site-packages/torch/_ops.py" source_line=756}
  %dot.272 = bf16[64,6144]{1,0} dot(bf16[64,1024]{1,0} %convert.271, bf16[1024,6144]{0,1} %transpose.235), lhs_contracting_dims={1}, rhs_contracting_dims={0}, metadata={op_type="aten__mm" op_name="aten__mm" source_file="/usr/local/lib/python3.10/site-packages/torch/_ops.py" source_line=756}
  %slice.275 = bf16[64,3072]{1,0} slice(bf16[64,6144]{1,0} %dot.272), slice={[0:64], [0:3072]}, metadata={op_type="xla__select" op_name="xla__select" source_file="/usr/local/lib/python3.10/site-packages/torch/_ops.py" source_line=756}
  %logistic.276 = bf16[64,3072]{1,0} logistic(bf16[64,3072]{1,0} %slice.275), metadata={op_type="aten__silu" op_name="aten__silu" source_file="/usr/local/lib/python3.10/site-packages/torch/_ops.py" source_line=756}
  %multiply.277 = bf16[64,3072]{1,0} multiply(bf16[64,3072]{1,0} %slice.275, bf16[64,3072]{1,0} %logistic.276), metadata={op_type="aten__silu" op_name="aten__silu" source_file="/usr/local/lib/python3.10/site-packages/torch/_ops.py" source_line=756}
  %convert.278 = f32[64,3072]{1,0} convert(bf16[64,3072]{1,0} %multiply.277), metadata={op_type="xla__cast" op_name="xla__cast" source_file="/usr/local/lib/python3.10/site-packages/torch/_ops.py" source_line=756}
  %slice.273 = bf16[64,3072]{1,0} slice(bf16[64,6144]{1,0} %dot.272), slice={[0:64], [3072:6144]}, metadata={op_type="xla__select" op_name="xla__select" source_file="/usr/local/lib/python3.10/site-packages/torch/_ops.py" source_line=756}
  %convert.274 = f32[64,3072]{1,0} convert(bf16[64,3072]{1,0} %slice.273), metadata={op_type="xla__cast" op_name="xla__cast" source_file="/usr/local/lib/python3.10/site-packages/torch/_ops.py" source_line=756}
  %multiply.279 = f32[64,3072]{1,0} multiply(f32[64,3072]{1,0} %convert.278, f32[64,3072]{1,0} %convert.274), metadata={op_type="aten__mul" op_name="aten__mul.1067/aten__mul" source_file="/usr/local/lib/python3.10/site-packages/torch/_ops.py" source_line=756}
  %convert.280 = bf16[64,3072]{1,0} convert(f32[64,3072]{1,0} %multiply.279), metadata={op_type="xla__cast" op_name="xla__cast" source_file="/usr/local/lib/python3.10/site-packages/torch/_ops.py" source_line=756}
  %p15.232 = bf16[1024,3072]{1,0} parameter(15), metadata={op_type="xla__device_data" op_name="xla__device_data" source_file="/usr/local/lib/python3.10/site-packages/torch_xla/_dynamo/dynamo_bridge.py" source_line=355}
  %transpose.233 = bf16[3072,1024]{0,1} transpose(bf16[1024,3072]{1,0} %p15.232), dimensions={1,0}, metadata={op_type="aten__permute" op_name="aten__permute" source_file="/usr/local/lib/python3.10/site-packages/torch/_ops.py" source_line=756}
  %dot.281 = bf16[64,1024]{1,0} dot(bf16[64,3072]{1,0} %convert.280, bf16[3072,1024]{0,1} %transpose.233), lhs_contracting_dims={1}, rhs_contracting_dims={0}, metadata={op_type="aten__mm" op_name="aten__mm" source_file="/usr/local/lib/python3.10/site-packages/torch/_ops.py" source_line=756}
  %convert.282 = f32[64,1024]{1,0} convert(bf16[64,1024]{1,0} %dot.281), metadata={op_type="xla__cast" op_name="xla__cast" source_file="/usr/local/lib/python3.10/site-packages/torch/_ops.py" source_line=756}
  %convert.230 = bf16[64,1024]{1,0} convert(f32[64,1024]{1,0} %add.229), metadata={op_type="xla__cast" op_name="xla__cast" source_file="/usr/local/lib/python3.10/site-packages/torch/_ops.py" source_line=756}
  %convert.231 = f32[64,1024]{1,0} convert(bf16[64,1024]{1,0} %convert.230), metadata={op_type="xla__cast" op_name="xla__cast" source_file="/usr/local/lib/python3.10/site-packages/torch/_ops.py" source_line=756}
  %constant.60 = f32[] constant(1), metadata={op_type="prim__Constant" op_name="prim__Constant" source_file="/usr/local/lib/python3.10/site-packages/torch/_ops.py" source_line=756}
  %broadcast.283 = f32[64,1024]{1,0} broadcast(f32[] %constant.60), dimensions={}, metadata={op_type="aten__add" op_name="aten__add.1068/aten__add" source_file="/usr/local/lib/python3.10/site-packages/torch/_ops.py" source_line=756}
  %multiply.284 = f32[64,1024]{1,0} multiply(f32[64,1024]{1,0} %convert.231, f32[64,1024]{1,0} %broadcast.283), metadata={op_type="aten__add" op_name="aten__add.1068/aten__add" source_file="/usr/local/lib/python3.10/site-packages/torch/_ops.py" source_line=756}
  %add.285 = f32[64,1024]{1,0} add(f32[64,1024]{1,0} %convert.282, f32[64,1024]{1,0} %multiply.284), metadata={op_type="aten__add" op_name="aten__add.1068/aten__add" source_file="/usr/local/lib/python3.10/site-packages/torch/_ops.py" source_line=756}
  %convert.286 = bf16[64,1024]{1,0} convert(f32[64,1024]{1,0} %add.285), metadata={op_type="xla__cast" op_name="xla__cast" source_file="/usr/local/lib/python3.10/site-packages/torch/_ops.py" source_line=756}
  %convert.287 = f32[64,1024]{1,0} convert(bf16[64,1024]{1,0} %convert.286), metadata={op_type="xla__cast" op_name="xla__cast" source_file="/usr/local/lib/python3.10/site-packages/torch/_ops.py" source_line=756}
  %constant.59 = f32[] constant(1), metadata={op_type="prim__Constant" op_name="prim__Constant" source_file="/usr/local/lib/python3.10/site-packages/torch/_ops.py" source_line=756}
  %broadcast.299 = f32[64,1024]{1,0} broadcast(f32[] %constant.59), dimensions={}, metadata={op_type="aten__add" op_name="aten__add.1081/aten__add" source_file="/usr/local/lib/python3.10/site-packages/torch/_ops.py" source_line=756}
  %multiply.300 = f32[64,1024]{1,0} multiply(f32[64,1024]{1,0} %convert.287, f32[64,1024]{1,0} %broadcast.299), metadata={op_type="aten__add" op_name="aten__add.1081/aten__add" source_file="/usr/local/lib/python3.10/site-packages/torch/_ops.py" source_line=756}
  %add.301 = f32[64,1024]{1,0} add(f32[64,1024]{1,0} %convert.298, f32[64,1024]{1,0} %multiply.300), metadata={op_type="aten__add" op_name="aten__add.1081/aten__add" source_file="/usr/local/lib/python3.10/site-packages/torch/_ops.py" source_line=756}
  %constant.311 = f32[] constant(2), metadata={op_type="prim__Constant" op_name="prim__Constant" source_file="/usr/local/lib/python3.10/site-packages/torch/_ops.py" source_line=756}
  %broadcast.312 = f32[64,1024]{1,0} broadcast(f32[] %constant.311), dimensions={}, metadata={op_type="aten__pow" op_name="aten__pow" source_file="/usr/local/lib/python3.10/site-packages/torch/_ops.py" source_line=756}
  %power.313 = f32[64,1024]{1,0} power(f32[64,1024]{1,0} %add.301, f32[64,1024]{1,0} %broadcast.312), metadata={op_type="aten__pow" op_name="aten__pow" source_file="/usr/local/lib/python3.10/site-packages/torch/_ops.py" source_line=756}
  %constant.314 = f32[] constant(0), metadata={op_type="aten__mean" op_name="aten__mean" source_file="/usr/local/lib/python3.10/site-packages/torch/_ops.py" source_line=756}
  %reduce.320 = f32[64]{0} reduce(f32[64,1024]{1,0} %power.313, f32[] %constant.314), dimensions={1}, to_apply=%AddComputation.316, metadata={op_type="aten__mean" op_name="aten__mean" source_file="/usr/local/lib/python3.10/site-packages/torch/_ops.py" source_line=756}
  %constant.315 = s32[] constant(1024), metadata={op_type="aten__mean" op_name="aten__mean" source_file="/usr/local/lib/python3.10/site-packages/torch/_ops.py" source_line=756}
  %constant.321 = s32[] constant(0), metadata={op_type="aten__mean" op_name="aten__mean" source_file="/usr/local/lib/python3.10/site-packages/torch/_ops.py" source_line=756}
  %compare.326 = pred[] compare(s32[] %constant.315, s32[] %constant.321), direction=NE, metadata={op_type="aten__mean" op_name="aten__mean" source_file="/usr/local/lib/python3.10/site-packages/torch/_ops.py" source_line=756}
  %constant.322 = f32[] constant(1), metadata={op_type="aten__mean" op_name="aten__mean" source_file="/usr/local/lib/python3.10/site-packages/torch/_ops.py" source_line=756}
  %convert.324 = f32[] convert(s32[] %constant.315), metadata={op_type="aten__mean" op_name="aten__mean" source_file="/usr/local/lib/python3.10/site-packages/torch/_ops.py" source_line=756}
  %divide.325 = f32[] divide(f32[] %constant.322, f32[] %convert.324), metadata={op_type="aten__mean" op_name="aten__mean" source_file="/usr/local/lib/python3.10/site-packages/torch/_ops.py" source_line=756}
  %constant.323 = f32[] constant(nan), metadata={op_type="aten__mean" op_name="aten__mean" source_file="/usr/local/lib/python3.10/site-packages/torch/_ops.py" source_line=756}
  %select.327 = f32[] select(pred[] %compare.326, f32[] %divide.325, f32[] %constant.323), metadata={op_type="aten__mean" op_name="aten__mean" source_file="/usr/local/lib/python3.10/site-packages/torch/_ops.py" source_line=756}
  %broadcast.328 = f32[64]{0} broadcast(f32[] %select.327), dimensions={}, metadata={op_type="aten__mean" op_name="aten__mean" source_file="/usr/local/lib/python3.10/site-packages/torch/_ops.py" source_line=756}
  %multiply.329 = f32[64]{0} multiply(f32[64]{0} %reduce.320, f32[64]{0} %broadcast.328), metadata={op_type="aten__mean" op_name="aten__mean" source_file="/usr/local/lib/python3.10/site-packages/torch/_ops.py" source_line=756}
  %reshape.330 = f32[64,1]{1,0} reshape(f32[64]{0} %multiply.329), metadata={op_type="aten__mean" op_name="aten__mean" source_file="/usr/local/lib/python3.10/site-packages/torch/_ops.py" source_line=756}
  %convert.331 = f32[64,1]{1,0} convert(f32[64,1]{1,0} %reshape.330), metadata={op_type="aten__mean" op_name="aten__mean" source_file="/usr/local/lib/python3.10/site-packages/torch/_ops.py" source_line=756}
  %constant.310 = f32[] constant(1), metadata={op_type="prim__Constant" op_name="prim__Constant" source_file="/usr/local/lib/python3.10/site-packages/torch/_ops.py" source_line=756}
  %multiply.332 = f32[] multiply(f32[] %p1.4, f32[] %constant.310), metadata={op_type="aten__add" op_name="aten__add.1082/aten__add" source_file="/usr/local/lib/python3.10/site-packages/torch/_ops.py" source_line=756}
  %broadcast.333 = f32[64,1]{1,0} broadcast(f32[] %multiply.332), dimensions={}, metadata={op_type="aten__add" op_name="aten__add.1082/aten__add" source_file="/usr/local/lib/python3.10/site-packages/torch/_ops.py" source_line=756}
  %add.334 = f32[64,1]{1,0} add(f32[64,1]{1,0} %convert.331, f32[64,1]{1,0} %broadcast.333), metadata={op_type="aten__add" op_name="aten__add.1082/aten__add" source_file="/usr/local/lib/python3.10/site-packages/torch/_ops.py" source_line=756}
  %rsqrt.335 = f32[64,1]{1,0} rsqrt(f32[64,1]{1,0} %add.334), metadata={op_type="aten__rsqrt" op_name="aten__rsqrt" source_file="/usr/local/lib/python3.10/site-packages/torch/_ops.py" source_line=756}
  %reshape.336 = f32[64]{0} reshape(f32[64,1]{1,0} %rsqrt.335), metadata={op_type="aten__mul" op_name="aten__mul.1083/aten__mul" source_file="/usr/local/lib/python3.10/site-packages/torch/_ops.py" source_line=756}
  %broadcast.337 = f32[64,1024]{1,0} broadcast(f32[64]{0} %reshape.336), dimensions={0}, metadata={op_type="aten__mul" op_name="aten__mul.1083/aten__mul" source_file="/usr/local/lib/python3.10/site-packages/torch/_ops.py" source_line=756}
  %multiply.338 = f32[64,1024]{1,0} multiply(f32[64,1024]{1,0} %add.301, f32[64,1024]{1,0} %broadcast.337), metadata={op_type="aten__mul" op_name="aten__mul.1083/aten__mul" source_file="/usr/local/lib/python3.10/site-packages/torch/_ops.py" source_line=756}
  %convert.339 = bf16[64,1024]{1,0} convert(f32[64,1024]{1,0} %multiply.338), metadata={op_type="xla__cast" op_name="xla__cast" source_file="/usr/local/lib/python3.10/site-packages/torch/_ops.py" source_line=756}
  %convert.340 = f32[64,1024]{1,0} convert(bf16[64,1024]{1,0} %convert.339), metadata={op_type="xla__cast" op_name="xla__cast" source_file="/usr/local/lib/python3.10/site-packages/torch/_ops.py" source_line=756}
  %p21.308 = bf16[1024]{0} parameter(21), metadata={op_type="xla__device_data" op_name="xla__device_data" source_file="/usr/local/lib/python3.10/site-packages/torch_xla/_dynamo/dynamo_bridge.py" source_line=355}
  %convert.309 = f32[1024]{0} convert(bf16[1024]{0} %p21.308), metadata={op_type="xla__cast" op_name="xla__cast" source_file="/usr/local/lib/python3.10/site-packages/torch/_ops.py" source_line=756}
  %broadcast.341 = f32[64,1024]{1,0} broadcast(f32[1024]{0} %convert.309), dimensions={1}, metadata={op_type="aten__mul" op_name="aten__mul.1084/aten__mul" source_file="/usr/local/lib/python3.10/site-packages/torch/_ops.py" source_line=756}
  %multiply.342 = f32[64,1024]{1,0} multiply(f32[64,1024]{1,0} %convert.340, f32[64,1024]{1,0} %broadcast.341), metadata={op_type="aten__mul" op_name="aten__mul.1084/aten__mul" source_file="/usr/local/lib/python3.10/site-packages/torch/_ops.py" source_line=756}
  %convert.343 = bf16[64,1024]{1,0} convert(f32[64,1024]{1,0} %multiply.342), metadata={op_type="xla__cast" op_name="xla__cast" source_file="/usr/local/lib/python3.10/site-packages/torch/_ops.py" source_line=756}
  %p20.306 = bf16[6144,1024]{1,0} parameter(20), metadata={op_type="xla__device_data" op_name="xla__device_data" source_file="/usr/local/lib/python3.10/site-packages/torch_xla/_dynamo/dynamo_bridge.py" source_line=355}
  %transpose.307 = bf16[1024,6144]{0,1} transpose(bf16[6144,1024]{1,0} %p20.306), dimensions={1,0}, metadata={op_type="aten__permute" op_name="aten__permute" source_file="/usr/local/lib/python3.10/site-packages/torch/_ops.py" source_line=756}
  %dot.344 = bf16[64,6144]{1,0} dot(bf16[64,1024]{1,0} %convert.343, bf16[1024,6144]{0,1} %transpose.307), lhs_contracting_dims={1}, rhs_contracting_dims={0}, metadata={op_type="aten__mm" op_name="aten__mm" source_file="/usr/local/lib/python3.10/site-packages/torch/_ops.py" source_line=756}
  %slice.347 = bf16[64,3072]{1,0} slice(bf16[64,6144]{1,0} %dot.344), slice={[0:64], [0:3072]}, metadata={op_type="xla__select" op_name="xla__select" source_file="/usr/local/lib/python3.10/site-packages/torch/_ops.py" source_line=756}
  %logistic.348 = bf16[64,3072]{1,0} logistic(bf16[64,3072]{1,0} %slice.347), metadata={op_type="aten__silu" op_name="aten__silu" source_file="/usr/local/lib/python3.10/site-packages/torch/_ops.py" source_line=756}
  %multiply.349 = bf16[64,3072]{1,0} multiply(bf16[64,3072]{1,0} %slice.347, bf16[64,3072]{1,0} %logistic.348), metadata={op_type="aten__silu" op_name="aten__silu" source_file="/usr/local/lib/python3.10/site-packages/torch/_ops.py" source_line=756}
  %convert.350 = f32[64,3072]{1,0} convert(bf16[64,3072]{1,0} %multiply.349), metadata={op_type="xla__cast" op_name="xla__cast" source_file="/usr/local/lib/python3.10/site-packages/torch/_ops.py" source_line=756}
  %slice.345 = bf16[64,3072]{1,0} slice(bf16[64,6144]{1,0} %dot.344), slice={[0:64], [3072:6144]}, metadata={op_type="xla__select" op_name="xla__select" source_file="/usr/local/lib/python3.10/site-packages/torch/_ops.py" source_line=756}
  %convert.346 = f32[64,3072]{1,0} convert(bf16[64,3072]{1,0} %slice.345), metadata={op_type="xla__cast" op_name="xla__cast" source_file="/usr/local/lib/python3.10/site-packages/torch/_ops.py" source_line=756}
  %multiply.351 = f32[64,3072]{1,0} multiply(f32[64,3072]{1,0} %convert.350, f32[64,3072]{1,0} %convert.346), metadata={op_type="aten__mul" op_name="aten__mul.1085/aten__mul" source_file="/usr/local/lib/python3.10/site-packages/torch/_ops.py" source_line=756}
  %convert.352 = bf16[64,3072]{1,0} convert(f32[64,3072]{1,0} %multiply.351), metadata={op_type="xla__cast" op_name="xla__cast" source_file="/usr/local/lib/python3.10/site-packages/torch/_ops.py" source_line=756}
  %p19.304 = bf16[1024,3072]{1,0} parameter(19), metadata={op_type="xla__device_data" op_name="xla__device_data" source_file="/usr/local/lib/python3.10/site-packages/torch_xla/_dynamo/dynamo_bridge.py" source_line=355}
  %transpose.305 = bf16[3072,1024]{0,1} transpose(bf16[1024,3072]{1,0} %p19.304), dimensions={1,0}, metadata={op_type="aten__permute" op_name="aten__permute" source_file="/usr/local/lib/python3.10/site-packages/torch/_ops.py" source_line=756}
  %dot.353 = bf16[64,1024]{1,0} dot(bf16[64,3072]{1,0} %convert.352, bf16[3072,1024]{0,1} %transpose.305), lhs_contracting_dims={1}, rhs_contracting_dims={0}, metadata={op_type="aten__mm" op_name="aten__mm" source_file="/usr/local/lib/python3.10/site-packages/torch/_ops.py" source_line=756}
  %convert.354 = f32[64,1024]{1,0} convert(bf16[64,1024]{1,0} %dot.353), metadata={op_type="xla__cast" op_name="xla__cast" source_file="/usr/local/lib/python3.10/site-packages/torch/_ops.py" source_line=756}
  %convert.302 = bf16[64,1024]{1,0} convert(f32[64,1024]{1,0} %add.301), metadata={op_type="xla__cast" op_name="xla__cast" source_file="/usr/local/lib/python3.10/site-packages/torch/_ops.py" source_line=756}
  %convert.303 = f32[64,1024]{1,0} convert(bf16[64,1024]{1,0} %convert.302), metadata={op_type="xla__cast" op_name="xla__cast" source_file="/usr/local/lib/python3.10/site-packages/torch/_ops.py" source_line=756}
  %constant.58 = f32[] constant(1), metadata={op_type="prim__Constant" op_name="prim__Constant" source_file="/usr/local/lib/python3.10/site-packages/torch/_ops.py" source_line=756}
  %broadcast.355 = f32[64,1024]{1,0} broadcast(f32[] %constant.58), dimensions={}, metadata={op_type="aten__add" op_name="aten__add.1086/aten__add" source_file="/usr/local/lib/python3.10/site-packages/torch/_ops.py" source_line=756}
  %multiply.356 = f32[64,1024]{1,0} multiply(f32[64,1024]{1,0} %convert.303, f32[64,1024]{1,0} %broadcast.355), metadata={op_type="aten__add" op_name="aten__add.1086/aten__add" source_file="/usr/local/lib/python3.10/site-packages/torch/_ops.py" source_line=756}
  %add.357 = f32[64,1024]{1,0} add(f32[64,1024]{1,0} %convert.354, f32[64,1024]{1,0} %multiply.356), metadata={op_type="aten__add" op_name="aten__add.1086/aten__add" source_file="/usr/local/lib/python3.10/site-packages/torch/_ops.py" source_line=756}
  %convert.358 = bf16[64,1024]{1,0} convert(f32[64,1024]{1,0} %add.357), metadata={op_type="xla__cast" op_name="xla__cast" source_file="/usr/local/lib/python3.10/site-packages/torch/_ops.py" source_line=756}
  %convert.359 = f32[64,1024]{1,0} convert(bf16[64,1024]{1,0} %convert.358), metadata={op_type="xla__cast" op_name="xla__cast" source_file="/usr/local/lib/python3.10/site-packages/torch/_ops.py" source_line=756}
  %constant.57 = f32[] constant(1), metadata={op_type="prim__Constant" op_name="prim__Constant" source_file="/usr/local/lib/python3.10/site-packages/torch/_ops.py" source_line=756}
  %broadcast.371 = f32[64,1024]{1,0} broadcast(f32[] %constant.57), dimensions={}, metadata={op_type="aten__add" op_name="aten__add.1099/aten__add" source_file="/usr/local/lib/python3.10/site-packages/torch/_ops.py" source_line=756}
  %multiply.372 = f32[64,1024]{1,0} multiply(f32[64,1024]{1,0} %convert.359, f32[64,1024]{1,0} %broadcast.371), metadata={op_type="aten__add" op_name="aten__add.1099/aten__add" source_file="/usr/local/lib/python3.10/site-packages/torch/_ops.py" source_line=756}
  %add.373 = f32[64,1024]{1,0} add(f32[64,1024]{1,0} %convert.370, f32[64,1024]{1,0} %multiply.372), metadata={op_type="aten__add" op_name="aten__add.1099/aten__add" source_file="/usr/local/lib/python3.10/site-packages/torch/_ops.py" source_line=756}
  %constant.383 = f32[] constant(2), metadata={op_type="prim__Constant" op_name="prim__Constant" source_file="/usr/local/lib/python3.10/site-packages/torch/_ops.py" source_line=756}
  %broadcast.384 = f32[64,1024]{1,0} broadcast(f32[] %constant.383), dimensions={}, metadata={op_type="aten__pow" op_name="aten__pow" source_file="/usr/local/lib/python3.10/site-packages/torch/_ops.py" source_line=756}
  %power.385 = f32[64,1024]{1,0} power(f32[64,1024]{1,0} %add.373, f32[64,1024]{1,0} %broadcast.384), metadata={op_type="aten__pow" op_name="aten__pow" source_file="/usr/local/lib/python3.10/site-packages/torch/_ops.py" source_line=756}
  %constant.386 = f32[] constant(0), metadata={op_type="aten__mean" op_name="aten__mean" source_file="/usr/local/lib/python3.10/site-packages/torch/_ops.py" source_line=756}
  %reduce.392 = f32[64]{0} reduce(f32[64,1024]{1,0} %power.385, f32[] %constant.386), dimensions={1}, to_apply=%AddComputation.388, metadata={op_type="aten__mean" op_name="aten__mean" source_file="/usr/local/lib/python3.10/site-packages/torch/_ops.py" source_line=756}
  %constant.387 = s32[] constant(1024), metadata={op_type="aten__mean" op_name="aten__mean" source_file="/usr/local/lib/python3.10/site-packages/torch/_ops.py" source_line=756}
  %constant.393 = s32[] constant(0), metadata={op_type="aten__mean" op_name="aten__mean" source_file="/usr/local/lib/python3.10/site-packages/torch/_ops.py" source_line=756}
  %compare.398 = pred[] compare(s32[] %constant.387, s32[] %constant.393), direction=NE, metadata={op_type="aten__mean" op_name="aten__mean" source_file="/usr/local/lib/python3.10/site-packages/torch/_ops.py" source_line=756}
  %constant.394 = f32[] constant(1), metadata={op_type="aten__mean" op_name="aten__mean" source_file="/usr/local/lib/python3.10/site-packages/torch/_ops.py" source_line=756}
  %convert.396 = f32[] convert(s32[] %constant.387), metadata={op_type="aten__mean" op_name="aten__mean" source_file="/usr/local/lib/python3.10/site-packages/torch/_ops.py" source_line=756}
  %divide.397 = f32[] divide(f32[] %constant.394, f32[] %convert.396), metadata={op_type="aten__mean" op_name="aten__mean" source_file="/usr/local/lib/python3.10/site-packages/torch/_ops.py" source_line=756}
  %constant.395 = f32[] constant(nan), metadata={op_type="aten__mean" op_name="aten__mean" source_file="/usr/local/lib/python3.10/site-packages/torch/_ops.py" source_line=756}
  %select.399 = f32[] select(pred[] %compare.398, f32[] %divide.397, f32[] %constant.395), metadata={op_type="aten__mean" op_name="aten__mean" source_file="/usr/local/lib/python3.10/site-packages/torch/_ops.py" source_line=756}
  %broadcast.400 = f32[64]{0} broadcast(f32[] %select.399), dimensions={}, metadata={op_type="aten__mean" op_name="aten__mean" source_file="/usr/local/lib/python3.10/site-packages/torch/_ops.py" source_line=756}
  %multiply.401 = f32[64]{0} multiply(f32[64]{0} %reduce.392, f32[64]{0} %broadcast.400), metadata={op_type="aten__mean" op_name="aten__mean" source_file="/usr/local/lib/python3.10/site-packages/torch/_ops.py" source_line=756}
  %reshape.402 = f32[64,1]{1,0} reshape(f32[64]{0} %multiply.401), metadata={op_type="aten__mean" op_name="aten__mean" source_file="/usr/local/lib/python3.10/site-packages/torch/_ops.py" source_line=756}
  %convert.403 = f32[64,1]{1,0} convert(f32[64,1]{1,0} %reshape.402), metadata={op_type="aten__mean" op_name="aten__mean" source_file="/usr/local/lib/python3.10/site-packages/torch/_ops.py" source_line=756}
  %constant.382 = f32[] constant(1), metadata={op_type="prim__Constant" op_name="prim__Constant" source_file="/usr/local/lib/python3.10/site-packages/torch/_ops.py" source_line=756}
  %multiply.404 = f32[] multiply(f32[] %p1.4, f32[] %constant.382), metadata={op_type="aten__add" op_name="aten__add.1100/aten__add" source_file="/usr/local/lib/python3.10/site-packages/torch/_ops.py" source_line=756}
  %broadcast.405 = f32[64,1]{1,0} broadcast(f32[] %multiply.404), dimensions={}, metadata={op_type="aten__add" op_name="aten__add.1100/aten__add" source_file="/usr/local/lib/python3.10/site-packages/torch/_ops.py" source_line=756}
  %add.406 = f32[64,1]{1,0} add(f32[64,1]{1,0} %convert.403, f32[64,1]{1,0} %broadcast.405), metadata={op_type="aten__add" op_name="aten__add.1100/aten__add" source_file="/usr/local/lib/python3.10/site-packages/torch/_ops.py" source_line=756}
  %rsqrt.407 = f32[64,1]{1,0} rsqrt(f32[64,1]{1,0} %add.406), metadata={op_type="aten__rsqrt" op_name="aten__rsqrt" source_file="/usr/local/lib/python3.10/site-packages/torch/_ops.py" source_line=756}
  %reshape.408 = f32[64]{0} reshape(f32[64,1]{1,0} %rsqrt.407), metadata={op_type="aten__mul" op_name="aten__mul.1101/aten__mul" source_file="/usr/local/lib/python3.10/site-packages/torch/_ops.py" source_line=756}
  %broadcast.409 = f32[64,1024]{1,0} broadcast(f32[64]{0} %reshape.408), dimensions={0}, metadata={op_type="aten__mul" op_name="aten__mul.1101/aten__mul" source_file="/usr/local/lib/python3.10/site-packages/torch/_ops.py" source_line=756}
  %multiply.410 = f32[64,1024]{1,0} multiply(f32[64,1024]{1,0} %add.373, f32[64,1024]{1,0} %broadcast.409), metadata={op_type="aten__mul" op_name="aten__mul.1101/aten__mul" source_file="/usr/local/lib/python3.10/site-packages/torch/_ops.py" source_line=756}
  %convert.411 = bf16[64,1024]{1,0} convert(f32[64,1024]{1,0} %multiply.410), metadata={op_type="xla__cast" op_name="xla__cast" source_file="/usr/local/lib/python3.10/site-packages/torch/_ops.py" source_line=756}
  %convert.412 = f32[64,1024]{1,0} convert(bf16[64,1024]{1,0} %convert.411), metadata={op_type="xla__cast" op_name="xla__cast" source_file="/usr/local/lib/python3.10/site-packages/torch/_ops.py" source_line=756}
  %p25.380 = bf16[1024]{0} parameter(25), metadata={op_type="xla__device_data" op_name="xla__device_data" source_file="/usr/local/lib/python3.10/site-packages/torch_xla/_dynamo/dynamo_bridge.py" source_line=355}
  %convert.381 = f32[1024]{0} convert(bf16[1024]{0} %p25.380), metadata={op_type="xla__cast" op_name="xla__cast" source_file="/usr/local/lib/python3.10/site-packages/torch/_ops.py" source_line=756}
  %broadcast.413 = f32[64,1024]{1,0} broadcast(f32[1024]{0} %convert.381), dimensions={1}, metadata={op_type="aten__mul" op_name="aten__mul.1102/aten__mul" source_file="/usr/local/lib/python3.10/site-packages/torch/_ops.py" source_line=756}
  %multiply.414 = f32[64,1024]{1,0} multiply(f32[64,1024]{1,0} %convert.412, f32[64,1024]{1,0} %broadcast.413), metadata={op_type="aten__mul" op_name="aten__mul.1102/aten__mul" source_file="/usr/local/lib/python3.10/site-packages/torch/_ops.py" source_line=756}
  %convert.415 = bf16[64,1024]{1,0} convert(f32[64,1024]{1,0} %multiply.414), metadata={op_type="xla__cast" op_name="xla__cast" source_file="/usr/local/lib/python3.10/site-packages/torch/_ops.py" source_line=756}
  %p24.378 = bf16[6144,1024]{1,0} parameter(24), metadata={op_type="xla__device_data" op_name="xla__device_data" source_file="/usr/local/lib/python3.10/site-packages/torch_xla/_dynamo/dynamo_bridge.py" source_line=355}
  %transpose.379 = bf16[1024,6144]{0,1} transpose(bf16[6144,1024]{1,0} %p24.378), dimensions={1,0}, metadata={op_type="aten__permute" op_name="aten__permute" source_file="/usr/local/lib/python3.10/site-packages/torch/_ops.py" source_line=756}
  %dot.416 = bf16[64,6144]{1,0} dot(bf16[64,1024]{1,0} %convert.415, bf16[1024,6144]{0,1} %transpose.379), lhs_contracting_dims={1}, rhs_contracting_dims={0}, metadata={op_type="aten__mm" op_name="aten__mm" source_file="/usr/local/lib/python3.10/site-packages/torch/_ops.py" source_line=756}
  %slice.419 = bf16[64,3072]{1,0} slice(bf16[64,6144]{1,0} %dot.416), slice={[0:64], [0:3072]}, metadata={op_type="xla__select" op_name="xla__select" source_file="/usr/local/lib/python3.10/site-packages/torch/_ops.py" source_line=756}
  %logistic.420 = bf16[64,3072]{1,0} logistic(bf16[64,3072]{1,0} %slice.419), metadata={op_type="aten__silu" op_name="aten__silu" source_file="/usr/local/lib/python3.10/site-packages/torch/_ops.py" source_line=756}
  %multiply.421 = bf16[64,3072]{1,0} multiply(bf16[64,3072]{1,0} %slice.419, bf16[64,3072]{1,0} %logistic.420), metadata={op_type="aten__silu" op_name="aten__silu" source_file="/usr/local/lib/python3.10/site-packages/torch/_ops.py" source_line=756}
  %convert.422 = f32[64,3072]{1,0} convert(bf16[64,3072]{1,0} %multiply.421), metadata={op_type="xla__cast" op_name="xla__cast" source_file="/usr/local/lib/python3.10/site-packages/torch/_ops.py" source_line=756}
  %slice.417 = bf16[64,3072]{1,0} slice(bf16[64,6144]{1,0} %dot.416), slice={[0:64], [3072:6144]}, metadata={op_type="xla__select" op_name="xla__select" source_file="/usr/local/lib/python3.10/site-packages/torch/_ops.py" source_line=756}
  %convert.418 = f32[64,3072]{1,0} convert(bf16[64,3072]{1,0} %slice.417), metadata={op_type="xla__cast" op_name="xla__cast" source_file="/usr/local/lib/python3.10/site-packages/torch/_ops.py" source_line=756}
  %multiply.423 = f32[64,3072]{1,0} multiply(f32[64,3072]{1,0} %convert.422, f32[64,3072]{1,0} %convert.418), metadata={op_type="aten__mul" op_name="aten__mul.1103/aten__mul" source_file="/usr/local/lib/python3.10/site-packages/torch/_ops.py" source_line=756}
  %convert.424 = bf16[64,3072]{1,0} convert(f32[64,3072]{1,0} %multiply.423), metadata={op_type="xla__cast" op_name="xla__cast" source_file="/usr/local/lib/python3.10/site-packages/torch/_ops.py" source_line=756}
  %p23.376 = bf16[1024,3072]{1,0} parameter(23), metadata={op_type="xla__device_data" op_name="xla__device_data" source_file="/usr/local/lib/python3.10/site-packages/torch_xla/_dynamo/dynamo_bridge.py" source_line=355}
  %transpose.377 = bf16[3072,1024]{0,1} transpose(bf16[1024,3072]{1,0} %p23.376), dimensions={1,0}, metadata={op_type="aten__permute" op_name="aten__permute" source_file="/usr/local/lib/python3.10/site-packages/torch/_ops.py" source_line=756}
  %dot.425 = bf16[64,1024]{1,0} dot(bf16[64,3072]{1,0} %convert.424, bf16[3072,1024]{0,1} %transpose.377), lhs_contracting_dims={1}, rhs_contracting_dims={0}, metadata={op_type="aten__mm" op_name="aten__mm" source_file="/usr/local/lib/python3.10/site-packages/torch/_ops.py" source_line=756}
  %convert.426 = f32[64,1024]{1,0} convert(bf16[64,1024]{1,0} %dot.425), metadata={op_type="xla__cast" op_name="xla__cast" source_file="/usr/local/lib/python3.10/site-packages/torch/_ops.py" source_line=756}
  %convert.374 = bf16[64,1024]{1,0} convert(f32[64,1024]{1,0} %add.373), metadata={op_type="xla__cast" op_name="xla__cast" source_file="/usr/local/lib/python3.10/site-packages/torch/_ops.py" source_line=756}
  %convert.375 = f32[64,1024]{1,0} convert(bf16[64,1024]{1,0} %convert.374), metadata={op_type="xla__cast" op_name="xla__cast" source_file="/usr/local/lib/python3.10/site-packages/torch/_ops.py" source_line=756}
  %constant.56 = f32[] constant(1), metadata={op_type="prim__Constant" op_name="prim__Constant" source_file="/usr/local/lib/python3.10/site-packages/torch/_ops.py" source_line=756}
  %broadcast.427 = f32[64,1024]{1,0} broadcast(f32[] %constant.56), dimensions={}, metadata={op_type="aten__add" op_name="aten__add.1104/aten__add" source_file="/usr/local/lib/python3.10/site-packages/torch/_ops.py" source_line=756}
  %multiply.428 = f32[64,1024]{1,0} multiply(f32[64,1024]{1,0} %convert.375, f32[64,1024]{1,0} %broadcast.427), metadata={op_type="aten__add" op_name="aten__add.1104/aten__add" source_file="/usr/local/lib/python3.10/site-packages/torch/_ops.py" source_line=756}
  %add.429 = f32[64,1024]{1,0} add(f32[64,1024]{1,0} %convert.426, f32[64,1024]{1,0} %multiply.428), metadata={op_type="aten__add" op_name="aten__add.1104/aten__add" source_file="/usr/local/lib/python3.10/site-packages/torch/_ops.py" source_line=756}
  %convert.430 = bf16[64,1024]{1,0} convert(f32[64,1024]{1,0} %add.429), metadata={op_type="xla__cast" op_name="xla__cast" source_file="/usr/local/lib/python3.10/site-packages/torch/_ops.py" source_line=756}
  %convert.431 = f32[64,1024]{1,0} convert(bf16[64,1024]{1,0} %convert.430), metadata={op_type="xla__cast" op_name="xla__cast" source_file="/usr/local/lib/python3.10/site-packages/torch/_ops.py" source_line=756}
  %constant.55 = f32[] constant(1), metadata={op_type="prim__Constant" op_name="prim__Constant" source_file="/usr/local/lib/python3.10/site-packages/torch/_ops.py" source_line=756}
  %broadcast.443 = f32[64,1024]{1,0} broadcast(f32[] %constant.55), dimensions={}, metadata={op_type="aten__add" op_name="aten__add.1117/aten__add" source_file="/usr/local/lib/python3.10/site-packages/torch/_ops.py" source_line=756}
  %multiply.444 = f32[64,1024]{1,0} multiply(f32[64,1024]{1,0} %convert.431, f32[64,1024]{1,0} %broadcast.443), metadata={op_type="aten__add" op_name="aten__add.1117/aten__add" source_file="/usr/local/lib/python3.10/site-packages/torch/_ops.py" source_line=756}
  %add.445 = f32[64,1024]{1,0} add(f32[64,1024]{1,0} %convert.442, f32[64,1024]{1,0} %multiply.444), metadata={op_type="aten__add" op_name="aten__add.1117/aten__add" source_file="/usr/local/lib/python3.10/site-packages/torch/_ops.py" source_line=756}
  %constant.455 = f32[] constant(2), metadata={op_type="prim__Constant" op_name="prim__Constant" source_file="/usr/local/lib/python3.10/site-packages/torch/_ops.py" source_line=756}
  %broadcast.456 = f32[64,1024]{1,0} broadcast(f32[] %constant.455), dimensions={}, metadata={op_type="aten__pow" op_name="aten__pow" source_file="/usr/local/lib/python3.10/site-packages/torch/_ops.py" source_line=756}
  %power.457 = f32[64,1024]{1,0} power(f32[64,1024]{1,0} %add.445, f32[64,1024]{1,0} %broadcast.456), metadata={op_type="aten__pow" op_name="aten__pow" source_file="/usr/local/lib/python3.10/site-packages/torch/_ops.py" source_line=756}
  %constant.458 = f32[] constant(0), metadata={op_type="aten__mean" op_name="aten__mean" source_file="/usr/local/lib/python3.10/site-packages/torch/_ops.py" source_line=756}
  %reduce.464 = f32[64]{0} reduce(f32[64,1024]{1,0} %power.457, f32[] %constant.458), dimensions={1}, to_apply=%AddComputation.460, metadata={op_type="aten__mean" op_name="aten__mean" source_file="/usr/local/lib/python3.10/site-packages/torch/_ops.py" source_line=756}
  %constant.459 = s32[] constant(1024), metadata={op_type="aten__mean" op_name="aten__mean" source_file="/usr/local/lib/python3.10/site-packages/torch/_ops.py" source_line=756}
  %constant.465 = s32[] constant(0), metadata={op_type="aten__mean" op_name="aten__mean" source_file="/usr/local/lib/python3.10/site-packages/torch/_ops.py" source_line=756}
  %compare.470 = pred[] compare(s32[] %constant.459, s32[] %constant.465), direction=NE, metadata={op_type="aten__mean" op_name="aten__mean" source_file="/usr/local/lib/python3.10/site-packages/torch/_ops.py" source_line=756}
  %constant.466 = f32[] constant(1), metadata={op_type="aten__mean" op_name="aten__mean" source_file="/usr/local/lib/python3.10/site-packages/torch/_ops.py" source_line=756}
  %convert.468 = f32[] convert(s32[] %constant.459), metadata={op_type="aten__mean" op_name="aten__mean" source_file="/usr/local/lib/python3.10/site-packages/torch/_ops.py" source_line=756}
  %divide.469 = f32[] divide(f32[] %constant.466, f32[] %convert.468), metadata={op_type="aten__mean" op_name="aten__mean" source_file="/usr/local/lib/python3.10/site-packages/torch/_ops.py" source_line=756}
  %constant.467 = f32[] constant(nan), metadata={op_type="aten__mean" op_name="aten__mean" source_file="/usr/local/lib/python3.10/site-packages/torch/_ops.py" source_line=756}
  %select.471 = f32[] select(pred[] %compare.470, f32[] %divide.469, f32[] %constant.467), metadata={op_type="aten__mean" op_name="aten__mean" source_file="/usr/local/lib/python3.10/site-packages/torch/_ops.py" source_line=756}
  %broadcast.472 = f32[64]{0} broadcast(f32[] %select.471), dimensions={}, metadata={op_type="aten__mean" op_name="aten__mean" source_file="/usr/local/lib/python3.10/site-packages/torch/_ops.py" source_line=756}
  %multiply.473 = f32[64]{0} multiply(f32[64]{0} %reduce.464, f32[64]{0} %broadcast.472), metadata={op_type="aten__mean" op_name="aten__mean" source_file="/usr/local/lib/python3.10/site-packages/torch/_ops.py" source_line=756}
  %reshape.474 = f32[64,1]{1,0} reshape(f32[64]{0} %multiply.473), metadata={op_type="aten__mean" op_name="aten__mean" source_file="/usr/local/lib/python3.10/site-packages/torch/_ops.py" source_line=756}
  %convert.475 = f32[64,1]{1,0} convert(f32[64,1]{1,0} %reshape.474), metadata={op_type="aten__mean" op_name="aten__mean" source_file="/usr/local/lib/python3.10/site-packages/torch/_ops.py" source_line=756}
  %constant.454 = f32[] constant(1), metadata={op_type="prim__Constant" op_name="prim__Constant" source_file="/usr/local/lib/python3.10/site-packages/torch/_ops.py" source_line=756}
  %multiply.476 = f32[] multiply(f32[] %p1.4, f32[] %constant.454), metadata={op_type="aten__add" op_name="aten__add.1118/aten__add" source_file="/usr/local/lib/python3.10/site-packages/torch/_ops.py" source_line=756}
  %broadcast.477 = f32[64,1]{1,0} broadcast(f32[] %multiply.476), dimensions={}, metadata={op_type="aten__add" op_name="aten__add.1118/aten__add" source_file="/usr/local/lib/python3.10/site-packages/torch/_ops.py" source_line=756}
  %add.478 = f32[64,1]{1,0} add(f32[64,1]{1,0} %convert.475, f32[64,1]{1,0} %broadcast.477), metadata={op_type="aten__add" op_name="aten__add.1118/aten__add" source_file="/usr/local/lib/python3.10/site-packages/torch/_ops.py" source_line=756}
  %rsqrt.479 = f32[64,1]{1,0} rsqrt(f32[64,1]{1,0} %add.478), metadata={op_type="aten__rsqrt" op_name="aten__rsqrt" source_file="/usr/local/lib/python3.10/site-packages/torch/_ops.py" source_line=756}
…
  %multiply.1922 = f32[64,1024]{1,0} multiply(f32[64,1024]{1,0} %add.1885, f32[64,1024]{1,0} %broadcast.1921), metadata={op_type="aten__mul" op_name="aten__mul.1479/aten__mul" source_file="/usr/local/lib/python3.10/site-packages/torch/_ops.py" source_line=756}
  %convert.1923 = bf16[64,1024]{1,0} convert(f32[64,1024]{1,0} %multiply.1922), metadata={op_type="xla__cast" op_name="xla__cast" source_file="/usr/local/lib/python3.10/site-packages/torch/_ops.py" source_line=756}
  %convert.1924 = f32[64,1024]{1,0} convert(bf16[64,1024]{1,0} %convert.1923), metadata={op_type="xla__cast" op_name="xla__cast" source_file="/usr/local/lib/python3.10/site-packages/torch/_ops.py" source_line=756}
  %p109.1892 = bf16[1024]{0} parameter(109), metadata={op_type="xla__device_data" op_name="xla__device_data" source_file="/usr/local/lib/python3.10/site-packages/torch_xla/_dynamo/dynamo_bridge.py" source_line=355}
  %convert.1893 = f32[1024]{0} convert(bf16[1024]{0} %p109.1892), metadata={op_type="xla__cast" op_name="xla__cast" source_file="/usr/local/lib/python3.10/site-packages/torch/_ops.py" source_line=756}
  %broadcast.1925 = f32[64,1024]{1,0} broadcast(f32[1024]{0} %convert.1893), dimensions={1}, metadata={op_type="aten__mul" op_name="aten__mul.1480/aten__mul" source_file="/usr/local/lib/python3.10/site-packages/torch/_ops.py" source_line=756}
  %multiply.1926 = f32[64,1024]{1,0} multiply(f32[64,1024]{1,0} %convert.1924, f32[64,1024]{1,0} %broadcast.1925), metadata={op_type="aten__mul" op_name="aten__mul.1480/aten__mul" source_file="/usr/local/lib/python3.10/site-packages/torch/_ops.py" source_line=756}
  %convert.1927 = bf16[64,1024]{1,0} convert(f32[64,1024]{1,0} %multiply.1926), metadata={op_type="xla__cast" op_name="xla__cast" source_file="/usr/local/lib/python3.10/site-packages/torch/_ops.py" source_line=756}
  %p108.1890 = bf16[6144,1024]{1,0} parameter(108), metadata={op_type="xla__device_data" op_name="xla__device_data" source_file="/usr/local/lib/python3.10/site-packages/torch_xla/_dynamo/dynamo_bridge.py" source_line=355}
  %transpose.1891 = bf16[1024,6144]{0,1} transpose(bf16[6144,1024]{1,0} %p108.1890), dimensions={1,0}, metadata={op_type="aten__permute" op_name="aten__permute" source_file="/usr/local/lib/python3.10/site-packages/torch/_ops.py" source_line=756}
  %dot.1928 = bf16[64,6144]{1,0} dot(bf16[64,1024]{1,0} %convert.1927, bf16[1024,6144]{0,1} %transpose.1891), lhs_contracting_dims={1}, rhs_contracting_dims={0}, metadata={op_type="aten__mm" op_name="aten__mm" source_file="/usr/local/lib/python3.10/site-packages/torch/_ops.py" source_line=756}
  %slice.1931 = bf16[64,3072]{1,0} slice(bf16[64,6144]{1,0} %dot.1928), slice={[0:64], [0:3072]}, metadata={op_type="xla__select" op_name="xla__select" source_file="/usr/local/lib/python3.10/site-packages/torch/_ops.py" source_line=756}
  %logistic.1932 = bf16[64,3072]{1,0} logistic(bf16[64,3072]{1,0} %slice.1931), metadata={op_type="aten__silu" op_name="aten__silu" source_file="/usr/local/lib/python3.10/site-packages/torch/_ops.py" source_line=756}
  %multiply.1933 = bf16[64,3072]{1,0} multiply(bf16[64,3072]{1,0} %slice.1931, bf16[64,3072]{1,0} %logistic.1932), metadata={op_type="aten__silu" op_name="aten__silu" source_file="/usr/local/lib/python3.10/site-packages/torch/_ops.py" source_line=756}
  %convert.1934 = f32[64,3072]{1,0} convert(bf16[64,3072]{1,0} %multiply.1933), metadata={op_type="xla__cast" op_name="xla__cast" source_file="/usr/local/lib/python3.10/site-packages/torch/_ops.py" source_line=756}
  %slice.1929 = bf16[64,3072]{1,0} slice(bf16[64,6144]{1,0} %dot.1928), slice={[0:64], [3072:6144]}, metadata={op_type="xla__select" op_name="xla__select" source_file="/usr/local/lib/python3.10/site-packages/torch/_ops.py" source_line=756}
  %convert.1930 = f32[64,3072]{1,0} convert(bf16[64,3072]{1,0} %slice.1929), metadata={op_type="xla__cast" op_name="xla__cast" source_file="/usr/local/lib/python3.10/site-packages/torch/_ops.py" source_line=756}
  %multiply.1935 = f32[64,3072]{1,0} multiply(f32[64,3072]{1,0} %convert.1934, f32[64,3072]{1,0} %convert.1930), metadata={op_type="aten__mul" op_name="aten__mul.1481/aten__mul" source_file="/usr/local/lib/python3.10/site-packages/torch/_ops.py" source_line=756}
  %convert.1936 = bf16[64,3072]{1,0} convert(f32[64,3072]{1,0} %multiply.1935), metadata={op_type="xla__cast" op_name="xla__cast" source_file="/usr/local/lib/python3.10/site-packages/torch/_ops.py" source_line=756}
  %p107.1888 = bf16[1024,3072]{1,0} parameter(107), metadata={op_type="xla__device_data" op_name="xla__device_data" source_file="/usr/local/lib/python3.10/site-packages/torch_xla/_dynamo/dynamo_bridge.py" source_line=355}
  %transpose.1889 = bf16[3072,1024]{0,1} transpose(bf16[1024,3072]{1,0} %p107.1888), dimensions={1,0}, metadata={op_type="aten__permute" op_name="aten__permute" source_file="/usr/local/lib/python3.10/site-packages/torch/_ops.py" source_line=756}
  %dot.1937 = bf16[64,1024]{1,0} dot(bf16[64,3072]{1,0} %convert.1936, bf16[3072,1024]{0,1} %transpose.1889), lhs_contracting_dims={1}, rhs_contracting_dims={0}, metadata={op_type="aten__mm" op_name="aten__mm" source_file="/usr/local/lib/python3.10/site-packages/torch/_ops.py" source_line=756}
  %convert.1938 = f32[64,1024]{1,0} convert(bf16[64,1024]{1,0} %dot.1937), metadata={op_type="xla__cast" op_name="xla__cast" source_file="/usr/local/lib/python3.10/site-packages/torch/_ops.py" source_line=756}
  %convert.1886 = bf16[64,1024]{1,0} convert(f32[64,1024]{1,0} %add.1885), metadata={op_type="xla__cast" op_name="xla__cast" source_file="/usr/local/lib/python3.10/site-packages/torch/_ops.py" source_line=756}
  %convert.1887 = f32[64,1024]{1,0} convert(bf16[64,1024]{1,0} %convert.1886), metadata={op_type="xla__cast" op_name="xla__cast" source_file="/usr/local/lib/python3.10/site-packages/torch/_ops.py" source_line=756}
  %constant.14 = f32[] constant(1), metadata={op_type="prim__Constant" op_name="prim__Constant" source_file="/usr/local/lib/python3.10/site-packages/torch/_ops.py" source_line=756}
  %broadcast.1939 = f32[64,1024]{1,0} broadcast(f32[] %constant.14), dimensions={}, metadata={op_type="aten__add" op_name="aten__add.1482/aten__add" source_file="/usr/local/lib/python3.10/site-packages/torch/_ops.py" source_line=756}
  %multiply.1940 = f32[64,1024]{1,0} multiply(f32[64,1024]{1,0} %convert.1887, f32[64,1024]{1,0} %broadcast.1939), metadata={op_type="aten__add" op_name="aten__add.1482/aten__add" source_file="/usr/local/lib/python3.10/site-packages/torch/_ops.py" source_line=756}
  %add.1941 = f32[64,1024]{1,0} add(f32[64,1024]{1,0} %convert.1938, f32[64,1024]{1,0} %multiply.1940), metadata={op_type="aten__add" op_name="aten__add.1482/aten__add" source_file="/usr/local/lib/python3.10/site-packages/torch/_ops.py" source_line=756}
  %convert.1942 = bf16[64,1024]{1,0} convert(f32[64,1024]{1,0} %add.1941), metadata={op_type="xla__cast" op_name="xla__cast" source_file="/usr/local/lib/python3.10/site-packages/torch/_ops.py" source_line=756}
  %convert.1943 = f32[64,1024]{1,0} convert(bf16[64,1024]{1,0} %convert.1942), metadata={op_type="xla__cast" op_name="xla__cast" source_file="/usr/local/lib/python3.10/site-packages/torch/_ops.py" source_line=756}
  %constant.13 = f32[] constant(1), metadata={op_type="prim__Constant" op_name="prim__Constant" source_file="/usr/local/lib/python3.10/site-packages/torch/_ops.py" source_line=756}
  %broadcast.1955 = f32[64,1024]{1,0} broadcast(f32[] %constant.13), dimensions={}, metadata={op_type="aten__add" op_name="aten__add.1495/aten__add" source_file="/usr/local/lib/python3.10/site-packages/torch/_ops.py" source_line=756}
  %multiply.1956 = f32[64,1024]{1,0} multiply(f32[64,1024]{1,0} %convert.1943, f32[64,1024]{1,0} %broadcast.1955), metadata={op_type="aten__add" op_name="aten__add.1495/aten__add" source_file="/usr/local/lib/python3.10/site-packages/torch/_ops.py" source_line=756}
  %add.1957 = f32[64,1024]{1,0} add(f32[64,1024]{1,0} %convert.1954, f32[64,1024]{1,0} %multiply.1956), metadata={op_type="aten__add" op_name="aten__add.1495/aten__add" source_file="/usr/local/lib/python3.10/site-packages/torch/_ops.py" source_line=756}
  %constant.1967 = f32[] constant(2), metadata={op_type="prim__Constant" op_name="prim__Constant" source_file="/usr/local/lib/python3.10/site-packages/torch/_ops.py" source_line=756}
  %broadcast.1968 = f32[64,1024]{1,0} broadcast(f32[] %constant.1967), dimensions={}, metadata={op_type="aten__pow" op_name="aten__pow" source_file="/usr/local/lib/python3.10/site-packages/torch/_ops.py" source_line=756}
  %power.1969 = f32[64,1024]{1,0} power(f32[64,1024]{1,0} %add.1957, f32[64,1024]{1,0} %broadcast.1968), metadata={op_type="aten__pow" op_name="aten__pow" source_file="/usr/local/lib/python3.10/site-packages/torch/_ops.py" source_line=756}
  %constant.1970 = f32[] constant(0), metadata={op_type="aten__mean" op_name="aten__mean" source_file="/usr/local/lib/python3.10/site-packages/torch/_ops.py" source_line=756}
  %reduce.1976 = f32[64]{0} reduce(f32[64,1024]{1,0} %power.1969, f32[] %constant.1970), dimensions={1}, to_apply=%AddComputation.1972, metadata={op_type="aten__mean" op_name="aten__mean" source_file="/usr/local/lib/python3.10/site-packages/torch/_ops.py" source_line=756}
  %constant.1971 = s32[] constant(1024), metadata={op_type="aten__mean" op_name="aten__mean" source_file="/usr/local/lib/python3.10/site-packages/torch/_ops.py" source_line=756}
  %constant.1977 = s32[] constant(0), metadata={op_type="aten__mean" op_name="aten__mean" source_file="/usr/local/lib/python3.10/site-packages/torch/_ops.py" source_line=756}
  %compare.1982 = pred[] compare(s32[] %constant.1971, s32[] %constant.1977), direction=NE, metadata={op_type="aten__mean" op_name="aten__mean" source_file="/usr/local/lib/python3.10/site-packages/torch/_ops.py" source_line=756}
  %constant.1978 = f32[] constant(1), metadata={op_type="aten__mean" op_name="aten__mean" source_file="/usr/local/lib/python3.10/site-packages/torch/_ops.py" source_line=756}
  %convert.1980 = f32[] convert(s32[] %constant.1971), metadata={op_type="aten__mean" op_name="aten__mean" source_file="/usr/local/lib/python3.10/site-packages/torch/_ops.py" source_line=756}
  %divide.1981 = f32[] divide(f32[] %constant.1978, f32[] %convert.1980), metadata={op_type="aten__mean" op_name="aten__mean" source_file="/usr/local/lib/python3.10/site-packages/torch/_ops.py" source_line=756}
  %constant.1979 = f32[] constant(nan), metadata={op_type="aten__mean" op_name="aten__mean" source_file="/usr/local/lib/python3.10/site-packages/torch/_ops.py" source_line=756}
  %select.1983 = f32[] select(pred[] %compare.1982, f32[] %divide.1981, f32[] %constant.1979), metadata={op_type="aten__mean" op_name="aten__mean" source_file="/usr/local/lib/python3.10/site-packages/torch/_ops.py" source_line=756}
  %broadcast.1984 = f32[64]{0} broadcast(f32[] %select.1983), dimensions={}, metadata={op_type="aten__mean" op_name="aten__mean" source_file="/usr/local/lib/python3.10/site-packages/torch/_ops.py" source_line=756}
  %multiply.1985 = f32[64]{0} multiply(f32[64]{0} %reduce.1976, f32[64]{0} %broadcast.1984), metadata={op_type="aten__mean" op_name="aten__mean" source_file="/usr/local/lib/python3.10/site-packages/torch/_ops.py" source_line=756}
  %reshape.1986 = f32[64,1]{1,0} reshape(f32[64]{0} %multiply.1985), metadata={op_type="aten__mean" op_name="aten__mean" source_file="/usr/local/lib/python3.10/site-packages/torch/_ops.py" source_line=756}
  %convert.1987 = f32[64,1]{1,0} convert(f32[64,1]{1,0} %reshape.1986), metadata={op_type="aten__mean" op_name="aten__mean" source_file="/usr/local/lib/python3.10/site-packages/torch/_ops.py" source_line=756}
  %constant.1966 = f32[] constant(1), metadata={op_type="prim__Constant" op_name="prim__Constant" source_file="/usr/local/lib/python3.10/site-packages/torch/_ops.py" source_line=756}
  %multiply.1988 = f32[] multiply(f32[] %p1.4, f32[] %constant.1966), metadata={op_type="aten__add" op_name="aten__add.1496/aten__add" source_file="/usr/local/lib/python3.10/site-packages/torch/_ops.py" source_line=756}
  %broadcast.1989 = f32[64,1]{1,0} broadcast(f32[] %multiply.1988), dimensions={}, metadata={op_type="aten__add" op_name="aten__add.1496/aten__add" source_file="/usr/local/lib/python3.10/site-packages/torch/_ops.py" source_line=756}
  %add.1990 = f32[64,1]{1,0} add(f32[64,1]{1,0} %convert.1987, f32[64,1]{1,0} %broadcast.1989), metadata={op_type="aten__add" op_name="aten__add.1496/aten__add" source_file="/usr/local/lib/python3.10/site-packages/torch/_ops.py" source_line=756}
  %rsqrt.1991 = f32[64,1]{1,0} rsqrt(f32[64,1]{1,0} %add.1990), metadata={op_type="aten__rsqrt" op_name="aten__rsqrt" source_file="/usr/local/lib/python3.10/site-packages/torch/_ops.py" source_line=756}
  %reshape.1992 = f32[64]{0} reshape(f32[64,1]{1,0} %rsqrt.1991), metadata={op_type="aten__mul" op_name="aten__mul.1497/aten__mul" source_file="/usr/local/lib/python3.10/site-packages/torch/_ops.py" source_line=756}
  %broadcast.1993 = f32[64,1024]{1,0} broadcast(f32[64]{0} %reshape.1992), dimensions={0}, metadata={op_type="aten__mul" op_name="aten__mul.1497/aten__mul" source_file="/usr/local/lib/python3.10/site-packages/torch/_ops.py" source_line=756}
  %multiply.1994 = f32[64,1024]{1,0} multiply(f32[64,1024]{1,0} %add.1957, f32[64,1024]{1,0} %broadcast.1993), metadata={op_type="aten__mul" op_name="aten__mul.1497/aten__mul" source_file="/usr/local/lib/python3.10/site-packages/torch/_ops.py" source_line=756}
  %convert.1995 = bf16[64,1024]{1,0} convert(f32[64,1024]{1,0} %multiply.1994), metadata={op_type="xla__cast" op_name="xla__cast" source_file="/usr/local/lib/python3.10/site-packages/torch/_ops.py" source_line=756}
  %convert.1996 = f32[64,1024]{1,0} convert(bf16[64,1024]{1,0} %convert.1995), metadata={op_type="xla__cast" op_name="xla__cast" source_file="/usr/local/lib/python3.10/site-packages/torch/_ops.py" source_line=756}
  %p113.1964 = bf16[1024]{0} parameter(113), metadata={op_type="xla__device_data" op_name="xla__device_data" source_file="/usr/local/lib/python3.10/site-packages/torch_xla/_dynamo/dynamo_bridge.py" source_line=355}
  %convert.1965 = f32[1024]{0} convert(bf16[1024]{0} %p113.1964), metadata={op_type="xla__cast" op_name="xla__cast" source_file="/usr/local/lib/python3.10/site-packages/torch/_ops.py" source_line=756}
  %broadcast.1997 = f32[64,1024]{1,0} broadcast(f32[1024]{0} %convert.1965), dimensions={1}, metadata={op_type="aten__mul" op_name="aten__mul.1498/aten__mul" source_file="/usr/local/lib/python3.10/site-packages/torch/_ops.py" source_line=756}
  %multiply.1998 = f32[64,1024]{1,0} multiply(f32[64,1024]{1,0} %convert.1996, f32[64,1024]{1,0} %broadcast.1997), metadata={op_type="aten__mul" op_name="aten__mul.1498/aten__mul" source_file="/usr/local/lib/python3.10/site-packages/torch/_ops.py" source_line=756}
  %convert.1999 = bf16[64,1024]{1,0} convert(f32[64,1024]{1,0} %multiply.1998), metadata={op_type="xla__cast" op_name="xla__cast" source_file="/usr/local/lib/python3.10/site-packages/torch/_ops.py" source_line=756}
  %p112.1962 = bf16[6144,1024]{1,0} parameter(112), metadata={op_type="xla__device_data" op_name="xla__device_data" source_file="/usr/local/lib/python3.10/site-packages/torch_xla/_dynamo/dynamo_bridge.py" source_line=355}
  %transpose.1963 = bf16[1024,6144]{0,1} transpose(bf16[6144,1024]{1,0} %p112.1962), dimensions={1,0}, metadata={op_type="aten__permute" op_name="aten__permute" source_file="/usr/local/lib/python3.10/site-packages/torch/_ops.py" source_line=756}
  %dot.2000 = bf16[64,6144]{1,0} dot(bf16[64,1024]{1,0} %convert.1999, bf16[1024,6144]{0,1} %transpose.1963), lhs_contracting_dims={1}, rhs_contracting_dims={0}, metadata={op_type="aten__mm" op_name="aten__mm" source_file="/usr/local/lib/python3.10/site-packages/torch/_ops.py" source_line=756}
  %slice.2003 = bf16[64,3072]{1,0} slice(bf16[64,6144]{1,0} %dot.2000), slice={[0:64], [0:3072]}, metadata={op_type="xla__select" op_name="xla__select" source_file="/usr/local/lib/python3.10/site-packages/torch/_ops.py" source_line=756}
  %logistic.2004 = bf16[64,3072]{1,0} logistic(bf16[64,3072]{1,0} %slice.2003), metadata={op_type="aten__silu" op_name="aten__silu" source_file="/usr/local/lib/python3.10/site-packages/torch/_ops.py" source_line=756}
  %multiply.2005 = bf16[64,3072]{1,0} multiply(bf16[64,3072]{1,0} %slice.2003, bf16[64,3072]{1,0} %logistic.2004), metadata={op_type="aten__silu" op_name="aten__silu" source_file="/usr/local/lib/python3.10/site-packages/torch/_ops.py" source_line=756}
  %convert.2006 = f32[64,3072]{1,0} convert(bf16[64,3072]{1,0} %multiply.2005), metadata={op_type="xla__cast" op_name="xla__cast" source_file="/usr/local/lib/python3.10/site-packages/torch/_ops.py" source_line=756}
  %slice.2001 = bf16[64,3072]{1,0} slice(bf16[64,6144]{1,0} %dot.2000), slice={[0:64], [3072:6144]}, metadata={op_type="xla__select" op_name="xla__select" source_file="/usr/local/lib/python3.10/site-packages/torch/_ops.py" source_line=756}
  %convert.2002 = f32[64,3072]{1,0} convert(bf16[64,3072]{1,0} %slice.2001), metadata={op_type="xla__cast" op_name="xla__cast" source_file="/usr/local/lib/python3.10/site-packages/torch/_ops.py" source_line=756}
  %multiply.2007 = f32[64,3072]{1,0} multiply(f32[64,3072]{1,0} %convert.2006, f32[64,3072]{1,0} %convert.2002), metadata={op_type="aten__mul" op_name="aten__mul.1499/aten__mul" source_file="/usr/local/lib/python3.10/site-packages/torch/_ops.py" source_line=756}
  %convert.2008 = bf16[64,3072]{1,0} convert(f32[64,3072]{1,0} %multiply.2007), metadata={op_type="xla__cast" op_name="xla__cast" source_file="/usr/local/lib/python3.10/site-packages/torch/_ops.py" source_line=756}
  %p111.1960 = bf16[1024,3072]{1,0} parameter(111), metadata={op_type="xla__device_data" op_name="xla__device_data" source_file="/usr/local/lib/python3.10/site-packages/torch_xla/_dynamo/dynamo_bridge.py" source_line=355}
  %transpose.1961 = bf16[3072,1024]{0,1} transpose(bf16[1024,3072]{1,0} %p111.1960), dimensions={1,0}, metadata={op_type="aten__permute" op_name="aten__permute" source_file="/usr/local/lib/python3.10/site-packages/torch/_ops.py" source_line=756}
  %dot.2009 = bf16[64,1024]{1,0} dot(bf16[64,3072]{1,0} %convert.2008, bf16[3072,1024]{0,1} %transpose.1961), lhs_contracting_dims={1}, rhs_contracting_dims={0}, metadata={op_type="aten__mm" op_name="aten__mm" source_file="/usr/local/lib/python3.10/site-packages/torch/_ops.py" source_line=756}
  %convert.2010 = f32[64,1024]{1,0} convert(bf16[64,1024]{1,0} %dot.2009), metadata={op_type="xla__cast" op_name="xla__cast" source_file="/usr/local/lib/python3.10/site-packages/torch/_ops.py" source_line=756}
  %convert.1958 = bf16[64,1024]{1,0} convert(f32[64,1024]{1,0} %add.1957), metadata={op_type="xla__cast" op_name="xla__cast" source_file="/usr/local/lib/python3.10/site-packages/torch/_ops.py" source_line=756}
  %convert.1959 = f32[64,1024]{1,0} convert(bf16[64,1024]{1,0} %convert.1958), metadata={op_type="xla__cast" op_name="xla__cast" source_file="/usr/local/lib/python3.10/site-packages/torch/_ops.py" source_line=756}
  %constant.12 = f32[] constant(1), metadata={op_type="prim__Constant" op_name="prim__Constant" source_file="/usr/local/lib/python3.10/site-packages/torch/_ops.py" source_line=756}
  %broadcast.2011 = f32[64,1024]{1,0} broadcast(f32[] %constant.12), dimensions={}, metadata={op_type="aten__add" op_name="aten__add.1500/aten__add" source_file="/usr/local/lib/python3.10/site-packages/torch/_ops.py" source_line=756}
  %multiply.2012 = f32[64,1024]{1,0} multiply(f32[64,1024]{1,0} %convert.1959, f32[64,1024]{1,0} %broadcast.2011), metadata={op_type="aten__add" op_name="aten__add.1500/aten__add" source_file="/usr/local/lib/python3.10/site-packages/torch/_ops.py" source_line=756}
  %add.2013 = f32[64,1024]{1,0} add(f32[64,1024]{1,0} %convert.2010, f32[64,1024]{1,0} %multiply.2012), metadata={op_type="aten__add" op_name="aten__add.1500/aten__add" source_file="/usr/local/lib/python3.10/site-packages/torch/_ops.py" source_line=756}
  %constant.11 = f32[] constant(2), metadata={op_type="prim__Constant" op_name="prim__Constant" source_file="/usr/local/lib/python3.10/site-packages/torch/_ops.py" source_line=756}
  %broadcast.2014 = f32[64,1024]{1,0} broadcast(f32[] %constant.11), dimensions={}, metadata={op_type="aten__pow" op_name="aten__pow" source_file="/usr/local/lib/python3.10/site-packages/torch/_ops.py" source_line=756}
  %power.2015 = f32[64,1024]{1,0} power(f32[64,1024]{1,0} %add.2013, f32[64,1024]{1,0} %broadcast.2014), metadata={op_type="aten__pow" op_name="aten__pow" source_file="/usr/local/lib/python3.10/site-packages/torch/_ops.py" source_line=756}
  %constant.2016 = f32[] constant(0), metadata={op_type="aten__mean" op_name="aten__mean" source_file="/usr/local/lib/python3.10/site-packages/torch/_ops.py" source_line=756}
  %reduce.2022 = f32[64]{0} reduce(f32[64,1024]{1,0} %power.2015, f32[] %constant.2016), dimensions={1}, to_apply=%AddComputation.2018, metadata={op_type="aten__mean" op_name="aten__mean" source_file="/usr/local/lib/python3.10/site-packages/torch/_ops.py" source_line=756}
  %constant.2017 = s32[] constant(1024), metadata={op_type="aten__mean" op_name="aten__mean" source_file="/usr/local/lib/python3.10/site-packages/torch/_ops.py" source_line=756}
  %constant.2023 = s32[] constant(0), metadata={op_type="aten__mean" op_name="aten__mean" source_file="/usr/local/lib/python3.10/site-packages/torch/_ops.py" source_line=756}
  %compare.2028 = pred[] compare(s32[] %constant.2017, s32[] %constant.2023), direction=NE, metadata={op_type="aten__mean" op_name="aten__mean" source_file="/usr/local/lib/python3.10/site-packages/torch/_ops.py" source_line=756}
  %constant.2024 = f32[] constant(1), metadata={op_type="aten__mean" op_name="aten__mean" source_file="/usr/local/lib/python3.10/site-packages/torch/_ops.py" source_line=756}
  %convert.2026 = f32[] convert(s32[] %constant.2017), metadata={op_type="aten__mean" op_name="aten__mean" source_file="/usr/local/lib/python3.10/site-packages/torch/_ops.py" source_line=756}
  %divide.2027 = f32[] divide(f32[] %constant.2024, f32[] %convert.2026), metadata={op_type="aten__mean" op_name="aten__mean" source_file="/usr/local/lib/python3.10/site-packages/torch/_ops.py" source_line=756}
  %constant.2025 = f32[] constant(nan), metadata={op_type="aten__mean" op_name="aten__mean" source_file="/usr/local/lib/python3.10/site-packages/torch/_ops.py" source_line=756}
  %select.2029 = f32[] select(pred[] %compare.2028, f32[] %divide.2027, f32[] %constant.2025), metadata={op_type="aten__mean" op_name="aten__mean" source_file="/usr/local/lib/python3.10/site-packages/torch/_ops.py" source_line=756}
  %broadcast.2030 = f32[64]{0} broadcast(f32[] %select.2029), dimensions={}, metadata={op_type="aten__mean" op_name="aten__mean" source_file="/usr/local/lib/python3.10/site-packages/torch/_ops.py" source_line=756}
  %multiply.2031 = f32[64]{0} multiply(f32[64]{0} %reduce.2022, f32[64]{0} %broadcast.2030), metadata={op_type="aten__mean" op_name="aten__mean" source_file="/usr/local/lib/python3.10/site-packages/torch/_ops.py" source_line=756}
  %reshape.2032 = f32[64,1]{1,0} reshape(f32[64]{0} %multiply.2031), metadata={op_type="aten__mean" op_name="aten__mean" source_file="/usr/local/lib/python3.10/site-packages/torch/_ops.py" source_line=756}
  %convert.2033 = f32[64,1]{1,0} convert(f32[64,1]{1,0} %reshape.2032), metadata={op_type="aten__mean" op_name="aten__mean" source_file="/usr/local/lib/python3.10/site-packages/torch/_ops.py" source_line=756}
  %constant.10 = f32[] constant(1), metadata={op_type="prim__Constant" op_name="prim__Constant" source_file="/usr/local/lib/python3.10/site-packages/torch/_ops.py" source_line=756}
  %multiply.2034 = f32[] multiply(f32[] %p1.4, f32[] %constant.10), metadata={op_type="aten__add" op_name="aten__add.1501/aten__add" source_file="/usr/local/lib/python3.10/site-packages/torch/_ops.py" source_line=756}
  %broadcast.2035 = f32[64,1]{1,0} broadcast(f32[] %multiply.2034), dimensions={}, metadata={op_type="aten__add" op_name="aten__add.1501/aten__add" source_file="/usr/local/lib/python3.10/site-packages/torch/_ops.py" source_line=756}
  %add.2036 = f32[64,1]{1,0} add(f32[64,1]{1,0} %convert.2033, f32[64,1]{1,0} %broadcast.2035), metadata={op_type="aten__add" op_name="aten__add.1501/aten__add" source_file="/usr/local/lib/python3.10/site-packages/torch/_ops.py" source_line=756}
  %rsqrt.2037 = f32[64,1]{1,0} rsqrt(f32[64,1]{1,0} %add.2036), metadata={op_type="aten__rsqrt" op_name="aten__rsqrt" source_file="/usr/local/lib/python3.10/site-packages/torch/_ops.py" source_line=756}
  %reshape.2038 = f32[64]{0} reshape(f32[64,1]{1,0} %rsqrt.2037), metadata={op_type="aten__mul" op_name="aten__mul.1502/aten__mul" source_file="/usr/local/lib/python3.10/site-packages/torch/_ops.py" source_line=756}
  %broadcast.2039 = f32[64,1024]{1,0} broadcast(f32[64]{0} %reshape.2038), dimensions={0}, metadata={op_type="aten__mul" op_name="aten__mul.1502/aten__mul" source_file="/usr/local/lib/python3.10/site-packages/torch/_ops.py" source_line=756}
  %multiply.2040 = f32[64,1024]{1,0} multiply(f32[64,1024]{1,0} %add.2013, f32[64,1024]{1,0} %broadcast.2039), metadata={op_type="aten__mul" op_name="aten__mul.1502/aten__mul" source_file="/usr/local/lib/python3.10/site-packages/torch/_ops.py" source_line=756}
  %convert.2041 = bf16[64,1024]{1,0} convert(f32[64,1024]{1,0} %multiply.2040), metadata={op_type="xla__cast" op_name="xla__cast" source_file="/usr/local/lib/python3.10/site-packages/torch/_ops.py" source_line=756}
  %convert.2042 = f32[64,1024]{1,0} convert(bf16[64,1024]{1,0} %convert.2041), metadata={op_type="xla__cast" op_name="xla__cast" source_file="/usr/local/lib/python3.10/site-packages/torch/_ops.py" source_line=756}
  %p3.8 = bf16[1024]{0} parameter(3), metadata={op_type="xla__device_data" op_name="xla__device_data" source_file="/usr/local/lib/python3.10/site-packages/torch_xla/_dynamo/dynamo_bridge.py" source_line=355}
  %convert.9 = f32[1024]{0} convert(bf16[1024]{0} %p3.8), metadata={op_type="xla__cast" op_name="xla__cast" source_file="/usr/local/lib/python3.10/site-packages/torch/_ops.py" source_line=756}
  %broadcast.2043 = f32[64,1024]{1,0} broadcast(f32[1024]{0} %convert.9), dimensions={1}, metadata={op_type="aten__mul" op_name="aten__mul.1503/aten__mul" source_file="/usr/local/lib/python3.10/site-packages/torch/_ops.py" source_line=756}
  %multiply.2044 = f32[64,1024]{1,0} multiply(f32[64,1024]{1,0} %convert.2042, f32[64,1024]{1,0} %broadcast.2043), metadata={op_type="aten__mul" op_name="aten__mul.1503/aten__mul" source_file="/usr/local/lib/python3.10/site-packages/torch/_ops.py" source_line=756}
  %convert.2045 = bf16[64,1024]{1,0} convert(f32[64,1024]{1,0} %multiply.2044), metadata={op_type="xla__cast" op_name="xla__cast" source_file="/usr/local/lib/python3.10/site-packages/torch/_ops.py" source_line=756}
  %p2.6 = bf16[4096,1024]{1,0} parameter(2), metadata={op_type="xla__device_data" op_name="xla__device_data" source_file="/usr/local/lib/python3.10/site-packages/torch_xla/_dynamo/dynamo_bridge.py" source_line=355}
  %transpose.7 = bf16[1024,4096]{0,1} transpose(bf16[4096,1024]{1,0} %p2.6), dimensions={1,0}, metadata={op_type="aten__permute" op_name="aten__permute" source_file="/usr/local/lib/python3.10/site-packages/torch/_ops.py" source_line=756}
  %dot.2046 = bf16[64,4096]{1,0} dot(bf16[64,1024]{1,0} %convert.2045, bf16[1024,4096]{0,1} %transpose.7), lhs_contracting_dims={1}, rhs_contracting_dims={0}, metadata={op_type="aten__mm" op_name="aten__mm" source_file="/usr/local/lib/python3.10/site-packages/torch/_ops.py" source_line=756}
  %slice.2047 = bf16[64,2048]{1,0} slice(bf16[64,4096]{1,0} %dot.2046), slice={[0:64], [0:2048]}, metadata={op_type="aten__split" op_name="aten__split" source_file="/usr/local/lib/python3.10/site-packages/torch/_ops.py" source_line=756}
  %slice.2048 = bf16[64,1024]{1,0} slice(bf16[64,4096]{1,0} %dot.2046), slice={[0:64], [2048:3072]}, metadata={op_type="aten__split" op_name="aten__split" source_file="/usr/local/lib/python3.10/site-packages/torch/_ops.py" source_line=756}
  %reshape.2050 = bf16[64,8,128]{2,1,0} reshape(bf16[64,1024]{1,0} %slice.2048), metadata={op_type="aten__view" op_name="aten__view" source_file="/usr/local/lib/python3.10/site-packages/torch/_ops.py" source_line=756}
  %convert.2051 = f32[64,8,128]{2,1,0} convert(bf16[64,8,128]{2,1,0} %reshape.2050), metadata={op_type="xla__cast" op_name="xla__cast" source_file="/usr/local/lib/python3.10/site-packages/torch/_ops.py" source_line=756}
  %constant.5 = f32[] constant(2), metadata={op_type="prim__Constant" op_name="prim__Constant" source_file="/usr/local/lib/python3.10/site-packages/torch/_ops.py" source_line=756}
  %broadcast.2052 = f32[64,8,128]{2,1,0} broadcast(f32[] %constant.5), dimensions={}, metadata={op_type="aten__pow" op_name="aten__pow" source_file="/usr/local/lib/python3.10/site-packages/torch/_ops.py" source_line=756}
  %power.2053 = f32[64,8,128]{2,1,0} power(f32[64,8,128]{2,1,0} %convert.2051, f32[64,8,128]{2,1,0} %broadcast.2052), metadata={op_type="aten__pow" op_name="aten__pow" source_file="/usr/local/lib/python3.10/site-packages/torch/_ops.py" source_line=756}
  %constant.2054 = f32[] constant(0), metadata={op_type="aten__mean" op_name="aten__mean" source_file="/usr/local/lib/python3.10/site-packages/torch/_ops.py" source_line=756}
  %reduce.2060 = f32[64,8]{1,0} reduce(f32[64,8,128]{2,1,0} %power.2053, f32[] %constant.2054), dimensions={2}, to_apply=%AddComputation.2056, metadata={op_type="aten__mean" op_name="aten__mean" source_file="/usr/local/lib/python3.10/site-packages/torch/_ops.py" source_line=756}
  %constant.2055 = s32[] constant(128), metadata={op_type="aten__mean" op_name="aten__mean" source_file="/usr/local/lib/python3.10/site-packages/torch/_ops.py" source_line=756}
  %constant.2061 = s32[] constant(0), metadata={op_type="aten__mean" op_name="aten__mean" source_file="/usr/local/lib/python3.10/site-packages/torch/_ops.py" source_line=756}
  %compare.2066 = pred[] compare(s32[] %constant.2055, s32[] %constant.2061), direction=NE, metadata={op_type="aten__mean" op_name="aten__mean" source_file="/usr/local/lib/python3.10/site-packages/torch/_ops.py" source_line=756}
  %constant.2062 = f32[] constant(1), metadata={op_type="aten__mean" op_name="aten__mean" source_file="/usr/local/lib/python3.10/site-packages/torch/_ops.py" source_line=756}
  %convert.2064 = f32[] convert(s32[] %constant.2055), metadata={op_type="aten__mean" op_name="aten__mean" source_file="/usr/local/lib/python3.10/site-packages/torch/_ops.py" source_line=756}
  %divide.2065 = f32[] divide(f32[] %constant.2062, f32[] %convert.2064), metadata={op_type="aten__mean" op_name="aten__mean" source_file="/usr/local/lib/python3.10/site-packages/torch/_ops.py" source_line=756}
  %constant.2063 = f32[] constant(nan), metadata={op_type="aten__mean" op_name="aten__mean" source_file="/usr/local/lib/python3.10/site-packages/torch/_ops.py" source_line=756}
  %select.2067 = f32[] select(pred[] %compare.2066, f32[] %divide.2065, f32[] %constant.2063), metadata={op_type="aten__mean" op_name="aten__mean" source_file="/usr/local/lib/python3.10/site-packages/torch/_ops.py" source_line=756}
  %broadcast.2068 = f32[64,8]{1,0} broadcast(f32[] %select.2067), dimensions={}, metadata={op_type="aten__mean" op_name="aten__mean" source_file="/usr/local/lib/python3.10/site-packages/torch/_ops.py" source_line=756}
  %multiply.2069 = f32[64,8]{1,0} multiply(f32[64,8]{1,0} %reduce.2060, f32[64,8]{1,0} %broadcast.2068), metadata={op_type="aten__mean" op_name="aten__mean" source_file="/usr/local/lib/python3.10/site-packages/torch/_ops.py" source_line=756}
  %reshape.2070 = f32[64,8,1]{2,1,0} reshape(f32[64,8]{1,0} %multiply.2069), metadata={op_type="aten__mean" op_name="aten__mean" source_file="/usr/local/lib/python3.10/site-packages/torch/_ops.py" source_line=756}
  %convert.2071 = f32[64,8,1]{2,1,0} convert(f32[64,8,1]{2,1,0} %reshape.2070), metadata={op_type="aten__mean" op_name="aten__mean" source_file="/usr/local/lib/python3.10/site-packages/torch/_ops.py" source_line=756}
  %constant.3 = f32[] constant(1), metadata={op_type="prim__Constant" op_name="prim__Constant" source_file="/usr/local/lib/python3.10/site-packages/torch/_ops.py" source_line=756}
  %multiply.2072 = f32[] multiply(f32[] %p1.4, f32[] %constant.3), metadata={op_type="aten__add" op_name="aten__add.1504/aten__add" source_file="/usr/local/lib/python3.10/site-packages/torch/_ops.py" source_line=756}
  %broadcast.2073 = f32[64,8,1]{2,1,0} broadcast(f32[] %multiply.2072), dimensions={}, metadata={op_type="aten__add" op_name="aten__add.1504/aten__add" source_file="/usr/local/lib/python3.10/site-packages/torch/_ops.py" source_line=756}
  %add.2074 = f32[64,8,1]{2,1,0} add(f32[64,8,1]{2,1,0} %convert.2071, f32[64,8,1]{2,1,0} %broadcast.2073), metadata={op_type="aten__add" op_name="aten__add.1504/aten__add" source_file="/usr/local/lib/python3.10/site-packages/torch/_ops.py" source_line=756}
  %rsqrt.2075 = f32[64,8,1]{2,1,0} rsqrt(f32[64,8,1]{2,1,0} %add.2074), metadata={op_type="aten__rsqrt" op_name="aten__rsqrt" source_file="/usr/local/lib/python3.10/site-packages/torch/_ops.py" source_line=756}
  %reshape.2076 = f32[64,8]{1,0} reshape(f32[64,8,1]{2,1,0} %rsqrt.2075), metadata={op_type="aten__mul" op_name="aten__mul.1505/aten__mul" source_file="/usr/local/lib/python3.10/site-packages/torch/_ops.py" source_line=756}
  %broadcast.2077 = f32[64,8,128]{2,1,0} broadcast(f32[64,8]{1,0} %reshape.2076), dimensions={0,1}, metadata={op_type="aten__mul" op_name="aten__mul.1505/aten__mul" source_file="/usr/local/lib/python3.10/site-packages/torch/_ops.py" source_line=756}
  %multiply.2078 = f32[64,8,128]{2,1,0} multiply(f32[64,8,128]{2,1,0} %convert.2051, f32[64,8,128]{2,1,0} %broadcast.2077), metadata={op_type="aten__mul" op_name="aten__mul.1505/aten__mul" source_file="/usr/local/lib/python3.10/site-packages/torch/_ops.py" source_line=756}
  %convert.2079 = bf16[64,8,128]{2,1,0} convert(f32[64,8,128]{2,1,0} %multiply.2078), metadata={op_type="xla__cast" op_name="xla__cast" source_file="/usr/local/lib/python3.10/site-packages/torch/_ops.py" source_line=756}
  %convert.2080 = f32[64,8,128]{2,1,0} convert(bf16[64,8,128]{2,1,0} %convert.2079), metadata={op_type="xla__cast" op_name="xla__cast" source_file="/usr/local/lib/python3.10/site-packages/torch/_ops.py" source_line=756}
  %p0.1 = bf16[128]{0} parameter(0), metadata={op_type="xla__device_data" op_name="xla__device_data" source_file="/usr/local/lib/python3.10/site-packages/torch_xla/_dynamo/dynamo_bridge.py" source_line=355}
  %convert.2 = f32[128]{0} convert(bf16[128]{0} %p0.1), metadata={op_type="xla__cast" op_name="xla__cast" source_file="/usr/local/lib/python3.10/site-packages/torch/_ops.py" source_line=756}
  %broadcast.2081 = f32[64,8,128]{2,1,0} broadcast(f32[128]{0} %convert.2), dimensions={2}, metadata={op_type="aten__mul" op_name="aten__mul.1506/aten__mul" source_file="/usr/local/lib/python3.10/site-packages/torch/_ops.py" source_line=756}
  %multiply.2082 = f32[64,8,128]{2,1,0} multiply(f32[64,8,128]{2,1,0} %convert.2080, f32[64,8,128]{2,1,0} %broadcast.2081), metadata={op_type="aten__mul" op_name="aten__mul.1506/aten__mul" source_file="/usr/local/lib/python3.10/site-packages/torch/_ops.py" source_line=756}
  %convert.2083 = bf16[64,8,128]{2,1,0} convert(f32[64,8,128]{2,1,0} %multiply.2082), metadata={op_type="xla__cast" op_name="xla__cast" source_file="/usr/local/lib/python3.10/site-packages/torch/_ops.py" source_line=756}
  %reshape.2084 = bf16[64,1024]{1,0} reshape(bf16[64,8,128]{2,1,0} %convert.2083), metadata={op_type="aten__view" op_name="aten__view" source_file="/usr/local/lib/python3.10/site-packages/torch/_ops.py" source_line=756}
  %reshape.2085 = bf16[64,8,128]{2,1,0} reshape(bf16[64,1024]{1,0} %reshape.2084), metadata={op_type="aten__view" op_name="aten__view" source_file="/usr/local/lib/python3.10/site-packages/torch/_ops.py" source_line=756}
  %slice.2095 = bf16[64,8,64]{2,1,0} slice(bf16[64,8,128]{2,1,0} %reshape.2085), slice={[0:64], [0:8], [0:64]}, metadata={op_type="aten__split" op_name="aten__split" source_file="/usr/local/lib/python3.10/site-packages/torch/_ops.py" source_line=756}
  %convert.2120 = f32[64,8,64]{2,1,0} convert(bf16[64,8,64]{2,1,0} %slice.2095), metadata={op_type="xla__cast" op_name="xla__cast" source_file="/usr/local/lib/python3.10/site-packages/torch/_ops.py" source_line=756}
  %p115.2089 = bf16[40960,128]{1,0} parameter(115), metadata={op_type="xla__device_data" op_name="xla__device_data" source_file="/usr/local/lib/python3.10/site-packages/torch_xla/_dynamo/dynamo_bridge.py" source_line=355}
  %p114.2088 = s32[64]{0} parameter(114), metadata={op_type="xla__device_data" op_name="xla__device_data" source_file="/usr/local/lib/python3.10/site-packages/torch_xla/_dynamo/dynamo_bridge.py" source_line=355}
  %gather.2090 = bf16[64,128]{1,0} gather(bf16[40960,128]{1,0} %p115.2089, s32[64]{0} %p114.2088), offset_dims={1}, collapsed_slice_dims={0}, start_index_map={0}, index_vector_dim=1, slice_sizes={1,128}, metadata={op_type="aten__index_select" op_name="aten__index_select" source_file="/usr/local/lib/python3.10/site-packages/torch/_ops.py" source_line=756}
  %slice.2091 = bf16[64,64]{1,0} slice(bf16[64,128]{1,0} %gather.2090), slice={[0:64], [0:64]}, metadata={op_type="aten__split" op_name="aten__split" source_file="/usr/local/lib/python3.10/site-packages/torch/_ops.py" source_line=756}
  %reshape.2102 = bf16[64,1,64]{2,1,0} reshape(bf16[64,64]{1,0} %slice.2091), metadata={op_type="aten__view" op_name="aten__view" source_file="/usr/local/lib/python3.10/site-packages/torch/_ops.py" source_line=756}
  %convert.2119 = f32[64,1,64]{2,1,0} convert(bf16[64,1,64]{2,1,0} %reshape.2102), metadata={op_type="xla__cast" op_name="xla__cast" source_file="/usr/local/lib/python3.10/site-packages/torch/_ops.py" source_line=756}
  %reshape.2121 = f32[64,64]{1,0} reshape(f32[64,1,64]{2,1,0} %convert.2119), metadata={op_type="aten__mul" op_name="aten__mul.1507/aten__mul" source_file="/usr/local/lib/python3.10/site-packages/torch/_ops.py" source_line=756}
  %broadcast.2122 = f32[64,8,64]{2,1,0} broadcast(f32[64,64]{1,0} %reshape.2121), dimensions={0,2}, metadata={op_type="aten__mul" op_name="aten__mul.1507/aten__mul" source_file="/usr/local/lib/python3.10/site-packages/torch/_ops.py" source_line=756}
  %multiply.2123 = f32[64,8,64]{2,1,0} multiply(f32[64,8,64]{2,1,0} %convert.2120, f32[64,8,64]{2,1,0} %broadcast.2122), metadata={op_type="aten__mul" op_name="aten__mul.1507/aten__mul" source_file="/usr/local/lib/python3.10/site-packages/torch/_ops.py" source_line=756}
  %convert.2124 = bf16[64,8,64]{2,1,0} convert(f32[64,8,64]{2,1,0} %multiply.2123), metadata={op_type="xla__cast" op_name="xla__cast" source_file="/usr/local/lib/python3.10/site-packages/torch/_ops.py" source_line=756}
  %slice.2096 = bf16[64,8,64]{2,1,0} slice(bf16[64,8,128]{2,1,0} %reshape.2085), slice={[0:64], [0:8], [64:128]}, metadata={op_type="aten__split" op_name="aten__split" source_file="/usr/local/lib/python3.10/site-packages/torch/_ops.py" source_line=756}
  %convert.2114 = f32[64,8,64]{2,1,0} convert(bf16[64,8,64]{2,1,0} %slice.2096), metadata={op_type="xla__cast" op_name="xla__cast" source_file="/usr/local/lib/python3.10/site-packages/torch/_ops.py" source_line=756}
  %slice.2092 = bf16[64,64]{1,0} slice(bf16[64,128]{1,0} %gather.2090), slice={[0:64], [64:128]}, metadata={op_type="aten__split" op_name="aten__split" source_file="/usr/local/lib/python3.10/site-packages/torch/_ops.py" source_line=756}
  %reshape.2093 = bf16[64,1,64]{2,1,0} reshape(bf16[64,64]{1,0} %slice.2092), metadata={op_type="aten__view" op_name="aten__view" source_file="/usr/local/lib/python3.10/site-packages/torch/_ops.py" source_line=756}
  %convert.2113 = f32[64,1,64]{2,1,0} convert(bf16[64,1,64]{2,1,0} %reshape.2093), metadata={op_type="xla__cast" op_name="xla__cast" source_file="/usr/local/lib/python3.10/site-packages/torch/_ops.py" source_line=756}
  %reshape.2115 = f32[64,64]{1,0} reshape(f32[64,1,64]{2,1,0} %convert.2113), metadata={op_type="aten__mul" op_name="aten__mul.1508/aten__mul" source_file="/usr/local/lib/python3.10/site-packages/torch/_ops.py" source_line=756}
  %broadcast.2116 = f32[64,8,64]{2,1,0} broadcast(f32[64,64]{1,0} %reshape.2115), dimensions={0,2}, metadata={op_type="aten__mul" op_name="aten__mul.1508/aten__mul" source_file="/usr/local/lib/python3.10/site-packages/torch/_ops.py" source_line=756}
  %multiply.2117 = f32[64,8,64]{2,1,0} multiply(f32[64,8,64]{2,1,0} %convert.2114, f32[64,8,64]{2,1,0} %broadcast.2116), metadata={op_type="aten__mul" op_name="aten__mul.1508/aten__mul" source_file="/usr/local/lib/python3.10/site-packages/torch/_ops.py" source_line=756}
  %convert.2118 = bf16[64,8,64]{2,1,0} convert(f32[64,8,64]{2,1,0} %multiply.2117), metadata={op_type="xla__cast" op_name="xla__cast" source_file="/usr/local/lib/python3.10/site-packages/torch/_ops.py" source_line=756}
  %constant.2112 = bf16[] constant(1), metadata={op_type="prim__Constant" op_name="prim__Constant" source_file="/usr/local/lib/python3.10/site-packages/torch/_ops.py" source_line=756}
  %broadcast.2125 = bf16[64,8,64]{2,1,0} broadcast(bf16[] %constant.2112), dimensions={}, metadata={op_type="aten__sub" op_name="aten__sub.1509/aten__sub" source_file="/usr/local/lib/python3.10/site-packages/torch/_ops.py" source_line=756}
  %multiply.2126 = bf16[64,8,64]{2,1,0} multiply(bf16[64,8,64]{2,1,0} %convert.2118, bf16[64,8,64]{2,1,0} %broadcast.2125), metadata={op_type="aten__sub" op_name="aten__sub.1509/aten__sub" source_file="/usr/local/lib/python3.10/site-packages/torch/_ops.py" source_line=756}
  %subtract.2127 = bf16[64,8,64]{2,1,0} subtract(bf16[64,8,64]{2,1,0} %convert.2124, bf16[64,8,64]{2,1,0} %multiply.2126), metadata={op_type="aten__sub" op_name="aten__sub.1509/aten__sub" source_file="/usr/local/lib/python3.10/site-packages/torch/_ops.py" source_line=756}
  %convert.2104 = f32[64,8,64]{2,1,0} convert(bf16[64,8,64]{2,1,0} %slice.2096), metadata={op_type="xla__cast" op_name="xla__cast" source_file="/usr/local/lib/python3.10/site-packages/torch/_ops.py" source_line=756}
  %convert.2103 = f32[64,1,64]{2,1,0} convert(bf16[64,1,64]{2,1,0} %reshape.2102), metadata={op_type="xla__cast" op_name="xla__cast" source_file="/usr/local/lib/python3.10/site-packages/torch/_ops.py" source_line=756}
  %reshape.2105 = f32[64,64]{1,0} reshape(f32[64,1,64]{2,1,0} %convert.2103), metadata={op_type="aten__mul" op_name="aten__mul.1510/aten__mul" source_file="/usr/local/lib/python3.10/site-packages/torch/_ops.py" source_line=756}
  %broadcast.2106 = f32[64,8,64]{2,1,0} broadcast(f32[64,64]{1,0} %reshape.2105), dimensions={0,2}, metadata={op_type="aten__mul" op_name="aten__mul.1510/aten__mul" source_file="/usr/local/lib/python3.10/site-packages/torch/_ops.py" source_line=756}
  %multiply.2107 = f32[64,8,64]{2,1,0} multiply(f32[64,8,64]{2,1,0} %convert.2104, f32[64,8,64]{2,1,0} %broadcast.2106), metadata={op_type="aten__mul" op_name="aten__mul.1510/aten__mul" source_file="/usr/local/lib/python3.10/site-packages/torch/_ops.py" source_line=756}
  %convert.2108 = bf16[64,8,64]{2,1,0} convert(f32[64,8,64]{2,1,0} %multiply.2107), metadata={op_type="xla__cast" op_name="xla__cast" source_file="/usr/local/lib/python3.10/site-packages/torch/_ops.py" source_line=756}
  %convert.2097 = f32[64,8,64]{2,1,0} convert(bf16[64,8,64]{2,1,0} %slice.2095), metadata={op_type="xla__cast" op_name="xla__cast" source_file="/usr/local/lib/python3.10/site-packages/torch/_ops.py" source_line=756}
  %convert.2094 = f32[64,1,64]{2,1,0} convert(bf16[64,1,64]{2,1,0} %reshape.2093), metadata={op_type="xla__cast" op_name="xla__cast" source_file="/usr/local/lib/python3.10/site-packages/torch/_ops.py" source_line=756}
  %reshape.2098 = f32[64,64]{1,0} reshape(f32[64,1,64]{2,1,0} %convert.2094), metadata={op_type="aten__mul" op_name="aten__mul.1511/aten__mul" source_file="/usr/local/lib/python3.10/site-packages/torch/_ops.py" source_line=756}
  %broadcast.2099 = f32[64,8,64]{2,1,0} broadcast(f32[64,64]{1,0} %reshape.2098), dimensions={0,2}, metadata={op_type="aten__mul" op_name="aten__mul.1511/aten__mul" source_file="/usr/local/lib/python3.10/site-packages/torch/_ops.py" source_line=756}
  %multiply.2100 = f32[64,8,64]{2,1,0} multiply(f32[64,8,64]{2,1,0} %convert.2097, f32[64,8,64]{2,1,0} %broadcast.2099), metadata={op_type="aten__mul" op_name="aten__mul.1511/aten__mul" source_file="/usr/local/lib/python3.10/site-packages/torch/_ops.py" source_line=756}
  %convert.2101 = bf16[64,8,64]{2,1,0} convert(f32[64,8,64]{2,1,0} %multiply.2100), metadata={op_type="xla__cast" op_name="xla__cast" source_file="/usr/local/lib/python3.10/site-packages/torch/_ops.py" source_line=756}
  %constant.2087 = bf16[] constant(1), metadata={op_type="prim__Constant" op_name="prim__Constant" source_file="/usr/local/lib/python3.10/site-packages/torch/_ops.py" source_line=756}
  %broadcast.2109 = bf16[64,8,64]{2,1,0} broadcast(bf16[] %constant.2087), dimensions={}, metadata={op_type="aten__add" op_name="aten__add.1512/aten__add" source_file="/usr/local/lib/python3.10/site-packages/torch/_ops.py" source_line=756}
  %multiply.2110 = bf16[64,8,64]{2,1,0} multiply(bf16[64,8,64]{2,1,0} %convert.2101, bf16[64,8,64]{2,1,0} %broadcast.2109), metadata={op_type="aten__add" op_name="aten__add.1512/aten__add" source_file="/usr/local/lib/python3.10/site-packages/torch/_ops.py" source_line=756}
  %add.2111 = bf16[64,8,64]{2,1,0} add(bf16[64,8,64]{2,1,0} %convert.2108, bf16[64,8,64]{2,1,0} %multiply.2110), metadata={op_type="aten__add" op_name="aten__add.1512/aten__add" source_file="/usr/local/lib/python3.10/site-packages/torch/_ops.py" source_line=756}
  %concatenate.2128 = bf16[64,8,128]{2,1,0} concatenate(bf16[64,8,64]{2,1,0} %subtract.2127, bf16[64,8,64]{2,1,0} %add.2111), dimensions={2}, metadata={op_type="aten__cat" op_name="aten__cat" source_file="/usr/local/lib/python3.10/site-packages/torch/_ops.py" source_line=756}
  %slice.2086 = bf16[64,8,0]{2,1,0} slice(bf16[64,8,128]{2,1,0} %reshape.2085), slice={[0:64], [0:8], [128:128]}, metadata={op_type="xla__select" op_name="xla__select" source_file="/usr/local/lib/python3.10/site-packages/torch/_ops.py" source_line=756}
  %concatenate.2129 = bf16[64,8,128]{2,1,0} concatenate(bf16[64,8,128]{2,1,0} %concatenate.2128, bf16[64,8,0]{2,1,0} %slice.2086), dimensions={2}, metadata={op_type="aten__cat" op_name="aten__cat" source_file="/usr/local/lib/python3.10/site-packages/torch/_ops.py" source_line=756}
  %reshape.2130 = bf16[64,1024]{1,0} reshape(bf16[64,8,128]{2,1,0} %concatenate.2129), metadata={op_type="aten__view" op_name="aten__view" source_file="/usr/local/lib/python3.10/site-packages/torch/_ops.py" source_line=756}
  %reshape.2131 = bf16[64,8,128]{2,1,0} reshape(bf16[64,1024]{1,0} %reshape.2130), metadata={op_type="aten__view" op_name="aten__view" source_file="/usr/local/lib/python3.10/site-packages/torch/_ops.py" source_line=756}
  %slice.2049 = bf16[64,1024]{1,0} slice(bf16[64,4096]{1,0} %dot.2046), slice={[0:64], [3072:4096]}, metadata={op_type="aten__split" op_name="aten__split" source_file="/usr/local/lib/python3.10/site-packages/torch/_ops.py" source_line=756}
  %reshape.2132 = bf16[64,8,128]{2,1,0} reshape(bf16[64,1024]{1,0} %slice.2049), metadata={op_type="aten__view" op_name="aten__view" source_file="/usr/local/lib/python3.10/site-packages/torch/_ops.py" source_line=756}
  %p116.2133 = bf16[2,4233,16,8,128]{4,3,2,1,0} parameter(116), metadata={op_type="xla__device_data" op_name="xla__device_data" source_file="/usr/local/lib/python3.10/site-packages/torch_xla/_dynamo/dynamo_bridge.py" source_line=355}
  %reshape.2134 = bf16[138706944]{0} reshape(bf16[2,4233,16,8,128]{4,3,2,1,0} %p116.2133), metadata={op_type="aten__as_strided" op_name="aten__as_strided" source_file="/usr/local/lib/python3.10/site-packages/torch/_prims_common/__init__.py" source_line=1991}
  %reshape.2135 = bf16[2,4233,16,8,128]{4,3,2,1,0} reshape(bf16[138706944]{0} %reshape.2134), metadata={op_type="aten__as_strided" op_name="aten__as_strided" source_file="/usr/local/lib/python3.10/site-packages/torch/_prims_common/__init__.py" source_line=1992}
  %reshape.2136 = bf16[138706944]{0} reshape(bf16[2,4233,16,8,128]{4,3,2,1,0} %reshape.2135), metadata={op_type="aten__as_strided" op_name="aten__as_strided" source_file="/usr/local/lib/python3.10/site-packages/torch/_higher_order_ops/auto_functionalize.py" source_line=54}
  %slice.2137 = bf16[69353472]{0} slice(bf16[138706944]{0} %reshape.2136), slice={[0:69353472]}, metadata={op_type="aten__as_strided" op_name="aten__as_strided" source_file="/usr/local/lib/python3.10/site-packages/torch/_higher_order_ops/auto_functionalize.py" source_line=54}
  %reshape.2138 = bf16[4233,16,8,128]{3,2,1,0} reshape(bf16[69353472]{0} %slice.2137), metadata={op_type="aten__as_strided" op_name="aten__as_strided" source_file="/usr/local/lib/python3.10/site-packages/torch/_higher_order_ops/auto_functionalize.py" source_line=54}
  %reshape.2139 = bf16[138706944]{0} reshape(bf16[2,4233,16,8,128]{4,3,2,1,0} %reshape.2135), metadata={op_type="aten__as_strided" op_name="aten__as_strided" source_file="/usr/local/lib/python3.10/site-packages/torch/_higher_order_ops/auto_functionalize.py" source_line=54}
  %slice.2140 = bf16[69353472]{0} slice(bf16[138706944]{0} %reshape.2139), slice={[69353472:138706944]}, metadata={op_type="aten__as_strided" op_name="aten__as_strided" source_file="/usr/local/lib/python3.10/site-packages/torch/_higher_order_ops/auto_functionalize.py" source_line=54}
  %reshape.2141 = bf16[4233,16,8,128]{3,2,1,0} reshape(bf16[69353472]{0} %slice.2140), metadata={op_type="aten__as_strided" op_name="aten__as_strided" source_file="/usr/local/lib/python3.10/site-packages/torch/_higher_order_ops/auto_functionalize.py" source_line=54}
  ROOT %tuple.2142 = (bf16[64,8,128]{2,1,0}, bf16[64,8,128]{2,1,0}, bf16[4233,16,8,128]{3,2,1,0}, bf16[4233,16,8,128]{3,2,1,0}) tuple(bf16[64,8,128]{2,1,0} %reshape.2131, bf16[64,8,128]{2,1,0} %reshape.2132, bf16[4233,16,8,128]{3,2,1,0} %reshape.2138, bf16[4233,16,8,128]{3,2,1,0} %reshape.2141)
}

