HloModule SyncTensorsGraph.1921, is_scheduled=true, entry_computation_layout={(bf16[128]{0}, f32[], bf16[4096,1024]{1,0}, bf16[1024]{0}, s32[64]{0}, /*index=5*/bf16[151936,1024]{1,0}, bf16[1024,2048]{1,0}, bf16[1024,3072]{1,0}, bf16[6144,1024]{1,0}, bf16[1024]{0}, /*index=10*/bf16[1024,2048]{1,0}, bf16[1024,3072]{1,0}, bf16[6144,1024]{1,0}, bf16[1024]{0}, bf16[1024,2048]{1,0}, /*index=15*/bf16[1024,3072]{1,0}, bf16[6144,1024]{1,0}, bf16[1024]{0}, bf16[1024,2048]{1,0}, bf16[1024,3072]{1,0}, /*index=20*/bf16[6144,1024]{1,0}, bf16[1024]{0}, bf16[1024,2048]{1,0}, bf16[1024,3072]{1,0}, bf16[6144,1024]{1,0}, /*index=25*/bf16[1024]{0}, bf16[1024,2048]{1,0}, bf16[1024,3072]{1,0}, bf16[6144,1024]{1,0}, bf16[1024]{0}, /*index=30*/bf16[1024,2048]{1,0}, bf16[1024,3072]{1,0}, bf16[6144,1024]{1,0}, bf16[1024]{0}, bf16[1024,2048]{1,0}, /*index=35*/bf16[1024,3072]{1,0}, bf16[6144,1024]{1,0}, bf16[1024]{0}, bf16[1024,2048]{1,0}, bf16[1024,3072]{1,0}, /*index=40*/bf16[6144,1024]{1,0}, bf16[1024]{0}, bf16[1024,2048]{1,0}, bf16[1024,3072]{1,0}, bf16[6144,1024]{1,0}, /*index=45*/bf16[1024]{0}, bf16[1024,2048]{1,0}, bf16[1024,3072]{1,0}, bf16[6144,1024]{1,0}, bf16[1024]{0}, /*index=50*/bf16[1024,2048]{1,0}, bf16[1024,3072]{1,0}, bf16[6144,1024]{1,0}, bf16[1024]{0}, bf16[1024,2048]{1,0}, /*index=55*/bf16[1024,3072]{1,0}, bf16[6144,1024]{1,0}, bf16[1024]{0}, bf16[1024,2048]{1,0}, bf16[1024,3072]{1,0}, /*index=60*/bf16[6144,1024]{1,0}, bf16[1024]{0}, bf16[1024,2048]{1,0}, bf16[1024,3072]{1,0}, bf16[6144,1024]{1,0}, /*index=65*/bf16[1024]{0}, bf16[1024,2048]{1,0}, bf16[1024,3072]{1,0}, bf16[6144,1024]{1,0}, bf16[1024]{0}, /*index=70*/bf16[1024,2048]{1,0}, bf16[1024,3072]{1,0}, bf16[6144,1024]{1,0}, bf16[1024]{0}, bf16[1024,2048]{1,0}, /*index=75*/bf16[1024,3072]{1,0}, bf16[6144,1024]{1,0}, bf16[1024]{0}, bf16[1024,2048]{1,0}, bf16[1024,3072]{1,0}, /*index=80*/bf16[6144,1024]{1,0}, bf16[1024]{0}, bf16[1024,2048]{1,0}, bf16[1024,3072]{1,0}, bf16[6144,1024]{1,0}, /*index=85*/bf16[1024]{0}, bf16[1024,2048]{1,0}, bf16[1024,3072]{1,0}, bf16[6144,1024]{1,0}, bf16[1024]{0}, /*index=90*/bf16[1024,2048]{1,0}, bf16[1024,3072]{1,0}, bf16[6144,1024]{1,0}, bf16[1024]{0}, bf16[1024,2048]{1,0}, /*index=95*/bf16[1024,3072]{1,0}, bf16[6144,1024]{1,0}, bf16[1024]{0}, bf16[1024,2048]{1,0}, bf16[1024,3072]{1,0}, /*index=100*/bf16[6144,1024]{1,0}, bf16[1024]{0}, s32[64]{0}, bf16[40960,128]{1,0}, bf16[2,4233,16,8,128]{4,3,2,1,0})->(bf16[64,8,128]{2,1,0}, bf16[64,8,128]{2,1,0}, bf16[4233,16,8,128]{3,2,1,0}, bf16[4233,16,8,128]{3,2,1,0})}, frontend_attributes={fingerprint_before_lhs="ac6cdb6ba024922d81551df4635dcda4"}

%fused_gather (param_0.9: bf16[151936,1024], param_1.785: s32[64]) -> bf16[64,1,1024] {
  %param_0.9 = bf16[151936,1024]{1,0} parameter(0)
  %param_1.785 = s32[64]{0} parameter(1)
  %convert.1152.1 = s64[64]{0} convert(s32[64]{0} %param_1.785), metadata={op_type="xla__cast" op_name="xla__cast" source_file="/usr/local/lib/python3.10/site-packages/torch/_ops.py" source_line=756}
  %convert.1153.1 = u32[64]{0} convert(s64[64]{0} %convert.1152.1), metadata={op_type="aten__index_select" op_name="aten__index_select" source_file="/usr/local/lib/python3.10/site-packages/torch/_ops.py" source_line=756}
  %bitcast.3705.1 = u32[64,1]{1,0} bitcast(u32[64]{0} %convert.1153.1)
  ROOT %gather.3 = bf16[64,1,1024]{2,0,1} gather(bf16[151936,1024]{1,0} %param_0.9, u32[64,1]{1,0} %bitcast.3705.1), offset_dims={1,2}, collapsed_slice_dims={}, start_index_map={0}, index_vector_dim=1, slice_sizes={1,1024}, metadata={op_type="aten__index_select" op_name="aten__index_select" source_file="/usr/local/lib/python3.10/site-packages/torch/_ops.py" source_line=756}
}

%wrapped_concatenate_computation (param_0.1037: bf16[1024,2048], param_1.821: bf16[1024,2048], param_2.543: bf16[1024,2048], param_3.519: bf16[1024,2048], param_4.306: bf16[1024,2048], param_5.111: bf16[1024,2048], param_6.108: bf16[1024,2048], param_7.67: bf16[1024,2048], param_8.32: bf16[1024,2048], param_9.18: bf16[1024,2048], param_10.9: bf16[1024,2048], param_11.4: bf16[1024,2048], param_12: bf16[1024,2048], param_13: bf16[1024,2048], param_14: bf16[1024,2048], param_15: bf16[1024,2048], param_16: bf16[1024,2048], param_17: bf16[1024,2048], param_18: bf16[1024,2048], param_19: bf16[1024,2048], param_20: bf16[1024,2048], param_21: bf16[1024,2048], param_22: bf16[1024,2048], param_23: bf16[1024,2048]) -> bf16[24576,2048] {
  %param_0.1037 = bf16[1024,2048]{1,0} parameter(0)
  %param_1.821 = bf16[1024,2048]{1,0} parameter(1)
  %param_2.543 = bf16[1024,2048]{1,0} parameter(2)
  %param_3.519 = bf16[1024,2048]{1,0} parameter(3)
  %param_4.306 = bf16[1024,2048]{1,0} parameter(4)
  %param_5.111 = bf16[1024,2048]{1,0} parameter(5)
  %param_6.108 = bf16[1024,2048]{1,0} parameter(6)
  %param_7.67 = bf16[1024,2048]{1,0} parameter(7)
  %param_8.32 = bf16[1024,2048]{1,0} parameter(8)
  %param_9.18 = bf16[1024,2048]{1,0} parameter(9)
  %param_10.9 = bf16[1024,2048]{1,0} parameter(10)
  %param_11.4 = bf16[1024,2048]{1,0} parameter(11)
  %param_12 = bf16[1024,2048]{1,0} parameter(12)
  %param_13 = bf16[1024,2048]{1,0} parameter(13)
  %param_14 = bf16[1024,2048]{1,0} parameter(14)
  %param_15 = bf16[1024,2048]{1,0} parameter(15)
  %param_16 = bf16[1024,2048]{1,0} parameter(16)
  %param_17 = bf16[1024,2048]{1,0} parameter(17)
  %param_18 = bf16[1024,2048]{1,0} parameter(18)
  %param_19 = bf16[1024,2048]{1,0} parameter(19)
  %param_20 = bf16[1024,2048]{1,0} parameter(20)
  %param_21 = bf16[1024,2048]{1,0} parameter(21)
  %param_22 = bf16[1024,2048]{1,0} parameter(22)
  %param_23 = bf16[1024,2048]{1,0} parameter(23)
  ROOT %concatenate.51.1 = bf16[24576,2048]{1,0} concatenate(bf16[1024,2048]{1,0} %param_0.1037, bf16[1024,2048]{1,0} %param_1.821, bf16[1024,2048]{1,0} %param_2.543, bf16[1024,2048]{1,0} %param_3.519, bf16[1024,2048]{1,0} %param_4.306, /*index=5*/bf16[1024,2048]{1,0} %param_5.111, bf16[1024,2048]{1,0} %param_6.108, bf16[1024,2048]{1,0} %param_7.67, bf16[1024,2048]{1,0} %param_8.32, bf16[1024,2048]{1,0} %param_9.18, /*index=10*/bf16[1024,2048]{1,0} %param_10.9, bf16[1024,2048]{1,0} %param_11.4, bf16[1024,2048]{1,0} %param_12, bf16[1024,2048]{1,0} %param_13, bf16[1024,2048]{1,0} %param_14, /*index=15*/bf16[1024,2048]{1,0} %param_15, bf16[1024,2048]{1,0} %param_16, bf16[1024,2048]{1,0} %param_17, bf16[1024,2048]{1,0} %param_18, bf16[1024,2048]{1,0} %param_19, /*index=20*/bf16[1024,2048]{1,0} %param_20, bf16[1024,2048]{1,0} %param_21, bf16[1024,2048]{1,0} %param_22, bf16[1024,2048]{1,0} %param_23), dimensions={0}, metadata={op_type="xla__device_data" op_name="xla__device_data" source_file="/usr/local/lib/python3.10/site-packages/torch_xla/_dynamo/dynamo_bridge.py" source_line=355}
}

%gemm_fusion_dot.96_computation (parameter_0: bf16[24576,2048]) -> bf16[64,24576] {
  %constant_253 = bf16[] constant(0), metadata={op_type="aten__expand" op_name="aten__expand" source_file="/usr/local/lib/python3.10/site-packages/torch/_ops.py" source_line=756}
  %broadcast.204 = bf16[64,2048]{1,0} broadcast(bf16[] %constant_253), dimensions={}, metadata={op_type="aten__expand" op_name="aten__expand" source_file="/usr/local/lib/python3.10/site-packages/torch/_ops.py" source_line=756}
  %parameter_0 = bf16[24576,2048]{1,0} parameter(0)
  ROOT %dot.97 = bf16[64,24576]{1,0} dot(bf16[64,2048]{1,0} %broadcast.204, bf16[24576,2048]{1,0} %parameter_0), lhs_contracting_dims={1}, rhs_contracting_dims={1}, metadata={op_type="aten__mm" op_name="aten__mm" source_file="/usr/local/lib/python3.10/site-packages/torch/_ops.py" source_line=756}
}

%AddComputation.94 (x.95: f32[], y.96: f32[]) -> f32[] {
  %y.96 = f32[] parameter(1)
  %x.95 = f32[] parameter(0)
  ROOT %add.316 = f32[] add(f32[] %x.95, f32[] %y.96)
}

%fused_computation.250 (param_0.997: f32[], param_1.782: bf16[64,1,1024], param_2.491: bf16[64,24576], param_3.445: bf16[1024]) -> bf16[64,1024] {
  %param_2.491 = bf16[64,24576]{1,0} parameter(2)
  %convert.1151.78 = f32[64,24576]{1,0} convert(bf16[64,24576]{1,0} %param_2.491), metadata={op_type="xla__cast" op_name="xla__cast" source_file="/usr/local/lib/python3.10/site-packages/torch/_ops.py" source_line=756}
  %slice.332.9 = f32[64,1024]{1,0} slice(f32[64,24576]{1,0} %convert.1151.78), slice={[0:64], [23552:24576]}, metadata={op_type="aten__mm" op_name="aten__mm" source_file="/usr/local/lib/python3.10/site-packages/torch/_ops.py" source_line=756}
  %param_1.782 = bf16[64,1,1024]{2,0,1} parameter(1)
  %bitcast.3708.9 = bf16[64,1024]{1,0} bitcast(bf16[64,1,1024]{2,0,1} %param_1.782)
  %convert.1154.9 = f32[64,1024]{1,0} convert(bf16[64,1024]{1,0} %bitcast.3708.9), metadata={op_type="xla__cast" op_name="xla__cast" source_file="/usr/local/lib/python3.10/site-packages/torch/_ops.py" source_line=756}
  %add.317.7 = f32[64,1024]{1,0} add(f32[64,1024]{1,0} %slice.332.9, f32[64,1024]{1,0} %convert.1154.9), metadata={op_type="aten__add" op_name="aten__add.1027/aten__add" source_file="/usr/local/lib/python3.10/site-packages/torch/_ops.py" source_line=756}
  %multiply.641 = f32[64,1024]{1,0} multiply(f32[64,1024]{1,0} %add.317.7, f32[64,1024]{1,0} %add.317.7), metadata={op_type="aten__pow" op_name="aten__pow" source_file="/usr/local/lib/python3.10/site-packages/torch/_ops.py" source_line=756}
  %constant_567 = f32[] constant(0), metadata={op_type="aten__mean" op_name="aten__mean" source_file="/usr/local/lib/python3.10/site-packages/torch/_ops.py" source_line=756}
  %reduce.53 = f32[64]{0} reduce(f32[64,1024]{1,0} %multiply.641, f32[] %constant_567), dimensions={1}, to_apply=%AddComputation.94, metadata={op_type="aten__mean" op_name="aten__mean" source_file="/usr/local/lib/python3.10/site-packages/torch/_ops.py" source_line=756}
  %constant_566 = f32[] constant(0.0009765625), metadata={op_type="aten__mean" op_name="aten__mean" source_file="/usr/local/lib/python3.10/site-packages/torch/_ops.py" source_line=756}
  %broadcast.735 = f32[64]{0} broadcast(f32[] %constant_566), dimensions={}, metadata={op_type="aten__mean" op_name="aten__mean" source_file="/usr/local/lib/python3.10/site-packages/torch/_ops.py" source_line=756}
  %multiply.640 = f32[64]{0} multiply(f32[64]{0} %reduce.53, f32[64]{0} %broadcast.735), metadata={op_type="aten__mean" op_name="aten__mean" source_file="/usr/local/lib/python3.10/site-packages/torch/_ops.py" source_line=756}
  %param_0.997 = f32[] parameter(0)
  %broadcast.734 = f32[64]{0} broadcast(f32[] %param_0.997), dimensions={}, metadata={op_type="aten__add" op_name="aten__add.1028/aten__add" source_file="/usr/local/lib/python3.10/site-packages/torch/_ops.py" source_line=756}
  %add.395 = f32[64]{0} add(f32[64]{0} %multiply.640, f32[64]{0} %broadcast.734), metadata={op_type="aten__add" op_name="aten__add.1028/aten__add" source_file="/usr/local/lib/python3.10/site-packages/torch/_ops.py" source_line=756}
  %rsqrt.132 = f32[64]{0} rsqrt(f32[64]{0} %add.395), metadata={op_type="aten__rsqrt" op_name="aten__rsqrt" source_file="/usr/local/lib/python3.10/site-packages/torch/_ops.py" source_line=756}
  %broadcast.733 = f32[64,1024]{1,0} broadcast(f32[64]{0} %rsqrt.132), dimensions={0}, metadata={op_type="aten__mul" op_name="aten__mul.1029/aten__mul" source_file="/usr/local/lib/python3.10/site-packages/torch/_ops.py" source_line=756}
  %multiply.639 = f32[64,1024]{1,0} multiply(f32[64,1024]{1,0} %add.317.7, f32[64,1024]{1,0} %broadcast.733), metadata={op_type="aten__mul" op_name="aten__mul.1029/aten__mul" source_file="/usr/local/lib/python3.10/site-packages/torch/_ops.py" source_line=756}
  %param_3.445 = bf16[1024]{0} parameter(3)
  %convert.1155.1 = f32[1024]{0} convert(bf16[1024]{0} %param_3.445), metadata={op_type="xla__cast" op_name="xla__cast" source_file="/usr/local/lib/python3.10/site-packages/torch/_ops.py" source_line=756}
  %broadcast.532.1 = f32[64,1024]{1,0} broadcast(f32[1024]{0} %convert.1155.1), dimensions={1}, metadata={op_type="aten__mul" op_name="aten__mul.1030/aten__mul" source_file="/usr/local/lib/python3.10/site-packages/torch/_ops.py" source_line=756}
  %multiply.545.1 = f32[64,1024]{1,0} multiply(f32[64,1024]{1,0} %multiply.639, f32[64,1024]{1,0} %broadcast.532.1), metadata={op_type="aten__mul" op_name="aten__mul.1030/aten__mul" source_file="/usr/local/lib/python3.10/site-packages/torch/_ops.py" source_line=756}
  ROOT %convert.1157.1 = bf16[64,1024]{1,0} convert(f32[64,1024]{1,0} %multiply.545.1), metadata={op_type="xla__cast" op_name="xla__cast" source_file="/usr/local/lib/python3.10/site-packages/torch/_ops.py" source_line=756}
}

%fused_convert.23 (param_0.709: bf16[64,6144]) -> bf16[64,3072] {
  %param_0.709 = bf16[64,6144]{1,0} parameter(0)
  %slice.333.1 = bf16[64,3072]{1,0} slice(bf16[64,6144]{1,0} %param_0.709), slice={[0:64], [0:3072]}, metadata={op_type="xla__select" op_name="xla__select" source_file="/usr/local/lib/python3.10/site-packages/torch/_ops.py" source_line=756}
  %convert.1158.6 = f32[64,3072]{1,0} convert(bf16[64,3072]{1,0} %slice.333.1)
  %constant_1_4 = bf16[] constant(1), metadata={op_type="xla__select" op_name="xla__select" source_file="/usr/local/lib/python3.10/site-packages/torch/_ops.py" source_line=756}
  %convert.1497.2 = f32[] convert(bf16[] %constant_1_4)
  %broadcast.621.192 = f32[64,3072]{1,0} broadcast(f32[] %convert.1497.2), dimensions={}, metadata={op_type="xla__select" op_name="xla__select" source_file="/usr/local/lib/python3.10/site-packages/torch/_ops.py" source_line=756}
  %negate.72.7 = f32[64,3072]{1,0} negate(f32[64,3072]{1,0} %convert.1158.6)
  %convert.1164.5 = bf16[64,3072]{1,0} convert(f32[64,3072]{1,0} %negate.72.7)
  %exponential.72.3 = bf16[64,3072]{1,0} exponential(bf16[64,3072]{1,0} %convert.1164.5)
  %convert.1165.1 = f32[64,3072]{1,0} convert(bf16[64,3072]{1,0} %exponential.72.3)
  %add.318.5 = f32[64,3072]{1,0} add(f32[64,3072]{1,0} %broadcast.621.192, f32[64,3072]{1,0} %convert.1165.1)
  %divide.72.3 = f32[64,3072]{1,0} divide(f32[64,3072]{1,0} %broadcast.621.192, f32[64,3072]{1,0} %add.318.5), metadata={op_type="aten__silu" op_name="aten__silu" source_file="/usr/local/lib/python3.10/site-packages/torch/_ops.py" source_line=756}
  %multiply.546.3 = f32[64,3072]{1,0} multiply(f32[64,3072]{1,0} %convert.1158.6, f32[64,3072]{1,0} %divide.72.3), metadata={op_type="aten__silu" op_name="aten__silu" source_file="/usr/local/lib/python3.10/site-packages/torch/_ops.py" source_line=756}
  %slice.334.1 = bf16[64,3072]{1,0} slice(bf16[64,6144]{1,0} %param_0.709), slice={[0:64], [3072:6144]}, metadata={op_type="xla__select" op_name="xla__select" source_file="/usr/local/lib/python3.10/site-packages/torch/_ops.py" source_line=756}
  %convert.1166.1 = f32[64,3072]{1,0} convert(bf16[64,3072]{1,0} %slice.334.1), metadata={op_type="xla__cast" op_name="xla__cast" source_file="/usr/local/lib/python3.10/site-packages/torch/_ops.py" source_line=756}
  %multiply.547.1 = f32[64,3072]{1,0} multiply(f32[64,3072]{1,0} %multiply.546.3, f32[64,3072]{1,0} %convert.1166.1), metadata={op_type="aten__mul" op_name="aten__mul.1031/aten__mul" source_file="/usr/local/lib/python3.10/site-packages/torch/_ops.py" source_line=756}
  ROOT %convert.1168.1 = bf16[64,3072]{1,0} convert(f32[64,3072]{1,0} %multiply.547.1), metadata={op_type="xla__cast" op_name="xla__cast" source_file="/usr/local/lib/python3.10/site-packages/torch/_ops.py" source_line=756}
}

%fused_computation.249 (param_0.1013: f32[], param_1.791: bf16[1024], param_2.502: bf16[64,1,1024], param_3.463: bf16[64,24576], param_4.241: bf16[64,1024]) -> bf16[64,1024] {
  %param_3.463 = bf16[64,24576]{1,0} parameter(3)
  %convert.1151.134 = f32[64,24576]{1,0} convert(bf16[64,24576]{1,0} %param_3.463), metadata={op_type="xla__cast" op_name="xla__cast" source_file="/usr/local/lib/python3.10/site-packages/torch/_ops.py" source_line=756}
  %slice.331.5 = f32[64,1024]{1,0} slice(f32[64,24576]{1,0} %convert.1151.134), slice={[0:64], [22528:23552]}, metadata={op_type="aten__mm" op_name="aten__mm" source_file="/usr/local/lib/python3.10/site-packages/torch/_ops.py" source_line=756}
  %param_4.241 = bf16[64,1024]{1,0} parameter(4)
  %convert.1169.3 = f32[64,1024]{1,0} convert(bf16[64,1024]{1,0} %param_4.241), metadata={op_type="xla__cast" op_name="xla__cast" source_file="/usr/local/lib/python3.10/site-packages/torch/_ops.py" source_line=756}
  %slice.332.11 = f32[64,1024]{1,0} slice(f32[64,24576]{1,0} %convert.1151.134), slice={[0:64], [23552:24576]}, metadata={op_type="aten__mm" op_name="aten__mm" source_file="/usr/local/lib/python3.10/site-packages/torch/_ops.py" source_line=756}
  %param_2.502 = bf16[64,1,1024]{2,0,1} parameter(2)
  %bitcast.3708.11 = bf16[64,1024]{1,0} bitcast(bf16[64,1,1024]{2,0,1} %param_2.502)
  %convert.1154.11 = f32[64,1024]{1,0} convert(bf16[64,1024]{1,0} %bitcast.3708.11), metadata={op_type="xla__cast" op_name="xla__cast" source_file="/usr/local/lib/python3.10/site-packages/torch/_ops.py" source_line=756}
  %add.317.9 = f32[64,1024]{1,0} add(f32[64,1024]{1,0} %slice.332.11, f32[64,1024]{1,0} %convert.1154.11), metadata={op_type="aten__add" op_name="aten__add.1027/aten__add" source_file="/usr/local/lib/python3.10/site-packages/torch/_ops.py" source_line=756}
  %add.319.3 = f32[64,1024]{1,0} add(f32[64,1024]{1,0} %convert.1169.3, f32[64,1024]{1,0} %add.317.9), metadata={op_type="aten__add" op_name="aten__add.1032/aten__add" source_file="/usr/local/lib/python3.10/site-packages/torch/_ops.py" source_line=756}
  %add.320.3 = f32[64,1024]{1,0} add(f32[64,1024]{1,0} %slice.331.5, f32[64,1024]{1,0} %add.319.3), metadata={op_type="aten__add" op_name="aten__add.1045/aten__add" source_file="/usr/local/lib/python3.10/site-packages/torch/_ops.py" source_line=756}
  %multiply.647 = f32[64,1024]{1,0} multiply(f32[64,1024]{1,0} %add.320.3, f32[64,1024]{1,0} %add.320.3), metadata={op_type="aten__pow" op_name="aten__pow" source_file="/usr/local/lib/python3.10/site-packages/torch/_ops.py" source_line=756}
  %constant_573 = f32[] constant(0), metadata={op_type="aten__mean" op_name="aten__mean" source_file="/usr/local/lib/python3.10/site-packages/torch/_ops.py" source_line=756}
  %reduce.55 = f32[64]{0} reduce(f32[64,1024]{1,0} %multiply.647, f32[] %constant_573), dimensions={1}, to_apply=%AddComputation.94, metadata={op_type="aten__mean" op_name="aten__mean" source_file="/usr/local/lib/python3.10/site-packages/torch/_ops.py" source_line=756}
  %constant_571 = f32[] constant(0.0009765625), metadata={op_type="aten__mean" op_name="aten__mean" source_file="/usr/local/lib/python3.10/site-packages/torch/_ops.py" source_line=756}
  %broadcast.742 = f32[64]{0} broadcast(f32[] %constant_571), dimensions={}, metadata={op_type="aten__mean" op_name="aten__mean" source_file="/usr/local/lib/python3.10/site-packages/torch/_ops.py" source_line=756}
  %multiply.646 = f32[64]{0} multiply(f32[64]{0} %reduce.55, f32[64]{0} %broadcast.742), metadata={op_type="aten__mean" op_name="aten__mean" source_file="/usr/local/lib/python3.10/site-packages/torch/_ops.py" source_line=756}
  %param_0.1013 = f32[] parameter(0)
  %broadcast.741 = f32[64]{0} broadcast(f32[] %param_0.1013), dimensions={}, metadata={op_type="aten__add" op_name="aten__add.1028/aten__add" source_file="/usr/local/lib/python3.10/site-packages/torch/_ops.py" source_line=756}
  %add.397 = f32[64]{0} add(f32[64]{0} %multiply.646, f32[64]{0} %broadcast.741), metadata={op_type="aten__add" op_name="aten__add.1046/aten__add" source_file="/usr/local/lib/python3.10/site-packages/torch/_ops.py" source_line=756}
  %rsqrt.134 = f32[64]{0} rsqrt(f32[64]{0} %add.397), metadata={op_type="aten__rsqrt" op_name="aten__rsqrt" source_file="/usr/local/lib/python3.10/site-packages/torch/_ops.py" source_line=756}
  %broadcast.740 = f32[64,1024]{1,0} broadcast(f32[64]{0} %rsqrt.134), dimensions={0}, metadata={op_type="aten__mul" op_name="aten__mul.1047/aten__mul" source_file="/usr/local/lib/python3.10/site-packages/torch/_ops.py" source_line=756}
  %multiply.645 = f32[64,1024]{1,0} multiply(f32[64,1024]{1,0} %add.320.3, f32[64,1024]{1,0} %broadcast.740), metadata={op_type="aten__mul" op_name="aten__mul.1047/aten__mul" source_file="/usr/local/lib/python3.10/site-packages/torch/_ops.py" source_line=756}
  %param_1.791 = bf16[1024]{0} parameter(1)
  %convert.1170.1 = f32[1024]{0} convert(bf16[1024]{0} %param_1.791), metadata={op_type="xla__cast" op_name="xla__cast" source_file="/usr/local/lib/python3.10/site-packages/torch/_ops.py" source_line=756}
  %broadcast.535.1 = f32[64,1024]{1,0} broadcast(f32[1024]{0} %convert.1170.1), dimensions={1}, metadata={op_type="aten__mul" op_name="aten__mul.1048/aten__mul" source_file="/usr/local/lib/python3.10/site-packages/torch/_ops.py" source_line=756}
  %multiply.549.1 = f32[64,1024]{1,0} multiply(f32[64,1024]{1,0} %multiply.645, f32[64,1024]{1,0} %broadcast.535.1), metadata={op_type="aten__mul" op_name="aten__mul.1048/aten__mul" source_file="/usr/local/lib/python3.10/site-packages/torch/_ops.py" source_line=756}
  ROOT %convert.1171.1 = bf16[64,1024]{1,0} convert(f32[64,1024]{1,0} %multiply.549.1), metadata={op_type="xla__cast" op_name="xla__cast" source_file="/usr/local/lib/python3.10/site-packages/torch/_ops.py" source_line=756}
}

%fused_convert.22 (param_0.711: bf16[64,6144]) -> bf16[64,3072] {
  %param_0.711 = bf16[64,6144]{1,0} parameter(0)
  %slice.335.1 = bf16[64,3072]{1,0} slice(bf16[64,6144]{1,0} %param_0.711), slice={[0:64], [0:3072]}, metadata={op_type="xla__select" op_name="xla__select" source_file="/usr/local/lib/python3.10/site-packages/torch/_ops.py" source_line=756}
  %convert.1172.6 = f32[64,3072]{1,0} convert(bf16[64,3072]{1,0} %slice.335.1)
  %constant_1_6 = bf16[] constant(1), metadata={op_type="xla__select" op_name="xla__select" source_file="/usr/local/lib/python3.10/site-packages/torch/_ops.py" source_line=756}
  %convert.1497.4 = f32[] convert(bf16[] %constant_1_6)
  %broadcast.621.188 = f32[64,3072]{1,0} broadcast(f32[] %convert.1497.4), dimensions={}, metadata={op_type="xla__select" op_name="xla__select" source_file="/usr/local/lib/python3.10/site-packages/torch/_ops.py" source_line=756}
  %negate.73.7 = f32[64,3072]{1,0} negate(f32[64,3072]{1,0} %convert.1172.6)
  %convert.1176.5 = bf16[64,3072]{1,0} convert(f32[64,3072]{1,0} %negate.73.7)
  %exponential.73.3 = bf16[64,3072]{1,0} exponential(bf16[64,3072]{1,0} %convert.1176.5)
  %convert.1177.1 = f32[64,3072]{1,0} convert(bf16[64,3072]{1,0} %exponential.73.3)
  %add.321.5 = f32[64,3072]{1,0} add(f32[64,3072]{1,0} %broadcast.621.188, f32[64,3072]{1,0} %convert.1177.1)
  %divide.73.3 = f32[64,3072]{1,0} divide(f32[64,3072]{1,0} %broadcast.621.188, f32[64,3072]{1,0} %add.321.5), metadata={op_type="aten__silu" op_name="aten__silu" source_file="/usr/local/lib/python3.10/site-packages/torch/_ops.py" source_line=756}
  %multiply.550.3 = f32[64,3072]{1,0} multiply(f32[64,3072]{1,0} %convert.1172.6, f32[64,3072]{1,0} %divide.73.3), metadata={op_type="aten__silu" op_name="aten__silu" source_file="/usr/local/lib/python3.10/site-packages/torch/_ops.py" source_line=756}
  %slice.336.1 = bf16[64,3072]{1,0} slice(bf16[64,6144]{1,0} %param_0.711), slice={[0:64], [3072:6144]}, metadata={op_type="xla__select" op_name="xla__select" source_file="/usr/local/lib/python3.10/site-packages/torch/_ops.py" source_line=756}
  %convert.1178.1 = f32[64,3072]{1,0} convert(bf16[64,3072]{1,0} %slice.336.1), metadata={op_type="xla__cast" op_name="xla__cast" source_file="/usr/local/lib/python3.10/site-packages/torch/_ops.py" source_line=756}
  %multiply.551.1 = f32[64,3072]{1,0} multiply(f32[64,3072]{1,0} %multiply.550.3, f32[64,3072]{1,0} %convert.1178.1), metadata={op_type="aten__mul" op_name="aten__mul.1049/aten__mul" source_file="/usr/local/lib/python3.10/site-packages/torch/_ops.py" source_line=756}
  ROOT %convert.1179.1 = bf16[64,3072]{1,0} convert(f32[64,3072]{1,0} %multiply.551.1), metadata={op_type="xla__cast" op_name="xla__cast" source_file="/usr/local/lib/python3.10/site-packages/torch/_ops.py" source_line=756}
}

%fused_computation.248 (param_0.995: f32[], param_1.794: bf16[64,1024], param_2.506: bf16[64,24576], param_3.466: bf16[1024], param_4.247: bf16[64,1,1024], param_5.35: bf16[64,1024]) -> bf16[64,1024] {
  %param_2.506 = bf16[64,24576]{1,0} parameter(2)
  %convert.1151.120 = f32[64,24576]{1,0} convert(bf16[64,24576]{1,0} %param_2.506), metadata={op_type="xla__cast" op_name="xla__cast" source_file="/usr/local/lib/python3.10/site-packages/torch/_ops.py" source_line=756}
  %slice.330.5 = f32[64,1024]{1,0} slice(f32[64,24576]{1,0} %convert.1151.120), slice={[0:64], [21504:22528]}, metadata={op_type="aten__mm" op_name="aten__mm" source_file="/usr/local/lib/python3.10/site-packages/torch/_ops.py" source_line=756}
  %param_1.794 = bf16[64,1024]{1,0} parameter(1)
  %convert.1180.3 = f32[64,1024]{1,0} convert(bf16[64,1024]{1,0} %param_1.794), metadata={op_type="xla__cast" op_name="xla__cast" source_file="/usr/local/lib/python3.10/site-packages/torch/_ops.py" source_line=756}
  %slice.331.9 = f32[64,1024]{1,0} slice(f32[64,24576]{1,0} %convert.1151.120), slice={[0:64], [22528:23552]}, metadata={op_type="aten__mm" op_name="aten__mm" source_file="/usr/local/lib/python3.10/site-packages/torch/_ops.py" source_line=756}
  %param_5.35 = bf16[64,1024]{1,0} parameter(5)
  %convert.1169.7 = f32[64,1024]{1,0} convert(bf16[64,1024]{1,0} %param_5.35), metadata={op_type="xla__cast" op_name="xla__cast" source_file="/usr/local/lib/python3.10/site-packages/torch/_ops.py" source_line=756}
  %slice.332.15 = f32[64,1024]{1,0} slice(f32[64,24576]{1,0} %convert.1151.120), slice={[0:64], [23552:24576]}, metadata={op_type="aten__mm" op_name="aten__mm" source_file="/usr/local/lib/python3.10/site-packages/torch/_ops.py" source_line=756}
  %param_4.247 = bf16[64,1,1024]{2,0,1} parameter(4)
  %bitcast.3708.15 = bf16[64,1024]{1,0} bitcast(bf16[64,1,1024]{2,0,1} %param_4.247)
  %convert.1154.15 = f32[64,1024]{1,0} convert(bf16[64,1024]{1,0} %bitcast.3708.15), metadata={op_type="xla__cast" op_name="xla__cast" source_file="/usr/local/lib/python3.10/site-packages/torch/_ops.py" source_line=756}
  %add.317.13 = f32[64,1024]{1,0} add(f32[64,1024]{1,0} %slice.332.15, f32[64,1024]{1,0} %convert.1154.15), metadata={op_type="aten__add" op_name="aten__add.1027/aten__add" source_file="/usr/local/lib/python3.10/site-packages/torch/_ops.py" source_line=756}
  %add.319.7 = f32[64,1024]{1,0} add(f32[64,1024]{1,0} %convert.1169.7, f32[64,1024]{1,0} %add.317.13), metadata={op_type="aten__add" op_name="aten__add.1032/aten__add" source_file="/usr/local/lib/python3.10/site-packages/torch/_ops.py" source_line=756}
  %add.320.7 = f32[64,1024]{1,0} add(f32[64,1024]{1,0} %slice.331.9, f32[64,1024]{1,0} %add.319.7), metadata={op_type="aten__add" op_name="aten__add.1045/aten__add" source_file="/usr/local/lib/python3.10/site-packages/torch/_ops.py" source_line=756}
  %add.322.3 = f32[64,1024]{1,0} add(f32[64,1024]{1,0} %convert.1180.3, f32[64,1024]{1,0} %add.320.7), metadata={op_type="aten__add" op_name="aten__add.1050/aten__add" source_file="/usr/local/lib/python3.10/site-packages/torch/_ops.py" source_line=756}
  %add.323.3 = f32[64,1024]{1,0} add(f32[64,1024]{1,0} %slice.330.5, f32[64,1024]{1,0} %add.322.3), metadata={op_type="aten__add" op_name="aten__add.1063/aten__add" source_file="/usr/local/lib/python3.10/site-packages/torch/_ops.py" source_line=756}
  %multiply.653 = f32[64,1024]{1,0} multiply(f32[64,1024]{1,0} %add.323.3, f32[64,1024]{1,0} %add.323.3), metadata={op_type="aten__pow" op_name="aten__pow" source_file="/usr/local/lib/python3.10/site-packages/torch/_ops.py" source_line=756}
  %constant_578 = f32[] constant(0), metadata={op_type="aten__mean" op_name="aten__mean" source_file="/usr/local/lib/python3.10/site-packages/torch/_ops.py" source_line=756}
  %reduce.57 = f32[64]{0} reduce(f32[64,1024]{1,0} %multiply.653, f32[] %constant_578), dimensions={1}, to_apply=%AddComputation.94, metadata={op_type="aten__mean" op_name="aten__mean" source_file="/usr/local/lib/python3.10/site-packages/torch/_ops.py" source_line=756}
  %constant_577 = f32[] constant(0.0009765625), metadata={op_type="aten__mean" op_name="aten__mean" source_file="/usr/local/lib/python3.10/site-packages/torch/_ops.py" source_line=756}
  %broadcast.748 = f32[64]{0} broadcast(f32[] %constant_577), dimensions={}, metadata={op_type="aten__mean" op_name="aten__mean" source_file="/usr/local/lib/python3.10/site-packages/torch/_ops.py" source_line=756}
  %multiply.652 = f32[64]{0} multiply(f32[64]{0} %reduce.57, f32[64]{0} %broadcast.748), metadata={op_type="aten__mean" op_name="aten__mean" source_file="/usr/local/lib/python3.10/site-packages/torch/_ops.py" source_line=756}
  %param_0.995 = f32[] parameter(0)
  %broadcast.747 = f32[64]{0} broadcast(f32[] %param_0.995), dimensions={}, metadata={op_type="aten__add" op_name="aten__add.1028/aten__add" source_file="/usr/local/lib/python3.10/site-packages/torch/_ops.py" source_line=756}
  %add.399 = f32[64]{0} add(f32[64]{0} %multiply.652, f32[64]{0} %broadcast.747), metadata={op_type="aten__add" op_name="aten__add.1064/aten__add" source_file="/usr/local/lib/python3.10/site-packages/torch/_ops.py" source_line=756}
  %rsqrt.136 = f32[64]{0} rsqrt(f32[64]{0} %add.399), metadata={op_type="aten__rsqrt" op_name="aten__rsqrt" source_file="/usr/local/lib/python3.10/site-packages/torch/_ops.py" source_line=756}
  %broadcast.746 = f32[64,1024]{1,0} broadcast(f32[64]{0} %rsqrt.136), dimensions={0}, metadata={op_type="aten__mul" op_name="aten__mul.1065/aten__mul" source_file="/usr/local/lib/python3.10/site-packages/torch/_ops.py" source_line=756}
  %multiply.651 = f32[64,1024]{1,0} multiply(f32[64,1024]{1,0} %add.323.3, f32[64,1024]{1,0} %broadcast.746), metadata={op_type="aten__mul" op_name="aten__mul.1065/aten__mul" source_file="/usr/local/lib/python3.10/site-packages/torch/_ops.py" source_line=756}
  %param_3.466 = bf16[1024]{0} parameter(3)
  %convert.1181.1 = f32[1024]{0} convert(bf16[1024]{0} %param_3.466), metadata={op_type="xla__cast" op_name="xla__cast" source_file="/usr/local/lib/python3.10/site-packages/torch/_ops.py" source_line=756}
  %broadcast.539.1 = f32[64,1024]{1,0} broadcast(f32[1024]{0} %convert.1181.1), dimensions={1}, metadata={op_type="aten__mul" op_name="aten__mul.1066/aten__mul" source_file="/usr/local/lib/python3.10/site-packages/torch/_ops.py" source_line=756}
  %multiply.553.1 = f32[64,1024]{1,0} multiply(f32[64,1024]{1,0} %multiply.651, f32[64,1024]{1,0} %broadcast.539.1), metadata={op_type="aten__mul" op_name="aten__mul.1066/aten__mul" source_file="/usr/local/lib/python3.10/site-packages/torch/_ops.py" source_line=756}
  ROOT %convert.1183.1 = bf16[64,1024]{1,0} convert(f32[64,1024]{1,0} %multiply.553.1), metadata={op_type="xla__cast" op_name="xla__cast" source_file="/usr/local/lib/python3.10/site-packages/torch/_ops.py" source_line=756}
}

%fused_convert.21 (param_0.713: bf16[64,6144]) -> bf16[64,3072] {
  %param_0.713 = bf16[64,6144]{1,0} parameter(0)
  %slice.337.1 = bf16[64,3072]{1,0} slice(bf16[64,6144]{1,0} %param_0.713), slice={[0:64], [0:3072]}, metadata={op_type="xla__select" op_name="xla__select" source_file="/usr/local/lib/python3.10/site-packages/torch/_ops.py" source_line=756}
  %convert.1184.6 = f32[64,3072]{1,0} convert(bf16[64,3072]{1,0} %slice.337.1)
  %constant_1_8 = bf16[] constant(1), metadata={op_type="xla__select" op_name="xla__select" source_file="/usr/local/lib/python3.10/site-packages/torch/_ops.py" source_line=756}
  %convert.1497.6 = f32[] convert(bf16[] %constant_1_8)
  %broadcast.621.184 = f32[64,3072]{1,0} broadcast(f32[] %convert.1497.6), dimensions={}, metadata={op_type="xla__select" op_name="xla__select" source_file="/usr/local/lib/python3.10/site-packages/torch/_ops.py" source_line=756}
  %negate.74.7 = f32[64,3072]{1,0} negate(f32[64,3072]{1,0} %convert.1184.6)
  %convert.1188.5 = bf16[64,3072]{1,0} convert(f32[64,3072]{1,0} %negate.74.7)
  %exponential.74.3 = bf16[64,3072]{1,0} exponential(bf16[64,3072]{1,0} %convert.1188.5)
  %convert.1190.1 = f32[64,3072]{1,0} convert(bf16[64,3072]{1,0} %exponential.74.3)
  %add.324.5 = f32[64,3072]{1,0} add(f32[64,3072]{1,0} %broadcast.621.184, f32[64,3072]{1,0} %convert.1190.1)
  %divide.74.3 = f32[64,3072]{1,0} divide(f32[64,3072]{1,0} %broadcast.621.184, f32[64,3072]{1,0} %add.324.5), metadata={op_type="aten__silu" op_name="aten__silu" source_file="/usr/local/lib/python3.10/site-packages/torch/_ops.py" source_line=756}
  %multiply.554.3 = f32[64,3072]{1,0} multiply(f32[64,3072]{1,0} %convert.1184.6, f32[64,3072]{1,0} %divide.74.3), metadata={op_type="aten__silu" op_name="aten__silu" source_file="/usr/local/lib/python3.10/site-packages/torch/_ops.py" source_line=756}
  %slice.338.1 = bf16[64,3072]{1,0} slice(bf16[64,6144]{1,0} %param_0.713), slice={[0:64], [3072:6144]}, metadata={op_type="xla__select" op_name="xla__select" source_file="/usr/local/lib/python3.10/site-packages/torch/_ops.py" source_line=756}
  %convert.1191.1 = f32[64,3072]{1,0} convert(bf16[64,3072]{1,0} %slice.338.1), metadata={op_type="xla__cast" op_name="xla__cast" source_file="/usr/local/lib/python3.10/site-packages/torch/_ops.py" source_line=756}
  %multiply.555.1 = f32[64,3072]{1,0} multiply(f32[64,3072]{1,0} %multiply.554.3, f32[64,3072]{1,0} %convert.1191.1), metadata={op_type="aten__mul" op_name="aten__mul.1067/aten__mul" source_file="/usr/local/lib/python3.10/site-packages/torch/_ops.py" source_line=756}
  ROOT %convert.1192.1 = bf16[64,3072]{1,0} convert(f32[64,3072]{1,0} %multiply.555.1), metadata={op_type="xla__cast" op_name="xla__cast" source_file="/usr/local/lib/python3.10/site-packages/torch/_ops.py" source_line=756}
}

%fused_computation.247 (param_0.1034: f32[], param_1.817: bf16[1024], param_2.538: bf16[64,1,1024], param_3.513: bf16[64,24576], param_4.297: bf16[64,1024], param_5.101: bf16[64,1024], param_6.96: bf16[64,1024]) -> bf16[64,1024] {
  %param_3.513 = bf16[64,24576]{1,0} parameter(3)
  %convert.1151.198 = f32[64,24576]{1,0} convert(bf16[64,24576]{1,0} %param_3.513), metadata={op_type="xla__cast" op_name="xla__cast" source_file="/usr/local/lib/python3.10/site-packages/torch/_ops.py" source_line=756}
  %slice.329.5 = f32[64,1024]{1,0} slice(f32[64,24576]{1,0} %convert.1151.198), slice={[0:64], [20480:21504]}, metadata={op_type="aten__mm" op_name="aten__mm" source_file="/usr/local/lib/python3.10/site-packages/torch/_ops.py" source_line=756}
  %param_6.96 = bf16[64,1024]{1,0} parameter(6)
  %convert.1193.3 = f32[64,1024]{1,0} convert(bf16[64,1024]{1,0} %param_6.96), metadata={op_type="xla__cast" op_name="xla__cast" source_file="/usr/local/lib/python3.10/site-packages/torch/_ops.py" source_line=756}
  %slice.330.9 = f32[64,1024]{1,0} slice(f32[64,24576]{1,0} %convert.1151.198), slice={[0:64], [21504:22528]}, metadata={op_type="aten__mm" op_name="aten__mm" source_file="/usr/local/lib/python3.10/site-packages/torch/_ops.py" source_line=756}
  %param_5.101 = bf16[64,1024]{1,0} parameter(5)
  %convert.1180.7 = f32[64,1024]{1,0} convert(bf16[64,1024]{1,0} %param_5.101), metadata={op_type="xla__cast" op_name="xla__cast" source_file="/usr/local/lib/python3.10/site-packages/torch/_ops.py" source_line=756}
  %slice.331.11 = f32[64,1024]{1,0} slice(f32[64,24576]{1,0} %convert.1151.198), slice={[0:64], [22528:23552]}, metadata={op_type="aten__mm" op_name="aten__mm" source_file="/usr/local/lib/python3.10/site-packages/torch/_ops.py" source_line=756}
  %param_4.297 = bf16[64,1024]{1,0} parameter(4)
  %convert.1169.9 = f32[64,1024]{1,0} convert(bf16[64,1024]{1,0} %param_4.297), metadata={op_type="xla__cast" op_name="xla__cast" source_file="/usr/local/lib/python3.10/site-packages/torch/_ops.py" source_line=756}
  %slice.332.17 = f32[64,1024]{1,0} slice(f32[64,24576]{1,0} %convert.1151.198), slice={[0:64], [23552:24576]}, metadata={op_type="aten__mm" op_name="aten__mm" source_file="/usr/local/lib/python3.10/site-packages/torch/_ops.py" source_line=756}
  %param_2.538 = bf16[64,1,1024]{2,0,1} parameter(2)
  %bitcast.3708.17 = bf16[64,1024]{1,0} bitcast(bf16[64,1,1024]{2,0,1} %param_2.538)
  %convert.1154.17 = f32[64,1024]{1,0} convert(bf16[64,1024]{1,0} %bitcast.3708.17), metadata={op_type="xla__cast" op_name="xla__cast" source_file="/usr/local/lib/python3.10/site-packages/torch/_ops.py" source_line=756}
  %add.317.15 = f32[64,1024]{1,0} add(f32[64,1024]{1,0} %slice.332.17, f32[64,1024]{1,0} %convert.1154.17), metadata={op_type="aten__add" op_name="aten__add.1027/aten__add" source_file="/usr/local/lib/python3.10/site-packages/torch/_ops.py" source_line=756}
  %add.319.9 = f32[64,1024]{1,0} add(f32[64,1024]{1,0} %convert.1169.9, f32[64,1024]{1,0} %add.317.15), metadata={op_type="aten__add" op_name="aten__add.1032/aten__add" source_file="/usr/local/lib/python3.10/site-packages/torch/_ops.py" source_line=756}
  %add.320.9 = f32[64,1024]{1,0} add(f32[64,1024]{1,0} %slice.331.11, f32[64,1024]{1,0} %add.319.9), metadata={op_type="aten__add" op_name="aten__add.1045/aten__add" source_file="/usr/local/lib/python3.10/site-packages/torch/_ops.py" source_line=756}
  %add.322.7 = f32[64,1024]{1,0} add(f32[64,1024]{1,0} %convert.1180.7, f32[64,1024]{1,0} %add.320.9), metadata={op_type="aten__add" op_name="aten__add.1050/aten__add" source_file="/usr/local/lib/python3.10/site-packages/torch/_ops.py" source_line=756}
  %add.323.7 = f32[64,1024]{1,0} add(f32[64,1024]{1,0} %slice.330.9, f32[64,1024]{1,0} %add.322.7), metadata={op_type="aten__add" op_name="aten__add.1063/aten__add" source_file="/usr/local/lib/python3.10/site-packages/torch/_ops.py" source_line=756}
  %add.325.3 = f32[64,1024]{1,0} add(f32[64,1024]{1,0} %convert.1193.3, f32[64,1024]{1,0} %add.323.7), metadata={op_type="aten__add" op_name="aten__add.1068/aten__add" source_file="/usr/local/lib/python3.10/site-packages/torch/_ops.py" source_line=756}
  %add.326.3 = f32[64,1024]{1,0} add(f32[64,1024]{1,0} %slice.329.5, f32[64,1024]{1,0} %add.325.3), metadata={op_type="aten__add" op_name="aten__add.1081/aten__add" source_file="/usr/local/lib/python3.10/site-packages/torch/_ops.py" source_line=756}
  %multiply.660 = f32[64,1024]{1,0} multiply(f32[64,1024]{1,0} %add.326.3, f32[64,1024]{1,0} %add.326.3), metadata={op_type="aten__pow" op_name="aten__pow" source_file="/usr/local/lib/python3.10/site-packages/torch/_ops.py" source_line=756}
  %constant_583 = f32[] constant(0), metadata={op_type="aten__mean" op_name="aten__mean" source_file="/usr/local/lib/python3.10/site-packages/torch/_ops.py" source_line=756}
  %reduce.59 = f32[64]{0} reduce(f32[64,1024]{1,0} %multiply.660, f32[] %constant_583), dimensions={1}, to_apply=%AddComputation.94, metadata={op_type="aten__mean" op_name="aten__mean" source_file="/usr/local/lib/python3.10/site-packages/torch/_ops.py" source_line=756}
  %constant_582 = f32[] constant(0.0009765625), metadata={op_type="aten__mean" op_name="aten__mean" source_file="/usr/local/lib/python3.10/site-packages/torch/_ops.py" source_line=756}
  %broadcast.755 = f32[64]{0} broadcast(f32[] %constant_582), dimensions={}, metadata={op_type="aten__mean" op_name="aten__mean" source_file="/usr/local/lib/python3.10/site-packages/torch/_ops.py" source_line=756}
  %multiply.659 = f32[64]{0} multiply(f32[64]{0} %reduce.59, f32[64]{0} %broadcast.755), metadata={op_type="aten__mean" op_name="aten__mean" source_file="/usr/local/lib/python3.10/site-packages/torch/_ops.py" source_line=756}
  %param_0.1034 = f32[] parameter(0)
  %broadcast.753 = f32[64]{0} broadcast(f32[] %param_0.1034), dimensions={}, metadata={op_type="aten__add" op_name="aten__add.1028/aten__add" source_file="/usr/local/lib/python3.10/site-packages/torch/_ops.py" source_line=756}
  %add.402 = f32[64]{0} add(f32[64]{0} %multiply.659, f32[64]{0} %broadcast.753), metadata={op_type="aten__add" op_name="aten__add.1082/aten__add" source_file="/usr/local/lib/python3.10/site-packages/torch/_ops.py" source_line=756}
  %rsqrt.138 = f32[64]{0} rsqrt(f32[64]{0} %add.402), metadata={op_type="aten__rsqrt" op_name="aten__rsqrt" source_file="/usr/local/lib/python3.10/site-packages/torch/_ops.py" source_line=756}
  %broadcast.752 = f32[64,1024]{1,0} broadcast(f32[64]{0} %rsqrt.138), dimensions={0}, metadata={op_type="aten__mul" op_name="aten__mul.1083/aten__mul" source_file="/usr/local/lib/python3.10/site-packages/torch/_ops.py" source_line=756}
  %multiply.658 = f32[64,1024]{1,0} multiply(f32[64,1024]{1,0} %add.326.3, f32[64,1024]{1,0} %broadcast.752), metadata={op_type="aten__mul" op_name="aten__mul.1083/aten__mul" source_file="/usr/local/lib/python3.10/site-packages/torch/_ops.py" source_line=756}
  %param_1.817 = bf16[1024]{0} parameter(1)
  %convert.1194.1 = f32[1024]{0} convert(bf16[1024]{0} %param_1.817), metadata={op_type="xla__cast" op_name="xla__cast" source_file="/usr/local/lib/python3.10/site-packages/torch/_ops.py" source_line=756}
  %broadcast.542.1 = f32[64,1024]{1,0} broadcast(f32[1024]{0} %convert.1194.1), dimensions={1}, metadata={op_type="aten__mul" op_name="aten__mul.1084/aten__mul" source_file="/usr/local/lib/python3.10/site-packages/torch/_ops.py" source_line=756}
  %multiply.556.1 = f32[64,1024]{1,0} multiply(f32[64,1024]{1,0} %multiply.658, f32[64,1024]{1,0} %broadcast.542.1), metadata={op_type="aten__mul" op_name="aten__mul.1084/aten__mul" source_file="/usr/local/lib/python3.10/site-packages/torch/_ops.py" source_line=756}
  ROOT %convert.1195.1 = bf16[64,1024]{1,0} convert(f32[64,1024]{1,0} %multiply.556.1), metadata={op_type="xla__cast" op_name="xla__cast" source_file="/usr/local/lib/python3.10/site-packages/torch/_ops.py" source_line=756}
}

%fused_convert.20 (param_0.715: bf16[64,6144]) -> bf16[64,3072] {
  %param_0.715 = bf16[64,6144]{1,0} parameter(0)
  %slice.340.1 = bf16[64,3072]{1,0} slice(bf16[64,6144]{1,0} %param_0.715), slice={[0:64], [0:3072]}, metadata={op_type="xla__select" op_name="xla__select" source_file="/usr/local/lib/python3.10/site-packages/torch/_ops.py" source_line=756}
  %convert.1196.6 = f32[64,3072]{1,0} convert(bf16[64,3072]{1,0} %slice.340.1)
  %constant_1_10 = bf16[] constant(1), metadata={op_type="xla__select" op_name="xla__select" source_file="/usr/local/lib/python3.10/site-packages/torch/_ops.py" source_line=756}
  %convert.1497.8 = f32[] convert(bf16[] %constant_1_10)
  %broadcast.621.180 = f32[64,3072]{1,0} broadcast(f32[] %convert.1497.8), dimensions={}, metadata={op_type="xla__select" op_name="xla__select" source_file="/usr/local/lib/python3.10/site-packages/torch/_ops.py" source_line=756}
  %negate.75.7 = f32[64,3072]{1,0} negate(f32[64,3072]{1,0} %convert.1196.6)
  %convert.1203.5 = bf16[64,3072]{1,0} convert(f32[64,3072]{1,0} %negate.75.7)
  %exponential.75.3 = bf16[64,3072]{1,0} exponential(bf16[64,3072]{1,0} %convert.1203.5)
  %convert.1205.1 = f32[64,3072]{1,0} convert(bf16[64,3072]{1,0} %exponential.75.3)
  %add.327.5 = f32[64,3072]{1,0} add(f32[64,3072]{1,0} %broadcast.621.180, f32[64,3072]{1,0} %convert.1205.1)
  %divide.75.3 = f32[64,3072]{1,0} divide(f32[64,3072]{1,0} %broadcast.621.180, f32[64,3072]{1,0} %add.327.5), metadata={op_type="aten__silu" op_name="aten__silu" source_file="/usr/local/lib/python3.10/site-packages/torch/_ops.py" source_line=756}
  %multiply.557.3 = f32[64,3072]{1,0} multiply(f32[64,3072]{1,0} %convert.1196.6, f32[64,3072]{1,0} %divide.75.3), metadata={op_type="aten__silu" op_name="aten__silu" source_file="/usr/local/lib/python3.10/site-packages/torch/_ops.py" source_line=756}
  %slice.342.1 = bf16[64,3072]{1,0} slice(bf16[64,6144]{1,0} %param_0.715), slice={[0:64], [3072:6144]}, metadata={op_type="xla__select" op_name="xla__select" source_file="/usr/local/lib/python3.10/site-packages/torch/_ops.py" source_line=756}
  %convert.1206.1 = f32[64,3072]{1,0} convert(bf16[64,3072]{1,0} %slice.342.1), metadata={op_type="xla__cast" op_name="xla__cast" source_file="/usr/local/lib/python3.10/site-packages/torch/_ops.py" source_line=756}
  %multiply.558.1 = f32[64,3072]{1,0} multiply(f32[64,3072]{1,0} %multiply.557.3, f32[64,3072]{1,0} %convert.1206.1), metadata={op_type="aten__mul" op_name="aten__mul.1085/aten__mul" source_file="/usr/local/lib/python3.10/site-packages/torch/_ops.py" source_line=756}
  ROOT %convert.1207.1 = bf16[64,3072]{1,0} convert(f32[64,3072]{1,0} %multiply.558.1), metadata={op_type="xla__cast" op_name="xla__cast" source_file="/usr/local/lib/python3.10/site-packages/torch/_ops.py" source_line=756}
}

%fused_computation.246 (param_0.993: f32[], param_1.820: bf16[64,1024], param_2.542: bf16[64,24576], param_3.518: bf16[1024], param_4.305: bf16[64,1,1024], param_5.110: bf16[64,1024], param_6.107: bf16[64,1024], param_7.66: bf16[64,1024]) -> bf16[64,1024] {
  %param_2.542 = bf16[64,24576]{1,0} parameter(2)
  %convert.1151.116 = f32[64,24576]{1,0} convert(bf16[64,24576]{1,0} %param_2.542), metadata={op_type="xla__cast" op_name="xla__cast" source_file="/usr/local/lib/python3.10/site-packages/torch/_ops.py" source_line=756}
  %slice.328.5 = f32[64,1024]{1,0} slice(f32[64,24576]{1,0} %convert.1151.116), slice={[0:64], [19456:20480]}, metadata={op_type="aten__mm" op_name="aten__mm" source_file="/usr/local/lib/python3.10/site-packages/torch/_ops.py" source_line=756}
  %param_1.820 = bf16[64,1024]{1,0} parameter(1)
  %convert.1209.3 = f32[64,1024]{1,0} convert(bf16[64,1024]{1,0} %param_1.820), metadata={op_type="xla__cast" op_name="xla__cast" source_file="/usr/local/lib/python3.10/site-packages/torch/_ops.py" source_line=756}
  %slice.329.9 = f32[64,1024]{1,0} slice(f32[64,24576]{1,0} %convert.1151.116), slice={[0:64], [20480:21504]}, metadata={op_type="aten__mm" op_name="aten__mm" source_file="/usr/local/lib/python3.10/site-packages/torch/_ops.py" source_line=756}
  %param_7.66 = bf16[64,1024]{1,0} parameter(7)
  %convert.1193.7 = f32[64,1024]{1,0} convert(bf16[64,1024]{1,0} %param_7.66), metadata={op_type="xla__cast" op_name="xla__cast" source_file="/usr/local/lib/python3.10/site-packages/torch/_ops.py" source_line=756}
  %slice.330.13 = f32[64,1024]{1,0} slice(f32[64,24576]{1,0} %convert.1151.116), slice={[0:64], [21504:22528]}, metadata={op_type="aten__mm" op_name="aten__mm" source_file="/usr/local/lib/python3.10/site-packages/torch/_ops.py" source_line=756}
  %param_6.107 = bf16[64,1024]{1,0} parameter(6)
  %convert.1180.11 = f32[64,1024]{1,0} convert(bf16[64,1024]{1,0} %param_6.107), metadata={op_type="xla__cast" op_name="xla__cast" source_file="/usr/local/lib/python3.10/site-packages/torch/_ops.py" source_line=756}
  %slice.331.15 = f32[64,1024]{1,0} slice(f32[64,24576]{1,0} %convert.1151.116), slice={[0:64], [22528:23552]}, metadata={op_type="aten__mm" op_name="aten__mm" source_file="/usr/local/lib/python3.10/site-packages/torch/_ops.py" source_line=756}
  %param_5.110 = bf16[64,1024]{1,0} parameter(5)
  %convert.1169.13 = f32[64,1024]{1,0} convert(bf16[64,1024]{1,0} %param_5.110), metadata={op_type="xla__cast" op_name="xla__cast" source_file="/usr/local/lib/python3.10/site-packages/torch/_ops.py" source_line=756}
  %slice.332.21 = f32[64,1024]{1,0} slice(f32[64,24576]{1,0} %convert.1151.116), slice={[0:64], [23552:24576]}, metadata={op_type="aten__mm" op_name="aten__mm" source_file="/usr/local/lib/python3.10/site-packages/torch/_ops.py" source_line=756}
  %param_4.305 = bf16[64,1,1024]{2,0,1} parameter(4)
  %bitcast.3708.21 = bf16[64,1024]{1,0} bitcast(bf16[64,1,1024]{2,0,1} %param_4.305)
  %convert.1154.21 = f32[64,1024]{1,0} convert(bf16[64,1024]{1,0} %bitcast.3708.21), metadata={op_type="xla__cast" op_name="xla__cast" source_file="/usr/local/lib/python3.10/site-packages/torch/_ops.py" source_line=756}
  %add.317.19 = f32[64,1024]{1,0} add(f32[64,1024]{1,0} %slice.332.21, f32[64,1024]{1,0} %convert.1154.21), metadata={op_type="aten__add" op_name="aten__add.1027/aten__add" source_file="/usr/local/lib/python3.10/site-packages/torch/_ops.py" source_line=756}
  %add.319.13 = f32[64,1024]{1,0} add(f32[64,1024]{1,0} %convert.1169.13, f32[64,1024]{1,0} %add.317.19), metadata={op_type="aten__add" op_name="aten__add.1032/aten__add" source_file="/usr/local/lib/python3.10/site-packages/torch/_ops.py" source_line=756}
  %add.320.13 = f32[64,1024]{1,0} add(f32[64,1024]{1,0} %slice.331.15, f32[64,1024]{1,0} %add.319.13), metadata={op_type="aten__add" op_name="aten__add.1045/aten__add" source_file="/usr/local/lib/python3.10/site-packages/torch/_ops.py" source_line=756}
  %add.322.11 = f32[64,1024]{1,0} add(f32[64,1024]{1,0} %convert.1180.11, f32[64,1024]{1,0} %add.320.13), metadata={op_type="aten__add" op_name="aten__add.1050/aten__add" source_file="/usr/local/lib/python3.10/site-packages/torch/_ops.py" source_line=756}
  %add.323.11 = f32[64,1024]{1,0} add(f32[64,1024]{1,0} %slice.330.13, f32[64,1024]{1,0} %add.322.11), metadata={op_type="aten__add" op_name="aten__add.1063/aten__add" source_file="/usr/local/lib/python3.10/site-packages/torch/_ops.py" source_line=756}
  %add.325.7 = f32[64,1024]{1,0} add(f32[64,1024]{1,0} %convert.1193.7, f32[64,1024]{1,0} %add.323.11), metadata={op_type="aten__add" op_name="aten__add.1068/aten__add" source_file="/usr/local/lib/python3.10/site-packages/torch/_ops.py" source_line=756}
  %add.326.7 = f32[64,1024]{1,0} add(f32[64,1024]{1,0} %slice.329.9, f32[64,1024]{1,0} %add.325.7), metadata={op_type="aten__add" op_name="aten__add.1081/aten__add" source_file="/usr/local/lib/python3.10/site-packages/torch/_ops.py" source_line=756}
  %add.329.3 = f32[64,1024]{1,0} add(f32[64,1024]{1,0} %convert.1209.3, f32[64,1024]{1,0} %add.326.7), metadata={op_type="aten__add" op_name="aten__add.1086/aten__add" source_file="/usr/local/lib/python3.10/site-packages/torch/_ops.py" source_line=756}
  %add.330.3 = f32[64,1024]{1,0} add(f32[64,1024]{1,0} %slice.328.5, f32[64,1024]{1,0} %add.329.3), metadata={op_type="aten__add" op_name="aten__add.1099/aten__add" source_file="/usr/local/lib/python3.10/site-packages/torch/_ops.py" source_line=756}
  %multiply.666 = f32[64,1024]{1,0} multiply(f32[64,1024]{1,0} %add.330.3, f32[64,1024]{1,0} %add.330.3), metadata={op_type="aten__pow" op_name="aten__pow" source_file="/usr/local/lib/python3.10/site-packages/torch/_ops.py" source_line=756}
  %constant_588 = f32[] constant(0), metadata={op_type="aten__mean" op_name="aten__mean" source_file="/usr/local/lib/python3.10/site-packages/torch/_ops.py" source_line=756}
  %reduce.61 = f32[64]{0} reduce(f32[64,1024]{1,0} %multiply.666, f32[] %constant_588), dimensions={1}, to_apply=%AddComputation.94, metadata={op_type="aten__mean" op_name="aten__mean" source_file="/usr/local/lib/python3.10/site-packages/torch/_ops.py" source_line=756}
  %constant_587 = f32[] constant(0.0009765625), metadata={op_type="aten__mean" op_name="aten__mean" source_file="/usr/local/lib/python3.10/site-packages/torch/_ops.py" source_line=756}
  %broadcast.762 = f32[64]{0} broadcast(f32[] %constant_587), dimensions={}, metadata={op_type="aten__mean" op_name="aten__mean" source_file="/usr/local/lib/python3.10/site-packages/torch/_ops.py" source_line=756}
  %multiply.665 = f32[64]{0} multiply(f32[64]{0} %reduce.61, f32[64]{0} %broadcast.762), metadata={op_type="aten__mean" op_name="aten__mean" source_file="/usr/local/lib/python3.10/site-packages/torch/_ops.py" source_line=756}
  %param_0.993 = f32[] parameter(0)
  %broadcast.761 = f32[64]{0} broadcast(f32[] %param_0.993), dimensions={}, metadata={op_type="aten__add" op_name="aten__add.1028/aten__add" source_file="/usr/local/lib/python3.10/site-packages/torch/_ops.py" source_line=756}
  %add.404 = f32[64]{0} add(f32[64]{0} %multiply.665, f32[64]{0} %broadcast.761), metadata={op_type="aten__add" op_name="aten__add.1100/aten__add" source_file="/usr/local/lib/python3.10/site-packages/torch/_ops.py" source_line=756}
  %rsqrt.140 = f32[64]{0} rsqrt(f32[64]{0} %add.404), metadata={op_type="aten__rsqrt" op_name="aten__rsqrt" source_file="/usr/local/lib/python3.10/site-packages/torch/_ops.py" source_line=756}
  %broadcast.760 = f32[64,1024]{1,0} broadcast(f32[64]{0} %rsqrt.140), dimensions={0}, metadata={op_type="aten__mul" op_name="aten__mul.1101/aten__mul" source_file="/usr/local/lib/python3.10/site-packages/torch/_ops.py" source_line=756}
  %multiply.664 = f32[64,1024]{1,0} multiply(f32[64,1024]{1,0} %add.330.3, f32[64,1024]{1,0} %broadcast.760), metadata={op_type="aten__mul" op_name="aten__mul.1101/aten__mul" source_file="/usr/local/lib/python3.10/site-packages/torch/_ops.py" source_line=756}
  %param_3.518 = bf16[1024]{0} parameter(3)
  %convert.1211.1 = f32[1024]{0} convert(bf16[1024]{0} %param_3.518), metadata={op_type="xla__cast" op_name="xla__cast" source_file="/usr/local/lib/python3.10/site-packages/torch/_ops.py" source_line=756}
  %broadcast.546.1 = f32[64,1024]{1,0} broadcast(f32[1024]{0} %convert.1211.1), dimensions={1}, metadata={op_type="aten__mul" op_name="aten__mul.1102/aten__mul" source_file="/usr/local/lib/python3.10/site-packages/torch/_ops.py" source_line=756}
  %multiply.560.1 = f32[64,1024]{1,0} multiply(f32[64,1024]{1,0} %multiply.664, f32[64,1024]{1,0} %broadcast.546.1), metadata={op_type="aten__mul" op_name="aten__mul.1102/aten__mul" source_file="/usr/local/lib/python3.10/site-packages/torch/_ops.py" source_line=756}
  ROOT %convert.1213.1 = bf16[64,1024]{1,0} convert(f32[64,1024]{1,0} %multiply.560.1), metadata={op_type="xla__cast" op_name="xla__cast" source_file="/usr/local/lib/python3.10/site-packages/torch/_ops.py" source_line=756}
}

%fused_convert.19 (param_0.717: bf16[64,6144]) -> bf16[64,3072] {
  %param_0.717 = bf16[64,6144]{1,0} parameter(0)
  %slice.343.1 = bf16[64,3072]{1,0} slice(bf16[64,6144]{1,0} %param_0.717), slice={[0:64], [0:3072]}, metadata={op_type="xla__select" op_name="xla__select" source_file="/usr/local/lib/python3.10/site-packages/torch/_ops.py" source_line=756}
  %convert.1214.6 = f32[64,3072]{1,0} convert(bf16[64,3072]{1,0} %slice.343.1)
  %constant_1_12 = bf16[] constant(1), metadata={op_type="xla__select" op_name="xla__select" source_file="/usr/local/lib/python3.10/site-packages/torch/_ops.py" source_line=756}
  %convert.1497.10 = f32[] convert(bf16[] %constant_1_12)
  %broadcast.621.176 = f32[64,3072]{1,0} broadcast(f32[] %convert.1497.10), dimensions={}, metadata={op_type="xla__select" op_name="xla__select" source_file="/usr/local/lib/python3.10/site-packages/torch/_ops.py" source_line=756}
  %negate.76.7 = f32[64,3072]{1,0} negate(f32[64,3072]{1,0} %convert.1214.6)
  %convert.1220.5 = bf16[64,3072]{1,0} convert(f32[64,3072]{1,0} %negate.76.7)
  %exponential.76.3 = bf16[64,3072]{1,0} exponential(bf16[64,3072]{1,0} %convert.1220.5)
  %convert.1221.1 = f32[64,3072]{1,0} convert(bf16[64,3072]{1,0} %exponential.76.3)
  %add.331.5 = f32[64,3072]{1,0} add(f32[64,3072]{1,0} %broadcast.621.176, f32[64,3072]{1,0} %convert.1221.1)
  %divide.76.3 = f32[64,3072]{1,0} divide(f32[64,3072]{1,0} %broadcast.621.176, f32[64,3072]{1,0} %add.331.5), metadata={op_type="aten__silu" op_name="aten__silu" source_file="/usr/local/lib/python3.10/site-packages/torch/_ops.py" source_line=756}
  %multiply.562.3 = f32[64,3072]{1,0} multiply(f32[64,3072]{1,0} %convert.1214.6, f32[64,3072]{1,0} %divide.76.3), metadata={op_type="aten__silu" op_name="aten__silu" source_file="/usr/local/lib/python3.10/site-packages/torch/_ops.py" source_line=756}
  %slice.344.1 = bf16[64,3072]{1,0} slice(bf16[64,6144]{1,0} %param_0.717), slice={[0:64], [3072:6144]}, metadata={op_type="xla__select" op_name="xla__select" source_file="/usr/local/lib/python3.10/site-packages/torch/_ops.py" source_line=756}
  %convert.1222.1 = f32[64,3072]{1,0} convert(bf16[64,3072]{1,0} %slice.344.1), metadata={op_type="xla__cast" op_name="xla__cast" source_file="/usr/local/lib/python3.10/site-packages/torch/_ops.py" source_line=756}
  %multiply.563.1 = f32[64,3072]{1,0} multiply(f32[64,3072]{1,0} %multiply.562.3, f32[64,3072]{1,0} %convert.1222.1), metadata={op_type="aten__mul" op_name="aten__mul.1103/aten__mul" source_file="/usr/local/lib/python3.10/site-packages/torch/_ops.py" source_line=756}
  ROOT %convert.1223.1 = bf16[64,3072]{1,0} convert(f32[64,3072]{1,0} %multiply.563.1), metadata={op_type="xla__cast" op_name="xla__cast" source_file="/usr/local/lib/python3.10/site-packages/torch/_ops.py" source_line=756}
}

%fused_add (param_0.872: bf16[64,24576], param_1.739: bf16[64,1024], param_2.540: bf16[64,1024], param_3.516: bf16[64,1,1024], param_4.302: bf16[64,1024], param_5.106: bf16[64,1024], param_6.102: bf16[64,1024]) -> f32[64,1024] {
  %param_0.872 = bf16[64,24576]{1,0} parameter(0)
  %convert.1151.36 = f32[64,24576]{1,0} convert(bf16[64,24576]{1,0} %param_0.872), metadata={op_type="xla__cast" op_name="xla__cast" source_file="/usr/local/lib/python3.10/site-packages/torch/_ops.py" source_line=756}
  %slice.327.3 = f32[64,1024]{1,0} slice(f32[64,24576]{1,0} %convert.1151.36), slice={[0:64], [18432:19456]}, metadata={op_type="aten__mm" op_name="aten__mm" source_file="/usr/local/lib/python3.10/site-packages/torch/_ops.py" source_line=756}
  %param_1.739 = bf16[64,1024]{1,0} parameter(1)
  %convert.1224.1 = f32[64,1024]{1,0} convert(bf16[64,1024]{1,0} %param_1.739), metadata={op_type="xla__cast" op_name="xla__cast" source_file="/usr/local/lib/python3.10/site-packages/torch/_ops.py" source_line=756}
  %slice.328.7 = f32[64,1024]{1,0} slice(f32[64,24576]{1,0} %convert.1151.36), slice={[0:64], [19456:20480]}, metadata={op_type="aten__mm" op_name="aten__mm" source_file="/usr/local/lib/python3.10/site-packages/torch/_ops.py" source_line=756}
  %param_2.540 = bf16[64,1024]{1,0} parameter(2)
  %convert.1209.5 = f32[64,1024]{1,0} convert(bf16[64,1024]{1,0} %param_2.540), metadata={op_type="xla__cast" op_name="xla__cast" source_file="/usr/local/lib/python3.10/site-packages/torch/_ops.py" source_line=756}
  %slice.329.7 = f32[64,1024]{1,0} slice(f32[64,24576]{1,0} %convert.1151.36), slice={[0:64], [20480:21504]}, metadata={op_type="aten__mm" op_name="aten__mm" source_file="/usr/local/lib/python3.10/site-packages/torch/_ops.py" source_line=756}
  %param_6.102 = bf16[64,1024]{1,0} parameter(6)
  %convert.1193.5 = f32[64,1024]{1,0} convert(bf16[64,1024]{1,0} %param_6.102), metadata={op_type="xla__cast" op_name="xla__cast" source_file="/usr/local/lib/python3.10/site-packages/torch/_ops.py" source_line=756}
  %slice.330.11 = f32[64,1024]{1,0} slice(f32[64,24576]{1,0} %convert.1151.36), slice={[0:64], [21504:22528]}, metadata={op_type="aten__mm" op_name="aten__mm" source_file="/usr/local/lib/python3.10/site-packages/torch/_ops.py" source_line=756}
  %param_5.106 = bf16[64,1024]{1,0} parameter(5)
  %convert.1180.9 = f32[64,1024]{1,0} convert(bf16[64,1024]{1,0} %param_5.106), metadata={op_type="xla__cast" op_name="xla__cast" source_file="/usr/local/lib/python3.10/site-packages/torch/_ops.py" source_line=756}
  %slice.331.13 = f32[64,1024]{1,0} slice(f32[64,24576]{1,0} %convert.1151.36), slice={[0:64], [22528:23552]}, metadata={op_type="aten__mm" op_name="aten__mm" source_file="/usr/local/lib/python3.10/site-packages/torch/_ops.py" source_line=756}
  %param_4.302 = bf16[64,1024]{1,0} parameter(4)
  %convert.1169.11 = f32[64,1024]{1,0} convert(bf16[64,1024]{1,0} %param_4.302), metadata={op_type="xla__cast" op_name="xla__cast" source_file="/usr/local/lib/python3.10/site-packages/torch/_ops.py" source_line=756}
  %slice.332.19 = f32[64,1024]{1,0} slice(f32[64,24576]{1,0} %convert.1151.36), slice={[0:64], [23552:24576]}, metadata={op_type="aten__mm" op_name="aten__mm" source_file="/usr/local/lib/python3.10/site-packages/torch/_ops.py" source_line=756}
  %param_3.516 = bf16[64,1,1024]{2,0,1} parameter(3)
  %bitcast.3708.19 = bf16[64,1024]{1,0} bitcast(bf16[64,1,1024]{2,0,1} %param_3.516)
  %convert.1154.19 = f32[64,1024]{1,0} convert(bf16[64,1024]{1,0} %bitcast.3708.19), metadata={op_type="xla__cast" op_name="xla__cast" source_file="/usr/local/lib/python3.10/site-packages/torch/_ops.py" source_line=756}
  %add.317.17 = f32[64,1024]{1,0} add(f32[64,1024]{1,0} %slice.332.19, f32[64,1024]{1,0} %convert.1154.19), metadata={op_type="aten__add" op_name="aten__add.1027/aten__add" source_file="/usr/local/lib/python3.10/site-packages/torch/_ops.py" source_line=756}
  %add.319.11 = f32[64,1024]{1,0} add(f32[64,1024]{1,0} %convert.1169.11, f32[64,1024]{1,0} %add.317.17), metadata={op_type="aten__add" op_name="aten__add.1032/aten__add" source_file="/usr/local/lib/python3.10/site-packages/torch/_ops.py" source_line=756}
  %add.320.11 = f32[64,1024]{1,0} add(f32[64,1024]{1,0} %slice.331.13, f32[64,1024]{1,0} %add.319.11), metadata={op_type="aten__add" op_name="aten__add.1045/aten__add" source_file="/usr/local/lib/python3.10/site-packages/torch/_ops.py" source_line=756}
  %add.322.9 = f32[64,1024]{1,0} add(f32[64,1024]{1,0} %convert.1180.9, f32[64,1024]{1,0} %add.320.11), metadata={op_type="aten__add" op_name="aten__add.1050/aten__add" source_file="/usr/local/lib/python3.10/site-packages/torch/_ops.py" source_line=756}
  %add.323.9 = f32[64,1024]{1,0} add(f32[64,1024]{1,0} %slice.330.11, f32[64,1024]{1,0} %add.322.9), metadata={op_type="aten__add" op_name="aten__add.1063/aten__add" source_file="/usr/local/lib/python3.10/site-packages/torch/_ops.py" source_line=756}
  %add.325.5 = f32[64,1024]{1,0} add(f32[64,1024]{1,0} %convert.1193.5, f32[64,1024]{1,0} %add.323.9), metadata={op_type="aten__add" op_name="aten__add.1068/aten__add" source_file="/usr/local/lib/python3.10/site-packages/torch/_ops.py" source_line=756}
  %add.326.5 = f32[64,1024]{1,0} add(f32[64,1024]{1,0} %slice.329.7, f32[64,1024]{1,0} %add.325.5), metadata={op_type="aten__add" op_name="aten__add.1081/aten__add" source_file="/usr/local/lib/python3.10/site-packages/torch/_ops.py" source_line=756}
  %add.329.5 = f32[64,1024]{1,0} add(f32[64,1024]{1,0} %convert.1209.5, f32[64,1024]{1,0} %add.326.5), metadata={op_type="aten__add" op_name="aten__add.1086/aten__add" source_file="/usr/local/lib/python3.10/site-packages/torch/_ops.py" source_line=756}
  %add.330.5 = f32[64,1024]{1,0} add(f32[64,1024]{1,0} %slice.328.7, f32[64,1024]{1,0} %add.329.5), metadata={op_type="aten__add" op_name="aten__add.1099/aten__add" source_file="/usr/local/lib/python3.10/site-packages/torch/_ops.py" source_line=756}
  %add.332.1 = f32[64,1024]{1,0} add(f32[64,1024]{1,0} %convert.1224.1, f32[64,1024]{1,0} %add.330.5), metadata={op_type="aten__add" op_name="aten__add.1104/aten__add" source_file="/usr/local/lib/python3.10/site-packages/torch/_ops.py" source_line=756}
  ROOT %add.333.1 = f32[64,1024]{1,0} add(f32[64,1024]{1,0} %slice.327.3, f32[64,1024]{1,0} %add.332.1), metadata={op_type="aten__add" op_name="aten__add.1117/aten__add" source_file="/usr/local/lib/python3.10/site-packages/torch/_ops.py" source_line=756}
}

%fused_computation.245 (param_0.992: f32[64,1024], param_1.777: f32[], param_2.486: bf16[1024]) -> bf16[64,1024] {
  %param_0.992 = f32[64,1024]{1,0} parameter(0)
  %multiply.672 = f32[64,1024]{1,0} multiply(f32[64,1024]{1,0} %param_0.992, f32[64,1024]{1,0} %param_0.992), metadata={op_type="aten__pow" op_name="aten__pow" source_file="/usr/local/lib/python3.10/site-packages/torch/_ops.py" source_line=756}
  %constant_595 = f32[] constant(0), metadata={op_type="aten__mean" op_name="aten__mean" source_file="/usr/local/lib/python3.10/site-packages/torch/_ops.py" source_line=756}
  %reduce.63 = f32[64]{0} reduce(f32[64,1024]{1,0} %multiply.672, f32[] %constant_595), dimensions={1}, to_apply=%AddComputation.94, metadata={op_type="aten__mean" op_name="aten__mean" source_file="/usr/local/lib/python3.10/site-packages/torch/_ops.py" source_line=756}
  %constant_594 = f32[] constant(0.0009765625), metadata={op_type="aten__mean" op_name="aten__mean" source_file="/usr/local/lib/python3.10/site-packages/torch/_ops.py" source_line=756}
  %broadcast.770 = f32[64]{0} broadcast(f32[] %constant_594), dimensions={}, metadata={op_type="aten__mean" op_name="aten__mean" source_file="/usr/local/lib/python3.10/site-packages/torch/_ops.py" source_line=756}
  %multiply.671 = f32[64]{0} multiply(f32[64]{0} %reduce.63, f32[64]{0} %broadcast.770), metadata={op_type="aten__mean" op_name="aten__mean" source_file="/usr/local/lib/python3.10/site-packages/torch/_ops.py" source_line=756}
  %param_1.777 = f32[] parameter(1)
  %broadcast.769 = f32[64]{0} broadcast(f32[] %param_1.777), dimensions={}, metadata={op_type="aten__add" op_name="aten__add.1028/aten__add" source_file="/usr/local/lib/python3.10/site-packages/torch/_ops.py" source_line=756}
  %add.406 = f32[64]{0} add(f32[64]{0} %multiply.671, f32[64]{0} %broadcast.769), metadata={op_type="aten__add" op_name="aten__add.1118/aten__add" source_file="/usr/local/lib/python3.10/site-packages/torch/_ops.py" source_line=756}
  %rsqrt.142 = f32[64]{0} rsqrt(f32[64]{0} %add.406), metadata={op_type="aten__rsqrt" op_name="aten__rsqrt" source_file="/usr/local/lib/python3.10/site-packages/torch/_ops.py" source_line=756}
  %broadcast.768 = f32[64,1024]{1,0} broadcast(f32[64]{0} %rsqrt.142), dimensions={0}, metadata={op_type="aten__mul" op_name="aten__mul.1119/aten__mul" source_file="/usr/local/lib/python3.10/site-packages/torch/_ops.py" source_line=756}
  %multiply.670 = f32[64,1024]{1,0} multiply(f32[64,1024]{1,0} %param_0.992, f32[64,1024]{1,0} %broadcast.768), metadata={op_type="aten__mul" op_name="aten__mul.1119/aten__mul" source_file="/usr/local/lib/python3.10/site-packages/torch/_ops.py" source_line=756}
  %param_2.486 = bf16[1024]{0} parameter(2)
  %convert.1225.1 = f32[1024]{0} convert(bf16[1024]{0} %param_2.486), metadata={op_type="xla__cast" op_name="xla__cast" source_file="/usr/local/lib/python3.10/site-packages/torch/_ops.py" source_line=756}
  %broadcast.550.1 = f32[64,1024]{1,0} broadcast(f32[1024]{0} %convert.1225.1), dimensions={1}, metadata={op_type="aten__mul" op_name="aten__mul.1120/aten__mul" source_file="/usr/local/lib/python3.10/site-packages/torch/_ops.py" source_line=756}
  %multiply.564.1 = f32[64,1024]{1,0} multiply(f32[64,1024]{1,0} %multiply.670, f32[64,1024]{1,0} %broadcast.550.1), metadata={op_type="aten__mul" op_name="aten__mul.1120/aten__mul" source_file="/usr/local/lib/python3.10/site-packages/torch/_ops.py" source_line=756}
  ROOT %convert.1226.1 = bf16[64,1024]{1,0} convert(f32[64,1024]{1,0} %multiply.564.1), metadata={op_type="xla__cast" op_name="xla__cast" source_file="/usr/local/lib/python3.10/site-packages/torch/_ops.py" source_line=756}
}

%fused_convert.18 (param_0.719: bf16[64,6144]) -> bf16[64,3072] {
  %param_0.719 = bf16[64,6144]{1,0} parameter(0)
  %slice.345.1 = bf16[64,3072]{1,0} slice(bf16[64,6144]{1,0} %param_0.719), slice={[0:64], [0:3072]}, metadata={op_type="xla__select" op_name="xla__select" source_file="/usr/local/lib/python3.10/site-packages/torch/_ops.py" source_line=756}
  %convert.1227.6 = f32[64,3072]{1,0} convert(bf16[64,3072]{1,0} %slice.345.1)
  %constant_1_14 = bf16[] constant(1), metadata={op_type="xla__select" op_name="xla__select" source_file="/usr/local/lib/python3.10/site-packages/torch/_ops.py" source_line=756}
  %convert.1497.12 = f32[] convert(bf16[] %constant_1_14)
  %broadcast.621.172 = f32[64,3072]{1,0} broadcast(f32[] %convert.1497.12), dimensions={}, metadata={op_type="xla__select" op_name="xla__select" source_file="/usr/local/lib/python3.10/site-packages/torch/_ops.py" source_line=756}
  %negate.77.7 = f32[64,3072]{1,0} negate(f32[64,3072]{1,0} %convert.1227.6)
  %convert.1234.5 = bf16[64,3072]{1,0} convert(f32[64,3072]{1,0} %negate.77.7)
  %exponential.77.3 = bf16[64,3072]{1,0} exponential(bf16[64,3072]{1,0} %convert.1234.5)
  %convert.1235.1 = f32[64,3072]{1,0} convert(bf16[64,3072]{1,0} %exponential.77.3)
  %add.334.5 = f32[64,3072]{1,0} add(f32[64,3072]{1,0} %broadcast.621.172, f32[64,3072]{1,0} %convert.1235.1)
  %divide.77.3 = f32[64,3072]{1,0} divide(f32[64,3072]{1,0} %broadcast.621.172, f32[64,3072]{1,0} %add.334.5), metadata={op_type="aten__silu" op_name="aten__silu" source_file="/usr/local/lib/python3.10/site-packages/torch/_ops.py" source_line=756}
  %multiply.565.3 = f32[64,3072]{1,0} multiply(f32[64,3072]{1,0} %convert.1227.6, f32[64,3072]{1,0} %divide.77.3), metadata={op_type="aten__silu" op_name="aten__silu" source_file="/usr/local/lib/python3.10/site-packages/torch/_ops.py" source_line=756}
  %slice.346.1 = bf16[64,3072]{1,0} slice(bf16[64,6144]{1,0} %param_0.719), slice={[0:64], [3072:6144]}, metadata={op_type="xla__select" op_name="xla__select" source_file="/usr/local/lib/python3.10/site-packages/torch/_ops.py" source_line=756}
  %convert.1236.1 = f32[64,3072]{1,0} convert(bf16[64,3072]{1,0} %slice.346.1), metadata={op_type="xla__cast" op_name="xla__cast" source_file="/usr/local/lib/python3.10/site-packages/torch/_ops.py" source_line=756}
  %multiply.567.1 = f32[64,3072]{1,0} multiply(f32[64,3072]{1,0} %multiply.565.3, f32[64,3072]{1,0} %convert.1236.1), metadata={op_type="aten__mul" op_name="aten__mul.1121/aten__mul" source_file="/usr/local/lib/python3.10/site-packages/torch/_ops.py" source_line=756}
  ROOT %convert.1237.1 = bf16[64,3072]{1,0} convert(f32[64,3072]{1,0} %multiply.567.1), metadata={op_type="xla__cast" op_name="xla__cast" source_file="/usr/local/lib/python3.10/site-packages/torch/_ops.py" source_line=756}
}

%fused_computation.244 (param_0.991: f32[], param_1.776: f32[64,1024], param_2.485: bf16[64,1024], param_3.442: bf16[64,24576], param_4.225: bf16[1024]) -> bf16[64,1024] {
  %param_3.442 = bf16[64,24576]{1,0} parameter(3)
  %convert.1151.112 = f32[64,24576]{1,0} convert(bf16[64,24576]{1,0} %param_3.442), metadata={op_type="xla__cast" op_name="xla__cast" source_file="/usr/local/lib/python3.10/site-packages/torch/_ops.py" source_line=756}
  %slice.326.5 = f32[64,1024]{1,0} slice(f32[64,24576]{1,0} %convert.1151.112), slice={[0:64], [17408:18432]}, metadata={op_type="aten__mm" op_name="aten__mm" source_file="/usr/local/lib/python3.10/site-packages/torch/_ops.py" source_line=756}
  %param_2.485 = bf16[64,1024]{1,0} parameter(2)
  %convert.1238.3 = f32[64,1024]{1,0} convert(bf16[64,1024]{1,0} %param_2.485), metadata={op_type="xla__cast" op_name="xla__cast" source_file="/usr/local/lib/python3.10/site-packages/torch/_ops.py" source_line=756}
  %param_1.776 = f32[64,1024]{1,0} parameter(1)
  %add.335.3 = f32[64,1024]{1,0} add(f32[64,1024]{1,0} %convert.1238.3, f32[64,1024]{1,0} %param_1.776), metadata={op_type="aten__add" op_name="aten__add.1122/aten__add" source_file="/usr/local/lib/python3.10/site-packages/torch/_ops.py" source_line=756}
  %add.336.3 = f32[64,1024]{1,0} add(f32[64,1024]{1,0} %slice.326.5, f32[64,1024]{1,0} %add.335.3), metadata={op_type="aten__add" op_name="aten__add.1135/aten__add" source_file="/usr/local/lib/python3.10/site-packages/torch/_ops.py" source_line=756}
  %multiply.678 = f32[64,1024]{1,0} multiply(f32[64,1024]{1,0} %add.336.3, f32[64,1024]{1,0} %add.336.3), metadata={op_type="aten__pow" op_name="aten__pow" source_file="/usr/local/lib/python3.10/site-packages/torch/_ops.py" source_line=756}
  %constant_602 = f32[] constant(0), metadata={op_type="aten__mean" op_name="aten__mean" source_file="/usr/local/lib/python3.10/site-packages/torch/_ops.py" source_line=756}
  %reduce.65 = f32[64]{0} reduce(f32[64,1024]{1,0} %multiply.678, f32[] %constant_602), dimensions={1}, to_apply=%AddComputation.94, metadata={op_type="aten__mean" op_name="aten__mean" source_file="/usr/local/lib/python3.10/site-packages/torch/_ops.py" source_line=756}
  %constant_601 = f32[] constant(0.0009765625), metadata={op_type="aten__mean" op_name="aten__mean" source_file="/usr/local/lib/python3.10/site-packages/torch/_ops.py" source_line=756}
  %broadcast.776 = f32[64]{0} broadcast(f32[] %constant_601), dimensions={}, metadata={op_type="aten__mean" op_name="aten__mean" source_file="/usr/local/lib/python3.10/site-packages/torch/_ops.py" source_line=756}
  %multiply.677 = f32[64]{0} multiply(f32[64]{0} %reduce.65, f32[64]{0} %broadcast.776), metadata={op_type="aten__mean" op_name="aten__mean" source_file="/usr/local/lib/python3.10/site-packages/torch/_ops.py" source_line=756}
  %param_0.991 = f32[] parameter(0)
  %broadcast.775 = f32[64]{0} broadcast(f32[] %param_0.991), dimensions={}, metadata={op_type="aten__add" op_name="aten__add.1028/aten__add" source_file="/usr/local/lib/python3.10/site-packages/torch/_ops.py" source_line=756}
  %add.408 = f32[64]{0} add(f32[64]{0} %multiply.677, f32[64]{0} %broadcast.775), metadata={op_type="aten__add" op_name="aten__add.1136/aten__add" source_file="/usr/local/lib/python3.10/site-packages/torch/_ops.py" source_line=756}
  %rsqrt.144 = f32[64]{0} rsqrt(f32[64]{0} %add.408), metadata={op_type="aten__rsqrt" op_name="aten__rsqrt" source_file="/usr/local/lib/python3.10/site-packages/torch/_ops.py" source_line=756}
  %broadcast.774 = f32[64,1024]{1,0} broadcast(f32[64]{0} %rsqrt.144), dimensions={0}, metadata={op_type="aten__mul" op_name="aten__mul.1137/aten__mul" source_file="/usr/local/lib/python3.10/site-packages/torch/_ops.py" source_line=756}
  %multiply.676 = f32[64,1024]{1,0} multiply(f32[64,1024]{1,0} %add.336.3, f32[64,1024]{1,0} %broadcast.774), metadata={op_type="aten__mul" op_name="aten__mul.1137/aten__mul" source_file="/usr/local/lib/python3.10/site-packages/torch/_ops.py" source_line=756}
  %param_4.225 = bf16[1024]{0} parameter(4)
  %convert.1240.1 = f32[1024]{0} convert(bf16[1024]{0} %param_4.225), metadata={op_type="xla__cast" op_name="xla__cast" source_file="/usr/local/lib/python3.10/site-packages/torch/_ops.py" source_line=756}
  %broadcast.554.1 = f32[64,1024]{1,0} broadcast(f32[1024]{0} %convert.1240.1), dimensions={1}, metadata={op_type="aten__mul" op_name="aten__mul.1138/aten__mul" source_file="/usr/local/lib/python3.10/site-packages/torch/_ops.py" source_line=756}
  %multiply.568.1 = f32[64,1024]{1,0} multiply(f32[64,1024]{1,0} %multiply.676, f32[64,1024]{1,0} %broadcast.554.1), metadata={op_type="aten__mul" op_name="aten__mul.1138/aten__mul" source_file="/usr/local/lib/python3.10/site-packages/torch/_ops.py" source_line=756}
  ROOT %convert.1241.1 = bf16[64,1024]{1,0} convert(f32[64,1024]{1,0} %multiply.568.1), metadata={op_type="xla__cast" op_name="xla__cast" source_file="/usr/local/lib/python3.10/site-packages/torch/_ops.py" source_line=756}
}

%fused_convert.17 (param_0.721: bf16[64,6144]) -> bf16[64,3072] {
  %param_0.721 = bf16[64,6144]{1,0} parameter(0)
  %slice.347.1 = bf16[64,3072]{1,0} slice(bf16[64,6144]{1,0} %param_0.721), slice={[0:64], [0:3072]}, metadata={op_type="xla__select" op_name="xla__select" source_file="/usr/local/lib/python3.10/site-packages/torch/_ops.py" source_line=756}
  %convert.1242.6 = f32[64,3072]{1,0} convert(bf16[64,3072]{1,0} %slice.347.1)
  %constant_1_16 = bf16[] constant(1), metadata={op_type="xla__select" op_name="xla__select" source_file="/usr/local/lib/python3.10/site-packages/torch/_ops.py" source_line=756}
  %convert.1497.14 = f32[] convert(bf16[] %constant_1_16)
  %broadcast.621.168 = f32[64,3072]{1,0} broadcast(f32[] %convert.1497.14), dimensions={}, metadata={op_type="xla__select" op_name="xla__select" source_file="/usr/local/lib/python3.10/site-packages/torch/_ops.py" source_line=756}
  %negate.78.7 = f32[64,3072]{1,0} negate(f32[64,3072]{1,0} %convert.1242.6)
  %convert.1246.5 = bf16[64,3072]{1,0} convert(f32[64,3072]{1,0} %negate.78.7)
  %exponential.78.3 = bf16[64,3072]{1,0} exponential(bf16[64,3072]{1,0} %convert.1246.5)
  %convert.1247.1 = f32[64,3072]{1,0} convert(bf16[64,3072]{1,0} %exponential.78.3)
  %add.337.5 = f32[64,3072]{1,0} add(f32[64,3072]{1,0} %broadcast.621.168, f32[64,3072]{1,0} %convert.1247.1)
  %divide.78.3 = f32[64,3072]{1,0} divide(f32[64,3072]{1,0} %broadcast.621.168, f32[64,3072]{1,0} %add.337.5), metadata={op_type="aten__silu" op_name="aten__silu" source_file="/usr/local/lib/python3.10/site-packages/torch/_ops.py" source_line=756}
  %multiply.569.3 = f32[64,3072]{1,0} multiply(f32[64,3072]{1,0} %convert.1242.6, f32[64,3072]{1,0} %divide.78.3), metadata={op_type="aten__silu" op_name="aten__silu" source_file="/usr/local/lib/python3.10/site-packages/torch/_ops.py" source_line=756}
  %slice.348.1 = bf16[64,3072]{1,0} slice(bf16[64,6144]{1,0} %param_0.721), slice={[0:64], [3072:6144]}, metadata={op_type="xla__select" op_name="xla__select" source_file="/usr/local/lib/python3.10/site-packages/torch/_ops.py" source_line=756}
  %convert.1248.1 = f32[64,3072]{1,0} convert(bf16[64,3072]{1,0} %slice.348.1), metadata={op_type="xla__cast" op_name="xla__cast" source_file="/usr/local/lib/python3.10/site-packages/torch/_ops.py" source_line=756}
  %multiply.570.1 = f32[64,3072]{1,0} multiply(f32[64,3072]{1,0} %multiply.569.3, f32[64,3072]{1,0} %convert.1248.1), metadata={op_type="aten__mul" op_name="aten__mul.1139/aten__mul" source_file="/usr/local/lib/python3.10/site-packages/torch/_ops.py" source_line=756}
  ROOT %convert.1249.1 = bf16[64,3072]{1,0} convert(f32[64,3072]{1,0} %multiply.570.1), metadata={op_type="xla__cast" op_name="xla__cast" source_file="/usr/local/lib/python3.10/site-packages/torch/_ops.py" source_line=756}
}

%fused_computation.243 (param_0.1030: f32[], param_1.812: bf16[1024], param_2.531: f32[64,1024], param_3.503: bf16[64,1024], param_4.285: bf16[64,24576], param_5.86: bf16[64,1024]) -> bf16[64,1024] {
  %param_4.285 = bf16[64,24576]{1,0} parameter(4)
  %convert.1151.182 = f32[64,24576]{1,0} convert(bf16[64,24576]{1,0} %param_4.285), metadata={op_type="xla__cast" op_name="xla__cast" source_file="/usr/local/lib/python3.10/site-packages/torch/_ops.py" source_line=756}
  %slice.325.5 = f32[64,1024]{1,0} slice(f32[64,24576]{1,0} %convert.1151.182), slice={[0:64], [16384:17408]}, metadata={op_type="aten__mm" op_name="aten__mm" source_file="/usr/local/lib/python3.10/site-packages/torch/_ops.py" source_line=756}
  %param_5.86 = bf16[64,1024]{1,0} parameter(5)
  %convert.1250.3 = f32[64,1024]{1,0} convert(bf16[64,1024]{1,0} %param_5.86), metadata={op_type="xla__cast" op_name="xla__cast" source_file="/usr/local/lib/python3.10/site-packages/torch/_ops.py" source_line=756}
  %slice.326.9 = f32[64,1024]{1,0} slice(f32[64,24576]{1,0} %convert.1151.182), slice={[0:64], [17408:18432]}, metadata={op_type="aten__mm" op_name="aten__mm" source_file="/usr/local/lib/python3.10/site-packages/torch/_ops.py" source_line=756}
  %param_3.503 = bf16[64,1024]{1,0} parameter(3)
  %convert.1238.7 = f32[64,1024]{1,0} convert(bf16[64,1024]{1,0} %param_3.503), metadata={op_type="xla__cast" op_name="xla__cast" source_file="/usr/local/lib/python3.10/site-packages/torch/_ops.py" source_line=756}
  %param_2.531 = f32[64,1024]{1,0} parameter(2)
  %add.335.7 = f32[64,1024]{1,0} add(f32[64,1024]{1,0} %convert.1238.7, f32[64,1024]{1,0} %param_2.531), metadata={op_type="aten__add" op_name="aten__add.1122/aten__add" source_file="/usr/local/lib/python3.10/site-packages/torch/_ops.py" source_line=756}
  %add.336.7 = f32[64,1024]{1,0} add(f32[64,1024]{1,0} %slice.326.9, f32[64,1024]{1,0} %add.335.7), metadata={op_type="aten__add" op_name="aten__add.1135/aten__add" source_file="/usr/local/lib/python3.10/site-packages/torch/_ops.py" source_line=756}
  %add.338.3 = f32[64,1024]{1,0} add(f32[64,1024]{1,0} %convert.1250.3, f32[64,1024]{1,0} %add.336.7), metadata={op_type="aten__add" op_name="aten__add.1140/aten__add" source_file="/usr/local/lib/python3.10/site-packages/torch/_ops.py" source_line=756}
  %add.339.3 = f32[64,1024]{1,0} add(f32[64,1024]{1,0} %slice.325.5, f32[64,1024]{1,0} %add.338.3), metadata={op_type="aten__add" op_name="aten__add.1153/aten__add" source_file="/usr/local/lib/python3.10/site-packages/torch/_ops.py" source_line=756}
  %multiply.685 = f32[64,1024]{1,0} multiply(f32[64,1024]{1,0} %add.339.3, f32[64,1024]{1,0} %add.339.3), metadata={op_type="aten__pow" op_name="aten__pow" source_file="/usr/local/lib/python3.10/site-packages/torch/_ops.py" source_line=756}
  %constant_610 = f32[] constant(0), metadata={op_type="aten__mean" op_name="aten__mean" source_file="/usr/local/lib/python3.10/site-packages/torch/_ops.py" source_line=756}
  %reduce.67 = f32[64]{0} reduce(f32[64,1024]{1,0} %multiply.685, f32[] %constant_610), dimensions={1}, to_apply=%AddComputation.94, metadata={op_type="aten__mean" op_name="aten__mean" source_file="/usr/local/lib/python3.10/site-packages/torch/_ops.py" source_line=756}
  %constant_609 = f32[] constant(0.0009765625), metadata={op_type="aten__mean" op_name="aten__mean" source_file="/usr/local/lib/python3.10/site-packages/torch/_ops.py" source_line=756}
  %broadcast.783 = f32[64]{0} broadcast(f32[] %constant_609), dimensions={}, metadata={op_type="aten__mean" op_name="aten__mean" source_file="/usr/local/lib/python3.10/site-packages/torch/_ops.py" source_line=756}
  %multiply.684 = f32[64]{0} multiply(f32[64]{0} %reduce.67, f32[64]{0} %broadcast.783), metadata={op_type="aten__mean" op_name="aten__mean" source_file="/usr/local/lib/python3.10/site-packages/torch/_ops.py" source_line=756}
  %param_0.1030 = f32[] parameter(0)
  %broadcast.782 = f32[64]{0} broadcast(f32[] %param_0.1030), dimensions={}, metadata={op_type="aten__add" op_name="aten__add.1028/aten__add" source_file="/usr/local/lib/python3.10/site-packages/torch/_ops.py" source_line=756}
  %add.410 = f32[64]{0} add(f32[64]{0} %multiply.684, f32[64]{0} %broadcast.782), metadata={op_type="aten__add" op_name="aten__add.1154/aten__add" source_file="/usr/local/lib/python3.10/site-packages/torch/_ops.py" source_line=756}
  %rsqrt.146 = f32[64]{0} rsqrt(f32[64]{0} %add.410), metadata={op_type="aten__rsqrt" op_name="aten__rsqrt" source_file="/usr/local/lib/python3.10/site-packages/torch/_ops.py" source_line=756}
  %broadcast.780 = f32[64,1024]{1,0} broadcast(f32[64]{0} %rsqrt.146), dimensions={0}, metadata={op_type="aten__mul" op_name="aten__mul.1155/aten__mul" source_file="/usr/local/lib/python3.10/site-packages/torch/_ops.py" source_line=756}
  %multiply.682 = f32[64,1024]{1,0} multiply(f32[64,1024]{1,0} %add.339.3, f32[64,1024]{1,0} %broadcast.780), metadata={op_type="aten__mul" op_name="aten__mul.1155/aten__mul" source_file="/usr/local/lib/python3.10/site-packages/torch/_ops.py" source_line=756}
  %param_1.812 = bf16[1024]{0} parameter(1)
  %convert.1251.1 = f32[1024]{0} convert(bf16[1024]{0} %param_1.812), metadata={op_type="xla__cast" op_name="xla__cast" source_file="/usr/local/lib/python3.10/site-packages/torch/_ops.py" source_line=756}
  %broadcast.557.1 = f32[64,1024]{1,0} broadcast(f32[1024]{0} %convert.1251.1), dimensions={1}, metadata={op_type="aten__mul" op_name="aten__mul.1156/aten__mul" source_file="/usr/local/lib/python3.10/site-packages/torch/_ops.py" source_line=756}
  %multiply.571.1 = f32[64,1024]{1,0} multiply(f32[64,1024]{1,0} %multiply.682, f32[64,1024]{1,0} %broadcast.557.1), metadata={op_type="aten__mul" op_name="aten__mul.1156/aten__mul" source_file="/usr/local/lib/python3.10/site-packages/torch/_ops.py" source_line=756}
  ROOT %convert.1252.1 = bf16[64,1024]{1,0} convert(f32[64,1024]{1,0} %multiply.571.1), metadata={op_type="xla__cast" op_name="xla__cast" source_file="/usr/local/lib/python3.10/site-packages/torch/_ops.py" source_line=756}
}

%fused_convert.16 (param_0.723: bf16[64,6144]) -> bf16[64,3072] {
  %param_0.723 = bf16[64,6144]{1,0} parameter(0)
  %slice.349.1 = bf16[64,3072]{1,0} slice(bf16[64,6144]{1,0} %param_0.723), slice={[0:64], [0:3072]}, metadata={op_type="xla__select" op_name="xla__select" source_file="/usr/local/lib/python3.10/site-packages/torch/_ops.py" source_line=756}
  %convert.1253.6 = f32[64,3072]{1,0} convert(bf16[64,3072]{1,0} %slice.349.1)
  %constant_1_18 = bf16[] constant(1), metadata={op_type="xla__select" op_name="xla__select" source_file="/usr/local/lib/python3.10/site-packages/torch/_ops.py" source_line=756}
  %convert.1497.16 = f32[] convert(bf16[] %constant_1_18)
  %broadcast.621.164 = f32[64,3072]{1,0} broadcast(f32[] %convert.1497.16), dimensions={}, metadata={op_type="xla__select" op_name="xla__select" source_file="/usr/local/lib/python3.10/site-packages/torch/_ops.py" source_line=756}
  %negate.79.7 = f32[64,3072]{1,0} negate(f32[64,3072]{1,0} %convert.1253.6)
  %convert.1258.5 = bf16[64,3072]{1,0} convert(f32[64,3072]{1,0} %negate.79.7)
  %exponential.79.3 = bf16[64,3072]{1,0} exponential(bf16[64,3072]{1,0} %convert.1258.5)
  %convert.1259.1 = f32[64,3072]{1,0} convert(bf16[64,3072]{1,0} %exponential.79.3)
  %add.340.5 = f32[64,3072]{1,0} add(f32[64,3072]{1,0} %broadcast.621.164, f32[64,3072]{1,0} %convert.1259.1)
  %divide.79.3 = f32[64,3072]{1,0} divide(f32[64,3072]{1,0} %broadcast.621.164, f32[64,3072]{1,0} %add.340.5), metadata={op_type="aten__silu" op_name="aten__silu" source_file="/usr/local/lib/python3.10/site-packages/torch/_ops.py" source_line=756}
  %multiply.572.3 = f32[64,3072]{1,0} multiply(f32[64,3072]{1,0} %convert.1253.6, f32[64,3072]{1,0} %divide.79.3), metadata={op_type="aten__silu" op_name="aten__silu" source_file="/usr/local/lib/python3.10/site-packages/torch/_ops.py" source_line=756}
  %slice.350.1 = bf16[64,3072]{1,0} slice(bf16[64,6144]{1,0} %param_0.723), slice={[0:64], [3072:6144]}, metadata={op_type="xla__select" op_name="xla__select" source_file="/usr/local/lib/python3.10/site-packages/torch/_ops.py" source_line=756}
  %convert.1260.1 = f32[64,3072]{1,0} convert(bf16[64,3072]{1,0} %slice.350.1), metadata={op_type="xla__cast" op_name="xla__cast" source_file="/usr/local/lib/python3.10/site-packages/torch/_ops.py" source_line=756}
  %multiply.573.1 = f32[64,3072]{1,0} multiply(f32[64,3072]{1,0} %multiply.572.3, f32[64,3072]{1,0} %convert.1260.1), metadata={op_type="aten__mul" op_name="aten__mul.1157/aten__mul" source_file="/usr/local/lib/python3.10/site-packages/torch/_ops.py" source_line=756}
  ROOT %convert.1262.1 = bf16[64,3072]{1,0} convert(f32[64,3072]{1,0} %multiply.573.1), metadata={op_type="xla__cast" op_name="xla__cast" source_file="/usr/local/lib/python3.10/site-packages/torch/_ops.py" source_line=756}
}

%fused_computation.242 (param_0.989: f32[], param_1.815: bf16[64,1024], param_2.535: bf16[64,24576], param_3.508: bf16[1024], param_4.291: f32[64,1024], param_5.95: bf16[64,1024], param_6.89: bf16[64,1024]) -> bf16[64,1024] {
  %param_2.535 = bf16[64,24576]{1,0} parameter(2)
  %convert.1151.108 = f32[64,24576]{1,0} convert(bf16[64,24576]{1,0} %param_2.535), metadata={op_type="xla__cast" op_name="xla__cast" source_file="/usr/local/lib/python3.10/site-packages/torch/_ops.py" source_line=756}
  %slice.324.5 = f32[64,1024]{1,0} slice(f32[64,24576]{1,0} %convert.1151.108), slice={[0:64], [15360:16384]}, metadata={op_type="aten__mm" op_name="aten__mm" source_file="/usr/local/lib/python3.10/site-packages/torch/_ops.py" source_line=756}
  %param_1.815 = bf16[64,1024]{1,0} parameter(1)
  %convert.1263.3 = f32[64,1024]{1,0} convert(bf16[64,1024]{1,0} %param_1.815), metadata={op_type="xla__cast" op_name="xla__cast" source_file="/usr/local/lib/python3.10/site-packages/torch/_ops.py" source_line=756}
  %slice.325.9 = f32[64,1024]{1,0} slice(f32[64,24576]{1,0} %convert.1151.108), slice={[0:64], [16384:17408]}, metadata={op_type="aten__mm" op_name="aten__mm" source_file="/usr/local/lib/python3.10/site-packages/torch/_ops.py" source_line=756}
  %param_6.89 = bf16[64,1024]{1,0} parameter(6)
  %convert.1250.7 = f32[64,1024]{1,0} convert(bf16[64,1024]{1,0} %param_6.89), metadata={op_type="xla__cast" op_name="xla__cast" source_file="/usr/local/lib/python3.10/site-packages/torch/_ops.py" source_line=756}
  %slice.326.13 = f32[64,1024]{1,0} slice(f32[64,24576]{1,0} %convert.1151.108), slice={[0:64], [17408:18432]}, metadata={op_type="aten__mm" op_name="aten__mm" source_file="/usr/local/lib/python3.10/site-packages/torch/_ops.py" source_line=756}
  %param_5.95 = bf16[64,1024]{1,0} parameter(5)
  %convert.1238.11 = f32[64,1024]{1,0} convert(bf16[64,1024]{1,0} %param_5.95), metadata={op_type="xla__cast" op_name="xla__cast" source_file="/usr/local/lib/python3.10/site-packages/torch/_ops.py" source_line=756}
  %param_4.291 = f32[64,1024]{1,0} parameter(4)
  %add.335.11 = f32[64,1024]{1,0} add(f32[64,1024]{1,0} %convert.1238.11, f32[64,1024]{1,0} %param_4.291), metadata={op_type="aten__add" op_name="aten__add.1122/aten__add" source_file="/usr/local/lib/python3.10/site-packages/torch/_ops.py" source_line=756}
  %add.336.11 = f32[64,1024]{1,0} add(f32[64,1024]{1,0} %slice.326.13, f32[64,1024]{1,0} %add.335.11), metadata={op_type="aten__add" op_name="aten__add.1135/aten__add" source_file="/usr/local/lib/python3.10/site-packages/torch/_ops.py" source_line=756}
  %add.338.7 = f32[64,1024]{1,0} add(f32[64,1024]{1,0} %convert.1250.7, f32[64,1024]{1,0} %add.336.11), metadata={op_type="aten__add" op_name="aten__add.1140/aten__add" source_file="/usr/local/lib/python3.10/site-packages/torch/_ops.py" source_line=756}
  %add.339.7 = f32[64,1024]{1,0} add(f32[64,1024]{1,0} %slice.325.9, f32[64,1024]{1,0} %add.338.7), metadata={op_type="aten__add" op_name="aten__add.1153/aten__add" source_file="/usr/local/lib/python3.10/site-packages/torch/_ops.py" source_line=756}
  %add.341.3 = f32[64,1024]{1,0} add(f32[64,1024]{1,0} %convert.1263.3, f32[64,1024]{1,0} %add.339.7), metadata={op_type="aten__add" op_name="aten__add.1158/aten__add" source_file="/usr/local/lib/python3.10/site-packages/torch/_ops.py" source_line=756}
  %add.342.3 = f32[64,1024]{1,0} add(f32[64,1024]{1,0} %slice.324.5, f32[64,1024]{1,0} %add.341.3), metadata={op_type="aten__add" op_name="aten__add.1171/aten__add" source_file="/usr/local/lib/python3.10/site-packages/torch/_ops.py" source_line=756}
  %multiply.693 = f32[64,1024]{1,0} multiply(f32[64,1024]{1,0} %add.342.3, f32[64,1024]{1,0} %add.342.3), metadata={op_type="aten__pow" op_name="aten__pow" source_file="/usr/local/lib/python3.10/site-packages/torch/_ops.py" source_line=756}
  %constant_615 = f32[] constant(0), metadata={op_type="aten__mean" op_name="aten__mean" source_file="/usr/local/lib/python3.10/site-packages/torch/_ops.py" source_line=756}
  %reduce.69 = f32[64]{0} reduce(f32[64,1024]{1,0} %multiply.693, f32[] %constant_615), dimensions={1}, to_apply=%AddComputation.94, metadata={op_type="aten__mean" op_name="aten__mean" source_file="/usr/local/lib/python3.10/site-packages/torch/_ops.py" source_line=756}
  %constant_614 = f32[] constant(0.0009765625), metadata={op_type="aten__mean" op_name="aten__mean" source_file="/usr/local/lib/python3.10/site-packages/torch/_ops.py" source_line=756}
  %broadcast.789 = f32[64]{0} broadcast(f32[] %constant_614), dimensions={}, metadata={op_type="aten__mean" op_name="aten__mean" source_file="/usr/local/lib/python3.10/site-packages/torch/_ops.py" source_line=756}
  %multiply.691 = f32[64]{0} multiply(f32[64]{0} %reduce.69, f32[64]{0} %broadcast.789), metadata={op_type="aten__mean" op_name="aten__mean" source_file="/usr/local/lib/python3.10/site-packages/torch/_ops.py" source_line=756}
  %param_0.989 = f32[] parameter(0)
  %broadcast.788 = f32[64]{0} broadcast(f32[] %param_0.989), dimensions={}, metadata={op_type="aten__add" op_name="aten__add.1028/aten__add" source_file="/usr/local/lib/python3.10/site-packages/torch/_ops.py" source_line=756}
  %add.412 = f32[64]{0} add(f32[64]{0} %multiply.691, f32[64]{0} %broadcast.788), metadata={op_type="aten__add" op_name="aten__add.1172/aten__add" source_file="/usr/local/lib/python3.10/site-packages/torch/_ops.py" source_line=756}
  %rsqrt.148 = f32[64]{0} rsqrt(f32[64]{0} %add.412), metadata={op_type="aten__rsqrt" op_name="aten__rsqrt" source_file="/usr/local/lib/python3.10/site-packages/torch/_ops.py" source_line=756}
  %broadcast.787 = f32[64,1024]{1,0} broadcast(f32[64]{0} %rsqrt.148), dimensions={0}, metadata={op_type="aten__mul" op_name="aten__mul.1173/aten__mul" source_file="/usr/local/lib/python3.10/site-packages/torch/_ops.py" source_line=756}
  %multiply.690 = f32[64,1024]{1,0} multiply(f32[64,1024]{1,0} %add.342.3, f32[64,1024]{1,0} %broadcast.787), metadata={op_type="aten__mul" op_name="aten__mul.1173/aten__mul" source_file="/usr/local/lib/python3.10/site-packages/torch/_ops.py" source_line=756}
  %param_3.508 = bf16[1024]{0} parameter(3)
  %convert.1264.1 = f32[1024]{0} convert(bf16[1024]{0} %param_3.508), metadata={op_type="xla__cast" op_name="xla__cast" source_file="/usr/local/lib/python3.10/site-packages/torch/_ops.py" source_line=756}
  %broadcast.560.1 = f32[64,1024]{1,0} broadcast(f32[1024]{0} %convert.1264.1), dimensions={1}, metadata={op_type="aten__mul" op_name="aten__mul.1174/aten__mul" source_file="/usr/local/lib/python3.10/site-packages/torch/_ops.py" source_line=756}
  %multiply.574.1 = f32[64,1024]{1,0} multiply(f32[64,1024]{1,0} %multiply.690, f32[64,1024]{1,0} %broadcast.560.1), metadata={op_type="aten__mul" op_name="aten__mul.1174/aten__mul" source_file="/usr/local/lib/python3.10/site-packages/torch/_ops.py" source_line=756}
  ROOT %convert.1265.1 = bf16[64,1024]{1,0} convert(f32[64,1024]{1,0} %multiply.574.1), metadata={op_type="xla__cast" op_name="xla__cast" source_file="/usr/local/lib/python3.10/site-packages/torch/_ops.py" source_line=756}
}

%fused_convert.15 (param_0.725: bf16[64,6144]) -> bf16[64,3072] {
  %param_0.725 = bf16[64,6144]{1,0} parameter(0)
  %slice.351.1 = bf16[64,3072]{1,0} slice(bf16[64,6144]{1,0} %param_0.725), slice={[0:64], [0:3072]}, metadata={op_type="xla__select" op_name="xla__select" source_file="/usr/local/lib/python3.10/site-packages/torch/_ops.py" source_line=756}
  %convert.1266.6 = f32[64,3072]{1,0} convert(bf16[64,3072]{1,0} %slice.351.1)
  %constant_1_20 = bf16[] constant(1), metadata={op_type="xla__select" op_name="xla__select" source_file="/usr/local/lib/python3.10/site-packages/torch/_ops.py" source_line=756}
  %convert.1497.18 = f32[] convert(bf16[] %constant_1_20)
  %broadcast.621.160 = f32[64,3072]{1,0} broadcast(f32[] %convert.1497.18), dimensions={}, metadata={op_type="xla__select" op_name="xla__select" source_file="/usr/local/lib/python3.10/site-packages/torch/_ops.py" source_line=756}
  %negate.80.7 = f32[64,3072]{1,0} negate(f32[64,3072]{1,0} %convert.1266.6)
  %convert.1272.5 = bf16[64,3072]{1,0} convert(f32[64,3072]{1,0} %negate.80.7)
  %exponential.80.3 = bf16[64,3072]{1,0} exponential(bf16[64,3072]{1,0} %convert.1272.5)
  %convert.1274.1 = f32[64,3072]{1,0} convert(bf16[64,3072]{1,0} %exponential.80.3)
  %add.343.5 = f32[64,3072]{1,0} add(f32[64,3072]{1,0} %broadcast.621.160, f32[64,3072]{1,0} %convert.1274.1)
  %divide.80.3 = f32[64,3072]{1,0} divide(f32[64,3072]{1,0} %broadcast.621.160, f32[64,3072]{1,0} %add.343.5), metadata={op_type="aten__silu" op_name="aten__silu" source_file="/usr/local/lib/python3.10/site-packages/torch/_ops.py" source_line=756}
  %multiply.575.3 = f32[64,3072]{1,0} multiply(f32[64,3072]{1,0} %convert.1266.6, f32[64,3072]{1,0} %divide.80.3), metadata={op_type="aten__silu" op_name="aten__silu" source_file="/usr/local/lib/python3.10/site-packages/torch/_ops.py" source_line=756}
  %slice.352.1 = bf16[64,3072]{1,0} slice(bf16[64,6144]{1,0} %param_0.725), slice={[0:64], [3072:6144]}, metadata={op_type="xla__select" op_name="xla__select" source_file="/usr/local/lib/python3.10/site-packages/torch/_ops.py" source_line=756}
  %convert.1275.1 = f32[64,3072]{1,0} convert(bf16[64,3072]{1,0} %slice.352.1), metadata={op_type="xla__cast" op_name="xla__cast" source_file="/usr/local/lib/python3.10/site-packages/torch/_ops.py" source_line=756}
  %multiply.576.1 = f32[64,3072]{1,0} multiply(f32[64,3072]{1,0} %multiply.575.3, f32[64,3072]{1,0} %convert.1275.1), metadata={op_type="aten__mul" op_name="aten__mul.1175/aten__mul" source_file="/usr/local/lib/python3.10/site-packages/torch/_ops.py" source_line=756}
  ROOT %convert.1277.1 = bf16[64,3072]{1,0} convert(f32[64,3072]{1,0} %multiply.576.1), metadata={op_type="xla__cast" op_name="xla__cast" source_file="/usr/local/lib/python3.10/site-packages/torch/_ops.py" source_line=756}
}

%fused_add.1 (param_0.860: bf16[64,24576], param_1.731: bf16[64,1024], param_2.533: bf16[64,1024], param_3.506: f32[64,1024], param_4.289: bf16[64,1024], param_5.91: bf16[64,1024]) -> f32[64,1024] {
  %param_0.860 = bf16[64,24576]{1,0} parameter(0)
  %convert.1151.44 = f32[64,24576]{1,0} convert(bf16[64,24576]{1,0} %param_0.860), metadata={op_type="xla__cast" op_name="xla__cast" source_file="/usr/local/lib/python3.10/site-packages/torch/_ops.py" source_line=756}
  %slice.323.3 = f32[64,1024]{1,0} slice(f32[64,24576]{1,0} %convert.1151.44), slice={[0:64], [14336:15360]}, metadata={op_type="aten__mm" op_name="aten__mm" source_file="/usr/local/lib/python3.10/site-packages/torch/_ops.py" source_line=756}
  %param_1.731 = bf16[64,1024]{1,0} parameter(1)
  %convert.1278.1 = f32[64,1024]{1,0} convert(bf16[64,1024]{1,0} %param_1.731), metadata={op_type="xla__cast" op_name="xla__cast" source_file="/usr/local/lib/python3.10/site-packages/torch/_ops.py" source_line=756}
  %slice.324.7 = f32[64,1024]{1,0} slice(f32[64,24576]{1,0} %convert.1151.44), slice={[0:64], [15360:16384]}, metadata={op_type="aten__mm" op_name="aten__mm" source_file="/usr/local/lib/python3.10/site-packages/torch/_ops.py" source_line=756}
  %param_2.533 = bf16[64,1024]{1,0} parameter(2)
  %convert.1263.5 = f32[64,1024]{1,0} convert(bf16[64,1024]{1,0} %param_2.533), metadata={op_type="xla__cast" op_name="xla__cast" source_file="/usr/local/lib/python3.10/site-packages/torch/_ops.py" source_line=756}
  %slice.325.7 = f32[64,1024]{1,0} slice(f32[64,24576]{1,0} %convert.1151.44), slice={[0:64], [16384:17408]}, metadata={op_type="aten__mm" op_name="aten__mm" source_file="/usr/local/lib/python3.10/site-packages/torch/_ops.py" source_line=756}
  %param_5.91 = bf16[64,1024]{1,0} parameter(5)
  %convert.1250.5 = f32[64,1024]{1,0} convert(bf16[64,1024]{1,0} %param_5.91), metadata={op_type="xla__cast" op_name="xla__cast" source_file="/usr/local/lib/python3.10/site-packages/torch/_ops.py" source_line=756}
  %slice.326.11 = f32[64,1024]{1,0} slice(f32[64,24576]{1,0} %convert.1151.44), slice={[0:64], [17408:18432]}, metadata={op_type="aten__mm" op_name="aten__mm" source_file="/usr/local/lib/python3.10/site-packages/torch/_ops.py" source_line=756}
  %param_4.289 = bf16[64,1024]{1,0} parameter(4)
  %convert.1238.9 = f32[64,1024]{1,0} convert(bf16[64,1024]{1,0} %param_4.289), metadata={op_type="xla__cast" op_name="xla__cast" source_file="/usr/local/lib/python3.10/site-packages/torch/_ops.py" source_line=756}
  %param_3.506 = f32[64,1024]{1,0} parameter(3)
  %add.335.9 = f32[64,1024]{1,0} add(f32[64,1024]{1,0} %convert.1238.9, f32[64,1024]{1,0} %param_3.506), metadata={op_type="aten__add" op_name="aten__add.1122/aten__add" source_file="/usr/local/lib/python3.10/site-packages/torch/_ops.py" source_line=756}
  %add.336.9 = f32[64,1024]{1,0} add(f32[64,1024]{1,0} %slice.326.11, f32[64,1024]{1,0} %add.335.9), metadata={op_type="aten__add" op_name="aten__add.1135/aten__add" source_file="/usr/local/lib/python3.10/site-packages/torch/_ops.py" source_line=756}
  %add.338.5 = f32[64,1024]{1,0} add(f32[64,1024]{1,0} %convert.1250.5, f32[64,1024]{1,0} %add.336.9), metadata={op_type="aten__add" op_name="aten__add.1140/aten__add" source_file="/usr/local/lib/python3.10/site-packages/torch/_ops.py" source_line=756}
  %add.339.5 = f32[64,1024]{1,0} add(f32[64,1024]{1,0} %slice.325.7, f32[64,1024]{1,0} %add.338.5), metadata={op_type="aten__add" op_name="aten__add.1153/aten__add" source_file="/usr/local/lib/python3.10/site-packages/torch/_ops.py" source_line=756}
  %add.341.5 = f32[64,1024]{1,0} add(f32[64,1024]{1,0} %convert.1263.5, f32[64,1024]{1,0} %add.339.5), metadata={op_type="aten__add" op_name="aten__add.1158/aten__add" source_file="/usr/local/lib/python3.10/site-packages/torch/_ops.py" source_line=756}
  %add.342.5 = f32[64,1024]{1,0} add(f32[64,1024]{1,0} %slice.324.7, f32[64,1024]{1,0} %add.341.5), metadata={op_type="aten__add" op_name="aten__add.1171/aten__add" source_file="/usr/local/lib/python3.10/site-packages/torch/_ops.py" source_line=756}
  %add.344.1 = f32[64,1024]{1,0} add(f32[64,1024]{1,0} %convert.1278.1, f32[64,1024]{1,0} %add.342.5), metadata={op_type="aten__add" op_name="aten__add.1176/aten__add" source_file="/usr/local/lib/python3.10/site-packages/torch/_ops.py" source_line=756}
  ROOT %add.345.1 = f32[64,1024]{1,0} add(f32[64,1024]{1,0} %slice.323.3, f32[64,1024]{1,0} %add.344.1), metadata={op_type="aten__add" op_name="aten__add.1189/aten__add" source_file="/usr/local/lib/python3.10/site-packages/torch/_ops.py" source_line=756}
}

%fused_computation.241 (param_0.988: f32[64,1024], param_1.773: f32[], param_2.482: bf16[1024]) -> bf16[64,1024] {
  %param_0.988 = f32[64,1024]{1,0} parameter(0)
  %multiply.700 = f32[64,1024]{1,0} multiply(f32[64,1024]{1,0} %param_0.988, f32[64,1024]{1,0} %param_0.988), metadata={op_type="aten__pow" op_name="aten__pow" source_file="/usr/local/lib/python3.10/site-packages/torch/_ops.py" source_line=756}
  %constant_620 = f32[] constant(0), metadata={op_type="aten__mean" op_name="aten__mean" source_file="/usr/local/lib/python3.10/site-packages/torch/_ops.py" source_line=756}
  %reduce.71 = f32[64]{0} reduce(f32[64,1024]{1,0} %multiply.700, f32[] %constant_620), dimensions={1}, to_apply=%AddComputation.94, metadata={op_type="aten__mean" op_name="aten__mean" source_file="/usr/local/lib/python3.10/site-packages/torch/_ops.py" source_line=756}
  %constant_619 = f32[] constant(0.0009765625), metadata={op_type="aten__mean" op_name="aten__mean" source_file="/usr/local/lib/python3.10/site-packages/torch/_ops.py" source_line=756}
  %broadcast.798 = f32[64]{0} broadcast(f32[] %constant_619), dimensions={}, metadata={op_type="aten__mean" op_name="aten__mean" source_file="/usr/local/lib/python3.10/site-packages/torch/_ops.py" source_line=756}
  %multiply.699 = f32[64]{0} multiply(f32[64]{0} %reduce.71, f32[64]{0} %broadcast.798), metadata={op_type="aten__mean" op_name="aten__mean" source_file="/usr/local/lib/python3.10/site-packages/torch/_ops.py" source_line=756}
  %param_1.773 = f32[] parameter(1)
  %broadcast.796 = f32[64]{0} broadcast(f32[] %param_1.773), dimensions={}, metadata={op_type="aten__add" op_name="aten__add.1028/aten__add" source_file="/usr/local/lib/python3.10/site-packages/torch/_ops.py" source_line=756}
  %add.414 = f32[64]{0} add(f32[64]{0} %multiply.699, f32[64]{0} %broadcast.796), metadata={op_type="aten__add" op_name="aten__add.1190/aten__add" source_file="/usr/local/lib/python3.10/site-packages/torch/_ops.py" source_line=756}
  %rsqrt.150 = f32[64]{0} rsqrt(f32[64]{0} %add.414), metadata={op_type="aten__rsqrt" op_name="aten__rsqrt" source_file="/usr/local/lib/python3.10/site-packages/torch/_ops.py" source_line=756}
  %broadcast.795 = f32[64,1024]{1,0} broadcast(f32[64]{0} %rsqrt.150), dimensions={0}, metadata={op_type="aten__mul" op_name="aten__mul.1191/aten__mul" source_file="/usr/local/lib/python3.10/site-packages/torch/_ops.py" source_line=756}
  %multiply.698 = f32[64,1024]{1,0} multiply(f32[64,1024]{1,0} %param_0.988, f32[64,1024]{1,0} %broadcast.795), metadata={op_type="aten__mul" op_name="aten__mul.1191/aten__mul" source_file="/usr/local/lib/python3.10/site-packages/torch/_ops.py" source_line=756}
  %param_2.482 = bf16[1024]{0} parameter(2)
  %convert.1279.1 = f32[1024]{0} convert(bf16[1024]{0} %param_2.482), metadata={op_type="xla__cast" op_name="xla__cast" source_file="/usr/local/lib/python3.10/site-packages/torch/_ops.py" source_line=756}
  %broadcast.563.1 = f32[64,1024]{1,0} broadcast(f32[1024]{0} %convert.1279.1), dimensions={1}, metadata={op_type="aten__mul" op_name="aten__mul.1192/aten__mul" source_file="/usr/local/lib/python3.10/site-packages/torch/_ops.py" source_line=756}
  %multiply.577.1 = f32[64,1024]{1,0} multiply(f32[64,1024]{1,0} %multiply.698, f32[64,1024]{1,0} %broadcast.563.1), metadata={op_type="aten__mul" op_name="aten__mul.1192/aten__mul" source_file="/usr/local/lib/python3.10/site-packages/torch/_ops.py" source_line=756}
  ROOT %convert.1281.1 = bf16[64,1024]{1,0} convert(f32[64,1024]{1,0} %multiply.577.1), metadata={op_type="xla__cast" op_name="xla__cast" source_file="/usr/local/lib/python3.10/site-packages/torch/_ops.py" source_line=756}
}

%fused_convert.14 (param_0.727: bf16[64,6144]) -> bf16[64,3072] {
  %param_0.727 = bf16[64,6144]{1,0} parameter(0)
  %slice.353.1 = bf16[64,3072]{1,0} slice(bf16[64,6144]{1,0} %param_0.727), slice={[0:64], [0:3072]}, metadata={op_type="xla__select" op_name="xla__select" source_file="/usr/local/lib/python3.10/site-packages/torch/_ops.py" source_line=756}
  %convert.1283.6 = f32[64,3072]{1,0} convert(bf16[64,3072]{1,0} %slice.353.1)
  %constant_1_22 = bf16[] constant(1), metadata={op_type="xla__select" op_name="xla__select" source_file="/usr/local/lib/python3.10/site-packages/torch/_ops.py" source_line=756}
  %convert.1497.20 = f32[] convert(bf16[] %constant_1_22)
  %broadcast.621.156 = f32[64,3072]{1,0} broadcast(f32[] %convert.1497.20), dimensions={}, metadata={op_type="xla__select" op_name="xla__select" source_file="/usr/local/lib/python3.10/site-packages/torch/_ops.py" source_line=756}
  %negate.81.7 = f32[64,3072]{1,0} negate(f32[64,3072]{1,0} %convert.1283.6)
  %convert.1290.5 = bf16[64,3072]{1,0} convert(f32[64,3072]{1,0} %negate.81.7)
  %exponential.81.3 = bf16[64,3072]{1,0} exponential(bf16[64,3072]{1,0} %convert.1290.5)
  %convert.1291.1 = f32[64,3072]{1,0} convert(bf16[64,3072]{1,0} %exponential.81.3)
  %add.346.5 = f32[64,3072]{1,0} add(f32[64,3072]{1,0} %broadcast.621.156, f32[64,3072]{1,0} %convert.1291.1)
  %divide.81.3 = f32[64,3072]{1,0} divide(f32[64,3072]{1,0} %broadcast.621.156, f32[64,3072]{1,0} %add.346.5), metadata={op_type="aten__silu" op_name="aten__silu" source_file="/usr/local/lib/python3.10/site-packages/torch/_ops.py" source_line=756}
  %multiply.578.3 = f32[64,3072]{1,0} multiply(f32[64,3072]{1,0} %convert.1283.6, f32[64,3072]{1,0} %divide.81.3), metadata={op_type="aten__silu" op_name="aten__silu" source_file="/usr/local/lib/python3.10/site-packages/torch/_ops.py" source_line=756}
  %slice.354.1 = bf16[64,3072]{1,0} slice(bf16[64,6144]{1,0} %param_0.727), slice={[0:64], [3072:6144]}, metadata={op_type="xla__select" op_name="xla__select" source_file="/usr/local/lib/python3.10/site-packages/torch/_ops.py" source_line=756}
  %convert.1292.1 = f32[64,3072]{1,0} convert(bf16[64,3072]{1,0} %slice.354.1), metadata={op_type="xla__cast" op_name="xla__cast" source_file="/usr/local/lib/python3.10/site-packages/torch/_ops.py" source_line=756}
  %multiply.579.1 = f32[64,3072]{1,0} multiply(f32[64,3072]{1,0} %multiply.578.3, f32[64,3072]{1,0} %convert.1292.1), metadata={op_type="aten__mul" op_name="aten__mul.1193/aten__mul" source_file="/usr/local/lib/python3.10/site-packages/torch/_ops.py" source_line=756}
  ROOT %convert.1293.1 = bf16[64,3072]{1,0} convert(f32[64,3072]{1,0} %multiply.579.1), metadata={op_type="xla__cast" op_name="xla__cast" source_file="/usr/local/lib/python3.10/site-packages/torch/_ops.py" source_line=756}
}

%fused_computation.240 (param_0.987: f32[], param_1.772: f32[64,1024], param_2.481: bf16[64,1024], param_3.440: bf16[64,24576], param_4.223: bf16[1024]) -> bf16[64,1024] {
  %param_3.440 = bf16[64,24576]{1,0} parameter(3)
  %convert.1151.104 = f32[64,24576]{1,0} convert(bf16[64,24576]{1,0} %param_3.440), metadata={op_type="xla__cast" op_name="xla__cast" source_file="/usr/local/lib/python3.10/site-packages/torch/_ops.py" source_line=756}
  %slice.322.5 = f32[64,1024]{1,0} slice(f32[64,24576]{1,0} %convert.1151.104), slice={[0:64], [13312:14336]}, metadata={op_type="aten__mm" op_name="aten__mm" source_file="/usr/local/lib/python3.10/site-packages/torch/_ops.py" source_line=756}
  %param_2.481 = bf16[64,1024]{1,0} parameter(2)
  %convert.1294.3 = f32[64,1024]{1,0} convert(bf16[64,1024]{1,0} %param_2.481), metadata={op_type="xla__cast" op_name="xla__cast" source_file="/usr/local/lib/python3.10/site-packages/torch/_ops.py" source_line=756}
  %param_1.772 = f32[64,1024]{1,0} parameter(1)
  %add.347.3 = f32[64,1024]{1,0} add(f32[64,1024]{1,0} %convert.1294.3, f32[64,1024]{1,0} %param_1.772), metadata={op_type="aten__add" op_name="aten__add.1194/aten__add" source_file="/usr/local/lib/python3.10/site-packages/torch/_ops.py" source_line=756}
  %add.348.3 = f32[64,1024]{1,0} add(f32[64,1024]{1,0} %slice.322.5, f32[64,1024]{1,0} %add.347.3), metadata={op_type="aten__add" op_name="aten__add.1207/aten__add" source_file="/usr/local/lib/python3.10/site-packages/torch/_ops.py" source_line=756}
  %multiply.708 = f32[64,1024]{1,0} multiply(f32[64,1024]{1,0} %add.348.3, f32[64,1024]{1,0} %add.348.3), metadata={op_type="aten__pow" op_name="aten__pow" source_file="/usr/local/lib/python3.10/site-packages/torch/_ops.py" source_line=756}
  %constant_625 = f32[] constant(0), metadata={op_type="aten__mean" op_name="aten__mean" source_file="/usr/local/lib/python3.10/site-packages/torch/_ops.py" source_line=756}
  %reduce.73 = f32[64]{0} reduce(f32[64,1024]{1,0} %multiply.708, f32[] %constant_625), dimensions={1}, to_apply=%AddComputation.94, metadata={op_type="aten__mean" op_name="aten__mean" source_file="/usr/local/lib/python3.10/site-packages/torch/_ops.py" source_line=756}
  %constant_624 = f32[] constant(0.0009765625), metadata={op_type="aten__mean" op_name="aten__mean" source_file="/usr/local/lib/python3.10/site-packages/torch/_ops.py" source_line=756}
  %broadcast.804 = f32[64]{0} broadcast(f32[] %constant_624), dimensions={}, metadata={op_type="aten__mean" op_name="aten__mean" source_file="/usr/local/lib/python3.10/site-packages/torch/_ops.py" source_line=756}
  %multiply.707 = f32[64]{0} multiply(f32[64]{0} %reduce.73, f32[64]{0} %broadcast.804), metadata={op_type="aten__mean" op_name="aten__mean" source_file="/usr/local/lib/python3.10/site-packages/torch/_ops.py" source_line=756}
  %param_0.987 = f32[] parameter(0)
  %broadcast.803 = f32[64]{0} broadcast(f32[] %param_0.987), dimensions={}, metadata={op_type="aten__add" op_name="aten__add.1028/aten__add" source_file="/usr/local/lib/python3.10/site-packages/torch/_ops.py" source_line=756}
  %add.416 = f32[64]{0} add(f32[64]{0} %multiply.707, f32[64]{0} %broadcast.803), metadata={op_type="aten__add" op_name="aten__add.1208/aten__add" source_file="/usr/local/lib/python3.10/site-packages/torch/_ops.py" source_line=756}
  %rsqrt.152 = f32[64]{0} rsqrt(f32[64]{0} %add.416), metadata={op_type="aten__rsqrt" op_name="aten__rsqrt" source_file="/usr/local/lib/python3.10/site-packages/torch/_ops.py" source_line=756}
  %broadcast.802 = f32[64,1024]{1,0} broadcast(f32[64]{0} %rsqrt.152), dimensions={0}, metadata={op_type="aten__mul" op_name="aten__mul.1209/aten__mul" source_file="/usr/local/lib/python3.10/site-packages/torch/_ops.py" source_line=756}
  %multiply.706 = f32[64,1024]{1,0} multiply(f32[64,1024]{1,0} %add.348.3, f32[64,1024]{1,0} %broadcast.802), metadata={op_type="aten__mul" op_name="aten__mul.1209/aten__mul" source_file="/usr/local/lib/python3.10/site-packages/torch/_ops.py" source_line=756}
  %param_4.223 = bf16[1024]{0} parameter(4)
  %convert.1295.1 = f32[1024]{0} convert(bf16[1024]{0} %param_4.223), metadata={op_type="xla__cast" op_name="xla__cast" source_file="/usr/local/lib/python3.10/site-packages/torch/_ops.py" source_line=756}
  %broadcast.567.1 = f32[64,1024]{1,0} broadcast(f32[1024]{0} %convert.1295.1), dimensions={1}, metadata={op_type="aten__mul" op_name="aten__mul.1210/aten__mul" source_file="/usr/local/lib/python3.10/site-packages/torch/_ops.py" source_line=756}
  %multiply.580.1 = f32[64,1024]{1,0} multiply(f32[64,1024]{1,0} %multiply.706, f32[64,1024]{1,0} %broadcast.567.1), metadata={op_type="aten__mul" op_name="aten__mul.1210/aten__mul" source_file="/usr/local/lib/python3.10/site-packages/torch/_ops.py" source_line=756}
  ROOT %convert.1296.1 = bf16[64,1024]{1,0} convert(f32[64,1024]{1,0} %multiply.580.1), metadata={op_type="xla__cast" op_name="xla__cast" source_file="/usr/local/lib/python3.10/site-packages/torch/_ops.py" source_line=756}
}

%fused_convert.13 (param_0.729: bf16[64,6144]) -> bf16[64,3072] {
  %param_0.729 = bf16[64,6144]{1,0} parameter(0)
  %slice.355.1 = bf16[64,3072]{1,0} slice(bf16[64,6144]{1,0} %param_0.729), slice={[0:64], [0:3072]}, metadata={op_type="xla__select" op_name="xla__select" source_file="/usr/local/lib/python3.10/site-packages/torch/_ops.py" source_line=756}
  %convert.1297.6 = f32[64,3072]{1,0} convert(bf16[64,3072]{1,0} %slice.355.1)
  %constant_1_24 = bf16[] constant(1), metadata={op_type="xla__select" op_name="xla__select" source_file="/usr/local/lib/python3.10/site-packages/torch/_ops.py" source_line=756}
  %convert.1497.22 = f32[] convert(bf16[] %constant_1_24)
  %broadcast.621.152 = f32[64,3072]{1,0} broadcast(f32[] %convert.1497.22), dimensions={}, metadata={op_type="xla__select" op_name="xla__select" source_file="/usr/local/lib/python3.10/site-packages/torch/_ops.py" source_line=756}
  %negate.82.7 = f32[64,3072]{1,0} negate(f32[64,3072]{1,0} %convert.1297.6)
  %convert.1302.5 = bf16[64,3072]{1,0} convert(f32[64,3072]{1,0} %negate.82.7)
  %exponential.82.3 = bf16[64,3072]{1,0} exponential(bf16[64,3072]{1,0} %convert.1302.5)
  %convert.1303.1 = f32[64,3072]{1,0} convert(bf16[64,3072]{1,0} %exponential.82.3)
  %add.349.5 = f32[64,3072]{1,0} add(f32[64,3072]{1,0} %broadcast.621.152, f32[64,3072]{1,0} %convert.1303.1)
  %divide.82.3 = f32[64,3072]{1,0} divide(f32[64,3072]{1,0} %broadcast.621.152, f32[64,3072]{1,0} %add.349.5), metadata={op_type="aten__silu" op_name="aten__silu" source_file="/usr/local/lib/python3.10/site-packages/torch/_ops.py" source_line=756}
  %multiply.581.3 = f32[64,3072]{1,0} multiply(f32[64,3072]{1,0} %convert.1297.6, f32[64,3072]{1,0} %divide.82.3), metadata={op_type="aten__silu" op_name="aten__silu" source_file="/usr/local/lib/python3.10/site-packages/torch/_ops.py" source_line=756}
  %slice.356.1 = bf16[64,3072]{1,0} slice(bf16[64,6144]{1,0} %param_0.729), slice={[0:64], [3072:6144]}, metadata={op_type="xla__select" op_name="xla__select" source_file="/usr/local/lib/python3.10/site-packages/torch/_ops.py" source_line=756}
  %convert.1306.1 = f32[64,3072]{1,0} convert(bf16[64,3072]{1,0} %slice.356.1), metadata={op_type="xla__cast" op_name="xla__cast" source_file="/usr/local/lib/python3.10/site-packages/torch/_ops.py" source_line=756}
  %multiply.583.1 = f32[64,3072]{1,0} multiply(f32[64,3072]{1,0} %multiply.581.3, f32[64,3072]{1,0} %convert.1306.1), metadata={op_type="aten__mul" op_name="aten__mul.1211/aten__mul" source_file="/usr/local/lib/python3.10/site-packages/torch/_ops.py" source_line=756}
  ROOT %convert.1307.1 = bf16[64,3072]{1,0} convert(f32[64,3072]{1,0} %multiply.583.1), metadata={op_type="xla__cast" op_name="xla__cast" source_file="/usr/local/lib/python3.10/site-packages/torch/_ops.py" source_line=756}
}

%fused_computation.239 (param_0.1026: f32[], param_1.807: bf16[1024], param_2.524: f32[64,1024], param_3.493: bf16[64,1024], param_4.274: bf16[64,24576], param_5.71: bf16[64,1024]) -> bf16[64,1024] {
  %param_4.274 = bf16[64,24576]{1,0} parameter(4)
  %convert.1151.170 = f32[64,24576]{1,0} convert(bf16[64,24576]{1,0} %param_4.274), metadata={op_type="xla__cast" op_name="xla__cast" source_file="/usr/local/lib/python3.10/site-packages/torch/_ops.py" source_line=756}
  %slice.321.5 = f32[64,1024]{1,0} slice(f32[64,24576]{1,0} %convert.1151.170), slice={[0:64], [12288:13312]}, metadata={op_type="aten__mm" op_name="aten__mm" source_file="/usr/local/lib/python3.10/site-packages/torch/_ops.py" source_line=756}
  %param_5.71 = bf16[64,1024]{1,0} parameter(5)
  %convert.1308.3 = f32[64,1024]{1,0} convert(bf16[64,1024]{1,0} %param_5.71), metadata={op_type="xla__cast" op_name="xla__cast" source_file="/usr/local/lib/python3.10/site-packages/torch/_ops.py" source_line=756}
  %slice.322.9 = f32[64,1024]{1,0} slice(f32[64,24576]{1,0} %convert.1151.170), slice={[0:64], [13312:14336]}, metadata={op_type="aten__mm" op_name="aten__mm" source_file="/usr/local/lib/python3.10/site-packages/torch/_ops.py" source_line=756}
  %param_3.493 = bf16[64,1024]{1,0} parameter(3)
  %convert.1294.7 = f32[64,1024]{1,0} convert(bf16[64,1024]{1,0} %param_3.493), metadata={op_type="xla__cast" op_name="xla__cast" source_file="/usr/local/lib/python3.10/site-packages/torch/_ops.py" source_line=756}
  %param_2.524 = f32[64,1024]{1,0} parameter(2)
  %add.347.7 = f32[64,1024]{1,0} add(f32[64,1024]{1,0} %convert.1294.7, f32[64,1024]{1,0} %param_2.524), metadata={op_type="aten__add" op_name="aten__add.1194/aten__add" source_file="/usr/local/lib/python3.10/site-packages/torch/_ops.py" source_line=756}
  %add.348.7 = f32[64,1024]{1,0} add(f32[64,1024]{1,0} %slice.322.9, f32[64,1024]{1,0} %add.347.7), metadata={op_type="aten__add" op_name="aten__add.1207/aten__add" source_file="/usr/local/lib/python3.10/site-packages/torch/_ops.py" source_line=756}
  %add.350.3 = f32[64,1024]{1,0} add(f32[64,1024]{1,0} %convert.1308.3, f32[64,1024]{1,0} %add.348.7), metadata={op_type="aten__add" op_name="aten__add.1212/aten__add" source_file="/usr/local/lib/python3.10/site-packages/torch/_ops.py" source_line=756}
  %add.352.3 = f32[64,1024]{1,0} add(f32[64,1024]{1,0} %slice.321.5, f32[64,1024]{1,0} %add.350.3), metadata={op_type="aten__add" op_name="aten__add.1225/aten__add" source_file="/usr/local/lib/python3.10/site-packages/torch/_ops.py" source_line=756}
  %multiply.715 = f32[64,1024]{1,0} multiply(f32[64,1024]{1,0} %add.352.3, f32[64,1024]{1,0} %add.352.3), metadata={op_type="aten__pow" op_name="aten__pow" source_file="/usr/local/lib/python3.10/site-packages/torch/_ops.py" source_line=756}
  %constant_630 = f32[] constant(0), metadata={op_type="aten__mean" op_name="aten__mean" source_file="/usr/local/lib/python3.10/site-packages/torch/_ops.py" source_line=756}
  %reduce.75 = f32[64]{0} reduce(f32[64,1024]{1,0} %multiply.715, f32[] %constant_630), dimensions={1}, to_apply=%AddComputation.94, metadata={op_type="aten__mean" op_name="aten__mean" source_file="/usr/local/lib/python3.10/site-packages/torch/_ops.py" source_line=756}
  %constant_629 = f32[] constant(0.0009765625), metadata={op_type="aten__mean" op_name="aten__mean" source_file="/usr/local/lib/python3.10/site-packages/torch/_ops.py" source_line=756}
  %broadcast.811 = f32[64]{0} broadcast(f32[] %constant_629), dimensions={}, metadata={op_type="aten__mean" op_name="aten__mean" source_file="/usr/local/lib/python3.10/site-packages/torch/_ops.py" source_line=756}
  %multiply.714 = f32[64]{0} multiply(f32[64]{0} %reduce.75, f32[64]{0} %broadcast.811), metadata={op_type="aten__mean" op_name="aten__mean" source_file="/usr/local/lib/python3.10/site-packages/torch/_ops.py" source_line=756}
  %param_0.1026 = f32[] parameter(0)
  %broadcast.809 = f32[64]{0} broadcast(f32[] %param_0.1026), dimensions={}, metadata={op_type="aten__add" op_name="aten__add.1028/aten__add" source_file="/usr/local/lib/python3.10/site-packages/torch/_ops.py" source_line=756}
  %add.418 = f32[64]{0} add(f32[64]{0} %multiply.714, f32[64]{0} %broadcast.809), metadata={op_type="aten__add" op_name="aten__add.1226/aten__add" source_file="/usr/local/lib/python3.10/site-packages/torch/_ops.py" source_line=756}
  %rsqrt.154 = f32[64]{0} rsqrt(f32[64]{0} %add.418), metadata={op_type="aten__rsqrt" op_name="aten__rsqrt" source_file="/usr/local/lib/python3.10/site-packages/torch/_ops.py" source_line=756}
  %broadcast.808 = f32[64,1024]{1,0} broadcast(f32[64]{0} %rsqrt.154), dimensions={0}, metadata={op_type="aten__mul" op_name="aten__mul.1227/aten__mul" source_file="/usr/local/lib/python3.10/site-packages/torch/_ops.py" source_line=756}
  %multiply.713 = f32[64,1024]{1,0} multiply(f32[64,1024]{1,0} %add.352.3, f32[64,1024]{1,0} %broadcast.808), metadata={op_type="aten__mul" op_name="aten__mul.1227/aten__mul" source_file="/usr/local/lib/python3.10/site-packages/torch/_ops.py" source_line=756}
  %param_1.807 = bf16[1024]{0} parameter(1)
  %convert.1309.1 = f32[1024]{0} convert(bf16[1024]{0} %param_1.807), metadata={op_type="xla__cast" op_name="xla__cast" source_file="/usr/local/lib/python3.10/site-packages/torch/_ops.py" source_line=756}
  %broadcast.570.1 = f32[64,1024]{1,0} broadcast(f32[1024]{0} %convert.1309.1), dimensions={1}, metadata={op_type="aten__mul" op_name="aten__mul.1228/aten__mul" source_file="/usr/local/lib/python3.10/site-packages/torch/_ops.py" source_line=756}
  %multiply.584.1 = f32[64,1024]{1,0} multiply(f32[64,1024]{1,0} %multiply.713, f32[64,1024]{1,0} %broadcast.570.1), metadata={op_type="aten__mul" op_name="aten__mul.1228/aten__mul" source_file="/usr/local/lib/python3.10/site-packages/torch/_ops.py" source_line=756}
  ROOT %convert.1310.1 = bf16[64,1024]{1,0} convert(f32[64,1024]{1,0} %multiply.584.1), metadata={op_type="xla__cast" op_name="xla__cast" source_file="/usr/local/lib/python3.10/site-packages/torch/_ops.py" source_line=756}
}

%fused_convert.12 (param_0.731: bf16[64,6144]) -> bf16[64,3072] {
  %param_0.731 = bf16[64,6144]{1,0} parameter(0)
  %slice.357.1 = bf16[64,3072]{1,0} slice(bf16[64,6144]{1,0} %param_0.731), slice={[0:64], [0:3072]}, metadata={op_type="xla__select" op_name="xla__select" source_file="/usr/local/lib/python3.10/site-packages/torch/_ops.py" source_line=756}
  %convert.1312.6 = f32[64,3072]{1,0} convert(bf16[64,3072]{1,0} %slice.357.1)
  %constant_1_1 = bf16[] constant(1), metadata={op_type="xla__select" op_name="xla__select" source_file="/usr/local/lib/python3.10/site-packages/torch/_ops.py" source_line=756}
  %convert.1497.24 = f32[] convert(bf16[] %constant_1_1)
  %broadcast.621.148 = f32[64,3072]{1,0} broadcast(f32[] %convert.1497.24), dimensions={}, metadata={op_type="xla__select" op_name="xla__select" source_file="/usr/local/lib/python3.10/site-packages/torch/_ops.py" source_line=756}
  %negate.83.7 = f32[64,3072]{1,0} negate(f32[64,3072]{1,0} %convert.1312.6)
  %convert.1316.5 = bf16[64,3072]{1,0} convert(f32[64,3072]{1,0} %negate.83.7)
  %exponential.83.3 = bf16[64,3072]{1,0} exponential(bf16[64,3072]{1,0} %convert.1316.5)
  %convert.1317.1 = f32[64,3072]{1,0} convert(bf16[64,3072]{1,0} %exponential.83.3)
  %add.353.5 = f32[64,3072]{1,0} add(f32[64,3072]{1,0} %broadcast.621.148, f32[64,3072]{1,0} %convert.1317.1)
  %divide.83.3 = f32[64,3072]{1,0} divide(f32[64,3072]{1,0} %broadcast.621.148, f32[64,3072]{1,0} %add.353.5), metadata={op_type="aten__silu" op_name="aten__silu" source_file="/usr/local/lib/python3.10/site-packages/torch/_ops.py" source_line=756}
  %multiply.585.3 = f32[64,3072]{1,0} multiply(f32[64,3072]{1,0} %convert.1312.6, f32[64,3072]{1,0} %divide.83.3), metadata={op_type="aten__silu" op_name="aten__silu" source_file="/usr/local/lib/python3.10/site-packages/torch/_ops.py" source_line=756}
  %slice.358.1 = bf16[64,3072]{1,0} slice(bf16[64,6144]{1,0} %param_0.731), slice={[0:64], [3072:6144]}, metadata={op_type="xla__select" op_name="xla__select" source_file="/usr/local/lib/python3.10/site-packages/torch/_ops.py" source_line=756}
  %convert.1318.1 = f32[64,3072]{1,0} convert(bf16[64,3072]{1,0} %slice.358.1), metadata={op_type="xla__cast" op_name="xla__cast" source_file="/usr/local/lib/python3.10/site-packages/torch/_ops.py" source_line=756}
  %multiply.586.1 = f32[64,3072]{1,0} multiply(f32[64,3072]{1,0} %multiply.585.3, f32[64,3072]{1,0} %convert.1318.1), metadata={op_type="aten__mul" op_name="aten__mul.1229/aten__mul" source_file="/usr/local/lib/python3.10/site-packages/torch/_ops.py" source_line=756}
  ROOT %convert.1319.1 = bf16[64,3072]{1,0} convert(f32[64,3072]{1,0} %multiply.586.1), metadata={op_type="xla__cast" op_name="xla__cast" source_file="/usr/local/lib/python3.10/site-packages/torch/_ops.py" source_line=756}
}

%fused_computation.238 (param_0.985: f32[], param_1.810: bf16[64,1024], param_2.528: bf16[64,24576], param_3.498: bf16[1024], param_4.280: f32[64,1024], param_5.80: bf16[64,1024], param_6.72: bf16[64,1024]) -> bf16[64,1024] {
  %param_2.528 = bf16[64,24576]{1,0} parameter(2)
  %convert.1151.100 = f32[64,24576]{1,0} convert(bf16[64,24576]{1,0} %param_2.528), metadata={op_type="xla__cast" op_name="xla__cast" source_file="/usr/local/lib/python3.10/site-packages/torch/_ops.py" source_line=756}
  %slice.320.5 = f32[64,1024]{1,0} slice(f32[64,24576]{1,0} %convert.1151.100), slice={[0:64], [11264:12288]}, metadata={op_type="aten__mm" op_name="aten__mm" source_file="/usr/local/lib/python3.10/site-packages/torch/_ops.py" source_line=756}
  %param_1.810 = bf16[64,1024]{1,0} parameter(1)
  %convert.1320.3 = f32[64,1024]{1,0} convert(bf16[64,1024]{1,0} %param_1.810), metadata={op_type="xla__cast" op_name="xla__cast" source_file="/usr/local/lib/python3.10/site-packages/torch/_ops.py" source_line=756}
  %slice.321.9 = f32[64,1024]{1,0} slice(f32[64,24576]{1,0} %convert.1151.100), slice={[0:64], [12288:13312]}, metadata={op_type="aten__mm" op_name="aten__mm" source_file="/usr/local/lib/python3.10/site-packages/torch/_ops.py" source_line=756}
  %param_6.72 = bf16[64,1024]{1,0} parameter(6)
  %convert.1308.7 = f32[64,1024]{1,0} convert(bf16[64,1024]{1,0} %param_6.72), metadata={op_type="xla__cast" op_name="xla__cast" source_file="/usr/local/lib/python3.10/site-packages/torch/_ops.py" source_line=756}
  %slice.322.13 = f32[64,1024]{1,0} slice(f32[64,24576]{1,0} %convert.1151.100), slice={[0:64], [13312:14336]}, metadata={op_type="aten__mm" op_name="aten__mm" source_file="/usr/local/lib/python3.10/site-packages/torch/_ops.py" source_line=756}
  %param_5.80 = bf16[64,1024]{1,0} parameter(5)
  %convert.1294.11 = f32[64,1024]{1,0} convert(bf16[64,1024]{1,0} %param_5.80), metadata={op_type="xla__cast" op_name="xla__cast" source_file="/usr/local/lib/python3.10/site-packages/torch/_ops.py" source_line=756}
  %param_4.280 = f32[64,1024]{1,0} parameter(4)
  %add.347.11 = f32[64,1024]{1,0} add(f32[64,1024]{1,0} %convert.1294.11, f32[64,1024]{1,0} %param_4.280), metadata={op_type="aten__add" op_name="aten__add.1194/aten__add" source_file="/usr/local/lib/python3.10/site-packages/torch/_ops.py" source_line=756}
  %add.348.11 = f32[64,1024]{1,0} add(f32[64,1024]{1,0} %slice.322.13, f32[64,1024]{1,0} %add.347.11), metadata={op_type="aten__add" op_name="aten__add.1207/aten__add" source_file="/usr/local/lib/python3.10/site-packages/torch/_ops.py" source_line=756}
  %add.350.7 = f32[64,1024]{1,0} add(f32[64,1024]{1,0} %convert.1308.7, f32[64,1024]{1,0} %add.348.11), metadata={op_type="aten__add" op_name="aten__add.1212/aten__add" source_file="/usr/local/lib/python3.10/site-packages/torch/_ops.py" source_line=756}
  %add.352.7 = f32[64,1024]{1,0} add(f32[64,1024]{1,0} %slice.321.9, f32[64,1024]{1,0} %add.350.7), metadata={op_type="aten__add" op_name="aten__add.1225/aten__add" source_file="/usr/local/lib/python3.10/site-packages/torch/_ops.py" source_line=756}
  %add.354.3 = f32[64,1024]{1,0} add(f32[64,1024]{1,0} %convert.1320.3, f32[64,1024]{1,0} %add.352.7), metadata={op_type="aten__add" op_name="aten__add.1230/aten__add" source_file="/usr/local/lib/python3.10/site-packages/torch/_ops.py" source_line=756}
  %add.355.3 = f32[64,1024]{1,0} add(f32[64,1024]{1,0} %slice.320.5, f32[64,1024]{1,0} %add.354.3), metadata={op_type="aten__add" op_name="aten__add.1243/aten__add" source_file="/usr/local/lib/python3.10/site-packages/torch/_ops.py" source_line=756}
  %multiply.721 = f32[64,1024]{1,0} multiply(f32[64,1024]{1,0} %add.355.3, f32[64,1024]{1,0} %add.355.3), metadata={op_type="aten__pow" op_name="aten__pow" source_file="/usr/local/lib/python3.10/site-packages/torch/_ops.py" source_line=756}
  %constant_635 = f32[] constant(0), metadata={op_type="aten__mean" op_name="aten__mean" source_file="/usr/local/lib/python3.10/site-packages/torch/_ops.py" source_line=756}
  %reduce.77 = f32[64]{0} reduce(f32[64,1024]{1,0} %multiply.721, f32[] %constant_635), dimensions={1}, to_apply=%AddComputation.94, metadata={op_type="aten__mean" op_name="aten__mean" source_file="/usr/local/lib/python3.10/site-packages/torch/_ops.py" source_line=756}
  %constant_634 = f32[] constant(0.0009765625), metadata={op_type="aten__mean" op_name="aten__mean" source_file="/usr/local/lib/python3.10/site-packages/torch/_ops.py" source_line=756}
  %broadcast.817 = f32[64]{0} broadcast(f32[] %constant_634), dimensions={}, metadata={op_type="aten__mean" op_name="aten__mean" source_file="/usr/local/lib/python3.10/site-packages/torch/_ops.py" source_line=756}
  %multiply.720 = f32[64]{0} multiply(f32[64]{0} %reduce.77, f32[64]{0} %broadcast.817), metadata={op_type="aten__mean" op_name="aten__mean" source_file="/usr/local/lib/python3.10/site-packages/torch/_ops.py" source_line=756}
  %param_0.985 = f32[] parameter(0)
  %broadcast.816 = f32[64]{0} broadcast(f32[] %param_0.985), dimensions={}, metadata={op_type="aten__add" op_name="aten__add.1028/aten__add" source_file="/usr/local/lib/python3.10/site-packages/torch/_ops.py" source_line=756}
  %add.420 = f32[64]{0} add(f32[64]{0} %multiply.720, f32[64]{0} %broadcast.816), metadata={op_type="aten__add" op_name="aten__add.1244/aten__add" source_file="/usr/local/lib/python3.10/site-packages/torch/_ops.py" source_line=756}
  %rsqrt.156 = f32[64]{0} rsqrt(f32[64]{0} %add.420), metadata={op_type="aten__rsqrt" op_name="aten__rsqrt" source_file="/usr/local/lib/python3.10/site-packages/torch/_ops.py" source_line=756}
  %broadcast.815 = f32[64,1024]{1,0} broadcast(f32[64]{0} %rsqrt.156), dimensions={0}, metadata={op_type="aten__mul" op_name="aten__mul.1245/aten__mul" source_file="/usr/local/lib/python3.10/site-packages/torch/_ops.py" source_line=756}
  %multiply.719 = f32[64,1024]{1,0} multiply(f32[64,1024]{1,0} %add.355.3, f32[64,1024]{1,0} %broadcast.815), metadata={op_type="aten__mul" op_name="aten__mul.1245/aten__mul" source_file="/usr/local/lib/python3.10/site-packages/torch/_ops.py" source_line=756}
  %param_3.498 = bf16[1024]{0} parameter(3)
  %convert.1321.1 = f32[1024]{0} convert(bf16[1024]{0} %param_3.498), metadata={op_type="xla__cast" op_name="xla__cast" source_file="/usr/local/lib/python3.10/site-packages/torch/_ops.py" source_line=756}
  %broadcast.573.1 = f32[64,1024]{1,0} broadcast(f32[1024]{0} %convert.1321.1), dimensions={1}, metadata={op_type="aten__mul" op_name="aten__mul.1246/aten__mul" source_file="/usr/local/lib/python3.10/site-packages/torch/_ops.py" source_line=756}
  %multiply.587.1 = f32[64,1024]{1,0} multiply(f32[64,1024]{1,0} %multiply.719, f32[64,1024]{1,0} %broadcast.573.1), metadata={op_type="aten__mul" op_name="aten__mul.1246/aten__mul" source_file="/usr/local/lib/python3.10/site-packages/torch/_ops.py" source_line=756}
  ROOT %convert.1322.1 = bf16[64,1024]{1,0} convert(f32[64,1024]{1,0} %multiply.587.1), metadata={op_type="xla__cast" op_name="xla__cast" source_file="/usr/local/lib/python3.10/site-packages/torch/_ops.py" source_line=756}
}

%fused_convert.11 (param_0.712: bf16[64,6144]) -> bf16[64,3072] {
  %param_0.712 = bf16[64,6144]{1,0} parameter(0)
  %slice.359.1 = bf16[64,3072]{1,0} slice(bf16[64,6144]{1,0} %param_0.712), slice={[0:64], [0:3072]}, metadata={op_type="xla__select" op_name="xla__select" source_file="/usr/local/lib/python3.10/site-packages/torch/_ops.py" source_line=756}
  %convert.1323.6 = f32[64,3072]{1,0} convert(bf16[64,3072]{1,0} %slice.359.1)
  %constant_1_7 = bf16[] constant(1), metadata={op_type="xla__select" op_name="xla__select" source_file="/usr/local/lib/python3.10/site-packages/torch/_ops.py" source_line=756}
  %convert.1497.5 = f32[] convert(bf16[] %constant_1_7)
  %broadcast.621.144 = f32[64,3072]{1,0} broadcast(f32[] %convert.1497.5), dimensions={}, metadata={op_type="xla__select" op_name="xla__select" source_file="/usr/local/lib/python3.10/site-packages/torch/_ops.py" source_line=756}
  %negate.84.7 = f32[64,3072]{1,0} negate(f32[64,3072]{1,0} %convert.1323.6)
  %convert.1328.5 = bf16[64,3072]{1,0} convert(f32[64,3072]{1,0} %negate.84.7)
  %exponential.84.3 = bf16[64,3072]{1,0} exponential(bf16[64,3072]{1,0} %convert.1328.5)
  %convert.1329.1 = f32[64,3072]{1,0} convert(bf16[64,3072]{1,0} %exponential.84.3)
  %add.356.5 = f32[64,3072]{1,0} add(f32[64,3072]{1,0} %broadcast.621.144, f32[64,3072]{1,0} %convert.1329.1)
  %divide.84.3 = f32[64,3072]{1,0} divide(f32[64,3072]{1,0} %broadcast.621.144, f32[64,3072]{1,0} %add.356.5), metadata={op_type="aten__silu" op_name="aten__silu" source_file="/usr/local/lib/python3.10/site-packages/torch/_ops.py" source_line=756}
  %multiply.588.3 = f32[64,3072]{1,0} multiply(f32[64,3072]{1,0} %convert.1323.6, f32[64,3072]{1,0} %divide.84.3), metadata={op_type="aten__silu" op_name="aten__silu" source_file="/usr/local/lib/python3.10/site-packages/torch/_ops.py" source_line=756}
  %slice.360.1 = bf16[64,3072]{1,0} slice(bf16[64,6144]{1,0} %param_0.712), slice={[0:64], [3072:6144]}, metadata={op_type="xla__select" op_name="xla__select" source_file="/usr/local/lib/python3.10/site-packages/torch/_ops.py" source_line=756}
  %convert.1330.1 = f32[64,3072]{1,0} convert(bf16[64,3072]{1,0} %slice.360.1), metadata={op_type="xla__cast" op_name="xla__cast" source_file="/usr/local/lib/python3.10/site-packages/torch/_ops.py" source_line=756}
  %multiply.589.1 = f32[64,3072]{1,0} multiply(f32[64,3072]{1,0} %multiply.588.3, f32[64,3072]{1,0} %convert.1330.1), metadata={op_type="aten__mul" op_name="aten__mul.1247/aten__mul" source_file="/usr/local/lib/python3.10/site-packages/torch/_ops.py" source_line=756}
  ROOT %convert.1331.1 = bf16[64,3072]{1,0} convert(f32[64,3072]{1,0} %multiply.589.1), metadata={op_type="xla__cast" op_name="xla__cast" source_file="/usr/local/lib/python3.10/site-packages/torch/_ops.py" source_line=756}
}

%fused_add.2 (param_0.848: bf16[64,24576], param_1.723: bf16[64,1024], param_2.526: bf16[64,1024], param_3.496: f32[64,1024], param_4.278: bf16[64,1024], param_5.76: bf16[64,1024]) -> f32[64,1024] {
  %param_0.848 = bf16[64,24576]{1,0} parameter(0)
  %convert.1151.52 = f32[64,24576]{1,0} convert(bf16[64,24576]{1,0} %param_0.848), metadata={op_type="xla__cast" op_name="xla__cast" source_file="/usr/local/lib/python3.10/site-packages/torch/_ops.py" source_line=756}
  %slice.319.3 = f32[64,1024]{1,0} slice(f32[64,24576]{1,0} %convert.1151.52), slice={[0:64], [10240:11264]}, metadata={op_type="aten__mm" op_name="aten__mm" source_file="/usr/local/lib/python3.10/site-packages/torch/_ops.py" source_line=756}
  %param_1.723 = bf16[64,1024]{1,0} parameter(1)
  %convert.1332.1 = f32[64,1024]{1,0} convert(bf16[64,1024]{1,0} %param_1.723), metadata={op_type="xla__cast" op_name="xla__cast" source_file="/usr/local/lib/python3.10/site-packages/torch/_ops.py" source_line=756}
  %slice.320.7 = f32[64,1024]{1,0} slice(f32[64,24576]{1,0} %convert.1151.52), slice={[0:64], [11264:12288]}, metadata={op_type="aten__mm" op_name="aten__mm" source_file="/usr/local/lib/python3.10/site-packages/torch/_ops.py" source_line=756}
  %param_2.526 = bf16[64,1024]{1,0} parameter(2)
  %convert.1320.5 = f32[64,1024]{1,0} convert(bf16[64,1024]{1,0} %param_2.526), metadata={op_type="xla__cast" op_name="xla__cast" source_file="/usr/local/lib/python3.10/site-packages/torch/_ops.py" source_line=756}
  %slice.321.7 = f32[64,1024]{1,0} slice(f32[64,24576]{1,0} %convert.1151.52), slice={[0:64], [12288:13312]}, metadata={op_type="aten__mm" op_name="aten__mm" source_file="/usr/local/lib/python3.10/site-packages/torch/_ops.py" source_line=756}
  %param_5.76 = bf16[64,1024]{1,0} parameter(5)
  %convert.1308.5 = f32[64,1024]{1,0} convert(bf16[64,1024]{1,0} %param_5.76), metadata={op_type="xla__cast" op_name="xla__cast" source_file="/usr/local/lib/python3.10/site-packages/torch/_ops.py" source_line=756}
  %slice.322.11 = f32[64,1024]{1,0} slice(f32[64,24576]{1,0} %convert.1151.52), slice={[0:64], [13312:14336]}, metadata={op_type="aten__mm" op_name="aten__mm" source_file="/usr/local/lib/python3.10/site-packages/torch/_ops.py" source_line=756}
  %param_4.278 = bf16[64,1024]{1,0} parameter(4)
  %convert.1294.9 = f32[64,1024]{1,0} convert(bf16[64,1024]{1,0} %param_4.278), metadata={op_type="xla__cast" op_name="xla__cast" source_file="/usr/local/lib/python3.10/site-packages/torch/_ops.py" source_line=756}
  %param_3.496 = f32[64,1024]{1,0} parameter(3)
  %add.347.9 = f32[64,1024]{1,0} add(f32[64,1024]{1,0} %convert.1294.9, f32[64,1024]{1,0} %param_3.496), metadata={op_type="aten__add" op_name="aten__add.1194/aten__add" source_file="/usr/local/lib/python3.10/site-packages/torch/_ops.py" source_line=756}
  %add.348.9 = f32[64,1024]{1,0} add(f32[64,1024]{1,0} %slice.322.11, f32[64,1024]{1,0} %add.347.9), metadata={op_type="aten__add" op_name="aten__add.1207/aten__add" source_file="/usr/local/lib/python3.10/site-packages/torch/_ops.py" source_line=756}
  %add.350.5 = f32[64,1024]{1,0} add(f32[64,1024]{1,0} %convert.1308.5, f32[64,1024]{1,0} %add.348.9), metadata={op_type="aten__add" op_name="aten__add.1212/aten__add" source_file="/usr/local/lib/python3.10/site-packages/torch/_ops.py" source_line=756}
  %add.352.5 = f32[64,1024]{1,0} add(f32[64,1024]{1,0} %slice.321.7, f32[64,1024]{1,0} %add.350.5), metadata={op_type="aten__add" op_name="aten__add.1225/aten__add" source_file="/usr/local/lib/python3.10/site-packages/torch/_ops.py" source_line=756}
  %add.354.5 = f32[64,1024]{1,0} add(f32[64,1024]{1,0} %convert.1320.5, f32[64,1024]{1,0} %add.352.5), metadata={op_type="aten__add" op_name="aten__add.1230/aten__add" source_file="/usr/local/lib/python3.10/site-packages/torch/_ops.py" source_line=756}
  %add.355.5 = f32[64,1024]{1,0} add(f32[64,1024]{1,0} %slice.320.7, f32[64,1024]{1,0} %add.354.5), metadata={op_type="aten__add" op_name="aten__add.1243/aten__add" source_file="/usr/local/lib/python3.10/site-packages/torch/_ops.py" source_line=756}
  %add.357.1 = f32[64,1024]{1,0} add(f32[64,1024]{1,0} %convert.1332.1, f32[64,1024]{1,0} %add.355.5), metadata={op_type="aten__add" op_name="aten__add.1248/aten__add" source_file="/usr/local/lib/python3.10/site-packages/torch/_ops.py" source_line=756}
  ROOT %add.358.1 = f32[64,1024]{1,0} add(f32[64,1024]{1,0} %slice.319.3, f32[64,1024]{1,0} %add.357.1), metadata={op_type="aten__add" op_name="aten__add.1261/aten__add" source_file="/usr/local/lib/python3.10/site-packages/torch/_ops.py" source_line=756}
}

%fused_computation.237 (param_0.984: f32[64,1024], param_1.769: f32[], param_2.478: bf16[1024]) -> bf16[64,1024] {
  %param_0.984 = f32[64,1024]{1,0} parameter(0)
  %multiply.728 = f32[64,1024]{1,0} multiply(f32[64,1024]{1,0} %param_0.984, f32[64,1024]{1,0} %param_0.984), metadata={op_type="aten__pow" op_name="aten__pow" source_file="/usr/local/lib/python3.10/site-packages/torch/_ops.py" source_line=756}
  %constant_640 = f32[] constant(0), metadata={op_type="aten__mean" op_name="aten__mean" source_file="/usr/local/lib/python3.10/site-packages/torch/_ops.py" source_line=756}
  %reduce.79 = f32[64]{0} reduce(f32[64,1024]{1,0} %multiply.728, f32[] %constant_640), dimensions={1}, to_apply=%AddComputation.94, metadata={op_type="aten__mean" op_name="aten__mean" source_file="/usr/local/lib/python3.10/site-packages/torch/_ops.py" source_line=756}
  %constant_639 = f32[] constant(0.0009765625), metadata={op_type="aten__mean" op_name="aten__mean" source_file="/usr/local/lib/python3.10/site-packages/torch/_ops.py" source_line=756}
  %broadcast.823 = f32[64]{0} broadcast(f32[] %constant_639), dimensions={}, metadata={op_type="aten__mean" op_name="aten__mean" source_file="/usr/local/lib/python3.10/site-packages/torch/_ops.py" source_line=756}
  %multiply.727 = f32[64]{0} multiply(f32[64]{0} %reduce.79, f32[64]{0} %broadcast.823), metadata={op_type="aten__mean" op_name="aten__mean" source_file="/usr/local/lib/python3.10/site-packages/torch/_ops.py" source_line=756}
  %param_1.769 = f32[] parameter(1)
  %broadcast.822 = f32[64]{0} broadcast(f32[] %param_1.769), dimensions={}, metadata={op_type="aten__add" op_name="aten__add.1028/aten__add" source_file="/usr/local/lib/python3.10/site-packages/torch/_ops.py" source_line=756}
  %add.422 = f32[64]{0} add(f32[64]{0} %multiply.727, f32[64]{0} %broadcast.822), metadata={op_type="aten__add" op_name="aten__add.1262/aten__add" source_file="/usr/local/lib/python3.10/site-packages/torch/_ops.py" source_line=756}
  %rsqrt.158 = f32[64]{0} rsqrt(f32[64]{0} %add.422), metadata={op_type="aten__rsqrt" op_name="aten__rsqrt" source_file="/usr/local/lib/python3.10/site-packages/torch/_ops.py" source_line=756}
  %broadcast.821 = f32[64,1024]{1,0} broadcast(f32[64]{0} %rsqrt.158), dimensions={0}, metadata={op_type="aten__mul" op_name="aten__mul.1263/aten__mul" source_file="/usr/local/lib/python3.10/site-packages/torch/_ops.py" source_line=756}
  %multiply.725 = f32[64,1024]{1,0} multiply(f32[64,1024]{1,0} %param_0.984, f32[64,1024]{1,0} %broadcast.821), metadata={op_type="aten__mul" op_name="aten__mul.1263/aten__mul" source_file="/usr/local/lib/python3.10/site-packages/torch/_ops.py" source_line=756}
  %param_2.478 = bf16[1024]{0} parameter(2)
  %convert.1334.1 = f32[1024]{0} convert(bf16[1024]{0} %param_2.478), metadata={op_type="xla__cast" op_name="xla__cast" source_file="/usr/local/lib/python3.10/site-packages/torch/_ops.py" source_line=756}
  %broadcast.578.1 = f32[64,1024]{1,0} broadcast(f32[1024]{0} %convert.1334.1), dimensions={1}, metadata={op_type="aten__mul" op_name="aten__mul.1264/aten__mul" source_file="/usr/local/lib/python3.10/site-packages/torch/_ops.py" source_line=756}
  %multiply.590.1 = f32[64,1024]{1,0} multiply(f32[64,1024]{1,0} %multiply.725, f32[64,1024]{1,0} %broadcast.578.1), metadata={op_type="aten__mul" op_name="aten__mul.1264/aten__mul" source_file="/usr/local/lib/python3.10/site-packages/torch/_ops.py" source_line=756}
  ROOT %convert.1335.1 = bf16[64,1024]{1,0} convert(f32[64,1024]{1,0} %multiply.590.1), metadata={op_type="xla__cast" op_name="xla__cast" source_file="/usr/local/lib/python3.10/site-packages/torch/_ops.py" source_line=756}
}

%fused_convert.10 (param_0.716: bf16[64,6144]) -> bf16[64,3072] {
  %param_0.716 = bf16[64,6144]{1,0} parameter(0)
  %slice.361.1 = bf16[64,3072]{1,0} slice(bf16[64,6144]{1,0} %param_0.716), slice={[0:64], [0:3072]}, metadata={op_type="xla__select" op_name="xla__select" source_file="/usr/local/lib/python3.10/site-packages/torch/_ops.py" source_line=756}
  %convert.1336.6 = f32[64,3072]{1,0} convert(bf16[64,3072]{1,0} %slice.361.1)
  %constant_1_11 = bf16[] constant(1), metadata={op_type="xla__select" op_name="xla__select" source_file="/usr/local/lib/python3.10/site-packages/torch/_ops.py" source_line=756}
  %convert.1497.9 = f32[] convert(bf16[] %constant_1_11)
  %broadcast.621.140 = f32[64,3072]{1,0} broadcast(f32[] %convert.1497.9), dimensions={}, metadata={op_type="xla__select" op_name="xla__select" source_file="/usr/local/lib/python3.10/site-packages/torch/_ops.py" source_line=756}
  %negate.85.7 = f32[64,3072]{1,0} negate(f32[64,3072]{1,0} %convert.1336.6)
  %convert.1340.5 = bf16[64,3072]{1,0} convert(f32[64,3072]{1,0} %negate.85.7)
  %exponential.85.3 = bf16[64,3072]{1,0} exponential(bf16[64,3072]{1,0} %convert.1340.5)
  %convert.1343.1 = f32[64,3072]{1,0} convert(bf16[64,3072]{1,0} %exponential.85.3)
  %add.359.5 = f32[64,3072]{1,0} add(f32[64,3072]{1,0} %broadcast.621.140, f32[64,3072]{1,0} %convert.1343.1)
  %divide.85.3 = f32[64,3072]{1,0} divide(f32[64,3072]{1,0} %broadcast.621.140, f32[64,3072]{1,0} %add.359.5), metadata={op_type="aten__silu" op_name="aten__silu" source_file="/usr/local/lib/python3.10/site-packages/torch/_ops.py" source_line=756}
  %multiply.591.3 = f32[64,3072]{1,0} multiply(f32[64,3072]{1,0} %convert.1336.6, f32[64,3072]{1,0} %divide.85.3), metadata={op_type="aten__silu" op_name="aten__silu" source_file="/usr/local/lib/python3.10/site-packages/torch/_ops.py" source_line=756}
  %slice.362.1 = bf16[64,3072]{1,0} slice(bf16[64,6144]{1,0} %param_0.716), slice={[0:64], [3072:6144]}, metadata={op_type="xla__select" op_name="xla__select" source_file="/usr/local/lib/python3.10/site-packages/torch/_ops.py" source_line=756}
  %convert.1344.1 = f32[64,3072]{1,0} convert(bf16[64,3072]{1,0} %slice.362.1), metadata={op_type="xla__cast" op_name="xla__cast" source_file="/usr/local/lib/python3.10/site-packages/torch/_ops.py" source_line=756}
  %multiply.592.1 = f32[64,3072]{1,0} multiply(f32[64,3072]{1,0} %multiply.591.3, f32[64,3072]{1,0} %convert.1344.1), metadata={op_type="aten__mul" op_name="aten__mul.1265/aten__mul" source_file="/usr/local/lib/python3.10/site-packages/torch/_ops.py" source_line=756}
  ROOT %convert.1346.1 = bf16[64,3072]{1,0} convert(f32[64,3072]{1,0} %multiply.592.1), metadata={op_type="xla__cast" op_name="xla__cast" source_file="/usr/local/lib/python3.10/site-packages/torch/_ops.py" source_line=756}
}

%fused_computation.236 (param_0.983: f32[], param_1.768: f32[64,1024], param_2.477: bf16[64,1024], param_3.438: bf16[64,24576], param_4.221: bf16[1024]) -> bf16[64,1024] {
  %param_3.438 = bf16[64,24576]{1,0} parameter(3)
  %convert.1151.96 = f32[64,24576]{1,0} convert(bf16[64,24576]{1,0} %param_3.438), metadata={op_type="xla__cast" op_name="xla__cast" source_file="/usr/local/lib/python3.10/site-packages/torch/_ops.py" source_line=756}
  %slice.318.5 = f32[64,1024]{1,0} slice(f32[64,24576]{1,0} %convert.1151.96), slice={[0:64], [9216:10240]}, metadata={op_type="aten__mm" op_name="aten__mm" source_file="/usr/local/lib/python3.10/site-packages/torch/_ops.py" source_line=756}
  %param_2.477 = bf16[64,1024]{1,0} parameter(2)
  %convert.1347.3 = f32[64,1024]{1,0} convert(bf16[64,1024]{1,0} %param_2.477), metadata={op_type="xla__cast" op_name="xla__cast" source_file="/usr/local/lib/python3.10/site-packages/torch/_ops.py" source_line=756}
  %param_1.768 = f32[64,1024]{1,0} parameter(1)
  %add.360.3 = f32[64,1024]{1,0} add(f32[64,1024]{1,0} %convert.1347.3, f32[64,1024]{1,0} %param_1.768), metadata={op_type="aten__add" op_name="aten__add.1266/aten__add" source_file="/usr/local/lib/python3.10/site-packages/torch/_ops.py" source_line=756}
  %add.361.3 = f32[64,1024]{1,0} add(f32[64,1024]{1,0} %slice.318.5, f32[64,1024]{1,0} %add.360.3), metadata={op_type="aten__add" op_name="aten__add.1279/aten__add" source_file="/usr/local/lib/python3.10/site-packages/torch/_ops.py" source_line=756}
  %multiply.734 = f32[64,1024]{1,0} multiply(f32[64,1024]{1,0} %add.361.3, f32[64,1024]{1,0} %add.361.3), metadata={op_type="aten__pow" op_name="aten__pow" source_file="/usr/local/lib/python3.10/site-packages/torch/_ops.py" source_line=756}
  %constant_646 = f32[] constant(0), metadata={op_type="aten__mean" op_name="aten__mean" source_file="/usr/local/lib/python3.10/site-packages/torch/_ops.py" source_line=756}
  %reduce.81 = f32[64]{0} reduce(f32[64,1024]{1,0} %multiply.734, f32[] %constant_646), dimensions={1}, to_apply=%AddComputation.94, metadata={op_type="aten__mean" op_name="aten__mean" source_file="/usr/local/lib/python3.10/site-packages/torch/_ops.py" source_line=756}
  %constant_645 = f32[] constant(0.0009765625), metadata={op_type="aten__mean" op_name="aten__mean" source_file="/usr/local/lib/python3.10/site-packages/torch/_ops.py" source_line=756}
  %broadcast.830 = f32[64]{0} broadcast(f32[] %constant_645), dimensions={}, metadata={op_type="aten__mean" op_name="aten__mean" source_file="/usr/local/lib/python3.10/site-packages/torch/_ops.py" source_line=756}
  %multiply.733 = f32[64]{0} multiply(f32[64]{0} %reduce.81, f32[64]{0} %broadcast.830), metadata={op_type="aten__mean" op_name="aten__mean" source_file="/usr/local/lib/python3.10/site-packages/torch/_ops.py" source_line=756}
  %param_0.983 = f32[] parameter(0)
  %broadcast.829 = f32[64]{0} broadcast(f32[] %param_0.983), dimensions={}, metadata={op_type="aten__add" op_name="aten__add.1028/aten__add" source_file="/usr/local/lib/python3.10/site-packages/torch/_ops.py" source_line=756}
  %add.425 = f32[64]{0} add(f32[64]{0} %multiply.733, f32[64]{0} %broadcast.829), metadata={op_type="aten__add" op_name="aten__add.1280/aten__add" source_file="/usr/local/lib/python3.10/site-packages/torch/_ops.py" source_line=756}
  %rsqrt.160 = f32[64]{0} rsqrt(f32[64]{0} %add.425), metadata={op_type="aten__rsqrt" op_name="aten__rsqrt" source_file="/usr/local/lib/python3.10/site-packages/torch/_ops.py" source_line=756}
  %broadcast.828 = f32[64,1024]{1,0} broadcast(f32[64]{0} %rsqrt.160), dimensions={0}, metadata={op_type="aten__mul" op_name="aten__mul.1281/aten__mul" source_file="/usr/local/lib/python3.10/site-packages/torch/_ops.py" source_line=756}
  %multiply.732 = f32[64,1024]{1,0} multiply(f32[64,1024]{1,0} %add.361.3, f32[64,1024]{1,0} %broadcast.828), metadata={op_type="aten__mul" op_name="aten__mul.1281/aten__mul" source_file="/usr/local/lib/python3.10/site-packages/torch/_ops.py" source_line=756}
  %param_4.221 = bf16[1024]{0} parameter(4)
  %convert.1349.1 = f32[1024]{0} convert(bf16[1024]{0} %param_4.221), metadata={op_type="xla__cast" op_name="xla__cast" source_file="/usr/local/lib/python3.10/site-packages/torch/_ops.py" source_line=756}
  %broadcast.582.1 = f32[64,1024]{1,0} broadcast(f32[1024]{0} %convert.1349.1), dimensions={1}, metadata={op_type="aten__mul" op_name="aten__mul.1282/aten__mul" source_file="/usr/local/lib/python3.10/site-packages/torch/_ops.py" source_line=756}
  %multiply.593.1 = f32[64,1024]{1,0} multiply(f32[64,1024]{1,0} %multiply.732, f32[64,1024]{1,0} %broadcast.582.1), metadata={op_type="aten__mul" op_name="aten__mul.1282/aten__mul" source_file="/usr/local/lib/python3.10/site-packages/torch/_ops.py" source_line=756}
  ROOT %convert.1350.1 = bf16[64,1024]{1,0} convert(f32[64,1024]{1,0} %multiply.593.1), metadata={op_type="xla__cast" op_name="xla__cast" source_file="/usr/local/lib/python3.10/site-packages/torch/_ops.py" source_line=756}
}

%fused_convert.9 (param_0.720: bf16[64,6144]) -> bf16[64,3072] {
  %param_0.720 = bf16[64,6144]{1,0} parameter(0)
  %slice.363.1 = bf16[64,3072]{1,0} slice(bf16[64,6144]{1,0} %param_0.720), slice={[0:64], [0:3072]}, metadata={op_type="xla__select" op_name="xla__select" source_file="/usr/local/lib/python3.10/site-packages/torch/_ops.py" source_line=756}
  %convert.1351.6 = f32[64,3072]{1,0} convert(bf16[64,3072]{1,0} %slice.363.1)
  %constant_1_15 = bf16[] constant(1), metadata={op_type="xla__select" op_name="xla__select" source_file="/usr/local/lib/python3.10/site-packages/torch/_ops.py" source_line=756}
  %convert.1497.13 = f32[] convert(bf16[] %constant_1_15)
  %broadcast.621.136 = f32[64,3072]{1,0} broadcast(f32[] %convert.1497.13), dimensions={}, metadata={op_type="xla__select" op_name="xla__select" source_file="/usr/local/lib/python3.10/site-packages/torch/_ops.py" source_line=756}
  %negate.86.7 = f32[64,3072]{1,0} negate(f32[64,3072]{1,0} %convert.1351.6)
  %convert.1358.5 = bf16[64,3072]{1,0} convert(f32[64,3072]{1,0} %negate.86.7)
  %exponential.86.3 = bf16[64,3072]{1,0} exponential(bf16[64,3072]{1,0} %convert.1358.5)
  %convert.1359.1 = f32[64,3072]{1,0} convert(bf16[64,3072]{1,0} %exponential.86.3)
  %add.362.5 = f32[64,3072]{1,0} add(f32[64,3072]{1,0} %broadcast.621.136, f32[64,3072]{1,0} %convert.1359.1)
…
_numbers":{"lhs_contracting_dimensions":["1"],"rhs_contracting_dimensions":["1"],"lhs_batch_dimensions":[],"rhs_batch_dimensions":[]},"precision_config":{"operand_precision":["DEFAULT","DEFAULT"],"algorithm":"ALG_UNSET"},"epilogue":"DEFAULT","damax_output":false,"lhs_stride":"65536","rhs_stride":"6291456","grad_x":false,"grad_y":false},"force_earliest_schedule":false}
  %get-tuple-element.38.0 = bf16[64,6144]{1,0} get-tuple-element((bf16[64,6144]{1,0}, s8[4194304]{0}) %custom-call.87.0), index=0, metadata={op_type="aten__mm" op_name="aten__mm" source_file="/usr/local/lib/python3.10/site-packages/torch/_ops.py" source_line=756}
  %loop_convert_fusion.4 = bf16[64,3072]{1,0} fusion(bf16[64,6144]{1,0} %get-tuple-element.38.0), kind=kLoop, calls=%fused_convert.4, metadata={op_type="xla__cast" op_name="xla__cast" source_file="/usr/local/lib/python3.10/site-packages/torch/_ops.py" source_line=756 deduplicated_name="loop_convert_fusion"}
  %custom-call.88.0 = (bf16[64,1024]{1,0}, s8[4194304]{0}) custom-call(bf16[64,3072]{1,0} %loop_convert_fusion.4, bf16[1024,3072]{1,0} %p.86), custom_call_target="__cublas$gemm", metadata={op_type="aten__mm" op_name="aten__mm" source_file="/usr/local/lib/python3.10/site-packages/torch/_ops.py" source_line=756}, backend_config={"operation_queue_id":"0","wait_on_operation_queues":[],"gemm_backend_config":{"alpha_real":1,"alpha_imag":0,"beta":0,"dot_dimension_numbers":{"lhs_contracting_dimensions":["1"],"rhs_contracting_dimensions":["1"],"lhs_batch_dimensions":[],"rhs_batch_dimensions":[]},"precision_config":{"operand_precision":["DEFAULT","DEFAULT"],"algorithm":"ALG_UNSET"},"epilogue":"DEFAULT","damax_output":false,"lhs_stride":"196608","rhs_stride":"3145728","grad_x":false,"grad_y":false},"force_earliest_schedule":false}
  %get-tuple-element.39.0 = bf16[64,1024]{1,0} get-tuple-element((bf16[64,1024]{1,0}, s8[4194304]{0}) %custom-call.88.0), index=0, metadata={op_type="aten__mm" op_name="aten__mm" source_file="/usr/local/lib/python3.10/site-packages/torch/_ops.py" source_line=756}
  %fusion.283 = bf16[64,1024]{1,0} fusion(f32[] %p.26, bf16[64,1024]{1,0} %get-tuple-element.39.0, bf16[64,24576]{1,0} %gemm_fusion_dot.96.0, bf16[1024]{0} %p.87, f32[64,1024]{1,0} %loop_add_fusion.3, /*index=5*/bf16[64,1024]{1,0} %get-tuple-element.35.0, bf16[64,1024]{1,0} %get-tuple-element.37.0), kind=kCustom, calls=%fused_computation.230, metadata={op_type="xla__cast" op_name="xla__cast" source_file="/usr/local/lib/python3.10/site-packages/torch/_ops.py" source_line=756}, backend_config={"operation_queue_id":"0","wait_on_operation_queues":[],"fusion_backend_config":{"kind":"__triton","block_level_fusion_config":{"output_tiles":[{"sizes":["1","1024"]}],"num_warps":"2"}},"force_earliest_schedule":false}
  %custom-call.89.0 = (bf16[64,6144]{1,0}, s8[4194304]{0}) custom-call(bf16[64,1024]{1,0} %fusion.283, bf16[6144,1024]{1,0} %p.88), custom_call_target="__cublas$gemm", metadata={op_type="aten__mm" op_name="aten__mm" source_file="/usr/local/lib/python3.10/site-packages/torch/_ops.py" source_line=756}, backend_config={"operation_queue_id":"0","wait_on_operation_queues":[],"gemm_backend_config":{"alpha_real":1,"alpha_imag":0,"beta":0,"dot_dimension_numbers":{"lhs_contracting_dimensions":["1"],"rhs_contracting_dimensions":["1"],"lhs_batch_dimensions":[],"rhs_batch_dimensions":[]},"precision_config":{"operand_precision":["DEFAULT","DEFAULT"],"algorithm":"ALG_UNSET"},"epilogue":"DEFAULT","damax_output":false,"lhs_stride":"65536","rhs_stride":"6291456","grad_x":false,"grad_y":false},"force_earliest_schedule":false}
  %get-tuple-element.40.0 = bf16[64,6144]{1,0} get-tuple-element((bf16[64,6144]{1,0}, s8[4194304]{0}) %custom-call.89.0), index=0, metadata={op_type="aten__mm" op_name="aten__mm" source_file="/usr/local/lib/python3.10/site-packages/torch/_ops.py" source_line=756}
  %loop_convert_fusion.3 = bf16[64,3072]{1,0} fusion(bf16[64,6144]{1,0} %get-tuple-element.40.0), kind=kLoop, calls=%fused_convert.3, metadata={op_type="xla__cast" op_name="xla__cast" source_file="/usr/local/lib/python3.10/site-packages/torch/_ops.py" source_line=756 deduplicated_name="loop_convert_fusion"}
  %custom-call.90.0 = (bf16[64,1024]{1,0}, s8[4194304]{0}) custom-call(bf16[64,3072]{1,0} %loop_convert_fusion.3, bf16[1024,3072]{1,0} %p.89), custom_call_target="__cublas$gemm", metadata={op_type="aten__mm" op_name="aten__mm" source_file="/usr/local/lib/python3.10/site-packages/torch/_ops.py" source_line=756}, backend_config={"operation_queue_id":"0","wait_on_operation_queues":[],"gemm_backend_config":{"alpha_real":1,"alpha_imag":0,"beta":0,"dot_dimension_numbers":{"lhs_contracting_dimensions":["1"],"rhs_contracting_dimensions":["1"],"lhs_batch_dimensions":[],"rhs_batch_dimensions":[]},"precision_config":{"operand_precision":["DEFAULT","DEFAULT"],"algorithm":"ALG_UNSET"},"epilogue":"DEFAULT","damax_output":false,"lhs_stride":"196608","rhs_stride":"3145728","grad_x":false,"grad_y":false},"force_earliest_schedule":false}
  %get-tuple-element.41.0 = bf16[64,1024]{1,0} get-tuple-element((bf16[64,1024]{1,0}, s8[4194304]{0}) %custom-call.90.0), index=0, metadata={op_type="aten__mm" op_name="aten__mm" source_file="/usr/local/lib/python3.10/site-packages/torch/_ops.py" source_line=756}
  %loop_add_fusion.4 = f32[64,1024]{1,0} fusion(bf16[64,24576]{1,0} %gemm_fusion_dot.96.0, bf16[64,1024]{1,0} %get-tuple-element.41.0, bf16[64,1024]{1,0} %get-tuple-element.39.0, f32[64,1024]{1,0} %loop_add_fusion.3, bf16[64,1024]{1,0} %get-tuple-element.35.0, /*index=5*/bf16[64,1024]{1,0} %get-tuple-element.37.0), kind=kLoop, calls=%fused_add.4, metadata={op_type="aten__add" op_name="aten__add.1405/aten__add" source_file="/usr/local/lib/python3.10/site-packages/torch/_ops.py" source_line=756}
  %fusion.282 = bf16[64,1024]{1,0} fusion(f32[64,1024]{1,0} %loop_add_fusion.4, f32[] %p.26, bf16[1024]{0} %p.90), kind=kCustom, calls=%fused_computation.229, metadata={op_type="xla__cast" op_name="xla__cast" source_file="/usr/local/lib/python3.10/site-packages/torch/_ops.py" source_line=756 deduplicated_name="fusion.282"}, backend_config={"operation_queue_id":"0","wait_on_operation_queues":[],"fusion_backend_config":{"kind":"__triton","block_level_fusion_config":{"output_tiles":[{"sizes":["1","1024"]}],"num_warps":"2"}},"force_earliest_schedule":false}
  %custom-call.91.0 = (bf16[64,6144]{1,0}, s8[4194304]{0}) custom-call(bf16[64,1024]{1,0} %fusion.282, bf16[6144,1024]{1,0} %p.91), custom_call_target="__cublas$gemm", metadata={op_type="aten__mm" op_name="aten__mm" source_file="/usr/local/lib/python3.10/site-packages/torch/_ops.py" source_line=756}, backend_config={"operation_queue_id":"0","wait_on_operation_queues":[],"gemm_backend_config":{"alpha_real":1,"alpha_imag":0,"beta":0,"dot_dimension_numbers":{"lhs_contracting_dimensions":["1"],"rhs_contracting_dimensions":["1"],"lhs_batch_dimensions":[],"rhs_batch_dimensions":[]},"precision_config":{"operand_precision":["DEFAULT","DEFAULT"],"algorithm":"ALG_UNSET"},"epilogue":"DEFAULT","damax_output":false,"lhs_stride":"65536","rhs_stride":"6291456","grad_x":false,"grad_y":false},"force_earliest_schedule":false}
  %get-tuple-element.42.0 = bf16[64,6144]{1,0} get-tuple-element((bf16[64,6144]{1,0}, s8[4194304]{0}) %custom-call.91.0), index=0, metadata={op_type="aten__mm" op_name="aten__mm" source_file="/usr/local/lib/python3.10/site-packages/torch/_ops.py" source_line=756}
  %loop_convert_fusion.2 = bf16[64,3072]{1,0} fusion(bf16[64,6144]{1,0} %get-tuple-element.42.0), kind=kLoop, calls=%fused_convert.2, metadata={op_type="xla__cast" op_name="xla__cast" source_file="/usr/local/lib/python3.10/site-packages/torch/_ops.py" source_line=756 deduplicated_name="loop_convert_fusion"}
  %custom-call.92.0 = (bf16[64,1024]{1,0}, s8[4194304]{0}) custom-call(bf16[64,3072]{1,0} %loop_convert_fusion.2, bf16[1024,3072]{1,0} %p.92), custom_call_target="__cublas$gemm", metadata={op_type="aten__mm" op_name="aten__mm" source_file="/usr/local/lib/python3.10/site-packages/torch/_ops.py" source_line=756}, backend_config={"operation_queue_id":"0","wait_on_operation_queues":[],"gemm_backend_config":{"alpha_real":1,"alpha_imag":0,"beta":0,"dot_dimension_numbers":{"lhs_contracting_dimensions":["1"],"rhs_contracting_dimensions":["1"],"lhs_batch_dimensions":[],"rhs_batch_dimensions":[]},"precision_config":{"operand_precision":["DEFAULT","DEFAULT"],"algorithm":"ALG_UNSET"},"epilogue":"DEFAULT","damax_output":false,"lhs_stride":"196608","rhs_stride":"3145728","grad_x":false,"grad_y":false},"force_earliest_schedule":false}
  %get-tuple-element.43.0 = bf16[64,1024]{1,0} get-tuple-element((bf16[64,1024]{1,0}, s8[4194304]{0}) %custom-call.92.0), index=0, metadata={op_type="aten__mm" op_name="aten__mm" source_file="/usr/local/lib/python3.10/site-packages/torch/_ops.py" source_line=756}
  %fusion.281 = bf16[64,1024]{1,0} fusion(f32[] %p.26, f32[64,1024]{1,0} %loop_add_fusion.4, bf16[64,1024]{1,0} %get-tuple-element.43.0, bf16[64,24576]{1,0} %gemm_fusion_dot.96.0, bf16[1024]{0} %p.93), kind=kCustom, calls=%fused_computation.228, metadata={op_type="xla__cast" op_name="xla__cast" source_file="/usr/local/lib/python3.10/site-packages/torch/_ops.py" source_line=756}, backend_config={"operation_queue_id":"0","wait_on_operation_queues":[],"fusion_backend_config":{"kind":"__triton","block_level_fusion_config":{"output_tiles":[{"sizes":["1","1024"]}],"num_warps":"2"}},"force_earliest_schedule":false}
  %custom-call.93.0 = (bf16[64,6144]{1,0}, s8[4194304]{0}) custom-call(bf16[64,1024]{1,0} %fusion.281, bf16[6144,1024]{1,0} %p.94), custom_call_target="__cublas$gemm", metadata={op_type="aten__mm" op_name="aten__mm" source_file="/usr/local/lib/python3.10/site-packages/torch/_ops.py" source_line=756}, backend_config={"operation_queue_id":"0","wait_on_operation_queues":[],"gemm_backend_config":{"alpha_real":1,"alpha_imag":0,"beta":0,"dot_dimension_numbers":{"lhs_contracting_dimensions":["1"],"rhs_contracting_dimensions":["1"],"lhs_batch_dimensions":[],"rhs_batch_dimensions":[]},"precision_config":{"operand_precision":["DEFAULT","DEFAULT"],"algorithm":"ALG_UNSET"},"epilogue":"DEFAULT","damax_output":false,"lhs_stride":"65536","rhs_stride":"6291456","grad_x":false,"grad_y":false},"force_earliest_schedule":false}
  %get-tuple-element.44.0 = bf16[64,6144]{1,0} get-tuple-element((bf16[64,6144]{1,0}, s8[4194304]{0}) %custom-call.93.0), index=0, metadata={op_type="aten__mm" op_name="aten__mm" source_file="/usr/local/lib/python3.10/site-packages/torch/_ops.py" source_line=756}
  %loop_convert_fusion.1 = bf16[64,3072]{1,0} fusion(bf16[64,6144]{1,0} %get-tuple-element.44.0), kind=kLoop, calls=%fused_convert.1, metadata={op_type="xla__cast" op_name="xla__cast" source_file="/usr/local/lib/python3.10/site-packages/torch/_ops.py" source_line=756 deduplicated_name="loop_convert_fusion"}
  %custom-call.94.0 = (bf16[64,1024]{1,0}, s8[4194304]{0}) custom-call(bf16[64,3072]{1,0} %loop_convert_fusion.1, bf16[1024,3072]{1,0} %p.95), custom_call_target="__cublas$gemm", metadata={op_type="aten__mm" op_name="aten__mm" source_file="/usr/local/lib/python3.10/site-packages/torch/_ops.py" source_line=756}, backend_config={"operation_queue_id":"0","wait_on_operation_queues":[],"gemm_backend_config":{"alpha_real":1,"alpha_imag":0,"beta":0,"dot_dimension_numbers":{"lhs_contracting_dimensions":["1"],"rhs_contracting_dimensions":["1"],"lhs_batch_dimensions":[],"rhs_batch_dimensions":[]},"precision_config":{"operand_precision":["DEFAULT","DEFAULT"],"algorithm":"ALG_UNSET"},"epilogue":"DEFAULT","damax_output":false,"lhs_stride":"196608","rhs_stride":"3145728","grad_x":false,"grad_y":false},"force_earliest_schedule":false}
  %get-tuple-element.45.0 = bf16[64,1024]{1,0} get-tuple-element((bf16[64,1024]{1,0}, s8[4194304]{0}) %custom-call.94.0), index=0, metadata={op_type="aten__mm" op_name="aten__mm" source_file="/usr/local/lib/python3.10/site-packages/torch/_ops.py" source_line=756}
  %fusion.280 = bf16[64,1024]{1,0} fusion(f32[] %p.26, bf16[1024]{0} %p.96, f32[64,1024]{1,0} %loop_add_fusion.4, bf16[64,1024]{1,0} %get-tuple-element.43.0, bf16[64,24576]{1,0} %gemm_fusion_dot.96.0, /*index=5*/bf16[64,1024]{1,0} %get-tuple-element.45.0), kind=kCustom, calls=%fused_computation.227, metadata={op_type="xla__cast" op_name="xla__cast" source_file="/usr/local/lib/python3.10/site-packages/torch/_ops.py" source_line=756}, backend_config={"operation_queue_id":"0","wait_on_operation_queues":[],"fusion_backend_config":{"kind":"__triton","block_level_fusion_config":{"output_tiles":[{"sizes":["1","1024"]}],"num_warps":"2"}},"force_earliest_schedule":false}
  %custom-call.95.0 = (bf16[64,6144]{1,0}, s8[4194304]{0}) custom-call(bf16[64,1024]{1,0} %fusion.280, bf16[6144,1024]{1,0} %p.97), custom_call_target="__cublas$gemm", metadata={op_type="aten__mm" op_name="aten__mm" source_file="/usr/local/lib/python3.10/site-packages/torch/_ops.py" source_line=756}, backend_config={"operation_queue_id":"0","wait_on_operation_queues":[],"gemm_backend_config":{"alpha_real":1,"alpha_imag":0,"beta":0,"dot_dimension_numbers":{"lhs_contracting_dimensions":["1"],"rhs_contracting_dimensions":["1"],"lhs_batch_dimensions":[],"rhs_batch_dimensions":[]},"precision_config":{"operand_precision":["DEFAULT","DEFAULT"],"algorithm":"ALG_UNSET"},"epilogue":"DEFAULT","damax_output":false,"lhs_stride":"65536","rhs_stride":"6291456","grad_x":false,"grad_y":false},"force_earliest_schedule":false}
  %get-tuple-element.46.0 = bf16[64,6144]{1,0} get-tuple-element((bf16[64,6144]{1,0}, s8[4194304]{0}) %custom-call.95.0), index=0, metadata={op_type="aten__mm" op_name="aten__mm" source_file="/usr/local/lib/python3.10/site-packages/torch/_ops.py" source_line=756}
  %loop_convert_fusion = bf16[64,3072]{1,0} fusion(bf16[64,6144]{1,0} %get-tuple-element.46.0), kind=kLoop, calls=%fused_convert, metadata={op_type="xla__cast" op_name="xla__cast" source_file="/usr/local/lib/python3.10/site-packages/torch/_ops.py" source_line=756 deduplicated_name="loop_convert_fusion"}
  %custom-call.96.0 = (bf16[64,1024]{1,0}, s8[4194304]{0}) custom-call(bf16[64,3072]{1,0} %loop_convert_fusion, bf16[1024,3072]{1,0} %p.98), custom_call_target="__cublas$gemm", metadata={op_type="aten__mm" op_name="aten__mm" source_file="/usr/local/lib/python3.10/site-packages/torch/_ops.py" source_line=756}, backend_config={"operation_queue_id":"0","wait_on_operation_queues":[],"gemm_backend_config":{"alpha_real":1,"alpha_imag":0,"beta":0,"dot_dimension_numbers":{"lhs_contracting_dimensions":["1"],"rhs_contracting_dimensions":["1"],"lhs_batch_dimensions":[],"rhs_batch_dimensions":[]},"precision_config":{"operand_precision":["DEFAULT","DEFAULT"],"algorithm":"ALG_UNSET"},"epilogue":"DEFAULT","damax_output":false,"lhs_stride":"196608","rhs_stride":"3145728","grad_x":false,"grad_y":false},"force_earliest_schedule":false}
  %get-tuple-element.47.0 = bf16[64,1024]{1,0} get-tuple-element((bf16[64,1024]{1,0}, s8[4194304]{0}) %custom-call.96.0), index=0, metadata={op_type="aten__mm" op_name="aten__mm" source_file="/usr/local/lib/python3.10/site-packages/torch/_ops.py" source_line=756}
  %fusion.278 = bf16[64,1024]{1,0} fusion(f32[] %p.26, bf16[64,1024]{1,0} %get-tuple-element.47.0, bf16[1024]{0} %p.99, f32[64,1024]{1,0} %loop_add_fusion.4, bf16[64,1024]{1,0} %get-tuple-element.43.0, /*index=5*/bf16[64,24576]{1,0} %gemm_fusion_dot.96.0, bf16[64,1024]{1,0} %get-tuple-element.45.0), kind=kCustom, calls=%fused_computation.225, metadata={op_type="xla__cast" op_name="xla__cast" source_file="/usr/local/lib/python3.10/site-packages/torch/_ops.py" source_line=756}, backend_config={"operation_queue_id":"0","wait_on_operation_queues":[],"fusion_backend_config":{"kind":"__triton","block_level_fusion_config":{"output_tiles":[{"sizes":["1","1024"]}],"num_warps":"2"}},"force_earliest_schedule":false}
  %custom-call.97.0 = (bf16[64,4096]{1,0}, s8[4194304]{0}) custom-call(bf16[64,1024]{1,0} %fusion.278, bf16[4096,1024]{1,0} %p.100), custom_call_target="__cublas$gemm", metadata={op_type="aten__mm" op_name="aten__mm" source_file="/usr/local/lib/python3.10/site-packages/torch/_ops.py" source_line=756}, backend_config={"operation_queue_id":"0","wait_on_operation_queues":[],"gemm_backend_config":{"alpha_real":1,"alpha_imag":0,"beta":0,"dot_dimension_numbers":{"lhs_contracting_dimensions":["1"],"rhs_contracting_dimensions":["1"],"lhs_batch_dimensions":[],"rhs_batch_dimensions":[]},"precision_config":{"operand_precision":["DEFAULT","DEFAULT"],"algorithm":"ALG_UNSET"},"epilogue":"DEFAULT","damax_output":false,"lhs_stride":"65536","rhs_stride":"4194304","grad_x":false,"grad_y":false},"force_earliest_schedule":false}
  %get-tuple-element.48.0 = bf16[64,4096]{1,0} get-tuple-element((bf16[64,4096]{1,0}, s8[4194304]{0}) %custom-call.97.0), index=0, metadata={op_type="aten__mm" op_name="aten__mm" source_file="/usr/local/lib/python3.10/site-packages/torch/_ops.py" source_line=756}
  %wrapped_slice = bf16[64,1024]{1,0} fusion(bf16[64,4096]{1,0} %get-tuple-element.48.0), kind=kLoop, calls=%wrapped_slice_computation, metadata={op_type="aten__split" op_name="aten__split" source_file="/usr/local/lib/python3.10/site-packages/torch/_ops.py" source_line=756}
  %triton_softmax.26.0 = f32[64,8,128]{2,1,0} fusion(f32[] %p.26, bf16[64,4096]{1,0} %get-tuple-element.48.0), kind=kCustom, calls=%triton_softmax_computation.26, metadata={op_type="aten__mul" op_name="aten__mul.1451/aten__mul" source_file="/usr/local/lib/python3.10/site-packages/torch/_ops.py" source_line=756}, backend_config={"operation_queue_id":"0","wait_on_operation_queues":[],"fusion_backend_config":{"kind":"__triton","block_level_fusion_config":{"output_tiles":[{"sizes":["1","4","128"]}],"num_warps":"2"}},"force_earliest_schedule":false}
  %input_concatenate_fusion = bf16[64,8,128]{2,1,0} fusion(f32[64,8,128]{2,1,0} %triton_softmax.26.0, bf16[128]{0} %p.101, bf16[40960,128]{1,0} %p.102, s32[64]{0} %p.103), kind=kInput, calls=%fused_concatenate, metadata={op_type="aten__cat" op_name="aten__cat" source_file="/usr/local/lib/python3.10/site-packages/torch/_ops.py" source_line=756}
  %bitcast.4857.0 = bf16[64,8,128]{2,1,0} bitcast(bf16[64,1024]{1,0} %wrapped_slice)
  %loop_slice_fusion = bf16[69353472]{0} fusion(bf16[2,4233,16,8,128]{4,3,2,1,0} %p.104), kind=kLoop, calls=%fused_slice, metadata={op_type="aten__as_strided" op_name="aten__as_strided" source_file="/usr/local/lib/python3.10/site-packages/torch/_higher_order_ops/auto_functionalize.py" source_line=54}
  %bitcast.4869.0 = bf16[4233,16,8,128]{3,2,1,0} bitcast(bf16[69353472]{0} %loop_slice_fusion)
  %wrapped_slice.1 = bf16[1,4233,16,8,128]{4,3,2,1,0} fusion(bf16[2,4233,16,8,128]{4,3,2,1,0} %p.104), kind=kLoop, calls=%wrapped_slice_computation.1, metadata={op_type="aten__as_strided" op_name="aten__as_strided" source_file="/usr/local/lib/python3.10/site-packages/torch/_higher_order_ops/auto_functionalize.py" source_line=54}
  ROOT %tuple = (bf16[64,8,128]{2,1,0}, bf16[64,8,128]{2,1,0}, bf16[4233,16,8,128]{3,2,1,0}, bf16[1,4233,16,8,128]{4,3,2,1,0}) tuple(bf16[64,8,128]{2,1,0} %input_concatenate_fusion, bf16[64,8,128]{2,1,0} %bitcast.4857.0, bf16[4233,16,8,128]{3,2,1,0} %bitcast.4869.0, bf16[1,4233,16,8,128]{4,3,2,1,0} %wrapped_slice.1)
}

ENTRY %SyncTensorsGraph.1921 (p0.1.0: bf16[128], p1.4.0: f32[], p2.6.0: bf16[4096,1024], p3.8.0: bf16[1024], p4.60.0: s32[64], p5.62.0: bf16[151936,1024], p6.66.0: bf16[1024,2048], p7.82.0: bf16[1024,3072], p8.84.0: bf16[6144,1024], p9.86.0: bf16[1024], p10.138.0: bf16[1024,2048], p11.154.0: bf16[1024,3072], p12.156.0: bf16[6144,1024], p13.158.0: bf16[1024], p14.210.0: bf16[1024,2048], p15.226.0: bf16[1024,3072], p16.228.0: bf16[6144,1024], p17.230.0: bf16[1024], p18.282.0: bf16[1024,2048], p19.298.0: bf16[1024,3072], p20.300.0: bf16[6144,1024], p21.302.0: bf16[1024], p22.354.0: bf16[1024,2048], p23.370.0: bf16[1024,3072], p24.372.0: bf16[6144,1024], p25.374.0: bf16[1024], p26.426.0: bf16[1024,2048], p27.442.0: bf16[1024,3072], p28.444.0: bf16[6144,1024], p29.446.0: bf16[1024], p30.498.0: bf16[1024,2048], p31.514.0: bf16[1024,3072], p32.516.0: bf16[6144,1024], p33.518.0: bf16[1024], p34.570.0: bf16[1024,2048], p35.586.0: bf16[1024,3072], p36.588.0: bf16[6144,1024], p37.590.0: bf16[1024], p38.642.0: bf16[1024,2048], p39.658.0: bf16[1024,3072], p40.660.0: bf16[6144,1024], p41.662.0: bf16[1024], p42.714.0: bf16[1024,2048], p43.730.0: bf16[1024,3072], p44.732.0: bf16[6144,1024], p45.734.0: bf16[1024], p46.786.0: bf16[1024,2048], p47.802.0: bf16[1024,3072], p48.804.0: bf16[6144,1024], p49.806.0: bf16[1024], p50.858.0: bf16[1024,2048], p51.874.0: bf16[1024,3072], p52.876.0: bf16[6144,1024], p53.878.0: bf16[1024], p54.930.0: bf16[1024,2048], p55.946.0: bf16[1024,3072], p56.948.0: bf16[6144,1024], p57.950.0: bf16[1024], p58.1002.0: bf16[1024,2048], p59.1018.0: bf16[1024,3072], p60.1020.0: bf16[6144,1024], p61.1022.0: bf16[1024], p62.1074.0: bf16[1024,2048], p63.1090.0: bf16[1024,3072], p64.1092.0: bf16[6144,1024], p65.1094.0: bf16[1024], p66.1146.0: bf16[1024,2048], p67.1162.0: bf16[1024,3072], p68.1164.0: bf16[6144,1024], p69.1166.0: bf16[1024], p70.1218.0: bf16[1024,2048], p71.1234.0: bf16[1024,3072], p72.1236.0: bf16[6144,1024], p73.1238.0: bf16[1024], p74.1290.0: bf16[1024,2048], p75.1306.0: bf16[1024,3072], p76.1308.0: bf16[6144,1024], p77.1310.0: bf16[1024], p78.1362.0: bf16[1024,2048], p79.1378.0: bf16[1024,3072], p80.1380.0: bf16[6144,1024], p81.1382.0: bf16[1024], p82.1434.0: bf16[1024,2048], p83.1450.0: bf16[1024,3072], p84.1452.0: bf16[6144,1024], p85.1454.0: bf16[1024], p86.1506.0: bf16[1024,2048], p87.1522.0: bf16[1024,3072], p88.1524.0: bf16[6144,1024], p89.1526.0: bf16[1024], p90.1578.0: bf16[1024,2048], p91.1594.0: bf16[1024,3072], p92.1596.0: bf16[6144,1024], p93.1598.0: bf16[1024], p94.1650.0: bf16[1024,2048], p95.1666.0: bf16[1024,3072], p96.1668.0: bf16[6144,1024], p97.1670.0: bf16[1024], p98.1722.0: bf16[1024,2048], p99.1738.0: bf16[1024,3072], p100.1740.0: bf16[6144,1024], p101.1742.0: bf16[1024], p102.1866.0: s32[64], p103.1867.0: bf16[40960,128], p104.1911.0: bf16[2,4233,16,8,128]) -> (bf16[64,8,128], bf16[64,8,128], bf16[4233,16,8,128], bf16[4233,16,8,128]) {
  %p1.4.0 = f32[] parameter(1), metadata={op_type="xla__device_data" op_name="xla__device_data" source_file="/usr/local/lib/python3.10/site-packages/torch/_ops.py" source_line=756}
  %p104.1911.0 = bf16[2,4233,16,8,128]{4,3,2,1,0} parameter(104), metadata={op_type="xla__device_data" op_name="xla__device_data" source_file="/usr/local/lib/python3.10/site-packages/torch_xla/_dynamo/dynamo_bridge.py" source_line=355}
  %p103.1867.0 = bf16[40960,128]{1,0} parameter(103), metadata={op_type="xla__device_data" op_name="xla__device_data" source_file="/usr/local/lib/python3.10/site-packages/torch_xla/_dynamo/dynamo_bridge.py" source_line=355}
  %p102.1866.0 = s32[64]{0} parameter(102), metadata={op_type="xla__device_data" op_name="xla__device_data" source_file="/usr/local/lib/python3.10/site-packages/torch_xla/_dynamo/dynamo_bridge.py" source_line=355}
  %p101.1742.0 = bf16[1024]{0} parameter(101), metadata={op_type="xla__device_data" op_name="xla__device_data" source_file="/usr/local/lib/python3.10/site-packages/torch_xla/_dynamo/dynamo_bridge.py" source_line=355}
  %p100.1740.0 = bf16[6144,1024]{1,0} parameter(100), metadata={op_type="xla__device_data" op_name="xla__device_data" source_file="/usr/local/lib/python3.10/site-packages/torch_xla/_dynamo/dynamo_bridge.py" source_line=355}
  %p99.1738.0 = bf16[1024,3072]{1,0} parameter(99), metadata={op_type="xla__device_data" op_name="xla__device_data" source_file="/usr/local/lib/python3.10/site-packages/torch_xla/_dynamo/dynamo_bridge.py" source_line=355}
  %p98.1722.0 = bf16[1024,2048]{1,0} parameter(98), metadata={op_type="xla__device_data" op_name="xla__device_data" source_file="/usr/local/lib/python3.10/site-packages/torch_xla/_dynamo/dynamo_bridge.py" source_line=355}
  %p97.1670.0 = bf16[1024]{0} parameter(97), metadata={op_type="xla__device_data" op_name="xla__device_data" source_file="/usr/local/lib/python3.10/site-packages/torch_xla/_dynamo/dynamo_bridge.py" source_line=355}
  %p96.1668.0 = bf16[6144,1024]{1,0} parameter(96), metadata={op_type="xla__device_data" op_name="xla__device_data" source_file="/usr/local/lib/python3.10/site-packages/torch_xla/_dynamo/dynamo_bridge.py" source_line=355}
  %p95.1666.0 = bf16[1024,3072]{1,0} parameter(95), metadata={op_type="xla__device_data" op_name="xla__device_data" source_file="/usr/local/lib/python3.10/site-packages/torch_xla/_dynamo/dynamo_bridge.py" source_line=355}
  %p94.1650.0 = bf16[1024,2048]{1,0} parameter(94), metadata={op_type="xla__device_data" op_name="xla__device_data" source_file="/usr/local/lib/python3.10/site-packages/torch_xla/_dynamo/dynamo_bridge.py" source_line=355}
  %p93.1598.0 = bf16[1024]{0} parameter(93), metadata={op_type="xla__device_data" op_name="xla__device_data" source_file="/usr/local/lib/python3.10/site-packages/torch_xla/_dynamo/dynamo_bridge.py" source_line=355}
  %p92.1596.0 = bf16[6144,1024]{1,0} parameter(92), metadata={op_type="xla__device_data" op_name="xla__device_data" source_file="/usr/local/lib/python3.10/site-packages/torch_xla/_dynamo/dynamo_bridge.py" source_line=355}
  %p91.1594.0 = bf16[1024,3072]{1,0} parameter(91), metadata={op_type="xla__device_data" op_name="xla__device_data" source_file="/usr/local/lib/python3.10/site-packages/torch_xla/_dynamo/dynamo_bridge.py" source_line=355}
  %p90.1578.0 = bf16[1024,2048]{1,0} parameter(90), metadata={op_type="xla__device_data" op_name="xla__device_data" source_file="/usr/local/lib/python3.10/site-packages/torch_xla/_dynamo/dynamo_bridge.py" source_line=355}
  %p89.1526.0 = bf16[1024]{0} parameter(89), metadata={op_type="xla__device_data" op_name="xla__device_data" source_file="/usr/local/lib/python3.10/site-packages/torch_xla/_dynamo/dynamo_bridge.py" source_line=355}
  %p88.1524.0 = bf16[6144,1024]{1,0} parameter(88), metadata={op_type="xla__device_data" op_name="xla__device_data" source_file="/usr/local/lib/python3.10/site-packages/torch_xla/_dynamo/dynamo_bridge.py" source_line=355}
  %p87.1522.0 = bf16[1024,3072]{1,0} parameter(87), metadata={op_type="xla__device_data" op_name="xla__device_data" source_file="/usr/local/lib/python3.10/site-packages/torch_xla/_dynamo/dynamo_bridge.py" source_line=355}
  %p86.1506.0 = bf16[1024,2048]{1,0} parameter(86), metadata={op_type="xla__device_data" op_name="xla__device_data" source_file="/usr/local/lib/python3.10/site-packages/torch_xla/_dynamo/dynamo_bridge.py" source_line=355}
  %p85.1454.0 = bf16[1024]{0} parameter(85), metadata={op_type="xla__device_data" op_name="xla__device_data" source_file="/usr/local/lib/python3.10/site-packages/torch_xla/_dynamo/dynamo_bridge.py" source_line=355}
  %p84.1452.0 = bf16[6144,1024]{1,0} parameter(84), metadata={op_type="xla__device_data" op_name="xla__device_data" source_file="/usr/local/lib/python3.10/site-packages/torch_xla/_dynamo/dynamo_bridge.py" source_line=355}
  %p83.1450.0 = bf16[1024,3072]{1,0} parameter(83), metadata={op_type="xla__device_data" op_name="xla__device_data" source_file="/usr/local/lib/python3.10/site-packages/torch_xla/_dynamo/dynamo_bridge.py" source_line=355}
  %p82.1434.0 = bf16[1024,2048]{1,0} parameter(82), metadata={op_type="xla__device_data" op_name="xla__device_data" source_file="/usr/local/lib/python3.10/site-packages/torch_xla/_dynamo/dynamo_bridge.py" source_line=355}
  %p81.1382.0 = bf16[1024]{0} parameter(81), metadata={op_type="xla__device_data" op_name="xla__device_data" source_file="/usr/local/lib/python3.10/site-packages/torch_xla/_dynamo/dynamo_bridge.py" source_line=355}
  %p80.1380.0 = bf16[6144,1024]{1,0} parameter(80), metadata={op_type="xla__device_data" op_name="xla__device_data" source_file="/usr/local/lib/python3.10/site-packages/torch_xla/_dynamo/dynamo_bridge.py" source_line=355}
  %p79.1378.0 = bf16[1024,3072]{1,0} parameter(79), metadata={op_type="xla__device_data" op_name="xla__device_data" source_file="/usr/local/lib/python3.10/site-packages/torch_xla/_dynamo/dynamo_bridge.py" source_line=355}
  %p78.1362.0 = bf16[1024,2048]{1,0} parameter(78), metadata={op_type="xla__device_data" op_name="xla__device_data" source_file="/usr/local/lib/python3.10/site-packages/torch_xla/_dynamo/dynamo_bridge.py" source_line=355}
  %p77.1310.0 = bf16[1024]{0} parameter(77), metadata={op_type="xla__device_data" op_name="xla__device_data" source_file="/usr/local/lib/python3.10/site-packages/torch_xla/_dynamo/dynamo_bridge.py" source_line=355}
  %p76.1308.0 = bf16[6144,1024]{1,0} parameter(76), metadata={op_type="xla__device_data" op_name="xla__device_data" source_file="/usr/local/lib/python3.10/site-packages/torch_xla/_dynamo/dynamo_bridge.py" source_line=355}
  %p75.1306.0 = bf16[1024,3072]{1,0} parameter(75), metadata={op_type="xla__device_data" op_name="xla__device_data" source_file="/usr/local/lib/python3.10/site-packages/torch_xla/_dynamo/dynamo_bridge.py" source_line=355}
  %p74.1290.0 = bf16[1024,2048]{1,0} parameter(74), metadata={op_type="xla__device_data" op_name="xla__device_data" source_file="/usr/local/lib/python3.10/site-packages/torch_xla/_dynamo/dynamo_bridge.py" source_line=355}
  %p73.1238.0 = bf16[1024]{0} parameter(73), metadata={op_type="xla__device_data" op_name="xla__device_data" source_file="/usr/local/lib/python3.10/site-packages/torch_xla/_dynamo/dynamo_bridge.py" source_line=355}
  %p72.1236.0 = bf16[6144,1024]{1,0} parameter(72), metadata={op_type="xla__device_data" op_name="xla__device_data" source_file="/usr/local/lib/python3.10/site-packages/torch_xla/_dynamo/dynamo_bridge.py" source_line=355}
  %p71.1234.0 = bf16[1024,3072]{1,0} parameter(71), metadata={op_type="xla__device_data" op_name="xla__device_data" source_file="/usr/local/lib/python3.10/site-packages/torch_xla/_dynamo/dynamo_bridge.py" source_line=355}
  %p70.1218.0 = bf16[1024,2048]{1,0} parameter(70), metadata={op_type="xla__device_data" op_name="xla__device_data" source_file="/usr/local/lib/python3.10/site-packages/torch_xla/_dynamo/dynamo_bridge.py" source_line=355}
  %p69.1166.0 = bf16[1024]{0} parameter(69), metadata={op_type="xla__device_data" op_name="xla__device_data" source_file="/usr/local/lib/python3.10/site-packages/torch_xla/_dynamo/dynamo_bridge.py" source_line=355}
  %p68.1164.0 = bf16[6144,1024]{1,0} parameter(68), metadata={op_type="xla__device_data" op_name="xla__device_data" source_file="/usr/local/lib/python3.10/site-packages/torch_xla/_dynamo/dynamo_bridge.py" source_line=355}
  %p67.1162.0 = bf16[1024,3072]{1,0} parameter(67), metadata={op_type="xla__device_data" op_name="xla__device_data" source_file="/usr/local/lib/python3.10/site-packages/torch_xla/_dynamo/dynamo_bridge.py" source_line=355}
  %p66.1146.0 = bf16[1024,2048]{1,0} parameter(66), metadata={op_type="xla__device_data" op_name="xla__device_data" source_file="/usr/local/lib/python3.10/site-packages/torch_xla/_dynamo/dynamo_bridge.py" source_line=355}
  %p65.1094.0 = bf16[1024]{0} parameter(65), metadata={op_type="xla__device_data" op_name="xla__device_data" source_file="/usr/local/lib/python3.10/site-packages/torch_xla/_dynamo/dynamo_bridge.py" source_line=355}
  %p64.1092.0 = bf16[6144,1024]{1,0} parameter(64), metadata={op_type="xla__device_data" op_name="xla__device_data" source_file="/usr/local/lib/python3.10/site-packages/torch_xla/_dynamo/dynamo_bridge.py" source_line=355}
  %p63.1090.0 = bf16[1024,3072]{1,0} parameter(63), metadata={op_type="xla__device_data" op_name="xla__device_data" source_file="/usr/local/lib/python3.10/site-packages/torch_xla/_dynamo/dynamo_bridge.py" source_line=355}
  %p62.1074.0 = bf16[1024,2048]{1,0} parameter(62), metadata={op_type="xla__device_data" op_name="xla__device_data" source_file="/usr/local/lib/python3.10/site-packages/torch_xla/_dynamo/dynamo_bridge.py" source_line=355}
  %p61.1022.0 = bf16[1024]{0} parameter(61), metadata={op_type="xla__device_data" op_name="xla__device_data" source_file="/usr/local/lib/python3.10/site-packages/torch_xla/_dynamo/dynamo_bridge.py" source_line=355}
  %p60.1020.0 = bf16[6144,1024]{1,0} parameter(60), metadata={op_type="xla__device_data" op_name="xla__device_data" source_file="/usr/local/lib/python3.10/site-packages/torch_xla/_dynamo/dynamo_bridge.py" source_line=355}
  %p59.1018.0 = bf16[1024,3072]{1,0} parameter(59), metadata={op_type="xla__device_data" op_name="xla__device_data" source_file="/usr/local/lib/python3.10/site-packages/torch_xla/_dynamo/dynamo_bridge.py" source_line=355}
  %p58.1002.0 = bf16[1024,2048]{1,0} parameter(58), metadata={op_type="xla__device_data" op_name="xla__device_data" source_file="/usr/local/lib/python3.10/site-packages/torch_xla/_dynamo/dynamo_bridge.py" source_line=355}
  %p57.950.0 = bf16[1024]{0} parameter(57), metadata={op_type="xla__device_data" op_name="xla__device_data" source_file="/usr/local/lib/python3.10/site-packages/torch_xla/_dynamo/dynamo_bridge.py" source_line=355}
  %p56.948.0 = bf16[6144,1024]{1,0} parameter(56), metadata={op_type="xla__device_data" op_name="xla__device_data" source_file="/usr/local/lib/python3.10/site-packages/torch_xla/_dynamo/dynamo_bridge.py" source_line=355}
  %p55.946.0 = bf16[1024,3072]{1,0} parameter(55), metadata={op_type="xla__device_data" op_name="xla__device_data" source_file="/usr/local/lib/python3.10/site-packages/torch_xla/_dynamo/dynamo_bridge.py" source_line=355}
  %p54.930.0 = bf16[1024,2048]{1,0} parameter(54), metadata={op_type="xla__device_data" op_name="xla__device_data" source_file="/usr/local/lib/python3.10/site-packages/torch_xla/_dynamo/dynamo_bridge.py" source_line=355}
  %p53.878.0 = bf16[1024]{0} parameter(53), metadata={op_type="xla__device_data" op_name="xla__device_data" source_file="/usr/local/lib/python3.10/site-packages/torch_xla/_dynamo/dynamo_bridge.py" source_line=355}
  %p52.876.0 = bf16[6144,1024]{1,0} parameter(52), metadata={op_type="xla__device_data" op_name="xla__device_data" source_file="/usr/local/lib/python3.10/site-packages/torch_xla/_dynamo/dynamo_bridge.py" source_line=355}
  %p51.874.0 = bf16[1024,3072]{1,0} parameter(51), metadata={op_type="xla__device_data" op_name="xla__device_data" source_file="/usr/local/lib/python3.10/site-packages/torch_xla/_dynamo/dynamo_bridge.py" source_line=355}
  %p50.858.0 = bf16[1024,2048]{1,0} parameter(50), metadata={op_type="xla__device_data" op_name="xla__device_data" source_file="/usr/local/lib/python3.10/site-packages/torch_xla/_dynamo/dynamo_bridge.py" source_line=355}
  %p49.806.0 = bf16[1024]{0} parameter(49), metadata={op_type="xla__device_data" op_name="xla__device_data" source_file="/usr/local/lib/python3.10/site-packages/torch_xla/_dynamo/dynamo_bridge.py" source_line=355}
  %p48.804.0 = bf16[6144,1024]{1,0} parameter(48), metadata={op_type="xla__device_data" op_name="xla__device_data" source_file="/usr/local/lib/python3.10/site-packages/torch_xla/_dynamo/dynamo_bridge.py" source_line=355}
  %p47.802.0 = bf16[1024,3072]{1,0} parameter(47), metadata={op_type="xla__device_data" op_name="xla__device_data" source_file="/usr/local/lib/python3.10/site-packages/torch_xla/_dynamo/dynamo_bridge.py" source_line=355}
  %p46.786.0 = bf16[1024,2048]{1,0} parameter(46), metadata={op_type="xla__device_data" op_name="xla__device_data" source_file="/usr/local/lib/python3.10/site-packages/torch_xla/_dynamo/dynamo_bridge.py" source_line=355}
  %p45.734.0 = bf16[1024]{0} parameter(45), metadata={op_type="xla__device_data" op_name="xla__device_data" source_file="/usr/local/lib/python3.10/site-packages/torch_xla/_dynamo/dynamo_bridge.py" source_line=355}
  %p44.732.0 = bf16[6144,1024]{1,0} parameter(44), metadata={op_type="xla__device_data" op_name="xla__device_data" source_file="/usr/local/lib/python3.10/site-packages/torch_xla/_dynamo/dynamo_bridge.py" source_line=355}
  %p43.730.0 = bf16[1024,3072]{1,0} parameter(43), metadata={op_type="xla__device_data" op_name="xla__device_data" source_file="/usr/local/lib/python3.10/site-packages/torch_xla/_dynamo/dynamo_bridge.py" source_line=355}
  %p42.714.0 = bf16[1024,2048]{1,0} parameter(42), metadata={op_type="xla__device_data" op_name="xla__device_data" source_file="/usr/local/lib/python3.10/site-packages/torch_xla/_dynamo/dynamo_bridge.py" source_line=355}
  %p41.662.0 = bf16[1024]{0} parameter(41), metadata={op_type="xla__device_data" op_name="xla__device_data" source_file="/usr/local/lib/python3.10/site-packages/torch_xla/_dynamo/dynamo_bridge.py" source_line=355}
  %p40.660.0 = bf16[6144,1024]{1,0} parameter(40), metadata={op_type="xla__device_data" op_name="xla__device_data" source_file="/usr/local/lib/python3.10/site-packages/torch_xla/_dynamo/dynamo_bridge.py" source_line=355}
  %p39.658.0 = bf16[1024,3072]{1,0} parameter(39), metadata={op_type="xla__device_data" op_name="xla__device_data" source_file="/usr/local/lib/python3.10/site-packages/torch_xla/_dynamo/dynamo_bridge.py" source_line=355}
  %p38.642.0 = bf16[1024,2048]{1,0} parameter(38), metadata={op_type="xla__device_data" op_name="xla__device_data" source_file="/usr/local/lib/python3.10/site-packages/torch_xla/_dynamo/dynamo_bridge.py" source_line=355}
  %p37.590.0 = bf16[1024]{0} parameter(37), metadata={op_type="xla__device_data" op_name="xla__device_data" source_file="/usr/local/lib/python3.10/site-packages/torch_xla/_dynamo/dynamo_bridge.py" source_line=355}
  %p36.588.0 = bf16[6144,1024]{1,0} parameter(36), metadata={op_type="xla__device_data" op_name="xla__device_data" source_file="/usr/local/lib/python3.10/site-packages/torch_xla/_dynamo/dynamo_bridge.py" source_line=355}
  %p35.586.0 = bf16[1024,3072]{1,0} parameter(35), metadata={op_type="xla__device_data" op_name="xla__device_data" source_file="/usr/local/lib/python3.10/site-packages/torch_xla/_dynamo/dynamo_bridge.py" source_line=355}
  %p34.570.0 = bf16[1024,2048]{1,0} parameter(34), metadata={op_type="xla__device_data" op_name="xla__device_data" source_file="/usr/local/lib/python3.10/site-packages/torch_xla/_dynamo/dynamo_bridge.py" source_line=355}
  %p33.518.0 = bf16[1024]{0} parameter(33), metadata={op_type="xla__device_data" op_name="xla__device_data" source_file="/usr/local/lib/python3.10/site-packages/torch_xla/_dynamo/dynamo_bridge.py" source_line=355}
  %p32.516.0 = bf16[6144,1024]{1,0} parameter(32), metadata={op_type="xla__device_data" op_name="xla__device_data" source_file="/usr/local/lib/python3.10/site-packages/torch_xla/_dynamo/dynamo_bridge.py" source_line=355}
  %p31.514.0 = bf16[1024,3072]{1,0} parameter(31), metadata={op_type="xla__device_data" op_name="xla__device_data" source_file="/usr/local/lib/python3.10/site-packages/torch_xla/_dynamo/dynamo_bridge.py" source_line=355}
  %p30.498.0 = bf16[1024,2048]{1,0} parameter(30), metadata={op_type="xla__device_data" op_name="xla__device_data" source_file="/usr/local/lib/python3.10/site-packages/torch_xla/_dynamo/dynamo_bridge.py" source_line=355}
  %p29.446.0 = bf16[1024]{0} parameter(29), metadata={op_type="xla__device_data" op_name="xla__device_data" source_file="/usr/local/lib/python3.10/site-packages/torch_xla/_dynamo/dynamo_bridge.py" source_line=355}
  %p28.444.0 = bf16[6144,1024]{1,0} parameter(28), metadata={op_type="xla__device_data" op_name="xla__device_data" source_file="/usr/local/lib/python3.10/site-packages/torch_xla/_dynamo/dynamo_bridge.py" source_line=355}
  %p27.442.0 = bf16[1024,3072]{1,0} parameter(27), metadata={op_type="xla__device_data" op_name="xla__device_data" source_file="/usr/local/lib/python3.10/site-packages/torch_xla/_dynamo/dynamo_bridge.py" source_line=355}
  %p26.426.0 = bf16[1024,2048]{1,0} parameter(26), metadata={op_type="xla__device_data" op_name="xla__device_data" source_file="/usr/local/lib/python3.10/site-packages/torch_xla/_dynamo/dynamo_bridge.py" source_line=355}
  %p25.374.0 = bf16[1024]{0} parameter(25), metadata={op_type="xla__device_data" op_name="xla__device_data" source_file="/usr/local/lib/python3.10/site-packages/torch_xla/_dynamo/dynamo_bridge.py" source_line=355}
  %p24.372.0 = bf16[6144,1024]{1,0} parameter(24), metadata={op_type="xla__device_data" op_name="xla__device_data" source_file="/usr/local/lib/python3.10/site-packages/torch_xla/_dynamo/dynamo_bridge.py" source_line=355}
  %p23.370.0 = bf16[1024,3072]{1,0} parameter(23), metadata={op_type="xla__device_data" op_name="xla__device_data" source_file="/usr/local/lib/python3.10/site-packages/torch_xla/_dynamo/dynamo_bridge.py" source_line=355}
  %p22.354.0 = bf16[1024,2048]{1,0} parameter(22), metadata={op_type="xla__device_data" op_name="xla__device_data" source_file="/usr/local/lib/python3.10/site-packages/torch_xla/_dynamo/dynamo_bridge.py" source_line=355}
  %p21.302.0 = bf16[1024]{0} parameter(21), metadata={op_type="xla__device_data" op_name="xla__device_data" source_file="/usr/local/lib/python3.10/site-packages/torch_xla/_dynamo/dynamo_bridge.py" source_line=355}
  %p20.300.0 = bf16[6144,1024]{1,0} parameter(20), metadata={op_type="xla__device_data" op_name="xla__device_data" source_file="/usr/local/lib/python3.10/site-packages/torch_xla/_dynamo/dynamo_bridge.py" source_line=355}
  %p19.298.0 = bf16[1024,3072]{1,0} parameter(19), metadata={op_type="xla__device_data" op_name="xla__device_data" source_file="/usr/local/lib/python3.10/site-packages/torch_xla/_dynamo/dynamo_bridge.py" source_line=355}
  %p18.282.0 = bf16[1024,2048]{1,0} parameter(18), metadata={op_type="xla__device_data" op_name="xla__device_data" source_file="/usr/local/lib/python3.10/site-packages/torch_xla/_dynamo/dynamo_bridge.py" source_line=355}
  %p17.230.0 = bf16[1024]{0} parameter(17), metadata={op_type="xla__device_data" op_name="xla__device_data" source_file="/usr/local/lib/python3.10/site-packages/torch_xla/_dynamo/dynamo_bridge.py" source_line=355}
  %p16.228.0 = bf16[6144,1024]{1,0} parameter(16), metadata={op_type="xla__device_data" op_name="xla__device_data" source_file="/usr/local/lib/python3.10/site-packages/torch_xla/_dynamo/dynamo_bridge.py" source_line=355}
  %p15.226.0 = bf16[1024,3072]{1,0} parameter(15), metadata={op_type="xla__device_data" op_name="xla__device_data" source_file="/usr/local/lib/python3.10/site-packages/torch_xla/_dynamo/dynamo_bridge.py" source_line=355}
  %p14.210.0 = bf16[1024,2048]{1,0} parameter(14), metadata={op_type="xla__device_data" op_name="xla__device_data" source_file="/usr/local/lib/python3.10/site-packages/torch_xla/_dynamo/dynamo_bridge.py" source_line=355}
  %p13.158.0 = bf16[1024]{0} parameter(13), metadata={op_type="xla__device_data" op_name="xla__device_data" source_file="/usr/local/lib/python3.10/site-packages/torch_xla/_dynamo/dynamo_bridge.py" source_line=355}
  %p12.156.0 = bf16[6144,1024]{1,0} parameter(12), metadata={op_type="xla__device_data" op_name="xla__device_data" source_file="/usr/local/lib/python3.10/site-packages/torch_xla/_dynamo/dynamo_bridge.py" source_line=355}
  %p11.154.0 = bf16[1024,3072]{1,0} parameter(11), metadata={op_type="xla__device_data" op_name="xla__device_data" source_file="/usr/local/lib/python3.10/site-packages/torch_xla/_dynamo/dynamo_bridge.py" source_line=355}
  %p10.138.0 = bf16[1024,2048]{1,0} parameter(10), metadata={op_type="xla__device_data" op_name="xla__device_data" source_file="/usr/local/lib/python3.10/site-packages/torch_xla/_dynamo/dynamo_bridge.py" source_line=355}
  %p9.86.0 = bf16[1024]{0} parameter(9), metadata={op_type="xla__device_data" op_name="xla__device_data" source_file="/usr/local/lib/python3.10/site-packages/torch_xla/_dynamo/dynamo_bridge.py" source_line=355}
  %p8.84.0 = bf16[6144,1024]{1,0} parameter(8), metadata={op_type="xla__device_data" op_name="xla__device_data" source_file="/usr/local/lib/python3.10/site-packages/torch_xla/_dynamo/dynamo_bridge.py" source_line=355}
  %p7.82.0 = bf16[1024,3072]{1,0} parameter(7), metadata={op_type="xla__device_data" op_name="xla__device_data" source_file="/usr/local/lib/python3.10/site-packages/torch_xla/_dynamo/dynamo_bridge.py" source_line=355}
  %p6.66.0 = bf16[1024,2048]{1,0} parameter(6), metadata={op_type="xla__device_data" op_name="xla__device_data" source_file="/usr/local/lib/python3.10/site-packages/torch_xla/_dynamo/dynamo_bridge.py" source_line=355}
  %p5.62.0 = bf16[151936,1024]{1,0} parameter(5), metadata={op_type="xla__device_data" op_name="xla__device_data" source_file="/usr/local/lib/python3.10/site-packages/torch_xla/_dynamo/dynamo_bridge.py" source_line=355}
  %p4.60.0 = s32[64]{0} parameter(4), metadata={op_type="xla__device_data" op_name="xla__device_data" source_file="/usr/local/lib/python3.10/site-packages/torch_xla/_dynamo/dynamo_bridge.py" source_line=355}
  %p3.8.0 = bf16[1024]{0} parameter(3), metadata={op_type="xla__device_data" op_name="xla__device_data" source_file="/usr/local/lib/python3.10/site-packages/torch_xla/_dynamo/dynamo_bridge.py" source_line=355}
  %p2.6.0 = bf16[4096,1024]{1,0} parameter(2), metadata={op_type="xla__device_data" op_name="xla__device_data" source_file="/usr/local/lib/python3.10/site-packages/torch_xla/_dynamo/dynamo_bridge.py" source_line=355}
  %p0.1.0 = bf16[128]{0} parameter(0), metadata={op_type="xla__device_data" op_name="xla__device_data" source_file="/usr/local/lib/python3.10/site-packages/torch_xla/_dynamo/dynamo_bridge.py" source_line=355}
  %call = (bf16[64,8,128]{2,1,0}, bf16[64,8,128]{2,1,0}, bf16[4233,16,8,128]{3,2,1,0}, bf16[1,4233,16,8,128]{4,3,2,1,0}) call(bf16[151936,1024]{1,0} %p5.62.0, s32[64]{0} %p4.60.0, bf16[1024,2048]{1,0} %p98.1722.0, bf16[1024,2048]{1,0} %p94.1650.0, bf16[1024,2048]{1,0} %p90.1578.0, /*index=5*/bf16[1024,2048]{1,0} %p86.1506.0, bf16[1024,2048]{1,0} %p82.1434.0, bf16[1024,2048]{1,0} %p78.1362.0, bf16[1024,2048]{1,0} %p74.1290.0, bf16[1024,2048]{1,0} %p70.1218.0, /*index=10*/bf16[1024,2048]{1,0} %p66.1146.0, bf16[1024,2048]{1,0} %p62.1074.0, bf16[1024,2048]{1,0} %p58.1002.0, bf16[1024,2048]{1,0} %p54.930.0, bf16[1024,2048]{1,0} %p50.858.0, /*index=15*/bf16[1024,2048]{1,0} %p46.786.0, bf16[1024,2048]{1,0} %p42.714.0, bf16[1024,2048]{1,0} %p38.642.0, bf16[1024,2048]{1,0} %p34.570.0, bf16[1024,2048]{1,0} %p30.498.0, /*index=20*/bf16[1024,2048]{1,0} %p26.426.0, bf16[1024,2048]{1,0} %p22.354.0, bf16[1024,2048]{1,0} %p18.282.0, bf16[1024,2048]{1,0} %p14.210.0, bf16[1024,2048]{1,0} %p10.138.0, /*index=25*/bf16[1024,2048]{1,0} %p6.66.0, f32[] %p1.4.0, bf16[1024]{0} %p9.86.0, bf16[6144,1024]{1,0} %p8.84.0, bf16[1024,3072]{1,0} %p7.82.0, /*index=30*/bf16[1024]{0} %p13.158.0, bf16[6144,1024]{1,0} %p12.156.0, bf16[1024,3072]{1,0} %p11.154.0, bf16[1024]{0} %p17.230.0, bf16[6144,1024]{1,0} %p16.228.0, /*index=35*/bf16[1024,3072]{1,0} %p15.226.0, bf16[1024]{0} %p21.302.0, bf16[6144,1024]{1,0} %p20.300.0, bf16[1024,3072]{1,0} %p19.298.0, bf16[1024]{0} %p25.374.0, /*index=40*/bf16[6144,1024]{1,0} %p24.372.0, bf16[1024,3072]{1,0} %p23.370.0, bf16[1024]{0} %p29.446.0, bf16[6144,1024]{1,0} %p28.444.0, bf16[1024,3072]{1,0} %p27.442.0, /*index=45*/bf16[1024]{0} %p33.518.0, bf16[6144,1024]{1,0} %p32.516.0, bf16[1024,3072]{1,0} %p31.514.0, bf16[1024]{0} %p37.590.0, bf16[6144,1024]{1,0} %p36.588.0, /*index=50*/bf16[1024,3072]{1,0} %p35.586.0, bf16[1024]{0} %p41.662.0, bf16[6144,1024]{1,0} %p40.660.0, bf16[1024,3072]{1,0} %p39.658.0, bf16[1024]{0} %p45.734.0, /*index=55*/bf16[6144,1024]{1,0} %p44.732.0, bf16[1024,3072]{1,0} %p43.730.0, bf16[1024]{0} %p49.806.0, bf16[6144,1024]{1,0} %p48.804.0, bf16[1024,3072]{1,0} %p47.802.0, /*index=60*/bf16[1024]{0} %p53.878.0, bf16[6144,1024]{1,0} %p52.876.0, bf16[1024,3072]{1,0} %p51.874.0, bf16[1024]{0} %p57.950.0, bf16[6144,1024]{1,0} %p56.948.0, /*index=65*/bf16[1024,3072]{1,0} %p55.946.0, bf16[1024]{0} %p61.1022.0, bf16[6144,1024]{1,0} %p60.1020.0, bf16[1024,3072]{1,0} %p59.1018.0, bf16[1024]{0} %p65.1094.0, /*index=70*/bf16[6144,1024]{1,0} %p64.1092.0, bf16[1024,3072]{1,0} %p63.1090.0, bf16[1024]{0} %p69.1166.0, bf16[6144,1024]{1,0} %p68.1164.0, bf16[1024,3072]{1,0} %p67.1162.0, /*index=75*/bf16[1024]{0} %p73.1238.0, bf16[6144,1024]{1,0} %p72.1236.0, bf16[1024,3072]{1,0} %p71.1234.0, bf16[1024]{0} %p77.1310.0, bf16[6144,1024]{1,0} %p76.1308.0, /*index=80*/bf16[1024,3072]{1,0} %p75.1306.0, bf16[1024]{0} %p81.1382.0, bf16[6144,1024]{1,0} %p80.1380.0, bf16[1024,3072]{1,0} %p79.1378.0, bf16[1024]{0} %p85.1454.0, /*index=85*/bf16[6144,1024]{1,0} %p84.1452.0, bf16[1024,3072]{1,0} %p83.1450.0, bf16[1024]{0} %p89.1526.0, bf16[6144,1024]{1,0} %p88.1524.0, bf16[1024,3072]{1,0} %p87.1522.0, /*index=90*/bf16[1024]{0} %p93.1598.0, bf16[6144,1024]{1,0} %p92.1596.0, bf16[1024,3072]{1,0} %p91.1594.0, bf16[1024]{0} %p97.1670.0, bf16[6144,1024]{1,0} %p96.1668.0, /*index=95*/bf16[1024,3072]{1,0} %p95.1666.0, bf16[1024]{0} %p101.1742.0, bf16[6144,1024]{1,0} %p100.1740.0, bf16[1024,3072]{1,0} %p99.1738.0, bf16[1024]{0} %p3.8.0, /*index=100*/bf16[4096,1024]{1,0} %p2.6.0, bf16[128]{0} %p0.1.0, bf16[40960,128]{1,0} %p103.1867.0, s32[64]{0} %p102.1866.0, bf16[2,4233,16,8,128]{4,3,2,1,0} %p104.1911.0), to_apply=%command_buffer
  %get-tuple-element.51 = bf16[64,8,128]{2,1,0} get-tuple-element((bf16[64,8,128]{2,1,0}, bf16[64,8,128]{2,1,0}, bf16[4233,16,8,128]{3,2,1,0}, bf16[1,4233,16,8,128]{4,3,2,1,0}) %call), index=0
  %get-tuple-element.52 = bf16[64,8,128]{2,1,0} get-tuple-element((bf16[64,8,128]{2,1,0}, bf16[64,8,128]{2,1,0}, bf16[4233,16,8,128]{3,2,1,0}, bf16[1,4233,16,8,128]{4,3,2,1,0}) %call), index=1
  %get-tuple-element.53 = bf16[4233,16,8,128]{3,2,1,0} get-tuple-element((bf16[64,8,128]{2,1,0}, bf16[64,8,128]{2,1,0}, bf16[4233,16,8,128]{3,2,1,0}, bf16[1,4233,16,8,128]{4,3,2,1,0}) %call), index=2
  %get-tuple-element.54 = bf16[1,4233,16,8,128]{4,3,2,1,0} get-tuple-element((bf16[64,8,128]{2,1,0}, bf16[64,8,128]{2,1,0}, bf16[4233,16,8,128]{3,2,1,0}, bf16[1,4233,16,8,128]{4,3,2,1,0}) %call), index=3
  %bitcast.4862.0 = bf16[4233,16,8,128]{3,2,1,0} bitcast(bf16[1,4233,16,8,128]{4,3,2,1,0} %get-tuple-element.54)
  ROOT %tuple.1920.0 = (bf16[64,8,128]{2,1,0}, bf16[64,8,128]{2,1,0}, bf16[4233,16,8,128]{3,2,1,0}, bf16[4233,16,8,128]{3,2,1,0}) tuple(bf16[64,8,128]{2,1,0} %get-tuple-element.51, bf16[64,8,128]{2,1,0} %get-tuple-element.52, bf16[4233,16,8,128]{3,2,1,0} %bitcast.4862.0, bf16[4233,16,8,128]{3,2,1,0} %get-tuple-element.53)
}

