HloModule SyncTensorsGraph.1699, entry_computation_layout={(bf16[128]{0}, f32[], bf16[4096,1024]{1,0}, bf16[1024]{0}, s32[64]{0}, /*index=5*/bf16[151936,1024]{1,0}, bf16[1024,2048]{1,0}, bf16[1024,3072]{1,0}, bf16[6144,1024]{1,0}, bf16[1024]{0}, /*index=10*/bf16[1024,2048]{1,0}, bf16[1024,3072]{1,0}, bf16[6144,1024]{1,0}, bf16[1024]{0}, bf16[1024,2048]{1,0}, /*index=15*/bf16[1024,3072]{1,0}, bf16[6144,1024]{1,0}, bf16[1024]{0}, bf16[1024,2048]{1,0}, bf16[1024,3072]{1,0}, /*index=20*/bf16[6144,1024]{1,0}, bf16[1024]{0}, bf16[1024,2048]{1,0}, bf16[1024,3072]{1,0}, bf16[6144,1024]{1,0}, /*index=25*/bf16[1024]{0}, bf16[1024,2048]{1,0}, bf16[1024,3072]{1,0}, bf16[6144,1024]{1,0}, bf16[1024]{0}, /*index=30*/bf16[1024,2048]{1,0}, bf16[1024,3072]{1,0}, bf16[6144,1024]{1,0}, bf16[1024]{0}, bf16[1024,2048]{1,0}, /*index=35*/bf16[1024,3072]{1,0}, bf16[6144,1024]{1,0}, bf16[1024]{0}, bf16[1024,2048]{1,0}, bf16[1024,3072]{1,0}, /*index=40*/bf16[6144,1024]{1,0}, bf16[1024]{0}, bf16[1024,2048]{1,0}, bf16[1024,3072]{1,0}, bf16[6144,1024]{1,0}, /*index=45*/bf16[1024]{0}, bf16[1024,2048]{1,0}, bf16[1024,3072]{1,0}, bf16[6144,1024]{1,0}, bf16[1024]{0}, /*index=50*/bf16[1024,2048]{1,0}, bf16[1024,3072]{1,0}, bf16[6144,1024]{1,0}, bf16[1024]{0}, bf16[1024,2048]{1,0}, /*index=55*/bf16[1024,3072]{1,0}, bf16[6144,1024]{1,0}, bf16[1024]{0}, bf16[1024,2048]{1,0}, bf16[1024,3072]{1,0}, /*index=60*/bf16[6144,1024]{1,0}, bf16[1024]{0}, bf16[1024,2048]{1,0}, bf16[1024,3072]{1,0}, bf16[6144,1024]{1,0}, /*index=65*/bf16[1024]{0}, bf16[1024,2048]{1,0}, bf16[1024,3072]{1,0}, bf16[6144,1024]{1,0}, bf16[1024]{0}, /*index=70*/bf16[1024,2048]{1,0}, bf16[1024,3072]{1,0}, bf16[6144,1024]{1,0}, bf16[1024]{0}, bf16[1024,2048]{1,0}, /*index=75*/bf16[1024,3072]{1,0}, bf16[6144,1024]{1,0}, bf16[1024]{0}, bf16[1024,2048]{1,0}, bf16[1024,3072]{1,0}, /*index=80*/bf16[6144,1024]{1,0}, bf16[1024]{0}, bf16[1024,2048]{1,0}, bf16[1024,3072]{1,0}, bf16[6144,1024]{1,0}, /*index=85*/bf16[1024]{0}, bf16[1024,2048]{1,0}, bf16[1024,3072]{1,0}, bf16[6144,1024]{1,0}, bf16[1024]{0}, /*index=90*/s32[64]{0}, bf16[40960,128]{1,0}, bf16[2,4233,16,8,128]{4,3,2,1,0})->(bf16[64,8,128]{2,1,0}, bf16[64,8,128]{2,1,0}, bf16[4233,16,8,128]{3,2,1,0}, bf16[4233,16,8,128]{3,2,1,0})}

%AddComputation.88 (x.89: f32[], y.90: f32[]) -> f32[] {
  %x.89 = f32[] parameter(0)
  %y.90 = f32[] parameter(1)
  ROOT %add.91 = f32[] add(f32[] %x.89, f32[] %y.90)
}

%AddComputation.160 (x.161: f32[], y.162: f32[]) -> f32[] {
  %x.161 = f32[] parameter(0)
  %y.162 = f32[] parameter(1)
  ROOT %add.163 = f32[] add(f32[] %x.161, f32[] %y.162)
}

%AddComputation.232 (x.233: f32[], y.234: f32[]) -> f32[] {
  %x.233 = f32[] parameter(0)
  %y.234 = f32[] parameter(1)
  ROOT %add.235 = f32[] add(f32[] %x.233, f32[] %y.234)
}

%AddComputation.304 (x.305: f32[], y.306: f32[]) -> f32[] {
  %x.305 = f32[] parameter(0)
  %y.306 = f32[] parameter(1)
  ROOT %add.307 = f32[] add(f32[] %x.305, f32[] %y.306)
}

%AddComputation.376 (x.377: f32[], y.378: f32[]) -> f32[] {
  %x.377 = f32[] parameter(0)
  %y.378 = f32[] parameter(1)
  ROOT %add.379 = f32[] add(f32[] %x.377, f32[] %y.378)
}

%AddComputation.448 (x.449: f32[], y.450: f32[]) -> f32[] {
  %x.449 = f32[] parameter(0)
  %y.450 = f32[] parameter(1)
  ROOT %add.451 = f32[] add(f32[] %x.449, f32[] %y.450)
}

%AddComputation.520 (x.521: f32[], y.522: f32[]) -> f32[] {
  %x.521 = f32[] parameter(0)
  %y.522 = f32[] parameter(1)
  ROOT %add.523 = f32[] add(f32[] %x.521, f32[] %y.522)
}

%AddComputation.592 (x.593: f32[], y.594: f32[]) -> f32[] {
  %x.593 = f32[] parameter(0)
  %y.594 = f32[] parameter(1)
  ROOT %add.595 = f32[] add(f32[] %x.593, f32[] %y.594)
}

%AddComputation.664 (x.665: f32[], y.666: f32[]) -> f32[] {
  %x.665 = f32[] parameter(0)
  %y.666 = f32[] parameter(1)
  ROOT %add.667 = f32[] add(f32[] %x.665, f32[] %y.666)
}

%AddComputation.736 (x.737: f32[], y.738: f32[]) -> f32[] {
  %x.737 = f32[] parameter(0)
  %y.738 = f32[] parameter(1)
  ROOT %add.739 = f32[] add(f32[] %x.737, f32[] %y.738)
}

%AddComputation.808 (x.809: f32[], y.810: f32[]) -> f32[] {
  %x.809 = f32[] parameter(0)
  %y.810 = f32[] parameter(1)
  ROOT %add.811 = f32[] add(f32[] %x.809, f32[] %y.810)
}

%AddComputation.880 (x.881: f32[], y.882: f32[]) -> f32[] {
  %x.881 = f32[] parameter(0)
  %y.882 = f32[] parameter(1)
  ROOT %add.883 = f32[] add(f32[] %x.881, f32[] %y.882)
}

%AddComputation.952 (x.953: f32[], y.954: f32[]) -> f32[] {
  %x.953 = f32[] parameter(0)
  %y.954 = f32[] parameter(1)
  ROOT %add.955 = f32[] add(f32[] %x.953, f32[] %y.954)
}

%AddComputation.1024 (x.1025: f32[], y.1026: f32[]) -> f32[] {
  %x.1025 = f32[] parameter(0)
  %y.1026 = f32[] parameter(1)
  ROOT %add.1027 = f32[] add(f32[] %x.1025, f32[] %y.1026)
}

%AddComputation.1096 (x.1097: f32[], y.1098: f32[]) -> f32[] {
  %x.1097 = f32[] parameter(0)
  %y.1098 = f32[] parameter(1)
  ROOT %add.1099 = f32[] add(f32[] %x.1097, f32[] %y.1098)
}

%AddComputation.1168 (x.1169: f32[], y.1170: f32[]) -> f32[] {
  %x.1169 = f32[] parameter(0)
  %y.1170 = f32[] parameter(1)
  ROOT %add.1171 = f32[] add(f32[] %x.1169, f32[] %y.1170)
}

%AddComputation.1240 (x.1241: f32[], y.1242: f32[]) -> f32[] {
  %x.1241 = f32[] parameter(0)
  %y.1242 = f32[] parameter(1)
  ROOT %add.1243 = f32[] add(f32[] %x.1241, f32[] %y.1242)
}

%AddComputation.1312 (x.1313: f32[], y.1314: f32[]) -> f32[] {
  %x.1313 = f32[] parameter(0)
  %y.1314 = f32[] parameter(1)
  ROOT %add.1315 = f32[] add(f32[] %x.1313, f32[] %y.1314)
}

%AddComputation.1384 (x.1385: f32[], y.1386: f32[]) -> f32[] {
  %x.1385 = f32[] parameter(0)
  %y.1386 = f32[] parameter(1)
  ROOT %add.1387 = f32[] add(f32[] %x.1385, f32[] %y.1386)
}

%AddComputation.1456 (x.1457: f32[], y.1458: f32[]) -> f32[] {
  %x.1457 = f32[] parameter(0)
  %y.1458 = f32[] parameter(1)
  ROOT %add.1459 = f32[] add(f32[] %x.1457, f32[] %y.1458)
}

%AddComputation.1528 (x.1529: f32[], y.1530: f32[]) -> f32[] {
  %x.1529 = f32[] parameter(0)
  %y.1530 = f32[] parameter(1)
  ROOT %add.1531 = f32[] add(f32[] %x.1529, f32[] %y.1530)
}

%AddComputation.1574 (x.1575: f32[], y.1576: f32[]) -> f32[] {
  %x.1575 = f32[] parameter(0)
  %y.1576 = f32[] parameter(1)
  ROOT %add.1577 = f32[] add(f32[] %x.1575, f32[] %y.1576)
}

%AddComputation.1612 (x.1613: f32[], y.1614: f32[]) -> f32[] {
  %x.1613 = f32[] parameter(0)
  %y.1614 = f32[] parameter(1)
  ROOT %add.1615 = f32[] add(f32[] %x.1613, f32[] %y.1614)
}

ENTRY %SyncTensorsGraph.1699 (p0.1: bf16[128], p1.4: f32[], p2.6: bf16[4096,1024], p3.8: bf16[1024], p4.54: s32[64], p5.56: bf16[151936,1024], p6.60: bf16[1024,2048], p7.76: bf16[1024,3072], p8.78: bf16[6144,1024], p9.80: bf16[1024], p10.132: bf16[1024,2048], p11.148: bf16[1024,3072], p12.150: bf16[6144,1024], p13.152: bf16[1024], p14.204: bf16[1024,2048], p15.220: bf16[1024,3072], p16.222: bf16[6144,1024], p17.224: bf16[1024], p18.276: bf16[1024,2048], p19.292: bf16[1024,3072], p20.294: bf16[6144,1024], p21.296: bf16[1024], p22.348: bf16[1024,2048], p23.364: bf16[1024,3072], p24.366: bf16[6144,1024], p25.368: bf16[1024], p26.420: bf16[1024,2048], p27.436: bf16[1024,3072], p28.438: bf16[6144,1024], p29.440: bf16[1024], p30.492: bf16[1024,2048], p31.508: bf16[1024,3072], p32.510: bf16[6144,1024], p33.512: bf16[1024], p34.564: bf16[1024,2048], p35.580: bf16[1024,3072], p36.582: bf16[6144,1024], p37.584: bf16[1024], p38.636: bf16[1024,2048], p39.652: bf16[1024,3072], p40.654: bf16[6144,1024], p41.656: bf16[1024], p42.708: bf16[1024,2048], p43.724: bf16[1024,3072], p44.726: bf16[6144,1024], p45.728: bf16[1024], p46.780: bf16[1024,2048], p47.796: bf16[1024,3072], p48.798: bf16[6144,1024], p49.800: bf16[1024], p50.852: bf16[1024,2048], p51.868: bf16[1024,3072], p52.870: bf16[6144,1024], p53.872: bf16[1024], p54.924: bf16[1024,2048], p55.940: bf16[1024,3072], p56.942: bf16[6144,1024], p57.944: bf16[1024], p58.996: bf16[1024,2048], p59.1012: bf16[1024,3072], p60.1014: bf16[6144,1024], p61.1016: bf16[1024], p62.1068: bf16[1024,2048], p63.1084: bf16[1024,3072], p64.1086: bf16[6144,1024], p65.1088: bf16[1024], p66.1140: bf16[1024,2048], p67.1156: bf16[1024,3072], p68.1158: bf16[6144,1024], p69.1160: bf16[1024], p70.1212: bf16[1024,2048], p71.1228: bf16[1024,3072], p72.1230: bf16[6144,1024], p73.1232: bf16[1024], p74.1284: bf16[1024,2048], p75.1300: bf16[1024,3072], p76.1302: bf16[6144,1024], p77.1304: bf16[1024], p78.1356: bf16[1024,2048], p79.1372: bf16[1024,3072], p80.1374: bf16[6144,1024], p81.1376: bf16[1024], p82.1428: bf16[1024,2048], p83.1444: bf16[1024,3072], p84.1446: bf16[6144,1024], p85.1448: bf16[1024], p86.1500: bf16[1024,2048], p87.1516: bf16[1024,3072], p88.1518: bf16[6144,1024], p89.1520: bf16[1024], p90.1644: s32[64], p91.1645: bf16[40960,128], p92.1689: bf16[2,4233,16,8,128]) -> (bf16[64,8,128], bf16[64,8,128], bf16[4233,16,8,128], bf16[4233,16,8,128]) {
  %constant.1502 = bf16[] constant(0), metadata={op_type="prim__Constant" op_name="prim__Constant" source_file="/usr/local/lib/python3.10/site-packages/torch/_ops.py" source_line=756}
  %reshape.1503 = bf16[1,1]{1,0} reshape(bf16[] %constant.1502), metadata={op_type="aten__expand" op_name="aten__expand" source_file="/usr/local/lib/python3.10/site-packages/torch/_ops.py" source_line=756}
  %broadcast.1504 = bf16[1,1]{1,0} broadcast(bf16[1,1]{1,0} %reshape.1503), dimensions={0,1}, metadata={op_type="aten__expand" op_name="aten__expand" source_file="/usr/local/lib/python3.10/site-packages/torch/_ops.py" source_line=756}
  %reshape.1505 = bf16[] reshape(bf16[1,1]{1,0} %broadcast.1504), metadata={op_type="aten__expand" op_name="aten__expand" source_file="/usr/local/lib/python3.10/site-packages/torch/_ops.py" source_line=756}
  %broadcast.1506 = bf16[64,2048]{1,0} broadcast(bf16[] %reshape.1505), dimensions={}, metadata={op_type="aten__expand" op_name="aten__expand" source_file="/usr/local/lib/python3.10/site-packages/torch/_ops.py" source_line=756}
  %reshape.1507 = bf16[64,16,128]{2,1,0} reshape(bf16[64,2048]{1,0} %broadcast.1506), metadata={op_type="aten__view" op_name="aten__view" source_file="/usr/local/lib/python3.10/site-packages/torch/_ops.py" source_line=756}
  %reshape.1508 = bf16[64,2048]{1,0} reshape(bf16[64,16,128]{2,1,0} %reshape.1507), metadata={op_type="aten__view" op_name="aten__view" source_file="/usr/local/lib/python3.10/site-packages/torch/_ops.py" source_line=756}
  %p86.1500 = bf16[1024,2048]{1,0} parameter(86), metadata={op_type="xla__device_data" op_name="xla__device_data" source_file="/usr/local/lib/python3.10/site-packages/torch_xla/_dynamo/dynamo_bridge.py" source_line=355}
  %transpose.1501 = bf16[2048,1024]{0,1} transpose(bf16[1024,2048]{1,0} %p86.1500), dimensions={1,0}, metadata={op_type="aten__permute" op_name="aten__permute" source_file="/usr/local/lib/python3.10/site-packages/torch/_ops.py" source_line=756}
  %dot.1509 = bf16[64,1024]{1,0} dot(bf16[64,2048]{1,0} %reshape.1508, bf16[2048,1024]{0,1} %transpose.1501), lhs_contracting_dims={1}, rhs_contracting_dims={0}, metadata={op_type="aten__mm" op_name="aten__mm" source_file="/usr/local/lib/python3.10/site-packages/torch/_ops.py" source_line=756}
  %convert.1510 = f32[64,1024]{1,0} convert(bf16[64,1024]{1,0} %dot.1509), metadata={op_type="xla__cast" op_name="xla__cast" source_file="/usr/local/lib/python3.10/site-packages/torch/_ops.py" source_line=756}
  %constant.1430 = bf16[] constant(0), metadata={op_type="prim__Constant" op_name="prim__Constant" source_file="/usr/local/lib/python3.10/site-packages/torch/_ops.py" source_line=756}
  %reshape.1431 = bf16[1,1]{1,0} reshape(bf16[] %constant.1430), metadata={op_type="aten__expand" op_name="aten__expand" source_file="/usr/local/lib/python3.10/site-packages/torch/_ops.py" source_line=756}
  %broadcast.1432 = bf16[1,1]{1,0} broadcast(bf16[1,1]{1,0} %reshape.1431), dimensions={0,1}, metadata={op_type="aten__expand" op_name="aten__expand" source_file="/usr/local/lib/python3.10/site-packages/torch/_ops.py" source_line=756}
  %reshape.1433 = bf16[] reshape(bf16[1,1]{1,0} %broadcast.1432), metadata={op_type="aten__expand" op_name="aten__expand" source_file="/usr/local/lib/python3.10/site-packages/torch/_ops.py" source_line=756}
  %broadcast.1434 = bf16[64,2048]{1,0} broadcast(bf16[] %reshape.1433), dimensions={}, metadata={op_type="aten__expand" op_name="aten__expand" source_file="/usr/local/lib/python3.10/site-packages/torch/_ops.py" source_line=756}
  %reshape.1435 = bf16[64,16,128]{2,1,0} reshape(bf16[64,2048]{1,0} %broadcast.1434), metadata={op_type="aten__view" op_name="aten__view" source_file="/usr/local/lib/python3.10/site-packages/torch/_ops.py" source_line=756}
  %reshape.1436 = bf16[64,2048]{1,0} reshape(bf16[64,16,128]{2,1,0} %reshape.1435), metadata={op_type="aten__view" op_name="aten__view" source_file="/usr/local/lib/python3.10/site-packages/torch/_ops.py" source_line=756}
  %p82.1428 = bf16[1024,2048]{1,0} parameter(82), metadata={op_type="xla__device_data" op_name="xla__device_data" source_file="/usr/local/lib/python3.10/site-packages/torch_xla/_dynamo/dynamo_bridge.py" source_line=355}
  %transpose.1429 = bf16[2048,1024]{0,1} transpose(bf16[1024,2048]{1,0} %p82.1428), dimensions={1,0}, metadata={op_type="aten__permute" op_name="aten__permute" source_file="/usr/local/lib/python3.10/site-packages/torch/_ops.py" source_line=756}
  %dot.1437 = bf16[64,1024]{1,0} dot(bf16[64,2048]{1,0} %reshape.1436, bf16[2048,1024]{0,1} %transpose.1429), lhs_contracting_dims={1}, rhs_contracting_dims={0}, metadata={op_type="aten__mm" op_name="aten__mm" source_file="/usr/local/lib/python3.10/site-packages/torch/_ops.py" source_line=756}
  %convert.1438 = f32[64,1024]{1,0} convert(bf16[64,1024]{1,0} %dot.1437), metadata={op_type="xla__cast" op_name="xla__cast" source_file="/usr/local/lib/python3.10/site-packages/torch/_ops.py" source_line=756}
  %constant.1358 = bf16[] constant(0), metadata={op_type="prim__Constant" op_name="prim__Constant" source_file="/usr/local/lib/python3.10/site-packages/torch/_ops.py" source_line=756}
  %reshape.1359 = bf16[1,1]{1,0} reshape(bf16[] %constant.1358), metadata={op_type="aten__expand" op_name="aten__expand" source_file="/usr/local/lib/python3.10/site-packages/torch/_ops.py" source_line=756}
  %broadcast.1360 = bf16[1,1]{1,0} broadcast(bf16[1,1]{1,0} %reshape.1359), dimensions={0,1}, metadata={op_type="aten__expand" op_name="aten__expand" source_file="/usr/local/lib/python3.10/site-packages/torch/_ops.py" source_line=756}
  %reshape.1361 = bf16[] reshape(bf16[1,1]{1,0} %broadcast.1360), metadata={op_type="aten__expand" op_name="aten__expand" source_file="/usr/local/lib/python3.10/site-packages/torch/_ops.py" source_line=756}
  %broadcast.1362 = bf16[64,2048]{1,0} broadcast(bf16[] %reshape.1361), dimensions={}, metadata={op_type="aten__expand" op_name="aten__expand" source_file="/usr/local/lib/python3.10/site-packages/torch/_ops.py" source_line=756}
  %reshape.1363 = bf16[64,16,128]{2,1,0} reshape(bf16[64,2048]{1,0} %broadcast.1362), metadata={op_type="aten__view" op_name="aten__view" source_file="/usr/local/lib/python3.10/site-packages/torch/_ops.py" source_line=756}
  %reshape.1364 = bf16[64,2048]{1,0} reshape(bf16[64,16,128]{2,1,0} %reshape.1363), metadata={op_type="aten__view" op_name="aten__view" source_file="/usr/local/lib/python3.10/site-packages/torch/_ops.py" source_line=756}
  %p78.1356 = bf16[1024,2048]{1,0} parameter(78), metadata={op_type="xla__device_data" op_name="xla__device_data" source_file="/usr/local/lib/python3.10/site-packages/torch_xla/_dynamo/dynamo_bridge.py" source_line=355}
  %transpose.1357 = bf16[2048,1024]{0,1} transpose(bf16[1024,2048]{1,0} %p78.1356), dimensions={1,0}, metadata={op_type="aten__permute" op_name="aten__permute" source_file="/usr/local/lib/python3.10/site-packages/torch/_ops.py" source_line=756}
  %dot.1365 = bf16[64,1024]{1,0} dot(bf16[64,2048]{1,0} %reshape.1364, bf16[2048,1024]{0,1} %transpose.1357), lhs_contracting_dims={1}, rhs_contracting_dims={0}, metadata={op_type="aten__mm" op_name="aten__mm" source_file="/usr/local/lib/python3.10/site-packages/torch/_ops.py" source_line=756}
  %convert.1366 = f32[64,1024]{1,0} convert(bf16[64,1024]{1,0} %dot.1365), metadata={op_type="xla__cast" op_name="xla__cast" source_file="/usr/local/lib/python3.10/site-packages/torch/_ops.py" source_line=756}
  %constant.1286 = bf16[] constant(0), metadata={op_type="prim__Constant" op_name="prim__Constant" source_file="/usr/local/lib/python3.10/site-packages/torch/_ops.py" source_line=756}
  %reshape.1287 = bf16[1,1]{1,0} reshape(bf16[] %constant.1286), metadata={op_type="aten__expand" op_name="aten__expand" source_file="/usr/local/lib/python3.10/site-packages/torch/_ops.py" source_line=756}
  %broadcast.1288 = bf16[1,1]{1,0} broadcast(bf16[1,1]{1,0} %reshape.1287), dimensions={0,1}, metadata={op_type="aten__expand" op_name="aten__expand" source_file="/usr/local/lib/python3.10/site-packages/torch/_ops.py" source_line=756}
  %reshape.1289 = bf16[] reshape(bf16[1,1]{1,0} %broadcast.1288), metadata={op_type="aten__expand" op_name="aten__expand" source_file="/usr/local/lib/python3.10/site-packages/torch/_ops.py" source_line=756}
  %broadcast.1290 = bf16[64,2048]{1,0} broadcast(bf16[] %reshape.1289), dimensions={}, metadata={op_type="aten__expand" op_name="aten__expand" source_file="/usr/local/lib/python3.10/site-packages/torch/_ops.py" source_line=756}
  %reshape.1291 = bf16[64,16,128]{2,1,0} reshape(bf16[64,2048]{1,0} %broadcast.1290), metadata={op_type="aten__view" op_name="aten__view" source_file="/usr/local/lib/python3.10/site-packages/torch/_ops.py" source_line=756}
  %reshape.1292 = bf16[64,2048]{1,0} reshape(bf16[64,16,128]{2,1,0} %reshape.1291), metadata={op_type="aten__view" op_name="aten__view" source_file="/usr/local/lib/python3.10/site-packages/torch/_ops.py" source_line=756}
  %p74.1284 = bf16[1024,2048]{1,0} parameter(74), metadata={op_type="xla__device_data" op_name="xla__device_data" source_file="/usr/local/lib/python3.10/site-packages/torch_xla/_dynamo/dynamo_bridge.py" source_line=355}
  %transpose.1285 = bf16[2048,1024]{0,1} transpose(bf16[1024,2048]{1,0} %p74.1284), dimensions={1,0}, metadata={op_type="aten__permute" op_name="aten__permute" source_file="/usr/local/lib/python3.10/site-packages/torch/_ops.py" source_line=756}
  %dot.1293 = bf16[64,1024]{1,0} dot(bf16[64,2048]{1,0} %reshape.1292, bf16[2048,1024]{0,1} %transpose.1285), lhs_contracting_dims={1}, rhs_contracting_dims={0}, metadata={op_type="aten__mm" op_name="aten__mm" source_file="/usr/local/lib/python3.10/site-packages/torch/_ops.py" source_line=756}
  %convert.1294 = f32[64,1024]{1,0} convert(bf16[64,1024]{1,0} %dot.1293), metadata={op_type="xla__cast" op_name="xla__cast" source_file="/usr/local/lib/python3.10/site-packages/torch/_ops.py" source_line=756}
  %constant.1214 = bf16[] constant(0), metadata={op_type="prim__Constant" op_name="prim__Constant" source_file="/usr/local/lib/python3.10/site-packages/torch/_ops.py" source_line=756}
  %reshape.1215 = bf16[1,1]{1,0} reshape(bf16[] %constant.1214), metadata={op_type="aten__expand" op_name="aten__expand" source_file="/usr/local/lib/python3.10/site-packages/torch/_ops.py" source_line=756}
  %broadcast.1216 = bf16[1,1]{1,0} broadcast(bf16[1,1]{1,0} %reshape.1215), dimensions={0,1}, metadata={op_type="aten__expand" op_name="aten__expand" source_file="/usr/local/lib/python3.10/site-packages/torch/_ops.py" source_line=756}
  %reshape.1217 = bf16[] reshape(bf16[1,1]{1,0} %broadcast.1216), metadata={op_type="aten__expand" op_name="aten__expand" source_file="/usr/local/lib/python3.10/site-packages/torch/_ops.py" source_line=756}
  %broadcast.1218 = bf16[64,2048]{1,0} broadcast(bf16[] %reshape.1217), dimensions={}, metadata={op_type="aten__expand" op_name="aten__expand" source_file="/usr/local/lib/python3.10/site-packages/torch/_ops.py" source_line=756}
  %reshape.1219 = bf16[64,16,128]{2,1,0} reshape(bf16[64,2048]{1,0} %broadcast.1218), metadata={op_type="aten__view" op_name="aten__view" source_file="/usr/local/lib/python3.10/site-packages/torch/_ops.py" source_line=756}
  %reshape.1220 = bf16[64,2048]{1,0} reshape(bf16[64,16,128]{2,1,0} %reshape.1219), metadata={op_type="aten__view" op_name="aten__view" source_file="/usr/local/lib/python3.10/site-packages/torch/_ops.py" source_line=756}
  %p70.1212 = bf16[1024,2048]{1,0} parameter(70), metadata={op_type="xla__device_data" op_name="xla__device_data" source_file="/usr/local/lib/python3.10/site-packages/torch_xla/_dynamo/dynamo_bridge.py" source_line=355}
  %transpose.1213 = bf16[2048,1024]{0,1} transpose(bf16[1024,2048]{1,0} %p70.1212), dimensions={1,0}, metadata={op_type="aten__permute" op_name="aten__permute" source_file="/usr/local/lib/python3.10/site-packages/torch/_ops.py" source_line=756}
  %dot.1221 = bf16[64,1024]{1,0} dot(bf16[64,2048]{1,0} %reshape.1220, bf16[2048,1024]{0,1} %transpose.1213), lhs_contracting_dims={1}, rhs_contracting_dims={0}, metadata={op_type="aten__mm" op_name="aten__mm" source_file="/usr/local/lib/python3.10/site-packages/torch/_ops.py" source_line=756}
  %convert.1222 = f32[64,1024]{1,0} convert(bf16[64,1024]{1,0} %dot.1221), metadata={op_type="xla__cast" op_name="xla__cast" source_file="/usr/local/lib/python3.10/site-packages/torch/_ops.py" source_line=756}
  %constant.1142 = bf16[] constant(0), metadata={op_type="prim__Constant" op_name="prim__Constant" source_file="/usr/local/lib/python3.10/site-packages/torch/_ops.py" source_line=756}
  %reshape.1143 = bf16[1,1]{1,0} reshape(bf16[] %constant.1142), metadata={op_type="aten__expand" op_name="aten__expand" source_file="/usr/local/lib/python3.10/site-packages/torch/_ops.py" source_line=756}
  %broadcast.1144 = bf16[1,1]{1,0} broadcast(bf16[1,1]{1,0} %reshape.1143), dimensions={0,1}, metadata={op_type="aten__expand" op_name="aten__expand" source_file="/usr/local/lib/python3.10/site-packages/torch/_ops.py" source_line=756}
  %reshape.1145 = bf16[] reshape(bf16[1,1]{1,0} %broadcast.1144), metadata={op_type="aten__expand" op_name="aten__expand" source_file="/usr/local/lib/python3.10/site-packages/torch/_ops.py" source_line=756}
  %broadcast.1146 = bf16[64,2048]{1,0} broadcast(bf16[] %reshape.1145), dimensions={}, metadata={op_type="aten__expand" op_name="aten__expand" source_file="/usr/local/lib/python3.10/site-packages/torch/_ops.py" source_line=756}
  %reshape.1147 = bf16[64,16,128]{2,1,0} reshape(bf16[64,2048]{1,0} %broadcast.1146), metadata={op_type="aten__view" op_name="aten__view" source_file="/usr/local/lib/python3.10/site-packages/torch/_ops.py" source_line=756}
  %reshape.1148 = bf16[64,2048]{1,0} reshape(bf16[64,16,128]{2,1,0} %reshape.1147), metadata={op_type="aten__view" op_name="aten__view" source_file="/usr/local/lib/python3.10/site-packages/torch/_ops.py" source_line=756}
  %p66.1140 = bf16[1024,2048]{1,0} parameter(66), metadata={op_type="xla__device_data" op_name="xla__device_data" source_file="/usr/local/lib/python3.10/site-packages/torch_xla/_dynamo/dynamo_bridge.py" source_line=355}
  %transpose.1141 = bf16[2048,1024]{0,1} transpose(bf16[1024,2048]{1,0} %p66.1140), dimensions={1,0}, metadata={op_type="aten__permute" op_name="aten__permute" source_file="/usr/local/lib/python3.10/site-packages/torch/_ops.py" source_line=756}
  %dot.1149 = bf16[64,1024]{1,0} dot(bf16[64,2048]{1,0} %reshape.1148, bf16[2048,1024]{0,1} %transpose.1141), lhs_contracting_dims={1}, rhs_contracting_dims={0}, metadata={op_type="aten__mm" op_name="aten__mm" source_file="/usr/local/lib/python3.10/site-packages/torch/_ops.py" source_line=756}
  %convert.1150 = f32[64,1024]{1,0} convert(bf16[64,1024]{1,0} %dot.1149), metadata={op_type="xla__cast" op_name="xla__cast" source_file="/usr/local/lib/python3.10/site-packages/torch/_ops.py" source_line=756}
  %constant.1070 = bf16[] constant(0), metadata={op_type="prim__Constant" op_name="prim__Constant" source_file="/usr/local/lib/python3.10/site-packages/torch/_ops.py" source_line=756}
  %reshape.1071 = bf16[1,1]{1,0} reshape(bf16[] %constant.1070), metadata={op_type="aten__expand" op_name="aten__expand" source_file="/usr/local/lib/python3.10/site-packages/torch/_ops.py" source_line=756}
  %broadcast.1072 = bf16[1,1]{1,0} broadcast(bf16[1,1]{1,0} %reshape.1071), dimensions={0,1}, metadata={op_type="aten__expand" op_name="aten__expand" source_file="/usr/local/lib/python3.10/site-packages/torch/_ops.py" source_line=756}
  %reshape.1073 = bf16[] reshape(bf16[1,1]{1,0} %broadcast.1072), metadata={op_type="aten__expand" op_name="aten__expand" source_file="/usr/local/lib/python3.10/site-packages/torch/_ops.py" source_line=756}
  %broadcast.1074 = bf16[64,2048]{1,0} broadcast(bf16[] %reshape.1073), dimensions={}, metadata={op_type="aten__expand" op_name="aten__expand" source_file="/usr/local/lib/python3.10/site-packages/torch/_ops.py" source_line=756}
  %reshape.1075 = bf16[64,16,128]{2,1,0} reshape(bf16[64,2048]{1,0} %broadcast.1074), metadata={op_type="aten__view" op_name="aten__view" source_file="/usr/local/lib/python3.10/site-packages/torch/_ops.py" source_line=756}
  %reshape.1076 = bf16[64,2048]{1,0} reshape(bf16[64,16,128]{2,1,0} %reshape.1075), metadata={op_type="aten__view" op_name="aten__view" source_file="/usr/local/lib/python3.10/site-packages/torch/_ops.py" source_line=756}
  %p62.1068 = bf16[1024,2048]{1,0} parameter(62), metadata={op_type="xla__device_data" op_name="xla__device_data" source_file="/usr/local/lib/python3.10/site-packages/torch_xla/_dynamo/dynamo_bridge.py" source_line=355}
  %transpose.1069 = bf16[2048,1024]{0,1} transpose(bf16[1024,2048]{1,0} %p62.1068), dimensions={1,0}, metadata={op_type="aten__permute" op_name="aten__permute" source_file="/usr/local/lib/python3.10/site-packages/torch/_ops.py" source_line=756}
  %dot.1077 = bf16[64,1024]{1,0} dot(bf16[64,2048]{1,0} %reshape.1076, bf16[2048,1024]{0,1} %transpose.1069), lhs_contracting_dims={1}, rhs_contracting_dims={0}, metadata={op_type="aten__mm" op_name="aten__mm" source_file="/usr/local/lib/python3.10/site-packages/torch/_ops.py" source_line=756}
  %convert.1078 = f32[64,1024]{1,0} convert(bf16[64,1024]{1,0} %dot.1077), metadata={op_type="xla__cast" op_name="xla__cast" source_file="/usr/local/lib/python3.10/site-packages/torch/_ops.py" source_line=756}
  %constant.998 = bf16[] constant(0), metadata={op_type="prim__Constant" op_name="prim__Constant" source_file="/usr/local/lib/python3.10/site-packages/torch/_ops.py" source_line=756}
  %reshape.999 = bf16[1,1]{1,0} reshape(bf16[] %constant.998), metadata={op_type="aten__expand" op_name="aten__expand" source_file="/usr/local/lib/python3.10/site-packages/torch/_ops.py" source_line=756}
  %broadcast.1000 = bf16[1,1]{1,0} broadcast(bf16[1,1]{1,0} %reshape.999), dimensions={0,1}, metadata={op_type="aten__expand" op_name="aten__expand" source_file="/usr/local/lib/python3.10/site-packages/torch/_ops.py" source_line=756}
  %reshape.1001 = bf16[] reshape(bf16[1,1]{1,0} %broadcast.1000), metadata={op_type="aten__expand" op_name="aten__expand" source_file="/usr/local/lib/python3.10/site-packages/torch/_ops.py" source_line=756}
  %broadcast.1002 = bf16[64,2048]{1,0} broadcast(bf16[] %reshape.1001), dimensions={}, metadata={op_type="aten__expand" op_name="aten__expand" source_file="/usr/local/lib/python3.10/site-packages/torch/_ops.py" source_line=756}
  %reshape.1003 = bf16[64,16,128]{2,1,0} reshape(bf16[64,2048]{1,0} %broadcast.1002), metadata={op_type="aten__view" op_name="aten__view" source_file="/usr/local/lib/python3.10/site-packages/torch/_ops.py" source_line=756}
  %reshape.1004 = bf16[64,2048]{1,0} reshape(bf16[64,16,128]{2,1,0} %reshape.1003), metadata={op_type="aten__view" op_name="aten__view" source_file="/usr/local/lib/python3.10/site-packages/torch/_ops.py" source_line=756}
  %p58.996 = bf16[1024,2048]{1,0} parameter(58), metadata={op_type="xla__device_data" op_name="xla__device_data" source_file="/usr/local/lib/python3.10/site-packages/torch_xla/_dynamo/dynamo_bridge.py" source_line=355}
  %transpose.997 = bf16[2048,1024]{0,1} transpose(bf16[1024,2048]{1,0} %p58.996), dimensions={1,0}, metadata={op_type="aten__permute" op_name="aten__permute" source_file="/usr/local/lib/python3.10/site-packages/torch/_ops.py" source_line=756}
  %dot.1005 = bf16[64,1024]{1,0} dot(bf16[64,2048]{1,0} %reshape.1004, bf16[2048,1024]{0,1} %transpose.997), lhs_contracting_dims={1}, rhs_contracting_dims={0}, metadata={op_type="aten__mm" op_name="aten__mm" source_file="/usr/local/lib/python3.10/site-packages/torch/_ops.py" source_line=756}
  %convert.1006 = f32[64,1024]{1,0} convert(bf16[64,1024]{1,0} %dot.1005), metadata={op_type="xla__cast" op_name="xla__cast" source_file="/usr/local/lib/python3.10/site-packages/torch/_ops.py" source_line=756}
  %constant.926 = bf16[] constant(0), metadata={op_type="prim__Constant" op_name="prim__Constant" source_file="/usr/local/lib/python3.10/site-packages/torch/_ops.py" source_line=756}
  %reshape.927 = bf16[1,1]{1,0} reshape(bf16[] %constant.926), metadata={op_type="aten__expand" op_name="aten__expand" source_file="/usr/local/lib/python3.10/site-packages/torch/_ops.py" source_line=756}
  %broadcast.928 = bf16[1,1]{1,0} broadcast(bf16[1,1]{1,0} %reshape.927), dimensions={0,1}, metadata={op_type="aten__expand" op_name="aten__expand" source_file="/usr/local/lib/python3.10/site-packages/torch/_ops.py" source_line=756}
  %reshape.929 = bf16[] reshape(bf16[1,1]{1,0} %broadcast.928), metadata={op_type="aten__expand" op_name="aten__expand" source_file="/usr/local/lib/python3.10/site-packages/torch/_ops.py" source_line=756}
  %broadcast.930 = bf16[64,2048]{1,0} broadcast(bf16[] %reshape.929), dimensions={}, metadata={op_type="aten__expand" op_name="aten__expand" source_file="/usr/local/lib/python3.10/site-packages/torch/_ops.py" source_line=756}
  %reshape.931 = bf16[64,16,128]{2,1,0} reshape(bf16[64,2048]{1,0} %broadcast.930), metadata={op_type="aten__view" op_name="aten__view" source_file="/usr/local/lib/python3.10/site-packages/torch/_ops.py" source_line=756}
  %reshape.932 = bf16[64,2048]{1,0} reshape(bf16[64,16,128]{2,1,0} %reshape.931), metadata={op_type="aten__view" op_name="aten__view" source_file="/usr/local/lib/python3.10/site-packages/torch/_ops.py" source_line=756}
  %p54.924 = bf16[1024,2048]{1,0} parameter(54), metadata={op_type="xla__device_data" op_name="xla__device_data" source_file="/usr/local/lib/python3.10/site-packages/torch_xla/_dynamo/dynamo_bridge.py" source_line=355}
  %transpose.925 = bf16[2048,1024]{0,1} transpose(bf16[1024,2048]{1,0} %p54.924), dimensions={1,0}, metadata={op_type="aten__permute" op_name="aten__permute" source_file="/usr/local/lib/python3.10/site-packages/torch/_ops.py" source_line=756}
  %dot.933 = bf16[64,1024]{1,0} dot(bf16[64,2048]{1,0} %reshape.932, bf16[2048,1024]{0,1} %transpose.925), lhs_contracting_dims={1}, rhs_contracting_dims={0}, metadata={op_type="aten__mm" op_name="aten__mm" source_file="/usr/local/lib/python3.10/site-packages/torch/_ops.py" source_line=756}
  %convert.934 = f32[64,1024]{1,0} convert(bf16[64,1024]{1,0} %dot.933), metadata={op_type="xla__cast" op_name="xla__cast" source_file="/usr/local/lib/python3.10/site-packages/torch/_ops.py" source_line=756}
  %constant.854 = bf16[] constant(0), metadata={op_type="prim__Constant" op_name="prim__Constant" source_file="/usr/local/lib/python3.10/site-packages/torch/_ops.py" source_line=756}
  %reshape.855 = bf16[1,1]{1,0} reshape(bf16[] %constant.854), metadata={op_type="aten__expand" op_name="aten__expand" source_file="/usr/local/lib/python3.10/site-packages/torch/_ops.py" source_line=756}
  %broadcast.856 = bf16[1,1]{1,0} broadcast(bf16[1,1]{1,0} %reshape.855), dimensions={0,1}, metadata={op_type="aten__expand" op_name="aten__expand" source_file="/usr/local/lib/python3.10/site-packages/torch/_ops.py" source_line=756}
  %reshape.857 = bf16[] reshape(bf16[1,1]{1,0} %broadcast.856), metadata={op_type="aten__expand" op_name="aten__expand" source_file="/usr/local/lib/python3.10/site-packages/torch/_ops.py" source_line=756}
  %broadcast.858 = bf16[64,2048]{1,0} broadcast(bf16[] %reshape.857), dimensions={}, metadata={op_type="aten__expand" op_name="aten__expand" source_file="/usr/local/lib/python3.10/site-packages/torch/_ops.py" source_line=756}
  %reshape.859 = bf16[64,16,128]{2,1,0} reshape(bf16[64,2048]{1,0} %broadcast.858), metadata={op_type="aten__view" op_name="aten__view" source_file="/usr/local/lib/python3.10/site-packages/torch/_ops.py" source_line=756}
  %reshape.860 = bf16[64,2048]{1,0} reshape(bf16[64,16,128]{2,1,0} %reshape.859), metadata={op_type="aten__view" op_name="aten__view" source_file="/usr/local/lib/python3.10/site-packages/torch/_ops.py" source_line=756}
  %p50.852 = bf16[1024,2048]{1,0} parameter(50), metadata={op_type="xla__device_data" op_name="xla__device_data" source_file="/usr/local/lib/python3.10/site-packages/torch_xla/_dynamo/dynamo_bridge.py" source_line=355}
  %transpose.853 = bf16[2048,1024]{0,1} transpose(bf16[1024,2048]{1,0} %p50.852), dimensions={1,0}, metadata={op_type="aten__permute" op_name="aten__permute" source_file="/usr/local/lib/python3.10/site-packages/torch/_ops.py" source_line=756}
  %dot.861 = bf16[64,1024]{1,0} dot(bf16[64,2048]{1,0} %reshape.860, bf16[2048,1024]{0,1} %transpose.853), lhs_contracting_dims={1}, rhs_contracting_dims={0}, metadata={op_type="aten__mm" op_name="aten__mm" source_file="/usr/local/lib/python3.10/site-packages/torch/_ops.py" source_line=756}
  %convert.862 = f32[64,1024]{1,0} convert(bf16[64,1024]{1,0} %dot.861), metadata={op_type="xla__cast" op_name="xla__cast" source_file="/usr/local/lib/python3.10/site-packages/torch/_ops.py" source_line=756}
  %constant.782 = bf16[] constant(0), metadata={op_type="prim__Constant" op_name="prim__Constant" source_file="/usr/local/lib/python3.10/site-packages/torch/_ops.py" source_line=756}
  %reshape.783 = bf16[1,1]{1,0} reshape(bf16[] %constant.782), metadata={op_type="aten__expand" op_name="aten__expand" source_file="/usr/local/lib/python3.10/site-packages/torch/_ops.py" source_line=756}
  %broadcast.784 = bf16[1,1]{1,0} broadcast(bf16[1,1]{1,0} %reshape.783), dimensions={0,1}, metadata={op_type="aten__expand" op_name="aten__expand" source_file="/usr/local/lib/python3.10/site-packages/torch/_ops.py" source_line=756}
  %reshape.785 = bf16[] reshape(bf16[1,1]{1,0} %broadcast.784), metadata={op_type="aten__expand" op_name="aten__expand" source_file="/usr/local/lib/python3.10/site-packages/torch/_ops.py" source_line=756}
  %broadcast.786 = bf16[64,2048]{1,0} broadcast(bf16[] %reshape.785), dimensions={}, metadata={op_type="aten__expand" op_name="aten__expand" source_file="/usr/local/lib/python3.10/site-packages/torch/_ops.py" source_line=756}
  %reshape.787 = bf16[64,16,128]{2,1,0} reshape(bf16[64,2048]{1,0} %broadcast.786), metadata={op_type="aten__view" op_name="aten__view" source_file="/usr/local/lib/python3.10/site-packages/torch/_ops.py" source_line=756}
  %reshape.788 = bf16[64,2048]{1,0} reshape(bf16[64,16,128]{2,1,0} %reshape.787), metadata={op_type="aten__view" op_name="aten__view" source_file="/usr/local/lib/python3.10/site-packages/torch/_ops.py" source_line=756}
  %p46.780 = bf16[1024,2048]{1,0} parameter(46), metadata={op_type="xla__device_data" op_name="xla__device_data" source_file="/usr/local/lib/python3.10/site-packages/torch_xla/_dynamo/dynamo_bridge.py" source_line=355}
  %transpose.781 = bf16[2048,1024]{0,1} transpose(bf16[1024,2048]{1,0} %p46.780), dimensions={1,0}, metadata={op_type="aten__permute" op_name="aten__permute" source_file="/usr/local/lib/python3.10/site-packages/torch/_ops.py" source_line=756}
  %dot.789 = bf16[64,1024]{1,0} dot(bf16[64,2048]{1,0} %reshape.788, bf16[2048,1024]{0,1} %transpose.781), lhs_contracting_dims={1}, rhs_contracting_dims={0}, metadata={op_type="aten__mm" op_name="aten__mm" source_file="/usr/local/lib/python3.10/site-packages/torch/_ops.py" source_line=756}
  %convert.790 = f32[64,1024]{1,0} convert(bf16[64,1024]{1,0} %dot.789), metadata={op_type="xla__cast" op_name="xla__cast" source_file="/usr/local/lib/python3.10/site-packages/torch/_ops.py" source_line=756}
  %constant.710 = bf16[] constant(0), metadata={op_type="prim__Constant" op_name="prim__Constant" source_file="/usr/local/lib/python3.10/site-packages/torch/_ops.py" source_line=756}
  %reshape.711 = bf16[1,1]{1,0} reshape(bf16[] %constant.710), metadata={op_type="aten__expand" op_name="aten__expand" source_file="/usr/local/lib/python3.10/site-packages/torch/_ops.py" source_line=756}
  %broadcast.712 = bf16[1,1]{1,0} broadcast(bf16[1,1]{1,0} %reshape.711), dimensions={0,1}, metadata={op_type="aten__expand" op_name="aten__expand" source_file="/usr/local/lib/python3.10/site-packages/torch/_ops.py" source_line=756}
  %reshape.713 = bf16[] reshape(bf16[1,1]{1,0} %broadcast.712), metadata={op_type="aten__expand" op_name="aten__expand" source_file="/usr/local/lib/python3.10/site-packages/torch/_ops.py" source_line=756}
  %broadcast.714 = bf16[64,2048]{1,0} broadcast(bf16[] %reshape.713), dimensions={}, metadata={op_type="aten__expand" op_name="aten__expand" source_file="/usr/local/lib/python3.10/site-packages/torch/_ops.py" source_line=756}
  %reshape.715 = bf16[64,16,128]{2,1,0} reshape(bf16[64,2048]{1,0} %broadcast.714), metadata={op_type="aten__view" op_name="aten__view" source_file="/usr/local/lib/python3.10/site-packages/torch/_ops.py" source_line=756}
  %reshape.716 = bf16[64,2048]{1,0} reshape(bf16[64,16,128]{2,1,0} %reshape.715), metadata={op_type="aten__view" op_name="aten__view" source_file="/usr/local/lib/python3.10/site-packages/torch/_ops.py" source_line=756}
  %p42.708 = bf16[1024,2048]{1,0} parameter(42), metadata={op_type="xla__device_data" op_name="xla__device_data" source_file="/usr/local/lib/python3.10/site-packages/torch_xla/_dynamo/dynamo_bridge.py" source_line=355}
  %transpose.709 = bf16[2048,1024]{0,1} transpose(bf16[1024,2048]{1,0} %p42.708), dimensions={1,0}, metadata={op_type="aten__permute" op_name="aten__permute" source_file="/usr/local/lib/python3.10/site-packages/torch/_ops.py" source_line=756}
  %dot.717 = bf16[64,1024]{1,0} dot(bf16[64,2048]{1,0} %reshape.716, bf16[2048,1024]{0,1} %transpose.709), lhs_contracting_dims={1}, rhs_contracting_dims={0}, metadata={op_type="aten__mm" op_name="aten__mm" source_file="/usr/local/lib/python3.10/site-packages/torch/_ops.py" source_line=756}
  %convert.718 = f32[64,1024]{1,0} convert(bf16[64,1024]{1,0} %dot.717), metadata={op_type="xla__cast" op_name="xla__cast" source_file="/usr/local/lib/python3.10/site-packages/torch/_ops.py" source_line=756}
  %constant.638 = bf16[] constant(0), metadata={op_type="prim__Constant" op_name="prim__Constant" source_file="/usr/local/lib/python3.10/site-packages/torch/_ops.py" source_line=756}
  %reshape.639 = bf16[1,1]{1,0} reshape(bf16[] %constant.638), metadata={op_type="aten__expand" op_name="aten__expand" source_file="/usr/local/lib/python3.10/site-packages/torch/_ops.py" source_line=756}
  %broadcast.640 = bf16[1,1]{1,0} broadcast(bf16[1,1]{1,0} %reshape.639), dimensions={0,1}, metadata={op_type="aten__expand" op_name="aten__expand" source_file="/usr/local/lib/python3.10/site-packages/torch/_ops.py" source_line=756}
  %reshape.641 = bf16[] reshape(bf16[1,1]{1,0} %broadcast.640), metadata={op_type="aten__expand" op_name="aten__expand" source_file="/usr/local/lib/python3.10/site-packages/torch/_ops.py" source_line=756}
  %broadcast.642 = bf16[64,2048]{1,0} broadcast(bf16[] %reshape.641), dimensions={}, metadata={op_type="aten__expand" op_name="aten__expand" source_file="/usr/local/lib/python3.10/site-packages/torch/_ops.py" source_line=756}
  %reshape.643 = bf16[64,16,128]{2,1,0} reshape(bf16[64,2048]{1,0} %broadcast.642), metadata={op_type="aten__view" op_name="aten__view" source_file="/usr/local/lib/python3.10/site-packages/torch/_ops.py" source_line=756}
  %reshape.644 = bf16[64,2048]{1,0} reshape(bf16[64,16,128]{2,1,0} %reshape.643), metadata={op_type="aten__view" op_name="aten__view" source_file="/usr/local/lib/python3.10/site-packages/torch/_ops.py" source_line=756}
  %p38.636 = bf16[1024,2048]{1,0} parameter(38), metadata={op_type="xla__device_data" op_name="xla__device_data" source_file="/usr/local/lib/python3.10/site-packages/torch_xla/_dynamo/dynamo_bridge.py" source_line=355}
  %transpose.637 = bf16[2048,1024]{0,1} transpose(bf16[1024,2048]{1,0} %p38.636), dimensions={1,0}, metadata={op_type="aten__permute" op_name="aten__permute" source_file="/usr/local/lib/python3.10/site-packages/torch/_ops.py" source_line=756}
  %dot.645 = bf16[64,1024]{1,0} dot(bf16[64,2048]{1,0} %reshape.644, bf16[2048,1024]{0,1} %transpose.637), lhs_contracting_dims={1}, rhs_contracting_dims={0}, metadata={op_type="aten__mm" op_name="aten__mm" source_file="/usr/local/lib/python3.10/site-packages/torch/_ops.py" source_line=756}
  %convert.646 = f32[64,1024]{1,0} convert(bf16[64,1024]{1,0} %dot.645), metadata={op_type="xla__cast" op_name="xla__cast" source_file="/usr/local/lib/python3.10/site-packages/torch/_ops.py" source_line=756}
  %constant.566 = bf16[] constant(0), metadata={op_type="prim__Constant" op_name="prim__Constant" source_file="/usr/local/lib/python3.10/site-packages/torch/_ops.py" source_line=756}
  %reshape.567 = bf16[1,1]{1,0} reshape(bf16[] %constant.566), metadata={op_type="aten__expand" op_name="aten__expand" source_file="/usr/local/lib/python3.10/site-packages/torch/_ops.py" source_line=756}
  %broadcast.568 = bf16[1,1]{1,0} broadcast(bf16[1,1]{1,0} %reshape.567), dimensions={0,1}, metadata={op_type="aten__expand" op_name="aten__expand" source_file="/usr/local/lib/python3.10/site-packages/torch/_ops.py" source_line=756}
  %reshape.569 = bf16[] reshape(bf16[1,1]{1,0} %broadcast.568), metadata={op_type="aten__expand" op_name="aten__expand" source_file="/usr/local/lib/python3.10/site-packages/torch/_ops.py" source_line=756}
  %broadcast.570 = bf16[64,2048]{1,0} broadcast(bf16[] %reshape.569), dimensions={}, metadata={op_type="aten__expand" op_name="aten__expand" source_file="/usr/local/lib/python3.10/site-packages/torch/_ops.py" source_line=756}
  %reshape.571 = bf16[64,16,128]{2,1,0} reshape(bf16[64,2048]{1,0} %broadcast.570), metadata={op_type="aten__view" op_name="aten__view" source_file="/usr/local/lib/python3.10/site-packages/torch/_ops.py" source_line=756}
  %reshape.572 = bf16[64,2048]{1,0} reshape(bf16[64,16,128]{2,1,0} %reshape.571), metadata={op_type="aten__view" op_name="aten__view" source_file="/usr/local/lib/python3.10/site-packages/torch/_ops.py" source_line=756}
  %p34.564 = bf16[1024,2048]{1,0} parameter(34), metadata={op_type="xla__device_data" op_name="xla__device_data" source_file="/usr/local/lib/python3.10/site-packages/torch_xla/_dynamo/dynamo_bridge.py" source_line=355}
  %transpose.565 = bf16[2048,1024]{0,1} transpose(bf16[1024,2048]{1,0} %p34.564), dimensions={1,0}, metadata={op_type="aten__permute" op_name="aten__permute" source_file="/usr/local/lib/python3.10/site-packages/torch/_ops.py" source_line=756}
  %dot.573 = bf16[64,1024]{1,0} dot(bf16[64,2048]{1,0} %reshape.572, bf16[2048,1024]{0,1} %transpose.565), lhs_contracting_dims={1}, rhs_contracting_dims={0}, metadata={op_type="aten__mm" op_name="aten__mm" source_file="/usr/local/lib/python3.10/site-packages/torch/_ops.py" source_line=756}
  %convert.574 = f32[64,1024]{1,0} convert(bf16[64,1024]{1,0} %dot.573), metadata={op_type="xla__cast" op_name="xla__cast" source_file="/usr/local/lib/python3.10/site-packages/torch/_ops.py" source_line=756}
  %constant.494 = bf16[] constant(0), metadata={op_type="prim__Constant" op_name="prim__Constant" source_file="/usr/local/lib/python3.10/site-packages/torch/_ops.py" source_line=756}
  %reshape.495 = bf16[1,1]{1,0} reshape(bf16[] %constant.494), metadata={op_type="aten__expand" op_name="aten__expand" source_file="/usr/local/lib/python3.10/site-packages/torch/_ops.py" source_line=756}
  %broadcast.496 = bf16[1,1]{1,0} broadcast(bf16[1,1]{1,0} %reshape.495), dimensions={0,1}, metadata={op_type="aten__expand" op_name="aten__expand" source_file="/usr/local/lib/python3.10/site-packages/torch/_ops.py" source_line=756}
  %reshape.497 = bf16[] reshape(bf16[1,1]{1,0} %broadcast.496), metadata={op_type="aten__expand" op_name="aten__expand" source_file="/usr/local/lib/python3.10/site-packages/torch/_ops.py" source_line=756}
  %broadcast.498 = bf16[64,2048]{1,0} broadcast(bf16[] %reshape.497), dimensions={}, metadata={op_type="aten__expand" op_name="aten__expand" source_file="/usr/local/lib/python3.10/site-packages/torch/_ops.py" source_line=756}
  %reshape.499 = bf16[64,16,128]{2,1,0} reshape(bf16[64,2048]{1,0} %broadcast.498), metadata={op_type="aten__view" op_name="aten__view" source_file="/usr/local/lib/python3.10/site-packages/torch/_ops.py" source_line=756}
  %reshape.500 = bf16[64,2048]{1,0} reshape(bf16[64,16,128]{2,1,0} %reshape.499), metadata={op_type="aten__view" op_name="aten__view" source_file="/usr/local/lib/python3.10/site-packages/torch/_ops.py" source_line=756}
  %p30.492 = bf16[1024,2048]{1,0} parameter(30), metadata={op_type="xla__device_data" op_name="xla__device_data" source_file="/usr/local/lib/python3.10/site-packages/torch_xla/_dynamo/dynamo_bridge.py" source_line=355}
  %transpose.493 = bf16[2048,1024]{0,1} transpose(bf16[1024,2048]{1,0} %p30.492), dimensions={1,0}, metadata={op_type="aten__permute" op_name="aten__permute" source_file="/usr/local/lib/python3.10/site-packages/torch/_ops.py" source_line=756}
  %dot.501 = bf16[64,1024]{1,0} dot(bf16[64,2048]{1,0} %reshape.500, bf16[2048,1024]{0,1} %transpose.493), lhs_contracting_dims={1}, rhs_contracting_dims={0}, metadata={op_type="aten__mm" op_name="aten__mm" source_file="/usr/local/lib/python3.10/site-packages/torch/_ops.py" source_line=756}
  %convert.502 = f32[64,1024]{1,0} convert(bf16[64,1024]{1,0} %dot.501), metadata={op_type="xla__cast" op_name="xla__cast" source_file="/usr/local/lib/python3.10/site-packages/torch/_ops.py" source_line=756}
  %constant.422 = bf16[] constant(0), metadata={op_type="prim__Constant" op_name="prim__Constant" source_file="/usr/local/lib/python3.10/site-packages/torch/_ops.py" source_line=756}
  %reshape.423 = bf16[1,1]{1,0} reshape(bf16[] %constant.422), metadata={op_type="aten__expand" op_name="aten__expand" source_file="/usr/local/lib/python3.10/site-packages/torch/_ops.py" source_line=756}
  %broadcast.424 = bf16[1,1]{1,0} broadcast(bf16[1,1]{1,0} %reshape.423), dimensions={0,1}, metadata={op_type="aten__expand" op_name="aten__expand" source_file="/usr/local/lib/python3.10/site-packages/torch/_ops.py" source_line=756}
  %reshape.425 = bf16[] reshape(bf16[1,1]{1,0} %broadcast.424), metadata={op_type="aten__expand" op_name="aten__expand" source_file="/usr/local/lib/python3.10/site-packages/torch/_ops.py" source_line=756}
  %broadcast.426 = bf16[64,2048]{1,0} broadcast(bf16[] %reshape.425), dimensions={}, metadata={op_type="aten__expand" op_name="aten__expand" source_file="/usr/local/lib/python3.10/site-packages/torch/_ops.py" source_line=756}
  %reshape.427 = bf16[64,16,128]{2,1,0} reshape(bf16[64,2048]{1,0} %broadcast.426), metadata={op_type="aten__view" op_name="aten__view" source_file="/usr/local/lib/python3.10/site-packages/torch/_ops.py" source_line=756}
  %reshape.428 = bf16[64,2048]{1,0} reshape(bf16[64,16,128]{2,1,0} %reshape.427), metadata={op_type="aten__view" op_name="aten__view" source_file="/usr/local/lib/python3.10/site-packages/torch/_ops.py" source_line=756}
  %p26.420 = bf16[1024,2048]{1,0} parameter(26), metadata={op_type="xla__device_data" op_name="xla__device_data" source_file="/usr/local/lib/python3.10/site-packages/torch_xla/_dynamo/dynamo_bridge.py" source_line=355}
  %transpose.421 = bf16[2048,1024]{0,1} transpose(bf16[1024,2048]{1,0} %p26.420), dimensions={1,0}, metadata={op_type="aten__permute" op_name="aten__permute" source_file="/usr/local/lib/python3.10/site-packages/torch/_ops.py" source_line=756}
  %dot.429 = bf16[64,1024]{1,0} dot(bf16[64,2048]{1,0} %reshape.428, bf16[2048,1024]{0,1} %transpose.421), lhs_contracting_dims={1}, rhs_contracting_dims={0}, metadata={op_type="aten__mm" op_name="aten__mm" source_file="/usr/local/lib/python3.10/site-packages/torch/_ops.py" source_line=756}
  %convert.430 = f32[64,1024]{1,0} convert(bf16[64,1024]{1,0} %dot.429), metadata={op_type="xla__cast" op_name="xla__cast" source_file="/usr/local/lib/python3.10/site-packages/torch/_ops.py" source_line=756}
  %constant.350 = bf16[] constant(0), metadata={op_type="prim__Constant" op_name="prim__Constant" source_file="/usr/local/lib/python3.10/site-packages/torch/_ops.py" source_line=756}
  %reshape.351 = bf16[1,1]{1,0} reshape(bf16[] %constant.350), metadata={op_type="aten__expand" op_name="aten__expand" source_file="/usr/local/lib/python3.10/site-packages/torch/_ops.py" source_line=756}
  %broadcast.352 = bf16[1,1]{1,0} broadcast(bf16[1,1]{1,0} %reshape.351), dimensions={0,1}, metadata={op_type="aten__expand" op_name="aten__expand" source_file="/usr/local/lib/python3.10/site-packages/torch/_ops.py" source_line=756}
  %reshape.353 = bf16[] reshape(bf16[1,1]{1,0} %broadcast.352), metadata={op_type="aten__expand" op_name="aten__expand" source_file="/usr/local/lib/python3.10/site-packages/torch/_ops.py" source_line=756}
  %broadcast.354 = bf16[64,2048]{1,0} broadcast(bf16[] %reshape.353), dimensions={}, metadata={op_type="aten__expand" op_name="aten__expand" source_file="/usr/local/lib/python3.10/site-packages/torch/_ops.py" source_line=756}
  %reshape.355 = bf16[64,16,128]{2,1,0} reshape(bf16[64,2048]{1,0} %broadcast.354), metadata={op_type="aten__view" op_name="aten__view" source_file="/usr/local/lib/python3.10/site-packages/torch/_ops.py" source_line=756}
  %reshape.356 = bf16[64,2048]{1,0} reshape(bf16[64,16,128]{2,1,0} %reshape.355), metadata={op_type="aten__view" op_name="aten__view" source_file="/usr/local/lib/python3.10/site-packages/torch/_ops.py" source_line=756}
  %p22.348 = bf16[1024,2048]{1,0} parameter(22), metadata={op_type="xla__device_data" op_name="xla__device_data" source_file="/usr/local/lib/python3.10/site-packages/torch_xla/_dynamo/dynamo_bridge.py" source_line=355}
  %transpose.349 = bf16[2048,1024]{0,1} transpose(bf16[1024,2048]{1,0} %p22.348), dimensions={1,0}, metadata={op_type="aten__permute" op_name="aten__permute" source_file="/usr/local/lib/python3.10/site-packages/torch/_ops.py" source_line=756}
  %dot.357 = bf16[64,1024]{1,0} dot(bf16[64,2048]{1,0} %reshape.356, bf16[2048,1024]{0,1} %transpose.349), lhs_contracting_dims={1}, rhs_contracting_dims={0}, metadata={op_type="aten__mm" op_name="aten__mm" source_file="/usr/local/lib/python3.10/site-packages/torch/_ops.py" source_line=756}
  %convert.358 = f32[64,1024]{1,0} convert(bf16[64,1024]{1,0} %dot.357), metadata={op_type="xla__cast" op_name="xla__cast" source_file="/usr/local/lib/python3.10/site-packages/torch/_ops.py" source_line=756}
  %constant.278 = bf16[] constant(0), metadata={op_type="prim__Constant" op_name="prim__Constant" source_file="/usr/local/lib/python3.10/site-packages/torch/_ops.py" source_line=756}
  %reshape.279 = bf16[1,1]{1,0} reshape(bf16[] %constant.278), metadata={op_type="aten__expand" op_name="aten__expand" source_file="/usr/local/lib/python3.10/site-packages/torch/_ops.py" source_line=756}
  %broadcast.280 = bf16[1,1]{1,0} broadcast(bf16[1,1]{1,0} %reshape.279), dimensions={0,1}, metadata={op_type="aten__expand" op_name="aten__expand" source_file="/usr/local/lib/python3.10/site-packages/torch/_ops.py" source_line=756}
  %reshape.281 = bf16[] reshape(bf16[1,1]{1,0} %broadcast.280), metadata={op_type="aten__expand" op_name="aten__expand" source_file="/usr/local/lib/python3.10/site-packages/torch/_ops.py" source_line=756}
  %broadcast.282 = bf16[64,2048]{1,0} broadcast(bf16[] %reshape.281), dimensions={}, metadata={op_type="aten__expand" op_name="aten__expand" source_file="/usr/local/lib/python3.10/site-packages/torch/_ops.py" source_line=756}
  %reshape.283 = bf16[64,16,128]{2,1,0} reshape(bf16[64,2048]{1,0} %broadcast.282), metadata={op_type="aten__view" op_name="aten__view" source_file="/usr/local/lib/python3.10/site-packages/torch/_ops.py" source_line=756}
  %reshape.284 = bf16[64,2048]{1,0} reshape(bf16[64,16,128]{2,1,0} %reshape.283), metadata={op_type="aten__view" op_name="aten__view" source_file="/usr/local/lib/python3.10/site-packages/torch/_ops.py" source_line=756}
  %p18.276 = bf16[1024,2048]{1,0} parameter(18), metadata={op_type="xla__device_data" op_name="xla__device_data" source_file="/usr/local/lib/python3.10/site-packages/torch_xla/_dynamo/dynamo_bridge.py" source_line=355}
  %transpose.277 = bf16[2048,1024]{0,1} transpose(bf16[1024,2048]{1,0} %p18.276), dimensions={1,0}, metadata={op_type="aten__permute" op_name="aten__permute" source_file="/usr/local/lib/python3.10/site-packages/torch/_ops.py" source_line=756}
  %dot.285 = bf16[64,1024]{1,0} dot(bf16[64,2048]{1,0} %reshape.284, bf16[2048,1024]{0,1} %transpose.277), lhs_contracting_dims={1}, rhs_contracting_dims={0}, metadata={op_type="aten__mm" op_name="aten__mm" source_file="/usr/local/lib/python3.10/site-packages/torch/_ops.py" source_line=756}
  %convert.286 = f32[64,1024]{1,0} convert(bf16[64,1024]{1,0} %dot.285), metadata={op_type="xla__cast" op_name="xla__cast" source_file="/usr/local/lib/python3.10/site-packages/torch/_ops.py" source_line=756}
  %constant.206 = bf16[] constant(0), metadata={op_type="prim__Constant" op_name="prim__Constant" source_file="/usr/local/lib/python3.10/site-packages/torch/_ops.py" source_line=756}
  %reshape.207 = bf16[1,1]{1,0} reshape(bf16[] %constant.206), metadata={op_type="aten__expand" op_name="aten__expand" source_file="/usr/local/lib/python3.10/site-packages/torch/_ops.py" source_line=756}
  %broadcast.208 = bf16[1,1]{1,0} broadcast(bf16[1,1]{1,0} %reshape.207), dimensions={0,1}, metadata={op_type="aten__expand" op_name="aten__expand" source_file="/usr/local/lib/python3.10/site-packages/torch/_ops.py" source_line=756}
  %reshape.209 = bf16[] reshape(bf16[1,1]{1,0} %broadcast.208), metadata={op_type="aten__expand" op_name="aten__expand" source_file="/usr/local/lib/python3.10/site-packages/torch/_ops.py" source_line=756}
  %broadcast.210 = bf16[64,2048]{1,0} broadcast(bf16[] %reshape.209), dimensions={}, metadata={op_type="aten__expand" op_name="aten__expand" source_file="/usr/local/lib/python3.10/site-packages/torch/_ops.py" source_line=756}
  %reshape.211 = bf16[64,16,128]{2,1,0} reshape(bf16[64,2048]{1,0} %broadcast.210), metadata={op_type="aten__view" op_name="aten__view" source_file="/usr/local/lib/python3.10/site-packages/torch/_ops.py" source_line=756}
  %reshape.212 = bf16[64,2048]{1,0} reshape(bf16[64,16,128]{2,1,0} %reshape.211), metadata={op_type="aten__view" op_name="aten__view" source_file="/usr/local/lib/python3.10/site-packages/torch/_ops.py" source_line=756}
  %p14.204 = bf16[1024,2048]{1,0} parameter(14), metadata={op_type="xla__device_data" op_name="xla__device_data" source_file="/usr/local/lib/python3.10/site-packages/torch_xla/_dynamo/dynamo_bridge.py" source_line=355}
  %transpose.205 = bf16[2048,1024]{0,1} transpose(bf16[1024,2048]{1,0} %p14.204), dimensions={1,0}, metadata={op_type="aten__permute" op_name="aten__permute" source_file="/usr/local/lib/python3.10/site-packages/torch/_ops.py" source_line=756}
  %dot.213 = bf16[64,1024]{1,0} dot(bf16[64,2048]{1,0} %reshape.212, bf16[2048,1024]{0,1} %transpose.205), lhs_contracting_dims={1}, rhs_contracting_dims={0}, metadata={op_type="aten__mm" op_name="aten__mm" source_file="/usr/local/lib/python3.10/site-packages/torch/_ops.py" source_line=756}
  %convert.214 = f32[64,1024]{1,0} convert(bf16[64,1024]{1,0} %dot.213), metadata={op_type="xla__cast" op_name="xla__cast" source_file="/usr/local/lib/python3.10/site-packages/torch/_ops.py" source_line=756}
  %constant.134 = bf16[] constant(0), metadata={op_type="prim__Constant" op_name="prim__Constant" source_file="/usr/local/lib/python3.10/site-packages/torch/_ops.py" source_line=756}
  %reshape.135 = bf16[1,1]{1,0} reshape(bf16[] %constant.134), metadata={op_type="aten__expand" op_name="aten__expand" source_file="/usr/local/lib/python3.10/site-packages/torch/_ops.py" source_line=756}
  %broadcast.136 = bf16[1,1]{1,0} broadcast(bf16[1,1]{1,0} %reshape.135), dimensions={0,1}, metadata={op_type="aten__expand" op_name="aten__expand" source_file="/usr/local/lib/python3.10/site-packages/torch/_ops.py" source_line=756}
  %reshape.137 = bf16[] reshape(bf16[1,1]{1,0} %broadcast.136), metadata={op_type="aten__expand" op_name="aten__expand" source_file="/usr/local/lib/python3.10/site-packages/torch/_ops.py" source_line=756}
  %broadcast.138 = bf16[64,2048]{1,0} broadcast(bf16[] %reshape.137), dimensions={}, metadata={op_type="aten__expand" op_name="aten__expand" source_file="/usr/local/lib/python3.10/site-packages/torch/_ops.py" source_line=756}
  %reshape.139 = bf16[64,16,128]{2,1,0} reshape(bf16[64,2048]{1,0} %broadcast.138), metadata={op_type="aten__view" op_name="aten__view" source_file="/usr/local/lib/python3.10/site-packages/torch/_ops.py" source_line=756}
  %reshape.140 = bf16[64,2048]{1,0} reshape(bf16[64,16,128]{2,1,0} %reshape.139), metadata={op_type="aten__view" op_name="aten__view" source_file="/usr/local/lib/python3.10/site-packages/torch/_ops.py" source_line=756}
  %p10.132 = bf16[1024,2048]{1,0} parameter(10), metadata={op_type="xla__device_data" op_name="xla__device_data" source_file="/usr/local/lib/python3.10/site-packages/torch_xla/_dynamo/dynamo_bridge.py" source_line=355}
  %transpose.133 = bf16[2048,1024]{0,1} transpose(bf16[1024,2048]{1,0} %p10.132), dimensions={1,0}, metadata={op_type="aten__permute" op_name="aten__permute" source_file="/usr/local/lib/python3.10/site-packages/torch/_ops.py" source_line=756}
  %dot.141 = bf16[64,1024]{1,0} dot(bf16[64,2048]{1,0} %reshape.140, bf16[2048,1024]{0,1} %transpose.133), lhs_contracting_dims={1}, rhs_contracting_dims={0}, metadata={op_type="aten__mm" op_name="aten__mm" source_file="/usr/local/lib/python3.10/site-packages/torch/_ops.py" source_line=756}
  %convert.142 = f32[64,1024]{1,0} convert(bf16[64,1024]{1,0} %dot.141), metadata={op_type="xla__cast" op_name="xla__cast" source_file="/usr/local/lib/python3.10/site-packages/torch/_ops.py" source_line=756}
  %constant.62 = bf16[] constant(0), metadata={op_type="prim__Constant" op_name="prim__Constant" source_file="/usr/local/lib/python3.10/site-packages/torch/_ops.py" source_line=756}
  %reshape.63 = bf16[1,1]{1,0} reshape(bf16[] %constant.62), metadata={op_type="aten__expand" op_name="aten__expand" source_file="/usr/local/lib/python3.10/site-packages/torch/_ops.py" source_line=756}
  %broadcast.64 = bf16[1,1]{1,0} broadcast(bf16[1,1]{1,0} %reshape.63), dimensions={0,1}, metadata={op_type="aten__expand" op_name="aten__expand" source_file="/usr/local/lib/python3.10/site-packages/torch/_ops.py" source_line=756}
  %reshape.65 = bf16[] reshape(bf16[1,1]{1,0} %broadcast.64), metadata={op_type="aten__expand" op_name="aten__expand" source_file="/usr/local/lib/python3.10/site-packages/torch/_ops.py" source_line=756}
  %broadcast.66 = bf16[64,2048]{1,0} broadcast(bf16[] %reshape.65), dimensions={}, metadata={op_type="aten__expand" op_name="aten__expand" source_file="/usr/local/lib/python3.10/site-packages/torch/_ops.py" source_line=756}
  %reshape.67 = bf16[64,16,128]{2,1,0} reshape(bf16[64,2048]{1,0} %broadcast.66), metadata={op_type="aten__view" op_name="aten__view" source_file="/usr/local/lib/python3.10/site-packages/torch/_ops.py" source_line=756}
  %reshape.68 = bf16[64,2048]{1,0} reshape(bf16[64,16,128]{2,1,0} %reshape.67), metadata={op_type="aten__view" op_name="aten__view" source_file="/usr/local/lib/python3.10/site-packages/torch/_ops.py" source_line=756}
  %p6.60 = bf16[1024,2048]{1,0} parameter(6), metadata={op_type="xla__device_data" op_name="xla__device_data" source_file="/usr/local/lib/python3.10/site-packages/torch_xla/_dynamo/dynamo_bridge.py" source_line=355}
  %transpose.61 = bf16[2048,1024]{0,1} transpose(bf16[1024,2048]{1,0} %p6.60), dimensions={1,0}, metadata={op_type="aten__permute" op_name="aten__permute" source_file="/usr/local/lib/python3.10/site-packages/torch/_ops.py" source_line=756}
  %dot.69 = bf16[64,1024]{1,0} dot(bf16[64,2048]{1,0} %reshape.68, bf16[2048,1024]{0,1} %transpose.61), lhs_contracting_dims={1}, rhs_contracting_dims={0}, metadata={op_type="aten__mm" op_name="aten__mm" source_file="/usr/local/lib/python3.10/site-packages/torch/_ops.py" source_line=756}
  %convert.70 = f32[64,1024]{1,0} convert(bf16[64,1024]{1,0} %dot.69), metadata={op_type="xla__cast" op_name="xla__cast" source_file="/usr/local/lib/python3.10/site-packages/torch/_ops.py" source_line=756}
  %p5.56 = bf16[151936,1024]{1,0} parameter(5), metadata={op_type="xla__device_data" op_name="xla__device_data" source_file="/usr/local/lib/python3.10/site-packages/torch_xla/_dynamo/dynamo_bridge.py" source_line=355}
  %p4.54 = s32[64]{0} parameter(4), metadata={op_type="xla__device_data" op_name="xla__device_data" source_file="/usr/local/lib/python3.10/site-packages/torch_xla/_dynamo/dynamo_bridge.py" source_line=355}
  %convert.55 = s64[64]{0} convert(s32[64]{0} %p4.54), metadata={op_type="xla__cast" op_name="xla__cast" source_file="/usr/local/lib/python3.10/site-packages/torch/_ops.py" source_line=756}
  %convert.57 = u32[64]{0} convert(s64[64]{0} %convert.55), metadata={op_type="aten__index_select" op_name="aten__index_select" source_file="/usr/local/lib/python3.10/site-packages/torch/_ops.py" source_line=756}
  %gather.58 = bf16[64,1024]{1,0} gather(bf16[151936,1024]{1,0} %p5.56, u32[64]{0} %convert.57), offset_dims={1}, collapsed_slice_dims={0}, start_index_map={0}, index_vector_dim=1, slice_sizes={1,1024}, metadata={op_type="aten__index_select" op_name="aten__index_select" source_file="/usr/local/lib/python3.10/site-packages/torch/_ops.py" source_line=756}
  %convert.59 = f32[64,1024]{1,0} convert(bf16[64,1024]{1,0} %gather.58), metadata={op_type="xla__cast" op_name="xla__cast" source_file="/usr/local/lib/python3.10/site-packages/torch/_ops.py" source_line=756}
  %constant.53 = f32[] constant(1), metadata={op_type="prim__Constant" op_name="prim__Constant" source_file="/usr/local/lib/python3.10/site-packages/torch/_ops.py" source_line=756}
  %broadcast.71 = f32[64,1024]{1,0} broadcast(f32[] %constant.53), dimensions={}, metadata={op_type="aten__add" op_name="aten__add.1027/aten__add" source_file="/usr/local/lib/python3.10/site-packages/torch/_ops.py" source_line=756}
  %multiply.72 = f32[64,1024]{1,0} multiply(f32[64,1024]{1,0} %convert.59, f32[64,1024]{1,0} %broadcast.71), metadata={op_type="aten__add" op_name="aten__add.1027/aten__add" source_file="/usr/local/lib/python3.10/site-packages/torch/_ops.py" source_line=756}
  %add.73 = f32[64,1024]{1,0} add(f32[64,1024]{1,0} %convert.70, f32[64,1024]{1,0} %multiply.72), metadata={op_type="aten__add" op_name="aten__add.1027/aten__add" source_file="/usr/local/lib/python3.10/site-packages/torch/_ops.py" source_line=756}
  %constant.83 = f32[] constant(2), metadata={op_type="prim__Constant" op_name="prim__Constant" source_file="/usr/local/lib/python3.10/site-packages/torch/_ops.py" source_line=756}
  %broadcast.84 = f32[64,1024]{1,0} broadcast(f32[] %constant.83), dimensions={}, metadata={op_type="aten__pow" op_name="aten__pow" source_file="/usr/local/lib/python3.10/site-packages/torch/_ops.py" source_line=756}
  %power.85 = f32[64,1024]{1,0} power(f32[64,1024]{1,0} %add.73, f32[64,1024]{1,0} %broadcast.84), metadata={op_type="aten__pow" op_name="aten__pow" source_file="/usr/local/lib/python3.10/site-packages/torch/_ops.py" source_line=756}
  %constant.86 = f32[] constant(0), metadata={op_type="aten__mean" op_name="aten__mean" source_file="/usr/local/lib/python3.10/site-packages/torch/_ops.py" source_line=756}
  %reduce.92 = f32[64]{0} reduce(f32[64,1024]{1,0} %power.85, f32[] %constant.86), dimensions={1}, to_apply=%AddComputation.88, metadata={op_type="aten__mean" op_name="aten__mean" source_file="/usr/local/lib/python3.10/site-packages/torch/_ops.py" source_line=756}
  %constant.87 = s32[] constant(1024), metadata={op_type="aten__mean" op_name="aten__mean" source_file="/usr/local/lib/python3.10/site-packages/torch/_ops.py" source_line=756}
  %constant.93 = s32[] constant(0), metadata={op_type="aten__mean" op_name="aten__mean" source_file="/usr/local/lib/python3.10/site-packages/torch/_ops.py" source_line=756}
  %compare.98 = pred[] compare(s32[] %constant.87, s32[] %constant.93), direction=NE, metadata={op_type="aten__mean" op_name="aten__mean" source_file="/usr/local/lib/python3.10/site-packages/torch/_ops.py" source_line=756}
  %constant.94 = f32[] constant(1), metadata={op_type="aten__mean" op_name="aten__mean" source_file="/usr/local/lib/python3.10/site-packages/torch/_ops.py" source_line=756}
  %convert.96 = f32[] convert(s32[] %constant.87), metadata={op_type="aten__mean" op_name="aten__mean" source_file="/usr/local/lib/python3.10/site-packages/torch/_ops.py" source_line=756}
  %divide.97 = f32[] divide(f32[] %constant.94, f32[] %convert.96), metadata={op_type="aten__mean" op_name="aten__mean" source_file="/usr/local/lib/python3.10/site-packages/torch/_ops.py" source_line=756}
  %constant.95 = f32[] constant(nan), metadata={op_type="aten__mean" op_name="aten__mean" source_file="/usr/local/lib/python3.10/site-packages/torch/_ops.py" source_line=756}
  %select.99 = f32[] select(pred[] %compare.98, f32[] %divide.97, f32[] %constant.95), metadata={op_type="aten__mean" op_name="aten__mean" source_file="/usr/local/lib/python3.10/site-packages/torch/_ops.py" source_line=756}
  %broadcast.100 = f32[64]{0} broadcast(f32[] %select.99), dimensions={}, metadata={op_type="aten__mean" op_name="aten__mean" source_file="/usr/local/lib/python3.10/site-packages/torch/_ops.py" source_line=756}
  %multiply.101 = f32[64]{0} multiply(f32[64]{0} %reduce.92, f32[64]{0} %broadcast.100), metadata={op_type="aten__mean" op_name="aten__mean" source_file="/usr/local/lib/python3.10/site-packages/torch/_ops.py" source_line=756}
  %reshape.102 = f32[64,1]{1,0} reshape(f32[64]{0} %multiply.101), metadata={op_type="aten__mean" op_name="aten__mean" source_file="/usr/local/lib/python3.10/site-packages/torch/_ops.py" source_line=756}
  %convert.103 = f32[64,1]{1,0} convert(f32[64,1]{1,0} %reshape.102), metadata={op_type="aten__mean" op_name="aten__mean" source_file="/usr/local/lib/python3.10/site-packages/torch/_ops.py" source_line=756}
  %p1.4 = f32[] parameter(1), metadata={op_type="xla__device_data" op_name="xla__device_data" source_file="/usr/local/lib/python3.10/site-packages/torch/_ops.py" source_line=756}
  %constant.82 = f32[] constant(1), metadata={op_type="prim__Constant" op_name="prim__Constant" source_file="/usr/local/lib/python3.10/site-packages/torch/_ops.py" source_line=756}
  %multiply.104 = f32[] multiply(f32[] %p1.4, f32[] %constant.82), metadata={op_type="aten__add" op_name="aten__add.1028/aten__add" source_file="/usr/local/lib/python3.10/site-packages/torch/_ops.py" source_line=756}
  %broadcast.105 = f32[64,1]{1,0} broadcast(f32[] %multiply.104), dimensions={}, metadata={op_type="aten__add" op_name="aten__add.1028/aten__add" source_file="/usr/local/lib/python3.10/site-packages/torch/_ops.py" source_line=756}
  %add.106 = f32[64,1]{1,0} add(f32[64,1]{1,0} %convert.103, f32[64,1]{1,0} %broadcast.105), metadata={op_type="aten__add" op_name="aten__add.1028/aten__add" source_file="/usr/local/lib/python3.10/site-packages/torch/_ops.py" source_line=756}
  %rsqrt.107 = f32[64,1]{1,0} rsqrt(f32[64,1]{1,0} %add.106), metadata={op_type="aten__rsqrt" op_name="aten__rsqrt" source_file="/usr/local/lib/python3.10/site-packages/torch/_ops.py" source_line=756}
  %reshape.108 = f32[64]{0} reshape(f32[64,1]{1,0} %rsqrt.107), metadata={op_type="aten__mul" op_name="aten__mul.1029/aten__mul" source_file="/usr/local/lib/python3.10/site-packages/torch/_ops.py" source_line=756}
  %broadcast.109 = f32[64,1024]{1,0} broadcast(f32[64]{0} %reshape.108), dimensions={0}, metadata={op_type="aten__mul" op_name="aten__mul.1029/aten__mul" source_file="/usr/local/lib/python3.10/site-packages/torch/_ops.py" source_line=756}
  %multiply.110 = f32[64,1024]{1,0} multiply(f32[64,1024]{1,0} %add.73, f32[64,1024]{1,0} %broadcast.109), metadata={op_type="aten__mul" op_name="aten__mul.1029/aten__mul" source_file="/usr/local/lib/python3.10/site-packages/torch/_ops.py" source_line=756}
  %convert.111 = bf16[64,1024]{1,0} convert(f32[64,1024]{1,0} %multiply.110), metadata={op_type="xla__cast" op_name="xla__cast" source_file="/usr/local/lib/python3.10/site-packages/torch/_ops.py" source_line=756}
  %convert.112 = f32[64,1024]{1,0} convert(bf16[64,1024]{1,0} %convert.111), metadata={op_type="xla__cast" op_name="xla__cast" source_file="/usr/local/lib/python3.10/site-packages/torch/_ops.py" source_line=756}
  %p9.80 = bf16[1024]{0} parameter(9), metadata={op_type="xla__device_data" op_name="xla__device_data" source_file="/usr/local/lib/python3.10/site-packages/torch_xla/_dynamo/dynamo_bridge.py" source_line=355}
  %convert.81 = f32[1024]{0} convert(bf16[1024]{0} %p9.80), metadata={op_type="xla__cast" op_name="xla__cast" source_file="/usr/local/lib/python3.10/site-packages/torch/_ops.py" source_line=756}
  %broadcast.113 = f32[64,1024]{1,0} broadcast(f32[1024]{0} %convert.81), dimensions={1}, metadata={op_type="aten__mul" op_name="aten__mul.1030/aten__mul" source_file="/usr/local/lib/python3.10/site-packages/torch/_ops.py" source_line=756}
  %multiply.114 = f32[64,1024]{1,0} multiply(f32[64,1024]{1,0} %convert.112, f32[64,1024]{1,0} %broadcast.113), metadata={op_type="aten__mul" op_name="aten__mul.1030/aten__mul" source_file="/usr/local/lib/python3.10/site-packages/torch/_ops.py" source_line=756}
  %convert.115 = bf16[64,1024]{1,0} convert(f32[64,1024]{1,0} %multiply.114), metadata={op_type="xla__cast" op_name="xla__cast" source_file="/usr/local/lib/python3.10/site-packages/torch/_ops.py" source_line=756}
  %p8.78 = bf16[6144,1024]{1,0} parameter(8), metadata={op_type="xla__device_data" op_name="xla__device_data" source_file="/usr/local/lib/python3.10/site-packages/torch_xla/_dynamo/dynamo_bridge.py" source_line=355}
  %transpose.79 = bf16[1024,6144]{0,1} transpose(bf16[6144,1024]{1,0} %p8.78), dimensions={1,0}, metadata={op_type="aten__permute" op_name="aten__permute" source_file="/usr/local/lib/python3.10/site-packages/torch/_ops.py" source_line=756}
  %dot.116 = bf16[64,6144]{1,0} dot(bf16[64,1024]{1,0} %convert.115, bf16[1024,6144]{0,1} %transpose.79), lhs_contracting_dims={1}, rhs_contracting_dims={0}, metadata={op_type="aten__mm" op_name="aten__mm" source_file="/usr/local/lib/python3.10/site-packages/torch/_ops.py" source_line=756}
  %slice.119 = bf16[64,3072]{1,0} slice(bf16[64,6144]{1,0} %dot.116), slice={[0:64], [0:3072]}, metadata={op_type="xla__select" op_name="xla__select" source_file="/usr/local/lib/python3.10/site-packages/torch/_ops.py" source_line=756}
  %logistic.120 = bf16[64,3072]{1,0} logistic(bf16[64,3072]{1,0} %slice.119), metadata={op_type="aten__silu" op_name="aten__silu" source_file="/usr/local/lib/python3.10/site-packages/torch/_ops.py" source_line=756}
  %multiply.121 = bf16[64,3072]{1,0} multiply(bf16[64,3072]{1,0} %slice.119, bf16[64,3072]{1,0} %logistic.120), metadata={op_type="aten__silu" op_name="aten__silu" source_file="/usr/local/lib/python3.10/site-packages/torch/_ops.py" source_line=756}
  %convert.122 = f32[64,3072]{1,0} convert(bf16[64,3072]{1,0} %multiply.121), metadata={op_type="xla__cast" op_name="xla__cast" source_file="/usr/local/lib/python3.10/site-packages/torch/_ops.py" source_line=756}
  %slice.117 = bf16[64,3072]{1,0} slice(bf16[64,6144]{1,0} %dot.116), slice={[0:64], [3072:6144]}, metadata={op_type="xla__select" op_name="xla__select" source_file="/usr/local/lib/python3.10/site-packages/torch/_ops.py" source_line=756}
  %convert.118 = f32[64,3072]{1,0} convert(bf16[64,3072]{1,0} %slice.117), metadata={op_type="xla__cast" op_name="xla__cast" source_file="/usr/local/lib/python3.10/site-packages/torch/_ops.py" source_line=756}
  %multiply.123 = f32[64,3072]{1,0} multiply(f32[64,3072]{1,0} %convert.122, f32[64,3072]{1,0} %convert.118), metadata={op_type="aten__mul" op_name="aten__mul.1031/aten__mul" source_file="/usr/local/lib/python3.10/site-packages/torch/_ops.py" source_line=756}
  %convert.124 = bf16[64,3072]{1,0} convert(f32[64,3072]{1,0} %multiply.123), metadata={op_type="xla__cast" op_name="xla__cast" source_file="/usr/local/lib/python3.10/site-packages/torch/_ops.py" source_line=756}
  %p7.76 = bf16[1024,3072]{1,0} parameter(7), metadata={op_type="xla__device_data" op_name="xla__device_data" source_file="/usr/local/lib/python3.10/site-packages/torch_xla/_dynamo/dynamo_bridge.py" source_line=355}
  %transpose.77 = bf16[3072,1024]{0,1} transpose(bf16[1024,3072]{1,0} %p7.76), dimensions={1,0}, metadata={op_type="aten__permute" op_name="aten__permute" source_file="/usr/local/lib/python3.10/site-packages/torch/_ops.py" source_line=756}
  %dot.125 = bf16[64,1024]{1,0} dot(bf16[64,3072]{1,0} %convert.124, bf16[3072,1024]{0,1} %transpose.77), lhs_contracting_dims={1}, rhs_contracting_dims={0}, metadata={op_type="aten__mm" op_name="aten__mm" source_file="/usr/local/lib/python3.10/site-packages/torch/_ops.py" source_line=756}
  %convert.126 = f32[64,1024]{1,0} convert(bf16[64,1024]{1,0} %dot.125), metadata={op_type="xla__cast" op_name="xla__cast" source_file="/usr/local/lib/python3.10/site-packages/torch/_ops.py" source_line=756}
  %convert.74 = bf16[64,1024]{1,0} convert(f32[64,1024]{1,0} %add.73), metadata={op_type="xla__cast" op_name="xla__cast" source_file="/usr/local/lib/python3.10/site-packages/torch/_ops.py" source_line=756}
  %convert.75 = f32[64,1024]{1,0} convert(bf16[64,1024]{1,0} %convert.74), metadata={op_type="xla__cast" op_name="xla__cast" source_file="/usr/local/lib/python3.10/site-packages/torch/_ops.py" source_line=756}
  %constant.52 = f32[] constant(1), metadata={op_type="prim__Constant" op_name="prim__Constant" source_file="/usr/local/lib/python3.10/site-packages/torch/_ops.py" source_line=756}
  %broadcast.127 = f32[64,1024]{1,0} broadcast(f32[] %constant.52), dimensions={}, metadata={op_type="aten__add" op_name="aten__add.1032/aten__add" source_file="/usr/local/lib/python3.10/site-packages/torch/_ops.py" source_line=756}
  %multiply.128 = f32[64,1024]{1,0} multiply(f32[64,1024]{1,0} %convert.75, f32[64,1024]{1,0} %broadcast.127), metadata={op_type="aten__add" op_name="aten__add.1032/aten__add" source_file="/usr/local/lib/python3.10/site-packages/torch/_ops.py" source_line=756}
  %add.129 = f32[64,1024]{1,0} add(f32[64,1024]{1,0} %convert.126, f32[64,1024]{1,0} %multiply.128), metadata={op_type="aten__add" op_name="aten__add.1032/aten__add" source_file="/usr/local/lib/python3.10/site-packages/torch/_ops.py" source_line=756}
  %convert.130 = bf16[64,1024]{1,0} convert(f32[64,1024]{1,0} %add.129), metadata={op_type="xla__cast" op_name="xla__cast" source_file="/usr/local/lib/python3.10/site-packages/torch/_ops.py" source_line=756}
  %convert.131 = f32[64,1024]{1,0} convert(bf16[64,1024]{1,0} %convert.130), metadata={op_type="xla__cast" op_name="xla__cast" source_file="/usr/local/lib/python3.10/site-packages/torch/_ops.py" source_line=756}
  %constant.51 = f32[] constant(1), metadata={op_type="prim__Constant" op_name="prim__Constant" source_file="/usr/local/lib/python3.10/site-packages/torch/_ops.py" source_line=756}
  %broadcast.143 = f32[64,1024]{1,0} broadcast(f32[] %constant.51), dimensions={}, metadata={op_type="aten__add" op_name="aten__add.1045/aten__add" source_file="/usr/local/lib/python3.10/site-packages/torch/_ops.py" source_line=756}
  %multiply.144 = f32[64,1024]{1,0} multiply(f32[64,1024]{1,0} %convert.131, f32[64,1024]{1,0} %broadcast.143), metadata={op_type="aten__add" op_name="aten__add.1045/aten__add" source_file="/usr/local/lib/python3.10/site-packages/torch/_ops.py" source_line=756}
  %add.145 = f32[64,1024]{1,0} add(f32[64,1024]{1,0} %convert.142, f32[64,1024]{1,0} %multiply.144), metadata={op_type="aten__add" op_name="aten__add.1045/aten__add" source_file="/usr/local/lib/python3.10/site-packages/torch/_ops.py" source_line=756}
  %constant.155 = f32[] constant(2), metadata={op_type="prim__Constant" op_name="prim__Constant" source_file="/usr/local/lib/python3.10/site-packages/torch/_ops.py" source_line=756}
  %broadcast.156 = f32[64,1024]{1,0} broadcast(f32[] %constant.155), dimensions={}, metadata={op_type="aten__pow" op_name="aten__pow" source_file="/usr/local/lib/python3.10/site-packages/torch/_ops.py" source_line=756}
  %power.157 = f32[64,1024]{1,0} power(f32[64,1024]{1,0} %add.145, f32[64,1024]{1,0} %broadcast.156), metadata={op_type="aten__pow" op_name="aten__pow" source_file="/usr/local/lib/python3.10/site-packages/torch/_ops.py" source_line=756}
  %constant.158 = f32[] constant(0), metadata={op_type="aten__mean" op_name="aten__mean" source_file="/usr/local/lib/python3.10/site-packages/torch/_ops.py" source_line=756}
  %reduce.164 = f32[64]{0} reduce(f32[64,1024]{1,0} %power.157, f32[] %constant.158), dimensions={1}, to_apply=%AddComputation.160, metadata={op_type="aten__mean" op_name="aten__mean" source_file="/usr/local/lib/python3.10/site-packages/torch/_ops.py" source_line=756}
  %constant.159 = s32[] constant(1024), metadata={op_type="aten__mean" op_name="aten__mean" source_file="/usr/local/lib/python3.10/site-packages/torch/_ops.py" source_line=756}
  %constant.165 = s32[] constant(0), metadata={op_type="aten__mean" op_name="aten__mean" source_file="/usr/local/lib/python3.10/site-packages/torch/_ops.py" source_line=756}
  %compare.170 = pred[] compare(s32[] %constant.159, s32[] %constant.165), direction=NE, metadata={op_type="aten__mean" op_name="aten__mean" source_file="/usr/local/lib/python3.10/site-packages/torch/_ops.py" source_line=756}
  %constant.166 = f32[] constant(1), metadata={op_type="aten__mean" op_name="aten__mean" source_file="/usr/local/lib/python3.10/site-packages/torch/_ops.py" source_line=756}
  %convert.168 = f32[] convert(s32[] %constant.159), metadata={op_type="aten__mean" op_name="aten__mean" source_file="/usr/local/lib/python3.10/site-packages/torch/_ops.py" source_line=756}
  %divide.169 = f32[] divide(f32[] %constant.166, f32[] %convert.168), metadata={op_type="aten__mean" op_name="aten__mean" source_file="/usr/local/lib/python3.10/site-packages/torch/_ops.py" source_line=756}
  %constant.167 = f32[] constant(nan), metadata={op_type="aten__mean" op_name="aten__mean" source_file="/usr/local/lib/python3.10/site-packages/torch/_ops.py" source_line=756}
  %select.171 = f32[] select(pred[] %compare.170, f32[] %divide.169, f32[] %constant.167), metadata={op_type="aten__mean" op_name="aten__mean" source_file="/usr/local/lib/python3.10/site-packages/torch/_ops.py" source_line=756}
  %broadcast.172 = f32[64]{0} broadcast(f32[] %select.171), dimensions={}, metadata={op_type="aten__mean" op_name="aten__mean" source_file="/usr/local/lib/python3.10/site-packages/torch/_ops.py" source_line=756}
  %multiply.173 = f32[64]{0} multiply(f32[64]{0} %reduce.164, f32[64]{0} %broadcast.172), metadata={op_type="aten__mean" op_name="aten__mean" source_file="/usr/local/lib/python3.10/site-packages/torch/_ops.py" source_line=756}
  %reshape.174 = f32[64,1]{1,0} reshape(f32[64]{0} %multiply.173), metadata={op_type="aten__mean" op_name="aten__mean" source_file="/usr/local/lib/python3.10/site-packages/torch/_ops.py" source_line=756}
  %convert.175 = f32[64,1]{1,0} convert(f32[64,1]{1,0} %reshape.174), metadata={op_type="aten__mean" op_name="aten__mean" source_file="/usr/local/lib/python3.10/site-packages/torch/_ops.py" source_line=756}
  %constant.154 = f32[] constant(1), metadata={op_type="prim__Constant" op_name="prim__Constant" source_file="/usr/local/lib/python3.10/site-packages/torch/_ops.py" source_line=756}
  %multiply.176 = f32[] multiply(f32[] %p1.4, f32[] %constant.154), metadata={op_type="aten__add" op_name="aten__add.1046/aten__add" source_file="/usr/local/lib/python3.10/site-packages/torch/_ops.py" source_line=756}
  %broadcast.177 = f32[64,1]{1,0} broadcast(f32[] %multiply.176), dimensions={}, metadata={op_type="aten__add" op_name="aten__add.1046/aten__add" source_file="/usr/local/lib/python3.10/site-packages/torch/_ops.py" source_line=756}
  %add.178 = f32[64,1]{1,0} add(f32[64,1]{1,0} %convert.175, f32[64,1]{1,0} %broadcast.177), metadata={op_type="aten__add" op_name="aten__add.1046/aten__add" source_file="/usr/local/lib/python3.10/site-packages/torch/_ops.py" source_line=756}
  %rsqrt.179 = f32[64,1]{1,0} rsqrt(f32[64,1]{1,0} %add.178), metadata={op_type="aten__rsqrt" op_name="aten__rsqrt" source_file="/usr/local/lib/python3.10/site-packages/torch/_ops.py" source_line=756}
  %reshape.180 = f32[64]{0} reshape(f32[64,1]{1,0} %rsqrt.179), metadata={op_type="aten__mul" op_name="aten__mul.1047/aten__mul" source_file="/usr/local/lib/python3.10/site-packages/torch/_ops.py" source_line=756}
  %broadcast.181 = f32[64,1024]{1,0} broadcast(f32[64]{0} %reshape.180), dimensions={0}, metadata={op_type="aten__mul" op_name="aten__mul.1047/aten__mul" source_file="/usr/local/lib/python3.10/site-packages/torch/_ops.py" source_line=756}
  %multiply.182 = f32[64,1024]{1,0} multiply(f32[64,1024]{1,0} %add.145, f32[64,1024]{1,0} %broadcast.181), metadata={op_type="aten__mul" op_name="aten__mul.1047/aten__mul" source_file="/usr/local/lib/python3.10/site-packages/torch/_ops.py" source_line=756}
  %convert.183 = bf16[64,1024]{1,0} convert(f32[64,1024]{1,0} %multiply.182), metadata={op_type="xla__cast" op_name="xla__cast" source_file="/usr/local/lib/python3.10/site-packages/torch/_ops.py" source_line=756}
  %convert.184 = f32[64,1024]{1,0} convert(bf16[64,1024]{1,0} %convert.183), metadata={op_type="xla__cast" op_name="xla__cast" source_file="/usr/local/lib/python3.10/site-packages/torch/_ops.py" source_line=756}
  %p13.152 = bf16[1024]{0} parameter(13), metadata={op_type="xla__device_data" op_name="xla__device_data" source_file="/usr/local/lib/python3.10/site-packages/torch_xla/_dynamo/dynamo_bridge.py" source_line=355}
  %convert.153 = f32[1024]{0} convert(bf16[1024]{0} %p13.152), metadata={op_type="xla__cast" op_name="xla__cast" source_file="/usr/local/lib/python3.10/site-packages/torch/_ops.py" source_line=756}
  %broadcast.185 = f32[64,1024]{1,0} broadcast(f32[1024]{0} %convert.153), dimensions={1}, metadata={op_type="aten__mul" op_name="aten__mul.1048/aten__mul" source_file="/usr/local/lib/python3.10/site-packages/torch/_ops.py" source_line=756}
  %multiply.186 = f32[64,1024]{1,0} multiply(f32[64,1024]{1,0} %convert.184, f32[64,1024]{1,0} %broadcast.185), metadata={op_type="aten__mul" op_name="aten__mul.1048/aten__mul" source_file="/usr/local/lib/python3.10/site-packages/torch/_ops.py" source_line=756}
  %convert.187 = bf16[64,1024]{1,0} convert(f32[64,1024]{1,0} %multiply.186), metadata={op_type="xla__cast" op_name="xla__cast" source_file="/usr/local/lib/python3.10/site-packages/torch/_ops.py" source_line=756}
  %p12.150 = bf16[6144,1024]{1,0} parameter(12), metadata={op_type="xla__device_data" op_name="xla__device_data" source_file="/usr/local/lib/python3.10/site-packages/torch_xla/_dynamo/dynamo_bridge.py" source_line=355}
  %transpose.151 = bf16[1024,6144]{0,1} transpose(bf16[6144,1024]{1,0} %p12.150), dimensions={1,0}, metadata={op_type="aten__permute" op_name="aten__permute" source_file="/usr/local/lib/python3.10/site-packages/torch/_ops.py" source_line=756}
  %dot.188 = bf16[64,6144]{1,0} dot(bf16[64,1024]{1,0} %convert.187, bf16[1024,6144]{0,1} %transpose.151), lhs_contracting_dims={1}, rhs_contracting_dims={0}, metadata={op_type="aten__mm" op_name="aten__mm" source_file="/usr/local/lib/python3.10/site-packages/torch/_ops.py" source_line=756}
  %slice.191 = bf16[64,3072]{1,0} slice(bf16[64,6144]{1,0} %dot.188), slice={[0:64], [0:3072]}, metadata={op_type="xla__select" op_name="xla__select" source_file="/usr/local/lib/python3.10/site-packages/torch/_ops.py" source_line=756}
  %logistic.192 = bf16[64,3072]{1,0} logistic(bf16[64,3072]{1,0} %slice.191), metadata={op_type="aten__silu" op_name="aten__silu" source_file="/usr/local/lib/python3.10/site-packages/torch/_ops.py" source_line=756}
  %multiply.193 = bf16[64,3072]{1,0} multiply(bf16[64,3072]{1,0} %slice.191, bf16[64,3072]{1,0} %logistic.192), metadata={op_type="aten__silu" op_name="aten__silu" source_file="/usr/local/lib/python3.10/site-packages/torch/_ops.py" source_line=756}
  %convert.194 = f32[64,3072]{1,0} convert(bf16[64,3072]{1,0} %multiply.193), metadata={op_type="xla__cast" op_name="xla__cast" source_file="/usr/local/lib/python3.10/site-packages/torch/_ops.py" source_line=756}
  %slice.189 = bf16[64,3072]{1,0} slice(bf16[64,6144]{1,0} %dot.188), slice={[0:64], [3072:6144]}, metadata={op_type="xla__select" op_name="xla__select" source_file="/usr/local/lib/python3.10/site-packages/torch/_ops.py" source_line=756}
  %convert.190 = f32[64,3072]{1,0} convert(bf16[64,3072]{1,0} %slice.189), metadata={op_type="xla__cast" op_name="xla__cast" source_file="/usr/local/lib/python3.10/site-packages/torch/_ops.py" source_line=756}
  %multiply.195 = f32[64,3072]{1,0} multiply(f32[64,3072]{1,0} %convert.194, f32[64,3072]{1,0} %convert.190), metadata={op_type="aten__mul" op_name="aten__mul.1049/aten__mul" source_file="/usr/local/lib/python3.10/site-packages/torch/_ops.py" source_line=756}
  %convert.196 = bf16[64,3072]{1,0} convert(f32[64,3072]{1,0} %multiply.195), metadata={op_type="xla__cast" op_name="xla__cast" source_file="/usr/local/lib/python3.10/site-packages/torch/_ops.py" source_line=756}
  %p11.148 = bf16[1024,3072]{1,0} parameter(11), metadata={op_type="xla__device_data" op_name="xla__device_data" source_file="/usr/local/lib/python3.10/site-packages/torch_xla/_dynamo/dynamo_bridge.py" source_line=355}
  %transpose.149 = bf16[3072,1024]{0,1} transpose(bf16[1024,3072]{1,0} %p11.148), dimensions={1,0}, metadata={op_type="aten__permute" op_name="aten__permute" source_file="/usr/local/lib/python3.10/site-packages/torch/_ops.py" source_line=756}
  %dot.197 = bf16[64,1024]{1,0} dot(bf16[64,3072]{1,0} %convert.196, bf16[3072,1024]{0,1} %transpose.149), lhs_contracting_dims={1}, rhs_contracting_dims={0}, metadata={op_type="aten__mm" op_name="aten__mm" source_file="/usr/local/lib/python3.10/site-packages/torch/_ops.py" source_line=756}
  %convert.198 = f32[64,1024]{1,0} convert(bf16[64,1024]{1,0} %dot.197), metadata={op_type="xla__cast" op_name="xla__cast" source_file="/usr/local/lib/python3.10/site-packages/torch/_ops.py" source_line=756}
  %convert.146 = bf16[64,1024]{1,0} convert(f32[64,1024]{1,0} %add.145), metadata={op_type="xla__cast" op_name="xla__cast" source_file="/usr/local/lib/python3.10/site-packages/torch/_ops.py" source_line=756}
  %convert.147 = f32[64,1024]{1,0} convert(bf16[64,1024]{1,0} %convert.146), metadata={op_type="xla__cast" op_name="xla__cast" source_file="/usr/local/lib/python3.10/site-packages/torch/_ops.py" source_line=756}
  %constant.50 = f32[] constant(1), metadata={op_type="prim__Constant" op_name="prim__Constant" source_file="/usr/local/lib/python3.10/site-packages/torch/_ops.py" source_line=756}
  %broadcast.199 = f32[64,1024]{1,0} broadcast(f32[] %constant.50), dimensions={}, metadata={op_type="aten__add" op_name="aten__add.1050/aten__add" source_file="/usr/local/lib/python3.10/site-packages/torch/_ops.py" source_line=756}
  %multiply.200 = f32[64,1024]{1,0} multiply(f32[64,1024]{1,0} %convert.147, f32[64,1024]{1,0} %broadcast.199), metadata={op_type="aten__add" op_name="aten__add.1050/aten__add" source_file="/usr/local/lib/python3.10/site-packages/torch/_ops.py" source_line=756}
  %add.201 = f32[64,1024]{1,0} add(f32[64,1024]{1,0} %convert.198, f32[64,1024]{1,0} %multiply.200), metadata={op_type="aten__add" op_name="aten__add.1050/aten__add" source_file="/usr/local/lib/python3.10/site-packages/torch/_ops.py" source_line=756}
  %convert.202 = bf16[64,1024]{1,0} convert(f32[64,1024]{1,0} %add.201), metadata={op_type="xla__cast" op_name="xla__cast" source_file="/usr/local/lib/python3.10/site-packages/torch/_ops.py" source_line=756}
  %convert.203 = f32[64,1024]{1,0} convert(bf16[64,1024]{1,0} %convert.202), metadata={op_type="xla__cast" op_name="xla__cast" source_file="/usr/local/lib/python3.10/site-packages/torch/_ops.py" source_line=756}
  %constant.49 = f32[] constant(1), metadata={op_type="prim__Constant" op_name="prim__Constant" source_file="/usr/local/lib/python3.10/site-packages/torch/_ops.py" source_line=756}
  %broadcast.215 = f32[64,1024]{1,0} broadcast(f32[] %constant.49), dimensions={}, metadata={op_type="aten__add" op_name="aten__add.1063/aten__add" source_file="/usr/local/lib/python3.10/site-packages/torch/_ops.py" source_line=756}
  %multiply.216 = f32[64,1024]{1,0} multiply(f32[64,1024]{1,0} %convert.203, f32[64,1024]{1,0} %broadcast.215), metadata={op_type="aten__add" op_name="aten__add.1063/aten__add" source_file="/usr/local/lib/python3.10/site-packages/torch/_ops.py" source_line=756}
  %add.217 = f32[64,1024]{1,0} add(f32[64,1024]{1,0} %convert.214, f32[64,1024]{1,0} %multiply.216), metadata={op_type="aten__add" op_name="aten__add.1063/aten__add" source_file="/usr/local/lib/python3.10/site-packages/torch/_ops.py" source_line=756}
  %constant.227 = f32[] constant(2), metadata={op_type="prim__Constant" op_name="prim__Constant" source_file="/usr/local/lib/python3.10/site-packages/torch/_ops.py" source_line=756}
  %broadcast.228 = f32[64,1024]{1,0} broadcast(f32[] %constant.227), dimensions={}, metadata={op_type="aten__pow" op_name="aten__pow" source_file="/usr/local/lib/python3.10/site-packages/torch/_ops.py" source_line=756}
  %power.229 = f32[64,1024]{1,0} power(f32[64,1024]{1,0} %add.217, f32[64,1024]{1,0} %broadcast.228), metadata={op_type="aten__pow" op_name="aten__pow" source_file="/usr/local/lib/python3.10/site-packages/torch/_ops.py" source_line=756}
  %constant.230 = f32[] constant(0), metadata={op_type="aten__mean" op_name="aten__mean" source_file="/usr/local/lib/python3.10/site-packages/torch/_ops.py" source_line=756}
  %reduce.236 = f32[64]{0} reduce(f32[64,1024]{1,0} %power.229, f32[] %constant.230), dimensions={1}, to_apply=%AddComputation.232, metadata={op_type="aten__mean" op_name="aten__mean" source_file="/usr/local/lib/python3.10/site-packages/torch/_ops.py" source_line=756}
  %constant.231 = s32[] constant(1024), metadata={op_type="aten__mean" op_name="aten__mean" source_file="/usr/local/lib/python3.10/site-packages/torch/_ops.py" source_line=756}
  %constant.237 = s32[] constant(0), metadata={op_type="aten__mean" op_name="aten__mean" source_file="/usr/local/lib/python3.10/site-packages/torch/_ops.py" source_line=756}
  %compare.242 = pred[] compare(s32[] %constant.231, s32[] %constant.237), direction=NE, metadata={op_type="aten__mean" op_name="aten__mean" source_file="/usr/local/lib/python3.10/site-packages/torch/_ops.py" source_line=756}
  %constant.238 = f32[] constant(1), metadata={op_type="aten__mean" op_name="aten__mean" source_file="/usr/local/lib/python3.10/site-packages/torch/_ops.py" source_line=756}
  %convert.240 = f32[] convert(s32[] %constant.231), metadata={op_type="aten__mean" op_name="aten__mean" source_file="/usr/local/lib/python3.10/site-packages/torch/_ops.py" source_line=756}
  %divide.241 = f32[] divide(f32[] %constant.238, f32[] %convert.240), metadata={op_type="aten__mean" op_name="aten__mean" source_file="/usr/local/lib/python3.10/site-packages/torch/_ops.py" source_line=756}
  %constant.239 = f32[] constant(nan), metadata={op_type="aten__mean" op_name="aten__mean" source_file="/usr/local/lib/python3.10/site-packages/torch/_ops.py" source_line=756}
  %select.243 = f32[] select(pred[] %compare.242, f32[] %divide.241, f32[] %constant.239), metadata={op_type="aten__mean" op_name="aten__mean" source_file="/usr/local/lib/python3.10/site-packages/torch/_ops.py" source_line=756}
  %broadcast.244 = f32[64]{0} broadcast(f32[] %select.243), dimensions={}, metadata={op_type="aten__mean" op_name="aten__mean" source_file="/usr/local/lib/python3.10/site-packages/torch/_ops.py" source_line=756}
  %multiply.245 = f32[64]{0} multiply(f32[64]{0} %reduce.236, f32[64]{0} %broadcast.244), metadata={op_type="aten__mean" op_name="aten__mean" source_file="/usr/local/lib/python3.10/site-packages/torch/_ops.py" source_line=756}
  %reshape.246 = f32[64,1]{1,0} reshape(f32[64]{0} %multiply.245), metadata={op_type="aten__mean" op_name="aten__mean" source_file="/usr/local/lib/python3.10/site-packages/torch/_ops.py" source_line=756}
  %convert.247 = f32[64,1]{1,0} convert(f32[64,1]{1,0} %reshape.246), metadata={op_type="aten__mean" op_name="aten__mean" source_file="/usr/local/lib/python3.10/site-packages/torch/_ops.py" source_line=756}
  %constant.226 = f32[] constant(1), metadata={op_type="prim__Constant" op_name="prim__Constant" source_file="/usr/local/lib/python3.10/site-packages/torch/_ops.py" source_line=756}
  %multiply.248 = f32[] multiply(f32[] %p1.4, f32[] %constant.226), metadata={op_type="aten__add" op_name="aten__add.1064/aten__add" source_file="/usr/local/lib/python3.10/site-packages/torch/_ops.py" source_line=756}
  %broadcast.249 = f32[64,1]{1,0} broadcast(f32[] %multiply.248), dimensions={}, metadata={op_type="aten__add" op_name="aten__add.1064/aten__add" source_file="/usr/local/lib/python3.10/site-packages/torch/_ops.py" source_line=756}
  %add.250 = f32[64,1]{1,0} add(f32[64,1]{1,0} %convert.247, f32[64,1]{1,0} %broadcast.249), metadata={op_type="aten__add" op_name="aten__add.1064/aten__add" source_file="/usr/local/lib/python3.10/site-packages/torch/_ops.py" source_line=756}
  %rsqrt.251 = f32[64,1]{1,0} rsqrt(f32[64,1]{1,0} %add.250), metadata={op_type="aten__rsqrt" op_name="aten__rsqrt" source_file="/usr/local/lib/python3.10/site-packages/torch/_ops.py" source_line=756}
  %reshape.252 = f32[64]{0} reshape(f32[64,1]{1,0} %rsqrt.251), metadata={op_type="aten__mul" op_name="aten__mul.1065/aten__mul" source_file="/usr/local/lib/python3.10/site-packages/torch/_ops.py" source_line=756}
  %broadcast.253 = f32[64,1024]{1,0} broadcast(f32[64]{0} %reshape.252), dimensions={0}, metadata={op_type="aten__mul" op_name="aten__mul.1065/aten__mul" source_file="/usr/local/lib/python3.10/site-packages/torch/_ops.py" source_line=756}
  %multiply.254 = f32[64,1024]{1,0} multiply(f32[64,1024]{1,0} %add.217, f32[64,1024]{1,0} %broadcast.253), metadata={op_type="aten__mul" op_name="aten__mul.1065/aten__mul" source_file="/usr/local/lib/python3.10/site-packages/torch/_ops.py" source_line=756}
  %convert.255 = bf16[64,1024]{1,0} convert(f32[64,1024]{1,0} %multiply.254), metadata={op_type="xla__cast" op_name="xla__cast" source_file="/usr/local/lib/python3.10/site-packages/torch/_ops.py" source_line=756}
  %convert.256 = f32[64,1024]{1,0} convert(bf16[64,1024]{1,0} %convert.255), metadata={op_type="xla__cast" op_name="xla__cast" source_file="/usr/local/lib/python3.10/site-packages/torch/_ops.py" source_line=756}
  %p17.224 = bf16[1024]{0} parameter(17), metadata={op_type="xla__device_data" op_name="xla__device_data" source_file="/usr/local/lib/python3.10/site-packages/torch_xla/_dynamo/dynamo_bridge.py" source_line=355}
  %convert.225 = f32[1024]{0} convert(bf16[1024]{0} %p17.224), metadata={op_type="xla__cast" op_name="xla__cast" source_file="/usr/local/lib/python3.10/site-packages/torch/_ops.py" source_line=756}
  %broadcast.257 = f32[64,1024]{1,0} broadcast(f32[1024]{0} %convert.225), dimensions={1}, metadata={op_type="aten__mul" op_name="aten__mul.1066/aten__mul" source_file="/usr/local/lib/python3.10/site-packages/torch/_ops.py" source_line=756}
  %multiply.258 = f32[64,1024]{1,0} multiply(f32[64,1024]{1,0} %convert.256, f32[64,1024]{1,0} %broadcast.257), metadata={op_type="aten__mul" op_name="aten__mul.1066/aten__mul" source_file="/usr/local/lib/python3.10/site-packages/torch/_ops.py" source_line=756}
  %convert.259 = bf16[64,1024]{1,0} convert(f32[64,1024]{1,0} %multiply.258), metadata={op_type="xla__cast" op_name="xla__cast" source_file="/usr/local/lib/python3.10/site-packages/torch/_ops.py" source_line=756}
  %p16.222 = bf16[6144,1024]{1,0} parameter(16), metadata={op_type="xla__device_data" op_name="xla__device_data" source_file="/usr/local/lib/python3.10/site-packages/torch_xla/_dynamo/dynamo_bridge.py" source_line=355}
  %transpose.223 = bf16[1024,6144]{0,1} transpose(bf16[6144,1024]{1,0} %p16.222), dimensions={1,0}, metadata={op_type="aten__permute" op_name="aten__permute" source_file="/usr/local/lib/python3.10/site-packages/torch/_ops.py" source_line=756}
  %dot.260 = bf16[64,6144]{1,0} dot(bf16[64,1024]{1,0} %convert.259, bf16[1024,6144]{0,1} %transpose.223), lhs_contracting_dims={1}, rhs_contracting_dims={0}, metadata={op_type="aten__mm" op_name="aten__mm" source_file="/usr/local/lib/python3.10/site-packages/torch/_ops.py" source_line=756}
  %slice.263 = bf16[64,3072]{1,0} slice(bf16[64,6144]{1,0} %dot.260), slice={[0:64], [0:3072]}, metadata={op_type="xla__select" op_name="xla__select" source_file="/usr/local/lib/python3.10/site-packages/torch/_ops.py" source_line=756}
  %logistic.264 = bf16[64,3072]{1,0} logistic(bf16[64,3072]{1,0} %slice.263), metadata={op_type="aten__silu" op_name="aten__silu" source_file="/usr/local/lib/python3.10/site-packages/torch/_ops.py" source_line=756}
  %multiply.265 = bf16[64,3072]{1,0} multiply(bf16[64,3072]{1,0} %slice.263, bf16[64,3072]{1,0} %logistic.264), metadata={op_type="aten__silu" op_name="aten__silu" source_file="/usr/local/lib/python3.10/site-packages/torch/_ops.py" source_line=756}
  %convert.266 = f32[64,3072]{1,0} convert(bf16[64,3072]{1,0} %multiply.265), metadata={op_type="xla__cast" op_name="xla__cast" source_file="/usr/local/lib/python3.10/site-packages/torch/_ops.py" source_line=756}
  %slice.261 = bf16[64,3072]{1,0} slice(bf16[64,6144]{1,0} %dot.260), slice={[0:64], [3072:6144]}, metadata={op_type="xla__select" op_name="xla__select" source_file="/usr/local/lib/python3.10/site-packages/torch/_ops.py" source_line=756}
  %convert.262 = f32[64,3072]{1,0} convert(bf16[64,3072]{1,0} %slice.261), metadata={op_type="xla__cast" op_name="xla__cast" source_file="/usr/local/lib/python3.10/site-packages/torch/_ops.py" source_line=756}
  %multiply.267 = f32[64,3072]{1,0} multiply(f32[64,3072]{1,0} %convert.266, f32[64,3072]{1,0} %convert.262), metadata={op_type="aten__mul" op_name="aten__mul.1067/aten__mul" source_file="/usr/local/lib/python3.10/site-packages/torch/_ops.py" source_line=756}
  %convert.268 = bf16[64,3072]{1,0} convert(f32[64,3072]{1,0} %multiply.267), metadata={op_type="xla__cast" op_name="xla__cast" source_file="/usr/local/lib/python3.10/site-packages/torch/_ops.py" source_line=756}
  %p15.220 = bf16[1024,3072]{1,0} parameter(15), metadata={op_type="xla__device_data" op_name="xla__device_data" source_file="/usr/local/lib/python3.10/site-packages/torch_xla/_dynamo/dynamo_bridge.py" source_line=355}
  %transpose.221 = bf16[3072,1024]{0,1} transpose(bf16[1024,3072]{1,0} %p15.220), dimensions={1,0}, metadata={op_type="aten__permute" op_name="aten__permute" source_file="/usr/local/lib/python3.10/site-packages/torch/_ops.py" source_line=756}
  %dot.269 = bf16[64,1024]{1,0} dot(bf16[64,3072]{1,0} %convert.268, bf16[3072,1024]{0,1} %transpose.221), lhs_contracting_dims={1}, rhs_contracting_dims={0}, metadata={op_type="aten__mm" op_name="aten__mm" source_file="/usr/local/lib/python3.10/site-packages/torch/_ops.py" source_line=756}
  %convert.270 = f32[64,1024]{1,0} convert(bf16[64,1024]{1,0} %dot.269), metadata={op_type="xla__cast" op_name="xla__cast" source_file="/usr/local/lib/python3.10/site-packages/torch/_ops.py" source_line=756}
  %convert.218 = bf16[64,1024]{1,0} convert(f32[64,1024]{1,0} %add.217), metadata={op_type="xla__cast" op_name="xla__cast" source_file="/usr/local/lib/python3.10/site-packages/torch/_ops.py" source_line=756}
  %convert.219 = f32[64,1024]{1,0} convert(bf16[64,1024]{1,0} %convert.218), metadata={op_type="xla__cast" op_name="xla__cast" source_file="/usr/local/lib/python3.10/site-packages/torch/_ops.py" source_line=756}
  %constant.48 = f32[] constant(1), metadata={op_type="prim__Constant" op_name="prim__Constant" source_file="/usr/local/lib/python3.10/site-packages/torch/_ops.py" source_line=756}
  %broadcast.271 = f32[64,1024]{1,0} broadcast(f32[] %constant.48), dimensions={}, metadata={op_type="aten__add" op_name="aten__add.1068/aten__add" source_file="/usr/local/lib/python3.10/site-packages/torch/_ops.py" source_line=756}
  %multiply.272 = f32[64,1024]{1,0} multiply(f32[64,1024]{1,0} %convert.219, f32[64,1024]{1,0} %broadcast.271), metadata={op_type="aten__add" op_name="aten__add.1068/aten__add" source_file="/usr/local/lib/python3.10/site-packages/torch/_ops.py" source_line=756}
  %add.273 = f32[64,1024]{1,0} add(f32[64,1024]{1,0} %convert.270, f32[64,1024]{1,0} %multiply.272), metadata={op_type="aten__add" op_name="aten__add.1068/aten__add" source_file="/usr/local/lib/python3.10/site-packages/torch/_ops.py" source_line=756}
  %convert.274 = bf16[64,1024]{1,0} convert(f32[64,1024]{1,0} %add.273), metadata={op_type="xla__cast" op_name="xla__cast" source_file="/usr/local/lib/python3.10/site-packages/torch/_ops.py" source_line=756}
  %convert.275 = f32[64,1024]{1,0} convert(bf16[64,1024]{1,0} %convert.274), metadata={op_type="xla__cast" op_name="xla__cast" source_file="/usr/local/lib/python3.10/site-packages/torch/_ops.py" source_line=756}
  %constant.47 = f32[] constant(1), metadata={op_type="prim__Constant" op_name="prim__Constant" source_file="/usr/local/lib/python3.10/site-packages/torch/_ops.py" source_line=756}
  %broadcast.287 = f32[64,1024]{1,0} broadcast(f32[] %constant.47), dimensions={}, metadata={op_type="aten__add" op_name="aten__add.1081/aten__add" source_file="/usr/local/lib/python3.10/site-packages/torch/_ops.py" source_line=756}
  %multiply.288 = f32[64,1024]{1,0} multiply(f32[64,1024]{1,0} %convert.275, f32[64,1024]{1,0} %broadcast.287), metadata={op_type="aten__add" op_name="aten__add.1081/aten__add" source_file="/usr/local/lib/python3.10/site-packages/torch/_ops.py" source_line=756}
  %add.289 = f32[64,1024]{1,0} add(f32[64,1024]{1,0} %convert.286, f32[64,1024]{1,0} %multiply.288), metadata={op_type="aten__add" op_name="aten__add.1081/aten__add" source_file="/usr/local/lib/python3.10/site-packages/torch/_ops.py" source_line=756}
  %constant.299 = f32[] constant(2), metadata={op_type="prim__Constant" op_name="prim__Constant" source_file="/usr/local/lib/python3.10/site-packages/torch/_ops.py" source_line=756}
  %broadcast.300 = f32[64,1024]{1,0} broadcast(f32[] %constant.299), dimensions={}, metadata={op_type="aten__pow" op_name="aten__pow" source_file="/usr/local/lib/python3.10/site-packages/torch/_ops.py" source_line=756}
  %power.301 = f32[64,1024]{1,0} power(f32[64,1024]{1,0} %add.289, f32[64,1024]{1,0} %broadcast.300), metadata={op_type="aten__pow" op_name="aten__pow" source_file="/usr/local/lib/python3.10/site-packages/torch/_ops.py" source_line=756}
  %constant.302 = f32[] constant(0), metadata={op_type="aten__mean" op_name="aten__mean" source_file="/usr/local/lib/python3.10/site-packages/torch/_ops.py" source_line=756}
  %reduce.308 = f32[64]{0} reduce(f32[64,1024]{1,0} %power.301, f32[] %constant.302), dimensions={1}, to_apply=%AddComputation.304, metadata={op_type="aten__mean" op_name="aten__mean" source_file="/usr/local/lib/python3.10/site-packages/torch/_ops.py" source_line=756}
  %constant.303 = s32[] constant(1024), metadata={op_type="aten__mean" op_name="aten__mean" source_file="/usr/local/lib/python3.10/site-packages/torch/_ops.py" source_line=756}
  %constant.309 = s32[] constant(0), metadata={op_type="aten__mean" op_name="aten__mean" source_file="/usr/local/lib/python3.10/site-packages/torch/_ops.py" source_line=756}
  %compare.314 = pred[] compare(s32[] %constant.303, s32[] %constant.309), direction=NE, metadata={op_type="aten__mean" op_name="aten__mean" source_file="/usr/local/lib/python3.10/site-packages/torch/_ops.py" source_line=756}
  %constant.310 = f32[] constant(1), metadata={op_type="aten__mean" op_name="aten__mean" source_file="/usr/local/lib/python3.10/site-packages/torch/_ops.py" source_line=756}
  %convert.312 = f32[] convert(s32[] %constant.303), metadata={op_type="aten__mean" op_name="aten__mean" source_file="/usr/local/lib/python3.10/site-packages/torch/_ops.py" source_line=756}
  %divide.313 = f32[] divide(f32[] %constant.310, f32[] %convert.312), metadata={op_type="aten__mean" op_name="aten__mean" source_file="/usr/local/lib/python3.10/site-packages/torch/_ops.py" source_line=756}
  %constant.311 = f32[] constant(nan), metadata={op_type="aten__mean" op_name="aten__mean" source_file="/usr/local/lib/python3.10/site-packages/torch/_ops.py" source_line=756}
  %select.315 = f32[] select(pred[] %compare.314, f32[] %divide.313, f32[] %constant.311), metadata={op_type="aten__mean" op_name="aten__mean" source_file="/usr/local/lib/python3.10/site-packages/torch/_ops.py" source_line=756}
  %broadcast.316 = f32[64]{0} broadcast(f32[] %select.315), dimensions={}, metadata={op_type="aten__mean" op_name="aten__mean" source_file="/usr/local/lib/python3.10/site-packages/torch/_ops.py" source_line=756}
  %multiply.317 = f32[64]{0} multiply(f32[64]{0} %reduce.308, f32[64]{0} %broadcast.316), metadata={op_type="aten__mean" op_name="aten__mean" source_file="/usr/local/lib/python3.10/site-packages/torch/_ops.py" source_line=756}
  %reshape.318 = f32[64,1]{1,0} reshape(f32[64]{0} %multiply.317), metadata={op_type="aten__mean" op_name="aten__mean" source_file="/usr/local/lib/python3.10/site-packages/torch/_ops.py" source_line=756}
  %convert.319 = f32[64,1]{1,0} convert(f32[64,1]{1,0} %reshape.318), metadata={op_type="aten__mean" op_name="aten__mean" source_file="/usr/local/lib/python3.10/site-packages/torch/_ops.py" source_line=756}
  %constant.298 = f32[] constant(1), metadata={op_type="prim__Constant" op_name="prim__Constant" source_file="/usr/local/lib/python3.10/site-packages/torch/_ops.py" source_line=756}
  %multiply.320 = f32[] multiply(f32[] %p1.4, f32[] %constant.298), metadata={op_type="aten__add" op_name="aten__add.1082/aten__add" source_file="/usr/local/lib/python3.10/site-packages/torch/_ops.py" source_line=756}
  %broadcast.321 = f32[64,1]{1,0} broadcast(f32[] %multiply.320), dimensions={}, metadata={op_type="aten__add" op_name="aten__add.1082/aten__add" source_file="/usr/local/lib/python3.10/site-packages/torch/_ops.py" source_line=756}
  %add.322 = f32[64,1]{1,0} add(f32[64,1]{1,0} %convert.319, f32[64,1]{1,0} %broadcast.321), metadata={op_type="aten__add" op_name="aten__add.1082/aten__add" source_file="/usr/local/lib/python3.10/site-packages/torch/_ops.py" source_line=756}
  %rsqrt.323 = f32[64,1]{1,0} rsqrt(f32[64,1]{1,0} %add.322), metadata={op_type="aten__rsqrt" op_name="aten__rsqrt" source_file="/usr/local/lib/python3.10/site-packages/torch/_ops.py" source_line=756}
  %reshape.324 = f32[64]{0} reshape(f32[64,1]{1,0} %rsqrt.323), metadata={op_type="aten__mul" op_name="aten__mul.1083/aten__mul" source_file="/usr/local/lib/python3.10/site-packages/torch/_ops.py" source_line=756}
  %broadcast.325 = f32[64,1024]{1,0} broadcast(f32[64]{0} %reshape.324), dimensions={0}, metadata={op_type="aten__mul" op_name="aten__mul.1083/aten__mul" source_file="/usr/local/lib/python3.10/site-packages/torch/_ops.py" source_line=756}
  %multiply.326 = f32[64,1024]{1,0} multiply(f32[64,1024]{1,0} %add.289, f32[64,1024]{1,0} %broadcast.325), metadata={op_type="aten__mul" op_name="aten__mul.1083/aten__mul" source_file="/usr/local/lib/python3.10/site-packages/torch/_ops.py" source_line=756}
  %convert.327 = bf16[64,1024]{1,0} convert(f32[64,1024]{1,0} %multiply.326), metadata={op_type="xla__cast" op_name="xla__cast" source_file="/usr/local/lib/python3.10/site-packages/torch/_ops.py" source_line=756}
  %convert.328 = f32[64,1024]{1,0} convert(bf16[64,1024]{1,0} %convert.327), metadata={op_type="xla__cast" op_name="xla__cast" source_file="/usr/local/lib/python3.10/site-packages/torch/_ops.py" source_line=756}
  %p21.296 = bf16[1024]{0} parameter(21), metadata={op_type="xla__device_data" op_name="xla__device_data" source_file="/usr/local/lib/python3.10/site-packages/torch_xla/_dynamo/dynamo_bridge.py" source_line=355}
  %convert.297 = f32[1024]{0} convert(bf16[1024]{0} %p21.296), metadata={op_type="xla__cast" op_name="xla__cast" source_file="/usr/local/lib/python3.10/site-packages/torch/_ops.py" source_line=756}
  %broadcast.329 = f32[64,1024]{1,0} broadcast(f32[1024]{0} %convert.297), dimensions={1}, metadata={op_type="aten__mul" op_name="aten__mul.1084/aten__mul" source_file="/usr/local/lib/python3.10/site-packages/torch/_ops.py" source_line=756}
  %multiply.330 = f32[64,1024]{1,0} multiply(f32[64,1024]{1,0} %convert.328, f32[64,1024]{1,0} %broadcast.329), metadata={op_type="aten__mul" op_name="aten__mul.1084/aten__mul" source_file="/usr/local/lib/python3.10/site-packages/torch/_ops.py" source_line=756}
  %convert.331 = bf16[64,1024]{1,0} convert(f32[64,1024]{1,0} %multiply.330), metadata={op_type="xla__cast" op_name="xla__cast" source_file="/usr/local/lib/python3.10/site-packages/torch/_ops.py" source_line=756}
  %p20.294 = bf16[6144,1024]{1,0} parameter(20), metadata={op_type="xla__device_data" op_name="xla__device_data" source_file="/usr/local/lib/python3.10/site-packages/torch_xla/_dynamo/dynamo_bridge.py" source_line=355}
  %transpose.295 = bf16[1024,6144]{0,1} transpose(bf16[6144,1024]{1,0} %p20.294), dimensions={1,0}, metadata={op_type="aten__permute" op_name="aten__permute" source_file="/usr/local/lib/python3.10/site-packages/torch/_ops.py" source_line=756}
  %dot.332 = bf16[64,6144]{1,0} dot(bf16[64,1024]{1,0} %convert.331, bf16[1024,6144]{0,1} %transpose.295), lhs_contracting_dims={1}, rhs_contracting_dims={0}, metadata={op_type="aten__mm" op_name="aten__mm" source_file="/usr/local/lib/python3.10/site-packages/torch/_ops.py" source_line=756}
  %slice.335 = bf16[64,3072]{1,0} slice(bf16[64,6144]{1,0} %dot.332), slice={[0:64], [0:3072]}, metadata={op_type="xla__select" op_name="xla__select" source_file="/usr/local/lib/python3.10/site-packages/torch/_ops.py" source_line=756}
  %logistic.336 = bf16[64,3072]{1,0} logistic(bf16[64,3072]{1,0} %slice.335), metadata={op_type="aten__silu" op_name="aten__silu" source_file="/usr/local/lib/python3.10/site-packages/torch/_ops.py" source_line=756}
  %multiply.337 = bf16[64,3072]{1,0} multiply(bf16[64,3072]{1,0} %slice.335, bf16[64,3072]{1,0} %logistic.336), metadata={op_type="aten__silu" op_name="aten__silu" source_file="/usr/local/lib/python3.10/site-packages/torch/_ops.py" source_line=756}
  %convert.338 = f32[64,3072]{1,0} convert(bf16[64,3072]{1,0} %multiply.337), metadata={op_type="xla__cast" op_name="xla__cast" source_file="/usr/local/lib/python3.10/site-packages/torch/_ops.py" source_line=756}
  %slice.333 = bf16[64,3072]{1,0} slice(bf16[64,6144]{1,0} %dot.332), slice={[0:64], [3072:6144]}, metadata={op_type="xla__select" op_name="xla__select" source_file="/usr/local/lib/python3.10/site-packages/torch/_ops.py" source_line=756}
  %convert.334 = f32[64,3072]{1,0} convert(bf16[64,3072]{1,0} %slice.333), metadata={op_type="xla__cast" op_name="xla__cast" source_file="/usr/local/lib/python3.10/site-packages/torch/_ops.py" source_line=756}
  %multiply.339 = f32[64,3072]{1,0} multiply(f32[64,3072]{1,0} %convert.338, f32[64,3072]{1,0} %convert.334), metadata={op_type="aten__mul" op_name="aten__mul.1085/aten__mul" source_file="/usr/local/lib/python3.10/site-packages/torch/_ops.py" source_line=756}
  %convert.340 = bf16[64,3072]{1,0} convert(f32[64,3072]{1,0} %multiply.339), metadata={op_type="xla__cast" op_name="xla__cast" source_file="/usr/local/lib/python3.10/site-packages/torch/_ops.py" source_line=756}
  %p19.292 = bf16[1024,3072]{1,0} parameter(19), metadata={op_type="xla__device_data" op_name="xla__device_data" source_file="/usr/local/lib/python3.10/site-packages/torch_xla/_dynamo/dynamo_bridge.py" source_line=355}
  %transpose.293 = bf16[3072,1024]{0,1} transpose(bf16[1024,3072]{1,0} %p19.292), dimensions={1,0}, metadata={op_type="aten__permute" op_name="aten__permute" source_file="/usr/local/lib/python3.10/site-packages/torch/_ops.py" source_line=756}
  %dot.341 = bf16[64,1024]{1,0} dot(bf16[64,3072]{1,0} %convert.340, bf16[3072,1024]{0,1} %transpose.293), lhs_contracting_dims={1}, rhs_contracting_dims={0}, metadata={op_type="aten__mm" op_name="aten__mm" source_file="/usr/local/lib/python3.10/site-packages/torch/_ops.py" source_line=756}
  %convert.342 = f32[64,1024]{1,0} convert(bf16[64,1024]{1,0} %dot.341), metadata={op_type="xla__cast" op_name="xla__cast" source_file="/usr/local/lib/python3.10/site-packages/torch/_ops.py" source_line=756}
  %convert.290 = bf16[64,1024]{1,0} convert(f32[64,1024]{1,0} %add.289), metadata={op_type="xla__cast" op_name="xla__cast" source_file="/usr/local/lib/python3.10/site-packages/torch/_ops.py" source_line=756}
  %convert.291 = f32[64,1024]{1,0} convert(bf16[64,1024]{1,0} %convert.290), metadata={op_type="xla__cast" op_name="xla__cast" source_file="/usr/local/lib/python3.10/site-packages/torch/_ops.py" source_line=756}
  %constant.46 = f32[] constant(1), metadata={op_type="prim__Constant" op_name="prim__Constant" source_file="/usr/local/lib/python3.10/site-packages/torch/_ops.py" source_line=756}
  %broadcast.343 = f32[64,1024]{1,0} broadcast(f32[] %constant.46), dimensions={}, metadata={op_type="aten__add" op_name="aten__add.1086/aten__add" source_file="/usr/local/lib/python3.10/site-packages/torch/_ops.py" source_line=756}
  %multiply.344 = f32[64,1024]{1,0} multiply(f32[64,1024]{1,0} %convert.291, f32[64,1024]{1,0} %broadcast.343), metadata={op_type="aten__add" op_name="aten__add.1086/aten__add" source_file="/usr/local/lib/python3.10/site-packages/torch/_ops.py" source_line=756}
  %add.345 = f32[64,1024]{1,0} add(f32[64,1024]{1,0} %convert.342, f32[64,1024]{1,0} %multiply.344), metadata={op_type="aten__add" op_name="aten__add.1086/aten__add" source_file="/usr/local/lib/python3.10/site-packages/torch/_ops.py" source_line=756}
  %convert.346 = bf16[64,1024]{1,0} convert(f32[64,1024]{1,0} %add.345), metadata={op_type="xla__cast" op_name="xla__cast" source_file="/usr/local/lib/python3.10/site-packages/torch/_ops.py" source_line=756}
  %convert.347 = f32[64,1024]{1,0} convert(bf16[64,1024]{1,0} %convert.346), metadata={op_type="xla__cast" op_name="xla__cast" source_file="/usr/local/lib/python3.10/site-packages/torch/_ops.py" source_line=756}
  %constant.45 = f32[] constant(1), metadata={op_type="prim__Constant" op_name="prim__Constant" source_file="/usr/local/lib/python3.10/site-packages/torch/_ops.py" source_line=756}
  %broadcast.359 = f32[64,1024]{1,0} broadcast(f32[] %constant.45), dimensions={}, metadata={op_type="aten__add" op_name="aten__add.1099/aten__add" source_file="/usr/local/lib/python3.10/site-packages/torch/_ops.py" source_line=756}
  %multiply.360 = f32[64,1024]{1,0} multiply(f32[64,1024]{1,0} %convert.347, f32[64,1024]{1,0} %broadcast.359), metadata={op_type="aten__add" op_name="aten__add.1099/aten__add" source_file="/usr/local/lib/python3.10/site-packages/torch/_ops.py" source_line=756}
  %add.361 = f32[64,1024]{1,0} add(f32[64,1024]{1,0} %convert.358, f32[64,1024]{1,0} %multiply.360), metadata={op_type="aten__add" op_name="aten__add.1099/aten__add" source_file="/usr/local/lib/python3.10/site-packages/torch/_ops.py" source_line=756}
  %constant.371 = f32[] constant(2), metadata={op_type="prim__Constant" op_name="prim__Constant" source_file="/usr/local/lib/python3.10/site-packages/torch/_ops.py" source_line=756}
  %broadcast.372 = f32[64,1024]{1,0} broadcast(f32[] %constant.371), dimensions={}, metadata={op_type="aten__pow" op_name="aten__pow" source_file="/usr/local/lib/python3.10/site-packages/torch/_ops.py" source_line=756}
  %power.373 = f32[64,1024]{1,0} power(f32[64,1024]{1,0} %add.361, f32[64,1024]{1,0} %broadcast.372), metadata={op_type="aten__pow" op_name="aten__pow" source_file="/usr/local/lib/python3.10/site-packages/torch/_ops.py" source_line=756}
  %constant.374 = f32[] constant(0), metadata={op_type="aten__mean" op_name="aten__mean" source_file="/usr/local/lib/python3.10/site-packages/torch/_ops.py" source_line=756}
  %reduce.380 = f32[64]{0} reduce(f32[64,1024]{1,0} %power.373, f32[] %constant.374), dimensions={1}, to_apply=%AddComputation.376, metadata={op_type="aten__mean" op_name="aten__mean" source_file="/usr/local/lib/python3.10/site-packages/torch/_ops.py" source_line=756}
  %constant.375 = s32[] constant(1024), metadata={op_type="aten__mean" op_name="aten__mean" source_file="/usr/local/lib/python3.10/site-packages/torch/_ops.py" source_line=756}
  %constant.381 = s32[] constant(0), metadata={op_type="aten__mean" op_name="aten__mean" source_file="/usr/local/lib/python3.10/site-packages/torch/_ops.py" source_line=756}
  %compare.386 = pred[] compare(s32[] %constant.375, s32[] %constant.381), direction=NE, metadata={op_type="aten__mean" op_name="aten__mean" source_file="/usr/local/lib/python3.10/site-packages/torch/_ops.py" source_line=756}
  %constant.382 = f32[] constant(1), metadata={op_type="aten__mean" op_name="aten__mean" source_file="/usr/local/lib/python3.10/site-packages/torch/_ops.py" source_line=756}
  %convert.384 = f32[] convert(s32[] %constant.375), metadata={op_type="aten__mean" op_name="aten__mean" source_file="/usr/local/lib/python3.10/site-packages/torch/_ops.py" source_line=756}
  %divide.385 = f32[] divide(f32[] %constant.382, f32[] %convert.384), metadata={op_type="aten__mean" op_name="aten__mean" source_file="/usr/local/lib/python3.10/site-packages/torch/_ops.py" source_line=756}
  %constant.383 = f32[] constant(nan), metadata={op_type="aten__mean" op_name="aten__mean" source_file="/usr/local/lib/python3.10/site-packages/torch/_ops.py" source_line=756}
  %select.387 = f32[] select(pred[] %compare.386, f32[] %divide.385, f32[] %constant.383), metadata={op_type="aten__mean" op_name="aten__mean" source_file="/usr/local/lib/python3.10/site-packages/torch/_ops.py" source_line=756}
  %broadcast.388 = f32[64]{0} broadcast(f32[] %select.387), dimensions={}, metadata={op_type="aten__mean" op_name="aten__mean" source_file="/usr/local/lib/python3.10/site-packages/torch/_ops.py" source_line=756}
  %multiply.389 = f32[64]{0} multiply(f32[64]{0} %reduce.380, f32[64]{0} %broadcast.388), metadata={op_type="aten__mean" op_name="aten__mean" source_file="/usr/local/lib/python3.10/site-packages/torch/_ops.py" source_line=756}
  %reshape.390 = f32[64,1]{1,0} reshape(f32[64]{0} %multiply.389), metadata={op_type="aten__mean" op_name="aten__mean" source_file="/usr/local/lib/python3.10/site-packages/torch/_ops.py" source_line=756}
  %convert.391 = f32[64,1]{1,0} convert(f32[64,1]{1,0} %reshape.390), metadata={op_type="aten__mean" op_name="aten__mean" source_file="/usr/local/lib/python3.10/site-packages/torch/_ops.py" source_line=756}
  %constant.370 = f32[] constant(1), metadata={op_type="prim__Constant" op_name="prim__Constant" source_file="/usr/local/lib/python3.10/site-packages/torch/_ops.py" source_line=756}
  %multiply.392 = f32[] multiply(f32[] %p1.4, f32[] %constant.370), metadata={op_type="aten__add" op_name="aten__add.1100/aten__add" source_file="/usr/local/lib/python3.10/site-packages/torch/_ops.py" source_line=756}
  %broadcast.393 = f32[64,1]{1,0} broadcast(f32[] %multiply.392), dimensions={}, metadata={op_type="aten__add" op_name="aten__add.1100/aten__add" source_file="/usr/local/lib/python3.10/site-packages/torch/_ops.py" source_line=756}
  %add.394 = f32[64,1]{1,0} add(f32[64,1]{1,0} %convert.391, f32[64,1]{1,0} %broadcast.393), metadata={op_type="aten__add" op_name="aten__add.1100/aten__add" source_file="/usr/local/lib/python3.10/site-packages/torch/_ops.py" source_line=756}
  %rsqrt.395 = f32[64,1]{1,0} rsqrt(f32[64,1]{1,0} %add.394), metadata={op_type="aten__rsqrt" op_name="aten__rsqrt" source_file="/usr/local/lib/python3.10/site-packages/torch/_ops.py" source_line=756}
  %reshape.396 = f32[64]{0} reshape(f32[64,1]{1,0} %rsqrt.395), metadata={op_type="aten__mul" op_name="aten__mul.1101/aten__mul" source_file="/usr/local/lib/python3.10/site-packages/torch/_ops.py" source_line=756}
  %broadcast.397 = f32[64,1024]{1,0} broadcast(f32[64]{0} %reshape.396), dimensions={0}, metadata={op_type="aten__mul" op_name="aten__mul.1101/aten__mul" source_file="/usr/local/lib/python3.10/site-packages/torch/_ops.py" source_line=756}
  %multiply.398 = f32[64,1024]{1,0} multiply(f32[64,1024]{1,0} %add.361, f32[64,1024]{1,0} %broadcast.397), metadata={op_type="aten__mul" op_name="aten__mul.1101/aten__mul" source_file="/usr/local/lib/python3.10/site-packages/torch/_ops.py" source_line=756}
  %convert.399 = bf16[64,1024]{1,0} convert(f32[64,1024]{1,0} %multiply.398), metadata={op_type="xla__cast" op_name="xla__cast" source_file="/usr/local/lib/python3.10/site-packages/torch/_ops.py" source_line=756}
  %convert.400 = f32[64,1024]{1,0} convert(bf16[64,1024]{1,0} %convert.399), metadata={op_type="xla__cast" op_name="xla__cast" source_file="/usr/local/lib/python3.10/site-packages/torch/_ops.py" source_line=756}
  %p25.368 = bf16[1024]{0} parameter(25), metadata={op_type="xla__device_data" op_name="xla__device_data" source_file="/usr/local/lib/python3.10/site-packages/torch_xla/_dynamo/dynamo_bridge.py" source_line=355}
  %convert.369 = f32[1024]{0} convert(bf16[1024]{0} %p25.368), metadata={op_type="xla__cast" op_name="xla__cast" source_file="/usr/local/lib/python3.10/site-packages/torch/_ops.py" source_line=756}
  %broadcast.401 = f32[64,1024]{1,0} broadcast(f32[1024]{0} %convert.369), dimensions={1}, metadata={op_type="aten__mul" op_name="aten__mul.1102/aten__mul" source_file="/usr/local/lib/python3.10/site-packages/torch/_ops.py" source_line=756}
  %multiply.402 = f32[64,1024]{1,0} multiply(f32[64,1024]{1,0} %convert.400, f32[64,1024]{1,0} %broadcast.401), metadata={op_type="aten__mul" op_name="aten__mul.1102/aten__mul" source_file="/usr/local/lib/python3.10/site-packages/torch/_ops.py" source_line=756}
  %convert.403 = bf16[64,1024]{1,0} convert(f32[64,1024]{1,0} %multiply.402), metadata={op_type="xla__cast" op_name="xla__cast" source_file="/usr/local/lib/python3.10/site-packages/torch/_ops.py" source_line=756}
  %p24.366 = bf16[6144,1024]{1,0} parameter(24), metadata={op_type="xla__device_data" op_name="xla__device_data" source_file="/usr/local/lib/python3.10/site-packages/torch_xla/_dynamo/dynamo_bridge.py" source_line=355}
  %transpose.367 = bf16[1024,6144]{0,1} transpose(bf16[6144,1024]{1,0} %p24.366), dimensions={1,0}, metadata={op_type="aten__permute" op_name="aten__permute" source_file="/usr/local/lib/python3.10/site-packages/torch/_ops.py" source_line=756}
  %dot.404 = bf16[64,6144]{1,0} dot(bf16[64,1024]{1,0} %convert.403, bf16[1024,6144]{0,1} %transpose.367), lhs_contracting_dims={1}, rhs_contracting_dims={0}, metadata={op_type="aten__mm" op_name="aten__mm" source_file="/usr/local/lib/python3.10/site-packages/torch/_ops.py" source_line=756}
  %slice.407 = bf16[64,3072]{1,0} slice(bf16[64,6144]{1,0} %dot.404), slice={[0:64], [0:3072]}, metadata={op_type="xla__select" op_name="xla__select" source_file="/usr/local/lib/python3.10/site-packages/torch/_ops.py" source_line=756}
  %logistic.408 = bf16[64,3072]{1,0} logistic(bf16[64,3072]{1,0} %slice.407), metadata={op_type="aten__silu" op_name="aten__silu" source_file="/usr/local/lib/python3.10/site-packages/torch/_ops.py" source_line=756}
  %multiply.409 = bf16[64,3072]{1,0} multiply(bf16[64,3072]{1,0} %slice.407, bf16[64,3072]{1,0} %logistic.408), metadata={op_type="aten__silu" op_name="aten__silu" source_file="/usr/local/lib/python3.10/site-packages/torch/_ops.py" source_line=756}
  %convert.410 = f32[64,3072]{1,0} convert(bf16[64,3072]{1,0} %multiply.409), metadata={op_type="xla__cast" op_name="xla__cast" source_file="/usr/local/lib/python3.10/site-packages/torch/_ops.py" source_line=756}
  %slice.405 = bf16[64,3072]{1,0} slice(bf16[64,6144]{1,0} %dot.404), slice={[0:64], [3072:6144]}, metadata={op_type="xla__select" op_name="xla__select" source_file="/usr/local/lib/python3.10/site-packages/torch/_ops.py" source_line=756}
  %convert.406 = f32[64,3072]{1,0} convert(bf16[64,3072]{1,0} %slice.405), metadata={op_type="xla__cast" op_name="xla__cast" source_file="/usr/local/lib/python3.10/site-packages/torch/_ops.py" source_line=756}
  %multiply.411 = f32[64,3072]{1,0} multiply(f32[64,3072]{1,0} %convert.410, f32[64,3072]{1,0} %convert.406), metadata={op_type="aten__mul" op_name="aten__mul.1103/aten__mul" source_file="/usr/local/lib/python3.10/site-packages/torch/_ops.py" source_line=756}
  %convert.412 = bf16[64,3072]{1,0} convert(f32[64,3072]{1,0} %multiply.411), metadata={op_type="xla__cast" op_name="xla__cast" source_file="/usr/local/lib/python3.10/site-packages/torch/_ops.py" source_line=756}
  %p23.364 = bf16[1024,3072]{1,0} parameter(23), metadata={op_type="xla__device_data" op_name="xla__device_data" source_file="/usr/local/lib/python3.10/site-packages/torch_xla/_dynamo/dynamo_bridge.py" source_line=355}
  %transpose.365 = bf16[3072,1024]{0,1} transpose(bf16[1024,3072]{1,0} %p23.364), dimensions={1,0}, metadata={op_type="aten__permute" op_name="aten__permute" source_file="/usr/local/lib/python3.10/site-packages/torch/_ops.py" source_line=756}
  %dot.413 = bf16[64,1024]{1,0} dot(bf16[64,3072]{1,0} %convert.412, bf16[3072,1024]{0,1} %transpose.365), lhs_contracting_dims={1}, rhs_contracting_dims={0}, metadata={op_type="aten__mm" op_name="aten__mm" source_file="/usr/local/lib/python3.10/site-packages/torch/_ops.py" source_line=756}
  %convert.414 = f32[64,1024]{1,0} convert(bf16[64,1024]{1,0} %dot.413), metadata={op_type="xla__cast" op_name="xla__cast" source_file="/usr/local/lib/python3.10/site-packages/torch/_ops.py" source_line=756}
  %convert.362 = bf16[64,1024]{1,0} convert(f32[64,1024]{1,0} %add.361), metadata={op_type="xla__cast" op_name="xla__cast" source_file="/usr/local/lib/python3.10/site-packages/torch/_ops.py" source_line=756}
  %convert.363 = f32[64,1024]{1,0} convert(bf16[64,1024]{1,0} %convert.362), metadata={op_type="xla__cast" op_name="xla__cast" source_file="/usr/local/lib/python3.10/site-packages/torch/_ops.py" source_line=756}
  %constant.44 = f32[] constant(1), metadata={op_type="prim__Constant" op_name="prim__Constant" source_file="/usr/local/lib/python3.10/site-packages/torch/_ops.py" source_line=756}
  %broadcast.415 = f32[64,1024]{1,0} broadcast(f32[] %constant.44), dimensions={}, metadata={op_type="aten__add" op_name="aten__add.1104/aten__add" source_file="/usr/local/lib/python3.10/site-packages/torch/_ops.py" source_line=756}
  %multiply.416 = f32[64,1024]{1,0} multiply(f32[64,1024]{1,0} %convert.363, f32[64,1024]{1,0} %broadcast.415), metadata={op_type="aten__add" op_name="aten__add.1104/aten__add" source_file="/usr/local/lib/python3.10/site-packages/torch/_ops.py" source_line=756}
  %add.417 = f32[64,1024]{1,0} add(f32[64,1024]{1,0} %convert.414, f32[64,1024]{1,0} %multiply.416), metadata={op_type="aten__add" op_name="aten__add.1104/aten__add" source_file="/usr/local/lib/python3.10/site-packages/torch/_ops.py" source_line=756}
  %convert.418 = bf16[64,1024]{1,0} convert(f32[64,1024]{1,0} %add.417), metadata={op_type="xla__cast" op_name="xla__cast" source_file="/usr/local/lib/python3.10/site-packages/torch/_ops.py" source_line=756}
  %convert.419 = f32[64,1024]{1,0} convert(bf16[64,1024]{1,0} %convert.418), metadata={op_type="xla__cast" op_name="xla__cast" source_file="/usr/local/lib/python3.10/site-packages/torch/_ops.py" source_line=756}
  %constant.43 = f32[] constant(1), metadata={op_type="prim__Constant" op_name="prim__Constant" source_file="/usr/local/lib/python3.10/site-packages/torch/_ops.py" source_line=756}
  %broadcast.431 = f32[64,1024]{1,0} broadcast(f32[] %constant.43), dimensions={}, metadata={op_type="aten__add" op_name="aten__add.1117/aten__add" source_file="/usr/local/lib/python3.10/site-packages/torch/_ops.py" source_line=756}
  %multiply.432 = f32[64,1024]{1,0} multiply(f32[64,1024]{1,0} %convert.419, f32[64,1024]{1,0} %broadcast.431), metadata={op_type="aten__add" op_name="aten__add.1117/aten__add" source_file="/usr/local/lib/python3.10/site-packages/torch/_ops.py" source_line=756}
  %add.433 = f32[64,1024]{1,0} add(f32[64,1024]{1,0} %convert.430, f32[64,1024]{1,0} %multiply.432), metadata={op_type="aten__add" op_name="aten__add.1117/aten__add" source_file="/usr/local/lib/python3.10/site-packages/torch/_ops.py" source_line=756}
  %constant.443 = f32[] constant(2), metadata={op_type="prim__Constant" op_name="prim__Constant" source_file="/usr/local/lib/python3.10/site-packages/torch/_ops.py" source_line=756}
  %broadcast.444 = f32[64,1024]{1,0} broadcast(f32[] %constant.443), dimensions={}, metadata={op_type="aten__pow" op_name="aten__pow" source_file="/usr/local/lib/python3.10/site-packages/torch/_ops.py" source_line=756}
  %power.445 = f32[64,1024]{1,0} power(f32[64,1024]{1,0} %add.433, f32[64,1024]{1,0} %broadcast.444), metadata={op_type="aten__pow" op_name="aten__pow" source_file="/usr/local/lib/python3.10/site-packages/torch/_ops.py" source_line=756}
  %constant.446 = f32[] constant(0), metadata={op_type="aten__mean" op_name="aten__mean" source_file="/usr/local/lib/python3.10/site-packages/torch/_ops.py" source_line=756}
  %reduce.452 = f32[64]{0} reduce(f32[64,1024]{1,0} %power.445, f32[] %constant.446), dimensions={1}, to_apply=%AddComputation.448, metadata={op_type="aten__mean" op_name="aten__mean" source_file="/usr/local/lib/python3.10/site-packages/torch/_ops.py" source_line=756}
  %constant.447 = s32[] constant(1024), metadata={op_type="aten__mean" op_name="aten__mean" source_file="/usr/local/lib/python3.10/site-packages/torch/_ops.py" source_line=756}
  %constant.453 = s32[] constant(0), metadata={op_type="aten__mean" op_name="aten__mean" source_file="/usr/local/lib/python3.10/site-packages/torch/_ops.py" source_line=756}
  %compare.458 = pred[] compare(s32[] %constant.447, s32[] %constant.453), direction=NE, metadata={op_type="aten__mean" op_name="aten__mean" source_file="/usr/local/lib/python3.10/site-packages/torch/_ops.py" source_line=756}
  %constant.454 = f32[] constant(1), metadata={op_type="aten__mean" op_name="aten__mean" source_file="/usr/local/lib/python3.10/site-packages/torch/_ops.py" source_line=756}
  %convert.456 = f32[] convert(s32[] %constant.447), metadata={op_type="aten__mean" op_name="aten__mean" source_file="/usr/local/lib/python3.10/site-packages/torch/_ops.py" source_line=756}
  %divide.457 = f32[] divide(f32[] %constant.454, f32[] %convert.456), metadata={op_type="aten__mean" op_name="aten__mean" source_file="/usr/local/lib/python3.10/site-packages/torch/_ops.py" source_line=756}
  %constant.455 = f32[] constant(nan), metadata={op_type="aten__mean" op_name="aten__mean" source_file="/usr/local/lib/python3.10/site-packages/torch/_ops.py" source_line=756}
  %select.459 = f32[] select(pred[] %compare.458, f32[] %divide.457, f32[] %constant.455), metadata={op_type="aten__mean" op_name="aten__mean" source_file="/usr/local/lib/python3.10/site-packages/torch/_ops.py" source_line=756}
  %broadcast.460 = f32[64]{0} broadcast(f32[] %select.459), dimensions={}, metadata={op_type="aten__mean" op_name="aten__mean" source_file="/usr/local/lib/python3.10/site-packages/torch/_ops.py" source_line=756}
  %multiply.461 = f32[64]{0} multiply(f32[64]{0} %reduce.452, f32[64]{0} %broadcast.460), metadata={op_type="aten__mean" op_name="aten__mean" source_file="/usr/local/lib/python3.10/site-packages/torch/_ops.py" source_line=756}
  %reshape.462 = f32[64,1]{1,0} reshape(f32[64]{0} %multiply.461), metadata={op_type="aten__mean" op_name="aten__mean" source_file="/usr/local/lib/python3.10/site-packages/torch/_ops.py" source_line=756}
  %convert.463 = f32[64,1]{1,0} convert(f32[64,1]{1,0} %reshape.462), metadata={op_type="aten__mean" op_name="aten__mean" source_file="/usr/local/lib/python3.10/site-packages/torch/_ops.py" source_line=756}
  %constant.442 = f32[] constant(1), metadata={op_type="prim__Constant" op_name="prim__Constant" source_file="/usr/local/lib/python3.10/site-packages/torch/_ops.py" source_line=756}
  %multiply.464 = f32[] multiply(f32[] %p1.4, f32[] %constant.442), metadata={op_type="aten__add" op_name="aten__add.1118/aten__add" source_file="/usr/local/lib/python3.10/site-packages/torch/_ops.py" source_line=756}
  %broadcast.465 = f32[64,1]{1,0} broadcast(f32[] %multiply.464), dimensions={}, metadata={op_type="aten__add" op_name="aten__add.1118/aten__add" source_file="/usr/local/lib/python3.10/site-packages/torch/_ops.py" source_line=756}
  %add.466 = f32[64,1]{1,0} add(f32[64,1]{1,0} %convert.463, f32[64,1]{1,0} %broadcast.465), metadata={op_type="aten__add" op_name="aten__add.1118/aten__add" source_file="/usr/local/lib/python3.10/site-packages/torch/_ops.py" source_line=756}
  %rsqrt.467 = f32[64,1]{1,0} rsqrt(f32[64,1]{1,0} %add.466), metadata={op_type="aten__rsqrt" op_name="aten__rsqrt" source_file="/usr/local/lib/python3.10/site-packages/torch/_ops.py" source_line=756}
  %reshape.468 = f32[64]{0} reshape(f32[64,1]{1,0} %rsqrt.467), metadata={op_type="aten__mul" op_name="aten__mul.1119/aten__mul" source_file="/usr/local/lib/python3.10/site-packages/torch/_ops.py" source_line=756}
  %broadcast.469 = f32[64,1024]{1,0} broadcast(f32[64]{0} %reshape.468), dimensions={0}, metadata={op_type="aten__mul" op_name="aten__mul.1119/aten__mul" source_file="/usr/local/lib/python3.10/site-packages/torch/_ops.py" source_line=756}
  %multiply.470 = f32[64,1024]{1,0} multiply(f32[64,1024]{1,0} %add.433, f32[64,1024]{1,0} %broadcast.469), metadata={op_type="aten__mul" op_name="aten__mul.1119/aten__mul" source_file="/usr/local/lib/python3.10/site-packages/torch/_ops.py" source_line=756}
  %convert.471 = bf16[64,1024]{1,0} convert(f32[64,1024]{1,0} %multiply.470), metadata={op_type="xla__cast" op_name="xla__cast" source_file="/usr/local/lib/python3.10/site-packages/torch/_ops.py" source_line=756}
  %convert.472 = f32[64,1024]{1,0} convert(bf16[64,1024]{1,0} %convert.471), metadata={op_type="xla__cast" op_name="xla__cast" source_file="/usr/local/lib/python3.10/site-packages/torch/_ops.py" source_line=756}
  %p29.440 = bf16[1024]{0} parameter(29), metadata={op_type="xla__device_data" op_name="xla__device_data" source_file="/usr/local/lib/python3.10/site-packages/torch_xla/_dynamo/dynamo_bridge.py" source_line=355}
  %convert.441 = f32[1024]{0} convert(bf16[1024]{0} %p29.440), metadata={op_type="xla__cast" op_name="xla__cast" source_file="/usr/local/lib/python3.10/site-packages/torch/_ops.py" source_line=756}
  %broadcast.473 = f32[64,1024]{1,0} broadcast(f32[1024]{0} %convert.441), dimensions={1}, metadata={op_type="aten__mul" op_name="aten__mul.1120/aten__mul" source_file="/usr/local/lib/python3.10/site-packages/torch/_ops.py" source_line=756}
  %multiply.474 = f32[64,1024]{1,0} multiply(f32[64,1024]{1,0} %convert.472, f32[64,1024]{1,0} %broadcast.473), metadata={op_type="aten__mul" op_name="aten__mul.1120/aten__mul" source_file="/usr/local/lib/python3.10/site-packages/torch/_ops.py" source_line=756}
  %convert.475 = bf16[64,1024]{1,0} convert(f32[64,1024]{1,0} %multiply.474), metadata={op_type="xla__cast" op_name="xla__cast" source_file="/usr/local/lib/python3.10/site-packages/torch/_ops.py" source_line=756}
  %p28.438 = bf16[6144,1024]{1,0} parameter(28), metadata={op_type="xla__device_data" op_name="xla__device_data" source_file="/usr/local/lib/python3.10/site-packages/torch_xla/_dynamo/dynamo_bridge.py" source_line=355}
  %transpose.439 = bf16[1024,6144]{0,1} transpose(bf16[6144,1024]{1,0} %p28.438), dimensions={1,0}, metadata={op_type="aten__permute" op_name="aten__permute" source_file="/usr/local/lib/python3.10/site-packages/torch/_ops.py" source_line=756}
  %dot.476 = bf16[64,6144]{1,0} dot(bf16[64,1024]{1,0} %convert.475, bf16[1024,6144]{0,1} %transpose.439), lhs_contracting_dims={1}, rhs_contracting_dims={0}, metadata={op_type="aten__mm" op_name="aten__mm" source_file="/usr/local/lib/python3.10/site-packages/torch/_ops.py" source_line=756}
  %slice.479 = bf16[64,3072]{1,0} slice(bf16[64,6144]{1,0} %dot.476), slice={[0:64], [0:3072]}, metadata={op_type="xla__select" op_name="xla__select" source_file="/usr/local/lib/python3.10/site-packages/torch/_ops.py" source_line=756}
  %logistic.480 = bf16[64,3072]{1,0} logistic(bf16[64,3072]{1,0} %slice.479), metadata={op_type="aten__silu" op_name="aten__silu" source_file="/usr/local/lib/python3.10/site-packages/torch/_ops.py" source_line=756}
  %multiply.481 = bf16[64,3072]{1,0} multiply(bf16[64,3072]{1,0} %slice.479, bf16[64,3072]{1,0} %logistic.480), metadata={op_type="aten__silu" op_name="aten__silu" source_file="/usr/local/lib/python3.10/site-packages/torch/_ops.py" source_line=756}
  %convert.482 = f32[64,3072]{1,0} convert(bf16[64,3072]{1,0} %multiply.481), metadata={op_type="xla__cast" op_name="xla__cast" source_file="/usr/local/lib/python3.10/site-packages/torch/_ops.py" source_line=756}
  %slice.477 = bf16[64,3072]{1,0} slice(bf16[64,6144]{1,0} %dot.476), slice={[0:64], [3072:6144]}, metadata={op_type="xla__select" op_name="xla__select" source_file="/usr/local/lib/python3.10/site-packages/torch/_ops.py" source_line=756}
  %convert.478 = f32[64,3072]{1,0} convert(bf16[64,3072]{1,0} %slice.477), metadata={op_type="xla__cast" op_name="xla__cast" source_file="/usr/local/lib/python3.10/site-packages/torch/_ops.py" source_line=756}
  %multiply.483 = f32[64,3072]{1,0} multiply(f32[64,3072]{1,0} %convert.482, f32[64,3072]{1,0} %convert.478), metadata={op_type="aten__mul" op_name="aten__mul.1121/aten__mul" source_file="/usr/local/lib/python3.10/site-packages/torch/_ops.py" source_line=756}
  %convert.484 = bf16[64,3072]{1,0} convert(f32[64,3072]{1,0} %multiply.483), metadata={op_type="xla__cast" op_name="xla__cast" source_file="/usr/local/lib/python3.10/site-packages/torch/_ops.py" source_line=756}
  %p27.436 = bf16[1024,3072]{1,0} parameter(27), metadata={op_type="xla__device_data" op_name="xla__device_data" source_file="/usr/local/lib/python3.10/site-packages/torch_xla/_dynamo/dynamo_bridge.py" source_line=355}
  %transpose.437 = bf16[3072,1024]{0,1} transpose(bf16[1024,3072]{1,0} %p27.436), dimensions={1,0}, metadata={op_type="aten__permute" op_name="aten__permute" source_file="/usr/local/lib/python3.10/site-packages/torch/_ops.py" source_line=756}
  %dot.485 = bf16[64,1024]{1,0} dot(bf16[64,3072]{1,0} %convert.484, bf16[3072,1024]{0,1} %transpose.437), lhs_contracting_dims={1}, rhs_contracting_dims={0}, metadata={op_type="aten__mm" op_name="aten__mm" source_file="/usr/local/lib/python3.10/site-packages/torch/_ops.py" source_line=756}
  %convert.486 = f32[64,1024]{1,0} convert(bf16[64,1024]{1,0} %dot.485), metadata={op_type="xla__cast" op_name="xla__cast" source_file="/usr/local/lib/python3.10/site-packages/torch/_ops.py" source_line=756}
  %convert.434 = bf16[64,1024]{1,0} convert(f32[64,1024]{1,0} %add.433), metadata={op_type="xla__cast" op_name="xla__cast" source_file="/usr/local/lib/python3.10/site-packages/torch/_ops.py" source_line=756}
  %convert.435 = f32[64,1024]{1,0} convert(bf16[64,1024]{1,0} %convert.434), metadata={op_type="xla__cast" op_name="xla__cast" source_file="/usr/local/lib/python3.10/site-packages/torch/_ops.py" source_line=756}
  %constant.42 = f32[] constant(1), metadata={op_type="prim__Constant" op_name="prim__Constant" source_file="/usr/local/lib/python3.10/site-packages/torch/_ops.py" source_line=756}
  %broadcast.487 = f32[64,1024]{1,0} broadcast(f32[] %constant.42), dimensions={}, metadata={op_type="aten__add" op_name="aten__add.1122/aten__add" source_file="/usr/local/lib/python3.10/site-packages/torch/_ops.py" source_line=756}
  %multiply.488 = f32[64,1024]{1,0} multiply(f32[64,1024]{1,0} %convert.435, f32[64,1024]{1,0} %broadcast.487), metadata={op_type="aten__add" op_name="aten__add.1122/aten__add" source_file="/usr/local/lib/python3.10/site-packages/torch/_ops.py" source_line=756}
  %add.489 = f32[64,1024]{1,0} add(f32[64,1024]{1,0} %convert.486, f32[64,1024]{1,0} %multiply.488), metadata={op_type="aten__add" op_name="aten__add.1122/aten__add" source_file="/usr/local/lib/python3.10/site-packages/torch/_ops.py" source_line=756}
  %convert.490 = bf16[64,1024]{1,0} convert(f32[64,1024]{1,0} %add.489), metadata={op_type="xla__cast" op_name="xla__cast" source_file="/usr/local/lib/python3.10/site-packages/torch/_ops.py" source_line=756}
  %convert.491 = f32[64,1024]{1,0} convert(bf16[64,1024]{1,0} %convert.490), metadata={op_type="xla__cast" op_name="xla__cast" source_file="/usr/local/lib/python3.10/site-packages/torch/_ops.py" source_line=756}
  %constant.41 = f32[] constant(1), metadata={op_type="prim__Constant" op_name="prim__Constant" source_file="/usr/local/lib/python3.10/site-packages/torch/_ops.py" source_line=756}
  %broadcast.503 = f32[64,1024]{1,0} broadcast(f32[] %constant.41), dimensions={}, metadata={op_type="aten__add" op_name="aten__add.1135/aten__add" source_file="/usr/local/lib/python3.10/site-packages/torch/_ops.py" source_line=756}
  %multiply.504 = f32[64,1024]{1,0} multiply(f32[64,1024]{1,0} %convert.491, f32[64,1024]{1,0} %broadcast.503), metadata={op_type="aten__add" op_name="aten__add.1135/aten__add" source_file="/usr/local/lib/python3.10/site-packages/torch/_ops.py" source_line=756}
  %add.505 = f32[64,1024]{1,0} add(f32[64,1024]{1,0} %convert.502, f32[64,1024]{1,0} %multiply.504), metadata={op_type="aten__add" op_name="aten__add.1135/aten__add" source_file="/usr/local/lib/python3.10/site-packages/torch/_ops.py" source_line=756}
  %constant.515 = f32[] constant(2), metadata={op_type="prim__Constant" op_name="prim__Constant" source_file="/usr/local/lib/python3.10/site-packages/torch/_ops.py" source_line=756}
  %broadcast.516 = f32[64,1024]{1,0} broadcast(f32[] %constant.515), dimensions={}, metadata={op_type="aten__pow" op_name="aten__pow" source_file="/usr/local/lib/python3.10/site-packages/torch/_ops.py" source_line=756}
  %power.517 = f32[64,1024]{1,0} power(f32[64,1024]{1,0} %add.505, f32[64,1024]{1,0} %broadcast.516), metadata={op_type="aten__pow" op_name="aten__pow" source_file="/usr/local/lib/python3.10/site-packages/torch/_ops.py" source_line=756}
  %constant.518 = f32[] constant(0), metadata={op_type="aten__mean" op_name="aten__mean" source_file="/usr/local/lib/python3.10/site-packages/torch/_ops.py" source_line=756}
  %reduce.524 = f32[64]{0} reduce(f32[64,1024]{1,0} %power.517, f32[] %constant.518), dimensions={1}, to_apply=%AddComputation.520, metadata={op_type="aten__mean" op_name="aten__mean" source_file="/usr/local/lib/python3.10/site-packages/torch/_ops.py" source_line=756}
  %constant.519 = s32[] constant(1024), metadata={op_type="aten__mean" op_name="aten__mean" source_file="/usr/local/lib/python3.10/site-packages/torch/_ops.py" source_line=756}
  %constant.525 = s32[] constant(0), metadata={op_type="aten__mean" op_name="aten__mean" source_file="/usr/local/lib/python3.10/site-packages/torch/_ops.py" source_line=756}
  %compare.530 = pred[] compare(s32[] %constant.519, s32[] %constant.525), direction=NE, metadata={op_type="aten__mean" op_name="aten__mean" source_file="/usr/local/lib/python3.10/site-packages/torch/_ops.py" source_line=756}
  %constant.526 = f32[] constant(1), metadata={op_type="aten__mean" op_name="aten__mean" source_file="/usr/local/lib/python3.10/site-packages/torch/_ops.py" source_line=756}
  %convert.528 = f32[] convert(s32[] %constant.519), metadata={op_type="aten__mean" op_name="aten__mean" source_file="/usr/local/lib/python3.10/site-packages/torch/_ops.py" source_line=756}
  %divide.529 = f32[] divide(f32[] %constant.526, f32[] %convert.528), metadata={op_type="aten__mean" op_name="aten__mean" source_file="/usr/local/lib/python3.10/site-packages/torch/_ops.py" source_line=756}
  %constant.527 = f32[] constant(nan), metadata={op_type="aten__mean" op_name="aten__mean" source_file="/usr/local/lib/python3.10/site-packages/torch/_ops.py" source_line=756}
  %select.531 = f32[] select(pred[] %compare.530, f32[] %divide.529, f32[] %constant.527), metadata={op_type="aten__mean" op_name="aten__mean" source_file="/usr/local/lib/python3.10/site-packages/torch/_ops.py" source_line=756}
  %broadcast.532 = f32[64]{0} broadcast(f32[] %select.531), dimensions={}, metadata={op_type="aten__mean" op_name="aten__mean" source_file="/usr/local/lib/python3.10/site-packages/torch/_ops.py" source_line=756}
  %multiply.533 = f32[64]{0} multiply(f32[64]{0} %reduce.524, f32[64]{0} %broadcast.532), metadata={op_type="aten__mean" op_name="aten__mean" source_file="/usr/local/lib/python3.10/site-packages/torch/_ops.py" source_line=756}
  %reshape.534 = f32[64,1]{1,0} reshape(f32[64]{0} %multiply.533), metadata={op_type="aten__mean" op_name="aten__mean" source_file="/usr/local/lib/python3.10/site-packages/torch/_ops.py" source_line=756}
  %convert.535 = f32[64,1]{1,0} convert(f32[64,1]{1,0} %reshape.534), metadata={op_type="aten__mean" op_name="aten__mean" source_file="/usr/local/lib/python3.10/site-packages/torch/_ops.py" source_line=756}
  %constant.514 = f32[] constant(1), metadata={op_type="prim__Constant" op_name="prim__Constant" source_file="/usr/local/lib/python3.10/site-packages/torch/_ops.py" source_line=756}
  %multiply.536 = f32[] multiply(f32[] %p1.4, f32[] %constant.514), metadata={op_type="aten__add" op_name="aten__add.1136/aten__add" source_file="/usr/local/lib/python3.10/site-packages/torch/_ops.py" source_line=756}
  %broadcast.537 = f32[64,1]{1,0} broadcast(f32[] %multiply.536), dimensions={}, metadata={op_type="aten__add" op_name="aten__add.1136/aten__add" source_file="/usr/local/lib/python3.10/site-packages/torch/_ops.py" source_line=756}
  %add.538 = f32[64,1]{1,0} add(f32[64,1]{1,0} %convert.535, f32[64,1]{1,0} %broadcast.537), metadata={op_type="aten__add" op_name="aten__add.1136/aten__add" source_file="/usr/local/lib/python3.10/site-packages/torch/_ops.py" source_line=756}
  %rsqrt.539 = f32[64,1]{1,0} rsqrt(f32[64,1]{1,0} %add.538), metadata={op_type="aten__rsqrt" op_name="aten__rsqrt" source_file="/usr/local/lib/python3.10/site-packages/torch/_ops.py" source_line=756}
  %reshape.540 = f32[64]{0} reshape(f32[64,1]{1,0} %rsqrt.539), metadata={op_type="aten__mul" op_name="aten__mul.1137/aten__mul" source_file="/usr/local/lib/python3.10/site-packages/torch/_ops.py" source_line=756}
  %broadcast.541 = f32[64,1024]{1,0} broadcast(f32[64]{0} %reshape.540), dimensions={0}, metadata={op_type="aten__mul" op_name="aten__mul.1137/aten__mul" source_file="/usr/local/lib/python3.10/site-packages/torch/_ops.py" source_line=756}
  %multiply.542 = f32[64,1024]{1,0} multiply(f32[64,1024]{1,0} %add.505, f32[64,1024]{1,0} %broadcast.541), metadata={op_type="aten__mul" op_name="aten__mul.1137/aten__mul" source_file="/usr/local/lib/python3.10/site-packages/torch/_ops.py" source_line=756}
  %convert.543 = bf16[64,1024]{1,0} convert(f32[64,1024]{1,0} %multiply.542), metadata={op_type="xla__cast" op_name="xla__cast" source_file="/usr/local/lib/python3.10/site-packages/torch/_ops.py" source_line=756}
  %convert.544 = f32[64,1024]{1,0} convert(bf16[64,1024]{1,0} %convert.543), metadata={op_type="xla__cast" op_name="xla__cast" source_file="/usr/local/lib/python3.10/site-packages/torch/_ops.py" source_line=756}
  %p33.512 = bf16[1024]{0} parameter(33), metadata={op_type="xla__device_data" op_name="xla__device_data" source_file="/usr/local/lib/python3.10/site-packages/torch_xla/_dynamo/dynamo_bridge.py" source_line=355}
  %convert.513 = f32[1024]{0} convert(bf16[1024]{0} %p33.512), metadata={op_type="xla__cast" op_name="xla__cast" source_file="/usr/local/lib/python3.10/site-packages/torch/_ops.py" source_line=756}
  %broadcast.545 = f32[64,1024]{1,0} broadcast(f32[1024]{0} %convert.513), dimensions={1}, metadata={op_type="aten__mul" op_name="aten__mul.1138/aten__mul" source_file="/usr/local/lib/python3.10/site-packages/torch/_ops.py" source_line=756}
  %multiply.546 = f32[64,1024]{1,0} multiply(f32[64,1024]{1,0} %convert.544, f32[64,1024]{1,0} %broadcast.545), metadata={op_type="aten__mul" op_name="aten__mul.1138/aten__mul" source_file="/usr/local/lib/python3.10/site-packages/torch/_ops.py" source_line=756}
  %convert.547 = bf16[64,1024]{1,0} convert(f32[64,1024]{1,0} %multiply.546), metadata={op_type="xla__cast" op_name="xla__cast" source_file="/usr/local/lib/python3.10/site-packages/torch/_ops.py" source_line=756}
  %p32.510 = bf16[6144,1024]{1,0} parameter(32), metadata={op_type="xla__device_data" op_name="xla__device_data" source_file="/usr/local/lib/python3.10/site-packages/torch_xla/_dynamo/dynamo_bridge.py" source_line=355}
  %transpose.511 = bf16[1024,6144]{0,1} transpose(bf16[6144,1024]{1,0} %p32.510), dimensions={1,0}, metadata={op_type="aten__permute" op_name="aten__permute" source_file="/usr/local/lib/python3.10/site-packages/torch/_ops.py" source_line=756}
  %dot.548 = bf16[64,6144]{1,0} dot(bf16[64,1024]{1,0} %convert.547, bf16[1024,6144]{0,1} %transpose.511), lhs_contracting_dims={1}, rhs_contracting_dims={0}, metadata={op_type="aten__mm" op_name="aten__mm" source_file="/usr/local/lib/python3.10/site-packages/torch/_ops.py" source_line=756}
  %slice.551 = bf16[64,3072]{1,0} slice(bf16[64,6144]{1,0} %dot.548), slice={[0:64], [0:3072]}, metadata={op_type="xla__select" op_name="xla__select" source_file="/usr/local/lib/python3.10/site-packages/torch/_ops.py" source_line=756}
  %logistic.552 = bf16[64,3072]{1,0} logistic(bf16[64,3072]{1,0} %slice.551), metadata={op_type="aten__silu" op_name="aten__silu" source_file="/usr/local/lib/python3.10/site-packages/torch/_ops.py" source_line=756}
  %multiply.553 = bf16[64,3072]{1,0} multiply(bf16[64,3072]{1,0} %slice.551, bf16[64,3072]{1,0} %logistic.552), metadata={op_type="aten__silu" op_name="aten__silu" source_file="/usr/local/lib/python3.10/site-packages/torch/_ops.py" source_line=756}
  %convert.554 = f32[64,3072]{1,0} convert(bf16[64,3072]{1,0} %multiply.553), metadata={op_type="xla__cast" op_name="xla__cast" source_file="/usr/local/lib/python3.10/site-packages/torch/_ops.py" source_line=756}
…
  %multiply.1478 = f32[64,1024]{1,0} multiply(f32[64,1024]{1,0} %add.1441, f32[64,1024]{1,0} %broadcast.1477), metadata={op_type="aten__mul" op_name="aten__mul.1371/aten__mul" source_file="/usr/local/lib/python3.10/site-packages/torch/_ops.py" source_line=756}
  %convert.1479 = bf16[64,1024]{1,0} convert(f32[64,1024]{1,0} %multiply.1478), metadata={op_type="xla__cast" op_name="xla__cast" source_file="/usr/local/lib/python3.10/site-packages/torch/_ops.py" source_line=756}
  %convert.1480 = f32[64,1024]{1,0} convert(bf16[64,1024]{1,0} %convert.1479), metadata={op_type="xla__cast" op_name="xla__cast" source_file="/usr/local/lib/python3.10/site-packages/torch/_ops.py" source_line=756}
  %p85.1448 = bf16[1024]{0} parameter(85), metadata={op_type="xla__device_data" op_name="xla__device_data" source_file="/usr/local/lib/python3.10/site-packages/torch_xla/_dynamo/dynamo_bridge.py" source_line=355}
  %convert.1449 = f32[1024]{0} convert(bf16[1024]{0} %p85.1448), metadata={op_type="xla__cast" op_name="xla__cast" source_file="/usr/local/lib/python3.10/site-packages/torch/_ops.py" source_line=756}
  %broadcast.1481 = f32[64,1024]{1,0} broadcast(f32[1024]{0} %convert.1449), dimensions={1}, metadata={op_type="aten__mul" op_name="aten__mul.1372/aten__mul" source_file="/usr/local/lib/python3.10/site-packages/torch/_ops.py" source_line=756}
  %multiply.1482 = f32[64,1024]{1,0} multiply(f32[64,1024]{1,0} %convert.1480, f32[64,1024]{1,0} %broadcast.1481), metadata={op_type="aten__mul" op_name="aten__mul.1372/aten__mul" source_file="/usr/local/lib/python3.10/site-packages/torch/_ops.py" source_line=756}
  %convert.1483 = bf16[64,1024]{1,0} convert(f32[64,1024]{1,0} %multiply.1482), metadata={op_type="xla__cast" op_name="xla__cast" source_file="/usr/local/lib/python3.10/site-packages/torch/_ops.py" source_line=756}
  %p84.1446 = bf16[6144,1024]{1,0} parameter(84), metadata={op_type="xla__device_data" op_name="xla__device_data" source_file="/usr/local/lib/python3.10/site-packages/torch_xla/_dynamo/dynamo_bridge.py" source_line=355}
  %transpose.1447 = bf16[1024,6144]{0,1} transpose(bf16[6144,1024]{1,0} %p84.1446), dimensions={1,0}, metadata={op_type="aten__permute" op_name="aten__permute" source_file="/usr/local/lib/python3.10/site-packages/torch/_ops.py" source_line=756}
  %dot.1484 = bf16[64,6144]{1,0} dot(bf16[64,1024]{1,0} %convert.1483, bf16[1024,6144]{0,1} %transpose.1447), lhs_contracting_dims={1}, rhs_contracting_dims={0}, metadata={op_type="aten__mm" op_name="aten__mm" source_file="/usr/local/lib/python3.10/site-packages/torch/_ops.py" source_line=756}
  %slice.1487 = bf16[64,3072]{1,0} slice(bf16[64,6144]{1,0} %dot.1484), slice={[0:64], [0:3072]}, metadata={op_type="xla__select" op_name="xla__select" source_file="/usr/local/lib/python3.10/site-packages/torch/_ops.py" source_line=756}
  %logistic.1488 = bf16[64,3072]{1,0} logistic(bf16[64,3072]{1,0} %slice.1487), metadata={op_type="aten__silu" op_name="aten__silu" source_file="/usr/local/lib/python3.10/site-packages/torch/_ops.py" source_line=756}
  %multiply.1489 = bf16[64,3072]{1,0} multiply(bf16[64,3072]{1,0} %slice.1487, bf16[64,3072]{1,0} %logistic.1488), metadata={op_type="aten__silu" op_name="aten__silu" source_file="/usr/local/lib/python3.10/site-packages/torch/_ops.py" source_line=756}
  %convert.1490 = f32[64,3072]{1,0} convert(bf16[64,3072]{1,0} %multiply.1489), metadata={op_type="xla__cast" op_name="xla__cast" source_file="/usr/local/lib/python3.10/site-packages/torch/_ops.py" source_line=756}
  %slice.1485 = bf16[64,3072]{1,0} slice(bf16[64,6144]{1,0} %dot.1484), slice={[0:64], [3072:6144]}, metadata={op_type="xla__select" op_name="xla__select" source_file="/usr/local/lib/python3.10/site-packages/torch/_ops.py" source_line=756}
  %convert.1486 = f32[64,3072]{1,0} convert(bf16[64,3072]{1,0} %slice.1485), metadata={op_type="xla__cast" op_name="xla__cast" source_file="/usr/local/lib/python3.10/site-packages/torch/_ops.py" source_line=756}
  %multiply.1491 = f32[64,3072]{1,0} multiply(f32[64,3072]{1,0} %convert.1490, f32[64,3072]{1,0} %convert.1486), metadata={op_type="aten__mul" op_name="aten__mul.1373/aten__mul" source_file="/usr/local/lib/python3.10/site-packages/torch/_ops.py" source_line=756}
  %convert.1492 = bf16[64,3072]{1,0} convert(f32[64,3072]{1,0} %multiply.1491), metadata={op_type="xla__cast" op_name="xla__cast" source_file="/usr/local/lib/python3.10/site-packages/torch/_ops.py" source_line=756}
  %p83.1444 = bf16[1024,3072]{1,0} parameter(83), metadata={op_type="xla__device_data" op_name="xla__device_data" source_file="/usr/local/lib/python3.10/site-packages/torch_xla/_dynamo/dynamo_bridge.py" source_line=355}
  %transpose.1445 = bf16[3072,1024]{0,1} transpose(bf16[1024,3072]{1,0} %p83.1444), dimensions={1,0}, metadata={op_type="aten__permute" op_name="aten__permute" source_file="/usr/local/lib/python3.10/site-packages/torch/_ops.py" source_line=756}
  %dot.1493 = bf16[64,1024]{1,0} dot(bf16[64,3072]{1,0} %convert.1492, bf16[3072,1024]{0,1} %transpose.1445), lhs_contracting_dims={1}, rhs_contracting_dims={0}, metadata={op_type="aten__mm" op_name="aten__mm" source_file="/usr/local/lib/python3.10/site-packages/torch/_ops.py" source_line=756}
  %convert.1494 = f32[64,1024]{1,0} convert(bf16[64,1024]{1,0} %dot.1493), metadata={op_type="xla__cast" op_name="xla__cast" source_file="/usr/local/lib/python3.10/site-packages/torch/_ops.py" source_line=756}
  %convert.1442 = bf16[64,1024]{1,0} convert(f32[64,1024]{1,0} %add.1441), metadata={op_type="xla__cast" op_name="xla__cast" source_file="/usr/local/lib/python3.10/site-packages/torch/_ops.py" source_line=756}
  %convert.1443 = f32[64,1024]{1,0} convert(bf16[64,1024]{1,0} %convert.1442), metadata={op_type="xla__cast" op_name="xla__cast" source_file="/usr/local/lib/python3.10/site-packages/torch/_ops.py" source_line=756}
  %constant.14 = f32[] constant(1), metadata={op_type="prim__Constant" op_name="prim__Constant" source_file="/usr/local/lib/python3.10/site-packages/torch/_ops.py" source_line=756}
  %broadcast.1495 = f32[64,1024]{1,0} broadcast(f32[] %constant.14), dimensions={}, metadata={op_type="aten__add" op_name="aten__add.1374/aten__add" source_file="/usr/local/lib/python3.10/site-packages/torch/_ops.py" source_line=756}
  %multiply.1496 = f32[64,1024]{1,0} multiply(f32[64,1024]{1,0} %convert.1443, f32[64,1024]{1,0} %broadcast.1495), metadata={op_type="aten__add" op_name="aten__add.1374/aten__add" source_file="/usr/local/lib/python3.10/site-packages/torch/_ops.py" source_line=756}
  %add.1497 = f32[64,1024]{1,0} add(f32[64,1024]{1,0} %convert.1494, f32[64,1024]{1,0} %multiply.1496), metadata={op_type="aten__add" op_name="aten__add.1374/aten__add" source_file="/usr/local/lib/python3.10/site-packages/torch/_ops.py" source_line=756}
  %convert.1498 = bf16[64,1024]{1,0} convert(f32[64,1024]{1,0} %add.1497), metadata={op_type="xla__cast" op_name="xla__cast" source_file="/usr/local/lib/python3.10/site-packages/torch/_ops.py" source_line=756}
  %convert.1499 = f32[64,1024]{1,0} convert(bf16[64,1024]{1,0} %convert.1498), metadata={op_type="xla__cast" op_name="xla__cast" source_file="/usr/local/lib/python3.10/site-packages/torch/_ops.py" source_line=756}
  %constant.13 = f32[] constant(1), metadata={op_type="prim__Constant" op_name="prim__Constant" source_file="/usr/local/lib/python3.10/site-packages/torch/_ops.py" source_line=756}
  %broadcast.1511 = f32[64,1024]{1,0} broadcast(f32[] %constant.13), dimensions={}, metadata={op_type="aten__add" op_name="aten__add.1387/aten__add" source_file="/usr/local/lib/python3.10/site-packages/torch/_ops.py" source_line=756}
  %multiply.1512 = f32[64,1024]{1,0} multiply(f32[64,1024]{1,0} %convert.1499, f32[64,1024]{1,0} %broadcast.1511), metadata={op_type="aten__add" op_name="aten__add.1387/aten__add" source_file="/usr/local/lib/python3.10/site-packages/torch/_ops.py" source_line=756}
  %add.1513 = f32[64,1024]{1,0} add(f32[64,1024]{1,0} %convert.1510, f32[64,1024]{1,0} %multiply.1512), metadata={op_type="aten__add" op_name="aten__add.1387/aten__add" source_file="/usr/local/lib/python3.10/site-packages/torch/_ops.py" source_line=756}
  %constant.1523 = f32[] constant(2), metadata={op_type="prim__Constant" op_name="prim__Constant" source_file="/usr/local/lib/python3.10/site-packages/torch/_ops.py" source_line=756}
  %broadcast.1524 = f32[64,1024]{1,0} broadcast(f32[] %constant.1523), dimensions={}, metadata={op_type="aten__pow" op_name="aten__pow" source_file="/usr/local/lib/python3.10/site-packages/torch/_ops.py" source_line=756}
  %power.1525 = f32[64,1024]{1,0} power(f32[64,1024]{1,0} %add.1513, f32[64,1024]{1,0} %broadcast.1524), metadata={op_type="aten__pow" op_name="aten__pow" source_file="/usr/local/lib/python3.10/site-packages/torch/_ops.py" source_line=756}
  %constant.1526 = f32[] constant(0), metadata={op_type="aten__mean" op_name="aten__mean" source_file="/usr/local/lib/python3.10/site-packages/torch/_ops.py" source_line=756}
  %reduce.1532 = f32[64]{0} reduce(f32[64,1024]{1,0} %power.1525, f32[] %constant.1526), dimensions={1}, to_apply=%AddComputation.1528, metadata={op_type="aten__mean" op_name="aten__mean" source_file="/usr/local/lib/python3.10/site-packages/torch/_ops.py" source_line=756}
  %constant.1527 = s32[] constant(1024), metadata={op_type="aten__mean" op_name="aten__mean" source_file="/usr/local/lib/python3.10/site-packages/torch/_ops.py" source_line=756}
  %constant.1533 = s32[] constant(0), metadata={op_type="aten__mean" op_name="aten__mean" source_file="/usr/local/lib/python3.10/site-packages/torch/_ops.py" source_line=756}
  %compare.1538 = pred[] compare(s32[] %constant.1527, s32[] %constant.1533), direction=NE, metadata={op_type="aten__mean" op_name="aten__mean" source_file="/usr/local/lib/python3.10/site-packages/torch/_ops.py" source_line=756}
  %constant.1534 = f32[] constant(1), metadata={op_type="aten__mean" op_name="aten__mean" source_file="/usr/local/lib/python3.10/site-packages/torch/_ops.py" source_line=756}
  %convert.1536 = f32[] convert(s32[] %constant.1527), metadata={op_type="aten__mean" op_name="aten__mean" source_file="/usr/local/lib/python3.10/site-packages/torch/_ops.py" source_line=756}
  %divide.1537 = f32[] divide(f32[] %constant.1534, f32[] %convert.1536), metadata={op_type="aten__mean" op_name="aten__mean" source_file="/usr/local/lib/python3.10/site-packages/torch/_ops.py" source_line=756}
  %constant.1535 = f32[] constant(nan), metadata={op_type="aten__mean" op_name="aten__mean" source_file="/usr/local/lib/python3.10/site-packages/torch/_ops.py" source_line=756}
  %select.1539 = f32[] select(pred[] %compare.1538, f32[] %divide.1537, f32[] %constant.1535), metadata={op_type="aten__mean" op_name="aten__mean" source_file="/usr/local/lib/python3.10/site-packages/torch/_ops.py" source_line=756}
  %broadcast.1540 = f32[64]{0} broadcast(f32[] %select.1539), dimensions={}, metadata={op_type="aten__mean" op_name="aten__mean" source_file="/usr/local/lib/python3.10/site-packages/torch/_ops.py" source_line=756}
  %multiply.1541 = f32[64]{0} multiply(f32[64]{0} %reduce.1532, f32[64]{0} %broadcast.1540), metadata={op_type="aten__mean" op_name="aten__mean" source_file="/usr/local/lib/python3.10/site-packages/torch/_ops.py" source_line=756}
  %reshape.1542 = f32[64,1]{1,0} reshape(f32[64]{0} %multiply.1541), metadata={op_type="aten__mean" op_name="aten__mean" source_file="/usr/local/lib/python3.10/site-packages/torch/_ops.py" source_line=756}
  %convert.1543 = f32[64,1]{1,0} convert(f32[64,1]{1,0} %reshape.1542), metadata={op_type="aten__mean" op_name="aten__mean" source_file="/usr/local/lib/python3.10/site-packages/torch/_ops.py" source_line=756}
  %constant.1522 = f32[] constant(1), metadata={op_type="prim__Constant" op_name="prim__Constant" source_file="/usr/local/lib/python3.10/site-packages/torch/_ops.py" source_line=756}
  %multiply.1544 = f32[] multiply(f32[] %p1.4, f32[] %constant.1522), metadata={op_type="aten__add" op_name="aten__add.1388/aten__add" source_file="/usr/local/lib/python3.10/site-packages/torch/_ops.py" source_line=756}
  %broadcast.1545 = f32[64,1]{1,0} broadcast(f32[] %multiply.1544), dimensions={}, metadata={op_type="aten__add" op_name="aten__add.1388/aten__add" source_file="/usr/local/lib/python3.10/site-packages/torch/_ops.py" source_line=756}
  %add.1546 = f32[64,1]{1,0} add(f32[64,1]{1,0} %convert.1543, f32[64,1]{1,0} %broadcast.1545), metadata={op_type="aten__add" op_name="aten__add.1388/aten__add" source_file="/usr/local/lib/python3.10/site-packages/torch/_ops.py" source_line=756}
  %rsqrt.1547 = f32[64,1]{1,0} rsqrt(f32[64,1]{1,0} %add.1546), metadata={op_type="aten__rsqrt" op_name="aten__rsqrt" source_file="/usr/local/lib/python3.10/site-packages/torch/_ops.py" source_line=756}
  %reshape.1548 = f32[64]{0} reshape(f32[64,1]{1,0} %rsqrt.1547), metadata={op_type="aten__mul" op_name="aten__mul.1389/aten__mul" source_file="/usr/local/lib/python3.10/site-packages/torch/_ops.py" source_line=756}
  %broadcast.1549 = f32[64,1024]{1,0} broadcast(f32[64]{0} %reshape.1548), dimensions={0}, metadata={op_type="aten__mul" op_name="aten__mul.1389/aten__mul" source_file="/usr/local/lib/python3.10/site-packages/torch/_ops.py" source_line=756}
  %multiply.1550 = f32[64,1024]{1,0} multiply(f32[64,1024]{1,0} %add.1513, f32[64,1024]{1,0} %broadcast.1549), metadata={op_type="aten__mul" op_name="aten__mul.1389/aten__mul" source_file="/usr/local/lib/python3.10/site-packages/torch/_ops.py" source_line=756}
  %convert.1551 = bf16[64,1024]{1,0} convert(f32[64,1024]{1,0} %multiply.1550), metadata={op_type="xla__cast" op_name="xla__cast" source_file="/usr/local/lib/python3.10/site-packages/torch/_ops.py" source_line=756}
  %convert.1552 = f32[64,1024]{1,0} convert(bf16[64,1024]{1,0} %convert.1551), metadata={op_type="xla__cast" op_name="xla__cast" source_file="/usr/local/lib/python3.10/site-packages/torch/_ops.py" source_line=756}
  %p89.1520 = bf16[1024]{0} parameter(89), metadata={op_type="xla__device_data" op_name="xla__device_data" source_file="/usr/local/lib/python3.10/site-packages/torch_xla/_dynamo/dynamo_bridge.py" source_line=355}
  %convert.1521 = f32[1024]{0} convert(bf16[1024]{0} %p89.1520), metadata={op_type="xla__cast" op_name="xla__cast" source_file="/usr/local/lib/python3.10/site-packages/torch/_ops.py" source_line=756}
  %broadcast.1553 = f32[64,1024]{1,0} broadcast(f32[1024]{0} %convert.1521), dimensions={1}, metadata={op_type="aten__mul" op_name="aten__mul.1390/aten__mul" source_file="/usr/local/lib/python3.10/site-packages/torch/_ops.py" source_line=756}
  %multiply.1554 = f32[64,1024]{1,0} multiply(f32[64,1024]{1,0} %convert.1552, f32[64,1024]{1,0} %broadcast.1553), metadata={op_type="aten__mul" op_name="aten__mul.1390/aten__mul" source_file="/usr/local/lib/python3.10/site-packages/torch/_ops.py" source_line=756}
  %convert.1555 = bf16[64,1024]{1,0} convert(f32[64,1024]{1,0} %multiply.1554), metadata={op_type="xla__cast" op_name="xla__cast" source_file="/usr/local/lib/python3.10/site-packages/torch/_ops.py" source_line=756}
  %p88.1518 = bf16[6144,1024]{1,0} parameter(88), metadata={op_type="xla__device_data" op_name="xla__device_data" source_file="/usr/local/lib/python3.10/site-packages/torch_xla/_dynamo/dynamo_bridge.py" source_line=355}
  %transpose.1519 = bf16[1024,6144]{0,1} transpose(bf16[6144,1024]{1,0} %p88.1518), dimensions={1,0}, metadata={op_type="aten__permute" op_name="aten__permute" source_file="/usr/local/lib/python3.10/site-packages/torch/_ops.py" source_line=756}
  %dot.1556 = bf16[64,6144]{1,0} dot(bf16[64,1024]{1,0} %convert.1555, bf16[1024,6144]{0,1} %transpose.1519), lhs_contracting_dims={1}, rhs_contracting_dims={0}, metadata={op_type="aten__mm" op_name="aten__mm" source_file="/usr/local/lib/python3.10/site-packages/torch/_ops.py" source_line=756}
  %slice.1559 = bf16[64,3072]{1,0} slice(bf16[64,6144]{1,0} %dot.1556), slice={[0:64], [0:3072]}, metadata={op_type="xla__select" op_name="xla__select" source_file="/usr/local/lib/python3.10/site-packages/torch/_ops.py" source_line=756}
  %logistic.1560 = bf16[64,3072]{1,0} logistic(bf16[64,3072]{1,0} %slice.1559), metadata={op_type="aten__silu" op_name="aten__silu" source_file="/usr/local/lib/python3.10/site-packages/torch/_ops.py" source_line=756}
  %multiply.1561 = bf16[64,3072]{1,0} multiply(bf16[64,3072]{1,0} %slice.1559, bf16[64,3072]{1,0} %logistic.1560), metadata={op_type="aten__silu" op_name="aten__silu" source_file="/usr/local/lib/python3.10/site-packages/torch/_ops.py" source_line=756}
  %convert.1562 = f32[64,3072]{1,0} convert(bf16[64,3072]{1,0} %multiply.1561), metadata={op_type="xla__cast" op_name="xla__cast" source_file="/usr/local/lib/python3.10/site-packages/torch/_ops.py" source_line=756}
  %slice.1557 = bf16[64,3072]{1,0} slice(bf16[64,6144]{1,0} %dot.1556), slice={[0:64], [3072:6144]}, metadata={op_type="xla__select" op_name="xla__select" source_file="/usr/local/lib/python3.10/site-packages/torch/_ops.py" source_line=756}
  %convert.1558 = f32[64,3072]{1,0} convert(bf16[64,3072]{1,0} %slice.1557), metadata={op_type="xla__cast" op_name="xla__cast" source_file="/usr/local/lib/python3.10/site-packages/torch/_ops.py" source_line=756}
  %multiply.1563 = f32[64,3072]{1,0} multiply(f32[64,3072]{1,0} %convert.1562, f32[64,3072]{1,0} %convert.1558), metadata={op_type="aten__mul" op_name="aten__mul.1391/aten__mul" source_file="/usr/local/lib/python3.10/site-packages/torch/_ops.py" source_line=756}
  %convert.1564 = bf16[64,3072]{1,0} convert(f32[64,3072]{1,0} %multiply.1563), metadata={op_type="xla__cast" op_name="xla__cast" source_file="/usr/local/lib/python3.10/site-packages/torch/_ops.py" source_line=756}
  %p87.1516 = bf16[1024,3072]{1,0} parameter(87), metadata={op_type="xla__device_data" op_name="xla__device_data" source_file="/usr/local/lib/python3.10/site-packages/torch_xla/_dynamo/dynamo_bridge.py" source_line=355}
  %transpose.1517 = bf16[3072,1024]{0,1} transpose(bf16[1024,3072]{1,0} %p87.1516), dimensions={1,0}, metadata={op_type="aten__permute" op_name="aten__permute" source_file="/usr/local/lib/python3.10/site-packages/torch/_ops.py" source_line=756}
  %dot.1565 = bf16[64,1024]{1,0} dot(bf16[64,3072]{1,0} %convert.1564, bf16[3072,1024]{0,1} %transpose.1517), lhs_contracting_dims={1}, rhs_contracting_dims={0}, metadata={op_type="aten__mm" op_name="aten__mm" source_file="/usr/local/lib/python3.10/site-packages/torch/_ops.py" source_line=756}
  %convert.1566 = f32[64,1024]{1,0} convert(bf16[64,1024]{1,0} %dot.1565), metadata={op_type="xla__cast" op_name="xla__cast" source_file="/usr/local/lib/python3.10/site-packages/torch/_ops.py" source_line=756}
  %convert.1514 = bf16[64,1024]{1,0} convert(f32[64,1024]{1,0} %add.1513), metadata={op_type="xla__cast" op_name="xla__cast" source_file="/usr/local/lib/python3.10/site-packages/torch/_ops.py" source_line=756}
  %convert.1515 = f32[64,1024]{1,0} convert(bf16[64,1024]{1,0} %convert.1514), metadata={op_type="xla__cast" op_name="xla__cast" source_file="/usr/local/lib/python3.10/site-packages/torch/_ops.py" source_line=756}
  %constant.12 = f32[] constant(1), metadata={op_type="prim__Constant" op_name="prim__Constant" source_file="/usr/local/lib/python3.10/site-packages/torch/_ops.py" source_line=756}
  %broadcast.1567 = f32[64,1024]{1,0} broadcast(f32[] %constant.12), dimensions={}, metadata={op_type="aten__add" op_name="aten__add.1392/aten__add" source_file="/usr/local/lib/python3.10/site-packages/torch/_ops.py" source_line=756}
  %multiply.1568 = f32[64,1024]{1,0} multiply(f32[64,1024]{1,0} %convert.1515, f32[64,1024]{1,0} %broadcast.1567), metadata={op_type="aten__add" op_name="aten__add.1392/aten__add" source_file="/usr/local/lib/python3.10/site-packages/torch/_ops.py" source_line=756}
  %add.1569 = f32[64,1024]{1,0} add(f32[64,1024]{1,0} %convert.1566, f32[64,1024]{1,0} %multiply.1568), metadata={op_type="aten__add" op_name="aten__add.1392/aten__add" source_file="/usr/local/lib/python3.10/site-packages/torch/_ops.py" source_line=756}
  %constant.11 = f32[] constant(2), metadata={op_type="prim__Constant" op_name="prim__Constant" source_file="/usr/local/lib/python3.10/site-packages/torch/_ops.py" source_line=756}
  %broadcast.1570 = f32[64,1024]{1,0} broadcast(f32[] %constant.11), dimensions={}, metadata={op_type="aten__pow" op_name="aten__pow" source_file="/usr/local/lib/python3.10/site-packages/torch/_ops.py" source_line=756}
  %power.1571 = f32[64,1024]{1,0} power(f32[64,1024]{1,0} %add.1569, f32[64,1024]{1,0} %broadcast.1570), metadata={op_type="aten__pow" op_name="aten__pow" source_file="/usr/local/lib/python3.10/site-packages/torch/_ops.py" source_line=756}
  %constant.1572 = f32[] constant(0), metadata={op_type="aten__mean" op_name="aten__mean" source_file="/usr/local/lib/python3.10/site-packages/torch/_ops.py" source_line=756}
  %reduce.1578 = f32[64]{0} reduce(f32[64,1024]{1,0} %power.1571, f32[] %constant.1572), dimensions={1}, to_apply=%AddComputation.1574, metadata={op_type="aten__mean" op_name="aten__mean" source_file="/usr/local/lib/python3.10/site-packages/torch/_ops.py" source_line=756}
  %constant.1573 = s32[] constant(1024), metadata={op_type="aten__mean" op_name="aten__mean" source_file="/usr/local/lib/python3.10/site-packages/torch/_ops.py" source_line=756}
  %constant.1579 = s32[] constant(0), metadata={op_type="aten__mean" op_name="aten__mean" source_file="/usr/local/lib/python3.10/site-packages/torch/_ops.py" source_line=756}
  %compare.1584 = pred[] compare(s32[] %constant.1573, s32[] %constant.1579), direction=NE, metadata={op_type="aten__mean" op_name="aten__mean" source_file="/usr/local/lib/python3.10/site-packages/torch/_ops.py" source_line=756}
  %constant.1580 = f32[] constant(1), metadata={op_type="aten__mean" op_name="aten__mean" source_file="/usr/local/lib/python3.10/site-packages/torch/_ops.py" source_line=756}
  %convert.1582 = f32[] convert(s32[] %constant.1573), metadata={op_type="aten__mean" op_name="aten__mean" source_file="/usr/local/lib/python3.10/site-packages/torch/_ops.py" source_line=756}
  %divide.1583 = f32[] divide(f32[] %constant.1580, f32[] %convert.1582), metadata={op_type="aten__mean" op_name="aten__mean" source_file="/usr/local/lib/python3.10/site-packages/torch/_ops.py" source_line=756}
  %constant.1581 = f32[] constant(nan), metadata={op_type="aten__mean" op_name="aten__mean" source_file="/usr/local/lib/python3.10/site-packages/torch/_ops.py" source_line=756}
  %select.1585 = f32[] select(pred[] %compare.1584, f32[] %divide.1583, f32[] %constant.1581), metadata={op_type="aten__mean" op_name="aten__mean" source_file="/usr/local/lib/python3.10/site-packages/torch/_ops.py" source_line=756}
  %broadcast.1586 = f32[64]{0} broadcast(f32[] %select.1585), dimensions={}, metadata={op_type="aten__mean" op_name="aten__mean" source_file="/usr/local/lib/python3.10/site-packages/torch/_ops.py" source_line=756}
  %multiply.1587 = f32[64]{0} multiply(f32[64]{0} %reduce.1578, f32[64]{0} %broadcast.1586), metadata={op_type="aten__mean" op_name="aten__mean" source_file="/usr/local/lib/python3.10/site-packages/torch/_ops.py" source_line=756}
  %reshape.1588 = f32[64,1]{1,0} reshape(f32[64]{0} %multiply.1587), metadata={op_type="aten__mean" op_name="aten__mean" source_file="/usr/local/lib/python3.10/site-packages/torch/_ops.py" source_line=756}
  %convert.1589 = f32[64,1]{1,0} convert(f32[64,1]{1,0} %reshape.1588), metadata={op_type="aten__mean" op_name="aten__mean" source_file="/usr/local/lib/python3.10/site-packages/torch/_ops.py" source_line=756}
  %constant.10 = f32[] constant(1), metadata={op_type="prim__Constant" op_name="prim__Constant" source_file="/usr/local/lib/python3.10/site-packages/torch/_ops.py" source_line=756}
  %multiply.1590 = f32[] multiply(f32[] %p1.4, f32[] %constant.10), metadata={op_type="aten__add" op_name="aten__add.1393/aten__add" source_file="/usr/local/lib/python3.10/site-packages/torch/_ops.py" source_line=756}
  %broadcast.1591 = f32[64,1]{1,0} broadcast(f32[] %multiply.1590), dimensions={}, metadata={op_type="aten__add" op_name="aten__add.1393/aten__add" source_file="/usr/local/lib/python3.10/site-packages/torch/_ops.py" source_line=756}
  %add.1592 = f32[64,1]{1,0} add(f32[64,1]{1,0} %convert.1589, f32[64,1]{1,0} %broadcast.1591), metadata={op_type="aten__add" op_name="aten__add.1393/aten__add" source_file="/usr/local/lib/python3.10/site-packages/torch/_ops.py" source_line=756}
  %rsqrt.1593 = f32[64,1]{1,0} rsqrt(f32[64,1]{1,0} %add.1592), metadata={op_type="aten__rsqrt" op_name="aten__rsqrt" source_file="/usr/local/lib/python3.10/site-packages/torch/_ops.py" source_line=756}
  %reshape.1594 = f32[64]{0} reshape(f32[64,1]{1,0} %rsqrt.1593), metadata={op_type="aten__mul" op_name="aten__mul.1394/aten__mul" source_file="/usr/local/lib/python3.10/site-packages/torch/_ops.py" source_line=756}
  %broadcast.1595 = f32[64,1024]{1,0} broadcast(f32[64]{0} %reshape.1594), dimensions={0}, metadata={op_type="aten__mul" op_name="aten__mul.1394/aten__mul" source_file="/usr/local/lib/python3.10/site-packages/torch/_ops.py" source_line=756}
  %multiply.1596 = f32[64,1024]{1,0} multiply(f32[64,1024]{1,0} %add.1569, f32[64,1024]{1,0} %broadcast.1595), metadata={op_type="aten__mul" op_name="aten__mul.1394/aten__mul" source_file="/usr/local/lib/python3.10/site-packages/torch/_ops.py" source_line=756}
  %convert.1597 = bf16[64,1024]{1,0} convert(f32[64,1024]{1,0} %multiply.1596), metadata={op_type="xla__cast" op_name="xla__cast" source_file="/usr/local/lib/python3.10/site-packages/torch/_ops.py" source_line=756}
  %convert.1598 = f32[64,1024]{1,0} convert(bf16[64,1024]{1,0} %convert.1597), metadata={op_type="xla__cast" op_name="xla__cast" source_file="/usr/local/lib/python3.10/site-packages/torch/_ops.py" source_line=756}
  %p3.8 = bf16[1024]{0} parameter(3), metadata={op_type="xla__device_data" op_name="xla__device_data" source_file="/usr/local/lib/python3.10/site-packages/torch_xla/_dynamo/dynamo_bridge.py" source_line=355}
  %convert.9 = f32[1024]{0} convert(bf16[1024]{0} %p3.8), metadata={op_type="xla__cast" op_name="xla__cast" source_file="/usr/local/lib/python3.10/site-packages/torch/_ops.py" source_line=756}
  %broadcast.1599 = f32[64,1024]{1,0} broadcast(f32[1024]{0} %convert.9), dimensions={1}, metadata={op_type="aten__mul" op_name="aten__mul.1395/aten__mul" source_file="/usr/local/lib/python3.10/site-packages/torch/_ops.py" source_line=756}
  %multiply.1600 = f32[64,1024]{1,0} multiply(f32[64,1024]{1,0} %convert.1598, f32[64,1024]{1,0} %broadcast.1599), metadata={op_type="aten__mul" op_name="aten__mul.1395/aten__mul" source_file="/usr/local/lib/python3.10/site-packages/torch/_ops.py" source_line=756}
  %convert.1601 = bf16[64,1024]{1,0} convert(f32[64,1024]{1,0} %multiply.1600), metadata={op_type="xla__cast" op_name="xla__cast" source_file="/usr/local/lib/python3.10/site-packages/torch/_ops.py" source_line=756}
  %p2.6 = bf16[4096,1024]{1,0} parameter(2), metadata={op_type="xla__device_data" op_name="xla__device_data" source_file="/usr/local/lib/python3.10/site-packages/torch_xla/_dynamo/dynamo_bridge.py" source_line=355}
  %transpose.7 = bf16[1024,4096]{0,1} transpose(bf16[4096,1024]{1,0} %p2.6), dimensions={1,0}, metadata={op_type="aten__permute" op_name="aten__permute" source_file="/usr/local/lib/python3.10/site-packages/torch/_ops.py" source_line=756}
  %dot.1602 = bf16[64,4096]{1,0} dot(bf16[64,1024]{1,0} %convert.1601, bf16[1024,4096]{0,1} %transpose.7), lhs_contracting_dims={1}, rhs_contracting_dims={0}, metadata={op_type="aten__mm" op_name="aten__mm" source_file="/usr/local/lib/python3.10/site-packages/torch/_ops.py" source_line=756}
  %slice.1603 = bf16[64,2048]{1,0} slice(bf16[64,4096]{1,0} %dot.1602), slice={[0:64], [0:2048]}, metadata={op_type="aten__split" op_name="aten__split" source_file="/usr/local/lib/python3.10/site-packages/torch/_ops.py" source_line=756}
  %slice.1604 = bf16[64,1024]{1,0} slice(bf16[64,4096]{1,0} %dot.1602), slice={[0:64], [2048:3072]}, metadata={op_type="aten__split" op_name="aten__split" source_file="/usr/local/lib/python3.10/site-packages/torch/_ops.py" source_line=756}
  %reshape.1606 = bf16[64,8,128]{2,1,0} reshape(bf16[64,1024]{1,0} %slice.1604), metadata={op_type="aten__view" op_name="aten__view" source_file="/usr/local/lib/python3.10/site-packages/torch/_ops.py" source_line=756}
  %convert.1607 = f32[64,8,128]{2,1,0} convert(bf16[64,8,128]{2,1,0} %reshape.1606), metadata={op_type="xla__cast" op_name="xla__cast" source_file="/usr/local/lib/python3.10/site-packages/torch/_ops.py" source_line=756}
  %constant.5 = f32[] constant(2), metadata={op_type="prim__Constant" op_name="prim__Constant" source_file="/usr/local/lib/python3.10/site-packages/torch/_ops.py" source_line=756}
  %broadcast.1608 = f32[64,8,128]{2,1,0} broadcast(f32[] %constant.5), dimensions={}, metadata={op_type="aten__pow" op_name="aten__pow" source_file="/usr/local/lib/python3.10/site-packages/torch/_ops.py" source_line=756}
  %power.1609 = f32[64,8,128]{2,1,0} power(f32[64,8,128]{2,1,0} %convert.1607, f32[64,8,128]{2,1,0} %broadcast.1608), metadata={op_type="aten__pow" op_name="aten__pow" source_file="/usr/local/lib/python3.10/site-packages/torch/_ops.py" source_line=756}
  %constant.1610 = f32[] constant(0), metadata={op_type="aten__mean" op_name="aten__mean" source_file="/usr/local/lib/python3.10/site-packages/torch/_ops.py" source_line=756}
  %reduce.1616 = f32[64,8]{1,0} reduce(f32[64,8,128]{2,1,0} %power.1609, f32[] %constant.1610), dimensions={2}, to_apply=%AddComputation.1612, metadata={op_type="aten__mean" op_name="aten__mean" source_file="/usr/local/lib/python3.10/site-packages/torch/_ops.py" source_line=756}
  %constant.1611 = s32[] constant(128), metadata={op_type="aten__mean" op_name="aten__mean" source_file="/usr/local/lib/python3.10/site-packages/torch/_ops.py" source_line=756}
  %constant.1617 = s32[] constant(0), metadata={op_type="aten__mean" op_name="aten__mean" source_file="/usr/local/lib/python3.10/site-packages/torch/_ops.py" source_line=756}
  %compare.1622 = pred[] compare(s32[] %constant.1611, s32[] %constant.1617), direction=NE, metadata={op_type="aten__mean" op_name="aten__mean" source_file="/usr/local/lib/python3.10/site-packages/torch/_ops.py" source_line=756}
  %constant.1618 = f32[] constant(1), metadata={op_type="aten__mean" op_name="aten__mean" source_file="/usr/local/lib/python3.10/site-packages/torch/_ops.py" source_line=756}
  %convert.1620 = f32[] convert(s32[] %constant.1611), metadata={op_type="aten__mean" op_name="aten__mean" source_file="/usr/local/lib/python3.10/site-packages/torch/_ops.py" source_line=756}
  %divide.1621 = f32[] divide(f32[] %constant.1618, f32[] %convert.1620), metadata={op_type="aten__mean" op_name="aten__mean" source_file="/usr/local/lib/python3.10/site-packages/torch/_ops.py" source_line=756}
  %constant.1619 = f32[] constant(nan), metadata={op_type="aten__mean" op_name="aten__mean" source_file="/usr/local/lib/python3.10/site-packages/torch/_ops.py" source_line=756}
  %select.1623 = f32[] select(pred[] %compare.1622, f32[] %divide.1621, f32[] %constant.1619), metadata={op_type="aten__mean" op_name="aten__mean" source_file="/usr/local/lib/python3.10/site-packages/torch/_ops.py" source_line=756}
  %broadcast.1624 = f32[64,8]{1,0} broadcast(f32[] %select.1623), dimensions={}, metadata={op_type="aten__mean" op_name="aten__mean" source_file="/usr/local/lib/python3.10/site-packages/torch/_ops.py" source_line=756}
  %multiply.1625 = f32[64,8]{1,0} multiply(f32[64,8]{1,0} %reduce.1616, f32[64,8]{1,0} %broadcast.1624), metadata={op_type="aten__mean" op_name="aten__mean" source_file="/usr/local/lib/python3.10/site-packages/torch/_ops.py" source_line=756}
  %reshape.1626 = f32[64,8,1]{2,1,0} reshape(f32[64,8]{1,0} %multiply.1625), metadata={op_type="aten__mean" op_name="aten__mean" source_file="/usr/local/lib/python3.10/site-packages/torch/_ops.py" source_line=756}
  %convert.1627 = f32[64,8,1]{2,1,0} convert(f32[64,8,1]{2,1,0} %reshape.1626), metadata={op_type="aten__mean" op_name="aten__mean" source_file="/usr/local/lib/python3.10/site-packages/torch/_ops.py" source_line=756}
  %constant.3 = f32[] constant(1), metadata={op_type="prim__Constant" op_name="prim__Constant" source_file="/usr/local/lib/python3.10/site-packages/torch/_ops.py" source_line=756}
  %multiply.1628 = f32[] multiply(f32[] %p1.4, f32[] %constant.3), metadata={op_type="aten__add" op_name="aten__add.1396/aten__add" source_file="/usr/local/lib/python3.10/site-packages/torch/_ops.py" source_line=756}
  %broadcast.1629 = f32[64,8,1]{2,1,0} broadcast(f32[] %multiply.1628), dimensions={}, metadata={op_type="aten__add" op_name="aten__add.1396/aten__add" source_file="/usr/local/lib/python3.10/site-packages/torch/_ops.py" source_line=756}
  %add.1630 = f32[64,8,1]{2,1,0} add(f32[64,8,1]{2,1,0} %convert.1627, f32[64,8,1]{2,1,0} %broadcast.1629), metadata={op_type="aten__add" op_name="aten__add.1396/aten__add" source_file="/usr/local/lib/python3.10/site-packages/torch/_ops.py" source_line=756}
  %rsqrt.1631 = f32[64,8,1]{2,1,0} rsqrt(f32[64,8,1]{2,1,0} %add.1630), metadata={op_type="aten__rsqrt" op_name="aten__rsqrt" source_file="/usr/local/lib/python3.10/site-packages/torch/_ops.py" source_line=756}
  %reshape.1632 = f32[64,8]{1,0} reshape(f32[64,8,1]{2,1,0} %rsqrt.1631), metadata={op_type="aten__mul" op_name="aten__mul.1397/aten__mul" source_file="/usr/local/lib/python3.10/site-packages/torch/_ops.py" source_line=756}
  %broadcast.1633 = f32[64,8,128]{2,1,0} broadcast(f32[64,8]{1,0} %reshape.1632), dimensions={0,1}, metadata={op_type="aten__mul" op_name="aten__mul.1397/aten__mul" source_file="/usr/local/lib/python3.10/site-packages/torch/_ops.py" source_line=756}
  %multiply.1634 = f32[64,8,128]{2,1,0} multiply(f32[64,8,128]{2,1,0} %convert.1607, f32[64,8,128]{2,1,0} %broadcast.1633), metadata={op_type="aten__mul" op_name="aten__mul.1397/aten__mul" source_file="/usr/local/lib/python3.10/site-packages/torch/_ops.py" source_line=756}
  %convert.1635 = bf16[64,8,128]{2,1,0} convert(f32[64,8,128]{2,1,0} %multiply.1634), metadata={op_type="xla__cast" op_name="xla__cast" source_file="/usr/local/lib/python3.10/site-packages/torch/_ops.py" source_line=756}
  %convert.1636 = f32[64,8,128]{2,1,0} convert(bf16[64,8,128]{2,1,0} %convert.1635), metadata={op_type="xla__cast" op_name="xla__cast" source_file="/usr/local/lib/python3.10/site-packages/torch/_ops.py" source_line=756}
  %p0.1 = bf16[128]{0} parameter(0), metadata={op_type="xla__device_data" op_name="xla__device_data" source_file="/usr/local/lib/python3.10/site-packages/torch_xla/_dynamo/dynamo_bridge.py" source_line=355}
  %convert.2 = f32[128]{0} convert(bf16[128]{0} %p0.1), metadata={op_type="xla__cast" op_name="xla__cast" source_file="/usr/local/lib/python3.10/site-packages/torch/_ops.py" source_line=756}
  %broadcast.1637 = f32[64,8,128]{2,1,0} broadcast(f32[128]{0} %convert.2), dimensions={2}, metadata={op_type="aten__mul" op_name="aten__mul.1398/aten__mul" source_file="/usr/local/lib/python3.10/site-packages/torch/_ops.py" source_line=756}
  %multiply.1638 = f32[64,8,128]{2,1,0} multiply(f32[64,8,128]{2,1,0} %convert.1636, f32[64,8,128]{2,1,0} %broadcast.1637), metadata={op_type="aten__mul" op_name="aten__mul.1398/aten__mul" source_file="/usr/local/lib/python3.10/site-packages/torch/_ops.py" source_line=756}
  %convert.1639 = bf16[64,8,128]{2,1,0} convert(f32[64,8,128]{2,1,0} %multiply.1638), metadata={op_type="xla__cast" op_name="xla__cast" source_file="/usr/local/lib/python3.10/site-packages/torch/_ops.py" source_line=756}
  %reshape.1640 = bf16[64,1024]{1,0} reshape(bf16[64,8,128]{2,1,0} %convert.1639), metadata={op_type="aten__view" op_name="aten__view" source_file="/usr/local/lib/python3.10/site-packages/torch/_ops.py" source_line=756}
  %reshape.1641 = bf16[64,8,128]{2,1,0} reshape(bf16[64,1024]{1,0} %reshape.1640), metadata={op_type="aten__view" op_name="aten__view" source_file="/usr/local/lib/python3.10/site-packages/torch/_ops.py" source_line=756}
  %slice.1651 = bf16[64,8,64]{2,1,0} slice(bf16[64,8,128]{2,1,0} %reshape.1641), slice={[0:64], [0:8], [0:64]}, metadata={op_type="aten__split" op_name="aten__split" source_file="/usr/local/lib/python3.10/site-packages/torch/_ops.py" source_line=756}
  %convert.1676 = f32[64,8,64]{2,1,0} convert(bf16[64,8,64]{2,1,0} %slice.1651), metadata={op_type="xla__cast" op_name="xla__cast" source_file="/usr/local/lib/python3.10/site-packages/torch/_ops.py" source_line=756}
  %p91.1645 = bf16[40960,128]{1,0} parameter(91), metadata={op_type="xla__device_data" op_name="xla__device_data" source_file="/usr/local/lib/python3.10/site-packages/torch_xla/_dynamo/dynamo_bridge.py" source_line=355}
  %p90.1644 = s32[64]{0} parameter(90), metadata={op_type="xla__device_data" op_name="xla__device_data" source_file="/usr/local/lib/python3.10/site-packages/torch_xla/_dynamo/dynamo_bridge.py" source_line=355}
  %gather.1646 = bf16[64,128]{1,0} gather(bf16[40960,128]{1,0} %p91.1645, s32[64]{0} %p90.1644), offset_dims={1}, collapsed_slice_dims={0}, start_index_map={0}, index_vector_dim=1, slice_sizes={1,128}, metadata={op_type="aten__index_select" op_name="aten__index_select" source_file="/usr/local/lib/python3.10/site-packages/torch/_ops.py" source_line=756}
  %slice.1647 = bf16[64,64]{1,0} slice(bf16[64,128]{1,0} %gather.1646), slice={[0:64], [0:64]}, metadata={op_type="aten__split" op_name="aten__split" source_file="/usr/local/lib/python3.10/site-packages/torch/_ops.py" source_line=756}
  %reshape.1658 = bf16[64,1,64]{2,1,0} reshape(bf16[64,64]{1,0} %slice.1647), metadata={op_type="aten__view" op_name="aten__view" source_file="/usr/local/lib/python3.10/site-packages/torch/_ops.py" source_line=756}
  %convert.1675 = f32[64,1,64]{2,1,0} convert(bf16[64,1,64]{2,1,0} %reshape.1658), metadata={op_type="xla__cast" op_name="xla__cast" source_file="/usr/local/lib/python3.10/site-packages/torch/_ops.py" source_line=756}
  %reshape.1677 = f32[64,64]{1,0} reshape(f32[64,1,64]{2,1,0} %convert.1675), metadata={op_type="aten__mul" op_name="aten__mul.1399/aten__mul" source_file="/usr/local/lib/python3.10/site-packages/torch/_ops.py" source_line=756}
  %broadcast.1678 = f32[64,8,64]{2,1,0} broadcast(f32[64,64]{1,0} %reshape.1677), dimensions={0,2}, metadata={op_type="aten__mul" op_name="aten__mul.1399/aten__mul" source_file="/usr/local/lib/python3.10/site-packages/torch/_ops.py" source_line=756}
  %multiply.1679 = f32[64,8,64]{2,1,0} multiply(f32[64,8,64]{2,1,0} %convert.1676, f32[64,8,64]{2,1,0} %broadcast.1678), metadata={op_type="aten__mul" op_name="aten__mul.1399/aten__mul" source_file="/usr/local/lib/python3.10/site-packages/torch/_ops.py" source_line=756}
  %convert.1680 = bf16[64,8,64]{2,1,0} convert(f32[64,8,64]{2,1,0} %multiply.1679), metadata={op_type="xla__cast" op_name="xla__cast" source_file="/usr/local/lib/python3.10/site-packages/torch/_ops.py" source_line=756}
  %slice.1652 = bf16[64,8,64]{2,1,0} slice(bf16[64,8,128]{2,1,0} %reshape.1641), slice={[0:64], [0:8], [64:128]}, metadata={op_type="aten__split" op_name="aten__split" source_file="/usr/local/lib/python3.10/site-packages/torch/_ops.py" source_line=756}
  %convert.1670 = f32[64,8,64]{2,1,0} convert(bf16[64,8,64]{2,1,0} %slice.1652), metadata={op_type="xla__cast" op_name="xla__cast" source_file="/usr/local/lib/python3.10/site-packages/torch/_ops.py" source_line=756}
  %slice.1648 = bf16[64,64]{1,0} slice(bf16[64,128]{1,0} %gather.1646), slice={[0:64], [64:128]}, metadata={op_type="aten__split" op_name="aten__split" source_file="/usr/local/lib/python3.10/site-packages/torch/_ops.py" source_line=756}
  %reshape.1649 = bf16[64,1,64]{2,1,0} reshape(bf16[64,64]{1,0} %slice.1648), metadata={op_type="aten__view" op_name="aten__view" source_file="/usr/local/lib/python3.10/site-packages/torch/_ops.py" source_line=756}
  %convert.1669 = f32[64,1,64]{2,1,0} convert(bf16[64,1,64]{2,1,0} %reshape.1649), metadata={op_type="xla__cast" op_name="xla__cast" source_file="/usr/local/lib/python3.10/site-packages/torch/_ops.py" source_line=756}
  %reshape.1671 = f32[64,64]{1,0} reshape(f32[64,1,64]{2,1,0} %convert.1669), metadata={op_type="aten__mul" op_name="aten__mul.1400/aten__mul" source_file="/usr/local/lib/python3.10/site-packages/torch/_ops.py" source_line=756}
  %broadcast.1672 = f32[64,8,64]{2,1,0} broadcast(f32[64,64]{1,0} %reshape.1671), dimensions={0,2}, metadata={op_type="aten__mul" op_name="aten__mul.1400/aten__mul" source_file="/usr/local/lib/python3.10/site-packages/torch/_ops.py" source_line=756}
  %multiply.1673 = f32[64,8,64]{2,1,0} multiply(f32[64,8,64]{2,1,0} %convert.1670, f32[64,8,64]{2,1,0} %broadcast.1672), metadata={op_type="aten__mul" op_name="aten__mul.1400/aten__mul" source_file="/usr/local/lib/python3.10/site-packages/torch/_ops.py" source_line=756}
  %convert.1674 = bf16[64,8,64]{2,1,0} convert(f32[64,8,64]{2,1,0} %multiply.1673), metadata={op_type="xla__cast" op_name="xla__cast" source_file="/usr/local/lib/python3.10/site-packages/torch/_ops.py" source_line=756}
  %constant.1668 = bf16[] constant(1), metadata={op_type="prim__Constant" op_name="prim__Constant" source_file="/usr/local/lib/python3.10/site-packages/torch/_ops.py" source_line=756}
  %broadcast.1681 = bf16[64,8,64]{2,1,0} broadcast(bf16[] %constant.1668), dimensions={}, metadata={op_type="aten__sub" op_name="aten__sub.1401/aten__sub" source_file="/usr/local/lib/python3.10/site-packages/torch/_ops.py" source_line=756}
  %multiply.1682 = bf16[64,8,64]{2,1,0} multiply(bf16[64,8,64]{2,1,0} %convert.1674, bf16[64,8,64]{2,1,0} %broadcast.1681), metadata={op_type="aten__sub" op_name="aten__sub.1401/aten__sub" source_file="/usr/local/lib/python3.10/site-packages/torch/_ops.py" source_line=756}
  %subtract.1683 = bf16[64,8,64]{2,1,0} subtract(bf16[64,8,64]{2,1,0} %convert.1680, bf16[64,8,64]{2,1,0} %multiply.1682), metadata={op_type="aten__sub" op_name="aten__sub.1401/aten__sub" source_file="/usr/local/lib/python3.10/site-packages/torch/_ops.py" source_line=756}
  %convert.1660 = f32[64,8,64]{2,1,0} convert(bf16[64,8,64]{2,1,0} %slice.1652), metadata={op_type="xla__cast" op_name="xla__cast" source_file="/usr/local/lib/python3.10/site-packages/torch/_ops.py" source_line=756}
  %convert.1659 = f32[64,1,64]{2,1,0} convert(bf16[64,1,64]{2,1,0} %reshape.1658), metadata={op_type="xla__cast" op_name="xla__cast" source_file="/usr/local/lib/python3.10/site-packages/torch/_ops.py" source_line=756}
  %reshape.1661 = f32[64,64]{1,0} reshape(f32[64,1,64]{2,1,0} %convert.1659), metadata={op_type="aten__mul" op_name="aten__mul.1402/aten__mul" source_file="/usr/local/lib/python3.10/site-packages/torch/_ops.py" source_line=756}
  %broadcast.1662 = f32[64,8,64]{2,1,0} broadcast(f32[64,64]{1,0} %reshape.1661), dimensions={0,2}, metadata={op_type="aten__mul" op_name="aten__mul.1402/aten__mul" source_file="/usr/local/lib/python3.10/site-packages/torch/_ops.py" source_line=756}
  %multiply.1663 = f32[64,8,64]{2,1,0} multiply(f32[64,8,64]{2,1,0} %convert.1660, f32[64,8,64]{2,1,0} %broadcast.1662), metadata={op_type="aten__mul" op_name="aten__mul.1402/aten__mul" source_file="/usr/local/lib/python3.10/site-packages/torch/_ops.py" source_line=756}
  %convert.1664 = bf16[64,8,64]{2,1,0} convert(f32[64,8,64]{2,1,0} %multiply.1663), metadata={op_type="xla__cast" op_name="xla__cast" source_file="/usr/local/lib/python3.10/site-packages/torch/_ops.py" source_line=756}
  %convert.1653 = f32[64,8,64]{2,1,0} convert(bf16[64,8,64]{2,1,0} %slice.1651), metadata={op_type="xla__cast" op_name="xla__cast" source_file="/usr/local/lib/python3.10/site-packages/torch/_ops.py" source_line=756}
  %convert.1650 = f32[64,1,64]{2,1,0} convert(bf16[64,1,64]{2,1,0} %reshape.1649), metadata={op_type="xla__cast" op_name="xla__cast" source_file="/usr/local/lib/python3.10/site-packages/torch/_ops.py" source_line=756}
  %reshape.1654 = f32[64,64]{1,0} reshape(f32[64,1,64]{2,1,0} %convert.1650), metadata={op_type="aten__mul" op_name="aten__mul.1403/aten__mul" source_file="/usr/local/lib/python3.10/site-packages/torch/_ops.py" source_line=756}
  %broadcast.1655 = f32[64,8,64]{2,1,0} broadcast(f32[64,64]{1,0} %reshape.1654), dimensions={0,2}, metadata={op_type="aten__mul" op_name="aten__mul.1403/aten__mul" source_file="/usr/local/lib/python3.10/site-packages/torch/_ops.py" source_line=756}
  %multiply.1656 = f32[64,8,64]{2,1,0} multiply(f32[64,8,64]{2,1,0} %convert.1653, f32[64,8,64]{2,1,0} %broadcast.1655), metadata={op_type="aten__mul" op_name="aten__mul.1403/aten__mul" source_file="/usr/local/lib/python3.10/site-packages/torch/_ops.py" source_line=756}
  %convert.1657 = bf16[64,8,64]{2,1,0} convert(f32[64,8,64]{2,1,0} %multiply.1656), metadata={op_type="xla__cast" op_name="xla__cast" source_file="/usr/local/lib/python3.10/site-packages/torch/_ops.py" source_line=756}
  %constant.1643 = bf16[] constant(1), metadata={op_type="prim__Constant" op_name="prim__Constant" source_file="/usr/local/lib/python3.10/site-packages/torch/_ops.py" source_line=756}
  %broadcast.1665 = bf16[64,8,64]{2,1,0} broadcast(bf16[] %constant.1643), dimensions={}, metadata={op_type="aten__add" op_name="aten__add.1404/aten__add" source_file="/usr/local/lib/python3.10/site-packages/torch/_ops.py" source_line=756}
  %multiply.1666 = bf16[64,8,64]{2,1,0} multiply(bf16[64,8,64]{2,1,0} %convert.1657, bf16[64,8,64]{2,1,0} %broadcast.1665), metadata={op_type="aten__add" op_name="aten__add.1404/aten__add" source_file="/usr/local/lib/python3.10/site-packages/torch/_ops.py" source_line=756}
  %add.1667 = bf16[64,8,64]{2,1,0} add(bf16[64,8,64]{2,1,0} %convert.1664, bf16[64,8,64]{2,1,0} %multiply.1666), metadata={op_type="aten__add" op_name="aten__add.1404/aten__add" source_file="/usr/local/lib/python3.10/site-packages/torch/_ops.py" source_line=756}
  %concatenate.1684 = bf16[64,8,128]{2,1,0} concatenate(bf16[64,8,64]{2,1,0} %subtract.1683, bf16[64,8,64]{2,1,0} %add.1667), dimensions={2}, metadata={op_type="aten__cat" op_name="aten__cat" source_file="/usr/local/lib/python3.10/site-packages/torch/_ops.py" source_line=756}
  %slice.1642 = bf16[64,8,0]{2,1,0} slice(bf16[64,8,128]{2,1,0} %reshape.1641), slice={[0:64], [0:8], [128:128]}, metadata={op_type="xla__select" op_name="xla__select" source_file="/usr/local/lib/python3.10/site-packages/torch/_ops.py" source_line=756}
  %concatenate.1685 = bf16[64,8,128]{2,1,0} concatenate(bf16[64,8,128]{2,1,0} %concatenate.1684, bf16[64,8,0]{2,1,0} %slice.1642), dimensions={2}, metadata={op_type="aten__cat" op_name="aten__cat" source_file="/usr/local/lib/python3.10/site-packages/torch/_ops.py" source_line=756}
  %reshape.1686 = bf16[64,1024]{1,0} reshape(bf16[64,8,128]{2,1,0} %concatenate.1685), metadata={op_type="aten__view" op_name="aten__view" source_file="/usr/local/lib/python3.10/site-packages/torch/_ops.py" source_line=756}
  %reshape.1687 = bf16[64,8,128]{2,1,0} reshape(bf16[64,1024]{1,0} %reshape.1686), metadata={op_type="aten__view" op_name="aten__view" source_file="/usr/local/lib/python3.10/site-packages/torch/_ops.py" source_line=756}
  %slice.1605 = bf16[64,1024]{1,0} slice(bf16[64,4096]{1,0} %dot.1602), slice={[0:64], [3072:4096]}, metadata={op_type="aten__split" op_name="aten__split" source_file="/usr/local/lib/python3.10/site-packages/torch/_ops.py" source_line=756}
  %reshape.1688 = bf16[64,8,128]{2,1,0} reshape(bf16[64,1024]{1,0} %slice.1605), metadata={op_type="aten__view" op_name="aten__view" source_file="/usr/local/lib/python3.10/site-packages/torch/_ops.py" source_line=756}
  %p92.1689 = bf16[2,4233,16,8,128]{4,3,2,1,0} parameter(92), metadata={op_type="xla__device_data" op_name="xla__device_data" source_file="/usr/local/lib/python3.10/site-packages/torch_xla/_dynamo/dynamo_bridge.py" source_line=355}
  %reshape.1690 = bf16[138706944]{0} reshape(bf16[2,4233,16,8,128]{4,3,2,1,0} %p92.1689), metadata={op_type="aten__as_strided" op_name="aten__as_strided" source_file="/usr/local/lib/python3.10/site-packages/torch/_prims_common/__init__.py" source_line=1991}
  %reshape.1691 = bf16[2,4233,16,8,128]{4,3,2,1,0} reshape(bf16[138706944]{0} %reshape.1690), metadata={op_type="aten__as_strided" op_name="aten__as_strided" source_file="/usr/local/lib/python3.10/site-packages/torch/_prims_common/__init__.py" source_line=1992}
  %reshape.1692 = bf16[138706944]{0} reshape(bf16[2,4233,16,8,128]{4,3,2,1,0} %reshape.1691), metadata={op_type="aten__as_strided" op_name="aten__as_strided" source_file="/usr/local/lib/python3.10/site-packages/torch/_higher_order_ops/auto_functionalize.py" source_line=54}
  %slice.1693 = bf16[69353472]{0} slice(bf16[138706944]{0} %reshape.1692), slice={[0:69353472]}, metadata={op_type="aten__as_strided" op_name="aten__as_strided" source_file="/usr/local/lib/python3.10/site-packages/torch/_higher_order_ops/auto_functionalize.py" source_line=54}
  %reshape.1694 = bf16[4233,16,8,128]{3,2,1,0} reshape(bf16[69353472]{0} %slice.1693), metadata={op_type="aten__as_strided" op_name="aten__as_strided" source_file="/usr/local/lib/python3.10/site-packages/torch/_higher_order_ops/auto_functionalize.py" source_line=54}
  %reshape.1695 = bf16[138706944]{0} reshape(bf16[2,4233,16,8,128]{4,3,2,1,0} %reshape.1691), metadata={op_type="aten__as_strided" op_name="aten__as_strided" source_file="/usr/local/lib/python3.10/site-packages/torch/_higher_order_ops/auto_functionalize.py" source_line=54}
  %slice.1696 = bf16[69353472]{0} slice(bf16[138706944]{0} %reshape.1695), slice={[69353472:138706944]}, metadata={op_type="aten__as_strided" op_name="aten__as_strided" source_file="/usr/local/lib/python3.10/site-packages/torch/_higher_order_ops/auto_functionalize.py" source_line=54}
  %reshape.1697 = bf16[4233,16,8,128]{3,2,1,0} reshape(bf16[69353472]{0} %slice.1696), metadata={op_type="aten__as_strided" op_name="aten__as_strided" source_file="/usr/local/lib/python3.10/site-packages/torch/_higher_order_ops/auto_functionalize.py" source_line=54}
  ROOT %tuple.1698 = (bf16[64,8,128]{2,1,0}, bf16[64,8,128]{2,1,0}, bf16[4233,16,8,128]{3,2,1,0}, bf16[4233,16,8,128]{3,2,1,0}) tuple(bf16[64,8,128]{2,1,0} %reshape.1687, bf16[64,8,128]{2,1,0} %reshape.1688, bf16[4233,16,8,128]{3,2,1,0} %reshape.1694, bf16[4233,16,8,128]{3,2,1,0} %reshape.1697)
}

