HloModule SyncTensorsGraph.636, is_scheduled=true, entry_computation_layout={(bf16[])->(s32[16]{0}, s32[16]{0}, bf16[16,16]{1,0}, bf16[16,16]{1,0}, pred[16]{0})}, frontend_attributes={fingerprint_before_lhs="b3d2c0fd14f0c078e81667d29b0f2584"}

%fused_pad (param_0.106: bf16[]) -> bf16[16,16] {
  %constant_18_24 = pred[] constant(true), metadata={op_type="xla__unselect" op_name="xla__unselect" source_file="/code/github_code/xla_vllm/vllm/vllm/v1/worker/xla_gpu_model_runner.py" source_line=1389}
  %broadcast.264.1 = pred[15]{0} broadcast(pred[] %constant_18_24), dimensions={}, metadata={op_type="xla__unselect" op_name="xla__unselect" source_file="/code/github_code/xla_vllm/vllm/vllm/v1/worker/xla_gpu_model_runner.py" source_line=1401}
  %constant_20_6 = pred[] constant(false), metadata={op_type="xla__unselect" op_name="xla__unselect" source_file="/code/github_code/xla_vllm/vllm/vllm/v1/worker/xla_gpu_model_runner.py" source_line=1389}
  %pad.130.1 = pred[16]{0} pad(pred[15]{0} %broadcast.264.1, pred[] %constant_20_6), padding=1_0, metadata={op_type="xla__unselect" op_name="xla__unselect" source_file="/code/github_code/xla_vllm/vllm/vllm/v1/worker/xla_gpu_model_runner.py" source_line=1401}
  %param_0.106 = bf16[] parameter(0)
  %broadcast.265.3 = bf16[15]{0} broadcast(bf16[] %param_0.106), dimensions={}, metadata={op_type="aten__expand" op_name="aten__expand" source_file="/code/github_code/xla_vllm/vllm/vllm/v1/worker/xla_gpu_model_runner.py" source_line=1401}
  %constant_32_29 = bf16[] constant(0), metadata={op_type="prim__Constant" op_name="prim__Constant" source_file="/code/github_code/xla_vllm/vllm/vllm/v1/worker/xla_gpu_model_runner.py" source_line=1394}
  %pad.131.3 = bf16[16]{0} pad(bf16[15]{0} %broadcast.265.3, bf16[] %constant_32_29), padding=1_0, metadata={op_type="xla__unselect" op_name="xla__unselect" source_file="/code/github_code/xla_vllm/vllm/vllm/v1/worker/xla_gpu_model_runner.py" source_line=1401}
  %broadcast.266.1 = bf16[16]{0} broadcast(bf16[] %constant_32_29), dimensions={}, metadata={op_type="aten__view" op_name="aten__view" source_file="/code/github_code/xla_vllm/vllm/vllm/v1/worker/xla_gpu_model_runner.py" source_line=1401}
  %select.66.1 = bf16[16]{0} select(pred[16]{0} %pad.130.1, bf16[16]{0} %pad.131.3, bf16[16]{0} %broadcast.266.1), metadata={op_type="xla__unselect" op_name="xla__unselect" source_file="/code/github_code/xla_vllm/vllm/vllm/v1/worker/xla_gpu_model_runner.py" source_line=1401}
  %bitcast.1455.1 = bf16[1,16]{1,0} bitcast(bf16[16]{0} %select.66.1)
  ROOT %pad.132.1 = bf16[16,16]{1,0} pad(bf16[1,16]{1,0} %bitcast.1455.1, bf16[] %constant_32_29), padding=0_15x0_0, metadata={op_type="xla__update_slice" op_name="xla__update_slice" source_file="/code/github_code/xla_vllm/vllm/vllm/v1/worker/xla_gpu_model_runner.py" source_line=1401}
}

%fused_dynamic_update_slice.27 (param_0.56: bf16[16,16]) -> bf16[16,16] {
  %param_0.56 = bf16[16,16]{1,0} parameter(0)
  %constant_18_30 = pred[] constant(true), metadata={op_type="xla__unselect" op_name="xla__unselect" source_file="/code/github_code/xla_vllm/vllm/vllm/v1/worker/xla_gpu_model_runner.py" source_line=1389}
  %broadcast.267.1 = pred[2]{0} broadcast(pred[] %constant_18_30), dimensions={}, metadata={op_type="xla__unselect" op_name="xla__unselect" source_file="/code/github_code/xla_vllm/vllm/vllm/v1/worker/xla_gpu_model_runner.py" source_line=1400}
  %constant_20_7 = pred[] constant(false), metadata={op_type="xla__unselect" op_name="xla__unselect" source_file="/code/github_code/xla_vllm/vllm/vllm/v1/worker/xla_gpu_model_runner.py" source_line=1389}
  %pad.133.1 = pred[16]{0} pad(pred[2]{0} %broadcast.267.1, pred[] %constant_20_7), padding=0_14, metadata={op_type="xla__unselect" op_name="xla__unselect" source_file="/code/github_code/xla_vllm/vllm/vllm/v1/worker/xla_gpu_model_runner.py" source_line=1400}
  %constant_32_27 = bf16[] constant(0), metadata={op_type="prim__Constant" op_name="prim__Constant" source_file="/code/github_code/xla_vllm/vllm/vllm/v1/worker/xla_gpu_model_runner.py" source_line=1394}
  %broadcast.268.1 = bf16[2]{0} broadcast(bf16[] %constant_32_27), dimensions={}, metadata={op_type="aten__expand" op_name="aten__expand" source_file="/code/github_code/xla_vllm/vllm/vllm/v1/worker/xla_gpu_model_runner.py" source_line=1400}
  %pad.134.1 = bf16[16]{0} pad(bf16[2]{0} %broadcast.268.1, bf16[] %constant_32_27), padding=0_14, metadata={op_type="xla__unselect" op_name="xla__unselect" source_file="/code/github_code/xla_vllm/vllm/vllm/v1/worker/xla_gpu_model_runner.py" source_line=1400}
  %broadcast.266.2 = bf16[16]{0} broadcast(bf16[] %constant_32_27), dimensions={}, metadata={op_type="aten__view" op_name="aten__view" source_file="/code/github_code/xla_vllm/vllm/vllm/v1/worker/xla_gpu_model_runner.py" source_line=1401}
  %select.67.1 = bf16[16]{0} select(pred[16]{0} %pad.133.1, bf16[16]{0} %pad.134.1, bf16[16]{0} %broadcast.266.2), metadata={op_type="xla__unselect" op_name="xla__unselect" source_file="/code/github_code/xla_vllm/vllm/vllm/v1/worker/xla_gpu_model_runner.py" source_line=1400}
  %bitcast.1472.1 = bf16[1,16]{1,0} bitcast(bf16[16]{0} %select.67.1)
  %constant_252_2 = s64[] constant(1), metadata={op_type="xla__update_slice" op_name="xla__update_slice" source_file="/code/github_code/xla_vllm/vllm/vllm/v1/worker/xla_gpu_model_runner.py" source_line=1400}
  %constant_239_5 = s64[] constant(0), metadata={op_type="xla__update_slice" op_name="xla__update_slice" source_file="/code/github_code/xla_vllm/vllm/vllm/v1/worker/xla_gpu_model_runner.py" source_line=1401}
  ROOT %dynamic-update-slice.60.1 = bf16[16,16]{1,0} dynamic-update-slice(bf16[16,16]{1,0} %param_0.56, bf16[1,16]{1,0} %bitcast.1472.1, s64[] %constant_252_2, s64[] %constant_239_5), metadata={op_type="xla__update_slice" op_name="xla__update_slice" source_file="/code/github_code/xla_vllm/vllm/vllm/v1/worker/xla_gpu_model_runner.py" source_line=1400}
}

%wrapped_slice_computation (param_0.108: bf16[16,16]) -> bf16[1,16] {
  %param_0.108 = bf16[16,16]{1,0} parameter(0)
  ROOT %slice.56.1 = bf16[1,16]{1,0} slice(bf16[16,16]{1,0} %param_0.108), slice={[1:2], [0:16]}, metadata={op_type="xla__generic_slice" op_name="xla__generic_slice" source_file="/code/github_code/xla_vllm/vllm/vllm/v1/worker/xla_gpu_model_runner.py" source_line=1401}
}

%fused_dynamic_update_slice.26 (param_0.54: bf16[16,16], param_1.139: bf16[1,16], param_2.182: bf16[]) -> bf16[16,16] {
  %param_0.54 = bf16[16,16]{1,0} parameter(0)
  %constant_18_23 = pred[] constant(true), metadata={op_type="xla__unselect" op_name="xla__unselect" source_file="/code/github_code/xla_vllm/vllm/vllm/v1/worker/xla_gpu_model_runner.py" source_line=1389}
  %broadcast.270.1 = pred[14]{0} broadcast(pred[] %constant_18_23), dimensions={}, metadata={op_type="xla__unselect" op_name="xla__unselect" source_file="/code/github_code/xla_vllm/vllm/vllm/v1/worker/xla_gpu_model_runner.py" source_line=1401}
  %constant_20_8 = pred[] constant(false), metadata={op_type="xla__unselect" op_name="xla__unselect" source_file="/code/github_code/xla_vllm/vllm/vllm/v1/worker/xla_gpu_model_runner.py" source_line=1389}
  %pad.135.1 = pred[16]{0} pad(pred[14]{0} %broadcast.270.1, pred[] %constant_20_8), padding=2_0, metadata={op_type="xla__unselect" op_name="xla__unselect" source_file="/code/github_code/xla_vllm/vllm/vllm/v1/worker/xla_gpu_model_runner.py" source_line=1401}
  %param_2.182 = bf16[] parameter(2)
  %broadcast.272.1 = bf16[14]{0} broadcast(bf16[] %param_2.182), dimensions={}, metadata={op_type="aten__expand" op_name="aten__expand" source_file="/code/github_code/xla_vllm/vllm/vllm/v1/worker/xla_gpu_model_runner.py" source_line=1401}
  %constant_32_26 = bf16[] constant(0), metadata={op_type="prim__Constant" op_name="prim__Constant" source_file="/code/github_code/xla_vllm/vllm/vllm/v1/worker/xla_gpu_model_runner.py" source_line=1394}
  %pad.136.1 = bf16[16]{0} pad(bf16[14]{0} %broadcast.272.1, bf16[] %constant_32_26), padding=2_0, metadata={op_type="xla__unselect" op_name="xla__unselect" source_file="/code/github_code/xla_vllm/vllm/vllm/v1/worker/xla_gpu_model_runner.py" source_line=1401}
  %param_1.139 = bf16[1,16]{1,0} parameter(1)
  %bitcast.1492.3 = bf16[16]{0} bitcast(bf16[1,16]{1,0} %param_1.139)
  %select.68.3 = bf16[16]{0} select(pred[16]{0} %pad.135.1, bf16[16]{0} %pad.136.1, bf16[16]{0} %bitcast.1492.3), metadata={op_type="xla__unselect" op_name="xla__unselect" source_file="/code/github_code/xla_vllm/vllm/vllm/v1/worker/xla_gpu_model_runner.py" source_line=1401}
  %bitcast.1495.1 = bf16[1,16]{1,0} bitcast(bf16[16]{0} %select.68.3)
  %constant_252_1 = s64[] constant(1), metadata={op_type="xla__update_slice" op_name="xla__update_slice" source_file="/code/github_code/xla_vllm/vllm/vllm/v1/worker/xla_gpu_model_runner.py" source_line=1400}
  %constant_239_6 = s64[] constant(0), metadata={op_type="xla__update_slice" op_name="xla__update_slice" source_file="/code/github_code/xla_vllm/vllm/vllm/v1/worker/xla_gpu_model_runner.py" source_line=1401}
  ROOT %dynamic-update-slice.61.1 = bf16[16,16]{1,0} dynamic-update-slice(bf16[16,16]{1,0} %param_0.54, bf16[1,16]{1,0} %bitcast.1495.1, s64[] %constant_252_1, s64[] %constant_239_6), metadata={op_type="xla__update_slice" op_name="xla__update_slice" source_file="/code/github_code/xla_vllm/vllm/vllm/v1/worker/xla_gpu_model_runner.py" source_line=1401}
}

%wrapped_slice_computation.1 (param_0.109: bf16[16,16]) -> bf16[1,16] {
  %param_0.109 = bf16[16,16]{1,0} parameter(0)
  ROOT %slice.57.1 = bf16[1,16]{1,0} slice(bf16[16,16]{1,0} %param_0.109), slice={[2:3], [0:16]}, metadata={op_type="xla__generic_slice" op_name="xla__generic_slice" source_file="/code/github_code/xla_vllm/vllm/vllm/v1/worker/xla_gpu_model_runner.py" source_line=1400}
}

%fused_dynamic_update_slice.25 (param_0.52: bf16[16,16], param_1.141: bf16[1,16]) -> bf16[16,16] {
  %param_0.52 = bf16[16,16]{1,0} parameter(0)
  %constant_18_29 = pred[] constant(true), metadata={op_type="xla__unselect" op_name="xla__unselect" source_file="/code/github_code/xla_vllm/vllm/vllm/v1/worker/xla_gpu_model_runner.py" source_line=1389}
  %broadcast.273.1 = pred[3]{0} broadcast(pred[] %constant_18_29), dimensions={}, metadata={op_type="xla__unselect" op_name="xla__unselect" source_file="/code/github_code/xla_vllm/vllm/vllm/v1/worker/xla_gpu_model_runner.py" source_line=1400}
  %constant_20_9 = pred[] constant(false), metadata={op_type="xla__unselect" op_name="xla__unselect" source_file="/code/github_code/xla_vllm/vllm/vllm/v1/worker/xla_gpu_model_runner.py" source_line=1389}
  %pad.137.1 = pred[16]{0} pad(pred[3]{0} %broadcast.273.1, pred[] %constant_20_9), padding=0_13, metadata={op_type="xla__unselect" op_name="xla__unselect" source_file="/code/github_code/xla_vllm/vllm/vllm/v1/worker/xla_gpu_model_runner.py" source_line=1400}
  %constant_32_25 = bf16[] constant(0), metadata={op_type="prim__Constant" op_name="prim__Constant" source_file="/code/github_code/xla_vllm/vllm/vllm/v1/worker/xla_gpu_model_runner.py" source_line=1394}
  %broadcast.274.1 = bf16[3]{0} broadcast(bf16[] %constant_32_25), dimensions={}, metadata={op_type="aten__expand" op_name="aten__expand" source_file="/code/github_code/xla_vllm/vllm/vllm/v1/worker/xla_gpu_model_runner.py" source_line=1400}
  %pad.138.1 = bf16[16]{0} pad(bf16[3]{0} %broadcast.274.1, bf16[] %constant_32_25), padding=0_13, metadata={op_type="xla__unselect" op_name="xla__unselect" source_file="/code/github_code/xla_vllm/vllm/vllm/v1/worker/xla_gpu_model_runner.py" source_line=1400}
  %param_1.141 = bf16[1,16]{1,0} parameter(1)
  %bitcast.1511.3 = bf16[16]{0} bitcast(bf16[1,16]{1,0} %param_1.141)
  %select.69.3 = bf16[16]{0} select(pred[16]{0} %pad.137.1, bf16[16]{0} %pad.138.1, bf16[16]{0} %bitcast.1511.3), metadata={op_type="xla__unselect" op_name="xla__unselect" source_file="/code/github_code/xla_vllm/vllm/vllm/v1/worker/xla_gpu_model_runner.py" source_line=1400}
  %bitcast.1514.1 = bf16[1,16]{1,0} bitcast(bf16[16]{0} %select.69.3)
  %constant_278_2 = s64[] constant(2), metadata={op_type="xla__update_slice" op_name="xla__update_slice" source_file="/code/github_code/xla_vllm/vllm/vllm/v1/worker/xla_gpu_model_runner.py" source_line=1400}
  %constant_239_7 = s64[] constant(0), metadata={op_type="xla__update_slice" op_name="xla__update_slice" source_file="/code/github_code/xla_vllm/vllm/vllm/v1/worker/xla_gpu_model_runner.py" source_line=1401}
  ROOT %dynamic-update-slice.62.1 = bf16[16,16]{1,0} dynamic-update-slice(bf16[16,16]{1,0} %param_0.52, bf16[1,16]{1,0} %bitcast.1514.1, s64[] %constant_278_2, s64[] %constant_239_7), metadata={op_type="xla__update_slice" op_name="xla__update_slice" source_file="/code/github_code/xla_vllm/vllm/vllm/v1/worker/xla_gpu_model_runner.py" source_line=1400}
}

%wrapped_slice_computation.2 (param_0.110: bf16[16,16]) -> bf16[1,16] {
  %param_0.110 = bf16[16,16]{1,0} parameter(0)
  ROOT %slice.58.1 = bf16[1,16]{1,0} slice(bf16[16,16]{1,0} %param_0.110), slice={[2:3], [0:16]}, metadata={op_type="xla__generic_slice" op_name="xla__generic_slice" source_file="/code/github_code/xla_vllm/vllm/vllm/v1/worker/xla_gpu_model_runner.py" source_line=1401}
}

%fused_dynamic_update_slice.24 (param_0.50: bf16[16,16], param_1.140: bf16[1,16], param_2.183: bf16[]) -> bf16[16,16] {
  %param_0.50 = bf16[16,16]{1,0} parameter(0)
  %constant_18_22 = pred[] constant(true), metadata={op_type="xla__unselect" op_name="xla__unselect" source_file="/code/github_code/xla_vllm/vllm/vllm/v1/worker/xla_gpu_model_runner.py" source_line=1389}
  %broadcast.275.1 = pred[13]{0} broadcast(pred[] %constant_18_22), dimensions={}, metadata={op_type="xla__unselect" op_name="xla__unselect" source_file="/code/github_code/xla_vllm/vllm/vllm/v1/worker/xla_gpu_model_runner.py" source_line=1401}
  %constant_20_10 = pred[] constant(false), metadata={op_type="xla__unselect" op_name="xla__unselect" source_file="/code/github_code/xla_vllm/vllm/vllm/v1/worker/xla_gpu_model_runner.py" source_line=1389}
  %pad.139.1 = pred[16]{0} pad(pred[13]{0} %broadcast.275.1, pred[] %constant_20_10), padding=3_0, metadata={op_type="xla__unselect" op_name="xla__unselect" source_file="/code/github_code/xla_vllm/vllm/vllm/v1/worker/xla_gpu_model_runner.py" source_line=1401}
  %param_2.183 = bf16[] parameter(2)
  %broadcast.276.1 = bf16[13]{0} broadcast(bf16[] %param_2.183), dimensions={}, metadata={op_type="aten__expand" op_name="aten__expand" source_file="/code/github_code/xla_vllm/vllm/vllm/v1/worker/xla_gpu_model_runner.py" source_line=1401}
  %constant_32_24 = bf16[] constant(0), metadata={op_type="prim__Constant" op_name="prim__Constant" source_file="/code/github_code/xla_vllm/vllm/vllm/v1/worker/xla_gpu_model_runner.py" source_line=1394}
  %pad.140.1 = bf16[16]{0} pad(bf16[13]{0} %broadcast.276.1, bf16[] %constant_32_24), padding=3_0, metadata={op_type="xla__unselect" op_name="xla__unselect" source_file="/code/github_code/xla_vllm/vllm/vllm/v1/worker/xla_gpu_model_runner.py" source_line=1401}
  %param_1.140 = bf16[1,16]{1,0} parameter(1)
  %bitcast.1533.3 = bf16[16]{0} bitcast(bf16[1,16]{1,0} %param_1.140)
  %select.70.3 = bf16[16]{0} select(pred[16]{0} %pad.139.1, bf16[16]{0} %pad.140.1, bf16[16]{0} %bitcast.1533.3), metadata={op_type="xla__unselect" op_name="xla__unselect" source_file="/code/github_code/xla_vllm/vllm/vllm/v1/worker/xla_gpu_model_runner.py" source_line=1401}
  %bitcast.1536.1 = bf16[1,16]{1,0} bitcast(bf16[16]{0} %select.70.3)
  %constant_278_1 = s64[] constant(2), metadata={op_type="xla__update_slice" op_name="xla__update_slice" source_file="/code/github_code/xla_vllm/vllm/vllm/v1/worker/xla_gpu_model_runner.py" source_line=1400}
  %constant_239_8 = s64[] constant(0), metadata={op_type="xla__update_slice" op_name="xla__update_slice" source_file="/code/github_code/xla_vllm/vllm/vllm/v1/worker/xla_gpu_model_runner.py" source_line=1401}
  ROOT %dynamic-update-slice.63.1 = bf16[16,16]{1,0} dynamic-update-slice(bf16[16,16]{1,0} %param_0.50, bf16[1,16]{1,0} %bitcast.1536.1, s64[] %constant_278_1, s64[] %constant_239_8), metadata={op_type="xla__update_slice" op_name="xla__update_slice" source_file="/code/github_code/xla_vllm/vllm/vllm/v1/worker/xla_gpu_model_runner.py" source_line=1401}
}

%wrapped_slice_computation.3 (param_0.111: bf16[16,16]) -> bf16[1,16] {
  %param_0.111 = bf16[16,16]{1,0} parameter(0)
  ROOT %slice.59.1 = bf16[1,16]{1,0} slice(bf16[16,16]{1,0} %param_0.111), slice={[3:4], [0:16]}, metadata={op_type="xla__generic_slice" op_name="xla__generic_slice" source_file="/code/github_code/xla_vllm/vllm/vllm/v1/worker/xla_gpu_model_runner.py" source_line=1400}
}

%fused_dynamic_update_slice.23 (param_0.48: bf16[16,16], param_1.143: bf16[1,16]) -> bf16[16,16] {
  %param_0.48 = bf16[16,16]{1,0} parameter(0)
  %constant_18_28 = pred[] constant(true), metadata={op_type="xla__unselect" op_name="xla__unselect" source_file="/code/github_code/xla_vllm/vllm/vllm/v1/worker/xla_gpu_model_runner.py" source_line=1389}
  %broadcast.277.1 = pred[4]{0} broadcast(pred[] %constant_18_28), dimensions={}, metadata={op_type="xla__unselect" op_name="xla__unselect" source_file="/code/github_code/xla_vllm/vllm/vllm/v1/worker/xla_gpu_model_runner.py" source_line=1400}
  %constant_20_11 = pred[] constant(false), metadata={op_type="xla__unselect" op_name="xla__unselect" source_file="/code/github_code/xla_vllm/vllm/vllm/v1/worker/xla_gpu_model_runner.py" source_line=1389}
  %pad.141.1 = pred[16]{0} pad(pred[4]{0} %broadcast.277.1, pred[] %constant_20_11), padding=0_12, metadata={op_type="xla__unselect" op_name="xla__unselect" source_file="/code/github_code/xla_vllm/vllm/vllm/v1/worker/xla_gpu_model_runner.py" source_line=1400}
  %constant_32_21 = bf16[] constant(0), metadata={op_type="prim__Constant" op_name="prim__Constant" source_file="/code/github_code/xla_vllm/vllm/vllm/v1/worker/xla_gpu_model_runner.py" source_line=1394}
  %broadcast.278.1 = bf16[4]{0} broadcast(bf16[] %constant_32_21), dimensions={}, metadata={op_type="aten__expand" op_name="aten__expand" source_file="/code/github_code/xla_vllm/vllm/vllm/v1/worker/xla_gpu_model_runner.py" source_line=1400}
  %pad.142.1 = bf16[16]{0} pad(bf16[4]{0} %broadcast.278.1, bf16[] %constant_32_21), padding=0_12, metadata={op_type="xla__unselect" op_name="xla__unselect" source_file="/code/github_code/xla_vllm/vllm/vllm/v1/worker/xla_gpu_model_runner.py" source_line=1400}
  %param_1.143 = bf16[1,16]{1,0} parameter(1)
  %bitcast.1552.3 = bf16[16]{0} bitcast(bf16[1,16]{1,0} %param_1.143)
  %select.71.3 = bf16[16]{0} select(pred[16]{0} %pad.141.1, bf16[16]{0} %pad.142.1, bf16[16]{0} %bitcast.1552.3), metadata={op_type="xla__unselect" op_name="xla__unselect" source_file="/code/github_code/xla_vllm/vllm/vllm/v1/worker/xla_gpu_model_runner.py" source_line=1400}
  %bitcast.1555.1 = bf16[1,16]{1,0} bitcast(bf16[16]{0} %select.71.3)
  %constant_304_2 = s64[] constant(3), metadata={op_type="xla__update_slice" op_name="xla__update_slice" source_file="/code/github_code/xla_vllm/vllm/vllm/v1/worker/xla_gpu_model_runner.py" source_line=1400}
  %constant_239_9 = s64[] constant(0), metadata={op_type="xla__update_slice" op_name="xla__update_slice" source_file="/code/github_code/xla_vllm/vllm/vllm/v1/worker/xla_gpu_model_runner.py" source_line=1401}
  ROOT %dynamic-update-slice.64.1 = bf16[16,16]{1,0} dynamic-update-slice(bf16[16,16]{1,0} %param_0.48, bf16[1,16]{1,0} %bitcast.1555.1, s64[] %constant_304_2, s64[] %constant_239_9), metadata={op_type="xla__update_slice" op_name="xla__update_slice" source_file="/code/github_code/xla_vllm/vllm/vllm/v1/worker/xla_gpu_model_runner.py" source_line=1400}
}

%wrapped_slice_computation.4 (param_0.112: bf16[16,16]) -> bf16[1,16] {
  %param_0.112 = bf16[16,16]{1,0} parameter(0)
  ROOT %slice.60.1 = bf16[1,16]{1,0} slice(bf16[16,16]{1,0} %param_0.112), slice={[3:4], [0:16]}, metadata={op_type="xla__generic_slice" op_name="xla__generic_slice" source_file="/code/github_code/xla_vllm/vllm/vllm/v1/worker/xla_gpu_model_runner.py" source_line=1401}
}

%fused_dynamic_update_slice.22 (param_0.46: bf16[16,16], param_1.142: bf16[1,16], param_2.184: bf16[]) -> bf16[16,16] {
  %param_0.46 = bf16[16,16]{1,0} parameter(0)
  %constant_18_21 = pred[] constant(true), metadata={op_type="xla__unselect" op_name="xla__unselect" source_file="/code/github_code/xla_vllm/vllm/vllm/v1/worker/xla_gpu_model_runner.py" source_line=1389}
  %broadcast.279.1 = pred[12]{0} broadcast(pred[] %constant_18_21), dimensions={}, metadata={op_type="xla__unselect" op_name="xla__unselect" source_file="/code/github_code/xla_vllm/vllm/vllm/v1/worker/xla_gpu_model_runner.py" source_line=1401}
  %constant_20_12 = pred[] constant(false), metadata={op_type="xla__unselect" op_name="xla__unselect" source_file="/code/github_code/xla_vllm/vllm/vllm/v1/worker/xla_gpu_model_runner.py" source_line=1389}
  %pad.143.1 = pred[16]{0} pad(pred[12]{0} %broadcast.279.1, pred[] %constant_20_12), padding=4_0, metadata={op_type="xla__unselect" op_name="xla__unselect" source_file="/code/github_code/xla_vllm/vllm/vllm/v1/worker/xla_gpu_model_runner.py" source_line=1401}
  %param_2.184 = bf16[] parameter(2)
  %broadcast.280.1 = bf16[12]{0} broadcast(bf16[] %param_2.184), dimensions={}, metadata={op_type="aten__expand" op_name="aten__expand" source_file="/code/github_code/xla_vllm/vllm/vllm/v1/worker/xla_gpu_model_runner.py" source_line=1401}
  %constant_32_22 = bf16[] constant(0), metadata={op_type="prim__Constant" op_name="prim__Constant" source_file="/code/github_code/xla_vllm/vllm/vllm/v1/worker/xla_gpu_model_runner.py" source_line=1394}
  %pad.144.1 = bf16[16]{0} pad(bf16[12]{0} %broadcast.280.1, bf16[] %constant_32_22), padding=4_0, metadata={op_type="xla__unselect" op_name="xla__unselect" source_file="/code/github_code/xla_vllm/vllm/vllm/v1/worker/xla_gpu_model_runner.py" source_line=1401}
  %param_1.142 = bf16[1,16]{1,0} parameter(1)
  %bitcast.1574.3 = bf16[16]{0} bitcast(bf16[1,16]{1,0} %param_1.142)
  %select.72.3 = bf16[16]{0} select(pred[16]{0} %pad.143.1, bf16[16]{0} %pad.144.1, bf16[16]{0} %bitcast.1574.3), metadata={op_type="xla__unselect" op_name="xla__unselect" source_file="/code/github_code/xla_vllm/vllm/vllm/v1/worker/xla_gpu_model_runner.py" source_line=1401}
  %bitcast.1577.1 = bf16[1,16]{1,0} bitcast(bf16[16]{0} %select.72.3)
  %constant_304_1 = s64[] constant(3), metadata={op_type="xla__update_slice" op_name="xla__update_slice" source_file="/code/github_code/xla_vllm/vllm/vllm/v1/worker/xla_gpu_model_runner.py" source_line=1400}
  %constant_239_10 = s64[] constant(0), metadata={op_type="xla__update_slice" op_name="xla__update_slice" source_file="/code/github_code/xla_vllm/vllm/vllm/v1/worker/xla_gpu_model_runner.py" source_line=1401}
  ROOT %dynamic-update-slice.65.1 = bf16[16,16]{1,0} dynamic-update-slice(bf16[16,16]{1,0} %param_0.46, bf16[1,16]{1,0} %bitcast.1577.1, s64[] %constant_304_1, s64[] %constant_239_10), metadata={op_type="xla__update_slice" op_name="xla__update_slice" source_file="/code/github_code/xla_vllm/vllm/vllm/v1/worker/xla_gpu_model_runner.py" source_line=1401}
}

%wrapped_slice_computation.5 (param_0.113: bf16[16,16]) -> bf16[1,16] {
  %param_0.113 = bf16[16,16]{1,0} parameter(0)
  ROOT %slice.61.1 = bf16[1,16]{1,0} slice(bf16[16,16]{1,0} %param_0.113), slice={[4:5], [0:16]}, metadata={op_type="xla__generic_slice" op_name="xla__generic_slice" source_file="/code/github_code/xla_vllm/vllm/vllm/v1/worker/xla_gpu_model_runner.py" source_line=1400}
}

%fused_dynamic_update_slice.21 (param_0.44: bf16[16,16], param_1.145: bf16[1,16]) -> bf16[16,16] {
  %param_0.44 = bf16[16,16]{1,0} parameter(0)
  %constant_18_27 = pred[] constant(true), metadata={op_type="xla__unselect" op_name="xla__unselect" source_file="/code/github_code/xla_vllm/vllm/vllm/v1/worker/xla_gpu_model_runner.py" source_line=1389}
  %broadcast.281.1 = pred[5]{0} broadcast(pred[] %constant_18_27), dimensions={}, metadata={op_type="xla__unselect" op_name="xla__unselect" source_file="/code/github_code/xla_vllm/vllm/vllm/v1/worker/xla_gpu_model_runner.py" source_line=1400}
  %constant_20_13 = pred[] constant(false), metadata={op_type="xla__unselect" op_name="xla__unselect" source_file="/code/github_code/xla_vllm/vllm/vllm/v1/worker/xla_gpu_model_runner.py" source_line=1389}
  %pad.145.1 = pred[16]{0} pad(pred[5]{0} %broadcast.281.1, pred[] %constant_20_13), padding=0_11, metadata={op_type="xla__unselect" op_name="xla__unselect" source_file="/code/github_code/xla_vllm/vllm/vllm/v1/worker/xla_gpu_model_runner.py" source_line=1400}
  %constant_32_20 = bf16[] constant(0), metadata={op_type="prim__Constant" op_name="prim__Constant" source_file="/code/github_code/xla_vllm/vllm/vllm/v1/worker/xla_gpu_model_runner.py" source_line=1394}
  %broadcast.282.1 = bf16[5]{0} broadcast(bf16[] %constant_32_20), dimensions={}, metadata={op_type="aten__expand" op_name="aten__expand" source_file="/code/github_code/xla_vllm/vllm/vllm/v1/worker/xla_gpu_model_runner.py" source_line=1400}
  %pad.146.1 = bf16[16]{0} pad(bf16[5]{0} %broadcast.282.1, bf16[] %constant_32_20), padding=0_11, metadata={op_type="xla__unselect" op_name="xla__unselect" source_file="/code/github_code/xla_vllm/vllm/vllm/v1/worker/xla_gpu_model_runner.py" source_line=1400}
  %param_1.145 = bf16[1,16]{1,0} parameter(1)
  %bitcast.1593.3 = bf16[16]{0} bitcast(bf16[1,16]{1,0} %param_1.145)
  %select.73.3 = bf16[16]{0} select(pred[16]{0} %pad.145.1, bf16[16]{0} %pad.146.1, bf16[16]{0} %bitcast.1593.3), metadata={op_type="xla__unselect" op_name="xla__unselect" source_file="/code/github_code/xla_vllm/vllm/vllm/v1/worker/xla_gpu_model_runner.py" source_line=1400}
  %bitcast.1596.1 = bf16[1,16]{1,0} bitcast(bf16[16]{0} %select.73.3)
  %constant_330_2 = s64[] constant(4), metadata={op_type="xla__update_slice" op_name="xla__update_slice" source_file="/code/github_code/xla_vllm/vllm/vllm/v1/worker/xla_gpu_model_runner.py" source_line=1400}
  %constant_239_11 = s64[] constant(0), metadata={op_type="xla__update_slice" op_name="xla__update_slice" source_file="/code/github_code/xla_vllm/vllm/vllm/v1/worker/xla_gpu_model_runner.py" source_line=1401}
  ROOT %dynamic-update-slice.66.1 = bf16[16,16]{1,0} dynamic-update-slice(bf16[16,16]{1,0} %param_0.44, bf16[1,16]{1,0} %bitcast.1596.1, s64[] %constant_330_2, s64[] %constant_239_11), metadata={op_type="xla__update_slice" op_name="xla__update_slice" source_file="/code/github_code/xla_vllm/vllm/vllm/v1/worker/xla_gpu_model_runner.py" source_line=1400}
}

%wrapped_slice_computation.6 (param_0.114: bf16[16,16]) -> bf16[1,16] {
  %param_0.114 = bf16[16,16]{1,0} parameter(0)
  ROOT %slice.62.1 = bf16[1,16]{1,0} slice(bf16[16,16]{1,0} %param_0.114), slice={[4:5], [0:16]}, metadata={op_type="xla__generic_slice" op_name="xla__generic_slice" source_file="/code/github_code/xla_vllm/vllm/vllm/v1/worker/xla_gpu_model_runner.py" source_line=1401}
}

%fused_dynamic_update_slice.20 (param_0.42: bf16[16,16], param_1.144: bf16[1,16], param_2.185: bf16[]) -> bf16[16,16] {
  %param_0.42 = bf16[16,16]{1,0} parameter(0)
  %constant_18_20 = pred[] constant(true), metadata={op_type="xla__unselect" op_name="xla__unselect" source_file="/code/github_code/xla_vllm/vllm/vllm/v1/worker/xla_gpu_model_runner.py" source_line=1389}
  %broadcast.283.1 = pred[11]{0} broadcast(pred[] %constant_18_20), dimensions={}, metadata={op_type="xla__unselect" op_name="xla__unselect" source_file="/code/github_code/xla_vllm/vllm/vllm/v1/worker/xla_gpu_model_runner.py" source_line=1401}
  %constant_20_14 = pred[] constant(false), metadata={op_type="xla__unselect" op_name="xla__unselect" source_file="/code/github_code/xla_vllm/vllm/vllm/v1/worker/xla_gpu_model_runner.py" source_line=1389}
  %pad.147.1 = pred[16]{0} pad(pred[11]{0} %broadcast.283.1, pred[] %constant_20_14), padding=5_0, metadata={op_type="xla__unselect" op_name="xla__unselect" source_file="/code/github_code/xla_vllm/vllm/vllm/v1/worker/xla_gpu_model_runner.py" source_line=1401}
  %param_2.185 = bf16[] parameter(2)
  %broadcast.285.1 = bf16[11]{0} broadcast(bf16[] %param_2.185), dimensions={}, metadata={op_type="aten__expand" op_name="aten__expand" source_file="/code/github_code/xla_vllm/vllm/vllm/v1/worker/xla_gpu_model_runner.py" source_line=1401}
  %constant_32_23 = bf16[] constant(0), metadata={op_type="prim__Constant" op_name="prim__Constant" source_file="/code/github_code/xla_vllm/vllm/vllm/v1/worker/xla_gpu_model_runner.py" source_line=1394}
  %pad.148.1 = bf16[16]{0} pad(bf16[11]{0} %broadcast.285.1, bf16[] %constant_32_23), padding=5_0, metadata={op_type="xla__unselect" op_name="xla__unselect" source_file="/code/github_code/xla_vllm/vllm/vllm/v1/worker/xla_gpu_model_runner.py" source_line=1401}
  %param_1.144 = bf16[1,16]{1,0} parameter(1)
  %bitcast.1615.3 = bf16[16]{0} bitcast(bf16[1,16]{1,0} %param_1.144)
  %select.74.3 = bf16[16]{0} select(pred[16]{0} %pad.147.1, bf16[16]{0} %pad.148.1, bf16[16]{0} %bitcast.1615.3), metadata={op_type="xla__unselect" op_name="xla__unselect" source_file="/code/github_code/xla_vllm/vllm/vllm/v1/worker/xla_gpu_model_runner.py" source_line=1401}
  %bitcast.1618.1 = bf16[1,16]{1,0} bitcast(bf16[16]{0} %select.74.3)
  %constant_330_1 = s64[] constant(4), metadata={op_type="xla__update_slice" op_name="xla__update_slice" source_file="/code/github_code/xla_vllm/vllm/vllm/v1/worker/xla_gpu_model_runner.py" source_line=1400}
  %constant_239_12 = s64[] constant(0), metadata={op_type="xla__update_slice" op_name="xla__update_slice" source_file="/code/github_code/xla_vllm/vllm/vllm/v1/worker/xla_gpu_model_runner.py" source_line=1401}
  ROOT %dynamic-update-slice.67.1 = bf16[16,16]{1,0} dynamic-update-slice(bf16[16,16]{1,0} %param_0.42, bf16[1,16]{1,0} %bitcast.1618.1, s64[] %constant_330_1, s64[] %constant_239_12), metadata={op_type="xla__update_slice" op_name="xla__update_slice" source_file="/code/github_code/xla_vllm/vllm/vllm/v1/worker/xla_gpu_model_runner.py" source_line=1401}
}

%wrapped_slice_computation.7 (param_0.115: bf16[16,16]) -> bf16[1,16] {
  %param_0.115 = bf16[16,16]{1,0} parameter(0)
  ROOT %slice.63.1 = bf16[1,16]{1,0} slice(bf16[16,16]{1,0} %param_0.115), slice={[5:6], [0:16]}, metadata={op_type="xla__generic_slice" op_name="xla__generic_slice" source_file="/code/github_code/xla_vllm/vllm/vllm/v1/worker/xla_gpu_model_runner.py" source_line=1400}
}

%fused_dynamic_update_slice.19 (param_0.40: bf16[16,16], param_1.147: bf16[1,16]) -> bf16[16,16] {
  %param_0.40 = bf16[16,16]{1,0} parameter(0)
  %constant_18_16 = pred[] constant(true), metadata={op_type="xla__unselect" op_name="xla__unselect" source_file="/code/github_code/xla_vllm/vllm/vllm/v1/worker/xla_gpu_model_runner.py" source_line=1389}
  %broadcast.286.6 = pred[6]{0} broadcast(pred[] %constant_18_16), dimensions={}, metadata={op_type="xla__unselect" op_name="xla__unselect" source_file="/code/github_code/xla_vllm/vllm/vllm/v1/worker/xla_gpu_model_runner.py" source_line=1400}
  %constant_20_15 = pred[] constant(false), metadata={op_type="xla__unselect" op_name="xla__unselect" source_file="/code/github_code/xla_vllm/vllm/vllm/v1/worker/xla_gpu_model_runner.py" source_line=1389}
  %pad.149.3 = pred[16]{0} pad(pred[6]{0} %broadcast.286.6, pred[] %constant_20_15), padding=0_10, metadata={op_type="xla__unselect" op_name="xla__unselect" source_file="/code/github_code/xla_vllm/vllm/vllm/v1/worker/xla_gpu_model_runner.py" source_line=1400}
  %constant_32_10 = bf16[] constant(0), metadata={op_type="prim__Constant" op_name="prim__Constant" source_file="/code/github_code/xla_vllm/vllm/vllm/v1/worker/xla_gpu_model_runner.py" source_line=1394}
  %broadcast.287.1 = bf16[6]{0} broadcast(bf16[] %constant_32_10), dimensions={}, metadata={op_type="aten__expand" op_name="aten__expand" source_file="/code/github_code/xla_vllm/vllm/vllm/v1/worker/xla_gpu_model_runner.py" source_line=1400}
  %pad.150.1 = bf16[16]{0} pad(bf16[6]{0} %broadcast.287.1, bf16[] %constant_32_10), padding=0_10, metadata={op_type="xla__unselect" op_name="xla__unselect" source_file="/code/github_code/xla_vllm/vllm/vllm/v1/worker/xla_gpu_model_runner.py" source_line=1400}
  %param_1.147 = bf16[1,16]{1,0} parameter(1)
  %bitcast.1634.3 = bf16[16]{0} bitcast(bf16[1,16]{1,0} %param_1.147)
  %select.75.3 = bf16[16]{0} select(pred[16]{0} %pad.149.3, bf16[16]{0} %pad.150.1, bf16[16]{0} %bitcast.1634.3), metadata={op_type="xla__unselect" op_name="xla__unselect" source_file="/code/github_code/xla_vllm/vllm/vllm/v1/worker/xla_gpu_model_runner.py" source_line=1400}
  %bitcast.1637.1 = bf16[1,16]{1,0} bitcast(bf16[16]{0} %select.75.3)
  %constant_356_2 = s64[] constant(5), metadata={op_type="xla__update_slice" op_name="xla__update_slice" source_file="/code/github_code/xla_vllm/vllm/vllm/v1/worker/xla_gpu_model_runner.py" source_line=1400}
  %constant_239_13 = s64[] constant(0), metadata={op_type="xla__update_slice" op_name="xla__update_slice" source_file="/code/github_code/xla_vllm/vllm/vllm/v1/worker/xla_gpu_model_runner.py" source_line=1401}
  ROOT %dynamic-update-slice.68.1 = bf16[16,16]{1,0} dynamic-update-slice(bf16[16,16]{1,0} %param_0.40, bf16[1,16]{1,0} %bitcast.1637.1, s64[] %constant_356_2, s64[] %constant_239_13), metadata={op_type="xla__update_slice" op_name="xla__update_slice" source_file="/code/github_code/xla_vllm/vllm/vllm/v1/worker/xla_gpu_model_runner.py" source_line=1400}
}

%wrapped_slice_computation.8 (param_0.116: bf16[16,16]) -> bf16[1,16] {
  %param_0.116 = bf16[16,16]{1,0} parameter(0)
  ROOT %slice.64.1 = bf16[1,16]{1,0} slice(bf16[16,16]{1,0} %param_0.116), slice={[5:6], [0:16]}, metadata={op_type="xla__generic_slice" op_name="xla__generic_slice" source_file="/code/github_code/xla_vllm/vllm/vllm/v1/worker/xla_gpu_model_runner.py" source_line=1401}
}

%fused_dynamic_update_slice.18 (param_0.38: bf16[16,16], param_1.146: bf16[1,16], param_2.186: bf16[]) -> bf16[16,16] {
  %param_0.38 = bf16[16,16]{1,0} parameter(0)
  %constant_18_19 = pred[] constant(true), metadata={op_type="xla__unselect" op_name="xla__unselect" source_file="/code/github_code/xla_vllm/vllm/vllm/v1/worker/xla_gpu_model_runner.py" source_line=1389}
  %broadcast.288.1 = pred[10]{0} broadcast(pred[] %constant_18_19), dimensions={}, metadata={op_type="xla__unselect" op_name="xla__unselect" source_file="/code/github_code/xla_vllm/vllm/vllm/v1/worker/xla_gpu_model_runner.py" source_line=1401}
  %constant_20_16 = pred[] constant(false), metadata={op_type="xla__unselect" op_name="xla__unselect" source_file="/code/github_code/xla_vllm/vllm/vllm/v1/worker/xla_gpu_model_runner.py" source_line=1389}
  %pad.151.1 = pred[16]{0} pad(pred[10]{0} %broadcast.288.1, pred[] %constant_20_16), padding=6_0, metadata={op_type="xla__unselect" op_name="xla__unselect" source_file="/code/github_code/xla_vllm/vllm/vllm/v1/worker/xla_gpu_model_runner.py" source_line=1401}
  %param_2.186 = bf16[] parameter(2)
  %broadcast.289.1 = bf16[10]{0} broadcast(bf16[] %param_2.186), dimensions={}, metadata={op_type="aten__expand" op_name="aten__expand" source_file="/code/github_code/xla_vllm/vllm/vllm/v1/worker/xla_gpu_model_runner.py" source_line=1401}
  %constant_32_31 = bf16[] constant(0), metadata={op_type="prim__Constant" op_name="prim__Constant" source_file="/code/github_code/xla_vllm/vllm/vllm/v1/worker/xla_gpu_model_runner.py" source_line=1394}
  %pad.152.1 = bf16[16]{0} pad(bf16[10]{0} %broadcast.289.1, bf16[] %constant_32_31), padding=6_0, metadata={op_type="xla__unselect" op_name="xla__unselect" source_file="/code/github_code/xla_vllm/vllm/vllm/v1/worker/xla_gpu_model_runner.py" source_line=1401}
  %param_1.146 = bf16[1,16]{1,0} parameter(1)
  %bitcast.1656.3 = bf16[16]{0} bitcast(bf16[1,16]{1,0} %param_1.146)
  %select.76.3 = bf16[16]{0} select(pred[16]{0} %pad.151.1, bf16[16]{0} %pad.152.1, bf16[16]{0} %bitcast.1656.3), metadata={op_type="xla__unselect" op_name="xla__unselect" source_file="/code/github_code/xla_vllm/vllm/vllm/v1/worker/xla_gpu_model_runner.py" source_line=1401}
  %bitcast.1659.1 = bf16[1,16]{1,0} bitcast(bf16[16]{0} %select.76.3)
  %constant_356_1 = s64[] constant(5), metadata={op_type="xla__update_slice" op_name="xla__update_slice" source_file="/code/github_code/xla_vllm/vllm/vllm/v1/worker/xla_gpu_model_runner.py" source_line=1400}
  %constant_239_14 = s64[] constant(0), metadata={op_type="xla__update_slice" op_name="xla__update_slice" source_file="/code/github_code/xla_vllm/vllm/vllm/v1/worker/xla_gpu_model_runner.py" source_line=1401}
  ROOT %dynamic-update-slice.69.1 = bf16[16,16]{1,0} dynamic-update-slice(bf16[16,16]{1,0} %param_0.38, bf16[1,16]{1,0} %bitcast.1659.1, s64[] %constant_356_1, s64[] %constant_239_14), metadata={op_type="xla__update_slice" op_name="xla__update_slice" source_file="/code/github_code/xla_vllm/vllm/vllm/v1/worker/xla_gpu_model_runner.py" source_line=1401}
}

%wrapped_slice_computation.9 (param_0.117: bf16[16,16]) -> bf16[1,16] {
  %param_0.117 = bf16[16,16]{1,0} parameter(0)
  ROOT %slice.65.1 = bf16[1,16]{1,0} slice(bf16[16,16]{1,0} %param_0.117), slice={[6:7], [0:16]}, metadata={op_type="xla__generic_slice" op_name="xla__generic_slice" source_file="/code/github_code/xla_vllm/vllm/vllm/v1/worker/xla_gpu_model_runner.py" source_line=1400}
}

%fused_dynamic_update_slice.17 (param_0.36: bf16[16,16], param_1.149: bf16[1,16]) -> bf16[16,16] {
  %param_0.36 = bf16[16,16]{1,0} parameter(0)
  %constant_18_18 = pred[] constant(true), metadata={op_type="xla__unselect" op_name="xla__unselect" source_file="/code/github_code/xla_vllm/vllm/vllm/v1/worker/xla_gpu_model_runner.py" source_line=1389}
  %broadcast.290.1 = pred[7]{0} broadcast(pred[] %constant_18_18), dimensions={}, metadata={op_type="xla__unselect" op_name="xla__unselect" source_file="/code/github_code/xla_vllm/vllm/vllm/v1/worker/xla_gpu_model_runner.py" source_line=1400}
  %constant_20_17 = pred[] constant(false), metadata={op_type="xla__unselect" op_name="xla__unselect" source_file="/code/github_code/xla_vllm/vllm/vllm/v1/worker/xla_gpu_model_runner.py" source_line=1389}
  %pad.153.1 = pred[16]{0} pad(pred[7]{0} %broadcast.290.1, pred[] %constant_20_17), padding=0_9, metadata={op_type="xla__unselect" op_name="xla__unselect" source_file="/code/github_code/xla_vllm/vllm/vllm/v1/worker/xla_gpu_model_runner.py" source_line=1400}
  %constant_32_3 = bf16[] constant(0), metadata={op_type="prim__Constant" op_name="prim__Constant" source_file="/code/github_code/xla_vllm/vllm/vllm/v1/worker/xla_gpu_model_runner.py" source_line=1394}
  %broadcast.291.1 = bf16[7]{0} broadcast(bf16[] %constant_32_3), dimensions={}, metadata={op_type="aten__expand" op_name="aten__expand" source_file="/code/github_code/xla_vllm/vllm/vllm/v1/worker/xla_gpu_model_runner.py" source_line=1400}
  %pad.154.1 = bf16[16]{0} pad(bf16[7]{0} %broadcast.291.1, bf16[] %constant_32_3), padding=0_9, metadata={op_type="xla__unselect" op_name="xla__unselect" source_file="/code/github_code/xla_vllm/vllm/vllm/v1/worker/xla_gpu_model_runner.py" source_line=1400}
  %param_1.149 = bf16[1,16]{1,0} parameter(1)
  %bitcast.1675.3 = bf16[16]{0} bitcast(bf16[1,16]{1,0} %param_1.149)
  %select.77.3 = bf16[16]{0} select(pred[16]{0} %pad.153.1, bf16[16]{0} %pad.154.1, bf16[16]{0} %bitcast.1675.3), metadata={op_type="xla__unselect" op_name="xla__unselect" source_file="/code/github_code/xla_vllm/vllm/vllm/v1/worker/xla_gpu_model_runner.py" source_line=1400}
  %bitcast.1678.1 = bf16[1,16]{1,0} bitcast(bf16[16]{0} %select.77.3)
  %constant_382_2 = s64[] constant(6), metadata={op_type="xla__update_slice" op_name="xla__update_slice" source_file="/code/github_code/xla_vllm/vllm/vllm/v1/worker/xla_gpu_model_runner.py" source_line=1400}
  %constant_239_15 = s64[] constant(0), metadata={op_type="xla__update_slice" op_name="xla__update_slice" source_file="/code/github_code/xla_vllm/vllm/vllm/v1/worker/xla_gpu_model_runner.py" source_line=1401}
  ROOT %dynamic-update-slice.70.1 = bf16[16,16]{1,0} dynamic-update-slice(bf16[16,16]{1,0} %param_0.36, bf16[1,16]{1,0} %bitcast.1678.1, s64[] %constant_382_2, s64[] %constant_239_15), metadata={op_type="xla__update_slice" op_name="xla__update_slice" source_file="/code/github_code/xla_vllm/vllm/vllm/v1/worker/xla_gpu_model_runner.py" source_line=1400}
}

%wrapped_slice_computation.10 (param_0.118: bf16[16,16]) -> bf16[1,16] {
  %param_0.118 = bf16[16,16]{1,0} parameter(0)
  ROOT %slice.66.1 = bf16[1,16]{1,0} slice(bf16[16,16]{1,0} %param_0.118), slice={[6:7], [0:16]}, metadata={op_type="xla__generic_slice" op_name="xla__generic_slice" source_file="/code/github_code/xla_vllm/vllm/vllm/v1/worker/xla_gpu_model_runner.py" source_line=1401}
}

%fused_dynamic_update_slice.16 (param_0.34: bf16[16,16], param_1.148: bf16[1,16], param_2.187: bf16[]) -> bf16[16,16] {
  %param_0.34 = bf16[16,16]{1,0} parameter(0)
  %constant_18_17 = pred[] constant(true), metadata={op_type="xla__unselect" op_name="xla__unselect" source_file="/code/github_code/xla_vllm/vllm/vllm/v1/worker/xla_gpu_model_runner.py" source_line=1389}
  %broadcast.292.1 = pred[9]{0} broadcast(pred[] %constant_18_17), dimensions={}, metadata={op_type="xla__unselect" op_name="xla__unselect" source_file="/code/github_code/xla_vllm/vllm/vllm/v1/worker/xla_gpu_model_runner.py" source_line=1401}
  %constant_20_18 = pred[] constant(false), metadata={op_type="xla__unselect" op_name="xla__unselect" source_file="/code/github_code/xla_vllm/vllm/vllm/v1/worker/xla_gpu_model_runner.py" source_line=1389}
  %pad.155.1 = pred[16]{0} pad(pred[9]{0} %broadcast.292.1, pred[] %constant_20_18), padding=7_0, metadata={op_type="xla__unselect" op_name="xla__unselect" source_file="/code/github_code/xla_vllm/vllm/vllm/v1/worker/xla_gpu_model_runner.py" source_line=1401}
  %param_2.187 = bf16[] parameter(2)
  %broadcast.293.1 = bf16[9]{0} broadcast(bf16[] %param_2.187), dimensions={}, metadata={op_type="aten__expand" op_name="aten__expand" source_file="/code/github_code/xla_vllm/vllm/vllm/v1/worker/xla_gpu_model_runner.py" source_line=1401}
  %constant_32_5 = bf16[] constant(0), metadata={op_type="prim__Constant" op_name="prim__Constant" source_file="/code/github_code/xla_vllm/vllm/vllm/v1/worker/xla_gpu_model_runner.py" source_line=1394}
  %pad.156.1 = bf16[16]{0} pad(bf16[9]{0} %broadcast.293.1, bf16[] %constant_32_5), padding=7_0, metadata={op_type="xla__unselect" op_name="xla__unselect" source_file="/code/github_code/xla_vllm/vllm/vllm/v1/worker/xla_gpu_model_runner.py" source_line=1401}
  %param_1.148 = bf16[1,16]{1,0} parameter(1)
  %bitcast.1697.3 = bf16[16]{0} bitcast(bf16[1,16]{1,0} %param_1.148)
  %select.78.3 = bf16[16]{0} select(pred[16]{0} %pad.155.1, bf16[16]{0} %pad.156.1, bf16[16]{0} %bitcast.1697.3), metadata={op_type="xla__unselect" op_name="xla__unselect" source_file="/code/github_code/xla_vllm/vllm/vllm/v1/worker/xla_gpu_model_runner.py" source_line=1401}
  %bitcast.1700.1 = bf16[1,16]{1,0} bitcast(bf16[16]{0} %select.78.3)
  %constant_382_1 = s64[] constant(6), metadata={op_type="xla__update_slice" op_name="xla__update_slice" source_file="/code/github_code/xla_vllm/vllm/vllm/v1/worker/xla_gpu_model_runner.py" source_line=1400}
  %constant_239_16 = s64[] constant(0), metadata={op_type="xla__update_slice" op_name="xla__update_slice" source_file="/code/github_code/xla_vllm/vllm/vllm/v1/worker/xla_gpu_model_runner.py" source_line=1401}
  ROOT %dynamic-update-slice.71.1 = bf16[16,16]{1,0} dynamic-update-slice(bf16[16,16]{1,0} %param_0.34, bf16[1,16]{1,0} %bitcast.1700.1, s64[] %constant_382_1, s64[] %constant_239_16), metadata={op_type="xla__update_slice" op_name="xla__update_slice" source_file="/code/github_code/xla_vllm/vllm/vllm/v1/worker/xla_gpu_model_runner.py" source_line=1401}
}

%wrapped_slice_computation.11 (param_0.119: bf16[16,16]) -> bf16[1,16] {
  %param_0.119 = bf16[16,16]{1,0} parameter(0)
  ROOT %slice.67.1 = bf16[1,16]{1,0} slice(bf16[16,16]{1,0} %param_0.119), slice={[7:8], [0:16]}, metadata={op_type="xla__generic_slice" op_name="xla__generic_slice" source_file="/code/github_code/xla_vllm/vllm/vllm/v1/worker/xla_gpu_model_runner.py" source_line=1400}
}

%fused_dynamic_update_slice.15 (param_0.32: bf16[16,16], param_1.151: bf16[1,16]) -> bf16[16,16] {
  %param_0.32 = bf16[16,16]{1,0} parameter(0)
  %constant_18_2 = pred[] constant(true), metadata={op_type="xla__unselect" op_name="xla__unselect" source_file="/code/github_code/xla_vllm/vllm/vllm/v1/worker/xla_gpu_model_runner.py" source_line=1389}
  %broadcast.257.3 = pred[8]{0} broadcast(pred[] %constant_18_2), dimensions={}, metadata={op_type="xla__unselect" op_name="xla__unselect" source_file="/code/github_code/xla_vllm/vllm/vllm/v1/worker/xla_gpu_model_runner.py" source_line=1389}
  %constant_20_29 = pred[] constant(false), metadata={op_type="xla__unselect" op_name="xla__unselect" source_file="/code/github_code/xla_vllm/vllm/vllm/v1/worker/xla_gpu_model_runner.py" source_line=1389}
  %pad.128.1 = pred[16]{0} pad(pred[8]{0} %broadcast.257.3, pred[] %constant_20_29), padding=0_8, metadata={op_type="xla__unselect" op_name="xla__unselect" source_file="/code/github_code/xla_vllm/vllm/vllm/v1/worker/xla_gpu_model_runner.py" source_line=1389}
  %constant_32_6 = bf16[] constant(0), metadata={op_type="prim__Constant" op_name="prim__Constant" source_file="/code/github_code/xla_vllm/vllm/vllm/v1/worker/xla_gpu_model_runner.py" source_line=1394}
  %broadcast.294.1 = bf16[8]{0} broadcast(bf16[] %constant_32_6), dimensions={}, metadata={op_type="aten__expand" op_name="aten__expand" source_file="/code/github_code/xla_vllm/vllm/vllm/v1/worker/xla_gpu_model_runner.py" source_line=1400}
  %pad.157.1 = bf16[16]{0} pad(bf16[8]{0} %broadcast.294.1, bf16[] %constant_32_6), padding=0_8, metadata={op_type="xla__unselect" op_name="xla__unselect" source_file="/code/github_code/xla_vllm/vllm/vllm/v1/worker/xla_gpu_model_runner.py" source_line=1400}
  %param_1.151 = bf16[1,16]{1,0} parameter(1)
  %bitcast.1712.3 = bf16[16]{0} bitcast(bf16[1,16]{1,0} %param_1.151)
  %select.79.3 = bf16[16]{0} select(pred[16]{0} %pad.128.1, bf16[16]{0} %pad.157.1, bf16[16]{0} %bitcast.1712.3), metadata={op_type="xla__unselect" op_name="xla__unselect" source_file="/code/github_code/xla_vllm/vllm/vllm/v1/worker/xla_gpu_model_runner.py" source_line=1400}
  %bitcast.1715.1 = bf16[1,16]{1,0} bitcast(bf16[16]{0} %select.79.3)
  %constant_408_2 = s64[] constant(7), metadata={op_type="xla__update_slice" op_name="xla__update_slice" source_file="/code/github_code/xla_vllm/vllm/vllm/v1/worker/xla_gpu_model_runner.py" source_line=1400}
  %constant_239_17 = s64[] constant(0), metadata={op_type="xla__update_slice" op_name="xla__update_slice" source_file="/code/github_code/xla_vllm/vllm/vllm/v1/worker/xla_gpu_model_runner.py" source_line=1401}
  ROOT %dynamic-update-slice.72.1 = bf16[16,16]{1,0} dynamic-update-slice(bf16[16,16]{1,0} %param_0.32, bf16[1,16]{1,0} %bitcast.1715.1, s64[] %constant_408_2, s64[] %constant_239_17), metadata={op_type="xla__update_slice" op_name="xla__update_slice" source_file="/code/github_code/xla_vllm/vllm/vllm/v1/worker/xla_gpu_model_runner.py" source_line=1400}
}

%wrapped_slice_computation.12 (param_0.120: bf16[16,16]) -> bf16[1,16] {
  %param_0.120 = bf16[16,16]{1,0} parameter(0)
  ROOT %slice.68.1 = bf16[1,16]{1,0} slice(bf16[16,16]{1,0} %param_0.120), slice={[7:8], [0:16]}, metadata={op_type="xla__generic_slice" op_name="xla__generic_slice" source_file="/code/github_code/xla_vllm/vllm/vllm/v1/worker/xla_gpu_model_runner.py" source_line=1401}
}

%fused_dynamic_update_slice.14 (param_0.30: bf16[16,16], param_1.150: bf16[1,16], param_2.188: bf16[]) -> bf16[16,16] {
  %param_0.30 = bf16[16,16]{1,0} parameter(0)
  %constant_18_25 = pred[] constant(true), metadata={op_type="xla__unselect" op_name="xla__unselect" source_file="/code/github_code/xla_vllm/vllm/vllm/v1/worker/xla_gpu_model_runner.py" source_line=1389}
  %broadcast.257.1 = pred[8]{0} broadcast(pred[] %constant_18_25), dimensions={}, metadata={op_type="xla__unselect" op_name="xla__unselect" source_file="/code/github_code/xla_vllm/vllm/vllm/v1/worker/xla_gpu_model_runner.py" source_line=1389}
  %constant_20_5 = pred[] constant(false), metadata={op_type="xla__unselect" op_name="xla__unselect" source_file="/code/github_code/xla_vllm/vllm/vllm/v1/worker/xla_gpu_model_runner.py" source_line=1389}
  %pad.126.1 = pred[16]{0} pad(pred[8]{0} %broadcast.257.1, pred[] %constant_20_5), padding=8_0, metadata={op_type="xla__unselect" op_name="xla__unselect" source_file="/code/github_code/xla_vllm/vllm/vllm/v1/worker/xla_gpu_model_runner.py" source_line=1389}
  %param_2.188 = bf16[] parameter(2)
  %broadcast.295.1 = bf16[8]{0} broadcast(bf16[] %param_2.188), dimensions={}, metadata={op_type="aten__expand" op_name="aten__expand" source_file="/code/github_code/xla_vllm/vllm/vllm/v1/worker/xla_gpu_model_runner.py" source_line=1401}
  %constant_32_7 = bf16[] constant(0), metadata={op_type="prim__Constant" op_name="prim__Constant" source_file="/code/github_code/xla_vllm/vllm/vllm/v1/worker/xla_gpu_model_runner.py" source_line=1394}
  %pad.158.1 = bf16[16]{0} pad(bf16[8]{0} %broadcast.295.1, bf16[] %constant_32_7), padding=8_0, metadata={op_type="xla__unselect" op_name="xla__unselect" source_file="/code/github_code/xla_vllm/vllm/vllm/v1/worker/xla_gpu_model_runner.py" source_line=1401}
  %param_1.150 = bf16[1,16]{1,0} parameter(1)
  %bitcast.1730.3 = bf16[16]{0} bitcast(bf16[1,16]{1,0} %param_1.150)
  %select.80.3 = bf16[16]{0} select(pred[16]{0} %pad.126.1, bf16[16]{0} %pad.158.1, bf16[16]{0} %bitcast.1730.3), metadata={op_type="xla__unselect" op_name="xla__unselect" source_file="/code/github_code/xla_vllm/vllm/vllm/v1/worker/xla_gpu_model_runner.py" source_line=1401}
  %bitcast.1733.1 = bf16[1,16]{1,0} bitcast(bf16[16]{0} %select.80.3)
  %constant_408_1 = s64[] constant(7), metadata={op_type="xla__update_slice" op_name="xla__update_slice" source_file="/code/github_code/xla_vllm/vllm/vllm/v1/worker/xla_gpu_model_runner.py" source_line=1400}
  %constant_239_18 = s64[] constant(0), metadata={op_type="xla__update_slice" op_name="xla__update_slice" source_file="/code/github_code/xla_vllm/vllm/vllm/v1/worker/xla_gpu_model_runner.py" source_line=1401}
  ROOT %dynamic-update-slice.73.1 = bf16[16,16]{1,0} dynamic-update-slice(bf16[16,16]{1,0} %param_0.30, bf16[1,16]{1,0} %bitcast.1733.1, s64[] %constant_408_1, s64[] %constant_239_18), metadata={op_type="xla__update_slice" op_name="xla__update_slice" source_file="/code/github_code/xla_vllm/vllm/vllm/v1/worker/xla_gpu_model_runner.py" source_line=1401}
}

%wrapped_slice_computation.13 (param_0.121: bf16[16,16]) -> bf16[1,16] {
  %param_0.121 = bf16[16,16]{1,0} parameter(0)
  ROOT %slice.69.1 = bf16[1,16]{1,0} slice(bf16[16,16]{1,0} %param_0.121), slice={[8:9], [0:16]}, metadata={op_type="xla__generic_slice" op_name="xla__generic_slice" source_file="/code/github_code/xla_vllm/vllm/vllm/v1/worker/xla_gpu_model_runner.py" source_line=1400}
}

%fused_dynamic_update_slice.13 (param_0.28: bf16[16,16], param_1.153: bf16[1,16]) -> bf16[16,16] {
  %param_0.28 = bf16[16,16]{1,0} parameter(0)
  %constant_18_15 = pred[] constant(true), metadata={op_type="xla__unselect" op_name="xla__unselect" source_file="/code/github_code/xla_vllm/vllm/vllm/v1/worker/xla_gpu_model_runner.py" source_line=1389}
  %broadcast.292.2 = pred[9]{0} broadcast(pred[] %constant_18_15), dimensions={}, metadata={op_type="xla__unselect" op_name="xla__unselect" source_file="/code/github_code/xla_vllm/vllm/vllm/v1/worker/xla_gpu_model_runner.py" source_line=1401}
  %constant_20_21 = pred[] constant(false), metadata={op_type="xla__unselect" op_name="xla__unselect" source_file="/code/github_code/xla_vllm/vllm/vllm/v1/worker/xla_gpu_model_runner.py" source_line=1389}
  %pad.159.1 = pred[16]{0} pad(pred[9]{0} %broadcast.292.2, pred[] %constant_20_21), padding=0_7, metadata={op_type="xla__unselect" op_name="xla__unselect" source_file="/code/github_code/xla_vllm/vllm/vllm/v1/worker/xla_gpu_model_runner.py" source_line=1400}
  %constant_32_8 = bf16[] constant(0), metadata={op_type="prim__Constant" op_name="prim__Constant" source_file="/code/github_code/xla_vllm/vllm/vllm/v1/worker/xla_gpu_model_runner.py" source_line=1394}
  %broadcast.298.1 = bf16[9]{0} broadcast(bf16[] %constant_32_8), dimensions={}, metadata={op_type="aten__expand" op_name="aten__expand" source_file="/code/github_code/xla_vllm/vllm/vllm/v1/worker/xla_gpu_model_runner.py" source_line=1400}
  %pad.160.1 = bf16[16]{0} pad(bf16[9]{0} %broadcast.298.1, bf16[] %constant_32_8), padding=0_7, metadata={op_type="xla__unselect" op_name="xla__unselect" source_file="/code/github_code/xla_vllm/vllm/vllm/v1/worker/xla_gpu_model_runner.py" source_line=1400}
  %param_1.153 = bf16[1,16]{1,0} parameter(1)
  %bitcast.1749.3 = bf16[16]{0} bitcast(bf16[1,16]{1,0} %param_1.153)
  %select.81.3 = bf16[16]{0} select(pred[16]{0} %pad.159.1, bf16[16]{0} %pad.160.1, bf16[16]{0} %bitcast.1749.3), metadata={op_type="xla__unselect" op_name="xla__unselect" source_file="/code/github_code/xla_vllm/vllm/vllm/v1/worker/xla_gpu_model_runner.py" source_line=1400}
  %bitcast.1752.1 = bf16[1,16]{1,0} bitcast(bf16[16]{0} %select.81.3)
  %constant_434_2 = s64[] constant(8), metadata={op_type="xla__update_slice" op_name="xla__update_slice" source_file="/code/github_code/xla_vllm/vllm/vllm/v1/worker/xla_gpu_model_runner.py" source_line=1400}
  %constant_239_19 = s64[] constant(0), metadata={op_type="xla__update_slice" op_name="xla__update_slice" source_file="/code/github_code/xla_vllm/vllm/vllm/v1/worker/xla_gpu_model_runner.py" source_line=1401}
  ROOT %dynamic-update-slice.74.1 = bf16[16,16]{1,0} dynamic-update-slice(bf16[16,16]{1,0} %param_0.28, bf16[1,16]{1,0} %bitcast.1752.1, s64[] %constant_434_2, s64[] %constant_239_19), metadata={op_type="xla__update_slice" op_name="xla__update_slice" source_file="/code/github_code/xla_vllm/vllm/vllm/v1/worker/xla_gpu_model_runner.py" source_line=1400}
}

%wrapped_slice_computation.14 (param_0.122: bf16[16,16]) -> bf16[1,16] {
  %param_0.122 = bf16[16,16]{1,0} parameter(0)
  ROOT %slice.70.1 = bf16[1,16]{1,0} slice(bf16[16,16]{1,0} %param_0.122), slice={[8:9], [0:16]}, metadata={op_type="xla__generic_slice" op_name="xla__generic_slice" source_file="/code/github_code/xla_vllm/vllm/vllm/v1/worker/xla_gpu_model_runner.py" source_line=1401}
}

%fused_dynamic_update_slice.12 (param_0.26: bf16[16,16], param_1.152: bf16[1,16], param_2.189: bf16[]) -> bf16[16,16] {
  %param_0.26 = bf16[16,16]{1,0} parameter(0)
  %constant_18_14 = pred[] constant(true), metadata={op_type="xla__unselect" op_name="xla__unselect" source_file="/code/github_code/xla_vllm/vllm/vllm/v1/worker/xla_gpu_model_runner.py" source_line=1389}
  %broadcast.290.2 = pred[7]{0} broadcast(pred[] %constant_18_14), dimensions={}, metadata={op_type="xla__unselect" op_name="xla__unselect" source_file="/code/github_code/xla_vllm/vllm/vllm/v1/worker/xla_gpu_model_runner.py" source_line=1400}
  %constant_20_22 = pred[] constant(false), metadata={op_type="xla__unselect" op_name="xla__unselect" source_file="/code/github_code/xla_vllm/vllm/vllm/v1/worker/xla_gpu_model_runner.py" source_line=1389}
  %pad.161.1 = pred[16]{0} pad(pred[7]{0} %broadcast.290.2, pred[] %constant_20_22), padding=9_0, metadata={op_type="xla__unselect" op_name="xla__unselect" source_file="/code/github_code/xla_vllm/vllm/vllm/v1/worker/xla_gpu_model_runner.py" source_line=1401}
  %param_2.189 = bf16[] parameter(2)
  %broadcast.300.1 = bf16[7]{0} broadcast(bf16[] %param_2.189), dimensions={}, metadata={op_type="aten__expand" op_name="aten__expand" source_file="/code/github_code/xla_vllm/vllm/vllm/v1/worker/xla_gpu_model_runner.py" source_line=1401}
  %constant_32_9 = bf16[] constant(0), metadata={op_type="prim__Constant" op_name="prim__Constant" source_file="/code/github_code/xla_vllm/vllm/vllm/v1/worker/xla_gpu_model_runner.py" source_line=1394}
  %pad.162.1 = bf16[16]{0} pad(bf16[7]{0} %broadcast.300.1, bf16[] %constant_32_9), padding=9_0, metadata={op_type="xla__unselect" op_name="xla__unselect" source_file="/code/github_code/xla_vllm/vllm/vllm/v1/worker/xla_gpu_model_runner.py" source_line=1401}
  %param_1.152 = bf16[1,16]{1,0} parameter(1)
  %bitcast.1771.3 = bf16[16]{0} bitcast(bf16[1,16]{1,0} %param_1.152)
  %select.82.3 = bf16[16]{0} select(pred[16]{0} %pad.161.1, bf16[16]{0} %pad.162.1, bf16[16]{0} %bitcast.1771.3), metadata={op_type="xla__unselect" op_name="xla__unselect" source_file="/code/github_code/xla_vllm/vllm/vllm/v1/worker/xla_gpu_model_runner.py" source_line=1401}
  %bitcast.1774.1 = bf16[1,16]{1,0} bitcast(bf16[16]{0} %select.82.3)
  %constant_434_1 = s64[] constant(8), metadata={op_type="xla__update_slice" op_name="xla__update_slice" source_file="/code/github_code/xla_vllm/vllm/vllm/v1/worker/xla_gpu_model_runner.py" source_line=1400}
  %constant_239_20 = s64[] constant(0), metadata={op_type="xla__update_slice" op_name="xla__update_slice" source_file="/code/github_code/xla_vllm/vllm/vllm/v1/worker/xla_gpu_model_runner.py" source_line=1401}
  ROOT %dynamic-update-slice.75.1 = bf16[16,16]{1,0} dynamic-update-slice(bf16[16,16]{1,0} %param_0.26, bf16[1,16]{1,0} %bitcast.1774.1, s64[] %constant_434_1, s64[] %constant_239_20), metadata={op_type="xla__update_slice" op_name="xla__update_slice" source_file="/code/github_code/xla_vllm/vllm/vllm/v1/worker/xla_gpu_model_runner.py" source_line=1401}
}

%wrapped_slice_computation.15 (param_0.123: bf16[16,16]) -> bf16[1,16] {
  %param_0.123 = bf16[16,16]{1,0} parameter(0)
  ROOT %slice.71.1 = bf16[1,16]{1,0} slice(bf16[16,16]{1,0} %param_0.123), slice={[9:10], [0:16]}, metadata={op_type="xla__generic_slice" op_name="xla__generic_slice" source_file="/code/github_code/xla_vllm/vllm/vllm/v1/worker/xla_gpu_model_runner.py" source_line=1400}
}

%fused_dynamic_update_slice.11 (param_0.24: bf16[16,16], param_1.155: bf16[1,16]) -> bf16[16,16] {
  %param_0.24 = bf16[16,16]{1,0} parameter(0)
  %constant_18_13 = pred[] constant(true), metadata={op_type="xla__unselect" op_name="xla__unselect" source_file="/code/github_code/xla_vllm/vllm/vllm/v1/worker/xla_gpu_model_runner.py" source_line=1389}
  %broadcast.288.2 = pred[10]{0} broadcast(pred[] %constant_18_13), dimensions={}, metadata={op_type="xla__unselect" op_name="xla__unselect" source_file="/code/github_code/xla_vllm/vllm/vllm/v1/worker/xla_gpu_model_runner.py" source_line=1401}
  %constant_20_23 = pred[] constant(false), metadata={op_type="xla__unselect" op_name="xla__unselect" source_file="/code/github_code/xla_vllm/vllm/vllm/v1/worker/xla_gpu_model_runner.py" source_line=1389}
  %pad.163.1 = pred[16]{0} pad(pred[10]{0} %broadcast.288.2, pred[] %constant_20_23), padding=0_6, metadata={op_type="xla__unselect" op_name="xla__unselect" source_file="/code/github_code/xla_vllm/vllm/vllm/v1/worker/xla_gpu_model_runner.py" source_line=1400}
  %constant_32_19 = bf16[] constant(0), metadata={op_type="prim__Constant" op_name="prim__Constant" source_file="/code/github_code/xla_vllm/vllm/vllm/v1/worker/xla_gpu_model_runner.py" source_line=1394}
  %broadcast.302.1 = bf16[10]{0} broadcast(bf16[] %constant_32_19), dimensions={}, metadata={op_type="aten__expand" op_name="aten__expand" source_file="/code/github_code/xla_vllm/vllm/vllm/v1/worker/xla_gpu_model_runner.py" source_line=1400}
  %pad.164.1 = bf16[16]{0} pad(bf16[10]{0} %broadcast.302.1, bf16[] %constant_32_19), padding=0_6, metadata={op_type="xla__unselect" op_name="xla__unselect" source_file="/code/github_code/xla_vllm/vllm/vllm/v1/worker/xla_gpu_model_runner.py" source_line=1400}
  %param_1.155 = bf16[1,16]{1,0} parameter(1)
  %bitcast.1790.3 = bf16[16]{0} bitcast(bf16[1,16]{1,0} %param_1.155)
  %select.83.3 = bf16[16]{0} select(pred[16]{0} %pad.163.1, bf16[16]{0} %pad.164.1, bf16[16]{0} %bitcast.1790.3), metadata={op_type="xla__unselect" op_name="xla__unselect" source_file="/code/github_code/xla_vllm/vllm/vllm/v1/worker/xla_gpu_model_runner.py" source_line=1400}
  %bitcast.1793.1 = bf16[1,16]{1,0} bitcast(bf16[16]{0} %select.83.3)
  %constant_460_2 = s64[] constant(9), metadata={op_type="xla__update_slice" op_name="xla__update_slice" source_file="/code/github_code/xla_vllm/vllm/vllm/v1/worker/xla_gpu_model_runner.py" source_line=1400}
  %constant_239_21 = s64[] constant(0), metadata={op_type="xla__update_slice" op_name="xla__update_slice" source_file="/code/github_code/xla_vllm/vllm/vllm/v1/worker/xla_gpu_model_runner.py" source_line=1401}
  ROOT %dynamic-update-slice.76.1 = bf16[16,16]{1,0} dynamic-update-slice(bf16[16,16]{1,0} %param_0.24, bf16[1,16]{1,0} %bitcast.1793.1, s64[] %constant_460_2, s64[] %constant_239_21), metadata={op_type="xla__update_slice" op_name="xla__update_slice" source_file="/code/github_code/xla_vllm/vllm/vllm/v1/worker/xla_gpu_model_runner.py" source_line=1400}
}

%wrapped_slice_computation.16 (param_0.124: bf16[16,16]) -> bf16[1,16] {
  %param_0.124 = bf16[16,16]{1,0} parameter(0)
  ROOT %slice.72.1 = bf16[1,16]{1,0} slice(bf16[16,16]{1,0} %param_0.124), slice={[9:10], [0:16]}, metadata={op_type="xla__generic_slice" op_name="xla__generic_slice" source_file="/code/github_code/xla_vllm/vllm/vllm/v1/worker/xla_gpu_model_runner.py" source_line=1401}
}

%fused_dynamic_update_slice.10 (param_0.22: bf16[16,16], param_1.154: bf16[1,16], param_2.190: bf16[]) -> bf16[16,16] {
  %param_0.22 = bf16[16,16]{1,0} parameter(0)
  %constant_18_12 = pred[] constant(true), metadata={op_type="xla__unselect" op_name="xla__unselect" source_file="/code/github_code/xla_vllm/vllm/vllm/v1/worker/xla_gpu_model_runner.py" source_line=1389}
  %broadcast.286.4 = pred[6]{0} broadcast(pred[] %constant_18_12), dimensions={}, metadata={op_type="xla__unselect" op_name="xla__unselect" source_file="/code/github_code/xla_vllm/vllm/vllm/v1/worker/xla_gpu_model_runner.py" source_line=1400}
  %constant_20_24 = pred[] constant(false), metadata={op_type="xla__unselect" op_name="xla__unselect" source_file="/code/github_code/xla_vllm/vllm/vllm/v1/worker/xla_gpu_model_runner.py" source_line=1389}
  %pad.165.3 = pred[16]{0} pad(pred[6]{0} %broadcast.286.4, pred[] %constant_20_24), padding=10_0, metadata={op_type="xla__unselect" op_name="xla__unselect" source_file="/code/github_code/xla_vllm/vllm/vllm/v1/worker/xla_gpu_model_runner.py" source_line=1401}
  %param_2.190 = bf16[] parameter(2)
  %broadcast.304.1 = bf16[6]{0} broadcast(bf16[] %param_2.190), dimensions={}, metadata={op_type="aten__expand" op_name="aten__expand" source_file="/code/github_code/xla_vllm/vllm/vllm/v1/worker/xla_gpu_model_runner.py" source_line=1401}
  %constant_32_4 = bf16[] constant(0), metadata={op_type="prim__Constant" op_name="prim__Constant" source_file="/code/github_code/xla_vllm/vllm/vllm/v1/worker/xla_gpu_model_runner.py" source_line=1394}
  %pad.166.1 = bf16[16]{0} pad(bf16[6]{0} %broadcast.304.1, bf16[] %constant_32_4), padding=10_0, metadata={op_type="xla__unselect" op_name="xla__unselect" source_file="/code/github_code/xla_vllm/vllm/vllm/v1/worker/xla_gpu_model_runner.py" source_line=1401}
  %param_1.154 = bf16[1,16]{1,0} parameter(1)
  %bitcast.1812.3 = bf16[16]{0} bitcast(bf16[1,16]{1,0} %param_1.154)
  %select.84.3 = bf16[16]{0} select(pred[16]{0} %pad.165.3, bf16[16]{0} %pad.166.1, bf16[16]{0} %bitcast.1812.3), metadata={op_type="xla__unselect" op_name="xla__unselect" source_file="/code/github_code/xla_vllm/vllm/vllm/v1/worker/xla_gpu_model_runner.py" source_line=1401}
  %bitcast.1815.1 = bf16[1,16]{1,0} bitcast(bf16[16]{0} %select.84.3)
  %constant_460_1 = s64[] constant(9), metadata={op_type="xla__update_slice" op_name="xla__update_slice" source_file="/code/github_code/xla_vllm/vllm/vllm/v1/worker/xla_gpu_model_runner.py" source_line=1400}
  %constant_239_22 = s64[] constant(0), metadata={op_type="xla__update_slice" op_name="xla__update_slice" source_file="/code/github_code/xla_vllm/vllm/vllm/v1/worker/xla_gpu_model_runner.py" source_line=1401}
  ROOT %dynamic-update-slice.77.1 = bf16[16,16]{1,0} dynamic-update-slice(bf16[16,16]{1,0} %param_0.22, bf16[1,16]{1,0} %bitcast.1815.1, s64[] %constant_460_1, s64[] %constant_239_22), metadata={op_type="xla__update_slice" op_name="xla__update_slice" source_file="/code/github_code/xla_vllm/vllm/vllm/v1/worker/xla_gpu_model_runner.py" source_line=1401}
}

%wrapped_slice_computation.17 (param_0.125: bf16[16,16]) -> bf16[1,16] {
  %param_0.125 = bf16[16,16]{1,0} parameter(0)
  ROOT %slice.73.1 = bf16[1,16]{1,0} slice(bf16[16,16]{1,0} %param_0.125), slice={[10:11], [0:16]}, metadata={op_type="xla__generic_slice" op_name="xla__generic_slice" source_file="/code/github_code/xla_vllm/vllm/vllm/v1/worker/xla_gpu_model_runner.py" source_line=1400}
}

%fused_dynamic_update_slice.9 (param_0.20: bf16[16,16], param_1.157: bf16[1,16]) -> bf16[16,16] {
  %param_0.20 = bf16[16,16]{1,0} parameter(0)
  %constant_18_11 = pred[] constant(true), metadata={op_type="xla__unselect" op_name="xla__unselect" source_file="/code/github_code/xla_vllm/vllm/vllm/v1/worker/xla_gpu_model_runner.py" source_line=1389}
  %broadcast.283.2 = pred[11]{0} broadcast(pred[] %constant_18_11), dimensions={}, metadata={op_type="xla__unselect" op_name="xla__unselect" source_file="/code/github_code/xla_vllm/vllm/vllm/v1/worker/xla_gpu_model_runner.py" source_line=1401}
  %constant_20_25 = pred[] constant(false), metadata={op_type="xla__unselect" op_name="xla__unselect" source_file="/code/github_code/xla_vllm/vllm/vllm/v1/worker/xla_gpu_model_runner.py" source_line=1389}
  %pad.167.1 = pred[16]{0} pad(pred[11]{0} %broadcast.283.2, pred[] %constant_20_25), padding=0_5, metadata={op_type="xla__unselect" op_name="xla__unselect" source_file="/code/github_code/xla_vllm/vllm/vllm/v1/worker/xla_gpu_model_runner.py" source_line=1400}
  %constant_32_1 = bf16[] constant(0), metadata={op_type="prim__Constant" op_name="prim__Constant" source_file="/code/github_code/xla_vllm/vllm/vllm/v1/worker/xla_gpu_model_runner.py" source_line=1394}
  %broadcast.306.1 = bf16[11]{0} broadcast(bf16[] %constant_32_1), dimensions={}, metadata={op_type="aten__expand" op_name="aten__expand" source_file="/code/github_code/xla_vllm/vllm/vllm/v1/worker/xla_gpu_model_runner.py" source_line=1400}
  %pad.168.1 = bf16[16]{0} pad(bf16[11]{0} %broadcast.306.1, bf16[] %constant_32_1), padding=0_5, metadata={op_type="xla__unselect" op_name="xla__unselect" source_file="/code/github_code/xla_vllm/vllm/vllm/v1/worker/xla_gpu_model_runner.py" source_line=1400}
  %param_1.157 = bf16[1,16]{1,0} parameter(1)
  %bitcast.1831.3 = bf16[16]{0} bitcast(bf16[1,16]{1,0} %param_1.157)
  %select.85.3 = bf16[16]{0} select(pred[16]{0} %pad.167.1, bf16[16]{0} %pad.168.1, bf16[16]{0} %bitcast.1831.3), metadata={op_type="xla__unselect" op_name="xla__unselect" source_file="/code/github_code/xla_vllm/vllm/vllm/v1/worker/xla_gpu_model_runner.py" source_line=1400}
  %bitcast.1834.1 = bf16[1,16]{1,0} bitcast(bf16[16]{0} %select.85.3)
  %constant_486_2 = s64[] constant(10), metadata={op_type="xla__update_slice" op_name="xla__update_slice" source_file="/code/github_code/xla_vllm/vllm/vllm/v1/worker/xla_gpu_model_runner.py" source_line=1400}
  %constant_239_23 = s64[] constant(0), metadata={op_type="xla__update_slice" op_name="xla__update_slice" source_file="/code/github_code/xla_vllm/vllm/vllm/v1/worker/xla_gpu_model_runner.py" source_line=1401}
  ROOT %dynamic-update-slice.78.1 = bf16[16,16]{1,0} dynamic-update-slice(bf16[16,16]{1,0} %param_0.20, bf16[1,16]{1,0} %bitcast.1834.1, s64[] %constant_486_2, s64[] %constant_239_23), metadata={op_type="xla__update_slice" op_name="xla__update_slice" source_file="/code/github_code/xla_vllm/vllm/vllm/v1/worker/xla_gpu_model_runner.py" source_line=1400}
}

%wrapped_slice_computation.18 (param_0.126: bf16[16,16]) -> bf16[1,16] {
  %param_0.126 = bf16[16,16]{1,0} parameter(0)
  ROOT %slice.74.1 = bf16[1,16]{1,0} slice(bf16[16,16]{1,0} %param_0.126), slice={[10:11], [0:16]}, metadata={op_type="xla__generic_slice" op_name="xla__generic_slice" source_file="/code/github_code/xla_vllm/vllm/vllm/v1/worker/xla_gpu_model_runner.py" source_line=1401}
}

%fused_dynamic_update_slice.8 (param_0.18: bf16[16,16], param_1.156: bf16[1,16], param_2.191: bf16[]) -> bf16[16,16] {
  %param_0.18 = bf16[16,16]{1,0} parameter(0)
  %constant_18_10 = pred[] constant(true), metadata={op_type="xla__unselect" op_name="xla__unselect" source_file="/code/github_code/xla_vllm/vllm/vllm/v1/worker/xla_gpu_model_runner.py" source_line=1389}
  %broadcast.281.2 = pred[5]{0} broadcast(pred[] %constant_18_10), dimensions={}, metadata={op_type="xla__unselect" op_name="xla__unselect" source_file="/code/github_code/xla_vllm/vllm/vllm/v1/worker/xla_gpu_model_runner.py" source_line=1400}
  %constant_20_26 = pred[] constant(false), metadata={op_type="xla__unselect" op_name="xla__unselect" source_file="/code/github_code/xla_vllm/vllm/vllm/v1/worker/xla_gpu_model_runner.py" source_line=1389}
  %pad.169.1 = pred[16]{0} pad(pred[5]{0} %broadcast.281.2, pred[] %constant_20_26), padding=11_0, metadata={op_type="xla__unselect" op_name="xla__unselect" source_file="/code/github_code/xla_vllm/vllm/vllm/v1/worker/xla_gpu_model_runner.py" source_line=1401}
  %param_2.191 = bf16[] parameter(2)
  %broadcast.308.1 = bf16[5]{0} broadcast(bf16[] %param_2.191), dimensions={}, metadata={op_type="aten__expand" op_name="aten__expand" source_file="/code/github_code/xla_vllm/vllm/vllm/v1/worker/xla_gpu_model_runner.py" source_line=1401}
  %constant_32_17 = bf16[] constant(0), metadata={op_type="prim__Constant" op_name="prim__Constant" source_file="/code/github_code/xla_vllm/vllm/vllm/v1/worker/xla_gpu_model_runner.py" source_line=1394}
  %pad.170.1 = bf16[16]{0} pad(bf16[5]{0} %broadcast.308.1, bf16[] %constant_32_17), padding=11_0, metadata={op_type="xla__unselect" op_name="xla__unselect" source_file="/code/github_code/xla_vllm/vllm/vllm/v1/worker/xla_gpu_model_runner.py" source_line=1401}
  %param_1.156 = bf16[1,16]{1,0} parameter(1)
  %bitcast.1853.3 = bf16[16]{0} bitcast(bf16[1,16]{1,0} %param_1.156)
  %select.86.3 = bf16[16]{0} select(pred[16]{0} %pad.169.1, bf16[16]{0} %pad.170.1, bf16[16]{0} %bitcast.1853.3), metadata={op_type="xla__unselect" op_name="xla__unselect" source_file="/code/github_code/xla_vllm/vllm/vllm/v1/worker/xla_gpu_model_runner.py" source_line=1401}
  %bitcast.1856.1 = bf16[1,16]{1,0} bitcast(bf16[16]{0} %select.86.3)
  %constant_486_1 = s64[] constant(10), metadata={op_type="xla__update_slice" op_name="xla__update_slice" source_file="/code/github_code/xla_vllm/vllm/vllm/v1/worker/xla_gpu_model_runner.py" source_line=1400}
  %constant_239_24 = s64[] constant(0), metadata={op_type="xla__update_slice" op_name="xla__update_slice" source_file="/code/github_code/xla_vllm/vllm/vllm/v1/worker/xla_gpu_model_runner.py" source_line=1401}
  ROOT %dynamic-update-slice.79.1 = bf16[16,16]{1,0} dynamic-update-slice(bf16[16,16]{1,0} %param_0.18, bf16[1,16]{1,0} %bitcast.1856.1, s64[] %constant_486_1, s64[] %constant_239_24), metadata={op_type="xla__update_slice" op_name="xla__update_slice" source_file="/code/github_code/xla_vllm/vllm/vllm/v1/worker/xla_gpu_model_runner.py" source_line=1401}
}

%wrapped_slice_computation.19 (param_0.127: bf16[16,16]) -> bf16[1,16] {
  %param_0.127 = bf16[16,16]{1,0} parameter(0)
  ROOT %slice.75.1 = bf16[1,16]{1,0} slice(bf16[16,16]{1,0} %param_0.127), slice={[11:12], [0:16]}, metadata={op_type="xla__generic_slice" op_name="xla__generic_slice" source_file="/code/github_code/xla_vllm/vllm/vllm/v1/worker/xla_gpu_model_runner.py" source_line=1400}
}

%fused_dynamic_update_slice.7 (param_0.16: bf16[16,16], param_1.159: bf16[1,16]) -> bf16[16,16] {
  %param_0.16 = bf16[16,16]{1,0} parameter(0)
  %constant_18_9 = pred[] constant(true), metadata={op_type="xla__unselect" op_name="xla__unselect" source_file="/code/github_code/xla_vllm/vllm/vllm/v1/worker/xla_gpu_model_runner.py" source_line=1389}
  %broadcast.279.2 = pred[12]{0} broadcast(pred[] %constant_18_9), dimensions={}, metadata={op_type="xla__unselect" op_name="xla__unselect" source_file="/code/github_code/xla_vllm/vllm/vllm/v1/worker/xla_gpu_model_runner.py" source_line=1401}
  %constant_20_27 = pred[] constant(false), metadata={op_type="xla__unselect" op_name="xla__unselect" source_file="/code/github_code/xla_vllm/vllm/vllm/v1/worker/xla_gpu_model_runner.py" source_line=1389}
  %pad.171.1 = pred[16]{0} pad(pred[12]{0} %broadcast.279.2, pred[] %constant_20_27), padding=0_4, metadata={op_type="xla__unselect" op_name="xla__unselect" source_file="/code/github_code/xla_vllm/vllm/vllm/v1/worker/xla_gpu_model_runner.py" source_line=1400}
  %constant_32_16 = bf16[] constant(0), metadata={op_type="prim__Constant" op_name="prim__Constant" source_file="/code/github_code/xla_vllm/vllm/vllm/v1/worker/xla_gpu_model_runner.py" source_line=1394}
  %broadcast.311.1 = bf16[12]{0} broadcast(bf16[] %constant_32_16), dimensions={}, metadata={op_type="aten__expand" op_name="aten__expand" source_file="/code/github_code/xla_vllm/vllm/vllm/v1/worker/xla_gpu_model_runner.py" source_line=1400}
  %pad.172.1 = bf16[16]{0} pad(bf16[12]{0} %broadcast.311.1, bf16[] %constant_32_16), padding=0_4, metadata={op_type="xla__unselect" op_name="xla__unselect" source_file="/code/github_code/xla_vllm/vllm/vllm/v1/worker/xla_gpu_model_runner.py" source_line=1400}
  %param_1.159 = bf16[1,16]{1,0} parameter(1)
  %bitcast.1872.3 = bf16[16]{0} bitcast(bf16[1,16]{1,0} %param_1.159)
  %select.87.3 = bf16[16]{0} select(pred[16]{0} %pad.171.1, bf16[16]{0} %pad.172.1, bf16[16]{0} %bitcast.1872.3), metadata={op_type="xla__unselect" op_name="xla__unselect" source_file="/code/github_code/xla_vllm/vllm/vllm/v1/worker/xla_gpu_model_runner.py" source_line=1400}
  %bitcast.1875.1 = bf16[1,16]{1,0} bitcast(bf16[16]{0} %select.87.3)
  %constant_512_2 = s64[] constant(11), metadata={op_type="xla__update_slice" op_name="xla__update_slice" source_file="/code/github_code/xla_vllm/vllm/vllm/v1/worker/xla_gpu_model_runner.py" source_line=1400}
  %constant_239_25 = s64[] constant(0), metadata={op_type="xla__update_slice" op_name="xla__update_slice" source_file="/code/github_code/xla_vllm/vllm/vllm/v1/worker/xla_gpu_model_runner.py" source_line=1401}
  ROOT %dynamic-update-slice.80.1 = bf16[16,16]{1,0} dynamic-update-slice(bf16[16,16]{1,0} %param_0.16, bf16[1,16]{1,0} %bitcast.1875.1, s64[] %constant_512_2, s64[] %constant_239_25), metadata={op_type="xla__update_slice" op_name="xla__update_slice" source_file="/code/github_code/xla_vllm/vllm/vllm/v1/worker/xla_gpu_model_runner.py" source_line=1400}
}

%wrapped_slice_computation.20 (param_0.128: bf16[16,16]) -> bf16[1,16] {
  %param_0.128 = bf16[16,16]{1,0} parameter(0)
  ROOT %slice.76.1 = bf16[1,16]{1,0} slice(bf16[16,16]{1,0} %param_0.128), slice={[11:12], [0:16]}, metadata={op_type="xla__generic_slice" op_name="xla__generic_slice" source_file="/code/github_code/xla_vllm/vllm/vllm/v1/worker/xla_gpu_model_runner.py" source_line=1401}
}

%fused_dynamic_update_slice.6 (param_0.14: bf16[16,16], param_1.158: bf16[1,16], param_2.192: bf16[]) -> bf16[16,16] {
  %param_0.14 = bf16[16,16]{1,0} parameter(0)
  %constant_18_8 = pred[] constant(true), metadata={op_type="xla__unselect" op_name="xla__unselect" source_file="/code/github_code/xla_vllm/vllm/vllm/v1/worker/xla_gpu_model_runner.py" source_line=1389}
  %broadcast.277.2 = pred[4]{0} broadcast(pred[] %constant_18_8), dimensions={}, metadata={op_type="xla__unselect" op_name="xla__unselect" source_file="/code/github_code/xla_vllm/vllm/vllm/v1/worker/xla_gpu_model_runner.py" source_line=1400}
  %constant_20_28 = pred[] constant(false), metadata={op_type="xla__unselect" op_name="xla__unselect" source_file="/code/github_code/xla_vllm/vllm/vllm/v1/worker/xla_gpu_model_runner.py" source_line=1389}
  %pad.173.1 = pred[16]{0} pad(pred[4]{0} %broadcast.277.2, pred[] %constant_20_28), padding=12_0, metadata={op_type="xla__unselect" op_name="xla__unselect" source_file="/code/github_code/xla_vllm/vllm/vllm/v1/worker/xla_gpu_model_runner.py" source_line=1401}
  %param_2.192 = bf16[] parameter(2)
  %broadcast.313.1 = bf16[4]{0} broadcast(bf16[] %param_2.192), dimensions={}, metadata={op_type="aten__expand" op_name="aten__expand" source_file="/code/github_code/xla_vllm/vllm/vllm/v1/worker/xla_gpu_model_runner.py" source_line=1401}
  %constant_32_15 = bf16[] constant(0), metadata={op_type="prim__Constant" op_name="prim__Constant" source_file="/code/github_code/xla_vllm/vllm/vllm/v1/worker/xla_gpu_model_runner.py" source_line=1394}
  %pad.174.1 = bf16[16]{0} pad(bf16[4]{0} %broadcast.313.1, bf16[] %constant_32_15), padding=12_0, metadata={op_type="xla__unselect" op_name="xla__unselect" source_file="/code/github_code/xla_vllm/vllm/vllm/v1/worker/xla_gpu_model_runner.py" source_line=1401}
  %param_1.158 = bf16[1,16]{1,0} parameter(1)
  %bitcast.1894.3 = bf16[16]{0} bitcast(bf16[1,16]{1,0} %param_1.158)
  %select.88.3 = bf16[16]{0} select(pred[16]{0} %pad.173.1, bf16[16]{0} %pad.174.1, bf16[16]{0} %bitcast.1894.3), metadata={op_type="xla__unselect" op_name="xla__unselect" source_file="/code/github_code/xla_vllm/vllm/vllm/v1/worker/xla_gpu_model_runner.py" source_line=1401}
  %bitcast.1897.1 = bf16[1,16]{1,0} bitcast(bf16[16]{0} %select.88.3)
  %constant_512_1 = s64[] constant(11), metadata={op_type="xla__update_slice" op_name="xla__update_slice" source_file="/code/github_code/xla_vllm/vllm/vllm/v1/worker/xla_gpu_model_runner.py" source_line=1400}
  %constant_239_26 = s64[] constant(0), metadata={op_type="xla__update_slice" op_name="xla__update_slice" source_file="/code/github_code/xla_vllm/vllm/vllm/v1/worker/xla_gpu_model_runner.py" source_line=1401}
  ROOT %dynamic-update-slice.81.1 = bf16[16,16]{1,0} dynamic-update-slice(bf16[16,16]{1,0} %param_0.14, bf16[1,16]{1,0} %bitcast.1897.1, s64[] %constant_512_1, s64[] %constant_239_26), metadata={op_type="xla__update_slice" op_name="xla__update_slice" source_file="/code/github_code/xla_vllm/vllm/vllm/v1/worker/xla_gpu_model_runner.py" source_line=1401}
}

%wrapped_slice_computation.21 (param_0.129: bf16[16,16]) -> bf16[1,16] {
  %param_0.129 = bf16[16,16]{1,0} parameter(0)
  ROOT %slice.77.1 = bf16[1,16]{1,0} slice(bf16[16,16]{1,0} %param_0.129), slice={[12:13], [0:16]}, metadata={op_type="xla__generic_slice" op_name="xla__generic_slice" source_file="/code/github_code/xla_vllm/vllm/vllm/v1/worker/xla_gpu_model_runner.py" source_line=1400}
}

%fused_dynamic_update_slice.5 (param_0.12: bf16[16,16], param_1.161: bf16[1,16]) -> bf16[16,16] {
  %param_0.12 = bf16[16,16]{1,0} parameter(0)
  %constant_18_7 = pred[] constant(true), metadata={op_type="xla__unselect" op_name="xla__unselect" source_file="/code/github_code/xla_vllm/vllm/vllm/v1/worker/xla_gpu_model_runner.py" source_line=1389}
  %broadcast.275.2 = pred[13]{0} broadcast(pred[] %constant_18_7), dimensions={}, metadata={op_type="xla__unselect" op_name="xla__unselect" source_file="/code/github_code/xla_vllm/vllm/vllm/v1/worker/xla_gpu_model_runner.py" source_line=1401}
  %constant_20_1 = pred[] constant(false), metadata={op_type="xla__unselect" op_name="xla__unselect" source_file="/code/github_code/xla_vllm/vllm/vllm/v1/worker/xla_gpu_model_runner.py" source_line=1389}
  %pad.175.1 = pred[16]{0} pad(pred[13]{0} %broadcast.275.2, pred[] %constant_20_1), padding=0_3, metadata={op_type="xla__unselect" op_name="xla__unselect" source_file="/code/github_code/xla_vllm/vllm/vllm/v1/worker/xla_gpu_model_runner.py" source_line=1400}
  %constant_32_14 = bf16[] constant(0), metadata={op_type="prim__Constant" op_name="prim__Constant" source_file="/code/github_code/xla_vllm/vllm/vllm/v1/worker/xla_gpu_model_runner.py" source_line=1394}
  %broadcast.315.1 = bf16[13]{0} broadcast(bf16[] %constant_32_14), dimensions={}, metadata={op_type="aten__expand" op_name="aten__expand" source_file="/code/github_code/xla_vllm/vllm/vllm/v1/worker/xla_gpu_model_runner.py" source_line=1400}
  %pad.176.1 = bf16[16]{0} pad(bf16[13]{0} %broadcast.315.1, bf16[] %constant_32_14), padding=0_3, metadata={op_type="xla__unselect" op_name="xla__unselect" source_file="/code/github_code/xla_vllm/vllm/vllm/v1/worker/xla_gpu_model_runner.py" source_line=1400}
  %param_1.161 = bf16[1,16]{1,0} parameter(1)
  %bitcast.1913.3 = bf16[16]{0} bitcast(bf16[1,16]{1,0} %param_1.161)
  %select.89.3 = bf16[16]{0} select(pred[16]{0} %pad.175.1, bf16[16]{0} %pad.176.1, bf16[16]{0} %bitcast.1913.3), metadata={op_type="xla__unselect" op_name="xla__unselect" source_file="/code/github_code/xla_vllm/vllm/vllm/v1/worker/xla_gpu_model_runner.py" source_line=1400}
  %bitcast.1916.1 = bf16[1,16]{1,0} bitcast(bf16[16]{0} %select.89.3)
  %constant_538_2 = s64[] constant(12), metadata={op_type="xla__update_slice" op_name="xla__update_slice" source_file="/code/github_code/xla_vllm/vllm/vllm/v1/worker/xla_gpu_model_runner.py" source_line=1400}
  %constant_239_27 = s64[] constant(0), metadata={op_type="xla__update_slice" op_name="xla__update_slice" source_file="/code/github_code/xla_vllm/vllm/vllm/v1/worker/xla_gpu_model_runner.py" source_line=1401}
  ROOT %dynamic-update-slice.82.1 = bf16[16,16]{1,0} dynamic-update-slice(bf16[16,16]{1,0} %param_0.12, bf16[1,16]{1,0} %bitcast.1916.1, s64[] %constant_538_2, s64[] %constant_239_27), metadata={op_type="xla__update_slice" op_name="xla__update_slice" source_file="/code/github_code/xla_vllm/vllm/vllm/v1/worker/xla_gpu_model_runner.py" source_line=1400}
}

%wrapped_slice_computation.22 (param_0.130: bf16[16,16]) -> bf16[1,16] {
  %param_0.130 = bf16[16,16]{1,0} parameter(0)
  ROOT %slice.78.1 = bf16[1,16]{1,0} slice(bf16[16,16]{1,0} %param_0.130), slice={[12:13], [0:16]}, metadata={op_type="xla__generic_slice" op_name="xla__generic_slice" source_file="/code/github_code/xla_vllm/vllm/vllm/v1/worker/xla_gpu_model_runner.py" source_line=1401}
}

%fused_dynamic_update_slice.4 (param_0.10: bf16[16,16], param_1.160: bf16[1,16], param_2.193: bf16[]) -> bf16[16,16] {
  %param_0.10 = bf16[16,16]{1,0} parameter(0)
  %constant_18_6 = pred[] constant(true), metadata={op_type="xla__unselect" op_name="xla__unselect" source_file="/code/github_code/xla_vllm/vllm/vllm/v1/worker/xla_gpu_model_runner.py" source_line=1389}
  %broadcast.273.2 = pred[3]{0} broadcast(pred[] %constant_18_6), dimensions={}, metadata={op_type="xla__unselect" op_name="xla__unselect" source_file="/code/github_code/xla_vllm/vllm/vllm/v1/worker/xla_gpu_model_runner.py" source_line=1400}
  %constant_20_2 = pred[] constant(false), metadata={op_type="xla__unselect" op_name="xla__unselect" source_file="/code/github_code/xla_vllm/vllm/vllm/v1/worker/xla_gpu_model_runner.py" source_line=1389}
  %pad.177.1 = pred[16]{0} pad(pred[3]{0} %broadcast.273.2, pred[] %constant_20_2), padding=13_0, metadata={op_type="xla__unselect" op_name="xla__unselect" source_file="/code/github_code/xla_vllm/vllm/vllm/v1/worker/xla_gpu_model_runner.py" source_line=1401}
  %param_2.193 = bf16[] parameter(2)
  %broadcast.317.1 = bf16[3]{0} broadcast(bf16[] %param_2.193), dimensions={}, metadata={op_type="aten__expand" op_name="aten__expand" source_file="/code/github_code/xla_vllm/vllm/vllm/v1/worker/xla_gpu_model_runner.py" source_line=1401}
  %constant_32_13 = bf16[] constant(0), metadata={op_type="prim__Constant" op_name="prim__Constant" source_file="/code/github_code/xla_vllm/vllm/vllm/v1/worker/xla_gpu_model_runner.py" source_line=1394}
  %pad.178.1 = bf16[16]{0} pad(bf16[3]{0} %broadcast.317.1, bf16[] %constant_32_13), padding=13_0, metadata={op_type="xla__unselect" op_name="xla__unselect" source_file="/code/github_code/xla_vllm/vllm/vllm/v1/worker/xla_gpu_model_runner.py" source_line=1401}
  %param_1.160 = bf16[1,16]{1,0} parameter(1)
  %bitcast.1935.3 = bf16[16]{0} bitcast(bf16[1,16]{1,0} %param_1.160)
  %select.90.3 = bf16[16]{0} select(pred[16]{0} %pad.177.1, bf16[16]{0} %pad.178.1, bf16[16]{0} %bitcast.1935.3), metadata={op_type="xla__unselect" op_name="xla__unselect" source_file="/code/github_code/xla_vllm/vllm/vllm/v1/worker/xla_gpu_model_runner.py" source_line=1401}
  %bitcast.1938.1 = bf16[1,16]{1,0} bitcast(bf16[16]{0} %select.90.3)
  %constant_538_1 = s64[] constant(12), metadata={op_type="xla__update_slice" op_name="xla__update_slice" source_file="/code/github_code/xla_vllm/vllm/vllm/v1/worker/xla_gpu_model_runner.py" source_line=1400}
  %constant_239_28 = s64[] constant(0), metadata={op_type="xla__update_slice" op_name="xla__update_slice" source_file="/code/github_code/xla_vllm/vllm/vllm/v1/worker/xla_gpu_model_runner.py" source_line=1401}
  ROOT %dynamic-update-slice.83.1 = bf16[16,16]{1,0} dynamic-update-slice(bf16[16,16]{1,0} %param_0.10, bf16[1,16]{1,0} %bitcast.1938.1, s64[] %constant_538_1, s64[] %constant_239_28), metadata={op_type="xla__update_slice" op_name="xla__update_slice" source_file="/code/github_code/xla_vllm/vllm/vllm/v1/worker/xla_gpu_model_runner.py" source_line=1401}
}

%wrapped_slice_computation.23 (param_0.131: bf16[16,16]) -> bf16[1,16] {
  %param_0.131 = bf16[16,16]{1,0} parameter(0)
  ROOT %slice.79.1 = bf16[1,16]{1,0} slice(bf16[16,16]{1,0} %param_0.131), slice={[13:14], [0:16]}, metadata={op_type="xla__generic_slice" op_name="xla__generic_slice" source_file="/code/github_code/xla_vllm/vllm/vllm/v1/worker/xla_gpu_model_runner.py" source_line=1400}
}

%fused_dynamic_update_slice.3 (param_0.8: bf16[16,16], param_1.163: bf16[1,16]) -> bf16[16,16] {
  %param_0.8 = bf16[16,16]{1,0} parameter(0)
  %constant_18_5 = pred[] constant(true), metadata={op_type="xla__unselect" op_name="xla__unselect" source_file="/code/github_code/xla_vllm/vllm/vllm/v1/worker/xla_gpu_model_runner.py" source_line=1389}
  %broadcast.270.2 = pred[14]{0} broadcast(pred[] %constant_18_5), dimensions={}, metadata={op_type="xla__unselect" op_name="xla__unselect" source_file="/code/github_code/xla_vllm/vllm/vllm/v1/worker/xla_gpu_model_runner.py" source_line=1401}
  %constant_20_3 = pred[] constant(false), metadata={op_type="xla__unselect" op_name="xla__unselect" source_file="/code/github_code/xla_vllm/vllm/vllm/v1/worker/xla_gpu_model_runner.py" source_line=1389}
  %pad.179.1 = pred[16]{0} pad(pred[14]{0} %broadcast.270.2, pred[] %constant_20_3), padding=0_2, metadata={op_type="xla__unselect" op_name="xla__unselect" source_file="/code/github_code/xla_vllm/vllm/vllm/v1/worker/xla_gpu_model_runner.py" source_line=1400}
  %constant_32_12 = bf16[] constant(0), metadata={op_type="prim__Constant" op_name="prim__Constant" source_file="/code/github_code/xla_vllm/vllm/vllm/v1/worker/xla_gpu_model_runner.py" source_line=1394}
  %broadcast.319.1 = bf16[14]{0} broadcast(bf16[] %constant_32_12), dimensions={}, metadata={op_type="aten__expand" op_name="aten__expand" source_file="/code/github_code/xla_vllm/vllm/vllm/v1/worker/xla_gpu_model_runner.py" source_line=1400}
  %pad.180.1 = bf16[16]{0} pad(bf16[14]{0} %broadcast.319.1, bf16[] %constant_32_12), padding=0_2, metadata={op_type="xla__unselect" op_name="xla__unselect" source_file="/code/github_code/xla_vllm/vllm/vllm/v1/worker/xla_gpu_model_runner.py" source_line=1400}
  %param_1.163 = bf16[1,16]{1,0} parameter(1)
  %bitcast.1954.3 = bf16[16]{0} bitcast(bf16[1,16]{1,0} %param_1.163)
  %select.91.3 = bf16[16]{0} select(pred[16]{0} %pad.179.1, bf16[16]{0} %pad.180.1, bf16[16]{0} %bitcast.1954.3), metadata={op_type="xla__unselect" op_name="xla__unselect" source_file="/code/github_code/xla_vllm/vllm/vllm/v1/worker/xla_gpu_model_runner.py" source_line=1400}
  %bitcast.1957.1 = bf16[1,16]{1,0} bitcast(bf16[16]{0} %select.91.3)
  %constant_564_2 = s64[] constant(13), metadata={op_type="xla__update_slice" op_name="xla__update_slice" source_file="/code/github_code/xla_vllm/vllm/vllm/v1/worker/xla_gpu_model_runner.py" source_line=1400}
  %constant_239_29 = s64[] constant(0), metadata={op_type="xla__update_slice" op_name="xla__update_slice" source_file="/code/github_code/xla_vllm/vllm/vllm/v1/worker/xla_gpu_model_runner.py" source_line=1401}
  ROOT %dynamic-update-slice.84.1 = bf16[16,16]{1,0} dynamic-update-slice(bf16[16,16]{1,0} %param_0.8, bf16[1,16]{1,0} %bitcast.1957.1, s64[] %constant_564_2, s64[] %constant_239_29), metadata={op_type="xla__update_slice" op_name="xla__update_slice" source_file="/code/github_code/xla_vllm/vllm/vllm/v1/worker/xla_gpu_model_runner.py" source_line=1400}
}

%wrapped_slice_computation.24 (param_0.132: bf16[16,16]) -> bf16[1,16] {
  %param_0.132 = bf16[16,16]{1,0} parameter(0)
  ROOT %slice.80.1 = bf16[1,16]{1,0} slice(bf16[16,16]{1,0} %param_0.132), slice={[13:14], [0:16]}, metadata={op_type="xla__generic_slice" op_name="xla__generic_slice" source_file="/code/github_code/xla_vllm/vllm/vllm/v1/worker/xla_gpu_model_runner.py" source_line=1401}
}

%fused_dynamic_update_slice.2 (param_0.6: bf16[16,16], param_1.162: bf16[1,16], param_2.194: bf16[]) -> bf16[16,16] {
  %param_0.6 = bf16[16,16]{1,0} parameter(0)
  %constant_18_4 = pred[] constant(true), metadata={op_type="xla__unselect" op_name="xla__unselect" source_file="/code/github_code/xla_vllm/vllm/vllm/v1/worker/xla_gpu_model_runner.py" source_line=1389}
  %broadcast.267.2 = pred[2]{0} broadcast(pred[] %constant_18_4), dimensions={}, metadata={op_type="xla__unselect" op_name="xla__unselect" source_file="/code/github_code/xla_vllm/vllm/vllm/v1/worker/xla_gpu_model_runner.py" source_line=1400}
  %constant_20_20 = pred[] constant(false), metadata={op_type="xla__unselect" op_name="xla__unselect" source_file="/code/github_code/xla_vllm/vllm/vllm/v1/worker/xla_gpu_model_runner.py" source_line=1389}
  %pad.181.1 = pred[16]{0} pad(pred[2]{0} %broadcast.267.2, pred[] %constant_20_20), padding=14_0, metadata={op_type="xla__unselect" op_name="xla__unselect" source_file="/code/github_code/xla_vllm/vllm/vllm/v1/worker/xla_gpu_model_runner.py" source_line=1401}
  %param_2.194 = bf16[] parameter(2)
  %broadcast.321.1 = bf16[2]{0} broadcast(bf16[] %param_2.194), dimensions={}, metadata={op_type="aten__expand" op_name="aten__expand" source_file="/code/github_code/xla_vllm/vllm/vllm/v1/worker/xla_gpu_model_runner.py" source_line=1401}
  %constant_32_11 = bf16[] constant(0), metadata={op_type="prim__Constant" op_name="prim__Constant" source_file="/code/github_code/xla_vllm/vllm/vllm/v1/worker/xla_gpu_model_runner.py" source_line=1394}
  %pad.182.1 = bf16[16]{0} pad(bf16[2]{0} %broadcast.321.1, bf16[] %constant_32_11), padding=14_0, metadata={op_type="xla__unselect" op_name="xla__unselect" source_file="/code/github_code/xla_vllm/vllm/vllm/v1/worker/xla_gpu_model_runner.py" source_line=1401}
  %param_1.162 = bf16[1,16]{1,0} parameter(1)
  %bitcast.1976.3 = bf16[16]{0} bitcast(bf16[1,16]{1,0} %param_1.162)
  %select.92.3 = bf16[16]{0} select(pred[16]{0} %pad.181.1, bf16[16]{0} %pad.182.1, bf16[16]{0} %bitcast.1976.3), metadata={op_type="xla__unselect" op_name="xla__unselect" source_file="/code/github_code/xla_vllm/vllm/vllm/v1/worker/xla_gpu_model_runner.py" source_line=1401}
  %bitcast.1979.1 = bf16[1,16]{1,0} bitcast(bf16[16]{0} %select.92.3)
  %constant_564_1 = s64[] constant(13), metadata={op_type="xla__update_slice" op_name="xla__update_slice" source_file="/code/github_code/xla_vllm/vllm/vllm/v1/worker/xla_gpu_model_runner.py" source_line=1400}
  %constant_239_30 = s64[] constant(0), metadata={op_type="xla__update_slice" op_name="xla__update_slice" source_file="/code/github_code/xla_vllm/vllm/vllm/v1/worker/xla_gpu_model_runner.py" source_line=1401}
  ROOT %dynamic-update-slice.85.1 = bf16[16,16]{1,0} dynamic-update-slice(bf16[16,16]{1,0} %param_0.6, bf16[1,16]{1,0} %bitcast.1979.1, s64[] %constant_564_1, s64[] %constant_239_30), metadata={op_type="xla__update_slice" op_name="xla__update_slice" source_file="/code/github_code/xla_vllm/vllm/vllm/v1/worker/xla_gpu_model_runner.py" source_line=1401}
}

%wrapped_slice_computation.25 (param_0.133: bf16[16,16]) -> bf16[1,16] {
  %param_0.133 = bf16[16,16]{1,0} parameter(0)
  ROOT %slice.81.1 = bf16[1,16]{1,0} slice(bf16[16,16]{1,0} %param_0.133), slice={[14:15], [0:16]}, metadata={op_type="xla__generic_slice" op_name="xla__generic_slice" source_file="/code/github_code/xla_vllm/vllm/vllm/v1/worker/xla_gpu_model_runner.py" source_line=1400}
}

%fused_dynamic_update_slice.1 (param_0.4: bf16[16,16], param_1.165: bf16[1,16]) -> bf16[16,16] {
  %param_0.4 = bf16[16,16]{1,0} parameter(0)
  %constant_18_3 = pred[] constant(true), metadata={op_type="xla__unselect" op_name="xla__unselect" source_file="/code/github_code/xla_vllm/vllm/vllm/v1/worker/xla_gpu_model_runner.py" source_line=1389}
  %broadcast.264.2 = pred[15]{0} broadcast(pred[] %constant_18_3), dimensions={}, metadata={op_type="xla__unselect" op_name="xla__unselect" source_file="/code/github_code/xla_vllm/vllm/vllm/v1/worker/xla_gpu_model_runner.py" source_line=1401}
  %constant_20_19 = pred[] constant(false), metadata={op_type="xla__unselect" op_name="xla__unselect" source_file="/code/github_code/xla_vllm/vllm/vllm/v1/worker/xla_gpu_model_runner.py" source_line=1389}
  %pad.183.1 = pred[16]{0} pad(pred[15]{0} %broadcast.264.2, pred[] %constant_20_19), padding=0_1, metadata={op_type="xla__unselect" op_name="xla__unselect" source_file="/code/github_code/xla_vllm/vllm/vllm/v1/worker/xla_gpu_model_runner.py" source_line=1400}
  %constant_32_28 = bf16[] constant(0), metadata={op_type="prim__Constant" op_name="prim__Constant" source_file="/code/github_code/xla_vllm/vllm/vllm/v1/worker/xla_gpu_model_runner.py" source_line=1394}
  %broadcast.324.1 = bf16[15]{0} broadcast(bf16[] %constant_32_28), dimensions={}, metadata={op_type="aten__expand" op_name="aten__expand" source_file="/code/github_code/xla_vllm/vllm/vllm/v1/worker/xla_gpu_model_runner.py" source_line=1400}
  %pad.184.1 = bf16[16]{0} pad(bf16[15]{0} %broadcast.324.1, bf16[] %constant_32_28), padding=0_1, metadata={op_type="xla__unselect" op_name="xla__unselect" source_file="/code/github_code/xla_vllm/vllm/vllm/v1/worker/xla_gpu_model_runner.py" source_line=1400}
  %param_1.165 = bf16[1,16]{1,0} parameter(1)
  %bitcast.1995.3 = bf16[16]{0} bitcast(bf16[1,16]{1,0} %param_1.165)
  %select.93.3 = bf16[16]{0} select(pred[16]{0} %pad.183.1, bf16[16]{0} %pad.184.1, bf16[16]{0} %bitcast.1995.3), metadata={op_type="xla__unselect" op_name="xla__unselect" source_file="/code/github_code/xla_vllm/vllm/vllm/v1/worker/xla_gpu_model_runner.py" source_line=1400}
  %bitcast.1998.1 = bf16[1,16]{1,0} bitcast(bf16[16]{0} %select.93.3)
  %constant_590_2 = s64[] constant(14), metadata={op_type="xla__update_slice" op_name="xla__update_slice" source_file="/code/github_code/xla_vllm/vllm/vllm/v1/worker/xla_gpu_model_runner.py" source_line=1400}
  %constant_239_1 = s64[] constant(0), metadata={op_type="xla__update_slice" op_name="xla__update_slice" source_file="/code/github_code/xla_vllm/vllm/vllm/v1/worker/xla_gpu_model_runner.py" source_line=1401}
  ROOT %dynamic-update-slice.86.1 = bf16[16,16]{1,0} dynamic-update-slice(bf16[16,16]{1,0} %param_0.4, bf16[1,16]{1,0} %bitcast.1998.1, s64[] %constant_590_2, s64[] %constant_239_1), metadata={op_type="xla__update_slice" op_name="xla__update_slice" source_file="/code/github_code/xla_vllm/vllm/vllm/v1/worker/xla_gpu_model_runner.py" source_line=1400}
}

%wrapped_slice_computation.26 (param_0.134: bf16[16,16]) -> bf16[1,16] {
  %param_0.134 = bf16[16,16]{1,0} parameter(0)
  ROOT %slice.82.1 = bf16[1,16]{1,0} slice(bf16[16,16]{1,0} %param_0.134), slice={[14:15], [0:16]}, metadata={op_type="xla__generic_slice" op_name="xla__generic_slice" source_file="/code/github_code/xla_vllm/vllm/vllm/v1/worker/xla_gpu_model_runner.py" source_line=1401}
}

%fused_dynamic_update_slice (param_0: bf16[16,16], param_1.164: pred[16], param_2.195: bf16[1,16], param_3.139: bf16[]) -> bf16[16,16] {
  %param_0 = bf16[16,16]{1,0} parameter(0)
  %param_1.164 = pred[16]{0} parameter(1)
  %param_3.139 = bf16[] parameter(3)
  %bitcast.2005.3 = bf16[1]{0} bitcast(bf16[] %param_3.139)
  %constant_32_30 = bf16[] constant(0), metadata={op_type="prim__Constant" op_name="prim__Constant" source_file="/code/github_code/xla_vllm/vllm/vllm/v1/worker/xla_gpu_model_runner.py" source_line=1394}
  %pad.185.3 = bf16[16]{0} pad(bf16[1]{0} %bitcast.2005.3, bf16[] %constant_32_30), padding=15_0, metadata={op_type="xla__unselect" op_name="xla__unselect" source_file="/code/github_code/xla_vllm/vllm/vllm/v1/worker/xla_gpu_model_runner.py" source_line=1401}
  %param_2.195 = bf16[1,16]{1,0} parameter(2)
  %bitcast.2013.3 = bf16[16]{0} bitcast(bf16[1,16]{1,0} %param_2.195)
  %select.94.3 = bf16[16]{0} select(pred[16]{0} %param_1.164, bf16[16]{0} %pad.185.3, bf16[16]{0} %bitcast.2013.3), metadata={op_type="xla__unselect" op_name="xla__unselect" source_file="/code/github_code/xla_vllm/vllm/vllm/v1/worker/xla_gpu_model_runner.py" source_line=1401}
  %bitcast.2016.1 = bf16[1,16]{1,0} bitcast(bf16[16]{0} %select.94.3)
  %constant_590_1 = s64[] constant(14), metadata={op_type="xla__update_slice" op_name="xla__update_slice" source_file="/code/github_code/xla_vllm/vllm/vllm/v1/worker/xla_gpu_model_runner.py" source_line=1400}
  %constant_239_2 = s64[] constant(0), metadata={op_type="xla__update_slice" op_name="xla__update_slice" source_file="/code/github_code/xla_vllm/vllm/vllm/v1/worker/xla_gpu_model_runner.py" source_line=1401}
  ROOT %dynamic-update-slice.87.1 = bf16[16,16]{1,0} dynamic-update-slice(bf16[16,16]{1,0} %param_0, bf16[1,16]{1,0} %bitcast.2016.1, s64[] %constant_590_1, s64[] %constant_239_2), metadata={op_type="xla__update_slice" op_name="xla__update_slice" source_file="/code/github_code/xla_vllm/vllm/vllm/v1/worker/xla_gpu_model_runner.py" source_line=1401}
}

%fused_dynamic_update_slice.28 (param_0.91: bf16[16,16]) -> bf16[16,16] {
  %param_0.91 = bf16[16,16]{1,0} parameter(0)
  %constant_32_18 = bf16[] constant(0), metadata={op_type="prim__Constant" op_name="prim__Constant" source_file="/code/github_code/xla_vllm/vllm/vllm/v1/worker/xla_gpu_model_runner.py" source_line=1394}
  %broadcast.325.1 = bf16[1,16]{1,0} broadcast(bf16[] %constant_32_18), dimensions={}, metadata={op_type="aten__view" op_name="aten__view" source_file="/code/github_code/xla_vllm/vllm/vllm/v1/worker/xla_gpu_model_runner.py" source_line=1400}
  %constant_606_2 = s64[] constant(15), metadata={op_type="xla__update_slice" op_name="xla__update_slice" source_file="/code/github_code/xla_vllm/vllm/vllm/v1/worker/xla_gpu_model_runner.py" source_line=1400}
  %constant_239_3 = s64[] constant(0), metadata={op_type="xla__update_slice" op_name="xla__update_slice" source_file="/code/github_code/xla_vllm/vllm/vllm/v1/worker/xla_gpu_model_runner.py" source_line=1401}
  ROOT %dynamic-update-slice.88.1 = bf16[16,16]{1,0} dynamic-update-slice(bf16[16,16]{1,0} %param_0.91, bf16[1,16]{1,0} %broadcast.325.1, s64[] %constant_606_2, s64[] %constant_239_3), metadata={op_type="xla__update_slice" op_name="xla__update_slice" source_file="/code/github_code/xla_vllm/vllm/vllm/v1/worker/xla_gpu_model_runner.py" source_line=1400}
}

%fused_broadcast_dynamic_update_slice (param_1_0: bf16[16,16]) -> (bf16[16,16], bf16[16,16]) {
  %constant_32_32 = bf16[] constant(0), metadata={op_type="prim__Constant" op_name="prim__Constant" source_file="/code/github_code/xla_vllm/vllm/vllm/v1/worker/xla_gpu_model_runner.py" source_line=1394}
  %broadcast.263.2 = bf16[16,16]{1,0} broadcast(bf16[] %constant_32_32), dimensions={}, metadata={op_type="aten__expand" op_name="aten__expand" source_file="/code/github_code/xla_vllm/vllm/vllm/v1/worker/xla_gpu_model_runner.py" source_line=1394}
  %param_1_0 = bf16[16,16]{1,0} parameter(0)
  %slice.83.2 = bf16[1,16]{1,0} slice(bf16[16,16]{1,0} %param_1_0), slice={[15:16], [0:16]}, metadata={op_type="xla__generic_slice" op_name="xla__generic_slice" source_file="/code/github_code/xla_vllm/vllm/vllm/v1/worker/xla_gpu_model_runner.py" source_line=1401}
  %constant_606_3 = s64[] constant(15), metadata={op_type="xla__update_slice" op_name="xla__update_slice" source_file="/code/github_code/xla_vllm/vllm/vllm/v1/worker/xla_gpu_model_runner.py" source_line=1400}
  %constant_239_31 = s64[] constant(0), metadata={op_type="xla__update_slice" op_name="xla__update_slice" source_file="/code/github_code/xla_vllm/vllm/vllm/v1/worker/xla_gpu_model_runner.py" source_line=1401}
  %dynamic-update-slice.89.2 = bf16[16,16]{1,0} dynamic-update-slice(bf16[16,16]{1,0} %param_1_0, bf16[1,16]{1,0} %slice.83.2, s64[] %constant_606_3, s64[] %constant_239_31), metadata={op_type="xla__update_slice" op_name="xla__update_slice" source_file="/code/github_code/xla_vllm/vllm/vllm/v1/worker/xla_gpu_model_runner.py" source_line=1401}
  ROOT %tuple.1 = (bf16[16,16]{1,0}, bf16[16,16]{1,0}) tuple(bf16[16,16]{1,0} %broadcast.263.2, bf16[16,16]{1,0} %dynamic-update-slice.89.2)
}

%fused_broadcast_select () -> (s32[16], s32[16]) {
  %constant_18_26 = pred[] constant(true), metadata={op_type="xla__unselect" op_name="xla__unselect" source_file="/code/github_code/xla_vllm/vllm/vllm/v1/worker/xla_gpu_model_runner.py" source_line=1389}
  %broadcast.257.2 = pred[8]{0} broadcast(pred[] %constant_18_26), dimensions={}, metadata={op_type="xla__unselect" op_name="xla__unselect" source_file="/code/github_code/xla_vllm/vllm/vllm/v1/worker/xla_gpu_model_runner.py" source_line=1389}
  %constant_20_4 = pred[] constant(false), metadata={op_type="xla__unselect" op_name="xla__unselect" source_file="/code/github_code/xla_vllm/vllm/vllm/v1/worker/xla_gpu_model_runner.py" source_line=1389}
  %pad.126.2 = pred[16]{0} pad(pred[8]{0} %broadcast.257.2, pred[] %constant_20_4), padding=8_0, metadata={op_type="xla__unselect" op_name="xla__unselect" source_file="/code/github_code/xla_vllm/vllm/vllm/v1/worker/xla_gpu_model_runner.py" source_line=1389}
  %constant_10_1 = s32[] constant(1), metadata={op_type="aten__expand" op_name="aten__expand" source_file="/code/github_code/xla_vllm/vllm/vllm/v1/worker/xla_gpu_model_runner.py" source_line=1389}
  %broadcast.259.1 = s32[8]{0} broadcast(s32[] %constant_10_1), dimensions={}, metadata={op_type="aten__expand" op_name="aten__expand" source_file="/code/github_code/xla_vllm/vllm/vllm/v1/worker/xla_gpu_model_runner.py" source_line=1389}
  %constant_21_1 = s32[] constant(0), metadata={op_type="xla__unselect" op_name="xla__unselect" source_file="/code/github_code/xla_vllm/vllm/vllm/v1/worker/xla_gpu_model_runner.py" source_line=1389}
  %pad.127.1 = s32[16]{0} pad(s32[8]{0} %broadcast.259.1, s32[] %constant_21_1), padding=8_0, metadata={op_type="xla__unselect" op_name="xla__unselect" source_file="/code/github_code/xla_vllm/vllm/vllm/v1/worker/xla_gpu_model_runner.py" source_line=1389}
  %pad.128.2 = pred[16]{0} pad(pred[8]{0} %broadcast.257.2, pred[] %constant_20_4), padding=0_8, metadata={op_type="xla__unselect" op_name="xla__unselect" source_file="/code/github_code/xla_vllm/vllm/vllm/v1/worker/xla_gpu_model_runner.py" source_line=1389}
  %broadcast.261.1 = s32[8]{0} broadcast(s32[] %constant_21_1), dimensions={}, metadata={op_type="aten__expand" op_name="aten__expand" source_file="/code/github_code/xla_vllm/vllm/vllm/v1/worker/xla_gpu_model_runner.py" source_line=1389}
  %pad.129.3 = s32[16]{0} pad(s32[8]{0} %broadcast.261.1, s32[] %constant_21_1), padding=0_8, metadata={op_type="xla__unselect" op_name="xla__unselect" source_file="/code/github_code/xla_vllm/vllm/vllm/v1/worker/xla_gpu_model_runner.py" source_line=1389}
  %broadcast.256.1.clone.1 = s32[16]{0} broadcast(s32[] %constant_21_1), dimensions={}, metadata={op_type="aten__expand" op_name="aten__expand" source_file="/code/github_code/xla_vllm/vllm/vllm/v1/worker/xla_gpu_model_runner.py" source_line=1379}
  %select.64.3 = s32[16]{0} select(pred[16]{0} %pad.128.2, s32[16]{0} %pad.129.3, s32[16]{0} %broadcast.256.1.clone.1), metadata={op_type="xla__unselect" op_name="xla__unselect" source_file="/code/github_code/xla_vllm/vllm/vllm/v1/worker/xla_gpu_model_runner.py" source_line=1389}
  %select.65.1 = s32[16]{0} select(pred[16]{0} %pad.126.2, s32[16]{0} %pad.127.1, s32[16]{0} %select.64.3), metadata={op_type="xla__unselect" op_name="xla__unselect" source_file="/code/github_code/xla_vllm/vllm/vllm/v1/worker/xla_gpu_model_runner.py" source_line=1389}
  ROOT %tuple = (s32[16]{0}, s32[16]{0}) tuple(s32[16]{0} %select.65.1, s32[16]{0} %broadcast.256.1.clone.1)
}

%fused_broadcast () -> pred[16] {
  %constant_18_1 = pred[] constant(true), metadata={op_type="xla__unselect" op_name="xla__unselect" source_file="/code/github_code/xla_vllm/vllm/vllm/v1/worker/xla_gpu_model_runner.py" source_line=1389}
  ROOT %broadcast.326.1 = pred[16]{0} broadcast(pred[] %constant_18_1), dimensions={}, metadata={op_type="aten__expand" op_name="aten__expand" source_file="/code/github_code/xla_vllm/vllm/vllm/v1/worker/xla_gpu_model_runner.py" source_line=1405}
}

%command_buffer (p: bf16[], p.1: pred[16]) -> (bf16[16,16], bf16[16,16], s32[16], s32[16], pred[16]) {
  %p = bf16[] parameter(0)
  %p.1 = pred[16]{0} parameter(1)
  %loop_pad_fusion = bf16[16,16]{1,0} fusion(bf16[] %p), kind=kLoop, calls=%fused_pad, metadata={op_type="xla__update_slice" op_name="xla__update_slice" source_file="/code/github_code/xla_vllm/vllm/vllm/v1/worker/xla_gpu_model_runner.py" source_line=1401}
  %loop_dynamic_update_slice_fusion.27 = bf16[16,16]{1,0} fusion(bf16[16,16]{1,0} %loop_pad_fusion), kind=kLoop, calls=%fused_dynamic_update_slice.27, metadata={op_type="xla__update_slice" op_name="xla__update_slice" source_file="/code/github_code/xla_vllm/vllm/vllm/v1/worker/xla_gpu_model_runner.py" source_line=1400}
  %wrapped_slice = bf16[1,16]{1,0} fusion(bf16[16,16]{1,0} %loop_dynamic_update_slice_fusion.27), kind=kLoop, calls=%wrapped_slice_computation, metadata={op_type="xla__generic_slice" op_name="xla__generic_slice" source_file="/code/github_code/xla_vllm/vllm/vllm/v1/worker/xla_gpu_model_runner.py" source_line=1401}
  %loop_dynamic_update_slice_fusion.26 = bf16[16,16]{1,0} fusion(bf16[16,16]{1,0} %loop_dynamic_update_slice_fusion.27, bf16[1,16]{1,0} %wrapped_slice, bf16[] %p), kind=kLoop, calls=%fused_dynamic_update_slice.26, metadata={op_type="xla__update_slice" op_name="xla__update_slice" source_file="/code/github_code/xla_vllm/vllm/vllm/v1/worker/xla_gpu_model_runner.py" source_line=1401}
  %wrapped_slice.1 = bf16[1,16]{1,0} fusion(bf16[16,16]{1,0} %loop_dynamic_update_slice_fusion.26), kind=kLoop, calls=%wrapped_slice_computation.1, metadata={op_type="xla__generic_slice" op_name="xla__generic_slice" source_file="/code/github_code/xla_vllm/vllm/vllm/v1/worker/xla_gpu_model_runner.py" source_line=1400}
  %loop_dynamic_update_slice_fusion.25 = bf16[16,16]{1,0} fusion(bf16[16,16]{1,0} %loop_dynamic_update_slice_fusion.26, bf16[1,16]{1,0} %wrapped_slice.1), kind=kLoop, calls=%fused_dynamic_update_slice.25, metadata={op_type="xla__update_slice" op_name="xla__update_slice" source_file="/code/github_code/xla_vllm/vllm/vllm/v1/worker/xla_gpu_model_runner.py" source_line=1400}
  %wrapped_slice.2 = bf16[1,16]{1,0} fusion(bf16[16,16]{1,0} %loop_dynamic_update_slice_fusion.25), kind=kLoop, calls=%wrapped_slice_computation.2, metadata={op_type="xla__generic_slice" op_name="xla__generic_slice" source_file="/code/github_code/xla_vllm/vllm/vllm/v1/worker/xla_gpu_model_runner.py" source_line=1401}
  %loop_dynamic_update_slice_fusion.24 = bf16[16,16]{1,0} fusion(bf16[16,16]{1,0} %loop_dynamic_update_slice_fusion.25, bf16[1,16]{1,0} %wrapped_slice.2, bf16[] %p), kind=kLoop, calls=%fused_dynamic_update_slice.24, metadata={op_type="xla__update_slice" op_name="xla__update_slice" source_file="/code/github_code/xla_vllm/vllm/vllm/v1/worker/xla_gpu_model_runner.py" source_line=1401}
  %wrapped_slice.3 = bf16[1,16]{1,0} fusion(bf16[16,16]{1,0} %loop_dynamic_update_slice_fusion.24), kind=kLoop, calls=%wrapped_slice_computation.3, metadata={op_type="xla__generic_slice" op_name="xla__generic_slice" source_file="/code/github_code/xla_vllm/vllm/vllm/v1/worker/xla_gpu_model_runner.py" source_line=1400}
  %loop_dynamic_update_slice_fusion.23 = bf16[16,16]{1,0} fusion(bf16[16,16]{1,0} %loop_dynamic_update_slice_fusion.24, bf16[1,16]{1,0} %wrapped_slice.3), kind=kLoop, calls=%fused_dynamic_update_slice.23, metadata={op_type="xla__update_slice" op_name="xla__update_slice" source_file="/code/github_code/xla_vllm/vllm/vllm/v1/worker/xla_gpu_model_runner.py" source_line=1400}
  %wrapped_slice.4 = bf16[1,16]{1,0} fusion(bf16[16,16]{1,0} %loop_dynamic_update_slice_fusion.23), kind=kLoop, calls=%wrapped_slice_computation.4, metadata={op_type="xla__generic_slice" op_name="xla__generic_slice" source_file="/code/github_code/xla_vllm/vllm/vllm/v1/worker/xla_gpu_model_runner.py" source_line=1401}
  %loop_dynamic_update_slice_fusion.22 = bf16[16,16]{1,0} fusion(bf16[16,16]{1,0} %loop_dynamic_update_slice_fusion.23, bf16[1,16]{1,0} %wrapped_slice.4, bf16[] %p), kind=kLoop, calls=%fused_dynamic_update_slice.22, metadata={op_type="xla__update_slice" op_name="xla__update_slice" source_file="/code/github_code/xla_vllm/vllm/vllm/v1/worker/xla_gpu_model_runner.py" source_line=1401}
  %wrapped_slice.5 = bf16[1,16]{1,0} fusion(bf16[16,16]{1,0} %loop_dynamic_update_slice_fusion.22), kind=kLoop, calls=%wrapped_slice_computation.5, metadata={op_type="xla__generic_slice" op_name="xla__generic_slice" source_file="/code/github_code/xla_vllm/vllm/vllm/v1/worker/xla_gpu_model_runner.py" source_line=1400}
  %loop_dynamic_update_slice_fusion.21 = bf16[16,16]{1,0} fusion(bf16[16,16]{1,0} %loop_dynamic_update_slice_fusion.22, bf16[1,16]{1,0} %wrapped_slice.5), kind=kLoop, calls=%fused_dynamic_update_slice.21, metadata={op_type="xla__update_slice" op_name="xla__update_slice" source_file="/code/github_code/xla_vllm/vllm/vllm/v1/worker/xla_gpu_model_runner.py" source_line=1400}
  %wrapped_slice.6 = bf16[1,16]{1,0} fusion(bf16[16,16]{1,0} %loop_dynamic_update_slice_fusion.21), kind=kLoop, calls=%wrapped_slice_computation.6, metadata={op_type="xla__generic_slice" op_name="xla__generic_slice" source_file="/code/github_code/xla_vllm/vllm/vllm/v1/worker/xla_gpu_model_runner.py" source_line=1401}
  %loop_dynamic_update_slice_fusion.20 = bf16[16,16]{1,0} fusion(bf16[16,16]{1,0} %loop_dynamic_update_slice_fusion.21, bf16[1,16]{1,0} %wrapped_slice.6, bf16[] %p), kind=kLoop, calls=%fused_dynamic_update_slice.20, metadata={op_type="xla__update_slice" op_name="xla__update_slice" source_file="/code/github_code/xla_vllm/vllm/vllm/v1/worker/xla_gpu_model_runner.py" source_line=1401}
  %wrapped_slice.7 = bf16[1,16]{1,0} fusion(bf16[16,16]{1,0} %loop_dynamic_update_slice_fusion.20), kind=kLoop, calls=%wrapped_slice_computation.7, metadata={op_type="xla__generic_slice" op_name="xla__generic_slice" source_file="/code/github_code/xla_vllm/vllm/vllm/v1/worker/xla_gpu_model_runner.py" source_line=1400}
  %loop_dynamic_update_slice_fusion.19 = bf16[16,16]{1,0} fusion(bf16[16,16]{1,0} %loop_dynamic_update_slice_fusion.20, bf16[1,16]{1,0} %wrapped_slice.7), kind=kLoop, calls=%fused_dynamic_update_slice.19, metadata={op_type="xla__update_slice" op_name="xla__update_slice" source_file="/code/github_code/xla_vllm/vllm/vllm/v1/worker/xla_gpu_model_runner.py" source_line=1400}
  %wrapped_slice.8 = bf16[1,16]{1,0} fusion(bf16[16,16]{1,0} %loop_dynamic_update_slice_fusion.19), kind=kLoop, calls=%wrapped_slice_computation.8, metadata={op_type="xla__generic_slice" op_name="xla__generic_slice" source_file="/code/github_code/xla_vllm/vllm/vllm/v1/worker/xla_gpu_model_runner.py" source_line=1401}
  %loop_dynamic_update_slice_fusion.18 = bf16[16,16]{1,0} fusion(bf16[16,16]{1,0} %loop_dynamic_update_slice_fusion.19, bf16[1,16]{1,0} %wrapped_slice.8, bf16[] %p), kind=kLoop, calls=%fused_dynamic_update_slice.18, metadata={op_type="xla__update_slice" op_name="xla__update_slice" source_file="/code/github_code/xla_vllm/vllm/vllm/v1/worker/xla_gpu_model_runner.py" source_line=1401}
  %wrapped_slice.9 = bf16[1,16]{1,0} fusion(bf16[16,16]{1,0} %loop_dynamic_update_slice_fusion.18), kind=kLoop, calls=%wrapped_slice_computation.9, metadata={op_type="xla__generic_slice" op_name="xla__generic_slice" source_file="/code/github_code/xla_vllm/vllm/vllm/v1/worker/xla_gpu_model_runner.py" source_line=1400}
  %loop_dynamic_update_slice_fusion.17 = bf16[16,16]{1,0} fusion(bf16[16,16]{1,0} %loop_dynamic_update_slice_fusion.18, bf16[1,16]{1,0} %wrapped_slice.9), kind=kLoop, calls=%fused_dynamic_update_slice.17, metadata={op_type="xla__update_slice" op_name="xla__update_slice" source_file="/code/github_code/xla_vllm/vllm/vllm/v1/worker/xla_gpu_model_runner.py" source_line=1400}
  %wrapped_slice.10 = bf16[1,16]{1,0} fusion(bf16[16,16]{1,0} %loop_dynamic_update_slice_fusion.17), kind=kLoop, calls=%wrapped_slice_computation.10, metadata={op_type="xla__generic_slice" op_name="xla__generic_slice" source_file="/code/github_code/xla_vllm/vllm/vllm/v1/worker/xla_gpu_model_runner.py" source_line=1401}
  %loop_dynamic_update_slice_fusion.16 = bf16[16,16]{1,0} fusion(bf16[16,16]{1,0} %loop_dynamic_update_slice_fusion.17, bf16[1,16]{1,0} %wrapped_slice.10, bf16[] %p), kind=kLoop, calls=%fused_dynamic_update_slice.16, metadata={op_type="xla__update_slice" op_name="xla__update_slice" source_file="/code/github_code/xla_vllm/vllm/vllm/v1/worker/xla_gpu_model_runner.py" source_line=1401}
  %wrapped_slice.11 = bf16[1,16]{1,0} fusion(bf16[16,16]{1,0} %loop_dynamic_update_slice_fusion.16), kind=kLoop, calls=%wrapped_slice_computation.11, metadata={op_type="xla__generic_slice" op_name="xla__generic_slice" source_file="/code/github_code/xla_vllm/vllm/vllm/v1/worker/xla_gpu_model_runner.py" source_line=1400}
  %loop_dynamic_update_slice_fusion.15 = bf16[16,16]{1,0} fusion(bf16[16,16]{1,0} %loop_dynamic_update_slice_fusion.16, bf16[1,16]{1,0} %wrapped_slice.11), kind=kLoop, calls=%fused_dynamic_update_slice.15, metadata={op_type="xla__update_slice" op_name="xla__update_slice" source_file="/code/github_code/xla_vllm/vllm/vllm/v1/worker/xla_gpu_model_runner.py" source_line=1400}
  %wrapped_slice.12 = bf16[1,16]{1,0} fusion(bf16[16,16]{1,0} %loop_dynamic_update_slice_fusion.15), kind=kLoop, calls=%wrapped_slice_computation.12, metadata={op_type="xla__generic_slice" op_name="xla__generic_slice" source_file="/code/github_code/xla_vllm/vllm/vllm/v1/worker/xla_gpu_model_runner.py" source_line=1401}
  %loop_dynamic_update_slice_fusion.14 = bf16[16,16]{1,0} fusion(bf16[16,16]{1,0} %loop_dynamic_update_slice_fusion.15, bf16[1,16]{1,0} %wrapped_slice.12, bf16[] %p), kind=kLoop, calls=%fused_dynamic_update_slice.14, metadata={op_type="xla__update_slice" op_name="xla__update_slice" source_file="/code/github_code/xla_vllm/vllm/vllm/v1/worker/xla_gpu_model_runner.py" source_line=1401}
  %wrapped_slice.13 = bf16[1,16]{1,0} fusion(bf16[16,16]{1,0} %loop_dynamic_update_slice_fusion.14), kind=kLoop, calls=%wrapped_slice_computation.13, metadata={op_type="xla__generic_slice" op_name="xla__generic_slice" source_file="/code/github_code/xla_vllm/vllm/vllm/v1/worker/xla_gpu_model_runner.py" source_line=1400}
  %loop_dynamic_update_slice_fusion.13 = bf16[16,16]{1,0} fusion(bf16[16,16]{1,0} %loop_dynamic_update_slice_fusion.14, bf16[1,16]{1,0} %wrapped_slice.13), kind=kLoop, calls=%fused_dynamic_update_slice.13, metadata={op_type="xla__update_slice" op_name="xla__update_slice" source_file="/code/github_code/xla_vllm/vllm/vllm/v1/worker/xla_gpu_model_runner.py" source_line=1400}
  %wrapped_slice.14 = bf16[1,16]{1,0} fusion(bf16[16,16]{1,0} %loop_dynamic_update_slice_fusion.13), kind=kLoop, calls=%wrapped_slice_computation.14, metadata={op_type="xla__generic_slice" op_name="xla__generic_slice" source_file="/code/github_code/xla_vllm/vllm/vllm/v1/worker/xla_gpu_model_runner.py" source_line=1401}
  %loop_dynamic_update_slice_fusion.12 = bf16[16,16]{1,0} fusion(bf16[16,16]{1,0} %loop_dynamic_update_slice_fusion.13, bf16[1,16]{1,0} %wrapped_slice.14, bf16[] %p), kind=kLoop, calls=%fused_dynamic_update_slice.12, metadata={op_type="xla__update_slice" op_name="xla__update_slice" source_file="/code/github_code/xla_vllm/vllm/vllm/v1/worker/xla_gpu_model_runner.py" source_line=1401}
  %wrapped_slice.15 = bf16[1,16]{1,0} fusion(bf16[16,16]{1,0} %loop_dynamic_update_slice_fusion.12), kind=kLoop, calls=%wrapped_slice_computation.15, metadata={op_type="xla__generic_slice" op_name="xla__generic_slice" source_file="/code/github_code/xla_vllm/vllm/vllm/v1/worker/xla_gpu_model_runner.py" source_line=1400}
  %loop_dynamic_update_slice_fusion.11 = bf16[16,16]{1,0} fusion(bf16[16,16]{1,0} %loop_dynamic_update_slice_fusion.12, bf16[1,16]{1,0} %wrapped_slice.15), kind=kLoop, calls=%fused_dynamic_update_slice.11, metadata={op_type="xla__update_slice" op_name="xla__update_slice" source_file="/code/github_code/xla_vllm/vllm/vllm/v1/worker/xla_gpu_model_runner.py" source_line=1400}
  %wrapped_slice.16 = bf16[1,16]{1,0} fusion(bf16[16,16]{1,0} %loop_dynamic_update_slice_fusion.11), kind=kLoop, calls=%wrapped_slice_computation.16, metadata={op_type="xla__generic_slice" op_name="xla__generic_slice" source_file="/code/github_code/xla_vllm/vllm/vllm/v1/worker/xla_gpu_model_runner.py" source_line=1401}
  %loop_dynamic_update_slice_fusion.10 = bf16[16,16]{1,0} fusion(bf16[16,16]{1,0} %loop_dynamic_update_slice_fusion.11, bf16[1,16]{1,0} %wrapped_slice.16, bf16[] %p), kind=kLoop, calls=%fused_dynamic_update_slice.10, metadata={op_type="xla__update_slice" op_name="xla__update_slice" source_file="/code/github_code/xla_vllm/vllm/vllm/v1/worker/xla_gpu_model_runner.py" source_line=1401}
  %wrapped_slice.17 = bf16[1,16]{1,0} fusion(bf16[16,16]{1,0} %loop_dynamic_update_slice_fusion.10), kind=kLoop, calls=%wrapped_slice_computation.17, metadata={op_type="xla__generic_slice" op_name="xla__generic_slice" source_file="/code/github_code/xla_vllm/vllm/vllm/v1/worker/xla_gpu_model_runner.py" source_line=1400}
  %loop_dynamic_update_slice_fusion.9 = bf16[16,16]{1,0} fusion(bf16[16,16]{1,0} %loop_dynamic_update_slice_fusion.10, bf16[1,16]{1,0} %wrapped_slice.17), kind=kLoop, calls=%fused_dynamic_update_slice.9, metadata={op_type="xla__update_slice" op_name="xla__update_slice" source_file="/code/github_code/xla_vllm/vllm/vllm/v1/worker/xla_gpu_model_runner.py" source_line=1400}
  %wrapped_slice.18 = bf16[1,16]{1,0} fusion(bf16[16,16]{1,0} %loop_dynamic_update_slice_fusion.9), kind=kLoop, calls=%wrapped_slice_computation.18, metadata={op_type="xla__generic_slice" op_name="xla__generic_slice" source_file="/code/github_code/xla_vllm/vllm/vllm/v1/worker/xla_gpu_model_runner.py" source_line=1401}
  %loop_dynamic_update_slice_fusion.8 = bf16[16,16]{1,0} fusion(bf16[16,16]{1,0} %loop_dynamic_update_slice_fusion.9, bf16[1,16]{1,0} %wrapped_slice.18, bf16[] %p), kind=kLoop, calls=%fused_dynamic_update_slice.8, metadata={op_type="xla__update_slice" op_name="xla__update_slice" source_file="/code/github_code/xla_vllm/vllm/vllm/v1/worker/xla_gpu_model_runner.py" source_line=1401}
  %wrapped_slice.19 = bf16[1,16]{1,0} fusion(bf16[16,16]{1,0} %loop_dynamic_update_slice_fusion.8), kind=kLoop, calls=%wrapped_slice_computation.19, metadata={op_type="xla__generic_slice" op_name="xla__generic_slice" source_file="/code/github_code/xla_vllm/vllm/vllm/v1/worker/xla_gpu_model_runner.py" source_line=1400}
  %loop_dynamic_update_slice_fusion.7 = bf16[16,16]{1,0} fusion(bf16[16,16]{1,0} %loop_dynamic_update_slice_fusion.8, bf16[1,16]{1,0} %wrapped_slice.19), kind=kLoop, calls=%fused_dynamic_update_slice.7, metadata={op_type="xla__update_slice" op_name="xla__update_slice" source_file="/code/github_code/xla_vllm/vllm/vllm/v1/worker/xla_gpu_model_runner.py" source_line=1400}
  %wrapped_slice.20 = bf16[1,16]{1,0} fusion(bf16[16,16]{1,0} %loop_dynamic_update_slice_fusion.7), kind=kLoop, calls=%wrapped_slice_computation.20, metadata={op_type="xla__generic_slice" op_name="xla__generic_slice" source_file="/code/github_code/xla_vllm/vllm/vllm/v1/worker/xla_gpu_model_runner.py" source_line=1401}
  %loop_dynamic_update_slice_fusion.6 = bf16[16,16]{1,0} fusion(bf16[16,16]{1,0} %loop_dynamic_update_slice_fusion.7, bf16[1,16]{1,0} %wrapped_slice.20, bf16[] %p), kind=kLoop, calls=%fused_dynamic_update_slice.6, metadata={op_type="xla__update_slice" op_name="xla__update_slice" source_file="/code/github_code/xla_vllm/vllm/vllm/v1/worker/xla_gpu_model_runner.py" source_line=1401}
  %wrapped_slice.21 = bf16[1,16]{1,0} fusion(bf16[16,16]{1,0} %loop_dynamic_update_slice_fusion.6), kind=kLoop, calls=%wrapped_slice_computation.21, metadata={op_type="xla__generic_slice" op_name="xla__generic_slice" source_file="/code/github_code/xla_vllm/vllm/vllm/v1/worker/xla_gpu_model_runner.py" source_line=1400}
  %loop_dynamic_update_slice_fusion.5 = bf16[16,16]{1,0} fusion(bf16[16,16]{1,0} %loop_dynamic_update_slice_fusion.6, bf16[1,16]{1,0} %wrapped_slice.21), kind=kLoop, calls=%fused_dynamic_update_slice.5, metadata={op_type="xla__update_slice" op_name="xla__update_slice" source_file="/code/github_code/xla_vllm/vllm/vllm/v1/worker/xla_gpu_model_runner.py" source_line=1400}
  %wrapped_slice.22 = bf16[1,16]{1,0} fusion(bf16[16,16]{1,0} %loop_dynamic_update_slice_fusion.5), kind=kLoop, calls=%wrapped_slice_computation.22, metadata={op_type="xla__generic_slice" op_name="xla__generic_slice" source_file="/code/github_code/xla_vllm/vllm/vllm/v1/worker/xla_gpu_model_runner.py" source_line=1401}
  %loop_dynamic_update_slice_fusion.4 = bf16[16,16]{1,0} fusion(bf16[16,16]{1,0} %loop_dynamic_update_slice_fusion.5, bf16[1,16]{1,0} %wrapped_slice.22, bf16[] %p), kind=kLoop, calls=%fused_dynamic_update_slice.4, metadata={op_type="xla__update_slice" op_name="xla__update_slice" source_file="/code/github_code/xla_vllm/vllm/vllm/v1/worker/xla_gpu_model_runner.py" source_line=1401}
  %wrapped_slice.23 = bf16[1,16]{1,0} fusion(bf16[16,16]{1,0} %loop_dynamic_update_slice_fusion.4), kind=kLoop, calls=%wrapped_slice_computation.23, metadata={op_type="xla__generic_slice" op_name="xla__generic_slice" source_file="/code/github_code/xla_vllm/vllm/vllm/v1/worker/xla_gpu_model_runner.py" source_line=1400}
  %loop_dynamic_update_slice_fusion.3 = bf16[16,16]{1,0} fusion(bf16[16,16]{1,0} %loop_dynamic_update_slice_fusion.4, bf16[1,16]{1,0} %wrapped_slice.23), kind=kLoop, calls=%fused_dynamic_update_slice.3, metadata={op_type="xla__update_slice" op_name="xla__update_slice" source_file="/code/github_code/xla_vllm/vllm/vllm/v1/worker/xla_gpu_model_runner.py" source_line=1400}
  %wrapped_slice.24 = bf16[1,16]{1,0} fusion(bf16[16,16]{1,0} %loop_dynamic_update_slice_fusion.3), kind=kLoop, calls=%wrapped_slice_computation.24, metadata={op_type="xla__generic_slice" op_name="xla__generic_slice" source_file="/code/github_code/xla_vllm/vllm/vllm/v1/worker/xla_gpu_model_runner.py" source_line=1401}
  %loop_dynamic_update_slice_fusion.2 = bf16[16,16]{1,0} fusion(bf16[16,16]{1,0} %loop_dynamic_update_slice_fusion.3, bf16[1,16]{1,0} %wrapped_slice.24, bf16[] %p), kind=kLoop, calls=%fused_dynamic_update_slice.2, metadata={op_type="xla__update_slice" op_name="xla__update_slice" source_file="/code/github_code/xla_vllm/vllm/vllm/v1/worker/xla_gpu_model_runner.py" source_line=1401}
  %wrapped_slice.25 = bf16[1,16]{1,0} fusion(bf16[16,16]{1,0} %loop_dynamic_update_slice_fusion.2), kind=kLoop, calls=%wrapped_slice_computation.25, metadata={op_type="xla__generic_slice" op_name="xla__generic_slice" source_file="/code/github_code/xla_vllm/vllm/vllm/v1/worker/xla_gpu_model_runner.py" source_line=1400}
  %loop_dynamic_update_slice_fusion.1 = bf16[16,16]{1,0} fusion(bf16[16,16]{1,0} %loop_dynamic_update_slice_fusion.2, bf16[1,16]{1,0} %wrapped_slice.25), kind=kLoop, calls=%fused_dynamic_update_slice.1, metadata={op_type="xla__update_slice" op_name="xla__update_slice" source_file="/code/github_code/xla_vllm/vllm/vllm/v1/worker/xla_gpu_model_runner.py" source_line=1400}
  %wrapped_slice.26 = bf16[1,16]{1,0} fusion(bf16[16,16]{1,0} %loop_dynamic_update_slice_fusion.1), kind=kLoop, calls=%wrapped_slice_computation.26, metadata={op_type="xla__generic_slice" op_name="xla__generic_slice" source_file="/code/github_code/xla_vllm/vllm/vllm/v1/worker/xla_gpu_model_runner.py" source_line=1401}
  %loop_dynamic_update_slice_fusion = bf16[16,16]{1,0} fusion(bf16[16,16]{1,0} %loop_dynamic_update_slice_fusion.1, pred[16]{0} %p.1, bf16[1,16]{1,0} %wrapped_slice.26, bf16[] %p), kind=kLoop, calls=%fused_dynamic_update_slice, metadata={op_type="xla__update_slice" op_name="xla__update_slice" source_file="/code/github_code/xla_vllm/vllm/vllm/v1/worker/xla_gpu_model_runner.py" source_line=1401}
  %loop_dynamic_update_slice_fusion.28 = bf16[16,16]{1,0} fusion(bf16[16,16]{1,0} %loop_dynamic_update_slice_fusion), kind=kLoop, calls=%fused_dynamic_update_slice.28, metadata={op_type="xla__update_slice" op_name="xla__update_slice" source_file="/code/github_code/xla_vllm/vllm/vllm/v1/worker/xla_gpu_model_runner.py" source_line=1400}
  %loop_broadcast_dynamic_update_slice_fusion = (bf16[16,16]{1,0}, bf16[16,16]{1,0}) fusion(bf16[16,16]{1,0} %loop_dynamic_update_slice_fusion.28), kind=kLoop, calls=%fused_broadcast_dynamic_update_slice
  %get-tuple-element.2 = bf16[16,16]{1,0} get-tuple-element((bf16[16,16]{1,0}, bf16[16,16]{1,0}) %loop_broadcast_dynamic_update_slice_fusion), index=0, metadata={op_type="aten__expand" op_name="aten__expand" source_file="/code/github_code/xla_vllm/vllm/vllm/v1/worker/xla_gpu_model_runner.py" source_line=1394}
  %get-tuple-element.3 = bf16[16,16]{1,0} get-tuple-element((bf16[16,16]{1,0}, bf16[16,16]{1,0}) %loop_broadcast_dynamic_update_slice_fusion), index=1, metadata={op_type="xla__update_slice" op_name="xla__update_slice" source_file="/code/github_code/xla_vllm/vllm/vllm/v1/worker/xla_gpu_model_runner.py" source_line=1401}
  %loop_broadcast_select_fusion = (s32[16]{0}, s32[16]{0}) fusion(), kind=kLoop, calls=%fused_broadcast_select, metadata={op_type="xla__unselect" op_name="xla__unselect" source_file="/code/github_code/xla_vllm/vllm/vllm/v1/worker/xla_gpu_model_runner.py" source_line=1389}
  %get-tuple-element = s32[16]{0} get-tuple-element((s32[16]{0}, s32[16]{0}) %loop_broadcast_select_fusion), index=0, metadata={op_type="xla__unselect" op_name="xla__unselect" source_file="/code/github_code/xla_vllm/vllm/vllm/v1/worker/xla_gpu_model_runner.py" source_line=1389}
  %get-tuple-element.1 = s32[16]{0} get-tuple-element((s32[16]{0}, s32[16]{0}) %loop_broadcast_select_fusion), index=1, metadata={op_type="xla__unselect" op_name="xla__unselect" source_file="/code/github_code/xla_vllm/vllm/vllm/v1/worker/xla_gpu_model_runner.py" source_line=1389}
  %loop_broadcast_fusion = pred[16]{0} fusion(), kind=kLoop, calls=%fused_broadcast, metadata={op_type="aten__expand" op_name="aten__expand" source_file="/code/github_code/xla_vllm/vllm/vllm/v1/worker/xla_gpu_model_runner.py" source_line=1405}
  ROOT %tuple.2 = (bf16[16,16]{1,0}, bf16[16,16]{1,0}, s32[16]{0}, s32[16]{0}, pred[16]{0}) tuple(bf16[16,16]{1,0} %get-tuple-element.2, bf16[16,16]{1,0} %get-tuple-element.3, s32[16]{0} %get-tuple-element, s32[16]{0} %get-tuple-element.1, pred[16]{0} %loop_broadcast_fusion)
}

ENTRY %SyncTensorsGraph.636 (p0.37.0: bf16[]) -> (s32[16], s32[16], bf16[16,16], bf16[16,16], pred[16]) {
  %p0.37.0 = bf16[] parameter(0), metadata={op_type="xla__device_data" op_name="xla__device_data" source_file="/code/github_code/xla_vllm/vllm/vllm/v1/worker/xla_gpu_model_runner.py" source_line=1403}
  %constant_61_0 = pred[16]{0} constant({...}), metadata={op_type="xla__unselect" op_name="xla__unselect" source_file="/code/github_code/xla_vllm/vllm/vllm/v1/worker/xla_gpu_model_runner.py" source_line=1401}
  %call = (bf16[16,16]{1,0}, bf16[16,16]{1,0}, s32[16]{0}, s32[16]{0}, pred[16]{0}) call(bf16[] %p0.37.0, pred[16]{0} %constant_61_0), to_apply=%command_buffer
  %get-tuple-element.8 = bf16[16,16]{1,0} get-tuple-element((bf16[16,16]{1,0}, bf16[16,16]{1,0}, s32[16]{0}, s32[16]{0}, pred[16]{0}) %call), index=0
  %get-tuple-element.9 = bf16[16,16]{1,0} get-tuple-element((bf16[16,16]{1,0}, bf16[16,16]{1,0}, s32[16]{0}, s32[16]{0}, pred[16]{0}) %call), index=1
  %get-tuple-element.10 = s32[16]{0} get-tuple-element((bf16[16,16]{1,0}, bf16[16,16]{1,0}, s32[16]{0}, s32[16]{0}, pred[16]{0}) %call), index=2
  %get-tuple-element.11 = s32[16]{0} get-tuple-element((bf16[16,16]{1,0}, bf16[16,16]{1,0}, s32[16]{0}, s32[16]{0}, pred[16]{0}) %call), index=3
  %get-tuple-element.12 = pred[16]{0} get-tuple-element((bf16[16,16]{1,0}, bf16[16,16]{1,0}, s32[16]{0}, s32[16]{0}, pred[16]{0}) %call), index=4
  ROOT %tuple.635.0 = (s32[16]{0}, s32[16]{0}, bf16[16,16]{1,0}, bf16[16,16]{1,0}, pred[16]{0}) tuple(s32[16]{0} %get-tuple-element.11, s32[16]{0} %get-tuple-element.10, bf16[16,16]{1,0} %get-tuple-element.8, bf16[16,16]{1,0} %get-tuple-element.9, pred[16]{0} %get-tuple-element.12)
}

