HloModule SyncTensorsGraph.1255, entry_computation_layout={(bf16[128]{0}, f32[], bf16[4096,1024]{1,0}, bf16[1024]{0}, s32[16]{0}, /*index=5*/bf16[151936,1024]{1,0}, bf16[1024,2048]{1,0}, bf16[1024,3072]{1,0}, bf16[6144,1024]{1,0}, bf16[1024]{0}, /*index=10*/bf16[1024,2048]{1,0}, bf16[1024,3072]{1,0}, bf16[6144,1024]{1,0}, bf16[1024]{0}, bf16[1024,2048]{1,0}, /*index=15*/bf16[1024,3072]{1,0}, bf16[6144,1024]{1,0}, bf16[1024]{0}, bf16[1024,2048]{1,0}, bf16[1024,3072]{1,0}, /*index=20*/bf16[6144,1024]{1,0}, bf16[1024]{0}, bf16[1024,2048]{1,0}, bf16[1024,3072]{1,0}, bf16[6144,1024]{1,0}, /*index=25*/bf16[1024]{0}, bf16[1024,2048]{1,0}, bf16[1024,3072]{1,0}, bf16[6144,1024]{1,0}, bf16[1024]{0}, /*index=30*/bf16[1024,2048]{1,0}, bf16[1024,3072]{1,0}, bf16[6144,1024]{1,0}, bf16[1024]{0}, bf16[1024,2048]{1,0}, /*index=35*/bf16[1024,3072]{1,0}, bf16[6144,1024]{1,0}, bf16[1024]{0}, bf16[1024,2048]{1,0}, bf16[1024,3072]{1,0}, /*index=40*/bf16[6144,1024]{1,0}, bf16[1024]{0}, bf16[1024,2048]{1,0}, bf16[1024,3072]{1,0}, bf16[6144,1024]{1,0}, /*index=45*/bf16[1024]{0}, bf16[1024,2048]{1,0}, bf16[1024,3072]{1,0}, bf16[6144,1024]{1,0}, bf16[1024]{0}, /*index=50*/bf16[1024,2048]{1,0}, bf16[1024,3072]{1,0}, bf16[6144,1024]{1,0}, bf16[1024]{0}, bf16[1024,2048]{1,0}, /*index=55*/bf16[1024,3072]{1,0}, bf16[6144,1024]{1,0}, bf16[1024]{0}, bf16[1024,2048]{1,0}, bf16[1024,3072]{1,0}, /*index=60*/bf16[6144,1024]{1,0}, bf16[1024]{0}, bf16[1024,2048]{1,0}, bf16[1024,3072]{1,0}, bf16[6144,1024]{1,0}, /*index=65*/bf16[1024]{0}, s32[16]{0}, bf16[40960,128]{1,0}, bf16[2,4233,16,8,128]{4,3,2,1,0})->(bf16[16,8,128]{2,1,0}, bf16[16,8,128]{2,1,0}, bf16[4233,16,8,128]{3,2,1,0}, bf16[4233,16,8,128]{3,2,1,0})}

%AddComputation.76 (x.77: f32[], y.78: f32[]) -> f32[] {
  %x.77 = f32[] parameter(0)
  %y.78 = f32[] parameter(1)
  ROOT %add.79 = f32[] add(f32[] %x.77, f32[] %y.78)
}

%AddComputation.148 (x.149: f32[], y.150: f32[]) -> f32[] {
  %x.149 = f32[] parameter(0)
  %y.150 = f32[] parameter(1)
  ROOT %add.151 = f32[] add(f32[] %x.149, f32[] %y.150)
}

%AddComputation.220 (x.221: f32[], y.222: f32[]) -> f32[] {
  %x.221 = f32[] parameter(0)
  %y.222 = f32[] parameter(1)
  ROOT %add.223 = f32[] add(f32[] %x.221, f32[] %y.222)
}

%AddComputation.292 (x.293: f32[], y.294: f32[]) -> f32[] {
  %x.293 = f32[] parameter(0)
  %y.294 = f32[] parameter(1)
  ROOT %add.295 = f32[] add(f32[] %x.293, f32[] %y.294)
}

%AddComputation.364 (x.365: f32[], y.366: f32[]) -> f32[] {
  %x.365 = f32[] parameter(0)
  %y.366 = f32[] parameter(1)
  ROOT %add.367 = f32[] add(f32[] %x.365, f32[] %y.366)
}

%AddComputation.436 (x.437: f32[], y.438: f32[]) -> f32[] {
  %x.437 = f32[] parameter(0)
  %y.438 = f32[] parameter(1)
  ROOT %add.439 = f32[] add(f32[] %x.437, f32[] %y.438)
}

%AddComputation.508 (x.509: f32[], y.510: f32[]) -> f32[] {
  %x.509 = f32[] parameter(0)
  %y.510 = f32[] parameter(1)
  ROOT %add.511 = f32[] add(f32[] %x.509, f32[] %y.510)
}

%AddComputation.580 (x.581: f32[], y.582: f32[]) -> f32[] {
  %x.581 = f32[] parameter(0)
  %y.582 = f32[] parameter(1)
  ROOT %add.583 = f32[] add(f32[] %x.581, f32[] %y.582)
}

%AddComputation.652 (x.653: f32[], y.654: f32[]) -> f32[] {
  %x.653 = f32[] parameter(0)
  %y.654 = f32[] parameter(1)
  ROOT %add.655 = f32[] add(f32[] %x.653, f32[] %y.654)
}

%AddComputation.724 (x.725: f32[], y.726: f32[]) -> f32[] {
  %x.725 = f32[] parameter(0)
  %y.726 = f32[] parameter(1)
  ROOT %add.727 = f32[] add(f32[] %x.725, f32[] %y.726)
}

%AddComputation.796 (x.797: f32[], y.798: f32[]) -> f32[] {
  %x.797 = f32[] parameter(0)
  %y.798 = f32[] parameter(1)
  ROOT %add.799 = f32[] add(f32[] %x.797, f32[] %y.798)
}

%AddComputation.868 (x.869: f32[], y.870: f32[]) -> f32[] {
  %x.869 = f32[] parameter(0)
  %y.870 = f32[] parameter(1)
  ROOT %add.871 = f32[] add(f32[] %x.869, f32[] %y.870)
}

%AddComputation.940 (x.941: f32[], y.942: f32[]) -> f32[] {
  %x.941 = f32[] parameter(0)
  %y.942 = f32[] parameter(1)
  ROOT %add.943 = f32[] add(f32[] %x.941, f32[] %y.942)
}

%AddComputation.1012 (x.1013: f32[], y.1014: f32[]) -> f32[] {
  %x.1013 = f32[] parameter(0)
  %y.1014 = f32[] parameter(1)
  ROOT %add.1015 = f32[] add(f32[] %x.1013, f32[] %y.1014)
}

%AddComputation.1084 (x.1085: f32[], y.1086: f32[]) -> f32[] {
  %x.1085 = f32[] parameter(0)
  %y.1086 = f32[] parameter(1)
  ROOT %add.1087 = f32[] add(f32[] %x.1085, f32[] %y.1086)
}

%AddComputation.1130 (x.1131: f32[], y.1132: f32[]) -> f32[] {
  %x.1131 = f32[] parameter(0)
  %y.1132 = f32[] parameter(1)
  ROOT %add.1133 = f32[] add(f32[] %x.1131, f32[] %y.1132)
}

%AddComputation.1168 (x.1169: f32[], y.1170: f32[]) -> f32[] {
  %x.1169 = f32[] parameter(0)
  %y.1170 = f32[] parameter(1)
  ROOT %add.1171 = f32[] add(f32[] %x.1169, f32[] %y.1170)
}

ENTRY %SyncTensorsGraph.1255 (p0.1: bf16[128], p1.4: f32[], p2.6: bf16[4096,1024], p3.8: bf16[1024], p4.42: s32[16], p5.44: bf16[151936,1024], p6.48: bf16[1024,2048], p7.64: bf16[1024,3072], p8.66: bf16[6144,1024], p9.68: bf16[1024], p10.120: bf16[1024,2048], p11.136: bf16[1024,3072], p12.138: bf16[6144,1024], p13.140: bf16[1024], p14.192: bf16[1024,2048], p15.208: bf16[1024,3072], p16.210: bf16[6144,1024], p17.212: bf16[1024], p18.264: bf16[1024,2048], p19.280: bf16[1024,3072], p20.282: bf16[6144,1024], p21.284: bf16[1024], p22.336: bf16[1024,2048], p23.352: bf16[1024,3072], p24.354: bf16[6144,1024], p25.356: bf16[1024], p26.408: bf16[1024,2048], p27.424: bf16[1024,3072], p28.426: bf16[6144,1024], p29.428: bf16[1024], p30.480: bf16[1024,2048], p31.496: bf16[1024,3072], p32.498: bf16[6144,1024], p33.500: bf16[1024], p34.552: bf16[1024,2048], p35.568: bf16[1024,3072], p36.570: bf16[6144,1024], p37.572: bf16[1024], p38.624: bf16[1024,2048], p39.640: bf16[1024,3072], p40.642: bf16[6144,1024], p41.644: bf16[1024], p42.696: bf16[1024,2048], p43.712: bf16[1024,3072], p44.714: bf16[6144,1024], p45.716: bf16[1024], p46.768: bf16[1024,2048], p47.784: bf16[1024,3072], p48.786: bf16[6144,1024], p49.788: bf16[1024], p50.840: bf16[1024,2048], p51.856: bf16[1024,3072], p52.858: bf16[6144,1024], p53.860: bf16[1024], p54.912: bf16[1024,2048], p55.928: bf16[1024,3072], p56.930: bf16[6144,1024], p57.932: bf16[1024], p58.984: bf16[1024,2048], p59.1000: bf16[1024,3072], p60.1002: bf16[6144,1024], p61.1004: bf16[1024], p62.1056: bf16[1024,2048], p63.1072: bf16[1024,3072], p64.1074: bf16[6144,1024], p65.1076: bf16[1024], p66.1200: s32[16], p67.1201: bf16[40960,128], p68.1245: bf16[2,4233,16,8,128]) -> (bf16[16,8,128], bf16[16,8,128], bf16[4233,16,8,128], bf16[4233,16,8,128]) {
  %constant.1058 = bf16[] constant(0), metadata={op_type="prim__Constant" op_name="prim__Constant" source_file="/usr/local/lib/python3.10/site-packages/torch/_ops.py" source_line=756}
  %reshape.1059 = bf16[1,1]{1,0} reshape(bf16[] %constant.1058), metadata={op_type="aten__expand" op_name="aten__expand" source_file="/usr/local/lib/python3.10/site-packages/torch/_ops.py" source_line=756}
  %broadcast.1060 = bf16[1,1]{1,0} broadcast(bf16[1,1]{1,0} %reshape.1059), dimensions={0,1}, metadata={op_type="aten__expand" op_name="aten__expand" source_file="/usr/local/lib/python3.10/site-packages/torch/_ops.py" source_line=756}
  %reshape.1061 = bf16[] reshape(bf16[1,1]{1,0} %broadcast.1060), metadata={op_type="aten__expand" op_name="aten__expand" source_file="/usr/local/lib/python3.10/site-packages/torch/_ops.py" source_line=756}
  %broadcast.1062 = bf16[16,2048]{1,0} broadcast(bf16[] %reshape.1061), dimensions={}, metadata={op_type="aten__expand" op_name="aten__expand" source_file="/usr/local/lib/python3.10/site-packages/torch/_ops.py" source_line=756}
  %reshape.1063 = bf16[16,16,128]{2,1,0} reshape(bf16[16,2048]{1,0} %broadcast.1062), metadata={op_type="aten__view" op_name="aten__view" source_file="/usr/local/lib/python3.10/site-packages/torch/_ops.py" source_line=756}
  %reshape.1064 = bf16[16,2048]{1,0} reshape(bf16[16,16,128]{2,1,0} %reshape.1063), metadata={op_type="aten__view" op_name="aten__view" source_file="/usr/local/lib/python3.10/site-packages/torch/_ops.py" source_line=756}
  %p62.1056 = bf16[1024,2048]{1,0} parameter(62), metadata={op_type="xla__device_data" op_name="xla__device_data" source_file="/usr/local/lib/python3.10/site-packages/torch_xla/_dynamo/dynamo_bridge.py" source_line=355}
  %transpose.1057 = bf16[2048,1024]{0,1} transpose(bf16[1024,2048]{1,0} %p62.1056), dimensions={1,0}, metadata={op_type="aten__permute" op_name="aten__permute" source_file="/usr/local/lib/python3.10/site-packages/torch/_ops.py" source_line=756}
  %dot.1065 = bf16[16,1024]{1,0} dot(bf16[16,2048]{1,0} %reshape.1064, bf16[2048,1024]{0,1} %transpose.1057), lhs_contracting_dims={1}, rhs_contracting_dims={0}, metadata={op_type="aten__mm" op_name="aten__mm" source_file="/usr/local/lib/python3.10/site-packages/torch/_ops.py" source_line=756}
  %convert.1066 = f32[16,1024]{1,0} convert(bf16[16,1024]{1,0} %dot.1065), metadata={op_type="xla__cast" op_name="xla__cast" source_file="/usr/local/lib/python3.10/site-packages/torch/_ops.py" source_line=756}
  %constant.986 = bf16[] constant(0), metadata={op_type="prim__Constant" op_name="prim__Constant" source_file="/usr/local/lib/python3.10/site-packages/torch/_ops.py" source_line=756}
  %reshape.987 = bf16[1,1]{1,0} reshape(bf16[] %constant.986), metadata={op_type="aten__expand" op_name="aten__expand" source_file="/usr/local/lib/python3.10/site-packages/torch/_ops.py" source_line=756}
  %broadcast.988 = bf16[1,1]{1,0} broadcast(bf16[1,1]{1,0} %reshape.987), dimensions={0,1}, metadata={op_type="aten__expand" op_name="aten__expand" source_file="/usr/local/lib/python3.10/site-packages/torch/_ops.py" source_line=756}
  %reshape.989 = bf16[] reshape(bf16[1,1]{1,0} %broadcast.988), metadata={op_type="aten__expand" op_name="aten__expand" source_file="/usr/local/lib/python3.10/site-packages/torch/_ops.py" source_line=756}
  %broadcast.990 = bf16[16,2048]{1,0} broadcast(bf16[] %reshape.989), dimensions={}, metadata={op_type="aten__expand" op_name="aten__expand" source_file="/usr/local/lib/python3.10/site-packages/torch/_ops.py" source_line=756}
  %reshape.991 = bf16[16,16,128]{2,1,0} reshape(bf16[16,2048]{1,0} %broadcast.990), metadata={op_type="aten__view" op_name="aten__view" source_file="/usr/local/lib/python3.10/site-packages/torch/_ops.py" source_line=756}
  %reshape.992 = bf16[16,2048]{1,0} reshape(bf16[16,16,128]{2,1,0} %reshape.991), metadata={op_type="aten__view" op_name="aten__view" source_file="/usr/local/lib/python3.10/site-packages/torch/_ops.py" source_line=756}
  %p58.984 = bf16[1024,2048]{1,0} parameter(58), metadata={op_type="xla__device_data" op_name="xla__device_data" source_file="/usr/local/lib/python3.10/site-packages/torch_xla/_dynamo/dynamo_bridge.py" source_line=355}
  %transpose.985 = bf16[2048,1024]{0,1} transpose(bf16[1024,2048]{1,0} %p58.984), dimensions={1,0}, metadata={op_type="aten__permute" op_name="aten__permute" source_file="/usr/local/lib/python3.10/site-packages/torch/_ops.py" source_line=756}
  %dot.993 = bf16[16,1024]{1,0} dot(bf16[16,2048]{1,0} %reshape.992, bf16[2048,1024]{0,1} %transpose.985), lhs_contracting_dims={1}, rhs_contracting_dims={0}, metadata={op_type="aten__mm" op_name="aten__mm" source_file="/usr/local/lib/python3.10/site-packages/torch/_ops.py" source_line=756}
  %convert.994 = f32[16,1024]{1,0} convert(bf16[16,1024]{1,0} %dot.993), metadata={op_type="xla__cast" op_name="xla__cast" source_file="/usr/local/lib/python3.10/site-packages/torch/_ops.py" source_line=756}
  %constant.914 = bf16[] constant(0), metadata={op_type="prim__Constant" op_name="prim__Constant" source_file="/usr/local/lib/python3.10/site-packages/torch/_ops.py" source_line=756}
  %reshape.915 = bf16[1,1]{1,0} reshape(bf16[] %constant.914), metadata={op_type="aten__expand" op_name="aten__expand" source_file="/usr/local/lib/python3.10/site-packages/torch/_ops.py" source_line=756}
  %broadcast.916 = bf16[1,1]{1,0} broadcast(bf16[1,1]{1,0} %reshape.915), dimensions={0,1}, metadata={op_type="aten__expand" op_name="aten__expand" source_file="/usr/local/lib/python3.10/site-packages/torch/_ops.py" source_line=756}
  %reshape.917 = bf16[] reshape(bf16[1,1]{1,0} %broadcast.916), metadata={op_type="aten__expand" op_name="aten__expand" source_file="/usr/local/lib/python3.10/site-packages/torch/_ops.py" source_line=756}
  %broadcast.918 = bf16[16,2048]{1,0} broadcast(bf16[] %reshape.917), dimensions={}, metadata={op_type="aten__expand" op_name="aten__expand" source_file="/usr/local/lib/python3.10/site-packages/torch/_ops.py" source_line=756}
  %reshape.919 = bf16[16,16,128]{2,1,0} reshape(bf16[16,2048]{1,0} %broadcast.918), metadata={op_type="aten__view" op_name="aten__view" source_file="/usr/local/lib/python3.10/site-packages/torch/_ops.py" source_line=756}
  %reshape.920 = bf16[16,2048]{1,0} reshape(bf16[16,16,128]{2,1,0} %reshape.919), metadata={op_type="aten__view" op_name="aten__view" source_file="/usr/local/lib/python3.10/site-packages/torch/_ops.py" source_line=756}
  %p54.912 = bf16[1024,2048]{1,0} parameter(54), metadata={op_type="xla__device_data" op_name="xla__device_data" source_file="/usr/local/lib/python3.10/site-packages/torch_xla/_dynamo/dynamo_bridge.py" source_line=355}
  %transpose.913 = bf16[2048,1024]{0,1} transpose(bf16[1024,2048]{1,0} %p54.912), dimensions={1,0}, metadata={op_type="aten__permute" op_name="aten__permute" source_file="/usr/local/lib/python3.10/site-packages/torch/_ops.py" source_line=756}
  %dot.921 = bf16[16,1024]{1,0} dot(bf16[16,2048]{1,0} %reshape.920, bf16[2048,1024]{0,1} %transpose.913), lhs_contracting_dims={1}, rhs_contracting_dims={0}, metadata={op_type="aten__mm" op_name="aten__mm" source_file="/usr/local/lib/python3.10/site-packages/torch/_ops.py" source_line=756}
  %convert.922 = f32[16,1024]{1,0} convert(bf16[16,1024]{1,0} %dot.921), metadata={op_type="xla__cast" op_name="xla__cast" source_file="/usr/local/lib/python3.10/site-packages/torch/_ops.py" source_line=756}
  %constant.842 = bf16[] constant(0), metadata={op_type="prim__Constant" op_name="prim__Constant" source_file="/usr/local/lib/python3.10/site-packages/torch/_ops.py" source_line=756}
  %reshape.843 = bf16[1,1]{1,0} reshape(bf16[] %constant.842), metadata={op_type="aten__expand" op_name="aten__expand" source_file="/usr/local/lib/python3.10/site-packages/torch/_ops.py" source_line=756}
  %broadcast.844 = bf16[1,1]{1,0} broadcast(bf16[1,1]{1,0} %reshape.843), dimensions={0,1}, metadata={op_type="aten__expand" op_name="aten__expand" source_file="/usr/local/lib/python3.10/site-packages/torch/_ops.py" source_line=756}
  %reshape.845 = bf16[] reshape(bf16[1,1]{1,0} %broadcast.844), metadata={op_type="aten__expand" op_name="aten__expand" source_file="/usr/local/lib/python3.10/site-packages/torch/_ops.py" source_line=756}
  %broadcast.846 = bf16[16,2048]{1,0} broadcast(bf16[] %reshape.845), dimensions={}, metadata={op_type="aten__expand" op_name="aten__expand" source_file="/usr/local/lib/python3.10/site-packages/torch/_ops.py" source_line=756}
  %reshape.847 = bf16[16,16,128]{2,1,0} reshape(bf16[16,2048]{1,0} %broadcast.846), metadata={op_type="aten__view" op_name="aten__view" source_file="/usr/local/lib/python3.10/site-packages/torch/_ops.py" source_line=756}
  %reshape.848 = bf16[16,2048]{1,0} reshape(bf16[16,16,128]{2,1,0} %reshape.847), metadata={op_type="aten__view" op_name="aten__view" source_file="/usr/local/lib/python3.10/site-packages/torch/_ops.py" source_line=756}
  %p50.840 = bf16[1024,2048]{1,0} parameter(50), metadata={op_type="xla__device_data" op_name="xla__device_data" source_file="/usr/local/lib/python3.10/site-packages/torch_xla/_dynamo/dynamo_bridge.py" source_line=355}
  %transpose.841 = bf16[2048,1024]{0,1} transpose(bf16[1024,2048]{1,0} %p50.840), dimensions={1,0}, metadata={op_type="aten__permute" op_name="aten__permute" source_file="/usr/local/lib/python3.10/site-packages/torch/_ops.py" source_line=756}
  %dot.849 = bf16[16,1024]{1,0} dot(bf16[16,2048]{1,0} %reshape.848, bf16[2048,1024]{0,1} %transpose.841), lhs_contracting_dims={1}, rhs_contracting_dims={0}, metadata={op_type="aten__mm" op_name="aten__mm" source_file="/usr/local/lib/python3.10/site-packages/torch/_ops.py" source_line=756}
  %convert.850 = f32[16,1024]{1,0} convert(bf16[16,1024]{1,0} %dot.849), metadata={op_type="xla__cast" op_name="xla__cast" source_file="/usr/local/lib/python3.10/site-packages/torch/_ops.py" source_line=756}
  %constant.770 = bf16[] constant(0), metadata={op_type="prim__Constant" op_name="prim__Constant" source_file="/usr/local/lib/python3.10/site-packages/torch/_ops.py" source_line=756}
  %reshape.771 = bf16[1,1]{1,0} reshape(bf16[] %constant.770), metadata={op_type="aten__expand" op_name="aten__expand" source_file="/usr/local/lib/python3.10/site-packages/torch/_ops.py" source_line=756}
  %broadcast.772 = bf16[1,1]{1,0} broadcast(bf16[1,1]{1,0} %reshape.771), dimensions={0,1}, metadata={op_type="aten__expand" op_name="aten__expand" source_file="/usr/local/lib/python3.10/site-packages/torch/_ops.py" source_line=756}
  %reshape.773 = bf16[] reshape(bf16[1,1]{1,0} %broadcast.772), metadata={op_type="aten__expand" op_name="aten__expand" source_file="/usr/local/lib/python3.10/site-packages/torch/_ops.py" source_line=756}
  %broadcast.774 = bf16[16,2048]{1,0} broadcast(bf16[] %reshape.773), dimensions={}, metadata={op_type="aten__expand" op_name="aten__expand" source_file="/usr/local/lib/python3.10/site-packages/torch/_ops.py" source_line=756}
  %reshape.775 = bf16[16,16,128]{2,1,0} reshape(bf16[16,2048]{1,0} %broadcast.774), metadata={op_type="aten__view" op_name="aten__view" source_file="/usr/local/lib/python3.10/site-packages/torch/_ops.py" source_line=756}
  %reshape.776 = bf16[16,2048]{1,0} reshape(bf16[16,16,128]{2,1,0} %reshape.775), metadata={op_type="aten__view" op_name="aten__view" source_file="/usr/local/lib/python3.10/site-packages/torch/_ops.py" source_line=756}
  %p46.768 = bf16[1024,2048]{1,0} parameter(46), metadata={op_type="xla__device_data" op_name="xla__device_data" source_file="/usr/local/lib/python3.10/site-packages/torch_xla/_dynamo/dynamo_bridge.py" source_line=355}
  %transpose.769 = bf16[2048,1024]{0,1} transpose(bf16[1024,2048]{1,0} %p46.768), dimensions={1,0}, metadata={op_type="aten__permute" op_name="aten__permute" source_file="/usr/local/lib/python3.10/site-packages/torch/_ops.py" source_line=756}
  %dot.777 = bf16[16,1024]{1,0} dot(bf16[16,2048]{1,0} %reshape.776, bf16[2048,1024]{0,1} %transpose.769), lhs_contracting_dims={1}, rhs_contracting_dims={0}, metadata={op_type="aten__mm" op_name="aten__mm" source_file="/usr/local/lib/python3.10/site-packages/torch/_ops.py" source_line=756}
  %convert.778 = f32[16,1024]{1,0} convert(bf16[16,1024]{1,0} %dot.777), metadata={op_type="xla__cast" op_name="xla__cast" source_file="/usr/local/lib/python3.10/site-packages/torch/_ops.py" source_line=756}
  %constant.698 = bf16[] constant(0), metadata={op_type="prim__Constant" op_name="prim__Constant" source_file="/usr/local/lib/python3.10/site-packages/torch/_ops.py" source_line=756}
  %reshape.699 = bf16[1,1]{1,0} reshape(bf16[] %constant.698), metadata={op_type="aten__expand" op_name="aten__expand" source_file="/usr/local/lib/python3.10/site-packages/torch/_ops.py" source_line=756}
  %broadcast.700 = bf16[1,1]{1,0} broadcast(bf16[1,1]{1,0} %reshape.699), dimensions={0,1}, metadata={op_type="aten__expand" op_name="aten__expand" source_file="/usr/local/lib/python3.10/site-packages/torch/_ops.py" source_line=756}
  %reshape.701 = bf16[] reshape(bf16[1,1]{1,0} %broadcast.700), metadata={op_type="aten__expand" op_name="aten__expand" source_file="/usr/local/lib/python3.10/site-packages/torch/_ops.py" source_line=756}
  %broadcast.702 = bf16[16,2048]{1,0} broadcast(bf16[] %reshape.701), dimensions={}, metadata={op_type="aten__expand" op_name="aten__expand" source_file="/usr/local/lib/python3.10/site-packages/torch/_ops.py" source_line=756}
  %reshape.703 = bf16[16,16,128]{2,1,0} reshape(bf16[16,2048]{1,0} %broadcast.702), metadata={op_type="aten__view" op_name="aten__view" source_file="/usr/local/lib/python3.10/site-packages/torch/_ops.py" source_line=756}
  %reshape.704 = bf16[16,2048]{1,0} reshape(bf16[16,16,128]{2,1,0} %reshape.703), metadata={op_type="aten__view" op_name="aten__view" source_file="/usr/local/lib/python3.10/site-packages/torch/_ops.py" source_line=756}
  %p42.696 = bf16[1024,2048]{1,0} parameter(42), metadata={op_type="xla__device_data" op_name="xla__device_data" source_file="/usr/local/lib/python3.10/site-packages/torch_xla/_dynamo/dynamo_bridge.py" source_line=355}
  %transpose.697 = bf16[2048,1024]{0,1} transpose(bf16[1024,2048]{1,0} %p42.696), dimensions={1,0}, metadata={op_type="aten__permute" op_name="aten__permute" source_file="/usr/local/lib/python3.10/site-packages/torch/_ops.py" source_line=756}
  %dot.705 = bf16[16,1024]{1,0} dot(bf16[16,2048]{1,0} %reshape.704, bf16[2048,1024]{0,1} %transpose.697), lhs_contracting_dims={1}, rhs_contracting_dims={0}, metadata={op_type="aten__mm" op_name="aten__mm" source_file="/usr/local/lib/python3.10/site-packages/torch/_ops.py" source_line=756}
  %convert.706 = f32[16,1024]{1,0} convert(bf16[16,1024]{1,0} %dot.705), metadata={op_type="xla__cast" op_name="xla__cast" source_file="/usr/local/lib/python3.10/site-packages/torch/_ops.py" source_line=756}
  %constant.626 = bf16[] constant(0), metadata={op_type="prim__Constant" op_name="prim__Constant" source_file="/usr/local/lib/python3.10/site-packages/torch/_ops.py" source_line=756}
  %reshape.627 = bf16[1,1]{1,0} reshape(bf16[] %constant.626), metadata={op_type="aten__expand" op_name="aten__expand" source_file="/usr/local/lib/python3.10/site-packages/torch/_ops.py" source_line=756}
  %broadcast.628 = bf16[1,1]{1,0} broadcast(bf16[1,1]{1,0} %reshape.627), dimensions={0,1}, metadata={op_type="aten__expand" op_name="aten__expand" source_file="/usr/local/lib/python3.10/site-packages/torch/_ops.py" source_line=756}
  %reshape.629 = bf16[] reshape(bf16[1,1]{1,0} %broadcast.628), metadata={op_type="aten__expand" op_name="aten__expand" source_file="/usr/local/lib/python3.10/site-packages/torch/_ops.py" source_line=756}
  %broadcast.630 = bf16[16,2048]{1,0} broadcast(bf16[] %reshape.629), dimensions={}, metadata={op_type="aten__expand" op_name="aten__expand" source_file="/usr/local/lib/python3.10/site-packages/torch/_ops.py" source_line=756}
  %reshape.631 = bf16[16,16,128]{2,1,0} reshape(bf16[16,2048]{1,0} %broadcast.630), metadata={op_type="aten__view" op_name="aten__view" source_file="/usr/local/lib/python3.10/site-packages/torch/_ops.py" source_line=756}
  %reshape.632 = bf16[16,2048]{1,0} reshape(bf16[16,16,128]{2,1,0} %reshape.631), metadata={op_type="aten__view" op_name="aten__view" source_file="/usr/local/lib/python3.10/site-packages/torch/_ops.py" source_line=756}
  %p38.624 = bf16[1024,2048]{1,0} parameter(38), metadata={op_type="xla__device_data" op_name="xla__device_data" source_file="/usr/local/lib/python3.10/site-packages/torch_xla/_dynamo/dynamo_bridge.py" source_line=355}
  %transpose.625 = bf16[2048,1024]{0,1} transpose(bf16[1024,2048]{1,0} %p38.624), dimensions={1,0}, metadata={op_type="aten__permute" op_name="aten__permute" source_file="/usr/local/lib/python3.10/site-packages/torch/_ops.py" source_line=756}
  %dot.633 = bf16[16,1024]{1,0} dot(bf16[16,2048]{1,0} %reshape.632, bf16[2048,1024]{0,1} %transpose.625), lhs_contracting_dims={1}, rhs_contracting_dims={0}, metadata={op_type="aten__mm" op_name="aten__mm" source_file="/usr/local/lib/python3.10/site-packages/torch/_ops.py" source_line=756}
  %convert.634 = f32[16,1024]{1,0} convert(bf16[16,1024]{1,0} %dot.633), metadata={op_type="xla__cast" op_name="xla__cast" source_file="/usr/local/lib/python3.10/site-packages/torch/_ops.py" source_line=756}
  %constant.554 = bf16[] constant(0), metadata={op_type="prim__Constant" op_name="prim__Constant" source_file="/usr/local/lib/python3.10/site-packages/torch/_ops.py" source_line=756}
  %reshape.555 = bf16[1,1]{1,0} reshape(bf16[] %constant.554), metadata={op_type="aten__expand" op_name="aten__expand" source_file="/usr/local/lib/python3.10/site-packages/torch/_ops.py" source_line=756}
  %broadcast.556 = bf16[1,1]{1,0} broadcast(bf16[1,1]{1,0} %reshape.555), dimensions={0,1}, metadata={op_type="aten__expand" op_name="aten__expand" source_file="/usr/local/lib/python3.10/site-packages/torch/_ops.py" source_line=756}
  %reshape.557 = bf16[] reshape(bf16[1,1]{1,0} %broadcast.556), metadata={op_type="aten__expand" op_name="aten__expand" source_file="/usr/local/lib/python3.10/site-packages/torch/_ops.py" source_line=756}
  %broadcast.558 = bf16[16,2048]{1,0} broadcast(bf16[] %reshape.557), dimensions={}, metadata={op_type="aten__expand" op_name="aten__expand" source_file="/usr/local/lib/python3.10/site-packages/torch/_ops.py" source_line=756}
  %reshape.559 = bf16[16,16,128]{2,1,0} reshape(bf16[16,2048]{1,0} %broadcast.558), metadata={op_type="aten__view" op_name="aten__view" source_file="/usr/local/lib/python3.10/site-packages/torch/_ops.py" source_line=756}
  %reshape.560 = bf16[16,2048]{1,0} reshape(bf16[16,16,128]{2,1,0} %reshape.559), metadata={op_type="aten__view" op_name="aten__view" source_file="/usr/local/lib/python3.10/site-packages/torch/_ops.py" source_line=756}
  %p34.552 = bf16[1024,2048]{1,0} parameter(34), metadata={op_type="xla__device_data" op_name="xla__device_data" source_file="/usr/local/lib/python3.10/site-packages/torch_xla/_dynamo/dynamo_bridge.py" source_line=355}
  %transpose.553 = bf16[2048,1024]{0,1} transpose(bf16[1024,2048]{1,0} %p34.552), dimensions={1,0}, metadata={op_type="aten__permute" op_name="aten__permute" source_file="/usr/local/lib/python3.10/site-packages/torch/_ops.py" source_line=756}
  %dot.561 = bf16[16,1024]{1,0} dot(bf16[16,2048]{1,0} %reshape.560, bf16[2048,1024]{0,1} %transpose.553), lhs_contracting_dims={1}, rhs_contracting_dims={0}, metadata={op_type="aten__mm" op_name="aten__mm" source_file="/usr/local/lib/python3.10/site-packages/torch/_ops.py" source_line=756}
  %convert.562 = f32[16,1024]{1,0} convert(bf16[16,1024]{1,0} %dot.561), metadata={op_type="xla__cast" op_name="xla__cast" source_file="/usr/local/lib/python3.10/site-packages/torch/_ops.py" source_line=756}
  %constant.482 = bf16[] constant(0), metadata={op_type="prim__Constant" op_name="prim__Constant" source_file="/usr/local/lib/python3.10/site-packages/torch/_ops.py" source_line=756}
  %reshape.483 = bf16[1,1]{1,0} reshape(bf16[] %constant.482), metadata={op_type="aten__expand" op_name="aten__expand" source_file="/usr/local/lib/python3.10/site-packages/torch/_ops.py" source_line=756}
  %broadcast.484 = bf16[1,1]{1,0} broadcast(bf16[1,1]{1,0} %reshape.483), dimensions={0,1}, metadata={op_type="aten__expand" op_name="aten__expand" source_file="/usr/local/lib/python3.10/site-packages/torch/_ops.py" source_line=756}
  %reshape.485 = bf16[] reshape(bf16[1,1]{1,0} %broadcast.484), metadata={op_type="aten__expand" op_name="aten__expand" source_file="/usr/local/lib/python3.10/site-packages/torch/_ops.py" source_line=756}
  %broadcast.486 = bf16[16,2048]{1,0} broadcast(bf16[] %reshape.485), dimensions={}, metadata={op_type="aten__expand" op_name="aten__expand" source_file="/usr/local/lib/python3.10/site-packages/torch/_ops.py" source_line=756}
  %reshape.487 = bf16[16,16,128]{2,1,0} reshape(bf16[16,2048]{1,0} %broadcast.486), metadata={op_type="aten__view" op_name="aten__view" source_file="/usr/local/lib/python3.10/site-packages/torch/_ops.py" source_line=756}
  %reshape.488 = bf16[16,2048]{1,0} reshape(bf16[16,16,128]{2,1,0} %reshape.487), metadata={op_type="aten__view" op_name="aten__view" source_file="/usr/local/lib/python3.10/site-packages/torch/_ops.py" source_line=756}
  %p30.480 = bf16[1024,2048]{1,0} parameter(30), metadata={op_type="xla__device_data" op_name="xla__device_data" source_file="/usr/local/lib/python3.10/site-packages/torch_xla/_dynamo/dynamo_bridge.py" source_line=355}
  %transpose.481 = bf16[2048,1024]{0,1} transpose(bf16[1024,2048]{1,0} %p30.480), dimensions={1,0}, metadata={op_type="aten__permute" op_name="aten__permute" source_file="/usr/local/lib/python3.10/site-packages/torch/_ops.py" source_line=756}
  %dot.489 = bf16[16,1024]{1,0} dot(bf16[16,2048]{1,0} %reshape.488, bf16[2048,1024]{0,1} %transpose.481), lhs_contracting_dims={1}, rhs_contracting_dims={0}, metadata={op_type="aten__mm" op_name="aten__mm" source_file="/usr/local/lib/python3.10/site-packages/torch/_ops.py" source_line=756}
  %convert.490 = f32[16,1024]{1,0} convert(bf16[16,1024]{1,0} %dot.489), metadata={op_type="xla__cast" op_name="xla__cast" source_file="/usr/local/lib/python3.10/site-packages/torch/_ops.py" source_line=756}
  %constant.410 = bf16[] constant(0), metadata={op_type="prim__Constant" op_name="prim__Constant" source_file="/usr/local/lib/python3.10/site-packages/torch/_ops.py" source_line=756}
  %reshape.411 = bf16[1,1]{1,0} reshape(bf16[] %constant.410), metadata={op_type="aten__expand" op_name="aten__expand" source_file="/usr/local/lib/python3.10/site-packages/torch/_ops.py" source_line=756}
  %broadcast.412 = bf16[1,1]{1,0} broadcast(bf16[1,1]{1,0} %reshape.411), dimensions={0,1}, metadata={op_type="aten__expand" op_name="aten__expand" source_file="/usr/local/lib/python3.10/site-packages/torch/_ops.py" source_line=756}
  %reshape.413 = bf16[] reshape(bf16[1,1]{1,0} %broadcast.412), metadata={op_type="aten__expand" op_name="aten__expand" source_file="/usr/local/lib/python3.10/site-packages/torch/_ops.py" source_line=756}
  %broadcast.414 = bf16[16,2048]{1,0} broadcast(bf16[] %reshape.413), dimensions={}, metadata={op_type="aten__expand" op_name="aten__expand" source_file="/usr/local/lib/python3.10/site-packages/torch/_ops.py" source_line=756}
  %reshape.415 = bf16[16,16,128]{2,1,0} reshape(bf16[16,2048]{1,0} %broadcast.414), metadata={op_type="aten__view" op_name="aten__view" source_file="/usr/local/lib/python3.10/site-packages/torch/_ops.py" source_line=756}
  %reshape.416 = bf16[16,2048]{1,0} reshape(bf16[16,16,128]{2,1,0} %reshape.415), metadata={op_type="aten__view" op_name="aten__view" source_file="/usr/local/lib/python3.10/site-packages/torch/_ops.py" source_line=756}
  %p26.408 = bf16[1024,2048]{1,0} parameter(26), metadata={op_type="xla__device_data" op_name="xla__device_data" source_file="/usr/local/lib/python3.10/site-packages/torch_xla/_dynamo/dynamo_bridge.py" source_line=355}
  %transpose.409 = bf16[2048,1024]{0,1} transpose(bf16[1024,2048]{1,0} %p26.408), dimensions={1,0}, metadata={op_type="aten__permute" op_name="aten__permute" source_file="/usr/local/lib/python3.10/site-packages/torch/_ops.py" source_line=756}
  %dot.417 = bf16[16,1024]{1,0} dot(bf16[16,2048]{1,0} %reshape.416, bf16[2048,1024]{0,1} %transpose.409), lhs_contracting_dims={1}, rhs_contracting_dims={0}, metadata={op_type="aten__mm" op_name="aten__mm" source_file="/usr/local/lib/python3.10/site-packages/torch/_ops.py" source_line=756}
  %convert.418 = f32[16,1024]{1,0} convert(bf16[16,1024]{1,0} %dot.417), metadata={op_type="xla__cast" op_name="xla__cast" source_file="/usr/local/lib/python3.10/site-packages/torch/_ops.py" source_line=756}
  %constant.338 = bf16[] constant(0), metadata={op_type="prim__Constant" op_name="prim__Constant" source_file="/usr/local/lib/python3.10/site-packages/torch/_ops.py" source_line=756}
  %reshape.339 = bf16[1,1]{1,0} reshape(bf16[] %constant.338), metadata={op_type="aten__expand" op_name="aten__expand" source_file="/usr/local/lib/python3.10/site-packages/torch/_ops.py" source_line=756}
  %broadcast.340 = bf16[1,1]{1,0} broadcast(bf16[1,1]{1,0} %reshape.339), dimensions={0,1}, metadata={op_type="aten__expand" op_name="aten__expand" source_file="/usr/local/lib/python3.10/site-packages/torch/_ops.py" source_line=756}
  %reshape.341 = bf16[] reshape(bf16[1,1]{1,0} %broadcast.340), metadata={op_type="aten__expand" op_name="aten__expand" source_file="/usr/local/lib/python3.10/site-packages/torch/_ops.py" source_line=756}
  %broadcast.342 = bf16[16,2048]{1,0} broadcast(bf16[] %reshape.341), dimensions={}, metadata={op_type="aten__expand" op_name="aten__expand" source_file="/usr/local/lib/python3.10/site-packages/torch/_ops.py" source_line=756}
  %reshape.343 = bf16[16,16,128]{2,1,0} reshape(bf16[16,2048]{1,0} %broadcast.342), metadata={op_type="aten__view" op_name="aten__view" source_file="/usr/local/lib/python3.10/site-packages/torch/_ops.py" source_line=756}
  %reshape.344 = bf16[16,2048]{1,0} reshape(bf16[16,16,128]{2,1,0} %reshape.343), metadata={op_type="aten__view" op_name="aten__view" source_file="/usr/local/lib/python3.10/site-packages/torch/_ops.py" source_line=756}
  %p22.336 = bf16[1024,2048]{1,0} parameter(22), metadata={op_type="xla__device_data" op_name="xla__device_data" source_file="/usr/local/lib/python3.10/site-packages/torch_xla/_dynamo/dynamo_bridge.py" source_line=355}
  %transpose.337 = bf16[2048,1024]{0,1} transpose(bf16[1024,2048]{1,0} %p22.336), dimensions={1,0}, metadata={op_type="aten__permute" op_name="aten__permute" source_file="/usr/local/lib/python3.10/site-packages/torch/_ops.py" source_line=756}
  %dot.345 = bf16[16,1024]{1,0} dot(bf16[16,2048]{1,0} %reshape.344, bf16[2048,1024]{0,1} %transpose.337), lhs_contracting_dims={1}, rhs_contracting_dims={0}, metadata={op_type="aten__mm" op_name="aten__mm" source_file="/usr/local/lib/python3.10/site-packages/torch/_ops.py" source_line=756}
  %convert.346 = f32[16,1024]{1,0} convert(bf16[16,1024]{1,0} %dot.345), metadata={op_type="xla__cast" op_name="xla__cast" source_file="/usr/local/lib/python3.10/site-packages/torch/_ops.py" source_line=756}
  %constant.266 = bf16[] constant(0), metadata={op_type="prim__Constant" op_name="prim__Constant" source_file="/usr/local/lib/python3.10/site-packages/torch/_ops.py" source_line=756}
  %reshape.267 = bf16[1,1]{1,0} reshape(bf16[] %constant.266), metadata={op_type="aten__expand" op_name="aten__expand" source_file="/usr/local/lib/python3.10/site-packages/torch/_ops.py" source_line=756}
  %broadcast.268 = bf16[1,1]{1,0} broadcast(bf16[1,1]{1,0} %reshape.267), dimensions={0,1}, metadata={op_type="aten__expand" op_name="aten__expand" source_file="/usr/local/lib/python3.10/site-packages/torch/_ops.py" source_line=756}
  %reshape.269 = bf16[] reshape(bf16[1,1]{1,0} %broadcast.268), metadata={op_type="aten__expand" op_name="aten__expand" source_file="/usr/local/lib/python3.10/site-packages/torch/_ops.py" source_line=756}
  %broadcast.270 = bf16[16,2048]{1,0} broadcast(bf16[] %reshape.269), dimensions={}, metadata={op_type="aten__expand" op_name="aten__expand" source_file="/usr/local/lib/python3.10/site-packages/torch/_ops.py" source_line=756}
  %reshape.271 = bf16[16,16,128]{2,1,0} reshape(bf16[16,2048]{1,0} %broadcast.270), metadata={op_type="aten__view" op_name="aten__view" source_file="/usr/local/lib/python3.10/site-packages/torch/_ops.py" source_line=756}
  %reshape.272 = bf16[16,2048]{1,0} reshape(bf16[16,16,128]{2,1,0} %reshape.271), metadata={op_type="aten__view" op_name="aten__view" source_file="/usr/local/lib/python3.10/site-packages/torch/_ops.py" source_line=756}
  %p18.264 = bf16[1024,2048]{1,0} parameter(18), metadata={op_type="xla__device_data" op_name="xla__device_data" source_file="/usr/local/lib/python3.10/site-packages/torch_xla/_dynamo/dynamo_bridge.py" source_line=355}
  %transpose.265 = bf16[2048,1024]{0,1} transpose(bf16[1024,2048]{1,0} %p18.264), dimensions={1,0}, metadata={op_type="aten__permute" op_name="aten__permute" source_file="/usr/local/lib/python3.10/site-packages/torch/_ops.py" source_line=756}
  %dot.273 = bf16[16,1024]{1,0} dot(bf16[16,2048]{1,0} %reshape.272, bf16[2048,1024]{0,1} %transpose.265), lhs_contracting_dims={1}, rhs_contracting_dims={0}, metadata={op_type="aten__mm" op_name="aten__mm" source_file="/usr/local/lib/python3.10/site-packages/torch/_ops.py" source_line=756}
  %convert.274 = f32[16,1024]{1,0} convert(bf16[16,1024]{1,0} %dot.273), metadata={op_type="xla__cast" op_name="xla__cast" source_file="/usr/local/lib/python3.10/site-packages/torch/_ops.py" source_line=756}
  %constant.194 = bf16[] constant(0), metadata={op_type="prim__Constant" op_name="prim__Constant" source_file="/usr/local/lib/python3.10/site-packages/torch/_ops.py" source_line=756}
  %reshape.195 = bf16[1,1]{1,0} reshape(bf16[] %constant.194), metadata={op_type="aten__expand" op_name="aten__expand" source_file="/usr/local/lib/python3.10/site-packages/torch/_ops.py" source_line=756}
  %broadcast.196 = bf16[1,1]{1,0} broadcast(bf16[1,1]{1,0} %reshape.195), dimensions={0,1}, metadata={op_type="aten__expand" op_name="aten__expand" source_file="/usr/local/lib/python3.10/site-packages/torch/_ops.py" source_line=756}
  %reshape.197 = bf16[] reshape(bf16[1,1]{1,0} %broadcast.196), metadata={op_type="aten__expand" op_name="aten__expand" source_file="/usr/local/lib/python3.10/site-packages/torch/_ops.py" source_line=756}
  %broadcast.198 = bf16[16,2048]{1,0} broadcast(bf16[] %reshape.197), dimensions={}, metadata={op_type="aten__expand" op_name="aten__expand" source_file="/usr/local/lib/python3.10/site-packages/torch/_ops.py" source_line=756}
  %reshape.199 = bf16[16,16,128]{2,1,0} reshape(bf16[16,2048]{1,0} %broadcast.198), metadata={op_type="aten__view" op_name="aten__view" source_file="/usr/local/lib/python3.10/site-packages/torch/_ops.py" source_line=756}
  %reshape.200 = bf16[16,2048]{1,0} reshape(bf16[16,16,128]{2,1,0} %reshape.199), metadata={op_type="aten__view" op_name="aten__view" source_file="/usr/local/lib/python3.10/site-packages/torch/_ops.py" source_line=756}
  %p14.192 = bf16[1024,2048]{1,0} parameter(14), metadata={op_type="xla__device_data" op_name="xla__device_data" source_file="/usr/local/lib/python3.10/site-packages/torch_xla/_dynamo/dynamo_bridge.py" source_line=355}
  %transpose.193 = bf16[2048,1024]{0,1} transpose(bf16[1024,2048]{1,0} %p14.192), dimensions={1,0}, metadata={op_type="aten__permute" op_name="aten__permute" source_file="/usr/local/lib/python3.10/site-packages/torch/_ops.py" source_line=756}
  %dot.201 = bf16[16,1024]{1,0} dot(bf16[16,2048]{1,0} %reshape.200, bf16[2048,1024]{0,1} %transpose.193), lhs_contracting_dims={1}, rhs_contracting_dims={0}, metadata={op_type="aten__mm" op_name="aten__mm" source_file="/usr/local/lib/python3.10/site-packages/torch/_ops.py" source_line=756}
  %convert.202 = f32[16,1024]{1,0} convert(bf16[16,1024]{1,0} %dot.201), metadata={op_type="xla__cast" op_name="xla__cast" source_file="/usr/local/lib/python3.10/site-packages/torch/_ops.py" source_line=756}
  %constant.122 = bf16[] constant(0), metadata={op_type="prim__Constant" op_name="prim__Constant" source_file="/usr/local/lib/python3.10/site-packages/torch/_ops.py" source_line=756}
  %reshape.123 = bf16[1,1]{1,0} reshape(bf16[] %constant.122), metadata={op_type="aten__expand" op_name="aten__expand" source_file="/usr/local/lib/python3.10/site-packages/torch/_ops.py" source_line=756}
  %broadcast.124 = bf16[1,1]{1,0} broadcast(bf16[1,1]{1,0} %reshape.123), dimensions={0,1}, metadata={op_type="aten__expand" op_name="aten__expand" source_file="/usr/local/lib/python3.10/site-packages/torch/_ops.py" source_line=756}
  %reshape.125 = bf16[] reshape(bf16[1,1]{1,0} %broadcast.124), metadata={op_type="aten__expand" op_name="aten__expand" source_file="/usr/local/lib/python3.10/site-packages/torch/_ops.py" source_line=756}
  %broadcast.126 = bf16[16,2048]{1,0} broadcast(bf16[] %reshape.125), dimensions={}, metadata={op_type="aten__expand" op_name="aten__expand" source_file="/usr/local/lib/python3.10/site-packages/torch/_ops.py" source_line=756}
  %reshape.127 = bf16[16,16,128]{2,1,0} reshape(bf16[16,2048]{1,0} %broadcast.126), metadata={op_type="aten__view" op_name="aten__view" source_file="/usr/local/lib/python3.10/site-packages/torch/_ops.py" source_line=756}
  %reshape.128 = bf16[16,2048]{1,0} reshape(bf16[16,16,128]{2,1,0} %reshape.127), metadata={op_type="aten__view" op_name="aten__view" source_file="/usr/local/lib/python3.10/site-packages/torch/_ops.py" source_line=756}
  %p10.120 = bf16[1024,2048]{1,0} parameter(10), metadata={op_type="xla__device_data" op_name="xla__device_data" source_file="/usr/local/lib/python3.10/site-packages/torch_xla/_dynamo/dynamo_bridge.py" source_line=355}
  %transpose.121 = bf16[2048,1024]{0,1} transpose(bf16[1024,2048]{1,0} %p10.120), dimensions={1,0}, metadata={op_type="aten__permute" op_name="aten__permute" source_file="/usr/local/lib/python3.10/site-packages/torch/_ops.py" source_line=756}
  %dot.129 = bf16[16,1024]{1,0} dot(bf16[16,2048]{1,0} %reshape.128, bf16[2048,1024]{0,1} %transpose.121), lhs_contracting_dims={1}, rhs_contracting_dims={0}, metadata={op_type="aten__mm" op_name="aten__mm" source_file="/usr/local/lib/python3.10/site-packages/torch/_ops.py" source_line=756}
  %convert.130 = f32[16,1024]{1,0} convert(bf16[16,1024]{1,0} %dot.129), metadata={op_type="xla__cast" op_name="xla__cast" source_file="/usr/local/lib/python3.10/site-packages/torch/_ops.py" source_line=756}
  %constant.50 = bf16[] constant(0), metadata={op_type="prim__Constant" op_name="prim__Constant" source_file="/usr/local/lib/python3.10/site-packages/torch/_ops.py" source_line=756}
  %reshape.51 = bf16[1,1]{1,0} reshape(bf16[] %constant.50), metadata={op_type="aten__expand" op_name="aten__expand" source_file="/usr/local/lib/python3.10/site-packages/torch/_ops.py" source_line=756}
  %broadcast.52 = bf16[1,1]{1,0} broadcast(bf16[1,1]{1,0} %reshape.51), dimensions={0,1}, metadata={op_type="aten__expand" op_name="aten__expand" source_file="/usr/local/lib/python3.10/site-packages/torch/_ops.py" source_line=756}
  %reshape.53 = bf16[] reshape(bf16[1,1]{1,0} %broadcast.52), metadata={op_type="aten__expand" op_name="aten__expand" source_file="/usr/local/lib/python3.10/site-packages/torch/_ops.py" source_line=756}
  %broadcast.54 = bf16[16,2048]{1,0} broadcast(bf16[] %reshape.53), dimensions={}, metadata={op_type="aten__expand" op_name="aten__expand" source_file="/usr/local/lib/python3.10/site-packages/torch/_ops.py" source_line=756}
  %reshape.55 = bf16[16,16,128]{2,1,0} reshape(bf16[16,2048]{1,0} %broadcast.54), metadata={op_type="aten__view" op_name="aten__view" source_file="/usr/local/lib/python3.10/site-packages/torch/_ops.py" source_line=756}
  %reshape.56 = bf16[16,2048]{1,0} reshape(bf16[16,16,128]{2,1,0} %reshape.55), metadata={op_type="aten__view" op_name="aten__view" source_file="/usr/local/lib/python3.10/site-packages/torch/_ops.py" source_line=756}
  %p6.48 = bf16[1024,2048]{1,0} parameter(6), metadata={op_type="xla__device_data" op_name="xla__device_data" source_file="/usr/local/lib/python3.10/site-packages/torch_xla/_dynamo/dynamo_bridge.py" source_line=355}
  %transpose.49 = bf16[2048,1024]{0,1} transpose(bf16[1024,2048]{1,0} %p6.48), dimensions={1,0}, metadata={op_type="aten__permute" op_name="aten__permute" source_file="/usr/local/lib/python3.10/site-packages/torch/_ops.py" source_line=756}
  %dot.57 = bf16[16,1024]{1,0} dot(bf16[16,2048]{1,0} %reshape.56, bf16[2048,1024]{0,1} %transpose.49), lhs_contracting_dims={1}, rhs_contracting_dims={0}, metadata={op_type="aten__mm" op_name="aten__mm" source_file="/usr/local/lib/python3.10/site-packages/torch/_ops.py" source_line=756}
  %convert.58 = f32[16,1024]{1,0} convert(bf16[16,1024]{1,0} %dot.57), metadata={op_type="xla__cast" op_name="xla__cast" source_file="/usr/local/lib/python3.10/site-packages/torch/_ops.py" source_line=756}
  %p5.44 = bf16[151936,1024]{1,0} parameter(5), metadata={op_type="xla__device_data" op_name="xla__device_data" source_file="/usr/local/lib/python3.10/site-packages/torch_xla/_dynamo/dynamo_bridge.py" source_line=355}
  %p4.42 = s32[16]{0} parameter(4), metadata={op_type="xla__device_data" op_name="xla__device_data" source_file="/usr/local/lib/python3.10/site-packages/torch_xla/_dynamo/dynamo_bridge.py" source_line=355}
  %convert.43 = s64[16]{0} convert(s32[16]{0} %p4.42), metadata={op_type="xla__cast" op_name="xla__cast" source_file="/usr/local/lib/python3.10/site-packages/torch/_ops.py" source_line=756}
  %convert.45 = u32[16]{0} convert(s64[16]{0} %convert.43), metadata={op_type="aten__index_select" op_name="aten__index_select" source_file="/usr/local/lib/python3.10/site-packages/torch/_ops.py" source_line=756}
  %gather.46 = bf16[16,1024]{1,0} gather(bf16[151936,1024]{1,0} %p5.44, u32[16]{0} %convert.45), offset_dims={1}, collapsed_slice_dims={0}, start_index_map={0}, index_vector_dim=1, slice_sizes={1,1024}, metadata={op_type="aten__index_select" op_name="aten__index_select" source_file="/usr/local/lib/python3.10/site-packages/torch/_ops.py" source_line=756}
  %convert.47 = f32[16,1024]{1,0} convert(bf16[16,1024]{1,0} %gather.46), metadata={op_type="xla__cast" op_name="xla__cast" source_file="/usr/local/lib/python3.10/site-packages/torch/_ops.py" source_line=756}
  %constant.41 = f32[] constant(1), metadata={op_type="prim__Constant" op_name="prim__Constant" source_file="/usr/local/lib/python3.10/site-packages/torch/_ops.py" source_line=756}
  %broadcast.59 = f32[16,1024]{1,0} broadcast(f32[] %constant.41), dimensions={}, metadata={op_type="aten__add" op_name="aten__add.13/aten__add" source_file="/usr/local/lib/python3.10/site-packages/torch/_ops.py" source_line=756}
  %multiply.60 = f32[16,1024]{1,0} multiply(f32[16,1024]{1,0} %convert.47, f32[16,1024]{1,0} %broadcast.59), metadata={op_type="aten__add" op_name="aten__add.13/aten__add" source_file="/usr/local/lib/python3.10/site-packages/torch/_ops.py" source_line=756}
  %add.61 = f32[16,1024]{1,0} add(f32[16,1024]{1,0} %convert.58, f32[16,1024]{1,0} %multiply.60), metadata={op_type="aten__add" op_name="aten__add.13/aten__add" source_file="/usr/local/lib/python3.10/site-packages/torch/_ops.py" source_line=756}
  %constant.71 = f32[] constant(2), metadata={op_type="prim__Constant" op_name="prim__Constant" source_file="/usr/local/lib/python3.10/site-packages/torch/_ops.py" source_line=756}
  %broadcast.72 = f32[16,1024]{1,0} broadcast(f32[] %constant.71), dimensions={}, metadata={op_type="aten__pow" op_name="aten__pow" source_file="/usr/local/lib/python3.10/site-packages/torch/_ops.py" source_line=756}
  %power.73 = f32[16,1024]{1,0} power(f32[16,1024]{1,0} %add.61, f32[16,1024]{1,0} %broadcast.72), metadata={op_type="aten__pow" op_name="aten__pow" source_file="/usr/local/lib/python3.10/site-packages/torch/_ops.py" source_line=756}
  %constant.74 = f32[] constant(0), metadata={op_type="aten__mean" op_name="aten__mean" source_file="/usr/local/lib/python3.10/site-packages/torch/_ops.py" source_line=756}
  %reduce.80 = f32[16]{0} reduce(f32[16,1024]{1,0} %power.73, f32[] %constant.74), dimensions={1}, to_apply=%AddComputation.76, metadata={op_type="aten__mean" op_name="aten__mean" source_file="/usr/local/lib/python3.10/site-packages/torch/_ops.py" source_line=756}
  %constant.75 = s32[] constant(1024), metadata={op_type="aten__mean" op_name="aten__mean" source_file="/usr/local/lib/python3.10/site-packages/torch/_ops.py" source_line=756}
  %constant.81 = s32[] constant(0), metadata={op_type="aten__mean" op_name="aten__mean" source_file="/usr/local/lib/python3.10/site-packages/torch/_ops.py" source_line=756}
  %compare.86 = pred[] compare(s32[] %constant.75, s32[] %constant.81), direction=NE, metadata={op_type="aten__mean" op_name="aten__mean" source_file="/usr/local/lib/python3.10/site-packages/torch/_ops.py" source_line=756}
  %constant.82 = f32[] constant(1), metadata={op_type="aten__mean" op_name="aten__mean" source_file="/usr/local/lib/python3.10/site-packages/torch/_ops.py" source_line=756}
  %convert.84 = f32[] convert(s32[] %constant.75), metadata={op_type="aten__mean" op_name="aten__mean" source_file="/usr/local/lib/python3.10/site-packages/torch/_ops.py" source_line=756}
  %divide.85 = f32[] divide(f32[] %constant.82, f32[] %convert.84), metadata={op_type="aten__mean" op_name="aten__mean" source_file="/usr/local/lib/python3.10/site-packages/torch/_ops.py" source_line=756}
  %constant.83 = f32[] constant(nan), metadata={op_type="aten__mean" op_name="aten__mean" source_file="/usr/local/lib/python3.10/site-packages/torch/_ops.py" source_line=756}
  %select.87 = f32[] select(pred[] %compare.86, f32[] %divide.85, f32[] %constant.83), metadata={op_type="aten__mean" op_name="aten__mean" source_file="/usr/local/lib/python3.10/site-packages/torch/_ops.py" source_line=756}
  %broadcast.88 = f32[16]{0} broadcast(f32[] %select.87), dimensions={}, metadata={op_type="aten__mean" op_name="aten__mean" source_file="/usr/local/lib/python3.10/site-packages/torch/_ops.py" source_line=756}
  %multiply.89 = f32[16]{0} multiply(f32[16]{0} %reduce.80, f32[16]{0} %broadcast.88), metadata={op_type="aten__mean" op_name="aten__mean" source_file="/usr/local/lib/python3.10/site-packages/torch/_ops.py" source_line=756}
  %reshape.90 = f32[16,1]{1,0} reshape(f32[16]{0} %multiply.89), metadata={op_type="aten__mean" op_name="aten__mean" source_file="/usr/local/lib/python3.10/site-packages/torch/_ops.py" source_line=756}
  %convert.91 = f32[16,1]{1,0} convert(f32[16,1]{1,0} %reshape.90), metadata={op_type="aten__mean" op_name="aten__mean" source_file="/usr/local/lib/python3.10/site-packages/torch/_ops.py" source_line=756}
  %p1.4 = f32[] parameter(1), metadata={op_type="xla__device_data" op_name="xla__device_data" source_file="/usr/local/lib/python3.10/site-packages/torch/_ops.py" source_line=756}
  %constant.70 = f32[] constant(1), metadata={op_type="prim__Constant" op_name="prim__Constant" source_file="/usr/local/lib/python3.10/site-packages/torch/_ops.py" source_line=756}
  %multiply.92 = f32[] multiply(f32[] %p1.4, f32[] %constant.70), metadata={op_type="aten__add" op_name="aten__add.14/aten__add" source_file="/usr/local/lib/python3.10/site-packages/torch/_ops.py" source_line=756}
  %broadcast.93 = f32[16,1]{1,0} broadcast(f32[] %multiply.92), dimensions={}, metadata={op_type="aten__add" op_name="aten__add.14/aten__add" source_file="/usr/local/lib/python3.10/site-packages/torch/_ops.py" source_line=756}
  %add.94 = f32[16,1]{1,0} add(f32[16,1]{1,0} %convert.91, f32[16,1]{1,0} %broadcast.93), metadata={op_type="aten__add" op_name="aten__add.14/aten__add" source_file="/usr/local/lib/python3.10/site-packages/torch/_ops.py" source_line=756}
  %rsqrt.95 = f32[16,1]{1,0} rsqrt(f32[16,1]{1,0} %add.94), metadata={op_type="aten__rsqrt" op_name="aten__rsqrt" source_file="/usr/local/lib/python3.10/site-packages/torch/_ops.py" source_line=756}
  %reshape.96 = f32[16]{0} reshape(f32[16,1]{1,0} %rsqrt.95), metadata={op_type="aten__mul" op_name="aten__mul.15/aten__mul" source_file="/usr/local/lib/python3.10/site-packages/torch/_ops.py" source_line=756}
  %broadcast.97 = f32[16,1024]{1,0} broadcast(f32[16]{0} %reshape.96), dimensions={0}, metadata={op_type="aten__mul" op_name="aten__mul.15/aten__mul" source_file="/usr/local/lib/python3.10/site-packages/torch/_ops.py" source_line=756}
  %multiply.98 = f32[16,1024]{1,0} multiply(f32[16,1024]{1,0} %add.61, f32[16,1024]{1,0} %broadcast.97), metadata={op_type="aten__mul" op_name="aten__mul.15/aten__mul" source_file="/usr/local/lib/python3.10/site-packages/torch/_ops.py" source_line=756}
  %convert.99 = bf16[16,1024]{1,0} convert(f32[16,1024]{1,0} %multiply.98), metadata={op_type="xla__cast" op_name="xla__cast" source_file="/usr/local/lib/python3.10/site-packages/torch/_ops.py" source_line=756}
  %convert.100 = f32[16,1024]{1,0} convert(bf16[16,1024]{1,0} %convert.99), metadata={op_type="xla__cast" op_name="xla__cast" source_file="/usr/local/lib/python3.10/site-packages/torch/_ops.py" source_line=756}
  %p9.68 = bf16[1024]{0} parameter(9), metadata={op_type="xla__device_data" op_name="xla__device_data" source_file="/usr/local/lib/python3.10/site-packages/torch_xla/_dynamo/dynamo_bridge.py" source_line=355}
  %convert.69 = f32[1024]{0} convert(bf16[1024]{0} %p9.68), metadata={op_type="xla__cast" op_name="xla__cast" source_file="/usr/local/lib/python3.10/site-packages/torch/_ops.py" source_line=756}
  %broadcast.101 = f32[16,1024]{1,0} broadcast(f32[1024]{0} %convert.69), dimensions={1}, metadata={op_type="aten__mul" op_name="aten__mul.16/aten__mul" source_file="/usr/local/lib/python3.10/site-packages/torch/_ops.py" source_line=756}
  %multiply.102 = f32[16,1024]{1,0} multiply(f32[16,1024]{1,0} %convert.100, f32[16,1024]{1,0} %broadcast.101), metadata={op_type="aten__mul" op_name="aten__mul.16/aten__mul" source_file="/usr/local/lib/python3.10/site-packages/torch/_ops.py" source_line=756}
  %convert.103 = bf16[16,1024]{1,0} convert(f32[16,1024]{1,0} %multiply.102), metadata={op_type="xla__cast" op_name="xla__cast" source_file="/usr/local/lib/python3.10/site-packages/torch/_ops.py" source_line=756}
  %p8.66 = bf16[6144,1024]{1,0} parameter(8), metadata={op_type="xla__device_data" op_name="xla__device_data" source_file="/usr/local/lib/python3.10/site-packages/torch_xla/_dynamo/dynamo_bridge.py" source_line=355}
  %transpose.67 = bf16[1024,6144]{0,1} transpose(bf16[6144,1024]{1,0} %p8.66), dimensions={1,0}, metadata={op_type="aten__permute" op_name="aten__permute" source_file="/usr/local/lib/python3.10/site-packages/torch/_ops.py" source_line=756}
  %dot.104 = bf16[16,6144]{1,0} dot(bf16[16,1024]{1,0} %convert.103, bf16[1024,6144]{0,1} %transpose.67), lhs_contracting_dims={1}, rhs_contracting_dims={0}, metadata={op_type="aten__mm" op_name="aten__mm" source_file="/usr/local/lib/python3.10/site-packages/torch/_ops.py" source_line=756}
  %slice.107 = bf16[16,3072]{1,0} slice(bf16[16,6144]{1,0} %dot.104), slice={[0:16], [0:3072]}, metadata={op_type="xla__select" op_name="xla__select" source_file="/usr/local/lib/python3.10/site-packages/torch/_ops.py" source_line=756}
  %logistic.108 = bf16[16,3072]{1,0} logistic(bf16[16,3072]{1,0} %slice.107), metadata={op_type="aten__silu" op_name="aten__silu" source_file="/usr/local/lib/python3.10/site-packages/torch/_ops.py" source_line=756}
  %multiply.109 = bf16[16,3072]{1,0} multiply(bf16[16,3072]{1,0} %slice.107, bf16[16,3072]{1,0} %logistic.108), metadata={op_type="aten__silu" op_name="aten__silu" source_file="/usr/local/lib/python3.10/site-packages/torch/_ops.py" source_line=756}
  %convert.110 = f32[16,3072]{1,0} convert(bf16[16,3072]{1,0} %multiply.109), metadata={op_type="xla__cast" op_name="xla__cast" source_file="/usr/local/lib/python3.10/site-packages/torch/_ops.py" source_line=756}
  %slice.105 = bf16[16,3072]{1,0} slice(bf16[16,6144]{1,0} %dot.104), slice={[0:16], [3072:6144]}, metadata={op_type="xla__select" op_name="xla__select" source_file="/usr/local/lib/python3.10/site-packages/torch/_ops.py" source_line=756}
  %convert.106 = f32[16,3072]{1,0} convert(bf16[16,3072]{1,0} %slice.105), metadata={op_type="xla__cast" op_name="xla__cast" source_file="/usr/local/lib/python3.10/site-packages/torch/_ops.py" source_line=756}
  %multiply.111 = f32[16,3072]{1,0} multiply(f32[16,3072]{1,0} %convert.110, f32[16,3072]{1,0} %convert.106), metadata={op_type="aten__mul" op_name="aten__mul.17/aten__mul" source_file="/usr/local/lib/python3.10/site-packages/torch/_ops.py" source_line=756}
  %convert.112 = bf16[16,3072]{1,0} convert(f32[16,3072]{1,0} %multiply.111), metadata={op_type="xla__cast" op_name="xla__cast" source_file="/usr/local/lib/python3.10/site-packages/torch/_ops.py" source_line=756}
  %p7.64 = bf16[1024,3072]{1,0} parameter(7), metadata={op_type="xla__device_data" op_name="xla__device_data" source_file="/usr/local/lib/python3.10/site-packages/torch_xla/_dynamo/dynamo_bridge.py" source_line=355}
  %transpose.65 = bf16[3072,1024]{0,1} transpose(bf16[1024,3072]{1,0} %p7.64), dimensions={1,0}, metadata={op_type="aten__permute" op_name="aten__permute" source_file="/usr/local/lib/python3.10/site-packages/torch/_ops.py" source_line=756}
  %dot.113 = bf16[16,1024]{1,0} dot(bf16[16,3072]{1,0} %convert.112, bf16[3072,1024]{0,1} %transpose.65), lhs_contracting_dims={1}, rhs_contracting_dims={0}, metadata={op_type="aten__mm" op_name="aten__mm" source_file="/usr/local/lib/python3.10/site-packages/torch/_ops.py" source_line=756}
  %convert.114 = f32[16,1024]{1,0} convert(bf16[16,1024]{1,0} %dot.113), metadata={op_type="xla__cast" op_name="xla__cast" source_file="/usr/local/lib/python3.10/site-packages/torch/_ops.py" source_line=756}
  %convert.62 = bf16[16,1024]{1,0} convert(f32[16,1024]{1,0} %add.61), metadata={op_type="xla__cast" op_name="xla__cast" source_file="/usr/local/lib/python3.10/site-packages/torch/_ops.py" source_line=756}
  %convert.63 = f32[16,1024]{1,0} convert(bf16[16,1024]{1,0} %convert.62), metadata={op_type="xla__cast" op_name="xla__cast" source_file="/usr/local/lib/python3.10/site-packages/torch/_ops.py" source_line=756}
  %constant.40 = f32[] constant(1), metadata={op_type="prim__Constant" op_name="prim__Constant" source_file="/usr/local/lib/python3.10/site-packages/torch/_ops.py" source_line=756}
  %broadcast.115 = f32[16,1024]{1,0} broadcast(f32[] %constant.40), dimensions={}, metadata={op_type="aten__add" op_name="aten__add.18/aten__add" source_file="/usr/local/lib/python3.10/site-packages/torch/_ops.py" source_line=756}
  %multiply.116 = f32[16,1024]{1,0} multiply(f32[16,1024]{1,0} %convert.63, f32[16,1024]{1,0} %broadcast.115), metadata={op_type="aten__add" op_name="aten__add.18/aten__add" source_file="/usr/local/lib/python3.10/site-packages/torch/_ops.py" source_line=756}
  %add.117 = f32[16,1024]{1,0} add(f32[16,1024]{1,0} %convert.114, f32[16,1024]{1,0} %multiply.116), metadata={op_type="aten__add" op_name="aten__add.18/aten__add" source_file="/usr/local/lib/python3.10/site-packages/torch/_ops.py" source_line=756}
  %convert.118 = bf16[16,1024]{1,0} convert(f32[16,1024]{1,0} %add.117), metadata={op_type="xla__cast" op_name="xla__cast" source_file="/usr/local/lib/python3.10/site-packages/torch/_ops.py" source_line=756}
  %convert.119 = f32[16,1024]{1,0} convert(bf16[16,1024]{1,0} %convert.118), metadata={op_type="xla__cast" op_name="xla__cast" source_file="/usr/local/lib/python3.10/site-packages/torch/_ops.py" source_line=756}
  %constant.39 = f32[] constant(1), metadata={op_type="prim__Constant" op_name="prim__Constant" source_file="/usr/local/lib/python3.10/site-packages/torch/_ops.py" source_line=756}
  %broadcast.131 = f32[16,1024]{1,0} broadcast(f32[] %constant.39), dimensions={}, metadata={op_type="aten__add" op_name="aten__add.31/aten__add" source_file="/usr/local/lib/python3.10/site-packages/torch/_ops.py" source_line=756}
  %multiply.132 = f32[16,1024]{1,0} multiply(f32[16,1024]{1,0} %convert.119, f32[16,1024]{1,0} %broadcast.131), metadata={op_type="aten__add" op_name="aten__add.31/aten__add" source_file="/usr/local/lib/python3.10/site-packages/torch/_ops.py" source_line=756}
  %add.133 = f32[16,1024]{1,0} add(f32[16,1024]{1,0} %convert.130, f32[16,1024]{1,0} %multiply.132), metadata={op_type="aten__add" op_name="aten__add.31/aten__add" source_file="/usr/local/lib/python3.10/site-packages/torch/_ops.py" source_line=756}
  %constant.143 = f32[] constant(2), metadata={op_type="prim__Constant" op_name="prim__Constant" source_file="/usr/local/lib/python3.10/site-packages/torch/_ops.py" source_line=756}
  %broadcast.144 = f32[16,1024]{1,0} broadcast(f32[] %constant.143), dimensions={}, metadata={op_type="aten__pow" op_name="aten__pow" source_file="/usr/local/lib/python3.10/site-packages/torch/_ops.py" source_line=756}
  %power.145 = f32[16,1024]{1,0} power(f32[16,1024]{1,0} %add.133, f32[16,1024]{1,0} %broadcast.144), metadata={op_type="aten__pow" op_name="aten__pow" source_file="/usr/local/lib/python3.10/site-packages/torch/_ops.py" source_line=756}
  %constant.146 = f32[] constant(0), metadata={op_type="aten__mean" op_name="aten__mean" source_file="/usr/local/lib/python3.10/site-packages/torch/_ops.py" source_line=756}
  %reduce.152 = f32[16]{0} reduce(f32[16,1024]{1,0} %power.145, f32[] %constant.146), dimensions={1}, to_apply=%AddComputation.148, metadata={op_type="aten__mean" op_name="aten__mean" source_file="/usr/local/lib/python3.10/site-packages/torch/_ops.py" source_line=756}
  %constant.147 = s32[] constant(1024), metadata={op_type="aten__mean" op_name="aten__mean" source_file="/usr/local/lib/python3.10/site-packages/torch/_ops.py" source_line=756}
  %constant.153 = s32[] constant(0), metadata={op_type="aten__mean" op_name="aten__mean" source_file="/usr/local/lib/python3.10/site-packages/torch/_ops.py" source_line=756}
  %compare.158 = pred[] compare(s32[] %constant.147, s32[] %constant.153), direction=NE, metadata={op_type="aten__mean" op_name="aten__mean" source_file="/usr/local/lib/python3.10/site-packages/torch/_ops.py" source_line=756}
  %constant.154 = f32[] constant(1), metadata={op_type="aten__mean" op_name="aten__mean" source_file="/usr/local/lib/python3.10/site-packages/torch/_ops.py" source_line=756}
  %convert.156 = f32[] convert(s32[] %constant.147), metadata={op_type="aten__mean" op_name="aten__mean" source_file="/usr/local/lib/python3.10/site-packages/torch/_ops.py" source_line=756}
  %divide.157 = f32[] divide(f32[] %constant.154, f32[] %convert.156), metadata={op_type="aten__mean" op_name="aten__mean" source_file="/usr/local/lib/python3.10/site-packages/torch/_ops.py" source_line=756}
  %constant.155 = f32[] constant(nan), metadata={op_type="aten__mean" op_name="aten__mean" source_file="/usr/local/lib/python3.10/site-packages/torch/_ops.py" source_line=756}
  %select.159 = f32[] select(pred[] %compare.158, f32[] %divide.157, f32[] %constant.155), metadata={op_type="aten__mean" op_name="aten__mean" source_file="/usr/local/lib/python3.10/site-packages/torch/_ops.py" source_line=756}
  %broadcast.160 = f32[16]{0} broadcast(f32[] %select.159), dimensions={}, metadata={op_type="aten__mean" op_name="aten__mean" source_file="/usr/local/lib/python3.10/site-packages/torch/_ops.py" source_line=756}
  %multiply.161 = f32[16]{0} multiply(f32[16]{0} %reduce.152, f32[16]{0} %broadcast.160), metadata={op_type="aten__mean" op_name="aten__mean" source_file="/usr/local/lib/python3.10/site-packages/torch/_ops.py" source_line=756}
  %reshape.162 = f32[16,1]{1,0} reshape(f32[16]{0} %multiply.161), metadata={op_type="aten__mean" op_name="aten__mean" source_file="/usr/local/lib/python3.10/site-packages/torch/_ops.py" source_line=756}
  %convert.163 = f32[16,1]{1,0} convert(f32[16,1]{1,0} %reshape.162), metadata={op_type="aten__mean" op_name="aten__mean" source_file="/usr/local/lib/python3.10/site-packages/torch/_ops.py" source_line=756}
  %constant.142 = f32[] constant(1), metadata={op_type="prim__Constant" op_name="prim__Constant" source_file="/usr/local/lib/python3.10/site-packages/torch/_ops.py" source_line=756}
  %multiply.164 = f32[] multiply(f32[] %p1.4, f32[] %constant.142), metadata={op_type="aten__add" op_name="aten__add.32/aten__add" source_file="/usr/local/lib/python3.10/site-packages/torch/_ops.py" source_line=756}
  %broadcast.165 = f32[16,1]{1,0} broadcast(f32[] %multiply.164), dimensions={}, metadata={op_type="aten__add" op_name="aten__add.32/aten__add" source_file="/usr/local/lib/python3.10/site-packages/torch/_ops.py" source_line=756}
  %add.166 = f32[16,1]{1,0} add(f32[16,1]{1,0} %convert.163, f32[16,1]{1,0} %broadcast.165), metadata={op_type="aten__add" op_name="aten__add.32/aten__add" source_file="/usr/local/lib/python3.10/site-packages/torch/_ops.py" source_line=756}
  %rsqrt.167 = f32[16,1]{1,0} rsqrt(f32[16,1]{1,0} %add.166), metadata={op_type="aten__rsqrt" op_name="aten__rsqrt" source_file="/usr/local/lib/python3.10/site-packages/torch/_ops.py" source_line=756}
  %reshape.168 = f32[16]{0} reshape(f32[16,1]{1,0} %rsqrt.167), metadata={op_type="aten__mul" op_name="aten__mul.33/aten__mul" source_file="/usr/local/lib/python3.10/site-packages/torch/_ops.py" source_line=756}
  %broadcast.169 = f32[16,1024]{1,0} broadcast(f32[16]{0} %reshape.168), dimensions={0}, metadata={op_type="aten__mul" op_name="aten__mul.33/aten__mul" source_file="/usr/local/lib/python3.10/site-packages/torch/_ops.py" source_line=756}
  %multiply.170 = f32[16,1024]{1,0} multiply(f32[16,1024]{1,0} %add.133, f32[16,1024]{1,0} %broadcast.169), metadata={op_type="aten__mul" op_name="aten__mul.33/aten__mul" source_file="/usr/local/lib/python3.10/site-packages/torch/_ops.py" source_line=756}
  %convert.171 = bf16[16,1024]{1,0} convert(f32[16,1024]{1,0} %multiply.170), metadata={op_type="xla__cast" op_name="xla__cast" source_file="/usr/local/lib/python3.10/site-packages/torch/_ops.py" source_line=756}
  %convert.172 = f32[16,1024]{1,0} convert(bf16[16,1024]{1,0} %convert.171), metadata={op_type="xla__cast" op_name="xla__cast" source_file="/usr/local/lib/python3.10/site-packages/torch/_ops.py" source_line=756}
  %p13.140 = bf16[1024]{0} parameter(13), metadata={op_type="xla__device_data" op_name="xla__device_data" source_file="/usr/local/lib/python3.10/site-packages/torch_xla/_dynamo/dynamo_bridge.py" source_line=355}
  %convert.141 = f32[1024]{0} convert(bf16[1024]{0} %p13.140), metadata={op_type="xla__cast" op_name="xla__cast" source_file="/usr/local/lib/python3.10/site-packages/torch/_ops.py" source_line=756}
  %broadcast.173 = f32[16,1024]{1,0} broadcast(f32[1024]{0} %convert.141), dimensions={1}, metadata={op_type="aten__mul" op_name="aten__mul.34/aten__mul" source_file="/usr/local/lib/python3.10/site-packages/torch/_ops.py" source_line=756}
  %multiply.174 = f32[16,1024]{1,0} multiply(f32[16,1024]{1,0} %convert.172, f32[16,1024]{1,0} %broadcast.173), metadata={op_type="aten__mul" op_name="aten__mul.34/aten__mul" source_file="/usr/local/lib/python3.10/site-packages/torch/_ops.py" source_line=756}
  %convert.175 = bf16[16,1024]{1,0} convert(f32[16,1024]{1,0} %multiply.174), metadata={op_type="xla__cast" op_name="xla__cast" source_file="/usr/local/lib/python3.10/site-packages/torch/_ops.py" source_line=756}
  %p12.138 = bf16[6144,1024]{1,0} parameter(12), metadata={op_type="xla__device_data" op_name="xla__device_data" source_file="/usr/local/lib/python3.10/site-packages/torch_xla/_dynamo/dynamo_bridge.py" source_line=355}
  %transpose.139 = bf16[1024,6144]{0,1} transpose(bf16[6144,1024]{1,0} %p12.138), dimensions={1,0}, metadata={op_type="aten__permute" op_name="aten__permute" source_file="/usr/local/lib/python3.10/site-packages/torch/_ops.py" source_line=756}
  %dot.176 = bf16[16,6144]{1,0} dot(bf16[16,1024]{1,0} %convert.175, bf16[1024,6144]{0,1} %transpose.139), lhs_contracting_dims={1}, rhs_contracting_dims={0}, metadata={op_type="aten__mm" op_name="aten__mm" source_file="/usr/local/lib/python3.10/site-packages/torch/_ops.py" source_line=756}
  %slice.179 = bf16[16,3072]{1,0} slice(bf16[16,6144]{1,0} %dot.176), slice={[0:16], [0:3072]}, metadata={op_type="xla__select" op_name="xla__select" source_file="/usr/local/lib/python3.10/site-packages/torch/_ops.py" source_line=756}
  %logistic.180 = bf16[16,3072]{1,0} logistic(bf16[16,3072]{1,0} %slice.179), metadata={op_type="aten__silu" op_name="aten__silu" source_file="/usr/local/lib/python3.10/site-packages/torch/_ops.py" source_line=756}
  %multiply.181 = bf16[16,3072]{1,0} multiply(bf16[16,3072]{1,0} %slice.179, bf16[16,3072]{1,0} %logistic.180), metadata={op_type="aten__silu" op_name="aten__silu" source_file="/usr/local/lib/python3.10/site-packages/torch/_ops.py" source_line=756}
  %convert.182 = f32[16,3072]{1,0} convert(bf16[16,3072]{1,0} %multiply.181), metadata={op_type="xla__cast" op_name="xla__cast" source_file="/usr/local/lib/python3.10/site-packages/torch/_ops.py" source_line=756}
  %slice.177 = bf16[16,3072]{1,0} slice(bf16[16,6144]{1,0} %dot.176), slice={[0:16], [3072:6144]}, metadata={op_type="xla__select" op_name="xla__select" source_file="/usr/local/lib/python3.10/site-packages/torch/_ops.py" source_line=756}
  %convert.178 = f32[16,3072]{1,0} convert(bf16[16,3072]{1,0} %slice.177), metadata={op_type="xla__cast" op_name="xla__cast" source_file="/usr/local/lib/python3.10/site-packages/torch/_ops.py" source_line=756}
  %multiply.183 = f32[16,3072]{1,0} multiply(f32[16,3072]{1,0} %convert.182, f32[16,3072]{1,0} %convert.178), metadata={op_type="aten__mul" op_name="aten__mul.35/aten__mul" source_file="/usr/local/lib/python3.10/site-packages/torch/_ops.py" source_line=756}
  %convert.184 = bf16[16,3072]{1,0} convert(f32[16,3072]{1,0} %multiply.183), metadata={op_type="xla__cast" op_name="xla__cast" source_file="/usr/local/lib/python3.10/site-packages/torch/_ops.py" source_line=756}
  %p11.136 = bf16[1024,3072]{1,0} parameter(11), metadata={op_type="xla__device_data" op_name="xla__device_data" source_file="/usr/local/lib/python3.10/site-packages/torch_xla/_dynamo/dynamo_bridge.py" source_line=355}
  %transpose.137 = bf16[3072,1024]{0,1} transpose(bf16[1024,3072]{1,0} %p11.136), dimensions={1,0}, metadata={op_type="aten__permute" op_name="aten__permute" source_file="/usr/local/lib/python3.10/site-packages/torch/_ops.py" source_line=756}
  %dot.185 = bf16[16,1024]{1,0} dot(bf16[16,3072]{1,0} %convert.184, bf16[3072,1024]{0,1} %transpose.137), lhs_contracting_dims={1}, rhs_contracting_dims={0}, metadata={op_type="aten__mm" op_name="aten__mm" source_file="/usr/local/lib/python3.10/site-packages/torch/_ops.py" source_line=756}
  %convert.186 = f32[16,1024]{1,0} convert(bf16[16,1024]{1,0} %dot.185), metadata={op_type="xla__cast" op_name="xla__cast" source_file="/usr/local/lib/python3.10/site-packages/torch/_ops.py" source_line=756}
  %convert.134 = bf16[16,1024]{1,0} convert(f32[16,1024]{1,0} %add.133), metadata={op_type="xla__cast" op_name="xla__cast" source_file="/usr/local/lib/python3.10/site-packages/torch/_ops.py" source_line=756}
  %convert.135 = f32[16,1024]{1,0} convert(bf16[16,1024]{1,0} %convert.134), metadata={op_type="xla__cast" op_name="xla__cast" source_file="/usr/local/lib/python3.10/site-packages/torch/_ops.py" source_line=756}
  %constant.38 = f32[] constant(1), metadata={op_type="prim__Constant" op_name="prim__Constant" source_file="/usr/local/lib/python3.10/site-packages/torch/_ops.py" source_line=756}
  %broadcast.187 = f32[16,1024]{1,0} broadcast(f32[] %constant.38), dimensions={}, metadata={op_type="aten__add" op_name="aten__add.36/aten__add" source_file="/usr/local/lib/python3.10/site-packages/torch/_ops.py" source_line=756}
  %multiply.188 = f32[16,1024]{1,0} multiply(f32[16,1024]{1,0} %convert.135, f32[16,1024]{1,0} %broadcast.187), metadata={op_type="aten__add" op_name="aten__add.36/aten__add" source_file="/usr/local/lib/python3.10/site-packages/torch/_ops.py" source_line=756}
  %add.189 = f32[16,1024]{1,0} add(f32[16,1024]{1,0} %convert.186, f32[16,1024]{1,0} %multiply.188), metadata={op_type="aten__add" op_name="aten__add.36/aten__add" source_file="/usr/local/lib/python3.10/site-packages/torch/_ops.py" source_line=756}
  %convert.190 = bf16[16,1024]{1,0} convert(f32[16,1024]{1,0} %add.189), metadata={op_type="xla__cast" op_name="xla__cast" source_file="/usr/local/lib/python3.10/site-packages/torch/_ops.py" source_line=756}
  %convert.191 = f32[16,1024]{1,0} convert(bf16[16,1024]{1,0} %convert.190), metadata={op_type="xla__cast" op_name="xla__cast" source_file="/usr/local/lib/python3.10/site-packages/torch/_ops.py" source_line=756}
  %constant.37 = f32[] constant(1), metadata={op_type="prim__Constant" op_name="prim__Constant" source_file="/usr/local/lib/python3.10/site-packages/torch/_ops.py" source_line=756}
  %broadcast.203 = f32[16,1024]{1,0} broadcast(f32[] %constant.37), dimensions={}, metadata={op_type="aten__add" op_name="aten__add.49/aten__add" source_file="/usr/local/lib/python3.10/site-packages/torch/_ops.py" source_line=756}
  %multiply.204 = f32[16,1024]{1,0} multiply(f32[16,1024]{1,0} %convert.191, f32[16,1024]{1,0} %broadcast.203), metadata={op_type="aten__add" op_name="aten__add.49/aten__add" source_file="/usr/local/lib/python3.10/site-packages/torch/_ops.py" source_line=756}
  %add.205 = f32[16,1024]{1,0} add(f32[16,1024]{1,0} %convert.202, f32[16,1024]{1,0} %multiply.204), metadata={op_type="aten__add" op_name="aten__add.49/aten__add" source_file="/usr/local/lib/python3.10/site-packages/torch/_ops.py" source_line=756}
  %constant.215 = f32[] constant(2), metadata={op_type="prim__Constant" op_name="prim__Constant" source_file="/usr/local/lib/python3.10/site-packages/torch/_ops.py" source_line=756}
  %broadcast.216 = f32[16,1024]{1,0} broadcast(f32[] %constant.215), dimensions={}, metadata={op_type="aten__pow" op_name="aten__pow" source_file="/usr/local/lib/python3.10/site-packages/torch/_ops.py" source_line=756}
  %power.217 = f32[16,1024]{1,0} power(f32[16,1024]{1,0} %add.205, f32[16,1024]{1,0} %broadcast.216), metadata={op_type="aten__pow" op_name="aten__pow" source_file="/usr/local/lib/python3.10/site-packages/torch/_ops.py" source_line=756}
  %constant.218 = f32[] constant(0), metadata={op_type="aten__mean" op_name="aten__mean" source_file="/usr/local/lib/python3.10/site-packages/torch/_ops.py" source_line=756}
  %reduce.224 = f32[16]{0} reduce(f32[16,1024]{1,0} %power.217, f32[] %constant.218), dimensions={1}, to_apply=%AddComputation.220, metadata={op_type="aten__mean" op_name="aten__mean" source_file="/usr/local/lib/python3.10/site-packages/torch/_ops.py" source_line=756}
  %constant.219 = s32[] constant(1024), metadata={op_type="aten__mean" op_name="aten__mean" source_file="/usr/local/lib/python3.10/site-packages/torch/_ops.py" source_line=756}
  %constant.225 = s32[] constant(0), metadata={op_type="aten__mean" op_name="aten__mean" source_file="/usr/local/lib/python3.10/site-packages/torch/_ops.py" source_line=756}
  %compare.230 = pred[] compare(s32[] %constant.219, s32[] %constant.225), direction=NE, metadata={op_type="aten__mean" op_name="aten__mean" source_file="/usr/local/lib/python3.10/site-packages/torch/_ops.py" source_line=756}
  %constant.226 = f32[] constant(1), metadata={op_type="aten__mean" op_name="aten__mean" source_file="/usr/local/lib/python3.10/site-packages/torch/_ops.py" source_line=756}
  %convert.228 = f32[] convert(s32[] %constant.219), metadata={op_type="aten__mean" op_name="aten__mean" source_file="/usr/local/lib/python3.10/site-packages/torch/_ops.py" source_line=756}
  %divide.229 = f32[] divide(f32[] %constant.226, f32[] %convert.228), metadata={op_type="aten__mean" op_name="aten__mean" source_file="/usr/local/lib/python3.10/site-packages/torch/_ops.py" source_line=756}
  %constant.227 = f32[] constant(nan), metadata={op_type="aten__mean" op_name="aten__mean" source_file="/usr/local/lib/python3.10/site-packages/torch/_ops.py" source_line=756}
  %select.231 = f32[] select(pred[] %compare.230, f32[] %divide.229, f32[] %constant.227), metadata={op_type="aten__mean" op_name="aten__mean" source_file="/usr/local/lib/python3.10/site-packages/torch/_ops.py" source_line=756}
  %broadcast.232 = f32[16]{0} broadcast(f32[] %select.231), dimensions={}, metadata={op_type="aten__mean" op_name="aten__mean" source_file="/usr/local/lib/python3.10/site-packages/torch/_ops.py" source_line=756}
  %multiply.233 = f32[16]{0} multiply(f32[16]{0} %reduce.224, f32[16]{0} %broadcast.232), metadata={op_type="aten__mean" op_name="aten__mean" source_file="/usr/local/lib/python3.10/site-packages/torch/_ops.py" source_line=756}
  %reshape.234 = f32[16,1]{1,0} reshape(f32[16]{0} %multiply.233), metadata={op_type="aten__mean" op_name="aten__mean" source_file="/usr/local/lib/python3.10/site-packages/torch/_ops.py" source_line=756}
  %convert.235 = f32[16,1]{1,0} convert(f32[16,1]{1,0} %reshape.234), metadata={op_type="aten__mean" op_name="aten__mean" source_file="/usr/local/lib/python3.10/site-packages/torch/_ops.py" source_line=756}
  %constant.214 = f32[] constant(1), metadata={op_type="prim__Constant" op_name="prim__Constant" source_file="/usr/local/lib/python3.10/site-packages/torch/_ops.py" source_line=756}
  %multiply.236 = f32[] multiply(f32[] %p1.4, f32[] %constant.214), metadata={op_type="aten__add" op_name="aten__add.50/aten__add" source_file="/usr/local/lib/python3.10/site-packages/torch/_ops.py" source_line=756}
  %broadcast.237 = f32[16,1]{1,0} broadcast(f32[] %multiply.236), dimensions={}, metadata={op_type="aten__add" op_name="aten__add.50/aten__add" source_file="/usr/local/lib/python3.10/site-packages/torch/_ops.py" source_line=756}
  %add.238 = f32[16,1]{1,0} add(f32[16,1]{1,0} %convert.235, f32[16,1]{1,0} %broadcast.237), metadata={op_type="aten__add" op_name="aten__add.50/aten__add" source_file="/usr/local/lib/python3.10/site-packages/torch/_ops.py" source_line=756}
  %rsqrt.239 = f32[16,1]{1,0} rsqrt(f32[16,1]{1,0} %add.238), metadata={op_type="aten__rsqrt" op_name="aten__rsqrt" source_file="/usr/local/lib/python3.10/site-packages/torch/_ops.py" source_line=756}
  %reshape.240 = f32[16]{0} reshape(f32[16,1]{1,0} %rsqrt.239), metadata={op_type="aten__mul" op_name="aten__mul.51/aten__mul" source_file="/usr/local/lib/python3.10/site-packages/torch/_ops.py" source_line=756}
  %broadcast.241 = f32[16,1024]{1,0} broadcast(f32[16]{0} %reshape.240), dimensions={0}, metadata={op_type="aten__mul" op_name="aten__mul.51/aten__mul" source_file="/usr/local/lib/python3.10/site-packages/torch/_ops.py" source_line=756}
  %multiply.242 = f32[16,1024]{1,0} multiply(f32[16,1024]{1,0} %add.205, f32[16,1024]{1,0} %broadcast.241), metadata={op_type="aten__mul" op_name="aten__mul.51/aten__mul" source_file="/usr/local/lib/python3.10/site-packages/torch/_ops.py" source_line=756}
  %convert.243 = bf16[16,1024]{1,0} convert(f32[16,1024]{1,0} %multiply.242), metadata={op_type="xla__cast" op_name="xla__cast" source_file="/usr/local/lib/python3.10/site-packages/torch/_ops.py" source_line=756}
  %convert.244 = f32[16,1024]{1,0} convert(bf16[16,1024]{1,0} %convert.243), metadata={op_type="xla__cast" op_name="xla__cast" source_file="/usr/local/lib/python3.10/site-packages/torch/_ops.py" source_line=756}
  %p17.212 = bf16[1024]{0} parameter(17), metadata={op_type="xla__device_data" op_name="xla__device_data" source_file="/usr/local/lib/python3.10/site-packages/torch_xla/_dynamo/dynamo_bridge.py" source_line=355}
  %convert.213 = f32[1024]{0} convert(bf16[1024]{0} %p17.212), metadata={op_type="xla__cast" op_name="xla__cast" source_file="/usr/local/lib/python3.10/site-packages/torch/_ops.py" source_line=756}
  %broadcast.245 = f32[16,1024]{1,0} broadcast(f32[1024]{0} %convert.213), dimensions={1}, metadata={op_type="aten__mul" op_name="aten__mul.52/aten__mul" source_file="/usr/local/lib/python3.10/site-packages/torch/_ops.py" source_line=756}
  %multiply.246 = f32[16,1024]{1,0} multiply(f32[16,1024]{1,0} %convert.244, f32[16,1024]{1,0} %broadcast.245), metadata={op_type="aten__mul" op_name="aten__mul.52/aten__mul" source_file="/usr/local/lib/python3.10/site-packages/torch/_ops.py" source_line=756}
  %convert.247 = bf16[16,1024]{1,0} convert(f32[16,1024]{1,0} %multiply.246), metadata={op_type="xla__cast" op_name="xla__cast" source_file="/usr/local/lib/python3.10/site-packages/torch/_ops.py" source_line=756}
  %p16.210 = bf16[6144,1024]{1,0} parameter(16), metadata={op_type="xla__device_data" op_name="xla__device_data" source_file="/usr/local/lib/python3.10/site-packages/torch_xla/_dynamo/dynamo_bridge.py" source_line=355}
  %transpose.211 = bf16[1024,6144]{0,1} transpose(bf16[6144,1024]{1,0} %p16.210), dimensions={1,0}, metadata={op_type="aten__permute" op_name="aten__permute" source_file="/usr/local/lib/python3.10/site-packages/torch/_ops.py" source_line=756}
  %dot.248 = bf16[16,6144]{1,0} dot(bf16[16,1024]{1,0} %convert.247, bf16[1024,6144]{0,1} %transpose.211), lhs_contracting_dims={1}, rhs_contracting_dims={0}, metadata={op_type="aten__mm" op_name="aten__mm" source_file="/usr/local/lib/python3.10/site-packages/torch/_ops.py" source_line=756}
  %slice.251 = bf16[16,3072]{1,0} slice(bf16[16,6144]{1,0} %dot.248), slice={[0:16], [0:3072]}, metadata={op_type="xla__select" op_name="xla__select" source_file="/usr/local/lib/python3.10/site-packages/torch/_ops.py" source_line=756}
  %logistic.252 = bf16[16,3072]{1,0} logistic(bf16[16,3072]{1,0} %slice.251), metadata={op_type="aten__silu" op_name="aten__silu" source_file="/usr/local/lib/python3.10/site-packages/torch/_ops.py" source_line=756}
  %multiply.253 = bf16[16,3072]{1,0} multiply(bf16[16,3072]{1,0} %slice.251, bf16[16,3072]{1,0} %logistic.252), metadata={op_type="aten__silu" op_name="aten__silu" source_file="/usr/local/lib/python3.10/site-packages/torch/_ops.py" source_line=756}
  %convert.254 = f32[16,3072]{1,0} convert(bf16[16,3072]{1,0} %multiply.253), metadata={op_type="xla__cast" op_name="xla__cast" source_file="/usr/local/lib/python3.10/site-packages/torch/_ops.py" source_line=756}
  %slice.249 = bf16[16,3072]{1,0} slice(bf16[16,6144]{1,0} %dot.248), slice={[0:16], [3072:6144]}, metadata={op_type="xla__select" op_name="xla__select" source_file="/usr/local/lib/python3.10/site-packages/torch/_ops.py" source_line=756}
  %convert.250 = f32[16,3072]{1,0} convert(bf16[16,3072]{1,0} %slice.249), metadata={op_type="xla__cast" op_name="xla__cast" source_file="/usr/local/lib/python3.10/site-packages/torch/_ops.py" source_line=756}
  %multiply.255 = f32[16,3072]{1,0} multiply(f32[16,3072]{1,0} %convert.254, f32[16,3072]{1,0} %convert.250), metadata={op_type="aten__mul" op_name="aten__mul.53/aten__mul" source_file="/usr/local/lib/python3.10/site-packages/torch/_ops.py" source_line=756}
  %convert.256 = bf16[16,3072]{1,0} convert(f32[16,3072]{1,0} %multiply.255), metadata={op_type="xla__cast" op_name="xla__cast" source_file="/usr/local/lib/python3.10/site-packages/torch/_ops.py" source_line=756}
  %p15.208 = bf16[1024,3072]{1,0} parameter(15), metadata={op_type="xla__device_data" op_name="xla__device_data" source_file="/usr/local/lib/python3.10/site-packages/torch_xla/_dynamo/dynamo_bridge.py" source_line=355}
  %transpose.209 = bf16[3072,1024]{0,1} transpose(bf16[1024,3072]{1,0} %p15.208), dimensions={1,0}, metadata={op_type="aten__permute" op_name="aten__permute" source_file="/usr/local/lib/python3.10/site-packages/torch/_ops.py" source_line=756}
  %dot.257 = bf16[16,1024]{1,0} dot(bf16[16,3072]{1,0} %convert.256, bf16[3072,1024]{0,1} %transpose.209), lhs_contracting_dims={1}, rhs_contracting_dims={0}, metadata={op_type="aten__mm" op_name="aten__mm" source_file="/usr/local/lib/python3.10/site-packages/torch/_ops.py" source_line=756}
  %convert.258 = f32[16,1024]{1,0} convert(bf16[16,1024]{1,0} %dot.257), metadata={op_type="xla__cast" op_name="xla__cast" source_file="/usr/local/lib/python3.10/site-packages/torch/_ops.py" source_line=756}
  %convert.206 = bf16[16,1024]{1,0} convert(f32[16,1024]{1,0} %add.205), metadata={op_type="xla__cast" op_name="xla__cast" source_file="/usr/local/lib/python3.10/site-packages/torch/_ops.py" source_line=756}
  %convert.207 = f32[16,1024]{1,0} convert(bf16[16,1024]{1,0} %convert.206), metadata={op_type="xla__cast" op_name="xla__cast" source_file="/usr/local/lib/python3.10/site-packages/torch/_ops.py" source_line=756}
  %constant.36 = f32[] constant(1), metadata={op_type="prim__Constant" op_name="prim__Constant" source_file="/usr/local/lib/python3.10/site-packages/torch/_ops.py" source_line=756}
  %broadcast.259 = f32[16,1024]{1,0} broadcast(f32[] %constant.36), dimensions={}, metadata={op_type="aten__add" op_name="aten__add.54/aten__add" source_file="/usr/local/lib/python3.10/site-packages/torch/_ops.py" source_line=756}
  %multiply.260 = f32[16,1024]{1,0} multiply(f32[16,1024]{1,0} %convert.207, f32[16,1024]{1,0} %broadcast.259), metadata={op_type="aten__add" op_name="aten__add.54/aten__add" source_file="/usr/local/lib/python3.10/site-packages/torch/_ops.py" source_line=756}
  %add.261 = f32[16,1024]{1,0} add(f32[16,1024]{1,0} %convert.258, f32[16,1024]{1,0} %multiply.260), metadata={op_type="aten__add" op_name="aten__add.54/aten__add" source_file="/usr/local/lib/python3.10/site-packages/torch/_ops.py" source_line=756}
  %convert.262 = bf16[16,1024]{1,0} convert(f32[16,1024]{1,0} %add.261), metadata={op_type="xla__cast" op_name="xla__cast" source_file="/usr/local/lib/python3.10/site-packages/torch/_ops.py" source_line=756}
  %convert.263 = f32[16,1024]{1,0} convert(bf16[16,1024]{1,0} %convert.262), metadata={op_type="xla__cast" op_name="xla__cast" source_file="/usr/local/lib/python3.10/site-packages/torch/_ops.py" source_line=756}
  %constant.35 = f32[] constant(1), metadata={op_type="prim__Constant" op_name="prim__Constant" source_file="/usr/local/lib/python3.10/site-packages/torch/_ops.py" source_line=756}
  %broadcast.275 = f32[16,1024]{1,0} broadcast(f32[] %constant.35), dimensions={}, metadata={op_type="aten__add" op_name="aten__add.67/aten__add" source_file="/usr/local/lib/python3.10/site-packages/torch/_ops.py" source_line=756}
  %multiply.276 = f32[16,1024]{1,0} multiply(f32[16,1024]{1,0} %convert.263, f32[16,1024]{1,0} %broadcast.275), metadata={op_type="aten__add" op_name="aten__add.67/aten__add" source_file="/usr/local/lib/python3.10/site-packages/torch/_ops.py" source_line=756}
  %add.277 = f32[16,1024]{1,0} add(f32[16,1024]{1,0} %convert.274, f32[16,1024]{1,0} %multiply.276), metadata={op_type="aten__add" op_name="aten__add.67/aten__add" source_file="/usr/local/lib/python3.10/site-packages/torch/_ops.py" source_line=756}
  %constant.287 = f32[] constant(2), metadata={op_type="prim__Constant" op_name="prim__Constant" source_file="/usr/local/lib/python3.10/site-packages/torch/_ops.py" source_line=756}
  %broadcast.288 = f32[16,1024]{1,0} broadcast(f32[] %constant.287), dimensions={}, metadata={op_type="aten__pow" op_name="aten__pow" source_file="/usr/local/lib/python3.10/site-packages/torch/_ops.py" source_line=756}
  %power.289 = f32[16,1024]{1,0} power(f32[16,1024]{1,0} %add.277, f32[16,1024]{1,0} %broadcast.288), metadata={op_type="aten__pow" op_name="aten__pow" source_file="/usr/local/lib/python3.10/site-packages/torch/_ops.py" source_line=756}
  %constant.290 = f32[] constant(0), metadata={op_type="aten__mean" op_name="aten__mean" source_file="/usr/local/lib/python3.10/site-packages/torch/_ops.py" source_line=756}
  %reduce.296 = f32[16]{0} reduce(f32[16,1024]{1,0} %power.289, f32[] %constant.290), dimensions={1}, to_apply=%AddComputation.292, metadata={op_type="aten__mean" op_name="aten__mean" source_file="/usr/local/lib/python3.10/site-packages/torch/_ops.py" source_line=756}
  %constant.291 = s32[] constant(1024), metadata={op_type="aten__mean" op_name="aten__mean" source_file="/usr/local/lib/python3.10/site-packages/torch/_ops.py" source_line=756}
  %constant.297 = s32[] constant(0), metadata={op_type="aten__mean" op_name="aten__mean" source_file="/usr/local/lib/python3.10/site-packages/torch/_ops.py" source_line=756}
  %compare.302 = pred[] compare(s32[] %constant.291, s32[] %constant.297), direction=NE, metadata={op_type="aten__mean" op_name="aten__mean" source_file="/usr/local/lib/python3.10/site-packages/torch/_ops.py" source_line=756}
  %constant.298 = f32[] constant(1), metadata={op_type="aten__mean" op_name="aten__mean" source_file="/usr/local/lib/python3.10/site-packages/torch/_ops.py" source_line=756}
  %convert.300 = f32[] convert(s32[] %constant.291), metadata={op_type="aten__mean" op_name="aten__mean" source_file="/usr/local/lib/python3.10/site-packages/torch/_ops.py" source_line=756}
  %divide.301 = f32[] divide(f32[] %constant.298, f32[] %convert.300), metadata={op_type="aten__mean" op_name="aten__mean" source_file="/usr/local/lib/python3.10/site-packages/torch/_ops.py" source_line=756}
  %constant.299 = f32[] constant(nan), metadata={op_type="aten__mean" op_name="aten__mean" source_file="/usr/local/lib/python3.10/site-packages/torch/_ops.py" source_line=756}
  %select.303 = f32[] select(pred[] %compare.302, f32[] %divide.301, f32[] %constant.299), metadata={op_type="aten__mean" op_name="aten__mean" source_file="/usr/local/lib/python3.10/site-packages/torch/_ops.py" source_line=756}
  %broadcast.304 = f32[16]{0} broadcast(f32[] %select.303), dimensions={}, metadata={op_type="aten__mean" op_name="aten__mean" source_file="/usr/local/lib/python3.10/site-packages/torch/_ops.py" source_line=756}
  %multiply.305 = f32[16]{0} multiply(f32[16]{0} %reduce.296, f32[16]{0} %broadcast.304), metadata={op_type="aten__mean" op_name="aten__mean" source_file="/usr/local/lib/python3.10/site-packages/torch/_ops.py" source_line=756}
  %reshape.306 = f32[16,1]{1,0} reshape(f32[16]{0} %multiply.305), metadata={op_type="aten__mean" op_name="aten__mean" source_file="/usr/local/lib/python3.10/site-packages/torch/_ops.py" source_line=756}
  %convert.307 = f32[16,1]{1,0} convert(f32[16,1]{1,0} %reshape.306), metadata={op_type="aten__mean" op_name="aten__mean" source_file="/usr/local/lib/python3.10/site-packages/torch/_ops.py" source_line=756}
  %constant.286 = f32[] constant(1), metadata={op_type="prim__Constant" op_name="prim__Constant" source_file="/usr/local/lib/python3.10/site-packages/torch/_ops.py" source_line=756}
  %multiply.308 = f32[] multiply(f32[] %p1.4, f32[] %constant.286), metadata={op_type="aten__add" op_name="aten__add.68/aten__add" source_file="/usr/local/lib/python3.10/site-packages/torch/_ops.py" source_line=756}
  %broadcast.309 = f32[16,1]{1,0} broadcast(f32[] %multiply.308), dimensions={}, metadata={op_type="aten__add" op_name="aten__add.68/aten__add" source_file="/usr/local/lib/python3.10/site-packages/torch/_ops.py" source_line=756}
  %add.310 = f32[16,1]{1,0} add(f32[16,1]{1,0} %convert.307, f32[16,1]{1,0} %broadcast.309), metadata={op_type="aten__add" op_name="aten__add.68/aten__add" source_file="/usr/local/lib/python3.10/site-packages/torch/_ops.py" source_line=756}
  %rsqrt.311 = f32[16,1]{1,0} rsqrt(f32[16,1]{1,0} %add.310), metadata={op_type="aten__rsqrt" op_name="aten__rsqrt" source_file="/usr/local/lib/python3.10/site-packages/torch/_ops.py" source_line=756}
  %reshape.312 = f32[16]{0} reshape(f32[16,1]{1,0} %rsqrt.311), metadata={op_type="aten__mul" op_name="aten__mul.69/aten__mul" source_file="/usr/local/lib/python3.10/site-packages/torch/_ops.py" source_line=756}
  %broadcast.313 = f32[16,1024]{1,0} broadcast(f32[16]{0} %reshape.312), dimensions={0}, metadata={op_type="aten__mul" op_name="aten__mul.69/aten__mul" source_file="/usr/local/lib/python3.10/site-packages/torch/_ops.py" source_line=756}
  %multiply.314 = f32[16,1024]{1,0} multiply(f32[16,1024]{1,0} %add.277, f32[16,1024]{1,0} %broadcast.313), metadata={op_type="aten__mul" op_name="aten__mul.69/aten__mul" source_file="/usr/local/lib/python3.10/site-packages/torch/_ops.py" source_line=756}
  %convert.315 = bf16[16,1024]{1,0} convert(f32[16,1024]{1,0} %multiply.314), metadata={op_type="xla__cast" op_name="xla__cast" source_file="/usr/local/lib/python3.10/site-packages/torch/_ops.py" source_line=756}
  %convert.316 = f32[16,1024]{1,0} convert(bf16[16,1024]{1,0} %convert.315), metadata={op_type="xla__cast" op_name="xla__cast" source_file="/usr/local/lib/python3.10/site-packages/torch/_ops.py" source_line=756}
  %p21.284 = bf16[1024]{0} parameter(21), metadata={op_type="xla__device_data" op_name="xla__device_data" source_file="/usr/local/lib/python3.10/site-packages/torch_xla/_dynamo/dynamo_bridge.py" source_line=355}
  %convert.285 = f32[1024]{0} convert(bf16[1024]{0} %p21.284), metadata={op_type="xla__cast" op_name="xla__cast" source_file="/usr/local/lib/python3.10/site-packages/torch/_ops.py" source_line=756}
  %broadcast.317 = f32[16,1024]{1,0} broadcast(f32[1024]{0} %convert.285), dimensions={1}, metadata={op_type="aten__mul" op_name="aten__mul.70/aten__mul" source_file="/usr/local/lib/python3.10/site-packages/torch/_ops.py" source_line=756}
  %multiply.318 = f32[16,1024]{1,0} multiply(f32[16,1024]{1,0} %convert.316, f32[16,1024]{1,0} %broadcast.317), metadata={op_type="aten__mul" op_name="aten__mul.70/aten__mul" source_file="/usr/local/lib/python3.10/site-packages/torch/_ops.py" source_line=756}
  %convert.319 = bf16[16,1024]{1,0} convert(f32[16,1024]{1,0} %multiply.318), metadata={op_type="xla__cast" op_name="xla__cast" source_file="/usr/local/lib/python3.10/site-packages/torch/_ops.py" source_line=756}
  %p20.282 = bf16[6144,1024]{1,0} parameter(20), metadata={op_type="xla__device_data" op_name="xla__device_data" source_file="/usr/local/lib/python3.10/site-packages/torch_xla/_dynamo/dynamo_bridge.py" source_line=355}
  %transpose.283 = bf16[1024,6144]{0,1} transpose(bf16[6144,1024]{1,0} %p20.282), dimensions={1,0}, metadata={op_type="aten__permute" op_name="aten__permute" source_file="/usr/local/lib/python3.10/site-packages/torch/_ops.py" source_line=756}
  %dot.320 = bf16[16,6144]{1,0} dot(bf16[16,1024]{1,0} %convert.319, bf16[1024,6144]{0,1} %transpose.283), lhs_contracting_dims={1}, rhs_contracting_dims={0}, metadata={op_type="aten__mm" op_name="aten__mm" source_file="/usr/local/lib/python3.10/site-packages/torch/_ops.py" source_line=756}
  %slice.323 = bf16[16,3072]{1,0} slice(bf16[16,6144]{1,0} %dot.320), slice={[0:16], [0:3072]}, metadata={op_type="xla__select" op_name="xla__select" source_file="/usr/local/lib/python3.10/site-packages/torch/_ops.py" source_line=756}
  %logistic.324 = bf16[16,3072]{1,0} logistic(bf16[16,3072]{1,0} %slice.323), metadata={op_type="aten__silu" op_name="aten__silu" source_file="/usr/local/lib/python3.10/site-packages/torch/_ops.py" source_line=756}
  %multiply.325 = bf16[16,3072]{1,0} multiply(bf16[16,3072]{1,0} %slice.323, bf16[16,3072]{1,0} %logistic.324), metadata={op_type="aten__silu" op_name="aten__silu" source_file="/usr/local/lib/python3.10/site-packages/torch/_ops.py" source_line=756}
  %convert.326 = f32[16,3072]{1,0} convert(bf16[16,3072]{1,0} %multiply.325), metadata={op_type="xla__cast" op_name="xla__cast" source_file="/usr/local/lib/python3.10/site-packages/torch/_ops.py" source_line=756}
  %slice.321 = bf16[16,3072]{1,0} slice(bf16[16,6144]{1,0} %dot.320), slice={[0:16], [3072:6144]}, metadata={op_type="xla__select" op_name="xla__select" source_file="/usr/local/lib/python3.10/site-packages/torch/_ops.py" source_line=756}
  %convert.322 = f32[16,3072]{1,0} convert(bf16[16,3072]{1,0} %slice.321), metadata={op_type="xla__cast" op_name="xla__cast" source_file="/usr/local/lib/python3.10/site-packages/torch/_ops.py" source_line=756}
  %multiply.327 = f32[16,3072]{1,0} multiply(f32[16,3072]{1,0} %convert.326, f32[16,3072]{1,0} %convert.322), metadata={op_type="aten__mul" op_name="aten__mul.71/aten__mul" source_file="/usr/local/lib/python3.10/site-packages/torch/_ops.py" source_line=756}
  %convert.328 = bf16[16,3072]{1,0} convert(f32[16,3072]{1,0} %multiply.327), metadata={op_type="xla__cast" op_name="xla__cast" source_file="/usr/local/lib/python3.10/site-packages/torch/_ops.py" source_line=756}
  %p19.280 = bf16[1024,3072]{1,0} parameter(19), metadata={op_type="xla__device_data" op_name="xla__device_data" source_file="/usr/local/lib/python3.10/site-packages/torch_xla/_dynamo/dynamo_bridge.py" source_line=355}
  %transpose.281 = bf16[3072,1024]{0,1} transpose(bf16[1024,3072]{1,0} %p19.280), dimensions={1,0}, metadata={op_type="aten__permute" op_name="aten__permute" source_file="/usr/local/lib/python3.10/site-packages/torch/_ops.py" source_line=756}
  %dot.329 = bf16[16,1024]{1,0} dot(bf16[16,3072]{1,0} %convert.328, bf16[3072,1024]{0,1} %transpose.281), lhs_contracting_dims={1}, rhs_contracting_dims={0}, metadata={op_type="aten__mm" op_name="aten__mm" source_file="/usr/local/lib/python3.10/site-packages/torch/_ops.py" source_line=756}
  %convert.330 = f32[16,1024]{1,0} convert(bf16[16,1024]{1,0} %dot.329), metadata={op_type="xla__cast" op_name="xla__cast" source_file="/usr/local/lib/python3.10/site-packages/torch/_ops.py" source_line=756}
  %convert.278 = bf16[16,1024]{1,0} convert(f32[16,1024]{1,0} %add.277), metadata={op_type="xla__cast" op_name="xla__cast" source_file="/usr/local/lib/python3.10/site-packages/torch/_ops.py" source_line=756}
  %convert.279 = f32[16,1024]{1,0} convert(bf16[16,1024]{1,0} %convert.278), metadata={op_type="xla__cast" op_name="xla__cast" source_file="/usr/local/lib/python3.10/site-packages/torch/_ops.py" source_line=756}
  %constant.34 = f32[] constant(1), metadata={op_type="prim__Constant" op_name="prim__Constant" source_file="/usr/local/lib/python3.10/site-packages/torch/_ops.py" source_line=756}
  %broadcast.331 = f32[16,1024]{1,0} broadcast(f32[] %constant.34), dimensions={}, metadata={op_type="aten__add" op_name="aten__add.72/aten__add" source_file="/usr/local/lib/python3.10/site-packages/torch/_ops.py" source_line=756}
  %multiply.332 = f32[16,1024]{1,0} multiply(f32[16,1024]{1,0} %convert.279, f32[16,1024]{1,0} %broadcast.331), metadata={op_type="aten__add" op_name="aten__add.72/aten__add" source_file="/usr/local/lib/python3.10/site-packages/torch/_ops.py" source_line=756}
  %add.333 = f32[16,1024]{1,0} add(f32[16,1024]{1,0} %convert.330, f32[16,1024]{1,0} %multiply.332), metadata={op_type="aten__add" op_name="aten__add.72/aten__add" source_file="/usr/local/lib/python3.10/site-packages/torch/_ops.py" source_line=756}
  %convert.334 = bf16[16,1024]{1,0} convert(f32[16,1024]{1,0} %add.333), metadata={op_type="xla__cast" op_name="xla__cast" source_file="/usr/local/lib/python3.10/site-packages/torch/_ops.py" source_line=756}
  %convert.335 = f32[16,1024]{1,0} convert(bf16[16,1024]{1,0} %convert.334), metadata={op_type="xla__cast" op_name="xla__cast" source_file="/usr/local/lib/python3.10/site-packages/torch/_ops.py" source_line=756}
  %constant.33 = f32[] constant(1), metadata={op_type="prim__Constant" op_name="prim__Constant" source_file="/usr/local/lib/python3.10/site-packages/torch/_ops.py" source_line=756}
  %broadcast.347 = f32[16,1024]{1,0} broadcast(f32[] %constant.33), dimensions={}, metadata={op_type="aten__add" op_name="aten__add.85/aten__add" source_file="/usr/local/lib/python3.10/site-packages/torch/_ops.py" source_line=756}
  %multiply.348 = f32[16,1024]{1,0} multiply(f32[16,1024]{1,0} %convert.335, f32[16,1024]{1,0} %broadcast.347), metadata={op_type="aten__add" op_name="aten__add.85/aten__add" source_file="/usr/local/lib/python3.10/site-packages/torch/_ops.py" source_line=756}
  %add.349 = f32[16,1024]{1,0} add(f32[16,1024]{1,0} %convert.346, f32[16,1024]{1,0} %multiply.348), metadata={op_type="aten__add" op_name="aten__add.85/aten__add" source_file="/usr/local/lib/python3.10/site-packages/torch/_ops.py" source_line=756}
  %constant.359 = f32[] constant(2), metadata={op_type="prim__Constant" op_name="prim__Constant" source_file="/usr/local/lib/python3.10/site-packages/torch/_ops.py" source_line=756}
  %broadcast.360 = f32[16,1024]{1,0} broadcast(f32[] %constant.359), dimensions={}, metadata={op_type="aten__pow" op_name="aten__pow" source_file="/usr/local/lib/python3.10/site-packages/torch/_ops.py" source_line=756}
  %power.361 = f32[16,1024]{1,0} power(f32[16,1024]{1,0} %add.349, f32[16,1024]{1,0} %broadcast.360), metadata={op_type="aten__pow" op_name="aten__pow" source_file="/usr/local/lib/python3.10/site-packages/torch/_ops.py" source_line=756}
  %constant.362 = f32[] constant(0), metadata={op_type="aten__mean" op_name="aten__mean" source_file="/usr/local/lib/python3.10/site-packages/torch/_ops.py" source_line=756}
  %reduce.368 = f32[16]{0} reduce(f32[16,1024]{1,0} %power.361, f32[] %constant.362), dimensions={1}, to_apply=%AddComputation.364, metadata={op_type="aten__mean" op_name="aten__mean" source_file="/usr/local/lib/python3.10/site-packages/torch/_ops.py" source_line=756}
  %constant.363 = s32[] constant(1024), metadata={op_type="aten__mean" op_name="aten__mean" source_file="/usr/local/lib/python3.10/site-packages/torch/_ops.py" source_line=756}
  %constant.369 = s32[] constant(0), metadata={op_type="aten__mean" op_name="aten__mean" source_file="/usr/local/lib/python3.10/site-packages/torch/_ops.py" source_line=756}
  %compare.374 = pred[] compare(s32[] %constant.363, s32[] %constant.369), direction=NE, metadata={op_type="aten__mean" op_name="aten__mean" source_file="/usr/local/lib/python3.10/site-packages/torch/_ops.py" source_line=756}
  %constant.370 = f32[] constant(1), metadata={op_type="aten__mean" op_name="aten__mean" source_file="/usr/local/lib/python3.10/site-packages/torch/_ops.py" source_line=756}
  %convert.372 = f32[] convert(s32[] %constant.363), metadata={op_type="aten__mean" op_name="aten__mean" source_file="/usr/local/lib/python3.10/site-packages/torch/_ops.py" source_line=756}
  %divide.373 = f32[] divide(f32[] %constant.370, f32[] %convert.372), metadata={op_type="aten__mean" op_name="aten__mean" source_file="/usr/local/lib/python3.10/site-packages/torch/_ops.py" source_line=756}
  %constant.371 = f32[] constant(nan), metadata={op_type="aten__mean" op_name="aten__mean" source_file="/usr/local/lib/python3.10/site-packages/torch/_ops.py" source_line=756}
  %select.375 = f32[] select(pred[] %compare.374, f32[] %divide.373, f32[] %constant.371), metadata={op_type="aten__mean" op_name="aten__mean" source_file="/usr/local/lib/python3.10/site-packages/torch/_ops.py" source_line=756}
  %broadcast.376 = f32[16]{0} broadcast(f32[] %select.375), dimensions={}, metadata={op_type="aten__mean" op_name="aten__mean" source_file="/usr/local/lib/python3.10/site-packages/torch/_ops.py" source_line=756}
  %multiply.377 = f32[16]{0} multiply(f32[16]{0} %reduce.368, f32[16]{0} %broadcast.376), metadata={op_type="aten__mean" op_name="aten__mean" source_file="/usr/local/lib/python3.10/site-packages/torch/_ops.py" source_line=756}
  %reshape.378 = f32[16,1]{1,0} reshape(f32[16]{0} %multiply.377), metadata={op_type="aten__mean" op_name="aten__mean" source_file="/usr/local/lib/python3.10/site-packages/torch/_ops.py" source_line=756}
  %convert.379 = f32[16,1]{1,0} convert(f32[16,1]{1,0} %reshape.378), metadata={op_type="aten__mean" op_name="aten__mean" source_file="/usr/local/lib/python3.10/site-packages/torch/_ops.py" source_line=756}
  %constant.358 = f32[] constant(1), metadata={op_type="prim__Constant" op_name="prim__Constant" source_file="/usr/local/lib/python3.10/site-packages/torch/_ops.py" source_line=756}
  %multiply.380 = f32[] multiply(f32[] %p1.4, f32[] %constant.358), metadata={op_type="aten__add" op_name="aten__add.86/aten__add" source_file="/usr/local/lib/python3.10/site-packages/torch/_ops.py" source_line=756}
  %broadcast.381 = f32[16,1]{1,0} broadcast(f32[] %multiply.380), dimensions={}, metadata={op_type="aten__add" op_name="aten__add.86/aten__add" source_file="/usr/local/lib/python3.10/site-packages/torch/_ops.py" source_line=756}
  %add.382 = f32[16,1]{1,0} add(f32[16,1]{1,0} %convert.379, f32[16,1]{1,0} %broadcast.381), metadata={op_type="aten__add" op_name="aten__add.86/aten__add" source_file="/usr/local/lib/python3.10/site-packages/torch/_ops.py" source_line=756}
  %rsqrt.383 = f32[16,1]{1,0} rsqrt(f32[16,1]{1,0} %add.382), metadata={op_type="aten__rsqrt" op_name="aten__rsqrt" source_file="/usr/local/lib/python3.10/site-packages/torch/_ops.py" source_line=756}
  %reshape.384 = f32[16]{0} reshape(f32[16,1]{1,0} %rsqrt.383), metadata={op_type="aten__mul" op_name="aten__mul.87/aten__mul" source_file="/usr/local/lib/python3.10/site-packages/torch/_ops.py" source_line=756}
  %broadcast.385 = f32[16,1024]{1,0} broadcast(f32[16]{0} %reshape.384), dimensions={0}, metadata={op_type="aten__mul" op_name="aten__mul.87/aten__mul" source_file="/usr/local/lib/python3.10/site-packages/torch/_ops.py" source_line=756}
  %multiply.386 = f32[16,1024]{1,0} multiply(f32[16,1024]{1,0} %add.349, f32[16,1024]{1,0} %broadcast.385), metadata={op_type="aten__mul" op_name="aten__mul.87/aten__mul" source_file="/usr/local/lib/python3.10/site-packages/torch/_ops.py" source_line=756}
  %convert.387 = bf16[16,1024]{1,0} convert(f32[16,1024]{1,0} %multiply.386), metadata={op_type="xla__cast" op_name="xla__cast" source_file="/usr/local/lib/python3.10/site-packages/torch/_ops.py" source_line=756}
  %convert.388 = f32[16,1024]{1,0} convert(bf16[16,1024]{1,0} %convert.387), metadata={op_type="xla__cast" op_name="xla__cast" source_file="/usr/local/lib/python3.10/site-packages/torch/_ops.py" source_line=756}
  %p25.356 = bf16[1024]{0} parameter(25), metadata={op_type="xla__device_data" op_name="xla__device_data" source_file="/usr/local/lib/python3.10/site-packages/torch_xla/_dynamo/dynamo_bridge.py" source_line=355}
  %convert.357 = f32[1024]{0} convert(bf16[1024]{0} %p25.356), metadata={op_type="xla__cast" op_name="xla__cast" source_file="/usr/local/lib/python3.10/site-packages/torch/_ops.py" source_line=756}
  %broadcast.389 = f32[16,1024]{1,0} broadcast(f32[1024]{0} %convert.357), dimensions={1}, metadata={op_type="aten__mul" op_name="aten__mul.88/aten__mul" source_file="/usr/local/lib/python3.10/site-packages/torch/_ops.py" source_line=756}
  %multiply.390 = f32[16,1024]{1,0} multiply(f32[16,1024]{1,0} %convert.388, f32[16,1024]{1,0} %broadcast.389), metadata={op_type="aten__mul" op_name="aten__mul.88/aten__mul" source_file="/usr/local/lib/python3.10/site-packages/torch/_ops.py" source_line=756}
  %convert.391 = bf16[16,1024]{1,0} convert(f32[16,1024]{1,0} %multiply.390), metadata={op_type="xla__cast" op_name="xla__cast" source_file="/usr/local/lib/python3.10/site-packages/torch/_ops.py" source_line=756}
  %p24.354 = bf16[6144,1024]{1,0} parameter(24), metadata={op_type="xla__device_data" op_name="xla__device_data" source_file="/usr/local/lib/python3.10/site-packages/torch_xla/_dynamo/dynamo_bridge.py" source_line=355}
  %transpose.355 = bf16[1024,6144]{0,1} transpose(bf16[6144,1024]{1,0} %p24.354), dimensions={1,0}, metadata={op_type="aten__permute" op_name="aten__permute" source_file="/usr/local/lib/python3.10/site-packages/torch/_ops.py" source_line=756}
  %dot.392 = bf16[16,6144]{1,0} dot(bf16[16,1024]{1,0} %convert.391, bf16[1024,6144]{0,1} %transpose.355), lhs_contracting_dims={1}, rhs_contracting_dims={0}, metadata={op_type="aten__mm" op_name="aten__mm" source_file="/usr/local/lib/python3.10/site-packages/torch/_ops.py" source_line=756}
  %slice.395 = bf16[16,3072]{1,0} slice(bf16[16,6144]{1,0} %dot.392), slice={[0:16], [0:3072]}, metadata={op_type="xla__select" op_name="xla__select" source_file="/usr/local/lib/python3.10/site-packages/torch/_ops.py" source_line=756}
  %logistic.396 = bf16[16,3072]{1,0} logistic(bf16[16,3072]{1,0} %slice.395), metadata={op_type="aten__silu" op_name="aten__silu" source_file="/usr/local/lib/python3.10/site-packages/torch/_ops.py" source_line=756}
  %multiply.397 = bf16[16,3072]{1,0} multiply(bf16[16,3072]{1,0} %slice.395, bf16[16,3072]{1,0} %logistic.396), metadata={op_type="aten__silu" op_name="aten__silu" source_file="/usr/local/lib/python3.10/site-packages/torch/_ops.py" source_line=756}
  %convert.398 = f32[16,3072]{1,0} convert(bf16[16,3072]{1,0} %multiply.397), metadata={op_type="xla__cast" op_name="xla__cast" source_file="/usr/local/lib/python3.10/site-packages/torch/_ops.py" source_line=756}
  %slice.393 = bf16[16,3072]{1,0} slice(bf16[16,6144]{1,0} %dot.392), slice={[0:16], [3072:6144]}, metadata={op_type="xla__select" op_name="xla__select" source_file="/usr/local/lib/python3.10/site-packages/torch/_ops.py" source_line=756}
  %convert.394 = f32[16,3072]{1,0} convert(bf16[16,3072]{1,0} %slice.393), metadata={op_type="xla__cast" op_name="xla__cast" source_file="/usr/local/lib/python3.10/site-packages/torch/_ops.py" source_line=756}
  %multiply.399 = f32[16,3072]{1,0} multiply(f32[16,3072]{1,0} %convert.398, f32[16,3072]{1,0} %convert.394), metadata={op_type="aten__mul" op_name="aten__mul.89/aten__mul" source_file="/usr/local/lib/python3.10/site-packages/torch/_ops.py" source_line=756}
  %convert.400 = bf16[16,3072]{1,0} convert(f32[16,3072]{1,0} %multiply.399), metadata={op_type="xla__cast" op_name="xla__cast" source_file="/usr/local/lib/python3.10/site-packages/torch/_ops.py" source_line=756}
  %p23.352 = bf16[1024,3072]{1,0} parameter(23), metadata={op_type="xla__device_data" op_name="xla__device_data" source_file="/usr/local/lib/python3.10/site-packages/torch_xla/_dynamo/dynamo_bridge.py" source_line=355}
  %transpose.353 = bf16[3072,1024]{0,1} transpose(bf16[1024,3072]{1,0} %p23.352), dimensions={1,0}, metadata={op_type="aten__permute" op_name="aten__permute" source_file="/usr/local/lib/python3.10/site-packages/torch/_ops.py" source_line=756}
  %dot.401 = bf16[16,1024]{1,0} dot(bf16[16,3072]{1,0} %convert.400, bf16[3072,1024]{0,1} %transpose.353), lhs_contracting_dims={1}, rhs_contracting_dims={0}, metadata={op_type="aten__mm" op_name="aten__mm" source_file="/usr/local/lib/python3.10/site-packages/torch/_ops.py" source_line=756}
  %convert.402 = f32[16,1024]{1,0} convert(bf16[16,1024]{1,0} %dot.401), metadata={op_type="xla__cast" op_name="xla__cast" source_file="/usr/local/lib/python3.10/site-packages/torch/_ops.py" source_line=756}
  %convert.350 = bf16[16,1024]{1,0} convert(f32[16,1024]{1,0} %add.349), metadata={op_type="xla__cast" op_name="xla__cast" source_file="/usr/local/lib/python3.10/site-packages/torch/_ops.py" source_line=756}
  %convert.351 = f32[16,1024]{1,0} convert(bf16[16,1024]{1,0} %convert.350), metadata={op_type="xla__cast" op_name="xla__cast" source_file="/usr/local/lib/python3.10/site-packages/torch/_ops.py" source_line=756}
  %constant.32 = f32[] constant(1), metadata={op_type="prim__Constant" op_name="prim__Constant" source_file="/usr/local/lib/python3.10/site-packages/torch/_ops.py" source_line=756}
  %broadcast.403 = f32[16,1024]{1,0} broadcast(f32[] %constant.32), dimensions={}, metadata={op_type="aten__add" op_name="aten__add.90/aten__add" source_file="/usr/local/lib/python3.10/site-packages/torch/_ops.py" source_line=756}
  %multiply.404 = f32[16,1024]{1,0} multiply(f32[16,1024]{1,0} %convert.351, f32[16,1024]{1,0} %broadcast.403), metadata={op_type="aten__add" op_name="aten__add.90/aten__add" source_file="/usr/local/lib/python3.10/site-packages/torch/_ops.py" source_line=756}
  %add.405 = f32[16,1024]{1,0} add(f32[16,1024]{1,0} %convert.402, f32[16,1024]{1,0} %multiply.404), metadata={op_type="aten__add" op_name="aten__add.90/aten__add" source_file="/usr/local/lib/python3.10/site-packages/torch/_ops.py" source_line=756}
  %convert.406 = bf16[16,1024]{1,0} convert(f32[16,1024]{1,0} %add.405), metadata={op_type="xla__cast" op_name="xla__cast" source_file="/usr/local/lib/python3.10/site-packages/torch/_ops.py" source_line=756}
  %convert.407 = f32[16,1024]{1,0} convert(bf16[16,1024]{1,0} %convert.406), metadata={op_type="xla__cast" op_name="xla__cast" source_file="/usr/local/lib/python3.10/site-packages/torch/_ops.py" source_line=756}
  %constant.31 = f32[] constant(1), metadata={op_type="prim__Constant" op_name="prim__Constant" source_file="/usr/local/lib/python3.10/site-packages/torch/_ops.py" source_line=756}
  %broadcast.419 = f32[16,1024]{1,0} broadcast(f32[] %constant.31), dimensions={}, metadata={op_type="aten__add" op_name="aten__add.103/aten__add" source_file="/usr/local/lib/python3.10/site-packages/torch/_ops.py" source_line=756}
  %multiply.420 = f32[16,1024]{1,0} multiply(f32[16,1024]{1,0} %convert.407, f32[16,1024]{1,0} %broadcast.419), metadata={op_type="aten__add" op_name="aten__add.103/aten__add" source_file="/usr/local/lib/python3.10/site-packages/torch/_ops.py" source_line=756}
  %add.421 = f32[16,1024]{1,0} add(f32[16,1024]{1,0} %convert.418, f32[16,1024]{1,0} %multiply.420), metadata={op_type="aten__add" op_name="aten__add.103/aten__add" source_file="/usr/local/lib/python3.10/site-packages/torch/_ops.py" source_line=756}
  %constant.431 = f32[] constant(2), metadata={op_type="prim__Constant" op_name="prim__Constant" source_file="/usr/local/lib/python3.10/site-packages/torch/_ops.py" source_line=756}
  %broadcast.432 = f32[16,1024]{1,0} broadcast(f32[] %constant.431), dimensions={}, metadata={op_type="aten__pow" op_name="aten__pow" source_file="/usr/local/lib/python3.10/site-packages/torch/_ops.py" source_line=756}
  %power.433 = f32[16,1024]{1,0} power(f32[16,1024]{1,0} %add.421, f32[16,1024]{1,0} %broadcast.432), metadata={op_type="aten__pow" op_name="aten__pow" source_file="/usr/local/lib/python3.10/site-packages/torch/_ops.py" source_line=756}
  %constant.434 = f32[] constant(0), metadata={op_type="aten__mean" op_name="aten__mean" source_file="/usr/local/lib/python3.10/site-packages/torch/_ops.py" source_line=756}
  %reduce.440 = f32[16]{0} reduce(f32[16,1024]{1,0} %power.433, f32[] %constant.434), dimensions={1}, to_apply=%AddComputation.436, metadata={op_type="aten__mean" op_name="aten__mean" source_file="/usr/local/lib/python3.10/site-packages/torch/_ops.py" source_line=756}
  %constant.435 = s32[] constant(1024), metadata={op_type="aten__mean" op_name="aten__mean" source_file="/usr/local/lib/python3.10/site-packages/torch/_ops.py" source_line=756}
  %constant.441 = s32[] constant(0), metadata={op_type="aten__mean" op_name="aten__mean" source_file="/usr/local/lib/python3.10/site-packages/torch/_ops.py" source_line=756}
  %compare.446 = pred[] compare(s32[] %constant.435, s32[] %constant.441), direction=NE, metadata={op_type="aten__mean" op_name="aten__mean" source_file="/usr/local/lib/python3.10/site-packages/torch/_ops.py" source_line=756}
  %constant.442 = f32[] constant(1), metadata={op_type="aten__mean" op_name="aten__mean" source_file="/usr/local/lib/python3.10/site-packages/torch/_ops.py" source_line=756}
  %convert.444 = f32[] convert(s32[] %constant.435), metadata={op_type="aten__mean" op_name="aten__mean" source_file="/usr/local/lib/python3.10/site-packages/torch/_ops.py" source_line=756}
  %divide.445 = f32[] divide(f32[] %constant.442, f32[] %convert.444), metadata={op_type="aten__mean" op_name="aten__mean" source_file="/usr/local/lib/python3.10/site-packages/torch/_ops.py" source_line=756}
  %constant.443 = f32[] constant(nan), metadata={op_type="aten__mean" op_name="aten__mean" source_file="/usr/local/lib/python3.10/site-packages/torch/_ops.py" source_line=756}
  %select.447 = f32[] select(pred[] %compare.446, f32[] %divide.445, f32[] %constant.443), metadata={op_type="aten__mean" op_name="aten__mean" source_file="/usr/local/lib/python3.10/site-packages/torch/_ops.py" source_line=756}
  %broadcast.448 = f32[16]{0} broadcast(f32[] %select.447), dimensions={}, metadata={op_type="aten__mean" op_name="aten__mean" source_file="/usr/local/lib/python3.10/site-packages/torch/_ops.py" source_line=756}
  %multiply.449 = f32[16]{0} multiply(f32[16]{0} %reduce.440, f32[16]{0} %broadcast.448), metadata={op_type="aten__mean" op_name="aten__mean" source_file="/usr/local/lib/python3.10/site-packages/torch/_ops.py" source_line=756}
  %reshape.450 = f32[16,1]{1,0} reshape(f32[16]{0} %multiply.449), metadata={op_type="aten__mean" op_name="aten__mean" source_file="/usr/local/lib/python3.10/site-packages/torch/_ops.py" source_line=756}
  %convert.451 = f32[16,1]{1,0} convert(f32[16,1]{1,0} %reshape.450), metadata={op_type="aten__mean" op_name="aten__mean" source_file="/usr/local/lib/python3.10/site-packages/torch/_ops.py" source_line=756}
  %constant.430 = f32[] constant(1), metadata={op_type="prim__Constant" op_name="prim__Constant" source_file="/usr/local/lib/python3.10/site-packages/torch/_ops.py" source_line=756}
  %multiply.452 = f32[] multiply(f32[] %p1.4, f32[] %constant.430), metadata={op_type="aten__add" op_name="aten__add.104/aten__add" source_file="/usr/local/lib/python3.10/site-packages/torch/_ops.py" source_line=756}
  %broadcast.453 = f32[16,1]{1,0} broadcast(f32[] %multiply.452), dimensions={}, metadata={op_type="aten__add" op_name="aten__add.104/aten__add" source_file="/usr/local/lib/python3.10/site-packages/torch/_ops.py" source_line=756}
  %add.454 = f32[16,1]{1,0} add(f32[16,1]{1,0} %convert.451, f32[16,1]{1,0} %broadcast.453), metadata={op_type="aten__add" op_name="aten__add.104/aten__add" source_file="/usr/local/lib/python3.10/site-packages/torch/_ops.py" source_line=756}
  %rsqrt.455 = f32[16,1]{1,0} rsqrt(f32[16,1]{1,0} %add.454), metadata={op_type="aten__rsqrt" op_name="aten__rsqrt" source_file="/usr/local/lib/python3.10/site-packages/torch/_ops.py" source_line=756}
  %reshape.456 = f32[16]{0} reshape(f32[16,1]{1,0} %rsqrt.455), metadata={op_type="aten__mul" op_name="aten__mul.105/aten__mul" source_file="/usr/local/lib/python3.10/site-packages/torch/_ops.py" source_line=756}
  %broadcast.457 = f32[16,1024]{1,0} broadcast(f32[16]{0} %reshape.456), dimensions={0}, metadata={op_type="aten__mul" op_name="aten__mul.105/aten__mul" source_file="/usr/local/lib/python3.10/site-packages/torch/_ops.py" source_line=756}
  %multiply.458 = f32[16,1024]{1,0} multiply(f32[16,1024]{1,0} %add.421, f32[16,1024]{1,0} %broadcast.457), metadata={op_type="aten__mul" op_name="aten__mul.105/aten__mul" source_file="/usr/local/lib/python3.10/site-packages/torch/_ops.py" source_line=756}
  %convert.459 = bf16[16,1024]{1,0} convert(f32[16,1024]{1,0} %multiply.458), metadata={op_type="xla__cast" op_name="xla__cast" source_file="/usr/local/lib/python3.10/site-packages/torch/_ops.py" source_line=756}
  %convert.460 = f32[16,1024]{1,0} convert(bf16[16,1024]{1,0} %convert.459), metadata={op_type="xla__cast" op_name="xla__cast" source_file="/usr/local/lib/python3.10/site-packages/torch/_ops.py" source_line=756}
  %p29.428 = bf16[1024]{0} parameter(29), metadata={op_type="xla__device_data" op_name="xla__device_data" source_file="/usr/local/lib/python3.10/site-packages/torch_xla/_dynamo/dynamo_bridge.py" source_line=355}
  %convert.429 = f32[1024]{0} convert(bf16[1024]{0} %p29.428), metadata={op_type="xla__cast" op_name="xla__cast" source_file="/usr/local/lib/python3.10/site-packages/torch/_ops.py" source_line=756}
  %broadcast.461 = f32[16,1024]{1,0} broadcast(f32[1024]{0} %convert.429), dimensions={1}, metadata={op_type="aten__mul" op_name="aten__mul.106/aten__mul" source_file="/usr/local/lib/python3.10/site-packages/torch/_ops.py" source_line=756}
  %multiply.462 = f32[16,1024]{1,0} multiply(f32[16,1024]{1,0} %convert.460, f32[16,1024]{1,0} %broadcast.461), metadata={op_type="aten__mul" op_name="aten__mul.106/aten__mul" source_file="/usr/local/lib/python3.10/site-packages/torch/_ops.py" source_line=756}
  %convert.463 = bf16[16,1024]{1,0} convert(f32[16,1024]{1,0} %multiply.462), metadata={op_type="xla__cast" op_name="xla__cast" source_file="/usr/local/lib/python3.10/site-packages/torch/_ops.py" source_line=756}
  %p28.426 = bf16[6144,1024]{1,0} parameter(28), metadata={op_type="xla__device_data" op_name="xla__device_data" source_file="/usr/local/lib/python3.10/site-packages/torch_xla/_dynamo/dynamo_bridge.py" source_line=355}
  %transpose.427 = bf16[1024,6144]{0,1} transpose(bf16[6144,1024]{1,0} %p28.426), dimensions={1,0}, metadata={op_type="aten__permute" op_name="aten__permute" source_file="/usr/local/lib/python3.10/site-packages/torch/_ops.py" source_line=756}
  %dot.464 = bf16[16,6144]{1,0} dot(bf16[16,1024]{1,0} %convert.463, bf16[1024,6144]{0,1} %transpose.427), lhs_contracting_dims={1}, rhs_contracting_dims={0}, metadata={op_type="aten__mm" op_name="aten__mm" source_file="/usr/local/lib/python3.10/site-packages/torch/_ops.py" source_line=756}
  %slice.467 = bf16[16,3072]{1,0} slice(bf16[16,6144]{1,0} %dot.464), slice={[0:16], [0:3072]}, metadata={op_type="xla__select" op_name="xla__select" source_file="/usr/local/lib/python3.10/site-packages/torch/_ops.py" source_line=756}
  %logistic.468 = bf16[16,3072]{1,0} logistic(bf16[16,3072]{1,0} %slice.467), metadata={op_type="aten__silu" op_name="aten__silu" source_file="/usr/local/lib/python3.10/site-packages/torch/_ops.py" source_line=756}
  %multiply.469 = bf16[16,3072]{1,0} multiply(bf16[16,3072]{1,0} %slice.467, bf16[16,3072]{1,0} %logistic.468), metadata={op_type="aten__silu" op_name="aten__silu" source_file="/usr/local/lib/python3.10/site-packages/torch/_ops.py" source_line=756}
  %convert.470 = f32[16,3072]{1,0} convert(bf16[16,3072]{1,0} %multiply.469), metadata={op_type="xla__cast" op_name="xla__cast" source_file="/usr/local/lib/python3.10/site-packages/torch/_ops.py" source_line=756}
  %slice.465 = bf16[16,3072]{1,0} slice(bf16[16,6144]{1,0} %dot.464), slice={[0:16], [3072:6144]}, metadata={op_type="xla__select" op_name="xla__select" source_file="/usr/local/lib/python3.10/site-packages/torch/_ops.py" source_line=756}
  %convert.466 = f32[16,3072]{1,0} convert(bf16[16,3072]{1,0} %slice.465), metadata={op_type="xla__cast" op_name="xla__cast" source_file="/usr/local/lib/python3.10/site-packages/torch/_ops.py" source_line=756}
  %multiply.471 = f32[16,3072]{1,0} multiply(f32[16,3072]{1,0} %convert.470, f32[16,3072]{1,0} %convert.466), metadata={op_type="aten__mul" op_name="aten__mul.107/aten__mul" source_file="/usr/local/lib/python3.10/site-packages/torch/_ops.py" source_line=756}
  %convert.472 = bf16[16,3072]{1,0} convert(f32[16,3072]{1,0} %multiply.471), metadata={op_type="xla__cast" op_name="xla__cast" source_file="/usr/local/lib/python3.10/site-packages/torch/_ops.py" source_line=756}
  %p27.424 = bf16[1024,3072]{1,0} parameter(27), metadata={op_type="xla__device_data" op_name="xla__device_data" source_file="/usr/local/lib/python3.10/site-packages/torch_xla/_dynamo/dynamo_bridge.py" source_line=355}
  %transpose.425 = bf16[3072,1024]{0,1} transpose(bf16[1024,3072]{1,0} %p27.424), dimensions={1,0}, metadata={op_type="aten__permute" op_name="aten__permute" source_file="/usr/local/lib/python3.10/site-packages/torch/_ops.py" source_line=756}
  %dot.473 = bf16[16,1024]{1,0} dot(bf16[16,3072]{1,0} %convert.472, bf16[3072,1024]{0,1} %transpose.425), lhs_contracting_dims={1}, rhs_contracting_dims={0}, metadata={op_type="aten__mm" op_name="aten__mm" source_file="/usr/local/lib/python3.10/site-packages/torch/_ops.py" source_line=756}
  %convert.474 = f32[16,1024]{1,0} convert(bf16[16,1024]{1,0} %dot.473), metadata={op_type="xla__cast" op_name="xla__cast" source_file="/usr/local/lib/python3.10/site-packages/torch/_ops.py" source_line=756}
  %convert.422 = bf16[16,1024]{1,0} convert(f32[16,1024]{1,0} %add.421), metadata={op_type="xla__cast" op_name="xla__cast" source_file="/usr/local/lib/python3.10/site-packages/torch/_ops.py" source_line=756}
  %convert.423 = f32[16,1024]{1,0} convert(bf16[16,1024]{1,0} %convert.422), metadata={op_type="xla__cast" op_name="xla__cast" source_file="/usr/local/lib/python3.10/site-packages/torch/_ops.py" source_line=756}
  %constant.30 = f32[] constant(1), metadata={op_type="prim__Constant" op_name="prim__Constant" source_file="/usr/local/lib/python3.10/site-packages/torch/_ops.py" source_line=756}
  %broadcast.475 = f32[16,1024]{1,0} broadcast(f32[] %constant.30), dimensions={}, metadata={op_type="aten__add" op_name="aten__add.108/aten__add" source_file="/usr/local/lib/python3.10/site-packages/torch/_ops.py" source_line=756}
  %multiply.476 = f32[16,1024]{1,0} multiply(f32[16,1024]{1,0} %convert.423, f32[16,1024]{1,0} %broadcast.475), metadata={op_type="aten__add" op_name="aten__add.108/aten__add" source_file="/usr/local/lib/python3.10/site-packages/torch/_ops.py" source_line=756}
  %add.477 = f32[16,1024]{1,0} add(f32[16,1024]{1,0} %convert.474, f32[16,1024]{1,0} %multiply.476), metadata={op_type="aten__add" op_name="aten__add.108/aten__add" source_file="/usr/local/lib/python3.10/site-packages/torch/_ops.py" source_line=756}
  %convert.478 = bf16[16,1024]{1,0} convert(f32[16,1024]{1,0} %add.477), metadata={op_type="xla__cast" op_name="xla__cast" source_file="/usr/local/lib/python3.10/site-packages/torch/_ops.py" source_line=756}
  %convert.479 = f32[16,1024]{1,0} convert(bf16[16,1024]{1,0} %convert.478), metadata={op_type="xla__cast" op_name="xla__cast" source_file="/usr/local/lib/python3.10/site-packages/torch/_ops.py" source_line=756}
  %constant.29 = f32[] constant(1), metadata={op_type="prim__Constant" op_name="prim__Constant" source_file="/usr/local/lib/python3.10/site-packages/torch/_ops.py" source_line=756}
  %broadcast.491 = f32[16,1024]{1,0} broadcast(f32[] %constant.29), dimensions={}, metadata={op_type="aten__add" op_name="aten__add.121/aten__add" source_file="/usr/local/lib/python3.10/site-packages/torch/_ops.py" source_line=756}
  %multiply.492 = f32[16,1024]{1,0} multiply(f32[16,1024]{1,0} %convert.479, f32[16,1024]{1,0} %broadcast.491), metadata={op_type="aten__add" op_name="aten__add.121/aten__add" source_file="/usr/local/lib/python3.10/site-packages/torch/_ops.py" source_line=756}
  %add.493 = f32[16,1024]{1,0} add(f32[16,1024]{1,0} %convert.490, f32[16,1024]{1,0} %multiply.492), metadata={op_type="aten__add" op_name="aten__add.121/aten__add" source_file="/usr/local/lib/python3.10/site-packages/torch/_ops.py" source_line=756}
  %constant.503 = f32[] constant(2), metadata={op_type="prim__Constant" op_name="prim__Constant" source_file="/usr/local/lib/python3.10/site-packages/torch/_ops.py" source_line=756}
  %broadcast.504 = f32[16,1024]{1,0} broadcast(f32[] %constant.503), dimensions={}, metadata={op_type="aten__pow" op_name="aten__pow" source_file="/usr/local/lib/python3.10/site-packages/torch/_ops.py" source_line=756}
  %power.505 = f32[16,1024]{1,0} power(f32[16,1024]{1,0} %add.493, f32[16,1024]{1,0} %broadcast.504), metadata={op_type="aten__pow" op_name="aten__pow" source_file="/usr/local/lib/python3.10/site-packages/torch/_ops.py" source_line=756}
  %constant.506 = f32[] constant(0), metadata={op_type="aten__mean" op_name="aten__mean" source_file="/usr/local/lib/python3.10/site-packages/torch/_ops.py" source_line=756}
  %reduce.512 = f32[16]{0} reduce(f32[16,1024]{1,0} %power.505, f32[] %constant.506), dimensions={1}, to_apply=%AddComputation.508, metadata={op_type="aten__mean" op_name="aten__mean" source_file="/usr/local/lib/python3.10/site-packages/torch/_ops.py" source_line=756}
  %constant.507 = s32[] constant(1024), metadata={op_type="aten__mean" op_name="aten__mean" source_file="/usr/local/lib/python3.10/site-packages/torch/_ops.py" source_line=756}
  %constant.513 = s32[] constant(0), metadata={op_type="aten__mean" op_name="aten__mean" source_file="/usr/local/lib/python3.10/site-packages/torch/_ops.py" source_line=756}
  %compare.518 = pred[] compare(s32[] %constant.507, s32[] %constant.513), direction=NE, metadata={op_type="aten__mean" op_name="aten__mean" source_file="/usr/local/lib/python3.10/site-packages/torch/_ops.py" source_line=756}
  %constant.514 = f32[] constant(1), metadata={op_type="aten__mean" op_name="aten__mean" source_file="/usr/local/lib/python3.10/site-packages/torch/_ops.py" source_line=756}
  %convert.516 = f32[] convert(s32[] %constant.507), metadata={op_type="aten__mean" op_name="aten__mean" source_file="/usr/local/lib/python3.10/site-packages/torch/_ops.py" source_line=756}
  %divide.517 = f32[] divide(f32[] %constant.514, f32[] %convert.516), metadata={op_type="aten__mean" op_name="aten__mean" source_file="/usr/local/lib/python3.10/site-packages/torch/_ops.py" source_line=756}
  %constant.515 = f32[] constant(nan), metadata={op_type="aten__mean" op_name="aten__mean" source_file="/usr/local/lib/python3.10/site-packages/torch/_ops.py" source_line=756}
  %select.519 = f32[] select(pred[] %compare.518, f32[] %divide.517, f32[] %constant.515), metadata={op_type="aten__mean" op_name="aten__mean" source_file="/usr/local/lib/python3.10/site-packages/torch/_ops.py" source_line=756}
  %broadcast.520 = f32[16]{0} broadcast(f32[] %select.519), dimensions={}, metadata={op_type="aten__mean" op_name="aten__mean" source_file="/usr/local/lib/python3.10/site-packages/torch/_ops.py" source_line=756}
  %multiply.521 = f32[16]{0} multiply(f32[16]{0} %reduce.512, f32[16]{0} %broadcast.520), metadata={op_type="aten__mean" op_name="aten__mean" source_file="/usr/local/lib/python3.10/site-packages/torch/_ops.py" source_line=756}
  %reshape.522 = f32[16,1]{1,0} reshape(f32[16]{0} %multiply.521), metadata={op_type="aten__mean" op_name="aten__mean" source_file="/usr/local/lib/python3.10/site-packages/torch/_ops.py" source_line=756}
  %convert.523 = f32[16,1]{1,0} convert(f32[16,1]{1,0} %reshape.522), metadata={op_type="aten__mean" op_name="aten__mean" source_file="/usr/local/lib/python3.10/site-packages/torch/_ops.py" source_line=756}
  %constant.502 = f32[] constant(1), metadata={op_type="prim__Constant" op_name="prim__Constant" source_file="/usr/local/lib/python3.10/site-packages/torch/_ops.py" source_line=756}
  %multiply.524 = f32[] multiply(f32[] %p1.4, f32[] %constant.502), metadata={op_type="aten__add" op_name="aten__add.122/aten__add" source_file="/usr/local/lib/python3.10/site-packages/torch/_ops.py" source_line=756}
  %broadcast.525 = f32[16,1]{1,0} broadcast(f32[] %multiply.524), dimensions={}, metadata={op_type="aten__add" op_name="aten__add.122/aten__add" source_file="/usr/local/lib/python3.10/site-packages/torch/_ops.py" source_line=756}
  %add.526 = f32[16,1]{1,0} add(f32[16,1]{1,0} %convert.523, f32[16,1]{1,0} %broadcast.525), metadata={op_type="aten__add" op_name="aten__add.122/aten__add" source_file="/usr/local/lib/python3.10/site-packages/torch/_ops.py" source_line=756}
  %rsqrt.527 = f32[16,1]{1,0} rsqrt(f32[16,1]{1,0} %add.526), metadata={op_type="aten__rsqrt" op_name="aten__rsqrt" source_file="/usr/local/lib/python3.10/site-packages/torch/_ops.py" source_line=756}
  %reshape.528 = f32[16]{0} reshape(f32[16,1]{1,0} %rsqrt.527), metadata={op_type="aten__mul" op_name="aten__mul.123/aten__mul" source_file="/usr/local/lib/python3.10/site-packages/torch/_ops.py" source_line=756}
  %broadcast.529 = f32[16,1024]{1,0} broadcast(f32[16]{0} %reshape.528), dimensions={0}, metadata={op_type="aten__mul" op_name="aten__mul.123/aten__mul" source_file="/usr/local/lib/python3.10/site-packages/torch/_ops.py" source_line=756}
  %multiply.530 = f32[16,1024]{1,0} multiply(f32[16,1024]{1,0} %add.493, f32[16,1024]{1,0} %broadcast.529), metadata={op_type="aten__mul" op_name="aten__mul.123/aten__mul" source_file="/usr/local/lib/python3.10/site-packages/torch/_ops.py" source_line=756}
  %convert.531 = bf16[16,1024]{1,0} convert(f32[16,1024]{1,0} %multiply.530), metadata={op_type="xla__cast" op_name="xla__cast" source_file="/usr/local/lib/python3.10/site-packages/torch/_ops.py" source_line=756}
  %convert.532 = f32[16,1024]{1,0} convert(bf16[16,1024]{1,0} %convert.531), metadata={op_type="xla__cast" op_name="xla__cast" source_file="/usr/local/lib/python3.10/site-packages/torch/_ops.py" source_line=756}
  %p33.500 = bf16[1024]{0} parameter(33), metadata={op_type="xla__device_data" op_name="xla__device_data" source_file="/usr/local/lib/python3.10/site-packages/torch_xla/_dynamo/dynamo_bridge.py" source_line=355}
  %convert.501 = f32[1024]{0} convert(bf16[1024]{0} %p33.500), metadata={op_type="xla__cast" op_name="xla__cast" source_file="/usr/local/lib/python3.10/site-packages/torch/_ops.py" source_line=756}
  %broadcast.533 = f32[16,1024]{1,0} broadcast(f32[1024]{0} %convert.501), dimensions={1}, metadata={op_type="aten__mul" op_name="aten__mul.124/aten__mul" source_file="/usr/local/lib/python3.10/site-packages/torch/_ops.py" source_line=756}
  %multiply.534 = f32[16,1024]{1,0} multiply(f32[16,1024]{1,0} %convert.532, f32[16,1024]{1,0} %broadcast.533), metadata={op_type="aten__mul" op_name="aten__mul.124/aten__mul" source_file="/usr/local/lib/python3.10/site-packages/torch/_ops.py" source_line=756}
  %convert.535 = bf16[16,1024]{1,0} convert(f32[16,1024]{1,0} %multiply.534), metadata={op_type="xla__cast" op_name="xla__cast" source_file="/usr/local/lib/python3.10/site-packages/torch/_ops.py" source_line=756}
  %p32.498 = bf16[6144,1024]{1,0} parameter(32), metadata={op_type="xla__device_data" op_name="xla__device_data" source_file="/usr/local/lib/python3.10/site-packages/torch_xla/_dynamo/dynamo_bridge.py" source_line=355}
  %transpose.499 = bf16[1024,6144]{0,1} transpose(bf16[6144,1024]{1,0} %p32.498), dimensions={1,0}, metadata={op_type="aten__permute" op_name="aten__permute" source_file="/usr/local/lib/python3.10/site-packages/torch/_ops.py" source_line=756}
  %dot.536 = bf16[16,6144]{1,0} dot(bf16[16,1024]{1,0} %convert.535, bf16[1024,6144]{0,1} %transpose.499), lhs_contracting_dims={1}, rhs_contracting_dims={0}, metadata={op_type="aten__mm" op_name="aten__mm" source_file="/usr/local/lib/python3.10/site-packages/torch/_ops.py" source_line=756}
  %slice.539 = bf16[16,3072]{1,0} slice(bf16[16,6144]{1,0} %dot.536), slice={[0:16], [0:3072]}, metadata={op_type="xla__select" op_name="xla__select" source_file="/usr/local/lib/python3.10/site-packages/torch/_ops.py" source_line=756}
  %logistic.540 = bf16[16,3072]{1,0} logistic(bf16[16,3072]{1,0} %slice.539), metadata={op_type="aten__silu" op_name="aten__silu" source_file="/usr/local/lib/python3.10/site-packages/torch/_ops.py" source_line=756}
  %multiply.541 = bf16[16,3072]{1,0} multiply(bf16[16,3072]{1,0} %slice.539, bf16[16,3072]{1,0} %logistic.540), metadata={op_type="aten__silu" op_name="aten__silu" source_file="/usr/local/lib/python3.10/site-packages/torch/_ops.py" source_line=756}
  %convert.542 = f32[16,3072]{1,0} convert(bf16[16,3072]{1,0} %multiply.541), metadata={op_type="xla__cast" op_name="xla__cast" source_file="/usr/local/lib/python3.10/site-packages/torch/_ops.py" source_line=756}
  %slice.537 = bf16[16,3072]{1,0} slice(bf16[16,6144]{1,0} %dot.536), slice={[0:16], [3072:6144]}, metadata={op_type="xla__select" op_name="xla__select" source_file="/usr/local/lib/python3.10/site-packages/torch/_ops.py" source_line=756}
  %convert.538 = f32[16,3072]{1,0} convert(bf16[16,3072]{1,0} %slice.537), metadata={op_type="xla__cast" op_name="xla__cast" source_file="/usr/local/lib/python3.10/site-packages/torch/_ops.py" source_line=756}
  %multiply.543 = f32[16,3072]{1,0} multiply(f32[16,3072]{1,0} %convert.542, f32[16,3072]{1,0} %convert.538), metadata={op_type="aten__mul" op_name="aten__mul.125/aten__mul" source_file="/usr/local/lib/python3.10/site-packages/torch/_ops.py" source_line=756}
  %convert.544 = bf16[16,3072]{1,0} convert(f32[16,3072]{1,0} %multiply.543), metadata={op_type="xla__cast" op_name="xla__cast" source_file="/usr/local/lib/python3.10/site-packages/torch/_ops.py" source_line=756}
  %p31.496 = bf16[1024,3072]{1,0} parameter(31), metadata={op_type="xla__device_data" op_name="xla__device_data" source_file="/usr/local/lib/python3.10/site-packages/torch_xla/_dynamo/dynamo_bridge.py" source_line=355}
  %transpose.497 = bf16[3072,1024]{0,1} transpose(bf16[1024,3072]{1,0} %p31.496), dimensions={1,0}, metadata={op_type="aten__permute" op_name="aten__permute" source_file="/usr/local/lib/python3.10/site-packages/torch/_ops.py" source_line=756}
  %dot.545 = bf16[16,1024]{1,0} dot(bf16[16,3072]{1,0} %convert.544, bf16[3072,1024]{0,1} %transpose.497), lhs_contracting_dims={1}, rhs_contracting_dims={0}, metadata={op_type="aten__mm" op_name="aten__mm" source_file="/usr/local/lib/python3.10/site-packages/torch/_ops.py" source_line=756}
  %convert.546 = f32[16,1024]{1,0} convert(bf16[16,1024]{1,0} %dot.545), metadata={op_type="xla__cast" op_name="xla__cast" source_file="/usr/local/lib/python3.10/site-packages/torch/_ops.py" source_line=756}
  %convert.494 = bf16[16,1024]{1,0} convert(f32[16,1024]{1,0} %add.493), metadata={op_type="xla__cast" op_name="xla__cast" source_file="/usr/local/lib/python3.10/site-packages/torch/_ops.py" source_line=756}
  %convert.495 = f32[16,1024]{1,0} convert(bf16[16,1024]{1,0} %convert.494), metadata={op_type="xla__cast" op_name="xla__cast" source_file="/usr/local/lib/python3.10/site-packages/torch/_ops.py" source_line=756}
  %constant.28 = f32[] constant(1), metadata={op_type="prim__Constant" op_name="prim__Constant" source_file="/usr/local/lib/python3.10/site-packages/torch/_ops.py" source_line=756}
  %broadcast.547 = f32[16,1024]{1,0} broadcast(f32[] %constant.28), dimensions={}, metadata={op_type="aten__add" op_name="aten__add.126/aten__add" source_file="/usr/local/lib/python3.10/site-packages/torch/_ops.py" source_line=756}
  %multiply.548 = f32[16,1024]{1,0} multiply(f32[16,1024]{1,0} %convert.495, f32[16,1024]{1,0} %broadcast.547), metadata={op_type="aten__add" op_name="aten__add.126/aten__add" source_file="/usr/local/lib/python3.10/site-packages/torch/_ops.py" source_line=756}
  %add.549 = f32[16,1024]{1,0} add(f32[16,1024]{1,0} %convert.546, f32[16,1024]{1,0} %multiply.548), metadata={op_type="aten__add" op_name="aten__add.126/aten__add" source_file="/usr/local/lib/python3.10/site-packages/torch/_ops.py" source_line=756}
  %convert.550 = bf16[16,1024]{1,0} convert(f32[16,1024]{1,0} %add.549), metadata={op_type="xla__cast" op_name="xla__cast" source_file="/usr/local/lib/python3.10/site-packages/torch/_ops.py" source_line=756}
  %convert.551 = f32[16,1024]{1,0} convert(bf16[16,1024]{1,0} %convert.550), metadata={op_type="xla__cast" op_name="xla__cast" source_file="/usr/local/lib/python3.10/site-packages/torch/_ops.py" source_line=756}
  %constant.27 = f32[] constant(1), metadata={op_type="prim__Constant" op_name="prim__Constant" source_file="/usr/local/lib/python3.10/site-packages/torch/_ops.py" source_line=756}
  %broadcast.563 = f32[16,1024]{1,0} broadcast(f32[] %constant.27), dimensions={}, metadata={op_type="aten__add" op_name="aten__add.139/aten__add" source_file="/usr/local/lib/python3.10/site-packages/torch/_ops.py" source_line=756}
  %multiply.564 = f32[16,1024]{1,0} multiply(f32[16,1024]{1,0} %convert.551, f32[16,1024]{1,0} %broadcast.563), metadata={op_type="aten__add" op_name="aten__add.139/aten__add" source_file="/usr/local/lib/python3.10/site-packages/torch/_ops.py" source_line=756}
  %add.565 = f32[16,1024]{1,0} add(f32[16,1024]{1,0} %convert.562, f32[16,1024]{1,0} %multiply.564), metadata={op_type="aten__add" op_name="aten__add.139/aten__add" source_file="/usr/local/lib/python3.10/site-packages/torch/_ops.py" source_line=756}
  %constant.575 = f32[] constant(2), metadata={op_type="prim__Constant" op_name="prim__Constant" source_file="/usr/local/lib/python3.10/site-packages/torch/_ops.py" source_line=756}
  %broadcast.576 = f32[16,1024]{1,0} broadcast(f32[] %constant.575), dimensions={}, metadata={op_type="aten__pow" op_name="aten__pow" source_file="/usr/local/lib/python3.10/site-packages/torch/_ops.py" source_line=756}
  %power.577 = f32[16,1024]{1,0} power(f32[16,1024]{1,0} %add.565, f32[16,1024]{1,0} %broadcast.576), metadata={op_type="aten__pow" op_name="aten__pow" source_file="/usr/local/lib/python3.10/site-packages/torch/_ops.py" source_line=756}
  %constant.578 = f32[] constant(0), metadata={op_type="aten__mean" op_name="aten__mean" source_file="/usr/local/lib/python3.10/site-packages/torch/_ops.py" source_line=756}
  %reduce.584 = f32[16]{0} reduce(f32[16,1024]{1,0} %power.577, f32[] %constant.578), dimensions={1}, to_apply=%AddComputation.580, metadata={op_type="aten__mean" op_name="aten__mean" source_file="/usr/local/lib/python3.10/site-packages/torch/_ops.py" source_line=756}
  %constant.579 = s32[] constant(1024), metadata={op_type="aten__mean" op_name="aten__mean" source_file="/usr/local/lib/python3.10/site-packages/torch/_ops.py" source_line=756}
  %constant.585 = s32[] constant(0), metadata={op_type="aten__mean" op_name="aten__mean" source_file="/usr/local/lib/python3.10/site-packages/torch/_ops.py" source_line=756}
  %compare.590 = pred[] compare(s32[] %constant.579, s32[] %constant.585), direction=NE, metadata={op_type="aten__mean" op_name="aten__mean" source_file="/usr/local/lib/python3.10/site-packages/torch/_ops.py" source_line=756}
  %constant.586 = f32[] constant(1), metadata={op_type="aten__mean" op_name="aten__mean" source_file="/usr/local/lib/python3.10/site-packages/torch/_ops.py" source_line=756}
  %convert.588 = f32[] convert(s32[] %constant.579), metadata={op_type="aten__mean" op_name="aten__mean" source_file="/usr/local/lib/python3.10/site-packages/torch/_ops.py" source_line=756}
  %divide.589 = f32[] divide(f32[] %constant.586, f32[] %convert.588), metadata={op_type="aten__mean" op_name="aten__mean" source_file="/usr/local/lib/python3.10/site-packages/torch/_ops.py" source_line=756}
  %constant.587 = f32[] constant(nan), metadata={op_type="aten__mean" op_name="aten__mean" source_file="/usr/local/lib/python3.10/site-packages/torch/_ops.py" source_line=756}
  %select.591 = f32[] select(pred[] %compare.590, f32[] %divide.589, f32[] %constant.587), metadata={op_type="aten__mean" op_name="aten__mean" source_file="/usr/local/lib/python3.10/site-packages/torch/_ops.py" source_line=756}
  %broadcast.592 = f32[16]{0} broadcast(f32[] %select.591), dimensions={}, metadata={op_type="aten__mean" op_name="aten__mean" source_file="/usr/local/lib/python3.10/site-packages/torch/_ops.py" source_line=756}
  %multiply.593 = f32[16]{0} multiply(f32[16]{0} %reduce.584, f32[16]{0} %broadcast.592), metadata={op_type="aten__mean" op_name="aten__mean" source_file="/usr/local/lib/python3.10/site-packages/torch/_ops.py" source_line=756}
  %reshape.594 = f32[16,1]{1,0} reshape(f32[16]{0} %multiply.593), metadata={op_type="aten__mean" op_name="aten__mean" source_file="/usr/local/lib/python3.10/site-packages/torch/_ops.py" source_line=756}
  %convert.595 = f32[16,1]{1,0} convert(f32[16,1]{1,0} %reshape.594), metadata={op_type="aten__mean" op_name="aten__mean" source_file="/usr/local/lib/python3.10/site-packages/torch/_ops.py" source_line=756}
  %constant.574 = f32[] constant(1), metadata={op_type="prim__Constant" op_name="prim__Constant" source_file="/usr/local/lib/python3.10/site-packages/torch/_ops.py" source_line=756}
  %multiply.596 = f32[] multiply(f32[] %p1.4, f32[] %constant.574), metadata={op_type="aten__add" op_name="aten__add.140/aten__add" source_file="/usr/local/lib/python3.10/site-packages/torch/_ops.py" source_line=756}
  %broadcast.597 = f32[16,1]{1,0} broadcast(f32[] %multiply.596), dimensions={}, metadata={op_type="aten__add" op_name="aten__add.140/aten__add" source_file="/usr/local/lib/python3.10/site-packages/torch/_ops.py" source_line=756}
  %add.598 = f32[16,1]{1,0} add(f32[16,1]{1,0} %convert.595, f32[16,1]{1,0} %broadcast.597), metadata={op_type="aten__add" op_name="aten__add.140/aten__add" source_file="/usr/local/lib/python3.10/site-packages/torch/_ops.py" source_line=756}
  %rsqrt.599 = f32[16,1]{1,0} rsqrt(f32[16,1]{1,0} %add.598), metadata={op_type="aten__rsqrt" op_name="aten__rsqrt" source_file="/usr/local/lib/python3.10/site-packages/torch/_ops.py" source_line=756}
  %reshape.600 = f32[16]{0} reshape(f32[16,1]{1,0} %rsqrt.599), metadata={op_type="aten__mul" op_name="aten__mul.141/aten__mul" source_file="/usr/local/lib/python3.10/site-packages/torch/_ops.py" source_line=756}
  %broadcast.601 = f32[16,1024]{1,0} broadcast(f32[16]{0} %reshape.600), dimensions={0}, metadata={op_type="aten__mul" op_name="aten__mul.141/aten__mul" source_file="/usr/local/lib/python3.10/site-packages/torch/_ops.py" source_line=756}
  %multiply.602 = f32[16,1024]{1,0} multiply(f32[16,1024]{1,0} %add.565, f32[16,1024]{1,0} %broadcast.601), metadata={op_type="aten__mul" op_name="aten__mul.141/aten__mul" source_file="/usr/local/lib/python3.10/site-packages/torch/_ops.py" source_line=756}
  %convert.603 = bf16[16,1024]{1,0} convert(f32[16,1024]{1,0} %multiply.602), metadata={op_type="xla__cast" op_name="xla__cast" source_file="/usr/local/lib/python3.10/site-packages/torch/_ops.py" source_line=756}
  %convert.604 = f32[16,1024]{1,0} convert(bf16[16,1024]{1,0} %convert.603), metadata={op_type="xla__cast" op_name="xla__cast" source_file="/usr/local/lib/python3.10/site-packages/torch/_ops.py" source_line=756}
  %p37.572 = bf16[1024]{0} parameter(37), metadata={op_type="xla__device_data" op_name="xla__device_data" source_file="/usr/local/lib/python3.10/site-packages/torch_xla/_dynamo/dynamo_bridge.py" source_line=355}
  %convert.573 = f32[1024]{0} convert(bf16[1024]{0} %p37.572), metadata={op_type="xla__cast" op_name="xla__cast" source_file="/usr/local/lib/python3.10/site-packages/torch/_ops.py" source_line=756}
  %broadcast.605 = f32[16,1024]{1,0} broadcast(f32[1024]{0} %convert.573), dimensions={1}, metadata={op_type="aten__mul" op_name="aten__mul.142/aten__mul" source_file="/usr/local/lib/python3.10/site-packages/torch/_ops.py" source_line=756}
  %multiply.606 = f32[16,1024]{1,0} multiply(f32[16,1024]{1,0} %convert.604, f32[16,1024]{1,0} %broadcast.605), metadata={op_type="aten__mul" op_name="aten__mul.142/aten__mul" source_file="/usr/local/lib/python3.10/site-packages/torch/_ops.py" source_line=756}
  %convert.607 = bf16[16,1024]{1,0} convert(f32[16,1024]{1,0} %multiply.606), metadata={op_type="xla__cast" op_name="xla__cast" source_file="/usr/local/lib/python3.10/site-packages/torch/_ops.py" source_line=756}
  %p36.570 = bf16[6144,1024]{1,0} parameter(36), metadata={op_type="xla__device_data" op_name="xla__device_data" source_file="/usr/local/lib/python3.10/site-packages/torch_xla/_dynamo/dynamo_bridge.py" source_line=355}
  %transpose.571 = bf16[1024,6144]{0,1} transpose(bf16[6144,1024]{1,0} %p36.570), dimensions={1,0}, metadata={op_type="aten__permute" op_name="aten__permute" source_file="/usr/local/lib/python3.10/site-packages/torch/_ops.py" source_line=756}
  %dot.608 = bf16[16,6144]{1,0} dot(bf16[16,1024]{1,0} %convert.607, bf16[1024,6144]{0,1} %transpose.571), lhs_contracting_dims={1}, rhs_contracting_dims={0}, metadata={op_type="aten__mm" op_name="aten__mm" source_file="/usr/local/lib/python3.10/site-packages/torch/_ops.py" source_line=756}
  %slice.611 = bf16[16,3072]{1,0} slice(bf16[16,6144]{1,0} %dot.608), slice={[0:16], [0:3072]}, metadata={op_type="xla__select" op_name="xla__select" source_file="/usr/local/lib/python3.10/site-packages/torch/_ops.py" source_line=756}
  %logistic.612 = bf16[16,3072]{1,0} logistic(bf16[16,3072]{1,0} %slice.611), metadata={op_type="aten__silu" op_name="aten__silu" source_file="/usr/local/lib/python3.10/site-packages/torch/_ops.py" source_line=756}
  %multiply.613 = bf16[16,3072]{1,0} multiply(bf16[16,3072]{1,0} %slice.611, bf16[16,3072]{1,0} %logistic.612), metadata={op_type="aten__silu" op_name="aten__silu" source_file="/usr/local/lib/python3.10/site-packages/torch/_ops.py" source_line=756}
  %convert.614 = f32[16,3072]{1,0} convert(bf16[16,3072]{1,0} %multiply.613), metadata={op_type="xla__cast" op_name="xla__cast" source_file="/usr/local/lib/python3.10/site-packages/torch/_ops.py" source_line=756}
  %slice.609 = bf16[16,3072]{1,0} slice(bf16[16,6144]{1,0} %dot.608), slice={[0:16], [3072:6144]}, metadata={op_type="xla__select" op_name="xla__select" source_file="/usr/local/lib/python3.10/site-packages/torch/_ops.py" source_line=756}
  %convert.610 = f32[16,3072]{1,0} convert(bf16[16,3072]{1,0} %slice.609), metadata={op_type="xla__cast" op_name="xla__cast" source_file="/usr/local/lib/python3.10/site-packages/torch/_ops.py" source_line=756}
  %multiply.615 = f32[16,3072]{1,0} multiply(f32[16,3072]{1,0} %convert.614, f32[16,3072]{1,0} %convert.610), metadata={op_type="aten__mul" op_name="aten__mul.143/aten__mul" source_file="/usr/local/lib/python3.10/site-packages/torch/_ops.py" source_line=756}
  %convert.616 = bf16[16,3072]{1,0} convert(f32[16,3072]{1,0} %multiply.615), metadata={op_type="xla__cast" op_name="xla__cast" source_file="/usr/local/lib/python3.10/site-packages/torch/_ops.py" source_line=756}
  %p35.568 = bf16[1024,3072]{1,0} parameter(35), metadata={op_type="xla__device_data" op_name="xla__device_data" source_file="/usr/local/lib/python3.10/site-packages/torch_xla/_dynamo/dynamo_bridge.py" source_line=355}
  %transpose.569 = bf16[3072,1024]{0,1} transpose(bf16[1024,3072]{1,0} %p35.568), dimensions={1,0}, metadata={op_type="aten__permute" op_name="aten__permute" source_file="/usr/local/lib/python3.10/site-packages/torch/_ops.py" source_line=756}
  %dot.617 = bf16[16,1024]{1,0} dot(bf16[16,3072]{1,0} %convert.616, bf16[3072,1024]{0,1} %transpose.569), lhs_contracting_dims={1}, rhs_contracting_dims={0}, metadata={op_type="aten__mm" op_name="aten__mm" source_file="/usr/local/lib/python3.10/site-packages/torch/_ops.py" source_line=756}
  %convert.618 = f32[16,1024]{1,0} convert(bf16[16,1024]{1,0} %dot.617), metadata={op_type="xla__cast" op_name="xla__cast" source_file="/usr/local/lib/python3.10/site-packages/torch/_ops.py" source_line=756}
  %convert.566 = bf16[16,1024]{1,0} convert(f32[16,1024]{1,0} %add.565), metadata={op_type="xla__cast" op_name="xla__cast" source_file="/usr/local/lib/python3.10/site-packages/torch/_ops.py" source_line=756}
  %convert.567 = f32[16,1024]{1,0} convert(bf16[16,1024]{1,0} %convert.566), metadata={op_type="xla__cast" op_name="xla__cast" source_file="/usr/local/lib/python3.10/site-packages/torch/_ops.py" source_line=756}
  %constant.26 = f32[] constant(1), metadata={op_type="prim__Constant" op_name="prim__Constant" source_file="/usr/local/lib/python3.10/site-packages/torch/_ops.py" source_line=756}
  %broadcast.619 = f32[16,1024]{1,0} broadcast(f32[] %constant.26), dimensions={}, metadata={op_type="aten__add" op_name="aten__add.144/aten__add" source_file="/usr/local/lib/python3.10/site-packages/torch/_ops.py" source_line=756}
  %multiply.620 = f32[16,1024]{1,0} multiply(f32[16,1024]{1,0} %convert.567, f32[16,1024]{1,0} %broadcast.619), metadata={op_type="aten__add" op_name="aten__add.144/aten__add" source_file="/usr/local/lib/python3.10/site-packages/torch/_ops.py" source_line=756}
  %add.621 = f32[16,1024]{1,0} add(f32[16,1024]{1,0} %convert.618, f32[16,1024]{1,0} %multiply.620), metadata={op_type="aten__add" op_name="aten__add.144/aten__add" source_file="/usr/local/lib/python3.10/site-packages/torch/_ops.py" source_line=756}
  %convert.622 = bf16[16,1024]{1,0} convert(f32[16,1024]{1,0} %add.621), metadata={op_type="xla__cast" op_name="xla__cast" source_file="/usr/local/lib/python3.10/site-packages/torch/_ops.py" source_line=756}
  %convert.623 = f32[16,1024]{1,0} convert(bf16[16,1024]{1,0} %convert.622), metadata={op_type="xla__cast" op_name="xla__cast" source_file="/usr/local/lib/python3.10/site-packages/torch/_ops.py" source_line=756}
  %constant.25 = f32[] constant(1), metadata={op_type="prim__Constant" op_name="prim__Constant" source_file="/usr/local/lib/python3.10/site-packages/torch/_ops.py" source_line=756}
  %broadcast.635 = f32[16,1024]{1,0} broadcast(f32[] %constant.25), dimensions={}, metadata={op_type="aten__add" op_name="aten__add.157/aten__add" source_file="/usr/local/lib/python3.10/site-packages/torch/_ops.py" source_line=756}
  %multiply.636 = f32[16,1024]{1,0} multiply(f32[16,1024]{1,0} %convert.623, f32[16,1024]{1,0} %broadcast.635), metadata={op_type="aten__add" op_name="aten__add.157/aten__add" source_file="/usr/local/lib/python3.10/site-packages/torch/_ops.py" source_line=756}
…
  %broadcast.1033 = f32[16,1024]{1,0} broadcast(f32[16]{0} %reshape.1032), dimensions={0}, metadata={op_type="aten__mul" op_name="aten__mul.249/aten__mul" source_file="/usr/local/lib/python3.10/site-packages/torch/_ops.py" source_line=756}
  %multiply.1034 = f32[16,1024]{1,0} multiply(f32[16,1024]{1,0} %add.997, f32[16,1024]{1,0} %broadcast.1033), metadata={op_type="aten__mul" op_name="aten__mul.249/aten__mul" source_file="/usr/local/lib/python3.10/site-packages/torch/_ops.py" source_line=756}
  %convert.1035 = bf16[16,1024]{1,0} convert(f32[16,1024]{1,0} %multiply.1034), metadata={op_type="xla__cast" op_name="xla__cast" source_file="/usr/local/lib/python3.10/site-packages/torch/_ops.py" source_line=756}
  %convert.1036 = f32[16,1024]{1,0} convert(bf16[16,1024]{1,0} %convert.1035), metadata={op_type="xla__cast" op_name="xla__cast" source_file="/usr/local/lib/python3.10/site-packages/torch/_ops.py" source_line=756}
  %p61.1004 = bf16[1024]{0} parameter(61), metadata={op_type="xla__device_data" op_name="xla__device_data" source_file="/usr/local/lib/python3.10/site-packages/torch_xla/_dynamo/dynamo_bridge.py" source_line=355}
  %convert.1005 = f32[1024]{0} convert(bf16[1024]{0} %p61.1004), metadata={op_type="xla__cast" op_name="xla__cast" source_file="/usr/local/lib/python3.10/site-packages/torch/_ops.py" source_line=756}
  %broadcast.1037 = f32[16,1024]{1,0} broadcast(f32[1024]{0} %convert.1005), dimensions={1}, metadata={op_type="aten__mul" op_name="aten__mul.250/aten__mul" source_file="/usr/local/lib/python3.10/site-packages/torch/_ops.py" source_line=756}
  %multiply.1038 = f32[16,1024]{1,0} multiply(f32[16,1024]{1,0} %convert.1036, f32[16,1024]{1,0} %broadcast.1037), metadata={op_type="aten__mul" op_name="aten__mul.250/aten__mul" source_file="/usr/local/lib/python3.10/site-packages/torch/_ops.py" source_line=756}
  %convert.1039 = bf16[16,1024]{1,0} convert(f32[16,1024]{1,0} %multiply.1038), metadata={op_type="xla__cast" op_name="xla__cast" source_file="/usr/local/lib/python3.10/site-packages/torch/_ops.py" source_line=756}
  %p60.1002 = bf16[6144,1024]{1,0} parameter(60), metadata={op_type="xla__device_data" op_name="xla__device_data" source_file="/usr/local/lib/python3.10/site-packages/torch_xla/_dynamo/dynamo_bridge.py" source_line=355}
  %transpose.1003 = bf16[1024,6144]{0,1} transpose(bf16[6144,1024]{1,0} %p60.1002), dimensions={1,0}, metadata={op_type="aten__permute" op_name="aten__permute" source_file="/usr/local/lib/python3.10/site-packages/torch/_ops.py" source_line=756}
  %dot.1040 = bf16[16,6144]{1,0} dot(bf16[16,1024]{1,0} %convert.1039, bf16[1024,6144]{0,1} %transpose.1003), lhs_contracting_dims={1}, rhs_contracting_dims={0}, metadata={op_type="aten__mm" op_name="aten__mm" source_file="/usr/local/lib/python3.10/site-packages/torch/_ops.py" source_line=756}
  %slice.1043 = bf16[16,3072]{1,0} slice(bf16[16,6144]{1,0} %dot.1040), slice={[0:16], [0:3072]}, metadata={op_type="xla__select" op_name="xla__select" source_file="/usr/local/lib/python3.10/site-packages/torch/_ops.py" source_line=756}
  %logistic.1044 = bf16[16,3072]{1,0} logistic(bf16[16,3072]{1,0} %slice.1043), metadata={op_type="aten__silu" op_name="aten__silu" source_file="/usr/local/lib/python3.10/site-packages/torch/_ops.py" source_line=756}
  %multiply.1045 = bf16[16,3072]{1,0} multiply(bf16[16,3072]{1,0} %slice.1043, bf16[16,3072]{1,0} %logistic.1044), metadata={op_type="aten__silu" op_name="aten__silu" source_file="/usr/local/lib/python3.10/site-packages/torch/_ops.py" source_line=756}
  %convert.1046 = f32[16,3072]{1,0} convert(bf16[16,3072]{1,0} %multiply.1045), metadata={op_type="xla__cast" op_name="xla__cast" source_file="/usr/local/lib/python3.10/site-packages/torch/_ops.py" source_line=756}
  %slice.1041 = bf16[16,3072]{1,0} slice(bf16[16,6144]{1,0} %dot.1040), slice={[0:16], [3072:6144]}, metadata={op_type="xla__select" op_name="xla__select" source_file="/usr/local/lib/python3.10/site-packages/torch/_ops.py" source_line=756}
  %convert.1042 = f32[16,3072]{1,0} convert(bf16[16,3072]{1,0} %slice.1041), metadata={op_type="xla__cast" op_name="xla__cast" source_file="/usr/local/lib/python3.10/site-packages/torch/_ops.py" source_line=756}
  %multiply.1047 = f32[16,3072]{1,0} multiply(f32[16,3072]{1,0} %convert.1046, f32[16,3072]{1,0} %convert.1042), metadata={op_type="aten__mul" op_name="aten__mul.251/aten__mul" source_file="/usr/local/lib/python3.10/site-packages/torch/_ops.py" source_line=756}
  %convert.1048 = bf16[16,3072]{1,0} convert(f32[16,3072]{1,0} %multiply.1047), metadata={op_type="xla__cast" op_name="xla__cast" source_file="/usr/local/lib/python3.10/site-packages/torch/_ops.py" source_line=756}
  %p59.1000 = bf16[1024,3072]{1,0} parameter(59), metadata={op_type="xla__device_data" op_name="xla__device_data" source_file="/usr/local/lib/python3.10/site-packages/torch_xla/_dynamo/dynamo_bridge.py" source_line=355}
  %transpose.1001 = bf16[3072,1024]{0,1} transpose(bf16[1024,3072]{1,0} %p59.1000), dimensions={1,0}, metadata={op_type="aten__permute" op_name="aten__permute" source_file="/usr/local/lib/python3.10/site-packages/torch/_ops.py" source_line=756}
  %dot.1049 = bf16[16,1024]{1,0} dot(bf16[16,3072]{1,0} %convert.1048, bf16[3072,1024]{0,1} %transpose.1001), lhs_contracting_dims={1}, rhs_contracting_dims={0}, metadata={op_type="aten__mm" op_name="aten__mm" source_file="/usr/local/lib/python3.10/site-packages/torch/_ops.py" source_line=756}
  %convert.1050 = f32[16,1024]{1,0} convert(bf16[16,1024]{1,0} %dot.1049), metadata={op_type="xla__cast" op_name="xla__cast" source_file="/usr/local/lib/python3.10/site-packages/torch/_ops.py" source_line=756}
  %convert.998 = bf16[16,1024]{1,0} convert(f32[16,1024]{1,0} %add.997), metadata={op_type="xla__cast" op_name="xla__cast" source_file="/usr/local/lib/python3.10/site-packages/torch/_ops.py" source_line=756}
  %convert.999 = f32[16,1024]{1,0} convert(bf16[16,1024]{1,0} %convert.998), metadata={op_type="xla__cast" op_name="xla__cast" source_file="/usr/local/lib/python3.10/site-packages/torch/_ops.py" source_line=756}
  %constant.14 = f32[] constant(1), metadata={op_type="prim__Constant" op_name="prim__Constant" source_file="/usr/local/lib/python3.10/site-packages/torch/_ops.py" source_line=756}
  %broadcast.1051 = f32[16,1024]{1,0} broadcast(f32[] %constant.14), dimensions={}, metadata={op_type="aten__add" op_name="aten__add.252/aten__add" source_file="/usr/local/lib/python3.10/site-packages/torch/_ops.py" source_line=756}
  %multiply.1052 = f32[16,1024]{1,0} multiply(f32[16,1024]{1,0} %convert.999, f32[16,1024]{1,0} %broadcast.1051), metadata={op_type="aten__add" op_name="aten__add.252/aten__add" source_file="/usr/local/lib/python3.10/site-packages/torch/_ops.py" source_line=756}
  %add.1053 = f32[16,1024]{1,0} add(f32[16,1024]{1,0} %convert.1050, f32[16,1024]{1,0} %multiply.1052), metadata={op_type="aten__add" op_name="aten__add.252/aten__add" source_file="/usr/local/lib/python3.10/site-packages/torch/_ops.py" source_line=756}
  %convert.1054 = bf16[16,1024]{1,0} convert(f32[16,1024]{1,0} %add.1053), metadata={op_type="xla__cast" op_name="xla__cast" source_file="/usr/local/lib/python3.10/site-packages/torch/_ops.py" source_line=756}
  %convert.1055 = f32[16,1024]{1,0} convert(bf16[16,1024]{1,0} %convert.1054), metadata={op_type="xla__cast" op_name="xla__cast" source_file="/usr/local/lib/python3.10/site-packages/torch/_ops.py" source_line=756}
  %constant.13 = f32[] constant(1), metadata={op_type="prim__Constant" op_name="prim__Constant" source_file="/usr/local/lib/python3.10/site-packages/torch/_ops.py" source_line=756}
  %broadcast.1067 = f32[16,1024]{1,0} broadcast(f32[] %constant.13), dimensions={}, metadata={op_type="aten__add" op_name="aten__add.265/aten__add" source_file="/usr/local/lib/python3.10/site-packages/torch/_ops.py" source_line=756}
  %multiply.1068 = f32[16,1024]{1,0} multiply(f32[16,1024]{1,0} %convert.1055, f32[16,1024]{1,0} %broadcast.1067), metadata={op_type="aten__add" op_name="aten__add.265/aten__add" source_file="/usr/local/lib/python3.10/site-packages/torch/_ops.py" source_line=756}
  %add.1069 = f32[16,1024]{1,0} add(f32[16,1024]{1,0} %convert.1066, f32[16,1024]{1,0} %multiply.1068), metadata={op_type="aten__add" op_name="aten__add.265/aten__add" source_file="/usr/local/lib/python3.10/site-packages/torch/_ops.py" source_line=756}
  %constant.1079 = f32[] constant(2), metadata={op_type="prim__Constant" op_name="prim__Constant" source_file="/usr/local/lib/python3.10/site-packages/torch/_ops.py" source_line=756}
  %broadcast.1080 = f32[16,1024]{1,0} broadcast(f32[] %constant.1079), dimensions={}, metadata={op_type="aten__pow" op_name="aten__pow" source_file="/usr/local/lib/python3.10/site-packages/torch/_ops.py" source_line=756}
  %power.1081 = f32[16,1024]{1,0} power(f32[16,1024]{1,0} %add.1069, f32[16,1024]{1,0} %broadcast.1080), metadata={op_type="aten__pow" op_name="aten__pow" source_file="/usr/local/lib/python3.10/site-packages/torch/_ops.py" source_line=756}
  %constant.1082 = f32[] constant(0), metadata={op_type="aten__mean" op_name="aten__mean" source_file="/usr/local/lib/python3.10/site-packages/torch/_ops.py" source_line=756}
  %reduce.1088 = f32[16]{0} reduce(f32[16,1024]{1,0} %power.1081, f32[] %constant.1082), dimensions={1}, to_apply=%AddComputation.1084, metadata={op_type="aten__mean" op_name="aten__mean" source_file="/usr/local/lib/python3.10/site-packages/torch/_ops.py" source_line=756}
  %constant.1083 = s32[] constant(1024), metadata={op_type="aten__mean" op_name="aten__mean" source_file="/usr/local/lib/python3.10/site-packages/torch/_ops.py" source_line=756}
  %constant.1089 = s32[] constant(0), metadata={op_type="aten__mean" op_name="aten__mean" source_file="/usr/local/lib/python3.10/site-packages/torch/_ops.py" source_line=756}
  %compare.1094 = pred[] compare(s32[] %constant.1083, s32[] %constant.1089), direction=NE, metadata={op_type="aten__mean" op_name="aten__mean" source_file="/usr/local/lib/python3.10/site-packages/torch/_ops.py" source_line=756}
  %constant.1090 = f32[] constant(1), metadata={op_type="aten__mean" op_name="aten__mean" source_file="/usr/local/lib/python3.10/site-packages/torch/_ops.py" source_line=756}
  %convert.1092 = f32[] convert(s32[] %constant.1083), metadata={op_type="aten__mean" op_name="aten__mean" source_file="/usr/local/lib/python3.10/site-packages/torch/_ops.py" source_line=756}
  %divide.1093 = f32[] divide(f32[] %constant.1090, f32[] %convert.1092), metadata={op_type="aten__mean" op_name="aten__mean" source_file="/usr/local/lib/python3.10/site-packages/torch/_ops.py" source_line=756}
  %constant.1091 = f32[] constant(nan), metadata={op_type="aten__mean" op_name="aten__mean" source_file="/usr/local/lib/python3.10/site-packages/torch/_ops.py" source_line=756}
  %select.1095 = f32[] select(pred[] %compare.1094, f32[] %divide.1093, f32[] %constant.1091), metadata={op_type="aten__mean" op_name="aten__mean" source_file="/usr/local/lib/python3.10/site-packages/torch/_ops.py" source_line=756}
  %broadcast.1096 = f32[16]{0} broadcast(f32[] %select.1095), dimensions={}, metadata={op_type="aten__mean" op_name="aten__mean" source_file="/usr/local/lib/python3.10/site-packages/torch/_ops.py" source_line=756}
  %multiply.1097 = f32[16]{0} multiply(f32[16]{0} %reduce.1088, f32[16]{0} %broadcast.1096), metadata={op_type="aten__mean" op_name="aten__mean" source_file="/usr/local/lib/python3.10/site-packages/torch/_ops.py" source_line=756}
  %reshape.1098 = f32[16,1]{1,0} reshape(f32[16]{0} %multiply.1097), metadata={op_type="aten__mean" op_name="aten__mean" source_file="/usr/local/lib/python3.10/site-packages/torch/_ops.py" source_line=756}
  %convert.1099 = f32[16,1]{1,0} convert(f32[16,1]{1,0} %reshape.1098), metadata={op_type="aten__mean" op_name="aten__mean" source_file="/usr/local/lib/python3.10/site-packages/torch/_ops.py" source_line=756}
  %constant.1078 = f32[] constant(1), metadata={op_type="prim__Constant" op_name="prim__Constant" source_file="/usr/local/lib/python3.10/site-packages/torch/_ops.py" source_line=756}
  %multiply.1100 = f32[] multiply(f32[] %p1.4, f32[] %constant.1078), metadata={op_type="aten__add" op_name="aten__add.266/aten__add" source_file="/usr/local/lib/python3.10/site-packages/torch/_ops.py" source_line=756}
  %broadcast.1101 = f32[16,1]{1,0} broadcast(f32[] %multiply.1100), dimensions={}, metadata={op_type="aten__add" op_name="aten__add.266/aten__add" source_file="/usr/local/lib/python3.10/site-packages/torch/_ops.py" source_line=756}
  %add.1102 = f32[16,1]{1,0} add(f32[16,1]{1,0} %convert.1099, f32[16,1]{1,0} %broadcast.1101), metadata={op_type="aten__add" op_name="aten__add.266/aten__add" source_file="/usr/local/lib/python3.10/site-packages/torch/_ops.py" source_line=756}
  %rsqrt.1103 = f32[16,1]{1,0} rsqrt(f32[16,1]{1,0} %add.1102), metadata={op_type="aten__rsqrt" op_name="aten__rsqrt" source_file="/usr/local/lib/python3.10/site-packages/torch/_ops.py" source_line=756}
  %reshape.1104 = f32[16]{0} reshape(f32[16,1]{1,0} %rsqrt.1103), metadata={op_type="aten__mul" op_name="aten__mul.267/aten__mul" source_file="/usr/local/lib/python3.10/site-packages/torch/_ops.py" source_line=756}
  %broadcast.1105 = f32[16,1024]{1,0} broadcast(f32[16]{0} %reshape.1104), dimensions={0}, metadata={op_type="aten__mul" op_name="aten__mul.267/aten__mul" source_file="/usr/local/lib/python3.10/site-packages/torch/_ops.py" source_line=756}
  %multiply.1106 = f32[16,1024]{1,0} multiply(f32[16,1024]{1,0} %add.1069, f32[16,1024]{1,0} %broadcast.1105), metadata={op_type="aten__mul" op_name="aten__mul.267/aten__mul" source_file="/usr/local/lib/python3.10/site-packages/torch/_ops.py" source_line=756}
  %convert.1107 = bf16[16,1024]{1,0} convert(f32[16,1024]{1,0} %multiply.1106), metadata={op_type="xla__cast" op_name="xla__cast" source_file="/usr/local/lib/python3.10/site-packages/torch/_ops.py" source_line=756}
  %convert.1108 = f32[16,1024]{1,0} convert(bf16[16,1024]{1,0} %convert.1107), metadata={op_type="xla__cast" op_name="xla__cast" source_file="/usr/local/lib/python3.10/site-packages/torch/_ops.py" source_line=756}
  %p65.1076 = bf16[1024]{0} parameter(65), metadata={op_type="xla__device_data" op_name="xla__device_data" source_file="/usr/local/lib/python3.10/site-packages/torch_xla/_dynamo/dynamo_bridge.py" source_line=355}
  %convert.1077 = f32[1024]{0} convert(bf16[1024]{0} %p65.1076), metadata={op_type="xla__cast" op_name="xla__cast" source_file="/usr/local/lib/python3.10/site-packages/torch/_ops.py" source_line=756}
  %broadcast.1109 = f32[16,1024]{1,0} broadcast(f32[1024]{0} %convert.1077), dimensions={1}, metadata={op_type="aten__mul" op_name="aten__mul.268/aten__mul" source_file="/usr/local/lib/python3.10/site-packages/torch/_ops.py" source_line=756}
  %multiply.1110 = f32[16,1024]{1,0} multiply(f32[16,1024]{1,0} %convert.1108, f32[16,1024]{1,0} %broadcast.1109), metadata={op_type="aten__mul" op_name="aten__mul.268/aten__mul" source_file="/usr/local/lib/python3.10/site-packages/torch/_ops.py" source_line=756}
  %convert.1111 = bf16[16,1024]{1,0} convert(f32[16,1024]{1,0} %multiply.1110), metadata={op_type="xla__cast" op_name="xla__cast" source_file="/usr/local/lib/python3.10/site-packages/torch/_ops.py" source_line=756}
  %p64.1074 = bf16[6144,1024]{1,0} parameter(64), metadata={op_type="xla__device_data" op_name="xla__device_data" source_file="/usr/local/lib/python3.10/site-packages/torch_xla/_dynamo/dynamo_bridge.py" source_line=355}
  %transpose.1075 = bf16[1024,6144]{0,1} transpose(bf16[6144,1024]{1,0} %p64.1074), dimensions={1,0}, metadata={op_type="aten__permute" op_name="aten__permute" source_file="/usr/local/lib/python3.10/site-packages/torch/_ops.py" source_line=756}
  %dot.1112 = bf16[16,6144]{1,0} dot(bf16[16,1024]{1,0} %convert.1111, bf16[1024,6144]{0,1} %transpose.1075), lhs_contracting_dims={1}, rhs_contracting_dims={0}, metadata={op_type="aten__mm" op_name="aten__mm" source_file="/usr/local/lib/python3.10/site-packages/torch/_ops.py" source_line=756}
  %slice.1115 = bf16[16,3072]{1,0} slice(bf16[16,6144]{1,0} %dot.1112), slice={[0:16], [0:3072]}, metadata={op_type="xla__select" op_name="xla__select" source_file="/usr/local/lib/python3.10/site-packages/torch/_ops.py" source_line=756}
  %logistic.1116 = bf16[16,3072]{1,0} logistic(bf16[16,3072]{1,0} %slice.1115), metadata={op_type="aten__silu" op_name="aten__silu" source_file="/usr/local/lib/python3.10/site-packages/torch/_ops.py" source_line=756}
  %multiply.1117 = bf16[16,3072]{1,0} multiply(bf16[16,3072]{1,0} %slice.1115, bf16[16,3072]{1,0} %logistic.1116), metadata={op_type="aten__silu" op_name="aten__silu" source_file="/usr/local/lib/python3.10/site-packages/torch/_ops.py" source_line=756}
  %convert.1118 = f32[16,3072]{1,0} convert(bf16[16,3072]{1,0} %multiply.1117), metadata={op_type="xla__cast" op_name="xla__cast" source_file="/usr/local/lib/python3.10/site-packages/torch/_ops.py" source_line=756}
  %slice.1113 = bf16[16,3072]{1,0} slice(bf16[16,6144]{1,0} %dot.1112), slice={[0:16], [3072:6144]}, metadata={op_type="xla__select" op_name="xla__select" source_file="/usr/local/lib/python3.10/site-packages/torch/_ops.py" source_line=756}
  %convert.1114 = f32[16,3072]{1,0} convert(bf16[16,3072]{1,0} %slice.1113), metadata={op_type="xla__cast" op_name="xla__cast" source_file="/usr/local/lib/python3.10/site-packages/torch/_ops.py" source_line=756}
  %multiply.1119 = f32[16,3072]{1,0} multiply(f32[16,3072]{1,0} %convert.1118, f32[16,3072]{1,0} %convert.1114), metadata={op_type="aten__mul" op_name="aten__mul.269/aten__mul" source_file="/usr/local/lib/python3.10/site-packages/torch/_ops.py" source_line=756}
  %convert.1120 = bf16[16,3072]{1,0} convert(f32[16,3072]{1,0} %multiply.1119), metadata={op_type="xla__cast" op_name="xla__cast" source_file="/usr/local/lib/python3.10/site-packages/torch/_ops.py" source_line=756}
  %p63.1072 = bf16[1024,3072]{1,0} parameter(63), metadata={op_type="xla__device_data" op_name="xla__device_data" source_file="/usr/local/lib/python3.10/site-packages/torch_xla/_dynamo/dynamo_bridge.py" source_line=355}
  %transpose.1073 = bf16[3072,1024]{0,1} transpose(bf16[1024,3072]{1,0} %p63.1072), dimensions={1,0}, metadata={op_type="aten__permute" op_name="aten__permute" source_file="/usr/local/lib/python3.10/site-packages/torch/_ops.py" source_line=756}
  %dot.1121 = bf16[16,1024]{1,0} dot(bf16[16,3072]{1,0} %convert.1120, bf16[3072,1024]{0,1} %transpose.1073), lhs_contracting_dims={1}, rhs_contracting_dims={0}, metadata={op_type="aten__mm" op_name="aten__mm" source_file="/usr/local/lib/python3.10/site-packages/torch/_ops.py" source_line=756}
  %convert.1122 = f32[16,1024]{1,0} convert(bf16[16,1024]{1,0} %dot.1121), metadata={op_type="xla__cast" op_name="xla__cast" source_file="/usr/local/lib/python3.10/site-packages/torch/_ops.py" source_line=756}
  %convert.1070 = bf16[16,1024]{1,0} convert(f32[16,1024]{1,0} %add.1069), metadata={op_type="xla__cast" op_name="xla__cast" source_file="/usr/local/lib/python3.10/site-packages/torch/_ops.py" source_line=756}
  %convert.1071 = f32[16,1024]{1,0} convert(bf16[16,1024]{1,0} %convert.1070), metadata={op_type="xla__cast" op_name="xla__cast" source_file="/usr/local/lib/python3.10/site-packages/torch/_ops.py" source_line=756}
  %constant.12 = f32[] constant(1), metadata={op_type="prim__Constant" op_name="prim__Constant" source_file="/usr/local/lib/python3.10/site-packages/torch/_ops.py" source_line=756}
  %broadcast.1123 = f32[16,1024]{1,0} broadcast(f32[] %constant.12), dimensions={}, metadata={op_type="aten__add" op_name="aten__add.270/aten__add" source_file="/usr/local/lib/python3.10/site-packages/torch/_ops.py" source_line=756}
  %multiply.1124 = f32[16,1024]{1,0} multiply(f32[16,1024]{1,0} %convert.1071, f32[16,1024]{1,0} %broadcast.1123), metadata={op_type="aten__add" op_name="aten__add.270/aten__add" source_file="/usr/local/lib/python3.10/site-packages/torch/_ops.py" source_line=756}
  %add.1125 = f32[16,1024]{1,0} add(f32[16,1024]{1,0} %convert.1122, f32[16,1024]{1,0} %multiply.1124), metadata={op_type="aten__add" op_name="aten__add.270/aten__add" source_file="/usr/local/lib/python3.10/site-packages/torch/_ops.py" source_line=756}
  %constant.11 = f32[] constant(2), metadata={op_type="prim__Constant" op_name="prim__Constant" source_file="/usr/local/lib/python3.10/site-packages/torch/_ops.py" source_line=756}
  %broadcast.1126 = f32[16,1024]{1,0} broadcast(f32[] %constant.11), dimensions={}, metadata={op_type="aten__pow" op_name="aten__pow" source_file="/usr/local/lib/python3.10/site-packages/torch/_ops.py" source_line=756}
  %power.1127 = f32[16,1024]{1,0} power(f32[16,1024]{1,0} %add.1125, f32[16,1024]{1,0} %broadcast.1126), metadata={op_type="aten__pow" op_name="aten__pow" source_file="/usr/local/lib/python3.10/site-packages/torch/_ops.py" source_line=756}
  %constant.1128 = f32[] constant(0), metadata={op_type="aten__mean" op_name="aten__mean" source_file="/usr/local/lib/python3.10/site-packages/torch/_ops.py" source_line=756}
  %reduce.1134 = f32[16]{0} reduce(f32[16,1024]{1,0} %power.1127, f32[] %constant.1128), dimensions={1}, to_apply=%AddComputation.1130, metadata={op_type="aten__mean" op_name="aten__mean" source_file="/usr/local/lib/python3.10/site-packages/torch/_ops.py" source_line=756}
  %constant.1129 = s32[] constant(1024), metadata={op_type="aten__mean" op_name="aten__mean" source_file="/usr/local/lib/python3.10/site-packages/torch/_ops.py" source_line=756}
  %constant.1135 = s32[] constant(0), metadata={op_type="aten__mean" op_name="aten__mean" source_file="/usr/local/lib/python3.10/site-packages/torch/_ops.py" source_line=756}
  %compare.1140 = pred[] compare(s32[] %constant.1129, s32[] %constant.1135), direction=NE, metadata={op_type="aten__mean" op_name="aten__mean" source_file="/usr/local/lib/python3.10/site-packages/torch/_ops.py" source_line=756}
  %constant.1136 = f32[] constant(1), metadata={op_type="aten__mean" op_name="aten__mean" source_file="/usr/local/lib/python3.10/site-packages/torch/_ops.py" source_line=756}
  %convert.1138 = f32[] convert(s32[] %constant.1129), metadata={op_type="aten__mean" op_name="aten__mean" source_file="/usr/local/lib/python3.10/site-packages/torch/_ops.py" source_line=756}
  %divide.1139 = f32[] divide(f32[] %constant.1136, f32[] %convert.1138), metadata={op_type="aten__mean" op_name="aten__mean" source_file="/usr/local/lib/python3.10/site-packages/torch/_ops.py" source_line=756}
  %constant.1137 = f32[] constant(nan), metadata={op_type="aten__mean" op_name="aten__mean" source_file="/usr/local/lib/python3.10/site-packages/torch/_ops.py" source_line=756}
  %select.1141 = f32[] select(pred[] %compare.1140, f32[] %divide.1139, f32[] %constant.1137), metadata={op_type="aten__mean" op_name="aten__mean" source_file="/usr/local/lib/python3.10/site-packages/torch/_ops.py" source_line=756}
  %broadcast.1142 = f32[16]{0} broadcast(f32[] %select.1141), dimensions={}, metadata={op_type="aten__mean" op_name="aten__mean" source_file="/usr/local/lib/python3.10/site-packages/torch/_ops.py" source_line=756}
  %multiply.1143 = f32[16]{0} multiply(f32[16]{0} %reduce.1134, f32[16]{0} %broadcast.1142), metadata={op_type="aten__mean" op_name="aten__mean" source_file="/usr/local/lib/python3.10/site-packages/torch/_ops.py" source_line=756}
  %reshape.1144 = f32[16,1]{1,0} reshape(f32[16]{0} %multiply.1143), metadata={op_type="aten__mean" op_name="aten__mean" source_file="/usr/local/lib/python3.10/site-packages/torch/_ops.py" source_line=756}
  %convert.1145 = f32[16,1]{1,0} convert(f32[16,1]{1,0} %reshape.1144), metadata={op_type="aten__mean" op_name="aten__mean" source_file="/usr/local/lib/python3.10/site-packages/torch/_ops.py" source_line=756}
  %constant.10 = f32[] constant(1), metadata={op_type="prim__Constant" op_name="prim__Constant" source_file="/usr/local/lib/python3.10/site-packages/torch/_ops.py" source_line=756}
  %multiply.1146 = f32[] multiply(f32[] %p1.4, f32[] %constant.10), metadata={op_type="aten__add" op_name="aten__add.271/aten__add" source_file="/usr/local/lib/python3.10/site-packages/torch/_ops.py" source_line=756}
  %broadcast.1147 = f32[16,1]{1,0} broadcast(f32[] %multiply.1146), dimensions={}, metadata={op_type="aten__add" op_name="aten__add.271/aten__add" source_file="/usr/local/lib/python3.10/site-packages/torch/_ops.py" source_line=756}
  %add.1148 = f32[16,1]{1,0} add(f32[16,1]{1,0} %convert.1145, f32[16,1]{1,0} %broadcast.1147), metadata={op_type="aten__add" op_name="aten__add.271/aten__add" source_file="/usr/local/lib/python3.10/site-packages/torch/_ops.py" source_line=756}
  %rsqrt.1149 = f32[16,1]{1,0} rsqrt(f32[16,1]{1,0} %add.1148), metadata={op_type="aten__rsqrt" op_name="aten__rsqrt" source_file="/usr/local/lib/python3.10/site-packages/torch/_ops.py" source_line=756}
  %reshape.1150 = f32[16]{0} reshape(f32[16,1]{1,0} %rsqrt.1149), metadata={op_type="aten__mul" op_name="aten__mul.272/aten__mul" source_file="/usr/local/lib/python3.10/site-packages/torch/_ops.py" source_line=756}
  %broadcast.1151 = f32[16,1024]{1,0} broadcast(f32[16]{0} %reshape.1150), dimensions={0}, metadata={op_type="aten__mul" op_name="aten__mul.272/aten__mul" source_file="/usr/local/lib/python3.10/site-packages/torch/_ops.py" source_line=756}
  %multiply.1152 = f32[16,1024]{1,0} multiply(f32[16,1024]{1,0} %add.1125, f32[16,1024]{1,0} %broadcast.1151), metadata={op_type="aten__mul" op_name="aten__mul.272/aten__mul" source_file="/usr/local/lib/python3.10/site-packages/torch/_ops.py" source_line=756}
  %convert.1153 = bf16[16,1024]{1,0} convert(f32[16,1024]{1,0} %multiply.1152), metadata={op_type="xla__cast" op_name="xla__cast" source_file="/usr/local/lib/python3.10/site-packages/torch/_ops.py" source_line=756}
  %convert.1154 = f32[16,1024]{1,0} convert(bf16[16,1024]{1,0} %convert.1153), metadata={op_type="xla__cast" op_name="xla__cast" source_file="/usr/local/lib/python3.10/site-packages/torch/_ops.py" source_line=756}
  %p3.8 = bf16[1024]{0} parameter(3), metadata={op_type="xla__device_data" op_name="xla__device_data" source_file="/usr/local/lib/python3.10/site-packages/torch_xla/_dynamo/dynamo_bridge.py" source_line=355}
  %convert.9 = f32[1024]{0} convert(bf16[1024]{0} %p3.8), metadata={op_type="xla__cast" op_name="xla__cast" source_file="/usr/local/lib/python3.10/site-packages/torch/_ops.py" source_line=756}
  %broadcast.1155 = f32[16,1024]{1,0} broadcast(f32[1024]{0} %convert.9), dimensions={1}, metadata={op_type="aten__mul" op_name="aten__mul.273/aten__mul" source_file="/usr/local/lib/python3.10/site-packages/torch/_ops.py" source_line=756}
  %multiply.1156 = f32[16,1024]{1,0} multiply(f32[16,1024]{1,0} %convert.1154, f32[16,1024]{1,0} %broadcast.1155), metadata={op_type="aten__mul" op_name="aten__mul.273/aten__mul" source_file="/usr/local/lib/python3.10/site-packages/torch/_ops.py" source_line=756}
  %convert.1157 = bf16[16,1024]{1,0} convert(f32[16,1024]{1,0} %multiply.1156), metadata={op_type="xla__cast" op_name="xla__cast" source_file="/usr/local/lib/python3.10/site-packages/torch/_ops.py" source_line=756}
  %p2.6 = bf16[4096,1024]{1,0} parameter(2), metadata={op_type="xla__device_data" op_name="xla__device_data" source_file="/usr/local/lib/python3.10/site-packages/torch_xla/_dynamo/dynamo_bridge.py" source_line=355}
  %transpose.7 = bf16[1024,4096]{0,1} transpose(bf16[4096,1024]{1,0} %p2.6), dimensions={1,0}, metadata={op_type="aten__permute" op_name="aten__permute" source_file="/usr/local/lib/python3.10/site-packages/torch/_ops.py" source_line=756}
  %dot.1158 = bf16[16,4096]{1,0} dot(bf16[16,1024]{1,0} %convert.1157, bf16[1024,4096]{0,1} %transpose.7), lhs_contracting_dims={1}, rhs_contracting_dims={0}, metadata={op_type="aten__mm" op_name="aten__mm" source_file="/usr/local/lib/python3.10/site-packages/torch/_ops.py" source_line=756}
  %slice.1159 = bf16[16,2048]{1,0} slice(bf16[16,4096]{1,0} %dot.1158), slice={[0:16], [0:2048]}, metadata={op_type="aten__split" op_name="aten__split" source_file="/usr/local/lib/python3.10/site-packages/torch/_ops.py" source_line=756}
  %slice.1160 = bf16[16,1024]{1,0} slice(bf16[16,4096]{1,0} %dot.1158), slice={[0:16], [2048:3072]}, metadata={op_type="aten__split" op_name="aten__split" source_file="/usr/local/lib/python3.10/site-packages/torch/_ops.py" source_line=756}
  %reshape.1162 = bf16[16,8,128]{2,1,0} reshape(bf16[16,1024]{1,0} %slice.1160), metadata={op_type="aten__view" op_name="aten__view" source_file="/usr/local/lib/python3.10/site-packages/torch/_ops.py" source_line=756}
  %convert.1163 = f32[16,8,128]{2,1,0} convert(bf16[16,8,128]{2,1,0} %reshape.1162), metadata={op_type="xla__cast" op_name="xla__cast" source_file="/usr/local/lib/python3.10/site-packages/torch/_ops.py" source_line=756}
  %constant.5 = f32[] constant(2), metadata={op_type="prim__Constant" op_name="prim__Constant" source_file="/usr/local/lib/python3.10/site-packages/torch/_ops.py" source_line=756}
  %broadcast.1164 = f32[16,8,128]{2,1,0} broadcast(f32[] %constant.5), dimensions={}, metadata={op_type="aten__pow" op_name="aten__pow" source_file="/usr/local/lib/python3.10/site-packages/torch/_ops.py" source_line=756}
  %power.1165 = f32[16,8,128]{2,1,0} power(f32[16,8,128]{2,1,0} %convert.1163, f32[16,8,128]{2,1,0} %broadcast.1164), metadata={op_type="aten__pow" op_name="aten__pow" source_file="/usr/local/lib/python3.10/site-packages/torch/_ops.py" source_line=756}
  %constant.1166 = f32[] constant(0), metadata={op_type="aten__mean" op_name="aten__mean" source_file="/usr/local/lib/python3.10/site-packages/torch/_ops.py" source_line=756}
  %reduce.1172 = f32[16,8]{1,0} reduce(f32[16,8,128]{2,1,0} %power.1165, f32[] %constant.1166), dimensions={2}, to_apply=%AddComputation.1168, metadata={op_type="aten__mean" op_name="aten__mean" source_file="/usr/local/lib/python3.10/site-packages/torch/_ops.py" source_line=756}
  %constant.1167 = s32[] constant(128), metadata={op_type="aten__mean" op_name="aten__mean" source_file="/usr/local/lib/python3.10/site-packages/torch/_ops.py" source_line=756}
  %constant.1173 = s32[] constant(0), metadata={op_type="aten__mean" op_name="aten__mean" source_file="/usr/local/lib/python3.10/site-packages/torch/_ops.py" source_line=756}
  %compare.1178 = pred[] compare(s32[] %constant.1167, s32[] %constant.1173), direction=NE, metadata={op_type="aten__mean" op_name="aten__mean" source_file="/usr/local/lib/python3.10/site-packages/torch/_ops.py" source_line=756}
  %constant.1174 = f32[] constant(1), metadata={op_type="aten__mean" op_name="aten__mean" source_file="/usr/local/lib/python3.10/site-packages/torch/_ops.py" source_line=756}
  %convert.1176 = f32[] convert(s32[] %constant.1167), metadata={op_type="aten__mean" op_name="aten__mean" source_file="/usr/local/lib/python3.10/site-packages/torch/_ops.py" source_line=756}
  %divide.1177 = f32[] divide(f32[] %constant.1174, f32[] %convert.1176), metadata={op_type="aten__mean" op_name="aten__mean" source_file="/usr/local/lib/python3.10/site-packages/torch/_ops.py" source_line=756}
  %constant.1175 = f32[] constant(nan), metadata={op_type="aten__mean" op_name="aten__mean" source_file="/usr/local/lib/python3.10/site-packages/torch/_ops.py" source_line=756}
  %select.1179 = f32[] select(pred[] %compare.1178, f32[] %divide.1177, f32[] %constant.1175), metadata={op_type="aten__mean" op_name="aten__mean" source_file="/usr/local/lib/python3.10/site-packages/torch/_ops.py" source_line=756}
  %broadcast.1180 = f32[16,8]{1,0} broadcast(f32[] %select.1179), dimensions={}, metadata={op_type="aten__mean" op_name="aten__mean" source_file="/usr/local/lib/python3.10/site-packages/torch/_ops.py" source_line=756}
  %multiply.1181 = f32[16,8]{1,0} multiply(f32[16,8]{1,0} %reduce.1172, f32[16,8]{1,0} %broadcast.1180), metadata={op_type="aten__mean" op_name="aten__mean" source_file="/usr/local/lib/python3.10/site-packages/torch/_ops.py" source_line=756}
  %reshape.1182 = f32[16,8,1]{2,1,0} reshape(f32[16,8]{1,0} %multiply.1181), metadata={op_type="aten__mean" op_name="aten__mean" source_file="/usr/local/lib/python3.10/site-packages/torch/_ops.py" source_line=756}
  %convert.1183 = f32[16,8,1]{2,1,0} convert(f32[16,8,1]{2,1,0} %reshape.1182), metadata={op_type="aten__mean" op_name="aten__mean" source_file="/usr/local/lib/python3.10/site-packages/torch/_ops.py" source_line=756}
  %constant.3 = f32[] constant(1), metadata={op_type="prim__Constant" op_name="prim__Constant" source_file="/usr/local/lib/python3.10/site-packages/torch/_ops.py" source_line=756}
  %multiply.1184 = f32[] multiply(f32[] %p1.4, f32[] %constant.3), metadata={op_type="aten__add" op_name="aten__add.274/aten__add" source_file="/usr/local/lib/python3.10/site-packages/torch/_ops.py" source_line=756}
  %broadcast.1185 = f32[16,8,1]{2,1,0} broadcast(f32[] %multiply.1184), dimensions={}, metadata={op_type="aten__add" op_name="aten__add.274/aten__add" source_file="/usr/local/lib/python3.10/site-packages/torch/_ops.py" source_line=756}
  %add.1186 = f32[16,8,1]{2,1,0} add(f32[16,8,1]{2,1,0} %convert.1183, f32[16,8,1]{2,1,0} %broadcast.1185), metadata={op_type="aten__add" op_name="aten__add.274/aten__add" source_file="/usr/local/lib/python3.10/site-packages/torch/_ops.py" source_line=756}
  %rsqrt.1187 = f32[16,8,1]{2,1,0} rsqrt(f32[16,8,1]{2,1,0} %add.1186), metadata={op_type="aten__rsqrt" op_name="aten__rsqrt" source_file="/usr/local/lib/python3.10/site-packages/torch/_ops.py" source_line=756}
  %reshape.1188 = f32[16,8]{1,0} reshape(f32[16,8,1]{2,1,0} %rsqrt.1187), metadata={op_type="aten__mul" op_name="aten__mul.275/aten__mul" source_file="/usr/local/lib/python3.10/site-packages/torch/_ops.py" source_line=756}
  %broadcast.1189 = f32[16,8,128]{2,1,0} broadcast(f32[16,8]{1,0} %reshape.1188), dimensions={0,1}, metadata={op_type="aten__mul" op_name="aten__mul.275/aten__mul" source_file="/usr/local/lib/python3.10/site-packages/torch/_ops.py" source_line=756}
  %multiply.1190 = f32[16,8,128]{2,1,0} multiply(f32[16,8,128]{2,1,0} %convert.1163, f32[16,8,128]{2,1,0} %broadcast.1189), metadata={op_type="aten__mul" op_name="aten__mul.275/aten__mul" source_file="/usr/local/lib/python3.10/site-packages/torch/_ops.py" source_line=756}
  %convert.1191 = bf16[16,8,128]{2,1,0} convert(f32[16,8,128]{2,1,0} %multiply.1190), metadata={op_type="xla__cast" op_name="xla__cast" source_file="/usr/local/lib/python3.10/site-packages/torch/_ops.py" source_line=756}
  %convert.1192 = f32[16,8,128]{2,1,0} convert(bf16[16,8,128]{2,1,0} %convert.1191), metadata={op_type="xla__cast" op_name="xla__cast" source_file="/usr/local/lib/python3.10/site-packages/torch/_ops.py" source_line=756}
  %p0.1 = bf16[128]{0} parameter(0), metadata={op_type="xla__device_data" op_name="xla__device_data" source_file="/usr/local/lib/python3.10/site-packages/torch_xla/_dynamo/dynamo_bridge.py" source_line=355}
  %convert.2 = f32[128]{0} convert(bf16[128]{0} %p0.1), metadata={op_type="xla__cast" op_name="xla__cast" source_file="/usr/local/lib/python3.10/site-packages/torch/_ops.py" source_line=756}
  %broadcast.1193 = f32[16,8,128]{2,1,0} broadcast(f32[128]{0} %convert.2), dimensions={2}, metadata={op_type="aten__mul" op_name="aten__mul.276/aten__mul" source_file="/usr/local/lib/python3.10/site-packages/torch/_ops.py" source_line=756}
  %multiply.1194 = f32[16,8,128]{2,1,0} multiply(f32[16,8,128]{2,1,0} %convert.1192, f32[16,8,128]{2,1,0} %broadcast.1193), metadata={op_type="aten__mul" op_name="aten__mul.276/aten__mul" source_file="/usr/local/lib/python3.10/site-packages/torch/_ops.py" source_line=756}
  %convert.1195 = bf16[16,8,128]{2,1,0} convert(f32[16,8,128]{2,1,0} %multiply.1194), metadata={op_type="xla__cast" op_name="xla__cast" source_file="/usr/local/lib/python3.10/site-packages/torch/_ops.py" source_line=756}
  %reshape.1196 = bf16[16,1024]{1,0} reshape(bf16[16,8,128]{2,1,0} %convert.1195), metadata={op_type="aten__view" op_name="aten__view" source_file="/usr/local/lib/python3.10/site-packages/torch/_ops.py" source_line=756}
  %reshape.1197 = bf16[16,8,128]{2,1,0} reshape(bf16[16,1024]{1,0} %reshape.1196), metadata={op_type="aten__view" op_name="aten__view" source_file="/usr/local/lib/python3.10/site-packages/torch/_ops.py" source_line=756}
  %slice.1207 = bf16[16,8,64]{2,1,0} slice(bf16[16,8,128]{2,1,0} %reshape.1197), slice={[0:16], [0:8], [0:64]}, metadata={op_type="aten__split" op_name="aten__split" source_file="/usr/local/lib/python3.10/site-packages/torch/_ops.py" source_line=756}
  %convert.1232 = f32[16,8,64]{2,1,0} convert(bf16[16,8,64]{2,1,0} %slice.1207), metadata={op_type="xla__cast" op_name="xla__cast" source_file="/usr/local/lib/python3.10/site-packages/torch/_ops.py" source_line=756}
  %p67.1201 = bf16[40960,128]{1,0} parameter(67), metadata={op_type="xla__device_data" op_name="xla__device_data" source_file="/usr/local/lib/python3.10/site-packages/torch_xla/_dynamo/dynamo_bridge.py" source_line=355}
  %p66.1200 = s32[16]{0} parameter(66), metadata={op_type="xla__device_data" op_name="xla__device_data" source_file="/usr/local/lib/python3.10/site-packages/torch_xla/_dynamo/dynamo_bridge.py" source_line=355}
  %gather.1202 = bf16[16,128]{1,0} gather(bf16[40960,128]{1,0} %p67.1201, s32[16]{0} %p66.1200), offset_dims={1}, collapsed_slice_dims={0}, start_index_map={0}, index_vector_dim=1, slice_sizes={1,128}, metadata={op_type="aten__index_select" op_name="aten__index_select" source_file="/usr/local/lib/python3.10/site-packages/torch/_ops.py" source_line=756}
  %slice.1203 = bf16[16,64]{1,0} slice(bf16[16,128]{1,0} %gather.1202), slice={[0:16], [0:64]}, metadata={op_type="aten__split" op_name="aten__split" source_file="/usr/local/lib/python3.10/site-packages/torch/_ops.py" source_line=756}
  %reshape.1214 = bf16[16,1,64]{2,1,0} reshape(bf16[16,64]{1,0} %slice.1203), metadata={op_type="aten__view" op_name="aten__view" source_file="/usr/local/lib/python3.10/site-packages/torch/_ops.py" source_line=756}
  %convert.1231 = f32[16,1,64]{2,1,0} convert(bf16[16,1,64]{2,1,0} %reshape.1214), metadata={op_type="xla__cast" op_name="xla__cast" source_file="/usr/local/lib/python3.10/site-packages/torch/_ops.py" source_line=756}
  %reshape.1233 = f32[16,64]{1,0} reshape(f32[16,1,64]{2,1,0} %convert.1231), metadata={op_type="aten__mul" op_name="aten__mul.277/aten__mul" source_file="/usr/local/lib/python3.10/site-packages/torch/_ops.py" source_line=756}
  %broadcast.1234 = f32[16,8,64]{2,1,0} broadcast(f32[16,64]{1,0} %reshape.1233), dimensions={0,2}, metadata={op_type="aten__mul" op_name="aten__mul.277/aten__mul" source_file="/usr/local/lib/python3.10/site-packages/torch/_ops.py" source_line=756}
  %multiply.1235 = f32[16,8,64]{2,1,0} multiply(f32[16,8,64]{2,1,0} %convert.1232, f32[16,8,64]{2,1,0} %broadcast.1234), metadata={op_type="aten__mul" op_name="aten__mul.277/aten__mul" source_file="/usr/local/lib/python3.10/site-packages/torch/_ops.py" source_line=756}
  %convert.1236 = bf16[16,8,64]{2,1,0} convert(f32[16,8,64]{2,1,0} %multiply.1235), metadata={op_type="xla__cast" op_name="xla__cast" source_file="/usr/local/lib/python3.10/site-packages/torch/_ops.py" source_line=756}
  %slice.1208 = bf16[16,8,64]{2,1,0} slice(bf16[16,8,128]{2,1,0} %reshape.1197), slice={[0:16], [0:8], [64:128]}, metadata={op_type="aten__split" op_name="aten__split" source_file="/usr/local/lib/python3.10/site-packages/torch/_ops.py" source_line=756}
  %convert.1226 = f32[16,8,64]{2,1,0} convert(bf16[16,8,64]{2,1,0} %slice.1208), metadata={op_type="xla__cast" op_name="xla__cast" source_file="/usr/local/lib/python3.10/site-packages/torch/_ops.py" source_line=756}
  %slice.1204 = bf16[16,64]{1,0} slice(bf16[16,128]{1,0} %gather.1202), slice={[0:16], [64:128]}, metadata={op_type="aten__split" op_name="aten__split" source_file="/usr/local/lib/python3.10/site-packages/torch/_ops.py" source_line=756}
  %reshape.1205 = bf16[16,1,64]{2,1,0} reshape(bf16[16,64]{1,0} %slice.1204), metadata={op_type="aten__view" op_name="aten__view" source_file="/usr/local/lib/python3.10/site-packages/torch/_ops.py" source_line=756}
  %convert.1225 = f32[16,1,64]{2,1,0} convert(bf16[16,1,64]{2,1,0} %reshape.1205), metadata={op_type="xla__cast" op_name="xla__cast" source_file="/usr/local/lib/python3.10/site-packages/torch/_ops.py" source_line=756}
  %reshape.1227 = f32[16,64]{1,0} reshape(f32[16,1,64]{2,1,0} %convert.1225), metadata={op_type="aten__mul" op_name="aten__mul.278/aten__mul" source_file="/usr/local/lib/python3.10/site-packages/torch/_ops.py" source_line=756}
  %broadcast.1228 = f32[16,8,64]{2,1,0} broadcast(f32[16,64]{1,0} %reshape.1227), dimensions={0,2}, metadata={op_type="aten__mul" op_name="aten__mul.278/aten__mul" source_file="/usr/local/lib/python3.10/site-packages/torch/_ops.py" source_line=756}
  %multiply.1229 = f32[16,8,64]{2,1,0} multiply(f32[16,8,64]{2,1,0} %convert.1226, f32[16,8,64]{2,1,0} %broadcast.1228), metadata={op_type="aten__mul" op_name="aten__mul.278/aten__mul" source_file="/usr/local/lib/python3.10/site-packages/torch/_ops.py" source_line=756}
  %convert.1230 = bf16[16,8,64]{2,1,0} convert(f32[16,8,64]{2,1,0} %multiply.1229), metadata={op_type="xla__cast" op_name="xla__cast" source_file="/usr/local/lib/python3.10/site-packages/torch/_ops.py" source_line=756}
  %constant.1224 = bf16[] constant(1), metadata={op_type="prim__Constant" op_name="prim__Constant" source_file="/usr/local/lib/python3.10/site-packages/torch/_ops.py" source_line=756}
  %broadcast.1237 = bf16[16,8,64]{2,1,0} broadcast(bf16[] %constant.1224), dimensions={}, metadata={op_type="aten__sub" op_name="aten__sub.279/aten__sub" source_file="/usr/local/lib/python3.10/site-packages/torch/_ops.py" source_line=756}
  %multiply.1238 = bf16[16,8,64]{2,1,0} multiply(bf16[16,8,64]{2,1,0} %convert.1230, bf16[16,8,64]{2,1,0} %broadcast.1237), metadata={op_type="aten__sub" op_name="aten__sub.279/aten__sub" source_file="/usr/local/lib/python3.10/site-packages/torch/_ops.py" source_line=756}
  %subtract.1239 = bf16[16,8,64]{2,1,0} subtract(bf16[16,8,64]{2,1,0} %convert.1236, bf16[16,8,64]{2,1,0} %multiply.1238), metadata={op_type="aten__sub" op_name="aten__sub.279/aten__sub" source_file="/usr/local/lib/python3.10/site-packages/torch/_ops.py" source_line=756}
  %convert.1216 = f32[16,8,64]{2,1,0} convert(bf16[16,8,64]{2,1,0} %slice.1208), metadata={op_type="xla__cast" op_name="xla__cast" source_file="/usr/local/lib/python3.10/site-packages/torch/_ops.py" source_line=756}
  %convert.1215 = f32[16,1,64]{2,1,0} convert(bf16[16,1,64]{2,1,0} %reshape.1214), metadata={op_type="xla__cast" op_name="xla__cast" source_file="/usr/local/lib/python3.10/site-packages/torch/_ops.py" source_line=756}
  %reshape.1217 = f32[16,64]{1,0} reshape(f32[16,1,64]{2,1,0} %convert.1215), metadata={op_type="aten__mul" op_name="aten__mul.280/aten__mul" source_file="/usr/local/lib/python3.10/site-packages/torch/_ops.py" source_line=756}
  %broadcast.1218 = f32[16,8,64]{2,1,0} broadcast(f32[16,64]{1,0} %reshape.1217), dimensions={0,2}, metadata={op_type="aten__mul" op_name="aten__mul.280/aten__mul" source_file="/usr/local/lib/python3.10/site-packages/torch/_ops.py" source_line=756}
  %multiply.1219 = f32[16,8,64]{2,1,0} multiply(f32[16,8,64]{2,1,0} %convert.1216, f32[16,8,64]{2,1,0} %broadcast.1218), metadata={op_type="aten__mul" op_name="aten__mul.280/aten__mul" source_file="/usr/local/lib/python3.10/site-packages/torch/_ops.py" source_line=756}
  %convert.1220 = bf16[16,8,64]{2,1,0} convert(f32[16,8,64]{2,1,0} %multiply.1219), metadata={op_type="xla__cast" op_name="xla__cast" source_file="/usr/local/lib/python3.10/site-packages/torch/_ops.py" source_line=756}
  %convert.1209 = f32[16,8,64]{2,1,0} convert(bf16[16,8,64]{2,1,0} %slice.1207), metadata={op_type="xla__cast" op_name="xla__cast" source_file="/usr/local/lib/python3.10/site-packages/torch/_ops.py" source_line=756}
  %convert.1206 = f32[16,1,64]{2,1,0} convert(bf16[16,1,64]{2,1,0} %reshape.1205), metadata={op_type="xla__cast" op_name="xla__cast" source_file="/usr/local/lib/python3.10/site-packages/torch/_ops.py" source_line=756}
  %reshape.1210 = f32[16,64]{1,0} reshape(f32[16,1,64]{2,1,0} %convert.1206), metadata={op_type="aten__mul" op_name="aten__mul.281/aten__mul" source_file="/usr/local/lib/python3.10/site-packages/torch/_ops.py" source_line=756}
  %broadcast.1211 = f32[16,8,64]{2,1,0} broadcast(f32[16,64]{1,0} %reshape.1210), dimensions={0,2}, metadata={op_type="aten__mul" op_name="aten__mul.281/aten__mul" source_file="/usr/local/lib/python3.10/site-packages/torch/_ops.py" source_line=756}
  %multiply.1212 = f32[16,8,64]{2,1,0} multiply(f32[16,8,64]{2,1,0} %convert.1209, f32[16,8,64]{2,1,0} %broadcast.1211), metadata={op_type="aten__mul" op_name="aten__mul.281/aten__mul" source_file="/usr/local/lib/python3.10/site-packages/torch/_ops.py" source_line=756}
  %convert.1213 = bf16[16,8,64]{2,1,0} convert(f32[16,8,64]{2,1,0} %multiply.1212), metadata={op_type="xla__cast" op_name="xla__cast" source_file="/usr/local/lib/python3.10/site-packages/torch/_ops.py" source_line=756}
  %constant.1199 = bf16[] constant(1), metadata={op_type="prim__Constant" op_name="prim__Constant" source_file="/usr/local/lib/python3.10/site-packages/torch/_ops.py" source_line=756}
  %broadcast.1221 = bf16[16,8,64]{2,1,0} broadcast(bf16[] %constant.1199), dimensions={}, metadata={op_type="aten__add" op_name="aten__add.282/aten__add" source_file="/usr/local/lib/python3.10/site-packages/torch/_ops.py" source_line=756}
  %multiply.1222 = bf16[16,8,64]{2,1,0} multiply(bf16[16,8,64]{2,1,0} %convert.1213, bf16[16,8,64]{2,1,0} %broadcast.1221), metadata={op_type="aten__add" op_name="aten__add.282/aten__add" source_file="/usr/local/lib/python3.10/site-packages/torch/_ops.py" source_line=756}
  %add.1223 = bf16[16,8,64]{2,1,0} add(bf16[16,8,64]{2,1,0} %convert.1220, bf16[16,8,64]{2,1,0} %multiply.1222), metadata={op_type="aten__add" op_name="aten__add.282/aten__add" source_file="/usr/local/lib/python3.10/site-packages/torch/_ops.py" source_line=756}
  %concatenate.1240 = bf16[16,8,128]{2,1,0} concatenate(bf16[16,8,64]{2,1,0} %subtract.1239, bf16[16,8,64]{2,1,0} %add.1223), dimensions={2}, metadata={op_type="aten__cat" op_name="aten__cat" source_file="/usr/local/lib/python3.10/site-packages/torch/_ops.py" source_line=756}
  %slice.1198 = bf16[16,8,0]{2,1,0} slice(bf16[16,8,128]{2,1,0} %reshape.1197), slice={[0:16], [0:8], [128:128]}, metadata={op_type="xla__select" op_name="xla__select" source_file="/usr/local/lib/python3.10/site-packages/torch/_ops.py" source_line=756}
  %concatenate.1241 = bf16[16,8,128]{2,1,0} concatenate(bf16[16,8,128]{2,1,0} %concatenate.1240, bf16[16,8,0]{2,1,0} %slice.1198), dimensions={2}, metadata={op_type="aten__cat" op_name="aten__cat" source_file="/usr/local/lib/python3.10/site-packages/torch/_ops.py" source_line=756}
  %reshape.1242 = bf16[16,1024]{1,0} reshape(bf16[16,8,128]{2,1,0} %concatenate.1241), metadata={op_type="aten__view" op_name="aten__view" source_file="/usr/local/lib/python3.10/site-packages/torch/_ops.py" source_line=756}
  %reshape.1243 = bf16[16,8,128]{2,1,0} reshape(bf16[16,1024]{1,0} %reshape.1242), metadata={op_type="aten__view" op_name="aten__view" source_file="/usr/local/lib/python3.10/site-packages/torch/_ops.py" source_line=756}
  %slice.1161 = bf16[16,1024]{1,0} slice(bf16[16,4096]{1,0} %dot.1158), slice={[0:16], [3072:4096]}, metadata={op_type="aten__split" op_name="aten__split" source_file="/usr/local/lib/python3.10/site-packages/torch/_ops.py" source_line=756}
  %reshape.1244 = bf16[16,8,128]{2,1,0} reshape(bf16[16,1024]{1,0} %slice.1161), metadata={op_type="aten__view" op_name="aten__view" source_file="/usr/local/lib/python3.10/site-packages/torch/_ops.py" source_line=756}
  %p68.1245 = bf16[2,4233,16,8,128]{4,3,2,1,0} parameter(68), metadata={op_type="xla__device_data" op_name="xla__device_data" source_file="/usr/local/lib/python3.10/site-packages/torch_xla/_dynamo/dynamo_bridge.py" source_line=355}
  %reshape.1246 = bf16[138706944]{0} reshape(bf16[2,4233,16,8,128]{4,3,2,1,0} %p68.1245), metadata={op_type="aten__as_strided" op_name="aten__as_strided" source_file="/usr/local/lib/python3.10/site-packages/torch/_prims_common/__init__.py" source_line=1991}
  %reshape.1247 = bf16[2,4233,16,8,128]{4,3,2,1,0} reshape(bf16[138706944]{0} %reshape.1246), metadata={op_type="aten__as_strided" op_name="aten__as_strided" source_file="/usr/local/lib/python3.10/site-packages/torch/_prims_common/__init__.py" source_line=1992}
  %reshape.1248 = bf16[138706944]{0} reshape(bf16[2,4233,16,8,128]{4,3,2,1,0} %reshape.1247), metadata={op_type="aten__as_strided" op_name="aten__as_strided" source_file="/usr/local/lib/python3.10/site-packages/torch/_higher_order_ops/auto_functionalize.py" source_line=54}
  %slice.1249 = bf16[69353472]{0} slice(bf16[138706944]{0} %reshape.1248), slice={[0:69353472]}, metadata={op_type="aten__as_strided" op_name="aten__as_strided" source_file="/usr/local/lib/python3.10/site-packages/torch/_higher_order_ops/auto_functionalize.py" source_line=54}
  %reshape.1250 = bf16[4233,16,8,128]{3,2,1,0} reshape(bf16[69353472]{0} %slice.1249), metadata={op_type="aten__as_strided" op_name="aten__as_strided" source_file="/usr/local/lib/python3.10/site-packages/torch/_higher_order_ops/auto_functionalize.py" source_line=54}
  %reshape.1251 = bf16[138706944]{0} reshape(bf16[2,4233,16,8,128]{4,3,2,1,0} %reshape.1247), metadata={op_type="aten__as_strided" op_name="aten__as_strided" source_file="/usr/local/lib/python3.10/site-packages/torch/_higher_order_ops/auto_functionalize.py" source_line=54}
  %slice.1252 = bf16[69353472]{0} slice(bf16[138706944]{0} %reshape.1251), slice={[69353472:138706944]}, metadata={op_type="aten__as_strided" op_name="aten__as_strided" source_file="/usr/local/lib/python3.10/site-packages/torch/_higher_order_ops/auto_functionalize.py" source_line=54}
  %reshape.1253 = bf16[4233,16,8,128]{3,2,1,0} reshape(bf16[69353472]{0} %slice.1252), metadata={op_type="aten__as_strided" op_name="aten__as_strided" source_file="/usr/local/lib/python3.10/site-packages/torch/_higher_order_ops/auto_functionalize.py" source_line=54}
  ROOT %tuple.1254 = (bf16[16,8,128]{2,1,0}, bf16[16,8,128]{2,1,0}, bf16[4233,16,8,128]{3,2,1,0}, bf16[4233,16,8,128]{3,2,1,0}) tuple(bf16[16,8,128]{2,1,0} %reshape.1243, bf16[16,8,128]{2,1,0} %reshape.1244, bf16[4233,16,8,128]{3,2,1,0} %reshape.1250, bf16[4233,16,8,128]{3,2,1,0} %reshape.1253)
}

